mcspace/paper/scripts/synthetic_benchmark/synthetic/helpers/base_run/Human/model.pt (torch, 142479 bytes, 31 tensors)

theta_params f4 [30, 58]
00000000: 98e7 adbd bd4e 953f 1114 1c40 c959 503e
00000010: 4559 21c0 bf93 36c0 ae1c 14c0 2f31 b43e
00000020: 6c44 1740 064b cbc0 abc0 4c3d d9e9 213e
00000030: 0183 1cbf 065b d6be d112 f0bf 13dd 9cc0
00000040: 6598 bebf 377c 33bf 97d4 91c0 d4bc 9dc0
00000050: 74a4 eabf ab40 edc0 1734 22bf 3275 0640
00000060: 7f81 bdc0 103a b7bf f56c 6d40 29dd a7c0
00000070: ea89 e7bf fcaa 0740 3392 d63f a743 0a40
00000080: e9c2 d2c0 cba3 c1c0 5aeb 98c0 0393 e43f
00000090: ac5f d7c0 1856 c1c0 e2e2 103f d664 2040
000000a0: 4e3b bfc0 d12e 96be e780 0540 ad4d c2bf
000000b0: 5773 c5c0 c98e 22bf 1985 eec0 d73b 6540
000000c0: 828c c5c0 1d93 a93f 68ff 9bc0 fa90 36bf
000000d0: 1142 3fbe 6bae f3bf 8819 bcc0 3634 18c0
000000e0: 51ac 2e3f c12f cac0 cbc9 9ec0 c5e0 62c0
000000f0: d349 7ac0 2d7e 89c0 7953 7cc0 7a1d b0c0
00000100: b75b 8ec0 a7ed acc0 aec7 5ec0 950b b3c0
00000110: 2c7e adc0 8193 89c0 fcbe 6ec0 f94b 91c0
00000120: f2d7 a2c0 142e 9fc0 ec6c 6ec0 e3f3 bec0
00000130: 6e1c 81c0 b7ae 8ec0 6971 80c0 966c 9dc0
00000140: f7ba 97c0 75fc 60c0 3571 f1c0 4e1b 82c0
00000150: 6b6a 85c0 9fb5 5d40 7a61 8dc0 86b6 87c0
00000160: 623f 1040 6208 97c0 c2df 59c0 515f bb40
00000170: 1203 89c0 b539 74c0 30b3 4fc0 96de abc0
00000180: 0b7a e5bf f87a bec0 c852 aac0 0fc4 9bc0
00000190: 9e2b 8bc0 144e 123f 1536 75c0 5f6f 62c0
000001a0: a74a bfc0 03f1 7dc0 7698 6bc0 0e71 a8c0
000001b0: ce6f 70c0 33a9 98c0 036e cac0 a3af 92c0
000001c0: b0d6 22c0 8ffc 56c0 c1fb 55c0 57d3 b9c0
000001d0: b3c9 5bbf 9239 8c3f 619a 673f b190 c13e
000001e0: 0501 75c0 aa41 ecbf 8763 fc3e f0f5 5abf
000001f0: 9811 b13e 6641 c0c0 26e6 b0bf cd51 bdbf
00000200: 2e2e a4c0 f186 a3bf 4871 8abb 2a2f 0c40
00000210: 5c6d 41c0 1a79 45bf b65d fdc0 42ca ccc0
00000220: bfa0 21bf 159f 8dc0 9f08 dbbe a527 1240
00000230: 0796 49bf a60f cebf 7d59 3ac0 2719 c2c0
00000240: fcce 143e 2f89 a83e f638 ce3e bf78 8640
00000250: 0c4a 84c0 5ff8 bbc0 20f1 243f 2541 ed3e
00000260: 867b b7c0 075f 01c0 fdf0 e13f 339d 8f3f
00000270: d13f b7bf 6f61 dc3f 7fa3 a0c0 5c14 34bf
00000280: 0cf6 2f3e 60b1 333d 9e13 ecbf 9264 6a3f
00000290: 9ab0 adc0 0c5e 56bf 205f dcc0 8878 c1bf
000002a0: 8914 ccbf bb05 b1c0 92e4 c4c0 a743 e5be
000002b0: f9d4 0a40 c925 11c0 5747 d8bf b239 1840
000002c0: daca 7dbf a851 97c0 37cf f73f 5ce0 a7c0
000002d0: 15e6 ddc0 89df 7b40 8e93 4ebe 134a a1c0
000002e0: 4c30 1ebf b3e2 2fbf 715c a93c 7cb7 aec0
000002f0: dc82 46be 743b 3ebf 2847 44bf bcec 853f
00000300: 3091 b3c0 8e45 d4c0 f623 c6c0 7aed 92c0
00000310: 0cdf 263f 7f98 2640 8513 d6c0 edc4 f93e
00000320: 1427 c4c0 68bb dfc0 2824 813b 5941 003f
00000330: a643 0a3f 1048 ae3f 6d9f 21c0 d65f a4c0
00000340: 98f2 bfbe 153c bd3f 6bbe aac0 881c 71c0
00000350: 3659 0840 5100 8d40 605d b5bf 131b d6c0
00000360: 4485 cfc0 cebb 333f fce5 b3c0 0d5a a03d
00000370: 0ecb 8bbf 71e3 2c3f ce46 45bf 8d6a 0940
00000380: c5a5 91c0 b418 31bf cd36 fac0 b759 8ac0
00000390: 1581 85c0 35b4 35bf f6ba b93f dc71 83c0
000003a0: 8da1 ba3e 89fa 2a40 1a17 d63e 1333 143f
000003b0: 7be2 37c0 3ad4 023f 74fa e7bf bc6b c03f
000003c0: 0e79 fc3f e6cc a8c0 da0f 1e3f 2a85 cfbc
000003d0: 56e3 08c0 812a 02c1 9010 b2c0 7b14 9cbf
000003e0: 1ccc 7bbf 6ac2 953f d7f2 c4bf b5c3 03c0
000003f0: ee02 e3bf 9ee2 cfbe e194 8640 7c66 8040
-0.084914386 1.1664654 2.4387248 0.2034675 -2.5210736 -2.8527677 -2.3142505 0.35193774
2.3635511 -6.352908 0.04998843 0.15811862 -0.61137396 -0.4186632 -1.8755742 -4.9019866
-1.4890257 -0.7011141 -4.557201 -4.9293003 -1.8331437 -7.414144 -0.6336073 2.100903
-5.9220576 -1.4314594 3.7097752 -5.245747 -1.8088963 2.119811 1.6763366 2.1603792
-6.5862927 -6.0512443 -4.7787294 1.7857364 -6.7304287 -6.0417595 0.56596196 2.5061545
-5.9759893 -0.29332593 2.0859926 -1.5179955 -6.1703296 -0.6349912 -7.4537473 3.5817773
-6.173402 1.324802 -4.8749275 -0.71314967 -0.18677546 -1.9037603 -5.8781166 -2.3781867
0.68231684 -6.3183293 -4.962133 -3.5449688 -3.9107559 -4.2966523 -3.9425948 -5.503598
-4.4486957 -5.4040103 -3.4809375 -5.595164 -5.421652 -4.299256 -3.7304068 -4.540524
-5.0888605 -4.974375 -3.725398 -5.9672713 -4.0347204 -4.4588275 -4.013844 -4.919505
-4.741573 -3.5154088 -7.545069 -4.065833 -4.1692405 3.4642103 -4.418149 -4.2410307
2.2538686 -4.7197733 -3.404282 5.8553853 -4.281625 -3.8160222 -3.2453117 -5.370921
-1.792787 -5.952511 -5.322605 -4.867683 -4.3490744 0.5715039 -3.831426 -3.5380476
-5.977863 -3.9678352 -3.6811805 -5.2638006 -3.756824 -4.770654 -6.325929 -4.58394
-2.5443535 -3.359165 -3.3434908 -5.8070483 -0.85854644 1.0955069 0.9046994 0.37805703
-3.8281872 -1.8457539 0.49294683 -0.8553152 0.34583735 -6.007983 -1.3820236 -1.4790589
-5.130637 -1.2775556 -0.00422493 2.1903787 -3.0222998 -0.7713791 -7.9176893 -6.3996897
-0.63135904 -4.425669 -0.42780015 2.2836697 -0.7874455 -1.6098526 -2.911712 -6.0655704
0.14532083 0.32917163 0.40277833 4.2022395 -4.134039 -5.8740687 0.6443043 0.46338764
-5.7338285 -2.021425 1.7651669 1.1219848 -1.431635 1.7217234 -5.019958 -0.70343566
0.17183703 0.04387033 -1.8443487 0.9155971 -5.427808 -0.83737254 -6.886612 -1.5114908
-1.5943767 -5.5319495 -6.1529016 -0.44778177 2.1692488 -2.2679312 -1.6896771 2.3785214
-0.9913765 -4.728718 1.9360112 -5.2461376 -6.934336 3.9355185 -0.20173475 -5.0402923
-0.61792445 -0.6870529 0.020673962 -5.459898 -0.19385856 -0.7430947 -0.76671076 1.0462871
-5.611473 -6.6334906 -6.19189 -4.591489 0.6518409 2.6030576 -6.6898828 0.48783055
-6.1297703 -6.9916267 0.0039410777 0.5009971 0.54009473 1.3615742 -2.5253556 -5.1366987
-0.37489772 1.478396 -5.3357444 -3.7673664 2.130445 4.4062886 -1.4169121 -6.690805
-6.485018 0.7020844 -5.6218243 0.07829676 -1.0921342 0.6753455 -0.77061164 2.1471283
-4.5514855 -0.6917832 -7.8191895 -4.3234515 -4.172007 -0.709781 1.4510181 -4.107649
0.36451378 2.6715415 0.418145 0.57890433 -2.8731983 0.5110508 -1.8123307 1.5032878
1.9724443 -5.275012 0.6174294 -0.025332052 -2.1388755 -8.135377 -5.564522 -1.219375
-0.9835832 1.1699955 -1.5386609 -2.05882 -1.7735269 -0.40602583 4.2056737 4.0125103

weight f4 [50, 58]
00000000: 4ebe 6c3d 4da2 d2bd 1511 00be 7b45 3fbd
00000010: 3bb5 023e 5036 4b3e caea cf3d 118b 9abd
00000020: 7f9c 35be f984 11bd fa09 66bd 3e98 1b3e
00000030: 466f 093e c729 8cbd 96e1 8e3d ae04 9c3d
00000040: b4e7 383e 27cd 18bd 6de8 e13d fdf9 873e
00000050: e219 ed3d 3458 333e d9b2 143c 32b7 84be
00000060: 7c1a 9d3d f8d4 c73d 3164 febd 2179 95bd
00000070: 3e8b b63c 4025 18be 6f72 4bbe 8905 73be
00000080: 8f32 8d3d ae27 753e 9547 513d 2923 b4bd
00000090: c195 333e b484 ca3c 3996 00be 4c2d 63be
000000a0: 55df 833d ebc5 993d a675 233e 84bd 9f3b
000000b0: 4c6b ac3d a6cf 10bd d364 2b3e 0fe9 a5bc
000000c0: 5241 603e 03b7 af3d f355 7e3e 4656 103d
000000d0: 188e 0b3e 44f6 923b 695f 9e3d 93e5 04bd
000000e0: bec0 9fbd 32d9 453e 2d10 a33c bb34 90bd
000000f0: 43df dabb a5d1 c7bd 18c8 e13d 9393 233e
00000100: 0be8 3b3e 180a 003d 7132 26be f840 82bc
00000110: 05ee 25bd a9be 523e 3487 2a3e 1861 583d
00000120: d6d1 153e 94a5 c4bb aeba eb3d 56b7 d1bc
00000130: ca23 c2bb aa1e 7d3e 1ecd 423e 681e b1bb
00000140: d84e 43bd 55ed 09be 6818 d13d bdb0 1e3d
00000150: b0dc 8d3c da9a aabd a3d7 d23d ffed d9bb
00000160: 58e2 99bc ec01 80bd b8e3 87bc 6826 f83c
00000170: 20f3 923d 3955 bbbd 545d e83c 824e d33b
00000180: 43c8 8c3c 532d b5bb 23aa 6d3d d3f7 813d
00000190: be4f a2bc 46cf 8f3d 285a 6e3c ccbe 90bc
000001a0: 20d6 953d 4d22 a3bd ad32 9a3d ceaa c73d
000001b0: 6002 403d ecd2 263e d18f 2b3e 8de4 a7bc
000001c0: 8204 c53d f252 993d 5e28 91bd 0302 0c3e
000001d0: 8ce9 db3d 001f b0bd d31e edbd 6c78 0bbd
000001e0: bd14 c0bc b13a 1e3d 1d8c 803d 7e35 dabd
000001f0: d4c2 c8bd 8e65 acbd c3fe 26bd 7d43 f53d
00000200: 6beb 2abc 40a6 32bd 423b 473e 2cb4 863d
00000210: a2df cc3d 1800 22bd f8b2 df3d 399c 4f3e
00000220: 7939 483e fabc 443e e043 553d 3b8c e4bd
00000230: c432 bcbb f434 c23c 9309 8cbd 0fc3 f2bd
00000240: f2eb 93bb 13d2 10be 0166 4cbe 9e97 46be
00000250: 3420 833d 77c0 223e e34b 1c3d 3471 5abe
00000260: 163e 4e3e 2236 11bd 797a fdbd c8b1 00be
00000270: 591f a23d 2299 7a3d 1913 09bd cf7d 2ebd
00000280: 9c38 983d 3629 68bd a0ac a43c fd82 2abd
00000290: 9f45 c939 f0da 183d e719 683e 3491 b03b
000002a0: f7e8 363e 8951 9a3d 0b18 38ba 5a8b fd3c
000002b0: eb62 dabd e1d1 223d 8161 363e a8fb 51be
000002c0: 19e0 72bd 5415 01be 1d4e 3c3e 9535 223e
000002d0: 0441 263e 4d66 fbbc e62e a7bd 5acc 20bc
000002e0: f704 4fbc e64d 2a3e c2e2 0e3e 810d 01bc
000002f0: d6c1 a63c ab7f c03d f37e 313c 2d99 0b3c
00000300: d508 e43c 6916 2d3e 210f d33c 9be2 f03d
00000310: ca6c 63bd 09de d0bc c5bd b23c 7a3d 9f3b
00000320: 2616 94bc 12ed 15bd 5452 143d 4df3 093d
00000330: 407b 6cbd 9ae9 a0bd 0696 d03d 7623 993d
00000340: 9126 623d 7736 07be 8b00 fc3d febf 693d
00000350: dd69 47be 664d 15be ed15 5a3e 5c37 78bb
00000360: f5e8 a13d ecc8 b83d 6fd3 1b3e 35e3 70bc
00000370: 58c0 abbc e3d9 0dbd ed3f f23c 5cd0 5f3d
00000380: 14ee 983d e6b6 833d 5ba2 b33d adf0 143e
00000390: 6f85 103e 92f2 2f3d 9b2a 4cbc f2ec b83c
000003a0: 12d1 ff3d f8cd 7dbe c361 17be ab38 0fbe
000003b0: d60f 463e 12d3 9c3e 4f52 fe3d 60a7 afbd
000003c0: b01e 59bd 9e01 94bd 0ff6 1cbd 3608 a53d
000003d0: a52c e13d 7304 8abd cf1b f73d 6a62 1a3e
000003e0: f467 763e a4fa 71bd b544 b83d 4f93 2b3e
000003f0: 6e9c 653d c1d8 863e aad5 93bd 30e8 83be
0.057798676 -0.10284863 -0.12506516 -0.04669712 0.12764446 0.19844937 0.10152204 -0.07546056
-0.1773548 -0.035527203 -0.05616186 0.15194795 0.13421354 -0.06843906 0.06976621 0.0761808
0.18057138 -0.037305024 0.1103066 0.26557913 0.115772024 0.17514116 0.009075844 -0.25921017
0.07671067 0.097574174 -0.12421454 -0.07298494 0.022283193 -0.1485796 -0.19867872 -0.2373258
0.06894409 0.23940918 0.051093657 -0.08795769 0.17537595 0.02472148 -0.12557305 -0.22185248
0.064390816 0.07508453 0.15962848 0.004874887 0.08418903 -0.03535428 0.1673768 -0.020252733
0.21899918 0.085798286 0.24837475 0.035238527 0.13628423 0.0044849236 0.07733042 -0.0324455
-0.078004345 0.19321135 0.019905174 -0.070413075 -0.006679447 -0.097567834 0.11024493 0.15974264
0.18350236 0.031259626 -0.1623018 -0.01590012 -0.040510196 0.20580544 0.16653138 0.05282697
0.14630827 -0.0060011838 0.11510216 -0.025600117 -0.0059246765 0.24718729 0.19023558 -0.005405236
-0.047682613 -0.13469441 0.10209733 0.03874277 0.017317146 -0.08330317 0.10295036 -0.006650686
-0.018784687 -0.062503666 -0.016588077 0.030291751 0.07175279 -0.09147114 0.028364815 0.006448568
0.017185336 -0.0055290847 0.058023583 0.06346097 -0.019813415 0.07021956 0.014547862 -0.017669104
0.07316232 -0.07965527 0.07529197 0.09749375 0.046877265 0.16291398 0.1675408 -0.020494724
0.096200004 0.07486524 -0.070877776 0.13672642 0.10737905 -0.08599663 -0.11578145 -0.03405039
-0.023447389 0.03863019 0.062767245 -0.10654734 -0.098027855 -0.084178075 -0.040770303 0.11975763
-0.010432105 -0.04361558 0.19456199 0.06577334 0.10003592 -0.03955087 0.109228075 0.20274438
0.19553174 0.19212714 0.052066684 -0.11159559 -0.0057433564 0.02370689 -0.06837764 -0.11853611
-0.004514211 -0.14142637 -0.19960786 -0.19393775 0.06402627 0.15893732 0.03815831 -0.21332246
0.20140871 -0.035452016 -0.123768754 -0.12567818 0.07916135 0.061181195 -0.03346548 -0.04260045
0.074326724 -0.056679927 0.020101845 -0.041628826 0.0003838958 0.03731817 0.22666131 0.0053884033
0.17862307 0.07535083 -0.00070226257 0.030950237 -0.10663398 0.039750937 0.17810632 -0.20506155
-0.059295747 -0.12605792 0.18389173 0.15840752 0.16235739 -0.03068843 -0.08163242 -0.009814346
-0.012635461 0.16631278 0.13953689 -0.007876755 0.0203561 0.09399351 0.01083349 0.008520407
0.027836243 0.1690308 0.02576405 0.117619716 -0.05552367 -0.0254965 0.021819005 0.0048596235
-0.018076967 -0.03660304 0.036211327 0.033679295 -0.057734728 -0.07857056 0.10184865 0.07477467
0.05521256 -0.1320437 0.12304791 0.057067864 -0.19473977 -0.14580306 0.21297427 -0.0037874794
0.07905761 0.09022698 0.15217374 -0.014702608 -0.02096574 -0.03463162 0.029571498 0.054642066
0.07467285 0.064313695 0.08771201 0.14544936 0.14113401 0.042955942 -0.01246133 0.022573922
0.12491049 -0.24785602 -0.14783387 -0.13986461 0.19341978 0.30629784 0.12418043 -0.08576846
-0.05300778 -0.07226871 -0.038320597 0.08058207 0.109948434 -0.0673913 0.12065851 0.15076604
0.24063092 -0.05907692 0.0899748 0.16755413 0.056057386 0.26337245 -0.072184876 -0.25763083

bias f4 [50]
00000000: b80c 2fbe a47b 3ebe 3e60 eebd b4d6 74be
00000010: 0b4f 82be 78eb 80be e0d0 f9bd e8eb 98be
00000020: 0ed0 11be cb8f 7abe 1101 b5bd 7d19 e53a
00000030: a64c 3dbe 9b03 11be fbfa 45be 8a2b f3bd
00000040: a113 1dbd c855 7fbe 8ec6 3fbd 2060 72be
00000050: 68cb 10be d7c9 4bbe 0195 39be 2ea3 00be
00000060: 674a 70bd 7fd0 4abe 7990 2abe c756 b6be
00000070: f20e 09bd 1e08 1dbe 0259 49be d824 54be
00000080: c597 04be d4f2 40be 42ae 08bd 5169 23be
00000090: d1e2 84be 4a64 cabd 2385 35be fc97 2abe
000000a0: bcbc 89be f8ba 12be b432 88bd 42e2 2e39
000000b0: 274a e8bd fb2e 1abe e02d 52be 621f 02be
000000c0: ed8c be3d 5dd1 34be
-0.17094696 -0.18601853 -0.116394505 -0.23910028 -0.2545093 -0.25179648 -0.12198043 -0.29867482
-0.14239523 -0.24468915 -0.08838094 0.001747891 -0.1848627 -0.14161532 -0.19334023 -0.11873539
-0.038348798 -0.24935067 -0.046820216 -0.23669481 -0.14140093 -0.19901215 -0.18123247 -0.12562248
-0.058664706 -0.19806097 -0.16656674 -0.3561308 -0.03346152 -0.15335128 -0.1966286 -0.2071718
-0.1294852 -0.18842632 -0.03336931 -0.15958144 -0.25954297 -0.0988241 -0.17726569 -0.1665954
-0.26901805 -0.14329135 -0.06650296 0.0001667822 -0.113422684 -0.15056984 -0.20525312 -0.12707284
0.09304223 -0.17657991

weight f4 [50, 50]
00000000: 2707 e33c 4890 bfbc b6d1 9fbd 9671 04be
00000010: 0be4 4bbd 8a1f 41be d695 4dbc a0c9 17be
00000020: ad3d 48bd 5b7a 2abe a445 02bd 68be e2bb
00000030: a204 ecbb 426b 87bd 33ec 0cbd 2dfb 6cbd
00000040: 3868 e0bb d539 333b bf94 42be 2c82 7ebd
00000050: 034d f2bd 6259 e9bd 9af3 e1bb 8328 bfbd
00000060: bf11 80bd f503 f5bb aa6d 58ba 3ed6 85bc
00000070: 1433 afbd dcfb 1bbe cf77 2dbe d3ff 21bd
00000080: de94 90bd 50f8 15be fb99 0bbd e5cf 363d
00000090: 0da9 bfbc 6efb b6bd 0699 b5bd c08e 36be
000000a0: 9f01 d2bc 31d0 2ebe fbb7 283c f5dd 11be
000000b0: 7de2 fdbd 75ce 34be 9ee4 ffbd 195f 8fbd
000000c0: 5344 05be 23be 01bb 9094 4dbd 054a 79be
000000d0: ff65 fabd 9142 94bd 0701 203d 73ef 1ebe
000000e0: 4d80 7bbd f980 fabd 0587 18be 8e00 b7bc
000000f0: f9e6 6cbe 5179 80bd 68b7 51bc 4544 e1bd
00000100: 93b3 eabd 57d2 61bc f152 b2bd 4289 1bbd
00000110: dc3e 8fbd c3a2 1bbe f738 c7bd 42ae 07be
00000120: ff4a b0bc c9ce 0cbe 0a85 77bd ba6c 1ebe
00000130: c7ae 1abd 7b56 b7bd b0a7 4cbc 0444 0abe
00000140: 6eeb 2bbe 5287 bebd a7f9 30be 2362 37be
00000150: e9df a1bd 0ef7 1abe cbfb 28be 6666 e6bd
00000160: 1b8c f7bd 0851 2ebe 8298 10be 10de 0bbe
00000170: 3a53 c1ba 450d fcbd 3833 38be 1ea9 3cbe
00000180: 8239 02be 2d08 32bd b6db 2abe 28d4 80bd
00000190: e724 8abb f8a4 bbbd ee40 9abd 6830 0fbd
000001a0: 2e08 0dbe 5d44 9cbd 59e9 62bd 6c06 30be
000001b0: 386c b2bd be3f 24be a013 6bbe 9249 d4bd
000001c0: 512c 8dbd 2abc 1bbe 46de 02be 96ca f2bd
000001d0: f791 d6bd 9772 55bc 2e46 163c 39f7 43bb
000001e0: 64da 73be e000 16be e0f7 aabd 154c 16be
000001f0: 667a 8bbd 5053 23be 01bb a5bd 36e4 9fbc
00000200: b66e a9bd a941 963a 8b2d dcbd d882 babd
00000210: c4bb 44bd 6a4c c9bd 2d9b 74be 17fc c73c
00000220: 27e0 24be fe74 cc3a 00f0 17bd 6ec4 d7bd
00000230: ac42 49be 2811 d5bd b48e 19be e8c3 1bbe
00000240: 49a8 38be 49da 573c baf2 7dbe 2ce6 10be
00000250: 5ff4 3abe 6fac 1fbe d5ca 033d fe1a 14be
00000260: c326 3ebe 7b75 3f3c 2c69 94bc a161 b03b
00000270: ffd2 3cbe d463 20be 3d6a ebbd 2f06 97bd
00000280: 8859 54bd ac29 47be e460 1fbe a5dc 97bd
00000290: a759 e7bc ccb3 0dbe a828 ed3c 52c9 0dbe
000002a0: 70e3 0abe b623 23be 316d 733c 2c42 21be
000002b0: 4d8b 33bd 6fa3 b2bd 382c 7c3d 476e 37bd
000002c0: 9f3e 38be ae1d d5bc ddc2 babd 4f42 4ebe
000002d0: e223 8cbc fa7f 453b 8f3a eabc f12d 33bd
000002e0: 55a3 1bbe 1fd8 ecbc a605 17be 4cdc 493d
000002f0: c109 2f3d bce1 c0ba 0f79 d0bd 812f 3fbe
00000300: 38ae 1dbe e36f 03bd bb28 6abe c0ef 5bbe
00000310: 13f1 b0bd 4159 21bd 7a32 9ebe 298d 78be
00000320: 76a5 c3bd 10a3 1cbe 92f8 9dbb c238 75bd
00000330: db89 4cbe 54a6 4ebe 678e 3abd 8d07 e5bd
00000340: c602 15be 8455 51bd 3e6f 2abe 75cf c8bd
00000350: 5c96 fabd 5ec6 edbd 9b12 8ebe 2d8e 73bd
00000360: 8464 63be 3326 bebd 4f88 9cbd 3c81 29be
00000370: e92f 06bd 287f 3fbe a30f cabd f67d 25bd
00000380: 50d2 cbbc 9d4c 60be 9195 abbd 30af babb
00000390: 774c 49be 8e01 93bd 1520 89bd 779f a8bc
000003a0: 0e6d dbbd 822e 11bd 0393 58be e07e fcbd
000003b0: 49d9 8bbd 6392 50be 63f2 b23b a968 793c
000003c0: 9aef 15bc cc7f 14ba fb2f 0ebe 0fbe 25be
000003d0: ac74 ebbd 3a9c 30be 399f 26be 4acc 30be
000003e0: eb76 7bbe 1d20 9abe e2d9 78be e74c 45be
000003f0: 61bc 42be 8e1d 9bbe cefc e2bd ebfb 57bd
0.027713371 -0.023384228 -0.07803671 -0.12933955 -0.049778026 -0.18859687 -0.012547931 -0.14823008
-0.048886944 -0.16648237 -0.031804696 -0.006919671 -0.0072027007 -0.06612255 -0.034404945 -0.057856727
-0.0068483613 0.0027347703 -0.19002055 -0.06213586 -0.11831095 -0.113940015 -0.0068954946 -0.09333899
-0.06253385 -0.0074772784 -0.00082560873 -0.01633751 -0.08554664 -0.15232795 -0.16940235 -0.039550614
-0.07059644 -0.14645505 -0.034082394 0.044631857 -0.02339604 -0.08934675 -0.088670775 -0.17827892
-0.025635539 -0.17071606 0.010297771 -0.14244826 -0.12396715 -0.17656882 -0.12494777 -0.0700056
-0.13014345 -0.0019797168 -0.05019051 -0.24344642 -0.122264855 -0.07239259 0.03906348 -0.1552103
-0.061401654 -0.12231631 -0.14895256 -0.022339132 -0.23134984 -0.06273139 -0.012800075 -0.109993495
-0.11460032 -0.013783059 -0.08707226 -0.037972696 -0.06994411 -0.15198807 -0.09727662 -0.13250068
-0.021520136 -0.13750757 -0.06042961 -0.15471163 -0.037764337 -0.08952042 -0.012491152 -0.13502508
-0.16789028 -0.09303154 -0.17282735 -0.1790853 -0.079040356 -0.15133306 -0.16502301 -0.1125
-0.1208727 -0.17023098 -0.14120677 -0.13658929 -0.0014749535 -0.123072185 -0.17988288 -0.18423888
-0.1271725 -0.04346483 -0.16685376 -0.062904656 -0.004215825 -0.09162325 -0.075319156 -0.034958273
-0.13772652 -0.07630227 -0.05539832 -0.1718995 -0.08712047 -0.1603994 -0.22956705 -0.10365595
-0.06893218 -0.15208498 -0.12780103 -0.118550465 -0.10477059 -0.013027809 0.009172006 -0.0029901995
-0.23813778 -0.14648771 -0.0834806 -0.1467746 -0.06810455 -0.1594975 -0.08092309 -0.019518
-0.082730696 0.001146366 -0.10750874 -0.09106988 -0.04803063 -0.09829028 -0.2388732 0.024412198
-0.16101132 0.0015598831 -0.037094116 -0.10535513 -0.1965434 -0.10403663 -0.14995843 -0.15211451
-0.18032946 0.013174602 -0.24799624 -0.14150304 -0.18257283 -0.15593122 0.032175858 -0.14463422
-0.18569474 0.011685724 -0.018116556 0.005382732 -0.18439864 -0.15663081 -0.11494873 -0.07374226
-0.051843196 -0.1944949 -0.15564305 -0.074151315 -0.028240992 -0.13838118 0.02895005 -0.13846329
-0.13563323 -0.15931591 0.014857576 -0.15747899 -0.04383402 -0.08722579 0.061565608 -0.044782903
-0.17992638 -0.026015129 -0.091191985 -0.20142482 -0.017106954 0.0030136094 -0.028592376 -0.043744985
-0.15199025 -0.028911648 -0.14748248 0.049282357 0.04273391 -0.0014715712 -0.1017934 -0.18670465
-0.1539849 -0.032089125 -0.228671 -0.21478176 -0.08639731 -0.03939176 -0.30897886 -0.24272598
-0.095530435 -0.15296578 -0.0048208917 -0.05986858 -0.19974463 -0.20180637 -0.04554596 -0.11183081
-0.14551839 -0.051106945 -0.16643998 -0.09805194 -0.1223571 -0.11610101 -0.2774857 -0.05946176
-0.22206312 -0.0928463 -0.07643186 -0.16553205 -0.032760534 -0.1870085 -0.09866264 -0.04040333
-0.024880558 -0.21904226 -0.08378137 -0.0056971535 -0.19658075 -0.07178031 -0.06695572 -0.020583851
-0.1071416 -0.035444744 -0.2114983 -0.12328887 -0.06828553 -0.20368342 0.0054610237 0.015222707
-0.009151364 -0.0005664795 -0.1388549 -0.16185783 -0.11496863 -0.17247096 -0.16271676 -0.1726543
-0.24557082 -0.30102625 -0.24301866 -0.19267617 -0.19017173 -0.30295986 -0.11083375 -0.052730482

bias f4 [50]
00000000: 8bc3 6abd 5275 90be 80a5 85be 9d5d a3be
00000010: c44a cebe f7f6 5ebe f79d 82be 1b3e 9fbe
00000020: 0e9f c8be c417 aebe 8eb8 98be 2670 c7be
00000030: 644f ccbe 2bb0 bdbe 82ba b1be 8765 73be
00000040: be99 ecbc f03b 59be a5ad 56be cad2 04be
00000050: 73de 6abe 9f80 87be 578a e3bd 86b3 8cbe
00000060: f213 39be a852 ecbe 1476 bdbe 731b 80be
00000070: b696 8bbe 0e83 c1be 0950 99bd d04f c4be
00000080: 2690 bbbe ebc3 23be e1e7 8ebe 5e1e 89be
00000090: 1085 b1be de72 9abe 9a63 51be 2aa2 cdbe
000000a0: 5df6 47be 7cde 9cbe b5e1 55be f9e0 8dbe
000000b0: 0d24 4bbe 3eb2 91be 5ba1 9dbe dadd 0cbe
000000c0: e7c0 48be 8ff7 a5be
-0.05731539 -0.28214508 -0.2610283 -0.3190736 -0.40291417 -0.21773897 -0.25511143 -0.3110207
-0.3918385 -0.34002507 -0.29828304 -0.3895275 -0.3990432 -0.37048468 -0.34712607 -0.23769198
-0.028881904 -0.2121427 -0.20964678 -0.12971035 -0.2293642 -0.26465318 -0.111103706 -0.27480716
-0.18074015 -0.46156812 -0.3700415 -0.25020942 -0.2726342 -0.377953 -0.074859686 -0.38342142
-0.36633414 -0.15992706 -0.27911285 -0.2678098 -0.3467183 -0.30165762 -0.20448151 -0.40162784
-0.19527574 -0.30638492 -0.20886882 -0.27710703 -0.19837971 -0.284563 -0.30787167 -0.13756505
-0.19604836 -0.32415435

weight f4 [30, 50]
00000000: a03d 4cbd 51c8 403d 11f1 61bd d6b1 6e3d
00000010: 3060 debc 83f5 80bc 58e8 8c3c d7f3 ca3d
00000020: 1867 82bc d69b 3dbc be84 ca3d 717d 99bd
00000030: 3a8e d23c 30d5 9bbd e376 c6bd a734 4dba
00000040: 1fb8 83b9 f3a3 a23d 0207 cebd 504e 53bc
00000050: 00ff 0c3d a4b3 5c3d 7d64 543d 438d a0bd
00000060: b1f5 8fbb 84cc 1d3d 2c36 a4bd f051 833d
00000070: b499 69bd 34d0 8f3d e3df 12bd 8874 c6bc
00000080: b7f1 8f3d 3e6f b23d d295 023e a949 ad3d
00000090: 3e55 8cbd b86c 983c 8788 793d 29a7 fa3c
000000a0: 8d86 423d ea44 48bd ebf6 ba3d 7dd0 46bc
000000b0: a939 97bd fb44 843c 3cbd ae3d 5ca2 0abd
000000c0: 6624 45bc 1070 21bd d88a 95be 1989 36be
000000d0: 9e8f a8bd b83f 20be fd60 1dbe 6bc6 8bbd
000000e0: b405 1cbe 8708 40be e7c4 96bd aaf2 41be
000000f0: ac37 c83c dce9 0ebe 9839 dfbd c072 ddbd
00000100: 0e39 9cbb fd80 09bb 2dab 3ebe ec67 fabd
00000110: 7126 afbe 5fbd b0bd c601 37be 8398 26bd
00000120: 2a6d 8ebe af81 e5bd c8be 88bc 6945 8939
00000130: 876e 1d3c 053a ccbd 88ab e5bd 4368 b6bd
00000140: fad1 a7be e85e 3bbd e639 aebc 46f9 24be
00000150: a2b2 ebbd 2fe4 0abe 7dd2 d2bd 6200 68be
00000160: e8b0 febd e305 edbc 8857 d8bd db8a 2cbe
00000170: 18bc 45bd 6faf e6bd f676 57be b4f2 ee3a
00000180: 1c66 80be 53d6 63be cd04 23be 399b 7bbe
00000190: 3f78 2d3d 4ff6 a43d 8fed be3d 5b26 bc3d
000001a0: c202 e33d cc18 01bd 8946 2ebd 8e3c 923c
000001b0: 0815 06bc 8231 233b d7df d03d 05a1 56bb
000001c0: 9f79 8bbc 34cc b73d 6d2d 12bd 6194 783d
000001d0: c9b7 353d c014 aa3d 0a1e de3d d73d ebbc
000001e0: e10c 973d 6f38 9b3b 0058 d83d 4765 043e
000001f0: badc a3bc d137 c73d ff73 da3d c612 153e
00000200: 5ae0 e63d b22a 793d 437b ae3d 1f12 8c3d
00000210: 6960 a9bb 3106 c53c fb5d 3f3d 797a 5d3a
00000220: ae12 313d 5d19 cd3c deb1 763c f910 063d
00000230: 25cf cabc 3f28 1e3e c2f3 e13d 0a69 dd3d
00000240: ff78 2bbd e464 1cbd 87f5 f03d 2cd3 dc3c
00000250: 2ab2 573d 3af0 d03d ef9f 233d 46d3 173d
00000260: 9dae b63d a10f c33d be83 0b3d 51d6 9ebd
00000270: f22b 7ebc 4bfe c53d 65ed 683d 65a6 073e
00000280: 984b a03c bc39 88bd 5099 463d 8a40 653c
00000290: 6aed dabc b06a da3d 7a14 843d 2383 633d
000002a0: 9cbb de3d 4404 dd3d f9ea b0bc 2aee 3cbd
000002b0: db91 163c 9a3e 17bd a6a6 b9ba ddcd d23d
000002c0: c38d 07bd 5bc8 113e 37ed 923d 867c 2d3d
000002d0: 00a6 943d d1d0 8c3d 90b0 ad3d 8f73 26bd
000002e0: ba3c 4d3d 95a9 fa3d f582 f23d eea8 e43c
000002f0: 432d b0bc 4370 ce3d 4cda 9bbc be50 123e
00000300: 06b8 cc3d b86d 8a3d 41a7 343d d74a e23d
00000310: d8fa 663c abdf d7bc 830b c6bc f967 e43d
00000320: 06f9 a939 4450 84bc fbf0 9b3d 2b0e 83bc
00000330: fc58 293d 67cd 83bd 32c5 383d ce80 213c
00000340: edcb 233d 06b9 9e3d 4215 96bd 6535 dabc
00000350: 5166 f7bc 7f19 cf3d c0f0 ecbb 06db bd3d
00000360: a61d 6c3d 3459 6fbd 0965 703c 22bf c93b
00000370: 3587 84bd be7c 973d af3e a23d b931 bd3c
00000380: 586c 0d3d 45d2 673d 0156 983d cee1 be3c
00000390: 29f6 8c3a f02d 01bd d85f 5c3d a03f e53d
000003a0: 3d15 973b aad8 d03d 5533 853d 2495 f3bc
000003b0: a13a 843d 195e 033d 63c0 55bc 2ce3 b4b9
000003c0: 606a 423c 2bb3 963d 1588 ee3d bd43 583c
000003d0: ffde bf3d f85e b73d 6d91 28bd 1ebc 823d
000003e0: 0515 753c 191d ea3d 4585 8a3d f572 52bd
000003f0: 3951 96bd 8440 a8bb 26f9 3b3d 259c 82bc
-0.049863458 0.047066037 -0.05516154 0.058275066 -0.027145475 -0.01574207 0.017200634 0.0990979
-0.0159183 -0.011572799 0.098886 -0.07494629 0.025702585 -0.07609022 -0.096906446 -0.0007827975
-0.00025123448 0.07941427 -0.100599304 -0.012897089 0.034422874 0.053882256 0.051853646 -0.078394435
-0.0043933024 0.03852512 -0.08018145 0.06412113 -0.05703135 0.070221335 -0.035858046 -0.024225488
0.07028525 0.08712624 0.12752464 0.08461315 -0.06852196 0.018606529 0.06092122 0.030597286
0.0474916 -0.048893847 0.09129127 -0.012134668 -0.07384045 0.016146174 0.08532187 -0.033846244
-0.012032604 -0.03941351 -0.29207492 -0.17825736 -0.08230518 -0.15649307 -0.1536903 -0.068249546
-0.1523655 -0.18753253 -0.07361775 -0.18940225 0.024440609 -0.13956398 -0.10899657 -0.108129025
-0.0047675436 -0.0020981424 -0.18619986 -0.12226853 -0.34209016 -0.0862987 -0.1787177 -0.04067279
-0.2781766 -0.11206376 -0.016692534 0.0002618239 0.009608871 -0.09972004 -0.112143576 -0.08906605
-0.32777387 -0.045744807 -0.021267843 -0.16110715 -0.11508681 -0.13563608 -0.10294054 -0.22656396
-0.12436086 -0.028933471 -0.1056357 -0.16849844 -0.048275083 -0.1126393 -0.21041474 0.001823029
-0.25077903 -0.22249727 -0.159198 -0.24570931 0.042351004 0.08054792 0.093226545 0.09187003
0.110845104 -0.03151779 -0.042547736 0.01785114 -0.008183725 0.0024901335 0.10198944 -0.0032749784
-0.017025767 0.089744955 -0.035687853 0.06068838 0.044364724 0.08304739 0.10845573 -0.028716011
0.07375503 0.004736952 0.1056366 0.12929259 -0.020002712 0.09727443 0.10666656 0.14557943
0.112732604 0.060831733 0.08519604 0.06839394 -0.0051689637 0.024050804 0.046720486 0.0008448731
0.043230705 0.025036508 0.015057055 0.03273103 -0.024756977 0.1544504 0.11032821 0.1081105
-0.041863438 -0.038182154 0.117655806 0.026956163 0.052660145 0.102020696 0.039947446 0.03706672
0.089200236 0.09524465 0.034061186 -0.07755721 -0.015513407 0.09667643 0.056867022 0.13247068
0.019567296 -0.06651637 0.048486054 0.013992438 -0.026724536 0.1066488 0.06449218 0.055544984
0.108756274 0.10791829 -0.021596419 -0.04612557 0.009190048 -0.036924936 -0.0014164045 0.102931716
-0.03309418 0.14236586 0.071741514 0.042355083 0.072582245 0.06875766 0.08480942 -0.04063755
0.05010674 0.122393765 0.11841384 0.027912583 -0.021505957 0.10080006 -0.01902499 0.14288613
0.09996037 0.067592084 0.04410482 0.11049431 0.014097892 -0.02635177 -0.024175411 0.11152644
0.0003241973 -0.016151555 0.07614323 -0.015997967 0.041344628 -0.06435662 0.045109935 0.00985737
0.0399894 0.07750134 -0.07328273 -0.026636789 -0.030200155 0.10112285 -0.007230848 0.09270291
0.057645462 -0.05843468 0.014672526 0.006156818 -0.06471101 0.073968396 0.07922112 0.023094999
0.034527153 0.056597013 0.07438279 0.023301031 0.0010754514 -0.03153795 0.05380234 0.11193776
0.004610686 0.101975754 0.065039314 -0.029734202 0.06456495 0.03207216 -0.013046357 -0.00034501532
0.011866182 0.07358392 0.11647049 0.013199744 0.09368705 0.08953661 -0.041154314 0.06383537
0.014958625 0.11431331 0.067637004 -0.051379163 -0.07339711 -0.005134644 0.045891903 -0.015943596

bias f4 [30]
00000000: 91b3 3abc 3c38 dcbe 4c5f 503e 6c04 1e3e
00000010: b000 583d 0c82 1ebd 84d3 143b d0b7 463d
00000020: 9d74 b1bd a1ac d83d 84b6 e1bc 2539 353d
00000030: 5a95 b33b 1cc3 8c3d e6b3 e3bc 0699 02be
00000040: ea52 4f3d 0bd1 6a3e 5983 143e 2534 863d
00000050: 9d34 91be 83a8 85bd cb62 98be a497 3b3e
00000060: 096e 873c 0bde ab3c 627e 153e 38e5 2bbe
00000070: 1bdf 943e 9187 00bd
-0.011395351 -0.43011653 0.20348853 0.15431374 0.05273503 -0.03869824 0.002270908 0.04851514
-0.0866482 0.10579801 -0.02755285 0.04424395 0.0054804506 0.06873152 -0.027795743 -0.12753686
0.050616182 0.22931306 0.1450323 0.065529145 -0.28360453 -0.06526282 -0.29762873 0.18319565
0.016531961 0.020979902 0.14598992 -0.16786659 0.29076466 -0.031379286

weight f4 [30, 50]
00000000: c3e1 01bf 37b5 b4be 44fa 82be e640 89be
00000010: fe89 a1be bbc6 d7be 9184 33be 385a 94be
00000020: f029 70be 8ab8 61be 8560 62be 9f11 b3be
00000030: 5640 6abe c820 6fbe 8f33 8ebe db2f d4be
00000040: 81d4 b8be 349c d1be ac5c abbe 99bd d1be
00000050: 45f0 a4be 9a46 bbbe 5b73 e6be 193d bcbe
00000060: d94a 70be e998 73be 357c 92be 6ce1 e6be
00000070: 4491 d3be 0b64 79be 8baf 16bf 14db dbbe
00000080: 56d7 c0be d0fb b9be 59fc b9be 0a3e 84be
00000090: da07 a0be 8afb 5fbe 56a2 f7be e5cb c2be
000000a0: aae4 9fbe 990e 59be a57a b0be 5ada 94be
000000b0: c5ee c0be 27a0 c3be 8578 8dbe 2c60 a6be
000000c0: 2eb8 cebe 4023 c0be 22b8 09be f9a1 48be
000000d0: 1558 62be 892a 6dbe 6629 8bbe e5a1 c9bc
000000e0: 77c3 ccbd 86ef 82be a3bf f2bd f7ad 90bd
000000f0: 5f35 edbd 37d8 6cbe d49c a2be a3fe 35be
00000100: 468d 4ebe f30b 21be 5c5d c3be c7e5 2dbe
00000110: c912 bdbe 4a91 6ebe 07ff 4fbe e6af 62be
00000120: a11d 65be ad6e 64be e27f 6dbe 321a f7bd
00000130: 69a6 a3bd 077d 85be d7c5 12be 718d 03be
00000140: e2f9 86be 4d29 15be b57f 7bbb 8665 90be
00000150: a413 96bd bbc3 91be 02c1 11be 8719 8abe
00000160: 040f 75be aad8 a1bd cf46 d2bd 1898 26be
00000170: 6d72 56be b2bd 1cbe 0371 48be b6a8 5ebe
00000180: 5637 96be 43fb 6bbd a9a7 08be ecc7 51be
00000190: 27cc 10bf 071b 9dbe bc7d c7be 89b9 c5be
000001a0: 4bf8 90be 4e5d 6bbd 4410 2bbe b92a a1be
000001b0: 9205 56bd e1f1 e7bd 53d5 b8bd 2e1a d3be
000001c0: 1960 68be 4b61 98be 3fb4 65be 3284 2dbe
000001d0: b8bd f2be 5e44 b8be a77d 0dbf b4b8 abbe
000001e0: 2dd4 97be 476c 14be 068e e1be 8cd6 93be
000001f0: 2d6d 7fbe f1b2 2bbe 2540 48be 8bdb 3bbe
00000200: 8eaf acbe 4199 61be 7d24 58bf f1b1 97be
00000210: 375e 86bd 843b 5dbe c9d6 9fbe f567 88be
00000220: cacf 93be 8b8e cebe a639 5abe fc54 aabe
00000230: cc25 e1be affb acbd a075 52be 1416 c1be
00000240: f5b0 9cbe 173d 8cbe cf22 bbbe ed60 aabe
00000250: c8e3 9fbe 3c99 82be 13e2 02bf 2b0c d7be
00000260: 3106 76be ddec cbbe c3a5 b8be c5c5 5bbc
00000270: 29ce acbd 8c49 88be d42e aebd cac6 3dbe
00000280: 0399 1fbe 75ad 43be 5f04 a7be bde9 41be
00000290: 8ecb b9bd 1537 4ebe f81d f3be ca40 babe
000002a0: 1860 0cbf 0cf3 57be b624 62be 3ddb 6fbe
000002b0: dfde c1be 6d9a 27be 5fef a4be d645 86be
000002c0: 46a3 8ebe af56 20be fdae b6be a8d6 29be
000002d0: f955 56bf 10f4 50be 95ac 87be 6659 5cbe
000002e0: c1c3 ffbc 549d 1abe fdda a7be 9657 eebe
000002f0: c4a2 d9be 4edf c2be 0522 b1be 6fc9 73be
00000300: e5af 9abd 9526 cebe 5970 08bd 20f5 70be
00000310: a0e6 95be c45e 71be dc35 9ebd 8d4e 84be
00000320: 8c02 acbe a125 00bf 6354 2ebe a991 c6be
00000330: dedc 2cbe 52ca 7dbb a3be 06be 0ff7 55be
00000340: e391 d6bd 407d 8abd 3526 73bd 8648 84be
00000350: f2dd abbe 3671 61be bd5b 3dbe 34eb a1be
00000360: 893a 06bf 912a dcbe 0032 dbbe edec 02be
00000370: ab85 27be ad32 70bd 28ee c6be d79b 0abe
00000380: fc4a 17be 393c 91be 1650 99be 6265 9cbe
00000390: 5bc7 a1be af39 83be 16f4 57bf 216f 0dbe
000003a0: fc14 95bc 39df 07be ecca cfbd d596 09be
000003b0: 19d4 77be 689c 01bf df72 f5be 8b54 dbbe
000003c0: 48c3 0fbf 767f 84bd 91e7 1fbe 7741 e0be
000003d0: 6457 02be c6b8 38be 4ed8 b9be 9f35 dcbe
000003e0: 9bc3 0cbe 648a b7be 8289 eebe a4d5 ccbe
000003f0: 7dbf 93be fa86 38be 0b25 bfbe 3137 5bbe
-0.5073511 -0.35294506 -0.25581563 -0.26807326 -0.31550592 -0.42143807 -0.17531039 -0.2897508
-0.23453498 -0.22043052 -0.22107132 -0.3497438 -0.22876105 -0.23352349 -0.2777371 -0.4144276
-0.36099628 -0.40939486 -0.3346914 -0.40964964 -0.3221456 -0.36577302 -0.45009884 -0.36765364
-0.23466052 -0.237888 -0.28610387 -0.45093858 -0.41321766 -0.2435457 -0.5886161 -0.4294058
-0.37664288 -0.3632493 -0.36325338 -0.25828582 -0.3125599 -0.21873298 -0.4836604 -0.38046184
-0.31229144 -0.21196975 -0.3446857 -0.2907284 -0.37682167 -0.38208124 -0.27631012 -0.32495248
-0.40374893 -0.37526894 -0.13449147 -0.19593038 -0.22103913 -0.23160757 -0.27180022 -0.02461333
-0.099982195 -0.25573367 -0.11852958 -0.07064431 -0.11582445 -0.23129354 -0.31760275 -0.17772917
-0.20171079 -0.15727215 -0.38157165 -0.16982184 -0.36928394 -0.23297611 -0.20312129 -0.22137412
-0.22374584 -0.22307844 -0.23193315 -0.12065543 -0.079907246 -0.2607195 -0.14333282 -0.12846924
-0.2636252 -0.14566536 -0.003837568 -0.28202456 -0.07327965 -0.28469643 -0.14233783 -0.269726
-0.2393151 -0.079026535 -0.10267412 -0.16268957 -0.20942087 -0.15306738 -0.1957436 -0.21744046
-0.29339093 -0.05761267 -0.13345207 -0.2048642 -0.5656151 -0.30684683 -0.38963115 -0.38618115
-0.28314433 -0.05746203 -0.16705424 -0.31477907 -0.052251406 -0.113254316 -0.09025063 -0.4123091
-0.22692908 -0.2976173 -0.2243204 -0.1694496 -0.4741037 -0.3598966 -0.55269855 -0.33539355
-0.29654065 -0.1449443 -0.44053668 -0.28874624 -0.24943991 -0.1676748 -0.19555719 -0.18345468
-0.33727688 -0.22031118 -0.84430677 -0.29627946 -0.06560939 -0.21604735 -0.31218556 -0.26641813
-0.28869468 -0.40343127 -0.21311054 -0.33267963 -0.4397415 -0.08446442 -0.20552683 -0.37712157
-0.30603758 -0.27390358 -0.36549994 -0.33277074 -0.3122847 -0.25507534 -0.5112621 -0.4200147
-0.240258 -0.3982915 -0.36063966 -0.013413851 -0.084377594 -0.26618612 -0.085050255 -0.18532863
-0.15585713 -0.19109137 -0.32620522 -0.1893682 -0.09072028 -0.201382 -0.47483802 -0.36377555
-0.5483413 -0.21088809 -0.22084317 -0.23423477 -0.3786535 -0.16367503 -0.32213876 -0.26225156
-0.27858943 -0.15658067 -0.3568038 -0.16585791 -0.83724934 -0.20405602 -0.26498857 -0.21518478
-0.031221272 -0.15099078 -0.32784262 -0.46551198 -0.42506993 -0.38060993 -0.34596267 -0.2380731
-0.075530805 -0.4026381 -0.033310268 -0.23531008 -0.29277515 -0.23571306 -0.077251166 -0.2584118
-0.33595693 -0.5005742 -0.17024378 -0.38783005 -0.16881129 -0.0038725329 -0.1315866 -0.20895027
-0.104770444 -0.06762171 -0.05936261 -0.2583658 -0.33567768 -0.22015843 -0.18492027 -0.31624758
-0.5243307 -0.43001226 -0.42811584 -0.12785693 -0.16359584 -0.05864208 -0.38853574 -0.1353601
-0.14774698 -0.2836626 -0.29943913 -0.305461 -0.3159741 -0.25629947 -0.8435682 -0.13811924
-0.018198483 -0.13268746 -0.10146126 -0.13436444 -0.24202003 -0.5062928 -0.47939202 -0.4283794
-0.5615735 -0.06469624 -0.1561568 -0.43799946 -0.1272865 -0.18039235 -0.3629784 -0.4300966
-0.13746493 -0.3584777 -0.46589285 -0.40006745 -0.2885703 -0.1802024 -0.3733295 -0.21407773

bias f4 [30]
00000000: 8dd3 ebbe 839d 90be 56e9 12bf 22a7 febe
00000010: 0137 0bbf c2fe 0abf c016 d5be 91f3 2dbf
00000020: a584 30bf 9b3f 0fbf ce61 c2be f0f1 26bf
00000030: 66c9 13bf bd46 01bf 89e6 edbe c911 06bf
00000040: 90df e2be fae0 20bf 17d8 39bf a939 0cbf
00000050: b818 e2be cfdb d9be 80b6 fbbe 9a98 00bf
00000060: 5eff b7be faf4 ecbe a626 3bbf b318 d9be
00000070: 29d8 27bf 7d59 1fbf
-0.46059838 -0.28245172 -0.5738729 -0.49736887 -0.54380804 -0.5429498 -0.4161892 -0.6794978
-0.689524 -0.5595643 -0.37965244 -0.6521292 -0.57729185 -0.50498563 -0.46464947 -0.5237089
-0.4431119 -0.62843287 -0.7259535 -0.5477548 -0.44159484 -0.42550513 -0.49162674 -0.5023285
-0.35937017 -0.46280652 -0.7310585 -0.42401657 -0.6556421 -0.62245923

eps f4 [30, 1, 1]
00000000: bf14 0a3f d24b 833f f221 95bf 5593 a13f
00000010: c5b1 fcbb 12d0 6f3f ad00 9c3d c944 1abf
00000020: 91c6 2fbf ca14 583e eb6d 38bf c3e3 3fbf
00000030: 6772 0a3f 21ef 023f 63da 3abf b4fa 3e3e
00000040: 7d8b babe b2db d33f 920a 14be fe90 843e
00000050: e350 663f aec0 b53e 29b5 45bf d5c3 92bf
00000060: 3355 f83e d6a8 f6ba d555 aa3f 7ac3 22c0
00000070: b279 acbf 91da 2d3f
0.53937906 1.0257514 -1.1650984 1.2623087 -0.0077116215 0.93676865 0.076173164 -0.6026121
-0.68662363 0.2110168 -0.7204272 -0.7495691 0.54080814 0.5114613 -0.7298948 0.18650323
-0.36434546 1.6551421 -0.14457157 0.2589187 0.89967173 0.35498565 -0.77229553 -1.1466013
0.48502502 -0.0018818628 1.3307444 -2.543181 -1.3474638 0.6791163

gamma_ones f4 [30]
00000000: 0000 803f 0000 803f 0000 803f 0000 803f
00000010: 0000 803f 0000 803f 0000 803f 0000 803f
00000020: 0000 803f 0000 803f 0000 803f 0000 803f
00000030: 0000 803f 0000 803f 0000 803f 0000 803f
00000040: 0000 803f 0000 803f 0000 803f 0000 803f
00000050: 0000 803f 0000 803f 0000 803f 0000 803f
00000060: 0000 803f 0000 803f 0000 803f 0000 803f
00000070: 0000 803f 0000 803f
1.0 1.0 1.0 1.0 1.0 1.0 1.0 1.0
1.0 1.0 1.0 1.0 1.0 1.0 1.0 1.0
1.0 1.0 1.0 1.0 1.0 1.0 1.0 1.0
1.0 1.0 1.0 1.0 1.0 1.0

x_latent f4 [30, 1, 1]
00000000: e87c 66bd 363a ccbf d18f 083f 21ff 383f
00000010: fa30 953e 3c36 ee3d 5bc9 adbe d9b5 a1be
00000020: ca50 f4be 562f 863f 68dd aebe d22d 9e3e
00000030: 2232 fc3e 144d 483e fc3e 36be 525c 01bf
00000040: 4e00 6ebe 7917 7f3f d160 763e ca86 053f
00000050: 0ef1 9fbf eaeb 0fbf 46ff 9cbf 4ebb 083e
00000060: 8aa5 003e 327c 3a3f 8b35 953f 86ad cdbf
00000070: 0486 723f 65ce 3fbe
-0.056271464 -1.5955265 0.53344446 0.72264296 0.2913893 0.11631438 -0.33942685 -0.3158405
-0.47717887 1.0483196 -0.34153295 0.30894333 0.49256998 0.19560653 -0.17797464 -0.50531495
-0.23242304 0.9964519 0.2406037 0.52158797 -1.2495439 -0.5621935 -1.2265403 0.13352701
0.12563148 0.72845757 1.1656965 -1.606858 0.9473574 -0.18731077

contamination_clusters f4 [58]
00000000: da28 bf3b 2327 4c3d 9529 b63c 3590 b43c
00000010: 709c 4b3b 2ba8 c03a 9be1 b83a b368 b43c
00000020: f052 013d fe49 e53b e374 a83c 81c8 d93b
00000030: b259 003c 1b8c 253c 64d7 6c3a 6638 b33b
00000040: 72e0 9d3b 6649 6a3c b8ed 963b 1006 a43a
00000050: 0a16 bc3b 9c17 9b3a bfb0 af3c 71cc 123e
00000060: e3cd 373b 4433 723b 3f8c 213c 44ce 143d
00000070: 7926 d33b 1d8c bd3c fcb2 1f3d 0459 503d
00000080: b235 943b 1ef0 623b d5ac 573c c85f 673d
00000090: 5380 fa38 0b28 323c 1233 9d3d 2f59 3f3d
000000a0: 1c25 d63a 2132 b23b bb89 393c 6898 3a3c
000000b0: 25a6 623a 5787 9d3c 9b07 a83b b4ed 6b3d
000000c0: 2675 f538 8b47 633c 030f 693a 98c7 db3b
000000d0: 9188 9e3b 7ce9 233c 1e4e b73a b8e2 183c
000000e0: 5517 233d bf59 bb3a
0.0058337273 0.04984201 0.022236625 0.02204142 0.0031068586 0.0014698555 0.0014105322 0.02202258
0.031573236 0.006997346 0.020563548 0.0066462164 0.007833885 0.0101042045 0.0009034781 0.0054693697
0.0048180157 0.014299726 0.004605975 0.0012514014 0.005739932 0.0011832598 0.021446584 0.143358
0.0028046302 0.0036956826 0.009860097 0.036329523 0.0064437953 0.0231381 0.038989052 0.050866142
0.0045230025 0.0034627984 0.013163765 0.05648783 0.00011944831 0.010873805 0.076757565 0.04671591
0.0016337964 0.0054381047 0.011324341 0.011388876 0.0008645973 0.019229574 0.00512786 0.05759974
0.00011704331 0.013872038 0.00088904815 0.006707143 0.0048380573 0.0100043975 0.0013985073 0.009331398
0.039817173 0.0014293714

exp_avg f4 [30, 58]
00000000: c5c5 fe3d 070c 5f3f a06a 06c0 6d03 0d3e
00000010: ab0d 75ba dd7c a4b9 8e65 833c 3197 6e3e
00000020: 85f4 81bf fd5d 0e3f 7b8f 193e 096b 26bf
00000030: 265c fc3d da9f 073d 09a7 8bbe 32df 1740
00000040: 2617 ad3d 40d0 e73e 3c65 5640 9cc7 1340
00000050: b8b8 3b3e 520d 453e 414a f93e 4b32 9c3f
00000060: 8b0a 5b3f bb85 863d da0d e8c0 485a cc3f
00000070: 1fd6 3e3e 2f1f 88bf 0c0b 5b3f 45a3 9e3f
00000080: 6f77 e13e be6f d13e a32d 9ebf 2e94 ea3f
00000090: c333 c33e 6955 423f a83f ee3f 4b97 b8bf
000000a0: bf8a 4f3f b944 dbbd c83e 29c0 8c4b fe3d
000000b0: 6ee2 2a3f de07 133f 9766 3d3e 2ed6 26c1
000000c0: 3d5c 2a3f 6a15 64be c52f a33e 6d25 623c
000000d0: c5ea 37be 9874 bb3e 74e1 643f fce3 93be
000000e0: f4ff a73e 1a62 133f 053d 0b3e 2372 f83e
000000f0: c923 283e 5c70 873e 6bfa c03e 510b a23d
00000100: b9ab 683e 4403 b33d 7519 193f 93dd 933d
00000110: e3e1 af3d 3516 873e 2f98 ee3e eeb5 a03d
00000120: a354 f53d 548b 093e e1ca ef3e 72d7 4b3d
00000130: 95fe af3e 4753 663e 0ab5 b33e 554d 113e
00000140: 5999 2d3e 10b8 863e be50 283c 659a aa3e
00000150: 50d0 f73d 6e18 14be 44e3 6f3e 882f 8f3e
00000160: 483d fbbd ce6c 313e fe4b 253f 5e9b 39c1
00000170: 557d 893e 6304 db3e 29c7 413f 0309 b93d
00000180: b152 2fc0 7ddf 4e3d e331 c23d d007 193e
00000190: 9585 803e 5ed3 33bd 56ab d73e d699 103f
000001a0: aab1 493d 152b bc3e 2ba2 fa3e f3f4 cd3d
000001b0: bd5f e83e 829f 283e 0e68 0e3d 0e3d 4b3e
000001c0: 414c c33f 49e0 0bbb 55a8 2f3f 8043 6f3d
000001d0: b3a1 863c 69e5 0640 09c1 d9be c7d5 503f
000001e0: c176 8e41 935b 11bd 1fb0 adbf b32b b13f
000001f0: 6d6e 433f 6adb 0040 5747 bf3f 3c9a cd3e
00000200: ae68 e3bf 7c3e 283f a492 59bf fcaa 69c0
00000210: 918d 513e f7ec 1d3e cfb1 983e ce04 323f
00000220: 6d2e 8bbc e5c8 e7be 588d 603f 0874 c13f
00000230: ad91 55be 2e76 fa3d 234b 17c0 1404 da3f
00000240: 56a8 e9bc e6e1 743e 77a1 193f f4fb 27c2
00000250: ad62 edbf cf6c ca3f da28 0a3f 849f ba3f
00000260: 4080 2940 d5c3 543f 3419 4040 d865 3440
00000270: a4a0 3bbf 3f04 7ac0 350d a140 2028 303e
00000280: 857f 22bf 4432 cd3e 438c ad3e 0070 5a3f
00000290: 202f 6640 68d1 0d3f 26ef 753e d09f efbe
000002a0: 515f 8b3e bfbb 4640 73f2 de3f dac7 373d
000002b0: 8c25 f6bf aee8 d6be 67c2 b13e a944 293f
000002c0: 8e8d 823f 86cf 79bf 4c82 c2bf 5806 1240
000002d0: c4f0 d73e ca64 f1c1 8fff b23f 3e65 3340
000002e0: c1cc 953f 38bc ee3c 092e 91bc 7cd9 eb3f
000002f0: e743 0cbf 9e78 c93d 6f47 9d3b 133f e43e
00000300: dab4 ca3f b8dd 113f a6d9 623f 240c 8fbe
00000310: 1788 663e 04c2 9e40 4dde 093f 77d6 b5be
00000320: 2641 2d3f 969c c83e a86b ca3d bc81 333e
00000330: 4d04 153f 8d9f 5b3f 5961 5bbe df29 fa3f
00000340: e58a 1b3f f44b 5b3f 5e81 0540 ad91 b3bf
00000350: 8b3d 8c40 ee99 93c1 fb43 e8be 2dbe 093f
00000360: 6d3a c53d 4674 06be 5b94 c83f 419b a13e
00000370: 2d84 2d3d 5ee0 3e40 76a8 59c0 4a52 e1bf
00000380: b13e 9240 0eef 173e 1022 1d3e 58a5 803f
00000390: 44ad be40 6179 df3c 06ff 983f 51fb e340
000003a0: 960a 283e 1d0d 79bd 3e15 dc3e 6bc2 d53e
000003b0: 9b50 7ebf 50ac c4be 55eb 953d 330d c03f
000003c0: 464b b93f df32 0840 2d42 943e 44b1 573e
000003d0: 600c 2dbd 8da7 043e 8dd6 d83f 9ff9 e23d
000003e0: e257 923e 1e66 203f cf5a 94be 52e3 123d
000003f0: 77f6 f03e 99e5 88be 818e 81c1 b549 3ec1
0.12440065 0.8712773 -2.1002579 0.13770838 -0.0009348045 -0.00031373548 0.016039636 0.23299862
-1.0152746 0.55612165 0.1499614 -0.6500707 0.123222634 0.03311143 -0.27275875 2.3729978
0.08451681 0.4527607 3.3499289 2.3090582 0.18332183 0.19243363 0.48689464 1.2202848
0.8556296 0.06568476 -7.251691 1.5965052 0.18636368 -1.0634516 0.8556373 1.2393576
0.44036433 0.40905565 -1.2357677 1.8326471 0.3812543 0.75911576 1.8613176 -1.4421171
0.81071085 -0.10706467 -2.6444569 0.12416753 0.66751754 0.5743388 0.18496166 -10.42729
0.66546994 -0.22273794 0.31872383 0.013802868 -0.17960651 0.3661239 0.89406514 -0.28884876
0.32812464 0.57571566 0.13597496 0.4852458 0.16419901 0.2645291 0.37691054 0.07912315
0.22721757 0.08740857 0.5980447 0.07219996 0.08588006 0.2638413 0.46600482 0.078472
0.11979034 0.13432056 0.46834472 0.04976601 0.34373918 0.22492705 0.3509906 0.14189656
0.16953029 0.26312304 0.010273157 0.3332092 0.12100279 -0.14462444 0.23426539 0.2796595
-0.12267548 0.17326662 0.6456908 -11.600431 0.26853433 0.42776784 0.7569452 0.09034922
-2.739422 0.050506104 0.094821714 0.14944386 0.25101915 -0.043902747 0.42122906 0.56484735
0.0492417 0.3675162 0.4895185 0.10056486 0.45385543 0.16467097 0.034767203 0.1984751
1.5257646 -0.0021343401 0.6861623 0.058413982 0.016434526 2.107752 -0.42530087 0.815762
17.807985 -0.035487723 -1.3569373 1.3841461 0.7634037 2.013392 1.4943646 0.40156734
-1.7766321 0.65720344 -0.8498938 -3.651061 0.2046416 0.15422426 0.29823157 0.6953858
-0.016989911 -0.45270458 0.87715673 1.5113535 -0.20856352 0.12229572 -2.363961 1.7032495
-0.028522652 0.23914298 0.60012 -41.996048 -1.8545738 1.5814456 0.53968585 1.457993
2.6484528 0.83111316 3.0015383 2.818716 -0.73291993 -3.9065092 5.032862 0.17202806
-0.6347583 0.40077412 0.33896074 0.8532715 3.5966263 0.55397654 0.24017009 -0.46801615
0.27221158 3.105209 1.741774 0.044868328 -1.9230208 -0.41974396 0.3471863 0.6612039
1.0199449 -0.9758228 -1.5196013 2.2816372 0.42175877 -30.174213 1.398424 2.8030543
1.1703111 0.029142484 -0.017722147 1.8425746 -0.5479111 0.09837459 0.0047997753 0.44579372
1.5836442 0.5697894 0.88613355 -0.2793895 0.22512852 4.9611835 0.5385483 -0.35515186
0.67677534 0.39181966 0.09883815 0.17529958 0.5820969 0.8579033 -0.21423854 1.9544028
0.6075881 0.8566277 2.086021 -1.4028832 4.3825126 -18.450161 -0.45364365 0.5380581
0.096302845 -0.13130292 1.5670274 0.31563762 0.04236238 2.9824443 -3.400907 -1.7603238
4.5701528 0.14837286 0.15345025 1.0050459 5.9586506 0.027279558 1.1952827 7.1244283
0.16410288 -0.06080352 0.42984957 0.41749892 -0.99341744 -0.38412714 0.07320277 1.5004028
1.4476097 2.128105 0.28956738 0.21063715 -0.04224813 0.1295454 1.6940476 0.11082768
0.28582674 0.6265582 -0.2897553 0.03586132 0.47063038 -0.2673767 -16.194582 -11.892995

exp_avg_sq f4 [30, 58]
00000000: 9b96 4f41 c620 af43 2509 0f45 b483 aa42
00000010: bac7 0442 be13 4141 583e fe40 d736 af42
00000020: 001e 3645 d822 eb41 4b68 7142 760d 3945
00000030: d6d4 e242 dfac f941 1cc1 cf43 1cc3 0544
00000040: f0a5 0c41 82ab 3d43 bd4e 8544 b45a fd43
00000050: 3c24 c541 7a3b 6140 20fa 2f42 a611 4d45
00000060: 2b26 8b42 3b2b 0242 0394 b347 be64 6143
00000070: 123e 0942 545a 8f44 e6e7 0644 e915 3744
00000080: 966f 9341 9481 f041 a5d7 c840 d8f8 1c44
00000090: 0806 5d41 f07c 5942 bbba fe43 7ac8 1346
000000a0: 0745 7942 ef0b 0743 16dd 2144 bba0 2e43
000000b0: 7a62 2942 937c a143 c501 5040 36c1 5c46
000000c0: cd58 2842 5a27 8f43 dc66 0043 d030 8741
000000d0: be11 2f43 6fe6 2741 50ef 9742 7502 1343
000000e0: 38bd 4943 ec65 f741 27b3 9940 8f58 9142
000000f0: ea5b b541 1066 9141 399e 1342 1c29 d03f
00000100: b295 5641 d5fd fd3f 15c4 b942 6b55 ad3f
00000110: 853e f53f acab 9041 89a7 6142 475b c440
00000120: 2092 6e40 38ef 9540 5ded 6342 79b4 243f
00000130: b78e f541 0b49 5241 de01 0042 e860 a740
00000140: 09d5 ee40 5fa5 4e42 5698 e03c 70be e641
00000150: fc63 5441 34c7 8d42 031b 6441 8580 a241
00000160: 2056 b741 ea52 f940 d398 d842 9795 8147
00000170: 61dc 9541 da18 3e42 76d8 1443 7db7 0740
00000180: 3e45 4b41 778b 293f 247c 1540 25a8 b940
00000190: 67f3 8241 0e4f 1841 e25f 3842 8ab5 a542
000001a0: e941 213f 7e59 0c42 a000 7942 7a23 2840
000001b0: 860a 5642 1b6b e140 c0c5 a03e f9b9 2341
000001c0: b507 1744 3add 1942 0c4b f442 6ceb 623f
000001d0: a671 be42 a2fd da44 c1dc b445 3a97 db43
000001e0: e2f6 ea46 2f38 9d42 e727 4945 6052 8143
000001f0: 4dbd 0f44 b875 c243 6c6b 9843 0168 9443
00000200: 5f94 3f42 5a0f 0d43 f961 a742 f692 ab46
00000210: 7ec3 0142 5d25 8c45 ce87 0841 517d bd42
00000220: 8e63 ad43 5f81 de42 7e81 d143 4fcc 1f46
00000230: 3114 aa43 536d 7543 6047 7744 b84b 9642
00000240: 4c47 2543 31f1 3f44 cfff 8044 26f8 9c49
00000250: 16b7 6f43 bcf3 ae43 eb30 4e43 d538 cf44
00000260: 513d 2844 5a1f 6042 4cee 8445 73ad aa44
00000270: 71e4 6645 f508 5445 1a47 2245 f605 0543
00000280: 5321 6e43 dd4f a243 a3be 5542 64f1 1c45
00000290: f321 9b44 b1b8 3643 fbb4 be41 24d1 4545
000002a0: 2ccb b742 b40e 6f44 0570 9143 a562 6a43
000002b0: 29bf 9b45 6d94 9744 d35a d641 7135 ad45
000002c0: 0c5f 9f43 9792 d542 43e1 8a45 c1d3 0744
000002d0: 1f7d 9541 e0bf 2147 ba7c 5e43 5165 4f44
000002e0: 0247 1d43 65f4 3744 c197 e742 85ee ae43
000002f0: 134e d043 ef92 9843 7364 1142 4d51 8c43
00000300: 867b 7443 941d 0942 c6ce a542 b515 4243
00000310: f78c ad43 07d0 1d46 a3b1 f441 cdff 3842
00000320: 4da3 8142 7f57 8241 623f 8042 54d0 ca43
00000330: 33b5 eb43 09c2 9d44 1b67 2e43 d6e5 0344
00000340: 0ba6 8b43 d4b1 a245 f5a9 e543 3989 4e44
00000350: 4042 1f45 7da2 2e49 8f1e 8644 071a f341
00000360: b148 5641 056b da43 a97a 8143 fd56 6943
00000370: c650 be43 3e27 e844 f88b 2347 dfe2 1845
00000380: 7a1d 0845 fb87 df43 755b 2e40 6240 8244
00000390: c1ab 8245 2d77 9944 4d92 8344 8b14 9c45
000003a0: 18ac 2a42 d8c6 8b45 29a5 c643 4a64 9543
000003b0: 22d9 6344 53ed 2f43 f8e1 1742 ffb8 7343
000003c0: c3be 5744 2caa cd43 c66b ba43 14bd 5642
000003d0: 8218 8643 f7f4 b73f 8494 7643 aa1d 6041
000003e0: ea24 e143 8213 4c43 a790 1e45 e80c a140
000003f0: 6e73 bf41 66b4 aa44 24a3 a948 f3a0 ee46
12.974269 350.25604 2288.5715 85.25723 33.195045 12.06732 7.9451103 87.60711
2913.875 29.392014 60.35185 2960.8413 113.415695 31.20941 415.50867 535.0486
8.790512 189.66995 1066.4606 506.70862 24.642693 3.5192552 43.994263 3281.103
69.57455 32.542217 91944.02 225.39352 34.310616 1146.8228 539.6234 732.34235
18.429485 30.06327 6.276324 627.8882 13.813972 54.37201 509.45883 9458.119
62.31741 135.04662 647.45447 174.62785 42.34617 322.97324 3.250108 14128.303
42.08672 286.30743 128.4018 16.898834 175.0693 10.493758 75.96741 147.0096
201.73914 30.924767 4.803119 72.672966 22.66988 18.174835 36.904514 1.6262546
13.411547 1.9843088 92.88297 1.3541692 1.9159704 18.083824 56.41361 6.1361423
3.7276688 4.6854515 56.9818 0.6433788 30.694685 13.142833 32.001823 5.2305794
7.4635053 51.661495 0.02741639 28.842987 13.27441 70.88907 14.256595 20.312754
22.917053 7.7913713 108.298485 66347.18 18.732607 47.52427 148.84555 2.1205742
12.704405 0.6622843 2.335702 5.8017755 16.368849 9.5193 46.093636 82.85457
0.62991196 35.087395 62.25061 2.6271653 53.510277 7.0443244 0.3140087 10.2329035
604.1204 38.46604 122.146576 0.88640475 95.22197 1751.926 5787.594 439.18146
30075.441 78.60973 3218.494 258.64355 574.9578 388.91968 304.83923 296.81253
47.894894 141.05997 83.69135 21961.48 32.44091 4484.6704 8.533155 94.74476
346.77777 111.25268 419.01166 10227.077 340.15775 245.42705 989.11523 75.14789
165.2785 767.7686 1031.994 1.2858928e+06 239.71518 349.90417 206.19109 1657.776
672.95807 56.030617 4253.787 1365.4203 3694.2776 3392.5598 2596.4438 133.02328
238.13017 324.62393 53.43617 2511.087 1241.0609 182.72145 23.83837 3165.0713
91.89682 956.22974 290.87515 234.38533 4983.895 1212.6383 26.794348 5542.68
318.74255 106.78631 4444.1577 543.30865 18.686094 41407.875 222.48721 829.58307
157.27737 735.81866 115.796394 349.86343 416.60995 305.14792 36.348095 280.63516
244.48251 34.278885 82.903854 194.0848 347.1013 10100.007 30.586737 46.249805
64.81895 16.292723 64.123795 405.62756 471.41562 1262.0636 174.40276 527.5912
279.2972 5206.2285 459.3278 826.1441 2548.1406 715303.8 1072.955 30.387709
13.392747 436.8361 258.95828 233.3398 380.63104 1857.2263 41867.97 2446.1794
2177.8423 447.06235 2.724332 1042.012 4181.469 1227.7242 1052.5719 4994.568
42.66806 4472.8555 397.2903 298.7835 911.3927 175.92705 37.970673 243.72264
862.98065 411.32947 372.84198 53.684647 268.19147 1.4371632 246.58014 14.007242
450.2884 204.0762 2537.0408 5.0328255 23.931362 1365.6375 347417.12 30544.475
