mcspace/paper/human_runs/runs/seed_3/model.pt (torch, 308831 bytes, 66 tensors)

theta_params f4 [100, 58]
000000 ba cf 83 c0 5f 1d 1e 3f fa ba b1 c0 68 80 44 c0
       -4.1191072 0.61763567 -5.5540743 -3.0703373
000010 db 5e 81 be e0 e5 8d c0 39 61 87 bd d2 fd cc bf
       -0.2526768 -4.434311 -0.066103406 -1.601496
000020 85 b1 8c c0 24 78 42 40 0b 1d b7 c0 3f 65 4f 40
       -4.39667 3.0385828 -5.7222953 3.2405546
000030 94 39 97 c0 73 6e 90 c0 4e 33 8a 3d 15 45 11 3f
       -4.7257786 -4.5134826 0.06748067 0.56746036
000040 7c 22 e0 be f6 07 4e c0 a3 11 81 3f 16 78 82 bc
       -0.4377631 -3.219236 1.0083507 -0.015926402
000050 15 f7 97 40 53 63 99 c0 4d 78 a6 c0 07 e3 40 40
       4.7489114 -4.7933745 -5.202185 3.0138566
000060 2f 7f 5e bf 59 dd 81 c0 ae 64 0d 3e 5c e2 09 c0
       -0.86912817 -4.05827 0.13807938 -2.1544409
000070 0e f4 c8 bf 26 f7 8e c0 cc 5e 60 c0 8f 0e 79 c0
       -1.569948 -4.4676695 -3.505786 -3.8915136
000080 aa cb 8a c0 ea 13 f7 bf 0d ac 38 c0 27 e7 63 c0
       -4.3373613 -1.9302952 -2.8855011 -3.5609834
000090 8f 4b 9e c0 10 00 4a bf c0 bb 9b c0 56 cb 54 bf
       -4.9467235 -0.78906345 -4.8666687 -0.83122766
0000a0 36 41 c9 c0 64 34 52 c0 a2 be a5 bf 08 8b 2e bf
       -6.2892103 -3.2844477 -1.2948802 -0.68180895
0000b0 14 fb 49 c0 6f ad 97 c0 8e 86 90 40 56 4c 71 3f
       -3.1559496 -4.739921 4.516425 0.94257104
0000c0 a7 62 8c c0 27 40 7c c0 81 fd 12 bf 3f d3 33 3f
       -4.3870425 -3.9414155 -0.57418066 0.7024421
0000d0 4e c4 91 c0 3f 7b a3 3f a4 30 2b 40 70 2f a3 c0
       -4.555213 1.2771987 2.6748438 -5.0995407
0000e0 40 5a 8c c0 16 fa ac c0 7d 93 b8 c0 f1 2a 3a c0
       -4.386017 -5.405528 -5.768004 -2.908871
0000f0 24 c4 a0 c0 f8 01 f2 bf 06 f3 0a bf 67 c7 b1 c0
       -5.023943 -1.8906851 -0.54277074 -5.555591
000100 b2 ff b0 3d e5 6a d6 be 96 d4 09 bf 19 20 0a 3e
       0.0864252 -0.4187843 -0.53840005 0.13488807
000110 fe 1c 06 40 84 cb a5 c0 9e 4b e6 3e 6b 7f 92 3f
       2.0955195 -5.181093 0.44979566 1.1445135
000120 b5 67 12 c0 43 9d 00 c0 59 e0 10 c0 0a 9c d1 bf
       -2.2875798 -2.0095985 -2.263693 -1.6375744
000130 9e f2 84 bf 70 5e 61 c0 b3 d6 93 3f 47 ac 92 bf
       -1.0386541 -3.521389 1.1549896 -1.1458825
000140 e2 6a 85 c0 81 2e c4 bf 07 67 9d c0 ed 67 56 bf
       -4.169297 -1.5326692 -4.9188266 -0.8375233
000150 61 29 52 c0 db f5 e4 3f a0 06 36 bf 6b 7b c9 c0
       -3.2837756 1.7887529 -0.7110386 -6.2963157
000160 c2 9b 95 c0 a8 d3 72 c0 2f f4 1f bf 53 e4 0b c0
       -4.6752634 -3.7941685 -0.6248197 -2.1858108
000170 aa fa 16 bf 87 8f e6 3e af 03 86 3f b6 f3 93 c0
       -0.58976233 0.45031378 1.0469874 -4.6235
000180 f0 09 2a 40 ca e1 36 3f 05 12 c0 c0 e1 50 d1 bf
       2.6568565 0.71438277 -6.0021996 -1.6352807
000190 1e de d3 3f de 0d 05 c0 4d 61 2a c0 83 d5 c3 3f
       1.655216 -2.0789714 -2.6621888 1.5299534
0001a0 2c 2f f1 bf 0f b2 86 c0 2a 5d 8a c0 46 e3 3f bf
       -1.8842521 -4.2092357 -4.3238726 -0.74956167
0001b0 bf 60 38 bf c7 3e a2 c0 f1 30 9e 40 d0 d4 21 bf
       -0.7202262 -5.0701632 4.9434743 -0.6321535
0001c0 72 0b 00 40 c6 14 d4 3e 3d 71 09 40 ba 8e 9b 3f
       2.0006986 0.414221 2.1475365 1.2152932
0001d0 db ad a7 c0 2f 88 a7 3f de 70 da c0 42 89 9d c0
       -5.2399726 1.3088435 -6.8262777 -4.923005
0001e0 ee ca bc c0 62 f5 79 c0 6e 59 a4 40 e3 32 95 3f
       -5.8997717 -3.905602 5.1359167 1.1656154
0001f0 4c 89 44 3f 6e e7 7f c0 17 6e 27 40 eb a7 40 3f
       0.76772 -3.9985003 2.6160944 0.7525622
000200 0a 71 b1 c0 f8 09 75 bf 2a 81 9b be 1d 48 2a c0
       -5.5450487 -0.95718336 -0.30371982 -2.6606514
000210 e3 80 9d bf 27 0d 8e bf ba 02 8a c0 c1 cd fd 3f
       -1.2304958 -1.1097764 -4.312833 1.9828416
000220 29 dd 2e 3f 41 d2 21 be 32 a1 b8 bf 3a 0a 81 3f
       0.68306214 -0.15802862 -1.4424193 1.0081246
000230 d6 cf 3d c0 12 d6 48 bf 71 ec b9 c0 ea 32 6e c0
       -2.9658103 -0.78451645 -5.8101125 -3.7218575
000240 fd 05 9c c0 0a 32 ae c0 d4 49 a1 c0 41 17 5d c0
       -4.875731 -5.4436083 -5.040262 -3.4545443
000250 2a 04 a6 c0 9d a1 c7 be 19 ec a6 c0 20 6d 16 c0
       -5.1880083 -0.3899049 -5.2163205 -2.3504105
000260 be 8f 1d 3e 30 78 0b 3f 5b 1b 99 3f 0e 11 80 3f
       0.15386865 0.54480267 1.1961473 1.0005205
000270 02 d5 a6 c0 a4 af 93 c0 c9 aa 1c 40 1e 95 a2 bf
       -5.213502 -4.6151905 2.447924 -1.2701757
000280 20 3b d4 3e 21 d2 0b 3f 77 f4 ac c0 7b 2a 1f 3d
       0.4145136 0.54617506 -5.404842 0.038858872
000290 7b 39 9d bf 2f 9f 35 3d b1 a4 3b be ad 38 69 c0
       -1.2283167 0.044341262 -0.18324544 -3.6440842
0002a0 2d d2 f6 3e c4 62 42 bf 79 50 35 40 c6 03 8f c0
       0.48207226 -0.75931954 2.8330367 -4.4692106
0002b0 9e 99 ff bf 89 d9 e9 bd 8a 35 09 c0 ed 7d 3f 40
       -1.9968755 -0.11418445 -2.1438928 2.992061
0002c0 72 88 9c c0 c0 da cb c0 a6 e1 ab c0 d8 a7 11 bf
       -4.891656 -6.370453 -5.371295 -0.56896734
0002d0 bb 4c cd bf 2e a8 30 40 8f c0 96 c0 9f 5a 54 c0
       -1.6039041 2.7602649 -4.7110057 -3.318031
0002e0 0c d7 1d 40 b0 51 6d c0 40 b6 b1 c0 f9 18 05 c0
       2.4662504 -3.7081108 -5.5534973 -2.0796492
0002f0 56 8a 70 c0 2e 64 a3 c0 92 33 9f c0 6a 91 2e c0
       -3.7584434 -5.105979 -4.975045 -2.7276254
000300 69 be 01 bf e4 2d 62 bf 0d 1a d9 3f 9c 77 9d c0
       -0.5068117 -0.88351274 1.6961075 -4.9208508
000310 75 a1 5a c0 46 d0 1e c0 84 81 8c c0 70 a0 21 c0
       -3.4161046 -2.481462 -4.39081 -2.5254173
000320 27 8c 87 c0 64 0b 48 c0 96 6a 99 c0 4e 08 97 c0
       -4.2358584 -3.1256952 -4.794261 -4.7197638
000330 5c 8a ec 3f b0 eb 95 bf 3d 2c a4 c0 9f 3f 72 3f
       1.8479724 -1.1712551 -5.1304 0.9462833
000340 20 9b ef bf f1 b8 bf 40 5e a4 a4 c0 9c ec 82 c0
       -1.8719215 5.991326 -5.1450644 -4.091383
000350 36 49 99 3f 52 25 08 3f b3 ff 14 3e 60 9a 5b c0
       1.1975467 0.53181946 0.14550667 -3.4312973
000360 d1 f2 87 c0 fd d7 29 c0 14 c6 e9 3e 08 a9 97 c0
       -4.2483907 -2.6538079 0.45658934 -4.7393837
000370 12 4e a7 c0 26 be 6f c0 73 f3 21 bf 68 47 86 c0
       -5.22828 -3.7459807 -0.632621 -4.1962166
000380 5d 47 55 c0 91 69 cd be c4 12 7f c0 3e c4 61 c0
       -3.3324807 -0.40119603 -3.9855204 -3.5276027
000390 5e 3c 07 3e ce 25 9d c0 b0 b8 06 40 0a 82 71 c0
       0.13206622 -4.910865 2.1050224 -3.773562
0003a0 fe 89 1e c0 88 7c 3e 3f 65 eb 92 c0 70 7d a9 c0
       -2.4771724 0.7440877 -4.5912347 -5.296562
0003b0 2a fe 02 bf a1 0f 2c c0 8a 6c b0 c0 8f 21 55 3f
       -0.51169074 -2.688454 -5.5132494 0.8325433
0003c0 e4 4c ad bf 28 8d 84 bd 81 56 b7 3f 36 ba 66 c0
       -1.353909 -0.06472236 1.4323274 -3.6051154
0003d0 39 a4 f2 be ae c6 9d bf ab 51 02 c0 39 e1 c5 c0
       -0.47390917 -1.2326257 -2.0362346 -6.183743
0003e0 e6 4b 6e c0 ae 98 8e bf 19 a5 d8 bf 1e 47 77 bf
       -3.7233825 -1.1140344 -1.6925384 -0.9659289
0003f0 d1 92 98 bf 9b ba 26 c0 b8 b0 6d c0 11 21 a0 3f
       -1.1919805 -2.6051395 -3.713911 1.2510091

q_mu f4 [5]
000000 46 fa f7 bf 29 82 82 c0 3a 2a 93 bf aa 54 4e c0
       -1.9373252 -4.0783887 -1.1497262 -3.2239175
000010 39 c6 80 c0
       -4.024197

q_var f4 [5]
000000 5f 34 9b c0 2c 06 0b c0 4e 3f 88 c0 49 37 8f c0
       -4.850143 -2.1722517 -4.2577276 -4.4754987
000010 97 4a e7 bf
       -1.8069638

eps f4 [5]
000000 33 e4 a5 be 69 cc 45 40 91 60 28 3f bd 35 13 bf
       -0.32400665 3.0906012 0.6577235 -0.57503873
000010 7a a3 0c 3f
       0.54936945

q_gamma_params f4 [99]
000000 76 cd 5d 40 5f 5c f5 3f 76 e1 62 40 25 b7 54 40
       3.4656653 1.9168814 3.545011 3.3236783
000010 18 bb ca be 01 04 7d 40 77 0c 6e 40 a5 de 2a c0
       -0.39595866 3.9533694 3.7195108 -2.6698391
000020 15 e0 85 40 76 41 ac bf e9 8a 79 40 d3 88 83 40
       4.183604 -1.3457477 3.8991034 4.110452
000030 13 97 8b 40 b3 ad 79 3f 14 44 89 c0 ad 3a 84 40
       4.3621917 0.9753067 -4.2895603 4.1321626
000040 31 b0 67 40 73 83 16 3f 49 6c 64 40 f1 62 5e bf
       3.6201289 0.58794326 3.5691092 -0.8686972
000050 e5 dd 51 40 2a a1 52 40 64 c8 64 40 5d 4f 5b 40
       3.2791684 3.2910867 3.5747309 3.426719
000060 9d 8b 7a 40 d3 1c 65 bf 41 b1 4f 40 c6 3d 5a 40
       3.9147713 -0.8949711 3.2451937 3.4100204
000070 b2 15 1d 3f 30 96 3e 40 e8 14 6d 40 06 dd 5f 40
       0.6136123 2.9779167 3.704401 3.4978652
000080 84 91 4e 40 3b 95 52 40 33 a8 8c c0 73 4f 71 40
       3.2276316 3.2903583 -4.395532 3.7704742
000090 35 ff 2e 40 e6 52 5f 40 51 62 58 40 dc 22 37 40
       2.7343266 3.4894347 3.3810008 2.8615026
0000a0 ac e0 7b 40 88 9f 84 40 34 9e 1e 3d 45 2d 4b 40
       3.935588 4.144474 0.038725093 3.174638
0000b0 1f 43 8d bf fd 94 4d 40 5b 4f 64 40 b9 08 71 40
       -1.1036109 3.2122185 3.5673435 3.7661574
0000c0 e3 d3 7e 40 11 a7 7a 40 87 7a 74 40 04 34 a8 c0
       3.9816825 3.916447 3.8199785 -5.2563496
0000d0 de 5d 8c 40 e7 00 0f 40 9b 47 66 40 f4 c2 4e 40
       4.3864584 2.23443 3.5981205 3.230649
0000e0 89 fe 4e 40 b4 f8 5b 40 41 2e 73 40 ad 36 1a 40
       3.2342856 3.4370546 3.799698 2.4095871
0000f0 dd cf 67 40 bb 87 4b 40 16 8d 63 40 af 6a 59 40
       3.622062 3.1801593 3.5554862 3.3971364
000100 1b 6e 84 40 2c 56 93 bf d1 a7 21 40 94 ae 0d 40
       4.1384406 -1.1510673 2.5258677 2.2137804
000110 dd f5 e5 be 42 b4 7b 40 93 b6 45 40 14 2a 8e 3f
       -0.4491414 3.932877 3.0892684 1.1106591
000120 fc 45 79 40 67 90 34 c0 40 30 7f 40 79 2c 88 c0
       3.8948965 -2.8213136 3.98732 -4.255429
000130 a7 51 7f 40 d6 98 75 40 67 87 76 40 0d 20 7c 40
       3.9893587 3.8374534 3.8520143 3.9394562
000140 cf 94 41 40 49 43 83 40 4f 21 67 40 7b 20 53 c0
       3.0247076 4.1019635 3.611408 -3.2988575
000150 fe b9 8b c0 4e 51 83 40 56 6a 6f 40 41 1c 32 40
       -4.366454 4.103675 3.7408652 2.7829745
000160 38 e2 f1 3e ce 8a 4d 40 1a 6d 59 40 ca 04 53 c0
       0.47242904 3.211597 3.397284 -3.2971673
000170 02 20 75 40 aa 15 76 40 b2 37 5e 40 d6 1f 46 40
       3.8300786 3.8450723 3.4721494 3.095693
000180 e3 ad 44 c0 7e 2e 66 40 55 96 8a 40
       -3.0731132 3.5965877 4.330851

q_probs f4 [99]
000000 11 3e 78 3f 03 2f 5f 3f 42 d1 78 3f 9c 19 77 3f
       0.96969706 0.8718111 0.971943 0.9652345
000010 c3 05 ce 3e 10 2e 7b 3f af f0 79 3f 63 b7 84 3d
       0.4023877 0.9811716 0.9763288 0.06480291
000020 06 28 7c 3f 1b 9a 53 3e 85 ea 7a 3f 91 de 7b 3f
       0.9849857 0.20664255 0.980141 0.98386484
000030 e9 c6 7c 3f 16 d8 39 3f 0f bc 5d 3c e5 f4 7b 3f
       0.9874101 0.72595346 0.013533606 0.98420554
000040 e8 52 79 3f 7d a0 24 3f d6 fb 78 3f ab 4f 97 3e
       0.9739213 0.64307386 0.9725927 0.2955297
000050 99 b5 76 3f bf d0 76 3f 37 05 79 3f b3 f1 77 3f
       0.96370846 0.9641227 0.9727358 0.9685318
000060 75 fe 7a 3f 44 8d 94 3e 9c 66 76 3f 0f d0 77 3f
       0.9804452 0.29014027 0.9625032 0.9680185
000070 a9 1c 26 3f a8 9a 73 3f 62 d9 79 3f 4c 7b 78 3f
       0.6488748 0.9515786 0.97597325 0.97063136
000080 bb 3c 76 3f 60 cf 76 3f 0b a8 47 3c f1 3b 7a 3f
       0.9618642 0.9641018 0.012186061 0.97747713
000090 3f 64 70 3f 53 6b 78 3f a4 94 77 3f 77 27 72 3f
       0.93902963 0.97038764 0.9671118 0.9459147
0000a0 59 18 7b 3f 5c 01 7c 3f 9d 87 02 3f 1e ba 75 3f
       0.98084027 0.98439574 0.5098818 0.9598712
0000b0 ec 29 7f 3e b0 17 76 3f d2 f8 78 3f ce 35 7a 3f
       0.24918336 0.96129894 0.9725467 0.9773835
0000c0 e5 4f 7b 3f 94 00 7b 3f d7 81 7a 3f 7b 0f aa 3b
       0.98168784 0.9804776 0.9785437 0.0051898337
0000d0 74 da 7c 3f 2e 3a 67 3f 52 2d 79 3f 13 44 76 3f
       0.98770833 0.9032315 0.9733478 0.96197623
0000e0 c6 4c 76 3f 49 06 78 3f a4 65 7a 3f dd e5 6a 3f
       0.96210897 0.9688459 0.9781134 0.91756994
0000f0 29 56 79 3f 3e c8 75 3f e2 e3 78 3f d1 b5 77 3f
       0.97397095 0.9600867 0.9722272 0.96761805
000100 50 fb 7b 3f 7e 3a 76 3e 01 0d 6d 3f a8 cb 66 3f
       0.9843035 0.2404575 0.9259797 0.90154505
000110 87 8e c7 3e 01 15 7b 3f c8 d9 74 3f 2e 97 40 3f
       0.38975927 0.98078924 0.9564481 0.7523068
000120 3c e5 7a 3f fd 4d 66 3d 7e 56 7b 3f a1 3b 65 3c
       0.98006034 0.05622672 0.9817885 0.013991267
000130 e3 58 7b 3f af 99 7a 3f 29 ad 7a 3f 19 1d 7b 3f
       0.98182505 0.9789075 0.9792047 0.98091274
000140 90 24 74 3f a9 d5 7b 3f 3b 44 79 3f 04 f7 11 3d
       0.9536829 0.98372895 0.97369736 0.035635963
000150 40 87 4d 3c 78 d7 7b 3f af 10 7a 3f 91 17 71 3f
       0.012544453 0.98375654 0.9768171 0.94176584
000160 75 b9 1d 3f 10 16 76 3f 07 b6 77 3f 2e 20 12 3d
       0.6161111 0.96127415 0.96762127 0.03567522
000170 9c 8f 7a 3f e4 a3 7a 3f 9e 4a 78 3f 8f eb 74 3f
       0.9787538 0.9790633 0.96988857 0.95671934
000180 1b 49 35 3d 29 2b 79 3f fe ac 7c 3f
       0.044259172 0.9733148 0.98701465

gamma f4 [100]
000000 00 00 80 3f 00 00 80 3f 00 00 80 3f 00 00 80 3f
       1.0 1.0 1.0 1.0
000010 00 00 80 3f 00 00 00 00 00 00 80 3f 00 00 80 3f
       1.0 0.0 1.0 1.0
000020 00 00 00 00 00 00 80 3f 00 00 00 00 00 00 80 3f
       0.0 1.0 0.0 1.0
000030 00 00 80 3f 00 00 80 3f 00 00 00 00 00 00 00 00
       1.0 1.0 0.0 0.0
000040 00 00 80 3f 00 00 80 3f 00 00 80 3f 00 00 00 00
       1.0 1.0 1.0 0.0
000050 00 00 80 3f 00 00 80 3f 00 00 80 3f 00 00 80 3f
       1.0 1.0 1.0 1.0
000060 00 00 80 3f 00 00 80 3f 00 00 00 00 00 00 80 3f
       1.0 1.0 0.0 1.0
000070 00 00 80 3f 00 00 80 3f 00 00 80 3f 00 00 80 3f
       1.0 1.0 1.0 1.0
000080 00 00 80 3f 00 00 80 3f 00 00 80 3f 00 00 00 00
       1.0 1.0 1.0 0.0
000090 00 00 80 3f 00 00 80 3f 00 00 80 3f 00 00 80 3f
       1.0 1.0 1.0 1.0
0000a0 00 00 80 3f 00 00 80 3f 00 00 80 3f 00 00 00 00
       1.0 1.0 1.0 0.0
0000b0 00 00 80 3f 00 00 00 00 00 00 80 3f 00 00 80 3f
       1.0 0.0 1.0 1.0
0000c0 00 00 80 3f 00 00 80 3f 00 00 80 3f 00 00 80 3f
       1.0 1.0 1.0 1.0
0000d0 00 00 00 00 00 00 80 3f 00 00 00 00 00 00 80 3f
       0.0 1.0 0.0 1.0
0000e0 00 00 80 3f 00 00 80 3f 00 00 80 3f 00 00 80 3f
       1.0 1.0 1.0 1.0
0000f0 00 00 80 3f 00 00 80 3f 00 00 80 3f 00 00 80 3f
       1.0 1.0 1.0 1.0
000100 00 00 80 3f 00 00 80 3f 00 00 00 00 00 00 80 3f
       1.0 1.0 0.0 1.0
000110 00 00 80 3f 00 00 00 00 00 00 80 3f 00 00 80 3f
       1.0 0.0 1.0 1.0
000120 00 00 80 3f 00 00 80 3f 00 00 00 00 00 00 80 3f
       1.0 1.0 0.0 1.0
000130 00 00 00 00 00 00 80 3f 00 00 00 00 00 00 80 3f
       0.0 1.0 0.0 1.0
000140 00 00 80 3f 00 00 80 3f 00 00 80 3f 00 00 80 3f
       1.0 1.0 1.0 1.0
000150 00 00 00 00 00 00 00 00 00 00 80 3f 00 00 80 3f
       0.0 0.0 1.0 1.0
000160 00 00 80 3f 00 00 80 3f 00 00 80 3f 00 00 80 3f
       1.0 1.0 1.0 1.0
000170 00 00 00 00 00 00 80 3f 00 00 80 3f 00 00 80 3f
       0.0 1.0 1.0 1.0
000180 00 00 80 3f 00 00 00 00 00 00 80 3f 00 00 80 3f
       1.0 0.0 1.0 1.0

KL_gamma_k f4 [99]
000000 0d 15 78 47 e1 09 5f 47 28 a8 78 47 c5 f0 76 47
       63509.05 57097.88 63656.156 63216.77
000010 7c e2 cd 46 9b 04 7b 47 6a c7 79 47 9d 9f 84 45
       26353.242 64260.605 63943.414 4243.9517
000020 6c fe 7b 47 39 75 53 46 1a c1 7a 47 02 b5 7b 47
       64510.42 13533.306 64193.1 64437.008
000030 38 9d 7c 47 e5 b8 39 47 f6 92 5d 44 53 cb 7b 47
       64669.22 47544.895 886.29626 64459.324
000040 bb 29 79 47 ba 84 24 47 b6 d2 78 47 8a 35 97 46
       63785.73 42116.727 63698.71 19354.77
000050 d1 8c 76 47 f3 a7 76 47 15 dc 78 47 bb c8 77 47
       63116.816 63143.95 63708.082 63432.73
000060 07 d5 7a 47 99 73 94 46 df 3d 76 47 1c a7 77 47
       64213.027 19001.799 63037.87 63399.11
000070 a8 00 26 47 58 72 73 47 20 b0 79 47 3e 52 78 47
       42496.656 62322.344 63920.125 63570.242
000080 05 14 76 47 94 a6 76 47 f4 82 47 44 a0 12 7a 47
       62996.02 63142.58 798.04614 64018.625
000090 6e 3c 70 47 48 42 78 47 b9 6b 77 47 61 ff 71 47
       61500.43 63554.28 63339.723 61951.38
0000a0 e8 ee 7a 47 c7 d7 7b 47 6e 71 02 47 7c 91 75 47
       64238.906 64471.777 33393.43 62865.484
0000b0 a8 fd 7e 46 00 ef 75 47 b2 cf 78 47 7e 0c 7a 47
       16319.414 62959.0 63695.695 64012.492
0000c0 6b 26 7b 47 26 d7 7a 47 7c 58 7a 47 51 ef a9 43
       64294.418 64215.15 64088.484 339.86966
0000d0 c0 b0 7c 47 c9 13 67 47 2a 04 79 47 5c 1b 76 47
       64688.75 59155.785 63748.164 63003.36
0000e0 0d 24 76 47 4d dd 77 47 4d 3c 7a 47 e5 be 6a 47
       63012.05 63453.3 64060.3 60094.895
0000f0 fb 2c 79 47 9a 9f 75 47 c6 ba 78 47 e3 8c 77 47
       63788.98 62879.6 63674.773 63372.887
000100 bc d1 7b 47 bd 0f 76 46 b4 e5 6c 47 54 a5 66 47
       64465.734 15747.935 60645.703 59045.33
000110 55 6c c7 46 90 eb 7a 47 48 b1 74 47 e8 76 40 47
       25526.166 64235.562 62641.28 49270.906
000120 d2 bb 7a 47 99 24 66 45 03 2d 7b 47 2b 11 65 44
       64187.82 3682.2874 64301.01 916.26825
000130 67 2f 7b 47 51 70 7a 47 c8 83 7a 47 a7 f3 7a 47
       64303.402 64112.316 64131.78 64243.652
000140 2c fc 73 47 1c ac 7b 47 10 1b 79 47 85 dc 11 45
       62460.17 64428.11 63771.062 2333.7825
000150 18 61 4d 44 ea ad 7b 47 65 e7 79 47 a5 ef 70 47
       821.5171 64429.914 63975.395 61679.645
000160 d2 9e 1d 47 60 ed 75 47 19 8d 77 47 a8 05 12 45
       40350.82 62957.375 63373.098 2336.3535
000170 3f 66 7a 47 84 7a 7a 47 98 21 78 47 0d c3 74 47
       64102.246 64122.516 63521.594 62659.05
000180 5b 28 35 45 01 02 79 47 51 83 7c 47
       2898.5222 63746.004 64643.316

weight f4 [10, 58]
000000 88 6b 14 3e 1e a7 39 be 01 8f 63 3e d8 25 b6 bc
       0.14494145 -0.18130156 0.2222252 -0.022234842
000010 b5 fb f5 bd e4 56 cc 3c db e0 52 3d e9 5e a6 bd
       -0.120109 0.024943776 0.05148397 -0.081235714
000020 ef 6b f5 3b 3c f4 1b 3b 29 42 2d be 8e 6b 3e 3e
       0.0074896733 0.0023796698 -0.1691977 0.18595716
000030 03 cf 3f 3c 95 e8 4a bc 43 63 14 bc bb 27 37 3d
       0.01170707 -0.012384553 -0.009056869 0.044715624
000040 17 bd 90 3d d8 df 96 bc fa 2e 0e 3c c9 0c bf bd
       0.07067316 -0.018417284 0.008678192 -0.093286105
000050 3a c1 a9 bd 9f 50 b2 3d c0 08 ba 3d 14 d5 3d be
       -0.08288808 0.087067835 0.090837 -0.18538314
000060 a7 1f 30 3e 56 30 96 3d 8b 1b 85 3c cb ac 94 3d
       0.17199574 0.07333438 0.016248485 0.0725952
000070 c9 5b b1 3d ad e1 68 3e 4c ba 30 3e 0d ee 4b 3d
       0.08660085 0.22742338 0.17258567 0.04978757
000080 14 b1 a7 3d 0d a3 2c 3c 37 46 42 3e d9 f6 c0 3d
       0.08188072 0.010536921 0.18972097 0.094220825
000090 f3 f3 0d bc 58 75 99 3d a7 bd 57 bd 19 1a 20 be
       -0.008664119 0.07493085 -0.0526711 -0.15634955
0000a0 6c fe 49 3e f4 e9 eb 3d 8d f9 44 be 2e aa 31 3d
       0.1972596 0.115192324 -0.19235821 0.043375187
0000b0 1b 76 01 3c 20 4d 45 be 18 21 df 3d ec a6 74 3b
       0.007901694 -0.19267702 0.10894984 0.0037330939
0000c0 56 88 33 3e f7 78 27 3e 0c 0c 00 3e bd a5 cf 3b
       0.17532477 0.16354738 0.12504596 0.006336896
0000d0 51 1a 22 3d 7f 02 09 3d 76 ef df bc d3 53 1a 3e
       0.03957588 0.033449646 -0.027335864 0.15071039
0000e0 ac 28 d6 3d f2 bf ba 3c e5 e0 04 bd 67 b6 21 3e
       0.10456976 0.022796605 -0.03244104 0.15792237
0000f0 b9 21 34 be db ac 34 be 7d b1 b7 bd 2d 78 69 bd
       -0.17590989 -0.17644064 -0.089694 -0.056999374
000100 b6 2b 52 3d 6f 45 6a bd b4 9e 33 bc 64 17 38 be
       0.051311217 -0.057195123 -0.010963131 -0.17977673
000110 37 65 01 bd 7b 96 dd bd bf cc f0 bd 10 e0 70 bc
       -0.031590667 -0.108197175 -0.11757802 -0.014701858
000120 e1 f5 36 be af 92 8c 3d 06 2a 03 bd 3b 9a ac bc
       -0.17867233 0.06863915 -0.0320225 -0.021069637
000130 5e ee 88 be 79 78 06 3e 12 b5 ed 3c 0f b9 03 be
       -0.2674436 0.13131894 0.029017005 -0.12863563
000140 b4 bd 24 bd 18 82 ec 3d 8a 8f 3e bd 50 3c db bd
       -0.040219977 0.11548251 -0.04652361 -0.10704863
000150 32 15 18 bd d6 4b e7 bd 48 50 db bd 26 60 e6 bd
       -0.03712959 -0.112937614 -0.10708672 -0.112488076
000160 7a 62 9d 3c 8e 54 1a be e5 45 ef 3b fb c2 08 3e
       0.019211996 -0.15071318 0.0073020332 0.13355629
000170 fd 77 1a be 53 60 1c be 1a 7c 33 be be 9d 2b be
       -0.15084834 -0.1527112 -0.1752781 -0.16759393
000180 c0 ec 38 3e 8f 52 37 3e 23 31 a6 bd 05 63 8a 3d
       0.18059063 0.17902587 -0.08114841 0.06757168
000190 91 18 c2 3d 15 1b 45 be c0 43 3f be f5 14 86 bc
       0.09477342 -0.19248612 -0.18678188 -0.016367415
0001a0 67 a0 48 be 2e 50 0b be 37 4b c5 bc 22 90 84 bd
       -0.19592439 -0.13604805 -0.024083717 -0.06472804
0001b0 16 36 9d bd e1 9d 74 3d 5e b7 a1 3d 62 af 09 bd
       -0.07676332 0.059720878 0.07896303 -0.033614524
0001c0 1e ed 07 3e 6e 1f be bd 7e 5b 1d be 25 fe 99 bc
       0.13274047 -0.092833385 -0.15366933 -0.018797943
0001d0 7e cf 75 3e 00 ba d9 bd bf f2 6f 3d 89 e2 28 3e
       0.24004933 -0.1063118 0.05858111 0.16492666
0001e0 dc 60 7a bd 23 6c 3b 3e cc 3c 43 3e 7e 70 0d be
       -0.06112753 0.1830297 0.19066161 -0.13812444
0001f0 32 1b 0b 3e 1e 58 26 3e 9b 48 23 be 7d be 6b 3d
       0.13584593 0.16244552 -0.15945666 0.05755471
000200 30 8c 78 3e e5 d0 65 3e 05 f2 9b 3d 9c 65 97 3e
       0.24272227 0.22442968 0.07614521 0.2956971
000210 43 eb 47 3e fd f7 7f 3e 70 21 46 3d 61 e5 17 be
       0.19523339 0.24996944 0.048371732 -0.14833595
000220 88 b9 a0 bd 69 5d 40 3e 39 3c 59 3e c9 97 51 be
       -0.07847887 0.18785633 0.2121438 -0.20468058
000230 b7 91 a4 3d 36 1e 46 3e c8 18 63 3e b9 5d 6a 3e
       0.080356054 0.19347462 0.22177422 0.22887315
000240 1c f9 96 3d 36 5f 67 3d 9a 37 78 3e dc 48 1f 3e
       0.073717326 0.056487285 0.2423996 0.15555137
000250 26 00 24 3e 66 5d 4b be 21 66 39 3e 18 cc bc 3d
       0.16015682 -0.19859847 0.18105365 0.09218615
000260 3e 66 da 3a 59 95 c0 3d 7d 84 29 be 7d 45 d6 bd
       0.0016662551 0.09403486 -0.16554447 -0.104624726
000270 fc fc e5 3d 58 d7 89 3e 9d dd cf bd fe ed fa 3d
       0.112298936 0.26922107 -0.10149691 0.12252425
000280 10 43 92 3e 16 ca 0a be 6e 71 97 3e ab af 17 bc
       0.2856679 -0.13553652 0.29578727 -0.009258191
000290 5b 72 53 3e 8c 2d 4b 3e 69 90 59 3e ac b6 b9 bd
       0.20649092 0.19841594 0.21246494 -0.09068045
0002a0 7c 37 5d 3d 1b c3 59 3d ec 37 68 bd 14 7c bb 3d
       0.054007992 0.053164583 -0.056693956 0.091545254
0002b0 1c 46 bc 3d b3 db b4 3d 6e e1 2b 3e ea 16 7e bd
       0.0919306 0.08830967 0.16785213 -0.06203357
0002c0 92 4a 05 3e 41 bf 20 3e 31 ff 9e bd 3f 38 7e 3e
       0.13016728 0.15697958 -0.07763518 0.24826144
0002d0 ef 73 1b 3d 1f 4a 1c bd 53 2d 46 3e 39 d5 6a 3e
       0.03795236 -0.038156625 0.19353227 0.229329
0002e0 54 ef 8c bc 40 e2 ac 3d 74 29 5d 3e d4 5e e6 3c
       -0.017203964 0.08441591 0.21597844 0.02812139
0002f0 4e 50 3d 3e fb 38 3a 3d 42 92 14 3d 92 d7 22 3d
       0.18487665 0.045464497 0.036272295 0.039756365
000300 0d 39 bf 3d 92 66 8c bd 81 3d 47 be 34 95 e8 3c
       0.093370534 -0.06855501 -0.19457056 0.028391458
000310 c7 66 0a 3e b6 e8 0e be 0b 5c 24 3e e3 35 53 3e
       0.13515769 -0.1395596 0.16050737 0.20626025
000320 14 9b 30 3d 21 f6 c1 3b 04 9e 0b 3e 62 ae 5a 3e
       0.043116644 0.0059192334 0.13634497 0.21355584
000330 e9 23 50 3e d0 77 02 3e 26 52 a2 3d 3d b2 9b bd
       0.20326199 0.12741017 0.07925825 -0.07602356
000340 0c 7e 5c 3e f6 98 62 3b 56 0c 7c 3d e0 59 2d 3e
       0.21532458 0.0034576035 0.061535202 0.16928816
000350 fb fe 00 bd c1 15 2b bb 89 a2 32 3e ba cd 76 3e
       -0.03149317 -0.0026105496 0.17444815 0.24101916
000360 a0 e6 71 be 55 9b 1b 3e 2c af 13 3e d6 08 e2 bc
       -0.23623133 0.15195973 0.14422292 -0.027592104
000370 96 55 1c 3e d5 6b 2d 3c d6 1a 5d 3c 64 a7 dc 3d
       0.15267023 0.010584791 0.013495168 0.10774115
000380 91 22 30 3e ad d8 0f bd 22 80 f6 3d 31 9b 53 3d
       0.17200686 -0.035118748 0.12036158 0.051661674
000390 2f c6 27 be 07 09 ee 3d 53 3a 52 3e 75 8d 06 3e
       -0.16384195 0.116228156 0.20530061 0.13139899
0003a0 f6 ae 8b 3c d6 e9 49 bd e3 92 9f bd 9c 2b 45 be
       0.017051201 -0.04929527 -0.07791688 -0.19254917
0003b0 44 43 61 3e 6f 1c eb 3c e6 39 4b bb 8b e7 85 bb
       0.21998316 0.028700082 -0.0031009852 -0.00408644
0003c0 9b 9b 22 be 3c a9 29 be 4c f4 07 3e 2c fe 09 3d
       -0.15879671 -0.16568464 0.13276786 0.033689663
0003d0 e7 bc c6 bd f5 bd 60 be 9f b2 e8 bd a7 74 85 bd
       -0.09703999 -0.21947463 -0.11362194 -0.0651639
0003e0 7e 9b 8b bd ad 83 eb bb 02 7f 3a 3e 3f 97 00 3d
       -0.06816767 -0.007187328 0.18212512 0.03139424
0003f0 66 a4 ea bc dc b3 a5 bd 69 7e 11 be 0c ae 21 bd
       -0.028642844 -0.08090946 -0.14208378 -0.039472625

bias f4 [10]
000000 88 88 b9 bd 3c d1 18 3e 5a e3 36 be 8e fb d4 bd
       -0.090592444 0.14923567 -0.17860165 -0.10399543
000010 51 dd d3 3d 10 ce fc 3c 7b 70 2e be e0 eb 55 be
       0.10344947 0.030859977 -0.17035095 -0.2089076
000020 a5 d5 8e bb e1 da 9d bd
       -0.0043589645 -0.077077635

weight f4 [10, 10]
000000 20 a2 7f be 73 ee 4e be b9 66 01 3e 10 88 64 bd
       -0.2496419 -0.20208149 0.12636842 -0.05579382
000010 55 df 3a be 34 06 45 be 9a ac 0c 3e 3f 06 2b 3e
       -0.18249257 -0.19240648 0.13737717 0.16701601
000020 b7 3a 49 3e 3b 0e a7 be d4 94 8f 3d 1e 24 05 bf
       0.19651304 -0.32628044 0.070108086 -0.52008235
000030 56 88 00 3e 1d 82 dd bd bb 16 8f be cd ad 68 be
       0.12552008 -0.10815833 -0.2794703 -0.2272255
000040 0f d8 ab be dd 27 78 3d f4 7b b2 be d7 54 02 3e
       -0.33563277 0.06058489 -0.34860194 0.12727676
000050 67 1c 17 3e 9b b8 66 3e 39 f5 43 3e f8 89 23 3e
       0.14756928 0.22531359 0.19136514 0.159706
000060 2b 82 15 bc d8 7e fb bd 53 52 1e be a3 47 33 be
       -0.009125273 -0.12280053 -0.15461092 -0.17507796
000070 91 f6 af 3e fe fb 80 3e c0 75 06 3e f7 35 62 be
       0.34367803 0.25192255 0.13130856 -0.22090898
000080 89 e1 77 bd 89 e1 0d 3d c7 31 cc be 9e e6 90 3d
       -0.06051782 0.034638915 -0.39881727 0.07075237
000090 94 7d 97 be 03 df a0 be cd 51 25 bd fc a8 1f bd
       -0.29587996 -0.31420144 -0.040361214 -0.038979515
0000a0 a6 b8 01 bd fc 70 f9 3d 36 36 61 3d 14 a4 49 bb
       -0.031670235 0.12179753 0.05498334 -0.0030767964
0000b0 c5 d0 31 be 5a ed e9 3d 14 00 a0 be 54 29 98 3e
       -0.17364796 0.11422224 -0.3125006 0.2971903
0000c0 43 12 80 be ee 0e c7 bd d3 60 b9 3d 7f 99 82 3e
       -0.25013933 -0.097196445 0.09051671 0.25507733
0000d0 a7 07 45 3e 07 fc 96 3d 1d 7d f4 3e b0 d1 00 3e
       0.192412 0.07372289 0.47751704 0.1257999
0000e0 4a 60 59 3e 3b 35 4d bc 74 2e 89 3e 94 f8 2a 3e
       0.21228138 -0.012524898 0.26793253 0.16696388
0000f0 64 6e 13 3c e8 47 da be 53 e5 ad be d7 a0 a6 be
       0.008998487 -0.42632985 -0.33964023 -0.32544586
000100 03 29 eb be bb 2a 24 be ec 26 ef 3d e3 a7 fc 3d
       -0.45929727 -0.16031925 0.11677346 0.12336709
000110 35 9a 9b be 45 4a d0 3c 0a 10 4f be b1 6b 91 3e
       -0.30391088 0.02542604 -0.20220962 0.28402475
000120 22 4f 5d 3d 30 88 ab 3c c7 ea 03 3e 11 12 ac 3e
       0.054030545 0.020938963 0.12882529 0.33607534
000130 4d 7f 74 be 0b 8a 57 3e 88 ad 97 3e f2 ad 80 3e
       -0.23876686 0.21048753 0.2962458 0.2513271
000140 d5 43 8a 3e 23 b9 89 3e b0 c5 97 bb 8d 44 d0 bd
       0.27004877 0.2689906 -0.0046317205 -0.10169325
000150 aa 1a 1a 3e 5c a1 bb 3e 0b 13 37 be c2 80 29 be
       0.15049234 0.36646545 -0.17878358 -0.16553023
000160 47 eb b7 3c 94 de ed bd 2e 9d 8a bc cc 02 fa be
       0.022451056 -0.11614719 -0.016920652 -0.4883026
000170 e5 16 15 3e 7e bd c9 be 4e 37 99 be 0c 08 d4 be
       0.14559515 -0.39402384 -0.29925007 -0.4141239
000180 39 04 46 3e e0 31 95 3d ba d8 82 be 36 7c a3 bd
       0.19337548 0.072849035 -0.25555974 -0.07982676

bias f4 [10]
000000 93 fe 88 3e 8a 77 03 bf 53 55 c0 3e 1a 45 ee bd
       0.26756725 -0.5135428 0.37565097 -0.11634274
000010 75 7f eb 3d e3 2a 62 3d e3 e5 27 be 54 4c 04 be
       0.1149892 0.05521668 -0.16396289 -0.12919742
000020 f8 bb 99 3e 9c d0 4c be
       0.3002622 -0.20001453

weight f4 [1, 10]
000000 f4 ca 4e 3e fc 4f 1a 3d da 38 14 3c 76 03 03 be
       0.20194608 0.037673935 0.009046758 -0.12794289
000010 34 9c 67 bd 53 c4 02 bd 3b d0 58 3d a9 66 d9 3d
       -0.05654545 -0.03192551 0.05293296 0.10615284
000020 01 93 fb bb 94 1f 19 bd
       -0.0076774363 -0.03738363

weight f4 [1, 10]
000000 1a 67 f0 be 9e 2a 15 3e e9 98 1b bf 9d 71 67 3d
       -0.4695366 0.14567038 -0.607802 0.056504834
000010 06 db bb be e5 94 33 bf ae 2c 15 be a3 9c 2d bf
       -0.3669054 -0.7014907 -0.14567825 -0.67817134
000020 72 65 21 bf 76 e1 c2 bd
       -0.6304542 -0.095156595

prior_mean f8 []
000000 16 af c4 eb 91 66 12 c0
       -4.600166019324908

weight f4 [50, 58]
000000 5a 4f 3e be 97 d7 47 bf 5c 07 5b be f9 ef 6a 3d
       -0.18584958 -0.7806334 -0.21389526 0.057357762
000010 45 b8 03 bf 02 0f 51 3e ea a8 27 3b a9 25 78 be
       -0.5145305 0.20415881 0.0025582858 -0.24233116
000020 f1 c8 52 3e af 4c dd 3e d2 e9 89 bd b5 34 da 3d
       0.20584466 0.43222567 -0.06734051 0.10654584
000030 f1 38 50 3e 38 c7 80 be 4b fb a1 be 07 a8 be bd
       0.20334221 -0.25151992 -0.31637034 -0.093093924
000040 71 a9 3c be ca 67 d9 bd 09 6b d4 be 77 2a 5b be
       -0.18424012 -0.10615499 -0.4148791 -0.21402918
000050 1f 6b 2b 3d 3c 74 a4 3d c2 c5 c2 3e e1 76 2d 3e
       0.041850206 0.080299824 0.38041502 0.1693988
000060 ee 4a cc 3d 9d 86 32 bd 35 c0 93 3e 44 35 57 3f
       0.09975229 -0.04358541 0.2885758 0.8406565
000070 fa 64 49 3f bf 91 7b 3e e5 18 99 3d e7 1f 29 be
       0.78669703 0.24567316 0.074754514 -0.16516076
000080 dc 7c aa 3e 2d 50 06 bf 8a 26 62 bd 45 a6 c2 3e
       0.33298385 -0.5246609 -0.055212535 0.3801748
000090 86 38 84 be d2 6a a8 3e c1 d6 84 3e 17 5c 83 3e
       -0.25824374 0.32893997 0.25945094 0.25656196
0000a0 e6 d1 80 3e 29 0c 99 bc 1c 6c bc be 95 e7 1e 3f
       0.2516014 -0.018682556 -0.3680123 0.62072116
0000b0 98 8a 17 bd 35 2d c9 bd 9a 98 64 be 8d 02 c0 be
       -0.036997408 -0.09823076 -0.22323838 -0.37501946
0000c0 fa 9d ac 3e 1e ec 58 3e 6c ee 65 3f 33 d1 ba be
       0.33714277 0.21183822 0.8981693 -0.3648773
0000d0 26 e6 cd 3d bd 0d 6d 3e 01 c7 43 3e 89 9d d1 3e
       0.10053663 0.23149772 0.19118883 0.40940502
0000e0 6c 03 d7 be 27 3b e3 be 5a 40 9a be 8d 4c e5 3e
       -0.41994798 -0.44381067 -0.3012722 0.44784966
0000f0 06 87 9e be a2 91 d8 3e 12 e3 aa be 4b 55 3a be
       -0.3096239 0.4229861 -0.33376366 -0.18196599
000100 ef e7 e7 3d df 6f 4a 3e 39 a6 4b be 18 ba ad be
       0.11323535 0.19769238 -0.19887628 -0.3393104
000110 ec 2c 6c 3e 3c b7 64 be 26 19 2c be 14 15 87 be
       0.23064011 -0.22335523 -0.16806468 -0.2638327
000120 7a f8 e0 be 9c be d7 be 6b d0 2d be 0d fc 50 be
       -0.43939573 -0.4213761 -0.16974036 -0.2040865
000130 b4 29 c2 be 07 5c 57 3e 45 88 94 3e d9 87 3b 3d
       -0.37922442 0.210312 0.29010215 0.04578385
000140 09 1d 4e 3e 50 d6 77 be 7b ce 81 be ae e3 ad bd
       0.20128264 -0.24202847 -0.25352845 -0.08490692
000150 07 3a 9e 3d 73 9a 8d 3f 43 78 c3 bc 6a 97 78 bd
       0.077259116 1.1062759 -0.023861056 -0.060691275
000160 99 c3 68 be b0 2a 80 3e 4b 70 51 3e 68 97 24 bf
       -0.22730865 0.25032568 0.20452993 -0.6429353
000170 0d 36 6c bd 1d 9c 05 3f ec ed 93 3e af ef fc bd
       -0.057668734 0.52191335 0.28892457 -0.123504035
000180 07 c5 19 be 89 df a6 be 79 dc 60 be 09 ae cb be
       -0.15016566 -0.3259242 -0.21959104 -0.39781216
000190 97 31 44 bc e6 e1 78 3d 36 80 7f be 43 1b 23 be
       -0.011974714 0.06076231 -0.24951252 -0.15928368
0001a0 0d 18 c0 3e ed c0 c9 3e 3e 89 f9 bc 5d dc 8b 3e
       0.3751835 0.39405003 -0.03046095 0.2731656
0001b0 5d f2 65 3e 31 16 18 bf c8 a8 70 3f 61 d5 20 be
       0.22455736 -0.5940886 0.9400754 -0.15706398
0001c0 71 08 27 3e ff 72 33 be 76 0c 2d 3f 7b 75 f0 be
       0.16311814 -0.17524336 0.6759714 -0.4696463
0001d0 3b 81 1d 3e cb 46 58 3d 35 59 73 3d 14 f1 e1 3e
       0.15381329 0.05280189 0.059411246 0.4412924
0001e0 e5 12 e6 3c f1 1d 4a 3e 90 6d 8a 3e 9d 15 73 bd
       0.028085181 0.19737984 0.27036715 -0.059346784
0001f0 4d 92 60 3e d1 75 c5 3d 22 01 88 be 24 86 14 3e
       0.2193081 0.09641612 -0.26563364 0.14504296
000200 8f 71 81 3e 30 cd 71 3e 16 e1 7e bd e5 9c 5c 3e
       0.2528195 0.23613429 -0.062226377 0.21544226
000210 bc ab b3 3d b8 43 b9 3d 01 67 cf ba bd 20 2e bd
       0.0877299 0.090461195 -0.0015823544 -0.04251169
000220 91 e1 4f be 14 9c 54 3e 4b ef 74 3e b2 a4 8e be
       -0.2030089 0.20762664 0.23919408 -0.27860028
000230 e1 25 17 3e fa 20 a9 3e 0e 2c c1 3e 54 e8 f6 3d
       0.14760543 0.33032972 0.37728924 0.12056032
000240 8a ae cb 3d e2 06 54 3e b6 73 9a 3d ea c6 94 3e
       0.099454 0.2070575 0.07541601 0.2905801
000250 11 34 83 3e c2 51 77 be 14 30 9a 3e 11 47 93 3e
       0.2562566 -0.24152282 0.30114806 0.28765157
000260 74 6f 43 3e 48 d7 23 3e 98 8b 91 be 8d c2 62 be
       0.19085485 0.16000092 -0.28426814 -0.22144528
000270 e5 15 99 3e c0 67 ee 3d b2 f1 89 bd 9b 29 33 3d
       0.29899517 0.116408825 -0.06735553 0.04374085
000280 a2 f1 1d 3e 88 ed 25 bd 1c 8d 11 3f 5f a6 d6 3d
       0.15424207 -0.04050973 0.5685594 0.104809515
000290 73 3f 7d 3e 6e 39 5e 3e 16 cc a5 bd d6 a8 42 be
       0.24731235 0.21701595 -0.08095567 -0.19009718
0002a0 28 12 d2 3e 6f c4 56 3d 60 f9 26 be a0 a5 1a 3e
       0.41029477 0.052433427 -0.16306067 0.15102243
0002b0 15 b1 e4 3e 0d 39 4e bc bc 56 82 3e 27 2d 13 be
       0.44666353 -0.012586844 0.25456798 -0.14372693
0002c0 ba 9d 9f 3e 49 25 ad 3e 62 a0 a8 be c1 57 a1 3e
       0.31175023 0.3381751 -0.32934862 0.31512263
0002d0 94 39 7e 3e d8 cd 8c be ff 7a 9b 3e fc ab 3c 3e
       0.24826652 -0.27500796 0.30367276 0.18424982
0002e0 24 5c f8 bd 8e 4e 35 3e 9b 31 9c 3e e4 18 d4 3d
       -0.121269494 0.17705747 0.30506596 0.1035631
0002f0 26 8c f3 bc 32 1b 4a 3e 16 97 1b 3d 5c ee 6d 3e
       -0.029729914 0.19736937 0.037985884 0.23235458
000300 9c 05 26 bd 45 aa 74 3e 73 13 89 bd da ae cf 3e
       -0.040532693 0.23893078 -0.06693163 0.4056309
000310 c6 44 03 3e f3 5e e9 be 65 21 51 3e 9e 63 64 3e
       0.12819204 -0.45580253 0.20422895 0.22303626
000320 e3 ca f4 3e 59 8d 7a 3c 92 36 66 3e 1f a4 4a 3e
       0.4781104 0.015292489 0.22481754 0.1978917
000330 c0 79 de 3e 1f fb df 3e 50 2f 2c 3e 94 4b 21 be
       0.43452263 0.43746278 0.16814923 -0.15751487
000340 04 82 07 3f 79 29 6d bb db a3 c1 3e be bf 5f 3e
       0.52932763 -0.003618805 0.37820324 0.21850488
000350 69 c0 a2 bd be 0e 85 bd 83 a9 11 3e 43 3b 8b 3e
       -0.079468556 -0.064969525 0.1422482 0.2719365
000360 fe 7d 59 3d 57 6a 8e bd e4 31 8a 3e ea 1e 46 be
       0.05309867 -0.069538765 0.2699119 -0.1934773
000370 4c ac 93 3e bf 67 74 3e e7 cf 56 3e 54 32 e6 3d
       0.2884239 0.23867701 0.20977746 0.11240068
000380 39 29 3c be 82 c0 60 be 4b 5a e7 bd 5c 96 43 3d
       -0.183751 -0.21948436 -0.11296519 0.047750816
000390 0e b4 44 be e4 e6 be 3d a4 b5 13 be fa c9 d2 bd
       -0.1920931 0.09321383 -0.14424759 -0.1029243
0003a0 91 07 bf 3e 45 f7 99 3e 58 16 78 3f 57 7e af 3d
       0.3731046 0.30071464 0.96909094 0.08569019
0003b0 23 4f f3 be b5 ed 48 3e 86 4a 47 3e 1b 08 39 bf
       -0.47521314 0.19621928 0.19462022 -0.7227799
0003c0 43 b2 e8 3b 32 a1 1b 3e 4b 4c 5b 3e 25 8a ed bd
       0.0071013286 0.1519821 0.21415822 -0.115986146
0003d0 f1 b8 3a 3e 91 98 b5 bd 39 59 0f 3d 2b f3 07 3f
       0.18234612 -0.0886699 0.0349972 0.5310542
0003e0 4c e7 a0 3e 60 dc 87 be ec 6a 7d 3c 26 af 56 3e
       0.31426466 -0.2653532 0.015467387 0.20965251
0003f0 70 c7 14 bf 2f f8 d8 3e b8 94 f6 bd ff 1b 20 bf
       -0.5811682 0.4237685 -0.120400846 -0.6254272

bias f4 [50]
000000 b9 a8 1f be 32 2b 4e bc 4c c2 75 be c6 00 28 be
       -0.15591706 -0.012583541 -0.239999 -0.16406545
000010 c9 e2 0e 3e de 71 ae bd 38 b1 1b be 48 aa 70 be
       0.13953699 -0.08517812 -0.15204322 -0.23502457
000020 4f a1 59 be 89 3f bf bd d1 03 3a 3c 7f b4 79 be
       -0.2125294 -0.0933829 0.011353449 -0.2438526
000030 d3 20 8d bd c1 9d ae be 26 11 cd bd c6 f5 ae 3c
       -0.06891026 -0.34104732 -0.100130364 0.021357428
000040 a1 b4 a5 be d9 66 8d be 00 a7 96 be 31 6d 1c be
       -0.3236437 -0.2761753 -0.29424286 -0.15276028
000050 47 54 07 be a5 f7 28 bd 7b c7 80 be b9 a4 a7 be
       -0.13215743 -0.041251797 -0.25152192 -0.3274286
000060 3b 2d a8 be a7 82 68 be 05 58 8c bc fe a6 6f bd
       -0.32847008 -0.2270609 -0.017131815 -0.058508866
000070 25 be 1f be 2e 67 52 be 68 5a c0 bd 2b d1 f5 bd
       -0.15599878 -0.20547172 -0.093922436 -0.12002786
000080 36 ed 07 be c3 c1 2f be c7 13 6c bd 25 41 9e be
       -0.13274083 -0.17163758 -0.05763605 -0.30909076
000090 5d 8b 4c be 79 9a 35 be 70 08 53 be dc 92 0e be
       -0.19975038 -0.17734708 -0.20608687 -0.1392321
0000a0 85 d1 70 bc 99 80 c4 3e 59 b7 c5 bd 35 32 49 3d
       -0.014698391 0.38379362 -0.096541114 0.049120147
0000b0 c3 52 b0 bd 34 1a 9f bd 79 68 da bd fb 85 6c be
       -0.086095355 -0.0776867 -0.10664458 -0.23097984
0000c0 7f c5 89 be 6a fa 95 bd
       -0.2690849 -0.07323153

weight f4 [50, 50]
000000 c3 99 97 bd dc d3 59 be 23 29 9b bd 03 f5 49 be
       -0.074023746 -0.21272224 -0.075762056 -0.19722371
000010 1f dd d7 be 37 67 ad be 6a 2b 35 3e 69 0e 6c be
       -0.4216089 -0.3386781 0.17692342 -0.23052372
000020 7e 86 75 bd fd a5 d1 ba 9f 56 bf be 00 d5 40 be
       -0.059942715 -0.0015994903 -0.37370774 -0.18831253
000030 5e 3c a6 3d 91 e5 28 3e 7a aa d3 3d ed 45 89 be
       0.08116983 0.16493823 0.1033525 -0.26811162
000040 8f 98 05 3c f9 9a e9 bd 7a e6 3f be d8 3e 87 be
       0.008154049 -0.11406512 -0.18740264 -0.26415133
000050 6c 69 f3 bc df ac 10 be 40 4a 48 be ff 34 02 be
       -0.029713355 -0.14128445 -0.19559574 -0.12715529
000060 e6 7f 32 3e a2 41 02 3e ae 4d 1f bd ab 10 ac be
       0.17431602 0.1272035 -0.03889244 -0.33606467
000070 86 ae 5a be 13 f3 84 bd 67 83 a1 3e eb b7 95 bd
       -0.21355638 -0.06491675 0.31545565 -0.0731047
000080 ed 3c 65 be bf 91 8b 3e f7 0b b7 3d a8 ee b1 bd
       -0.22386523 0.27259633 0.08937829 -0.08688098
000090 7d 16 dc bd 04 c4 97 be a6 b2 fc bd 6f 04 a0 3e
       -0.10746477 -0.29641736 -0.12338762 0.31253383
0000a0 95 43 5a be 53 46 0b bf 64 21 cf bd 06 65 80 be
       -0.21314843 -0.5440418 -0.10113791 -0.25077075
0000b0 1f 2a 1b 3e 60 69 19 3d 8b e0 a5 be 92 d7 c6 3d
       0.15152787 0.03745401 -0.32397875 0.097090855
0000c0 3e f4 36 3e 31 df 74 3e 96 4d 68 bd b7 81 23 be
       0.17866609 0.23913266 -0.056714617 -0.15967451
0000d0 ba 90 1d be 56 6f 90 bc 2e 14 81 be 6b 69 9e be
       -0.1538724 -0.017631214 -0.25210708 -0.30939803
0000e0 28 47 0f be db b7 07 bd 26 3f 2c be 63 6f 0e be
       -0.13991988 -0.033134323 -0.16820964 -0.13909678
0000f0 65 70 66 be bc ef 12 be 97 a6 38 bd e0 0f 83 be
       -0.22503813 -0.14349264 -0.045080747 -0.2559805
000100 62 a1 b8 bd 0a cf c2 be 6e 27 e0 bd f0 6b 78 ba
       -0.09015156 -0.38048583 -0.109450206 -0.0009476533
000110 bb 4b 54 be 27 bc ec bd e9 c6 af bd 91 d4 16 be
       -0.20732014 -0.11559325 -0.08582861 -0.14729525
000120 dd d9 0f be b0 77 c2 bd d8 cc 84 bd 79 8a 82 be
       -0.14047952 -0.09495485 -0.06484383 -0.2549627
000130 86 28 80 be 86 08 a0 be 06 7a 84 bd b6 7d b8 be
       -0.25030917 -0.31256503 -0.064685866 -0.3603341
000140 43 35 5f bd a7 16 62 bd ed c1 69 be cc c8 2f bd
       -0.054494154 -0.055197384 -0.22827883 -0.042916104
000150 5d 5e 35 bb 72 1a 43 3d ec 96 ac bc 03 da 3a be
       -0.0027674653 0.047632642 -0.021068059 -0.18247227
000160 1f 21 72 be 74 2b b3 bd 9a ba dc bd 4a ff b9 be
       -0.23645447 -0.087485224 -0.10777779 -0.36327583
000170 5d 08 1e be f3 d7 3a be f2 45 84 be b5 ee 1e be
       -0.15432878 -0.1824644 -0.25834614 -0.15520747
000180 2f ce 19 bd 18 1e e3 bd 9e 34 69 be 3f 6c 64 be
       -0.037550148 -0.11089724 -0.22773978 -0.22306918
000190 c7 01 e5 bd 28 31 61 be 65 e9 1f be 91 fc 57 3d
       -0.111819796 -0.21991408 -0.15616377 0.0527311
0001a0 00 0d 54 be 2d cc a7 be 46 25 21 be 9f f7 0a be
       -0.20708084 -0.3277296 -0.15736875 -0.13571022
0001b0 85 a3 e1 bd 1c d9 a5 bd 5f fb ed bd ec 5d 12 be
       -0.11017517 -0.08098051 -0.11620211 -0.14293641
0001c0 24 c9 9a bd 3c 31 db bd c4 d6 fe bd 76 d1 a7 be
       -0.07557896 -0.1070275 -0.12443307 -0.32776994
0001d0 fd 66 b2 bc 9b 0f 23 bd 43 76 61 be 98 9d 5c 3d
       -0.021777624 -0.039809804 -0.2201777 0.05386123
0001e0 e4 ce 7b bd fb 38 e3 bd ea 7a 1a be 3c d1 29 3b
       -0.061476603 -0.110948525 -0.1508595 0.0025912067
0001f0 9d 33 7f bd 09 37 de bd 5e 21 b3 be d1 44 f4 be
       -0.06230508 -0.10850341 -0.34986395 -0.47708753
000200 1f d3 de bc 32 0e 83 be 85 ff a8 be 1e fc 3b bd
       -0.02720028 -0.25596768 -0.33007446 -0.045894735
000210 39 df 12 bd 25 21 d7 bd 26 2e 05 be da ec 42 bd
       -0.035857413 -0.10504369 -0.13005885 -0.04758916
000220 69 e4 fe bc 58 9f ce bd 5c c6 56 be 37 71 af be
       -0.031114774 -0.10088986 -0.20974106 -0.34266064
000230 e6 2b 71 be e5 44 1b be fe 1a 1e bd 98 8b ad bc
       -0.23551902 -0.15163 -0.03859996 -0.021184728
000240 ce 89 8b be f3 6a 1e bd 71 53 69 be 9b 6c c9 bd
       -0.27253574 -0.038676213 -0.22785737 -0.09835168
000250 84 fb 45 bd ae a3 e5 be 35 1d 2a be c1 f9 87 be
       -0.048335567 -0.4485144 -0.16612704 -0.26557735
000260 84 92 01 be 84 08 a0 bd df 57 cc bc 6d b6 8e 3d
       -0.12653548 -0.07814124 -0.024944244 0.06968389
000270 4a 5a 25 be 60 dc 3e be 98 5c 72 bd 2e 1d 43 be
       -0.16147724 -0.18638754 -0.059170336 -0.190541
000280 46 48 66 3d 25 1d be bd a4 06 49 be ae 1a 30 be
       0.05622127 -0.09282903 -0.1963144 -0.17197677
000290 e7 ca 20 bd 1a 31 8d be 25 5e c9 bd 22 8f 0f 3d
       -0.039256003 -0.27576524 -0.0983241 0.03504861
0002a0 7d dc 17 be d3 ad ee ba 4c f4 ab bd ed d2 b6 bd
       -0.14830203 -0.0018209763 -0.08396205 -0.0892695
0002b0 0c a3 47 be ef 2c 16 be e2 03 df bd b2 be 07 be
       -0.19495791 -0.14665578 -0.108894125 -0.13256338
0002c0 f3 f0 3f be c8 23 c3 be 9d 5d 48 be 23 3f 4a be
       -0.18744259 -0.38113236 -0.1956696 -0.19750647
0002d0 fb fc ad be ce 07 21 be 27 cd 83 3d 68 73 b1 be
       -0.3398207 -0.15725634 0.06435614 -0.3465836
0002e0 31 0d 27 be ad d7 ed bd 21 07 54 bc 1f 84 0b be
       -0.16313626 -0.116134025 -0.012941153 -0.13624619
0002f0 a6 0f ac be f1 75 8f be bc 86 55 be 5c 9f 9b bd
       -0.3360569 -0.2801967 -0.20852178 -0.07598755
000300 ec 36 1d 3d 98 91 ea 3b 6c ad 65 bd 77 f6 89 be
       0.038382456 0.0071584694 -0.05607359 -0.2694585
000310 c8 8d bb bd 6f e8 34 be aa 8d 03 be 72 ea d3 be
       -0.09157902 -0.17666791 -0.1284701 -0.41389805
000320 4e bc 70 3e 88 56 44 3e d8 28 22 be 2b 14 89 3b
       0.23509333 0.19173634 -0.15835893 0.0041833124
000330 da 9b dd be 00 8d 98 bd 43 60 1e be 67 16 d2 3d
       -0.43282968 -0.074487686 -0.15466408 0.10258179
000340 52 76 8f be 9e f8 04 be 1d 62 00 bf e9 13 b1 3d
       -0.2801996 -0.12985465 -0.5014971 0.08646376
000350 a8 5f b8 bd c1 fd a8 bd 4d fd 1b bf e5 d4 a0 3e
       -0.0900262 -0.08251525 -0.6093338 0.31412426
000360 43 d9 c2 bd 8d 66 f7 bc 5e ae fa bc 54 e9 4a be
       -0.09514096 -0.030200267 -0.030600723 -0.1981557
000370 da d0 15 be df 9a 64 be 0f 32 ec bc 75 86 0b be
       -0.14630452 -0.22324704 -0.028832464 -0.1362551
000380 3e ca d6 3d 16 8c 9c bc b8 20 80 3e 81 9b 91 3e
       0.104877934 -0.019109767 0.25024962 0.28438953
000390 c4 93 ce 3c 2b 07 4c 3d 43 1e 73 be 96 fd a3 bd
       0.025216945 0.049811523 -0.23742013 -0.08007352
0003a0 49 f3 91 bc 36 9f f2 bc 9c 96 cc be aa 9e ae bd
       -0.017816203 -0.029616933 -0.39958656 -0.085263565
0003b0 dc b5 66 bd 82 76 20 bd 8f dd b5 bd 85 a5 43 bd
       -0.05632578 -0.039175518 -0.088801496 -0.047765274
0003c0 ee 7c 2a be 56 80 0f bf 63 11 b2 be 04 69 f2 be
       -0.1664922 -0.560552 -0.3477889 -0.47345746
0003d0 4b 84 82 be 3e 46 0e bf b4 47 97 bd eb 4a 29 bd
       -0.25491557 -0.5557593 -0.07386723 -0.041331213
0003e0 a3 ff 70 be 0c 43 65 be 46 f8 7d be 07 80 b1 be
       -0.23535018 -0.22388858 -0.2480174 -0.3466799
0003f0 32 06 81 bc 25 7f cf bd fe 4c ba bd 91 74 d0 bd
       -0.015750024 -0.10131673 -0.09096716 -0.10178483

bias f4 [50]
000000 d0 1b 02 be 5c 01 51 be de 42 1b be 8b 64 87 be
       -0.12705922 -0.20410675 -0.15162227 -0.26443896
000010 c6 8f 67 be f7 29 19 be 3f 0f 63 be 54 89 65 be
       -0.22613439 -0.14957415 -0.22173785 -0.22415668
000020 e5 76 87 be d7 fc 19 be 4a f5 45 be a6 aa b5 be
       -0.26457897 -0.15037857 -0.19331852 -0.35481757
000030 6b 01 30 bd f2 fa 76 be 0a 51 8a be 5c f6 28 be
       -0.042970102 -0.24119166 -0.27014953 -0.16500229
000040 75 c2 bc bd 4a e8 fb bd 88 80 81 be c4 50 4a be
       -0.09216777 -0.12300165 -0.25293374 -0.19757372
000050 d8 97 17 be 0e de 33 be a7 19 5e be 9b be 9d be
       -0.14804018 -0.17565176 -0.21689473 -0.30809483
000060 98 c9 99 be bd fe 03 be c9 db a8 be 1d 4b 8f be
       -0.30036616 -0.12890144 -0.32980183 -0.27986994
000070 8b e4 42 be cf dd 83 be c0 9d 54 be 89 e8 84 be
       -0.19032495 -0.25755164 -0.20763302 -0.2595866
000080 ff 03 26 be 4e d9 8a be 29 6e 23 be 7c 1f 74 be
       -0.16212462 -0.27118915 -0.15959992 -0.23840135
000090 38 92 75 be 58 3f 89 be c1 0d 92 bd 52 59 76 be
       -0.2398156 -0.2680614 -0.071315296 -0.2405751
0000a0 0a 4d 41 be 1a 2f a2 be e6 fd 4d bc 16 75 1d be
       -0.18877044 -0.3167656 -0.012572741 -0.15376696
0000b0 6c 83 ec bd 5e 38 74 be e3 1d 27 be 78 3d a6 be
       -0.11548504 -0.23849627 -0.16319995 -0.32468772
0000c0 92 0a 6a be 6d 98 8c be
       -0.22855595 -0.27460042
