mcspace/paper/human_runs/runs/seed_1/model.pt (torch, 308831 bytes, 66 tensors)

theta_params f4 [100, 58]
0	0xbf3ca41b	-0.73687905
1	0x40b75af4	5.7298527
2	0xc098bc81	-4.7730107
3	0xc014b438	-2.3234997
4	0x3f443e1a	0.7665726
5	0xc09d6ce1	-4.919541
6	0xbf4c6869	-0.7984682
7	0xbcbb3b85	-0.02285553
8	0xc08b479a	-4.3524904
9	0xc0037705	-2.0541394
10	0x3f5c0a50	0.85953236
11	0xc004e63e	-2.0765529
12	0xc0c2acd7	-6.0835986
13	0xc0519fb2	-3.275372
14	0xc0334b34	-2.801465
15	0xc0c4c297	-6.1487536
16	0xc0adbbd8	-5.42918
17	0xc0833765	-4.100512
18	0xc0015521	-2.0208209
19	0x3ff2c675	1.8966814
20	0xbf5db14e	-0.8659867
21	0xbfba6b18	-1.4563932
22	0xc0a227a2	-5.067338
23	0x3f7d21df	0.9887981
24	0xc01436e1	-2.3158495
25	0xc04d98b1	-3.2124445
26	0xbfa57181	-1.2925264
27	0xc040addd	-3.0106118
28	0xbdae2273	-0.085026644
29	0xc08e5c83	-4.448793
30	0xbfeb70ed	-1.8393837
31	0xbfb31134	-1.3989625
32	0xc02abb8a	-2.6676965
33	0xbf4c02fe	-0.79692066
34	0xc016770e	-2.3510165
35	0xbe975f53	-0.29564914
36	0x3f91dd06	1.1395576
37	0xbf9253c6	-1.1431816
38	0xbc6735ef	-0.01411198
39	0x3ee2f5b7	0.4432809
40	0xbf261a95	-0.6488431
41	0xc0079700	-2.1185913
42	0xc036b26d	-2.8546402
43	0xc0211259	-2.5167449
44	0xc00cd169	-2.2002814
45	0xc07288e5	-3.7896054
46	0xc05d6e7a	-3.459868
47	0xbd6b4688	-0.05744031
48	0xc088a927	-4.2706485
49	0xbf8c2702	-1.0949404
50	0xc020b2d4	-2.5109148
51	0xc001ab3a	-2.0260758
52	0xc037e147	-2.8731248
53	0xbf475b24	-0.77873445
54	0x3fcd9daf	1.6063746
55	0xc066d381	-3.6066592
56	0xbf8acf7b	-1.0844568
57	0xbf525cf4	-0.82173085
58	0x3f30cfea	0.6906725
59	0x3ea616c7	0.32439253
60	0xc0981b57	-4.7533374
61	0xc0c456f8	-6.1356163
62	0x3ff76217	1.932681
63	0xc0d67f22	-6.703019
64	0xc0d8ac76	-6.7710524
65	0x3f7e6740	0.99376297
66	0xbf679224	-0.9045737
67	0xc0aca35e	-5.3949423
68	0x400d3fd3	2.2070205
69	0x4099dd59	4.80827
70	0xc0b6e9c3	-5.7160354
71	0x3fb50cfe	1.414459
72	0xbfb75c1a	-1.4324982
73	0xc0cea661	-6.45781
74	0xc06d937b	-3.7121265
75	0x3f8a4500	1.0802307
76	0xc01c3546	-2.4407516
77	0x400955c1	2.145859
78	0x3fbe873d	1.4885021
79	0xbe98b176	-0.29822892
80	0xc0b205d4	-5.5632114
81	0x401d638b	2.4592006
82	0xc09cef93	-4.904245
83	0xc0bc3df1	-5.882561
84	0xc0cbdc7f	-6.370666
85	0xc09df46d	-4.936087
86	0x3e200b0d	0.15629216
87	0xc0688f6c	-3.6337538
88	0xc0c01383	-6.002382
89	0xc08b4d86	-4.3532133
90	0xc07bd595	-3.934911
91	0x3ff4812b	1.9101919
92	0xc0e0c565	-7.024096
93	0xc0b9e82b	-5.809591
94	0xbfde5045	-1.7368246
95	0xc0bf953f	-5.9869685
96	0x3fa78f5f	1.3090628
97	0x3fbabe01	1.4589235
98	0xc09c0d0b	-4.876592
99	0xc0bf0689	-5.9695477
100	0x40039468	2.055933
101	0x400cfc8e	2.2029147
102	0x3fa35e79	1.2763206
103	0x3daeeee2	0.08541657
104	0x3f8f40d0	1.1191654
105	0xc0ad138c	-5.408636
106	0x3e022bdd	0.12712045
107	0xc0a38309	-5.1097455
108	0xc0583a56	-3.3785605
109	0x3facefe6	1.3510711
110	0x3fe4fb06	1.7889106
111	0xc08a18b3	-4.315515
112	0x406bde3a	3.6854386
113	0xbe9e941f	-0.30972382
114	0xbf5e5264	-0.8684447
115	0xc0d06490	-6.5122757
116	0xc0a3a6d4	-5.1141148
117	0x4077858e	3.8675265
118	0xc0af53a7	-5.4789615
119	0xbf9f31b8	-1.2437048
120	0x3e46b8b2	0.19406393
121	0xc0a93c25	-5.288592
122	0xbfbad58e	-1.4596422
123	0x3f1bd805	0.60876495
124	0xc0c49bc2	-6.1440134
125	0xbef42c8e	-0.47690243
126	0xbf334121	-0.70021254
127	0xbf167ce6	-0.5878433
128	0xc0a63937	-5.194484
129	0x3c927313	0.017877137
130	0xc0947357	-4.6390796
131	0xc02bcfc5	-2.6845562
132	0xc0996910	-4.794075
133	0xbf81894c	-1.0120025
134	0xc0be86c1	-5.9539495
135	0x3ecedeb8	0.40404296
136	0x3f83a267	1.0283936
137	0xc00a8b27	-2.1647432
138	0xbe924206	-0.28565997
139	0xbf2943f4	-0.66119313
140	0xbff7e23a	-1.9365914
141	0x3dc9ed2b	0.09859689
142	0xc0a9aa02	-5.302003
143	0xbf9ba2bd	-1.2159039
144	0x3f025066	0.5090393
145	0xc0d833a4	-6.756304
146	0xc0c75b79	-6.229916
147	0x3f21d09b	0.6320893
148	0x3ffc2b8d	1.9700791
149	0x3ed3851f	0.413125
150	0xc077d76e	-3.8725238
151	0xc0f68201	-7.7033696
152	0xc06748f1	-3.613827
153	0xbdd4d2db	-0.1039178
154	0x40554432	3.3322873
155	0xbe63c356	-0.22242483
156	0xc0a5653f	-5.168609
157	0xc0963000	-4.6933594
158	0x407a399d	3.9097664
159	0x3f5cfb3b	0.8632085
160	0xbfb299e9	-1.395322
161	0xbf2955d3	-0.6614658
162	0xbe98aea9	-0.29820755
163	0x3f307adc	0.6893747
164	0xc0bfc278	-5.992489
165	0xbec4668c	-0.38359487
166	0xc00ab71f	-2.1674268
167	0xc012f8e6	-2.2964416
168	0xc088ba22	-4.2727213
169	0x3f8931a4	1.0718274
170	0x403b6c62	2.9284902
171	0x3ed51cf9	0.41623667
172	0xc02c3e2c	-2.6912947
173	0x400bfdef	2.1873739
174	0xc0a6c7d8	-5.211895
175	0xc0c177a6	-6.0458555
176	0xc0c903ef	-6.28173
177	0xc0653810	-3.5815468
178	0x3fb22bdf	1.3919638
179	0xbf35d617	-0.710298
180	0xc0a439ae	-5.132041
181	0x407b0c77	3.9226358
182	0xbeb419f4	-0.3517605
183	0xc0fd3d55	-7.913737
184	0xbe2a633e	-0.1663942
185	0xbfa79e73	-1.309523
186	0x3f4c1758	0.7972312
187	0xbde93ace	-0.11388169
188	0x3f8eb040	1.1147537
189	0x3ebdbdfd	0.37059012
190	0xc0d93d78	-6.7887535
191	0x3f02b483	0.5105669
192	0x3fba5887	1.4558266
193	0xc0d58d59	-6.6735044
194	0x3f56ff98	0.83983755
195	0xc0a661ce	-5.199439
196	0xc0c19b62	-6.0502176
197	0x400612aa	2.0948892
198	0xc0e0bff1	-7.0234303
199	0xc0b4f4d9	-5.6548886
200	0xc09eb88b	-4.960027
201	0xbdf0abe6	-0.11751537
202	0xc0b055d4	-5.510477
203	0xc0f41590	-7.627632
204	0xbf87ec86	-1.0619056
205	0xbe95010c	-0.2910236
206	0xbf939b14	-1.1531701
207	0x4055987d	3.3374321
208	0xbf7b8464	-0.9824889
209	0xbe279c81	-0.16368295
210	0xbffaea55	-1.9602762
211	0xc0af2f4b	-5.474523
212	0x3fb5e04e	1.4209077
213	0x40363d10	2.847477
214	0xc09aac7f	-4.8335567
215	0xbf3cc7f9	-0.73742634
216	0x407d6eb1	3.959881
217	0xbf51361c	-0.8172319
218	0xbec3f8b3	-0.3827568
219	0x3ea51e49	0.32249668
220	0xc023fd2f	-2.562328
221	0xbfa652b1	-1.2993985
222	0xbf126893	-0.5719082
223	0xbfb913e2	-1.4459193
224	0xbfefb65f	-1.872753
225	0x400f0e6b	2.235255
226	0xc07f982f	-3.9936635
227	0xbeb00538	-0.34378982
228	0x3cc68129	0.02423151
229	0x3dfe601f	0.124206774
230	0xc0af5067	-5.4785647
231	0xbfe0dfe1	-1.7568322
232	0xbf5dcdcb	-0.8664214
233	0x3fac01a6	1.3438003
234	0xc0a85c66	-5.261279
235	0xc0927884	-4.5772114
236	0xc0a80d43	-5.251619
237	0xc0cbc092	-6.367257
238	0xc0dc9dad	-6.8942475
239	0x3faf654e	1.3702791
240	0xbfa34c19	-1.2757598
241	0xbf56b901	-0.83876044
242	0x3fd469f8	1.6594839
243	0xbf9d7a9e	-1.2303045
244	0xc054306f	-3.3154562
245	0xc0414195	-3.0196278
246	0xc097b62f	-4.740989
247	0xc0bbe131	-5.871239
248	0x3e039f5f	0.12853764
249	0xc08fa906	-4.4893827
250	0xbdbb8ad0	-0.09157336
251	0x3fbe3854	1.486094
252	0xbfd497d2	-1.6608832
253	0xc09c9923	-4.8936934
254	0xbf75c094	-0.95996976
255	0x3fea02ad	1.8282067

q_mu f4 [5]
0	0xbff8e769	-1.9445621
1	0xc0616e34	-3.5223513
2	0xbf8c1b5e	-1.0945852
3	0xc048a504	-3.1350718
4	0xc07e8bee	-3.9772906

q_var f4 [5]
0	0xc07bc419	-3.9338439
1	0xc0626663	-3.5374992
2	0xc0974232	-4.7268305
3	0xc066f943	-3.6089637
4	0xc03b998d	-2.931247

eps f4 [5]
0	0x3e9040d1	0.2817445
1	0xbfb22b27	-1.3919419
2	0x3fb59cad	1.4188439
3	0x3f8e731c	1.1128879
4	0x3fc534b1	1.5406705

q_gamma_params f4 [99]
0	0xbd6c86dd	-0.057745803
1	0x40262095	2.5957386
2	0x408b5dfa	4.3552217
3	0x4059eab2	3.4049497
4	0x4082504f	4.0723033
5	0x3f4e6887	0.80628246
6	0x402fedd7	2.7488916
7	0x3e8ddf03	0.27709207
8	0x40671b1c	3.6110296
9	0x4074b7ab	3.8237102
10	0x40556e9a	3.3348756
11	0x405ee04b	3.4824398
12	0x40748fff	3.8212888
13	0x407c1b08	3.9391499
14	0x3ff39007	1.9028329
15	0x4067715d	3.6162941
16	0x40606fbc	3.5068197
17	0x40524fd6	3.2861228
18	0x4021f78b	2.5307338
19	0x407550e8	3.8330631
20	0x40628280	3.539215
21	0x40674d43	3.6140907
22	0x402918a7	2.6421297
23	0x40763ba6	3.8473907
24	0x40559c8f	3.3376806
25	0xc04cd0d4	-3.2002459
26	0x4074123b	3.8136127
27	0x403b9047	2.930681
28	0x3f43fffb	0.7656247
29	0x406f0536	3.734693
30	0x406ed409	3.7316916
31	0x40771e98	3.8612423
32	0x408067c4	4.0126667
33	0xc008f73f	-2.1400907
34	0x405de726	3.4672332
35	0xbfc5f822	-1.5466349
36	0x406dc16b	3.7149303
37	0x3fa50468	1.289197
38	0x40234961	2.5513537
39	0x406dd2b4	3.7159853
40	0x408580de	4.171981
41	0x407a496b	3.910731
42	0x405e443a	3.4729142
43	0xc078df98	-3.888647
44	0x403fe00d	2.99805
45	0x40784226	3.8790374
46	0x407e6743	3.9750526
47	0x405ade14	3.4198046
48	0x401e1868	2.4702396
49	0x4079edb1	3.9051325
50	0x40570c5a	3.3601289
51	0x400923b2	2.1428037
52	0x40805042	4.009797
53	0x3ef88511	0.48539022
54	0x405f9f02	3.49408
55	0x3f1e952e	0.6194638
56	0xc07c5cbf	-3.9431608
57	0x3f557204	0.833771
58	0x4078435d	3.8791115
59	0x40703358	3.7531338
60	0x408621c8	4.1916237
61	0x400a62a7	2.1622713
62	0x406eb5e8	3.7298527
63	0x40796f42	3.8974156
64	0xbe83802d	-0.25683728
65	0x406bd420	3.684822
66	0x401f3573	2.4876373
67	0x4076797b	3.8511646
68	0x405431ff	3.3155515
69	0x401e8cda	2.477347
70	0x4008d069	2.1377203
71	0x4088897d	4.266783
72	0x407631a5	3.84678
73	0x4059040b	3.3908718
74	0x406dd1cc	3.71593
75	0xc080c5a5	-4.0241265
76	0x3fc165d3	1.5109199
77	0xbf9e8569	-1.2384464
78	0x404dda1d	3.2164376
79	0x4044de62	3.0760732
80	0x406dcb62	3.7155385
81	0x408864fc	4.262327
82	0x40836a42	4.106721
83	0x405a3387	3.409395
84	0x40609b82	3.5094914
85	0x40487db1	3.1326716
86	0x40551867	3.3296144
87	0x404ad342	3.1691442
88	0x403b2c19	2.9245665
89	0x3f5aa76d	0.8541172
90	0x406cb64e	3.698627
91	0x40311872	2.767117
92	0x400dc314	2.2150316
93	0xc00be10c	-2.1856108
94	0x3c797b23	0.015227112
95	0x4083ffa0	4.124954
96	0x4072c426	3.793222
97	0x401a7410	2.413334
98	0x407b2f95	3.9247792

q_probs f4 [99]
0	0x3ef7520a	0.48304778
1	0x3f6e3cd6	0.9306158
2	0x3f7cc137	0.9873232
3	0x3f77c5ae	0.9678601
4	0x3f7bb61b	0.98324746
5	0x3f3101ed	0.69143564
6	0x3f709b17	0.9398665
7	0x3f11ab6d	0.569022
8	0x3f794396	0.9736875
9	0x3f7a86e0	0.9786205
10	0x3f773258	0.96561193
11	0x3f785e34	0.9701874
12	0x3f7a839d	0.97857076
13	0x3f7b1cbf	0.9809074
14	0x3f5ec7f6	0.87023866
15	0x3f794c81	0.9738236
16	0x3f788bb6	0.9708818
17	0x3f76c59c	0.9639528
18	0x3f6d21b4	0.9262955
19	0x3f7a93b0	0.97881603
20	0x3f78c6cd	0.97178346
21	0x3f7948b8	0.97376585
22	0x3f6ef1dd	0.93337804
23	0x3f7aa6dd	0.97910863
24	0x3f773850	0.965703
25	0x3d20773c	0.03917621
26	0x3f7a78fa	0.97840846
27	0x3f7308bf	0.9493522
28	0x3f2eb9cf	0.6825227
29	0x3f7a07a4	0.9766791
30	0x3f7a030f	0.9766092
31	0x3f7ab96d	0.9793919
32	0x3f7b73dc	0.9822366
33	0x3dd7aac6	0.10530619
34	0x3f783d15	0.96968204
35	0x3e33ec26	0.17570552
36	0x3f79e9cf	0.9762239
37	0x3f48b880	0.78406525
38	0x3f6d7cad	0.92768365
39	0x3f79e98c	0.9762199
40	0x3f7c1c41	0.9848061
41	0x3f7af2fc	0.98027015
42	0x3f784c02	0.9699098
43	0x3ca4736c	0.020074569
44	0x3f73d693	0.9524929
45	0x3f7ad0c9	0.9797483
46	0x3f7b4811	0.9815684
47	0x3f77e3c0	0.96831894
48	0x3f6c0b2a	0.92204535
49	0x3f7af24a	0.98025954
50	0x3f7768a0	0.9664402
51	0x3f6520d2	0.89503205
52	0x3f7b7094	0.98218656
53	0x3f1e363a	0.61801493
54	0x3f7873ed	0.9705189
55	0x3f267462	0.65021336
56	0x3c9bd793	0.019023692
57	0x3f327ee0	0.69724846
58	0x3f7ad0e4	0.9797499
59	0x3f7a22e4	0.9770949
60	0x3f7c2fbf	0.98510355
61	0x3f65963e	0.89682376
62	0x3f7a003e	0.9765662
63	0x3f7ae876	0.9801096
64	0x3edf608a	0.4362834
65	0x3f79bb59	0.97551495
66	0x3f6c5c1e	0.9232806
67	0x3f7aac08	0.9791875
68	0x3f7707b5	0.96496135
69	0x3f6c2b37	0.9225344
70	0x3f65009b	0.8945405
71	0x3f7c757b	0.9861676
72	0x3f7aa408	0.9790654
73	0x3f77a90a	0.9674231
74	0x3f79eb54	0.9762471
75	0x3c8fe8f0	0.017567128
76	0x3f51b9df	0.8192424
77	0x3e662609	0.22475447
78	0x3f76220d	0.9614571
79	0x3f74b5e9	0.9559007
80	0x3f79eaa7	0.97623676
81	0x3f7c7176	0.9861063
82	0x3f7bdaae	0.98380554
83	0x3f77ceb2	0.96799767
84	0x3f7890bd	0.97095853
85	0x3f754e59	0.95822674
86	0x3f7726d5	0.9654363
87	0x3f75ac9c	0.95966506
88	0x3f72f42c	0.94903827
89	0x3f339780	0.70153046
90	0x3f79d0c4	0.97584176
91	0x3f70dd77	0.9408793
92	0x3f66cf7b	0.9016034
93	0x3dcefd32	0.10106887
94	0x3f00eaf6	0.5035852
95	0x3f7bed84	0.98409295
96	0x3f7a5c8c	0.97797465
97	0x3f6af848	0.917851
98	0x3f7b0af9	0.9806362

gamma f4 [100]
0	0x3f800000	1.0
1	0x00000000	0.0
2	0x3f800000	1.0
3	0x3f800000	1.0
4	0x3f800000	1.0
5	0x3f800000	1.0
6	0x3f800000	1.0
7	0x3f800000	1.0
8	0x00000000	0.0
9	0x3f800000	1.0
10	0x3f800000	1.0
11	0x3f800000	1.0
12	0x3f800000	1.0
13	0x3f800000	1.0
14	0x3f800000	1.0
15	0x00000000	0.0
16	0x3f800000	1.0
17	0x3f800000	1.0
18	0x3f800000	1.0
19	0x3f800000	1.0
20	0x3f800000	1.0
21	0x3f800000	1.0
22	0x3f800000	1.0
23	0x3f800000	1.0
24	0x3f800000	1.0
25	0x3f800000	1.0
26	0x00000000	0.0
27	0x3f800000	1.0
28	0x3f800000	1.0
29	0x3f800000	1.0
30	0x3f800000	1.0
31	0x3f800000	1.0
32	0x3f800000	1.0
33	0x3f800000	1.0
34	0x3f800000	1.0
35	0x3f800000	1.0
36	0x00000000	0.0
37	0x3f800000	1.0
38	0x3f800000	1.0
39	0x3f800000	1.0
40	0x3f800000	1.0
41	0x3f800000	1.0
42	0x3f800000	1.0
43	0x3f800000	1.0
44	0x00000000	0.0
45	0x3f800000	1.0
46	0x3f800000	1.0
47	0x3f800000	1.0
48	0x3f800000	1.0
49	0x3f800000	1.0
50	0x3f800000	1.0
51	0x3f800000	1.0
52	0x3f800000	1.0
53	0x3f800000	1.0
54	0x00000000	0.0
55	0x3f800000	1.0
56	0x00000000	0.0
57	0x00000000	0.0
58	0x3f800000	1.0
59	0x3f800000	1.0
60	0x3f800000	1.0
61	0x3f800000	1.0
62	0x3f800000	1.0
63	0x3f800000	1.0
64	0x3f800000	1.0
65	0x3f800000	1.0
66	0x3f800000	1.0
67	0x3f800000	1.0
68	0x3f800000	1.0
69	0x3f800000	1.0
70	0x3f800000	1.0
71	0x3f800000	1.0
72	0x3f800000	1.0
73	0x3f800000	1.0
74	0x3f800000	1.0
75	0x3f800000	1.0
76	0x00000000	0.0
77	0x3f800000	1.0
78	0x00000000	0.0
79	0x3f800000	1.0
80	0x3f800000	1.0
81	0x3f800000	1.0
82	0x3f800000	1.0
83	0x3f800000	1.0
84	0x3f800000	1.0
85	0x3f800000	1.0
86	0x3f800000	1.0
87	0x3f800000	1.0
88	0x3f800000	1.0
89	0x3f800000	1.0
90	0x00000000	0.0
91	0x3f800000	1.0
92	0x3f800000	1.0
93	0x3f800000	1.0
94	0x00000000	0.0
95	0x00000000	0.0
96	0x3f800000	1.0
97	0x3f800000	1.0
98	0x00000000	0.0
99	0x3f800000	1.0

KL_gamma_k f4 [99]
0	0x46f727ed	31635.963
1	0x476e155b	60949.355
2	0x477c9787	64663.527
3	0x47779cbd	63388.74
4	0x477b8c92	64396.57
5	0x4730e429	45284.16
6	0x4770733e	61555.242
7	0x471192c1	37266.754
8	0x47791a6a	63770.414
9	0x477a5d84	64093.516
10	0x4777097c	63241.484
11	0x4778352b	63541.168
12	0x477a5a41	64090.254
13	0x477af34d	64243.3
14	0x475ea2e3	56994.887
15	0x47792355	63779.332
16	0x477862a6	63586.65
17	0x47769cd1	63132.816
18	0x476cfa64	60666.39
19	0x477a6a53	64106.324
20	0x47789db5	63645.707
21	0x47791f8c	63775.547
22	0x476eca45	61130.27
23	0x477a7d7d	64125.49
24	0x47770f73	63247.45
25	0x45205a2b	2565.6355
26	0x477a4fa0	64079.625
27	0x4772e086	62176.523
28	0x472e9c69	44700.41
29	0x4779de5c	63966.36
30	0x4779d9c8	63961.78
31	0x477a900b	64144.043
32	0x477b4a5d	64330.363
33	0x45d78491	6896.571
34	0x47781411	63508.066
35	0x4633cca9	11507.165
36	0x4779c08b	63936.543
37	0x474896ed	51350.926
38	0x476d554f	60757.31
39	0x4779c048	63936.28
40	0x477bf2a9	64498.66
41	0x477ac990	64201.562
42	0x477822fc	63522.984
43	0x44a45531	1314.6622
44	0x4773ae3b	62382.23
45	0x477aa763	64167.387
46	0x477b1e98	64286.594
47	0x4777baca	63418.79
48	0x476be405	60388.02
49	0x477ac8de	64200.867
50	0x47773fbc	63295.734
51	0x4764fac1	58618.754
52	0x477b4715	64327.082
53	0x471e1b82	40475.508
54	0x47784ae0	63562.875
55	0x47265853	42584.324
56	0x449bbae6	1245.8406
57	0x473260de	45664.867
58	0x477aa77e	64167.492
59	0x4779f997	63993.59
60	0x477c0624	64518.14
61	0x4765701a	58736.1
62	0x4779d6f6	63958.96
63	0x477abf0c	64191.047
64	0x46df3a63	28573.193
65	0x4779921c	63890.11
66	0x476c34ed	60468.926
67	0x477a82a7	64130.652
68	0x4776dee0	63198.875
69	0x476c040d	60420.05
70	0x4764da8e	58586.555
71	0x477c4bd5	64587.832
72	0x477a7aa8	64122.656
73	0x4777801d	63360.113
74	0x4779c20f	63938.06
75	0x448fce68	1150.4502
76	0x475196dd	53654.863
77	0x4665fe01	14719.501
78	0x4775f95b	62969.355
79	0x47748d6e	62605.43
80	0x4779c163	63937.387
81	0x477c47d1	64583.816
82	0x477bb120	64433.125
83	0x4777a5c0	63397.75
84	0x477867ad	63591.676
85	0x477525c7	62757.777
86	0x4776fdfb	63229.98
87	0x477583fc	62851.984
88	0x4772cbf7	62155.965
89	0x47337951	45945.316
90	0x4779a784	63911.516
91	0x4770b593	61621.574
92	0x4766a927	59049.152
93	0x45ced87d	6619.061
94	0x4700d50a	32981.04
95	0x477bc3f3	64451.95
96	0x477a3336	64051.21
97	0x476ad14d	60113.3
98	0x477ae189	64225.535

weight f4 [10, 58]
0	0xbdaa6682	-0.08320333
1	0xbcecf236	-0.028924089
2	0xbd5ec698	-0.054388613
3	0xbdb4ab61	-0.088217504
4	0xbcf7427d	-0.030183071
5	0xbcd9d521	-0.026590886
6	0x3d460a79	0.04834983
7	0x3dcd6ebe	0.10030888
8	0xbe2beea5	-0.16790254
9	0x3d892f64	0.06698492
10	0x3d2e7626	0.042593144
11	0x3dafbcbb	0.08580919
12	0x3d47cbc4	0.04877831
13	0xbe075a63	-0.13218074
14	0xbe133268	-0.14374697
15	0xbdc7f748	-0.09763962
16	0x3dad87b2	0.084731475
17	0xbd36dd2e	-0.044644527
18	0x3debeaaf	0.11519372
19	0xbcc9eaf8	-0.024648175
20	0x3e03f7aa	0.12887445
21	0xbdb40a98	-0.08791083
22	0x3d5b89a5	0.053598065
23	0x3d131188	0.03590539
24	0xbdc647f2	-0.09681691
25	0x3ce5fd15	0.02807478
26	0xbdbeb711	-0.09312261
27	0x3b244c98	0.0025070067
28	0xbd854d62	-0.065089
29	0xbd4440ce	-0.047913365
30	0xbe1fb5a7	-0.15596639
31	0xbd82c464	-0.06385115
32	0x3d87c746	0.06629805
33	0xbb47dd42	-0.003049687
34	0x3dbf7c72	0.09349908
35	0x3d4acf30	0.049513996
36	0x3b6c9042	0.0036096727
37	0xbd0ab17f	-0.03386068
38	0x3d9a7904	0.07542613
39	0x3d8ee82a	0.069778755
40	0xbdef2bad	-0.11678252
41	0x3d7cc590	0.061711848
42	0x3de13bf3	0.109977625
43	0x3d91f940	0.07127619
44	0xbdd7de18	-0.10540408
45	0x3ca8e9f2	0.020619366
46	0xbd06fe86	-0.032957576
47	0x3d90ed62	0.07076527
48	0xbe074e67	-0.13213502
49	0xbdf866ef	-0.12129008
50	0x3d782129	0.0605785
51	0x3c63d5b6	0.013905933
52	0x3d14fec2	0.03637577
53	0x3d8e4ebd	0.06948612
54	0x3dac0e90	0.08401215
55	0xbc1be29d	-0.009514478
56	0x3c634119	0.013870501
57	0x3ddc981b	0.10771199
58	0x3db1addb	0.086757384
59	0xbe237a8f	-0.15964721
60	0x3de0e224	0.10980633
61	0x3deef53e	0.1166787
62	0xbd646e2b	-0.055769127
63	0x3e439f7a	0.19103804
64	0x3e86fde4	0.26365578
65	0xbe833aa0	-0.25630665
66	0x3dd222db	0.102605544
67	0x3e5380e9	0.20654644
68	0xbe55bcaa	-0.20872751
69	0x3e8ee360	0.27907848
70	0x3e7bf0d0	0.24603581
71	0x3dc079eb	0.09398254
72	0x3e1d36ed	0.15352984
73	0x3e710e40	0.23540592
74	0x3db96e33	0.09054222
75	0x3e0d185b	0.13778822
76	0x3b25906c	0.0025263084
77	0xbdf28118	-0.11841029
78	0xbe4bda59	-0.19907512
79	0x3e2f5566	0.1712242
80	0x3e9bac4d	0.30404893
81	0xbe46d6f6	-0.19417939
82	0x3e890589	0.26762035
83	0x3e73f9d4	0.2382577
84	0x3dfaf96f	0.12254607
85	0x3dcfd851	0.10148681
86	0x3e9bf1bb	0.30457863
87	0x3e6153a1	0.22004558
88	0x3e88b360	0.26699352
89	0x3e27c7e5	0.16384847
90	0x3e06de65	0.13170774
91	0xbdc7be04	-0.097530395
92	0x3ea05ab6	0.31319207
93	0x3d8de28c	0.06927976
94	0x3cda270c	0.026629947
95	0x3df50e8f	0.119656675
96	0xbddce082	-0.10785009
97	0xbdcdc395	-0.1004707
98	0x3de5c062	0.11218335
99	0x3de0a1bd	0.10968349
100	0xbe719f82	-0.23596004
101	0x3e1e65d6	0.15468535
102	0x3e9ba747	0.3040106
103	0xbe463b2b	-0.19358508
104	0x3e8ebe82	0.2787972
105	0xbd5d5bf7	-0.054042783
106	0x3dc31feb	0.09527572
107	0x3e30e79b	0.1727585
108	0x3e38c3ec	0.18043488
109	0xbd8c4861	-0.06849743
110	0x3d9f29f0	0.07771671
111	0xbb70df35	-0.0036754136
112	0xbde465c5	-0.111522235
113	0x3e88b8fe	0.26703638
114	0x3e3d7b35	0.18504031
115	0x3d3c5653	0.045980763
116	0x3e584794	0.21121055
117	0xbd97b4f6	-0.074075624
118	0x3d2f6b6c	0.042827055
119	0x3cd175a2	0.025568787
120	0xbdea304a	-0.11434992
121	0x3df184f6	0.117929384
122	0x3d4e90cb	0.050431054
123	0xbda9f806	-0.0829926
124	0x3e2cd052	0.16876343
125	0x3dce6c47	0.10079246
126	0xbdc01f98	-0.09381026
127	0x3e2c8578	0.1684779
128	0x3e530792	0.20608357
129	0x3e06d2d4	0.13166362
130	0x3db550d3	0.088533066
131	0x3e840146	0.25782222
132	0x3dcc8914	0.09987083
133	0x3e05a051	0.13049437
134	0xbb9df368	-0.004820276
135	0xbe2241c9	-0.15845408
136	0xbe5e528d	-0.21711178
137	0x3da01c5f	0.07817911
138	0x3e532274	0.20618612
139	0xbe1be80a	-0.15225235
140	0x3d27fd47	0.04101303
141	0x3e2c0d14	0.16801864
142	0x3e3af736	0.18258366
143	0x3e317f76	0.17333779
144	0x3d924e4d	0.07143841
145	0x3e23e321	0.16004612
146	0x3db2cb7f	0.0873022
147	0x3dfc189e	0.12309383
148	0x3cf595fb	0.029978743
149	0xbe3c87f0	-0.18411231
150	0x3dafdf2d	0.08587489
151	0x3a89a4e1	0.0010501408
152	0x3d26e62d	0.040746856
153	0x3dcbef1b	0.09957715
154	0xbced276d	-0.028949464
155	0xbb19a264	-0.002344274
156	0x3e638b37	0.22221075
157	0x3df9490d	0.121721365
158	0xbe564361	-0.2092414
159	0x3e36f9dc	0.17868751
160	0x3dd47b9e	0.103751406
161	0xbde202eb	-0.11035713
162	0x3cc5c064	0.02413959
163	0xbe0b1930	-0.13583827
164	0x3d602eaa	0.054732002
165	0x3e83d25d	0.25746432
166	0x3ca6e30e	0.02037194
167	0xbe3081a2	-0.17236951
168	0x3dbc88b3	0.09205761
169	0x3d935f9f	0.07195973
170	0xbda3c26e	-0.07996069
171	0x3d99de00	0.07513046
172	0x3d165bd9	0.036708687
173	0x3dc4d320	0.096105814
174	0x3d9b370e	0.0757886
175	0xbd785566	-0.060628317
176	0x3d306ed5	0.043074448
177	0x3d86fd24	0.065912515
178	0x3e18a435	0.1490639
179	0xbdf21676	-0.1182069
180	0x3c3c3cf1	0.011489139
181	0xbdae5139	-0.08511586
182	0x3dbe1091	0.092805035
183	0xbd963020	-0.07333398
184	0x3ddf166e	0.1089295
185	0xbcb65300	-0.022256374
186	0xbd17b391	-0.037036482
187	0xb8d6f8ad	-0.00010250635
188	0x3d13e75e	0.03610932
189	0x3d28ebdf	0.04124057
190	0xbb679a5e	-0.0035339813
191	0x3d171a3d	0.036890257
192	0xbdccda0b	-0.10002526
193	0x3e026fd0	0.12737966
194	0x3e0211a7	0.12702046
195	0x3daec3db	0.0853345
196	0x3d8d0fb5	0.068877615
197	0xbd9c55ca	-0.076335505
198	0xbd8e8d54	-0.0696055
199	0x3dc2824c	0.094975084
200	0xbdfe6177	-0.12420934
201	0x3dd189f5	0.10231391
202	0xbe0063a7	-0.12538014
203	0xbdf1cf11	-0.11807073
204	0x3d560a56	0.05225595
205	0xbdde0c12	-0.10842146
206	0xbd26ed6d	-0.04075377
207	0x3e015e0c	0.12633532
208	0x3da33361	0.07968784
209	0x3e49c316	0.19703326
210	0x3de166a7	0.110059075
211	0xbde8cf5b	-0.11367675
212	0x3e1d08e6	0.15335426
213	0xbcbf26b7	-0.02333389
214	0xbd9fa82d	-0.07795749
215	0x3ad8cbc0	0.0016540214
216	0xbd9f50c2	-0.07779075
217	0x3d85c34e	0.06531392
218	0x3d95a8e2	0.073076025
219	0xbdf1b254	-0.118015915
220	0xbe09f150	-0.1347096
221	0xbe1e1be3	-0.15440325
222	0x3d0e841e	0.034793966
223	0xbcd18d4a	-0.025580067
224	0xbdb45dd4	-0.08806959
225	0x3cceb090	0.025230676
226	0xbe13e9f7	-0.1444472
227	0xbdc34cb5	-0.09536115
228	0xbd88627a	-0.06659408
229	0x3dc19f6a	0.09454234
230	0x3e118bbb	0.14213459
231	0xbd938dfa	-0.07204814
232	0x3e8c68cb	0.274237
233	0xbe65ee8f	-0.22454284
234	0x3e8dc945	0.2769262
235	0x3e6920a9	0.22766365
236	0xbd0b430a	-0.03399948
237	0x3ebe4bd9	0.37167242
238	0x3e86c182	0.2631951
239	0xbe91ae8b	-0.28453478
240	0x3ec67fef	0.3876948
241	0x3e7af856	0.24508795
242	0xbeabd9b2	-0.33564526
243	0x3ec4da51	0.38447812
244	0x3e9c6bf5	0.30551115
245	0x3da164f1	0.07880581
246	0x3de760d9	0.11297769
247	0x3e3b86ec	0.18313187
248	0x3dea63d7	0.11444824
249	0x3e0a04fa	0.13478461
250	0x3bc8c979	0.006127533
251	0xbdb458aa	-0.08805974
252	0xbe50ee74	-0.20403463
253	0x3eca9588	0.39567208
254	0x3e794d92	0.24345997
255	0xbe792242	-0.24329475

bias f4 [10]
0	0x3e001e64	0.12511593
1	0xbe801ab6	-0.2502038
2	0xbbaee7e8	-0.005337704
3	0x3dbb4585	0.09144119
4	0xbed832ae	-0.42226166
5	0xbea4ce12	-0.3218847
6	0x3d792c84	0.06083347
7	0xbc53e847	-0.012933797
8	0xbc441b7e	-0.011969445
9	0xbdd459f0	-0.10368717

weight f4 [10, 10]
0	0xbec537e0	-0.38519192
1	0xbe8596b3	-0.26091537
2	0xbeae91d5	-0.34095636
3	0xbe8cfaaa	-0.27534992
4	0xbdc1a0b4	-0.0945448
5	0x3bf235b3	0.0073916554
6	0xbe349f5a	-0.17638913
7	0xbd90c163	-0.070681356
8	0xbde8cd15	-0.11367241
9	0xbe09744e	-0.13423273
10	0xbdbb8523	-0.09156253
11	0xbe36862b	-0.17824619
12	0x3e282965	0.16422041
13	0x3a3ddfd5	0.00072431314
14	0x3e20f109	0.15716948
15	0x3e5731f7	0.21015154
16	0xbe370108	-0.17871487
17	0x3e3d9518	0.18513906
18	0xbe84ab24	-0.2591182
19	0x3e2910c3	0.165103
20	0x3ea4b707	0.3217089
21	0xbd5c5ca5	-0.05379929
22	0x3e00e463	0.12587123
23	0x3d132ccc	0.035931394
24	0xbda17de4	-0.0788534
25	0xbd1b63fd	-0.037937153
26	0x3ca34aaa	0.019933064
27	0xbc88d88f	-0.016704826
28	0xbec2ac83	-0.3802224
29	0xbe2cc0cf	-0.16870426
30	0xbdfce1d2	-0.12347759
31	0xbe4435de	-0.19161174
32	0x3e0c2c8b	0.13688867
33	0x3ddb0efc	0.106962174
34	0x3dcaa697	0.09895056
35	0x3dc06dc7	0.09395938
36	0xbeccfae4	-0.40035164
37	0x3e159778	0.14608562
38	0xbecec8ed	-0.4038767
39	0xbdff6cf3	-0.12471952
40	0xbf25bf7e	-0.6474532
41	0xbd1171c9	-0.035508905
42	0xbef6d087	-0.4820597
43	0xbf193e19	-0.5986038
44	0xbea6ab50	-0.32552576
45	0xbeb6a0d1	-0.35669568
46	0xbed671d2	-0.41883713
47	0x3dfe0e36	0.12405054
48	0xbec9c110	-0.39405107
49	0xbdaa700c	-0.083221525
50	0xbf2bfbed	-0.67181283
51	0x3e1d1ba4	0.15342575
52	0xbe822edb	-0.25426373
53	0xbf1d97e8	-0.61559916
54	0x3de7db25	0.113210954
55	0xbe71a0e4	-0.23596531
56	0x3d39ae0b	0.045331996
57	0xbebb76a7	-0.36613962
58	0xbf21458b	-0.6299674
59	0xbed1338b	-0.40859637
60	0x3e8843e8	0.26614308
61	0x3cd8b657	0.026454134
62	0xbe281b4a	-0.1641666
63	0x3ea2d76b	0.31804976
64	0x3d038f46	0.032119058
65	0x3e0865aa	0.13320032
66	0xbdd49e2e	-0.10381733
67	0xbde443bb	-0.11145731
68	0x3e2ffb23	0.17185645
69	0xbe11fb32	-0.1425598
70	0x3e1b72ce	0.15180513
71	0x3e225189	0.15851416
72	0xbe98bcac	-0.29831445
73	0xbe8a4893	-0.27008495
74	0xbda73fb7	-0.081664495
75	0xbeb163e2	-0.34646517
76	0xbd320c67	-0.04346886
77	0xbe8da96c	-0.2766832
78	0xbe82b65c	-0.25529754
79	0xbe83f46c	-0.25772417
80	0x3e0eef67	0.13958512
81	0xbe204daa	-0.15654626
82	0xbe372ed0	-0.17888951
83	0xbd2e8880	-0.042610645
84	0xbe146c8b	-0.14494531
85	0xbe8f95d2	-0.2804399
86	0x3d973609	0.07383353
87	0xbdb5c748	-0.088759005
88	0x3da31f88	0.079649985
89	0x3e83bd28	0.25730252
90	0x3cb1693b	0.021656623
91	0x3cb54eed	0.022132361
92	0x3dda0038	0.10644573
93	0x3ebcdd47	0.3688757
94	0x3e25886c	0.16165322
95	0x3e000793	0.1250289
96	0x3eb72636	0.3577134
97	0x3eedf000	0.46472168
98	0x3edcd0d7	0.43128082
99	0x3d25e644	0.0405028

bias f4 [10]
0	0xbeecdd5c	-0.46262634
1	0xbe753359	-0.23945369
2	0x3eac84df	0.33695123
3	0xbe86000d	-0.26171914
4	0xbf0da6fc	-0.5533292
5	0xbea2eb26	-0.3182003
6	0x3a086559	0.000520309
7	0x3d30fa9a	0.043207742
8	0x3d77a130	0.060456455
9	0x3da873ff	0.082252495

weight f4 [1, 10]
0	0x3d9906c1	0.07471991
1	0x3d81ffda	0.06347628
2	0x3bc3c2aa	0.0059741335
3	0xbe7cb49e	-0.24678275
4	0xba27b8c5	-0.0006398077
5	0x3d2af47c	0.041737065
6	0x3c830c5c	0.015997104
7	0xbdf0866c	-0.11744389
8	0xbc6b3cbb	-0.014357741
9	0xbdca1b15	-0.09868447

weight f4 [1, 10]
0	0x3e014a3a	0.12625971
1	0xbea4c605	-0.32182327
2	0xbf50e7cd	-0.816037
3	0xbe82bce5	-0.2553474
4	0xbcaf392b	-0.021389564
5	0xbc9b4562	-0.018953983
6	0xbf5ef72d	-0.8709591
7	0xbedcfc81	-0.43161395
8	0xbf2f25d9	-0.68417126
9	0xbf800ff9	-1.0004874

prior_mean f8 []
0	0xc0126691ebc4af16	-4.600166019324908

weight f4 [50, 58]
0	0x3e587280	0.21137428
1	0x3d532ab1	0.051554386
2	0x3b7e9c3d	0.003885045
3	0x3e9ba8d9	0.30402258
4	0xbe414979	-0.18875684
5	0x3e947c0d	0.29000893
6	0x3eb8f319	0.3612297
7	0xbe59205f	-0.21203755
8	0x3ec1a67b	0.37822327
9	0x3e43e799	0.19131316
10	0xbdf83817	-0.12120073
11	0x3e23d536	0.15999302
12	0x3e475bbc	0.19468588
13	0x3e986548	0.2976477
14	0xbdb7cd62	-0.089747205
15	0x3e060ee6	0.13091621
16	0x3d4bad63	0.0497259
17	0x3e4bfbb1	0.19920231
18	0xbe3839a2	-0.17990735
19	0xbe889d9a	-0.2668274
20	0xbdbb835c	-0.09155914
21	0x3e3d8d06	0.18510827
22	0x3dd7d547	0.10538726
23	0xbe672793	-0.2257369
24	0x3e1e5417	0.15461765
25	0x3e7c9450	0.24665952
26	0x3eb3ba70	0.35103178
27	0xbd64af1f	-0.05583107
28	0x3df6cf07	0.12051206
29	0x3ea65c95	0.3249251
30	0x3dd54a10	0.10414517
31	0x3e9028a3	0.28156003
32	0x3e884090	0.26611757
33	0xbeb9cda9	-0.3628972
34	0x3ea78f3b	0.32726464
35	0x3e9e5905	0.30927292
36	0x3dd01de7	0.101619534
37	0x3e4c7974	0.19968206
38	0xbe515cef	-0.20445608
39	0xbe248f9b	-0.16070406
40	0x3e8cc485	0.27493683
41	0x3e33fcf4	0.17576963
42	0xbe834059	-0.2563503
43	0x3e1d0151	0.15332533
44	0x3e1a4de6	0.15068778
45	0xbe03c2e2	-0.1286731
46	0x3f19c13b	0.6006047
47	0x3d62f7e4	0.05541219
48	0x3e2c652a	0.16835466
49	0x3e054b18	0.13016927
50	0xbd2621e5	-0.040559668
51	0xbe166227	-0.1468588
52	0x3e9cba48	0.3061087
53	0x3d32dbe2	0.043666728
54	0xbe4f6ea0	-0.20257044
55	0x3e2e86c3	0.17043595
56	0x3edcec14	0.43148863
57	0xbe072723	-0.13198523
58	0x3de48d80	0.111598015
59	0x3f26369e	0.6492709
60	0xbdbb7c24	-0.09154537
61	0x3e8b8f42	0.27257735
62	0x3dcdadd0	0.10042918
63	0xbde46a5e	-0.111531004
64	0x3c242e7f	0.010020851
65	0x3eacca7f	0.33748242
66	0xbe8f34fb	-0.27970108
67	0xbee9431d	-0.45559016
68	0x3da6a5cc	0.08137092
69	0xbe715a7b	-0.23569672
70	0xbe20d957	-0.15707909
71	0x3e1e112c	0.15436238
72	0xbe3cfaf9	-0.18455113
73	0x3cd019db	0.025402954
74	0x3daae63e	0.083446965
75	0x3eb6f173	0.35731086
76	0x3e577007	0.21038829
77	0x3dbb9815	0.09159867
78	0x3d7b0386	0.061282657
79	0x3deb0ffc	0.11477658
80	0xbdf32287	-0.1187182
81	0xbea8a9fa	-0.32942182
82	0xbd935ba0	-0.071952105
83	0x3dbdd876	0.09269802
84	0x3c290156	0.01031526
85	0x3b999a14	0.004687557
86	0xbe4a9005	-0.19781502
87	0xbdaea157	-0.08526867
88	0xbe77fa8c	-0.2421667
89	0x3ef74c38	0.48300338
90	0x3e685277	0.22687708
91	0xbe8d40f6	-0.27588624
92	0x3db80e2e	0.089870796
93	0x3db23f2c	0.08703455
94	0x3ed35f0c	0.41283453
95	0xbea80744	-0.32818043
96	0xbec3aa70	-0.3821597
97	0xbe3f2b90	-0.18668962
98	0xbdde73c0	-0.10861921
99	0xbeab7708	-0.3348925
100	0xbc8e7579	-0.01739
101	0xbe277215	-0.16352113
102	0x3de54a9a	0.1119587
103	0xbea08c87	-0.31357214
104	0x3ebb757b	0.36613068
105	0x3ece8596	0.40336293
106	0xbdcc7141	-0.09982539
107	0x3dd4acbc	0.10384509
108	0xbe90cf4d	-0.28283158
109	0xbef8583b	-0.48504815
110	0x3f28f08f	0.65992063
111	0xbdf07841	-0.117416866
112	0xbe2b910c	-0.1675455
113	0xbe691ff6	-0.22766098
114	0x3f1dea0f	0.6168527
115	0x3d20fb0c	0.039301917
116	0x3eb71f49	0.35766056
117	0xbcff80fb	-0.031189432
118	0x3fa986ec	1.32443
119	0x3d689dc5	0.056791086
120	0xbee7b7c3	-0.45257387
121	0x3e090ab9	0.13382997
122	0x3e98bd7c	0.29832065
123	0xbed6455f	-0.418498
124	0x3d94c4d6	0.07264106
125	0x3e5307c2	0.20608428
126	0x3e5c8562	0.21535257
127	0x3d856a9e	0.06514476
128	0x3d500465	0.05078544
129	0x3e116bec	0.14201325
130	0xbddaae52	-0.1067778
131	0x3e13ca53	0.1443265
132	0x3ed898a0	0.42303944
133	0xbeac3e43	-0.33641252
134	0xbd81268c	-0.0630618
135	0x3e891cf5	0.26779905
136	0xbf2bc10e	-0.67091453
137	0x3e0585d4	0.13039333
138	0xbdcdc326	-0.10046987
139	0xbf3898d3	-0.7210819
140	0x3f0dc8c3	0.55384463
141	0x3ef921c8	0.48658586
142	0x3e60db56	0.2195867
143	0xbecbbca5	-0.39792362
144	0x3e61b620	0.22042131
145	0x3dfd3f80	0.12365627
146	0x3ea88f39	0.3292177
147	0x3ea1e9de	0.3162374
148	0xbcce60fe	-0.025192734
149	0xbd039cd2	-0.032131977
150	0x3ed69bbf	0.419157
151	0xbeef3efb	-0.46727738
152	0x3eb82c2d	0.35971203
153	0x3d23c250	0.039980233
154	0x3d9c0f36	0.07620089
155	0xbd6934c6	-0.056935094
156	0xbd22b504	-0.03972341
157	0x3e93e1e7	0.28883287
158	0xbe726641	-0.2367182
159	0xbe84ccd6	-0.25937527
160	0x3d605bba	0.054774977
161	0xbedd5c1d	-0.4323434
162	0x3da6b825	0.081405915
163	0xbefd39fc	-0.494583
164	0x3d3c26e1	0.045935515
165	0xbd1cc344	-0.038272157
166	0xbeb8e734	-0.36113894
167	0x3e7ee86b	0.24893348
168	0xbf0188dd	-0.5059946
169	0x3e2757a9	0.16342033
170	0xbe17519a	-0.14777222
171	0x3cf5bbaa	0.029996712
172	0xbe4dbd67	-0.20091783
173	0x3f85e22c	1.0459647
174	0xbd85441b	-0.06507131
175	0xbe852c49	-0.2601035
176	0xbe5ebec9	-0.21752466
177	0x3e2106e1	0.1572528
178	0x3ef4ac12	0.4778753
179	0xbcd3812a	-0.025818426
180	0xbe3407cb	-0.17581098
181	0x3e0edb54	0.13950855
182	0xbe1f1849	-0.15536608
183	0xbd3c985d	-0.046043742
184	0xbd97921e	-0.074009165
185	0x3e247ad4	0.1606248
186	0xbd0a425d	-0.033754695
187	0x3d528b8f	0.051402625
188	0xbf3c025d	-0.73441106
189	0xbed39a2a	-0.41328555
190	0x3e7b039b	0.24513094
191	0x3d12c41f	0.035831567
192	0xbda6c7a1	-0.08143545
193	0x3ea0ff02	0.31444556
194	0x3dfc7c4c	0.12328395
195	0xbdb4b265	-0.088230886
196	0x3ee3c45d	0.4448575
197	0x3e67f9ed	0.22653933
198	0xbdb566b8	-0.08857483
199	0x3e7b3855	0.24533208
200	0x3e0db99b	0.13840334
201	0x3f3b514d	0.7317093
202	0x3dda7ebd	0.10668705
203	0x3d60069b	0.0546938
204	0xbe790660	-0.24318838
205	0x3d0c7b11	0.034297053
206	0x3cf7efab	0.03026565
207	0x3c5e0272	0.013550388
208	0xbd1dc072	-0.03851361
209	0x3d42aebe	0.04752993
210	0x3d23f3e6	0.04002752
211	0x3f0170e0	0.5056286
212	0xbf4ca95a	-0.7994591
213	0xbd819b40	-0.0632844
214	0x3cdfee5e	0.027335342
215	0xbe5182c8	-0.20460045
216	0x3ce7c344	0.028291352
217	0x3db69af1	0.089162715
218	0x3c29cbfa	0.010363573
219	0x3bad21ab	0.0052835546
220	0xbe190349	-0.1494266
221	0x3d22cf70	0.03974861
222	0x3e4191d0	0.1890328
223	0x3df1c50f	0.11805164
224	0x3f183e6a	0.59470236
225	0xbeea5c3d	-0.45773497
226	0x3e516022	0.20446828
227	0x3d880781	0.06642056
228	0x3e86d4f8	0.26334357
229	0x3b753fee	0.0037422138
230	0xbe9ea1db	-0.3098286
231	0x3e29c660	0.1657958
232	0x3e46a7e5	0.19399984
233	0xbdf0b7fe	-0.11753844
234	0x3f5959bc	0.8490255
235	0x3d8f891b	0.07008573
236	0x3d98889b	0.074479304
237	0x3e029a49	0.12754168
238	0x3ea50390	0.3222928
239	0xbeabb726	-0.3353817
240	0x3ebd4fad	0.3697485
241	0x3f2d2984	0.6764147
242	0x3dca4fc0	0.09878492
243	0x3daa38f6	0.08311646
244	0xbd1eb56d	-0.03874724
245	0x3ee91073	0.45520362
246	0xbec6b52e	-0.38810104
247	0x3c8c2bc1	0.017110707
248	0x3f3e6980	0.7437973
249	0xbe24c635	-0.16091235
250	0x3e7441d8	0.23853242
251	0xbea5f3e3	-0.32412633
252	0xbf0b4403	-0.5440065
253	0x3eb2e32e	0.3493895
254	0x3e064e74	0.13115865
255	0xbf2ff093	-0.6872646

bias f4 [50]
0	0xbe359e16	-0.17736086
1	0xbdf8e6ff	-0.12153434
2	0x3dc00720	0.09376359
3	0xbe6e65b6	-0.23280987
4	0x3e115ef4	0.14196378
5	0xbe074540	-0.1321001
6	0xbe89e510	-0.26932573
7	0xbe0e50f8	-0.13898075
8	0xbdcfb8d1	-0.10142673
9	0xbe536816	-0.20645174
10	0xbebada62	-0.36494738
11	0xbe6b0592	-0.22951344
12	0x3c2d8259	0.010590159
13	0xbcdca7a3	-0.026935404
14	0xbea17abb	-0.31538948
15	0xbc128687	-0.008943207
16	0xbe440a9e	-0.19144675
17	0xbe073410	-0.13203454
18	0xbeac1b5e	-0.3361463
19	0x3d778490	0.060429156
20	0xbea129a3	-0.3147708
21	0xbe94a02c	-0.2902845
22	0xbead783a	-0.33880788
23	0xbda0d2ac	-0.078526825
24	0xbe9cd85f	-0.30633828
25	0x3cb0bd0f	0.021574525
26	0xbe265737	-0.16244207
27	0xbdc3fef7	-0.09570115
28	0xbe6f75f5	-0.23384841
29	0xbe248c4d	-0.16069146
30	0xbe522d7b	-0.20525162
31	0xbe9c6eb5	-0.30553213
32	0x3e461223	0.19342856
33	0xbe47455d	-0.19460054
34	0xbc1dd1df	-0.009632557
35	0xbece8a9d	-0.4034013
36	0xbe83a083	-0.25708398
37	0x3ce8a48f	0.02839878
38	0xbed67324	-0.4188472
39	0x3da2f752	0.07957329
40	0xbedeab0a	-0.43489867
41	0xbeb284c2	-0.3486691
42	0xbebd74c5	-0.3700315
43	0xbde541c5	-0.11194185
44	0xbd5c7bf8	-0.053829163
45	0x3e17f17e	0.14838216
46	0xbb088cf2	-0.0020835963
47	0xbe856e1c	-0.2606057
48	0x3d23ca85	0.03998806
49	0xbe872056	-0.26391858

weight f4 [50, 50]
0	0xbdee9e7e	-0.11651324
1	0xbdab9b1d	-0.08379195
2	0x3d223ed0	0.039610684
3	0xbdd18057	-0.10229557
4	0x3d4ec7de	0.050483577
5	0xbeca1419	-0.39468458
6	0xbe034770	-0.1282022
7	0xbd0e5aeb	-0.034754675
8	0xbc870f2b	-0.016486725
9	0xbe7d659d	-0.24745794
10	0xbdb676e2	-0.08909394
11	0xbd800c15	-0.062523045
12	0xbcb1da98	-0.021710679
13	0xbe1f6c6f	-0.15568708
14	0xbe3b9224	-0.18317467
15	0xbd2f7e7f	-0.042845245
16	0x3aee25d4	0.0018169233
17	0xbe1711c2	-0.14752868
18	0x3d215b79	0.039393876
19	0x3d09a855	0.0336078
20	0xbd98d139	-0.07461781
21	0xbcd61448	-0.026132718
22	0xbc85c9a8	-0.016331509
23	0xbea5e184	-0.32398617
24	0xbeb90d15	-0.36142793
25	0xbeaac646	-0.33354396
26	0xbe09575d	-0.13412233
27	0xbdc300ee	-0.09521662
28	0xbe4150a9	-0.18878426
29	0xbe9da80e	-0.30792278
30	0xbe7b53dd	-0.2454371
31	0xbd4d616c	-0.050141737
32	0xbe1c87af	-0.15286134
33	0xbe5bee27	-0.21477567
34	0xbeed5300	-0.46352386
35	0xbdb666f6	-0.08906357
36	0xbd8523b3	-0.0650095
37	0xbe281ca2	-0.16417173
38	0xbe3c21ed	-0.18372317
39	0xbe92fcb2	-0.28708416
40	0xbe3c8b4f	-0.18412517
41	0xbeac4614	-0.33647215
42	0xbe303272	-0.17206743
43	0x3d1ab7d6	0.037772976
44	0xbe1df64a	-0.15425983
45	0x3bec0739	0.0072030094
46	0xbe731f24	-0.23742348
47	0xbe8fd754	-0.2809397
48	0xbe19a771	-0.1500528
49	0xbda115b6	-0.07865469
50	0xbde37510	-0.11106312
51	0xbe834759	-0.2564037
52	0x38fe3a68	0.00012122543
53	0xbeb71f9c	-0.35766304
54	0xbc3f1ef7	-0.011665097
55	0xbe9d2b27	-0.30696985
56	0xbe5ef1ee	-0.21771976
57	0xbe6378ef	-0.22214101
58	0xbda38b88	-0.07985598
59	0xbe9ab46b	-0.30215773
60	0xbe081d57	-0.13292442
61	0xbdd75b33	-0.10515442
62	0x3cf30d0b	0.029669305
63	0xbe05dc20	-0.13072252
64	0xbdf49bc2	-0.11943771
65	0xbdcc8ac2	-0.099874035
66	0xbe412b56	-0.18864188
67	0x3c2688b5	0.010164429
68	0x3d97ca8e	0.07411681
69	0x3cfd4f54	0.030921616
70	0x3c889337	0.01667176
71	0xbe7d65e7	-0.24745904
72	0xbe0dc391	-0.13844134
73	0xbeb5ee18	-0.35533214
74	0xbed5af35	-0.41735235
75	0xbe96d4da	-0.29459268
76	0x3d823707	0.06358152
77	0xbe06d99f	-0.13168953
78	0xbd9ef866	-0.07762222
79	0xbe8ba1e3	-0.27271947
80	0xbe279f01	-0.16369249
81	0xbd43c63c	-0.047796473
82	0xbe4b6397	-0.1986221
83	0x3b6993c8	0.0035641063
84	0xbee252ee	-0.44203895
85	0xbe90eabb	-0.28304085
86	0xbe92764d	-0.2860588
87	0x3c965bd1	0.018354328
88	0xbd39913b	-0.04530452
89	0xbea48cc9	-0.3213866
90	0xbe4ec384	-0.20191771
91	0xbe63a9f8	-0.22232807
92	0x3c59861d	0.013276604
93	0xbb73c75c	-0.0037197685
94	0xbe6ebeb0	-0.23314929
95	0x3db902fd	0.09033773
96	0xbeee0f2e	-0.46495956
97	0xbe9f9cc9	-0.31174305
98	0xbdce71ba	-0.10080285
99	0xbe9923b4	-0.29910052
100	0x3ca4b15c	0.020104103
101	0xbeac5a1d	-0.336625
102	0x3e0d717b	0.1381282
103	0xbed2ad28	-0.41147733
104	0x3d97316b	0.073824726
105	0xbe9532ff	-0.2914047
106	0xbd9322f2	-0.071844
107	0xbe1e96d5	-0.15487225
108	0xbe23bdfb	-0.1599044
109	0xbe8b5468	-0.27212834
110	0xbd1f55b7	-0.038900103
111	0xbd5c9160	-0.053849578
112	0xbe9e7d2f	-0.30954883
113	0xbea0f93a	-0.31440145
114	0xbe15120e	-0.14557669
115	0xbe423eb0	-0.18969226
116	0xbe1b4218	-0.15161932
117	0x3cf7779d	0.030208403
118	0xbdfdb749	-0.123884745
119	0x3e2edb33	0.17075805
120	0x3cf24fb4	0.029579021
121	0xbe4a6d7f	-0.19768332
122	0xbd33bcba	-0.043881156
123	0xbead6b99	-0.33871153
124	0xbea67777	-0.3251302
125	0xbedb5111	-0.42835286
126	0xbd39e95b	-0.04538856
127	0x3d3f12a7	0.046648648
128	0xbdf06a8b	-0.117390715
129	0xbe51e3c0	-0.20497036
130	0xbe60d459	-0.21956004
131	0xbbb4d032	-0.005517983
132	0x3bc24736	0.005928899
133	0xbe107001	-0.14105226
134	0xbee202d5	-0.44142786
135	0xbe5ec5cf	-0.21755145
136	0xbcdf0b05	-0.027226934
137	0xbdf055a1	-0.117350824
138	0xbe17c6d8	-0.14821947
139	0xbeb12677	-0.3459966
140	0x3c7268e0	0.014795512
141	0xbe1e2ec7	-0.15447532
142	0xbe2a5f3d	-0.16637893
143	0xbd8f09fe	-0.06984328
144	0x3d818ec3	0.06326058
145	0xbe38107b	-0.17975037
146	0xbe7f2d19	-0.24919547
147	0xbebb6bbd	-0.36605635
148	0xbe0800e4	-0.1328159
149	0xbe5712ac	-0.21003217
150	0xbc91fac4	-0.01781977
151	0xbeb7571f	-0.35808656
152	0xbe1b40c1	-0.1516142
153	0xbece7664	-0.403247
154	0xbe010b4e	-0.12601969
155	0xbebf041d	-0.37307826
156	0xbd0d3940	-0.034478426
157	0xbe055b59	-0.13023128
158	0xbde3627c	-0.11102769
159	0xbebc69c1	-0.36799434
160	0xbddf3ec9	-0.10900647
161	0xbe56145a	-0.20906201
162	0xbe81cba2	-0.25350672
163	0xbe042682	-0.12905315
164	0xbe931b83	-0.28731927
165	0xbddde6e3	-0.10835054
166	0xbd924663	-0.071423315
167	0xbde9c8e2	-0.114152685
168	0x3d137520	0.03600037
169	0xbde8a30c	-0.11359224
170	0x3c6a57d4	0.014303166
171	0xbe47f2f8	-0.19526279
172	0xbe480b7e	-0.19535634
173	0xbe93bb75	-0.28853956
174	0xbe618bcb	-0.22025983
175	0xbebd4852	-0.3696924
176	0xbda70f4d	-0.08157215
177	0xbd9cc86d	-0.07655416
178	0xbe5cad54	-0.21550494
179	0xbe125f78	-0.14294231
180	0xbe737ce2	-0.23778108
181	0xbdad49dc	-0.08461353
182	0xbe1e9aab	-0.15488689
183	0xbe604505	-0.21901329
184	0xbeb90e32	-0.36143643
185	0xbe2782bb	-0.16358463
186	0xbe99f5f1	-0.3007045
187	0x3d1b3db3	0.037900638
188	0xbc567940	-0.013090432
189	0xbe28d7d0	-0.16488576
190	0xbd64fe9a	-0.05590687
191	0xbe6e1719	-0.23250999
192	0xbbd49370	-0.0064873025
193	0xbc194446	-0.009354657
194	0xbd528c26	-0.051403187
195	0xbe1781c2	-0.14795592
196	0xbebecf96	-0.3726775
197	0xbe907d2a	-0.28220493
198	0x3ba8ffe7	0.005157459
199	0xbe77bfbf	-0.24194239
200	0xbe20c048	-0.1569835
201	0xbea411d1	-0.32044843
202	0xbe819233	-0.25306854
203	0x3d03b953	0.03215916
204	0xbe076231	-0.13221051
205	0xbc2dfeef	-0.010619863
206	0x3e5523fe	0.20814511
207	0xba0eac59	-0.0005442552
208	0x3e1df7dd	0.15426584
209	0xbe07deaa	-0.13268533
210	0xbd17b6c6	-0.03703954
211	0x3db71de4	0.08941248
212	0xbdb0f9a1	-0.08641363
213	0x3cb2e78d	0.021838928
214	0xbdd491d9	-0.10379381
215	0xbeac2f21	-0.33629707
216	0xbdfd1dd5	-0.12359206
217	0x3d5b1cdf	0.05349433
218	0x3d9e02b7	0.077153616
219	0xbcd06219	-0.025437402
220	0xbe82b6bd	-0.25530043
221	0xbe0cdbe0	-0.1375575
222	0x3cfff9b2	0.031246994
223	0xbdd9ed79	-0.106409974
224	0xbdd54a3c	-0.1041455
225	0xbe17395d	-0.14767976
226	0xbd476f04	-0.048689857
227	0xbe7c309f	-0.24627922
228	0x3e425d55	0.18980916
229	0xbe5e7fa2	-0.21728376
230	0xbe1a1e79	-0.15050687
231	0xbda6c890	-0.08143723
232	0xbee1fa3e	-0.44136232
233	0xbe898127	-0.26856348
234	0x3e076afe	0.13224408
235	0xbe679026	-0.22613582
236	0xbdf8b4f5	-0.1214389
237	0x3c973230	0.018456548
238	0x3c84dcfd	0.016218657
239	0x3dce5265	0.10074309
240	0xbd6bc878	-0.05756423
241	0xbda58181	-0.080813415
242	0xbac9afcc	-0.0015387475
243	0xbd15d28f	-0.036577757
244	0x3d953796	0.07285993
245	0xbeab1818	-0.3341682
246	0xbed0feee	-0.40819496
247	0xbe4a30b1	-0.19745137
248	0xbde7a0ed	-0.11309991
249	0xbe6f6661	-0.23378898
250	0x3db15e26	0.086605355
251	0x3e40921b	0.18805735
252	0xbe10363d	-0.1408319
253	0xbe8c7823	-0.27435407
254	0xbde8b585	-0.11362747
255	0xbe2ba8e7	-0.1676365

bias f4 [50]
0	0xbe2e0d8e	-0.16997358
1	0xbdd38825	-0.10328702
2	0xbe8dd7c6	-0.27703685
3	0xbea57c31	-0.32321313
4	0xbda2f0bb	-0.07956072
5	0xbe1c777c	-0.15279955
6	0xbe8d42e8	-0.27590108
7	0xbd2ce04a	-0.042206086
8	0xbdbbab67	-0.09163552
9	0xbd416f3b	-0.04722522
10	0xbdeab8a0	-0.11460996
11	0xbe04a880	-0.12954903
12	0x3cc3c462	0.023897354
13	0x3d18d36c	0.037311003
14	0xbe4225e3	-0.18959765
15	0xbd584bc7	-0.052806642
16	0xbe8492ce	-0.25893253
17	0xbea42fd5	-0.32067743
18	0xbeab23ee	-0.3342585
19	0xbe6880b3	-0.22705345
20	0xbeb29c37	-0.34884807
21	0xbdd8ae17	-0.1058008
22	0xbe7a04a9	-0.2441584
23	0xbe86db06	-0.26338977
24	0xbe99fa9b	-0.3007401
25	0xbda660d1	-0.08123935
26	0xbe97a86e	-0.2962069
27	0xbacf717f	-0.0015826671
28	0xbe43b98d	-0.19113751
29	0xbe9b6c57	-0.30356094
30	0xbd8b3247	-0.06796699
31	0xbdf893f6	-0.12137596
32	0xbeae96d6	-0.34099454
33	0xbeb1e84d	-0.34747544
34	0xbe6a8126	-0.22900829
35	0xbea1381d	-0.31488124
36	0xbe064557	-0.13112389
37	0xbeae3ee2	-0.3403235
38	0xbe01e249	-0.12683977
39	0xbe9b99d1	-0.3039079
40	0xbec0397c	-0.37543857
41	0xbe5e21c8	-0.21692574
42	0xbe796ca5	-0.24357851
43	0xbe1882eb	-0.14893691
44	0xbe8de45d	-0.2771329
45	0x3bc29415	0.005938063
46	0xbea226dc	-0.31670272
47	0xbda88b77	-0.08229726
48	0xbe117cb4	-0.14207727
49	0xbe27baa3	-0.1637979

weight f4 [100, 50]
0	0x3d81814e	0.06323491
1	0xbdd9be99	-0.10632057
2	0x3e0ca2de	0.13734004
3	0x3e10d033	0.14141922
4	0xbda9bda8	-0.08288127
5	0x3f039114	0.51393247
6	0xbc080fbd	-0.008304534
7	0x3e3cd9af	0.18442415
8	0x3eb28e34	0.34874117
9	0xbd202e4d	-0.039106656
10	0xbd7dd989	-0.061975036
11	0xbe4ad76b	-0.19808738
12	0x3c002b9b	0.007822896
13	0xbe025261	-0.12726738
14	0x3d3506c0	0.04419589
15	0xbe21bfce	-0.15795824
16	0x3e0d4fd6	0.13799986
17	0xbe0276dc	-0.12740654
18	0xbdb0eb4a	-0.08638628
19	0x3ded3f90	0.11584389
20	0x3da6339d	0.08115313
21	0x3ecedbe3	0.40402135
22	0x3e098596	0.13429865
23	0x3e2df15b	0.16986601
24	0x3d5aabdb	0.05338655
25	0x3eab64d4	0.33475363
26	0x3dc64e03	0.09682848
27	0xbe6912eb	-0.22761123
28	0x3eb140bf	0.3461971
29	0x3e47a96c	0.19498223
30	0x3ea6e4d8	0.3259647
31	0x3d3b0f9b	0.04566918
32	0x3dbb072f	0.091322295
33	0xbbfe4505	-0.0077596926
34	0x3e5870b9	0.2113675
35	0x3e8d3788	0.2758143
36	0xbe066720	-0.13125277
37	0x3e2954f3	0.16536312
38	0x3daca21f	0.0842936
39	0xbc0bd671	-0.0085350135
40	0x3df4f815	0.119613804
41	0x3e92dc97	0.28683922
42	0x3c9a8884	0.018863924
43	0x3e64b628	0.22335112
44	0x3e1d9e0e	0.15392324
45	0x3e5ce590	0.21571946
46	0x3e63bdce	0.22240373
47	0x3e795028	0.24346983
48	0xbb38ed49	-0.0028217605
49	0xbc3c5fc9	-0.011497446
50	0xbcb54761	-0.022128763
51	0x3dbec7bb	0.09315439
52	0x3dd30f11	0.10305608
53	0xbd8358b7	-0.064134054
54	0x3d9fd38b	0.078040205
55	0x3d07ed47	0.03318527
56	0x3dcf9f9b	0.10137864
57	0xbdadc5e9	-0.08485014
58	0x3d0afe61	0.033934
59	0x3e26cd2c	0.16289204
60	0x3d10924c	0.03529577
61	0x3d1fe1b3	0.039033603
62	0x3dd600ed	0.10449395
63	0xbadfbbd7	-0.001706953
64	0xbd4de927	-0.05027118
65	0x3e166b5b	0.1468939
66	0x3da03812	0.078231946
67	0xbda5c44e	-0.08094083
68	0xbda065c9	-0.07831914
69	0xbce77c0e	-0.028257396
70	0xbe3a3f4e	-0.18188211
71	0xbe8bcb20	-0.2730341
72	0xbce7c660	-0.028292835
73	0x3da3e264	0.08002165
74	0xbba92766	-0.0051621674
75	0xbe38ccd4	-0.18046886
76	0x3d582d35	0.052777488
77	0xbd635f2c	-0.055510685
78	0xbdf2b193	-0.11850276
79	0xbdf45d86	-0.11931901
80	0xbdd3e691	-0.103467114
81	0x3dc0c2ad	0.094121315
82	0x3db262b2	0.08710231
83	0xbd8c0564	-0.06836966
84	0x3c0c976b	0.008581023
85	0xbe7784ac	-0.24171704
86	0xbd648d91	-0.05579907
87	0xbc8b6dfc	-0.017020218
88	0xbde204d7	-0.110360794
89	0x3d47d8f3	0.048790883
90	0x3d9f6bef	0.077842586
91	0xbe38a2eb	-0.18030898
92	0xbca8b905	-0.020596037
93	0xbd6449a7	-0.055734303
94	0x3db1e21d	0.08685706
95	0xbccc75b6	-0.024958473
96	0x3cffa7fd	0.031208033
97	0xbda12221	-0.07867838
98	0xbc97d012	-0.018531833
99	0xbda5124c	-0.080601305
100	0xbe29357b	-0.16524307
101	0x3ca19fff	0.019729612
102	0xbe37eeb4	-0.17962152
103	0xbe13a786	-0.14419374
104	0x3cb2c8c9	0.021824257
105	0xbd2bd513	-0.04195125
106	0xbe01497c	-0.12625688
107	0x3e1aa871	0.15103318
108	0xbd45a5d0	-0.048253834
109	0xbb818123	-0.003952162
110	0xbe36258d	-0.17787762
111	0xbe30d531	-0.17268826
112	0xbecd3074	-0.4007603
113	0x3d74e4d5	0.059788544
114	0xbd9f6139	-0.077822156
115	0xbe91e4c9	-0.28494862
116	0xbe040d08	-0.12895596
117	0xbd450928	-0.048104435
118	0x3dbf0011	0.093261845
119	0xbe24bec5	-0.16088398
120	0x3d53c936	0.05170556
121	0x3dcfdc59	0.1014945
122	0x3d2a2b91	0.041545454
123	0xbd08294f	-0.03324252
124	0xbdedc5cc	-0.116099924
125	0xbe089ca8	-0.1334101
126	0xbda7ade7	-0.08187466
127	0xbd9e691d	-0.077348925
128	0x3bf0ed0d	0.0073524774
129	0x3cc62a03	0.024189955
130	0x3c3b6595	0.011437793
131	0xbd99f0bc	-0.075166196
132	0xbc6cf239	-0.014462047
133	0xbd9bd7f3	-0.076095484
134	0xbdaabebf	-0.08337163
135	0xbc42ab6c	-0.0118816905
136	0xbe33f314	-0.17573196
137	0xbd97548e	-0.073891744
138	0x3dc67c9b	0.09691735
139	0x3e6da354	0.23206836
140	0xbe10596d	-0.14096613
141	0x3da18400	0.07886505
142	0x3e0516a5	0.1299692
143	0x3e07eb9e	0.13273475
144	0xbe09caaa	-0.13456216
145	0xbe7dce3d	-0.24785705
146	0xbd0c4880	-0.03424883
147	0xbde62bcd	-0.11238823
148	0xbc780b8a	-0.01513947
149	0xbe86458f	-0.26224944
150	0x3eb90bc3	0.36141786
151	0x3f0066ce	0.5015687
152	0x3d22a91c	0.039712057
153	0x3eebf512	0.4608541
154	0x3de4c7c4	0.11170915
155	0x3d815883	0.063157104
156	0x3e9b79c0	0.30366325
157	0xbe7c7ad7	-0.24656235
158	0xbeb8fc32	-0.3612991
159	0x3f05e894	0.5230801
160	0x3dc33706	0.09531979
161	0x3f05ac0a	0.52215636
162	0x3d8dcf24	0.069242746
163	0x3f05c534	0.52254033
164	0x3f0cc048	0.549809
165	0x3ebdc0f9	0.3706129
166	0x3ee1ff10	0.4413991
167	0x3eb7339f	0.3578157
168	0x3d961163	0.07327535
169	0x3eaf83ea	0.3428033
170	0xbf12194a	-0.5706984
171	0xbe85aa0a	-0.26106292
172	0xbe787900	-0.24264908
173	0x3e5c4e1d	0.21514173
174	0xbdf37c45	-0.11888937
175	0xbced088f	-0.028934745
176	0x3e835b44	0.25655568
177	0x3f0b3de2	0.543913
178	0xbe5cd18b	-0.2156431
179	0x3e5b1cd8	0.21397722
180	0x3e2a2f9f	0.16619729
181	0x3eca295a	0.39484674
182	0xbddb4aaf	-0.10707604
183	0x3e762adc	0.24039787
184	0x3bfa4e5b	0.007638735
185	0xbe4bb1bd	-0.1989202
186	0x3e9d3870	0.3070712
187	0x3e4cef19	0.20013084
188	0xbe10037e	-0.14063832
189	0x3e66677b	0.22500412
190	0x3ea51ef1	0.3225017
191	0xbdfbaa35	-0.12288324
192	0xbe545618	-0.20735967
193	0x3e4daa0a	0.20084396
194	0x3dff6cc9	0.12471921
195	0x3d905a9a	0.07048531
196	0x3e24eb49	0.16105379
197	0xbd45e02a	-0.048309483
198	0xbdeb1c9f	-0.114800684
199	0x3e469a65	0.19394834
200	0xbe0ae31a	-0.13563195
201	0xbe934f35	-0.28771368
202	0xbda79a76	-0.08183758
203	0xbd50536d	-0.05086081
204	0x3e0695fa	0.13143149
205	0x3c11d76f	0.008901461
206	0xbdd8ad28	-0.10579902
207	0xbb3c9895	-0.002877747
208	0x3e045921	0.12924625
209	0xbe98b98b	-0.29829058
210	0x3d1812be	0.03712725
211	0xbde305ae	-0.11085068
212	0x3e2542fd	0.16138835
213	0xbe233579	-0.15938367
214	0xbe5698ec	-0.20956773
215	0xbddb69ce	-0.1071354
216	0xbe2e4eb7	-0.17022215
217	0xbdb83a65	-0.08995513
218	0x3d3ed3d5	0.046588738
219	0xbd07006a	-0.03295938
220	0x3e80f99d	0.2519044
221	0x3d93e16d	0.07220731
222	0x3d4f91d1	0.05067617
223	0xbdd84ef4	-0.10561934
224	0xbce3e1ba	-0.027817596
225	0xbdc6e256	-0.09711139
226	0xbd824d5e	-0.06362413
227	0xbe3afd9e	-0.1826081
228	0xbdb8485f	-0.08998179
229	0xbe3266af	-0.17421983
230	0xbb0c0e48	-0.0021370817
231	0xbda316af	-0.07963311
232	0xbd0711e7	-0.032976057
233	0xbe1b6d86	-0.15178499
234	0x3d566f18	0.05235204
235	0x3dce7c82	0.10082342
236	0xbdad7fea	-0.08471663
237	0xbd8c7f5e	-0.06860231
238	0x3ca750d3	0.020424282
239	0xbcf67e38	-0.030089483
240	0xbe31f0fb	-0.17377083
241	0x3c8beb50	0.01707998
242	0x3dbc0cb9	0.09182114
243	0xbdbde2da	-0.09271784
244	0x3d454453	0.048160862
245	0x3c866429	0.016405182
246	0xbb31a6f6	-0.0027107573
247	0x3bfe009c	0.0077515375
248	0x3d2021a8	0.039094597
249	0x3d875234	0.06607476
250	0x3e37ec4a	0.17961231
251	0x3e53f4ab	0.20698802
252	0x3dec3b82	0.11534788
253	0x3d912999	0.07088012
254	0x3dd86d13	0.10567679
255	0x3e062bcc	0.13102645
