mcspace/paper/scripts/synthetic_benchmark/helpers/synthetic/base_run/Human/model.pt (torch, 283047 bytes, 36 tensors)

theta_params f4 [100, 58]
00000000: 5142 83c0 8736 b740 b3aa 1e40 6e98 5cc0
00000010: fa33 bac0 c42f 9940 0b40 9ec0 fca0 a3c0
00000020: 4825 71c0 0797 aec0 f7a7 bec0 882c 93c0
00000030: 156e 8cc0 8f17 83c0 6852 adc0 ac0b 1cc0
00000040: 2855 a0c0 e7fb a940 2d9b 2040 5e89 8ac0
00000050: 8766 9440 0dff 99c0 d60b 93c0 215f 5240
00000060: 5f75 99c0 3c96 aec0 d94c cfbf 55a0 9fc0
00000070: 7bf9 9740 68f0 b3c0 ed28 c3c0 610d bcc0
00000080: af42 5dc0 4530 38c0 c6bf 86c0 b6fa 2240
00000090: 0c67 c73f 826a 2b40 e1ef 29c0 4fc9 9ec0
000000a0: d09c 56c0 0ff6 86c0 1266 87c0 70f9 8dc0
000000b0: f5e1 22c0 b650 9cc0 03c8 abc0 45e5 87c0
000000c0: 68d8 97c0 bf32 2440 8a21 94c0 666f 56c0
000000d0: 8f38 84c0 2bcb 8fc0 d244 52c0 a59c b4c0
000000e0: fbce 98c0 6218 9ec0 d944 11c0 fe5c 85c0
000000f0: c30d 9fbf 98a2 4dbf 0d00 59c0 743b 8cc0
00000100: 5fd1 7640 2677 97c0 2172 b440 692b 9f40
00000110: e362 80c0 764f 48c0 d105 62c0 accc 57c0
00000120: 3634 51c0 6da8 bb40 85db 66c0 0b23 87bf
00000130: 94e3 95c0 85a7 2bc0 a00f 4340 8bcb 37c0
00000140: 9318 86c0 030c 2e40 fe52 8bc0 d666 84c0
00000150: 3d40 82c0 a78e 81c0 21f6 8240 06c6 5e40
00000160: fae8 47c0 1c1d 9bc0 5cc0 79c0 6655 57c0
00000170: fc3f a2c0 d079 2d40 d49d 65c0 efbd ad40
00000180: ec34 42c0 917d 59c0 474c 1fc0 85fd 89c0
00000190: 1962 2c40 1ff7 67c0 fad6 26c0 590b 17c0
000001a0: 45dd 66c0 8eb9 aac0 5294 2540 ae95 8dbe
000001b0: a4b1 85c0 7ee3 6ac0 fd95 1540 94a2 4cbf
000001c0: af14 4bc0 25d0 163f 0a70 76c0 7fa7 4bc0
000001d0: 606b 9ec0 4039 86c0 c0b0 92bf 7217 8dc0
000001e0: 1518 713f eeaf 0c3f c73a 9fc0 e9f6 bbbf
000001f0: a003 90bf 2f59 853f f145 a1c0 e6a5 f3bf
00000200: 4906 16c0 de77 6dc0 51c5 97c0 62a3 37c0
00000210: 8c18 61c0 4e4e 443f 5175 3dbd 2308 eebf
00000220: 86f1 b1bf 2cc4 8ebf b742 00c0 6d76 6bc0
00000230: 26da 3f3e 924a 2dc0 f888 64c0 a03a d5c0
00000240: 4664 8b3f adf3 04c0 a1a1 7fc0 55e1 10c0
00000250: 6b8f 8dbf d27f c6c0 ec5f ec3f 5ea6 5e3f
00000260: 9c47 8a3d 4c3f b340 9fed 5ec0 9311 1f3e
00000270: b3fa 8cc0 c0f2 bec0 c78a 99c0 0efb a6be
00000280: 57c1 afc0 531b 97c0 bdf5 07bf 2ec1 853e
00000290: 069c 9bbf 122a 08bf 328e 11bf f830 57c0
000002a0: b803 c5c0 de6e 96bf 8eb5 80c0 12e0 72bf
000002b0: 1248 11bf 348d febf f366 9ac0 d451 3d40
000002c0: 7000 c3bd 01f8 ccc0 7224 0640 3873 dc3f
000002d0: c88a ba3d 5a50 8cc0 9b2a ea3f a3bd 9ac0
000002e0: 07dc cfc0 e011 0640 e05a 91c0 5e05 92c0
000002f0: 2e84 bcc0 1a62 a8c0 e828 b2c0 d6d8 113e
00000300: c226 3040 446d 0d40 bce1 21bf 6051 c5c0
00000310: e0a9 f4be b8d8 523f ceb9 97c0 750d 7140
00000320: fc5b 9cc0 20a0 87c0 d555 8ec0 fb0c 87c0
00000330: b85e ee3e 0696 a1c0 4a5d bfc0 01b9 96c0
00000340: cbee 7b40 3769 3b40 3e19 a7c0 24d2 3f40
00000350: 5067 53c0 d95b 613f bdd6 833f 9378 f13f
00000360: 0d14 363e 70c7 4240 1385 e3c0 c192 2c40
00000370: 31c8 ccc0 26f4 acc0 8eb5 69c0 5c6b 7140
00000380: 2f1b 8b3f c89e a03f a0dc c3c0 b5c9 b3c0
00000390: 2b83 183f ca20 db3f 5fbc 3940 fae0 5740
000003a0: 7a3b b1c0 d14a cb3f 9d45 403f 1ecc 0740
000003b0: 6d57 8240 1440 1940 aa89 4b40 f089 bfc0
000003c0: 44ad cdbe df6c 763f 01a0 7cc0 52a2 96c0
000003d0: 6987 02bf 0b4a 0d40 7d88 ccc0 a1d6 aec0
000003e0: 748e adc0 39cd 5840 884f 0c40 5afb a8c0
000003f0: a387 973e c707 d2c0 7840 b63d 6e76 013f
-4.1018453 5.725406 2.4791687 -3.4468036 -5.818845 4.787081 -4.9453177 -5.1134014
-3.7679005 -5.455936 -5.9580035 -4.599186 -4.3884377 -4.096626 -5.4163094 -2.4382124
-5.010395 5.312 2.5094712 -4.3292685 4.6375155 -4.812384 -4.595195 3.2870562
-4.7955775 -5.455839 -1.6195327 -4.988322 4.749204 -5.6230965 -6.098746 -5.876633
-3.457195 -2.8779461 -4.21091 2.5465522 1.5578322 2.6783757 -2.655266 -4.962074
-3.353321 -4.2175364 -4.2312098 -4.436699 -2.5450413 -4.8848524 -5.3681655 -4.246737
-4.745167 2.5655973 -4.629094 -3.3505492 -4.131904 -4.493551 -3.2854505 -5.6441216
-4.775266 -4.9404764 -2.2698271 -4.1676016 -1.2426075 -0.80326223 -3.390628 -4.3822575
3.856529 -4.7332945 5.6389318 4.974049 -4.012071 -3.12985 -3.531605 -3.3718672
-3.2688117 5.86431 -3.6071484 -1.0557569 -4.6840305 -2.6820996 3.0478287 -2.8717983
-4.1905 2.7194831 -4.353881 -4.137553 -4.0703416 -4.0486636 4.092545 3.4808364
-3.1235948 -4.8473034 -3.9023657 -3.3645873 -5.0703106 2.7105598 -3.587758 5.4294353
-3.03448 -3.398289 -2.4890306 -4.312197 2.6934874 -3.624458 -2.6068711 -2.3600676
-3.6072552 -5.3351507 2.5871778 -0.2765326 -4.1779346 -3.670135 2.3372796 -0.79935575
-3.1731374 0.58911353 -3.8505883 -3.1820982 -4.9506073 -4.1944885 -1.146019 -4.409112
0.9417737 0.5495595 -4.975925 -1.4684726 -1.1251106 1.0417842 -5.039788 -1.9035003
-2.3441336 -3.710441 -4.7428365 -2.869347 -3.5171232 0.76681983 -0.04625446 -1.8596233
-1.3901832 -1.1153617 -2.004072 -3.6791031 0.18735561 -2.7076764 -3.57086 -6.6634064
1.0889976 -2.0773728 -3.99424 -2.2637532 -1.1059393 -6.203103 1.8466773 0.86972606
0.0675194 5.6014767 -3.4832532 0.15534048 -4.405603 -5.9671326 -4.7981906 -0.32613415
-5.492351 -4.7220855 -0.5310934 0.26123947 -1.215699 -0.53189194 -0.568576 -3.3623638
-6.156704 -1.1752584 -4.0221624 -0.94873154 -0.56750596 -1.9886842 -4.825067 2.9581194
-0.09521568 -6.405274 2.0959744 1.7222662 0.09108502 -4.3848085 1.8294252 -4.835649
-6.495609 2.094841 -4.542343 -4.563155 -5.891135 -5.2619753 -5.5674934 0.14242873
2.7523656 2.209794 -0.6323507 -6.1661835 -0.47785854 0.82361937 -4.741431 3.7664464
-4.8862286 -4.2382965 -4.4479775 -4.2203345 0.4655664 -5.0495634 -5.980138 -4.7100835
3.9364498 2.9282968 -5.2218313 2.997201 -3.3031807 0.88030773 1.0299908 1.8864921
0.17781086 3.0434227 -7.1099944 2.6964571 -6.3994374 -5.4048033 -3.6517062 3.7721777
1.0867671 1.2548456 -6.120682 -5.6183724 0.59575146 1.7119381 2.9021223 3.3731065
-5.5385103 1.5882207 0.7510622 2.1218333 4.073172 2.394536 3.1802773 -5.985588
-0.40171254 0.96259874 -3.9472659 -4.7073145 -0.5098787 2.2076442 -6.391661 -5.4637
-5.4236393 3.3875258 2.1923542 -5.2806826 0.2959567 -6.5634494 0.08899015 0.50571334

q_gamma_params f4 [99]
00000000: 1b19 7bc0 52c0 6540 9c65 2340 6ff2 3b40
00000010: 51bf 7e40 205c 7b40 3536 4d40 a5c3 2e40
00000020: b2ab 7740 fbae 2940 04ce 7b40 8b3b 4abf
00000030: 1069 bbbf 9e6d 0d40 1429 b2bf 89ea 0840
00000040: ef51 4440 bc07 3740 7172 8840 3800 3040
00000050: cfbc 813f a485 6c40 dcda 4b3b ef25 13be
00000060: bb88 1140 86d4 7540 0936 e83e 5c1c 6440
00000070: 8b0b 8740 9431 813f dc66 4c40 e77c 5f40
00000080: 8890 4640 a896 7940 23e0 6c40 1e88 7c40
00000090: a29f 6040 3ed3 7740 212f 4e40 57af 0d40
000000a0: 86fd 5d40 8d6e 8840 dea2 8540 6e7f 5940
000000b0: 9df1 6340 659a 4b40 a890 2540 0e46 7740
000000c0: de73 0fc0 c7e5 3640 ab4e e13f d20d 3e40
000000d0: 85d8 6840 99d5 6540 8e73 5d40 cd37 cac0
000000e0: d2e2 2a40 e7b9 1240 1a97 173f 56b1 7f40
000000f0: aea1 5740 466f 4ac0 eb5e 7340 c686 5340
00000100: 6145 3b3f c7e9 2e40 83e2 8240 d62d 4940
00000110: f840 7440 f256 7840 e684 ea3f 621f 88c0
00000120: 606c 6640 3d7c debe 24a6 cf3f 62a9 5abf
00000130: 1a10 7f40 0731 5e40 76a0 4f40 e24e 4b40
00000140: 5643 3440 664a e3bf 2a17 87bf 131d 6940
00000150: dcb1 923f 3ff5 8040 9276 7740 0a42 5740
00000160: 0c90 5140 6513 2840 5faa 1ac0 af04 5040
00000170: 0c3e 5840 a664 cbc0 5f9c 7940 a2aa 6140
00000180: 7872 4b40 207f 3240 9450 2940
-3.9234073 3.5898633 2.5530767 2.936672 3.980427 3.9274979 3.2064335 2.7306912
3.8698545 2.651305 3.9344492 -0.78997105 -1.4641438 2.2098155 -1.3918786 2.139315
3.0675008 2.859847 4.26397 2.7500134 1.0135745 3.6956568 0.0031105792 -0.1436994
2.2739704 3.8410964 0.45353726 3.564231 4.220159 1.0093255 3.193778 3.4919984
3.1025715 3.8998203 3.7011802 3.945808 3.5097432 3.8722682 3.2216265 2.213827
3.4685988 4.263495 4.1761312 3.3984027 3.561622 3.1812985 2.586954 3.8636508
-2.241447 2.8577745 1.7602133 2.9695935 3.6382153 3.591162 3.460178 -6.3193116
2.670094 2.2925966 0.5921494 3.9951987 3.3692431 -3.1630416 3.8026683 3.305101
0.7315274 2.7330186 4.0901504 3.1434226 3.8164654 3.8803067 1.8321807 -4.253831
3.6003647 -0.4345416 1.6222577 -0.8541471 3.9853578 3.4717424 3.2441688 3.1766896
2.8166099 -1.775708 -1.0553944 3.6423995 1.1460528 4.0299373 3.866612 3.3634057
3.274417 2.6261837 -2.4166486 3.2502859 3.378787 -6.356036 3.9001691 3.5260396
3.1788616 2.789009 2.645543

q_probs f4 [99]
00000000: 95e0 9e3c 851f 793f 5783 6d3f aa1b 733f
00000010: 634e 7b3f 5e0e 7b3f 9b09 763f 4b56 703f
00000020: d7c4 7a3f 0f21 6f3f 2d0d 7b3f 11e8 9f3e
00000030: 2b74 403e cdb2 663f 77ed 4b3e c708 653f
00000040: 8198 743f a122 723f f172 7c3f c893 703f
00000050: b9da 3b3f 1acc 793f 0b1c 003f 82eb ec3e
00000060: ec1e 683f 859e 7a3f f99e 1c3f 65f3 783f
00000070: d14a 7c3f 93a2 3b3f 12ea 753f 0c70 783f
00000080: a3fe 743f 92eb 7a3f b2d4 793f eb24 7b3f
00000090: 2791 783f f0c7 7a3f 8a2e 763f 45c9 663f
000000a0: 9643 783f 8772 7c3f bf20 7c3f 6ab8 773f
000000b0: baee 783f d6ca 753f ff16 6e3f 9ebc 7a3f
000000c0: a5e7 c43d 401a 723f 666d 5a3f a680 733f
000000d0: b070 793f f421 793f 7233 783f 37cb eb3a
000000e0: 676c 6f3f 8486 683f 55d4 243f b45f 7b3f
000000f0: ce7b 773f d353 263d 9d69 7a3f 69f0 763f
00000100: 99d9 2c3f 725f 703f 32c9 7b3f 2968 753f
00000110: d47c 7a3f 7fd2 7a3f 24af 5c3f 64a7 653c
00000120: 9f31 793f f258 c93e 87cd 553f 33f4 983e
00000130: 3754 7b3f 8848 783f 7b64 763f 54bf 753f
00000140: f68d 713f 625f 143e f83e 843e 7b77 793f
00000150: ae40 423f 6a87 7b3f 90c0 7a3f 626f 773f
00000160: aeaa 763f b8ba 6e3f 4cda a73d 7f72 763f
00000170: d58f 773f 5c4e e33a 0fec 7a3f 12af 783f
00000180: 34c5 753f d42c 713f 5c09 6f3f
0.019394198 0.9731372 0.92778534 0.94964087 0.98166484 0.980688 0.96108407 0.9388167
0.97956604 0.9340982 0.9806698 0.3123174 0.18794315 0.9011658 0.19914804 0.8946652
0.955452 0.9458409 0.98612887 0.93975496 0.7338062 0.9757706 0.5004279 0.46273428
0.90672183 0.9789813 0.61180073 0.9724639 0.9855166 0.73294944 0.9606029 0.9704597
0.95701045 0.980157 0.9759017 0.9810321 0.97096485 0.9796133 0.9616476 0.9015086
0.9697813 0.98612255 0.98487467 0.9676577 0.9723927 0.9601263 0.9300384 0.97944057
0.09614495 0.94571304 0.8532318 0.95118177 0.9743757 0.97317433 0.969535 0.001798964
0.93524784 0.90830255 0.6438649 0.98192906 0.96673286 0.040607285 0.97817403 0.96460587
0.6751953 0.9389564 0.98353875 0.9586206 0.9784672 0.9797744 0.86204743 0.01401696
0.9734134 0.39325672 0.83516735 0.2987381 0.98175377 0.96985674 0.9624707 0.9599507
0.9435724 0.1448951 0.2582929 0.9744794 0.75879943 0.982535 0.9795008 0.9665433
0.96354187 0.9325366 0.08195934 0.9626846 0.96703845 0.0017342078 0.98016447 0.97142136
0.96004033 0.9420903 0.93373656

gamma f4 [100]
00000000: 0000 803f 0000 0000 0000 803f 0000 803f
00000010: 0000 803f 0000 803f 0000 803f 0000 0000
00000020: 0000 803f 0000 803f 0000 803f 0000 803f
00000030: 0000 803f 0000 0000 0000 803f 0000 0000
00000040: 0000 803f 0000 803f 0000 803f 0000 803f
00000050: 0000 803f 0000 803f 0000 803f 0000 803f
00000060: 0000 0000 0000 803f 0000 803f 0000 803f
00000070: 0000 803f 0000 803f 0000 803f 0000 803f
00000080: 0000 803f 0000 803f 0000 803f 0000 803f
00000090: 0000 803f 0000 803f 0000 803f 0000 803f
000000a0: 0000 803f 0000 803f 0000 803f 0000 803f
000000b0: 0000 803f 0000 803f 0000 803f 0000 803f
000000c0: 0000 803f 0000 0000 0000 803f 0000 803f
000000d0: 0000 803f 0000 803f 0000 803f 0000 803f
000000e0: 0000 0000 0000 803f 0000 803f 0000 803f
000000f0: 0000 803f 0000 803f 0000 0000 0000 803f
00000100: 0000 803f 0000 803f 0000 803f 0000 803f
00000110: 0000 803f 0000 803f 0000 803f 0000 803f
00000120: 0000 0000 0000 803f 0000 0000 0000 803f
00000130: 0000 0000 0000 803f 0000 803f 0000 803f
00000140: 0000 803f 0000 803f 0000 0000 0000 0000
00000150: 0000 803f 0000 0000 0000 803f 0000 803f
00000160: 0000 803f 0000 803f 0000 803f 0000 0000
00000170: 0000 803f 0000 803f 0000 0000 0000 803f
00000180: 0000 803f 0000 803f 0000 803f 0000 803f
1.0 0.0 1.0 1.0 1.0 1.0 1.0 0.0
1.0 1.0 1.0 1.0 1.0 0.0 1.0 0.0
1.0 1.0 1.0 1.0 1.0 1.0 1.0 1.0
0.0 1.0 1.0 1.0 1.0 1.0 1.0 1.0
1.0 1.0 1.0 1.0 1.0 1.0 1.0 1.0
1.0 1.0 1.0 1.0 1.0 1.0 1.0 1.0
1.0 0.0 1.0 1.0 1.0 1.0 1.0 1.0
0.0 1.0 1.0 1.0 1.0 1.0 0.0 1.0
1.0 1.0 1.0 1.0 1.0 1.0 1.0 1.0
0.0 1.0 0.0 1.0 0.0 1.0 1.0 1.0
1.0 1.0 0.0 0.0 1.0 0.0 1.0 1.0
1.0 1.0 1.0 0.0 1.0 1.0 0.0 1.0
1.0 1.0 1.0 1.0

KL_gamma_k f4 [99]
00000000: 8521 8043 38fc 4846 c99d 3f46 9821 4446
00000010: 3bbf 4a46 918b 4a46 c57e 4646 2ae5 4146
00000020: 3b50 4a46 a1eb 4046 9a8a 4a46 5efd 8045
00000030: c43c 1b45 131e 3a46 427e 2445 50c6 3846
00000040: ea54 4546 a258 4346 55ab 4b46 c816 4246
00000050: 3d8c 1746 7f87 4946 bcb0 ce45 ce1e bf45
00000060: e443 3b46 4d31 4a46 2db2 fc45 9cd8 4846
00000070: f28a 4b46 f05e 1746 5365 4646 9c6e 4846
00000080: 55a7 4546 7b6f 4a46 6d8e 4946 c39d 4a46
00000090: 5589 4846 ba52 4a46 939c 4646 3530 3a46
000000a0: bd4a 4846 ffaa 4b46 fe68 4b46 6cda 4746
000000b0: d8d4 4846 1d4c 4646 ef14 4046 9749 4a46
000000c0: acd1 9e44 df51 4346 4837 3046 1673 4446
000000d0: b83d 4946 2ffe 4846 b53d 4846 c620 be41
000000e0: 6e28 4146 7c97 3b46 7cf8 0446 34cd 4a46
000000f0: 83a9 4746 9c25 0644 9b06 4a46 0639 4746
00000100: 1a71 0b46 8dec 4146 5722 4b46 7dfc 4546
00000110: 1d16 4a46 3f5b 4a46 7509 3246 c034 3943
00000120: d30a 4946 fd6b a245 0b7c 2c46 00c3 7645
00000130: efc3 4a46 ba4e 4846 1bc8 4646 d442 4646
00000140: abe0 4246 1b5b ef44 c759 5545 3443 4946
00000150: d1b5 1c46 41ed 4a46 c64c 4a46 7d9f 4746
00000160: c000 4746 0c99 4046 6f62 8744 6ad3 4646
00000170: adb9 4746 9a48 b741 e06f 4a46 79a1 4846
00000180: 9247 4646 4992 4246 82d8 4046
256.26187 12863.055 12263.446 12552.398 12975.808 12962.892 12703.692 12409.291
12948.058 12346.907 12962.65 4127.671 2483.7979 11911.519 2631.891 11825.578
12629.229 12502.158 13034.833 12421.695 9699.06 12897.874 6614.092 6115.8506
11984.973 12940.325 8086.272 12854.152 13026.736 9687.734 12697.331 12827.652
12649.833 12955.87 12899.606 12967.44 12834.333 12948.682 12711.144 11916.052
12818.685 13034.749 13018.248 12790.605 12853.211 12691.028 12293.233 12946.397
1270.5522 12500.468 11277.82 12572.771 12879.43 12863.546 12815.427 23.766003
12362.107 12005.871 8510.121 12979.301 12778.378 536.58765 12929.651 12750.256
8924.275 12411.138 13000.585 12671.122 12933.528 12950.812 11394.364 185.20605
12866.706 5197.4985 11039.011 3948.1875 12976.983 12819.682 12722.026 12688.707
12472.167 1914.847 3413.611 12880.801 10029.454 12987.313 12947.193 12775.872
12736.1875 12326.262 1083.076 12724.854 12782.419 22.91045 12955.969 12840.368
12689.893 12452.571 12342.127

weight f4 [50, 58]
00000000: e0e6 a73d ba2c 78bc 28ca 2abe f882 293e
00000010: 2fec dc3c d829 4fbe b324 3c3e d1e1 c83d
00000020: 4de4 553e 3704 86bd 7951 313e 6a92 753b
00000030: b923 893c a45c 693d 04e5 f73c 5922 123e
00000040: f287 a6bc 6180 e1bd 76b1 29be 61e6 453e
00000050: 4365 64be cbdf 103d 797d e3bd 4829 67bd
00000060: e8ac cf3d b23e debc 1854 563e b969 82ba
00000070: 7832 113c b238 483e e04d 013d 4131 363e
00000080: 460e fe3d 9e47 563e 5e40 b2bd d38d 09be
00000090: c021 0d3e 39f2 12be d499 2b3e 221d ba3d
000000a0: abfc 373e a5f1 973d dabd 353e 898c 3d3d
000000b0: 6970 313e 8e98 883c 9c66 b2bc 01f7 a43d
000000c0: b487 bdbb 1b1c 2f3d 2282 dd3d 5640 2c3e
000000d0: ee9b 083e e0a2 9b3d b2f1 5a3e 1b23 babc
000000e0: 3e61 dabd f241 3fbc 1a8e 823e 28fe 6bbd
000000f0: d36f 0bbe 00ca 333e 2e05 c6bd 300c 96be
00000100: 440c 083e da5f 063e 057f af3e d650 2fbe
00000110: 4194 af3e eaf4 15bd ad4c cabd cd5c c93d
00000120: 057c f83d d14f 893e 4d36 053e 98ef d7bd
00000130: 7e8b 82be edfd 003e 8314 03be f9ca 373e
00000140: 9569 6bbd 12f4 96bd 2d1f 8b3e 4ef4 e53d
00000150: 3e5f 103e 4ecd 813e 99ca 27be 0bd3 213e
00000160: d0a7 753e ae30 983e 14f1 ef3d 9aab 1e3e
00000170: 8545 bbbd 7fc5 81be 4d9d 233e 0e30 adbe
00000180: 5a0e 0f3e f90c 1cbe 66b2 423e a2ac b93d
00000190: 3bb4 623e f9ea 2cbd f0ca d83d d73a 023e
000001a0: 7f2c cb3d cfee b73d 0d80 bc3e ca26 38be
000001b0: f994 7e3e 4169 c03d ef6a fa3d 0c5e 233e
000001c0: 6e51 803e 0924 0bbe db4d 65be 6a4b fb3d
000001d0: 2999 3c3e d72c a9bd fa08 39be 5d51 cb3d
000001e0: 56ee 92be 369d 92be 8e0c 333e 22bf b23d
000001f0: 4f2f a93e fa28 6cbe 0374 9d3e f4cc 4fbd
00000200: 8441 bfbd 9741 6f3d ad67 1f3e 5c21 0c3e
00000210: b14b 7c3d fcc3 aebe 6199 2bbe 54da 2d3e
00000220: 906d 17be a804 d43d 2f66 90bd 38fb 70bd
00000230: 923d 343e f5a4 5d3e aefb 813e 5c00 943e
00000240: 51b2 78bd a07f 2a3e 6c6a 6c3e f4e8 073e
00000250: b650 353e 5a28 d43d c35e 5abd 5204 9abe
00000260: 5352 863e c87d 11be 39a0 693e 433f 7dbe
00000270: 5f8a 993e 9c58 bd3d f83c 603e 1667 5dbd
00000280: edac 8d3e 711e 293e 2987 fe3d 8ff3 cf3d
00000290: 7e60 7d3e 8b5c 8fbe b2fd 0c3e 5f56 3c3e
000002a0: 6fee 873e 6354 363e 3ec0 003e efa5 16be
000002b0: c5f3 87be 7249 7b3e 56e8 6a3e 6c48 83bd
000002c0: cbef 4abd 492a 2c3e ea89 bdbd 26cc 12be
000002d0: 8b2e f43d 91bb f73d 58d8 223e 848f dfbd
000002e0: 07ca b23d 9d92 6bbb cc68 39ba a7ca 0f3c
000002f0: f823 353e 0b03 723e 27ce 8d3c 7cf3 febd
00000300: c9c0 aabd 430e b33d e7ab 8fbd b51f 093e
00000310: fc31 03be 0509 a7bc 5a4e 433e e149 2a3e
00000320: 7539 d93d 3e47 463d eb0f 44be e761 0f3d
00000330: 09ea fd3c 54b3 173e 68ca 473e e0f6 203e
00000340: b66d 77be 53f1 3ebe a041 b13d 1623 e63c
00000350: e57a 143e 61e2 fabd c50a 303e 2811 483d
00000360: 3e67 fa3c ff79 403d 44b7 213d 429a ab3d
00000370: 3a92 bcbb 9879 053e 1ade 493e 8bf8 8ebd
00000380: 20ed 733b 8e14 69bb 3d91 4c3b 05d4 1d3e
00000390: 5105 303e 08ba fdbc 6981 eebc 4e7d cf3d
000003a0: c258 023e f032 75bd f785 5abe 8a94 5ebc
000003b0: 3e24 5fbd 4413 31be da87 713d 1494 5d3c
000003c0: 989a c23d 97f4 3ebe 35ca 1a3d 521f 543a
000003d0: e240 70bc 444a 3a3d c348 833d fe4c ed3c
000003e0: 519e 423c 82d0 2abe c81a 0ebe 2a7e 9dbc
000003f0: bed6 cebc c730 ff3b 6f2d 70bd 5dbe 76bd
0.08198333 -0.015147382 -0.16678679 0.16553867 0.02696809 -0.20230806 0.18373375 0.09808696
0.20887871 -0.06543773 0.17316236 0.0037471303 0.016740667 0.056973115 0.03026057 0.14270915
-0.020328496 -0.110108145 -0.16571602 0.19326164 -0.22304253 0.035369676 -0.111079164 -0.056435853
0.10140401 -0.027129505 0.20930517 -0.0009949721 0.00886213 0.19552878 0.031568408 0.17792226
0.12405066 0.20925757 -0.08703683 -0.13433008 0.13782406 -0.14350213 0.167579 0.09087588
0.17967479 0.07419137 0.17748204 0.046276603 0.17328037 0.016674306 -0.021777444 0.08054925
-0.0057839993 0.042751413 0.108158365 0.16821417 0.13340732 0.07599425 0.21381262 -0.022721818
-0.10663079 -0.011673437 0.2549904 -0.05761543 -0.13616876 0.17557526 -0.09668957 -0.29306173
0.13285929 0.13122502 0.34276596 -0.1712068 0.34292796 -0.03661052 -0.09877906 0.098321535
0.1213303 0.26818708 0.13008995 -0.10543746 -0.2549705 0.12596865 -0.12800793 0.17948522
-0.057473738 -0.073707715 0.27172223 0.11228238 0.14098832 0.25351948 -0.16385879 0.15803163
0.23989797 0.2972464 0.11715904 0.15495148 -0.09144119 -0.2534599 0.15977974 -0.33825725
0.13970318 -0.15239324 0.19013366 0.0906613 0.22139065 -0.042216275 0.10585582 0.12717758
0.09920596 0.08981096 0.36816445 -0.17983547 0.24861516 0.093950756 0.12227427 0.15953845
0.25062126 -0.13587965 -0.22392981 0.122702435 0.18417801 -0.08260506 -0.1806983 0.09927628
-0.2869746 -0.28635567 0.17485258 0.08727862 0.33043906 -0.23062506 0.30752572 -0.050732568
-0.09338668 0.05841216 0.15566893 0.136846 0.061595622 -0.341339 -0.16757728 0.16977817
-0.14787889 0.103524506 -0.0705074 -0.05883333 0.17601612 0.21644957 0.2538733 0.28906524
-0.06071693 0.16650248 0.23087472 0.13272458 0.1770657 0.10359259 -0.053313028 -0.3008142
0.26234683 -0.14208138 0.22815026 -0.24731164 0.2998838 0.092454165 0.21898258 -0.05405339
0.27670994 0.16515519 0.124281235 0.10153877 0.2474384 -0.28000292 0.13768652 0.18392323
0.26549098 0.17805628 0.12573335 -0.14711736 -0.2655317 0.24539736 0.22940192 -0.06410298
-0.04954509 0.16813006 -0.09254821 -0.14335689 0.1192294 0.12096322 0.15902841 -0.10916045
0.0872994 -0.0035945543 -0.0007072806 0.008776343 0.17689502 0.23633973 0.017310215 -0.12448785
-0.08337552 0.087429546 -0.0701521 0.13391002 -0.12812036 -0.020390043 0.19072857 0.16629745
0.10606662 0.048407786 -0.19146697 0.035005476 0.030995386 0.14814502 0.19510806 0.15719175
-0.24162945 -0.18646745 0.08655095 0.028092902 0.14500006 -0.122502096 0.17191608 0.048844486
0.030566808 0.046991345 0.039481416 0.08379032 -0.0057547363 0.13034666 0.19713631 -0.069809996
0.0037220195 -0.003556523 0.0031214498 0.1541291 0.17189528 -0.030972496 -0.029114442 0.10131322
0.12729171 -0.05986303 -0.21340166 -0.013585219 -0.054477923 -0.17292506 0.05896745 0.013524074
0.09502143 -0.18647991 0.037790496 0.00080918253 -0.014663907 0.04548098 0.064103626 0.028967377
0.011878566 -0.16681102 -0.13877404 -0.019225199 -0.025248881 0.007787797 -0.05863708 -0.06024014

bias f4 [50]
00000000: 69a9 07be d194 84be 92cd 91be 2178 a5bd
00000010: be1c 8cbd 6e34 923b 07ab 72be 8dd8 33be
00000020: 1595 21be a2dd 80be 9b5d 8abe fdce cfbd
00000030: 0e1a 82be a442 883e 9b7a 1cbe 3c8e a7bd
00000040: 5d9d b7bd f4cf fdbd f581 45bd 4631 e9bd
00000050: b278 63be 52cf 72be a760 66be 1e90 dcbd
00000060: 379a b23a dc79 7a3d f759 48be de58 0bbe
00000070: 003d afbe 1757 54bd badd 78be a9d5 54be
00000080: 2877 cdbd 6d2a 36be 7d23 45be 3e1b 1abe
00000090: 0b4d 4abe 1acf a6bd 1fa4 acbe 0f9b ccbd
000000a0: 204d fdbd 9490 52be 19c2 33be 65c2 77bd
000000b0: dde8 dbbd 47a4 71bd 3dc0 7dbd a95f 8dbe
000000c0: a5d1 edbd c868 95bd
-0.13248219 -0.25894788 -0.2847715 -0.080795534 -0.0684142 0.0044618165 -0.23698054 -0.17563076
-0.15779527 -0.25169092 -0.2702454 -0.10146902 -0.25410503 0.26613343 -0.15281145 -0.08181426
-0.089655615 -0.123931795 -0.04821964 -0.11386351 -0.2221401 -0.23711899 -0.22497807 -0.10769676
0.0013626282 0.06115137 -0.19565569 -0.13608119 -0.34226227 -0.051840868 -0.24303332 -0.2078463
-0.10032493 -0.17789622 -0.19251819 -0.15049455 -0.19755952 -0.0814497 -0.33718964 -0.099905126
-0.12368226 -0.20562965 -0.17554511 -0.060488123 -0.107377745 -0.058994558 -0.06195091 -0.27612045
-0.11612252 -0.07295376

weight f4 [50, 50]
00000000: 3550 88be da2d 21bd f585 43be 517f 81be
00000010: 5382 4dbe 5f0c 5cbe 80fe 44be 52d8 53be
00000020: 0a36 3ebd 0a54 9ebc a126 16be 92f0 89be
00000030: 20dc 0dbe 64d3 16bf 7db6 8bbe f455 81be
00000040: 46d7 7dbd 625e 62be 642f 6bbe ee4c 52be
00000050: c1ad 80be dae7 51be 748e 10be d820 38be
00000060: ac7b 2cbe 15bb 7bbe 0188 9abd c773 cdbd
00000070: 5417 d8bd 3b67 d7bd 1122 5dbe 07f9 a0bd
00000080: dd42 2abd c325 31be 200e 30be 6b20 babe
00000090: 7300 9abe 111b 19be 646c efbd 4795 27be
000000a0: 4e89 b8bd bafb 7bbe 549b 5bbe 7962 0cbd
000000b0: e32b 94be 7f6e c4bd 6816 26bd 314d fdbc
000000c0: 7fe0 9fbd ac43 99be 091f 1dbe cf25 1abe
000000d0: 9bc6 15be fca0 95bd 875d 6cbe e4d8 8fbe
000000e0: 77f9 82be b08e cebc 6420 fdbd 540a 18bd
000000f0: f0f4 8ebd c898 98be 23ec bbbd fbd2 bcbe
00000100: 2cd5 36bd 74c7 2bbe b495 7abe cdba 37be
00000110: 984b fcbd c920 52be 3043 a4bd 27f7 30be
00000120: 0af7 a4bd 0717 06be 354c b8be f164 c2be
00000130: 47e2 7dbd b83b e9bd f671 21bd 0779 83be
00000140: 171b c8bc a21a 39be 33f2 1fbe 9c6d 9abd
00000150: be98 64be bb5d abbe ea76 55be 6655 15be
00000160: 93ec 5abe 4549 89bd f186 87be 5b6e 24bd
00000170: 7ccf 45bb 89d5 f1bd a1bb 31be c962 69be
00000180: 570f d9bd 6ed1 56bc 2757 18bc 7d23 2fbe
00000190: a649 36be 74d0 7f3c 1727 d9bd 27a5 98be
000001a0: 933e b3be 201b 30be babe e0bd b87e 69bc
000001b0: 28f0 6dbe 9ce0 17be cf73 2bbe 8a55 7ebe
000001c0: 6980 99bd fc3d 33bf 79b6 4abd b569 4cbe
000001d0: c2c7 79be 2fa3 2dbd a08d 9cbe 14fb 04be
000001e0: 1dd2 2fbe 63f2 a0be d3ce 29be 24d4 ddbd
000001f0: c5a7 a1be ac0a f3be c98b 61be c958 01be
00000200: bece 2cbe 9d4e b4be 57e4 77be 752d 60be
00000210: daa2 adbd 3ce9 c53a 4666 69be 07f3 89be
00000220: 83f5 20be 18c0 61be 92af 4dbe 9947 30bd
00000230: e182 82bd 0974 dabd 7013 88be b639 a5bd
00000240: a504 94be 7daa 4abd 21ce 39be c190 dfbd
00000250: 513a 94be 065d 8ebe 3fb3 d5bc 96a8 523c
00000260: 0998 f5bd e59b 6d3c 2ee8 c6bd aa10 19be
00000270: 482b 11be 2c71 8fbd c31a bdbd 54c9 50bd
00000280: 46d3 23be adc8 01be 66e8 55be 5726 d7bd
00000290: 351c ddbd bb4c 42be 1998 d0bd 11d5 bebd
000002a0: e76e 5bbd 210e 96bd f63d 933b 4bfd dabd
000002b0: 1c53 0cbe 1d5c f0bd cee3 c1bd 0f06 08bd
000002c0: a6bb f3bd 944e cd3c b264 193c 007a 0abe
000002d0: 6372 adbd 1810 08be 65c3 c9bc 420f 0cbe
000002e0: 7a33 4ebd 4694 aebd d043 1cbe 19d7 22be
000002f0: e27a 62be dd1f 25be a1c5 2abd e09b 9bbd
00000300: f186 3f3c 566f 53be dc48 8fbd 25e4 46be
00000310: cdf8 f4bd fefb ecbc ab97 47be 92d9 963c
00000320: 72be 1ebe 465b a03c c35c edbd 0536 0bbd
00000330: 6844 b0b9 f7ca 20be c5a3 10be 3cb3 b9bc
00000340: 7278 55be f508 46bd 9193 38be 29de 24bc
00000350: e225 44be 00a7 aabe 2827 05bc 59e0 46be
00000360: 8e13 2dbb 2054 12bc 9e7b 88bc c0ec 5fbe
00000370: 0d30 9bbd 8f32 22be 8fc4 a8bd 56c0 56be
00000380: e35c 00be 1eb7 48be 4c58 4dbe 2956 5fbe
00000390: ed98 ffbc 3962 2dbe e8b6 fc3a f287 a0bd
000003a0: f5ce 39bd bcad efbd f299 05be edb1 43be
000003b0: d998 6bbe 86ab f8bc ab90 51be 7c0c f2bc
000003c0: 16b1 14be 0c09 80bc d066 493c 8a33 48be
000003d0: 254c 803c 64f2 b9bd 5e58 72be 75e0 4ebd
000003e0: 2473 cbbc 3844 39bc 91b4 90be 274b 4c3c
000003f0: 58cb 64bc d2e2 a6bc 8c83 e2bd e93c 6dbe
-0.26623693 -0.039350368 -0.1909407 -0.25292447 -0.20069246 -0.21489094 -0.19237709 -0.20687988
-0.046438254 -0.019327182 -0.14663173 -0.26941353 -0.13853502 -0.58916306 -0.27287665 -0.2526089
-0.06197288 -0.22106317 -0.22967297 -0.20537159 -0.25132564 -0.204986 -0.14116842 -0.17981279
-0.16844052 -0.24583085 -0.07545472 -0.100318484 -0.105513245 -0.105177365 -0.21595027 -0.07859998
-0.041567672 -0.17299561 -0.17192888 -0.36352858 -0.30078468 -0.14951731 -0.11690596 -0.16365539
-0.09010564 -0.24607745 -0.21445972 -0.0342736 -0.28939733 -0.09591388 -0.040548712 -0.030920597
-0.07806491 -0.29934442 -0.1534387 -0.15053485 -0.14626543 -0.07306096 -0.23082553 -0.28095162
-0.25580952 -0.025214523 -0.12359694 -0.037119225 -0.06980312 -0.29804063 -0.09175899 -0.36879715
-0.04463689 -0.16775304 -0.2447117 -0.17942353 -0.12319106 -0.20520319 -0.080206275 -0.17281781
-0.080549315 -0.13094722 -0.3599564 -0.37967637 -0.061983373 -0.113883436 -0.039415322 -0.25678274
-0.02442698 -0.18076566 -0.15619735 -0.075404376 -0.22323892 -0.33469948 -0.20846143 -0.14583358
-0.21379308 -0.06703428 -0.2647014 -0.040144306 -0.0030183485 -0.11808307 -0.17356731 -0.2279159
-0.10598629 -0.013111455 -0.0092981225 -0.17103381 -0.17801532 0.015613664 -0.10603159 -0.298135
-0.35008678 -0.17197847 -0.10973878 -0.0142514035 -0.23236144 -0.14831775 -0.16743396 -0.24837318
-0.074951954 -0.70016456 -0.049490426 -0.19962199 -0.24392608 -0.042391952 -0.305768 -0.12986404
-0.17169996 -0.31434926 -0.16582803 -0.10831478 -0.3157331 -0.4746908 -0.2202598 -0.12631525
-0.16875741 -0.35216227 -0.24208198 -0.2189234 -0.08478327 0.0015099416 -0.2279292 -0.26943228
-0.15718655 -0.22045934 -0.20086506 -0.04303703 -0.063726194 -0.10666663 -0.2657733 -0.08067648
-0.28909793 -0.049478997 -0.18145038 -0.109162815 -0.28950742 -0.27805346 -0.026086448 0.012857577
-0.11991889 0.0145025 -0.097122535 -0.14947763 -0.14176667 -0.07004008 -0.0923362 -0.05097325
-0.15998563 -0.12674208 -0.20889434 -0.105053596 -0.10796396 -0.18974583 -0.1018526 -0.09317983
-0.05357256 -0.073269136 0.0044934703 -0.10692843 -0.13703579 -0.11736319 -0.094672784 -0.033208903
-0.119010255 0.025061883 0.009362387 -0.13523102 -0.08469083 -0.1328739 -0.024629304 -0.13677695
-0.05034206 -0.08524375 -0.15260243 -0.15902366 -0.22117189 -0.16125436 -0.04169238 -0.0759809
0.011689887 -0.2064794 -0.06996319 -0.19422968 -0.119615175 -0.028928753 -0.1949145 0.018414292
-0.15502337 0.019574773 -0.115899585 -0.033987064 -0.00033620303 -0.15702425 -0.14124973 -0.022668473
-0.20846727 -0.048348386 -0.18025042 -0.010062733 -0.19155076 -0.33330536 -0.008127011 -0.1942152
-0.002640936 -0.00893119 -0.016660508 -0.21867657 -0.07577524 -0.15839599 -0.082406156 -0.20971808
-0.12535433 -0.19601104 -0.20053214 -0.21810211 -0.03120085 -0.16932 0.0019280585 -0.078384295
-0.045363385 -0.11703059 -0.13047007 -0.19110842 -0.23007526 -0.030355226 -0.20465343 -0.029546969
-0.14520678 -0.015629314 0.012292579 -0.1955091 0.015661309 -0.090794355 -0.23666522 -0.050507028
-0.024835177 -0.0113077685 -0.2826276 0.01246909 -0.013964497 -0.020371828 -0.11060247 -0.23167767

bias f4 [50]
00000000: 49ff c4be 1df0 86be 2526 f1be a134 a4be
00000010: 2f82 34be 7759 f6be fe8e dcbe dbaa b8be
00000020: 37c4 bcbe 9e98 65be 7360 8ebe 0d8b debe
00000030: 9a6d 9bbe 66a6 b4be 9370 adbe 3749 b6be
00000040: 1f22 e9be 42eb 51be 6671 8dbe ff72 80be
00000050: faa2 24be 875e f0be c233 c4be a666 b4be
00000060: d513 d2be b180 0cbe 1042 78be 9956 babe
00000070: 1ba4 90be e1da a6be 8544 c8be cf41 a2be
00000080: 1cf7 d0be 7ba8 c8be 009d e3be 2bd9 aabe
00000090: 0efa edbe 5948 82be 5741 d7be 5bf0 89be
000000a0: 3e37 bfbe 73a8 c8be 3240 33be 8f90 6fbe
000000b0: a3aa 70be 9e66 f4be 42c8 bdbe fc17 3dbe
000000c0: f924 a5be b488 bcbe
-0.38476017 -0.26355067 -0.47099414 -0.32071403 -0.17627786 -0.4811513 -0.43077844 -0.36067852
-0.3686845 -0.224215 -0.2780796 -0.43465462 -0.30357057 -0.35283202 -0.3387495 -0.35602733
-0.45533845 -0.204999 -0.2762558 -0.25087735 -0.16077796 -0.4694712 -0.38320738 -0.35234565
-0.41030756 -0.13720967 -0.24243951 -0.36394194 -0.28250203 -0.32588866 -0.39114776 -0.31690833
-0.4081353 -0.3919104 -0.4445572 -0.3336881 -0.4647984 -0.25445822 -0.42042038 -0.2694119
-0.37346834 -0.39191017 -0.17504957 -0.23394988 -0.23502593 -0.4773454 -0.37066847 -0.1846618
-0.3225477 -0.36823046

weight f4 [100, 50]
00000000: c759 4dbd eab7 09be 3b4a d5bd e0e5 fcbd
00000010: cb6e 13bd 9728 1dbe 42ac 06be 66b7 f7bd
00000020: 4e12 0cbe 9f8f 253d c65a 6c3c a040 aabd
00000030: 7d24 57be 1029 81bd c403 04bd 8975 5fbd
00000040: 16ae fcbc 08a5 71be 20cb 59be b4d0 0dbe
00000050: f309 4fbe 83c1 3e3d 2e6f 0dbd 2ef1 eabd
00000060: a713 05be 3cbb 0abe ddf1 5abe 1ff8 2cbe
00000070: 930c abbd c788 873c f7de 0fbd 8196 42bd
00000080: 72ff 4cbe 1367 4a3d acb3 383d 5206 ebbd
00000090: 79dd ccbd 427b 083d a540 1dbe 224d 10bd
000000a0: b0fa 50bd 660d 8dbb 9f76 e2bd c84f 00bb
000000b0: 5419 ff3c b8ce 23be 473f 8abc 9eac 1ebe
000000c0: c317 1cbe 59b9 58bd 83f8 2ebd 1e1a ecbd
000000d0: b341 15be 7fa7 b2bd 88fa acbc 27f1 383d
000000e0: e2d7 533d 670f d53c 4c6f c43d 4769 17be
000000f0: 6476 e5bd 2865 8f3c 25d8 05be e8f9 cb3d
00000100: 182a 90bc 97c2 86bd 66d9 bc3d 1819 213c
00000110: 6c26 893d 116b 223d 4ddd 58bd c5f8 bf3d
00000120: 6900 66bc 034a 84bc 365f 623c 6ee2 e5bd
00000130: 200c dcbd 9b23 c23d 5298 00be 8bda 3c3d
00000140: e2ec 653d 937c 11be dfa3 49bd d701 f3bc
00000150: d156 913d 887b 71bd 605f a43d d79e 0fbe
00000160: 15d3 0b3d a5ad 393d e3ac a5bd 89b9 91bd
00000170: 6d49 89bd 5438 cd3c 5566 933c f6dc 97bd
00000180: 3523 963d 7531 72bd 5c78 5cbd 83f9 973d
00000190: f4ea e53d ed3c 323e a794 003e c1d6 203e
000001a0: f864 1e3e 1342 603e c7f0 033d 06a9 583e
000001b0: 46b9 4d3e d0af ca3d b621 7a3d 5031 1b3e
000001c0: 437c 763e 4b00 623e 9502 833e bf6a 4b3e
000001d0: 0afe bb3c 4d78 593e dcc6 723e 8a3b ec3d
000001e0: 556d c63e 8bbb 6bbd 1bbb dd3d ca14 1e3e
000001f0: 0f55 1a3e 49d4 3e3e 4809 6d3e 0804 8e3e
00000200: 84fe 433e 044a 163d b640 313e 5e54 563e
00000210: 2330 e73d 6da1 1f3e ca46 a63d 0491 9d3d
00000220: 084e dd3c 6695 b73d bf57 363e 2d36 3e3b
00000230: 0f9d 5e3d 4a07 283e 74cf a73e f522 843e
00000240: 4911 5b3d 923f e13d c583 393d 26f5 3d3e
00000250: e8d9 073e 1c29 103e f576 f1bc 19da cb3d
00000260: 6418 823d b1d0 833d 41f4 16bd ccdc e3bd
00000270: fa88 bfbd baa7 f6bd 82ef 51bc 86f3 fabd
00000280: 4e34 63bd 1710 293d ec2a 4a3d d4e5 6dbd
00000290: 5982 1d3d 31f4 2bbd a841 4cbd c0c9 35bd
000002a0: 427d 99bd 122f 613c 1c5c 88bd a82d 96bd
000002b0: 4bd6 993d 7f85 9ebd 9074 babd f6eb cd3b
000002c0: 0fe3 2fbd e2b3 abbd b0f6 f9bd b3d1 45bd
000002d0: d46c 18be 983f 5d3d f593 27bd 9712 653d
000002e0: d949 513d 06ee 0ebc da64 dbbc c056 c3bd
000002f0: a658 42bc 3ef1 e7bd 93da aebd b2ae 943d
00000300: 65f6 72bd 8b52 843d 1eb0 803d 863e 5cbd
00000310: 58bf bfbd 1b23 6a3d 05e5 3bbc 6bc1 f53d
00000320: 00b8 0fbe 126d a4bb d228 15be a719 58bd
00000330: 0901 06be ddd1 13be 8243 8fbc 7bf3 6e3d
00000340: 5cf0 a3bc c0fa 05bd b6b6 b13d bfbc 88bc
00000350: f9b6 e0bd 52bc 803d 03f3 423d f76e 2b3d
00000360: 4efa 903d 98b5 743d 101b aebd 43a7 03bd
00000370: 5a40 cebd 4cb4 5abd c5d5 963d 0458 f3bd
00000380: 9c52 143d 6c18 d4bd 65ff 4ebd 82c3 3ebd
00000390: ed56 c4bd d09f d8bc 5e29 aabd cb12 9d3d
000003a0: 9147 a7bd 30f9 013d f3f8 56bd 1723 00be
000003b0: e878 b13d f386 3ebd 37ce 9bbd ca9e f5ba
000003c0: 65dc dfbc c67e 70bc d9bd 82bd b36d 91bd
000003d0: 81db fe3c 3da1 063d 7bd1 8e3d bd22 0cbd
000003e0: 2b9f 88bd e555 8abd b489 2a3d d21e 673c
000003f0: abf9 4fbc 6f1e c23d 2ad1 c63d 1ead 0d3e
-0.050134446 -0.13449064 -0.10414549 -0.12348533 -0.035994332 -0.15347515 -0.13151649 -0.12095527
-0.13678858 0.04042017 0.014425939 -0.083131075 -0.21010013 -0.0630666 -0.032230154 -0.05455545
-0.03084473 -0.2359811 -0.21268892 -0.13849145 -0.20218639 0.046571266 -0.034529857 -0.114717826
-0.12995778 -0.13547987 -0.21381326 -0.16891526 -0.08352008 0.016544713 -0.035124745 -0.047506813
-0.2001932 0.049414705 0.045093223 -0.11475815 -0.1000318 0.033320673 -0.15356691 -0.03522981
-0.051020324 -0.0043045757 -0.110577814 -0.0019578803 0.031140007 -0.15996826 -0.016875876 -0.15495536
-0.1524344 -0.052911136 -0.042717468 -0.11528419 -0.14575844 -0.087233536 -0.021115556 0.045151856
0.051719554 0.026008321 0.09591541 -0.14786254 -0.11204222 0.01750429 -0.13070734 0.09959775
-0.017598197 -0.06580084 0.09221153 0.009832643 0.066967815 0.039652888 -0.052945424 0.09373621
-0.014038184 -0.016148573 0.013816645 -0.11224829 -0.107445 0.094794475 -0.12558106 0.046106856
0.056134112 -0.14207678 -0.049228545 -0.029663963 0.07096637 -0.0589557 0.08026004 -0.14025436
0.03413685 0.045331616 -0.08089616 -0.07115466 -0.06703458 0.025051273 0.017993132 -0.07415192
0.07330934 -0.059129197 -0.05382572 0.074206375 0.112264544 0.17406054 0.12556706 0.15706922
0.15468204 0.21900205 0.032212045 0.21158227 0.20090207 0.09896815 0.061067306 0.1515553
0.2407084 0.22070424 0.25587907 0.19864939 0.022948284 0.21237297 0.23708671 0.11534794
0.3875529 -0.0575519 0.10826703 0.15437618 0.1507151 0.18635668 0.23148072 0.2773745
0.19140059 0.03669168 0.17309842 0.20930621 0.11288478 0.15588923 0.08118971 0.07693675
0.027014747 0.08964042 0.1780691 0.002902399 0.054349 0.1640903 0.32775462 0.2580792
0.05348328 0.10998453 0.04529168 0.18550548 0.13266718 0.14078182 -0.029475668 0.09953708
0.063523084 0.06436289 -0.036854032 -0.11126098 -0.09352298 -0.1204371 -0.012813451 -0.1225348
-0.055469804 0.04127511 0.04935734 -0.05808051 0.038454387 -0.041980926 -0.049867302 -0.044381857
-0.07494594 0.013744133 -0.066581935 -0.07332927 0.07511576 -0.07740306 -0.09104264 0.0062842323
-0.04294115 -0.08383919 -0.12205255 -0.048295688 -0.14885265 0.054015726 -0.040912587 0.05592593
0.051095817 -0.008723741 -0.026781488 -0.095380306 -0.011861956 -0.1132531 -0.085377835 0.07259883
-0.05931701 0.06461056 0.06283592 -0.053770564 -0.09362668 0.057162385 -0.011468177 0.11999782
-0.14035034 -0.005017885 -0.14566353 -0.05275884 -0.13086332 -0.14435525 -0.017488245 0.05833767
-0.020012073 -0.032709837 0.086774275 -0.016691564 -0.10972399 0.06285919 0.047595035 0.04185387
0.07078992 0.059743494 -0.085012555 -0.032141935 -0.10070868 -0.0533946 0.07364992 -0.11882022
0.036211595 -0.103562206 -0.050536532 -0.04657317 -0.09586892 -0.026443392 -0.083086714 0.076696
-0.08167947 0.031731784 -0.05248351 -0.12513386 0.08665639 -0.046515416 -0.07607692 -0.001873934
-0.027326772 -0.014678663 -0.06383867 -0.071010016 0.031110527 0.032868613 0.06973549 -0.034212817
-0.06670984 -0.06754664 0.04163523 0.014106469 -0.012693803 0.09478461 0.09707864 0.1383557

bias f4 [100]
00000000: cdbc 85be 790d 60bd f180 c63e 24d1 5abe
00000010: 0a1b c83c eebe 543d 9bf9 6dbd 2918 c7bd
00000020: 588d c8bd c7f7 2c3d f840 a7bc 1c99 8e3e
00000030: 39fc 96bd 7ebd 7bbe 6320 e9bd 6705 06be
00000040: 0534 27be d0e1 d23d ddf9 81bd fabc 9f3d
00000050: 6466 b8bc bea2 88bd 6fe9 f53e 700e 26be
00000060: 2657 d5bd c29c 20be 0074 ab3e dcbb dbbd
00000070: 9fa3 4e3c d418 4a3e 7979 86be 2f12 8b3d
00000080: 2aa6 763e e134 d2bc 69ad fdbd 0c55 e23c
00000090: 7381 f63c d21f 893d 83c3 01bd ac27 d8bc
000000a0: 5393 f7bd 843f 1b3c 2f71 933c 8175 d73d
000000b0: e455 dc3d 09af 843d 3005 25be d98e a7bd
000000c0: d4f0 713e 7465 24be 8b5a 04be 5780 2dbe
000000d0: a3c7 d6bd 8cf5 0bbe e002 7d3d 7a51 b53c
000000e0: 09f5 013e 2aee d8bc 396b 11be babe 43be
000000f0: b197 a83e 927b 9ebd 5516 47be efca 893c
00000100: 1cca b33d c342 7fbe d31d c0bd e47a e13c
00000110: 6401 233d be51 983e 9ce2 053e dc94 1ebe
00000120: acaa 083d dc7d 043e 5135 4fbe 1a98 5ebe
00000130: 98a0 8cbe 6a61 e73d 3210 93bd 74af d7bd
00000140: a242 2ebd 3cb3 21be 7820 0fbe b497 9bbe
00000150: 35cb e83d cfc4 ccb9 8310 3e3e b2c6 b73d
00000160: 6c9e 1a3d b6e6 8c3d 4e46 1abe ffd1 46bd
00000170: 1daf 30bd e1ac 12be ec6f df3d f96d 5d3d
00000180: ccfd 903d b00f b73d 8115 acbd 4367 f6bb
-0.26120606 -0.05470035 0.3877025 -0.21368843 0.024426956 0.051939897 -0.05809937 -0.09721405
-0.09792584 0.042228486 -0.020416722 0.27851188 -0.073723264 -0.24584004 -0.113831304 -0.13087998
-0.16328438 0.102969766 -0.06346486 0.07799716 -0.022509761 -0.066716656 0.48029658 -0.16216445
-0.10417013 -0.15684798 0.33486938 -0.10729191 0.0126122525 0.19736034 -0.2626455 0.067905776
0.24086824 -0.02565998 -0.12386591 0.027628444 0.030091023 0.06695522 -0.031680595 -0.026386105
-0.12088647 0.0094755925 0.017998306 0.10520459 0.1075857 0.06478698 -0.1611526 -0.08181543
0.23627025 -0.16054326 -0.12925164 -0.16943489 -0.104872964 -0.13667887 0.06177032 0.022133578
0.1269113 -0.026480753 -0.14201058 -0.19115725 0.3292823 -0.07738413 -0.19442113 0.0168204
0.08778784 -0.24927811 -0.093806885 0.02752442 0.039796248 0.29749864 0.13074726 -0.15486473
0.03336589 0.12938637 -0.20235182 -0.2173771 -0.27466273 0.11297877 -0.071808234 -0.10531512
-0.042544015 -0.15791029 -0.1397723 -0.30389178 0.11366884 -0.00039056546 0.18560986 0.08973445
0.03774874 0.06879942 -0.15065882 -0.04854011 -0.04313575 -0.1432376 0.10910019 0.054059956
0.07079658 0.08938539 -0.08402539 -0.007519634

weight f4 [100, 50]
00000000: f2a6 8cbe 8aa7 8cbe d6af 00bd 2f2d 83be
00000010: e295 f4bd afe1 ffbd 14a6 88be 67d0 6fbe
00000020: 9216 8bbe fd11 4ebe 7fc3 c0bd b256 15be
00000030: 8e01 c1be 8c8d e8bd 3333 37be a3b0 bbbe
00000040: cbfb 7f3c aa5a 4ebe 8484 3dbe bcdd a5be
00000050: 00b3 d0be 7384 48bd 806f 1dbe d137 62be
00000060: 2bd0 6ebe e471 e5bd 0e61 0dbe 1b56 a6be
00000070: 68ac 7bbe 6d38 84bb c9be 9ebe a79b 7cbe
00000080: f4d8 42be 39a2 8bbc 8826 1fbe 4362 7bbe
00000090: cef1 68be 7032 cebd 9d54 66be fe07 8cbd
000000a0: badd 8cbd 2fc4 00be 9a0f 78be 1f1b 6cbe
000000b0: 00a0 6cbe c44d 70be 935d 93be b3a4 78be
000000c0: c07b 6cbe f1ad b4bd 066c c0bb 1c28 ac3d
000000d0: 02b9 a1bc c608 2b3d a45d e53c 8e4f 84bd
000000e0: ca6c c1bd 44ff 05be 9690 28be c5f1 9bbc
000000f0: 6aac babd c701 933b 5365 4d3d 70e0 b83d
00000100: feb5 c4bc 286c d13b 5d98 883d c005 0a3c
00000110: 6416 f63c bb3e f0bd 90d5 ccbd 5616 923d
00000120: c96c 8a3d bedc 7fbd e7b1 50bb 80e9 07be
00000130: a2bb 96bb 5174 14be 6fa5 813d 5e87 2abe
00000140: 7c50 90bc 0387 d23d 1a3d a3bd 9560 e1bd
00000150: 96c6 c93d ff28 c1bd 0d2d 8d3b 4414 4e3d
00000160: 9637 d23c 4869 fabd 9ebd ce3d cb78 263d
00000170: 0b58 2cbd 5d07 a6bd 83a7 7abd 22c5 9d3c
00000180: 6501 e53c ed6e 57bb d2cb 823d 2d3a e13d
00000190: 3217 82be a4d1 52be fa95 e1bd 38cd febe
000001a0: 02d5 c7be 4443 88be 587a 7bbe 4878 02bf
000001b0: 34a5 bcbe 9bcb 99be a301 b1be e5ae d5be
000001c0: d9f4 38bf b3b1 52be f863 02bf b552 10bf
000001d0: 022c 8bbe 7cb6 4fbf 4a7e e0be 20cf f9be
000001e0: c687 72bf 2743 3bbe 6882 b1bd 02ae d2be
000001f0: d0ac a1be 31cf 01bf d410 f4be c616 14bf
00000200: 4cc4 ccbe e41f bfbe 96c2 25bf 1a77 eebe
00000210: 5358 93be 1320 b7be 9bb7 61be 951a 76be
00000220: 4b06 b5be 8532 a9be 2c3c 83be ae3b babe
00000230: 8f48 72be 64d7 a2be 4484 6cbf efdb e0be
00000240: 0004 f1bd e4d6 7ebd 07dc ffbe 3c8e 0fbf
00000250: a3fc 77be 47b9 12be 90c1 37be e998 5fbe
00000260: 1e81 45be a06b 81be 9cab ccbe 2bd7 bebe
00000270: 8c2b 78be abf0 cabe 67e9 aabe 4873 5abe
00000280: 1964 ffbd 2c6d 0cbe fb68 d8be af47 6dbe
00000290: c5ab 1fbe 677a 8ebe 7958 cfbd f043 b9be
000002a0: 2e88 b9be 853f a8be 6bae d7be 9077 4fbe
000002b0: 03f1 6fbe e26e d4bd abb7 bdbe e630 93be
000002c0: 8efb 77be 95d4 a1be e99a 3fbe dfa8 3cbe
000002d0: cb0b dcbe a6b7 9fbe 7514 a4be 6958 acbe
000002e0: a2fa 00be aac5 8bbd 6f86 98be daa1 4fbe
000002f0: 9b8a 57be 4749 27be 926b 89be cdc7 98be
00000300: 224b 63be 0764 49be 7ac2 72bd 499d b8bd
00000310: a484 87be a678 4bbe 9fbe 5bbe b2fc 36be
00000320: 4c70 8fbe 96a5 03be dd19 8dbe c5b7 98be
00000330: b5ec c0be 46ff 37be 7d32 92be 2fea c1be
00000340: 8b8f 7cbe 547f 2dbe 5c8b 7abe 800c 56be
00000350: 6feb 03bf dcef a3be fa7a 77be e9c1 cebe
00000360: 5088 cbbe 39d0 e2be 5bcc cbbe 162c 86be
00000370: 7ee1 edbe d9f2 0bbe be96 87be ccde a8be
00000380: 9132 7fbe 5ea2 b5be 7682 66be 4058 88be
00000390: 9c76 90be 1020 99be b3cd a3be bc3e a8be
000003a0: 061c 57be 2f9b 18be 395b bebe 4e5d bdbe
000003b0: dba0 93be 07b3 13be b530 b3be 0824 77be
000003c0: 2e1d 52be 14fa 6abe ee2c f7be 4def 8ebe
000003d0: 6e5a 26be d748 2ebe 7ae2 8dbe 9ece debe
000003e0: 1e1b 30be 70a7 94be 1a3e 27bd be72 5bbd
000003f0: 2fa4 dbbd a915 a6be 76aa 91be 6f5f 3cbe
-0.2747112 -0.27471572 -0.03141769 -0.2562041 -0.119426504 -0.124942176 -0.26689208 -0.23419343
-0.27165657 -0.2012405 -0.09412288 -0.14583853 -0.376965 -0.11355123 -0.17890625 -0.366582
0.015623997 -0.20151773 -0.18507582 -0.32395732 -0.40761566 -0.04895444 -0.15374565 -0.22091605
-0.23321597 -0.112033635 -0.13806555 -0.32487568 -0.24577487 -0.004035047 -0.31004933 -0.24668752
-0.19028074 -0.017045127 -0.15542042 -0.24549203 -0.22748491 -0.10068214 -0.22493215 -0.06837462
-0.068782285 -0.12574838 -0.24224702 -0.23057221 -0.2310791 -0.23467165 -0.2878233 -0.24281578
-0.23094082 -0.08822239 -0.0058722524 0.08406088 -0.019741539 0.041756414 0.027998753 -0.06460486
-0.09444578 -0.13085657 -0.16461405 -0.019036183 -0.091149166 0.004486296 0.05014546 0.09027183
-0.024012562 0.006391067 0.06669686 0.0084242225 0.030039974 -0.11730715 -0.10001671 0.071331665
0.0675903 -0.062466376 -0.003184432 -0.13272667 -0.0046000043 -0.14497496 0.06330382 -0.16653201
-0.017616503 0.10279658 -0.079706386 -0.1100475 0.098523304 -0.094316475 0.004308349 0.050312296
0.025661271 -0.12227112 0.1009476 0.04064254 -0.04207615 -0.08106873 -0.061194908 0.01925904
0.027954767 -0.0032872513 0.06386532 0.10997424 -0.25408322 -0.20587784 -0.11014934 -0.49765944
-0.390297 -0.2661382 -0.24558389 -0.50964785 -0.3684479 -0.3003815 -0.3457156 -0.41734996
-0.7224861 -0.205756 -0.5093379 -0.563762 -0.27182013 -0.81137824 -0.4384635 -0.48790836
-0.94738424 -0.18287335 -0.08667451 -0.41148382 -0.31577158 -0.50706774 -0.4766909 -0.5784725
-0.39993513 -0.37329018 -0.6475004 -0.46575242 -0.28778324 -0.35766658 -0.22042696 -0.24033578
-0.35356364 -0.33046356 -0.25631845 -0.36373657 -0.23660491 -0.31804955 -0.9238932 -0.43917796
-0.11768341 -0.062216654 -0.49972555 -0.5607641 -0.24217467 -0.1432849 -0.17944932 -0.21835674
-0.19287536 -0.25277424 -0.39974678 -0.37273535 -0.24235362 -0.3963674 -0.33381197 -0.21333039
-0.12470264 -0.13713521 -0.42267594 -0.23171876 -0.15592869 -0.2782776 -0.10124297 -0.36184645
-0.3623671 -0.32860962 -0.42125258 -0.20260453 -0.23431782 -0.10372712 -0.3705419 -0.28748244
-0.24217054 -0.316075 -0.18711437 -0.18423794 -0.42977747 -0.311948 -0.32046857 -0.33661202
-0.12595609 -0.06824811 -0.29790065 -0.20276585 -0.21048968 -0.16336547 -0.26839882 -0.29839936
-0.2219663 -0.19667064 -0.0592675 -0.09014375 -0.26468384 -0.19870242 -0.21459435 -0.17869833
-0.28015363 -0.12856135 -0.27558795 -0.29827705 -0.37680593 -0.17968473 -0.28554145 -0.3787398
-0.24664132 -0.16943103 -0.24467224 -0.20903206 -0.5153112 -0.32018936 -0.24168006 -0.40382317
-0.39752436 -0.44299486 -0.39804348 -0.2620551 -0.464611 -0.13666858 -0.26482195 -0.3298248
-0.24921633 -0.3547544 -0.22510704 -0.2662983 -0.28215492 -0.29907274 -0.31992874 -0.32860363
-0.21006784 -0.14902948 -0.37178972 -0.36985248 -0.2883366 -0.14423762 -0.34998098 -0.24134839
-0.20518944 -0.2294696 -0.48276466 -0.27916947 -0.16245434 -0.17019974 -0.2771185 -0.4351701
-0.17197844 -0.29033995 -0.04083071 -0.053576224 -0.10724675 -0.324384 -0.28450364 -0.1839578

bias f4 [100]
00000000: 6f4e b9be d34b 433d 52c8 68bf 41be e6be
00000010: 5852 0abf c39d 25bf 9ec0 29bf f552 efbe
00000020: 2ebe 09bf 6f55 1fbf 2740 f9be 7919 2ebf
00000030: cec3 1dbe 3efd 66be 775b f1be e2c7 9fbe
00000040: ab1e 13bf 8e9a 4ebf a5bf 13bf e10b 30bf
00000050: e3c1 edbe 13b1 f3be 47b5 82bf 4ebe adbe
00000060: 2250 1ebe 55b6 dcbe ccc0 86bf 5a98 eebe
00000070: c2b5 0ebf e67f 1dbf 2265 cfbe ad0b 30bf
00000080: 543a 32bf b724 23bf ee12 3abf 51aa 23bf
00000090: c286 1dbf ca03 2abf 6d80 13bf 8951 1fbf
000000a0: f1a6 09bf 321a 34bf 06d8 2ebf ac4e 27bf
000000b0: 46d3 0cbf a17f 13bf 9d83 1ebf 315a d5be
000000c0: 3a6c 37bf 04b2 42be 4786 09bf 4fdb b4be
000000d0: 548d 0abf fd31 17bf 1662 34bf c7da 08bf
000000e0: 72f3 8d39 7611 15bf 6e21 a6be 9ef6 cbbe
000000f0: fa0f 25bf e1df 1abf 8f94 84bd 82b4 32bf
00000100: 2605 23bf a6be c8be 6c07 c6be e641 4bbf
00000110: acbd 2bbf 6fa5 44bf 97b2 26bf 08d8 dfbe
00000120: ce76 35be fbc4 23bf b9f4 68be 6c36 e7be
00000130: 40e0 6bbe 69d1 20bf cbb9 20bf 310f d7be
00000140: 3057 23bf c16c 05bf 8eb6 a4bd 24e3 a1be
00000150: 825e 56bf 572e b6be 0101 50bf a6ad 23bf
00000160: 7c86 34bf 8841 3abf 1b89 dfbe b86a 9bbb
00000170: b3d1 20bf 80ee 07bf 3604 613d ffd1 32bf
00000180: d3e8 24bf b8f3 16bf 9731 f8be 907d 31bf
-0.36192653 0.047679733 -0.90930665 -0.45067027 -0.54031897 -0.6469385 -0.66309536 -0.4674298
-0.53805816 -0.62239736 -0.48681757 -0.6800762 -0.15406725 -0.22557542 -0.47140095 -0.31207186
-0.5746867 -0.8070458 -0.577143 -0.68768126 -0.46436986 -0.47596034 -1.0211571 -0.33934253
-0.15460256 -0.43107858 -1.0527587 -0.4660061 -0.5574609 -0.6152328 -0.40506846 -0.68767816
-0.6962025 -0.637279 -0.72685134 -0.6393176 -0.6153375 -0.6641203 -0.5761784 -0.6223379
-0.5377036 -0.7035247 -0.68298376 -0.6535442 -0.5500988 -0.5761662 -0.61919576 -0.41670373
-0.71649516 -0.1901322 -0.53720516 -0.3532357 -0.541219 -0.5906065 -0.7046217 -0.5345883
0.00027074997 -0.5822977 -0.3244738 -0.3983659 -0.64477503 -0.6049786 -0.06473648 -0.69806683
-0.6367973 -0.39207953 -0.38677537 -0.7939743 -0.6708629 -0.7681493 -0.65116256 -0.43719506
-0.17721102 -0.63972443 -0.22749604 -0.45158708 -0.23034763 -0.62819535 -0.627835 -0.42003778
-0.6380491 -0.5211907 -0.08042632 -0.31618607 -0.8373796 -0.3558223 -0.8125153 -0.6393684
-0.70517707 -0.7275624 -0.4365929 -0.0047429465 -0.62819976 -0.530983 0.054935656 -0.6985168
-0.6441776 -0.58965635 -0.48475334 -0.6933222

eps f4 [100, 1, 1]
00000000: c241 4abf 7861 05c0 c83b 923f 7af7 fa3f
00000010: 3a27 aabe a517 1dbe 32da ff3f a5b7 09bf
00000020: 1a89 38bf 0b14 8fbf c288 8d3e 64a5 633f
00000030: 8c07 13bf 7a33 723f e2d4 c73f 2e79 8a3f
00000040: 318e 823f 6cc2 c43e b77f d1be 7dde dbbf
00000050: 051e 8e3f fed5 0bbf a76f 503f 0963 b23f
00000060: e858 1b40 e55c 01bf 5eb9 1c3f 03e1 b23f
00000070: 51e7 24bf 47de 063f 23d0 f83d 56ce 45bf
00000080: 9ced 6e3f addc e33f 7ec5 753f 6e27 8d3f
00000090: d2da 94bf c818 18bf 568a 03c0 2e13 dd3f
000000a0: bbb4 213f e8ad ae3f 3855 ba3e 1603 8b3f
000000b0: d80b b63e 526a 3c3e 82e2 013f 0a1a 2fbc
000000c0: cd64 b43f af06 8cbe dd91 493f 9101 19be
000000d0: 6d0d 64bd c03a f3be 41cc 49bf 272b 833e
000000e0: e6bc 8b3f e84d 87bf 3165 663d e647 473f
000000f0: b176 db3e 8f53 60bf e2dd 503f fb41 cd3c
00000100: 533f 463f 8148 eebe 763f 15be 960e ab3f
00000110: d8e6 803f 16ba 903f c60d 1dc0 a2f2 3cbf
00000120: 327d b3be 3b07 ad3f 7fe3 663f 78e5 be3e
00000130: 11d5 25c0 f351 8e3f b7fd 7a3f 7c09 11bc
00000140: bbdb 8abf cc2c 04bf 5832 8b3f 4b36 013f
00000150: 1811 193d 9061 573d 24e9 06c0 e3a9 ed3f
00000160: 7a47 84be 43d6 36bf 9800 94bf 96d7 193f
00000170: fca7 4d3f 7562 ebbf 161c 88bc 1235 983f
00000180: 9510 dbbe 8697 c9bf d545 cf3e e7e0 9e3e
-0.7900659 -2.084074 1.1424494 1.9606774 -0.33233052 -0.15341051 1.9988463 -0.53795844
-0.720842 -1.1177992 0.276434 0.8892424 -0.5743339 0.94609797 1.5611842 1.0818231
1.0199643 0.38429582 -0.4091775 -1.7177273 1.1102911 -0.546234 0.8142037 1.3936473
2.4273014 -0.5053237 0.6122035 1.3974918 -0.6441546 0.5268292 0.12149074 -0.7726797
0.93331313 1.780172 0.96004474 1.1027658 -1.1629279 -0.59412813 -2.0553184 1.7271478
0.631664 1.3646822 0.36393142 1.0860317 0.3555591 0.18399933 0.5073625 -0.010687361
1.4093262 -0.2734885 0.78738195 -0.14942004 -0.055676866 -0.4750576 -0.7882729 0.2561886
1.0917022 -1.057065 0.056248847 0.77844083 0.42863992 -0.876275 0.81588566 0.025055876
0.77440375 -0.4653969 -0.1457499 1.3363826 1.0070448 1.1306789 -2.4539657 -0.7380773
-0.35056454 1.3517832 0.9019088 0.37284446 -2.5911295 1.1118759 0.9804339 -0.008852359
-1.0848306 -0.51630855 1.0874739 0.5047347 0.037369817 0.052583277 -2.1079798 1.856747
-0.25835782 -0.7142069 -1.1562681 0.60094583 0.8033445 -1.8389422 -0.016614955 1.1891196
-0.4278609 -1.5749366 0.40482965 0.31030962
