mcspace/paper/mouse_runs/runs/seed_6/model.pt (torch, 464942 bytes, 99 tensors)

theta_params f4 [100, 74]
0.31757182 -1.8651158 -0.9129327 -0.6745481 -4.381721 -7.2571235 -6.0523787 -2.0935237
-7.6263785 -6.7165036 -7.0029144 0.6843498 -4.9375014 -1.0746937 -0.4943507 -6.735283
1.5838306 -0.9581659 -6.1137595 -1.4711342 -1.8741636 -5.8756895 -0.06282892 -4.74034
-0.4594277 -6.278047 -7.490137 4.0241313 1.3404584 -4.6384344 -1.1678038 -6.2451644
-1.0690155 -0.013008729 0.22475195 -7.9123616 -6.858528 1.2217283 -7.9317074 -3.7905245
-2.7733727 -1.5119056 0.08390619 -1.8689636 -7.869661 -3.46651 0.31510472 -2.3502877
0.4786977 -6.87733 2.5962741 -0.41111118 4.2192645 -6.966696 -0.696127 3.566829
-6.1651087 -5.2592998 -6.0928082 -6.619395 -2.2083714 -7.7020273 -5.5625463 -7.6975403
1.7577826 2.4446678 -7.793165 -6.109823 -5.3185296 -7.834173 -4.2684484 -1.067637
-2.88842 -7.7567067 -3.820125 -4.7725625 -5.3129673 -3.6862054 -3.1689858 -4.236675
-4.1627517 -5.495423 -3.991168 -5.330593 -1.6810932 -5.272756 -2.9252322 -5.1527324
-5.234561 -1.5457401 -5.317736 -4.917704 -3.6933026 -4.7495837 -4.432952 -3.6513867
1.0421984 -4.274918 -2.637046 -4.5796695 -3.056578 -3.429976 -2.8458676 -0.85413843
-6.534933 -3.2080026 -5.321868 -4.3760214 -6.0837035 -5.4299455 -4.524244 -4.440392
-2.8539178 -4.3638306 -2.0698056 -5.518569 -4.501846 -3.8105776 -3.7009666 -4.6374707
-4.7742686 -5.4763775 -3.332771 -5.552727 -5.917506 -0.50055057 -5.533001 -3.5119371
-2.6534393 6.628752 -5.537328 -3.728775 -5.368438 -1.2421899 -4.429879 -3.7597773
-4.1577573 -3.9882743 -2.6771905 -3.679807 -4.1604424 -3.107306 -2.7759473 -3.4550176
-4.7643256 -5.819808 -4.170155 -3.3262494 -1.4447749 -4.268306 -3.396512 -3.6693068
-5.1721883 -5.097476 -3.636995 -3.6420023 -4.367755 -3.8504572 -4.012512 -2.1185749
-0.9586503 -3.5798075 0.33358097 -0.010067573 -5.7035885 -3.904157 -5.1150427 -4.8009224
-3.5242906 -4.5628543 -3.6294975 -1.2359357 -4.622257 3.736095 -4.2777576 -2.1966383
0.6718008 -4.191382 -5.514731 -3.4522424 0.9729609 -3.7988544 0.87838244 -3.36318
-5.6179194 -3.2179337 -6.9815187 -1.0784231 -4.7721205 -4.5140133 -0.53957295 -2.4809053
-3.4219656 -3.5167382 -6.0732126 -4.468175 5.7276187 -5.7119045 -0.82973886 -3.6569517
-4.7791133 -1.2064631 -3.1972713 3.069414 -4.585243 -4.2322183 -3.3476944 -5.1673465
-4.5645514 -0.2206486 -3.3393905 0.07143902 0.5299613 1.0198171 2.7636409 -3.8185372
-4.2461786 -5.4238186 -1.8057315 -5.197019 -2.1975656 -5.1756883 -0.3557522 -6.9776163
1.0659491 1.8554566 0.030788366 -1.130002 -0.98938566 -4.794887 -2.1037612 -4.9722967
0.24474685 -6.452329 1.6420443 0.22061215 -1.0158844 3.269455 -0.41571254 -1.3237224
-4.806547 -1.7227294 1.7370421 -1.420029 -2.3461213 -6.4434648 -1.384886 0.91407305
-0.34025466 1.0664126 -0.30012843 -1.6524129 -2.114409 -5.8701406 -4.7535343 -0.20186906
00000000: c698 a23e 1dbc eebf f5b5 69bf 2faf 2cbf
00000010: 0f37 8cc0 5b3a e8c0 16ad c1c0 4bfc 05c0
00000020: 4b0b f4c0 99ed d6c0 e017 e0c0 8c31 2f3f
00000030: 0300 9ec0 908f 89bf 891b fdbe 7087 d7c0
00000040: f6ba ca3f 5c4a 75bf eba3 c3c0 204e bcbf
00000050: 98e4 efbf a605 bcc0 73ac 80bd deb0 97c0
00000060: 1c3a ebbe c3e5 c8c0 34af efc0 afc5 8040
00000070: 2494 ab3f 0e6e 94c0 987a 95bf 63d8 c7c0
00000080: 80d5 88bf 9022 55bc 6025 663e 1132 fdc0
00000090: 1079 dbc0 9861 9c3f 8cd0 fdc0 f497 72c0
000000a0: f07e 31c0 1f86 c1bf 02d7 ab3d 333a efbf
000000b0: 43d4 fbc0 4ddb 5dc0 6855 a13e 1d6b 16c0
000000c0: dd17 f53e 1613 dcc0 5b29 2640 2a7d d2be
000000d0: 3704 8740 2cef dec0 6135 32bf ed46 6440
000000e0: 9248 c5c0 2f4c a8c0 49f8 c2c0 15d2 d3c0
000000f0: f555 0dc0 0277 f6c0 6100 b2c0 4052 f6c0
00000100: 05ff e03f 7075 1c40 9c61 f9c0 ac83 c3c0
00000110: 6531 aac0 8cb1 fac0 2197 88c0 54a8 88bf
00000120: e0db 38c0 f136 f8c0 ee7c 74c0 d5b8 98c0
00000130: d403 aac0 caea 6bc0 aad0 4ac0 d792 87c0
00000140: 4335 85c0 81da afc0 4c6f 7fc0 3894 aac0
00000150: 102e d7bf 6bba a8c0 0137 3bc0 2fe3 a4c0
00000160: 8681 a7c0 d0da c5bf e52a aac0 d55d 9dc0
00000170: 125f 6cc0 97fc 97c0 beda 8dc0 52b0 69c0
00000180: c266 853f 21cc 88c0 5dc5 28c0 a78c 92c0
00000190: f99e 43c0 ba84 5bc0 b222 36c0 d1a8 5abf
000001a0: 2c1e d1c0 ea4f 4dc0 be4c aac0 5e08 8cc0
000001b0: b3ad c2c0 1dc2 adc0 9bc6 90c0 b117 8ec0
000001c0: 97a6 36c0 80a4 8bc0 b277 04c0 1e98 b0c0
000001d0: 1f0f 90c0 81e0 73c0 a3dc 6cc0 2966 94c0
000001e0: cfc6 98c0 7c3e afc0 1f4c 55c0 f1af b1c0
000001f0: 365c bdc0 1524 00bf 580e b1c0 94c3 60c0
00000200: f3d1 29c0 bd1e d440 ca31 b1c0 40a4 6ec0
00000210: 3eca abc0 1400 9fbf 92c1 8dc0 31a0 70c0
00000220: 590c 85c0 e33f 7fc0 1757 2bc0 f581 6bc0
00000230: 5822 85c0 1ade 46c0 1fa9 31c0 021f 5dc0
00000240: 5b75 98c0 de3b bac0 e971 85c0 45e1 54c0
00000250: 62ee b8bf f695 88c0 7460 59c0 ecd5 6ac0
00000260: 9182 a5c0 861e a3c0 87c4 68c0 9116 69c0
00000270: a6c4 8bc0 e46d 76c0 8066 80c0 bb96 07c0
00000280: 1b6a 75bf 911b 65c0 20cb aa3e 76f2 24bc
00000290: cc83 b6c0 b5dd 79c0 6eae a3c0 28a1 99c0
000002a0: fa8d 61c0 e702 92c0 b049 68c0 2433 9ebf
000002b0: 88e9 93c0 2e1c 6f40 64e3 88c0 b995 0cc0
000002c0: 23fb 2b3f cd1f 86c0 ad78 b0c0 8af1 5cc0
000002d0: f713 793f 6e20 73c0 acdd 603f 573e 57c0
000002e0: ffc5 b3c0 a0f2 4dc0 9a68 dfc0 c509 8abf
000002f0: 36b5 98c0 cc72 90c0 7421 0abf 27c7 1ec0
00000300: 7c01 5bc0 3d12 61c0 c257 c2c0 4afb 8ec0
00000310: a748 b740 ecc7 b6c0 c469 54bf 7f0b 6ac0
00000320: 7fee 98c0 626d 9abf 18a0 4cc0 4771 4440
00000330: 50ba 92c0 556e 87c0 a040 56c0 e75a a5c0
00000340: ce10 92c0 b5f1 61be 93b8 55c0 9f4e 923d
00000350: 8bab 073f 5e89 823f 7edf 3040 ea62 74c0
00000360: b2e0 87c0 ec8f adc0 3622 e7bf fb4d a6c0
00000370: eaa4 0cc0 3d9f a5c0 2725 b6be a248 dfc0
00000380: 0571 883f 9a7f ed3f e237 fc3c e8a3 90bf
00000390: 6148 7dbf b76f 99c0 06a4 06c0 0e1d 9fc0
000003a0: eb9e 7a3e 7b79 cec0 822e d23f 27e8 613e
000003b0: 8008 82bf c03e 5140 46d8 d4be bc6f a9bf
000003c0: 3ccf 99c0 6682 dcbf 6557 de3f 83c3 b5bf
000003d0: da26 16c0 dd30 cec0 f243 b1bf b100 6a3f
000003e0: dc35 aebe 3580 883f 6faa 99be 4482 d3bf
000003f0: 7a52 07c0 31d8 bbc0 f41c 98c0 c3b6 4ebe

q_mu f4 [7]
-3.7133615 -2.4414916 -2.372621 -2.78246 -2.2995882 -2.3381324 -3.0735846
00000000: b7a7 6dc0 6641 1cc0 06d9 17c0 d313 32c0
00000010: 742c 13c0 f6a3 15c0 9cb5 44c0

q_var f4 [7]
-2.3170445 -2.2682126 -4.5803275 -3.6980278 -4.011694 -3.275919 -3.03247
00000000: 754a 14c0 652a 11c0 0b92 92c0 7dac 6cc0
00000010: cc5f 80c0 a8a8 51c0 fd13 42c0

eps f4 [7]
-1.0348932 0.18665922 -1.3054242 -2.0183487 0.20705801 1.7491714 1.8428484
00000000: 6177 84bf 9823 3f3e 2418 a7bf a02c 01c0
00000010: 0407 543e d9e4 df3f 75e2 eb3f

q_gamma_params f4 [99]
4.136218 4.047055 3.613604 3.0254107 3.074387 4.110299 1.6031241 3.3395448
4.291435 3.8046978 3.9457078 3.9521677 3.9675648 3.6684089 3.521848 3.5473218
4.5335627 3.8609443 3.8906195 3.9525547 3.4626598 3.7524502 3.7906606 4.064627
3.9472919 3.8903682 3.9284286 3.4630673 3.4607205 3.8352165 4.184625 3.9451895
3.4050832 3.6397738 3.5888362 -3.533671 3.5985816 3.820975 1.9180118 3.9610155
4.3648996 3.81158 0.09705764 3.4625735 3.7970345 3.1963894 3.8470855 3.8567352
3.8754203 2.879493 3.553432 2.1368146 4.2932625 -3.3259008 2.813726 4.0957623
2.7668564 4.083126 3.886805 1.4851398 3.9588804 4.374352 4.0484276 3.4496465
3.7233999 -3.516421 4.3938837 3.7182677 3.9658833 3.6505876 1.6910276 3.3922598
3.702619 0.4264317 2.3000884 2.9871206 0.09058473 -0.40302894 3.8333178 3.7210584
4.2880616 2.792385 3.837337 3.8196735 3.9261465 3.7652998 4.1986933 -1.27132
4.1512256 3.9955437 3.1353848 3.7498586 4.0862317 3.0780818 4.071271 2.9237993
3.733227 3.2855408 3.963569
00000000: e65b 8440 7981 8140 4a45 6740 54a0 4140
00000010: c2c2 4440 9287 8340 2c33 cd3f 1abb 5540
00000020: 6f53 8940 2b80 7340 7a86 7c40 51f0 7c40
00000030: 95ec 7d40 36c7 6a40 f565 6140 5207 6340
00000040: f212 9140 b619 7740 e9ff 7840 a8f6 7c40
00000050: 389c 5d40 2528 7040 2f9a 7240 6d11 8240
00000060: 6ea0 7c40 cbfb 7840 606b 7b40 e5a2 5d40
00000070: 727c 5d40 3074 7540 73e8 8540 fc7d 7c40
00000080: e2ec 5940 0ef2 6840 7eaf 6540 aa27 62c0
00000090: 294f 6640 db8a 7440 6981 f53f 4781 7d40
000000a0: 42ad 8b40 edf0 7340 28c6 c63d ce9a 5d40
000000b0: 9d02 7340 a591 4c40 a636 7640 c0d4 7640
000000c0: e306 7840 9d49 3840 6e6b 6340 92c1 0840
000000d0: 6862 8940 8fdb 54c0 1614 3440 7c10 8340
000000e0: 2d14 3140 f8a8 8240 6ac1 7840 1019 be3f
000000f0: 4c5e 7d40 b1fa 8b40 b88c 8140 02c7 5c40
00000100: 2f4c 6e40 0b0d 61c0 b29a 8c40 19f8 6d40
00000110: 08d1 7d40 3aa3 6940 9873 d83f c91a 5940
00000120: b6f7 6c40 4155 da3e a634 1340 fc2c 3f40
00000130: 7d84 b93d cf59 cebe 1455 7540 d225 6e40
00000140: cd37 8940 70b6 3240 ee96 7540 8875 7440
00000150: fc45 7b40 acfa 7040 b25b 8640 9dba a2bf
00000160: d7d6 8440 fdb6 7f40 25aa 4840 affd 6f40
00000170: 69c2 8240 4bff 4440 da47 8240 871f 3b40
00000180: 31ed 6e40 4d46 5240 1dab 7d40

q_probs f4 [99]
0.98426825 0.98282707 0.9737534 0.95371056 0.9558371 0.9838622 0.8324925 0.96576625
0.9864964 0.9781888 0.98102957 0.98115003 0.9814323 0.97511804 0.97130716 0.9720076
0.98937184 0.9793858 0.9799764 0.98115325 0.9695995 0.9770777 0.9779181 0.9829401
0.98105973 0.9799729 0.98070127 0.9696191 0.9695507 0.9788608 0.9850005 0.98102003
0.9678647 0.97441363 0.97311324 0.028390283 0.97336733 0.97856367 0.8719441 0.98131263
0.98744375 0.9783658 0.52437073 0.9696055 0.9780556 0.960704 0.9791045 0.979301
0.97967654 0.9468302 0.972171 0.8944849 0.9865238 0.034670603 0.9434104 0.9836295
0.94086283 0.9834246 0.9799019 0.81538004 0.9812733 0.98756045 0.9828498 0.9692248
0.9764181 0.02887009 0.98779815 0.9763016 0.98140115 0.9746833 0.84440386 0.96746325
0.9759354 0.605153 0.90890944 0.9519943 0.52243215 0.40070194 0.9788215 0.97636664
0.98645455 0.9422752 0.9789043 0.9785366 0.98066187 0.97736406 0.9852072 0.21921311
0.9844994 0.98193526 0.9583308 0.97701967 0.9834757 0.9559834 0.98321944 0.9490155
0.9766441 0.9639325 0.98135906
00000000: 01f9 7b3f 8e9a 7b3f e747 793f 6026 743f
00000010: bdb1 743f 65de 7b3f 3a1e 553f 753c 773f
00000020: 078b 7c3f 956a 7a3f c124 7b3f a62c 7b3f
00000030: 263f 7b3f 56a1 793f 96a7 783f 7dd5 783f
00000040: 7947 7d3f 07b9 7a3f bcdf 7a3f dc2c 7b3f
00000050: ac37 783f c421 7a3f d758 7a3f f6a1 7b3f
00000060: bb26 7b3f 81df 7a3f 3d0f 7b3f f538 783f
00000070: 7a34 783f 9f96 7a3f fe28 7c3f 2124 7b3f
00000080: fbc5 773f 2c73 793f f31d 793f bd92 e83c
00000090: 9a2e 793f 2683 7a3f bb37 5f3f 4e37 7b3f
000000a0: 1dc9 7c3f 2e76 7a3f 293d 063f 1138 783f
000000b0: da61 7a3f b3f0 753f 98a6 7a3f 78b3 7a3f
000000c0: 15cc 7a3f 7763 723f 33e0 783f f6fc 643f
000000d0: d38c 7c3f c302 0e3d 5883 713f 25cf 7b3f
000000e0: 63dc 703f b7c1 7b3f dada 7a3f bfbc 503f
000000f0: ba34 7b3f c3d0 7c3f 0b9c 7b3f 1e1f 783f
00000100: 89f6 793f f880 ec3c 57e0 7c3f e7ee 793f
00000110: 1b3d 7b3f d884 793f da2a 583f acab 773f
00000120: e7d6 793f 4feb 1a3f 4aae 683f e6b5 733f
00000130: 1dbe 053f ce28 cd3e 0c94 7a3f 2af3 793f
00000140: 4988 7c3f f338 713f 7999 7a3f 6081 7a3f
00000150: a80c 7b3f 8834 7a3f 8a36 7c3f 6779 603e
00000160: 2708 7c3f 1c60 7b3f 2b55 753f f61d 7a3f
00000170: 10c5 7b3f 54bb 743f 45b4 7b3f aef2 723f
00000180: 5905 7a3f 48c4 763f 593a 7b3f

gamma f4 [100]
1.0 1.0 1.0 1.0 1.0 1.0 1.0 1.0
1.0 1.0 1.0 1.0 1.0 1.0 1.0 1.0
1.0 1.0 1.0 1.0 1.0 1.0 1.0 1.0
1.0 1.0 1.0 1.0 1.0 1.0 1.0 1.0
1.0 1.0 1.0 1.0 0.0 1.0 1.0 1.0
1.0 1.0 1.0 1.0 1.0 1.0 1.0 1.0
0.0 1.0 1.0 1.0 1.0 1.0 0.0 1.0
1.0 1.0 1.0 1.0 1.0 1.0 1.0 1.0
1.0 1.0 0.0 1.0 1.0 1.0 1.0 0.0
1.0 1.0 1.0 1.0 1.0 0.0 1.0 1.0
1.0 1.0 1.0 1.0 1.0 1.0 1.0 1.0
0.0 1.0 1.0 1.0 1.0 1.0 1.0 1.0
0.0 1.0 1.0 1.0
00000000: 0000 803f 0000 803f 0000 803f 0000 803f
00000010: 0000 803f 0000 803f 0000 803f 0000 803f
00000020: 0000 803f 0000 803f 0000 803f 0000 803f
00000030: 0000 803f 0000 803f 0000 803f 0000 803f
00000040: 0000 803f 0000 803f 0000 803f 0000 803f
00000050: 0000 803f 0000 803f 0000 803f 0000 803f
00000060: 0000 803f 0000 803f 0000 803f 0000 803f
00000070: 0000 803f 0000 803f 0000 803f 0000 803f
00000080: 0000 803f 0000 803f 0000 803f 0000 803f
00000090: 0000 0000 0000 803f 0000 803f 0000 803f
000000a0: 0000 803f 0000 803f 0000 803f 0000 803f
000000b0: 0000 803f 0000 803f 0000 803f 0000 803f
000000c0: 0000 0000 0000 803f 0000 803f 0000 803f
000000d0: 0000 803f 0000 803f 0000 0000 0000 803f
000000e0: 0000 803f 0000 803f 0000 803f 0000 803f
000000f0: 0000 803f 0000 803f 0000 803f 0000 803f
00000100: 0000 803f 0000 803f 0000 0000 0000 803f
00000110: 0000 803f 0000 803f 0000 803f 0000 0000
00000120: 0000 803f 0000 803f 0000 803f 0000 803f
00000130: 0000 803f 0000 0000 0000 803f 0000 803f
00000140: 0000 803f 0000 803f 0000 803f 0000 803f
00000150: 0000 803f 0000 803f 0000 803f 0000 803f
00000160: 0000 0000 0000 803f 0000 803f 0000 803f
00000170: 0000 803f 0000 803f 0000 803f 0000 803f
00000180: 0000 0000 0000 803f 0000 803f 0000 803f

KL_gamma_k f4 [99]
451693.62 451032.25 446868.2 437670.16 438646.12 451507.28 382041.34 443202.75
452716.16 448903.66 450207.34 450262.62 450392.16 447494.44 445745.56 446067.0
454035.75 449452.97 449724.0 450264.1 444961.9 448393.75 448779.4 451084.1
450221.2 449722.4 450056.7 444970.9 444939.53 449212.03 452029.7 450202.97
444165.75 447171.2 446574.4 13028.547 446691.0 449075.7 400146.3 450337.25
453150.94 448984.88 240639.95 444964.66 448842.53 440879.62 449323.88 449414.03
449586.4 434512.7 446142.0 410490.56 452728.75 15910.646 432943.28 451400.5
431774.2 451306.47 449689.8 374188.2 450319.2 453204.47 451042.66 444789.97
448091.03 13248.736 453313.56 448037.6 450377.88 447294.9 387507.7 443981.53
447869.53 277712.03 417110.25 436882.56 239750.31 183886.73 449194.0 448067.44
452696.97 432422.34 449232.0 449063.25 450038.6 448525.16 452124.53 100599.266
451799.72 450622.97 439790.53 448367.12 451329.9 438713.25 451212.3 435515.53
448194.75 442361.22 450358.56
00000000: b48d dc48 083b dc48 8632 da48 c5b4 d548
00000010: c42e d648 6976 dc48 2b8b ba48 5868 d848
00000020: 850d dd48 f530 db48 ebd3 db48 d4da db48
00000030: 05eb db48 ce80 da48 32a6 d948 60ce d948
00000040: 78b2 dd48 9f75 db48 8097 db48 03db db48
00000050: 3d44 d948 38f1 da48 6d21 db48 8341 dc48
00000060: a6d5 db48 4d97 db48 16c1 db48 5d45 d948
00000070: 7141 d948 8157 db48 b6b7 dc48 5fd3 db48
00000080: b8e0 d848 6658 da48 cd0d da48 3092 4b46
00000090: 601c da48 7646 db48 4a62 c348 28e4 db48
000000a0: de43 dd48 1c3b db48 fdff 6a48 9544 d948
000000b0: 5129 db48 f445 d748 7c65 db48 c170 db48
000000c0: 4d86 db48 162a d448 c0d7 d948 526f c848
000000d0: 180f dd48 969a 7846 e965 d348 1069 dc48
000000e0: c6d3 d248 4f5d dc48 3a93 db48 86b5 b648
000000f0: e6e1 db48 8f4a dd48 553c dc48 bf2e d948
00000100: 61cb da48 f202 4f46 3258 dd48 b3c4 da48
00000110: 3ce9 db48 dd67 da48 7636 bd48 b1c9 d848
00000120: b1af da48 019a 8748 c8aa cb48 5252 d548
00000130: 9421 6a48 af93 3348 4055 db48 6ec8 da48
00000140: 1f0b dd48 cb24 d348 005a db48 e844 db48
00000150: d3be db48 a501 db48 91c3 dc48 a27b c447
00000160: f79a dc48 df07 dc48 d1bd d648 e4ed da48
00000170: 3d60 dc48 2837 d648 8a51 dc48 71a7 d448
00000180: 58d8 da48 27ff d748 d2e6 db48

q_gamma_params f4 [100, 3]
-4.4729886 -3.8934093 -2.1207416 -4.1396103 0.4821609 1.4235722 -3.6644015 -4.253896
0.110777676 -4.3050365 -3.9157486 -4.0983725 -4.1007304 -4.4501953 -3.466084 -3.7160869
-3.6800377 -4.061297 -1.4539398 -3.054713 0.7475324 -3.704271 -3.9858727 -3.9495227
-3.9759824 -4.2769575 -4.1738005 -4.2497573 -4.176571 -4.084753 -3.3512564 -4.1094
-4.59014 -4.0068135 -3.8418102 -3.4083273 -3.759631 -4.149043 -3.627865 -3.6347642
-3.929628 -3.3740702 -4.2043376 -1.8307872 -3.3013456 -3.4537885 -4.5087657 -4.2665944
-2.6021123 -3.974985 -3.4492886 -4.468125 -4.0129933 -3.8573117 -1.888509 -4.047611
-3.8426504 -0.9613177 -4.043304 -3.8571494 -4.156491 -4.3410707 -3.8093288 -3.8790765
-3.1562357 1.45021 -4.45336 -4.0908947 -3.5111833 -2.922252 -3.7196476 -3.6682591
-0.73705703 -3.662006 1.537092 -4.305221 -3.7535844 -3.6149497 -4.466902 -4.106157
-4.0254374 -2.704511 -4.1945047 -3.9702988 -3.266382 -4.3147078 -3.9511206 -3.6412706
-3.3204489 -3.8139737 -4.372423 -4.191663 -4.106943 -0.37173894 -4.235544 -2.1385698
-2.8009303 -3.5558949 -4.090556 -4.017829 -4.046253 -4.2679896 -4.196614 -0.45904154
-2.8133678 -4.213468 -4.185551 -3.5385983 -4.2837496 -3.6256423 -4.083064 -4.0983663
-3.9161096 2.2991695 -3.0079992 -4.2526813 -1.1619787 -4.140491 -4.1487117 -3.4976974
-4.2968283 -4.2759986 -4.14799 -4.023569 -4.0246468 -3.2891812 -1.5845287 -3.7103913
-3.704636 -3.9639175 -3.74774 -4.3102922 -3.3950036 -4.0749693 -3.7041047 -3.8561695
0.3408096 -4.0888705 -1.5580907 -3.65113 -3.7103195 -2.5120647 -4.265309 -0.5687777
-4.3088307 -4.127237 -3.9092376 -4.049519 -4.2018023 -3.9866927 -4.000037 -4.0097857
-4.352741 -2.2724483 2.7139845 -4.2290626 -3.062151 -4.3082604 -3.702519 -3.812743
-4.471977 -2.6566412 -4.1825113 -4.106512 -4.277257 -3.9440804 -4.124723 -3.9426775
-2.6138914 -3.915719 -4.267112 -4.153973 -4.0508614 -3.859863 -2.5383673 -4.245916
-3.8641803 -3.7963092 -4.0360875 -3.8865082 -3.7541337 -4.204006 -4.259551 -4.1328187
-4.0006537 -4.2504125 -4.2078857 -3.9760487 0.59220725 -4.158878 -3.7651045 -2.3722508
-2.5606477 -4.153893 -3.2912922 -3.6173434 -3.8738842 -3.772587 -3.9125075 -4.0664043
-3.4247632 -3.631343 -4.1109266 -3.8930335 -4.079678 -4.043467 -3.5314496 -3.6955857
-4.468464 -4.0497947 -3.903084 -4.2334294 -4.029105 -4.365866 -4.2819896 -4.0466805
-3.3476088 -3.9212565 -3.1744542 0.40834647 -4.0603933 -2.2093282 -3.9292574 -4.1248207
-2.324336 -2.7409222 -4.085601 -4.175358 -3.7195945 -3.8751628 -4.024605 -3.1016295
-4.4541116 -3.966251 -3.7839742 -4.0696416 -4.090008 -3.4496806 -4.108652 -4.2146006
-3.800957 -3.1925576 -4.159123 -2.846837 -3.746559 -3.048647 -4.1382346 -4.1645236
-3.6877606 -3.3552432 -4.281614 -3.9620929 -3.3700538 -4.310943 -3.7974272 -1.61454
00000000: b922 8fc0 9e2d 79c0 3bba 07c0 b077 84c0
00000010: cbdd f63e 9d37 b63f 8e85 6ac0 eb1f 88c0
00000020: 68df e23d dcc2 89c0 a09b 7ac0 de25 83c0
00000030: 2f39 83c0 0068 8ec0 52d4 5dc0 5ed4 6dc0
00000040: bd85 6bc0 25f6 81c0 b31a babf 6b80 43c0
00000050: 495e 3f3f c712 6dc0 8a18 7fc0 fbc4 7cc0
00000060: 7f76 7ec0 d6dc 88c0 c68f 85c0 03fe 87c0
00000070: 78a6 85c0 4cb6 82c0 fc7a 56c0 3480 83c0
00000080: 6de2 92c0 d137 80c0 38e0 75c0 0922 5ac0
00000090: cb9d 70c0 f6c4 84c0 f12e 68c0 fa9f 68c0
000000a0: 067f 7bc0 c4f0 57c0 ef89 86c0 3c57 eabf
000000b0: 3f49 53c0 df0a 5dc0 cf47 90c0 f187 88c0
000000c0: 0289 26c0 2766 7ec0 25c1 5cc0 e1fa 8ec0
000000d0: 716a 80c0 32de 76c0 aaba f1bf 0886 81c0
000000e0: fced 75c0 eb18 76bf bf62 81c0 89db 76c0
000000f0: f901 85c0 0dea 8ac0 0bcc 73c0 ca42 78c0
00000100: c4ff 49c0 7ba0 b93f ed81 8ec0 9ce8 82c0
00000110: 3ab7 60c0 2d06 3bc0 b50e 6ec0 c2c4 6ac0
00000120: c5af 3cbf 4e5e 6ac0 6ebf c43f 5fc4 89c0
00000130: ba3a 70c0 565b 67c0 dcf0 8ec0 a365 83c0
00000140: 62d0 80c0 b516 2dc0 6239 86c0 6019 7ec0
00000150: 670c 51c0 1612 8ac0 29df 7cc0 940a 69c0
00000160: 3c82 54c0 2518 74c0 e4ea 8bc0 1a22 86c0
00000170: 146c 83c0 9154 bebe 9489 87c0 54de 08c0
00000180: 7142 33c0 c893 63c0 d6e5 82c0 0e92 80c0
00000190: e87a 81c0 5f93 88c0 a94a 86c0 7e07 ebbe
000001a0: 380e 34c0 bbd4 86c0 09f0 85c0 6578 62c0
000001b0: 7a14 89c0 860a 68c0 76a8 82c0 d125 83c0
000001c0: 8aa1 7ac0 9825 1340 0f83 40c0 f715 88c0
000001d0: b8bb 94bf e77e 84c0 3fc2 84c0 46da 5fc0
000001e0: 9e7f 89c0 fbd4 88c0 56bc 84c0 14c1 80c0
000001f0: e8c9 80c0 f281 52c0 d6d1 cabf 0d77 6dc0
00000200: c218 6dc0 d3b0 7dc0 f9da 6fc0 eaed 89c0
00000210: bd47 59c0 2666 82c0 0d10 6dc0 7bcb 76c0
00000220: 997e ae3e 07d8 82c0 846f c7bf 1dac 69c0
00000230: e075 6dc0 abc5 20c0 697d 88c0 6a9b 11bf
00000240: f1e1 89c0 5312 84c0 f330 7ac0 a995 81c0
00000250: 2a75 86c0 f925 7fc0 4e00 80c0 2a50 80c0
00000260: a749 8bc0 cb6f 11c0 ecb1 2d40 7b54 87c0
00000270: 48fa 43c0 45dd 89c0 12f6 6cc0 fb03 74c0
00000280: 701a 8fc0 6906 2ac0 22d7 85c0 8c68 83c0
00000290: 4adf 88c0 d06b 7cc0 bbfd 83c0 d454 7cc0
000002a0: ff49 27c0 249b 7ac0 2e8c 88c0 59ed 84c0
000002b0: a8a0 81c0 ff07 77c0 9c74 22c0 8bde 87c0
000002c0: bb4e 77c0 bbf6 72c0 a127 81c0 8dbc 78c0
000002d0: ba43 70c0 3887 86c0 3e4e 88c0 0d40 84c0
000002e0: 5b05 80c0 6103 88c0 00a7 86c0 9577 7ec0
000002f0: e59a 173f 8715 85c0 79f7 70c0 f5d2 17c0
00000300: a7e1 23c0 b1ec 84c0 88a4 52c0 8e82 67c0
00000310: b8ed 77c0 1172 71c0 8666 7ac0 fc1f 82c0
00000320: 522f 5bc0 ec67 68c0 b68c 83c0 7627 79c0
00000330: b98c 82c0 1564 81c0 4503 62c0 7a84 6cc0
00000340: a8fd 8ec0 eb97 81c0 21cc 79c0 4178 87c0
00000350: 6eee 80c0 2db5 8bc0 0f06 89c0 687e 81c0
00000360: 393f 56c0 def5 7ac0 422a 4bc0 ca12 d13e
00000370: beee 81c0 a265 0dc0 f478 7bc0 88fe 83c0
00000380: ecc1 14c0 456b 2fc0 3ebd 82c0 889c 85c0
00000390: d60d 6ec0 ab02 78c0 90c9 80c0 1981 46c0
000003a0: 1588 8ec0 0ed7 7dc0 a22c 72c0 813a 82c0
000003b0: 58e1 82c0 91c7 5cc0 147a 83c0 02de 86c0
000003c0: e142 73c0 dd52 4cc0 8917 85c0 9432 36c0
000003d0: 9fc7 6fc0 081d 43c0 6b6c 84c0 c743 85c0
000003e0: 4504 6cc0 4ebc 56c0 fb02 89c0 ee92 7dc0
000003f0: f6ae 57c0 3ff3 89c0 0c09 73c0 3fa9 cebf

gamma f4 [100, 3]
0.0 0.0 0.0 0.0 1.0 1.0 0.0 0.0
0.0 0.0 0.0 0.0 0.0 0.0 0.0 0.0
0.0 1.0 0.0 0.0 0.0 0.0 0.0 0.0
0.0 0.0 0.0 0.0 0.0 0.0 0.0 0.0
0.0 0.0 0.0 0.0 0.0 0.0 0.0 0.0
0.0 1.0 0.0 0.0 0.0 0.0 0.0 0.0
0.0 0.0 0.0 0.0 0.0 0.0 0.0 0.0
0.0 1.0 0.0 0.0 0.0 0.0 0.0 0.0
0.0 1.0 0.0 0.0 0.0 0.0 0.0 0.0
1.0 0.0 1.0 0.0 0.0 0.0 0.0 0.0
0.0 1.0 0.0 0.0 0.0 0.0 0.0 0.0
0.0 0.0 0.0 0.0 0.0 0.0 0.0 0.0
0.0 0.0 0.0 0.0 0.0 0.0 0.0 1.0
0.0 0.0 0.0 0.0 0.0 0.0 0.0 0.0
0.0 1.0 0.0 0.0 0.0 0.0 0.0 0.0
0.0 0.0 0.0 0.0 0.0 0.0 0.0 0.0
0.0 0.0 0.0 0.0 0.0 0.0 0.0 0.0
0.0 0.0 0.0 0.0 0.0 1.0 0.0 0.0
0.0 0.0 0.0 0.0 0.0 0.0 0.0 0.0
0.0 0.0 1.0 0.0 0.0 0.0 0.0 0.0
0.0 0.0 0.0 0.0 0.0 0.0 0.0 0.0
0.0 0.0 0.0 0.0 0.0 0.0 0.0 0.0
0.0 0.0 0.0 0.0 0.0 0.0 0.0 0.0
0.0 0.0 0.0 0.0 0.0 0.0 0.0 0.0
0.0 0.0 0.0 0.0 0.0 0.0 0.0 0.0
0.0 0.0 0.0 0.0 0.0 0.0 0.0 0.0
0.0 0.0 0.0 0.0 0.0 0.0 0.0 0.0
1.0 0.0 0.0 1.0 0.0 0.0 0.0 0.0
0.0 0.0 0.0 0.0 0.0 0.0 0.0 0.0
0.0 0.0 0.0 0.0 0.0 0.0 0.0 0.0
0.0 0.0 0.0 0.0 0.0 0.0 0.0 0.0
0.0 0.0 0.0 0.0 0.0 0.0 0.0 0.0
00000000: 0000 0000 0000 0000 0000 0000 0000 0000
00000010: 0000 803f 0000 803f 0000 0000 0000 0000
00000020: 0000 0000 0000 0000 0000 0000 0000 0000
00000030: 0000 0000 0000 0000 0000 0000 0000 0000
00000040: 0000 0000 0000 803f 0000 0000 0000 0000
00000050: 0000 0000 0000 0000 0000 0000 0000 0000
00000060: 0000 0000 0000 0000 0000 0000 0000 0000
00000070: 0000 0000 0000 0000 0000 0000 0000 0000
00000080: 0000 0000 0000 0000 0000 0000 0000 0000
00000090: 0000 0000 0000 0000 0000 0000 0000 0000
000000a0: 0000 0000 0000 803f 0000 0000 0000 0000
000000b0: 0000 0000 0000 0000 0000 0000 0000 0000
000000c0: 0000 0000 0000 0000 0000 0000 0000 0000
000000d0: 0000 0000 0000 0000 0000 0000 0000 0000
000000e0: 0000 0000 0000 803f 0000 0000 0000 0000
000000f0: 0000 0000 0000 0000 0000 0000 0000 0000
00000100: 0000 0000 0000 803f 0000 0000 0000 0000
00000110: 0000 0000 0000 0000 0000 0000 0000 0000
00000120: 0000 803f 0000 0000 0000 803f 0000 0000
00000130: 0000 0000 0000 0000 0000 0000 0000 0000
00000140: 0000 0000 0000 803f 0000 0000 0000 0000
00000150: 0000 0000 0000 0000 0000 0000 0000 0000
00000160: 0000 0000 0000 0000 0000 0000 0000 0000
00000170: 0000 0000 0000 0000 0000 0000 0000 0000
00000180: 0000 0000 0000 0000 0000 0000 0000 0000
00000190: 0000 0000 0000 0000 0000 0000 0000 803f
000001a0: 0000 0000 0000 0000 0000 0000 0000 0000
000001b0: 0000 0000 0000 0000 0000 0000 0000 0000
000001c0: 0000 0000 0000 803f 0000 0000 0000 0000
000001d0: 0000 0000 0000 0000 0000 0000 0000 0000
000001e0: 0000 0000 0000 0000 0000 0000 0000 0000
000001f0: 0000 0000 0000 0000 0000 0000 0000 0000
00000200: 0000 0000 0000 0000 0000 0000 0000 0000
00000210: 0000 0000 0000 0000 0000 0000 0000 0000
00000220: 0000 0000 0000 0000 0000 0000 0000 0000
00000230: 0000 0000 0000 803f 0000 0000 0000 0000
00000240: 0000 0000 0000 0000 0000 0000 0000 0000
00000250: 0000 0000 0000 0000 0000 0000 0000 0000
00000260: 0000 0000 0000 0000 0000 803f 0000 0000
00000270: 0000 0000 0000 0000 0000 0000 0000 0000
00000280: 0000 0000 0000 0000 0000 0000 0000 0000
00000290: 0000 0000 0000 0000 0000 0000 0000 0000
000002a0: 0000 0000 0000 0000 0000 0000 0000 0000
000002b0: 0000 0000 0000 0000 0000 0000 0000 0000
000002c0: 0000 0000 0000 0000 0000 0000 0000 0000
000002d0: 0000 0000 0000 0000 0000 0000 0000 0000
000002e0: 0000 0000 0000 0000 0000 0000 0000 0000
000002f0: 0000 0000 0000 0000 0000 0000 0000 0000
00000300: 0000 0000 0000 0000 0000 0000 0000 0000
00000310: 0000 0000 0000 0000 0000 0000 0000 0000
00000320: 0000 0000 0000 0000 0000 0000 0000 0000
00000330: 0000 0000 0000 0000 0000 0000 0000 0000
00000340: 0000 0000 0000 0000 0000 0000 0000 0000
00000350: 0000 0000 0000 0000 0000 0000 0000 0000
00000360: 0000 803f 0000 0000 0000 0000 0000 803f
00000370: 0000 0000 0000 0000 0000 0000 0000 0000
00000380: 0000 0000 0000 0000 0000 0000 0000 0000
00000390: 0000 0000 0000 0000 0000 0000 0000 0000
000003a0: 0000 0000 0000 0000 0000 0000 0000 0000
000003b0: 0000 0000 0000 0000 0000 0000 0000 0000
000003c0: 0000 0000 0000 0000 0000 0000 0000 0000
000003d0: 0000 0000 0000 0000 0000 0000 0000 0000
000003e0: 0000 0000 0000 0000 0000 0000 0000 0000
000003f0: 0000 0000 0000 0000 0000 0000 0000 0000

q_probs f4 [100, 3]
0.011284589 0.019969132 0.107126035 0.015679987 0.6183053 0.80599815 0.024981271 0.01400981
0.52776635 0.013320508 0.019537143 0.01632938 0.016291028 0.011543043 0.0302943 0.023752874
0.024603708 0.016935075 0.1894763 0.045016658 0.67874455 0.024029069 0.018238056 0.018900251
0.018416118 0.013695119 0.015160467 0.014067185 0.01511913 0.016549366 0.033854835 0.016153403
0.010049622 0.017867222 0.021005526 0.032037474 0.022763917 0.015535085 0.025886524 0.025712347
0.01927316 0.033117533 0.014711352 0.13819242 0.03552772 0.03065793 0.010892342 0.013835411
0.069009595 0.0184355 0.030792352 0.011339225 0.017758625 0.020688768 0.13137975 0.017164832
0.02098596 0.27635598 0.017238019 0.020691242 0.015421157 0.012855285 0.021683075 0.020252727
0.04084896 0.80905753 0.011505502 0.016449464 0.028997421 0.051067393 0.023669943 0.024886295
0.32375932 0.025038434 0.82306993 0.013318522 0.022898074 0.026213335 0.011352549 0.016204758
0.017543616 0.06328456 0.014854395 0.018519558 0.036744334 0.013324044 0.018871572 0.025550198
0.034879394 0.021585314 0.0124635855 0.014896152 0.016192378 0.40796086 0.014266114 0.1053925
0.057276074 0.027766027 0.016454864 0.017674433 0.017187508 0.013816978 0.014824196 0.38728863
0.05661075 0.014580606 0.014986199 0.028232316 0.013603275 0.025942737 0.01657658 0.016329026
0.01952993 0.908822 0.04707162 0.014026683 0.23832162 0.015666304 0.015540364 0.029379422
0.013429127 0.013707749 0.015550728 0.017574793 0.017556654 0.035944927 0.17020567 0.023884838
0.024020435 0.018636182 0.023029597 0.013251896 0.032452703 0.016708998 0.02403267 0.020711282
0.58437634 0.016482368 0.173957 0.02530704 0.023886 0.075027466 0.01385317 0.3616378
0.01327084 0.015872309 0.019661348 0.017136907 0.014748111 0.018223194 0.017985925 0.017814916
0.012707977 0.09338518 0.93786323 0.0143572735 0.044703986 0.013278923 0.024068013 0.021611426
0.011295756 0.06558952 0.015031041 0.016198456 0.013691011 0.019002398 0.01591105 0.019028397
0.06825961 0.019537408 0.013828456 0.015459546 0.017109662 0.020636432 0.07323023 0.014120482
0.020555332 0.021961268 0.017360454 0.020106718 0.022885963 0.014715888 0.013931826 0.015785176
0.017975181 0.014059072 0.014660017 0.01841455 0.6439909 0.015394442 0.022641046 0.085317664
0.07173018 0.015460491 0.03587291 0.026153348 0.020355372 0.022476688 0.019599522 0.016850268
0.031530693 0.025799282 0.016129058 0.019976825 0.016632067 0.017234562 0.028539272 0.024232741
0.011334975 0.01712756 0.019781206 0.01429548 0.017479306 0.012544336 0.013627347 0.017180324
0.033974398 0.019432414 0.040140495 0.6008349 0.016950458 0.098944075 0.019280873 0.015909549
0.08914532 0.060564402 0.016536023 0.015137444 0.02367069 0.020333098 0.017557131 0.043044765
0.011497028 0.018592741 0.022229351 0.016797716 0.016463906 0.030779852 0.016165117 0.014563159
0.021862477 0.039449442 0.015381053 0.05484702 0.023054935 0.04528179 0.015700731 0.015299679
0.024417354 0.033726044 0.013632109 0.018668957 0.03324592 0.013286715 0.02193686 0.1660188
00000000: ffe2 383c 4e96 a33c e564 db3d 5173 803c
00000010: 4249 1e3f e555 4e3f 86a5 cc3c 6789 653c
00000020: b21b 073f 433e 5a3c 5c0c a03c 31c5 853c
00000030: c374 853c 081f 3d3c c02b f83c 6395 c23c
00000040: b78d c93c 6dbb 8a3c 1306 423e 6363 383d
00000050: 34c2 2d3f 9cd8 c43c fa67 953c b3d4 9a3c
00000060: 66dd 963c 7e61 603c 9b63 783c 0d7a 663c
00000070: 3ab6 773c 8992 873c 5eab 0a3d 2454 843c
00000080: 2ba7 243c 485e 923c c813 ac3c ba39 033d
00000090: 657b ba3c df86 7e3c fa0f d43c b3a2 d23c
000000a0: bfe2 9d3c 40a6 073d e207 713c 5082 0d3e
000000b0: 8485 113d 5726 fb3c cb75 323c ebad 623c
000000c0: e754 8d3d 0c06 973c 3e40 fc3c 28c8 393c
000000d0: 897a 913c 7e7b a93c 6a88 063e 439d 8c3c
000000e0: bfea ab3c 887e 8d3e bf36 8d3c ae80 a93c
000000f0: 05a9 7c3c f99e 523c b4a0 b13c 0ce9 a53c
00000100: 3d51 273d 651e 4f3f 9381 3c3c 07c1 863c
00000110: 008c ed3c 0b2c 513d 78e7 c13c 58de cb3c
00000120: c8c3 a53e 671d cd3c b6b4 523f ee35 5a3c
00000130: be94 bb3c 59bd d63c 0b00 3a3c d7bf 843c
00000140: a1b7 8f3c 569b 813d d95f 733c 54b6 973c
00000150: 3a81 163d 174d 5a3c 8e98 9a3c a64e d13c
00000160: b2dd 0e3d afd3 b03c 1134 4c3c fd0e 743c
00000170: e1a5 843c 3fe0 d03e 6bbc 693c 06d8 d73d
00000180: 519a 6a3d 9475 e33c 5acc 863c f9c9 903c
00000190: d1cc 8c3c 9b60 623c 2fe1 723c b24a c63e
000001a0: ace0 673d 7ee3 6e3c ad88 753c 7547 e73c
000001b0: 45e0 5e3c dd85 d43c 9ccb 873c 73c4 853c
000001c0: 3bfd 9f3c 8fa8 683f 2cce 403d 2cd0 653c
000001d0: 950a 743e 9f56 803c 039d 7e3c 1dad f03c
000001e0: d705 5c3c 7796 603c 7bc8 7e3c 03f9 8f3c
000001f0: f9d2 8f3c fd3a 133d 654a 2e3e 23aa c33c
00000200: 81c6 c43c e8aa 983c 91a8 bc3c 7b1e 593c
00000210: 20ed 043d 4fe1 883c 29e0 c43c b5aa a93c
00000220: b099 153f 0806 873c c921 323e b650 cf3c
00000230: 93ac c33c 00a8 993d 68f8 623c 9728 b93e
00000240: f06d 593c a506 823c d610 a13c b362 8c3c
00000250: 10a2 713c cf48 953c 3857 933c 96f0 913c
00000260: 1e35 503c bb40 bf3d ce17 703f c53a 6b3c
00000270: 871b 373d d78f 593c 482a c53c 720a b13c
00000280: d611 393c cc53 863d c144 763c a0b2 843c
00000290: 4350 603c ebaa 9b3c e457 823c 71e1 9b3c
000002a0: b2cb 8b3d ea0c a03c c090 623c 094a 7d3c
000002b0: 9029 8c3c bc0d a93c bbf9 953d 9859 673c
000002c0: a863 a83c 1ee8 b33c 8337 8e3c d8b6 a43c
000002d0: 587b bb3c e81a 713c 5042 643c ea4f 813c
000002e0: b040 933c 0658 663c 9130 703c 1cda 963c
000002f0: 96dc 243f f838 7c3c b779 b93c 07bb ae3d
00000300: 46e7 923d 004e 7d3c 79ef 123d 8c3f d63c
00000310: 4fc0 a63c 0821 b83c 2d8f a03c 9309 8a3c
00000320: 5426 013d 0459 d33c 1621 843c 70a6 a33c
00000330: f93f 883c 7f2f 8d3c 31cb e93c be83 c63c
00000340: 55b6 393c 194f 8c3c 320c a23c 9737 6a3c
00000350: c330 8f3c c286 4d3c 3c45 5f3c c0bd 8c3c
00000360: bd28 0b3d ba30 9f3c 5c6a 243d 51d0 193f
00000370: b0db 8a3c 31a3 ca3d ecf2 9d3c be54 823c
00000380: d291 b63d 6112 783d 8e76 873c 0b03 783c
00000390: 09e9 c13c 9991 a63c f9d3 8f3c b54f 303d
000003a0: 085e 3c3c ce4f 983c 541a b63c 5d9b 893c
000003b0: 50df 863c 0726 fc3c b56c 843c 519a 6e3c
000003c0: f018 b33c bd95 213d d000 7c3c 45a7 603d
000003d0: b4dd bc3c 6679 393d d29e 803c 81ab 7a3c
000003e0: e706 c83c 5224 0a3d 3659 5f3c a4ef 983c
000003f0: e02c 083d 86b0 593c eeb4 b33c d500 2a3e

weight f4 [10, 74]
-0.23184623 0.036014386 -0.23564625 -0.12493211 -0.1202046 -0.2903691 0.05375877 0.47877312
0.16130884 0.5968715 -0.21732153 0.19087258 0.0080404105 0.12541921 -0.06398926 -0.13003132
-0.17227244 0.42814216 0.50926065 0.18889369 -0.33047843 -0.030329596 -0.07828435 0.16799915
0.5416524 -0.4485482 0.13220093 -0.44930953 -0.10793696 0.08999597 0.66745913 0.57412267
0.048557103 -0.12650657 -0.199386 0.29155943 0.5876735 -0.074840665 0.2219261 0.1599292
0.13214506 0.5172741 -0.10340924 0.104249455 -0.09952031 -0.076796375 0.3183045 0.52287525
0.21346739 0.65936095 -0.08208539 0.023407534 -0.13440242 0.013287294 0.006642813 -0.41576004
0.02859741 0.098110236 0.57659143 0.62944573 -0.008424122 0.2206205 0.3352041 -0.117831446
-0.059524026 -0.36832327 -0.4569698 0.05149063 0.18243803 0.10358662 0.020599876 0.3983764
0.01579263 0.743239 -0.22018139 0.052278608 -0.2352581 -0.10784609 -0.10095587 -0.2668749
0.069662236 0.4151053 0.11732776 0.740907 -0.20347333 0.17735185 0.023285693 0.13350524
-0.05083358 -0.11714024 -0.16013803 0.40913352 0.5363341 0.17637523 -0.31530187 -0.059349153
-0.063562006 0.15558693 0.47388592 -0.47034654 0.13134846 -0.45327282 -0.08917045 0.08552691
0.633136 0.551334 0.06715158 -0.10935599 -0.19193016 0.2634567 0.71508104 -0.07468859
0.18657924 0.1441165 0.12797767 0.58152044 -0.08352386 0.09415181 -0.08105735 -0.057501156
0.3000276 0.514974 0.20160742 0.61195177 -0.0738627 0.026662562 -0.13397036 0.031827003
0.019921167 -0.4220662 0.044501647 0.09586754 0.61036456 0.50925964 0.00911703 0.206173
0.316241 -0.09840683 -0.045633685 -0.3712104 -0.47200096 0.06500397 0.170163 0.085385725
0.034404855 0.43355754 0.025314143 0.5858232 -0.1538224 0.12596406 -0.17631482 -0.060756255
-0.047862865 -0.23284286 0.16185144 0.37926498 0.20896557 0.55503833 -0.16103783 0.24719879
0.10555861 0.2005047 7.170867e-05 -0.06993084 -0.11440441 0.43304878 0.49783984 0.24281056
-0.26461068 0.017688237 -0.022324672 0.23177657 0.37222457 -0.35912433 0.20688812 -0.29644966
-0.040153045 0.16679849 0.44094673 0.5470491 0.15425105 -0.04943865 -0.13797411 0.35430765
0.5592436 -0.018052772 0.26480374 0.2087451 0.20659749 0.4710663 -0.036821228 0.18498076
-0.029913161 -0.013213702 0.3345736 0.46243623 0.27102378 0.542043 -0.019719519 0.1270406
-0.08089061 0.09669873 0.079154074 -0.340844 0.11264338 0.18040209 0.40692848 0.4474795
0.07903372 0.29268488 0.39001718 -0.04147093 0.00819193 -0.29000458 -0.29589033 0.14962311
0.23694484 0.16454366 0.110839866 0.415029 0.09615326 0.4222788 -0.10360403 0.14529373
-0.107507445 -0.00024663066 -0.043025967 -0.13895479 0.14641176 0.389288 0.18031262 0.4950976
-0.090331264 0.20688625 0.11621164 0.15939523 0.08874854 -0.0011320662 -0.06190511 0.3802244
0.40599847 0.18437104 -0.21722777 -0.064532615 0.020233952 0.1908623 0.33693215 -0.41805252
0.17802173 -0.29797184 -0.0024318097 0.13105 0.52055925 0.35997498 0.12929113 0.0025827226
00000000: 1969 6dbe d283 133d 404d 71be 68dc ffbd
00000010: d42d f6bd 42ab 94be 2832 5c3d c021 f53e
00000020: 252e 253e 92cc 183f 8989 5ebe 1a74 433e
00000030: edbb 033c e56d 003e cd0c 83bd ee26 05be
00000040: 3068 30be 7335 db3e e85e 023f 596d 413e
00000050: 7834 a9be c675 f8bc 8c53 a0bd f807 2c3e
00000060: bba9 0a3f 1ca8 e5be ae5f 073e e60b e6be
00000070: 0e0e ddbd cf4f b83d 9ade 2a3f b4f9 123f
00000080: d0e3 463d f08a 01be d82b 4cbe 4747 953e
00000090: c571 163f 1046 99bd 9840 633e 7bc4 233e
000000a0: 0951 073e 136c 043f 39c8 d3bd bd80 d53d
000000b0: 4ed1 cbbd 6b47 9dbd cff8 a23e 27db 053f
000000c0: 3297 5a3e e1cb 283f 631c a8bd 28c1 bf3c
000000d0: caa0 09be f3b2 593c f4ab d93b 80de d4be
000000e0: 1e45 ea3c 05ee c83d 7f9b 133f 5b23 213f
000000f0: 5405 0abc 57ea 613e df9f ab3e 9d51 f1bd
00000100: 77cf 73bd de94 bcbe f2f7 e9be d7e7 523d
00000110: 09d1 3a3e 3925 d43d 12c1 a83c fef7 cb3e
00000120: 8c5f 813c e944 3e3f 3b77 61be 1822 563d
00000130: 80e7 70be 69de dcbd f3c1 cebd d4a3 88be
00000140: 13ab 8e3d af88 d43e 8949 f03d 15ac 3d3f
00000150: 505b 50be b99b 353e a3c1 be3c 99b5 083e
00000160: df36 50bd 39e7 efbd 39fb 23be f379 d13e
00000170: 314d 093f b59b 343e 3f6f a1be 1918 73bd
00000180: cc2c 82bd 2e52 1f3e 2da1 f23e 43d1 f0be
00000190: 3680 063e 6013 e8be ff9e b6bd bc28 af3d
000001a0: 3315 223f 3a24 0d3f c486 893d 09f6 dfbd
000001b0: 5789 44be cce3 863e 8d0f 373f 55f6 98bd
000001c0: a10e 3f3e 4793 133e 940c 033e 86de 143f
000001d0: 8f0e abbd aad2 c03d 6501 a6bd 5586 6bbd
000001e0: 389d 993e 56d5 033f 2d72 4e3e dfa8 1c3f
000001f0: 5445 97bd 726b da3c 872f 09be 085d 023d
00000200: b731 a33c 1019 d8be 5c47 363d 3356 c43d
00000210: da40 1c3f d75e 023f 985f 153c 041f 533e
00000220: 57ea a13e 8589 c9bd 63ea 3abd 4a0f bebe
00000230: 1caa f1be cd20 853d 363f 2e3e b6de ae3d
00000240: 1bec 0c3d 41fb dd3e 9b5f cf3c 82f8 153f
00000250: 9f83 1dbe b9fc 003e df8b 34be 8ddb 78bd
00000260: da0b 44bd 5c6e 6ebe 62bc 253e 052f c23e
00000270: 12fb 553e fe16 0e3f 1ae7 24be ae21 7d3e
00000280: 1d2f d83d 1b51 4d3e 4d62 9638 e637 8fbd
00000290: dc4c eabd 92b8 dd3e dde4 fe3e 55a3 783e
000002a0: 0d7b 87be ece6 903c 3be2 b6bc d656 6d3e
000002b0: 3894 be3e 25df b7be 7bda 533e 40c8 97be
000002c0: 8577 24bd 39cd 2a3e c5c3 e13e 690b 0c3f
000002d0: fdf3 1d3e 2f80 4abd 1649 0dbe d067 b53e
000002e0: 972a 0f3f 68e3 93bc 5b94 873e 47c1 553e
000002f0: 4b8e 533e 9a2f f13e dbd1 16bd 996b 3d3e
00000300: 720c f5bc 487e 58bc 3b4d ab3e 71c4 ec3e
00000310: a1c3 8a3e 54c3 0a3f d48a a1bc ee16 023e
00000320: faa9 a5bd fc09 c63d 881b a23d 1b83 aebe
00000330: 93b1 e63d 53bb 383e ee58 d03e 081c e53e
00000340: 6edc a13d cbda 953e 55b0 c73e 6cdd 29bd
00000350: 7237 063c 7b7b 94be f07e 97be cd36 193e
00000360: aba1 723e 227e 283e 0300 e33d ae7e d43e
00000370: 00ec c43d ed34 d83e 5a2e d4bd e1c7 143e
00000380: dd2c dcbd 354e 81b9 ff3b 30bd 2a4a 0ebe
00000390: f7ec 153e c250 c73e dfa3 383e 6f7d fd3e
000003a0: 99ff b8bd fdd9 533e 5e00 ee3d 8138 233e
000003b0: cbc1 b53d d761 94ba 3690 7dbd c6ac c23e
000003c0: 08df cf3e c3cb 3c3e f570 5ebe ad29 84bd
000003d0: acc1 a53c 6871 433e 5f82 ac3e fb0a d6be
000003e0: 544b 363e c48f 98be ff5e 1fbb f931 063e
000003f0: 5f43 053f a44e b83e e564 043e e542 293b

bias f4 [10]
-0.5034126 -0.43129 -0.4274445 -0.22765632 -1.4939387 -0.39021075 -0.03147642 -0.74122244
-1.2055806 -1.2599958
00000000: a6df 00bf 0bd2 dcbe 01da dabe bd1e 69be
00000010: 6239 bfbf b4c9 c7be 6bed 00bd c1c0 3dbf
00000020: 7750 9abf 8b47 a1bf

weight f4 [10, 10]
-0.18221194 -0.1194874 -0.15786138 -0.28587684 -0.24537885 -0.26614636 -0.30866626 -0.20144911
-0.18794096 -0.22948843 -0.13898273 -0.32807535 0.0021440133 0.13253689 -0.06387727 0.08351901
0.16765581 0.08361574 -0.20857993 0.01873434 -0.15252312 -0.1284328 -0.04219765 -0.6003205
-0.28792992 -0.5540855 -0.5092163 -0.3346296 -0.29911375 -0.1305888 0.40798688 0.5603385
0.43184507 0.45339924 0.10195625 0.41802162 0.47805718 0.21733691 0.09420288 0.16030636
-0.012505391 -0.028760554 -0.113284744 -0.27578044 -0.13222054 -0.30217546 0.0001213702 0.105865404
-0.16770619 -0.3895781 -0.13563395 -0.301006 -0.28857425 0.07239981 -0.11940664 -0.33724058
-0.07144084 0.031575903 -0.30437946 -0.13098904 -0.5009172 -0.30072674 -0.5509461 -0.6101776
-0.258947 -0.27728963 -0.9505047 -0.18420145 -0.063109 -0.32164073 -0.14913964 0.06313969
-0.05050818 -0.32157248 0.016913803 0.12997936 0.21092938 -0.27470198 0.17452003 -0.09357426
-0.046913788 -0.24313065 -0.04785199 -0.014073564 -0.20383222 -0.041291364 -0.17394656 -0.24080862
0.004907751 0.0041235 -0.2768018 -0.08706046 -0.29583827 0.13863291 0.19037515 -0.105737805
0.08109705 -0.14260899 -0.13000676 0.039028596
00000000: c495 3abe cfb5 f4bd 6aa6 21be 735e 92be
00000010: 9844 7bbe 5644 88be 8109 9ebe ad48 4ebe
00000020: 9873 40be 04ff 6abe 7d51 0ebe 7ef9 a7be
00000030: 9382 0c3b c0b7 073e 16d2 82bd 040c ab3d
00000040: f7ad 2b3e bb3e ab3d fa95 55be c278 993c
00000050: 052f 1cbe e383 03be 71d7 2cbd 9bae 19bf
00000060: 8d6b 93be 8cd8 0dbf 005c 02bf 9254 abbe
00000070: 7025 99be 12b9 05be a8e3 d03e 5872 0f3f
00000080: cc1a dd3e f223 e83e 70ce d03d ee06 d63e
00000090: e9c3 f43e 918d 5e3e 71ed c03d 5a27 243e
000000a0: 69e3 4cbc 419b ebbc d501 e8bd 1833 8dbe
000000b0: d264 07be beb6 9abe 2188 fe38 f6cf d83d
000000c0: 2cbb 2bbe c876 c7be a0e3 0abe 751d 9abe
000000d0: 01c0 93be 5a46 943d 788b f4bd ccaa acbe
000000e0: 934f 92bd bc55 013d a0d7 9bbe fe21 06be
000000f0: 1c3c 00bf dbf8 99be ce0a 0dbf 9934 1cbf
00000100: b494 84be e8f8 8dbe 4754 73bf 4e9f 3cbe
00000110: 4b3f 81bd 18ae a4be 10b8 18be 624f 813d
00000120: aae1 4ebd 26a5 a4be d18e 8a3c 4f19 053e
00000130: dffd 573e bda5 8cbe 61b5 323e dda3 bfbd
00000140: ac28 40bd 3ef7 78be 7300 44bd ce94 66bc
00000150: 65b9 50be 2221 29bd 0c1f 32be 8996 76be
00000160: 33d1 a03b 6d1e 873b f7b8 8dbe c14c b2bd
00000170: 1d78 97be c9f5 0d3e b4f1 423e 108d d8bd
00000180: 3616 a63d 1708 12be 7e20 05be 73dc 1f3d

bias f4 [10]
-0.6899225 0.2714971 -0.4895075 0.24750899 0.024047079 0.0050997646 -0.68871266 -0.22347562
0.18955524 0.3588368
00000000: c39e 30bf ab01 8b3e baa0 fabe ff72 7d3e
00000010: 61fe c43c ed1b a73b 794f 30bf cbd6 64be
00000020: c51a 423e 75b9 b73e

weight f4 [300, 10]
-0.12495393 -0.020358006 -0.28047866 0.13121413 -0.20621982 -0.026480652 -0.18974888 -0.22930078
-0.26521525 -0.1665562 -0.133491 0.006633077 0.18329313 0.3536095 0.020771787 0.02036518
-0.18361127 0.39554793 -0.15266965 0.2565485 0.16316214 0.1873234 0.58145064 0.26766303
0.3267517 0.28762013 0.27067503 0.73128515 0.47670615 0.16205071 -0.25088453 0.07573941
-0.12712228 -0.018897485 -0.31912372 -0.08395182 0.014845136 0.15664491 -0.285729 0.034675524
0.769555 0.7650063 0.429914 0.48692217 0.68415296 0.53666776 0.7420563 0.3384128
0.71235335 0.7740725 0.50760937 0.8687924 0.59509695 0.8174376 0.8578646 0.6395987
0.69781727 0.6556342 0.5541468 0.60879755 0.21731128 0.3359956 -0.24320585 -0.2616853
0.15151139 -0.08584258 0.32313323 -0.1886109 0.31979957 -0.17258969 0.37704524 -0.012534801
0.45168597 0.2830794 -0.013772824 -0.090635255 0.29674974 -0.070094936 0.17712975 -0.11188372
0.2844107 0.769593 0.10454186 0.7890396 0.5227009 0.65823865 0.1906972 0.3666265
0.2660019 0.35222912 -0.2202719 0.04481909 0.12695606 -0.1825355 -0.32760826 -0.0033636263
0.047544837 -0.30031863 -0.433968 0.11935509 -0.018386817 0.36174878 0.07425342 0.28401476
-0.06434092 0.028686112 -0.15076962 -0.06958157 -0.019137306 -0.07689661 0.24313222 -0.17305458
0.1141344 -0.15797095 0.027255034 0.27357674 0.06343052 -0.08556985 0.313854 0.1679789
-0.2628299 -0.34383264 -0.50117916 -0.06981397 -0.05699513 -0.5968459 -0.013822029 -0.22443819
-0.061582092 -0.29433998 0.13712774 0.22604987 -0.19339627 -0.23179571 0.34042308 -0.111858755
0.036887817 -0.12227943 0.04475799 0.35731858 0.03714457 0.14282022 0.18284383 -0.35672626
-0.2823677 -0.38838094 -0.08105193 -0.0104834465 -0.34899437 -0.04827039 0.010554779 0.10222468
-0.009664341 0.10974553 0.23344167 -0.0023614406 0.12019694 0.047641646 0.36721653 -0.028106093
0.08621687 0.11785174 -0.35372165 -0.38579732 -0.26546234 -0.047944155 -0.18338558 -0.02868662
-0.41399077 -0.17806473 0.14953844 0.27132007 -0.10404514 0.25085816 0.2822764 0.3514662
0.13434233 0.22053951 -0.0330647 0.29831845 -0.43577063 -0.65354973 -0.42313328 -0.28863046
-0.71595097 -0.37645835 -0.48238707 -0.8114967 -0.3440103 -0.23010229 0.06638369 -0.4259297
-0.032934148 -0.0771295 -0.251267 -0.43398324 -0.19472295 -0.31202108 -0.09375719 -0.21586387
-0.5599465 -0.45151636 -0.48525053 -0.7753264 -0.6139953 -0.6396177 -0.40192226 -0.54352874
-0.61956835 -0.6648563 0.06717701 0.28615382 0.053371668 0.0323622 0.25996405 0.12067798
-0.046254724 0.09132682 -0.14459051 0.00015230861 0.13629931 -0.11593022 0.10844404 0.06945005
-0.10566577 -0.023515645 -0.120694295 0.45275897 -0.15427645 0.13492435 -0.24289182 -0.21907294
-0.27458647 0.14967354 -0.18803197 0.27408445 0.27118742 0.12097608 0.21150948 -0.3504419
0.011565313 -0.011094279 0.35236773 0.3211635 -0.071250804 0.052180562 -0.16501082 -0.017319921
0.05706524 0.034178454 0.23470184 0.006547755 0.019253748 0.20635307 0.090268925 0.33042184
00000000: d9e7 ffbd d5c5 a6bc e69a 8fbe ff5c 063e
00000010: 4a2b 53be f4ed d8bc 884d 42be d3cd 6abe
00000020: 4bca 87be b58d 2abe ddb1 08be 485a d93b
00000030: 32b1 3b3e 4e0c b53e 9829 aa3c e1d4 a63c
00000040: 9804 3cbe 4285 ca3e 6f55 1cbe 535a 833e
00000050: fa13 273e b5d1 3f3e f3d9 143f 210b 893e
00000060: 004c a73e f242 933e eb95 8a3e 8135 3b3f
00000070: d412 f43e 9ff0 253e f073 80be 441d 9b3d
00000080: 582c 02be e6ce 9abc 2f64 a3be efee abbd
00000090: 0339 733c 8667 203e 124b 92be ec07 0e3d
000000a0: 8e01 453f 74d7 433f b01d dc3e dd4d f93e
000000b0: a624 2f3f 0f63 093f 67f7 3d3f 7144 ad3e
000000c0: ca5c 363f 9e29 463f b0f2 013f 2e69 5e3f
000000d0: 4658 183f 9743 513f 049d 5b3f bebc 233f
000000e0: 27a4 323f a5d7 273f 91dc 0d3f 28da 1b3f
000000f0: d986 5e3e 9e07 ac3e f40a 79be 9efb 85be
00000100: cd25 1b3e 3cce afbd b871 a53e 3723 41be
00000110: c5bc a33e 5abb 30be 130c c13e c45e 4dbc
00000120: 6243 e73e c8ef 903e 69a7 61bc fa9e b9bd
00000130: 95ef 973e ef8d 8fbd 8061 353e 4b23 e5bd
00000140: 479e 913e 0c04 453f 0b1a d63d 80fe 493f
00000150: bacf 053f 5482 283f 2046 433e 78b6 bb3e
00000160: 6731 883e 6057 b43e f58e 61be 3994 373d
00000170: c500 023e 96ea 3abe 45bc a7be 4970 5cbb
00000180: 60be 423d 5dc3 99be 0e31 debe 7170 f43d
00000190: f39f 96bc 2337 b93e 2d12 983d 626a 913e
000001a0: 2cc5 83bd 23ff ea3c 5a63 1abe c880 8ebd
000001b0: d7c5 9cbc f87b 9dbd a7f7 783e 3835 31be
000001c0: 4cbf e93d 23c3 21be f345 df3c 4012 8c3e
000001d0: dce7 813d 3f3f afbd 79b1 a03e a902 2c3e
000001e0: a491 86be d50a b0be 474d 00bf a0fa 8ebd
000001f0: ba73 69bd e5ca 18bf cb75 62bc 20d3 65be
00000200: 813d 7cbd bbb3 96be 376b 0c3e 9e79 673e
00000210: ac09 46be db5b 6dbe ef4b ae3e 3416 e5bd
00000220: ae17 173d a36d fabd 2754 373d 76f2 b63e
00000230: e824 183d 773f 123e 6a3b 3b3e d3a4 b6be
00000240: 8092 90be ded9 c6be 8efe a5bd c3c2 2bbc
00000250: 64af b2be 2cb7 45bd f4ed 2c3c 2c5b d13d
00000260: 2f57 1ebc 44c2 e03d 550b 6f3e 66c2 1abb
00000270: d029 f63d e323 433d ce03 bc3e c03e e6bc
00000280: 7892 b03d 415c f13d 011b b5be 3a87 c5be
00000290: aeea 87be 1761 44bd 6ec9 3bbe 3400 ebbc
000002a0: 99f6 d3be 9a56 36be 9b20 193e 77ea 8a3e
000002b0: 9e15 d5bd 7b70 803e 8886 903e 61f3 b33e
000002c0: 0991 093e 1cd5 613e da6e 07bd 32bd 983e
000002d0: 541d dfbe 094f 27bf eda4 d8be 5fc7 93be
000002e0: 9048 37bf 26bf c0be 70fb f6be 3fbe 4fbf
000002f0: 1e22 b0be ef9f 6bbe 2cf4 873d 7513 dabe
00000300: f5e5 06bd 12f6 9dbd 11a6 80be 0d33 debe
00000310: 7465 47be 3ac1 9fbe c503 c0bd 6b0b 5dbe
00000320: a758 0fbf 272d e7be c272 f8be ca7b 46bf
00000330: cc2e 1dbf fcbd 23bf c1c8 cdbe b324 0bbf
00000340: 089c 1ebf 0634 2abf 1a94 893d c182 923e
00000350: 409c 5a3d 3a8e 043d 021a 853e 0426 f73d
00000360: 9875 3dbd 8e09 bb3d 890f 14be 08b5 1f39
00000370: 0c92 0b3e d36c edbd e917 de3d d43b 8e3d
00000380: 4c67 d8bd e2a3 c0bc 922e f7bd 06d0 e73e
00000390: a5fa 1dbe 9c29 0a3e a2b8 78be a854 60be
000003a0: 9996 8cbe 0544 193e 748b 40be cc54 8c3e
000003b0: 14d9 8a3e 4fc2 f73d f195 583e 1f6d b3be
000003c0: 707c 3d3c c7c4 35bc 8b69 b43e 8b6f a43e
000003d0: f1eb 91bd 49bb 553d 99f8 28be 82e2 8dbc
000003e0: 3ebd 693d b5fe 0b3d ae55 703e 8d8e d63b
000003f0: 09ba 9d3c 384e 533e eade b83d 0d2d a93e
