mcspace/paper/semi_synthetic/base_run/Mouse/model.pt (torch, 139019 bytes, 29 tensors)

theta_params f4 [25, 69]
00000000: 14e7 81c0 d9d3 7ec0 2c36 9ec0 f65c acc0
00000010: 626a a2c0 d518 6bc0 676f a5c0 1f28 a5c0
00000020: 7938 b5c0 7993 b5c0 bc82 91c0 2190 96c0
00000030: f400 98c0 66bc 09c0 6487 2e40 4ecf b5c0
00000040: f4b0 9ec0 a55e 91c0 001e a6c0 d185 c040
00000050: 7653 8fc0 2269 82c0 e6f3 7fc0 1eb6 9dc0
00000060: d7b7 bec0 b0a4 8cc0 a57d 8dc0 e0d3 97c0
00000070: 3da6 cec0 788a 83c0 3158 84c0 ad7b 80c0
00000080: 549e 43c0 1d7a 65c0 9c84 a9c0 8a9c 3bc0
00000090: 348c 8cc0 c939 a2c0 ce11 a4c0 1a2c 9ac0
000000a0: 11a0 b3c0 b0bd 75c0 0fe6 b0c0 0eea 82c0
000000b0: bb85 5bc0 9d0f 94c0 cf59 b1c0 beb1 3cc0
000000c0: 2837 8cc0 169e b9bf c6eb 9dc0 ce39 09c0
000000d0: 75df a3c0 2a04 ec3f db2c 8ac0 2738 9cc0
000000e0: 4310 81c0 69c2 9dc0 3b6d e7c0 e0c4 91c0
000000f0: bf43 4dc0 fc8a 70c0 269a 9ac0 e3f2 8fc0
00000100: dd8f 95c0 94ee 8ac0 0030 b3c0 b48f d83f
00000110: c2a7 4440 3ba0 9dc0 8b2b 86c0 2e35 e6c0
00000120: 2644 cbc0 1042 a8c0 04e7 c6c0 a889 f1c0
00000130: baaa b0c0 0291 9ec0 66e4 bcc0 483c 82c0
00000140: 04bf b940 abc0 cbc0 7242 cbc0 cbb4 a0c0
00000150: 75bc c6c0 ae95 95c0 143c b6c0 af3c a5c0
00000160: bb37 2140 95f8 b0c0 6821 b1c0 6ca6 72c0
00000170: 044c 23c0 5aa2 a9c0 3478 b9c0 beb9 9bc0
00000180: 553d f4c0 8bf3 c0c0 4d7c 4ec0 15e1 95c0
00000190: 68b8 a3c0 3060 a8c0 4f27 7ec0 4fea 81c0
000001a0: f58c 62c0 4fef a0c0 56b5 8fc0 e264 82c0
000001b0: 6a5e 93c0 5888 b1c0 d209 a0c0 296e cdc0
000001c0: db81 b8c0 8e36 adc0 5e5c 85c0 bbf0 8f40
000001d0: bb42 7940 4a6c adc0 3332 afc0 2f3e 44c0
000001e0: d7f8 90c0 6856 adc0 c30e 6c40 3f5d adc0
000001f0: 30d7 c8c0 ccb8 c8c0 9597 88c0 be8a ebc0
00000200: 02a5 63c0 6af6 d8c0 d210 b9c0 7849 d0c0
00000210: 767f 90c0 8a32 99c0 027d aec0 877a bdc0
00000220: c2b4 9c3f 3fcf cdc0 2ac8 afc0 9548 72c0
00000230: 97fc b43f 60bb 81c0 5907 aec0 0a47 b5c0
00000240: d442 e73f a2ee a7c0 c4c9 5ac0 72f4 70c0
00000250: 2297 b5c0 3bd2 c3c0 0f0d 303f 14b5 96c0
00000260: e917 8ac0 7e70 033e 8338 ff3f 3bfd 87c0
00000270: 3066 a7c0 ddb5 0640 b9c1 60c0 f60f 9fc0
00000280: fafe 9fc0 ee8e 97c0 4dbe 2940 3f54 4ec0
00000290: 84e5 72c0 fa16 96c0 9d3d a9c0 aa3f 78c0
000002a0: 030f 76c0 4149 91c0 69ba a1c0 8d4d b5c0
000002b0: 7388 80c0 4d29 92c0 adf9 90c0 51b1 a1c0
000002c0: f9e5 12c0 7699 58c0 6184 9bc0 2ad2 a1c0
000002d0: c4f9 8dc0 6643 adc0 fbda d43f b5bd 5cc0
000002e0: c87a 5ac0 7bb8 4ac0 c9bd 6fc0 fdc0 aec0
000002f0: b67c bc40 e4a7 75c0 0071 b5c0 000f 6d3f
00000300: 18e4 9ac0 5e4b acc0 ae37 77c0 9f01 a5c0
00000310: 82b4 663f c360 57c0 cab8 8bc0 4c1d b5c0
00000320: 108a 64c0 d4ca 94c0 9cda 91c0 caa1 8cc0
00000330: 432d 78c0 63d0 8cc0 53e4 65c0 ff54 a9c0
00000340: d653 a6c0 afa8 b9c0 6ea3 2cc0 47a1 bfc0
00000350: 7785 a6c0 6063 9fc0 b6b1 bcc0 4d51 97c0
00000360: daa0 5bc0 7260 4ec0 5ce0 53c0 685c 9cc0
00000370: 8054 60c0 ca20 44c0 eae3 3f40 276a 89c0
00000380: 9e5c 27c0 55f8 bac0 58b8 83c0 d130 64c0
00000390: 3d2b 8ec0 97ec bec0 027f 57c0 87e2 a2c0
000003a0: b26a 97c0 0d06 19c0 e94d b1c0 da79 89c0
000003b0: 74a2 80c0 9e34 8fc0 17b8 cc40 d28d 8bc0
000003c0: f706 68c0 d98a b3c0 4199 84c0 eb81 abc0
000003d0: b595 81c0 8cc9 f7bf 363b 89c0 5d5e 85c0
000003e0: e07b 28c0 9eeb 39c0 48cf 2dc0 e021 7bc0
000003f0: cb0f 9fc0 0685 b8c0 878f 9bc0 4c60 abc0
-4.059458 -3.9816802 -4.944113 -5.386348 -5.075486 -3.6733906 -5.169849 -5.1611476
-5.6631436 -5.674252 -4.547209 -4.705094 -4.7501163 -2.152124 2.7270136 -5.6815557
-4.9591007 -4.5428033 -5.191162 6.016335 -4.478938 -4.0753336 -3.9992614 -4.928481
-5.9599414 -4.3951035 -4.4215875 -4.7446136 -6.4577928 -4.110653 -4.1357656 -4.015097
-3.0565386 -3.5855782 -5.2974377 -2.9314294 -4.3921146 -5.069554 -5.1271734 -4.8178835
-5.6132894 -3.8397026 -5.5280833 -4.091071 -3.4300373 -4.626906 -5.542213 -2.9483485
-4.381733 -1.4501369 -4.935031 -2.144153 -5.1210275 1.8438771 -4.3179755 -4.8818545
-4.033235 -4.9299817 -7.232084 -4.5552826 -3.20726 -3.758483 -4.831317 -4.4983993
-4.6738114 -4.3416233 -5.5996094 1.6918855 3.0727391 -4.9258094 -4.1928153 -7.1939917
-6.352069 -5.2580643 -6.2157 -7.5480537 -5.5208406 -4.955201 -5.9028807 -4.0698586
5.8045673 -6.367269 -6.351861 -5.0220695 -6.210505 -4.6745214 -5.6948338 -5.1636577
2.5190265 -5.5303445 -5.535328 -3.7914076 -2.5515146 -5.3010683 -5.795923 -4.8664236
-7.632487 -6.0297294 -3.2263367 -4.683726 -5.1162605 -5.2617416 -3.9711492 -4.059852
-3.5398533 -5.0292125 -4.4908857 -4.074815 -4.605275 -5.5478935 -5.001199 -6.4196973
-5.7658515 -5.4129095 -4.1675253 4.498136 3.894698 -5.419469 -5.474878 -3.0662954
-4.530376 -5.4167976 3.688401 -5.4176326 -6.276268 -6.272558 -4.2685037 -7.3606863
-3.5569463 -6.78008 -5.7833033 -6.5089684 -4.515559 -4.7874193 -5.4527597 -5.921207
1.2242663 -6.4315486 -5.493184 -3.78568 1.4139584 -4.054123 -5.438397 -5.6649218
1.8067269 -5.24788 -3.4185648 -3.7649198 -5.674699 -6.119413 0.68769926 -4.7096043
-4.3154187 0.12835881 1.9939121 -4.249662 -5.231224 2.10485 -3.511824 -4.9706984
-4.999875 -4.7361975 2.65224 -3.223892 -3.7952585 -4.6903048 -5.288771 -3.8788857
-3.8446662 -4.540192 -5.054005 -5.6657166 -4.0166564 -4.5675416 -4.530478 -5.052895
-2.2952864 -3.3843665 -4.8599095 -5.056905 -4.436739 -5.4144773 1.6629328 -3.4490788
-3.413744 -3.1675098 -3.7459586 -5.461058 5.8902235 -3.8383722 -5.670044 0.92601013
-4.8403435 -5.3842 -3.8627734 -5.156448 0.90119183 -3.3652809 -4.3663073 -5.6598263
-3.5709267 -4.6497593 -4.5579357 -4.3947496 -3.8777626 -4.400438 -3.5920608 -5.2916255
-5.197734 -5.8018413 -2.697475 -5.988437 -5.203792 -4.9808807 -5.896693 -4.7286744
-3.4316926 -3.2246366 -3.3105688 -4.88628 -3.5051575 -3.0645013 2.9982858 -4.294208
-2.615028 -5.842814 -4.116253 -3.5654795 -4.442778 -5.9663806 -3.367127 -5.0901523
-4.7317743 -2.3909943 -5.5407605 -4.2961245 -4.0198307 -4.475173 6.397472 -4.361062
-3.625425 -5.610699 -4.1437078 -5.359609 -4.049525 -1.9358382 -4.288478 -4.167769
-2.6325607 -2.905006 -2.7157764 -3.9239426 -4.970678 -5.766238 -4.8612704 -5.355505

weight f4 [50, 69]
00000000: 8417 9e3e fca0 5abd b15d 813d 4107 a03d
00000010: 789e 9fbd 7da9 35be a047 92be 236a e73e
00000020: 955f 963e 2558 933e 7292 e33d 8eff b73c
00000030: 2682 40be 9421 9d3e 027b b93e 70a3 7dbe
00000040: 4ff7 98be 291b ed3e a98f 0a3d ce7c 72be
00000050: f145 56be a5f3 9b3e f71e 4ebe 226b 8ebe
00000060: eeb9 83be 5640 6dbe 9853 023e 65e1 9e3e
00000070: 563a 023f 2905 f43e 5e3d 15be 2687 f2bd
00000080: 372b 40bd d993 cf3d 7d1e b53e 149e 9f3e
00000090: 1425 393d a590 bfbd 3a85 d13e 6e11 2dbe
000000a0: f49a f1bd 5faf dc3e 395e 80be 85e4 11be
000000b0: d4c0 a0be d5df fe3e a9b6 a13d 0b62 28be
000000c0: 915b bc3e c9f7 e23e db80 bbbe 42fe a93e
000000d0: 37a5 83bd afc7 bdbe ca16 903d 4345 ba3e
000000e0: 6189 21be 6f4d ed3d 9340 843e d892 f83a
000000f0: 1d96 f33e e8cc 013f 2d26 8a3e 04b1 61be
00000100: f378 1bbe c3a4 a4bd ba68 92be 9af8 36be
00000110: bc05 00be 9333 0e3e e8a4 953b f194 2ebb
00000120: d04d 5f3d f3b5 6abc 1f9e dc3b d8a4 35bd
00000130: 30d6 8c3d e868 543e 2d9c 1d3e d65f d5bc
00000140: 65c4 a6bc 1527 1cbd d3f5 333e 5373 253e
00000150: dc65 14be 6d67 a9bd 9dbd 5b3e de45 873d
00000160: bb93 c7bd c2f9 25be cb56 833e 5c3f 6bbd
00000170: 31bd 50bd 99ba fabc 1f33 d8bc b0a8 f33c
00000180: eceb 743e 5e7d 743e abcd 413e d420 e1bc
00000190: 4c7e 083b d379 a43b ac12 cb3d 6855 493d
000001a0: 1224 f23d 8739 38bc 44de 72bd 5c38 f53d
000001b0: 9ec7 02bd 6b2e 383c 3fe6 173e 61a7 00be
000001c0: f5a0 d4bc d473 38bc ed62 bc3d cc80 b3bc
000001d0: ed34 aebd 4d62 c13d d128 ae3d 9a65 1fbd
000001e0: c2ab 123e f9a7 be3b 2d1d 54be 3d0e b1bb
000001f0: 9638 4c3e 0bbc a7bc 7e7e 213c 2bcf b73d
00000200: 525f 1fbd d136 b13d 77ae 663e 8106 783d
00000210: cc0e 85bd 53a6 31bd 486f e33c 44a2 a5bd
00000220: 9077 97bd b0d5 d23c 9d22 9cbc dfeb b1bd
00000230: 1c0e 86bd 726c ccbd adc9 d9bd 9734 2b3d
00000240: 2ac5 593d 55f8 bf3d 3d90 d4bd b230 973d
00000250: ee12 99bd fa3a b3bd 73e6 bcbd 0ec6 e83d
00000260: cdd6 0cbd 6ea2 35bd c0de b4bd a0cd a23c
00000270: a480 5fbd 1f6f 18bd 32b1 bdbd c002 d73d
00000280: 2080 ce3d b519 01bd 7908 973d 02fe f93c
00000290: b572 233c 6f1b f23d a24d 4d3e b3af faba
000002a0: b0ba 9fbc d9fd 82bd 141d 60bc bf26 a7bd
000002b0: 0550 973c 0179 e03d af88 94bd 31f7 06be
000002c0: c6a7 183d c72f 463c 5605 f1bb b49f 4c3d
000002d0: 75e0 cbbd f559 36bd 5c55 733d c2a7 f13d
000002e0: 27cc b0bd 4607 e73c 3393 94bd e4b6 c83c
000002f0: 9a99 d9bc ee09 073e 154d 38bd 7adc d5bc
00000300: ea1a 89bc 4088 183e bab9 2e3d 6e4e a0bd
00000310: 4fd5 4ebc 5f0a 02be 7f64 c83d 6278 073e
00000320: 93c8 023c d527 0dbd 2a54 ecbd f0bb a5bd
00000330: b30d f2bd e159 273c 0550 aa3c 73fa 413e
00000340: bebe 71bc 2e5a 173d 834f 7b3d f886 14bd
00000350: 87fd 01be 0c12 20be db5e 623e 5bf2 013e
00000360: 8066 b83e 1613 cb3d 9046 813c a8bb 37be
00000370: dbe6 933e a435 7c3e 32cb e6bd 318b 2ebe
00000380: d3ca 7d3e b857 e03d c6d2 3dbe ff3c 2fbe
00000390: 831b 3c3e c69c 30be da05 67be 9b7a 26be
000003a0: b56c 49be 9dd7 f83d b82b 663e 3508 473e
000003b0: a41f 923e 65e2 b9bd bdd9 7dbd da1f 293a
000003c0: e64e c03d 8e67 8b3e fa81 883e 0080 bb3c
000003d0: 7d01 1dbd 39e4 c93e a3e5 1dbe a197 79bd
000003e0: 2c3e c23e 4c39 2cbe b3fc c7bd cb06 42be
000003f0: a147 7a3e 0f33 713d d970 f6bd 4415 593e
0.30877316 -0.053376183 0.06316698 0.078138836 -0.077938974 -0.17740436 -0.2857027 0.45198163
0.29369798 0.28778186 0.111119166 0.022460725 -0.18799648 0.3068968 0.3622666 -0.24769378
-0.2987618 0.46309784 0.03382841 -0.23680422 -0.20925118 0.30459324 -0.20129 -0.2781611
-0.2572779 -0.23169073 0.12727201 0.31031337 0.50870264 0.47660187 -0.14574191 -0.11842184
-0.046916213 0.101356216 0.35374823 0.31175292 0.045201376 -0.09353761 0.40921956 -0.1690118
-0.11797133 0.43102548 -0.25071886 -0.1424733 -0.31397116 0.49780145 0.07896168 -0.1644365
0.3678861 0.4432967 -0.36621746 0.33201796 -0.064279966 -0.3706641 0.07035597 0.36380967
-0.15775062 0.11587035 0.25830516 0.0018964661 0.47575465 0.5070329 0.2698225 -0.22040182
-0.15182857 -0.08039238 -0.28595525 -0.17868271 -0.12502187 0.13886862 0.0045667775 -0.002663907
0.054517567 -0.014325607 0.0067327167 -0.04434666 0.068767905 0.20743144 0.15391608 -0.026046675
-0.02035732 -0.03812321 0.17574243 0.16157274 -0.14491981 -0.0827168 0.2145905 0.06605123
-0.09744974 -0.16208556 0.25652155 -0.05743347 -0.050961677 -0.030606555 -0.026391564 0.029743522
0.23918122 0.23875949 0.18926112 -0.027481474 0.0020827232 0.0050194054 0.09915671 0.049153715
0.11823286 -0.011244184 -0.059294 0.1197364 -0.03192865 0.011241536 0.14833926 -0.1256385
-0.025955657 -0.011258084 0.09198556 -0.021912001 -0.085061885 0.094425775 0.08503879 -0.038915254
0.14323333 0.0058183637 -0.20714255 -0.0054033087 0.19943461 -0.020475408 0.009856818 0.08975061
-0.038909264 0.086530335 0.2252749 0.060553078 -0.06496963 -0.04337151 0.027763024 -0.0808759
-0.073958516 0.02573666 -0.019059474 -0.08687567 -0.0654566 -0.09981622 -0.1063417 0.0417982
0.053166546 0.093735375 -0.10379074 0.07382335 -0.07474314 -0.08751483 -0.09223642 0.11365901
-0.034384537 -0.04434436 -0.08831549 0.01987344 -0.05456604 -0.03721535 -0.09262313 0.104985714
0.10083032 -0.031518657 0.07374663 0.030516628 0.009976079 0.11821639 0.20049146 -0.0019125849
-0.0194982 -0.06396074 -0.013678808 -0.08161687 0.018470773 0.1096058 -0.07252633 -0.13180234
0.037269376 0.012096352 -0.0073553724 0.049956992 -0.09954921 -0.044519383 0.059407577 0.117995754
-0.08632689 0.02820171 -0.072546385 0.024501272 -0.0265625 0.13187382 -0.044995386 -0.026106108
-0.016736466 0.14895725 0.04265759 -0.07827459 -0.012624099 -0.12699269 0.09784793 0.13229516
0.007982391 -0.034461815 -0.115394905 -0.08092487 -0.11819019 0.0102143 0.02079011 0.18943195
-0.014754949 0.036951236 0.061355125 -0.03626153 -0.1269437 -0.15631884 0.22106497 0.12690108
0.360157 0.0991575 0.015780717 -0.17942679 0.28887066 0.24629837 -0.11269225 -0.17045285
0.24784403 0.10954231 -0.18537435 -0.17113112 0.1836987 -0.17247304 -0.22560826 -0.16257708
-0.19670375 0.121505 0.22477615 0.19436724 0.28539765 -0.090763845 -0.06197523 0.00064515846
0.09390049 0.27227443 0.26661664 0.022888184 -0.038331497 0.39431933 -0.1541963 -0.06093562
0.37938058 -0.16818732 -0.097649954 -0.18947904 0.24441387 0.058886584 -0.12033243 0.21199518

bias f4 [50]
00000000: fcc2 03bf e3e4 75be 8f02 2fbe ad27 3fbe
00000010: 286a 70be 60c6 d5be 1790 4abe edf7 b1be
00000020: 84bc 70be cfdc a0be 82d6 6ebe 3f65 8cbe
00000030: 1530 b1be 8ac4 74be b018 35be e844 85be
00000040: 5862 c1be 2f7e 8dbe 4c61 d1be 8315 b1be
00000050: 1e34 66be 3213 86be be9f 56be 5238 5ebe
00000060: 1240 e7bd fc3d 6fbe d798 98be 7faf fabd
00000070: 8c33 c3be d037 febe 3990 07be 384c 92be
00000080: 2e59 6ebe af7f 07be 3511 b5be 8c52 b1be
00000090: a1ff 67be 3dce b4be fb1b debe d628 45be
000000a0: b3f2 8bbe a7de dbbd 61f2 46be 86f2 b1be
000000b0: 82ff c9be 5e18 e3be 3849 02be d867 96be
000000c0: 149d 85be 1af7 87be
-0.514694 -0.24013095 -0.1709082 -0.18667479 -0.23477995 -0.4175291 -0.19781528 -0.34759465
-0.23509413 -0.31418464 -0.23324016 -0.27420995 -0.34606996 -0.23903099 -0.17685199 -0.26029134
-0.37770343 -0.27635333 -0.40894544 -0.34586725 -0.22480819 -0.2618652 -0.20959374 -0.21701172
-0.11291517 -0.23363489 -0.29804108 -0.122405045 -0.38125265 -0.49651957 -0.1323861 -0.28573775
-0.23276207 -0.13232301 -0.3536469 -0.3463329 -0.22656108 -0.35313597 -0.43380722 -0.19253859
-0.27333602 -0.10735827 -0.19428398 -0.34755343 -0.3945275 -0.44354528 -0.12723243 -0.29376101
-0.26096404 -0.2655571

weight f4 [50, 50]
00000000: 2645 c6bd 0752 fdbd d0f3 38be 7981 2ebd
00000010: ce58 44be 9040 81be 5e1e e9be 10af 7dbd
00000020: d0c5 b2bd 0e7e 12bd 2c85 a2be 8800 16bd
00000030: 05c5 5bbe 2088 39be 4633 b6bd 8a10 a4be
00000040: ba90 acbe 1302 aebd 7d60 85be 8f0d 06be
00000050: 6df3 1dbe 09b5 b9bd d9a0 12be 0420 5fbe
00000060: f5ae 9fbe a98f a3be 40b9 9ebe 8fea a9be
00000070: 02c1 81be 9c8c 5cbc 2e86 83be 4fb0 7ebe
00000080: 2a5b a6be 8302 33bd 6f5e 90bd 8e2f cebc
00000090: ef73 71bd 9d95 86be fa1f 583c 5b62 49be
000000a0: 26fa dabd 71bd 79be 2f7d 90bd 6f43 78be
000000b0: f8d8 edbd 884e febd 0add b5be 7c77 bcbd
000000c0: 4c9d 95be 7db4 5cbe ce4b 37bc 960e adbe
000000d0: 8502 65be d905 42bd 27de 7ebe 79a9 8cbe
000000e0: bfa4 f0be e58d 13be 352a 52be 8b54 83bd
000000f0: 8113 f3bd 61c8 77be b515 46be cdce a2be
00000100: f9fc 10be 0e20 bbbd 8509 71be bc95 27be
00000110: 4585 09be 4984 a8be 315e adbd f3d3 27be
00000120: b008 c1bb 4935 9cbe 314f cdbe 6cc8 a4be
00000130: 5ea9 f4bd 9f24 d5be 6f69 79be a79b 073c
00000140: 6704 89bd 5e98 8fbd 4c61 f8bd d979 86bd
00000150: 553a 6ebe 12c4 05be f949 3cbe cc26 40be
00000160: 9b3f d7bd 2de4 09be 292a 9cbe d97a 96be
00000170: a6eb 53be 711a 5fbe 05a3 76be a529 44be
00000180: 0863 afbe 735b 96be e574 53be 5062 7bbe
00000190: 1398 7dbe ae0f d0bd b915 90be 0467 60bd
000001a0: 6ea0 09be 40f1 11be b720 ebbd ce1b 64be
000001b0: c254 b1bd b751 86bd ad5a 4fbd 1b55 8cbe
000001c0: ab3a fcbd 2518 2abe c032 6dbe 5a69 96bd
000001d0: 0123 43be 50e1 dbbc 3651 36be eefc 39be
000001e0: f270 08be 1a95 e8bd 2eea 19bd 648d 8ebd
000001f0: aaa1 08be 0430 a1be 8eff e2bd 7216 1ebe
00000200: 1e8d 54be 122c 30be 6bf2 9ebc daf4 8dbe
00000210: 9cde 7dbe bbb2 7bbe e1d4 9ebd 8b26 83bd
00000220: ddf6 5dbe 74d9 7cbd 7948 28bd 485b 99bd
00000230: e4e8 98be 7a01 a3be 649b 84be f3d4 3dbe
00000240: 0d0b 75be f6c8 bfbc 6ee7 44be c86b 4abe
00000250: 7304 363b 927b 4cbd 83d5 e1bd 4d52 a7be
00000260: 49aa c2be 25c0 97be 872d bdbe fcbf 3fbc
00000270: 4123 0cbf 2661 93bd 81b0 01be 7b6a 9cbd
00000280: 7324 1cbe b5c4 21bd 192c a6bd 79d3 85be
00000290: df8c 7dbe 9e6b bdbe 5c74 e1bd 429c 5ebe
000002a0: 72b6 f0bd 2dd0 71be fc97 35be d917 45be
000002b0: acbd 57bd 46ec 9dbd b7c6 babe ec80 b8be
000002c0: 6679 00be 67a6 09bf d3c4 9cbd dec0 eabb
000002d0: 383a 4dbe fd3c 87be 65b8 5fbe bb22 98bd
000002e0: d00b 0bbe 4900 74be 9789 4bbe 415b a5be
000002f0: c9f0 06be 9480 a5be 4096 6cbe 6903 87be
00000300: 7ebb e7bc 0e4c 71be fc41 3cbe 7fb8 05be
00000310: 4403 b5be 4f97 92be 4872 92be df2e 54be
00000320: 9815 0dbe ea9d 70be 271a b6be 61e1 c3bd
00000330: 0ece a9be 7a4e 13be dd56 18bf 3ec3 bdbd
00000340: 2dcf 0cbe 3d70 1cbe d7cc cfbe d229 54be
00000350: 5702 9fbe dbc6 d2be a693 0abe 9f81 54be
00000360: 50f3 f6bd f805 08be 44d9 47be 5a9e 32be
00000370: f3bf c1be a792 b2be 9b07 59be e21f 9cbe
00000380: 0d2b a2be aa10 01bf d7b5 c7bd 6c15 04bf
00000390: 2934 3cbe e78b 8bbc 7580 a2be 1323 b1be
000003a0: 36f9 60be bb6e 88be ce01 37be 4211 e2bd
000003b0: b8d0 47be 4d6f 00be 875d 5bbe 9170 2dbe
000003c0: bf8d 90be eadc e2be 9d5d 56be 5989 2cbe
000003d0: bd65 91be 0791 1bbd 7416 d9be 5cee 40be
000003e0: d0f6 77be 8090 84be c725 c6bc 142c 95be
000003f0: 939d c6be aaa2 62be d2a7 e0be 89ac 93bd
-0.09681158 -0.12369161 -0.18061757 -0.042603943 -0.19174501 -0.2524457 -0.4553098 -0.06193453
-0.08729136 -0.035764746 -0.31742227 -0.0366216 -0.21461876 -0.18118334 -0.088964984 -0.32043868
-0.33704168 -0.084964894 -0.26050177 -0.1309111 -0.15424891 -0.09067733 -0.14319171 -0.21789557
-0.3118817 -0.31945542 -0.3100071 -0.33186767 -0.25342566 -0.013461258 -0.25688308 -0.24871944
-0.32491428 -0.043703567 -0.07049262 -0.02516916 -0.058948454 -0.2628602 0.013191218 -0.19666426
-0.10692243 -0.24388672 -0.07055127 -0.24244474 -0.11613649 -0.124173224 -0.35520202 -0.09202477
-0.2922157 -0.21553226 -0.011187507 -0.3380019 -0.22364242 -0.047368858 -0.24889432 -0.27473047
-0.4700069 -0.14409597 -0.20523913 -0.0641261 -0.118689544 -0.24197532 -0.19344218 -0.317984
-0.14159001 -0.09136973 -0.23538788 -0.16365713 -0.13429745 -0.32913426 -0.08465231 -0.16389446
-0.005890928 -0.30509403 -0.4009948 -0.3218416 -0.11946367 -0.41629502 -0.24356626 0.0082768565
-0.06690293 -0.070114836 -0.12127933 -0.06566209 -0.2326444 -0.13063076 -0.18387593 -0.187648
-0.10510179 -0.13465948 -0.30500916 -0.293906 -0.20695361 -0.2178743 -0.24085625 -0.19156511
-0.34255242 -0.29366645 -0.2065006 -0.24549222 -0.24765043 -0.10159241 -0.28141573 -0.054785743
-0.13440105 -0.14252186 -0.11480849 -0.22276232 -0.086587444 -0.065585546 -0.050623585 -0.2740868
-0.123158775 -0.16610773 -0.23163891 -0.07344313 -0.19056322 -0.026840836 -0.17804417 -0.18162891
-0.13324335 -0.11356564 -0.037576847 -0.06960562 -0.1334292 -0.31481946 -0.110838994 -0.1543825
-0.20756957 -0.17204311 -0.019402703 -0.2772587 -0.2479195 -0.24579899 -0.07755447 -0.06403836
-0.21676202 -0.061730817 -0.04108474 -0.07488114 -0.2986518 -0.31837064 -0.25899804 -0.18538265
-0.23929997 -0.023411255 -0.19228908 -0.19767678 0.0027773648 -0.049922533 -0.11027052 -0.32679978
-0.38020542 -0.29638782 -0.36948797 -0.0117034875 -0.54741293 -0.07196264 -0.12664987 -0.07637497
-0.1524828 -0.039494235 -0.0811388 -0.26137903 -0.2476077 -0.36996168 -0.11008522 -0.21739295
-0.11753549 -0.23614569 -0.17733759 -0.19247378 -0.05267112 -0.07711081 -0.36479732 -0.3603586
-0.1254631 -0.53769535 -0.07654729 -0.007164105 -0.2004174 -0.26413718 -0.21847685 -0.07428499
-0.13578725 -0.23828234 -0.19876705 -0.32296184 -0.1317779 -0.3232466 -0.23104191 -0.2636979
-0.028287645 -0.23564169 -0.18384546 -0.13058661 -0.35354054 -0.28631064 -0.28602815 -0.20721005
-0.13777769 -0.2349774 -0.35566828 -0.09564472 -0.3316502 -0.14385405 -0.5950754 -0.09265755
-0.13750906 -0.1527719 -0.40585968 -0.20719078 -0.31056473 -0.4116734 -0.13532886 -0.20752572
-0.12058127 -0.13283527 -0.19516474 -0.17443219 -0.37841758 -0.34877512 -0.21194308 -0.30493075
-0.3167347 -0.5041605 -0.0975148 -0.5159519 -0.18379273 -0.017034484 -0.3173863 -0.34597072
-0.21970066 -0.2664698 -0.17871782 -0.11038448 -0.19513214 -0.12542458 -0.21422397 -0.16937472
-0.28233144 -0.4430917 -0.20934148 -0.16849269 -0.28397933 -0.037980106 -0.42399943 -0.18840927
-0.24215245 -0.25891495 -0.024187936 -0.2913519 -0.38792095 -0.22132364 -0.43878037 -0.07210643

bias f4 [50]
00000000: cc25 92be d149 96be 50d7 3bbe 435f 99be
00000010: a71e ecbe 6b93 f7be 435c 8abe a3b2 f7be
00000020: b4ac e3be 4b94 f8be 781e a6be a874 bebe
00000030: a66a 34be 828d 26be 0475 86be 4a53 fdbe
00000040: 6dce c6be cd55 babd 53ab a1be 9a6a acbe
00000050: 5550 d9bd 5abb aabe 2373 85be 2dab b1be
00000060: 3f05 04bf 7120 67be cd23 b5be e333 8bbe
00000070: faa2 f13c 3a93 d6be 7a8b f1be dffe aebe
00000080: ef3e b6be 816e cebe 42c2 b9be 69bd edbe
00000090: 6496 a5be 6e95 0fbf f36b 80be d2eb 4fbe
000000a0: 85f8 edbe a9bc e7be 81b7 f8be da0d 3abe
000000b0: 5151 f0be 1233 19bf 1961 17bf d2a9 d4be
000000c0: 48ff b3be 5917 f0be
-0.28544462 -0.29353192 -0.18343854 -0.2995549 -0.46117136 -0.48354658 -0.27023515 -0.48378477
-0.444677 -0.4855064 -0.3244512 -0.37198377 -0.17618808 -0.16264918 -0.2626115 -0.49477607
-0.38829365 -0.090983965 -0.31576023 -0.3367508 -0.10611025 -0.33346063 -0.26064405 -0.3470091
-0.51570505 -0.22570969 -0.35378876 -0.27188024 0.029496659 -0.419092 -0.47176725 -0.34178826
-0.3559489 -0.40318683 -0.3628102 -0.4643357 -0.323413 -0.56087387 -0.2508236 -0.20304802
-0.46478668 -0.45261124 -0.48577502 -0.18169346 -0.4693704 -0.5984355 -0.59132534 -0.41535813
-0.35155702 -0.46892813

weight f4 [25, 50]
00000000: 934b fdbd 250d e73c 6e78 b9bd 6349 05be
00000010: edbb 55bd 7a15 2dbe a04a b4bd e056 21bd
00000020: aa14 893c cbad 1bbd 3ab4 a53d 71ba bcbd
00000030: 8150 1dbd cf1b c5bd 37bd 5bbd e16b 733d
00000040: 4d25 9e3c b4be cdbd 93b4 ccbd b965 aabd
00000050: 1a18 07be c103 923c b17f 913d 7068 3fbd
00000060: 9f2f c1bd 33cb 753d fa65 c8bd 92f4 73bd
00000070: 1ef5 ecbd 625b 193d d4ef 83bc b06c 0dbe
00000080: 86ef 6f3d 7830 54bb 5e88 4a3c 02e2 9b3d
00000090: ed6d b4bc 5750 bbbd 00dc 91bd 032d 953c
000000a0: 9931 cebd 6863 5e3d 40b8 bfbd f1ad 163d
000000b0: e771 86bd f8b8 4d3d 114d d6bd fa08 94bb
000000c0: e633 533d ec47 7ebc 1f98 a8bd 56fc 08be
000000d0: 5477 aabd 17d1 87bc 2754 533d 4bfe 0ebe
000000e0: 3867 0cbe ff74 15be 559f 76bd d946 cfbd
000000f0: bc48 34bc 8532 f7bd 8258 f1bd 4057 b13c
00000100: c8d8 f9bd b1c4 22be 5a21 1bbd 114a 54be
00000110: 6c26 bbbd 57c6 26be 0348 43be 4834 61bd
00000120: 08d3 003b b8f9 b4bd b292 2ebe d02e 22be
00000130: c040 a3bd ce3b cabc e6a3 fcbd c0de 29bc
00000140: 8c8a 0ebd 1cc1 3f3d 61d7 b6bc 44af 8ebd
00000150: d63f f5bd fb0e 8abd 1cfd 483d 2b9f 0bbc
00000160: 071c 2bbe e52e b23c 1dad e93b e106 05be
00000170: 7006 1dbd adc1 02bd f508 b1bc 033a 9fbd
00000180: 1d8d 59bd 815e a23c 8298 53bd bfe0 e8bd
00000190: 7cfd ea3d c1c4 0c3e 481d 953d 934f 62bd
000001a0: 6bce 72bc d9af 31bd e6a3 843d d474 55bd
000001b0: 9d23 2d3c 5814 ac3d ec90 193d dbc6 cf3d
000001c0: 4532 383e 4649 053e c1e4 323e 962d 043d
000001d0: 11ed ef3d aa86 dc3d 9ad3 41bd 2f27 5ebc
000001e0: 72b2 3e3e 6fcc c43d fd37 c53d bb9b e23d
000001f0: ea31 cb3c a0b1 363d 0896 ea3d 7125 4d3d
00000200: 5e4e 453e d63b af3c dc43 163e 686a 0e3e
00000210: a7b8 c03b a563 053e 3af8 d03d 1565 9c3d
00000220: a100 2ebc 63d3 0fbd 4874 133e fff2 003e
00000230: 53da 1f3c e9f5 ef3d 08ee ac3d aff8 d33d
00000240: ad07 dcbb 0bb5 4dbc 7e2f d93d 7a68 713d
00000250: 3d79 8d3d ad4a 3fbc 041f b8bd 891c 9a3d
00000260: daac f4b8 5979 eebc 923a 843d f1bd eabd
00000270: 6f69 d6bd 67a5 353b b119 0ebe b4f8 7c3d
00000280: f3b3 543d 8cdb 69bd 3619 35be 53ca 083c
00000290: 3221 e4bd 030c 54bd 101b b93c 70ec 2bbe
000002a0: 87c9 853d 1fe2 42bd b567 23be 4df1 8fbd
000002b0: 1db4 23be be87 493d 5dca d13c cce6 1abd
000002c0: 0778 18be 84c0 0ebd c398 89bd cdb5 413d
000002d0: 29d7 cfbd e5b1 9b3c 6b2a 943b 7d8c bebd
000002e0: 8c2f abbc 9d00 3d3d cc2e d0bc b05b 93bd
000002f0: 9a00 a4bc 3bc4 fdbc f6b4 b3bd 21b3 33bd
00000300: ca89 473d 4294 853d ec81 cfbd c553 833d
00000310: d41f bf3d dc96 293d 0493 6e3c 1ded 03be
00000320: 429c 5dbc 3428 a5bc 3b7d b23d 8c04 133d
00000330: 84a0 7bbd 8a01 a1bd 243d a6bd 7c59 4fbd
00000340: 5112 e2bc 7b02 c6bc 8cfb f83d 713a 0ebd
00000350: 67b7 bc3d d1a4 47bb 9e86 18bd 50d6 ffbc
00000360: 3386 91bc 9101 85bd d970 8bbd aeb3 ac3c
00000370: f3d2 52bd 4d35 1abb d879 43bc 241d 56bd
00000380: 3f68 fe3c 1e0b 5bbd 69b5 b8bc cdd6 cc3d
00000390: c891 b03d e2c0 303d 9028 573d f2ba e23d
000003a0: eb4b e63d f862 9dbc 7b69 3c3d 137f abba
000003b0: 4967 51bd 284c fb3d cc46 b93d 6cf9 153d
000003c0: df6a d43d 933f 673d a47d f03d 0453 873d
000003d0: 235b 4c3d d604 7f3d 3db2 d33d ff5f f63d
000003e0: 1a2d 7c3d 6e78 8abd 291f 843d acea 263e
000003f0: 2221 d53d d691 a83d 2c9a 97bc 812f 033e
-0.1236793 0.02820451 -0.09056173 -0.13016276 -0.052181173 -0.16902724 -0.08803296 -0.03938949
0.016733486 -0.03800754 0.08091016 -0.092152484 -0.038406853 -0.09624445 -0.053647246 0.059429053
0.019304896 -0.10046139 -0.09995379 -0.08320183 -0.13192788 0.017824056 0.07104433 -0.04673046
-0.09432911 0.06000824 -0.097850755 -0.059559412 -0.1157019 0.037440665 -0.01610557 -0.13810992
0.058578037 -0.0032377522 0.012361614 0.07611467 -0.022025073 -0.09146183 -0.0712204 0.01820994
-0.10068054 0.05429402 -0.09361315 0.036786977 -0.06564694 0.050225228 -0.10463918 -0.0045176717
0.051563166 -0.015520077 -0.0823214 -0.13377509 -0.08323541 -0.016579194 0.051593926 -0.13964193
-0.1371125 -0.14595412 -0.060210545 -0.10120935 -0.011003669 -0.12070183 -0.1178446 0.02164805
-0.12199551 -0.15895344 -0.037873603 -0.20731379 -0.09138188 -0.16286598 -0.19070439 -0.0549815
0.0019657034 -0.088366926 -0.17048147 -0.1583817 -0.079713345 -0.02468672 -0.12335949 -0.010368049
-0.034800097 0.046815023 -0.022319498 -0.06967023 -0.11975066 -0.067411385 0.04906951 -0.008521835
-0.1670991 0.021750877 0.0071312324 -0.12990905 -0.038336217 -0.031922985 -0.021610716 -0.07774737
-0.05311309 0.019820454 -0.051659115 -0.11370992 0.114741296 0.1374693 0.072809756 -0.05525167
-0.014819722 -0.043380592 0.06476574 -0.05211337 0.010567573 0.08402318 0.037491724 0.101453505
0.17987926 0.13016233 0.17470075 0.032270037 0.11715139 0.10767873 -0.04732094 -0.013559147
0.18622759 0.09609305 0.096298195 0.110648595 0.024804074 0.04460299 0.114543974 0.050084535
0.19268176 0.021390837 0.14674324 0.13907778 0.0058813873 0.13026293 0.102035955 0.07636467
-0.010620267 -0.035113703 0.14399827 0.12592696 0.009756642 0.117168255 0.08443838 0.10350167
-0.006714782 -0.012555371 0.106047615 0.058937527 0.0690789 -0.011675519 -0.08990291 0.07524974
-0.00011667023 -0.029110597 0.06456484 -0.1146201 -0.104693286 0.0027716996 -0.13876988 0.06176062
0.051929425 -0.05709414 -0.17685398 0.008349019 -0.11139144 -0.051769268 0.022595912 -0.16789412
0.06532579 -0.047578927 -0.1595753 -0.07028446 -0.15986677 0.04920172 0.02560919 -0.03781776
-0.14889537 -0.034851566 -0.0671859 0.04729252 -0.101484604 0.019005725 0.004521658 -0.0930414
-0.020896696 0.046143163 -0.02541294 -0.071952224 -0.020019818 -0.030977359 -0.0877475 -0.043872003
0.04871539 0.065224186 -0.101322025 0.06412462 0.093322426 0.041403636 0.014561418 -0.1288342
-0.013526024 -0.020160772 0.08715292 0.035893008 -0.061432377 -0.07861622 -0.081171304 -0.05062245
-0.027596625 -0.024171105 0.12157354 -0.034723703 0.09214669 -0.0030463228 -0.037237756 -0.031230122
-0.017764186 -0.064944394 -0.06808633 0.021081772 -0.051470708 -0.0023530305 -0.011930905 -0.052273884
0.031055568 -0.0534774 -0.02254744 0.100019075 0.086215556 0.043152697 0.052528918 0.11070813
0.11244949 -0.019212231 0.04599903 -0.0013084136 -0.05112389 0.12270385 0.090467066 0.03661482
0.103719465 0.056457113 0.11742714 0.06607631 0.049891602 0.06226047 0.10336731 0.120300286
0.06156645 -0.067612514 0.06451256 0.16300458 0.1040671 0.08230941 -0.018506132 0.1281109

bias f4 [25]
00000000: 8d93 e3bd 7e11 b6bd 594e 003e a97d 74be
00000010: 796a 1abe dc44 45bd e393 1dbe c04b f53e
00000020: babb 023e 33fd abbd 7a9d 28be 5ba7 923d
00000030: d9bc 46be 9b84 55bd 414e 7bbe 222f 8b3d
00000040: fdf3 54bd e7fe 7a3e 1f08 26bd ee10 213d
00000050: 6bda b3bc 0149 25bd 9eb0 703d 7cf2 b9bd
00000060: 5509 47be
-0.111121275 -0.08890055 0.12529887 -0.2387606 -0.15079679 -0.048161373 -0.15388446 0.47909355
0.12766925 -0.08397903 -0.16466323 0.07160827 -0.19407977 -0.052128416 -0.2454157 0.06796099
-0.051990498 0.245113 -0.04053509 0.039322786 -0.021954736 -0.040352825 0.058762185 -0.09079453
-0.19437154

weight f4 [25, 50]
00000000: e9a1 9fbe 77cf 5fbe 8295 0abe d415 dfbd
00000010: 82bc 65bc 9d72 3bbe 5308 9abe 8599 f7bd
00000020: d396 80be 4b7c c2bd 3a29 88bd 75e3 00be
00000030: c28f 52be 77d7 99be 3553 32be b1d1 95be
00000040: 23fb 20be 490b 9bbe 40f9 73be 5940 08be
00000050: 7498 64be b740 3cbe 300f 83bd cca9 23be
00000060: 0b27 98be c47c 21be 6e98 57be 8347 40be
00000070: 1805 c5be 23cd dfbd fe59 22be cc5a 8bbe
00000080: 5f8d acbe 6792 86be f3d1 0ebe f731 6bbe
00000090: 4345 41be d453 1ebe d3d7 c6be 5ee0 9abe
000000a0: f132 89be 14c2 0ebe f93b ecbc c95e 2cbe
000000b0: 6636 21be 6adf 03bd 5832 15be a91f 05be
000000c0: b59d a0be b966 fdbd 12fa 8bbc 3acf 54bc
000000d0: 81a4 8abe 6fb2 bfbc 8ae9 b8bc dbbb ea3c
000000e0: 88f6 dbbd b66a 063d d9f4 f2bd 7c02 cebc
000000f0: 9059 28bc 785d 67be 316f 7bbe f97a 94be
00000100: 76a4 a2be da15 153d 18a3 83be 5837 9fbe
00000110: d98f d3bd 9362 a03d ba91 18be 8efe 01be
00000120: 65dc ebbd 9c3e f2bd 166e febd 0b16 5cbe
00000130: 5bb4 2bbe 7838 36be ed6e bdbe 7c1b 72be
00000140: 221a 8dbd 04a4 943d 3155 9abd 2417 0abe
00000150: adbd 25be 393c 19be b4e4 15be 01a6 9fbd
00000160: 5249 2fbe e460 23be d735 443a 2e4f 553d
00000170: ccba dfbd 8b10 53be 564e 00be c30d ac3d
00000180: 55cc 26be 407e bfbd 4330 25bd 5c93 9fbd
00000190: f65f a0bd dcb7 57be 496b 67be e936 c5bd
000001a0: 5f4d 84be 0e67 febc d76b abbe fa68 e4bd
000001b0: 8972 97be 43de 8fbe 3f94 a4bd 75a0 9bbe
000001c0: b103 19bf 04c2 72be 7aca aebe 0225 35be
000001d0: 3f0a 4abe 584a bfbe ebbc 3bbd d1c3 19be
000001e0: f42d 16bf 0984 e8bd f3e9 82be d22a a7bd
000001f0: bdb6 31be db61 6abe a078 91be 3c96 cfbe
00000200: 82bc 21bf 4544 5bbe 9e96 4fbe 6682 87be
00000210: b2dc e1bd 98b9 59be dda7 0bbe 969c d1bd
00000220: 789d 33be cc07 bbbc 8cb6 e6be d942 b0be
00000230: 83e2 8cbd 1d00 1abd 32e7 4bbe 0357 87be
00000240: ea7b 11be 583f 29bd a966 53be aca5 a4bd
00000250: 31d1 3cbe 0cce 17be 719f 60be 7896 d8bd
00000260: 2d88 6fbe 4651 8ebd fdc3 3cbe d661 3cbd
00000270: 04ee 95bd 0d90 4ebe 8d3e 82bd a952 babd
00000280: 5334 e9bd 360a 97be d695 7bbe 8e00 afbe
00000290: 5dd3 3abe 1005 6fbe 11e8 99be 8612 9cbe
000002a0: 5a9e 61bd c054 87be 9664 92be 0f7d 00be
000002b0: 596f 50be 6fab 16be 1093 343b 8fb0 95be
000002c0: 04c6 53be 83ff 27be cb08 ecbe c332 13be
000002d0: 2d7c 04be 2487 b7bd f332 b3bd c05b a1bd
000002e0: 687f c6bd 4771 f73c 6bbb 1fbe 8b29 84bd
000002f0: 9809 aabe 6666 a9be daf0 13be 59bb d3bd
00000300: c3d9 33be ad58 88be e788 99be 7186 a5bd
00000310: 3244 f03b db0d 2dbe 7956 91bd 830f 72be
00000320: 4cb9 babe c7c7 ddbd 7cb0 7fbe 9397 aabe
00000330: d3cc 8cbe 5b71 83be 45a1 bfbe 1e94 2dbe
00000340: 4181 87be 56d1 07be be19 05be 9efc 33be
00000350: a8b6 febe c47a 69be ee6c c2be be75 91be
00000360: 5419 4cbe 5300 fdbe 7c19 82be e7d9 23be
00000370: 93b0 ddbe 5556 09be 830c f9bd 9216 98be
00000380: 38ea 5dbe c3c6 c8be 2f55 2ebe 6fcf 9dbe
00000390: 023c bdbe e556 96be 48fa 07be 1dda 60be
000003a0: 454d b8be df4f d4be 08ea 95be f31a 67be
000003b0: 1e01 82be 45e7 7fbe abcc ccbe 8c5b 89be
000003c0: d40a 2dbe 30f3 8cbe c779 8cbe 3998 91be
000003d0: 7bf7 29be 1d47 67be 17e1 8abe 0600 13be
000003e0: 52a8 68be 303c 21be 35f8 94be ff30 93be
000003f0: 9760 67be 8d4d cfbd c7cc cebd e80d 0fbe
-0.31178215 -0.21856485 -0.13533595 -0.10892835 -0.014021995 -0.1830544 -0.30084476 -0.120898284
-0.2511507 -0.09496363 -0.06648488 -0.12586768 -0.20562652 -0.300472 -0.17414553 -0.29261544
-0.15720801 -0.30282047 -0.2382555 -0.13305797 -0.22323781 -0.18384062 -0.06399381 -0.15982741
-0.29717287 -0.1577025 -0.21054241 -0.1877728 -0.3848045 -0.109277986 -0.15854642 -0.2721771
-0.33701608 -0.2628357 -0.13947277 -0.22968279 -0.18874077 -0.15461665 -0.38836536 -0.30249304
-0.26796678 -0.13941222 -0.028837191 -0.16833033 -0.15743408 -0.032195486 -0.14569986 -0.13000359
-0.3137032 -0.123731084 -0.017087016 -0.01298886 -0.27078632 -0.023400513 -0.022572298 0.02865403
-0.107403815 0.03281661 -0.11863107 -0.025147669 -0.01027526 -0.22594249 -0.24554135 -0.2900007
-0.317661 0.036397792 -0.25710368 -0.3109691 -0.10330171 0.078313015 -0.1489934 -0.12694761
-0.11516646 -0.11828348 -0.12423341 -0.21492784 -0.16768019 -0.17794979 -0.36998692 -0.23643297
-0.0688975 0.07257846 -0.0753578 -0.1348539 -0.16185637 -0.1496438 -0.14638025 -0.077953346
-0.17117813 -0.1595493 0.00074848294 0.052077465 -0.109243006 -0.2061178 -0.12529883 0.08401062
-0.16288884 -0.09350252 -0.04032923 -0.077917784 -0.07830803 -0.2106623 -0.2259952 -0.09629614
-0.2584028 -0.031055 -0.33480713 -0.11152835 -0.2957957 -0.2809926 -0.08036088 -0.30395856
-0.5977126 -0.23706824 -0.34138852 -0.17689899 -0.19730471 -0.37361407 -0.045834463 -0.15016104
-0.5866387 -0.11353309 -0.25569114 -0.08162464 -0.17354865 -0.22888891 -0.28412342 -0.40544307
-0.63178265 -0.21412762 -0.202723 -0.26466674 -0.110284224 -0.21262205 -0.13638254 -0.102349445
-0.17540538 -0.022830866 -0.45061147 -0.34426 -0.06879141 -0.037597764 -0.19912413 -0.26433572
-0.14207426 -0.041320175 -0.2064463 -0.08039412 -0.18439175 -0.14824694 -0.21935822 -0.10575575
-0.2339179 -0.069490954 -0.18434139 -0.04599174 -0.073207885 -0.20172139 -0.06359587 -0.090977974
-0.11386933 -0.29499978 -0.24568877 -0.3418011 -0.18244691 -0.23341775 -0.30059865 -0.30482882
-0.055082656 -0.26431847 -0.28592366 -0.12547706 -0.20354976 -0.14713834 0.0027553476 -0.29236266
-0.20681006 -0.16406064 -0.46100459 -0.14374833 -0.12937994 -0.08961323 -0.08749952 -0.07878828
-0.096922696 0.030205382 -0.15598838 -0.06453236 -0.33210444 -0.33085936 -0.14447346 -0.10338468
-0.17563538 -0.26630154 -0.2998726 -0.08082283 0.0073323483 -0.16899817 -0.070965715 -0.2363873
-0.36469495 -0.1082912 -0.24969667 -0.33318767 -0.27500018 -0.2567242 -0.37427726 -0.16951033
-0.264658 -0.13263449 -0.12998101 -0.17576835 -0.4974873 -0.22800738 -0.37973732 -0.28410143
-0.19931537 -0.4941431 -0.25410068 -0.16001092 -0.43298778 -0.1341184 -0.121605895 -0.2970472
-0.21671379 -0.39214143 -0.17024682 -0.30822322 -0.36959845 -0.2936317 -0.13279068 -0.21958204
-0.35996452 -0.41467187 -0.29280114 -0.22568874 -0.25391477 -0.24990566 -0.399999 -0.26827657
-0.16898662 -0.27529287 -0.2743666 -0.2843645 -0.16598313 -0.22585721 -0.27124855 -0.14355478
-0.22720459 -0.15745616 -0.29095617 -0.2874832 -0.2259544 -0.101222135 -0.10097652 -0.13970149

bias f4 [25]
00000000: e82c 8abe 997a 27be 95c6 1abf d617 ecbe
00000010: 8850 ddbe 09d4 08bf 5b00 9ebe a040 37bf
00000020: 0de3 24bf c49a edbe db4b c6be 67c3 15bf
00000030: c6a2 bcbe 16f9 b1be 905a b9be 4567 1ebf
00000040: b538 09bf 53f0 2cbf 85dd 03bf aa77 00bf
00000050: 64c6 08bf a9e9 d0be a8af 20bf 359e a5be
00000060: f9d0 8fbe
-0.26987386 -0.16355361 -0.6045926 -0.46111935 -0.43225503 -0.5344854 -0.30859646 -0.71582985
-0.6440895 -0.4640714 -0.38729748 -0.58501285 -0.36842936 -0.3476035 -0.36201906 -0.61876327
-0.53602153 -0.67554206 -0.51509887 -0.5018259 -0.5342772 -0.4080327 -0.6276803 -0.32347265
-0.2808912

eps f4 [25, 1, 1]
00000000: 2f31 0b3f 4fd9 553f 4059 fc3e 7d3f 99bf
00000010: 65fc 2cbe e249 f63f 8f61 bd3e b8b7 afbe
00000020: 7276 473e 3e8e 203f 42c8 ce3f bdf3 84be
00000030: 0580 8d3f 46fa 5b3f ee19 d1be 2293 853c
00000040: 4347 1bbf d546 9bbf 199a 89bf 7f8e 113e
00000050: 434f c3bf e7cd 6d3e cf91 0d3f 77f5 dd3f
00000060: 1915 693f
0.54371923 0.8353471 0.49286842 -1.19725 -0.16893156 1.9241297 0.36988494 -0.34319854
0.19478777 0.62717044 1.6154864 -0.25967208 1.1054693 0.8592876 -0.40840095 0.01630551
-0.6065561 -1.2130991 -1.0750152 0.14214514 -1.5258564 0.23223077 0.5530061 1.7340535
0.9104782

gamma_ones f4 [25]
00000000: 0000 803f 0000 803f 0000 803f 0000 803f
00000010: 0000 803f 0000 803f 0000 803f 0000 803f
00000020: 0000 803f 0000 803f 0000 803f 0000 803f
00000030: 0000 803f 0000 803f 0000 803f 0000 803f
00000040: 0000 803f 0000 803f 0000 803f 0000 803f
00000050: 0000 803f 0000 803f 0000 803f 0000 803f
00000060: 0000 803f
1.0 1.0 1.0 1.0 1.0 1.0 1.0 1.0
1.0 1.0 1.0 1.0 1.0 1.0 1.0 1.0
1.0 1.0 1.0 1.0 1.0 1.0 1.0 1.0
1.0

exp_avg f4 [25, 69]
00000000: 6099 8a3f 37cf 953f e4e2 e43e fe14 933e
00000010: 4bb5 c83e a6e7 cb3f 8aa2 b63e 243b b83e
00000020: b309 5f3e f292 5c3e 8b33 2a3f d457 113f
00000030: c9f1 0a3f 7f03 39bf a182 acbf 07f8 5a3e
00000040: 387b e13e ecf3 2a3f 96c8 b23e 3004 83c2
00000050: 193a 363f 876a 883f d932 933f 067e e83e
00000060: adc2 253e 9a29 463f b7fb 403f 0eb6 0b3f
00000070: 9982 c93d 9eae 833f 9a6a 803f cbe2 903f
00000080: 34ed 3c40 b59e de3f 0ec2 a03e f21a 5640
00000090: 72c1 463f 02e7 c93e 0099 be3e 30d7 013f
000000a0: 6970 6a3e baa9 ac3f 5c4a 7f3e 3d49 863f
000000b0: d30a 0240 cb29 1d3f 6bb5 7b3e 6383 5240
000000c0: 70d4 483f 3871 6b41 78f9 e63e dd3c eb40
000000d0: cec5 bf3e 89eb 29bf 1c0d 563f db96 f33e
000000e0: 1b48 8e3f c724 e83e fecd 393d 2bd5 283f
000000f0: 4d7e 2240 9845 bb3f a91b 003f 01b7 323f
00000100: 2df6 153f 7c0c 513f 14ab 6d3e 83a7 85be
00000110: 7fc1 5fc0 20b1 8f3e 7c88 153f 44f4 ed3c
00000120: ff0f 8a3d 4724 4e3e ea3b 9e3d f300 a73c
00000130: 5681 1e3e b087 8b3e 7259 d83d f318 293f
00000140: 563f 1dc1 d1fa 873d 5917 8a3d 4481 823e
00000150: eb0e 9f3d ecbd b83e 3e31 053e 0f8d 623e
00000160: 206d 07bf 8901 1d3e b839 1c3e 4264 5f3f
00000170: c4f9 4040 f676 453e bcc5 f03d d07b 983e
00000180: 637b 993c 3193 be3d 7389 c43f 9f0c b73e
00000190: 298c 6d3e 9362 4d3e fba3 3a3f 48cc 2a3f
000001a0: b4a4 8f3f 7893 813e 55fb dd3e f042 283f
000001b0: e6fc c53e 5046 1a3e e241 853e ca08 813d
000001c0: 6c1f f83d fa91 303e f65c 193f 7b30 80c0
000001d0: ae4a 57c0 736a 2f3e e5f5 253e 0990 3fbe
000001e0: ed62 d53e 91e2 2f3e 1aa6 26c0 f9bc 2f3e
000001f0: 43ef 943d f77c 953d 0fa2 0a3f 106b c93c
00000200: 7f35 8d3f befa 333d 88d4 f33d 6507 6c3d
00000210: 5d92 d83e e804 a53e 16ac 293e aa6b d43d
00000220: 47fc 33be 2f07 7f3d 6d30 753f 6408 a940
00000230: ab9d 3abe bb3c 8140 a57f 813f 927f 4e3f
00000240: 17ac aabe 56ad 9c3f 7f02 f440 2494 ac40
00000250: 3e7d 4c3f 4014 033f 948a 23c0 aa32 0640
00000260: 030a 4740 3f61 45bf 6f62 96bf e53c 1640
00000270: fc4e 9f3f 5832 40bf 5348 de40 7fb8 ce3f
00000280: c2c6 c83f 1aad 0240 4bce 31c0 bb39 1441
00000290: 50ef 8740 20d0 0840 4e66 963f 6cfd 9940
000002a0: bf59 9f40 d3f8 1e40 8332 be3f 9555 4e3f
000002b0: ce2b 8640 e0ae 1a40 1586 2040 9868 be3f
000002c0: d993 bb41 ae7f fc40 a0f0 e63f 85a5 bd3f
000002d0: 834c 3040 2ca2 843f cc1b 90bf 2bad ec40
000002e0: a734 f540 9fd2 1c41 d9e1 af40 4b48 9a3d
000002f0: 2629 45c3 515b a040 7d71 4d3f 5ebd 28bf
00000300: c380 eb3f eeb5 883f cf72 e2bc 7dad ab3f
00000310: e283 febf 9cae 0041 e529 3d40 a18d 4f3f
00000320: 9386 d140 6179 0e40 142d 1c40 f3db 3740
00000330: ba29 9a40 f8d0 3640 dc24 cd40 f763 873d
00000340: eab7 943d 5591 223d 5687 623f 31e5 063d
00000350: f6d1 933d 79bb b83d 47db 133d 95b9 ed3d
00000360: db69 d93e 03b7 053f 9d68 f53e b90f cb3d
00000370: 8b03 ca3e e6ef 1c3f 5243 1dbe 488a 373e
00000380: 2fff 753f 9e0a 1c3d e149 5b3e 2e30 be3e
00000390: 5533 1e3e 56e7 093d fde9 e73e 329c a53d
000003a0: 39fd ec3d 89e2 993f 2211 533d 5130 373e
000003b0: 5e7c 713e 6328 193e 16eb 85c1 c2ab 2b3e
000003c0: 4b1f b33e 40cf 443d 9659 553e effb 7c3d
000003d0: a96b 6a3e 5296 f23f 4b98 383e 1b47 503e
000003e0: abb8 713f 1113 383f a7af 00be d6e4 843e
000003f0: 74a0 ba3d ba75 283d 3734 d03d 4706 7e3d
1.0828056 1.1703862 0.44704354 0.28726953 0.39200816 1.5930068 0.35670882 0.3598262
0.21781044 0.2154043 0.664849 0.5677464 0.54275185 -0.7227096 -1.3477365 0.21383677
0.4403932 0.66778445 0.3491866 -65.50818 0.711824 1.065751 1.1499892 0.45408648
0.16187544 0.7740723 0.75384086 0.5457467 0.09839363 1.0287664 1.0032532 1.1319212
2.9519777 1.7392184 0.31398052 3.3453946 0.77638924 0.39434057 0.37226105 0.50718975
0.22894444 1.3489296 0.2493071 1.04911 2.0319107 0.61391896 0.24580924 3.2892692
0.78449154 14.715141 0.45112205 7.3511796 0.374556 -0.66375023 0.83613753 0.4757603
1.1115755 0.4534056 0.045362465 0.6595027 2.5389588 1.4630613 0.50042206 0.6981049
0.5857876 0.81659675 0.23209792 -0.26104364 -3.496185 0.28064823 0.58411384 0.029047139
0.06741332 0.20131026 0.077262715 0.020386195 0.15479025 0.2725196 0.10563935 0.66053694
-9.827963 0.06639636 0.067427345 0.25489247 0.07766517 0.360824 0.13007066 0.22124122
-0.52900887 0.15332617 0.15256393 0.87262356 3.0152445 0.19283661 0.11756465 0.2978196
0.018735593 0.09305418 1.5354446 0.35751817 0.23197998 0.20057134 0.72906464 0.6671796
1.1222138 0.25307822 0.43355814 0.6572714 0.3866951 0.15065885 0.26026827 0.063005045
0.12115368 0.17243186 0.5990747 -4.005918 -3.363933 0.17130451 0.16207083 -0.18707289
0.41677037 0.17176272 -2.603888 0.17161931 0.07272198 0.07299226 0.5415353 0.024587184
1.1031951 0.0439403 0.119057715 0.05762424 0.42299166 0.32230306 0.16569552 0.10372098
-0.17576705 0.06226271 0.95777017 5.2822742 -0.18224208 4.0386634 1.0117079 0.80663407
-0.3333442 1.2240398 7.6253047 5.3930836 0.79878604 0.51202774 -2.5553331 2.0968423
3.109986 -0.7710151 -1.174879 2.3474667 1.2445979 -0.7507682 6.9463286 1.6150054
1.5685656 2.0418153 -2.7782161 9.264094 4.247963 2.137703 1.1749971 4.8121853
4.9797053 2.483937 1.4859165 0.8059934 4.1928473 2.4169235 2.5081837 1.487567
23.447191 7.890586 1.8042183 1.4816138 2.75467 1.0361991 -1.1258483 7.3961387
7.6626773 9.801421 5.4963193 0.0753332 -197.16074 5.011147 0.80251294 -0.6591395
1.839867 1.068052 -0.027642636 1.341232 -1.9883997 8.042629 2.955682 0.81075484
6.5476775 2.2261584 2.4402514 2.8727996 4.8175936 2.8565044 6.4107494 0.06610864
0.07261641 0.03968938 0.88487756 0.032933418 0.07217781 0.090201326 0.03609779 0.116076626
0.42463574 0.5223238 0.47931376 0.09915108 0.39455828 0.61303556 -0.15357712 0.17923844
0.96092504 0.038096063 0.21414901 0.37146133 0.15449269 0.033667885 0.45295706 0.080864325
0.11571736 1.2022258 0.05153001 0.17889525 0.23582599 0.14956813 -16.739788 0.16764739
0.34984812 0.04804921 0.20834956 0.0617637 0.22892632 1.8952124 0.18026845 0.20339625
0.94422406 0.71904093 -0.12567006 0.25955838 0.09112635 0.041127898 0.10166209 0.062017705

exp_avg_sq f4 [25, 69]
00000000: 0fb6 a943 9746 c643 826b 6742 321f bf41
00000010: 8ef2 3142 14a9 3744 c757 1342 d8ed 1542
00000020: 91be 5b41 91ea 5641 70ed ff42 30a1 ba42
00000030: 1f8f aa42 c0d8 d042 71b2 0e44 bdcc 5341
00000040: 1b96 6042 b518 0143 b731 0d42 77da a349
00000050: 66af 1243 5c68 a443 ad6c bf43 e1c4 6e42
00000060: 21bf f240 3f76 2d43 4e83 2443 3e72 ac42
00000070: 115f 3340 ce31 9943 e1b0 9143 d774 b943
00000080: 54ab 1d45 ebeb 5a44 cc50 e441 c57e 4a45
00000090: 7680 2e43 5a12 3442 a678 2042 cef0 9442
000000a0: e5c8 7241 20b1 0344 2ff2 8f41 5650 9f43
000000b0: 4067 9544 1338 da42 6fef 8b41 0bc2 4345
000000c0: b929 3243 06de 7447 50a9 6b42 1771 7446
000000d0: be74 2242 9c53 0a43 9e64 4a43 970d 8342
000000e0: 90d9 b243 c40d 6e42 6180 183f 10d4 fb42
000000f0: 7e45 e944 50eb 1a44 04fe 9042 eb15 0d43
00000100: e3ad c642 5e0b 4143 d384 7941 b6e2 ab41
00000110: 3ef3 6e45 fb67 7941 360c 8742 62fd 2a3e
00000120: 513f 663f 8453 0041 b038 973f 8472 a83d
00000130: 75bd 9740 222b 6b41 7859 0d40 90b2 ac42
00000140: bca8 4847 8b5a 5f3f d257 663f ddba 4d41
00000150: 0acd 983f 9f21 ce41 3a4a 5640 98fe 1a41
00000160: 28c9 1443 03e2 9440 0568 9340 44b3 1643
00000170: 2510 dc44 3d80 eb40 6110 2f40 086e 8c41
00000180: 7646 8e3d 985a db3f 8c4a e943 045f ca41
00000190: d967 2a41 8ac5 fe40 a663 d242 4530 b042
000001a0: 903c 7943 c5cf 4a41 31ce 1442 5bfe aa42
000001b0: edbf ec41 84bf 8f40 aa7f 5641 8a1e 493f
000001c0: 66ea 3940 7d4c bc40 df0d 8e42 664f 0546
000001d0: 4757 bb45 30d8 b940 8859 a640 8c61 3341
000001e0: 2381 0942 29d7 ba40 b191 6045 5c87 ba40
000001f0: 19f8 853f 99f7 863f 1e27 6842 9306 f53d
00000200: 35dc 7043 31a4 c33e ec89 3340 0a3c 283f
00000210: f4a3 0d42 dd77 a441 98df ad40 3743 0840
00000220: ff3b 8341 a068 443f 9298 7e43 0d01 f245
00000230: 3042 3341 c077 8d45 200a 8e43 bb95 3443
00000240: 4cb8 1542 dbea cf43 5627 7c46 9643 fc45
00000250: b016 3143 2587 9142 a39d 0645 3b89 9844
00000260: 76c6 2745 f84c 4643 8d3a e843 d566 1845
00000270: b5f5 d643 22a0 3d43 853f 5146 a2f9 3444
00000280: 6bb7 2a44 88a2 9044 4e52 2245 c4e9 b946
00000290: a467 ce45 ee89 9e44 0b97 bf43 ebd8 c845
000002a0: f512 d745 a70d d644 3633 1944 534c 3443
000002b0: cc79 9845 cea8 ca44 ac40 da44 638a 1944
000002c0: 2802 1548 7100 8746 53dd 6144 7550 1844
000002d0: e3a0 0345 0300 9543 cc21 d543 ac39 6d46
000002e0: bd6c 7346 0b4e d046 e601 0346 142a c142
000002f0: 685a 464b 72cc d945 afbe 3243 ac03 1243
00000300: bae0 6a44 0a4d 9e43 f953 0145 c6a2 f943
00000310: da77 a444 3641 8c46 2b8a 1745 646f 3643
00000320: 7deb 3946 29ee ab44 1e97 ce44 0429 0f45
00000330: 844c c945 6e8a 0d45 9b39 3246 f876 a43f
00000340: 3470 c63f 641e ed3e be33 6643 9543 a33e
00000350: 770c c43f 6117 1940 3925 c43e 5b85 7d40
00000360: 9a0c 5442 026b a042 4516 8742 51fa 3840
00000370: e312 3742 c9f9 dc42 ffc6 ed40 311f 1741
00000380: 1cbc 8743 6176 da3e ebb8 5741 5f44 2242
00000390: 878c e040 99a0 aa3e 2b47 7142 6813 f63f
000003a0: 25f4 7b40 a976 d443 fdd9 473f 2e8b 1641
000003b0: 6ecd 8241 2476 d240 101a ab47 5b35 0441
000003c0: 08ef 0f42 87c3 2d3f 6132 4c41 6d8e 8f3f
000003d0: 8585 7641 8dff 8344 1edd 1841 509a 4241
000003e0: ae0e 8343 9f00 1843 6037 3040 2a74 9e41
000003f0: 483f 1c40 4f9e fe3e 3a77 4240 4cbd 903f
339.42233 396.55148 57.85499 23.890232 44.48687 734.64185 36.83572 37.48227
13.734025 13.432267 127.963745 93.31482 85.27953 104.42334 570.78815 13.237485
56.146587 129.09651 35.29855 1.3422869e+06 146.68515 328.8153 382.84903 59.692265
7.585831 173.4619 164.51291 86.22313 2.8026774 306.3891 291.38187 370.9128
2522.708 875.6862 28.539452 3239.923 174.5018 45.01792 40.11782 74.47032
15.1740465 526.7676 17.993254 318.62762 1195.2266 109.10952 17.49191 3132.1277
178.16298 62686.023 58.915344 15644.272 40.614006 138.3266 202.39304 65.52654
357.6997 59.513443 0.5957089 125.914185 1866.1716 619.67676 72.496124 141.08562
99.33962 193.0444 15.594928 21.485699 3823.2026 15.587886 67.52385 0.1669822
0.89940363 8.02039 1.1814175 0.08224967 4.741877 14.69803 2.2085857 86.348755
51368.734 0.8724753 0.89977753 12.858121 1.1937573 25.766417 3.3482804 9.687157
148.78577 4.6525893 4.6064477 150.70026 1760.5045 7.359404 2.7353747 17.553726
0.06947033 1.7137022 466.5824 25.296394 10.650353 7.9616137 105.194626 88.09428
249.23657 12.675725 37.20136 85.49679 29.593714 4.4921284 13.406168 0.78562224
2.9049315 5.884337 71.02709 8531.85 5994.9097 5.80764 5.198429 11.211315
34.37611 5.8387647 3593.1057 5.8290234 1.0466338 1.0544311 58.0382 0.119641446
240.86018 0.38211206 2.805293 0.6571661 35.41011 20.558527 5.433544 2.1291025
16.404295 0.76722145 254.59598 7744.1313 11.203659 4526.9688 284.0791 180.58488
37.429977 415.8348 16137.834 8072.448 177.08862 72.763954 2153.8523 1220.2885
2684.4038 198.30066 464.45743 2438.427 429.9196 189.62552 13391.88 723.9005
682.8659 1157.0791 2597.144 23796.883 6604.955 1268.3103 383.18002 6427.1147
6882.3696 1712.4266 612.8002 180.29814 4879.2246 1621.2751 1746.021 614.1623
152584.62 17280.22 903.4582 609.25714 2106.0554 298.0001 426.26404 15182.418
15579.185 26663.021 8384.475 96.582184 1.2999272e+07 6969.5557 178.74486 146.01434
939.51135 316.60187 2069.2483 499.27167 1315.7454 17952.605 2424.6355 182.43512
11898.872 1375.4425 1652.7224 2290.5635 6441.5645 2264.6519 11406.401 1.2848806
1.5502992 0.4631225 230.20212 0.31887498 1.5316304 2.392052 0.3830965 3.9612644
53.012306 80.209 67.543495 2.890278 45.768444 110.48786 7.4305415 9.445115
271.4696 0.4266844 13.482646 40.56677 7.017154 0.3332565 60.3195 1.9224672
3.9367764 424.92703 0.78067 9.408979 16.350307 6.5769215 87604.125 8.263026
35.98343 0.67876476 12.7623 1.121534 15.407598 1055.986 9.553984 12.162674
262.1147 152.00243 2.7533798 19.80672 2.4413624 0.49730155 3.038527 1.1307769
