mcspace/paper/semi_synthetic/base_run/Mouse/model.pt (torch, 152163 bytes, 34 tensors)

theta_params f4 [30, 69]
000000 e5 e6 81 40 b7 7f a6 c0 d4 05 5b c0 54 72 03 c0
       4.0594354 -5.20309 -3.4222307 -2.053853
000010 55 97 68 c0 ff 40 83 c0 d1 16 6e c0 66 77 8e c0
       -3.6342366 -4.101684 -3.7201426 -4.452075
000020 ae e1 96 40 99 a3 cf c0 65 3b a0 c0 22 ab 25 c0
       4.715049 -6.4887204 -5.0072503 -2.58857
000030 2c 5a 61 c0 a0 71 8c c0 91 27 7e c0 b9 c3 86 c0
       -3.5211287 -4.3888702 -3.971165 -4.211392
000040 eb 3f 99 c0 d6 cc 96 c0 34 78 47 c0 37 c0 91 c0
       -4.7890525 -4.7125044 -3.1167116 -4.5547137
000050 2c 6a 64 c0 97 0d 98 c0 46 62 81 c0 31 16 82 c0
       -3.5689802 -4.751659 -4.0432463 -4.065209
000060 bf e1 88 c0 63 b6 92 c0 10 67 e4 c0 34 66 a3 c0
       -4.277557 -4.584764 -7.137581 -5.106226
000070 5a eb 70 c0 f3 e9 7b c0 89 63 a1 c0 1b 22 8a c0
       -3.7643647 -3.9361541 -5.0434003 -4.3166633
000080 42 2e 8d 3e 8c 5a 81 c0 62 9d 9c c0 a7 7d 53 c0
       0.27574354 -4.042303 -4.894212 -3.3045442
000090 a6 3d a3 c0 cc e3 5a c0 10 13 9f c0 59 21 65 3f
       -5.1012754 -3.4201536 -4.971077 0.8950401
0000a0 cc 16 6c c0 21 44 d6 3e c5 bc a6 c0 ef 43 55 c0
       -3.6888914 0.41848853 -5.210543 -3.3322713
0000b0 fe 90 aa c0 0a 4d 5c c0 ca c1 3e c0 05 5b b5 c0
       -5.3301992 -3.442202 -2.980578 -5.667361
0000c0 f7 2c 8f c0 8b 6d 40 40 99 5f c0 c0 3f cc bd 3f
       -4.474239 3.006686 -6.0116696 1.4827956
0000d0 27 62 60 c0 27 09 6e c0 48 c8 9c c0 75 fb 89 c0
       -3.5059907 -3.7193086 -4.8994484 -4.3119454
0000e0 3b c1 80 c0 45 5b aa c0 30 e6 c2 40 e3 8e 77 c0
       -4.0235877 -5.3236413 6.090599 -3.868096
0000f0 9c b0 84 c0 4a 75 61 c0 c8 b0 b6 c0 56 48 a5 c0
       -4.146559 -3.5227838 -5.7090797 -5.16508
000100 9f 0e 7f c0 e8 27 51 c0 17 e0 85 c0 d6 40 74 c0
       -3.9852674 -3.2680607 -4.1836047 -3.8164573
000110 2d 8a b8 c0 91 d7 79 c0 05 8a b4 c0 df 5f 64 c0
       -5.766867 -3.9037821 -5.641848 -3.5683515
000120 56 9a dc c0 72 68 8a c0 fa 71 ba c0 b7 88 57 c0
       -6.89384 -4.3252497 -5.826413 -3.3677194
000130 9b e9 85 c0 9b 19 07 c0 ba 3b 69 c0 33 9b 51 c0
       -4.1847663 -2.1109378 -3.6442704 -3.2750976
000140 91 38 45 c0 98 ae 10 c0 f0 63 76 c0 c8 6d 83 c0
       -3.0815775 -2.2606564 -3.8498497 -4.107151
000150 c0 81 89 c0 53 da 88 c0 c9 59 9b c0 b7 2d b0 c0
       -4.2970886 -4.276651 -4.85471 -5.5055804
000160 d3 ea 32 c0 fd 36 6f c0 5e f5 a4 c0 49 31 a8 c0
       -2.7955825 -3.7377312 -5.154952 -5.2560163
000170 e7 dd 24 c0 f9 61 fe 3f 8d 0a 36 c0 d1 1d fb 3f
       -2.5760438 1.9873649 -2.844394 1.9618474
000180 0a 40 f1 3f 87 01 46 c0 e1 5c 3a c0 73 bf 6a c0
       1.8847668 -3.0938432 -2.9119189 -3.6679351
000190 74 24 b0 c0 77 b5 9d c0 76 70 b6 c0 98 38 94 c0
       -5.50445 -4.9284015 -5.701228 -4.6319084
0001a0 8a 26 69 c0 3e 55 a1 c0 7a 80 85 c0 e5 d9 89 c0
       -3.6429772 -5.0416555 -4.171933 -4.3078485
0001b0 2c 9f 4f c0 f4 48 05 40 1e 75 74 c0 88 aa 8a c0
       -3.24409 2.0825777 -3.8196483 -4.333317
0001c0 61 c1 a2 40 36 04 7a 3f 6f e4 8d 40 d4 17 81 c0
       5.086106 0.97662675 4.434135 -4.0341587
0001d0 c7 3b 71 c0 d7 cb 9b c0 e5 93 80 c0 69 1c 8a c0
       -3.7692735 -4.868633 -4.0180535 -4.315968
0001e0 19 fc c8 40 91 6b 8b c0 8b d3 91 c0 42 08 bd c0
       6.2807736 -4.3568807 -4.557073 -5.907258
0001f0 b5 14 7b c0 62 3f 5b 40 41 6e aa c0 1e 4d 82 3f
       -3.9231389 3.4257436 -5.3259587 1.0179784
000200 f5 4e 61 c0 24 f6 4a c0 77 29 90 c0 32 a9 95 c0
       -3.5204442 -3.1712732 -4.5050616 -4.6769037
000210 46 7f 68 c0 ce 0d ce 3f 5e 92 a0 c0 09 8a 84 c0
       -3.6327682 1.6097963 -5.017867 -4.14185
000220 ff 35 e2 3f 20 63 de c0 f1 65 e2 3f 26 89 c0 c0
       1.7672728 -6.9496 1.768736 -6.0167418
000230 af 8a f3 bf 50 ea 82 c0 28 a5 6d c0 e0 0a c0 c0
       -1.9026698 -4.0911026 -3.7132053 -6.0013275
000240 46 32 74 c0 73 ed 5c c0 d0 74 9d bf 80 10 81 c0
       -3.8155684 -3.4519928 -1.2301273 -4.033264
000250 b8 7e 6b c0 bc 6b 5e c0 c1 66 b6 c0 81 29 4f c0
       -3.6796093 -3.4753256 -5.700043 -3.2369082
000260 e5 d6 86 c0 02 55 8e c0 66 cb f2 be f5 67 7a c0
       -4.2137322 -4.447877 -0.47420806 -3.912595
000270 77 78 cb 3e 43 e2 b8 3f 32 06 23 3f 28 b5 ef 3f
       0.39740345 1.444405 0.6368133 1.872716
000280 75 6a 89 be 9f 0b ca bf 7a 0c 8f 3f b4 e7 a2 40
       -0.26839033 -1.5784796 1.1175683 5.090784
000290 30 de 94 c0 6d 59 14 40 e5 03 b7 c0 05 00 94 c0
       -4.6521225 2.317958 -5.7192254 -4.6250024
0002a0 73 86 2d 40 60 6a 96 c0 cf 2f 0f 3f d0 13 62 c0
       2.7113311 -4.700485 0.55932325 -3.5324593
0002b0 9a 5a 97 c0 79 e4 8b c0 fc c6 57 c0 59 70 c9 c0
       -4.7298098 -4.3716397 -3.37152 -6.2949643
0002c0 96 07 a1 c0 02 cb ec 3f 6f d0 86 c0 a1 47 96 c0
       -5.032176 1.8499453 -4.2129436 -4.696244
0002d0 85 e1 8f c0 8f fd 0f c0 a0 2a b7 3f 7a 20 87 c0
       -4.4962792 -2.249851 1.4309883 -4.2227144
0002e0 b3 9d 71 c0 ac 1a 74 c0 7a 37 8c c0 f5 9a cb 40
       -3.7752502 -3.814128 -4.381772 6.3626657
0002f0 30 da 6c c0 9c bc a0 3f 1f 43 ad c0 4a cc 9c 3f
       -3.700817 1.2557559 -5.4144435 1.2249844
000300 f7 96 7d c0 fb ef 9f c0 41 0d a2 c0 6c 4c b3 c0
       -3.9623392 -4.9980445 -5.064118 -5.603079
000310 a1 a5 2f 3f 31 84 c8 c0 7b 43 70 c0 a6 8d 89 c0
       0.68612105 -6.2661366 -3.7541187 -4.298541
000320 7b c1 fb bf a5 9b 80 c0 71 03 87 3f 48 be ba c0
       -1.966842 -4.0189996 1.0547925 -5.8357277
000330 43 bb 9c c0 5b 5c 7e c0 ce f4 6b c0 1f ca 82 c0
       -4.897859 -3.974387 -3.6868167 -4.087173
000340 56 26 52 c0 a8 1e 8a c0 11 68 8e c0 d7 f6 59 c0
       -3.2835898 -4.316242 -4.4502034 -3.405691
000350 09 20 6b c0 30 28 a1 c0 5c 22 a7 c0 0f f0 a7 c0
       -3.6738303 -5.0361557 -5.2229443 -5.248054
000360 db 33 9c c0 8b 95 4f c0 65 14 92 c0 24 7a c2 c0
       -4.88133 -3.2435024 -4.5649896 -6.0774097
000370 0c f0 5e c0 48 be a1 c0 f9 a0 a5 c0 d0 a8 b8 c0
       -3.4834013 -5.0544777 -5.1759 -5.770607
000380 0e ff 80 c0 65 f2 a6 c0 43 04 6e c0 43 f9 86 c0
       -4.0311346 -5.217089 -3.71901 -4.2179275
000390 92 2f ba c0 37 04 88 c0 5f dc d4 c0 e7 6f ad c0
       -5.818307 -4.2505145 -6.651901 -5.41991
0003a0 84 b3 d6 c0 07 34 a8 40 a7 e4 77 c0 79 4d 94 c0
       -6.7094135 5.256351 -3.8733308 -4.634457
0003b0 15 c4 4d c0 07 f5 94 c0 e5 54 9b c0 c2 2b 98 c0
       -3.215093 -4.6549106 -4.854113 -4.7553415
0003c0 03 e2 63 c0 09 fc 9f c0 1f 34 67 c0 f2 47 8c c0
       -3.5606697 -4.999516 -3.6125562 -4.3837824
0003d0 f6 f0 9f c0 9e f4 b6 c0 2a 08 9c c0 41 d5 af c0
       -4.998164 -5.7173605 -4.8759966 -5.494782
0003e0 7b f4 69 c0 62 f4 a7 c0 b5 65 98 c0 64 f4 5e 40
       -3.655547 -5.248582 -4.7624154 3.4836664
0003f0 4a 12 4c c0 73 6f c2 c0 30 27 a7 c0 8b 00 cb c0
       -3.1886163 -6.0761046 -5.2235336 -6.3438163

q_gamma_params f4 [29]
000000 0e 1c 12 40 a9 5e 7b 40 55 47 b4 c0 a6 b1 8d c0
       2.2829623 3.9276526 -5.6337075 -4.4279356
000010 ff 82 36 c0 88 25 14 40 2f ed 69 40 18 28 1c 40
       -2.8517454 2.3147907 3.6551015 2.4399471
000020 68 9b 59 c0 4e f6 75 40 6f cf ac c0 80 5b 23 3f
       -3.4001102 3.8431582 -5.4003215 0.6381149
000030 d2 e5 98 c0 b0 75 b0 c0 0a 12 94 c0 16 9f c5 c0
       -4.778054 -5.514366 -4.627202 -6.1756697
000040 e6 37 a8 c0 5e fb 5a bf 3b 1f ad c0 d7 09 39 c0
       -5.2568235 -0.85539806 -5.4100623 -2.8912256
000050 e5 62 b7 c0 26 24 ae bf 6e 71 c8 c0 92 8f c1 c0
       -5.730822 -1.3604782 -6.2638464 -6.0487757
000060 be d0 af bf f1 d3 50 c0 ed 9e c6 c0 ab f3 bb c0
       -1.3735578 -3.2629359 -6.2069 -5.8734946
000070 12 46 6a c0
       -3.6605268

q_probs f4 [29]
000000 e0 4f 68 3f 89 0e 7b 3f 44 9b 69 3b 54 54 41 3c
       0.9074688 0.98069054 0.0035645524 0.011799891
000010 6a a5 5f 3d 21 fc 68 3f 1b 8c 79 3f 1f 7a 6b 3f
       0.05460111 0.9100972 0.9747941 0.91983217
000020 e2 51 04 3d 52 a1 7a 3f 98 4d 93 3b e6 ad 26 3f
       0.032304652 0.97902405 0.004495334 0.651091
000030 d9 c0 08 3c 72 86 83 3b 4c c7 1e 3c 2b 12 08 3b
       0.00834676 0.00401383 0.009691071 0.0020762782
000040 5d fe a9 3b 2c 77 98 3e b4 f2 91 3b d5 7f 57 3d
       0.005187793 0.2977842 0.0044539813 0.052612145
000050 d4 10 54 3b 36 35 51 3e 25 38 f9 3a 28 71 1a 3b
       0.0032358663 0.20430455 0.0019013925 0.0023565982
000060 07 f7 4e 3e 9d 01 17 3d 49 e5 03 3b 98 f1 37 3b
       0.20211421 0.036866773 0.0020125678 0.0028067585
000070 67 84 cd 3c
       0.025087548

gamma f4 [30]
000000 00 00 80 3f 00 00 80 3f 00 00 80 3f 00 00 00 00
       1.0 1.0 1.0 0.0
000010 00 00 00 00 00 00 00 00 00 00 80 3f 00 00 80 3f
       0.0 0.0 1.0 1.0
000020 00 00 00 00 00 00 00 00 00 00 80 3f 00 00 00 00
       0.0 0.0 1.0 0.0
000030 00 00 00 00 00 00 00 00 00 00 00 00 00 00 00 00
       0.0 0.0 0.0 0.0
000040 00 00 00 00 00 00 00 00 00 00 00 00 00 00 00 00
       0.0 0.0 0.0 0.0
000050 00 00 00 00 00 00 00 00 00 00 00 00 00 00 00 00
       0.0 0.0 0.0 0.0
000060 00 00 00 00 00 00 80 3f 00 00 00 00 00 00 00 00
       0.0 1.0 0.0 0.0
000070 00 00 00 00 00 00 00 00
       0.0 0.0

KL_gamma_k f4 [29]
000000 89 e1 ee 48 f6 13 01 49 96 35 f0 44 53 cb c6 45
       489228.28 528703.4 1921.6746 6361.4155
000010 f5 f7 e5 46 a9 92 ef 48 48 4d 00 49 b4 22 f2 48
       29435.979 490645.28 525524.5 495893.62
000020 76 0f 88 46 cf db 00 49 76 77 17 45 68 64 ab 48
       17415.73 527804.94 2423.4663 351011.25
000030 6a 9e 8c 45 23 3e 07 45 41 44 a3 45 b5 ea 8b 44
       4499.802 2163.8835 5224.5317 1119.3346
000040 6d cc 2e 45 b7 c6 1c 48 c3 12 16 45 6b 97 dd 46
       2796.7766 160538.86 2401.1726 28363.709
000050 45 0f da 44 6a 1f d7 47 ad 21 80 44 a1 ce 9e 44
       1744.4772 110142.83 1025.0524 1270.4572
000060 fd d0 d4 47 6d 46 9b 46 9d 9f 87 44 8b 24 bd 44
       108961.98 19875.213 1084.9879 1513.142
000070 ac 53 53 46
       13524.918

weight f4 [50, 69]
000000 38 c7 95 bc a2 99 2a 3e 43 05 9a 3e 1c ba df 3d
       -0.018283471 0.16660169 0.3008214 0.109241694
000010 a9 13 26 3e bb b0 5e 3e 50 85 cd bc e8 73 a0 3e
       0.16218437 0.21747105 -0.025087982 0.3133843
000020 5e 5c ba bd ca 12 16 3e 48 b3 10 3e 75 61 25 bb
       -0.09099649 0.14655605 0.1413089 -0.002523509
000030 49 93 26 3e e4 81 8c 3e 44 d7 41 3d 41 92 07 3e
       0.16267122 0.2744285 0.047324434 0.13239385
000040 f8 04 6b bd a1 ae 4d 3c 01 c1 dd bd 71 e1 97 bd
       -0.057377785 0.012553842 -0.10827828 -0.074160464
000050 fb 32 21 3e a0 7d 0e 3d 75 f6 d2 bd e0 3d 28 3e
       0.15742104 0.034787774 -0.10300914 0.16429853
000060 69 d8 1c be af b3 17 be f2 88 8a bd 56 19 48 3d
       -0.15316929 -0.14814638 -0.067644015 0.048852287
000070 67 cd 96 3e 6a 21 9e 3e ba 06 f9 bd 9e b8 91 3d
       0.29453585 0.30884868 -0.12159486 0.07115291
000080 cd 15 9a bd 30 42 5f 3e 2e 9c 9d 3d 7d f2 a0 3d
       -0.075236894 0.21802592 0.076958045 0.07858751
000090 f2 dd 6e 3d da 1c 27 3e fe 65 b7 3d 82 34 28 3e
       0.058317132 0.163196 0.08955 0.1642628
0000a0 3f 29 88 be e4 fb 0f 3e 5f d3 37 3e 59 f0 8d bd
       -0.26593968 0.14060932 0.17951725 -0.06930608
0000b0 f3 a5 39 be 63 09 22 bd bb 52 e2 3d 2e ae 2c be
       -0.18129711 -0.039559733 0.11050936 -0.1686332
0000c0 fd 9c 66 3d 3a ab 08 be 43 48 47 3e f3 f1 0f be
       0.05630206 -0.13346568 0.1946116 -0.1405714
0000d0 81 ae 87 3e 13 76 ae bd 64 f3 ee 3d 35 f5 bd 3d
       0.26500323 -0.085186146 0.11667517 0.09275285
0000e0 38 36 8b bd a0 ae ec 3d f9 75 c4 bd 96 28 2f 3e
       -0.06797451 0.115567446 -0.09592814 0.17105326
0000f0 3c eb 5b 3e b4 96 86 3e 9a 25 cc 3d 46 c5 05 3e
       0.21476454 0.26286852 0.099681094 0.13063535
000100 61 2d df bd fc 16 1c 3e 18 42 74 3e 82 12 c8 bd
       -0.10897327 0.15243143 0.23853338 -0.09769155
000110 a4 70 f4 bc 69 bb 3f bd ea 54 9a 3e 59 2b 5b 3e
       -0.029838867 -0.046809588 0.3014291 0.21403255
000120 29 48 b0 3e 98 56 e8 3d 0c 06 61 3e 8f 12 8c bd
       0.34430054 0.113446414 0.21974963 -0.06839477
000130 e3 5e 8e 3e 31 25 bb bd f0 d0 f7 3d 60 20 a6 3e
       0.27806768 -0.09137953 0.121003985 0.32446575
000140 30 5d 61 bd f4 c7 07 3e 70 2f bd 3e ed 53 ef 3d
       -0.05502051 0.1325987 0.36950254 0.116859294
000150 3c 0a 9a 3e cc f5 04 be 59 88 14 bd 11 a0 1a be
       0.30085933 -0.12984389 -0.036262844 -0.15100123
000160 54 01 12 be e4 6d a4 3d fb 68 92 3c dd 18 5c be
       -0.14258319 0.080287725 0.017872324 -0.2149386
000170 79 57 39 3e bb fa 13 be 64 29 38 be b9 fd 6d be
       0.18099774 -0.14451115 -0.1798454 -0.23241319
000180 f0 91 28 3c 13 2f ac 3e a7 df 44 3e 6e b3 2f be
       0.0102887 0.33629665 0.19225942 -0.1715829
000190 63 c2 45 3e a9 10 32 be 99 52 32 3e d3 93 76 3d
       0.19312434 -0.17389168 0.17414321 0.06019957
0001a0 07 a1 44 3d 9f de c1 3d c4 b1 d3 3d ca ee 58 3d
       0.04800513 0.0946629 0.103366405 0.052962102
0001b0 64 67 ef 3d 2b 41 2f be b2 ca 2b 3e 19 88 72 3e
       0.11689642 -0.17114703 0.16776541 0.2368473
0001c0 e3 51 e2 bd 20 d9 e8 bd c6 78 be bd 2a 67 b2 3e
       -0.11050775 -0.11369538 -0.093003795 0.34844333
0001d0 6f d0 42 be 24 9d 48 3c 08 30 8a be 63 5c 84 3e
       -0.19024824 0.0122444965 -0.2698977 0.25851735
0001e0 99 9a 37 be 99 ba 22 3e 01 28 c8 bd 51 f3 7c 3e
       -0.17930068 0.15891494 -0.09773255 0.24702193
0001f0 d7 31 60 3e fb 9a 10 be 0c 50 55 3e 5f 8e 45 be
       0.21894012 -0.1412162 0.20831317 -0.19292592
000200 e1 f3 61 3e 98 d7 4c 3e 89 b3 9f 3e 49 a9 4c 3e
       0.22065689 0.20004117 0.31191662 0.19986452
000210 ec db 51 3e cb b3 42 be 19 02 40 3e 7d b1 42 3e
       0.2049405 -0.19013898 0.187508 0.19013019
000220 58 4e 1d be 0b e4 4c bd 48 f4 e1 bd bb 26 d2 3e
       -0.15361917 -0.050022166 -0.11032921 0.41045174
000230 7a d9 ed 3e 60 f0 63 3e 00 a1 b6 bc d2 93 b4 3e
       0.46454984 0.22259665 -0.022293568 0.35269028
000240 ef 85 0d be 7f d6 ae 3e 4d 0f 11 be 03 21 9e 3d
       -0.13820623 0.34148023 -0.14165993 0.0772114
000250 46 7a 8c 3e d2 78 f9 bd 14 0c 5b 3e c4 ef a7 3e
       0.27437037 -0.12181248 0.21391326 0.32800114
000260 4e 70 5c bd 76 35 d6 3e c4 7a 54 be 75 a7 21 be
       -0.05381804 0.41837662 -0.20749956 -0.15786536
000270 2c a9 1f be 27 a2 f8 bd 12 40 91 bc 30 e9 81 bd
       -0.15591878 -0.12140303 -0.017730746 -0.06343305
000280 8d b4 30 be 5f 7f 3e 3b 65 ac 65 be fd 82 3d be
       -0.17256375 0.0029067618 -0.22429045 -0.18507
000290 60 f7 96 be fd fc 95 bd c6 ec 95 3e b7 8e 6f 3e
       -0.29485607 -0.07323644 0.29282206 0.23394285
0002a0 69 c2 6f be eb e9 57 3e 3f bc 9e be 04 bd cc 3c
       -0.23414005 0.21085326 -0.31002995 0.024992473
0002b0 23 cd db bd aa cc ad bd 3a dc 70 bd ac df 56 bc
       -0.10732486 -0.08486302 -0.058803774 -0.013114851
0002c0 83 66 f2 bd 9d 33 11 3c 64 b7 6e be 2c 3c 31 bd
       -0.11835959 0.008862403 -0.23312145 -0.043270275
0002d0 78 b3 19 3e f4 a0 b9 bd c9 3a 61 be 90 35 12 be
       0.15009868 -0.090639025 -0.21995081 -0.14278245
0002e0 93 56 93 3e a0 8a 75 be 87 3d c9 bd 7a 68 83 be
       0.28776988 -0.23978662 -0.098261885 -0.25665647
0002f0 16 33 63 3e 44 23 13 be cf c5 44 3e 0a 07 0b be
       0.22187456 -0.14368922 0.19216083 -0.13576904
000300 60 5a 9a 3e 4c 0b 11 bc 2d 27 2f be f4 c1 d2 3e
       0.30147076 -0.008852791 -0.17104788 0.411636
000310 5a 23 7e be d3 32 7a 3e 85 e7 c8 3e 2b ee 8c 3e
       -0.24818173 0.2443345 0.39239135 0.27525458
000320 87 a5 8c 3c 29 79 aa 3e 04 cb 41 be b5 a8 1a bd
       0.017168773 0.33295563 -0.189251 -0.037758548
000330 5b fc 75 3e f5 ef 30 be 8e ea 80 bd 38 56 99 bc
       0.24022047 -0.17279036 -0.06294738 -0.01871787
000340 41 23 a2 3d 26 8c 69 3e 35 af 44 3e 66 f6 4a bc
       0.079168804 0.22807369 0.19207461 -0.0123878475
000350 74 10 80 3d 0c 41 17 bd 34 3a 8c 3e 8c 53 05 bd
       0.06253138 -0.036927268 0.27388155 -0.03255038
000360 72 33 23 3d 9e 26 53 3d d4 47 7d bc 3e 1c f2 3d
       0.039843984 0.0515505 -0.01545902 0.11821793
000370 fd 91 57 3e e1 5f f1 bc 29 2b 86 3e 6e 4d a1 bd
       0.21051784 -0.029464664 0.26204804 -0.07876097
000380 8a f8 a5 bd e8 3f 36 3d f7 57 0b bd 04 48 46 bd
       -0.08104046 0.04449454 -0.034019437 -0.048408523
000390 19 c5 37 bd 20 95 d2 bd 16 3f dd 3a d0 83 aa bd
       -0.0448657 -0.102823496 0.0016879763 -0.083259225
0003a0 92 0e af bd 74 19 95 bd 3f 4c db bc 26 59 dd 3d
       -0.08547701 -0.072802454 -0.026769755 0.10808019
0003b0 f9 ce 34 3e c9 2f e5 3c df 30 bd bc 43 fa ca bd
       0.17657079 0.027976887 -0.023094593 -0.09911015
0003c0 49 bd 41 bd fd df ee bd ea 87 b5 bd 06 3a a5 bd
       -0.047299657 -0.11663816 -0.08863814 -0.08067708
0003d0 73 a0 45 3c e3 78 cb bd f9 55 12 bc b3 6c c4 bd
       0.01206218 -0.09935167 -0.00893163 -0.09591045
0003e0 e9 48 b3 bd e2 44 52 3d 6b 04 9b bd de 55 40 be
       -0.08754141 0.051335223 -0.07569202 -0.18782756
0003f0 3b 0f f2 bc a1 a3 59 3e 9d 06 2c be 84 ea 7b bd
       -0.029548278 0.21253826 -0.16799398 -0.06150295

bias f4 [50]
000000 5a 36 a1 be b1 13 8e be f3 b7 80 be 58 22 7a be
       -0.3148678 -0.27749398 -0.25140342 -0.24427164
000010 53 0a 16 be b9 fb 53 be 65 78 ad bd ec a6 9b be
       -0.14652376 -0.20701493 -0.08470229 -0.3040079
000020 31 78 97 be 39 76 eb be 43 48 b6 be 97 8e 90 be
       -0.29583886 -0.45988634 -0.35602006 -0.28233787
000030 bb 1e 6d be 47 92 ec bd 80 29 4e be cb 49 35 be
       -0.23156254 -0.11551338 -0.20133018 -0.17703931
000040 60 c0 cd be fc 6c b3 be cc bb 66 bd 82 91 22 be
       -0.40185833 -0.35044086 -0.05633144 -0.1587582
000050 f6 83 d7 be fc 2b 98 be eb 64 44 be be 6d 25 be
       -0.42092866 -0.29721057 -0.19179122 -0.16155145
000060 0d d1 4f be cd b3 12 be 4c ec f9 bd be 09 5d be
       -0.2029459 -0.14326401 -0.12203273 -0.21585748
000070 67 99 22 be 6a d9 da bd fe 54 c0 be b2 e5 6a be
       -0.15878831 -0.10686 -0.37564844 -0.22939184
000080 f3 aa dc be 47 12 15 be 91 91 9a 3c 31 45 24 be
       -0.43099174 -0.14557754 0.01886824 -0.1604202
000090 a0 e9 48 bd b4 be 27 be 36 40 89 be ec 2a 73 be
       -0.049050927 -0.16381341 -0.26806802 -0.23746842
0000a0 f6 8d b0 be b8 62 75 be 1b c2 6f be a7 9b 76 be
       -0.34483308 -0.2396344 -0.23413889 -0.24082814
0000b0 4d ea e5 3d 19 ad 34 bd 75 37 88 be b9 a9 0a be
       0.1122633 -0.04411039 -0.2660481 -0.13541307
0000c0 0d ae 53 be 5d 2a 9a be
       -0.20671864 -0.30110446

weight f4 [50, 50]
000000 d2 34 80 be 0c 5f 42 bd 3e 7c 3b be 20 85 31 be
       -0.250403 -0.047453925 -0.18309113 -0.1733594
000010 75 08 d1 bd 92 9f 74 bd f2 78 35 be b2 6c 7b be
       -0.10206691 -0.05972249 -0.17721918 -0.24553183
000020 91 b4 89 bc 1a 19 7d bc f5 ba 78 be 7f 97 50 be
       -0.016809734 -0.015447879 -0.24290068 -0.20370291
000030 02 9b 77 be 01 10 74 be 2c 0a 2c be d2 10 9c be
       -0.24180225 -0.2383423 -0.16800755 -0.30481583
000040 24 e9 6a be 8b e1 f5 bd af ca 7c bd 33 a4 47 be
       -0.22940499 -0.120059095 -0.06171673 -0.19496231
000050 d8 40 80 bd 7a 8f 86 be 4f 1f 1e be 77 3b 96 bc
       -0.06262368 -0.2628134 -0.15441631 -0.018338902
000060 56 64 f1 bd 46 c0 40 bd 99 bc 6b be a9 18 04 be
       -0.11786716 -0.047058366 -0.23021163 -0.12900032
000070 cf 4f 09 be 0c 78 83 be 94 af ff bd a8 59 f6 bd
       -0.13409351 -0.25677526 -0.12484661 -0.12028819
000080 a2 0c 26 bd a7 16 f6 bd 5a 44 94 be 2f c3 45 bc
       -0.04053939 -0.12016039 -0.28958398 -0.012070461
000090 ff 81 57 be 83 b3 8e be 32 bd 8f be ba f5 aa bd
       -0.21045683 -0.27871332 -0.28074032 -0.0834765
0000a0 70 c6 d8 bd 73 bd 3e be 00 3d 22 bd 05 e4 23 bd
       -0.10584724 -0.18626957 -0.039608955 -0.04001238
0000b0 81 34 87 be da 4f 5f be fa 0c d1 bd 02 70 83 be
       -0.26407245 -0.21807805 -0.10207553 -0.25671393
0000c0 77 62 b0 be b3 af 72 be 7f fe 3c 3d d7 bf 8e bd
       -0.34450123 -0.23699836 0.046141144 -0.06970184
0000d0 da cb b2 3c 91 fd d8 3d 8b b4 b5 3d 5c 5a 8a 3d
       0.02182572 0.10595239 0.088723265 0.06755516
0000e0 90 4c 20 3c 67 7d 31 3d fb 96 97 bd 82 24 b1 3d
       0.009783879 0.043332484 -0.07401844 0.086495414
0000f0 0a 89 7b bd d3 20 b4 3d 78 f3 8e 3d 3e 89 af 3d
       -0.061409988 0.08795323 0.06980032 0.08571099
000100 54 ec 4c 3d db 35 9c bc 70 c1 b0 3d f0 27 5b bc
       0.050030068 -0.019068649 0.08630645 -0.013376221
000110 59 3b e6 b9 14 b3 2d bd a5 8d 9d 3d c6 f4 91 3d
       -0.00043913236 -0.04240711 0.07693032 0.07126765
000120 5c 40 79 bd e7 d0 ee bb 9c 0d 9f bc 43 3d e8 bd
       -0.060852394 -0.0072880867 -0.01941567 -0.1133981
000130 89 a3 e7 3d a4 42 81 3d ff 15 da bc 03 6c c6 3d
       0.11310489 0.06311539 -0.026621817 0.0968857
000140 3e 3d 84 3d 10 97 95 3d 4d db 92 3c 1a 54 6b bd
       0.064569935 0.073042035 0.017926836 -0.057453252
000150 0b 62 d7 3b be 7f 08 3d a3 3e 8e 3d 66 6b 6e 3d
       0.006572967 0.03332495 0.06945541 0.058207892
000160 0c 8b 15 bc 0e 64 8d 3d 11 4e a0 3d 14 07 86 bc
       -0.00912739 0.069038495 0.0782739 -0.016360797
000170 f8 f8 8f bc ad 81 cf 3c 6f bd 28 3e 65 8a c9 3c
       -0.017574772 0.025330389 0.16478513 0.024602124
000180 5e 64 db 3c 76 4c b9 3d 0e d8 db 3d ea a8 93 3d
       0.026781257 0.09047787 0.107345685 0.07209952
000190 1f 67 28 be 8b d8 87 bd 5d 1e 26 bd 62 66 cb be
       -0.16445588 -0.06633099 -0.0405563 -0.3972655
0001a0 81 63 51 be cd 93 a7 bd cf 2f 65 be 3a 76 54 be
       -0.20448114 -0.08182488 -0.22381519 -0.20748225
0001b0 6f 4b db bd c8 78 96 bd 78 b9 2a be 90 25 e8 bd
       -0.10707747 -0.07347256 -0.16672313 -0.113352895
0001c0 eb b0 5f be 9e ac 51 be e2 28 50 be 30 fa 7f be
       -0.21844833 -0.20476004 -0.20328096 -0.24997783
0001d0 55 26 80 bd f9 50 26 be 19 ba 3d be e7 33 88 be
       -0.06257311 -0.16241826 -0.18528022 -0.26602098
0001e0 d8 c8 95 be 20 77 1d be e8 16 b3 bd 19 7c a1 be
       -0.29254794 -0.15377474 -0.087446034 -0.31539991
0001f0 d3 64 1e be 3c 44 2a be 0a 31 73 be 2f 86 29 be
       -0.15468149 -0.16627592 -0.23749176 -0.16555093
000200 5b de 23 bd 2d 81 c9 be c5 19 3d be 33 33 09 be
       -0.040006977 -0.39356366 -0.18466862 -0.13398437
000210 09 cd 35 be dd 3c bb bd 35 e2 8d be 4c 4c 39 be
       -0.17753996 -0.09142468 -0.27711645 -0.18095511
000220 9b 62 ee be c3 86 ab be 55 a9 0c be c5 95 ba be
       -0.46559605 -0.33501253 -0.1373647 -0.3644239
000230 26 1c b4 bd f3 2b 05 be 6c fd ac be a8 62 9e bc
       -0.087944314 -0.13005047 -0.33787096 -0.019334152
000240 8c 97 e4 be bc f8 b5 be d1 5b 8b be e7 d6 d9 be
       -0.4464687 -0.35541332 -0.27218488 -0.4254677
000250 b5 f3 d6 be e9 9f 7c be e8 5c 2c be a2 52 7b be
       -0.4198281 -0.24670376 -0.16832316 -0.2454324
000260 4b d9 42 be cf e1 3e be 62 ab 67 be 95 d3 0a be
       -0.19028203 -0.18640827 -0.22623971 -0.13557275
000270 46 f4 bb be 65 fb 94 be 8b 90 ae bd e4 6f 96 bd
       -0.36709803 -0.2909805 -0.08523663 -0.0734556
000280 81 bf 06 be f4 a8 a4 be e2 ad fc bd fa ad ad be
       -0.1315899 -0.3216015 -0.12337853 -0.33921796
000290 a9 4a cc be 27 78 06 be b3 f1 9d bd 44 ff 71 be
       -0.3990071 -0.13131772 -0.07712116 -0.23632532
0002a0 60 59 00 be a5 00 6b be d6 0a f4 bd 8a 03 a2 be
       -0.12534094 -0.22949465 -0.11916129 -0.31643325
0002b0 ea 5b 55 be 4d b1 38 be 85 2a c0 bd d1 08 82 bd
       -0.20835844 -0.18036385 -0.0938311 -0.06349338
0002c0 d3 dd 24 be 03 35 99 be 8b 05 bd bc 0e da 6e be
       -0.16100244 -0.29923257 -0.023073932 -0.23325369
0002d0 6b f4 95 be 80 92 43 be cd 12 97 bc ec 2d 47 be
       -0.2928804 -0.19098854 -0.018441582 -0.19451112
0002e0 1a 0f f1 be 1b a8 12 bd b6 bd 61 be 68 4a 09 be
       -0.47081834 -0.03580485 -0.22045025 -0.1340729
0002f0 74 7e 59 be 53 57 7a be ff 8a 70 be 9d 2c 9a bd
       -0.21239644 -0.24447374 -0.23490523 -0.075280406
000300 08 e9 51 be 0c f7 4f be 67 fe ec be 3c 22 79 be
       -0.2049905 -0.20309085 -0.46287844 -0.24329466
000310 ad 94 b5 be 1e 47 93 be 45 e9 74 be 8e 19 af be
       -0.35464993 -0.28765196 -0.2391711 -0.34199184
000320 32 4d 9b bc bf d4 ad bd 64 86 6a bd 9e 60 e5 bd
       -0.018957708 -0.08487844 -0.05725707 -0.11200069
000330 c6 95 36 be 42 68 79 bd 8f 7d a0 be ee 99 37 bd
       -0.17830572 -0.060890444 -0.31345794 -0.044824533
000340 3e f5 dc bd f8 0e 0f be fe c4 1a be 3f 77 76 be
       -0.10788964 -0.13970554 -0.15114209 -0.24068926
000350 5f 7e 52 be 85 27 01 be 2c 38 4e be 86 a3 09 bd
       -0.20556019 -0.12612732 -0.20138615 -0.033603214
000360 14 5d 29 be 33 ac 86 be 41 a8 6d be 27 96 f5 bd
       -0.16539413 -0.26303253 -0.23208715 -0.1199153
000370 78 96 4b be 8a 1f 5a be ed 1b b2 bc da 31 52 bd
       -0.19881618 -0.21301094 -0.021741832 -0.051317073
000380 af 38 a9 bd 7d a2 3e be 74 84 85 be 1e 59 2e be
       -0.08262765 -0.18616672 -0.26077616 -0.17026183
000390 ff 4e 63 be 9c 52 45 be 4b 1d 20 be 12 6b df bd
       -0.22198103 -0.19269794 -0.15636174 -0.10909094
0003a0 5e e5 0c be 09 4a 85 bc 13 8c 85 be 13 39 62 be
       -0.13759372 -0.016270654 -0.2608343 -0.22092085
0003b0 8b fa 58 be e0 87 d4 bd b1 51 7f be 83 15 f9 bd
       -0.21189325 -0.103774786 -0.24933507 -0.12162306
0003c0 0c 1c 63 bd a8 06 fc bc 19 c0 cb bc 48 e8 16 be
       -0.05544667 -0.030764893 -0.024871873 -0.14737046
0003d0 ac 01 89 be e2 64 41 be e4 5b 27 bd b4 5d 05 be
       -0.26759088 -0.1888614 -0.040859118 -0.13024026
0003e0 ed ac 30 be 58 ba 15 be 5b 8a 08 be 4d 9f ff bd
       -0.17253466 -0.14621866 -0.13334028 -0.12481556
0003f0 1a 61 43 be 54 72 b0 be 0a 93 5f be 55 70 2a be
       -0.1908001 -0.34462225 -0.21833435 -0.16644414

bias f4 [50]
000000 3b 25 8c be 70 3d 0f be 30 aa e6 be 8c d0 02 bf
       -0.27372155 -0.1398828 -0.45051718 -0.5109947
000010 3c 8e 9a be 90 f3 b8 be 25 7c db be eb f4 83 be
       -0.3018664 -0.36123323 -0.42868152 -0.25772795
000020 b9 69 a2 be 50 fb e8 be 6a 4d 78 be 22 b6 ff be
       -0.31721285 -0.45504236 -0.24248281 -0.49943644
000030 91 41 ab be b7 ce bd be 25 52 c3 be 20 2d 9e be
       -0.3344846 -0.37071773 -0.3814861 -0.30893803
000040 71 af 87 be 37 e8 ae be 81 6e b2 be 06 0b 01 bf
       -0.2650104 -0.3416154 -0.34849933 -0.50407445
000050 d0 5c b9 be c7 3b 82 be 86 4d 98 be 68 5d fe be
       -0.36203623 -0.25436231 -0.29746646 -0.49680638
000060 98 ef 0a bf 47 62 e9 be 1d d5 ba be 93 1d ab be
       -0.5427184 -0.45582792 -0.36490718 -0.33421
000070 e3 e4 ba be 53 23 0b bf cf 0e b6 be 78 27 c9 be
       -0.36502752 -0.54350775 -0.35558173 -0.39287925
000080 08 5a 7c be 93 22 ff be ec 90 b9 be 82 c1 cf be
       -0.24643719 -0.49831066 -0.3624338 -0.40577322
000090 94 b9 b3 be 33 47 fb be 1a 8e b2 be f9 6e af be
       -0.35102522 -0.49077758 -0.3487404 -0.34264353
0000a0 92 ab c0 be c8 6e 06 bf c4 96 97 be 29 c1 c2 be
       -0.37630898 -0.5251279 -0.29607213 -0.38037995
0000b0 da 5d f2 be 70 bf dc be 39 c4 e9 be 3e 05 58 be
       -0.47337228 -0.43114805 -0.45657519 -0.2109575
0000c0 73 cf 63 be d7 4f a2 be
       -0.22247104 -0.31701538

weight f4 [30, 50]
000000 3c 2f 1a 3e 07 32 2b 3e e9 f8 63 3d e2 42 98 3d
       0.15057081 0.16718303 0.0556573 0.07434632
000010 94 3e b4 3d 7f cf af bc 37 db 9e 3d 98 e5 a6 3d
       0.08800998 -0.021461247 0.07756656 0.0814926
000020 8f 3c b6 3d 78 59 00 3e d5 54 61 3e cf 00 ac 3d
       0.088982694 0.1253413 0.22005017 0.08398592
000030 45 ef fe 3d c7 17 f0 3c 10 c8 26 3e 1e f1 07 bc
       0.12447981 0.029308213 0.16287255 -0.008297233
000040 c2 f9 7d bc 81 64 5d 3d 95 24 39 3e 57 ca e0 3d
       -0.015501441 0.054050926 0.18080361 0.10976093
000050 3c 90 77 bd 1e 02 fd 3d 78 10 0d bd e0 42 ec 3d
       -0.060440287 0.123539194 -0.034439534 0.11536193
000060 aa b9 fc bc 94 81 86 3d fe 69 6a 3d 4c 3f 8a 3c
       -0.03085025 0.06567684 0.05722999 0.016875885
000070 c0 a4 d4 3d b0 d5 ff 3d e4 a2 a7 3d 76 16 26 3e
       0.10382986 0.124919295 0.08185366 0.16219506
000080 d8 60 35 3e c4 b0 16 3e ff 4f d4 bc a1 fb 15 3e
       0.17712724 0.14715868 -0.025917051 0.1464677
000090 cb 8a 13 3e 6c 72 85 3d 82 e2 88 3d 81 42 5b 3b
       0.14408414 0.06515965 0.06683828 0.0033456387
0000a0 bc e7 6d bc d7 d5 8e 3d dd a6 a6 bc 37 6d a9 3d
       -0.014520582 0.069743805 -0.020343238 0.08272784
0000b0 cf d2 d7 3d e6 74 d8 3d 28 27 10 bd f8 fc e1 3c
       0.105382554 0.105691716 -0.035193592 0.027586445
0000c0 41 d8 9f 3d 97 73 0c 3e 4b 07 ca bc 74 e9 1b 3d
       0.07804919 0.13715969 -0.02466168 0.038064435
0000d0 0e ad 34 bd ac d6 0c 3d 4e 08 1d 3d 1b c4 b6 bc
       -0.04411035 0.034384415 0.038337998 -0.022310307
0000e0 a6 ea 78 3c ae 76 5f bd 49 b6 0b be e3 ac a1 3d
       0.015192663 -0.05455654 -0.13643755 0.07894304
0000f0 1e d9 00 3e a8 72 8c bc 53 19 92 3d 4d 95 bc 3d
       0.12582824 -0.017144516 0.071337365 0.09208164
000100 41 4e e3 3d 9c 68 87 3c bd d1 e4 bc 57 da 07 be
       0.1109891 0.016529374 -0.027932042 -0.13266884
000110 df 0a 8d 3d 78 6d c9 bc f8 eb 98 bc 70 cb d4 3d
       0.06886839 -0.024588332 -0.018667206 0.10390365
000120 da 67 5a bd ed b6 e4 bd 1b e1 9e 3d 1d 8f 39 bc
       -0.053321697 -0.11167703 0.07757779 -0.011325625
000130 c5 da b4 bd 03 4e d4 bb c9 00 23 3c e7 0a 07 3d
       -0.088307895 -0.0064790263 0.009948918 0.03296938
000140 ed c1 af 3d 22 03 f7 3c 29 4a d0 bc 36 8b 05 bd
       0.0858191 0.030152861 -0.025425987 -0.032603465
000150 e3 aa 6e 3d 83 b7 bf 3d 3d 42 88 bd 9d 23 5e bd
       0.05826844 0.09361174 -0.06653259 -0.054233182
000160 fb fb 23 bc e3 4c 97 bd 85 9b c8 bc 0c 3d 94 3d
       -0.010008807 -0.07387712 -0.02448822 0.07238206
000170 de 8c c5 3d 49 4b 42 3d db 4d 88 bc e6 46 99 bd
       0.09646009 0.04743508 -0.016638687 -0.07484226
000180 0b 35 9c 3d 0b 6a b4 ba aa c8 be 3c c2 15 de 3d
       0.07627305 -0.0013764513 0.023289043 0.10843994
000190 85 27 08 3e 98 b1 c8 3e 2f a5 f1 3c 1e 59 d4 3d
       0.13296326 0.39197993 0.029497711 0.1036856
0001a0 35 28 6e 3e 25 9d d1 3d 5e 53 d5 3c 4e 70 28 3e
       0.23257525 0.10235051 0.02604073 0.16449091
0001b0 21 db 2f 3c 02 a8 42 3e 3e 6a b4 3e 31 b0 79 3d
       0.010733397 0.19009402 0.35237306 0.060959045
0001c0 91 dd 6e 3e 02 ad 3d 3e 6a 94 30 3e 56 d7 28 3e
       0.23326708 0.18523028 0.17244115 0.16488394
0001d0 b0 f5 63 3c 1e 3a a9 3c 0c f5 8f 3e 4c b1 ea 3d
       0.013913557 0.020657595 0.28116643 0.11459598
0001e0 93 bb 98 3a 79 07 8e 3e 65 db ba 3d cf 4e 43 3c
       0.0011652581 0.27740076 0.091238774 0.011920645
0001f0 4b dc 72 3d 6c 31 3a 3d b9 61 0c 3d 88 a5 8f 3d
       0.05929212 0.04545729 0.034272883 0.070139945
000200 cd 39 b9 3d e6 89 8d 3d 73 20 f1 3d c3 ab 8e 3e
       0.09044228 0.06911068 0.11773767 0.2786542
000210 36 22 53 3e 9e ea 10 3c d2 51 04 3e 58 52 3e 3d
       0.20618519 0.008845 0.12921837 0.046465248
000220 ed 8f a2 3d e9 e5 97 3d 40 ef 40 3d 7f e7 86 3d
       0.07937608 0.07416899 0.047103167 0.06587123
000230 41 5e 11 bc d5 62 6b 3d 8b 6b 4a 3d b1 1a bc 3d
       -0.00887257 0.0574673 0.049418967 0.091847785
000240 a0 20 04 3e 53 e0 07 3d 2c 9f 46 3d 2f 95 15 3e
       0.1290307 0.033172917 0.048491642 0.1460769
000250 6e 94 73 3e b8 5a 84 3e 07 f3 d0 bd ce 0f ad 3d
       0.2378709 0.25850463 -0.10202604 0.0845028
000260 7e 70 c5 bc 5a 02 56 3d 38 d1 b3 bd 2b e5 e3 3d
       -0.024101492 0.052248336 -0.0878014 0.11127695
000270 81 45 be bd 6e 8f 04 3d c6 a1 cc 3d 66 25 9d bb
       -0.092906006 0.032363348 0.09991793 -0.004795718
000280 30 bd 99 3d 4f fb c0 3d 74 0d 49 bd 50 0a 3c 3c
       0.07506788 0.09422933 -0.049085096 0.011477068
000290 8d 72 b0 3c 5d 19 17 bd 98 3b 0e be f4 db 93 3d
       0.021538997 -0.036889423 -0.1388992 0.07219687
0002a0 de 9b fd bd aa fd 2b 3d 09 b7 61 bd 36 39 d2 b9
       -0.12383245 0.04198996 -0.055106197 -0.00040096947
0002b0 53 44 d5 bc 1e 06 ab bd 3f 73 14 bd 24 e9 e8 bd
       -0.026033556 -0.08350776 -0.03624272 -0.11372593
0002c0 2b 7b 98 bd 23 ca a0 3d 17 f7 af 3d 43 0a ca bd
       -0.074453674 0.078510545 0.085920505 -0.098652385
0002d0 0d ab 37 bd f7 e6 96 bc 8d 27 b4 bd ab 40 64 3c
       -0.04484086 -0.01842068 -0.08796606 0.013931434
0002e0 9e 66 cb bc 28 f2 9d 3c 4a 2f 8c bd 20 50 cd bd
       -0.024829205 0.019280508 -0.06844957 -0.10025048
0002f0 db ef 59 bc 4c 37 30 3d b5 46 01 3e c2 62 ed 3d
       -0.013301815 0.043021485 0.12624629 0.11591102
000300 f8 7e 29 3b 35 98 98 3d cc 63 3f bd 22 c2 c4 3d
       0.0025863033 0.07450906 -0.046726033 0.096073404
000310 67 f0 6a 3c 39 e0 fd bd d8 56 47 bd 2d 99 a8 3d
       0.014339543 -0.12396283 -0.048666805 0.08232341
000320 29 d1 a3 bd db 6e 1a be 86 12 c2 3d a7 3c 3c bc
       -0.079988785 -0.1508135 0.09476189 -0.01148907
000330 f6 61 4c bb de 94 c9 bd 96 9d 90 3d fc 36 a1 3d
       -0.003118632 -0.09842847 0.07061307 0.078718156
000340 b1 52 1c be 8c 92 a8 3c 26 c0 87 3d 8b db 02 be
       -0.1526592 0.020577691 0.06628446 -0.12779061
000350 47 b0 54 bb d6 b8 b6 bd dd 02 05 3d 95 d3 17 3d
       -0.0032453702 -0.089219734 0.032473434 0.037067015
000360 45 cf 9a 3c 9a 04 81 bd b5 6d 88 3d 93 83 75 bd
       0.018897662 -0.06299706 0.0666155 -0.059939932
000370 5d 49 bd 3c 66 bb f4 3c 0d 9d 0d be b6 8d 04 be
       0.023106271 0.029874515 -0.13829441 -0.12944683
000380 8d 21 37 bd d4 dd 0b be 8a ca 85 bd 6d 65 20 3d
       -0.04470973 -0.1365884 -0.06532772 0.039159227
000390 d4 ff 68 3d 1e 1a 35 bd 5b 1e 94 bd af 95 f3 bd
       0.0568846 -0.04421436 -0.07232352 -0.11893784
0003a0 8f 06 07 bb 78 23 ff bc e7 0f 78 3c 68 6f 21 be
       -0.0020603274 -0.031144843 0.01514051 -0.15765154
0003b0 0a 33 ed bc 68 7b 9a bd 02 5a e0 bd e0 2f c5 3c
       -0.028955001 -0.07543069 -0.10954668 0.02407068
0003c0 e9 09 12 be ab 9d 03 be bc c0 84 3d fa 17 0f be
       -0.14261593 -0.12853114 0.06482074 -0.1397399
0003d0 cc 09 ea 3c 00 30 cf bd 9a ae fa bd ba 31 9a bd
       0.028569125 -0.10116577 -0.12240334 -0.07529016
0003e0 b5 2e e8 bd 3f 37 b8 bc 20 ba 10 3d 89 2f 14 be
       -0.11337034 -0.02248728 0.035333753 -0.14471258
0003f0 4a 3d f9 bd 54 53 60 bd 00 bd 6d bd c4 0c 92 3d
       -0.12169893 -0.054766968 -0.058041573 0.07131341

bias f4 [30]
000000 b4 b3 2f bd 76 db 98 bd de a0 2a 3f ef ac e7 bd
       -0.042895988 -0.07463734 0.66651714 -0.11312281
000010 2e b2 6a 3d b7 37 82 bd 9d aa 12 be 14 7d bc 3d
       0.05729883 -0.06358283 -0.14322896 0.09203544
000020 9b 08 18 3d 4b 9f f6 bd b2 14 4c 3e 51 02 27 bd
       0.03711758 -0.120421015 0.1992977 -0.040773693
000030 10 0b 99 bd c6 99 68 bd bb 4a 02 bd 37 b2 2c 3d
       -0.07472813 -0.056787275 -0.03180955 0.042162146
000040 b2 c9 6e 3d a7 be f0 bc ef 9e 3f be 9f fe 1a bc
       0.05829782 -0.029387785 -0.18712972 -0.00946012
000050 b2 11 a4 bd c8 c4 a0 3d f0 3e a6 bd 6a 7f 2d 3d
       -0.080111876 0.07850033 -0.08117473 0.04235784
000060 24 23 a1 bd b9 10 b5 bd 3a 60 ee bd 2e e1 80 3c
       -0.07868031 -0.0884108 -0.116394475 0.015732374
000070 c4 f9 e8 bd 1d 31 93 bc
       -0.11375764 -0.017967755

weight f4 [30, 50]
000000 f6 dc 82 be 4b f1 6b bf ee 53 3b bd 4f 16 c6 bd
       -0.25559205 -0.9216506 -0.04573434 -0.09672224
000010 2b 54 06 bf ac 0d 91 be cc e6 a2 be d0 a3 bb be
       -0.5247218 -0.28330743 -0.3181671 -0.36648417
000020 91 42 1c be a5 0a eb be 45 9d 49 bf 75 7a 31 be
       -0.15259768 -0.4590656 -0.787556 -0.1733187
000030 39 d0 b4 be 04 33 3f be 24 b5 ce bd 0a a7 7d be
       -0.3531511 -0.18671805 -0.100931436 -0.24770752
000040 01 1d 9d be ec b2 1a be 0b 09 27 bf ce 00 04 be
       -0.3068619 -0.15107316 -0.65248173 -0.12890932
000050 2f 32 3b bd 5f dc fc be 9a 53 4b be cd 73 a5 be
       -0.045702156 -0.4938688 -0.1985611 -0.3231491
000060 bc 66 90 be ee c9 90 be c2 6e 0b be 4c 1a a7 bd
       -0.2820338 -0.2827906 -0.1361647 -0.081593126
000070 6f 2e 86 bd 3b 3f 9d bd 71 6f 65 be 50 82 11 bf
       -0.06551825 -0.07678076 -0.22405793 -0.56839466
000080 fd 11 d4 be 66 76 76 be d8 18 68 be 5a f1 89 be
       -0.41419974 -0.24068603 -0.22665727 -0.2694195
000090 e1 8a ae be b4 4d 83 be 22 23 8a be f2 9a 60 be
       -0.3409033 -0.2564522 -0.2697993 -0.21934107
0000a0 a2 be 2d be c9 04 8a be 56 8c 93 be 3d 6c b0 be
       -0.16967252 -0.26956776 -0.28818005 -0.3445758
0000b0 9c da 65 be bb 1b 03 be 36 46 e6 bd 9f de e4 be
       -0.22446674 -0.12803547 -0.112438604 -0.44701096
0000c0 1b 97 d2 be 0d 28 17 bf 73 4a 8d be 86 ef 60 bf
       -0.4113091 -0.5904549 -0.27595863 -0.87865484
0000d0 38 9c 4e 3d 93 fe 8b be d3 75 82 be b3 a6 03 be
       0.05044195 -0.27342662 -0.25480518 -0.1285656
0000e0 21 4b d8 bd ad e9 a3 be 47 75 1f 3c 80 0b 8b be
       -0.10561205 -0.32014218 0.009732551 -0.2715721
0000f0 1e fe 39 bf 0b d1 2d 3d 51 fc 0d bf 9e 18 60 be
       -0.7265338 0.042435687 -0.5546313 -0.2188439
000100 48 1b 95 be af d6 91 bd d1 41 43 be e8 13 c5 bd
       -0.29122376 -0.07121026 -0.19068076 -0.096229374
000110 fe 50 3e bf 49 d0 69 bc 98 21 03 be eb 09 b1 be
       -0.74342334 -0.01427085 -0.12805784 -0.3457788
000120 98 15 05 3d 7c 7e 8e bd a4 22 b1 bc f8 3e c2 bd
       0.032491297 -0.06957719 -0.021622963 -0.094846666
000130 ab cf c8 bd 72 75 f2 bd 0e bb 8d be 1b 60 69 be
       -0.098052345 -0.11838807 -0.27681774 -0.22790568
000140 71 6f a6 bd 88 f3 14 bf 50 67 9e be a8 c1 28 3c
       -0.081267245 -0.581841 -0.30938196 0.0103000775
000150 c6 03 86 be 2e d3 1b 3b c5 12 16 be 97 20 81 be
       -0.26174754 0.0023776996 -0.14655598 -0.25220177
000160 b6 66 af bd 6c e8 35 be 33 8b 79 be 4c cc 19 bd
       -0.085645124 -0.17764443 -0.24369507 -0.03754835
000170 b8 e2 1c be 9c 33 a6 be 25 9c 20 be 5c eb 23 bd
       -0.15320861 -0.3246125 -0.15684564 -0.040019378
000180 75 63 ab bc 84 ea e5 be a0 6f a1 be 21 ab 19 bf
       -0.020921448 -0.44905484 -0.31530476 -0.60026747
000190 c2 46 92 be 5f b8 92 bf f2 58 12 be db 63 aa be
       -0.2856961 -1.1462516 -0.14291742 -0.3327931
0001a0 73 14 c6 be 1c 05 9f be 9a 74 38 be 61 77 04 bf
       -0.38687477 -0.31058586 -0.1801323 -0.5174466
0001b0 a8 88 fb bb 76 55 af be 3b 1a 75 bf e5 7e 0d bd
       -0.007676203 -0.3424489 -0.9574315 -0.034544844
0001c0 5b f2 0b bf e7 b6 3a be d6 a0 ab be 7f 6b 91 be
       -0.5466668 -0.18233834 -0.33521146 -0.28402326
0001d0 16 c5 83 be 13 79 00 be c4 89 79 bf df 81 31 be
       -0.25736302 -0.12546186 -0.9747584 -0.17334698
0001e0 83 37 0b be 02 df b5 be 96 cf 60 be 1c e3 80 be
       -0.13595395 -0.35521704 -0.21954188 -0.2517327
0001f0 4d ce 93 be 7b 3a a0 be 0a 61 21 be df 4a 83 bd
       -0.28868333 -0.31294617 -0.15759674 -0.06410765
000200 25 b4 62 be 5b e0 81 be 14 ea 7b be 0e 3d 83 bf
       -0.22139032 -0.25366482 -0.24601012 -1.0253007
000210 2c f4 ca be b2 55 8e be d3 51 6b bd 42 e0 ec bc
       -0.39639413 -0.27799755 -0.05745108 -0.028915528
000220 0d ad ca be 46 70 38 be 9a b7 53 be e8 8d aa be
       -0.39585152 -0.18011579 -0.20675507 -0.3331139
000230 f6 a0 90 bd d5 01 08 bd ed 72 4e bd dd ae 03 bf
       -0.07061951 -0.033204872 -0.05040257 -0.51438695
000240 97 14 47 be a1 88 82 bd 1b 4a a0 bd 47 98 07 bf
       -0.19441448 -0.06373716 -0.078266345 -0.5296673
000250 46 4f ba be fb ee 27 bf 7f 6e 01 3c 96 a9 87 3c
       -0.36388606 -0.6559903 0.0078998795 0.016560357
000260 61 70 29 3c 2a 57 8c bd cb 8a 6c 3d 34 c9 85 bd
       0.010341735 -0.06852563 0.05774955 -0.06532517
000270 8d 05 7d bd 39 98 d1 3c 9d 1c 0d 3d e9 1e 43 3d
       -0.06177287 0.02558528 0.034451116 0.0476369
000280 10 05 3c 3d 74 89 62 bd 90 9e 81 bd 44 70 88 3d
       0.045903265 -0.055306867 -0.063290715 0.06662038
000290 96 60 01 be 15 74 6c 3d 0f 0a 8f 3d 2d 63 03 3d
       -0.12634501 0.057727892 0.069843404 0.032077003
0002a0 c0 ee 9f 3d 0f ba f1 3d 3e 96 33 bd 82 22 aa bd
       0.0780921 0.11803066 -0.043844454 -0.08307363
0002b0 89 2e a5 bd d9 62 36 3d 69 a7 7b bd f1 df 61 3c
       -0.080655165 0.044527862 -0.06143895 0.013786302
0002c0 06 97 1c bc 4f 36 d8 bd 83 9a dd 3b c1 c0 20 bd
       -0.009557491 -0.105572335 0.006762804 -0.039246324
0002d0 f5 b9 61 bc 21 58 a1 3d 11 f8 60 bd 32 08 6a bd
       -0.013777246 0.078781374 -0.054924075 -0.057136722
0002e0 b4 c4 18 bd a9 93 bb bc e1 9b 1e 3d 13 15 d7 3d
       -0.037296966 -0.022897558 0.038722876 0.105020665
0002f0 55 08 15 be 07 79 8f 3d dd 97 12 3e f6 f1 9c bd
       -0.1455396 0.07005506 0.14315744 -0.07663338
000300 71 03 8a 3d c2 3c b0 3b 1d 51 b3 bd 7c ab 4a bc
       0.06738938 0.0053783366 -0.087557055 -0.012369987
000310 29 1d 4b bd 85 07 c4 3d 4a 57 9a bd a5 cf 97 bd
       -0.049588356 0.09571747 -0.0753618 -0.07412652
000320 2c a3 b9 3d 73 83 78 bd 25 c3 0f be 87 c4 bf 3d
       0.09064326 -0.060672235 -0.14039285 0.093636565
000330 b2 26 ab 3c 8a c1 6f 3c 98 e3 5f bb 6a c2 97 bd
       0.020892475 0.014633546 -0.0034162756 -0.074101284
000340 15 85 07 3d 97 5a 0d 3d 76 ff d5 bc f3 4c 99 3d
       0.0330859 0.03451022 -0.02612279 0.0748538
000350 73 b1 03 be fb 81 ea 3c e4 4c b5 3d 27 f1 03 bd
       -0.1286066 0.028626433 0.08852556 -0.032212403
000360 c9 a2 b1 3d 46 72 5d bc 6a 61 85 bd 71 ed 00 3c
       0.08673627 -0.013516014 -0.06512721 0.00786911
000370 87 89 fb 3c 60 7b a3 bc 80 39 be bd ac e8 7c 3d
       0.030705227 -0.01995629 -0.09288311 0.06174533
000380 5c 19 12 3d 06 61 f7 bd fc 50 dc 3c b4 62 1b 3a
       0.035668716 -0.120790526 0.026894085 0.00059274887
000390 32 ad cb bc 83 22 ba bc e9 fe a8 3d 52 d4 06 be
       -0.02486286 -0.022721535 0.08251745 -0.13166931
0003a0 3a 41 92 bc 6f d8 7e bb 17 6d c4 bd 95 aa aa bc
       -0.017853368 -0.0038886329 -0.0959112 -0.020833293
0003b0 fe bc 2c be 92 be b1 3b fe 75 c8 bc 47 2f 56 bd
       -0.1686897 0.005424329 -0.024470326 -0.05229118
0003c0 90 f3 06 be d2 df 52 3d d1 fe 7c bd bb 2c cc 3d
       -0.13178849 0.051482983 -0.06176645 0.09969469
0003d0 6e 06 b9 3d 24 d4 9a 3d 73 16 d1 3d 00 30 7e 3d
       0.090344295 0.07559994 0.1020936 0.062057495
0003e0 1b 2f da bc dc 5b 9e 3c b6 94 46 be f3 af 2b be
       -0.02663379 0.019330911 -0.19392666 -0.16766338
0003f0 36 ec 31 be ea 02 e8 bd 02 2c 04 be cd 25 08 be
       -0.17375264 -0.11328681 -0.12907413 -0.1329567

bias f4 [30]
000000 28 3b 80 bf af e6 37 bf fd 18 9b bf 52 6a 66 bd
       -1.0018053 -0.7183637 -1.2117001 -0.05625374
000010 c1 f2 ac 3c fb 27 82 be b9 bb 7b bf 69 fb 75 bf
       0.021111848 -0.25421128 -0.9833332 -0.96086746
000020 c5 af 61 bf 4a e6 62 bc fc 44 8d bf 0f f5 9b 3a
       -0.8815883 -0.0138488505 -1.1036677 0.0011898595
000030 66 6f 33 bf b7 a5 1a be 1d 80 0b bd a8 0f bd bd
       -0.70091856 -0.15102278 -0.034057725 -0.09231502
000040 4c 55 9f bc 36 7a ef bb 82 13 e2 be 78 a0 ce 3c
       -0.019449852 -0.00730827 -0.44155508 0.025223002
000050 87 5a 28 be 55 23 a4 3d ee 21 d7 be e4 46 5d bd
       -0.16440783 0.080145516 -0.42018074 -0.054022685
000060 02 68 69 3d 7b d3 f1 be 6b bc f5 bc a5 c5 27 3b
       0.056983955 -0.4723166 -0.029997071 0.0025599983
000070 63 0f 86 bd 9b b9 a1 bc
       -0.065459035 -0.019741824

eps f4 [30, 1, 1]
000000 c6 e4 82 3f 8a 1b fa 3e f1 e9 20 3f d3 cd b2 bf
       1.0226066 0.48849136 0.62856966 -1.3969063
000010 c7 e4 b3 bf a7 8b 72 3f bd f2 06 3e 2b 6d 77 bf
       -1.4054192 0.9474434 0.13178535 -0.9665095
000020 b0 bd 0a bf 1e d2 6b bb 5f 23 a6 be 1f fe be bf
       -0.5419569 -0.0035983394 -0.3244886 -1.4921302
000030 a8 3d 36 bd ee 05 3d 3e 2f 96 64 bf 7f cb fe 3f
       -0.044492394 0.18459293 -0.8929166 1.9905852
000040 9a b1 6a bf c9 4e 49 3d 0e bf 16 3f d9 85 c5 3f
       -0.9167725 0.0491474 0.58885276 1.5431472
000050 f5 61 81 3f 35 d7 a3 3f c1 18 ca 3f c8 3b 3f 3e
       1.0108019 1.2800051 1.5788804 0.18675148
000060 b9 5a c8 3f b6 4e 7b 3e a8 32 08 40 13 9a 4f 3f
       1.5652686 0.24541745 2.1280918 0.81094474
000070 7f 30 c6 3f 98 a4 97 3e
       1.548355 0.29617763

exp_avg f4 [30, 69]
000000 86 8c ac c0 3e 53 55 3f 61 42 9e 40 f5 72 9b 41
       -5.3921537 0.8333014 4.945603 19.431131
000010 83 06 80 40 06 71 20 40 0f f9 6a 40 b5 08 e2 3f
       4.000795 2.5068984 3.6714513 1.7658907
000020 4d b4 bf c0 d8 ea 6b 3e b1 bc 81 3f de 22 36 41
       -5.9907594 0.23038805 1.0135709 11.3835125
000030 59 5b 8f 40 17 c8 f0 3f 60 cf 36 40 5b c5 0f 40
       4.479901 1.8811063 2.8564072 2.2464206
000040 57 c8 a8 3e 86 35 ae 3f 5c cf d6 40 2e fc cb 3f
       0.32965347 1.3610084 6.7128124 1.5936334
000050 95 a8 88 40 14 85 a7 3f c0 18 2a 40 d3 66 26 40
       4.270579 1.3087487 2.6577606 2.600026
000060 1f 91 06 40 4b f2 c5 3f a8 99 f6 3d c9 05 6b 3f
       2.1026075 1.5464567 0.12041026 0.918057
000070 f0 ce 60 40 e4 52 3d 40 02 43 7a 3f c8 67 01 40
       3.5126305 2.9581842 0.97758496 2.0219593
000080 4d e6 d0 be d7 41 2a 40 70 43 91 3f 46 06 b2 40
       -0.40800706 2.6602685 1.1348705 5.563266
000090 61 30 6c 3f 63 f1 14 3d 1c 84 86 3f 56 a2 96 bf
       0.9226132 0.036363017 1.0509067 -1.1768291
0000a0 98 6e 72 40 fb e1 fa bf bb bd 53 3f 49 4b bc 3f
       3.788 -1.9600214 0.8271138 1.4710475
0000b0 b6 dc 3b 3f 4a 21 9b 40 0a 23 f6 40 43 18 06 3f
       0.73383653 4.8478136 7.691777 0.5238077
0000c0 50 14 dd 3f da 99 20 c0 92 11 be 3e df 56 34 c1
       1.7271824 -2.5093904 0.3712278 -11.271209
0000d0 22 8b 91 40 c8 ac 2c 40 34 81 90 3f 71 04 02 40
       4.548234 2.6980457 1.128943 2.031521
0000e0 7b 79 2d 40 23 19 3d 3f 05 d8 0c c3 49 a8 4a 40
       2.7105396 0.7386648 -140.84383 3.1665213
0000f0 a0 66 19 40 ab 1e 8f 40 96 9d 00 3f fa 96 5d 3f
       2.3968887 4.4724936 0.5024046 0.86558497
000100 07 40 34 40 b1 a3 b8 40 6d d2 13 40 e1 65 55 40
       2.816408 5.769982 2.3097184 3.3343432
000110 aa c9 f2 3e 48 b1 e3 3f 09 2b a0 3e 05 38 1f 40
       0.47419482 1.7788477 0.31282833 2.4877942
000120 c6 30 b7 3d 9c 62 95 3f a0 2c 85 3e e0 97 42 40
       0.0894485 1.1670718 0.2601061 3.0405197
000130 bd ea ab 3f 86 f4 2a 41 1c 94 13 40 58 7a 55 40
       1.3431011 10.684698 2.3059149 3.3355923
000140 79 87 81 40 fb 2e 13 41 47 4f f0 3f b2 ca b9 3f
       4.047787 9.19897 1.8774194 1.4514983
000150 de a6 99 3f 0f d3 9c 3f de f3 2f 3f 05 8d b7 3e
       1.2004049 1.225191 0.68731487 0.35849777
000160 1a 6a ac 40 22 69 06 40 3f 51 02 3f cd 94 eb 3e
       5.387952 2.1001668 0.5090522 0.46011963
000170 18 be d6 40 de cb 7b bf 66 33 a4 40 2e e5 d0 bd
       6.710705 -0.9835795 5.131274 -0.101999626
000180 e1 f1 8c c0 76 e6 7f 40 aa 7a 99 40 8c 20 10 40
       -4.404526 3.9984412 4.7962236 2.2519865
000190 2c c2 b7 3e e3 73 23 3f 28 ef 96 3e 9b dd 5b 3f
       0.3589033 0.63848704 0.29479337 0.8588502
0001a0 ff c4 13 40 65 f3 11 3f 2d 23 ae 3f e5 01 98 3f
       2.3088987 0.57012016 1.3604485 1.1875578
0001b0 77 33 5c 40 cb ca 55 bd 98 ad f7 3f 58 2f 94 3f
       3.4406412 -0.05219535 1.9349852 1.1576948
0001c0 50 3f 8b c1 05 1f 84 bc 37 2f 7c c0 42 dc c7 3f
       -17.405914 -0.016128073 -3.9403818 1.5614092
0001d0 b9 3c 02 40 16 85 2d 3f 18 1b cb 3f 36 c7 96 3f
       2.0349562 0.677812 1.5867643 1.1779544
0001e0 d5 a1 ae c2 e3 bb 90 3f 5f f3 6c 3f c4 a9 75 3e
       -87.31608 1.1307338 0.92558855 0.23990542
0001f0 d7 53 df 3f 53 19 a5 bf c9 aa db 3e 3d 66 3c be
       1.7447461 -1.2898353 0.42903736 -0.18398376
000200 41 08 27 40 67 d5 6c 40 d7 99 79 3f 24 31 52 3f
       2.6098788 3.700525 0.97500366 0.8210623
000210 2d 49 15 40 c9 9d 67 be df 76 15 3f a1 74 b3 3f
       2.3325913 -0.22618784 0.5838451 1.4019967
000220 b2 78 cf be 5d 41 ad 3d 62 34 4b c1 dd 64 59 3f
       -0.4052177 0.08459733 -12.700289 0.8491953
000230 12 de 4f 42 9d 44 3d 40 26 00 08 41 5a c5 5c 3f
       51.966866 2.9573128 8.500036 0.86238635
000240 34 89 f5 40 e9 98 30 41 90 04 be bf 71 80 c5 40
       7.6729984 11.037332 -1.4845142 6.171929
000250 b5 a5 0c 41 44 86 2c 41 40 32 95 3f 88 f9 5a 41
       8.790456 10.78278 1.165596 13.685921
000260 e0 e3 a4 40 07 78 82 40 3b 94 01 be e8 d4 de 40
       5.152817 4.077152 -0.12654202 6.9634895
000270 92 5b 13 c0 6b 7b 61 be e4 9e 9c c0 cd cd 82 c0
       -2.302464 -0.22019736 -4.894396 -4.087622
000280 12 31 9c c0 23 bb 8f 42 e9 2c d2 bf 43 64 04 c2
       -4.88099 71.8655 -1.6419955 -33.09791
000290 cd bb 54 40 51 74 83 bd 95 5c 92 3f bb 94 5a 40
       3.3239625 -0.0641867 1.1434504 3.4153278
0002a0 da 36 2a bf 6f b0 4a 40 d5 3d da bf 9c f1 22 41
       -0.66489947 3.1670187 -1.705012 10.183987
0002b0 e9 d4 44 40 2c 59 5d 40 96 bb 00 41 70 98 24 3f
       3.075495 3.4585676 8.045797 0.642951
0002c0 cd 78 11 40 2a 66 34 c0 2c 05 a5 40 f9 8c 4b 40
       2.272998 -2.8187356 5.1568813 3.1804793
0002d0 cc 9b 78 40 6d b9 4c c0 2d d3 73 c0 0f 08 85 40
       3.884509 -3.1988175 -3.8097641 4.1572337
0002e0 49 a3 ff 40 7e e5 f5 40 a1 64 8b 40 30 6c 97 c3
       7.9886823 7.684264 4.356034 -302.8452
0002f0 25 b2 09 41 8b fb b6 c0 b7 83 c6 3f 7a 47 0a bf
       8.605992 -5.718206 1.5508946 -0.54015315
000300 b1 04 d4 40 d1 85 16 40 63 e6 0c 40 3a 63 a4 3f
       6.6255727 2.3519175 2.2015617 1.2842782
000310 43 ba e3 bf bc 68 29 3f 75 8c 02 41 89 7b 97 40
       -1.7791218 0.66175437 8.159291 4.73383
000320 69 f4 42 42 d8 56 c8 40 79 fe 11 c1 15 44 82 3f
       48.73868 6.260601 -9.124627 1.0177027
000330 5a 62 26 40 b5 7a d1 40 23 a3 0b 41 97 1c bb 3e
       2.599753 6.546229 8.727328 0.3654525
000340 b4 f5 50 3f 15 ce 94 3e fd 25 82 3e 16 f1 38 3f
       0.81624913 0.29063478 0.25419608 0.7224287
000350 91 71 0d 3f f7 df 10 3e c6 61 f0 3d cb 6b ea 3d
       0.55251414 0.14147936 0.11737399 0.11446341
000360 80 22 29 3e b3 81 59 3f c2 11 68 3e f2 91 4c 3d
       0.16517067 0.8496353 0.22663024 0.04994387
000370 31 1d 2b 3f 9f 3e 0e 3e ef f5 fb 3d 49 03 8b 3d
       0.6684142 0.13891076 0.123027675 0.06787736
000380 7b e5 c5 3e 1f cb f1 3d 0a 32 07 3f 91 2d a4 3e
       0.38651642 0.118063204 0.5281073 0.32066014
000390 9d 89 84 3d 06 ea 9e 3e a2 57 e6 3c f6 67 c5 3d
       0.0647156 0.3103792 0.028117958 0.096389696
0003a0 f1 77 d9 3c cc e9 bb c0 69 b9 e7 3e cb 7e 58 3e
       0.02654645 -5.8722897 0.45258644 0.21142118
0003b0 41 c6 5f 3f b7 1c 54 3e 23 cd 2d 3e 22 d8 3f 3e
       0.87411886 0.20714079 0.16972785 0.18734792
0003c0 e9 63 1e 3f 0c 48 16 3e aa 61 16 3f 25 16 8b 3e
       0.618712 0.14675921 0.58742774 0.27165332
0003d0 14 7c 16 3e 86 9d 92 3d 08 0a 2a 3e 6a 2a b7 3d
       0.1469577 0.071589515 0.16605389 0.08943637
0003e0 b3 0d 10 3f 1e 4c ea 3d f6 7d 3e 3e 29 bf e8 bf
       0.56270903 0.114402995 0.18602738 -1.8183337
0003f0 45 c7 65 3f 53 d6 4c 3d 85 3d f0 3d 0b ba 1c 3d
       0.89757186 0.050009083 0.11730484 0.038263362
