mcspace/paper/human_runs/runs/seed_7/model.pt (torch, 308831 bytes, 66 tensors)

theta_params f4 [100, 58]
0	0xbf0b2436	-0.5435213
1	0xbf2b367f	-0.6688003
2	0xc0c2aff9	-6.083981
3	0xc0adf123	-5.4356856
4	0x3f92df9a	1.1474488
5	0xc0093d2f	-2.1443594
6	0xc0d7e598	-6.7467766
7	0x404fa52d	3.2444565
8	0xbec3aff7	-0.38220188
9	0xbe6e8a8b	-0.23295037
10	0xbf92f611	-1.1481344
11	0xbfd09ae2	-1.6297266
12	0xbe6b97e9	-0.23007168
13	0xbdb5232f	-0.08844601
14	0x3fbc9355	1.4732462
15	0x3f373a58	0.715734
16	0xc0d098b6	-6.5186415
17	0xbf933ca3	-1.150288
18	0x3fe10e5b	1.7582506
19	0xc03e66ad	-2.9750168
20	0x3fea40cf	1.8301028
21	0xc052433a	-3.2853532
22	0xc0b7dd42	-5.745759
23	0x406436e2	3.5658498
24	0xc0aa5594	-5.3229465
25	0xc0011223	-2.016732
26	0xc0f861e2	-7.7619486
27	0xbf767030	-0.96264935
28	0xc0269d0f	-2.603336
29	0xc0bc7c06	-5.8901396
30	0xc0836dcc	-4.107153
31	0x400740a6	2.1133208
32	0xc0a33f99	-5.1015134
33	0x402cebf2	2.701901
34	0xbefb63a4	-0.49099457
35	0x3e0f2998	0.1398071
36	0x3eda81bf	0.42677113
37	0xbcef95c0	-0.029246211
38	0xc026c396	-2.6056876
39	0x4040a44a	3.0100274
40	0xc0d49aa4	-6.643877
41	0xc02191e6	-2.52453
42	0x408dafba	4.427701
43	0x3f7a874c	0.97862697
44	0xbf0ef6a5	-0.558451
45	0x3fd57d85	1.667893
46	0x3e544ced	0.2073247
47	0xbe93f9b7	-0.28901455
48	0x3ee4266c	0.44560564
49	0xbfb26f56	-1.3940227
50	0xbf09090a	-0.5352942
51	0x3f43bb8c	0.7645805
52	0xc0b32b08	-5.599003
53	0xbfedb6da	-1.8571427
54	0x3f865ff5	1.0498034
55	0xbed6c7dc	-0.41949356
56	0xbf5be9a7	-0.859034
57	0xc0167ba2	-2.351296
58	0xc00270f6	-2.0381446
59	0x3f57b389	0.84258324
60	0xc07c85b9	-3.9456618
61	0xbfa56c53	-1.2923683
62	0x3fa169ae	1.2610376
63	0xc06562dd	-3.5841591
64	0xc00e50b5	-2.223676
65	0x4049b794	3.1518297
66	0xc083b6cb	-4.1160636
67	0x3f34f475	0.7068551
68	0x3cc131b9	0.02358328
69	0xc07d1b1f	-3.9547803
70	0xbdfdbf8b	-0.123900495
71	0xbfae796b	-1.3630804
72	0x3f6975cb	0.9119536
73	0xbfc8bd42	-1.5682757
74	0xc06aaf21	-3.666939
75	0xc097be24	-4.7419605
76	0xbf55d23b	-0.8352391
77	0xbe148c99	-0.14506759
78	0x3f6f52ef	0.9348592
79	0xbf3dc30f	-0.7412576
80	0xc0413081	-3.0185854
81	0x401843b7	2.379133
82	0xc034efdb	-2.8271396
83	0xc0a25f77	-5.0741534
84	0xc02092e7	-2.5089662
85	0xc08e3b38	-4.444729
86	0xc0d352b7	-6.603847
87	0xc0aac3e8	-5.3364143
88	0xbfd094c0	-1.6295395
89	0xbf114ddf	-0.56759447
90	0xbe61dd48	-0.22057068
91	0x3fb73c7d	1.4315335
92	0x3d832e31	0.06405295
93	0xc02999cb	-2.6500118
94	0x3da3f37c	0.08005425
95	0xbef1e75a	-0.4724682
96	0x400001db	2.0001132
97	0x403deaab	2.967448
98	0xc09d4df1	-4.9157643
99	0xc06dbd93	-3.7146957
100	0xbe7668fb	-0.24063484
101	0x3c8ba735	0.017047504
102	0xc093f147	-4.623203
103	0x40b0dbac	5.5268154
104	0x3e30e922	0.17276433
105	0xc05a14a3	-3.4075096
106	0xbfa081d2	-1.2539618
107	0xc0bad71c	-5.8387585
108	0x3e834e6d	0.25645772
109	0x40115030	2.2705193
110	0xc0c38110	-6.1095047
111	0x3f70a4b8	0.9400134
112	0x3ffa894d	1.9573151
113	0x3e396d86	0.18108186
114	0xc052bcdf	-3.2927778
115	0x3ef22012	0.47290093
116	0xbf56b5fd	-0.8387144
117	0x4032c51e	2.793281
118	0xc08f9ac8	-4.487644
119	0xbf815752	-1.0104773
120	0x3e718e27	0.23589383
121	0xc0743f78	-3.8163738
122	0x3e9e76b0	0.30949926
123	0x3fc9399f	1.572071
124	0x3f44bafc	0.76847816
125	0xc0813318	-4.037487
126	0x40523a47	3.284807
127	0x4006743e	2.1008449
128	0x3f409c4d	0.75238496
129	0x40a65cf2	5.198846
130	0xbf572ea1	-0.84055525
131	0xc0a110ce	-5.0333014
132	0x3f0274fb	0.5095975
133	0x3fa9d921	1.3269387
134	0xc0983d37	-4.7574725
135	0xbed0d4a5	-0.40787235
136	0x3faef3c5	1.3668143
137	0xc0239d2a	-2.5564675
138	0xc0050875	-2.0786412
139	0x40379f11	2.8690836
140	0xc0e20ffd	-7.0644517
141	0xc01d9946	-2.46248
142	0xc0a85a3c	-5.261015
143	0x3fe09d6a	1.7548039
144	0x40064b93	2.0983627
145	0xc06b2db0	-3.6746635
146	0xc0240bb1	-2.5632136
147	0x3f1420c1	0.5786248
148	0x3fcbbb92	1.5916617
149	0x3f8bb688	1.0915079
150	0xbf7d96e7	-0.99058384
151	0xc0819ef7	-4.050655
152	0xbdba8300	-0.091070175
153	0x3dc07155	0.09396616
154	0x3f8033f7	1.0015858
155	0x4028c801	2.6372073
156	0xc0800f7a	-4.001889
157	0xc09d81e9	-4.922108
158	0x3ffcdb8c	1.97545
159	0x3fa15157	1.2602948
160	0xbea1705d	-0.3153104
161	0x3edd17b6	0.43182153
162	0x3ea9b809	0.3314822
163	0x3cb5b81e	0.02218252
164	0xbfd8c626	-1.693547
165	0xbf62239d	-0.8833559
166	0xbf054817	-0.52063125
167	0xc05e72b5	-3.4757512
168	0x402a9f4d	2.665973
169	0x3f646e00	0.89230347
170	0x40187b7e	2.3825374
171	0x3f7882b6	0.9707445
172	0x3feec4e6	1.8653839
173	0x3fbe3909	1.4861156
174	0x3ea8aac2	0.32942778
175	0x3fcf5422	1.619755
176	0xc0bb85f7	-5.860103
177	0x3e8260b6	0.2546441
178	0x3ef83974	0.48481333
179	0xbf9016c3	-1.1256946
180	0x3e543f4c	0.20727271
181	0x3fdc30fd	1.720245
182	0xc0a49093	-5.142648
183	0xbe4cc8d6	-0.19998488
184	0x3e61650e	0.22011206
185	0xc0d0797b	-6.514829
186	0x4010b836	2.2612433
187	0xbf6b0c3a	-0.9181553
188	0xbf98134e	-1.1880891
189	0x3efa9719	0.48943403
190	0x3e0504af	0.12990068
191	0x40061c71	2.095486
192	0x3f4ea04a	0.8071333
193	0x3f72175f	0.9456691
194	0x4005028b	2.0782802
195	0xbf9f2e73	-1.243605
196	0x3f64d4fb	0.8938748
197	0x3faa97d8	1.3327589
198	0x3f709123	0.9397146
199	0xbd2041ea	-0.03912536
200	0x3e2ba9d5	0.16764005
201	0xc04e8f2e	-3.227489
202	0xbfd568ed	-1.6672646
203	0xc098c5d8	-4.774151
204	0x3ead9bcf	0.33907935
205	0xc019f4d2	-2.4055676
206	0x3fdf4415	1.7442652
207	0x3fadc64c	1.357614
208	0xbf14f1f2	-0.5818168
209	0xc0b4a547	-5.6451755
210	0x3f5c6966	0.86098325
211	0xbfeb26d1	-1.8371221
212	0x3f99a490	1.2003345
213	0x3f408fdc	0.7521951
214	0xc007bacf	-2.120777
215	0xbfa4660d	-1.2843643
216	0x3f2e65eb	0.68124264
217	0xbe992a61	-0.29915145
218	0xbe43a1a1	-0.19104625
219	0x3f146e95	0.57981235
220	0xbff7c954	-1.9358315
221	0x3f8c9f0d	1.0986038
222	0xbf02b74d	-0.51060945
223	0xbe7db959	-0.24777736
224	0x3f0199bc	0.50625205
225	0x40443c70	3.0661888
226	0xbf0bed31	-0.546588
227	0x40589122	3.3838582
228	0x408b571b	4.354383
229	0xbfca8b8b	-1.5823835
230	0xc0c8fe26	-6.281024
231	0xbe00a67a	-0.12563506
232	0xc0ef3650	-7.47538
233	0x3f821af3	1.0164474
234	0xc0c36eb4	-6.1072636
235	0xc0d70dec	-6.7204494
236	0xc049615c	-3.1465673
237	0xbde7acbd	-0.11312244
238	0xc0d5465e	-6.6648397
239	0x3fc3e8c5	1.5305411
240	0xbd3a3b54	-0.045466736
241	0xbf048ca2	-0.5177709
242	0x3fd1f6e8	1.6403475
243	0xc0e688e7	-7.2042117
244	0xc0c96a7e	-6.2942495
245	0x3f5de900	0.86683655
246	0xbfe88e38	-1.8168402
247	0x3eefb3a6	0.46816748
248	0xbfd3a95f	-1.6536063
249	0xc0409a0c	-3.0094023
250	0xbe892e67	-0.26793215
251	0x3f27bc0e	0.65521324
252	0x408e6c0e	4.4506903
253	0xc10cadb0	-8.792404
254	0x3d393baf	0.045222934
255	0x401e3824	2.4721766

q_mu f4 [5]
0	0xc011b220	-2.276497
1	0xc06cee77	-3.7020547
2	0xbf8af752	-1.0856726
3	0xc0577cc6	-3.3669906
4	0xc054523b	-3.317519

q_var f4 [5]
0	0xc08a9815	-4.3310647
1	0xc032442f	-2.7854116
2	0xc0831432	-4.0962152
3	0xc033a759	-2.807089
4	0xc06100b7	-3.5156686

eps f4 [5]
0	0xbf8bbfdc	-1.0917926
1	0x3e1d5a44	0.15366465
2	0x3f49f60b	0.78891057
3	0x3f9d9089	1.2309734
4	0x3f8fa5e9	1.1222507

q_gamma_params f4 [99]
0	0x406fa07f	3.744171
1	0x4033b0c8	2.8076649
2	0x40612fb7	3.5185373
3	0x405b9c84	3.431428
4	0x4064826c	3.5704603
5	0x40449b83	3.0719917
6	0x4023c009	2.558596
7	0x40540209	3.3126242
8	0x40820b11	4.063851
9	0x407c4686	3.9418044
10	0x4059e4c2	3.4045873
11	0x40743540	3.8157501
12	0x404d9c94	3.2126818
13	0x4028b787	2.6362016
14	0x407fcc94	3.9968615
15	0x406e559f	3.723976
16	0x4060baab	3.5113933
17	0xbff33014	-1.8999047
18	0xbd4c2f0d	-0.04984956
19	0x404253eb	3.036372
20	0x407676d0	3.8510017
21	0x4083a9b2	4.1144648
22	0x4008efb6	2.1396308
23	0x403108d3	2.7661636
24	0x403e1cf4	2.9705172
25	0x4065ecfb	3.5925891
26	0x3f8f49c0	1.1194382
27	0x40577fbc	3.3671713
28	0x40645eef	3.5682943
29	0x407289ec	3.789668
30	0xc08802de	-4.25035
31	0x406848d3	3.6294448
32	0xc060db0a	-3.513369
33	0x405240cc	3.285205
34	0x3e989906	0.29804248
35	0x4025d07b	2.5908496
36	0x4082d59e	4.0885763
37	0x40746c0a	3.8190942
38	0x4009634d	2.1466858
39	0x40201484	2.5012522
40	0x407571a4	3.835061
41	0xbf6521ff	-0.89505
42	0x40511ec1	3.267502
43	0xc05e6893	-3.4751327
44	0x4082ed1a	4.091443
45	0xbec84dda	-0.39121896
46	0x4074522c	3.8175154
47	0x3f90354d	1.1266266
48	0x4041d9ad	3.0289109
49	0x3fa03a66	1.2517822
50	0xc08e6152	-4.44938
51	0xbfe065ae	-1.753103
52	0x4007f137	2.1240976
53	0x40749af2	3.821957
54	0x4064d0d3	3.5752456
55	0x40820069	4.06255
56	0x40846fc1	4.138642
57	0x40707150	3.756916
58	0x4004df68	2.0761356
59	0x405d6bc0	3.4597015
60	0xbfabcafb	-1.342132
61	0x406b958e	3.681003
62	0x40675805	3.6147473
63	0x405b4958	3.4263515
64	0x4057fcdd	3.3748085
65	0x405cbccd	3.4490235
66	0x405d623a	3.4591203
67	0x406db3f9	3.7141097
68	0x407fc5c2	3.9964452
69	0x40688d99	3.6336424
70	0x407a4726	3.9105926
71	0xbf4af09e	-0.792734
72	0x4040b1fd	3.0108635
73	0x406a8d43	3.664872
74	0x406a057e	3.6565852
75	0x40611885	3.5171216
76	0x3fb67dfb	1.4257196
77	0x4025afbe	2.5888515
78	0xc0510462	-3.2658925
79	0x40835fc4	4.10544
80	0x40713061	3.7685778
81	0x407f7c75	3.9919713
82	0x3fafdd51	1.3739415
83	0x4081c35b	4.055097
84	0x40343c23	2.8161705
85	0xbdf47fea	-0.1193846
86	0x407f57be	3.9897304
87	0x4083ba61	4.1165013
88	0x4076074f	3.844196
89	0x4057a043	3.3691566
90	0x40126e29	2.2879736
91	0x3fac7c7d	1.3475491
92	0x4068041e	3.6252513
93	0x400b970e	2.1810946
94	0x407c57e5	3.9428647
95	0x407cc6e1	3.9496386
96	0x404d7dec	3.2108107
97	0x4060a534	3.5100832
98	0x40319863	2.774926

q_probs f4 [99]
0	0x3f7a15a0	0.9768925
1	0x3f716e7a	0.943092
2	0x3f78a189	0.97121483
3	0x3f77fb10	0.96867466
4	0x3f78fe4f	0.97263044
5	0x3f74ab3b	0.95573777
6	0x3f6d9a59	0.9281364
7	0x3f77012d	0.9648617
8	0x3f7bacf9	0.9831081
9	0x3f7b1ffa	0.9809567
10	0x3f77c512	0.9678508
11	0x3f7a7c18	0.978456
12	0x3f76188a	0.96131194
13	0x3f6ee3d3	0.9331638
14	0x3f7b61a1	0.98195845
15	0x3f79f761	0.97643095
16	0x3f789457	0.9710135
17	0x3e05524f	0.1301968
18	0x3ef99a33	0.48750457
19	0x3f74468f	0.95420164
20	0x3f7aabd0	0.97918415
21	0x3f7be2ba	0.9839283
22	0x3f650f12	0.8947612
23	0x3f70d9d6	0.9408239
24	0x3f7383d1	0.9512301
25	0x3f792454	0.9732106
26	0x3f410c80	0.754097
27	0x3f7777a1	0.96666914
28	0x3f78fa8e	0.97257316
29	0x3f7a5781	0.9778977
30	0x3c666854	0.01406296
31	0x3f79623a	0.97415507
32	0x3ced2ff0	0.028953522
33	0x3f76c35f	0.9639186
34	0x3f12fc82	0.57416546
35	0x3f6e285d	0.9303034
36	0x3f7bc787	0.9835133
37	0x3f7a808a	0.97852385
38	0x3f653861	0.8953915
39	0x3f6c9b83	0.9242479
40	0x3f7a9666	0.9788574
41	0x3e94a4be	0.29031938
42	0x3f769ac1	0.96329886
43	0x3cf624cd	0.030046845
44	0x3f7bca92	0.9835597
45	0x3ecea32d	0.40358868
46	0x3f7a7e6a	0.9784914
47	0x3f415de6	0.755339
48	0x3f74309c	0.9538667
49	0x3f471461	0.7776547
50	0x3c3d46f4	0.011552561
51	0x3e17384e	0.14767572
52	0x3f64ad7c	0.89327216
53	0x3f7a847d	0.9785841
54	0x3f79068b	0.9727561
55	0x3f7bab90	0.9830866
56	0x3f7bfb7a	0.984306
57	0x3f7a284f	0.97717756
58	0x3f637a7d	0.8885878
59	0x3f78328b	0.9695212
60	0x3e543c99	0.20726241
61	0x3f79b55d	0.97542363
62	0x3f7949de	0.9737834
63	0x3f77f0f8	0.96852064
64	0x3f778785	0.9669116
65	0x3f781dbf	0.9692039
66	0x3f783166	0.96950376
67	0x3f79e884	0.97620416
68	0x3f7b6128	0.98195124
69	0x3f796921	0.9742604
70	0x3f7af936	0.98036516
71	0x3e9fa699	0.3118179
72	0x3f73fc62	0.9530698
73	0x3f799bb3	0.97503203
74	0x3f798e7f	0.97483057
75	0x3f789ecf	0.9711732
76	0x3f4e6a64	0.8063109
77	0x3f6e1e07	0.9301457
78	0x3d16ab3b	0.03678439
79	0x3f7bd954	0.9837849
80	0x3f7a3950	0.977437
81	0x3f7b5bee	0.9818715
82	0x3f4c4b81	0.7980271
83	0x3f7ba36b	0.9829623
84	0x3f718c60	0.9435482
85	0x3ef0cf3e	0.47033113
86	0x3f7b5952	0.98183167
87	0x3f7be4d5	0.98396045
88	0x3f7aa2c4	0.9790461
89	0x3f777b76	0.9667276
90	0x3f686b26	0.90788496
91	0x3f4ad279	0.79227406
92	0x3f795b4d	0.9740494
93	0x3f660706	0.89854467
94	0x3f7b214f	0.980977
95	0x3f7b2994	0.9811032
96	0x3f7613f3	0.9612419
97	0x3f7891c0	0.97097397
98	0x3f70fa7e	0.9413222

gamma f4 [100]
0	0x3f800000	1.0
1	0x3f800000	1.0
2	0x3f800000	1.0
3	0x3f800000	1.0
4	0x3f800000	1.0
5	0x3f800000	1.0
6	0x3f800000	1.0
7	0x3f800000	1.0
8	0x3f800000	1.0
9	0x3f800000	1.0
10	0x3f800000	1.0
11	0x3f800000	1.0
12	0x3f800000	1.0
13	0x3f800000	1.0
14	0x3f800000	1.0
15	0x3f800000	1.0
16	0x3f800000	1.0
17	0x3f800000	1.0
18	0x00000000	0.0
19	0x3f800000	1.0
20	0x3f800000	1.0
21	0x3f800000	1.0
22	0x3f800000	1.0
23	0x00000000	0.0
24	0x3f800000	1.0
25	0x3f800000	1.0
26	0x3f800000	1.0
27	0x3f800000	1.0
28	0x3f800000	1.0
29	0x3f800000	1.0
30	0x3f800000	1.0
31	0x00000000	0.0
32	0x3f800000	1.0
33	0x00000000	0.0
34	0x3f800000	1.0
35	0x3f800000	1.0
36	0x3f800000	1.0
37	0x3f800000	1.0
38	0x3f800000	1.0
39	0x3f800000	1.0
40	0x3f800000	1.0
41	0x3f800000	1.0
42	0x00000000	0.0
43	0x3f800000	1.0
44	0x00000000	0.0
45	0x3f800000	1.0
46	0x3f800000	1.0
47	0x3f800000	1.0
48	0x3f800000	1.0
49	0x3f800000	1.0
50	0x3f800000	1.0
51	0x00000000	0.0
52	0x00000000	0.0
53	0x3f800000	1.0
54	0x3f800000	1.0
55	0x3f800000	1.0
56	0x3f800000	1.0
57	0x3f800000	1.0
58	0x3f800000	1.0
59	0x3f800000	1.0
60	0x3f800000	1.0
61	0x00000000	0.0
62	0x3f800000	1.0
63	0x3f800000	1.0
64	0x3f800000	1.0
65	0x3f800000	1.0
66	0x3f800000	1.0
67	0x3f800000	1.0
68	0x3f800000	1.0
69	0x3f800000	1.0
70	0x3f800000	1.0
71	0x3f800000	1.0
72	0x3f800000	1.0
73	0x3f800000	1.0
74	0x3f800000	1.0
75	0x3f800000	1.0
76	0x3f800000	1.0
77	0x3f800000	1.0
78	0x00000000	0.0
79	0x00000000	0.0
80	0x3f800000	1.0
81	0x3f800000	1.0
82	0x3f800000	1.0
83	0x3f800000	1.0
84	0x3f800000	1.0
85	0x3f800000	1.0
86	0x3f800000	1.0
87	0x3f800000	1.0
88	0x3f800000	1.0
89	0x3f800000	1.0
90	0x3f800000	1.0
91	0x3f800000	1.0
92	0x3f800000	1.0
93	0x3f800000	1.0
94	0x3f800000	1.0
95	0x3f800000	1.0
96	0x3f800000	1.0
97	0x3f800000	1.0
98	0x3f800000	1.0
99	0x3f800000	1.0

KL_gamma_k f4 [99]
0	0x4779ec56	63980.336
1	0x47714680	61766.5
2	0x47787877	63608.465
3	0x4777d216	63442.086
4	0x4778d52f	63701.184
5	0x477482c2	62594.758
6	0x476d72f7	60786.965
7	0x4776d85a	63192.35
8	0x477b8371	64387.44
9	0x477af688	64246.53
10	0x47779c21	63388.13
11	0x477a52be	64082.742
12	0x4775efda	62959.85
13	0x476ebc3d	61116.24
14	0x477b3824	64312.14
15	0x4779ce1a	63950.1
16	0x47786b46	63595.273
17	0x46053acf	8526.702
18	0x46f96fb6	31927.855
19	0x47741e26	62494.15
20	0x477a826f	64130.434
21	0x477bb92b	64441.168
22	0x4764e904	58601.016
23	0x4770b1f3	61617.95
24	0x47735b85	62299.52
25	0x4778fb2d	63739.176
26	0x4740ec27	49388.152
27	0x47774ebb	63310.73
28	0x4778d16e	63697.43
29	0x477a2e2c	64046.17
30	0x44663da7	920.9633
31	0x4779390a	63801.04
32	0x44ed04af	1896.1464
33	0x47769a95	63130.582
34	0x4712e39f	37603.62
35	0x476e00e4	60928.89
36	0x477b9dfc	64413.984
37	0x477a572f	64087.184
38	0x4765124d	58642.3
39	0x476c7448	60532.28
40	0x477a6d08	64109.03
41	0x46948b0f	19013.53
42	0x477671fc	63089.984
43	0x44f5f7f4	1967.7485
44	0x477ba106	64417.023
45	0x46ce7fcd	26431.9
46	0x477a550f	64085.06
47	0x47413d80	49469.5
48	0x47740836	62472.21
49	0x4746f311	50931.066
50	0x443d23c0	756.5586
51	0x46171dbb	9671.433
52	0x4764877d	58503.49
53	0x477a5b21	64091.13
54	0x4778dd69	63709.41
55	0x477b8209	64386.035
56	0x477bd1e6	64465.9
57	0x4779ff01	63999.004
58	0x476354ae	58196.68
59	0x47780989	63497.535
60	0x4654179b	13573.901
61	0x47798c21	63884.13
62	0x477920b2	63776.695
63	0x4777c800	63432.0
64	0x47775e9c	63326.61
65	0x4777f4c1	63476.754
66	0x47780864	63496.39
67	0x4779bf40	63935.25
68	0x477b37ab	64311.668
69	0x47793ff0	63807.938
70	0x477acfc9	64207.785
71	0x469f8b11	20421.533
72	0x4773d404	62420.016
73	0x4779727b	63858.48
74	0x47796548	63845.28
75	0x477875bd	63605.74
76	0x474e47e9	52807.91
77	0x476df68f	60918.56
78	0x45168fe6	2408.9937
79	0x477bafc6	64431.773
80	0x477a1000	64016.0
81	0x477b3272	64306.445
82	0x474c295b	52265.355
83	0x477b79e5	64377.895
84	0x47716461	61796.38
85	0x46f0a635	30803.104
86	0x477b2fd6	64303.836
87	0x477bbb45	64443.27
88	0x477a7964	64121.39
89	0x4777528f	63314.56
90	0x47684491	59460.566
91	0x474ab08f	51888.56
92	0x4779321e	63794.117
93	0x4765e0d2	58848.82
94	0x477af7dc	64247.86
95	0x477b0020	64256.125
96	0x4775eb44	62955.266
97	0x477868af	63592.684
98	0x4770d296	61650.586

weight f4 [10, 58]
0	0x3dc82fe5	0.0977476
1	0xbc6caac2	-0.014445009
2	0x3d769265	0.060198206
3	0x3d422383	0.047397148
4	0xbc8fbd01	-0.017546179
5	0x3c894c54	0.016760029
6	0x3dc1ad29	0.09456856
7	0x3d249ab5	0.040186603
8	0x3d8c691a	0.06855984
9	0xbde7cb86	-0.11318116
10	0x3dee2fb7	0.11630195
11	0x3d17fd86	0.037107013
12	0x3cbf0d57	0.02332179
13	0x3c92312f	0.017845718
14	0x3d946ad5	0.07246939
15	0x3defdc5f	0.11711954
16	0xbd26d556	-0.040730797
17	0xbdb6e533	-0.08930435
18	0xbe92ecef	-0.2869639
19	0xbdb2af76	-0.08724873
20	0x3d9ab66f	0.07554328
21	0xbd96ab3e	-0.073568806
22	0xbda99830	-0.082809806
23	0x3dfcc414	0.123420864
24	0x3debc492	0.11512102
25	0x3bfe1871	0.0077543785
26	0xbce77fbb	-0.028259149
27	0xbc7aceb9	-0.015308076
28	0x3d78f16b	0.06077711
29	0xbe0455e8	-0.12923396
30	0xbdedc8ac	-0.11610541
31	0x3dd00866	0.10157852
32	0x3e10f758	0.14156854
33	0x39beaf14	0.00036370067
34	0xbde95510	-0.113931775
35	0x3b9e8c99	0.004838538
36	0xbc70c27c	-0.014694806
37	0x3bdde581	0.0067717438
38	0x3d9808f6	0.07423584
39	0x3d867b66	0.06566505
40	0xbcb4cbab	-0.022069773
41	0x3bea863e	0.007157116
42	0x3d39b372	0.045337148
43	0xbdec21ee	-0.11529909
44	0xbd540f07	-0.051772144
45	0xbc0015a6	-0.007817661
46	0xbdafaefa	-0.08578296
47	0xbeb99fb9	-0.3625467
48	0x3d197b4f	0.037471112
49	0x3d94f166	0.072726056
50	0x3c2dc9ae	0.010607166
51	0xbd8cbb79	-0.06871695
52	0x3d97cd62	0.074122205
53	0xbdbc3ff2	-0.09191884
54	0xbce2aced	-0.027670348
55	0x3df6377f	0.12022304
56	0x3d031145	0.03199889
57	0xbcbc6d81	-0.023001434
58	0x3e6bacdc	0.2301516
59	0xbe79d1bb	-0.24396412
60	0x3e9852e2	0.29750735
61	0x3db7d3f8	0.08975977
62	0xbde35ae9	-0.11101324
63	0x3e38850b	0.18019502
64	0x3e0fbe16	0.14037356
65	0xbe622eb9	-0.22088136
66	0x3e8a67c2	0.27032286
67	0x3e621def	0.22081731
68	0xbe371625	-0.17879541
69	0x3e9e86f4	0.30962336
70	0x3dd98973	0.106219195
71	0x3d8c02f4	0.06836501
72	0x3e1a2ad7	0.15055405
73	0x3e339d66	0.17540511
74	0x3d9d08b0	0.07667673
75	0x3db66b29	0.08907158
76	0x3c5625d9	0.013070547
77	0xbd70aaea	-0.058756746
78	0xbde474d3	-0.11155095
79	0x3e9a2dbe	0.30113024
80	0x3dd5a3ae	0.1043161
81	0xbe916805	-0.28399673
82	0x3dec4b61	0.11537815
83	0x3e47ab02	0.19498828
84	0x3e2abf6b	0.16674583
85	0x3db73290	0.08945191
86	0x3e8c9be1	0.27462676
87	0x3e21fa5b	0.1581816
88	0x3deff3f6	0.11716454
89	0x3e46f416	0.19429049
90	0x3df26458	0.11835545
91	0xbdbf8f71	-0.09353531
92	0x3e694cc5	0.22783192
93	0x3d45ae11	0.048261706
94	0xbcdced61	-0.02696866
95	0x3d1f7b87	0.038936164
96	0xbe8a3d6a	-0.2699998
97	0xbe6350f7	-0.22198854
98	0x3e01fa96	0.12693247
99	0x3e44063f	0.19143008
100	0xbe27894e	-0.16360971
101	0x3dd44346	0.10364394
102	0x3e8728e3	0.26398382
103	0xbe57ebea	-0.21086088
104	0x3e6ca349	0.23109163
105	0xbc6256b9	-0.013814622
106	0x3dac110b	0.08401688
107	0x3de6544d	0.11246548
108	0x3e30cf58	0.17266595
109	0xbe007451	-0.12544371
110	0x3d4036df	0.04692733
111	0x3d9526d6	0.07282798
112	0xbea33c2e	-0.3188185
113	0x3e800540	0.25004005
114	0x3e01d59c	0.12679142
115	0x3d9f264e	0.07770978
116	0x3bda8859	0.006669086
117	0xbca28339	-0.019837962
118	0x3e48e826	0.19619808
119	0x3d74b1b1	0.059739772
120	0xbdc0ce97	-0.09414404
121	0x3e087f0b	0.13329713
122	0x3dd4224f	0.10358106
123	0xbe0305d8	-0.12795198
124	0xbd0028f0	-0.03128904
125	0xbb3773bf	-0.0027992574
126	0xbdac1672	-0.084027186
127	0x3da93d4f	0.08263647
128	0x3e45ebd5	0.19328244
129	0x3db66c69	0.08907396
130	0x3d651307	0.05592635
131	0xbd15f246	-0.036608003
132	0xbcf612d0	-0.030038267
133	0x3dfd4982	0.12367536
134	0x3d2e9f9c	0.042632684
135	0xbda79c5f	-0.08184122
136	0xbe45865a	-0.19289532
137	0x3e08f05b	0.13372938
138	0x3e448bea	0.19193998
139	0xbe27a1fb	-0.16370384
140	0x3d58b5a4	0.0529076
141	0x3dcb97d1	0.09941066
142	0x3c51f34f	0.012814357
143	0xbd019f7a	-0.03164623
144	0x3e12ead3	0.14347391
145	0xbc9ede53	-0.019393122
146	0x3d60babb	0.05486558
147	0x3cb56e99	0.022147464
148	0x3e16d48e	0.1472952
149	0xbd6d4b70	-0.05793327
150	0x3e1872d0	0.14887547
151	0x3b535e1d	0.003225214
152	0x37d698c5	2.5581927e-05
153	0x3d908470	0.070565104
154	0xbe20263f	-0.1563959
155	0xbdbe76c7	-0.09299999
156	0xbb929972	-0.0044738585
157	0x3da973df	0.08274054
158	0xbc86160c	-0.016367935
159	0x3cedbaf6	0.029019814
160	0x3e461e94	0.19347602
161	0xbd358c17	-0.044323053
162	0x3d878df4	0.06618872
163	0xbdb41b6e	-0.08794294
164	0x3d850451	0.06494964
165	0x3d6782a8	0.056521088
166	0x3b24f943	0.0025172986
167	0xbc63d61c	-0.013906028
168	0x3e162d22	0.14665654
169	0xbe88d3cb	-0.26724085
170	0xbc46d663	-0.012136075
171	0x3e593ed7	0.21215378
172	0x3e453c73	0.19261341
173	0xbcf85166	-0.030312251
174	0x3defbd4b	0.11706027
175	0xbdce9f7c	-0.10089013
176	0x3e0700c0	0.1318388
177	0x3d820cd4	0.06350103
178	0xbd1a75ce	-0.037710004
179	0xbd02cccb	-0.031933587
180	0x3e160bc7	0.1465293
181	0x3d1ec3d1	0.038760964
182	0x3d8355ac	0.06412825
183	0xbc7050e0	-0.01466772
184	0xbe4c64ac	-0.19960278
185	0x3d81f868	0.06346208
186	0x3db55156	0.08853404
187	0x3dc36b2c	0.09541926
188	0x3dbf96b5	0.09354917
189	0x3e3b0f10	0.18267465
190	0x3d7a9ca7	0.06118455
191	0x3e00b623	0.1256948
192	0xbd37d9b8	-0.044885367
193	0x3d0c7067	0.034286883
194	0xbd125910	-0.035729468
195	0x3d91108a	0.07083233
196	0x3e32945a	0.17439404
197	0xbd21b70d	-0.03948121
198	0x3de283ce	0.11060296
199	0x3d48f953	0.0490659
200	0x3dd83492	0.10556902
201	0x3dc278ef	0.094957225
202	0x3c4652a1	0.012104661
203	0x3db97d94	0.09057155
204	0x3defb965	0.11705283
205	0x3c426763	0.01186547
206	0x3dcf4b70	0.101218104
207	0xbe0757df	-0.13217114
208	0xbcae7a57	-0.02129857
209	0xbaee8eee	-0.0018200555
210	0xbcfa36dc	-0.030543737
211	0x3dd76660	0.10517573
212	0xbbd08a9f	-0.006364181
213	0x3d00fc93	0.031490874
214	0x3e5cdead	0.21569319
215	0x3e0e16dd	0.13875909
216	0xbccfce89	-0.025367038
217	0x3d935efc	0.07195851
218	0x3e483403	0.19551091
219	0xbdffffde	-0.12499975
220	0x3d5a4b79	0.053294633
221	0x3d0a0800	0.033699036
222	0x3b1c86ee	0.0023884135
223	0xbc4f205b	-0.0126419915
224	0x3d7d7edc	0.06188856
225	0x3ca7a2ee	0.020463433
226	0x3c8f7179	0.017510163
227	0xbcb48e2c	-0.02204045
228	0xbdf0b6c3	-0.11753609
229	0x3e4fe90e	0.20303747
230	0x3dd5c137	0.104372434
231	0x3d1ecf2d	0.038771797
232	0xbe710b28	-0.23539412
233	0x3e92eb36	0.28695077
234	0xbea50d20	-0.32236576
235	0xbe008c0b	-0.12553422
236	0x3e978f83	0.29601678
237	0xbde90b88	-0.113791525
238	0xbe8c3fac	-0.27392328
239	0x3e2e1c7e	0.17003056
240	0xbe817435	-0.2528397
241	0xbdb2fa4c	-0.087391466
242	0x3e24f03c	0.16107267
243	0xbea2d09c	-0.3179978
244	0xbe028c63	-0.12748866
245	0xbe7da055	-0.24768193
246	0xbe7335b7	-0.2375096
247	0xbe912b13	-0.28353176
248	0xbeaac211	-0.33351186
249	0xbda5ffb0	-0.08105409
250	0xbe1131c1	-0.14179136
251	0x3e3e58a1	0.18588497
252	0x3e4a34ba	0.19746676
253	0xbdf28b37	-0.118429594
254	0xbe9d5813	-0.30731258
255	0x3e0f2144	0.13977534

bias f4 [10]
0	0xbda47ff0	-0.08032215
1	0xbe807813	-0.2509161
2	0xbe1ee47d	-0.15516849
3	0xbbc28624	-0.005936401
4	0x3e2a9e94	0.16662055
5	0xbdae5a4b	-0.08513316
6	0x3cc77ba9	0.024350958
7	0x3d9c1088	0.076203406
8	0xbe1cadb7	-0.15300642
9	0xbae8a4ec	-0.0017749346

weight f4 [10, 10]
0	0xbd534b45	-0.051585454
1	0xbdec5a49	-0.11540658
2	0x3e3f4685	0.18679245
3	0x3e1acd2b	0.15117328
4	0xbea962cb	-0.33083186
5	0xbe3ebf6d	-0.1862771
6	0xbc0f76f8	-0.008756392
7	0xbebe3502	-0.37149817
8	0xbecbf5f5	-0.39836088
9	0xbe8da9c7	-0.27668592
10	0xbe9d447e	-0.30716318
11	0x3e5c4352	0.21510056
12	0x3db49bef	0.088188045
13	0xbe8a66e9	-0.2703164
14	0xbddec3ea	-0.108772114
15	0x3e93d9e3	0.28877172
16	0xbe2a773c	-0.16647047
17	0xbea43b4e	-0.32076496
18	0x3df2bd0b	0.11852463
19	0xbe65b84d	-0.22433586
20	0xbf011f95	-0.50438815
21	0x3dda3f05	0.10656551
22	0xbe3a3a3b	-0.18186276
23	0x3d0015ce	0.031270795
24	0xbecccabf	-0.39998433
25	0x3e23fa4d	0.16013451
26	0xbe8dc38e	-0.2768826
27	0xbd347281	-0.044054512
28	0xbe9e3f2f	-0.3090758
29	0xbe6fd6df	-0.2342181
30	0xbde867c6	-0.11347918
31	0xbcbcd6ff	-0.023051737
32	0xbefcfd32	-0.49411923
33	0xbe8f02b5	-0.27931753
34	0xbe9d8dda	-0.30772287
35	0xbef764b5	-0.4831902
36	0xbe85cbdd	-0.26132098
37	0xbe807244	-0.25087178
38	0xbeee673d	-0.4656314
39	0xbdd483b1	-0.10376681
40	0xbecd395a	-0.40082818
41	0xbea48a49	-0.32136753
42	0xbd605004	-0.05476381
43	0xbeb16434	-0.3464676
44	0xbeac244b	-0.3362144
45	0x3df3af66	0.11898689
46	0xbdf9214f	-0.12164556
47	0xbec3bf3d	-0.3823184
48	0x3e45b934	0.1930893
49	0xbebaeb9f	-0.3650789
50	0x3eb99744	0.3624822
51	0xbdbd5a0e	-0.09245692
52	0x3d8d3d9a	0.06896515
53	0x3e73a569	0.23793568
54	0x3f1ec5fe	0.6202086
55	0x3da5c196	0.08093564
56	0xbc845100	-0.016151905
57	0x3e9b5cd4	0.3034426
58	0x3becbcbf	0.0072246487
59	0xbc6aafaa	-0.014324108
60	0xbe133c94	-0.14378577
61	0xbc3ee1c4	-0.011650506
62	0xbebdafe3	-0.37048253
63	0xbe32d279	-0.17463101
64	0xbeaf4f37	-0.34240124
65	0xbe2d4ef6	-0.16924652
66	0xbe8b06ba	-0.2715357
67	0xbf00a348	-0.5024915
68	0xbc0406c8	-0.008058257
69	0x3d643504	0.055714622
70	0x3ed5b2d8	0.4173801
71	0x3ea9f36c	0.3319353
72	0x3e0291a6	0.12750873
73	0x3e0637f1	0.13107277
74	0x3c7c250b	0.015389691
75	0x3b800c62	0.003907726
76	0x3e879580	0.26481247
77	0x3d9cf7e2	0.076644674
78	0xbe2c54ff	-0.16829298
79	0xbe048256	-0.12940344
80	0xbbfe4774	-0.0077599827
81	0x3e29edeb	0.16594665
82	0x3e447150	0.1918385
83	0x3da5b1aa	0.08090527
84	0x3d6563d2	0.0560034
85	0x3d3114b1	0.043232623
86	0x3da599a4	0.08085945
87	0xbe511757	-0.2041906
88	0xbc78745b	-0.01516446
89	0x3ccfe794	0.02537898
90	0x3e914a99	0.28377226
91	0x3e0458c8	0.12924492
92	0x3d7098fd	0.05873965
93	0xbc3062f0	-0.010765776
94	0x3de90555	0.1137797
95	0x3e86379e	0.26214308
96	0x3efd7b2f	0.49508044
97	0x3e4eb09b	0.20184557
98	0xbc77485e	-0.015092937
99	0xbd89c309	-0.06726653

bias f4 [10]
0	0xbbca43fa	-0.006172654
1	0x3daa9dda	0.08330889
2	0xbebb9bca	-0.36642295
3	0xbee049a1	-0.43806174
4	0x3e10e322	0.14149144
5	0xbd651534	-0.055928424
6	0xbd6d2b09	-0.05790237
7	0x3da4ba03	0.080432914
8	0xbe823782	-0.25432974
9	0x3f13c710	0.5772562

weight f4 [1, 10]
0	0xbe222392	-0.15833881
1	0x3e3fa64c	0.18715781
2	0x3e463b98	0.1935867
3	0x3d938593	0.07203212
4	0x3e071de4	0.13194996
5	0x3cf63e9b	0.03005915
6	0x3e77c1ec	0.24195069
7	0x3cf36c77	0.029714806
8	0xbe4cd6de	-0.2000384
9	0xbd9de2c2	-0.07709266

weight f4 [1, 10]
0	0x3dc7c3b7	0.097541265
1	0xbe458b7e	-0.19291493
2	0x3d51129a	0.05104313
3	0x3d79fb7f	0.06103086
4	0xbd37d4c3	-0.04488064
5	0xbf59c6d9	-0.8506904
6	0x3e804e47	0.2505972
7	0xbeeea43d	-0.4660968
8	0xbe0d2b9d	-0.13786168
9	0xbf07a7ce	-0.52990425

prior_mean f8 []
0	0xc0126691ebc4af16	-4.600166019324908

weight f4 [50, 58]
0	0x3ddce471	0.10785759
1	0x3ecacb43	0.396082
2	0xbe751870	-0.23935103
3	0x3e7ea0a6	0.2486597
4	0xbe8ca447	-0.27469084
5	0x3df46f2d	0.119352676
6	0x3dcac960	0.099016905
7	0x3e9977d4	0.29974234
8	0x3af961f1	0.0019026381
9	0xbec7f9f7	-0.39057896
10	0xbdc45815	-0.09587113
11	0xbdf17b7c	-0.11791131
12	0x3db8f0da	0.09030314
13	0x3e51475a	0.20437375
14	0xbd2df8fb	-0.042473774
15	0xbe2eb8fb	-0.17062752
16	0xbe5bfb97	-0.21482693
17	0xbd9c1715	-0.0762159
18	0xbe3c516d	-0.18390436
19	0x3cd41c4b	0.025892397
20	0xbddb804f	-0.10717832
21	0x3e2f0990	0.17093492
22	0x3c1ad384	0.009449843
23	0xbe7e997f	-0.24863242
24	0xbdae686c	-0.08516011
25	0xbcb297fb	-0.021800986
26	0x3e457deb	0.19286315
27	0x3e9e2005	0.30883804
28	0xbd8ba3bf	-0.068183415
29	0x3e46ec10	0.19425988
30	0xbe09c4da	-0.13453999
31	0x3f114ff2	0.5676261
32	0x3e0d989b	0.13827746
33	0xbe52b365	-0.20576246
34	0x3db918bb	0.0903792
35	0x3f3ecea6	0.7453407
36	0x3e67f7eb	0.22653167
37	0xbe67c4dc	-0.2263369
38	0xbeaa9361	-0.33315566
39	0xbe348cff	-0.1763191
40	0xbe1835db	-0.14864294
41	0xbdc3fb02	-0.0956936
42	0x3d0400e1	0.0322274
43	0xbddc265a	-0.107495025
44	0x3aa17ca4	0.0012320471
45	0xbdfc0a0b	-0.12306603
46	0x3eed8470	0.46390104
47	0x3edcfe7a	0.431629
48	0xbcf56bf3	-0.0299587
49	0x3e5e7872	0.21725634
50	0xbeb3fe1e	-0.35154814
51	0xbdfe7a6d	-0.124256946
52	0x3f3f79b5	0.74795085
53	0xbe1d3bcc	-0.15354842
54	0xbdefa024	-0.11700466
55	0xbc9f162f	-0.019419758
56	0x3ef125a3	0.47099027
57	0xbe9e8f18	-0.30968547
58	0xbdaf32d8	-0.085546196
59	0xbebae102	-0.36499792
60	0xbe2d5653	-0.16927461
61	0x3e06421c	0.13111156
62	0xbf4ca458	-0.7993827
63	0x3dbbeafc	0.09175679
64	0x3d16afe8	0.03678885
65	0xbecd904d	-0.40149155
66	0x3d02a4ff	0.031895634
67	0x3edd815d	0.4326276
68	0x3d6b865c	0.057501182
69	0x3e2c11a4	0.16803604
70	0x3dcaffa0	0.09912038
71	0xbe8014e0	-0.25015926
72	0xbed4596c	-0.41474473
73	0xbe89d172	-0.26917607
74	0xbdfe5335	-0.12418214
75	0xbe206956	-0.15665182
76	0xbef50ea0	-0.4786272
77	0x3d102e01	0.035200123
78	0x3e20fdcb	0.15721814
79	0x3dfd30d7	0.12362831
80	0x3ea22ac7	0.31673262
81	0x3e42a569	0.19008411
82	0x3d561aa4	0.0522715
83	0x3b909d1a	0.004413259
84	0x3e99dd40	0.30051613
85	0x3f1989f6	0.59976137
86	0x3f1d1d6f	0.6137304
87	0x3dd742dc	0.10510799
88	0xbd303300	-0.043017387
89	0x3d07c382	0.033145435
90	0x3e8b38e0	0.2719183
91	0xbf25a3bf	-0.6470298
92	0x3c4f04e3	0.012635442
93	0x3ed4e9c4	0.415846
94	0xbea5765d	-0.32316867
95	0x3df43eaa	0.11926015
96	0x3de66229	0.11249191
97	0x3d807638	0.062725484
98	0x3e845e63	0.2585326
99	0x3c5dce8a	0.013538012
100	0xbd7378c6	-0.05944135
101	0x3f215bb1	0.63030535
102	0xbe23cf59	-0.15997066
103	0xbdf957cc	-0.12174949
104	0xbd6c8cff	-0.05775165
105	0xbea907bb	-0.3301371
106	0x3e518ba3	0.20463423
107	0x3eae2587	0.34013006
108	0x3f4d3269	0.80155045
109	0xbec874fe	-0.39151758
110	0x3e4e5c14	0.20152313
111	0x3e3261bf	0.174201
112	0x3e5dbdbc	0.21654409
113	0x3ed9ba47	0.4252493
114	0xbe973482	-0.29532248
115	0xbebbe5b1	-0.36698678
116	0xbdad2a3d	-0.08455322
117	0xbed43908	-0.4144976
118	0xbeb1e1b3	-0.34742507
119	0x3bbee7e8	0.005825985
120	0x3f0c822f	0.54886144
121	0x3df82413	0.121162556
122	0xbcfe4836	-0.031040292
123	0x3e543daa	0.20726648
124	0xbca4c899	-0.020115184
125	0xbe480541	-0.19533254
126	0xbe84c5fa	-0.25932294
127	0x3db8d7bf	0.09025525
128	0x3e4a88d8	0.19778764
129	0x3e8a12ce	0.26967472
130	0x3ed5e342	0.41774946
131	0xbcb81a4e	-0.02247348
132	0xbe27b297	-0.1637672
133	0x3e2ea224	0.17054039
134	0x3ea96a87	0.33089086
135	0xbeb3cfdf	-0.3511953
136	0xbdb8590e	-0.09001361
137	0x3dc0f2c8	0.09421307
138	0xbd8d5ad7	-0.06902092
139	0x3e0460a6	0.12927493
140	0xbdb71609	-0.0893975
141	0xbcc11dc9	-0.023573773
142	0xbd7e9c58	-0.06216082
143	0x3d6e7c16	0.058223806
144	0xbe67024d	-0.22559471
145	0xbcb939aa	-0.022610504
146	0x3d7dd28a	0.061968364
147	0x3d5b61db	0.05356012
148	0xbe5d048b	-0.21583764
149	0x3e54871a	0.20754662
150	0x3cda8716	0.026675742
151	0xbd5a7a2e	-0.053339176
152	0xbe1ff1a3	-0.15619521
153	0xbe58305f	-0.21112202
154	0xbe4ba322	-0.19886449
155	0x3da60db2	0.08108081
156	0xbd4cecd2	-0.050030537
157	0x3d847729	0.064680405
158	0x3e43cd1f	0.19121216
159	0xbde98df0	-0.114040256
160	0x3e610cbe	0.21977517
161	0x3dbbdfb4	0.09173527
162	0x3c110800	0.008852005
163	0x3db1435f	0.08655428
164	0xbd066f7d	-0.032821167
165	0xbd738883	-0.05945636
166	0xbe800af6	-0.25008363
167	0x3e8def38	0.27721572
168	0xbe326df6	-0.1742476
169	0x3e251950	0.16122937
170	0xbe976b59	-0.29574087
171	0xbbcab46c	-0.0061860587
172	0xbcdfd2ed	-0.027322257
173	0xbecee055	-0.40405527
174	0xbd3f15e0	-0.04665172
175	0xbdb95ac3	-0.090505145
176	0xbda8291d	-0.08210967
177	0x3e7674f9	0.24068059
178	0xbe9a9390	-0.30190706
179	0x3e5de6aa	0.21670023
180	0x3e5386ee	0.2065694
181	0x3cb83f27	0.02249105
182	0x3d854f9f	0.06509327
183	0xbb9c5bd9	-0.0047716913
184	0xbd7e29cc	-0.06205158
185	0x3e3ebcbb	0.18626682
186	0x3e5c995a	0.21542874
187	0x3cdc2d0c	0.026876949
188	0xbced3d38	-0.028959855
189	0xbd82bbd8	-0.063834846
190	0xbcf279f1	-0.029599162
191	0x3ca1c526	0.019747328
192	0xbe040f22	-0.12896398
193	0xbcff2dfe	-0.03114986
194	0xbc22fb75	-0.009947647
195	0x3da8a428	0.08234435
196	0x3e6ad009	0.22930922
197	0xbdcac889	-0.0990153
198	0x3e3b470c	0.18288821
199	0x3e5aaf55	0.21355946
200	0x3e9d738d	0.3075222
201	0x3f461c9e	0.77387416
202	0x3e904f3d	0.28185454
203	0x3e8019fe	0.2501983
204	0x3d6b64bc	0.057469115
205	0x3deb778f	0.11497413
206	0x3e51e884	0.20498854
207	0xbe91f4c6	-0.2850706
208	0x3d8a94b4	0.06766644
209	0x3f0ac2f9	0.54203755
210	0x3d3edf57	0.046599712
211	0x3d23c0e1	0.039978866
212	0xbe1277ec	-0.14303559
213	0xbe32a795	-0.1744674
214	0x3e6320f7	0.22180544
215	0x3d419b60	0.047267318
216	0xbd7c4822	-0.06159223
217	0x3e37f907	0.1796609
218	0x3db78704	0.08961299
219	0xbdbb032a	-0.09131463
220	0x3e958aca	0.2920745
221	0x3d6553d4	0.055988148
222	0x3e1bbf91	0.15209796
223	0x3e98fae8	0.29878926
224	0x3ed579c0	0.4169445
225	0xbe4b4fac	-0.19854611
226	0x3ef9f026	0.4881603
227	0x3e42f4de	0.19038722
228	0x3d1d5f82	0.03842116
229	0x3e460388	0.19337285
230	0x3da0b9b6	0.078479216
231	0xbdfa2c49	-0.12215478
232	0x3e158f23	0.14605384
233	0xbe80de35	-0.2516953
234	0x39b6f9b9	0.00034899803
235	0x3ea202ef	0.31642863
236	0xbe9bb78b	-0.3041347
237	0x3ea2241e	0.3166818
238	0x3f04657e	0.51717365
239	0xbd344e44	-0.044019952
240	0x3ee75af6	0.45186585
241	0x3e42a65f	0.19008778
242	0xbea333d7	-0.31875488
243	0x3e988ecb	0.29796442
244	0x3eb57d3d	0.35447112
245	0x3e12ae92	0.14324406
246	0xbd1feb10	-0.039042532
247	0x3e56a612	0.20961788
248	0x3e977892	0.29584175
249	0x3e0a9450	0.13533139
250	0xbd47801c	-0.04870616
251	0x3b5c8468	0.0033648256
252	0x3d03aadd	0.03214537
253	0x3e336cc1	0.17521955
254	0xbe0f94a6	-0.14021549
255	0xbeb55f90	-0.3542447

bias f4 [50]
0	0xbc7f071b	-0.015565659
1	0xbd91a568	-0.07111627
2	0xbd4a4656	-0.049383484
3	0xbe49b889	-0.19699301
4	0xbe962de7	-0.29331896
5	0xbdfed9d4	-0.12443891
6	0x3e1d7412	0.15376309
7	0xbe90c11d	-0.28272334
8	0xbe53a056	-0.20666632
9	0x3e421a39	0.18955316
10	0xbe44c885	-0.19217117
11	0xbe67205c	-0.22570938
12	0xbe830ecd	-0.2559723
13	0xbe0bb59c	-0.13643497
14	0xbedae9ff	-0.4275665
15	0xbdab57a1	-0.08366323
16	0xbdd7c2f4	-0.10535231
17	0xbe431c43	-0.1905375
18	0xbe79315b	-0.24335234
19	0xbc28ccef	-0.010302766
20	0x3e5acb4c	0.21366614
21	0xbe04847e	-0.12941167
22	0xbcf5dbc3	-0.030012017
23	0xbd15543f	-0.036457296
24	0xbe660c37	-0.22465597
25	0xbe3cc6a0	-0.18435144
26	0xbebc1e85	-0.36742035
27	0xbdd88b8b	-0.10573491
28	0xbd31f045	-0.04344203
29	0xbe3587e3	-0.17727618
30	0xbd79de29	-0.061002884
31	0xbe14b80c	-0.14523333
32	0xbdb26870	-0.08711326
33	0x3de40011	0.11132825
34	0xbdcb179d	-0.09916613
35	0x3dd8c844	0.10585073
36	0xbd5417ce	-0.051780514
37	0xbe98102c	-0.29699838
38	0xbe968952	-0.29401642
39	0x3e5a0ce2	0.21293977
40	0xbe1456cf	-0.1448624
41	0xbe38efe6	-0.18060264
42	0xbc1315b9	-0.008977347
43	0xbe9d5971	-0.307323
44	0xbd72d2b6	-0.05928298
45	0xbdfc71c0	-0.123263836
46	0xbe848036	-0.25879067
47	0xbe12e68e	-0.14345762
48	0xbe8412db	-0.25795636
49	0xbebbc6dc	-0.36675155

weight f4 [50, 50]
0	0xbe8601b5	-0.26173177
1	0x3d1da4ef	0.03848737
2	0xbed62b3e	-0.41829866
3	0xbe4d2cfe	-0.20036694
4	0xbe1f6fbf	-0.15569972
5	0xbce401c8	-0.02783288
6	0xbd8166a9	-0.06318409
7	0xbd925755	-0.071455635
8	0xbdf10bc8	-0.11769825
9	0xbe028a18	-0.12747991
10	0xbd7c4995	-0.06159361
11	0x3c97471e	0.018466529
12	0x3bc7053f	0.0060736234
13	0xbda47c42	-0.08031513
14	0xbe802741	-0.25029948
15	0xbcce32eb	-0.025170764
16	0xbd4b85cb	-0.04968814
17	0xbc9815c2	-0.018565062
18	0xbe2aa06e	-0.16662762
19	0xbda342cf	-0.07971727
20	0xbde7404c	-0.112915605
21	0xbe4b9cef	-0.19884084
22	0xbde74d9d	-0.112941004
23	0xbd342721	-0.04398263
24	0xbe207615	-0.15670045
25	0xbd8da846	-0.06916861
26	0xbd826595	-0.063670315
27	0xbd468515	-0.04846676
28	0xbe81aa0d	-0.2532505
29	0x3d2808c6	0.041023992
30	0xbebc1f68	-0.3674271
31	0xbc1c13d6	-0.009526214
32	0xbbfb0899	-0.007660937
33	0xbea5a836	-0.32354897
34	0xbd63e6d6	-0.055640064
35	0xbd16574a	-0.03670434
36	0xbee543d4	-0.4477831
37	0x3c5fc174	0.013656963
38	0xbe8084da	-0.25101358
39	0xbebb2488	-0.3655131
40	0xbe03ece9	-0.12883343
41	0xbe183276	-0.14863
42	0xbcc60fa8	-0.024177387
43	0xbe229f1c	-0.15881008
44	0xbe217cc1	-0.15770246
45	0x3cdc33c9	0.026880162
46	0xbe465756	-0.19369254
47	0xbe124845	-0.14285381
48	0xbdabe170	-0.08392608
49	0xbe2811d7	-0.16413055
50	0xbd222254	-0.03958352
51	0x3dfee672	0.12446298
52	0xbdb12e2a	-0.08651383
53	0x3e270aba	0.16312686
54	0x39e150de	0.00042975595
55	0xbde2a88d	-0.11067305
56	0xbe02b76e	-0.12765285
57	0x3d842c4f	0.06453764
58	0xbd9ad613	-0.07560363
59	0xbec46644	-0.38359272
60	0x3d98cdbf	0.07461118
61	0xbe831e0c	-0.2560886
62	0x3dfb5d5d	0.12273667
63	0x3dd755a0	0.105143785
64	0x3da32184	0.07965377
65	0xbe46f5ed	-0.1942975
66	0xbd4a9cb1	-0.04946584
67	0x3d62a59b	0.055333715
68	0xbacbf46d	-0.0015560515
69	0xbe51c05b	-0.20483534
70	0xbe654a06	-0.22391519
71	0x3e1f9ecb	0.15587918
72	0xbd3dd8d2	-0.046349354
73	0xbd4da1b5	-0.050203044
74	0xbd8b8612	-0.06812681
75	0x3ccb2cc5	0.024801621
76	0x3d8bca43	0.06825688
77	0xbd81962d	-0.06327472
78	0xbe96541c	-0.29361045
79	0x3daf0c6a	0.0854729
80	0x3d46905c	0.048477516
81	0xbe257314	-0.1615718
82	0x3d82372c	0.063581795
83	0xbe2c768f	-0.16842102
84	0xbda3fc6e	-0.080071315
85	0xbedd5ea7	-0.43236277
86	0x3d29831c	0.0413848
87	0x3e1bad0b	0.1520273
88	0x3d941c57	0.07231968
89	0xbeb9a653	-0.36259708
90	0x39053866	0.00012704878
91	0xbde273b0	-0.11057222
92	0xbe8ae5f1	-0.27128556
93	0xbd874158	-0.0660426
94	0xbebeb6e7	-0.37248918
95	0xbe540a9f	-0.20707177
96	0x3d9cdfde	0.07659887
97	0x3e1a0983	0.15042691
98	0xbe2c2038	-0.16809165
99	0x3de55e8a	0.111996725
100	0xbe990d24	-0.29892838
101	0xbdee784e	-0.1164404
102	0xbe7979e5	-0.24362905
103	0xbdfbb991	-0.12291253
104	0xbddcf90b	-0.10789689
105	0xbcb2cbb8	-0.021825656
106	0xbc86a954	-0.016438164
107	0xbe8668fd	-0.26251975
108	0xbe38a6f4	-0.18032438
109	0xbd116c1a	-0.035503484
110	0xbe68c816	-0.22732577
111	0xbd1c5013	-0.038162302
112	0x3c6f1f47	0.014594859
113	0xbe754754	-0.23952991
114	0xbe228a44	-0.15873057
115	0xbdcb9895	-0.09941212
116	0xbdfe3f7d	-0.12414453
117	0xbd632de2	-0.05546368
118	0xbdcd2399	-0.10016555
119	0xbe9247e5	-0.28570476
120	0xbd9a303e	-0.07528733
121	0xbdc28c32	-0.094993964
122	0xbe891dd5	-0.26780573
123	0xbe629d0d	-0.22130223
124	0xbcfe8732	-0.031070326
125	0xbe5a735c	-0.21333069
126	0xbd828269	-0.0637253
127	0xbe6ffb50	-0.23435712
128	0xbeb66b74	-0.35628855
129	0xbde1293b	-0.10994192
130	0xbe888c74	-0.26669657
131	0xbe1f46fc	-0.15554422
132	0x3ba17f94	0.0049285386
133	0xbdb219d7	-0.08696335
134	0xbe22a22d	-0.15882178
135	0xbd6e8311	-0.058230463
136	0xbe65e2ea	-0.22449842
137	0xbcec48c4	-0.028843291
138	0xbd20e7b8	-0.039283484
139	0xbeaa03de	-0.33206075
140	0xbe37dd4f	-0.17955516
141	0xbe9c5411	-0.30532888
142	0xbe597253	-0.21235017
143	0xbe482bb4	-0.19547921
144	0xbe57cfe3	-0.21075396
145	0xbeabfef1	-0.33592942
146	0xbde9f017	-0.11422747
147	0xbe83ccd7	-0.25742218
148	0x3ccce7c9	0.025012868
149	0xbe3d0779	-0.18459882
150	0x3dc1fbf6	0.09471886
151	0xbd24cf80	-0.04023695
152	0xbea97575	-0.33097425
153	0xbd036271	-0.032076303
154	0x3d08edbe	0.033429854
155	0xbc437e00	-0.011931896
156	0xbbf6b7f9	-0.0075292555
157	0xbe46cd2a	-0.19414201
158	0x3c7eb126	0.015545165
159	0xbe59d7f7	-0.2127379
160	0xbd70aefa	-0.05876062
161	0xbe47a650	-0.19497037
162	0xbb3c85c2	-0.002876625
163	0x3bade039	0.0053062704
164	0xbd878997	-0.0661804
165	0xbcf5fddf	-0.030028282
166	0xbdf3269b	-0.11872598
167	0xbda607ac	-0.08106932
168	0xbe7e26f2	-0.24819544
169	0x3ca0fb6c	0.019651137
170	0xbe7c1fc4	-0.24621493
171	0x3de834cc	0.11338195
172	0xb9c3b79f	-0.00037330107
173	0xbe44c1ab	-0.19214503
174	0xbc937f84	-0.01800514
175	0xbd4a759b	-0.049428564
176	0x3da39bc0	0.07988691
177	0xbdbc4699	-0.09193153
178	0xbedbde30	-0.42942953
179	0xbe4e2a3d	-0.201333
180	0x3a527fb6	0.00080298947
181	0x3ca66a9e	0.02031451
182	0xbd4ea6a5	-0.050451893
183	0xbd08e588	-0.033422023
184	0x3c0db883	0.008649948
185	0xbea04473	-0.31302223
186	0xbda07914	-0.07835594
187	0x3cf53ae3	0.029935306
188	0xbdb45b20	-0.08806443
189	0xbdfb1c16	-0.12261216
190	0xbe31747e	-0.17329594
191	0xbe20740b	-0.15669267
192	0xbe9fc6fe	-0.31206506
193	0xbe03489c	-0.12820667
194	0xbe82d429	-0.2555249
195	0xbe4aaadf	-0.19791745
196	0x3d4879ce	0.048944287
197	0xbdba75a1	-0.09104467
198	0xbcb67088	-0.022270456
199	0x3dbe9404	0.093055755
200	0x3cb92196	0.022599023
201	0x3dd19eb8	0.10235351
202	0xbeae7bba	-0.3407877
203	0x3db4ce0f	0.08828365
204	0xbe360fdb	-0.17779486
205	0xbdba822a	-0.09106858
206	0xbe4c0604	-0.1992417
207	0xbb857270	-0.00407248
208	0x3d94b44b	0.07260951
209	0xbdcd6c8c	-0.10030469
210	0x3d85f7a6	0.06541376
211	0xbce92e0f	-0.028464345
212	0x3d475b52	0.048671074
213	0xbc3c6036	-0.011497548
214	0xbe267dad	-0.16258879
215	0xbc6a4aa3	-0.014300021
216	0xbd839a88	-0.06425959
217	0x3dc2f982	0.09520246
218	0xbe3f77ba	-0.18698016
219	0xbe045e88	-0.12926686
220	0xbea775e7	-0.3270714
221	0x3d6cd64c	0.057821557
222	0xb8b2e774	-8.530813e-05
223	0xbdd15a5d	-0.102223136
224	0x3dc29870	0.095017314
225	0x3d59c64f	0.053167637
226	0xbc66f20e	-0.014095796
227	0xbcabbc23	-0.020963734
228	0xbea90094	-0.33008254
229	0xbd9e8d70	-0.07741821
230	0xbe086c39	-0.13322534
231	0xbcf8916f	-0.030342786
232	0xbcb4b31f	-0.022058068
233	0xbeabea1c	-0.3357705
234	0x3ddbccc6	0.10732417
235	0xbe1b5d55	-0.15172322
236	0xbe5a7e5a	-0.21337262
237	0xbcfc7764	-0.030818649
238	0xbe2bf9ec	-0.16794556
239	0xbe5a05fa	-0.21291342
240	0xbd519e46	-0.051176332
241	0xbe407cd8	-0.18797624
242	0xbe58179f	-0.2110276
243	0xbdabf7a9	-0.08396847
244	0xbe7f42dd	-0.2492785
245	0xbdcca203	-0.09991839
246	0xbe07eb5e	-0.13273379
247	0x3e0ede01	0.13951875
248	0xbdef6971	-0.11690033
249	0xbe2156e0	-0.15755796
250	0x3c42a928	0.01188115
251	0xbedef82d	-0.43548718
252	0x3e8627c7	0.26202223
253	0xbd467acd	-0.048456956
254	0xbdb124a4	-0.08649567
255	0x3d4fed32	0.050763316

bias f4 [50]
0	0xbe2009b5	-0.15628703
1	0xbe12c026	-0.14331111
2	0xbdd3d0be	-0.10342549
3	0xbe909b53	-0.28243503
4	0xbd387aff	-0.045039173
5	0xbdd3ee0e	-0.1034814
6	0xbe4d6712	-0.2005885
7	0xbe9e1eeb	-0.30882964
8	0xbead7e5d	-0.3388547
9	0xbdce9a22	-0.10087992
10	0xbe311566	-0.17293319
11	0xbd98b0af	-0.07455575
12	0xbdd96a6b	-0.10616001
13	0xbe23326c	-0.15937203
14	0xbe68804d	-0.22705193
15	0xbec03660	-0.37541485
16	0xbe1b2fb1	-0.15154912
17	0xbdedd19b	-0.11612245
18	0x3b8e6cda	0.004346472
19	0xbe888599	-0.26664427
20	0xbe5e94e9	-0.21736492
21	0xbebb4c3a	-0.36581594
22	0xbe351015	-0.17681916
23	0xbe90f32d	-0.28310528
24	0x3c59f104	0.0133020915
25	0xbdb10ed6	-0.08645408
26	0xbe9f19ce	-0.31074375
27	0xbe4f1242	-0.20221809
28	0xbe101950	-0.14072156
29	0xbd32b590	-0.043630183
30	0xbe5f5afb	-0.2181205
31	0xbe820826	-0.25396842
32	0xbe7ddc71	-0.24791123
33	0xbe62f6e0	-0.22164488
34	0xbe2a0a08	-0.16605389
35	0xbd4fcea1	-0.050734166
36	0xbe74123c	-0.23835081
37	0xbe2cb87e	-0.16867253
38	0xbd7d9f0f	-0.06191927
39	0xbe37b4c0	-0.17940044
40	0xbdb6e582	-0.08930494
41	0xbe92bc35	-0.28659216
42	0xbe77371b	-0.24142115
43	0xbdf73c32	-0.12072028
44	0x3cdcf97b	0.02697443
45	0xbe9d5006	-0.30725116
46	0xbdee5d29	-0.11638863
47	0xbe17610a	-0.14783111
48	0xbe2688f4	-0.16263181
49	0xbe86d3a0	-0.26333332

weight f4 [100, 50]
0	0xbe5aa876	-0.21353325
1	0x3e3165c9	0.17323984
2	0x3db4e17f	0.088320725
3	0x3e1b4e21	0.15166523
4	0x3c7ee293	0.015556949
5	0x3f086366	0.5327667
6	0x3e304d07	0.17216884
7	0x3e6857b6	0.22689709
8	0x3e7ac993	0.24490957
9	0xbe3b48dc	-0.18289512
10	0xbe0bd63c	-0.13655943
11	0xbd15ffc3	-0.036620867
12	0x3e92cf1b	0.28673634
13	0x3e8d1d85	0.27561584
14	0x3dbf15b9	0.09330315
15	0x3e2cf8e2	0.16891816
16	0x3d17f317	0.037097063
17	0x3e651479	0.22371091
18	0x3eaff464	0.34366143
19	0x3c999a7a	0.018750418
20	0xbd92b602	-0.071636215
21	0x3deaffd2	0.11474575
22	0x3ea3e5e6	0.32011336
23	0x3ea13ec1	0.3149319
24	0xbc153214	-0.009106178
25	0xbe775c84	-0.24156386
26	0xbba89e08	-0.005145792
27	0x3ed0893e	0.40729707
28	0xbd5a0bc2	-0.05323387
29	0xbe8a841a	-0.2705391
30	0x3d8f9ecf	0.07012712
31	0xbd2e1484	-0.042500034
32	0x3e960d5f	0.29307076
33	0x3e23b4fe	0.15987012
34	0x3e744462	0.23854211
35	0xbbde07d0	-0.0067758337
36	0xbdd30009	-0.10302741
37	0xb920139c	-0.00015266094
38	0xbe45ff3b	-0.19335644
39	0x3ed323ae	0.4123816
40	0x3eb113d3	0.34585437
41	0x3eb5f900	0.35541534
42	0xbe36f03b	-0.17865078
43	0xbd411bb3	-0.047145557
44	0x3d4cbcb0	0.049984634
45	0x3e2cc01d	0.1687016
46	0xbdb38d7f	-0.087672226
47	0x3d235702	0.0398779
48	0xbd37c8b0	-0.044869125
49	0x3cbf9057	0.023384256
50	0x3da9287e	0.082596764
51	0x3de0073f	0.10938882
52	0x3d1b0265	0.03784408
53	0xbdc32a4b	-0.09529551
54	0xbacf7a51	-0.00158293
55	0x3dc2fbb5	0.095206656
56	0x3d24def6	0.040251695
57	0x3e8363be	0.25662035
58	0x3d0e05c2	0.03467346
59	0x3d86ea09	0.065876074
60	0x3e2bf5d9	0.16793002
61	0x3e9dbd7f	0.30808637
62	0x3db535b6	0.08848135
63	0x3dc77951	0.09739936
64	0x3dca5cb5	0.09880964
65	0x3dce834e	0.10083638
66	0x3ecd3f8e	0.4008755
67	0x3d285a40	0.041101694
68	0x3e5aeb27	0.21378766
69	0xbdb08753	-0.08619561
70	0x3e1fda2d	0.15610571
71	0x3e32400a	0.17407241
72	0x3db80e83	0.08987143
73	0x3d407517	0.046986666
74	0xbd8e3bc1	-0.06944991
75	0x3e52bebe	0.20580575
76	0x3e3cbbce	0.18431017
77	0x3dc4abfa	0.096031144
78	0xbdeb209f	-0.11480831
79	0xbdb04db6	-0.08608572
80	0x3e1cc200	0.1530838
81	0xbd43f586	-0.04784157
82	0x3e4d30fc	0.20038217
83	0x3b0940fb	0.0020943272
84	0x3d9f4c88	0.07778269
85	0xbc8551c8	-0.016274348
86	0x3e3e6b0d	0.18595524
87	0x3dcb8f43	0.099394344
88	0x3e100358	0.14063776
89	0x3e5bd2a0	0.21467066
90	0x3e748cf1	0.2388189
91	0x3e678d16	0.22612414
92	0x3de589ef	0.11207949
93	0xb6152e06	-2.222952e-06
94	0x3efb752b	0.4911283
95	0xbd11ac1a	-0.03556452
96	0x3c8e734f	0.017388968
97	0xbcf6bdf8	-0.030119881
98	0x3e2e3d83	0.17015652
99	0x3e3945e2	0.18093064
100	0xbd9b435a	-0.07581206
101	0xbc1790f7	-0.009250871
102	0xbd7bace5	-0.061444182
103	0xbddac5a8	-0.10682231
104	0xbd549027	-0.051895287
105	0xbd440c48	-0.047863275
106	0xbdc87e2b	-0.0978969
107	0x3ccdc747	0.025119437
108	0xbc720f14	-0.014774103
109	0xbd4dc0c5	-0.050232667
110	0xbd517848	-0.0511401
111	0x3d42b364	0.04753436
112	0x3cf6f0b4	0.030144073
113	0x3dad35d9	0.08457536
114	0x3da81ce6	0.08208637
115	0xbc948f32	-0.018134687
116	0x3db03ad1	0.08604968
117	0x3bf6e995	0.0075351694
118	0x3e24a4fa	0.16078559
119	0xbd90142a	-0.07035096
120	0x3d38c628	0.04511085
121	0x3c74a002	0.014930727
122	0x3d1d7da4	0.0384499
123	0x3dae7a5b	0.08519431
124	0x3d398f57	0.045302715
125	0x3da25687	0.0792666
126	0x3e384b3d	0.17997451
127	0x3dfb7b73	0.122794054
128	0xbc17a6dc	-0.009256091
129	0x3dcce33f	0.10004281
130	0x3d530e1b	0.051527124
131	0x3d6275aa	0.055287994
132	0x3def08d2	0.11671604
133	0x3dfad965	0.12248496
134	0xbb4c57dd	-0.00311803
135	0xbe1a5677	-0.15072046
136	0xbb147723	-0.0022654019
137	0x3d69bda1	0.05706561
138	0xbd6a41f8	-0.05719182
139	0x3e19fa85	0.15036972
140	0x3e0fcf53	0.14043932
141	0x3d898e73	0.06716623
142	0xbd5da307	-0.054110553
143	0x3d60293e	0.05472683
144	0x3d13b9f6	0.036066018
145	0xbd00cd65	-0.03144588
146	0xbca7ba61	-0.020474615
147	0xbac33ea8	-0.0014895992
148	0x3d0c54eb	0.03426067
149	0x3bcaa369	0.006184031
150	0x3d14f074	0.036362126
151	0xbbec62bc	-0.0072139185
152	0x3cce8225	0.025208542
153	0x3cabfffa	0.020996083
154	0x3d82e953	0.06392159
155	0xbde3ef82	-0.11129667
156	0x3daea3b3	0.08527317
157	0xbc39fe7b	-0.011352177
158	0xbd331ac9	-0.043726716
159	0xbd2c3c8d	-0.042049933
160	0x3dca502a	0.09878571
161	0x3e87bca5	0.26511112
162	0xbe0e5a0a	-0.13901535
163	0xbd698521	-0.057011727
164	0x3d26bf6d	0.0407099
165	0xbc949fd2	-0.018142615
166	0x3e71d83c	0.23617643
167	0xbd3f715b	-0.046738964
168	0x3ce4ed79	0.027945267
169	0x3dd5df48	0.10442978
170	0x3dc07314	0.093969494
171	0xbd21468b	-0.039373916
172	0xbdb9a877	-0.09065335
173	0xbde595b1	-0.11210192
174	0x3cff225d	0.031144315
175	0x3dcb89e0	0.09938407
176	0x3d2f12af	0.042742427
177	0xbe097271	-0.13422562
178	0x3d0b72b8	0.03404495
179	0x3d2b5421	0.04182828
180	0x3dce0a74	0.100605875
181	0xbdd21e7e	-0.10259722
182	0xbd952410	-0.07282269
183	0xbe029451	-0.1275189
184	0x3d41c105	0.04730322
185	0xbcf6581b	-0.030071309
186	0x3dfef64d	0.12449322
187	0x3bee3470	0.0072694346
188	0xbdaaaed6	-0.083341286
189	0x3c2da4d9	0.010598385
190	0xbdc0d62b	-0.09415849
191	0xbdd4e678	-0.10395521
192	0x3d1d2f31	0.038375083
193	0xbbce4b35	-0.0062955865
194	0x3e93e19d	0.28883067
195	0x3c55269f	0.013009696
196	0xbd0644b7	-0.032780375
197	0x3dabdc4e	0.08391629
198	0x3d73b608	0.05949977
199	0x3e4a9476	0.19783196
200	0xbdc63a86	-0.09679131
201	0x3cf6e616	0.03013901
202	0x3d5bc2b9	0.0536525
203	0xbd9460cf	-0.07245027
204	0x3db7600a	0.08953865
205	0x3e19f77d	0.15035816
206	0xbd7daaea	-0.061930574
207	0xbdc7d197	-0.09756773
208	0xbd75f815	-0.060051043
209	0x3d2aa631	0.0416624
210	0x3e176853	0.1478589
211	0xbe3b77da	-0.18307438
212	0x3e05c512	0.13063458
213	0xbccbb30b	-0.024865648
214	0x3d8f7ddf	0.0700643
215	0xbe08b780	-0.1335125
216	0x3d0fbca1	0.035092
217	0x3ded195d	0.11577103
218	0xbbc6a9b0	-0.006062709
219	0xbdb1b64d	-0.08677349
220	0xbdc29eda	-0.09502955
221	0x3c51b89a	0.01280036
222	0xbd517ebd	-0.051146258
223	0xbd389821	-0.045066956
224	0xbdb35d35	-0.08758012
225	0xbccacf6e	-0.024757113
226	0xbc22fad0	-0.009947494
227	0x3e168874	0.1470049
228	0xbe5d097a	-0.21585646
229	0xbd474533	-0.048649978
230	0xbc1ebf7b	-0.009689207
231	0xbd0a9d5b	-0.033841472
232	0x3d4a645a	0.04941211
233	0x3de2520d	0.11050806
234	0xbc98b6ed	-0.018641913
235	0xbdab52cb	-0.08365401
236	0x3e236f4a	0.15960422
237	0xbd9d2bed	-0.07674394
238	0x3ea71d85	0.3263971
239	0xbd1e4544	-0.038640276
240	0x3d9df5b0	0.07712877
241	0xbd53c89e	-0.051704995
242	0x3e037120	0.12836123
243	0x3d2e2fc1	0.04252601
244	0xbbfb494f	-0.007668651
245	0xbdf25517	-0.11832636
246	0x3dc9f209	0.09860618
247	0xbdf22628	-0.11823684
248	0xbe260b06	-0.16215143
249	0x3d13f828	0.036125332
250	0x3ddc6c2b	0.10762819
251	0xbe3edbe3	-0.18638568
252	0x3c2471ef	0.0100369295
253	0xbe659d0a	-0.22423187
254	0x3cf098a7	0.029369665
255	0xbee60e3a	-0.4493273
