mcspace/paper/human_runs/runs/seed_8/model.pt (torch, 308831 bytes, 66 tensors)

theta_params f4 [100, 58]
-3.190075 1.301571 -3.2429144 0.09304134 -1.9299531 0.3109082 -0.060366288 2.373947
0.7013904 -1.6720402 2.0257182 -1.469351 0.33626434 0.5128922 -4.761171 -5.647611
0.8009033 1.9856108 0.6071942 2.5048792 0.5553927 -1.3752153 0.3042878 -0.26595855
-4.7379518 -4.792694 -4.2955995 -1.2358766 0.13259506 -1.7893478 -2.0115123 -2.3255312
1.8811688 1.9666814 -1.8784534 -0.82237947 1.8081607 -2.4205487 1.2461891 2.0356905
-1.0102586 -3.4937873 2.6426945 0.75491136 -2.4330454 1.0770953 -2.7984562 0.40091005
-3.1047254 2.2441578 -0.22331436 2.7251828 1.0498135 5.6214476 4.0970197 -2.6639593
-0.3504936 -0.018346028 -5.145462 -0.07125273 -3.2297091 -3.5897124 -3.7800398 -4.2307982
-5.670693 2.9002695 -4.167504 -3.8750613 1.9851956 -0.83032703 -3.902498 1.8151339
-3.9089913 -2.7103815 -3.3953466 -6.135841 -4.963375 0.63898134 2.3463004 -5.531529
-3.740638 1.882479 -5.805515 -3.995035 -5.6270595 4.8583627 0.7084886 -5.1040893
-2.628999 4.01739 -6.3106074 -1.5264498 -5.9015 -6.7773137 3.644597 -5.373301
-6.2747893 1.7227472 -2.7824566 -2.039827 5.5071583 -3.4318128 1.7743177 -0.035529934
-5.4190407 1.3678684 -6.5144544 -6.189763 -3.9937904 0.55065787 -5.799392 -1.3453263
-2.9216175 -2.5269215 1.193782 -4.824851 -0.48470393 1.5758466 -6.846861 -1.5417669
0.3878478 -0.5482076 -4.331695 1.6328712 -6.5505867 3.6506011 3.0752742 -4.7537613
-3.4535308 0.60380995 -0.44660637 0.6266271 0.33866605 -5.4538903 -5.3905025 -3.994896
-0.11960377 -1.0868043 1.9449079 0.9029625 -2.4438643 -0.12972255 -3.6488845 -1.2874203
-1.4519324 -4.2534785 -5.8468494 -0.19759484 0.6944616 -1.8051913 1.6748152 -6.1894727
3.6769402 -1.0037637 3.3614588 -0.65095896 -6.689202 0.91778207 -2.9823735 -4.186462
-1.7970825 2.04569 -2.4798124 1.3868884 -5.39905 0.78253907 -0.9726451 -0.270344
1.7227869 0.32240215 2.8404596 -6.8680234 -7.2383075 0.7566772 -2.9484804 0.18819696
-5.7935915 0.8229107 0.09733807 -4.347471 -3.1546328 2.8821626 1.0006615 -1.267382
2.641387 -1.8981843 0.566076 0.65945303 1.6828909 -0.2810363 2.0023947 1.4368316
1.5058147 3.396514 1.4880798 -4.7089524 -3.211806 1.3641623 -1.4155239 0.49265978
-4.040623 0.34710854 -1.0327235 -3.863014 -3.2118528 -0.9065607 -0.25287896 2.816449
3.1168933 -6.726286 0.5753174 0.21810092 1.1797425 0.8203326 -6.154786 0.49305198
1.6409053 0.64142615 0.78787917 0.55651027 0.15298949 -0.85166514 -2.8997505 -1.6361928
-1.7399356 -0.29019812 0.42353532 2.039961 3.039531 0.5979158 -0.9631605 -0.50574803
-3.0524373 -1.4510012 -3.594496 -1.0015022 -1.1653048 -0.9561298 -2.011183 3.044016
-2.7160711 -1.5159463 -0.3614009 -3.0835865 -2.7998295 -3.177489 -1.803547 -1.9001209
-1.3849795 -1.9434505 -0.80387074 -1.7161893 6.276954 0.01704689 -1.6480511 -3.4299595
00000000: 302a 4cc0 e199 a63f e98b 4fc0 758c be3d
00000010: b408 f7bf 5c2f 9f3e a442 77bd bfee 1740
00000020: 528e 333f 6a05 d6bf 5ea5 0140 b213 bcbf
00000030: d72a ac3e e74c 033f 835b 98c0 3bb9 b4c0
00000040: 0008 4d3f 7f28 fe3f 1471 1b3f f14f 2040
00000050: 372e 0e3f 0e07 b0bf 9ccb 9b3e b82b 88be
00000060: 4d9d 97c0 c05d 99c0 8d75 89c0 3431 9ebf
00000070: 00c7 073e 5909 e5bf 9ebc 00c0 81d5 14c0
00000080: 24ca f03f 37bc fb3f 2971 f0bf 7687 52bf
00000090: cf71 e73f 45ea 1ac0 2083 9f3f c148 0240
000000a0: 2750 81bf 369a 5fc0 e821 2940 df41 413f
000000b0: 04b7 1bc0 42de 893f e819 33c0 1544 cd3e
000000c0: d2b3 46c0 48a0 0f40 85ac 64be 6569 2e40
000000d0: 4a60 863f e6e2 b340 c91a 8340 4f7e 2ac0
000000e0: e673 b3be 694a 96bc a0a7 a4c0 f4ec 91bd
000000f0: 8eb3 4ec0 d9bd 65c0 2cec 71c0 b362 87c0
00000100: 5176 b5c0 049e 3940 315c 85c0 0101 78c0
00000110: e41a fe3f 5090 54bf 87c2 79c0 4f56 e83f
00000120: ea2c 7ac0 e476 2dc0 5c4d 59c0 cf58 c4c0
00000130: f8d3 9ec0 4894 233f c929 1640 4902 b1c0
00000140: 9d66 6fc0 12f5 f03f c7c6 b9c0 a7ae 7fc0
00000150: df10 b4c0 b577 9b40 825f 353f b354 a3c0
00000160: 8541 28c0 758e 8040 7ff0 c9c0 b562 c3bf
00000170: 17d9 bcc0 c1df d8c0 1441 6940 15f2 abc0
00000180: 13cb c8c0 fb82 dc3f c513 32c0 878c 02c0
00000190: a43a b040 d2a2 5bc0 d81c e33f d687 11bd
000001a0: c868 adc0 5016 af3f 6976 d0c0 8a12 c6c0
000001b0: 439a 7fc0 eaf7 0c3f 9f94 b9c0 a733 acbf
000001c0: c8fb 3ac0 15b9 21c0 d9cd 983f 2e65 9ac0
000001d0: 1d2b f8be 57b5 c93f 7c19 dbc0 9e58 c5bf
000001e0: fd93 c63e 5557 0cbf 3f9d 8ac0 ec01 d13f
000001f0: 689e d1c0 73a3 6940 4bd1 4440 d01e 98c0
00000200: a606 5dc0 4a93 1a3f 97a9 e4be a26a 203f
00000210: a365 ad3e 4586 aec0 ff7e acc0 60ac 7fc0
00000220: d2f2 f4bd 671c 8bbf bef2 f83f 8d28 673f
00000230: 4668 1cc0 fdd5 04be 5387 69c0 30ca a4bf
00000240: ecd8 b9bf 7f1c 88c0 6419 bbc0 4d56 4abe
00000250: 3cc8 313f 8210 e7bf 5860 d63f 2910 c6c0
00000260: fd52 6b40 547b 80bf 2422 5740 3fa5 26bf
00000270: f10d d6c0 c4f3 6a3f 35df 3ec0 7ff7 85c0
00000280: cd06 e6bf 96ec 0240 3fb5 1ec0 8f85 b13f
00000290: 05c5 acc0 7b54 483f 45ff 78bf 876a 8abe
000002a0: 4884 dc3f e511 a53e 17ca 3540 d9c6 dbc0
000002b0: 37a0 e7c0 99b5 413f e7b3 3cc0 b4b6 403e
000002c0: 1a65 b9c0 47aa 523f 2f59 c73d 7c1e 8bc0
000002d0: 81e5 49c0 5a75 3840 ad15 803f 9339 a2bf
000002e0: 7c0c 2940 b4f7 f2bf 5bea 103f ead1 283f
000002f0: f868 d73f fde3 8fbe 3c27 0040 19ea b73f
00000300: 89be c03f 7c60 5940 6679 be3f bdaf 96c0
00000310: 3b8e 4dc0 df9c ae3f e32f b5bf e73d fc3e
00000320: c94c 81c0 36b8 b13e 4930 84bf 9f3b 77c0
00000330: ff8e 4dc0 5d14 68bf 5a79 81be b340 3440
00000340: 2e7b 4740 bc3d d7c0 0048 133f d955 5f3e
00000350: cd01 973f 5101 523f 02f4 c4c0 4f71 fc3e
00000360: 2f09 d23f 8134 243f 73b2 493f 7577 0e3f
00000370: 47a9 1c3e ba06 5abf 8395 39c0 c46e d1bf
00000380: 36b6 debf d994 94be 9fd9 d83e b98e 0240
00000390: ad87 4240 0311 193f b091 76bf b478 01bf
000003a0: 225b 43c0 68ba b9bf 390c 66c0 3931 80bf
000003b0: b528 95bf ecc4 74bf 39b7 00c0 28d1 4240
000003c0: 1cd4 2dc0 870a c2bf 8a09 b9be 7b59 45c0
000003d0: 6830 33c0 fb5b 4bc0 a1da e6bf 2937 f3bf
000003e0: 0247 b1bf fcc2 f8bf 79ca 4dbf 17ac dbbf
000003f0: cfdc c840 eba5 8b3c 57f3 d2bf 7584 5bc0

q_mu f4 [5]
-2.1797287 -4.5725703 -1.0965016 -2.9166677 -4.045041
00000000: ad80 0bc0 7f52 92c0 2a5a 8cbf afaa 3ac0
00000010: fa70 81c0

q_var f4 [5]
-4.3692923 -2.1317194 -4.9841723 -3.9442534 -2.0803726
00000000: 3ed1 8bc0 176e 08c0 577e 9fc0 a66e 7cc0
00000010: d324 05c0

eps f4 [5]
0.6638746 -1.5747751 0.10559833 0.85869604 -0.8062361
00000000: b0f3 293f 3b92 c9bf f043 d83d 81d3 5b3f
00000010: 7d65 4ebf

q_gamma_params f4 [99]
-2.7397215 3.3257263 2.2017324 -5.080276 3.5184484 -3.3524547 3.6436262 4.098479
3.751775 3.9010918 2.824436 3.8949533 3.3852763 2.6704714 3.5476053 3.854988
4.216811 3.385455 3.9430768 -2.4660516 -1.9433779 2.500613 3.9249287 1.6292468
3.5696058 3.8870676 3.736382 3.5292304 3.5356402 1.4787986 2.2623587 4.099555
4.035058 -0.49144948 3.9364889 3.6498542 -3.702163 4.0153613 4.1968536 4.16281
3.7909887 4.0792255 3.777817 3.104811 2.8550985 0.00895647 3.8850768 3.6475825
3.295725 3.2552104 3.4688659 -1.707899 -1.9828036 4.160853 2.9066193 -2.9990776
3.619883 3.735762 4.3328643 -3.0806413 1.2314506 3.642078 3.799488 3.5852184
3.4034173 3.8150146 3.5040143 3.1918414 1.344653 -1.3139116 2.8243487 -1.2277982
3.1715522 2.3822618 4.383001 3.9455278 4.076003 3.8756263 3.6090393 3.8840322
2.3530843 3.0671694 3.8524206 1.868887 1.6064883 4.020013 3.463653 1.1966531
4.0216618 4.18016 3.564142 3.9776502 -4.820568 2.6489491 4.023142 -0.6736835
3.3210018 3.7815623 3.7766535
00000000: 9957 2fc0 b3d8 5440 2fe9 0c40 9f91 a2c0
00000010: 422e 6140 9e8e 56c0 2c31 6940 bd26 8340
00000020: 151d 7040 7dab 7940 8fc3 3440 ea46 7940
00000030: 5ea8 5840 01e9 2a40 f70b 6340 20b8 7640
00000040: 1ef0 8640 4bab 5840 5f5b 7c40 cad3 1dc0
00000050: 9bc0 f8bf 0b0a 2040 0832 7b40 298b d03f
00000060: 6c74 6440 b7c5 7840 e220 6f40 e9de 6140
00000070: ee47 6240 4649 bd3f 7cca 1040 8e2f 8340
00000080: 321f 8140 449f fbbe 6fef 7b40 3697 6940
00000090: 3df0 6cc0 d77d 8040 a04c 8640 bd35 8540
000000a0: 8f9f 7240 0489 8240 c1c7 7140 39b5 4640
000000b0: efb9 3640 28be 123c 19a5 7840 fe71 6940
000000c0: 29ed 5240 5e55 5040 e601 5e40 6f9c dabf
000000d0: 82cc fdbf b525 8540 0d06 3a40 e3f0 3fc0
000000e0: 2aac 6740 b916 6f40 d3a6 8a40 3a29 45c0
000000f0: 2ca0 9d3f ce17 6940 d02a 7340 3874 6540
00000100: 97d1 5940 3329 7440 c541 6040 2147 4c40
00000110: 971d ac3f 412e a8bf 21c2 3440 7e28 9dbf
00000120: b6fa 4a40 fa76 1840 8b41 8c40 8783 7c40
00000130: 9e6e 8240 430a 7840 80fa 6640 fc93 7840
00000140: ef98 1640 814c 4440 0f8e 7640 b037 ef3f
00000150: 69a1 cd3f f2a3 8040 7eac 5d40 ee2b 993f
00000160: 74b1 8040 dfc3 8540 e71a 6440 d291 7e40
00000170: 1842 9ac0 6288 2940 94bd 8040 8676 2cbf
00000180: 4b8b 5440 1e05 7240 b1b4 7140

q_probs f4 [99]
0.060682297 0.9653026 0.90043 0.006183316 0.9712099 0.03382604 0.9745102 0.98367345
0.9770652 0.98018265 0.94387054 0.9800618 0.96724665 0.93527794 0.9720143 0.97926575
0.9854688 0.9672531 0.9809809 0.07825633 0.12535195 0.9242005 0.9806387 0.8361474
0.9726053 0.9799079 0.9767173 0.9715096 0.97168386 0.81425893 0.9057216 0.9836909
0.9826232 0.37983888 0.98085773 0.9746328 0.024088485 0.9822839 0.9851804 0.98467493
0.9779259 0.9833613 0.9776398 0.9570945 0.9455903 0.5024814 0.9798677 0.9746095
0.96428484 0.96286327 0.96978945 0.15349607 0.1210642 0.9846454 0.94817656 0.047499903
0.97391313 0.9767022 0.98704034 0.04392062 0.77414614 0.9744728 0.97810864 0.9730205
0.967816 0.97844005 0.97080594 0.9605346 0.7928573 0.21181566 0.94399345 0.22668198
0.9597563 0.9154519 0.98766613 0.98102623 0.98330843 0.9796805 0.97363675 0.97984767
0.91309595 0.95551866 0.97921306 0.86637264 0.83301985 0.98236394 0.969638 0.7680271
0.9823936 0.98493445 0.9724587 0.9816149 0.008001662 0.93395454 0.98241895 0.33777148
0.9651461 0.97772115 0.9776135
00000000: 008e 783d 121e 773f 9582 663f 6a9d ca3b
00000010: 36a1 783f 2c8d 0a3d 8079 793f 06d2 7b3f
00000020: f220 7a3f 40ed 7a3f 80a1 713f 55e5 7a3f
00000030: 7a9d 773f 606e 6f3f eed5 783f 29b1 7a3f
00000040: af47 7c3f e69d 773f 9021 7b3f db44 a03d
00000050: 435c 003e 6798 6c3f 230b 7b3f c20d 563f
00000060: a9fc 783f 3edb 7a3f 250a 7a3f dab4 783f
00000070: 46c0 783f 4673 503f 5fdd 673f 2bd3 7b3f
00000080: 328d 7b3f 3e7a c23e 7e19 7b3f 8981 793f
00000090: 3755 c53c f576 7b3f c834 7c3f a813 7c3f
000000a0: 5a59 7a3f 91bd 7b3f 9a46 7a3f 2504 753f
000000b0: 3512 723f 9fa2 003f 9cd8 7a3f 0280 793f
000000c0: 5fdb 763f 357e 763f 1f44 783f 132e 1d3e
000000d0: 82f0 f73d b911 7c3f b3bb 723f 428f 423d
000000e0: 5f52 793f 2809 7a3f adae 7c3f 1ce6 333d
000000f0: 712e 463f 0d77 793f 5465 7a3f df17 793f
00000100: cac2 773f 0c7b 7a3f bd86 783f 98e5 753f
00000110: b2f8 4a3f 34e6 583e 8ea9 713f 521f 683e
00000120: 97b2 753f 0e5b 6a3f b0d7 7c3f 8924 7b3f
00000130: 1aba 7b3f 57cc 7a3f 4240 793f 4cd7 7a3f
00000140: a8c0 693f df9c 743f b5ad 7a3f 99ca 5d3f
00000150: ca40 553f 347c 7b3f 323a 783f 6d9d 443f
00000160: 267e 7b3f aa24 7c3f 0ef3 783f 1d4b 7b3f
00000170: 6719 033c a517 6f3f cf7f 7b3f 62f0 ac3e
00000180: d113 773f ef4b 7a3f e144 7a3f

gamma f4 [100]
1.0 0.0 1.0 1.0 0.0 1.0 0.0 1.0
0.0 1.0 1.0 1.0 1.0 1.0 1.0 1.0
1.0 1.0 1.0 1.0 0.0 0.0 1.0 1.0
1.0 1.0 1.0 1.0 1.0 1.0 1.0 1.0
1.0 1.0 0.0 1.0 1.0 0.0 1.0 1.0
1.0 1.0 1.0 0.0 1.0 1.0 0.0 1.0
1.0 1.0 1.0 1.0 0.0 0.0 1.0 1.0
0.0 1.0 1.0 1.0 0.0 1.0 1.0 1.0
1.0 1.0 1.0 1.0 1.0 1.0 0.0 1.0
0.0 1.0 1.0 1.0 1.0 1.0 1.0 1.0
1.0 1.0 1.0 1.0 0.0 1.0 0.0 1.0
1.0 1.0 1.0 1.0 1.0 0.0 1.0 1.0
0.0 1.0 1.0 1.0
00000000: 0000 803f 0000 0000 0000 803f 0000 803f
00000010: 0000 0000 0000 803f 0000 0000 0000 803f
00000020: 0000 0000 0000 803f 0000 803f 0000 803f
00000030: 0000 803f 0000 803f 0000 803f 0000 803f
00000040: 0000 803f 0000 803f 0000 803f 0000 803f
00000050: 0000 0000 0000 0000 0000 803f 0000 803f
00000060: 0000 803f 0000 803f 0000 803f 0000 803f
00000070: 0000 803f 0000 803f 0000 803f 0000 803f
00000080: 0000 803f 0000 803f 0000 0000 0000 803f
00000090: 0000 803f 0000 0000 0000 803f 0000 803f
000000a0: 0000 803f 0000 803f 0000 803f 0000 0000
000000b0: 0000 803f 0000 803f 0000 0000 0000 803f
000000c0: 0000 803f 0000 803f 0000 803f 0000 803f
000000d0: 0000 0000 0000 0000 0000 803f 0000 803f
000000e0: 0000 0000 0000 803f 0000 803f 0000 803f
000000f0: 0000 0000 0000 803f 0000 803f 0000 803f
00000100: 0000 803f 0000 803f 0000 803f 0000 803f
00000110: 0000 803f 0000 803f 0000 0000 0000 803f
00000120: 0000 0000 0000 803f 0000 803f 0000 803f
00000130: 0000 803f 0000 803f 0000 803f 0000 803f
00000140: 0000 803f 0000 803f 0000 803f 0000 803f
00000150: 0000 0000 0000 803f 0000 0000 0000 803f
00000160: 0000 803f 0000 803f 0000 803f 0000 803f
00000170: 0000 803f 0000 0000 0000 803f 0000 803f
00000180: 0000 0000 0000 803f 0000 803f 0000 803f

KL_gamma_k f4 [99]
3974.0881 63221.227 58972.297 404.93152 63608.14 2215.2495 63824.297 64424.473
63991.65 64195.832 61817.496 64187.918 63348.555 61254.71 63660.824 64135.777
64542.062 63348.977 64248.113 5125.033 8209.403 60529.176 64225.7 54762.062
63699.535 64177.836 63968.86 63627.77 63639.184 53328.465 59318.88 64425.617
64355.688 24876.443 64240.05 63832.33 1577.5339 64333.457 64523.17 64490.066
64048.016 64404.03 64029.277 62683.62 61930.133 32908.746 64175.203 63830.8
63154.57 63061.457 63515.1 10052.619 7928.591 64488.137 62099.523 3110.76
63785.195 63967.875 64645.0 2876.35 50701.27 63821.85 64059.99 63726.727
63385.85 64081.695 63581.68 62908.934 51926.766 13872.105 61825.543 14845.738
62857.96 59956.17 64685.984 64251.086 64400.566 64162.94 63767.09 64173.895
59801.87 62580.41 64132.324 56741.68 54557.22 64338.7 63505.184 50300.504
64340.645 64507.066 63689.934 64289.64 524.01294 61168.03 64342.305 22121.312
63210.977 64034.61 64027.56
00000000: 6961 7845 3af5 7647 4c5c 6647 3c77 ca43
00000010: 2478 7847 fe73 0a45 4c50 7947 79a8 7b47
00000020: a6f7 7947 d5c3 7a47 7f79 7147 ebbb 7a47
00000030: 8e74 7747 b646 6f47 d3ac 7847 c787 7a47
00000040: 101e 7c47 fa74 7747 1df8 7a47 4428 a045
00000050: 9d45 0046 2d71 6c47 b3e1 7a47 10ea 5547
00000060: 89d3 7847 d6b1 7a47 dce0 7947 c58b 7847
00000070: 2f97 7847 7750 5047 e1b6 6747 9ea9 7b47
00000080: b063 7b47 e358 c246 0df0 7a47 5458 7947
00000090: 1631 c544 754d 7b47 2c0b 7c47 11ea 7b47
000000a0: 0430 7a47 0894 7b47 471d 7a47 9fdb 7447
000000b0: 22ea 7147 bf8c 0047 34af 7a47 cd56 7947
000000c0: 92b2 7647 7555 7647 1a1b 7847 7a12 1d46
000000d0: bac4 f745 23e8 7b47 8693 7247 296c 4245
000000e0: 3229 7947 e0df 7947 0085 7c47 9ac5 3345
000000f0: 450d 4647 da4d 7947 fd3b 7a47 baee 7847
00000100: da99 7747 b251 7a47 ae5d 7847 efbc 7547
00000110: c4d6 4a47 6cc0 5846 8b81 7147 f4f6 6746
00000120: f689 7547 2c34 6a47 fcad 7c47 16fb 7a47
00000130: 9190 7b47 f1a2 7a47 1717 7947 e5ad 7a47
00000140: df99 6947 6974 7447 5384 7a47 aea5 5d47
00000150: 381d 5547 b352 7b47 2f11 7847 817c 4447
00000160: a554 7b47 11fb 7b47 efc9 7847 a421 7b47
00000170: d400 0344 08f0 6e47 4e56 7b47 a0d2 ac46
00000180: faea 7647 9c22 7a47 8f1b 7a47

weight f4 [10, 58]
-0.06742531 -0.011305939 -0.08466725 0.046286304 0.030231422 -0.09435171 -0.013965721 -0.030239344
0.0573017 0.018351333 -0.13202456 -0.031483 -0.11609463 0.023972915 -0.016626569 0.14667611
0.01741227 0.10943296 -0.107976496 -0.065772705 0.07476541 0.096407 0.05212774 -0.11751767
0.08170148 0.15106423 0.014310143 0.103957 -0.069507025 0.06888115 0.030597724 0.16209531
0.13615793 0.10457029 -0.00261137 0.058947515 -0.066272765 0.08014182 -0.12090791 -0.12800924
-0.0205887 -0.07604146 -0.14765242 -0.039062914 0.022269288 -0.20141335 0.05036229 0.088462666
-0.026735583 -0.055502128 0.14513141 -0.046054572 0.12185021 -0.03996863 -0.10313684 -0.033214975
-0.08190302 -0.00047595068 -0.05075428 0.07249151 0.0013888776 -0.12865265 0.003234044 -0.06991106
0.022322778 0.10399382 -0.10498987 -0.032325607 0.048393596 0.060373258 -0.08440818 0.1006158
-0.12677085 0.0900719 -0.01912825 0.0510383 0.07687216 -0.02314999 -0.047410004 0.054618064
-0.11383333 0.02953175 -0.018346807 -0.11958942 -0.12036625 0.0727803 0.016691737 -0.02516105
-0.091023214 -0.1477341 0.027466478 -0.073402286 -0.11003628 -0.054000568 0.008635869 -0.0058750426
0.028659517 0.14026949 0.08614846 0.06026486 0.043009486 0.094311126 -0.038640905 0.12702808
0.028936196 0.11311528 -0.012001204 0.02969381 -0.07531919 -0.0035071985 -0.054748673 0.06745285
-0.018321766 -0.045364797 -0.03316016 0.10179227 0.07622538 -0.101186864 0.082008645 -0.07704298
-0.113157965 0.1540758 0.06786379 -0.06118492 0.033779766 -0.03589424 -0.045995798 0.14952895
0.08860694 -0.05191164 0.0050111134 0.014026399 0.16004632 0.008041487 0.01924695 -0.105988905
-0.0668989 -0.07368764 0.047219574 -0.18787822 0.1216983 -0.07406831 -0.06162751 0.09150861
0.032366168 0.13867138 0.13317524 0.06863385 0.017968046 0.033412747 0.070360824 0.18951994
0.010378196 -0.057412867 -0.15860525 -0.002538381 0.03424701 0.17104405 -0.13569923 0.1333332
0.1173797 0.035455912 0.09019731 -0.035577342 0.17303517 0.076996334 0.034093242 0.04763167
0.059653256 0.05220506 -0.06089419 0.13565765 0.03897833 0.08787498 0.12694716 -0.02133613
-0.0072130463 0.15022522 -0.011763627 0.0956587 0.09414762 -0.08764955 0.020919159 0.023314768
0.022381647 0.022720836 -0.0011866066 0.053490657 0.08382412 0.16041505 -0.011576604 0.08222169
-0.039156634 -0.053136706 -0.16698675 -0.024460822 0.0010077468 0.037414465 0.029191857 0.16390346
0.0820444 0.15239379 0.0009335627 0.13028224 0.051570226 0.03533731 -0.0059598032 -0.0586469
0.004733939 -0.022197606 -0.040820964 0.028741715 -0.046822283 0.004061943 0.2071283 0.18294226
-0.007627817 0.08292514 0.18491253 0.03251232 0.091935076 -0.022147117 0.10538523 0.030193558
0.050006732 0.0047169887 -0.041756768 0.008760935 -0.14623116 0.14560606 0.15831764 -0.05376271
0.11998239 -0.27987507 0.16417916 0.10410342 -0.107459836 0.2395511 0.116919674 -0.2484718
0.21448813 0.112548515 -0.22747342 0.18494472 0.29117215 0.11057189 0.17438251 0.24907894
0.13681951 0.16650337 -0.031950675 -0.1555288 -0.21670921 0.20493625 0.2963667 -0.23490635
00000000: 4816 8abd 8c3c 39bc 0666 adbd b596 3d3d
00000010: e3a7 f73c 783b c1bd 7bd0 64bc 80b8 f7bc
00000020: 30b5 6a3d 8955 963c 7231 07be 51f4 00bd
00000030: 05c3 edbd d962 c43c 7134 88bc 4332 163e
00000040: 2da4 8e3c 631e e03d c822 ddbd d7b3 86bd
00000050: 9b1e 993d 0971 c53d e683 553d 1bad f0bd
00000060: 1b53 a73d 95b0 1a3e 1775 6a3c 68e7 d43d
00000070: b359 8ebd 8f11 8d3d 14a8 fa3c 50fc 253e
00000080: fc6c 0b3e f328 d63d 8523 2bbb f372 713d
00000090: 04ba 87bd 6521 a43d 919e f7bd db14 03be
000000a0: a2a9 a8bc a0bb 9bbd 3232 17be 6f00 20bd
000000b0: 156e b63c 4d3f 4ebe b048 4e3d ea2b b53d
000000c0: 9504 dbbc 3356 63bd 549d 143e b8a3 3cbd
000000d0: 9a8c f93d 25b6 23bd 6839 d3bd 6d0c 08bd
000000e0: c5bc a7bd 0589 f9b9 b8e3 4fbd 6e76 943d
000000f0: 000b b63a 85bd 03be 41f2 533b 882d 8fbd
00000100: 42de b63c b6fa d43d ee04 d7bd db67 04bd
00000110: 5d38 463d f349 773d 32de acbd a80f ce3d
00000120: 38d0 01be 9e77 b83d d9b2 9cbc 890d 513d
00000130: 276f 9d3d 0ca5 bdbc fe30 42bd 31b7 5f3d
00000140: 7321 e9bd 92ec f13c 0b4c 96bc 4ceb f4bd
00000150: 9582 f6bd d70d 953d 1cbd 883c 8c1e cebc
00000160: 616a babd 9c47 17be 6101 e13c f053 96bd
00000170: b35a e1bd b32f 5dbd 767d 0d3c 6e83 c0bb
00000180: 5dc7 ea3c cea2 0f3e 9b6e b03d 49d8 763d
00000190: b72a 303d 3126 c13d ed45 1ebd a613 023e
000001a0: 9a0b ed3c fca8 e73d b3a0 44bc 6f40 f33c
000001b0: f340 9abd 07d9 65bb 2540 60bd b824 8a3d
000001c0: 8717 96bc 70d0 39bd f3d2 07bd 7778 d03d
000001d0: 0d1c 9c3d 0f3b cfbd 26f4 a73d b6c8 9dbd
000001e0: 5dbf e7bd 0cc6 1d3e 2cfc 8a3d 0a9d 7abd
000001f0: a75c 0a3d d705 13bd 1766 3cbd 1e1e 193e
00000200: 8e77 b53d 4da1 54bd 4434 a43b fbce 653c
00000210: 2fe3 233e 71c0 033c c8ab 9d3c b610 d9bd
00000220: 4a02 89bd 8ce9 96bd 5069 413d 2663 40be
00000230: f53c f93d 20b1 97bd 216d 7cbd de68 bb3d
00000240: 6392 043d dfff 0d3e 175f 083e e78f 8c3d
00000250: b931 933c cedb 083d 5619 903d 8411 423e
00000260: 4f09 2a3c c129 6bbd 6a69 22be f75a 26bb
00000270: 9846 0c3d 2c26 2f3e bdf4 0abe 8088 083e
00000280: c564 f03d 383a 113d 5eb9 b83d 8cb9 11bd
00000290: 2230 313e 41b0 9d3d 5ba5 0b3d 6d19 433d
000002a0: f956 743d f9d4 553d 306c 79bd d7e9 0a3e
000002b0: bea7 1f3d ccf7 b33d 70fe 013e 1cc9 aebc
000002c0: 6b5b ecbb a4d4 193e 3abc 40bc b5e8 c33d
000002d0: 78d0 c03d 9b81 b3bd a85e ab3c 9dfe be3c
000002e0: b759 b73c 0c21 ba3c e987 9bba 0519 5b3d
000002f0: fbab ab3d d843 243e ccab 3dbc d863 a83d
00000300: b562 20bd e0a5 59bd 93fe 2abe 1062 c8bc
00000310: 5f16 843a e93f 193d c323 ef3c 4fd6 273e
00000320: e506 a83d 1e0d 1c3e 55ba 743a b568 053e
00000330: 4d3b 533d dbbd 103d 744a c3bb bb37 70bd
00000340: 291f 9b3b c1d7 b5bc e233 27bd bf73 eb3c
00000350: b9c8 3fbd 0c1a 853b 7119 543e 3755 3b3e
00000360: c4f2 f9bb a8d4 a93d b659 3d3e a32b 053d
00000370: 7548 bc3d df6d b5bc 36d4 d73d 7b58 f73c
00000380: dcd3 4c3d f890 9a3b 2509 2bbd 068a 0f3c
00000390: 9fbd 15be c119 153e 051e 223e 4a36 5cbd
000003a0: 54b9 f53d c94b 8fbe 951e 283e 2d34 d53d
000003b0: e713 dcbd e24c 753e 9573 ef3d 646f 7ebe
000003c0: c7a2 5b3e d67f e63d cbee 68be 2662 3d3e
000003d0: 8414 953e 8473 e23d 5491 323e 8d0e 7f3e
000003e0: 6a1a 0c3e dc7f 2a3e b6de 02bd f142 1fbe
000003f0: 05e9 5dbe cfda 513e 60bd 973e 4a8b 70be

bias f4 [10]
-0.08019772 0.094564535 -0.03921557 -0.19749293 -0.29291022 0.10509331 -0.15337986 -0.20740494
-0.083627306 0.21637726
00000000: b43e a4bd 0dab c13d 81a0 20bd 963b 4abe
00000010: 54f8 95be 293b d73d 9c0f 1dbe f661 54be
00000020: cb44 abbd 0092 5d3e

weight f4 [10, 10]
-0.13166335 0.08675388 0.062381044 -0.42373404 -0.040149536 -0.1506062 -0.35635376 -0.06459062
-0.16418032 -0.48573503 0.29711726 0.37917757 0.44305444 0.09663032 -0.060057636 0.5151297
0.27963123 -0.017673422 0.33996034 0.39780825 -0.3222041 0.0359718 -0.36815265 -0.20415866
0.058414612 -0.26778153 -0.52608013 -0.097583026 -0.15014897 0.05811947 -0.24859035 0.022871684
-0.25813338 0.23928553 0.046280563 -0.226075 0.15186901 -0.018770194 -0.3282291 -0.36445996
0.14268772 -0.3694994 0.075775206 0.21830508 -0.0020603365 -0.3374172 -0.02174717 -0.073364854
-0.08710114 -0.36787215 0.12433301 -0.08342005 0.09852063 -0.36271143 -0.32253498 0.16029084
-0.3691836 -0.30296627 -0.18043216 -0.20152071 -0.42424846 -0.43154734 -0.025023986 0.07463656
-0.16559957 -0.38154057 -0.3071968 -0.10282814 -0.13369592 -0.12080947 -0.28482616 -0.3727346
-0.20263973 0.1370519 -0.019889636 -0.55679727 0.020530958 -0.108858846 -0.3405485 -0.32418436
-0.09187703 0.18270782 0.24643019 0.12917738 0.17630318 0.19107874 0.12692973 0.052052118
0.16262946 0.15281864 -0.43881354 -0.3156938 -0.35492656 -0.37732828 0.16604188 -0.24350588
0.10348668 -0.12796265 -0.089923516 -0.25254583
00000000: c2d2 06be 05ac b13d 4483 7f3d abf3 d8be
00000010: d773 24bd 8338 1abe 0074 b6be 1648 84bd
00000020: e31e 28be 43b2 f8be c11f 983e 9023 c23e
00000030: 08d8 e23e 1ee6 c53d fffe 75bd 8adf 033f
00000040: d32b 8f3e dac7 90bc 480f ae3e 86ad cb3e
00000050: f0f7 a4be 2b57 133d 817e bcbe f80e 51be
00000060: 2944 6f3d a91a 89be 30ad 06bf 9cd9 c7bd
00000070: a7c0 19be ae0e 6e3d 788e 7ebe 665d bb3c
00000080: 0f2a 84be 4407 753e b090 3d3d 3480 67be
00000090: 8d83 1b3e f3c3 99bc a50d a8be 7f9a babe
000000a0: bb1c 123e 062f bdbe 0830 9b3d 5e8b 5f3e
000000b0: b606 07bb f2c1 acbe 1f27 b2bc 5040 96bd
000000c0: 1562 b2bd bd59 bcbe 4ea2 fe3d 22d8 aabd
000000d0: 2fc5 c93d 50b5 b9be 4e23 a5be 4823 243e
000000e0: a205 bdbe 651e 9bbe 35c3 38be 725b 4ebe
000000f0: 1837 d9be c6f3 dcbe 1aff ccbc 0edb 983d
00000100: ef92 29be 4959 c3be e648 9dbe 8f97 d2bd
00000110: 95e7 08be f56a f7bd bcd4 91be 12d7 bebe
00000120: ca80 4fbe 5557 0c3e 97ef a2bc 448a 0ebf
00000130: 8a30 a83c 63f1 debd 5f5c aebe 7efb a5be
00000140: 062a bcbd c217 3b3e 3258 7c3e 1347 043e
00000150: d288 343e 25aa 433e def9 013e 9a34 553d
00000160: 5688 263e 7d7c 1c3e 2bac e0be 9ea2 a1be
00000170: efb8 b5be 2c31 c1be e206 2a3e 9b59 79be
00000180: d3f0 d33d a408 03be d229 b8bd b04d 81be

bias f4 [10]
0.011086644 0.45799384 0.17171502 -0.20677905 -0.15666491 -0.04023869 -0.17411107 -0.4958965
0.20771214 -0.40877205
00000000: c1a4 353c 2b7e ea3e 10d6 2f3e e3bd 53be
00000010: c46c 20be 53d1 24bd 2c4a 32be 25e6 fdbe
00000020: 7eb2 543e 924a d1be

weight f4 [1, 10]
0.094238065 -0.06744182 -0.078185774 -0.12406001 -0.12362887 -0.024153424 0.1521812 0.0074350056
0.07904879 -0.055060558
00000000: e3ff c03d f01e 8abd dd1f a0bd 2d13 febd
00000010: 2231 fdbd 67dd c5bc 63d5 1b3e 59a1 f33b
00000020: 55e4 a13d 2e87 61bd

weight f4 [1, 10]
-0.026451843 -0.79697114 -0.16797385 -0.14174974 0.016600482 -0.33350348 0.0006918437 0.014258299
-0.50011086 0.13932899
00000000: 89b1 d8bc 4d06 4cbf 5601 2cbe d826 11be
00000010: bcfd 873c f8c0 aabe d85c 353a a49b 693c
00000020: 4407 00bf 42ac 0e3e

prior_mean f8 []
-4.600166019324908
00000000: 16af c4eb 9166 12c0

weight f4 [50, 58]
0.12900268 -0.33220282 -0.19949761 0.13260762 -0.10229301 0.45782015 0.10278778 -0.11809082
0.36547717 0.052378137 -0.20206793 0.23702587 0.257908 0.12594676 0.12238149 0.015819011
-0.09197277 0.1967937 -0.1718955 0.0026920235 -0.175359 0.16083726 -0.047609616 -0.08808643
0.1673883 0.1144852 0.29526454 -0.074506216 0.1567321 0.33061984 0.2947302 0.36351153
0.089537695 -0.21923411 0.29863444 0.26229846 -0.099027544 0.047286864 -0.3584126 -0.18296592
0.12867366 0.21083885 -0.16307406 0.09412286 0.4989831 -0.14724559 0.3012443 0.032387983
0.31411064 0.10840317 -0.14912906 0.12635575 -0.11815118 -0.021659361 -0.40108892 0.21585034
0.3583418 -0.3222996 -0.04619586 -0.5689651 -0.16448662 0.13263218 -0.8688659 0.13466284
0.08199746 -0.35483584 0.09191226 0.4765842 0.10941028 0.24622865 0.005512828 -0.27571657
-0.27997127 -0.20670256 -0.01977294 -0.19010758 -0.5057686 0.021520196 0.17940147 0.05790693
0.34061083 0.17915696 0.1815079 -0.027757378 0.14826927 0.7474584 0.54784465 0.08909671
0.070620604 -0.06759258 0.14607929 -0.47502452 -0.046526335 0.0687619 -0.017795105 0.2828458
0.2239488 0.1466571 0.28858522 -0.0009693079 -0.0666006 0.5117824 -0.13473794 -0.11935456
-0.2600524 -0.44513607 0.21754338 0.24012281 0.95112014 -0.36273274 0.12317826 0.26888144
0.3544431 0.27966797 -0.44286597 -0.52708864 0.082024224 -0.78842044 -0.08772264 0.09953393
-0.7947285 0.12253344 0.0585648 -0.26598004 0.22201823 0.22573192 -0.1753624 0.28220332
0.13443778 -0.17840081 -0.10701428 0.04654303 -0.080948025 -0.06341232 -0.30627745 -0.1809224
-0.1559732 0.15406851 0.30728292 0.047488 0.20914981 -0.038292386 0.2845889 0.5372638
0.4745651 0.13450134 0.15772481 -0.06275859 0.2511345 -0.24622239 0.0135200545 0.26165318
-0.25375745 0.22774762 0.051478725 0.07799709 0.26163384 0.29090637 -0.16422632 0.5379384
0.07936349 -0.07878995 -0.051348723 -0.2259421 0.3715358 0.47747266 0.65490806 -0.07457218
0.24459526 0.122066885 0.22458263 0.3228306 -0.24432176 -0.47571427 0.054002915 -0.06598055
-0.026462225 0.3920232 -0.36405754 0.0058144936 0.27999765 -0.18609203 0.20337945 0.12751436
-0.09604171 0.18144877 0.09490446 -0.059006426 -0.21969992 -0.096478105 0.20839545 -0.07326148
-0.18706708 0.058831546 -0.009736066 0.22711045 0.35473502 -0.1897251 0.013152007 0.14714707
0.2625726 0.54151386 0.45590118 0.19400615 0.052088335 0.026163302 0.08702117 -0.44476563
0.11987592 0.047897328 -0.024136461 0.14848042 -0.13157083 -0.17717427 0.040419977 0.038003623
-0.25232366 0.13489255 0.044825833 -0.17687845 0.06850674 0.06853283 0.33013976 0.3454464
0.6417547 -0.19462632 0.49972585 0.115709044 0.04019964 0.23920006 -0.12559476 -0.1372076
0.21524648 0.4473122 0.13005088 0.28003287 -0.20450456 0.050229654 0.3650597 -0.1725671
0.2216544 0.05504654 0.03144646 0.049663335 -0.045769267 -0.04136576 -0.1453263 0.05725805
0.380213 0.13143906 -0.05788646 0.07890758 -0.31832156 0.37425512 -0.003996286 -0.7044268
00000000: 4719 043e 7d16 aabe 1a49 4cbe 4bca 073e
00000010: ff7e d1bd 6767 ea3e 6682 d23d 9ad9 f1bd
00000020: d31f bb3e 758a 563d e5ea 4ebe e9b6 723e
00000030: 840c 843e 30f8 003e 26a3 fa3d df96 813c
00000040: 385c bcbd 4a84 493e 6005 30be a96c 303b
00000050: 4f91 33be 86b2 243e 4d02 43bd a966 b4bd
00000060: d767 2b3e 3777 ea3d ea2c 973e b796 98bd
00000070: 617e 203e 0147 a93e e0e6 963e 2f1e ba3e
00000080: 8a5f b73d e87e 60be 9de6 983e fc4b 863e
00000090: f4ce cabd dfaf 413d db81 b7be 6b5b 3bbe
000000a0: 07c3 033e 24e6 573e e3fc 26be 7cc3 c03d
000000b0: b67a ff3e 8cc7 16be b13c 9a3e 43a9 043d
000000c0: 1cd3 a03e 7b02 de3d 4ab5 18be 6763 013e
000000d0: 3ff9 f1bd f96e b1bc 875b cdbe df07 5d3e
000000e0: 9478 b73e 7404 a5be df37 3dbd b2a7 11bf
000000f0: 2e6f 28be bbd0 073e ff6d 5ebf 0ee5 093e
00000100: 49ee a73d 0bad b5be 7f3c bc3d d802 f43e
00000110: 7f12 e03d 5d23 7c3e f4a4 b43b b92a 8dbe
00000120: 6558 8fbe d6a9 53be dcfa a1bc 90ab 42be
00000130: 0d7a 01bf 1f4b b03c 05b5 373e d12f 6d3d
00000140: 8b64 ae3e ec74 373e 35dd 393e 7163 e3bc
00000150: e6d3 173e 6f59 3f3f 8c3f 0c3f 5678 b63d
00000160: 89a1 903d fb6d 8abd cf95 153e 6a36 f3be
00000170: 6692 3ebd 0ad3 8c3d 0ac7 91bc 2ad1 903e
00000180: d652 653e 472d 163e 71c1 933e 2719 7eba
00000190: e565 88bd 2c04 033f bef8 09be 2a70 f4bd
000001a0: 9725 85be e0e8 e3be b1c3 5e3e c1e2 753e
000001b0: 9c7c 733f 1bb8 b9be e244 fc3d d4aa 893e
000001c0: 9179 b53e a430 8f3e 54bf e2be 48ef 06bf
000001d0: 51fc a73d ecd5 49bf eda7 b3bd 72d8 cb3d
000001e0: 5473 4bbf d0f2 fa3d a5e1 6f3d 892e 88be
000001f0: bf58 633e 4526 673e 3392 33be f47c 903e
00000200: 0faa 093e b4ae 36be 4e2a dbbd e7a3 3e3d
00000210: 14c8 a5bd 52de 81bd 66d0 9cbe b943 39be
00000220: 70b7 1fbe 23c4 1d3e 3054 9d3e c782 423d
00000230: 5e2b 563e 7ad8 1cbd a3b5 913e 1f8a 093f
00000240: 32fa f23e b8ba 093e 9d82 213e 9387 80bd
00000250: b494 803e b921 7cbe 3883 5d3c 68f7 853e
00000260: 7fec 81be ac36 693e 5bdb 523d f0bc 9f3d
00000270: dff4 853e aef1 943e f22a 28be 55b6 093f
00000280: 5389 a23d a05c a1bd 0a53 52bd 5e5d 67be
00000290: f139 be3e 4c77 f43e 0ea8 273f 4db9 98bd
000002a0: 2e77 7a3e 34fe f93d fdf8 653e 0d4a a53e
000002b0: 7c2f 7abe d290 f3be 2932 5d3d d020 87bd
000002c0: 4fc7 d8bc 44b7 c83e c065 babe 8287 be3b
000002d0: da5b 8f3e e98e 3ebe b442 503e 2093 023e
000002e0: 84b1 c4bd b5cd 393e 455d c23d b9b0 71bd
000002f0: 04f9 60be 5096 c5bd 9e65 553e 1d0a 96bd
00000300: 838e 3fbe 59f9 703d 0584 1fbc a48f 683e
00000310: d49f b53e 4c47 42be 847b 573c b9ad 163e
00000320: ea6f 863e a7a0 0a3f e16b e93e 8ca9 463e
00000330: 945a 553d 6c54 d63c 2838 b23d 52b8 e3be
00000340: 8281 f53d fd2f 443d d4b9 c5bc 400b 183e
00000350: 81ba 06be 2c6d 35be 6b8f 253d b0a9 1b3d
00000360: 9130 81be 4621 0a3e 4b9b 373d a01f 35be
00000370: 434d 8c3d f15a 8c3d 1408 a93e 5ade b03e
00000380: 094a 243f 1f4c 47be 11dc ff3e ddf8 ec3d
00000390: 61a8 243d dcf0 743e ea9b 00be 2680 0cbe
000003a0: 9369 5c3e 1b06 e53e 0f2c 053e 7860 8f3e
000003b0: a569 51be 9cbd 4d3d 1be9 ba3e 6eb5 30be
000003c0: 5ff9 623e 7b78 613d 01ce 003d c86b 4b3d
000003d0: 8e78 3bbd 256f 29bd 6bd0 14be 6b87 6a3d
000003e0: 47ab c23e f697 063e 5a1a 6dbd 4c9a a13d
000003f0: 0bfb a2be 5e9e bf3e 47f3 82bb 5155 34bf

bias f4 [50]
-0.15258765 -0.067166194 -0.19000642 -0.34026065 -0.18421362 -0.34311646 -0.0458501 -0.260731
0.04396439 -0.23470649 0.031108595 0.028042294 -0.33075792 -0.06864561 -0.13093479 0.0063546817
-0.10132093 -0.14093432 -0.02837097 -0.14776263 -0.107410766 -0.04944663 -0.2625232 -0.26289368
-0.2804698 0.092327826 -0.114757344 -0.15809551 0.16165437 -0.22564432 -0.18503687 0.14889091
-0.30413887 0.26776922 -0.107600175 -0.20024249 0.011487815 -0.20797813 0.043310095 -0.19681585
-0.24779543 -0.020125529 -0.25381958 -0.059886616 -0.28447187 -0.1448083 -0.04012715 0.1478505
-0.13531663 -0.12599719
00000000: f03f 1cbe 6e8e 89bd 0b91 42be a536 aebe
00000010: 7fa2 3cbe f6ac afbe 51cd 3bbd 897e 85be
00000020: 0114 343d e656 70be 74d7 fe3c f4b8 e53c
00000030: 1a59 a9be 1296 8cbd c513 06be ef3a d03b
00000040: 5981 cfbd 1651 10be 3d6a e8bc 164f 17be
00000050: 2dfa dbbd 8d88 4abd 7169 86be 009a 86be
00000060: bd99 8fbe 5f16 bd3d e605 ebbd cae3 21be
00000070: b988 253e 4e0f 67be 4e7a 3dbe dc76 183e
00000080: 17b8 9bbe 0c19 893e 7b5d dcbd 5e0c 4dbe
00000090: 6337 3c3c 38f8 54be ed65 313d 188a 49be
000000a0: 16be 7dbe 4bde a4bc a4f4 81be ab4b 75bd
000000b0: 4ca6 91be a148 14be 5e5c 24bd 1f66 173e
000000c0: 7190 0abe 6805 01be

weight f4 [50, 50]
-0.22222418 -0.46134657 -0.13661365 -0.3969294 -0.010199878 -0.26343355 0.0003316402 -0.2957753
0.05720489 -0.09908668 -0.3399488 0.074143894 -0.27904645 -0.28840077 -0.17596796 0.24568968
-0.21298207 -0.16209556 -0.07452642 -0.19177176 -0.11273177 0.033321843 -0.059554577 -0.009035517
-0.21617852 -0.085710384 0.06093738 -0.39840674 0.10223284 0.03863415 -0.08004971 0.21902847
-0.38217974 -0.14092875 0.033050247 -0.41050655 -0.076105155 -0.065906264 0.18052699 0.11741287
-0.44771785 0.16800083 -0.31813884 -0.38022143 -0.10208489 0.069250755 0.027881116 -0.4937595
-0.27022216 -0.028910214 0.0011789148 -0.24184355 -0.15008618 -0.058650993 0.04889152 -0.0022447088
0.022811672 -0.26978126 -0.16805741 -0.24676877 -0.28696573 -0.14836603 -0.2502931 -0.18051799
-0.115640484 -0.013669553 0.08591868 -0.019226778 -0.2862582 -0.10967293 -0.41939858 -0.3235972
0.0047623035 -0.28214893 0.009209639 -0.27711773 0.09302645 -0.25562876 0.050729427 -0.15409636
0.03189276 -0.03567605 0.0016931861 -0.15393421 -0.24813683 -0.18128093 -0.0660326 -0.23190737
0.052582577 -0.34234288 0.18540393 -0.3536334 -0.15989558 0.08520446 -0.24256948 -0.5770411
0.16041733 -0.4190174 -0.035757594 -0.4412341 -0.19330317 -0.031835165 -0.24388228 -0.081516564
0.013447618 0.018348722 -0.014750784 -0.23218744 -0.2058318 -0.15511751 -0.35447702 -0.10867826
0.0769164 -0.15799561 0.038751848 -0.083947055 0.15441088 -0.17526607 -0.11132205 -0.009454326
-0.033162903 -0.18923606 -0.12794077 0.05660667 0.060543932 -0.31174272 0.037087213 -0.17993593
-0.21060617 0.021146659 -0.14483875 -0.17352678 -0.07723165 -0.39622283 -0.1351545 -0.17876498
-0.10728992 -0.16243671 -0.09156297 0.01543927 0.1264189 -0.16683413 -0.01589771 0.005584941
-0.0030827562 -0.15220582 -0.063278586 -0.25549707 -0.1070303 -0.15268435 -0.18361662 0.08650816
-0.10610125 -0.104670905 -0.25338334 -0.28962255 -0.07817233 -0.10034169 -0.175509 -0.16507527
-0.08881242 -0.30431014 -0.17971265 0.04644324 -0.06970274 -0.18229426 -0.3717677 -0.017275516
-0.038759027 -0.025591236 0.06460696 -0.13509426 0.07905684 -0.009559997 0.0062999036 -0.42948252
-0.0807645 -0.15336637 -0.05664057 0.090602875 -0.24353266 -0.2248411 -0.11370213 -0.23528922
-0.1893247 -0.12536189 -0.12104889 0.06793805 -0.1292532 -0.21934402 -0.29874244 -0.111465685
-0.023373293 -0.3521611 0.06375855 -0.022654872 -0.366663 0.20037866 -0.01701606 0.08682134
0.023042781 0.007890244 -0.022075327 -0.122192785 -0.19434369 -0.24565192 -0.11613119 -0.2694912
-0.40219918 -0.26104614 -0.12041153 -0.35555464 -0.15585953 0.046858378 -0.1567243 -0.34521377
-0.08523639 0.02590289 0.048361212 -0.053038623 -0.20925298 0.015843518 0.033271395 -0.27422634
-0.11830697 0.04524591 -0.22239855 0.1227056 -0.43508005 -0.14419381 -0.01275041 -0.17039132
-0.016604537 0.06814945 -0.37378776 0.014591265 -0.07854312 -0.32451785 -0.28445816 -0.24984236
-0.25854003 -0.37884998 -0.213312 0.17559695 -0.23177397 -0.25012928 -0.17852259 -0.19752337
0.13273077 -0.36071292 -0.041429505 -0.2362393 0.03519883 -0.110559955 -0.33336252 -0.089381166
00000000: bc8e 63be 9e35 ecbe 73e4 0bbe 553a cbbe
00000010: 641d 27bc c3e0 86be ffdf ad39 dc6f 97be
00000020: ad4f 6a3d f5ed cabd c50d aebe c1d8 973d
00000030: 2ddf 8ebe 44a9 93be f230 34be 1396 7b3e
00000040: f917 5abe 61fc 25be 4fa1 98bd d15f 44be
00000050: eadf e6bd 7c7c 083d 80ef 73bd b509 14bc
00000060: e75d 5dbe ed88 afbd 7999 793d f8fb cbbe
00000070: 745f d13d d83e 1e3d 1af1 a3bd 0049 603e
00000080: 10ad c3be a04f 10be b25f 073d ea2d d2be
00000090: 05dd 9bbd ddf9 86bd 11dc 383e 2976 f03d
000000a0: 463b e5be 6908 2c3e 18e3 a2be 62ac c2be
000000b0: e211 d1bd 57d3 8d3d f066 e43c 0cce fcbe
000000c0: 8f5a 8abe 1dd5 ecbc d185 9a3a d6a5 77be
000000d0: 31b0 19be 063c 70bd 7942 483d f71b 13bb
000000e0: 8bdf ba3c c520 8abe 3e17 2cbe f4b0 7cbe
000000f0: 2ced 92be 44ed 17be 6b26 80be b5d9 38be
00000100: ebd4 ecbd 43f6 5fbc 22f6 af3d 7a81 9dbc
00000110: 6f90 92be 339c e0bd 69bb d6be 88ae a5be
00000120: 190d 9c3b d375 90be 07e4 163c 60e2 8dbe
00000130: a784 be3d c6e1 82be a9c9 4f3d 70cb 1dbe
00000140: fca1 023d 0d21 12bd e6ed dd3a eea0 1dbe
00000150: 9517 7ebe b5a1 39be 1a3c 87bd 2079 6dbe
00000160: d460 573d 9147 afbe 87da 3d3e 700f b5be
00000170: abbb 23be ad7f ae3d 2264 78be f7b8 13bf
00000180: 7144 243e 7389 d6be 8e76 12bd 70e9 e1be
00000190: 44f1 45be 9765 02bd 47bc 79be 28f2 a6bd
000001a0: 6653 5c3c 0f50 963c 46ad 71bc 8bc2 6dbe
000001b0: 92c5 52be 20d7 1ebe 037e b5be b592 debd
000001c0: 5886 9d3d 9ac9 21be 42ba 1e3d 6fec abbd
000001d0: e31d 1e3e f378 33be d1fc e3bd 51e6 1abc
000001e0: d3d5 07bd 19c7 41be e802 03be 65dc 673d
000001f0: eafc 773d be9c 9fbe c3e8 173d 2041 38be
00000200: 25a9 57be c23b ad3c 9c50 14be 01b1 31be
00000210: a12b 9ebd b8dd cabe f165 0abe 2b0e 37be
00000220: d1ba dbbd cf55 26be 5e85 bbbd fef4 7c3c
00000230: f573 013e 91d6 2abe ea3b 82bc e101 b73b
00000240: 1108 4abb d8db 1bbe 3498 81bd 83d0 82be
00000250: b432 dbbd 4959 1cbe ff05 3cbe 312b b13d
00000260: 9d4b d9bd b35d d6bd 76bb 81be 6849 94be
00000270: d118 a0bd f27f cdbd a2b8 33be 7e09 29be
00000280: 49e3 b5bd 8ace 9bbe 9806 38be 443b 3e3d
00000290: 4fc0 8ebd 59ab 3abe 5658 bebe 6285 8dbc
000002a0: c9c1 1ebd b6a4 d1bc a750 843d 2656 0abe
000002b0: 8de8 a13d 89a1 1cbc 6c6f ce3b 22e5 dbbe
000002c0: dc67 a5bd 130c 1dbe f1ff 67bd 008e b93d
000002d0: a060 79be bf3c 66be aadc e8bd a8ef 70be
000002e0: 56de 41be de5e 00be 7be8 f7bd 1b23 8b3d
000002f0: f35a 04be b89b 60be c5f4 98be 1f48 e4bd
00000300: 5979 bfbc 764e b4be d893 823d b696 b9bc
00000310: 41bb bbbe 1030 4d3e 4465 8bbc 63cf b13d
00000320: 37c4 bc3c 1546 013c 51d7 b4bc 3640 fabd
00000330: 0802 47be 2d8c 7bbe 30d6 edbd c0fa 89be
00000340: 0ded cdbe d7a7 85be 529a f6bd 420b b6be
00000350: a499 1fbe 92ee 3f3d 567c 20be dcbf b0be
00000360: 6b90 aebd 4c32 d43c 6816 463d 073f 59bd
00000370: 6a46 56be 44ca 813c 9647 083d 6567 8cbe
00000380: ed4a f2bd c653 393d 72bc 63be 134d fb3d
00000390: d0c2 debe 8ba7 13be 18e7 50bc 107b 2ebe
000003a0: 3d06 88bc f091 8b3d 1c61 bfbe 3310 6f3c
000003b0: 37db a0bd 3427 a6be 80a4 91be add6 7fbe
000003c0: 5c5f 84be a0f8 c1be 766e 5abe b0cf 333e
000003d0: 2856 6dbe f210 80be a0ce 36be 9143 4abe
000003e0: 93ea 073e 5daf b8be fcb1 29bd b7e8 71be
000003f0: a62c 103d 426d e2bd 7eae aabe 790d b7bd

bias f4 [50]
-0.024443058 -0.15416154 -0.17578405 -0.25694376 -0.09802792 -0.18638842 -0.16877018 -0.23479311
-0.18250157 -0.19455948 -0.41872337 -0.23455967 -0.17247912 -0.24396813 -0.15603831 -0.29494917
-0.26249725 -0.22861998 -0.3013863 0.022345085 0.058384422 -0.117172636 -0.17257206 -0.18729371
-0.1313543 -0.19932795 -0.19523837 -0.005958441 -0.3065548 -0.25870523 -0.27758572 -0.40648323
-0.15858814 -0.12807134 -0.34955657 -0.16663526 -0.0466241 -0.18979909 -0.18608536 -0.28523925
-0.06727465 -0.05616002 -0.10331647 -0.05438023 -0.13233335 -0.16978613 -0.0997565 -0.059894804
-0.22055596 -0.007134074
00000000: cf3c c8bc 86dc 1dbe bc00 34be 228e 83be
00000010: ddc2 c8bd 9bdc 3ebe 17d2 2cbe 9b6d 70be
00000020: b1e1 3abe 9a3a 47be e962 d6be 6930 70be
00000030: 5e9e 30be c8d2 79be 82c8 1fbe 9403 97be
00000040: 0a66 86be 5b1b 6abe 4e4f 9abe 0a0d b73c
00000050: 8124 6f3d 35f8 efbd bbb6 30be ecc9 3fbe
00000060: be81 06be a01c 4cbe 91ec 47be 073f c3bb
00000070: c0f4 9cbe 0375 84be b71f 8ebe 921e d0be
00000080: ee64 22be 2225 03be 14f9 b2be 6fa2 2abe
00000090: eaf8 3ebd b15a 42be 298d 3ebe e10a 92be
000000a0: 4bc7 89bd 0d08 66bd 9697 d3bd cebd 5ebd
000000b0: 6582 07be 6adc 2dbe 234d ccbd 4154 75bd
000000c0: 6cd9 61be f3c4 e9bb

weight f4 [100, 50]
0.26794615 -0.31825826 0.03539898 0.34081477 -0.10028453 -0.04527913 0.11977087 0.2489765
-0.06189637 0.018226912 0.121602885 0.032719105 -0.21459705 0.21748216 0.06853301 0.092361435
-0.07476848 0.032470558 0.03428791 -0.14767309 -0.2042656 0.06823626 0.22239573 0.11674283
0.1864044 -0.1275218 -0.17738998 0.12278789 0.10553842 -0.16287811 0.08050168 0.12047511
0.36892915 0.16407903 0.08619374 -0.020213742 0.35460746 -0.27073598 -0.0010894012 -0.12083533
0.19605109 -0.0018171427 0.27164266 -0.23653589 -0.021333098 0.05742658 0.13393408 -0.016827537
-0.1549222 -0.19418089 -0.054922204 -0.065474756 -0.10554061 -0.14886771 -0.1299705 -0.09121645
-0.06833374 -0.094547234 -0.08989416 -0.038817134 -0.17834285 0.03952523 0.0063555804 -0.024869746
0.03808037 0.004276658 -0.046797484 -0.19115008 -0.012636592 -0.07631798 -0.10153794 0.00085970556
-0.07769312 -0.006499145 -0.123501845 0.047840662 -0.051250786 -0.15670215 -0.1258537 -0.13798843
-0.118409336 -0.0134440735 -0.18912658 -0.028576642 -0.04435961 0.013013284 -0.078856476 -0.02827385
0.06392723 0.012938986 0.023582151 0.07629644 -0.066523075 0.0026619222 0.010892785 0.021863522
-0.13230655 -0.11887195 0.013189089 -0.03944693 0.15063848 0.08556575 -0.022287806 0.007430767
-0.16673857 -0.19449748 -0.11875017 0.12100546 -0.15939163 0.74671125 0.20537554 -0.0636328
-0.19353043 0.014199619 -0.060885087 0.07953442 0.007848467 -0.26321322 -0.08824354 -0.115380086
-0.0910967 -0.27151707 -0.341782 -0.03073058 -0.07317627 -0.013617682 -0.23561715 -0.1327661
-0.12986252 -0.19709246 0.11533919 -0.11009896 -0.113186955 -0.06620552 0.0015836488 0.022561565
-0.2771852 -0.23403463 -0.12040248 0.39100608 -0.20408757 -0.16771199 -0.061573155 -0.08752991
-0.03963268 -0.103668235 0.15913925 -0.16155492 -0.076299764 -0.07424179 -0.0337086 0.07331324
-0.029832482 -0.27878657 -0.059248853 0.09412118 0.043768536 -0.015273247 0.03077046 -0.14373843
-0.16106276 -0.18131123 0.06526463 -0.2166272 0.10517459 -0.09995136 0.068318866 -0.058269486
-0.0028480226 -0.03138529 0.066346675 0.013802152 -0.14991021 0.017112019 -0.051331654 -0.09024743
0.08858466 -0.083286926 -0.039072078 0.071450554 -0.11169133 -0.12601316 -0.28887293 0.016714385
-0.13870713 -0.094097115 0.021776335 0.003949956 0.0036391672 0.018446973 -0.092839755 -0.013517907
-0.07761151 0.073621 0.06226709 -0.08754713 0.028058147 -0.12523083 0.09254268 0.12423245
0.11440051 -0.064492315 -0.06414706 -0.10177765 -0.1276175 0.079874456 0.029965142 -0.10046557
-0.031017294 -0.10009456 -0.054646157 -0.013568648 0.06845841 -0.10748319 -0.104995005 -0.04529549
-0.08484946 -0.0710424 -0.046162166 -0.022755366 0.1288134 -0.13413092 0.0023434672 -0.016844263
0.056121826 0.035394296 -0.021768061 -0.09379473 0.1341264 -0.0071214605 -0.052352417 0.1381094
-0.046847668 0.09515999 0.055785492 0.07868952 0.04835651 -0.037322078 -0.08261604 0.069060214
-0.039530996 -0.013174171 -0.09204085 0.0653487 -0.12260586 0.07078683 -0.02921189 -0.035657503
0.08237193 -0.11801473 0.057879012 0.014410269 -0.1786468 -0.20001358 0.16551502 0.13877365
00000000: 3d30 893e bff2 a2be 85fe 103d 467f ae3e
00000010: fa61 cdbd 9c76 39bd 6e4a f53d b2f3 7e3e
00000020: 0c87 7dbd 9b50 953c ef0a f93d 7804 063d
00000030: 54bf 5bbe a5b3 5e3e 095b 8c3d fe27 bd3d
00000040: 3820 99bd d9ff 043d 7b71 0c3d 9d37 17be
00000050: 002b 51be 74bf 8b3d b5bb 633e dd16 ef3d
00000060: cce0 3e3e 1395 02be b8a5 35be 3878 fb3d
00000070: 8724 d83d 85c9 26be 11de a43d a8bb f63d
00000080: 48e4 bc3e 5504 283e 5886 b03d 4a97 a5bc
00000090: 1c8f b53e e89d 8abe 3dca 8eba 8378 f7bd
000000a0: 9ec1 483e 312d eeba bf14 8b3e 7736 72be
000000b0: c0c2 aebc 2238 6b3d 0426 093e e7d9 89bc
000000c0: eda3 1ebe 5bd7 46be 1bf6 60bd a117 86bd
000000d0: ad25 d8bd c770 18be fd16 05be b1cf babd
000000e0: 8ff2 8bbd fba1 c1bd 6e1a b8bd b7fe 1ebd
000000f0: 829f 36be 35e5 213d 7942 d03b a3bb cbbc
00000100: 29fa 1b3d 3523 8c3b b8ae 3fbd d9bc 43be
00000110: b509 4fbc 9a4c 9cbd 20f3 cfbd dd5d 613a
00000120: 921d 9fbd c8f6 d4bb 89ee fcbd 92f4 433d
00000130: 58ec 51bd 8776 20be cbdf 00be d74c 0dbe
00000140: 9880 f2bd 8844 5cbc 66aa 41be 9019 eabc
00000150: 6cb2 35bd ab35 553c 817f a1bd 909e e7bc
00000160: 48ec 823d 0afe 533c 5b2f c13c 4f41 9c3d
00000170: 403d 88bd a573 2e3b a777 323c 211b b33c
00000180: 5e7b 07be 2373 f3bd 0c17 583c 1b93 21bd
00000190: f940 1a3e 193d af3d eb94 b6bc cb7d f33b
000001a0: 84bd 2abe 592a 47be 4a33 f3bd b6d1 f73d
000001b0: 8f37 23be 7828 3f3f f74d 523e ea51 82bd
000001c0: d72c 46be 85a5 683c a462 79bd f1e2 a23d
000001d0: db96 003c e2c3 86be 07b9 b4bd 654c ecbd
000001e0: e890 babd 4904 8bbe 0dfe aebe b3be fbbc
000001f0: 71dd 95bd b31c 5fbc 9f45 71be d6f3 07be
00000200: aefa 04be 9bd2 49be f436 ec3d 907b e1bd
00000210: 90ce e7bd c296 87bd 7092 cf3a 08d3 b83c
00000220: 38eb 8dbe c6a6 6fbe 9395 f6bd f331 c83e
00000230: 55fc 50be b1bc 2bbe 2234 7cbd e242 b3bd
00000240: e155 22bd 0350 d4bd 66f5 223e a76e 25be
00000250: 0d43 9cbd 140c 98bd 0712 0abd 4125 963d
00000260: 4063 f4bc 1dbd 8ebe edae 72bd 9bc2 c03d
00000270: a346 333d a43c 7abc 5512 fc3c 2b30 13be
00000280: a3ed 24be a7a9 39be 76a9 853d 85d3 5dbe
00000290: c765 d73d 4cb3 ccbd c3ea 8b3d fcab 6ebd
000002a0: e4a5 3abb dd8d 00bd c4e0 873d 6c22 623c
000002b0: 1082 19be 812e 8c3c 2441 52bd a5d3 b8bd
000002c0: e06b b53d 5692 aabd 0b0a 20bd ab54 923d
000002d0: 6dbe e4bd 9809 01be 27e7 93be 9bec 883c
000002e0: 3e09 0ebe fdb5 c0bd 4964 b23c a26e 813b
000002f0: 187f 6e3b 1b1e 973c c522 bebd 367a 5dbc
00000300: c9f2 9ebd 9bc6 963d c70b 7f3d e94b b3bd
00000310: 33da e53c 833c 00be 0487 bd3d 956d fe3d
00000320: d14a ea3d 8c14 84bd 895f 83bd cd70 d0bd
00000330: 29ae 02be 3895 a33d 7579 f53c e5c0 cdbd
00000340: fb17 febc 60fe ccbd a6d4 5fbd 094f 5ebc
00000350: ec33 8c3d 2620 dcbd 9f07 d7bd c487 39bd
00000360: 8ec5 adbd ae7e 91bd 8a14 3dbd 7669 babc
00000370: a9e7 033e 9e59 09be db94 193b fbfc 89bc
00000380: 00e0 653d 9cf9 103d ef52 b2bc 7417 c0bd
00000390: 6e58 093e 245b e9bb 7d6f 56bd 8d6c 0d3e
000003a0: 57e3 3fbd 3ee3 c23d 547f 643d f927 a13d
000003b0: 7a11 463d 09df 18bd 9932 a9bd 716f 8d3d
000003c0: 41eb 21bd 7ad8 57bc ea7f bcbd 8ad5 853d
000003d0: c818 fbbd aff8 903d c64d efbc 9a0d 12bd
000003e0: 9db2 a83d b5b1 f1bd 8b12 6d3d 0d19 6c3c
000003f0: 30ef 36be 5cd0 4cbe c57c 293e ae1a 0e3e

bias f4 [100]
-0.019206312 -0.005586122 -0.0008187524 0.0046325354 -0.022262935 0.07574183 -0.10286044 0.29395223
0.08494707 -0.007835319 -0.015973747 -0.018217158 0.059534594 -0.011270717 -0.007251087 -0.015881814
0.089378044 0.20006236 0.00016155341 0.21098138 -0.16051312 -0.14330094 -0.09622416 0.19523336
-0.26834622 -0.14297698 0.0013405872 0.086290695 0.04543052 -0.05754523 -0.21623982 -0.14585927
0.10085759 -0.016851079 -0.050483488 0.10570569 -0.0581461 -0.17922644 0.029244691 -0.0632413
0.18923074 -0.008622496 0.19078156 0.029510368 -0.05980683 -0.09761301 -0.10774688 0.16362256
-0.013657192 -0.006849818 -0.070906155 -0.09970605 -0.10995819 -0.17355417 0.17481042 -0.095645614
-0.03432365 0.32073402 0.12131873 0.030974556 -0.18631311 -0.0895449 -0.11516021 -0.06850381
0.08208698 0.011473411 0.13622203 -0.0376472 -0.06984629 -0.097773775 -0.20261553 -0.05977958
-0.16032025 -0.0806433 -0.19214323 0.15909548 0.119794704 -0.00073278084 0.08774253 0.07347263
-0.08736438 0.018904768 0.078228444 0.12366092 -0.10407796 -0.06916424 0.2769648 0.044237062
-0.31845567 -0.09101304 0.43878785 0.34551162 -0.06175061 -0.20177707 -0.13544948 0.035243176
-0.10248524 -0.051556844 0.015214212 0.1055281
00000000: 8e56 9dbc ca0b b7bb 8ba1 56ba 86cc 973b
00000010: c260 b6bc 881e 9b3d 7fa8 d2bd e880 963e
00000020: bbf8 ad3d b65f 00bc 60db 82bc 263c 95bc
00000030: 8cda 733d d0a8 38bc 879a edbb 941a 82bc
00000040: d60b b73d 26dd 4c3e aa66 2939 810b 583e
00000050: 8d5d 24be 7bbd 12be 2c11 c5bd 41eb 473e
00000060: ad64 89be 8f68 12be a4b6 af3a 2db9 b03d
00000070: 5a15 3a3d 8cb4 6bbd f96d 5dbe 225c 15be
00000080: 6d8e ce3d 460b 8abc c6c7 4ebd 3a7c d83d
00000090: 9b2a 6ebd 2387 37be 9092 ef3c a884 81bd
000000a0: b4c5 413e 5f45 0dbc 3e5c 433e babf f13c
000000b0: 02f8 74bd 54e9 c7bd 65aa dcbd ac8c 273e
000000c0: 6ac2 5fbc 7074 e0bb 3f37 91bd af32 ccbd
000000d0: c231 e1bd 2fb8 31be 8101 333e d9e1 c3bd
000000e0: f596 0cbd 4037 a43e f475 f83d 5abe fd3c
000000f0: ddc8 3ebe 5163 b7bd 1ed9 ebbd ba4b 8cbd
00000100: 381d a83d f9fa 3b3c ca7d 0b3e f333 1abd
00000110: 920b 8fbd 9e3d c8bd 727a 4fbe 6fdb 74bd
00000120: fe2a 24be 5128 a5bd 32c1 44be ede9 223e
00000130: ed56 f53d 1718 40ba 5bb2 b33d d178 963d
00000140: 19ec b2bd 2cde 9a3c 3c36 a03d f041 fd3d
00000150: d326 d5bd fba5 8dbd 55ce 8d3e ec31 353d
00000160: 9f0c a3be 0b65 babd cda8 e03e e6e6 b03e
00000170: 35ee 7cbd a69e 4ebe 45b3 0abe 265b 103d
00000180: c8e3 d1bd 452d 53bd 0845 793c 1e1f d83d
