mcspace/paper/human_runs/runs/seed_2/model.pt (torch, 308831 bytes, 66 tensors)

theta_params f4 [100, 58]
0	0xc0999184	-4.799013
1	0x401425bc	2.3148031
2	0xc084c1fd	-4.14868
3	0xc09c6943	-4.8878493
4	0x3edc1756	0.42986554
5	0xbfd23f44	-1.6425557
6	0xbfc80ac4	-1.5628285
7	0x3fa7bf44	1.3105245
8	0xc09d1302	-4.9085703
9	0xbf2eb4fc	-0.6824491
10	0xbef68c96	-0.48154134
11	0xc09b7bbb	-4.858854
12	0xbe8cc47a	-0.2749365
13	0x3ea4e159	0.32203177
14	0xbeafd4ec	-0.34342134
15	0xc0922c16	-4.5678816
16	0xbe93ea7c	-0.28889835
17	0x3f05eb4c	0.5231216
18	0x3f6d2019	0.926271
19	0x3fe53697	1.7907284
20	0x3c504731	0.012712286
21	0xc0b2f29c	-5.5921154
22	0x3f8ade89	1.0849162
23	0x409738fa	4.725705
24	0xc028aaa3	-2.6354148
25	0xbf464585	-0.7744983
26	0xc0ac4ea7	-5.384601
27	0xc02ff599	-2.749365
28	0xc08afab8	-4.3431053
29	0xc0a3d6bc	-5.1199627
30	0xc0c62449	-6.1919293
31	0xc05a69ab	-3.4126995
32	0x3df11dd6	0.11773269
33	0xc0a13e6f	-5.0388713
34	0xc0abb933	-5.3663573
35	0x402bc62d	2.6839707
36	0x3d7b6c13	0.061382364
37	0x3fadd553	1.3580726
38	0x402a56a1	2.6615374
39	0x3ffec6e9	1.9904453
40	0xbf4523c9	-0.7700773
41	0xbdda816d	-0.10669217
42	0x3f3f8981	0.7481919
43	0x3ff19602	1.8873904
44	0xc0a9ca9d	-5.305983
45	0xbec57828	-0.38568234
46	0xc098311a	-4.755994
47	0x3fc6a1bc	1.5518107
48	0x3eebb6bb	0.4603785
49	0xc08cd552	-4.40104
50	0xbfaa485f	-1.3303336
51	0xbc85fbef	-0.016355483
52	0xc0b6dc69	-5.7144055
53	0xbf109820	-0.56482124
54	0x4087b255	4.240519
55	0x3ddea9e1	0.108722456
56	0xc0a2d854	-5.0889072
57	0x40495415	3.145757
58	0xc0211629	-2.5169775
59	0x3f49fd76	0.78902376
60	0xc0bbf465	-5.8735833
61	0xc05b32f6	-3.4249854
62	0x4083139e	4.0961447
63	0xc0e65cad	-7.198813
64	0xc0bac961	-5.8370824
65	0x4083442b	4.1020713
66	0xc0940d20	-4.626602
67	0xbeb55899	-0.35419157
68	0xc0d82155	-6.754069
69	0xc09a5400	-4.822754
70	0x3f9ace94	1.2094293
71	0xc0c86738	-6.2626
72	0x3f248b3f	0.6427497
73	0x3fd6cdbb	1.6781534
74	0xc0bcc523	-5.8990645
75	0x3f83f8b0	1.0310268
76	0x4001a09e	2.0254283
77	0x3ea2546e	0.3170504
78	0x3ff92417	1.9464139
79	0xc0e7d665	-7.244921
80	0xbbdf6ec5	-0.0068186247
81	0x4061668f	3.5218847
82	0xc0b54231	-5.66433
83	0xc0ef84af	-7.4849467
84	0xbe8892e9	-0.26674584
85	0xc0cf748a	-6.482976
86	0xc0991630	-4.7839584
87	0xc0bef6df	-5.9676356
88	0xc0cb0c2b	-6.3452353
89	0x3ff438b8	1.9079809
90	0xbfb7ecba	-1.4369118
91	0x3f353bda	0.7079445
92	0xc0481789	-3.1264365
93	0xc0be7142	-5.9513254
94	0xbec85756	-0.39129132
95	0xbf83b8d9	-1.0290786
96	0xc093ac05	-4.6147485
97	0x401813af	2.3762014
98	0xc100420d	-8.016126
99	0x3f55e9dc	0.83559966
100	0x404f55c0	3.2396088
101	0xbfd236b4	-1.6422944
102	0xc030a7ad	-2.760234
103	0x3fc7c2f5	1.5606371
104	0xbfeea589	-1.8644267
105	0x3f4349e5	0.7628463
106	0x3e00b7b0	0.12570071
107	0xbf22286e	-0.6334294
108	0xbeac68c4	-0.3367368
109	0x400fd130	2.2471428
110	0xc10a5ff6	-8.648428
111	0x40101003	2.2509773
112	0x3fbe818a	1.4883282
113	0xbfd629bc	-1.6731486
114	0xc068beb1	-3.6366389
115	0xc0cb6b3f	-6.3568416
116	0xc0c0fc4b	-6.0307975
117	0xc0037dbb	-2.054549
118	0xc048df4c	-3.138629
119	0xc0787aca	-3.8824944
120	0xc09abdc7	-4.835666
121	0xc0b5d643	-5.682405
122	0xc0aaaae7	-5.333362
123	0xc09d7334	-4.920313
124	0xc080a318	-4.019909
125	0xc06f0a10	-3.7349892
126	0xc052f716	-3.296331
127	0xc053195d	-3.298423
128	0xc0a29837	-5.081081
129	0xc0c7fd44	-6.249666
130	0xc04db112	-3.2139325
131	0xc07e3aba	-3.9723344
132	0xc058b841	-3.386246
133	0xc0d508f7	-6.6573443
134	0x3f735bd9	0.95062023
135	0xc08a3230	-4.3186264
136	0x3fd30c64	1.6488156
137	0xc0d1d22d	-6.556906
138	0xc00b42eb	-2.1759593
139	0x3fd18d6b	1.6371282
140	0xc084a1e8	-4.144764
141	0xc0c47468	-6.1392097
142	0x3f983997	1.1892575
143	0xc09a906e	-4.8301306
144	0x3ccbd7df	0.024883209
145	0xc0499eb3	-3.1503112
146	0xc0bc2276	-5.8792067
147	0xc0451f78	-3.0800457
148	0xc088c4ec	-4.2740383
149	0xc07b43e1	-3.926018
150	0xbfb4c506	-1.4122627
151	0x400bb193	2.1827133
152	0xc0b439ef	-5.632072
153	0xc0586959	-3.38143
154	0x4028b8ae	2.636272
155	0xc01f7d6d	-2.4920304
156	0xc053503e	-3.3017726
157	0xc0b21b77	-5.5658526
158	0x3f2400bc	0.6406362
159	0xc0aa2ea0	-5.3181915
160	0xc0a54eec	-5.165884
161	0x3f60b191	0.87770945
162	0xc0a480ec	-5.1407375
163	0xc091e168	-4.5587654
164	0x40b9b76f	5.803642
165	0xc072eb4f	-3.795612
166	0xc057582b	-3.3647563
167	0x3fbbd8cb	1.4675535
168	0xc063d5a6	-3.559915
169	0xc0ae25ad	-5.442099
170	0xc084a1a2	-4.1447306
171	0xc08804e9	-4.2505994
172	0xc0302dcb	-2.752795
173	0xc01cfd77	-2.4529703
174	0xbffe6a00	-1.9876099
175	0xc07f7a37	-3.9918344
176	0xc057b49f	-3.3703992
177	0xc07d26e0	-3.9554977
178	0xc0765358	-3.848837
179	0xc07dab6d	-3.963588
180	0xbf8d73cf	-1.1050967
181	0x40ad60ff	5.4180903
182	0xbc61f313	-0.013790864
183	0xbf2a026e	-0.6640996
184	0x3ec45b4d	0.38350907
185	0xbf6308d4	-0.88685346
186	0xbf7a3d6d	-0.9774998
187	0xc03eb74c	-2.9799376
188	0xc0be4bb7	-5.9467425
189	0xc019f36b	-2.405482
190	0xc0b4caf3	-5.649774
191	0xbf93e3b8	-1.1553869
192	0xc021b18e	-2.526462
193	0x3ec451a2	0.3834353
194	0x3e87b604	0.26506054
195	0xc04cbf2c	-3.1991682
196	0xc048922f	-3.1339223
197	0x3e3c9321	0.184155
198	0x3f50558c	0.81380534
199	0xc03cffd3	-2.9531143
200	0xc068f431	-3.6399043
201	0xbfd27bcd	-1.6444031
202	0xc0c5e1be	-6.1838064
203	0xc0341023	-2.813485
204	0xc02540db	-2.5820835
205	0xbfd68a34	-1.6760926
206	0xc0597a7b	-3.3981006
207	0xbf7d9713	-0.99058646
208	0xbeaeceae	-0.3414206
209	0xc02f3064	-2.7373285
210	0xbe6bc73e	-0.23025224
211	0xc065eb3d	-3.5924828
212	0xbe865a3c	-0.26240718
213	0x3f2628f9	0.6490627
214	0xc0027883	-2.0386055
215	0xbf19074f	-0.5977678
216	0xbfbd5ded	-1.4794289
217	0xbfa3c5ad	-1.2794701
218	0xc073fe33	-3.81239
219	0x3cb18c4d	0.021673346
220	0xc09cb666	-4.8972654
221	0xc09822bd	-4.7542405
222	0xbf8c3a66	-1.0955322
223	0xc0500aea	-3.2506661
224	0xbe619527	-0.22029553
225	0xc03e3695	-2.9720814
226	0x3f3e20c9	0.74268776
227	0xbfef3f35	-1.8691164
228	0x3f5aae61	0.8542233
229	0xc0994edb	-4.790876
230	0xc01b8654	-2.4300737
231	0xc04ac8d4	-3.1685076
232	0xbf17952c	-0.59211993
233	0x3fddde44	1.7333455
234	0xc078eeb0	-3.8895683
235	0x3da09ad5	0.07842032
236	0xbf261e5d	-0.6489008
237	0xc0a18880	-5.0479126
238	0xbdba14a4	-0.09085968
239	0x40203e2b	2.5037944
240	0xc0a21d01	-5.0660405
241	0xbea8a74c	-0.32940137
242	0xc0ad6333	-5.4183593
243	0xc0e41f43	-7.128816
244	0xc00352e4	-2.0519342
245	0xc0a5ac50	-5.1772842
246	0xbfb29a89	-1.395341
247	0xbfb2031b	-1.3907198
248	0xbfb2624b	-1.3936247
249	0xc010887a	-2.2583299
250	0xbdbd5b14	-0.092458874
251	0x409016dc	4.5027905
252	0x3fc7a6ff	1.5597838
253	0xbf728770	-0.9473791
254	0xc0c49385	-6.1430078
255	0x3fbd628d	1.47957

q_mu f4 [5]
0	0xbffcb3c5	-1.9742361
1	0xc087414b	-4.2267203
2	0xbf995c8b	-1.1981367
3	0xc05f5e0d	-3.4901154
4	0xc06d384c	-3.706561

q_var f4 [5]
0	0xc08f87df	-4.485336
1	0xbff9205c	-1.9463
2	0xc0906285	-4.5120263
3	0xc0508684	-3.2582102
4	0xc046b096	-3.104528

eps f4 [5]
0	0x3f90ad13	1.1302818
1	0x3d509b29	0.050929222
2	0xbd519bf0	-0.051174104
3	0xbe66b80b	-0.22531144
4	0xbfc6547d	-1.5494534

q_gamma_params f4 [99]
0	0x407f65a5	3.990579
1	0xc01e4128	-2.4727268
2	0x406e928c	3.7276945
3	0x408a4465	4.320849
4	0x40516560	3.2718124
5	0x405d89ef	3.4615438
6	0x407c4222	3.9415364
7	0x402009f5	2.5006077
8	0x3e1a4e48	0.15068924
9	0x4027aaa6	2.6197906
10	0x403e9577	2.9778726
11	0x4072a27b	3.791167
12	0x4038b9d5	2.8863423
13	0x4022bdec	2.542842
14	0x3f5ee804	0.8707278
15	0x4083e9bc	4.122282
16	0x3f2a4bf6	0.6652216
17	0x4071fd45	3.7810833
18	0x40239db2	2.5565
19	0x4080aec7	4.021335
20	0x405660ed	3.3496659
21	0x40819660	4.0496063
22	0x404c9680	3.1966858
23	0x405d38f5	3.4566014
24	0x40530e2a	3.2977395
25	0x40766b0b	3.8502834
26	0x4083ab4d	4.1146607
27	0x4080677a	4.0126314
28	0x3fa73321	1.3062478
29	0x40800d1e	4.001601
30	0x4045ed61	3.0926135
31	0x40488a70	3.1334496
32	0x406c2901	3.6900027
33	0x40831b31	4.0970693
34	0x405cb671	3.4486353
35	0xbe1b0893	-0.1513999
36	0x400dc78d	2.2153046
37	0xc068ca5c	-3.637351
38	0x40448c30	3.0710564
39	0x3faf5f79	1.3701011
40	0x40744652	3.816792
41	0x4083ac0d	4.1147523
42	0x407771fa	3.8663316
43	0xc07d16d3	-3.954518
44	0x4070fb36	3.7653327
45	0xc0bc8d68	-5.8922615
46	0xbf94bd4f	-1.1620272
47	0x40506a51	3.256489
48	0x40782e68	3.8778324
49	0x3fcfe5ef	1.6242045
50	0x405f23cf	3.4865606
51	0x40726910	3.7876625
52	0x4062365c	3.5345678
53	0x405a3a7d	3.4098198
54	0xbdfc737f	-0.12326717
55	0x400483a6	2.0705352
56	0x4032927c	2.7901907
57	0x4082cf86	4.0878325
58	0x406bc83d	3.6840966
59	0x405e2296	3.470861
60	0x40865fd6	4.1991987
61	0x40085520	2.1301956
62	0x4048d7e9	3.138178
63	0x3f47e970	0.7809057
64	0x406993c7	3.6496446
65	0x4067e23b	3.623183
66	0x3f915bd6	1.1356151
67	0x4073fdb2	3.8123593
68	0x406d5b36	3.708692
69	0x406ebb0d	3.7301667
70	0x4060c1f4	3.511838
71	0x4062703c	3.5381002
72	0x408897dd	4.268538
73	0x403de99c	2.9673834
74	0x40869100	4.2052
75	0x40635fa3	3.5527122
76	0xbfffeac0	-1.9993515
77	0x407108fe	3.7661738
78	0x3fcf6f24	1.6205792
79	0x401a6753	2.4125564
80	0x406c1046	3.6884933
81	0xc09911c4	-4.7834187
82	0x4076865c	3.8519506
83	0x40432329	3.049021
84	0x40686193	3.6309555
85	0x405b4651	3.4261668
86	0x4078923e	3.883926
87	0x4071178d	3.7670624
88	0x405b4fc8	3.4267445
89	0x40912225	4.535418
90	0x40636322	3.5529256
91	0x407abb56	3.917684
92	0x3feb45ce	1.8380678
93	0x3f56632f	0.8374509
94	0x4079f998	3.905859
95	0x4024d8c6	2.5757308
96	0x407c1086	3.9385085
97	0x405e4d4d	3.473468
98	0x40837e90	4.1091995

q_probs f4 [99]
0	0x3f7b5a40	0.98184586
1	0x3d9f74c1	0.07785941
2	0x3f79fcff	0.97651666
3	0x3f7ca490	0.986886
4	0x3f76a4c7	0.9634518
5	0x3f783639	0.9695774
6	0x3f7b1fa4	0.98095155
7	0x3f6c97f2	0.9241935
8	0x3f09a644	0.53769326
9	0x3f6ea020	0.9321308
10	0x3f7399ed	0.9515675
11	0x3f7a599c	0.97792983
12	0x3f727a05	0.9471744
13	0x3f6d56bb	0.92710465
14	0x3f34766f	0.70493215
15	0x3f7beacb	0.9840514
16	0x3f291912	0.6605388
17	0x3f7a4b4d	0.9777115
18	0x3f6d9250	0.9280138
19	0x3f7b7db4	0.9823868
20	0x3f77525d	0.9661005
21	0x3f7b9d0e	0.9828652
22	0x3f75f0c7	0.9607052
23	0x3f782cb9	0.9694324
24	0x3f76e016	0.9643568
25	0x3f7aaaea	0.97917044
26	0x3f7be2e9	0.9839311
27	0x3f7b73d6	0.98223627
28	0x3f497603	0.78695697
29	0x3f7b6725	0.9820426
30	0x3f74e316	0.95659006
31	0x3f755019	0.95825344
32	0x3f79c355	0.9756368
33	0x3f7bd087	0.9836506
34	0x3f781ce3	0.9691908
35	0x3eecc075	0.46240583
36	0x3f66d332	0.9016601
37	0x3cd1b725	0.025600025
38	0x3f74a859	0.9556938
39	0x3f4c15f1	0.7972098
40	0x3f7a7d5e	0.97847545
41	0x3f7be300	0.9839325
42	0x3f7ac02c	0.9794948
43	0x3c9a2e28	0.018820837
44	0x3f7a3497	0.97736496
45	0x3b348a0a	0.0027548098
46	0x3e74215b	0.23840849
47	0x3f768129	0.9629083
48	0x3f7acf38	0.9797244
49	0x3f55deaa	0.83542883
50	0x3f786601	0.97030646
51	0x3f7a546f	0.97785085
52	0x3f78be99	0.9716583
53	0x3f77cfc6	0.9680141
54	0x3ef05123	0.46936902
55	0x3f6359d6	0.88808954
56	0x3f7130b2	0.9421493
57	0x3f7bc6c1	0.9835015
58	0x3f79ba21	0.97549635
59	0x3f78482f	0.96985143
60	0x3f7c3707	0.98521465
61	0x3f64d06d	0.8938053
62	0x3f755c83	0.95844287
63	0x3f2f8d02	0.68574536
64	0x3f798357	0.97466034
65	0x3f7957df	0.97399706
66	0x3f41be4d	0.75681
67	0x3f7a7755	0.97838336
68	0x3f79e040	0.97607803
69	0x3f7a00c4	0.9765742
70	0x3f789523	0.97102565
71	0x3f78c4c8	0.97175264
72	0x3f7c770e	0.98619163
73	0x3f737a8c	0.95108867
74	0x3f7c3cbf	0.9853019
75	0x3f78df27	0.97215503
76	0x3df46292	0.11932863
77	0x3f7a35c8	0.97738314
78	0x3f55bdf4	0.8349297
79	0x3f6af2eb	0.91776913
80	0x3f79c0fc	0.97560096
81	0x3c0809c9	0.008303114
82	0x3f7aad16	0.9792036
83	0x3f746a63	0.95474833
84	0x3f7964b6	0.974193
85	0x3f77f080	0.9685135
86	0x3f7ad71c	0.9798448
87	0x3f7a3730	0.9774046
88	0x3f77ef3f	0.96849436
89	0x3f7d48c0	0.9893913
90	0x3f78df5d	0.97215825
91	0x3f7b00d7	0.98048156
92	0x3f5cd85c	0.8626764
93	0x3f32b210	0.6980295
94	0x3f7af336	0.9802736
95	0x3f6de721	0.929308
96	0x3f7b1bef	0.980895
97	0x3f784d13	0.96992606
98	0x3f7bdd44	0.983845

gamma f4 [100]
0	0x3f800000	1.0
1	0x3f800000	1.0
2	0x00000000	0.0
3	0x3f800000	1.0
4	0x3f800000	1.0
5	0x3f800000	1.0
6	0x3f800000	1.0
7	0x3f800000	1.0
8	0x3f800000	1.0
9	0x3f800000	1.0
10	0x3f800000	1.0
11	0x00000000	0.0
12	0x3f800000	1.0
13	0x00000000	0.0
14	0x3f800000	1.0
15	0x00000000	0.0
16	0x3f800000	1.0
17	0x3f800000	1.0
18	0x3f800000	1.0
19	0x3f800000	1.0
20	0x3f800000	1.0
21	0x3f800000	1.0
22	0x3f800000	1.0
23	0x3f800000	1.0
24	0x3f800000	1.0
25	0x3f800000	1.0
26	0x3f800000	1.0
27	0x3f800000	1.0
28	0x3f800000	1.0
29	0x3f800000	1.0
30	0x3f800000	1.0
31	0x3f800000	1.0
32	0x3f800000	1.0
33	0x3f800000	1.0
34	0x3f800000	1.0
35	0x3f800000	1.0
36	0x00000000	0.0
37	0x3f800000	1.0
38	0x00000000	0.0
39	0x3f800000	1.0
40	0x3f800000	1.0
41	0x3f800000	1.0
42	0x3f800000	1.0
43	0x3f800000	1.0
44	0x00000000	0.0
45	0x3f800000	1.0
46	0x00000000	0.0
47	0x3f800000	1.0
48	0x3f800000	1.0
49	0x3f800000	1.0
50	0x00000000	0.0
51	0x3f800000	1.0
52	0x3f800000	1.0
53	0x3f800000	1.0
54	0x3f800000	1.0
55	0x3f800000	1.0
56	0x3f800000	1.0
57	0x3f800000	1.0
58	0x3f800000	1.0
59	0x3f800000	1.0
60	0x3f800000	1.0
61	0x3f800000	1.0
62	0x3f800000	1.0
63	0x3f800000	1.0
64	0x00000000	0.0
65	0x3f800000	1.0
66	0x3f800000	1.0
67	0x00000000	0.0
68	0x3f800000	1.0
69	0x3f800000	1.0
70	0x3f800000	1.0
71	0x3f800000	1.0
72	0x3f800000	1.0
73	0x3f800000	1.0
74	0x3f800000	1.0
75	0x3f800000	1.0
76	0x3f800000	1.0
77	0x00000000	0.0
78	0x3f800000	1.0
79	0x3f800000	1.0
80	0x3f800000	1.0
81	0x3f800000	1.0
82	0x00000000	0.0
83	0x3f800000	1.0
84	0x3f800000	1.0
85	0x3f800000	1.0
86	0x3f800000	1.0
87	0x3f800000	1.0
88	0x3f800000	1.0
89	0x3f800000	1.0
90	0x3f800000	1.0
91	0x3f800000	1.0
92	0x3f800000	1.0
93	0x00000000	0.0
94	0x3f800000	1.0
95	0x3f800000	1.0
96	0x3f800000	1.0
97	0x3f800000	1.0
98	0x3f800000	1.0
99	0x3f800000	1.0

KL_gamma_k f4 [99]
0	0x477b30c4	64304.766
1	0x459f584f	5099.0386
2	0x4779d3b8	63955.72
3	0x477c7ae4	64634.89
4	0x47767c01	63100.004
5	0x47780d37	63501.215
6	0x477af632	64246.195
7	0x476c70b8	60528.72
8	0x47098ee9	35214.91
9	0x476e7895	61048.582
10	0x4773719d	62321.613
11	0x477a3046	64048.273
12	0x477251e2	62033.883
13	0x476d2f63	60719.387
14	0x4734581c	46168.11
15	0x477bc13a	64449.227
16	0x4728fc95	43260.582
17	0x477a21fa	64033.977
18	0x476d6aef	60778.934
19	0x477b5433	64340.2
20	0x4777297d	63273.49
21	0x477b7389	64371.535
22	0x4775c81c	62920.11
23	0x477803b8	63491.72
24	0x4776b748	63159.28
25	0x477a8189	64129.535
26	0x477bb959	64441.348
27	0x477b4a57	64330.34
28	0x47495452	51540.32
29	0x477b3da8	64317.656
30	0x4774ba95	62650.582
31	0x47752787	62759.527
32	0x47799a17	63898.09
33	0x477ba6fb	64422.98
34	0x4777f3e5	63475.895
35	0x46ec9817	30284.045
36	0x4766acdd	59052.863
37	0x44d190cd	1676.525
38	0x47747fe1	62591.88
39	0x474bf3d4	52211.83
40	0x477a5403	64084.01
41	0x477bb970	64441.438
42	0x477a96c8	64150.78
43	0x449a11c7	1232.5555
44	0x477a0b47	64011.277
45	0x43346773	180.4041
46	0x4673f6f5	15613.739
47	0x47765869	63064.41
48	0x477aa5d2	64165.82
49	0x4755bb00	54715.0
50	0x47783cf7	63548.965
51	0x477a2b1a	64043.1
52	0x47789582	63637.508
53	0x4777a6d3	63398.824
54	0x46f0282e	30740.09
55	0x4763340c	58164.047
56	0x477108c2	61704.758
57	0x477b9d36	64413.21
58	0x477990e5	63888.895
59	0x47781f2a	63519.164
60	0x477c0d6b	64525.418
61	0x4764aa68	58538.406
62	0x477533ef	62771.934
63	0x472f6f7a	44911.477
64	0x47795a22	63834.133
65	0x47792eb1	63790.69
66	0x47419dd8	49565.844
67	0x477a4dfb	64077.98
68	0x4779b6fd	63926.99
69	0x4779d77c	63959.484
70	0x47786c12	63596.07
71	0x47789bb0	63643.688
72	0x477c4d68	64589.406
73	0x47735241	62290.254
74	0x477c1322	64531.133
75	0x4778b60b	63670.043
76	0x45f43767	7814.9253
77	0x477a0c78	64012.47
78	0x47559a4f	54682.31
79	0x476acbf1	60107.94
80	0x477997be	63895.742
81	0x4407f04f	543.7548
82	0x477a83b5	64131.707
83	0x477441f4	62529.953
84	0x47793b86	63803.523
85	0x4777c788	63431.53
86	0x477aadb5	64173.707
87	0x477a0de0	64013.875
88	0x4777c647	63430.277
89	0x477d1efc	64798.984
90	0x4778b641	63670.254
91	0x477ad769	64215.41
92	0x475cb397	56499.59
93	0x47329406	45716.023
94	0x477ac9ca	64201.79
95	0x476dbfb2	60863.695
96	0x477af27d	64242.49
97	0x4778240d	63524.05
98	0x477bb3b5	64435.707

weight f4 [10, 58]
0	0xbad4f725	-0.0016247971
1	0xbe0970c4	-0.13421923
2	0x3de3b027	0.11117583
3	0x3e5a9a9c	0.21348041
4	0xbdb65a57	-0.0890395
5	0x3e248583	0.16066556
6	0x3def5ff7	0.11688226
7	0xbe408b31	-0.18803097
8	0x3d5be665	0.05368652
9	0x3d706411	0.05868918
10	0xbe7064a0	-0.23475885
11	0x3d383867	0.044975664
12	0x3e1e051d	0.15431638
13	0x3e283f48	0.1643039
14	0x3dcd405a	0.1002204
15	0x3d84e40b	0.06488808
16	0x3e2177cc	0.15768355
17	0x3d930ef0	0.071805835
18	0x3b27f727	0.0025629492
19	0xbe09580b	-0.13412492
20	0xbe164605	-0.14675148
21	0x3c074174	0.008255351
22	0x3e362821	0.17788745
23	0xbd817337	-0.063208036
24	0x3e183f21	0.14867832
25	0x3e36a87c	0.17837709
26	0x3e3558b3	0.17709617
27	0x3df63e5b	0.12023612
28	0x3e0dc25a	0.1384367
29	0x3e0c626c	0.1370942
30	0x3e3fe7f6	0.1874083
31	0x3e40cec3	0.18828873
32	0x3e2b926f	0.16755079
33	0xbd3ab678	-0.045584172
34	0x3dbd7147	0.092501216
35	0x3d8d3342	0.06894542
36	0x3bd6d75b	0.006556434
37	0x3da9e28f	0.08295166
38	0xbdeeaa85	-0.11653618
39	0xbb0ea897	-0.0021767968
40	0x3e420716	0.18948016
41	0x3c580404	0.013184551
42	0xbdaac42b	-0.08338197
43	0x3e33e718	0.17568624
44	0x3e6ef935	0.23337252
45	0xbdcfe061	-0.10150219
46	0x3e2eb4ae	0.17061111
47	0xbc2a869c	-0.01040807
48	0x3dac133d	0.08402107
49	0x3e3cdb1e	0.18442962
50	0x3b873697	0.0041263807
51	0xbc14ce51	-0.009082393
52	0x3cadbb55	0.021207491
53	0x3d5e50d9	0.05427632
54	0xbe048f83	-0.1294537
55	0x3e0fa21c	0.14026684
56	0x3ddb34c4	0.107034236
57	0xbc07e10f	-0.008293404
58	0x3e1cdd50	0.15318799
59	0xbe854274	-0.26027262
60	0x3e8a2908	0.2698443
61	0x3e28ba8c	0.16477412
62	0xbdc51849	-0.09623773
63	0x3e61f987	0.22067843
64	0x3e64cb4a	0.22343174
65	0xbe64ec15	-0.22355683
66	0x3e373c87	0.17894183
67	0x3e4960de	0.19665858
68	0xbe84ba6d	-0.25923482
69	0x3e01ce6a	0.12676397
70	0x3e2ffd90	0.1718657
71	0x3d8d4e87	0.068997435
72	0x3e092511	0.13393046
73	0x3e2a9894	0.16659766
74	0x3e33160f	0.17488883
75	0x3e349a93	0.1763709
76	0xbba216db	-0.0049465722
77	0xbe0c4c41	-0.13700964
78	0xbe6c3ca3	-0.23070006
79	0x3e1caf8d	0.15301342
80	0x3e16514e	0.14679453
81	0xbe28c394	-0.16480857
82	0x3d844d5b	0.06460067
83	0x3e5016f6	0.20321259
84	0x3e7dac8c	0.24772853
85	0x3e365991	0.17807604
86	0x3e839257	0.25697586
87	0x3e8fb3ce	0.28066868
88	0x3d60f158	0.054917663
89	0x3e1c4c4d	0.15263481
90	0x3def730a	0.11691864
91	0xbe7702d6	-0.24122176
92	0x3e01d3ab	0.12678401
93	0x3ceeafaf	0.029136507
94	0xbcf81b01	-0.030286314
95	0x3d1df058	0.038559288
96	0xbe5f290c	-0.21793002
97	0xbd5a4e75	-0.05329748
98	0x3e34d3f1	0.17658974
99	0x3e59e694	0.21279365
100	0xbdbda44d	-0.092598535
101	0x3e176fe7	0.14788781
102	0x3daf765b	0.085674964
103	0xbd5e2c0a	-0.054241218
104	0x3e8cef79	0.27526453
105	0xbc15c559	-0.00914129
106	0x3e100bb3	0.14066963
107	0x3e83666d	0.25664082
108	0x3d6fabc9	0.058513436
109	0xbe4733c1	-0.19453336
110	0x3cea7e2f	0.028624622
111	0x3cea01e9	0.028565364
112	0xbe6afdba	-0.22948352
113	0x3d804c4b	0.06264552
114	0x3e03bccb	0.12864988
115	0x3d6b5969	0.057458315
116	0x3e2d21da	0.16907445
117	0xbe5efc7b	-0.21776001
118	0x3e834d7b	0.2564505
119	0x3ddd0467	0.10791855
120	0xbe1915fd	-0.14949794
121	0x3dcc1e33	0.099666975
122	0x3e50f81c	0.20407146
123	0xbd797239	-0.060899947
124	0x3df963b6	0.121772215
125	0x3e4f52ba	0.20246401
126	0xbe7a43be	-0.24439904
127	0x3e558fd0	0.20855641
128	0x3e82d368	0.25551915
129	0x3d192bbd	0.037395228
130	0x3e10ba8b	0.1413366
131	0x3de61266	0.11233978
132	0x3beaa65e	0.007160946
133	0x3df32e78	0.118740976
134	0xbd2e4235	-0.04254361
135	0xbe37dcee	-0.17955372
136	0xbe50887d	-0.20364566
137	0x3dfe71f4	0.124240786
138	0x3e7f1096	0.24908671
139	0xbd9405f6	-0.072276995
140	0x3d1b4255	0.037905056
141	0x3e53ff68	0.20702899
142	0x3dfe9f62	0.124327436
143	0xbbbfabc2	-0.0058493325
144	0x3dfa16eb	0.122114025
145	0x3e4d6726	0.2005888
146	0x3d1d7258	0.038439125
147	0x3dfeca51	0.124409325
148	0x3d2a27ea	0.04154197
149	0xbe614299	-0.21998061
150	0x3d30d421	0.043171052
151	0x3d273d9a	0.040830232
152	0x3c641a8d	0.013922346
153	0xbc6ffad5	-0.014647205
154	0xbe6618dd	-0.22470422
155	0xbdeaa576	-0.114573404
156	0x3ba68867	0.0050821784
157	0x3e03f19c	0.12885135
158	0xbc814ccb	-0.015783688
159	0x3e367d98	0.17821348
160	0x3d147eca	0.036253728
161	0xbe14ca46	-0.14530286
162	0x3e32ee83	0.17473798
163	0xbc87bf3d	-0.016570682
164	0xbb80e330	-0.003933333
165	0x3d41d11a	0.047318555
166	0x3d5430ac	0.05180423
167	0xbd1f66a0	-0.03891623
168	0x3de7b164	0.113131315
169	0x3d933b9a	0.071891025
170	0xbda4d2af	-0.08047997
171	0x3c1d0f3c	0.009586152
172	0x3e20ee05	0.15715797
173	0x3db45b42	0.088064685
174	0x3dae6136	0.08514635
175	0xbe3a88b3	-0.18216209
176	0x3e1e3576	0.15450081
177	0x3d68c6e6	0.05683031
178	0xbd32f8f7	-0.043694463
179	0x3e68e4cc	0.22743529
180	0x3d2d69cf	0.042337235
181	0xbe4bf9e6	-0.19919547
182	0x3d974c48	0.07387596
183	0x3c824b28	0.015904978
184	0xbe1d50fc	-0.15362924
185	0x3e51be9b	0.20482866
186	0x3e2e93ce	0.1704857
187	0x3d45ef89	0.04832414
188	0x3d96bb8f	0.07359993
189	0x3d90fd60	0.070795774
190	0x3c7bb7ff	0.015363692
191	0x3da9bfed	0.0828856
192	0xbca83cd1	-0.020536812
193	0xbe04e6df	-0.12978695
194	0xbe482206	-0.19544229
195	0x3e2bea81	0.16788675
196	0x3e12e5e0	0.14345503
197	0xbe172c1b	-0.14762919
198	0x3e23dfb1	0.160033
199	0x3e655d55	0.22398885
200	0x3e0651ee	0.13117191
201	0x3cfcce76	0.030860167
202	0x3e6fb961	0.2341056
203	0x3e639f7d	0.22228809
204	0x3de06d86	0.1095839
205	0x3d6ec5bd	0.058294047
206	0x3d38dd7d	0.045133103
207	0xbc91226f	-0.017716615
208	0x3e4250b8	0.18976104
209	0x3c46bdd0	0.012130216
210	0xbd048932	-0.032357402
211	0x3d4d43a9	0.050113354
212	0xbde00e43	-0.1094022
213	0xbdf23d7d	-0.11828134
214	0x3d7a5ea5	0.061125416
215	0x3ddeee6b	0.10885318
216	0xbe1e8637	-0.15480886
217	0x3d8e5dd6	0.069514915
218	0x3d80a782	0.062819496
219	0xbe17fb8a	-0.14842048
220	0x3d959d71	0.0730542
221	0xbac069a7	-0.0014679924
222	0x3cb48428	0.022035673
223	0x3bd6ac7a	0.0065513225
224	0x3e3b12cd	0.1826889
225	0xbd92c226	-0.07165937
226	0x3de4762c	0.11155352
227	0x3d022faa	0.031783737
228	0xbe36b1f2	-0.17841318
229	0x3d352a8b	0.044230025
230	0x3c065361	0.00819859
231	0x3cac8ee5	0.021064231
232	0x3dd27a7e	0.1027727
233	0xbe341529	-0.17586197
234	0xbcdcd94e	-0.026959088
235	0x3e105358	0.14094293
236	0xbd1dd16a	-0.03852979
237	0x3e210a96	0.15726694
238	0x3e398328	0.18116438
239	0x3bc4008a	0.0059815096
240	0x3d373af0	0.04473394
241	0x3c1f2129	0.009712496
242	0xbd1eb592	-0.038747378
243	0x3e30f2b2	0.17280081
244	0xbd55b1b8	-0.05217144
245	0x3dc0fa45	0.09422735
246	0xbcdb259c	-0.026751332
247	0xbcea681e	-0.0286141
248	0x3de086a5	0.109631814
249	0x3e00c474	0.12574941
250	0x3b89807c	0.0041962247
251	0xbcbf599b	-0.023358157
252	0xbdca9600	-0.098918915
253	0x3d9b15ba	0.075725034
254	0xbd26a8e2	-0.040688403
255	0xbe1696dd	-0.14705987

bias f4 [10]
0	0xbe1b93b4	-0.15193063
1	0xbe147c27	-0.14500485
2	0xbe060861	-0.13089134
3	0xbd1a8bff	-0.037731167
4	0xbd8971a7	-0.067111306
5	0xbd900890	-0.07032883
6	0xbd9c2211	-0.07623685
7	0xbe95a554	-0.29227698
8	0xbeba70df	-0.3641424
9	0xbdbdf46c	-0.092751354

weight f4 [10, 10]
0	0xbd9be320	-0.0761168
1	0xbe01be49	-0.12670244
2	0x3d74e6c0	0.059790373
3	0x3e815374	0.25258982
4	0x3dd0719b	0.101779185
5	0x3eea76e7	0.4579384
6	0x3d75b090	0.059982836
7	0xbe4161d4	-0.18884975
8	0x3db4f61e	0.08836006
9	0x3dc2e98f	0.09517204
10	0xbe803673	-0.2504154
11	0xbd3569b7	-0.04429027
12	0xbe0b4170	-0.13599181
13	0xbbe16246	-0.00687817
14	0xbd51c9c3	-0.051217806
15	0xbf01220b	-0.5044257
16	0xbef3a54d	-0.47587052
17	0x3d9b65ef	0.07587802
18	0x3d152c1c	0.03641902
19	0x3da8d42b	0.08243593
20	0xbca6b61b	-0.020350507
21	0xbdc0a6fa	-0.09406848
22	0xbe7f53a6	-0.24934253
23	0xbd9529db	-0.07283374
24	0xbdbc8a4d	-0.09206066
25	0xbedeeab4	-0.4353844
26	0xbe6e9713	-0.23299818
27	0xbeec6e25	-0.46177784
28	0x3c73cba7	0.0148800975
29	0xbe499e82	-0.19689372
30	0xbdfca3c9	-0.12335927
31	0x3e62d80f	0.22152732
32	0xbe3eecdc	-0.18645042
33	0xbe256678	-0.1615237
34	0x3dbd1514	0.09232536
35	0xbe0ac645	-0.13552196
36	0x3dc8513e	0.09781121
37	0x3cea2b86	0.028585207
38	0xbd043d4f	-0.03228503
39	0xbdee956f	-0.11649596
40	0x3aa4a1fd	0.0012560483
41	0x3e602505	0.21889122
42	0x3deaced8	0.114652336
43	0x3be9afac	0.0071315374
44	0xbe53936b	-0.20661704
45	0x3e0b1b01	0.1358452
46	0x3e0097cb	0.12557904
47	0x3cdb5d3c	0.026777856
48	0xbe4873da	-0.19575444
49	0xbcf3a5f4	-0.029742219
50	0x3dbf6996	0.09346311
51	0x3d3fefd8	0.046859592
52	0xbf0035e0	-0.50082207
53	0xbe297995	-0.16550286
54	0xbeddb06a	-0.43298656
55	0xbf0c94a5	-0.54914314
56	0xbeeb550f	-0.45963332
57	0xbdb641aa	-0.08899243
58	0x3d501bbd	0.050807703
59	0xbef81f7b	-0.48461518
60	0xbd97749e	-0.0739529
61	0x3da58ab8	0.08083099
62	0x3e5bf917	0.21481739
63	0x3e1545fd	0.1457748
64	0x3e490243	0.19629769
65	0x3e49c6d6	0.19704756
66	0xbe5bf431	-0.2147987
67	0x3e2bdb89	0.16782965
68	0x3d88edfe	0.066860184
69	0xbe462c25	-0.19352777
70	0x3e3a73a7	0.1820818
71	0x3e2afac5	0.16697223
72	0xbe1df07e	-0.15423772
73	0xbc5a58b2	-0.013326811
74	0x3e019a0b	0.12656419
75	0x3dcf5a1e	0.1012461
76	0x3e9c8012	0.3056646
77	0xbe4de17d	-0.20105548
78	0xbc96b26b	-0.018395623
79	0xbe6e25c4	-0.23256594
80	0x3ec23c75	0.3793675
81	0xbe18f4d8	-0.1493715
82	0x3e270ce2	0.16313508
83	0x3e691082	0.22760203
84	0xbd1ffc5a	-0.03905902
85	0xbe47cadc	-0.19510978
86	0x3e8ac4b6	0.27103204
87	0x3ea87ab3	0.32906112
88	0xbc983021	-0.018577637
89	0xbd03a61f	-0.032140847
90	0x3e14fe20	0.14550066
91	0xbdbe060a	-0.092784956
92	0xbe7326de	-0.23745295
93	0x3d8d9507	0.0691319
94	0xbee6ad01	-0.45053867
95	0xbd740052	-0.059570618
96	0xbeb4aebe	-0.35289568
97	0xbd8a8f87	-0.06765657
98	0xbe3470f0	-0.17621207
99	0xbe2b6a2c	-0.1673972

bias f4 [10]
0	0xbc4e363a	-0.012586171
1	0xbe1338ab	-0.14377086
2	0xbe89c01d	-0.26904383
3	0xbe862959	-0.2620342
4	0x3e76ec76	0.2411364
5	0xbd6d36f8	-0.05791375
6	0xbe8d389e	-0.27582258
7	0x3e8da05c	0.27661407
8	0xbd704149	-0.05865601
9	0xbec21036	-0.37902993

weight f4 [1, 10]
0	0x3df0add0	0.11751902
1	0x3d1d4863	0.03839911
2	0xbcb20348	-0.02173008
3	0x3db073e5	0.08615855
4	0x3dad658d	0.08466635
5	0x3dd5ae1d	0.104336
6	0xbda3d3cf	-0.07999384
7	0xbe0f4319	-0.1399044
8	0x3c6db429	0.014508286
9	0xbe26dc59	-0.16294993

weight f4 [1, 10]
0	0xbf720335	-0.94536144
1	0xbee44344	-0.4458257
2	0xbe5b2ed3	-0.21404581
3	0xbf46bee1	-0.7763501
4	0xbf1673dc	-0.5877054
5	0xbe8ec490	-0.2788434
6	0xbf504d15	-0.8136762
7	0xbf669c51	-0.9008227
8	0xbf309f50	-0.6899309
9	0xbeef7d0f	-0.467751

prior_mean f8 []
0	0xc0126691ebc4af16	-4.600166019324908

weight f4 [50, 58]
0	0x3dedebe6	0.1161726
1	0xbeb0db58	-0.34542346
2	0xbe0ba74f	-0.13638042
3	0x3e1b6413	0.15174894
4	0x3e9d7b8c	0.3075832
5	0x3e63dd78	0.22252452
6	0x3e59dc7e	0.21275517
7	0xbe781ab2	-0.24228933
8	0x3e9fde7d	0.31224433
9	0x3d8ece3b	0.06972929
10	0xbea2555f	-0.31705758
11	0x3ecd622e	0.40113968
12	0x3d49a8cd	0.049233247
13	0x3e258b12	0.16166332
14	0xbe71c94b	-0.23611943
15	0xbc4b1f50	-0.012397602
16	0xbd53cf63	-0.05171145
17	0x3e3bc82f	0.18338083
18	0x3e02fea3	0.12792449
19	0x3e9b5d17	0.3034446
20	0xbdb0be56	-0.08630054
21	0x3ede0bbe	0.43368334
22	0x3e57c269	0.21070255
23	0xbe93a595	-0.28837267
24	0x3ebe1d1e	0.3713159
25	0x3e1b9ac1	0.15195753
26	0x3ec2507b	0.37952027
27	0x3d8569ab	0.06514295
28	0x3e06f144	0.13177973
29	0x3e9a2123	0.30103406
30	0x3e8304b6	0.25589532
31	0x3e1fe387	0.15614139
32	0x3e280893	0.16409521
33	0xbe0673c0	-0.13130093
34	0x3e56cbf9	0.20976247
35	0xbd9834a6	-0.07431917
36	0x3ea8ce36	0.32969826
37	0x3e03b7cd	0.12863083
38	0xbe080111	-0.13281657
39	0xbddfa56a	-0.10920222
40	0x3ea9838d	0.33108178
41	0x3e52864e	0.20559046
42	0x3c5fc10c	0.013656866
43	0x3a04f359	0.0005071662
44	0x3ec9f2cb	0.3944305
45	0xbcd11735	-0.025523761
46	0x3e4067c8	0.1878959
47	0xbca75c5e	-0.020429786
48	0x3e095428	0.1341101
49	0x3e69ecdc	0.22844261
50	0xbcb940de	-0.022613939
51	0xbe934a1b	-0.28767475
52	0xbdee2c70	-0.116295695
53	0xbdda94d2	-0.106729165
54	0xbe3023af	-0.17201112
55	0x3b70575a	0.003667316
56	0xbdf30bce	-0.11867486
57	0xbe88ddb4	-0.26731646
58	0xbbbedad2	-0.0058244253
59	0x3f03afe5	0.5144027
60	0xbe50dc53	-0.20396547
61	0x3e5d0002	0.21582034
62	0x3eca2d47	0.3948767
63	0xbe032038	-0.12805259
64	0x3e100c52	0.140672
65	0x3e970ce4	0.29502022
66	0x3bc55e41	0.006023199
67	0xbeca22d6	-0.39479703
68	0x3db12441	0.08649493
69	0xbe152845	-0.14566143
70	0xbe4428e0	-0.19156218
71	0x3e255212	0.16144589
72	0xbeb17b57	-0.34664413
73	0xbd974dd0	-0.073878884
74	0x3d8419b3	0.06450214
75	0x3e1344f6	0.14381775
76	0x3e30f05f	0.17279194
77	0xbb89e623	-0.0042083426
78	0x3be304e0	0.0069280714
79	0x3de08e91	0.109646924
80	0x3d92c75b	0.0716693
81	0xbeacb9fe	-0.3373565
82	0xbc90d0f1	-0.017677756
83	0x3e40a672	0.18813494
84	0x3dd07e08	0.101802886
85	0xbc70f6d4	-0.014707286
86	0xbe4255ca	-0.18978038
87	0x3d793bbf	0.060847994
88	0xbe5c7c2f	-0.21531747
89	0x3f0deffb	0.55444306
90	0x3e137d33	0.14403228
91	0xbcda7d37	-0.026671035
92	0x3de8c371	0.113654025
93	0x3db9ac9c	0.09066126
94	0x3e478b07	0.19486628
95	0xbe028aba	-0.12748232
96	0xbf3f9c5f	-0.7484798
97	0xbea880f1	-0.32910874
98	0xbe35df3d	-0.1776094
99	0xbe8094d2	-0.2511354
100	0xbd230a23	-0.03980459
101	0xbe305bb9	-0.1722249
102	0x3e8c7c47	0.27438566
103	0xbd5da4ec	-0.05411236
104	0x3f06bccf	0.5263185
105	0x3eedb803	0.46429452
106	0xbd0282ed	-0.03186314
107	0x3d42e02e	0.047577076
108	0xbe17e2fb	-0.1483268
109	0xbf207ceb	-0.6269061
110	0x3f097f9e	0.53710353
111	0xbd914776	-0.07093708
112	0xbe1a1228	-0.15045989
113	0xbe1bb1cd	-0.15204544
114	0x3f08c6dc	0.53428435
115	0x3e82981c	0.25506675
116	0x3ee7f28f	0.45302245
117	0x3e58dfa4	0.21179062
118	0x3ea2a1b7	0.31764004
119	0x3c523eaa	0.012832323
120	0xbeea05a3	-0.45707425
121	0x3d9cdf95	0.076598324
122	0x3e897b7a	0.26852018
123	0xbf0759a6	-0.5287117
124	0x3f082cda	0.5319344
125	0x3e73905f	0.23785542
126	0x3df0a37c	0.11749932
127	0xbe028f8e	-0.12750074
128	0xbdaefb2f	-0.08544003
129	0x3ebe369e	0.37151045
130	0x3d519c6b	0.051174562
131	0x3e53643f	0.2064371
132	0x3ea7a5bf	0.32743642
133	0x3e442211	0.1915362
134	0xbe4ffa5b	-0.20310347
135	0x3e3d64e7	0.18495522
136	0xbe8525ee	-0.260055
137	0x3eb7d4a0	0.35904408
138	0x3d02f920	0.031975865
139	0xbf7fd93a	-0.99940836
140	0x3ee1b7d7	0.4408557
141	0x3e92d56e	0.2867846
142	0xbcb2349d	-0.021753604
143	0xbf208c5e	-0.62714183
144	0x3f198a3a	0.5997654
145	0xbce0198d	-0.027355934
146	0x3ec7d68a	0.39030868
147	0x3ea80da4	0.32822907
148	0xbdd3b3bb	-0.10337015
149	0xbe05b47e	-0.13057134
150	0x3f20463c	0.6260717
151	0xbf2150e5	-0.6301406
152	0x3eec7028	0.46179318
153	0x3ed088cc	0.40729368
154	0xbd35c702	-0.04437924
155	0xbe199a6f	-0.15000318
156	0x3cf6278f	0.03004816
157	0x3e9220ca	0.2854064
158	0x3ea42af1	0.32064012
159	0xbe73472d	-0.2375762
160	0x3c3f45e9	0.011674383
161	0xbeb27cc6	-0.3486082
162	0x3da2345d	0.07920144
163	0x3f17c8d6	0.59290826
164	0xbd149a02	-0.036279686
165	0xbda649b8	-0.081195295
166	0xbeb048d2	-0.34430557
167	0xbcf3be94	-0.02975396
168	0xbf2c28dd	-0.6724985
169	0xbdf1186d	-0.11772237
170	0xbe162d88	-0.14665806
171	0xbe3a40f7	-0.18188845
172	0x3c4cf505	0.012509589
173	0x3eb5a8cd	0.35480347
174	0xbceb7ee0	-0.028747022
175	0xbe5f9a67	-0.21836244
176	0xbd44f08b	-0.048080962
177	0x3e540769	0.20705952
178	0xbe07a998	-0.13248289
179	0x3e478f9f	0.19488381
180	0x3eac0feb	0.33605894
181	0xbe676ec2	-0.22600845
182	0x3db04b64	0.086081296
183	0x3d74cefc	0.05976771
184	0xbe856172	-0.26050907
185	0x3e551a47	0.20810805
186	0x3e3a3cf9	0.18187322
187	0x3d7d0865	0.061775584
188	0xbe9527a8	-0.29131818
189	0xbdf61793	-0.12016215
190	0x3d91cd43	0.07119229
191	0xbba9a5f3	-0.0051772534
192	0xbe26aefd	-0.1627769
193	0x3dd88f0e	0.105741605
194	0x3d6c8e5c	0.057752952
195	0x3e1fa813	0.15591459
196	0x3e84c1c7	0.2592909
197	0x3c2b4f45	0.010455911
198	0x3e83bfba	0.25732213
199	0x3e637055	0.2221082
200	0x3e190583	0.14943509
201	0x3e9a17ad	0.30096188
202	0x3e492267	0.1964203
203	0x3def87fa	0.11695857
204	0x3dfd4e3a	0.12368436
205	0x3e995fd0	0.29955912
206	0x3e9e0ba1	0.30868247
207	0xbecd1207	-0.40052816
208	0x3d2eb3c1	0.042651895
209	0x3d76840d	0.060184527
210	0x3dd5fe38	0.10448879
211	0x3e93cde4	0.2886802
212	0xbe5d3e35	-0.21605761
213	0xbb4e5859	-0.0031485765
214	0x3e149c85	0.14512832
215	0x3c80f0d7	0.015739841
216	0xbd59e176	-0.053193532
217	0x3bb70514	0.005585322
218	0x3d9fa80e	0.07795726
219	0xbcb1db7f	-0.02171111
220	0x3dce89a1	0.100848444
221	0x3e4ad363	0.198072
222	0x3eb42e72	0.35191685
223	0x3e805891	0.2506757
224	0x3e82aa69	0.25520638
225	0xbebdbfbd	-0.37060347
226	0x3e3ce9e6	0.184486
227	0xbe020093	-0.12695532
228	0xbd892ccf	-0.06698
229	0x3b6118d2	0.003434707
230	0x3e0da430	0.13832164
231	0xbe0153dd	-0.12629648
232	0xbdedfc6b	-0.116204105
233	0xbf52dbba	-0.82366526
234	0xbeab0877	-0.33404896
235	0xbdbdbae5	-0.09264163
236	0xbf4fb688	-0.81137896
237	0x3d5ccb6d	0.05390494
238	0xbdfb2fa2	-0.122649446
239	0xbec080ba	-0.3759821
240	0x3e80a47d	0.25125495
241	0x3ef2e08b	0.47436938
242	0x3cf7ebcd	0.030263806
243	0x3e82fdf4	0.25584376
244	0x3c98f95b	0.01867359
245	0xbec9aee0	-0.39391232
246	0xbe90dc8f	-0.28293273
247	0xbd983d11	-0.074335225
248	0xbeb81f01	-0.35961154
249	0xbe456168	-0.19275439
250	0xbf0b8b7b	-0.54509705
251	0xbe401260	-0.1875701
252	0x3e43ad12	0.1910899
253	0xbd8829e9	-0.06648619
254	0x3ea36663	0.31914052
255	0x3e589ef3	0.21154384

bias f4 [50]
0	0xbddaabd1	-0.10677303
1	0xbe20cc92	-0.15703037
2	0x3e1201a1	0.14258434
3	0xbe03dda9	-0.12877525
4	0xbe750adf	-0.23929928
5	0x3c45228a	0.012032161
6	0xbe67ebff	-0.22648619
7	0x3bd4ce0e	0.00649429
8	0xbe03d765	-0.12875135
9	0xbeac0005	-0.33593765
10	0xbe9fcce1	-0.31210998
11	0xbd316588	-0.04330972
12	0xbdb4b571	-0.0882367
13	0xbcefb8b0	-0.02926287
14	0xbe5531ba	-0.2081975
15	0xbe678000	-0.22607422
16	0xbe0716dc	-0.13192314
17	0xbe9c5390	-0.30532503
18	0x3dfc3021	0.12313867
19	0xbe893321	-0.2679682
20	0xbe577c5d	-0.21043535
21	0xbe18c34a	-0.14918247
22	0x3d406d73	0.04697938
23	0xbe9bd64a	-0.30436927
24	0xbe7817dd	-0.24227853
25	0x3df2ab5c	0.118490905
26	0x3d570c34	0.052501872
27	0xbe7c233e	-0.24622819
28	0xbe74e6c3	-0.23916154
29	0xbe645868	-0.2229935
30	0x3d64a403	0.055820476
31	0xbe3b7411	-0.18305995
32	0xbe7fdf7d	-0.24987598
33	0xbe6cde99	-0.2313179
34	0xbe2e4676	-0.17019066
35	0xbcf24065	-0.029571721
36	0xbd14b757	-0.03630766
37	0xbe3a893b	-0.18216412
38	0xbdae69d9	-0.085162826
39	0xbe943bff	-0.28952023
40	0xbe380f5a	-0.17974606
41	0x3c9c2f1a	0.019065429
42	0xbe03593f	-0.12827013
43	0x3e401c38	0.18760765
44	0xbe72a7d6	-0.23696837
45	0xbcd05e53	-0.025435602
46	0xbe3098ec	-0.17245835
47	0xbe274f2b	-0.16338794
48	0xbe545872	-0.20736864
49	0xbd9bcae2	-0.07607056

weight f4 [50, 50]
0	0x3c96210e	0.018326309
1	0xbe9fd27d	-0.31215277
2	0x3cafdeb0	0.02146849
3	0xbbeb3f25	-0.0071791583
4	0xbe08ba4f	-0.13352321
5	0xbeb437f2	-0.35198933
6	0xbe729ab2	-0.23691824
7	0xbe8941ea	-0.268081
8	0x3cf4b9bf	0.029873727
9	0x3cbfd02b	0.023414692
10	0xbe8dbede	-0.27684683
11	0x3da0693b	0.07832571
12	0xbe2e9dd1	-0.1705239
13	0xbebee15d	-0.37281314
14	0xbe72b13f	-0.23700427
15	0xbe157e40	-0.14598942
16	0xbf03ec0d	-0.5153206
17	0xbc99943f	-0.018747447
18	0x3de01f0f	0.10943424
19	0xbe5df1e1	-0.216743
20	0xbe7fea7d	-0.24991794
21	0xbe8ac807	-0.27105734
22	0xbe9aebe6	-0.302581
23	0xbe678070	-0.22607589
24	0xbe06a7aa	-0.13149896
25	0x3e22b50e	0.1588938
26	0xbd868af3	-0.06569471
27	0xbca9e391	-0.020738395
28	0xbd6ff821	-0.058586244
29	0xbc7675ab	-0.015042703
30	0xbe7cf2b0	-0.24701953
31	0x3d87f29f	0.06638073
32	0x3b997252	0.0046828175
33	0xbce44358	-0.027864143
34	0xbe39ff8a	-0.18163887
35	0xbe859ada	-0.26094705
36	0xbe0971a7	-0.13422261
37	0xbe9ebd23	-0.31003675
38	0xbdcdcbc9	-0.100486346
39	0xbe41f8d6	-0.1894258
40	0xbe8b624a	-0.27223426
41	0x3e649739	0.22323312
42	0xbe6a1909	-0.22861113
43	0x3e060f06	0.13091668
44	0xbec508e1	-0.38483337
45	0x3e90d9f6	0.2829129
46	0xbd3e00c0	-0.046387434
47	0xbdd4ab23	-0.10384204
48	0x3cb7359e	0.022364434
49	0xbe6a621f	-0.22888993
50	0x3ce71a6b	0.02821084
51	0xbeba531a	-0.36391526
52	0xbea17f55	-0.3154246
53	0xbcd8fcf4	-0.026487805
54	0x3e586229	0.21131195
55	0xbe19206d	-0.14953776
56	0xbe4bfb2d	-0.19920035
57	0xbe2f5ff1	-0.17126442
58	0xbd916836	-0.07099955
59	0xbcf09bdc	-0.029371195
60	0xbd7d8d56	-0.061902367
61	0xbea07e97	-0.3134658
62	0xbdbb279f	-0.091384165
63	0xbe207cf6	-0.15672669
64	0x3d43bd0c	0.04778771
65	0x3e1f2bf3	0.15544109
66	0xbd8e677f	-0.06953334
67	0xbbe215b5	-0.0068995603
68	0xbe89aa66	-0.26887816
69	0xbd2130a0	-0.039353013
70	0xbcfb5830	-0.0306817
71	0xbe9c71df	-0.30555627
72	0xbe57bbc8	-0.21067727
73	0xbd2839c4	-0.041070715
74	0x3d7823a0	0.06058085
75	0xbe14f5d2	-0.14546898
76	0xbe4b5a98	-0.19858778
77	0xbe566de6	-0.2094036
78	0xbbf1da6a	-0.0073807733
79	0x3db80372	0.08985032
80	0xbec268a7	-0.37970468
81	0xbd7ceb25	-0.06174769
82	0x3a8a9d20	0.0010575391
83	0xbd940531	-0.07227553
84	0xbd101327	-0.035174515
85	0xbdd1f385	-0.10251526
86	0x3cd65756	0.026164692
87	0x3e22a028	0.15881407
88	0x3d8aff8f	0.06787025
89	0x3d1ae51d	0.037816156
90	0xbceae4e0	-0.02867359
91	0xbb706340	-0.0036680251
92	0x3bdaca58	0.0066769533
93	0xbe9010f6	-0.2813794
94	0x3d3fa358	0.046786636
95	0xbe954c5c	-0.2915982
96	0xbe3c6e91	-0.18401553
97	0xbe4a1034	-0.19732744
98	0xbe56819b	-0.20947878
99	0xbe4d2c9b	-0.20036547
100	0xbe65ae8a	-0.22429863
101	0xbe8ff2ec	-0.28115022
102	0xbe4516d6	-0.19246992
103	0xbdd63c5e	-0.10460733
104	0xbe414657	-0.18874489
105	0xbef149d2	-0.47126633
106	0xbe7a534b	-0.24445836
107	0xbdab548e	-0.08365737
108	0xbe3d8d49	-0.18510927
109	0xbd268898	-0.04065761
110	0xbe9b97b5	-0.3038918
111	0xbdffffac	-0.124999374
112	0xbe077fe7	-0.13232385
113	0xbe848858	-0.25885272
114	0xbdd76f76	-0.10519306
115	0xbe8fc76a	-0.28081828
116	0xbedb6da9	-0.42857102
117	0xbe46fabd	-0.19431587
118	0xbd97186b	-0.07377704
119	0xbe421c7b	-0.18956177
120	0xbdae5fa1	-0.085143335
121	0xbe99a314	-0.3000723
122	0xbe95de0d	-0.29270974
123	0xbe3f8b2d	-0.18705435
124	0xbdf1afe0	-0.118011236
125	0xbe725e2a	-0.23668733
126	0xbe87ea01	-0.26545718
127	0xbe3f689d	-0.1869225
128	0xbd9fd226	-0.078037545
129	0xbe879dd6	-0.26487607
130	0xbdeec0b7	-0.11657851
131	0xbe2e37f9	-0.1701354
132	0xbe10c23c	-0.14136595
133	0xbd933cc4	-0.071893245
134	0xbe531a6b	-0.20615546
135	0xbe5955e1	-0.21224166
136	0x3bca96ea	0.006182541
137	0xbeb80eeb	-0.35948882
138	0xbe370ed4	-0.1787675
139	0xbe24eaa2	-0.1610513
140	0xbeb4eda3	-0.35337552
141	0xbe2f98e5	-0.17148168
142	0xbe80f071	-0.25183442
143	0xbe583fdb	-0.21118109
144	0xbed4e10d	-0.4157795
145	0xbd099293	-0.03358705
146	0x3ca5be15	0.02023224
147	0xbd814bf5	-0.06313316
148	0xbe54c7af	-0.20779298
149	0xbeae4184	-0.3403436
150	0x3c34142f	0.01099114
151	0xbe0c4141	-0.13696767
152	0xbe17e897	-0.1483482
153	0xbe12d749	-0.14339937
154	0x3d80ca39	0.06288571
155	0xbeb8b69b	-0.36076817
156	0xbeb2b267	-0.34901735
157	0xbe143513	-0.14473371
158	0xbe88469a	-0.26616365
159	0xbe5e8bc8	-0.2173301
160	0xbe9450c7	-0.28967878
161	0xbe959937	-0.29218456
162	0xbd897466	-0.06711654
163	0xbe6ed876	-0.23324761
164	0xbbdfee91	-0.0068338593
165	0x3df85493	0.12125506
166	0xbb702aa5	-0.0036646512
167	0xbc600e89	-0.01367534
168	0xbe079781	-0.13241388
169	0xba1538be	-0.0005692354
170	0xbd8bff56	-0.06835811
171	0xbe8827f9	-0.26592997
172	0xbe7b8830	-0.2456367
173	0x3b821795	0.0039700964
174	0x3c5d7b7b	0.01351821
175	0xbecb241e	-0.39675993
176	0xbd591450	-0.052997887
177	0x3c80d957	0.015728636
178	0xbde4d03a	-0.111725286
179	0xbc73a634	-0.014871169
180	0xbe6b4be7	-0.22978173
181	0xbd4c4c64	-0.04987754
182	0xbe40aecf	-0.18816684
183	0xbe3014b7	-0.17195402
184	0x3da4ee04	0.080532104
185	0xbe4b5ac7	-0.19858848
186	0xbe081e48	-0.13292801
187	0xbe0113c9	-0.12605204
188	0xbe038e4d	-0.12847252
189	0xbc2bc467	-0.010483838
190	0xbd7bb9dd	-0.06145655
191	0xbd017f6a	-0.031615652
192	0xbe612e5f	-0.21990345
193	0xbed4494e	-0.41462177
194	0x3b8f5f70	0.0043753907
195	0xbe88c672	-0.26713902
196	0xbd899966	-0.067187116
197	0xbd1a666e	-0.03769534
198	0xbd88fabd	-0.066884495
199	0xbe5266ca	-0.20547023
200	0xbe05d207	-0.130684
201	0xbdddb8d4	-0.10826269
202	0xbe807165	-0.25086513
203	0xbe106524	-0.14101082
204	0xbd557a1a	-0.0521184
205	0xbe058244	-0.13037974
206	0xbe7bc4f0	-0.24586844
207	0xbe93ffab	-0.28905997
208	0xbd0f3d3a	-0.0349705
209	0xbd44cbe2	-0.048046
210	0xbdccd926	-0.10002355
211	0xbd5c6573	-0.053807687
212	0xbc9f4299	-0.019440936
213	0xbeb5311d	-0.35389033
214	0xbcda847c	-0.026674502
215	0xbea2d4f0	-0.31803083
216	0xbe9b5648	-0.30339265
217	0xbd074106	-0.033020996
218	0xbe8578d1	-0.26068738
219	0xbdef6b79	-0.11690421
220	0xbe568163	-0.20947795
221	0xbe95ab6c	-0.29232347
222	0xbebc10d0	-0.36731577
223	0xbe48f4b5	-0.19624598
224	0xbe1ced0a	-0.15324798
225	0xbe4b2813	-0.19839506
226	0xbe1dc45f	-0.15406941
227	0xbdbb76fd	-0.091535546
228	0xbc42568e	-0.011861457
229	0xbe165641	-0.14681341
230	0xbe244ba1	-0.16044475
231	0x3d22a235	0.039705474
232	0x3bad3f37	0.005287077
233	0xbe036630	-0.1283195
234	0xbe5d0704	-0.21584707
235	0xbe230bc4	-0.15922457
236	0xbd47d973	-0.04879136
237	0xbe4b02d7	-0.19825302
238	0xbe26d3b9	-0.16291703
239	0xbd28551b	-0.041096788
240	0xbe640637	-0.22267996
241	0xbe8780fc	-0.26465595
242	0xbe188634	-0.14894944
243	0xbec82d04	-0.39096844
244	0xbe0ff254	-0.14057285
245	0xbe71b1aa	-0.2360293
246	0xbe1ac28e	-0.15113279
247	0xbe30a9dc	-0.17252296
248	0xbe41de48	-0.1893245
249	0xbe6dc9fc	-0.23221582
250	0xbba2f7ae	-0.0049733734
251	0xbe93aa49	-0.28840855
252	0xbea29d4e	-0.3176064
253	0x3c32adcb	0.010905693
254	0xbd3dcac0	-0.046335936
255	0xbeb997c8	-0.36248612

bias f4 [50]
0	0xbdbadee2	-0.09124543
1	0xbd82dd57	-0.063898735
2	0xbe58b0f9	-0.2116126
3	0xbdc114e8	-0.09427816
4	0xbe82e311	-0.25563863
5	0xbe0df898	-0.13864362
6	0xbd82aa28	-0.06380111
7	0xbe25a8ff	-0.16177748
8	0xbe36b3fb	-0.17842095
9	0xbe94c686	-0.2905771
10	0xbe8f8201	-0.28028873
11	0xbdaba323	-0.08380725
12	0xbe891f39	-0.26781633
13	0xbe383b70	-0.17991424
14	0xbe765ba8	-0.24058402
15	0xbe9c6c79	-0.30551508
16	0xbe04b18e	-0.12958357
17	0xbea392ac	-0.3194784
18	0xbeb3ccea	-0.35117275
19	0xbd4a051b	-0.049321275
20	0xbe35dfd0	-0.17761159
21	0xbe35b498	-0.17744672
22	0xbe807e90	-0.2509656
23	0xbe95f0e9	-0.29285362
24	0xbe930ca9	-0.28720596
25	0xbe70b82c	-0.23507756
26	0xbea59269	-0.32338265
27	0xbe801a56	-0.25020093
28	0xbe168dc4	-0.14702517
29	0xbe933cf8	-0.28757453
30	0xbebd8e3c	-0.3702258
31	0xbdd1a03b	-0.1023564
32	0xbeacce02	-0.3375092
33	0xbe297b73	-0.16550998
34	0xbe417193	-0.18890981
35	0xbe1266b4	-0.1429699
36	0xbe188863	-0.14895777
37	0xbdc7d6d9	-0.09757776
38	0xbec36e70	-0.38170195
39	0xbda7fdce	-0.08202706
40	0xbe0a668e	-0.13515684
41	0xbd675b39	-0.05648348
42	0xbd90b2c0	-0.07065344
43	0xbcfaa743	-0.030597335
44	0xbe9d9501	-0.30777743
45	0xbcf2a50f	-0.029619722
46	0x3cac0b27	0.021001412
47	0xbdb5fa83	-0.08885672
48	0xbea42ea1	-0.32066825
49	0xbdc8d0f2	-0.09805478

weight f4 [100, 50]
0	0x3d839a5b	0.06425925
1	0xbc3da762	-0.011575552
2	0x3c6060ac	0.013694923
3	0x3d1c9ebf	0.03823733
4	0xbdf282f3	-0.11841383
5	0x3ca72467	0.0204031
6	0x3b01ff54	0.0019836025
7	0x3d154b39	0.03644869
8	0x3d00e002	0.03146363
9	0x3d43df13	0.047820162
10	0x3c837b7f	0.016050098
11	0xbd92fb07	-0.07176786
12	0xbdac4cab	-0.08413061
13	0xbd74e395	-0.05978735
14	0xbca6a125	-0.020340512
15	0x3c761f20	0.015022069
16	0xbd4523c4	-0.048129812
17	0x3d85f9be	0.06541775
18	0x3d383f07	0.044981983
19	0x3dcc2b36	0.09969179
20	0x3ad4b125	0.001622711
21	0x3da1d17a	0.079012826
22	0xbb96ce59	-0.0046022353
23	0x3d17b086	0.03703358
24	0xbd76e1b2	-0.060273834
25	0x3dfb039d	0.122565486
26	0x3bcdf3a5	0.006285148
27	0xbcfdf071	-0.03099844
28	0x3da3caae	0.079976425
29	0xbc9ad6b8	-0.018901214
30	0x3c2be194	0.010490794
31	0xbbe3bed1	-0.0069502373
32	0x3db3a678	0.08771986
33	0xbe134fac	-0.14385861
34	0x3da7231c	0.081609935
35	0xbd4ae8c7	-0.0495384
36	0x3dc7d27d	0.09756944
37	0xbd88b306	-0.06674771
38	0xbddb1e67	-0.10699158
39	0xbe3c340d	-0.18379231
40	0x3cee616a	0.029099185
41	0x3d4c05fa	0.049810387
42	0xbe06a249	-0.13147844
43	0x3ddb2a16	0.10701387
44	0xbd00c948	-0.031441957
45	0x3df948bf	0.12172078
46	0x3d9af411	0.07566083
47	0xba839cd7	-0.0010041249
48	0x3d2c03ae	0.041995697
49	0xbe545601	-0.20735933
50	0x3bfe0da7	0.0077530923
51	0xbdadcab6	-0.0848593
52	0x3e355015	0.1770633
53	0x3cee413d	0.029083842
54	0x3d32a8f0	0.043618143
55	0xbe2f1a04	-0.17099768
56	0x3e14091a	0.14456597
57	0xbd797183	-0.06089927
58	0xbe150261	-0.14551689
59	0xbd8ca6d3	-0.06867757
60	0xbd867c67	-0.065666966
61	0x3c1dc957	0.009630523
62	0xbc0feaa1	-0.008783967
63	0x3dfd087b	0.12355133
64	0xbd354562	-0.04425562
65	0xbee594f1	-0.44840196
66	0xbeb2935f	-0.3487806
67	0xbbbf0a45	-0.0058300816
68	0xbe8e6458	-0.2781093
69	0xbee4ae38	-0.44664168
70	0xbea21572	-0.31656986
71	0xbe6c979f	-0.23104714
72	0xbd6388b9	-0.05555031
73	0x3d4efec5	0.050535936
74	0x3d418213	0.04724319
75	0xbe8d675a	-0.27617913
76	0x3d6082ff	0.054812428
77	0x3d9218c6	0.071336314
78	0xbdcfc1cc	-0.10144386
79	0x3dae81f2	0.08520879
80	0x3cad564b	0.021159312
81	0x3d741659	0.059591625
82	0x3dc371ee	0.09543215
83	0x3dbae1a6	0.0912507
84	0x3ea98690	0.33110476
85	0x3d18547d	0.03718995
86	0x3eb172ca	0.3465789
87	0x3ebb567a	0.36589414
88	0x3e017c6d	0.12645121
89	0x3e171904	0.14755636
90	0xbd295d72	-0.041348882
91	0x3f02d3ca	0.51104414
92	0x3d9a0d11	0.075220235
93	0xbeb2b04e	-0.34900135
94	0xbead5f74	-0.33861887
95	0x3dfce4d1	0.12348331
96	0xbebec7a8	-0.372617
97	0xbd92ebdc	-0.07173893
98	0xbe01df8c	-0.12682933
99	0x3eaaef27	0.33385584
100	0xbe191cf0	-0.14952445
101	0xbe76dfc0	-0.24108791
102	0x3d1a5e38	0.03768751
103	0xbe48c92c	-0.19607991
104	0x3c9d5b71	0.019208642
105	0xbe5ee303	-0.21766286
106	0xbe252db6	-0.16130719
107	0xbcce3743	-0.025172835
108	0xbd694238	-0.056947917
109	0xbd7b74db	-0.06139074
110	0x3d50c911	0.050973002
111	0xbe4d8b8d	-0.20072766
112	0xbe1143b4	-0.14185983
113	0x3d3eecc6	0.046612523
114	0xbcc4c3c2	-0.024019126
115	0xbe72d4d7	-0.23714004
116	0xbe3045bc	-0.17214102
117	0xbc53caaf	-0.0129267415
118	0xbd9258d7	-0.07145851
119	0xbe107f8f	-0.1411116
120	0xbdeaeb7b	-0.114706956
121	0xbdc7662f	-0.09736287
122	0x3ccf336d	0.025293076
123	0xbdd01fee	-0.1016234
124	0xbc8a7672	-0.016902182
125	0xbd5365b4	-0.051610664
126	0xbe0b95f6	-0.13631424
127	0xbce00af1	-0.027348967
128	0xbd044171	-0.032288972
129	0xbe23fe00	-0.16014862
130	0xbdfbc9c0	-0.1229434
131	0xbc09750a	-0.008389721
132	0xbde70354	-0.11279932
133	0x3d087b78	0.033320874
134	0xbdd4e4c0	-0.10395193
135	0x3be1d985	0.0068923854
136	0xbe172d62	-0.14763406
137	0xbd1b7530	-0.037953556
138	0xbdd62725	-0.10456685
139	0xbe1c81ac	-0.15283841
140	0xbd776da4	-0.060407296
141	0xbda75c31	-0.08171881
142	0xbd41318b	-0.04716639
143	0xbe0d5f59	-0.13805903
144	0xbe2a377a	-0.16622725
145	0xbe40af9c	-0.1881699
146	0xbe7fdd65	-0.24986799
147	0xbe0263c2	-0.12733367
148	0x3d514adc	0.051096782
149	0xbc36f910	-0.01116778
150	0xbe21be6b	-0.15795295
151	0x3d8ae2c4	0.06781533
152	0x3cab0c6e	0.02087995
153	0x3d6e9db3	0.058255862
154	0x3e127e59	0.1430601
155	0xbcf06c77	-0.029348595
156	0x3e19cc31	0.15019299
157	0x3ccb09ad	0.024784887
158	0x3e484077	0.19555841
159	0xbd86f698	-0.06590003
160	0xbda014f5	-0.07816497
161	0xbd2596c7	-0.040426996
162	0x3dcbbdb9	0.09948296
163	0x3e33d031	0.17559887
164	0xbd28add6	-0.041181408
165	0x3da9c446	0.08289389
166	0x3d8a0dc6	0.06740908
167	0x3d641b92	0.055690356
168	0xbd8c8bd5	-0.06862608
169	0x3dece8dc	0.11567852
170	0x3e0734f8	0.132038
171	0x3e7a15d3	0.24422388
172	0x3c540f15	0.012943049
173	0x3caa2e8b	0.020774147
174	0x3dbfe238	0.0936932
175	0x3d49e82a	0.049293675
176	0x3de9e829	0.11421234
177	0x3dbb8926	0.09157018
178	0xbc8e2bc1	-0.017354848
179	0x3e47c79d	0.1950974
180	0xbe813a5e	-0.25239843
181	0xbe6e869d	-0.23293538
182	0xbd00f672	-0.03148503
183	0xbd3776b7	-0.04479095
184	0xbd5df0cb	-0.054184716
185	0xbe218a3a	-0.15775385
186	0x3e3deb00	0.18546677
187	0x3e9a6c7c	0.30160892
188	0x3c894245	0.016755233
189	0x3da32552	0.07966103
190	0x3d0278a0	0.03185332
191	0x3ebadce8	0.36496663
192	0xbc42334e	-0.011853052
193	0x3e72fec2	0.23729995
194	0xbc6feacb	-0.014643381
195	0x3d376e55	0.044782955
196	0xbce8a980	-0.028401136
197	0x3e9e6d9b	0.30942997
198	0xbe7f2baf	-0.24919008
199	0x3ed79f75	0.42113844
200	0xbe1ee722	-0.15517858
201	0x3ddf25c5	0.10895876
202	0xbdccd97a	-0.10002418
203	0x3e3c1d8d	0.18370648
204	0x3dd69819	0.10478229
205	0x3de56aad	0.112019874
206	0xbd9f4f22	-0.07778765
207	0xbd9114de	-0.07084058
208	0x3e22a957	0.1588491
209	0x3d4fe365	0.05075397
210	0xbe9b0869	-0.30279854
211	0x3d07666f	0.033056673
212	0x3c8e65c0	0.017382503
213	0xbd17d104	-0.037064567
214	0xbe90e244	-0.28297627
215	0x3e528892	0.2055991
216	0x3e342d62	0.17595437
217	0xbd0f7799	-0.035026167
218	0x3d326a5d	0.043558467
219	0x3dda3af6	0.10655777
220	0x3e2df9f1	0.16989876
221	0x3d51e660	0.051245093
222	0x3c7258e9	0.014791706
223	0xbdfcf146	-0.12350707
224	0xbe164610	-0.14675164
225	0x3d4774f4	0.04869552
226	0x3d9d8033	0.07690468
227	0x3d92d2e5	0.07169131
228	0xbdb2adea	-0.08724578
229	0x3b9fe065	0.004879045
230	0xbec59c51	-0.38595822
231	0xbdc6d9c8	-0.09709507
232	0xbd596c2e	-0.053081684
233	0xba55ff8e	-0.0008163386
234	0x3d503846	0.050834917
235	0xbe489ad5	-0.19590314
236	0x3e5da8ad	0.21646376
237	0xbf0e927e	-0.5569228
238	0xbe1c650b	-0.1527292
239	0xbde6901d	-0.11257956
240	0x3ccef9f5	0.025265673
241	0x3e391ba8	0.18076956
242	0xbc3aeb60	-0.011408657
243	0x3dd686af	0.104749076
244	0x3c23d7c4	0.010000173
245	0x3dc603c4	0.09668687
246	0x3e6b55ee	0.22981998
247	0x3e8c01ea	0.2734521
248	0xbeda330d	-0.42617074
249	0xbec114e5	-0.37711254
250	0x3ee8ae32	0.454454
251	0xbcd478d8	-0.025936529
252	0xbc5d37b3	-0.013502049
253	0xbdf38e2c	-0.118923515
254	0x3b390631	0.002823245
255	0x3c912028	0.017715529
