mcspace/paper/human_runs/runs/seed_0/model.pt (torch, 308831 bytes, 66 tensors)

theta_params f4 [100, 58]
000000 60 c3 ae c0 cb 04 43 40 6a cc e5 c0 e8 d4 1f c0
       -5.4613495 3.0471675 -7.181203 -2.4973698
000010 e9 b3 97 c0 ac b9 a3 c0 70 7b a5 c0 be be 4d ba
       -4.7407117 -5.116415 -5.171318 -0.0007848552
000020 43 95 b3 c0 d0 cb 9c c0 09 16 bf c0 40 b2 11 c0
       -5.6119704 -4.8998795 -5.97144 -2.2765045
000030 0b 6f 87 c0 87 f6 92 c0 82 80 4f c0 bc c0 59 c0
       -4.232305 -4.5925937 -3.2422185 -3.4023886
000040 40 99 bb 3e bd 19 59 c0 6d 6e 1f bf 00 d7 34 3f
       0.36640358 -3.392196 -0.6227787 0.70640564
000050 a4 5c 01 40 11 cc bf be 08 b0 1a 3f d0 7d 02 3f
       2.0212793 -0.37460378 0.6042485 0.50973225
000060 96 de 88 c0 ad e6 8d bf 09 a9 ad 40 c4 a4 75 c0
       -4.277171 -1.1086022 5.426884 -3.8381815
000070 4a d8 93 c0 8c f7 ab c0 9f 36 6c c0 70 2f 41 bf
       -4.6201525 -5.373968 -3.6908338 -0.7546301
000080 f0 30 66 3f 85 b3 9e c0 d2 3f ae c0 00 c1 91 bf
       0.8991842 -4.959414 -5.4452906 -1.1387024
000090 3e 30 a8 c0 1a 31 55 40 3c 19 89 c0 69 cf 5d 40
       -5.255889 3.331122 -4.2843304 3.4657843
0000a0 55 00 16 3f c1 b3 78 c0 d9 9f 69 40 94 51 6d c0
       0.58594257 -3.8859713 3.6503813 -3.7081041
0000b0 1d fa 96 c0 97 6d e7 be 69 fb bf c0 dc 5d a9 c0
       -4.7180314 -0.45200798 -5.9994397 -5.2927074
0000c0 ae fe 91 c0 4d 97 83 c0 18 09 2c 40 a7 0a 8b c0
       -4.562339 -4.1122193 2.688055 -4.3450503
0000d0 5f 3a 47 c0 ec 86 20 40 12 1d 6d 40 e6 21 82 c0
       -3.1129377 2.508235 3.7048993 -4.066638
0000e0 7c f1 a2 c0 d0 79 f8 3f 64 38 99 c0 37 e4 85 40
       -5.091978 1.9412174 -4.7881336 4.1841083
0000f0 de 7a 80 c0 9a ae 89 bf 42 c9 0b 3f 74 7b b1 c0
       -4.0149984 -1.0756409 0.5460397 -5.54632
000100 1a 44 43 3e b4 ed 21 40 da 42 01 c0 38 68 85 3f
       0.19068947 2.5301332 -2.0197053 1.042243
000110 76 97 b7 3e d4 de 86 c0 55 4c 65 c0 5a 11 8a bf
       0.35857743 -4.2147007 -3.582784 -1.0786545
000120 d6 07 1d bf 5a ed 0e c0 da 41 2d 40 bf a8 db 3f
       -0.6134008 -2.2332368 2.7071443 1.7160872
000130 e8 cb 1e 40 04 0b 3b 40 39 f0 91 3f c5 76 98 c0
       2.4811954 2.9225473 1.1401435 -4.764498
000140 d3 74 ed 3e 0d 36 b0 3f 2d 3f f6 c0 1f ce a3 3f
       0.46378192 1.3766495 -7.695212 1.2797278
000150 6f 2a 0c c0 71 01 36 c0 75 4b 88 c0 b8 73 83 c0
       -2.19009 -2.843838 -4.259211 -4.107876
000160 19 57 d7 bf 8a 23 5b c0 bd 74 c9 3f ff 6a 87 40
       -1.6823455 -3.4240441 1.5738751 4.231811
000170 00 ba b5 bf 75 1a 8e bf b7 e9 a1 3f f2 29 a0 c0
       -1.4197388 -1.1101824 1.2649449 -5.0051203
000180 7c ad 92 3f 88 25 8d 3f f9 22 a5 c0 50 7e 1d 3f
       1.1459193 1.1027079 -5.160519 0.6152086
000190 70 85 74 c0 e3 77 89 c0 24 d3 31 c0 c8 74 13 40
       -3.8206444 -4.2958846 -2.778512 2.3040028
0001a0 bc ec b7 c0 4c c6 0c 40 d5 55 59 c0 b0 c4 00 bf
       -5.7476482 2.199603 -3.3958638 -0.5030012
0001b0 4d 4a aa bf 5c bd f6 3e d8 bc 2b c0 41 39 af 3f
       -1.3303925 0.48191345 -2.683401 1.3689348
0001c0 05 e4 42 40 cd 7c 8e bf 4f d8 4c c0 09 55 0c 40
       3.0451672 -1.1131836 -3.2007024 2.1926901
0001d0 3e 32 68 c0 79 41 33 40 32 9b 44 be 12 44 50 c0
       -3.6280665 2.8008711 -0.19199827 -3.2541547
0001e0 39 77 69 40 ba 69 00 be 3b 79 e2 bf 65 89 55 40
       3.6479018 -0.12540331 -1.7693247 3.336511
0001f0 29 02 88 c0 a3 90 70 c0 9f d0 69 c0 6e 75 68 c0
       -4.2502637 -3.758828 -3.6533582 -3.6321673
000200 1d 96 98 c0 b0 ab 4d c0 6f a8 51 bf 3d 7d b3 40
       -4.7683244 -3.213604 -0.81897634 5.609038
000210 34 23 9e bf b3 d6 e8 bf 80 b1 80 3f d4 29 8f c0
       -1.2354493 -1.8190521 1.0054169 -4.473856
000220 1c 18 d0 3f 82 a7 85 c0 fc 25 6a c0 cb 0e f9 3f
       1.6257358 -4.1766977 -3.6585684 1.945764
000230 f3 d9 9a bf 3c f5 61 c0 7c c3 4a c0 40 eb 8b c0
       -1.2097763 -3.530593 -3.1681814 -4.372467
000240 3e 62 6c c0 0f f5 34 c0 30 63 56 c0 c1 64 06 40
       -3.6934962 -2.8274572 -3.349804 2.0998995
000250 ee a3 28 3f e9 f0 88 3f 21 6b 8e bd 08 bb 46 c0
       0.65875137 1.069852 -0.06954027 -3.1051655
000260 90 1c 42 3e 42 dc c9 bf 5c a3 f1 3f 3d 6b 47 40
       0.18956208 -1.5770342 1.8877978 3.1159203
000270 15 ea 16 c0 2b 01 38 3f b9 1c 4f 40 a1 52 8b bd
       -2.3580372 0.7187678 3.236128 -0.068028696
000280 e0 9a 25 c0 a5 eb 95 be e0 2a 8d c0 2b f5 18 3e
       -2.5875778 -0.29281345 -4.411484 0.14937274
000290 29 32 45 c0 6b bf b1 3f 04 81 9b c0 57 5d d8 3f
       -3.0811865 1.3886541 -4.859499 1.6903485
0002a0 c9 06 7e c0 06 1b 3d c0 7f 5c 0b 40 4c c6 1b c0
       -3.9691641 -2.9547744 2.1775205 -2.433978
0002b0 c5 fc 88 c0 3e c4 f0 bf 1e d4 80 c0 d6 0f e2 3d
       -4.2808557 -1.8809888 -4.025893 0.11038177
0002c0 46 1a 2b c0 1d 62 52 c0 26 b7 0c c0 bc 1d 29 c0
       -2.6734786 -3.2872384 -2.1986785 -2.6424398
0002d0 30 36 88 c0 4c b3 51 be 55 a5 81 c0 24 48 20 c0
       -4.2566147 -0.20478553 -4.051432 -2.504403
0002e0 cf 31 50 c0 43 0a 09 c0 6d 95 6f c0 e1 6c 32 c0
       -3.25304 -2.1412513 -3.7434952 -2.7878954
0002f0 17 42 fc bf 90 3c 26 c0 5f a2 5d c0 4a 64 55 c0
       -1.9707669 -2.5974464 -3.4630353 -3.3342462
000300 13 de 0f 40 16 a8 8d c0 72 38 39 40 7a e9 4f c0
       2.2479293 -4.4267683 2.8940701 -3.2486253
000310 cc 6a 5f bf 03 62 3b 40 4f 46 90 c0 84 6f 31 c0
       -0.87272334 2.9278572 -4.5085826 -2.7724314
000320 03 d2 1d 40 ac ea 89 c0 04 96 a1 3f 2a c6 41 c0
       2.465943 -4.3098965 1.2623906 -3.02772
000330 4a ff 63 c0 63 d6 9b c0 6a 7c 54 c0 9f f2 22 c0
       -3.5624566 -4.8699203 -3.3200936 -2.5460584
000340 45 a1 a1 be 9e 35 5e 40 f1 7b 69 c0 2e d4 0c c0
       -0.3156835 3.4720225 -3.6481898 -2.2004504
000350 93 b3 7a 40 1e 41 7b bf 9e dd 1a c0 88 72 8b c0
       3.9172103 -0.98146236 -2.4197764 -4.357731
000360 e7 bf f2 3f b4 b2 11 c0 e9 bd 43 c0 95 68 0c 40
       1.8964814 -2.2765322 -3.0584662 2.1938832
000370 b0 e4 36 c0 7b 14 7b c0 18 ed e2 40 74 49 0e c0
       -2.857708 -3.923125 7.091442 -2.2232332
000380 4c 4f fe bf b1 c1 30 40 fa fb a6 c0 fb 08 3a c0
       -1.986795 2.761822 -5.218259 -2.9067981
000390 2d 2d 5c bf ff af 14 c0 83 be 15 c0 a3 37 b1 bf
       -0.8600643 -2.323242 -2.339753 -1.3845104
0003a0 8d db e6 bc ae 81 92 3f f1 4c 92 c0 02 1b 99 c0
       -0.028180862 1.1445825 -4.5718923 -4.784547
0003b0 67 fb d7 be 36 02 83 bf 0e 04 b3 bf cc c3 2d 40
       -0.42183992 -1.023505 -1.3985612 2.7150755
0003c0 96 3e f1 c0 e7 77 29 3f de 91 25 40 97 99 24 c0
       -7.53889 0.6619858 2.587028 -2.5718744
0003d0 4b b9 90 c0 33 b1 81 be 16 62 a7 be f6 4f 4b bf
       -4.522619 -0.25330505 -0.3269202 -0.79418886
0003e0 8a b3 00 3e 46 0f f9 3f 3e 46 5b 3f 67 fe 1e 40
       0.12568489 1.9457786 0.85654056 2.4842775
0003f0 e5 4c 86 3f 9a 30 19 3f 95 64 95 40 f3 88 dc 3f
       1.0492216 0.59839785 4.668528 1.7229294

q_mu f4 [5]
000000 f9 9e fa bf b2 4a 8b c0 cb 9b 98 bf 13 83 3f c0
       -1.9579765 -4.352868 -1.1922544 -2.9923751
000010 4a 50 84 c0
       -4.134801

q_var f4 [5]
000000 47 57 8d c0 17 c1 ff bf e5 ac 85 c0 0f 85 60 c0
       -4.416904 -1.9980801 -4.1773553 -3.5081213
000010 82 aa 35 c0
       -2.838532

eps f4 [5]
000000 2a 90 dd bf d5 1d a1 bf 22 83 1c 3f 51 a4 6b 3e
       -1.730962 -1.2587229 0.6113759 0.230119
000010 2a b9 85 3e
       0.2611783

q_gamma_params f4 [99]
000000 71 ab 72 40 1a 05 24 40 4f ba 06 c0 3e d6 56 40
       3.791714 2.5628114 -2.1051214 3.3568263
000010 aa 77 64 40 9d 55 7e 40 14 d6 67 40 c5 a4 6e 40
       3.5698037 3.9739754 3.6224413 3.7288067
000020 0a e0 6c 40 8e 85 6c 40 be a7 60 40 b6 bd 3d 40
       3.7011743 3.6956515 3.5102382 2.964704
000030 e0 0c 5b 40 53 66 14 40 93 b5 7f 40 22 12 69 40
       3.4226608 2.3187454 3.9954574 3.6417317
000040 9f 9f 5b 40 c8 12 60 40 c1 c1 d8 3f ab 24 66 40
       3.4316175 3.5011463 1.6934129 3.595988
000050 f4 25 00 40 7d 01 80 40 39 5a 3f 40 be 2b 55 40
       2.0023165 4.0001817 2.9898818 3.3307948
000060 9f 98 6f 40 a0 89 74 40 9f 86 e4 3e 1c 60 6f 40
       3.7436903 3.8209 0.44633958 3.740241
000070 26 a8 54 40 9f e0 0f 40 e8 f1 83 c0 fd 6e 7b 40
       3.322763 2.2480848 -4.1232796 3.9286492
000080 93 8b 3a 3f 19 94 54 40 5c 62 32 40 a2 fe 52 c0
       0.72869223 3.3215392 2.7872534 -3.2967916
000090 7a 79 09 40 d3 c5 3d 40 a2 78 3e 40 4f 41 73 40
       2.1480393 2.9651992 2.9761128 3.8008611
0000a0 5b fa 9f c0 1c 58 65 40 55 e6 80 40 a2 66 3f c0
       -4.999311 3.5835028 4.0281167 -2.9906392
0000b0 c2 89 80 40 cd 93 a6 c0 ce 06 84 40 e3 c7 73 40
       4.016816 -5.205542 4.1258307 3.809075
0000c0 1c 6e 88 40 13 3e 75 40 76 9a 46 40 6d 79 45 40
       4.263441 3.8319137 3.1031775 3.0855362
0000d0 6f 82 6e 40 c0 2d e8 bf 10 07 26 40 68 f2 1a 40
       3.726711 -1.8138962 2.594181 2.4210453
0000e0 fc 80 21 c0 b6 52 cb bf 7c ea 4d 40 83 ae 8d 40
       -2.5234976 -1.5884616 3.2174368 4.4275527
0000f0 48 a1 41 40 b0 98 18 40 1c 16 83 3f 7b eb 6f 40
       3.0254688 2.3843193 1.0241122 3.7487476
000100 00 c2 7f 40 c7 ec a4 3e 60 fd 6f 40 8f 9d 7c 40
       3.9962158 0.32211897 3.7498398 3.9471166
000110 e7 77 70 40 91 ad 57 40 d9 7c 82 40 df ec 67 40
       3.7573183 3.3699687 4.07774 3.6238325
000120 8a 46 7f 3f 80 8f 69 40 66 ab 85 40 1b fa 6e 40
       0.9971701 3.6493835 4.1771727 3.7340152
000130 1b ab 58 40 d6 29 84 40 d0 63 72 40 66 1d 7a 40
       3.3854434 4.130107 3.787342 3.9080443
000140 8a 47 93 c0 2e b3 79 40 40 8e 67 40 f9 7a da bf
       -4.602483 3.9015613 3.6180573 -1.7068778
000150 2a 24 75 40 67 ff 5f 40 b2 15 68 40 01 b1 7e 40
       3.8303323 3.4999635 3.6263242 3.9795535
000160 b1 77 76 40 32 ae 67 40 02 b2 5f 40 7c 77 7f 40
       3.8510554 3.620007 3.4952397 3.9916677
000170 4a 86 79 40 56 d1 7a 40 0b 43 2f 40 cc 3d 5b 40
       3.8988214 3.9190269 2.738467 3.4256468
000180 5b a2 30 40 29 f5 26 3f 7b 59 71 40
       2.7599094 0.65217835 3.7710865

q_probs f4 [99]
000000 56 5a 7a 3f f6 ae 6d 3f 2a 85 de 3d 86 61 77 3f
       0.9779409 0.92845094 0.10865243 0.96633184
000010 32 fd 78 3f cd 46 7b 3f d5 56 79 3f 93 fe 79 3f
       0.97261345 0.9815491 0.9739812 0.97654074
000020 3d d4 79 3f 36 cc 79 3f 09 92 78 3f dd 71 73 3f
       0.97589475 0.97577226 0.9709783 0.95095617
000030 35 e9 77 3f 3e 13 69 3f 05 60 7b 3f 81 76 79 3f
       0.9684022 0.91044986 0.9819339 0.9744645
000040 95 fb 77 3f 59 81 78 3f b2 3c 58 3f 34 2a 79 3f
       0.9686826 0.9707237 0.84467614 0.9733002
000050 c5 8b 61 3f fe 62 7b 3f 27 be 73 3f 4c 29 77 3f
       0.88103896 0.98197925 0.95212024 0.9654739
000060 fc 14 7a 3f 1d 83 7a 3f 69 24 1c 3f c8 0f 7a 3f
       0.9768827 0.97856313 0.6099306 0.9768033
000070 a7 17 77 3f ec 8e 67 3f 67 91 82 3c c4 0f 7b 3f
       0.96520466 0.90452456 0.015938474 0.9807093
000080 ce b4 2c 3f fd 14 77 3f 1c 26 71 3f 2f 2a 12 3d
       0.67463386 0.965164 0.94198775 0.03568476
000090 ae 42 65 3f 66 73 73 3f f1 94 73 3f 4f 67 7a 3f
       0.8955487 0.9509796 0.9514914 0.97813886
0000a0 be 9a db 3b eb 14 79 3f 69 85 7b 3f 9a 23 44 3d
       0.0067017963 0.97297543 0.9825044 0.047885515
0000b0 9b 78 7b 3f 84 e5 b2 3b 6e ee 7b 3f b0 72 7a 3f
       0.98230904 0.0054594893 0.9841069 0.9783125
0000c0 77 72 7c 3f 27 92 7a 3f ac ff 74 3f 20 d0 74 3f
       0.9861216 0.9787926 0.95702624 0.95630074
0000d0 9e fb 79 3f 69 a5 0f 3e ae 35 6e 3f d7 1e 6b 3f
       0.9764956 0.14027943 0.9305066 0.9184393
0000e0 e0 0b 98 3d 9b d4 2d 3e 41 24 76 3f 81 fa 7c 3f
       0.0742414 0.16975634 0.9614907 0.9881974
0000f0 a7 26 74 3f e0 66 6a 3f 6a 5f 3c 3f 58 1c 7a 3f
       0.9537148 0.91563225 0.7358309 0.976995
000100 e6 60 7b 3f 5b 78 14 3f f8 1d 7a 3f 4b 20 7b 3f
       0.9819473 0.5799615 0.9770198 0.9809615
000110 f7 28 7a 3f 51 7d 77 3f f7 bb 7b 3f 10 59 79 3f
       0.9771876 0.9667559 0.98333687 0.97401524
000120 af 08 3b 3f de 7b 79 3f c3 21 7c 3f 97 06 7a 3f
       0.73060125 0.9745463 0.98489016 0.97666305
000130 2b 9b 77 3f ca f2 7b 3f 38 54 7a 3f f9 f5 7a 3f
       0.9672114 0.9841734 0.9778476 0.98031574
000140 18 bd 22 3c c1 ed 7a 3f 68 4f 79 3f 2a 52 1d 3e
       0.009932779 0.98019034 0.9738679 0.15363374
000150 fb 8f 7a 3f f9 7e 78 3f 39 5d 79 3f 5d 4d 7b 3f
       0.97875947 0.97068745 0.9740787 0.9816492
000160 e7 ab 7a 3f ad 52 79 3f 3e 76 78 3f a0 5b 7b 3f
       0.9791855 0.9739178 0.97055423 0.98186684
000170 43 ea 7a 3f 5f 03 7b 3f ad 6f 70 3f 73 ef 77 3f
       0.98013705 0.9805202 0.93920404 0.96849746
000180 54 c3 70 3f 21 45 28 3f 02 3d 7a 3f
       0.9404805 0.6573048 0.9774934

gamma f4 [100]
000000 00 00 80 3f 00 00 80 3f 00 00 80 3f 00 00 00 00
       1.0 1.0 1.0 0.0
000010 00 00 80 3f 00 00 80 3f 00 00 80 3f 00 00 80 3f
       1.0 1.0 1.0 1.0
000020 00 00 80 3f 00 00 80 3f 00 00 80 3f 00 00 80 3f
       1.0 1.0 1.0 1.0
000030 00 00 80 3f 00 00 80 3f 00 00 80 3f 00 00 80 3f
       1.0 1.0 1.0 1.0
000040 00 00 80 3f 00 00 80 3f 00 00 80 3f 00 00 80 3f
       1.0 1.0 1.0 1.0
000050 00 00 80 3f 00 00 80 3f 00 00 80 3f 00 00 80 3f
       1.0 1.0 1.0 1.0
000060 00 00 80 3f 00 00 80 3f 00 00 80 3f 00 00 80 3f
       1.0 1.0 1.0 1.0
000070 00 00 80 3f 00 00 80 3f 00 00 80 3f 00 00 00 00
       1.0 1.0 1.0 0.0
000080 00 00 80 3f 00 00 80 3f 00 00 80 3f 00 00 80 3f
       1.0 1.0 1.0 1.0
000090 00 00 00 00 00 00 80 3f 00 00 80 3f 00 00 80 3f
       0.0 1.0 1.0 1.0
0000a0 00 00 80 3f 00 00 00 00 00 00 80 3f 00 00 80 3f
       1.0 0.0 1.0 1.0
0000b0 00 00 00 00 00 00 80 3f 00 00 00 00 00 00 80 3f
       0.0 1.0 0.0 1.0
0000c0 00 00 80 3f 00 00 80 3f 00 00 80 3f 00 00 80 3f
       1.0 1.0 1.0 1.0
0000d0 00 00 80 3f 00 00 80 3f 00 00 00 00 00 00 80 3f
       1.0 1.0 0.0 1.0
0000e0 00 00 80 3f 00 00 00 00 00 00 00 00 00 00 80 3f
       1.0 0.0 0.0 1.0
0000f0 00 00 80 3f 00 00 80 3f 00 00 80 3f 00 00 80 3f
       1.0 1.0 1.0 1.0
000100 00 00 80 3f 00 00 80 3f 00 00 00 00 00 00 80 3f
       1.0 1.0 0.0 1.0
000110 00 00 80 3f 00 00 80 3f 00 00 80 3f 00 00 80 3f
       1.0 1.0 1.0 1.0
000120 00 00 80 3f 00 00 80 3f 00 00 80 3f 00 00 80 3f
       1.0 1.0 1.0 1.0
000130 00 00 80 3f 00 00 80 3f 00 00 80 3f 00 00 80 3f
       1.0 1.0 1.0 1.0
000140 00 00 80 3f 00 00 00 00 00 00 80 3f 00 00 80 3f
       1.0 0.0 1.0 1.0
000150 00 00 00 00 00 00 80 3f 00 00 80 3f 00 00 80 3f
       0.0 1.0 1.0 1.0
000160 00 00 80 3f 00 00 80 3f 00 00 80 3f 00 00 80 3f
       1.0 1.0 1.0 1.0
000170 00 00 80 3f 00 00 80 3f 00 00 00 00 00 00 80 3f
       1.0 1.0 0.0 1.0
000180 00 00 80 3f 00 00 80 3f 00 00 00 00 00 00 80 3f
       1.0 1.0 0.0 1.0

KL_gamma_k f4 [99]
000000 00 31 7a 47 91 87 6d 47 c6 5d de 45 a4 38 77 47
       64049.0 60807.566 7115.7217 63288.64
000010 12 d4 78 47 54 1d 7b 47 a7 2d 79 47 4b d5 79 47
       63700.07 64285.33 63789.652 63957.293
000020 fc aa 79 47 f7 a2 79 47 f8 68 78 47 94 49 73 47
       63914.984 63906.965 63592.97 62281.58
000030 3e c0 77 47 90 ec 68 47 88 36 7b 47 4e 4d 79 47
       63424.242 59628.562 64310.53 63821.305
000040 9b d2 77 47 4b 58 78 47 a8 18 58 47 0c 01 79 47
       63442.605 63576.293 55320.656 63745.047
000050 44 66 61 47 81 39 7b 47 d2 95 73 47 72 00 77 47
       57702.266 64313.504 62357.82 63232.445
000060 b2 eb 79 47 c1 59 7a 47 07 0a 1c 47 7e e6 79 47
       63979.695 64089.754 39946.027 63974.492
000070 d0 ee 76 47 7a 68 67 47 48 79 82 44 54 e6 7a 47
       63214.812 59240.477 1043.79 64230.33
000080 bb 97 2c 47 26 ec 76 47 2e fe 70 47 a6 0f 12 45
       44183.73 63212.15 61694.18 2336.978
000090 98 1c 65 47 1d 4b 73 47 a2 6c 73 47 f8 3d 7a 47
       58652.594 62283.113 62316.633 64061.97
0000a0 6e 71 db 43 c7 eb 78 47 e7 5b 7b 47 3a 00 44 45
       438.88617 63723.777 64347.902 3136.0142
0000b0 1b 4f 7b 47 b8 c3 b2 43 dd c4 7b 47 57 49 7a 47
       64335.105 357.52905 64452.863 64073.34
0000c0 d2 48 7c 47 ca 68 7a 47 26 d7 74 47 a2 a7 74 47
       64584.82 64104.79 62679.15 62631.633
0000d0 57 d2 79 47 22 8c 0f 46 34 0e 6e 47 d7 f7 6a 47
       63954.34 9187.033 60942.203 60151.84
0000e0 b9 f0 97 45 29 b6 2d 46 8f fb 75 47 c8 d0 7c 47
       4862.0903 11117.54 62971.56 64720.78
0000f0 43 fe 73 47 fc 3f 6a 47 d1 3f 3c 47 0c f3 79 47
       62462.26 59967.984 48191.816 63987.047
000100 69 37 7b 47 3a 5f 14 47 ac f4 79 47 d9 f6 7a 47
       64311.41 37983.227 63988.67 64246.848
000110 a9 ff 79 47 6a 54 77 47 6e 92 7b 47 e2 2f 79 47
       63999.66 63316.414 64402.43 63791.883
000120 4e e9 3a 47 aa 52 79 47 2a f8 7b 47 4f dd 79 47
       47849.305 63826.664 64504.164 63965.31
000130 3f 72 77 47 38 c9 7b 47 e3 2a 7a 47 8d cc 7a 47
       63346.246 64457.22 64042.887 64204.55
000140 bb 9e 22 44 56 c4 7a 47 3b 26 79 47 8a 36 1d 46
       650.48016 64196.336 63782.23 10061.635
000150 9e 66 7a 47 ec 55 78 47 0a 34 79 47 e3 23 7b 47
       64102.617 63573.92 63796.04 64291.887
000160 86 82 7a 47 80 29 79 47 31 4d 78 47 24 32 7b 47
       64130.523 63785.5 63565.19 64306.14
000170 d8 c0 7a 47 f0 d9 7a 47 da 47 70 47 7b c6 77 47
       64192.844 64217.938 61511.85 63430.48
000180 74 9b 70 47 c7 28 28 47 b1 13 7a 47
       61595.453 43048.777 64019.69

weight f4 [10, 58]
000000 fc b0 47 3e 40 01 79 bd 20 96 02 3e d5 26 7c 3e
       0.19501108 -0.060792208 0.1275258 0.24624188
000010 a9 19 89 bd ab 16 31 3e 46 03 83 3e ce 9d 84 be
       -0.066943474 0.17293803 0.25588435 -0.25901645
000020 03 05 a3 3d 47 36 de 3d 91 76 50 be b6 ff 88 3e
       0.0795994 0.10850196 -0.2035773 0.26757592
000030 71 b8 96 3d ef 6a 9d 3d 9c 3f 64 3d 68 a3 32 3d
       0.07359398 0.076864116 0.055724725 0.043612868
000040 b3 2a 84 3d 38 31 54 3e 40 d8 df 3c 5d 8d 85 bd
       0.06453457 0.207219 0.027324796 -0.065211035
000050 1f 43 04 be 9e 3a c1 3d e8 c3 35 3e d1 4c 6c be
       -0.1291623 0.094350085 0.17750514 -0.23076178
000060 ab 98 7e 3d f0 5d aa 3d 92 6c 6b 3e 7d fc 47 3e
       0.062157314 0.083186984 0.22990635 0.1952991
000070 72 be cd 3d 2f 3d 1d 3e 02 ae 68 3e c0 b7 6e 3e
       0.1004609 0.15355371 0.22722629 0.23312283
000080 c1 99 d4 3d 30 ba eb bd 41 19 70 3e 8d cd e6 3b
       0.10380889 -0.11510122 0.23447134 0.0070435465
000090 c0 dd 9c bc 06 f0 87 39 f3 3b 78 be 8e 81 41 be
       -0.019148707 0.00025928038 -0.24241619 -0.18897077
0000a0 5e f7 55 3e ed 45 41 3e ee 3c 55 be 21 50 1b 3e
       0.20895144 0.18874331 -0.20824024 0.15167286
0000b0 d5 6d 61 3e f3 8c 01 be 64 29 2b 3e 60 5c bb bc
       0.22014554 -0.12651424 0.16715008 -0.022871196
0000c0 83 41 6a 3e 74 40 80 3e b5 bd 19 3d 75 11 05 be
       0.22876553 0.25049174 0.037534434 -0.1299494
0000d0 f5 7f bc 3d 14 e1 1e 3d de d6 5f bd 54 c3 7f 3e
       0.09204093 0.03878887 -0.054648273 0.24976856
0000e0 df 02 c5 3d e6 90 c5 3c c1 43 80 3c fe 3b 94 bd
       0.09619688 0.024116945 0.015657308 -0.07238005
0000f0 b0 7c f5 bd cf 4b f6 3d 32 d3 a6 3d e1 9b 06 be
       -0.11986673 0.12026178 0.08145751 -0.131454
000100 e5 77 00 3d 20 25 e2 bc 72 a0 b0 bc 6c 96 5c bd
       0.03136434 -0.027605593 -0.021560881 -0.05385439
000110 f2 0f 62 3d 6c 5f a4 bd 69 71 48 3d 74 73 95 3d
       0.055190988 -0.08026013 0.04893628 0.072974116
000120 d1 7e ce 3d 9e 82 39 3d ae ad fe bd b1 c3 9f bd
       0.10082782 0.045290582 -0.124354705 -0.07800997
000130 66 10 67 bb 0c d3 b3 3c e5 f9 ee bd 7a 8a 9b bd
       -0.0035257577 0.02195122 -0.11668757 -0.07594772
000140 ee 02 0a 3e f9 9d a7 3d 88 82 69 bd b4 88 d3 bc
       0.1347768 0.08184428 -0.05700925 -0.025822021
000150 31 c0 f8 bd 26 17 d1 3b ee fb c7 bd 14 9d cf bd
       -0.121460326 0.0063809333 -0.09764849 -0.10137382
000160 ea 2d b5 ba f3 54 c2 3c 16 32 17 bd 65 c5 92 3d
       -0.0013822888 0.023722148 -0.036913 0.07166556
000170 08 24 a1 bd 93 94 35 3e 82 51 86 3d 76 2f d5 bd
       -0.078682005 0.17732458 0.06558515 -0.10409443
000180 1a f7 07 bd cb 5e 45 bc 5d 9e ad 3c c7 1d 24 3d
       -0.03319464 -0.012046526 0.021193678 0.04006746
000190 c7 b0 22 3d 9d a9 15 3d eb 21 80 bd 08 96 56 3d
       0.03971937 0.03653871 -0.06256469 0.052389175
0001a0 cf c5 01 be 41 14 9f bd cf cc fd bc b1 0a 75 bd
       -0.12673114 -0.07767535 -0.03098145 -0.05982465
0001b0 5a e8 39 bd 3f 79 01 be 82 31 49 bc 67 e6 b9 3d
       -0.045387603 -0.12643908 -0.01227987 0.09077149
0001c0 62 e1 aa bd 8a 6d de ba 7f 6c 01 3e f6 28 b0 3c
       -0.083437696 -0.0016969901 0.12639044 0.021503907
0001d0 9d 9c 3c 3e 62 67 49 be b1 26 53 3e 48 3b 84 3e
       0.18419118 -0.19668344 0.20620228 0.25826478
0001e0 4e b3 d7 bc 44 ab 8d 3e 82 4f 8f 3e 0e 17 3d be
       -0.026330616 0.27669728 0.27990347 -0.18465826
0001f0 67 68 b5 3d 8c eb eb 3d 7c de fc bd f6 fc 4c 3e
       0.08857804 0.115195364 -0.12347123 0.20018372
000200 49 00 04 3e 72 40 90 3d a8 e7 85 3d 45 2d c1 3d
       0.12890734 0.07043542 0.065383255 0.094324626
000210 4c d9 ef 3d df f4 2e 3e f2 83 11 3b 3a 31 23 be
       0.11711368 0.17085598 0.002220389 -0.15936747
000220 f7 aa c8 bd a4 a6 cf 3d 21 8a 25 3e 12 c9 47 be
       -0.09798234 0.10139206 0.16165973 -0.19510296
000230 7e ab 24 3e 74 c7 16 3e 2b 74 9c 3d 4d e8 99 3d
       0.16081044 0.14724523 0.07639345 0.07515011
000240 64 81 2d 3e 2f c7 48 3e c3 7c 00 3e cf e4 3b 3e
       0.1694389 0.19607233 0.12547593 0.18349002
000250 18 3d 31 3d 79 e0 26 be 52 cf 91 3e c9 fc 3d 3d
       0.043271154 -0.16296567 0.28478485 0.046383653
000260 d6 e9 50 bb 51 5a 73 3d 91 2f 91 be de 8e b6 bd
       -0.0031877658 0.059412304 -0.28356603 -0.089139685
000270 c7 0c 34 3e e6 b8 fd 3d 01 78 b7 bd 91 cd 9b 3d
       0.17582999 0.12388782 -0.08958436 0.07607568
000280 c8 75 47 3e 3d 11 18 be a7 e6 91 3e 0f 80 82 3b
       0.19478524 -0.14850326 0.28496286 0.003982551
000290 0e 16 70 3e bd 63 65 3e 96 72 ef 3d 65 29 0e be
       0.23445913 0.22401328 0.116917774 -0.13882978
0002a0 71 94 10 3d d7 f7 17 3d 1e 09 dc bd 6c 62 7b 3e
       0.035297815 0.037101593 -0.107439265 0.24549264
0002b0 c2 9f 5c 3d 55 98 8a 3d eb f1 b3 bd db 53 a8 bd
       0.053863294 0.06767336 -0.087863766 -0.08219119
0002c0 b1 9f 90 bd 4a cf 5c 3d b4 c5 12 be 3a 9f 16 3b
       -0.07061709 0.053908624 -0.1433323 0.002298309
0002d0 8f 97 76 3c 18 f9 a9 3d f7 0c c8 bd e0 67 b1 bd
       0.015050783 0.08299464 -0.09768098 -0.08662391
0002e0 ff f0 ad bd aa 52 cb 3d bb e4 2e bd 01 b0 0c 3e
       -0.08493232 0.09927876 -0.042698603 0.13739015
0002f0 3c 6e 85 3d a2 12 b7 3c b7 db 4f 3c 17 43 83 bc
       0.06515166 0.022347752 0.012686661 -0.016023202
000300 11 e0 3e bd 5a f8 68 bd 8e c8 0c bc 06 97 b6 3c
       -0.046600405 -0.05687747 -0.008592738 0.02228881
000310 f2 d3 d3 bd 30 14 be bd 1d 15 ed 3d 9e 0a d2 bd
       -0.1034316 -0.09281194 0.11576293 -0.10255931
000320 9a 89 52 ba ad d5 1d 3e 0d 45 65 3d 6d be 0d 3c
       -0.00080313685 0.15413542 0.055974055 0.008651358
000330 b2 18 e0 bd 2a fd ae 3d aa 0a a9 bd 94 33 6e bd
       -0.1094221 0.08544381 -0.08253987 -0.058154657
000340 f3 58 17 bd 96 76 7b 3b 2f 46 b0 bc 4f 9d 3a 3e
       -0.036950063 0.0038370243 -0.021517841 0.18224071
000350 3e f4 85 3c 49 b7 ea 3d 74 d5 b5 3d 68 6f a4 bd
       0.016351815 0.1146074 0.088786036 -0.080290616
000360 27 1b 60 3d b2 d9 be bd df 81 54 bd 2a 58 bc 3c
       0.054713394 -0.09318866 -0.051881667 0.022991259
000370 de 5c 4f 3d 97 54 c3 3d d2 48 13 bd 16 77 ff 3b
       0.050625674 0.095376186 -0.03595812 0.0077961786
000380 ca ab c0 3d 59 21 27 be 75 95 10 3e 52 de f1 bd
       0.09407766 -0.16321315 0.14119513 -0.11809982
000390 59 d1 42 ba d8 bf 7e bc d9 a1 59 bd d0 e1 66 3d
       -0.0007431708 -0.015548669 -0.053132866 0.056367695
0003a0 53 45 66 3e f1 a2 23 be 6e 1e 3f 3d c6 6f 99 3d
       0.22487383 -0.15980126 0.04665988 0.07492022
0003b0 bf 56 07 be 74 49 3c 3e 86 58 82 3d 3b 1b 4f be
       -0.13216685 0.18387395 0.06364541 -0.20225231
0003c0 7c e2 4a 3d 21 ec 3b 3e 48 de 75 bd 7f 35 60 3e
       0.0495324 0.18351795 -0.060026437 0.21895407
0003d0 b6 96 31 3e 18 54 2e 3d 87 fd 82 3d f5 af 19 3e
       0.17342648 0.042560667 0.06396013 0.15008529
0003e0 22 c5 36 3e a5 fc 16 3e 01 95 a6 3b 33 8b 06 be
       0.17848638 0.14744814 0.0050836806 -0.13139038
0003f0 f6 82 5e be d0 f6 1d 3e e3 9d 51 3d 0b bf 5e be
       -0.21729645 0.15426183 0.051175963 -0.21752565

bias f4 [10]
000000 2c 83 95 be 53 bc 29 bd ef 20 a7 be 95 aa 02 3e
       -0.2920164 -0.041439366 -0.32642314 0.12760384
000010 31 ce 44 be eb 76 79 be fc 81 e4 bd 8c 19 22 be
       -0.19219281 -0.2436177 -0.11157605 -0.15830058
000020 10 94 40 be e4 49 40 be
       -0.18806481 -0.18778187

weight f4 [10, 10]
000000 37 3a e9 bd 29 63 ce be f4 89 1f 3e d6 3a c9 be
       -0.11388057 -0.40310028 0.15579969 -0.393027
000010 7a 85 5c bd a8 2a 0b 3e ac 0f b9 3c a1 2e 7e bd
       -0.05383823 0.13590491 0.02259048 -0.062056188
000020 49 08 cd 3d dc 2d 65 bd a1 8b 4c be 78 5e 5c 3e
       0.10011346 -0.055951938 -0.19975139 0.21520412
000030 fa 18 6d 3d a5 f1 ae be 05 6a c3 bd d7 72 82 be
       0.057885148 -0.34168735 -0.09541706 -0.2547824
000040 c5 60 78 3e 50 d1 20 be ba 60 91 be 41 af c8 bd
       0.24255665 -0.15704846 -0.2839411 -0.09799052
000050 1e 80 ec 3d 73 52 01 be 5f fc 53 3c 6c 2e 85 be
       0.11547874 -0.12629108 0.012938588 -0.2601198
000060 ca 89 07 bc e2 c3 5a be cd 2e 7f be 13 93 f3 be
       -0.008272598 -0.21363786 -0.24920197 -0.47573146
000070 74 ca b9 be c0 93 2b 3b 1d 9c b6 bd 75 61 30 3e
       -0.36287272 0.0026180595 -0.08916495 0.17224677
000080 3e 4e 58 3e 82 43 5e 3e a0 2e 0b bd af 85 da 3e
       0.21123597 0.2170544 -0.033980012 0.42680117
000090 d0 80 64 bd bc 34 a8 3e a5 dd 90 bd 51 c9 9c 3b
       -0.055786908 0.32852733 -0.07073525 0.004784741
0000a0 89 74 46 3d 97 98 d7 be 9f 71 41 3e c4 86 da be
       0.04845098 -0.42108604 0.18891 -0.42680943
0000b0 a5 4e be be b6 54 84 be c7 d8 83 bd c7 29 d3 3d
       -0.37169376 -0.2584588 -0.06437831 0.10310703
0000c0 28 9c 7b be a4 45 fc bc d9 4d 6c bd e6 a3 4c 3d
       -0.24571288 -0.030794926 -0.05769143 0.049960993
0000d0 0a a4 43 3e c6 fa b4 be c4 56 3d bd d3 e2 7c 3e
       0.19105545 -0.35347575 -0.046225324 0.24695902
0000e0 60 20 b1 bd 53 24 91 3e f1 df 40 be 1e 1b 8b 3e
       -0.08648753 0.28348026 -0.18835427 0.27169126
0000f0 74 a8 79 be 3f 29 b8 3d b8 d2 85 bd ef b3 60 3d
       -0.24380666 0.08992242 -0.06534332 0.054859098
000100 1a 36 bb 3d c3 fe 74 3e 86 10 3c bd 6c 1c 91 3d
       0.091411784 0.23925309 -0.045914195 0.07085499
000110 fe ce 2c 3e 7e ba eb bc e9 be 33 3e 24 69 ca be
       0.16875836 -0.02877545 0.17553295 -0.3953334
000120 eb a0 9b bd d0 0b da bd 60 34 b7 3d 1a 48 14 3e
       -0.07599052 -0.10646784 0.089455366 0.1448063
000130 94 ad f6 bd 8f a3 d1 be ff db f6 3d 63 bd 8f bc
       -0.12044826 -0.40945098 0.1205368 -0.017546361
000140 cf 93 4d 3e fd 04 27 bd 4b d1 56 3e b9 ba 88 3e
       0.20075916 -0.04077624 0.20978276 0.26704958
000150 d3 19 88 3c eb 49 91 be 71 f8 74 3e 72 53 15 be
       0.016613876 -0.28376707 0.23922898 -0.14582613
000160 d3 b8 42 3d 55 f4 e9 3d ba 17 17 3d a3 b9 a6 3e
       0.047539543 0.11423556 0.03688786 0.32563505
000170 66 d6 d3 bd 0d 7b b5 3e 9e a8 51 3d 44 1d 2d 3e
       -0.10343628 0.35445443 0.051186197 0.16905695
000180 55 86 7c 3e 8a b9 d9 3e e1 a2 df 3d 5a 48 bc 3e
       0.24660619 0.42524368 0.109197386 0.3677395

bias f4 [10]
000000 2e dd 5c be 98 cf 5f be ba be f1 be a6 c3 01 be
       -0.21568748 -0.21856534 -0.47215825 -0.1267229
000010 f3 7f bb 3d cb da e2 bd 61 30 38 3d d3 e7 56 bd
       0.09155264 -0.11076888 0.044968013 -0.05246718
000020 bf bc 84 3e e3 b6 08 3f
       0.25925252 0.53404063

weight f4 [1, 10]
000000 b2 cd 5c 3e 86 3c 95 bd 90 18 66 3c 9e 3f 6c bd
       0.21562842 -0.072869346 0.014043942 -0.057677858
000010 b3 13 9f bd bd 9c 88 3d 5f e7 6d 3e 85 aa 27 be
       -0.07767429 0.066705205 0.23232792 -0.16373642
000020 35 bc 04 3e 20 d7 5f bd
       0.1296242 -0.05464852

weight f4 [1, 10]
000000 c4 39 4d 3d fd d5 10 bf f7 b1 bf be 3e 5e 61 bf
       0.050103918 -0.5657652 -0.37440464 -0.8803443
000010 63 03 05 bd 0d 82 d3 be cc dd 25 bf d7 09 75 be
       -0.032473933 -0.41310158 -0.6479156 -0.23929535
000020 8b 00 21 bf f3 4c 74 bf
       -0.62891454 -0.95429915

prior_mean f8 []
000000 16 af c4 eb 91 66 12 c0
       -4.600166019324908

weight f4 [50, 58]
000000 2b 4d bc 3e 8d ab 9e bd df 97 a8 3e 07 87 4f 3e
       0.36777624 -0.077475645 0.32928368 0.20266353
000010 9e 9a 76 be a0 0e 20 3e 79 f8 96 3e cd 22 cc be
       -0.2408242 0.15630579 0.29486445 -0.398703
000020 fb ef c2 3d 69 65 7a 3e 0a 5a ad bd 1f 6e e4 3e
       0.09518429 0.24452747 -0.08464439 0.44615266
000030 2e 84 4a 3e 20 ce b4 3d ed 1f b2 bd fe 42 a8 3d
       0.19776985 0.08828378 -0.086974956 0.08215903
000040 0e 6a e9 bb 84 7a 19 3e 1b f4 c0 bd 48 b2 42 3e
       -0.0071232384 0.14988142 -0.094215594 0.19013321
000050 d8 74 5f be 9b bf 06 3f de d6 02 3e c1 92 a9 be
       -0.21821916 0.52636117 0.12777278 -0.33119777
000060 7c 63 aa 3e 8d 63 9c 3e 85 96 62 3e 47 21 2b be
       0.33279026 0.305447 0.22127731 -0.16711913
000070 0c 07 9c 3e d3 bd ce 3d 28 8a af 3e 35 32 00 3e
       0.30474126 0.100948 0.34285092 0.12519152
000080 54 e6 0d 3e b0 a0 95 be a1 56 1f 3f fb f2 4e be
       0.13857394 -0.29224157 0.6224156 -0.20209877
000090 9a f6 50 3d 3a 1e ad 3d 21 3b b7 be 34 7a 64 bd
       0.051016428 0.08453031 -0.357873 -0.055780604
0000a0 16 fe 79 3e 2c a5 71 3e 11 a2 2a be aa 66 8d 3d
       0.24413332 0.23598164 -0.16663386 0.06904347
0000b0 41 1f 74 3e 40 80 50 be 67 4c 4a 3e c6 98 ac bd
       0.23840047 -0.20361423 0.19755708 -0.08427577
0000c0 c1 8c ae 3e d9 b7 49 3e 1f 20 26 3e 91 fd 5a be
       0.34091762 0.19699039 0.1622319 -0.2138579
0000d0 4b e9 95 bd b8 9d 37 3e e1 3d 83 be 4a 77 e8 3d
       -0.07319888 0.17931259 -0.25633147 0.113508776
0000e0 96 02 63 3d 18 47 a3 3b 44 61 ee bc 8c a9 42 bf
       0.055422388 0.0049828403 -0.029099114 -0.7603996
0000f0 d7 fb d1 3d 2a e5 f9 3c bb 2f d9 be 25 fa 8e 3e
       0.10253113 0.030504782 -0.42419228 0.2792522
000100 0a 0f 35 3e ae ba e9 be b3 b3 16 3e 0b 1c 11 3f
       0.17681518 -0.45650238 0.14716987 0.56683415
000110 7b 60 76 be cf be 2c 3e 6e 57 f8 3d 7f c0 16 be
       -0.24060242 0.16869663 0.12126051 -0.14721869
000120 03 65 ae be 64 b4 19 be d5 af 9d bd ca 58 d0 bc
       -0.3406144 -0.1501022 -0.07699553 -0.025432963
000130 7e a9 a8 be 5b 22 ac bc 01 c2 57 3d 68 3d 19 3d
       -0.32941812 -0.021012476 0.05267525 0.037412077
000140 7a f8 14 3f cb 13 9c 3d fc 9c ed 3d 6f 90 cc 3d
       0.58191645 0.07620963 0.11602208 0.09988486
000150 fe 8b 81 3e d2 fa c3 3e a7 7e 27 3f d6 11 39 3e
       0.25302118 0.38277298 0.6542763 0.1807321
000160 54 f7 81 3d 79 c7 5e 3c 49 15 7f 3e 36 b9 04 bf
       0.06346002 0.013597363 0.24910463 -0.5184511
000170 2e 35 f2 bd 37 af ba 3d 73 d4 a4 be 9f 2d ad 3e
       -0.118265495 0.09115451 -0.32193336 0.3382387
000180 0e c8 0e be 2e be 5b 3d 9d 46 85 3e cf c2 31 3d
       -0.13943502 0.053648166 0.26030436 0.043398675
000190 31 75 8c be e6 d6 12 3f 8a eb 14 bc e6 27 79 be
       -0.2743316 0.5735916 -0.00908936 -0.24331626
0001a0 e2 22 c7 bd 0b fa 46 be 48 e1 b4 3e 12 0f b7 3e
       -0.0972345 -0.19431321 0.35328126 0.35753685
0001b0 ae 8e 56 3f 67 97 4f be f4 82 f5 3d f9 41 9a 3d
       0.8381146 -0.20272599 0.11987868 0.075321145
0001c0 77 49 8d 3e 13 46 c0 3e cd 07 b1 be 1a b5 76 be
       0.27595112 0.37553462 -0.34576264 -0.24092522
0001d0 1c d2 59 3e a8 ff c3 be 95 60 55 bd 43 59 92 3e
       0.21271557 -0.38280988 -0.05209406 0.28583726
0001e0 a1 d8 42 be 79 ad ab 3e a5 57 bf 3e 2a f6 9c be
       -0.1902795 0.33530787 0.37371555 -0.30656558
0001f0 80 5d 97 3e db f8 9e 3d bf ac 60 be e3 a0 b4 3e
       0.29563522 0.07762309 -0.21940897 0.35278997
000200 71 ec 6f 3e 1f a8 de 3d 74 e8 fc bd 23 c7 77 3d
       0.23430039 0.1087191 -0.123490244 0.060492646
000210 c0 ef 0c 3e 0e 9b 1a 3e 7f 32 b9 bd ff f4 fc 3a
       0.13763332 0.15098211 -0.090428345 0.0019299089
000220 06 6e 75 be b0 9b 89 3e 68 1d 81 3e b2 d3 a4 be
       -0.23967752 0.26876593 0.25217748 -0.3219276
000230 17 5c a7 3d 7b c7 ac 3e 52 69 c1 3e 24 c8 30 3d
       0.081718616 0.33745942 0.37775666 0.04315962
000240 c4 28 b6 3e 05 2a 55 3e 87 58 19 3e f3 49 a6 3e
       0.35577977 0.2081681 0.14975177 0.32478294
000250 dd 03 7c 3e 8a e4 51 be bd 61 81 3e 76 41 e9 3c
       0.24610849 -0.20497337 0.2526988 0.028473597
000260 01 a0 39 3e d4 6f 97 3e f8 6b a9 be f8 5b 54 be
       0.18127443 0.29577506 -0.33090186 -0.20738208
000270 f7 d2 be 3e d3 ea aa 3e 47 c6 20 bd 8e aa 5f 3e
       0.37270328 0.33382282 -0.039251592 0.21842405
000280 f4 36 bb 3e d8 e6 9c bd 5d 4d 9e 3e cb 4d 19 3e
       0.36565363 -0.076612175 0.30918398 0.14971082
000290 34 4e 7b 3e c5 98 98 3e e2 a5 58 3e da 10 94 be
       0.24541551 0.29804054 0.2115703 -0.28919107
0002a0 95 c7 d4 bc c4 9a b9 3e 25 e1 cd bd ea 89 f9 3e
       -0.025974074 0.3625089 -0.100527085 0.48738033
0002b0 8a fa c9 bc 7a db dc bd b8 c0 50 3d 76 35 14 bf
       -0.0246556 -0.10784049 0.05096504 -0.57894075
0002c0 a9 0d 4c bd e8 d6 a8 bc 57 d2 6a be b9 57 27 3e
       -0.049817715 -0.020610288 -0.22931801 0.16342057
0002d0 c4 ed dd bd 18 91 c3 3d f2 46 e0 3e aa aa 73 be
       -0.10836366 0.09549159 0.43804127 -0.23795572
0002e0 d8 d8 25 be 42 3d 83 3c b6 84 37 3f 59 c3 4b 3e
       -0.16196 0.016020421 0.71686876 0.19898738
0002f0 1e 3b 60 3f a8 16 cc 3e 83 a5 a9 be d9 9d e5 3e
       0.87590206 0.39861035 -0.33134088 0.4484699
000300 bd 24 93 3e aa 3e 3d be 5c ef 1c 3e 72 0f c1 bc
       0.28738967 -0.18480936 0.15325683 -0.023566935
000310 58 21 cf bd 85 28 15 be 50 7a 02 3d fa a7 0a be
       -0.10113782 -0.14566238 0.031854928 -0.1354064
000320 91 93 0e bd 48 28 5f be 73 88 17 bd 9f 72 cd 3d
       -0.0348087 -0.2179271 -0.036995362 0.10031628
000330 7e 51 b1 3e 56 8f 9e bd 51 06 9b bd 8e 5d 29 3d
       0.34632486 -0.07742183 -0.07569564 0.041348986
000340 42 07 d6 3d a3 b0 09 3f 95 10 b2 be 15 b9 9e be
       0.10450603 0.5378515 -0.34778276 -0.3100058
000350 41 37 0b 3e 90 ac 2e 3e eb 88 01 3e eb d7 05 3f
       0.13595296 0.17058015 0.12649886 0.5228259
000360 01 87 bb bc af a7 a6 3d 28 37 1e 3d 1b e6 ab bd
       -0.022891523 0.08137452 0.03862682 -0.083934985
000370 3b f8 a2 3e 4a a2 a7 3d a8 33 4b 3d bd d1 fb bc
       0.3183001 0.08185251 0.04960981 -0.03073966
000380 22 0d 66 be 6c 88 a4 3e 33 5c 51 be 86 b7 3c be
       -0.22465947 0.32135332 -0.20445327 -0.18429384
000390 be 94 06 bf ae 9f 79 3d 4c df 30 3e ab 17 d5 be
       -0.5257071 0.060943298 0.17272681 -0.4161962
0003a0 7b 54 0a 3e 51 53 62 bd 2b 8d 05 3f e2 2b 1e 3e
       0.13508789 -0.055255238 0.5216853 0.15446427
0003b0 dd 48 ae be 4e 30 89 3e 2c 92 2f 3e 50 97 19 bf
       -0.34039965 0.26794666 0.17145604 -0.5999651
0003c0 95 6b 9d 3e 5e 6a 31 3e ca 31 4f bd 01 44 a3 3d
       0.3074614 0.17325732 -0.050584592 0.07971955
0003d0 68 0a bf 3d 8f 5f 09 3e de 47 4b bc eb 76 93 3e
       0.09328157 0.13415359 -0.012407271 0.28801665
0003e0 bb e4 80 3e c4 06 93 3e b8 3f 5d 3d 89 fe 56 be
       0.25174507 0.287161 0.054015845 -0.20995535
0003f0 63 15 25 3d 6b d2 82 3e 84 03 61 3c 27 e1 b1 be
       0.0403036 0.2555116 0.013733748 -0.3474209

bias f4 [50]
000000 5d 23 94 be ee 51 01 be 42 60 48 be 31 ef 13 be
       -0.2893323 -0.1262891 -0.1956797 -0.14446713
000010 5f b4 f9 bc 46 09 86 be f6 04 f6 bc b1 16 12 3e
       -0.030481515 -0.2617895 -0.030031662 0.14266469
000020 d6 88 70 bd cf cb 8b be 70 76 bb bd e4 09 54 3d
       -0.058724247 -0.2730393 -0.091534495 0.051767245
000030 16 35 b5 be b2 f8 85 be dd 95 a5 bd 62 6a 4f be
       -0.35392064 -0.26166302 -0.08085225 -0.20255426
000040 15 dd 42 be 6d 84 9f bd ee 4b ff bc 2d bd 0a be
       -0.19029649 -0.0778893 -0.031164136 -0.13548727
000050 85 4b c6 be 3d 94 a7 3d ea c8 86 be 29 76 13 be
       -0.38729492 0.08182571 -0.2632516 -0.14400543
000060 a3 bf 1e 3d 47 89 08 be 7e 4d 6f be 16 f8 68 bd
       0.038756978 -0.13333617 -0.23369405 -0.05687722
000070 6d 71 15 bd 08 18 9b be ee 19 54 be af 0c 3b 3e
       -0.036485124 -0.30291772 -0.20713016 0.18266557
000080 31 05 8e be db a3 69 bd 0d 86 53 be 1b bc 55 be
       -0.27738336 -0.05704103 -0.20656605 -0.20872538
000090 74 62 88 3e b1 ff 78 be e7 6f 93 3c 8a fc dc bd
       0.26637614 -0.24316289 0.017997695 -0.107903555
0000a0 26 a3 60 be b5 fc 54 be 4f cc a5 bc 88 f0 68 be
       -0.21937236 -0.20799525 -0.020239023 -0.22748005
0000b0 1c 93 88 3d 21 c7 22 be 1b 89 c5 bc 2b c0 ff 3b
       0.06668684 -0.15896274 -0.024113229 0.0078048906
0000c0 d5 7d 18 be bc 94 88 bd
       -0.14891751 -0.06668994

weight f4 [50, 50]
000000 52 0d 3b bd b9 bf 19 be 98 99 46 be b2 1a 3c bd
       -0.045667 -0.15014543 -0.19394529 -0.045923896
000010 00 29 a3 bd 9b a5 71 be 95 c2 bf be 26 21 97 be
       -0.079668045 -0.2359833 -0.37453142 -0.29517478
000020 51 f1 91 be fa 60 9b be 8a ff 14 be c3 37 b4 be
       -0.28504422 -0.30347425 -0.14550605 -0.35198793
000030 68 22 9f 3c f5 8c e7 bd 81 33 ee bd 75 0a 06 3c
       0.019425586 -0.11306182 -0.11630917 0.008181204
000040 4f f9 3c be 47 69 4c 3d 60 e4 bb bd 02 43 b5 bd
       -0.18454479 0.049905088 -0.091744184 -0.08850671
000050 15 47 86 bc f6 21 91 be 9d 4d 98 bd c5 80 d7 bd
       -0.016391316 -0.28346223 -0.074366786 -0.10522608
000060 c4 ce 43 be c3 11 26 3d 4f c1 bf be f1 60 bd be
       -0.19121844 0.040544283 -0.3745217 -0.36988023
000070 b9 18 80 3d be 80 16 3c 64 e0 d3 bd 93 bd 23 be
       0.062547155 0.009185968 -0.103455335 -0.15990286
000080 4e 00 95 be 5a 73 e2 be 25 40 2f be 61 b1 8b 3c
       -0.29101795 -0.4422863 -0.17114313 0.017052354
000090 75 ad 08 bd 08 32 d5 bd da 28 f0 bd 87 e3 2e be
       -0.033368547 -0.10409933 -0.11726542 -0.17078982
0000a0 0e 61 19 be d9 97 6e be 6c f3 01 be c5 91 5b be
       -0.1497843 -0.23300113 -0.12690514 -0.21442325
0000b0 2e 1b b5 bd ca 82 03 bd fc 9f 43 3d 68 16 0e be
       -0.08843075 -0.032107152 0.047759995 -0.13875735
0000c0 89 c4 e8 bc c1 79 50 bd ee 2f 89 bc 68 a4 0e be
       -0.028414028 -0.050897364 -0.016746487 -0.13929904
0000d0 07 24 02 be bc 7e db be d5 6d 83 3d 3d 4e ad be
       -0.12709056 -0.42870128 0.06417433 -0.33848754
0000e0 7c 4b c7 3d 59 b8 95 be 4c df 21 be 0f 09 ea bd
       0.097311944 -0.2924221 -0.15807837 -0.11427509
0000f0 92 5e 81 be e3 8f cd be 79 41 2f be 15 0a 91 3c
       -0.25267464 -0.4014884 -0.1711482 0.017705003
000100 b7 7f 32 be a8 49 34 be 2e 74 cc bd 6c d4 ff bd
       -0.17431532 -0.17606223 -0.09983097 -0.12491688
000110 c9 33 0c be 38 27 7e 3d 81 9e c9 bd 9f 6e 7d be
       -0.1369163 0.06204912 -0.09844685 -0.2474923
000120 c9 8e 4f bc e8 fa 1e be b4 c5 d0 3d a2 b9 80 bd
       -0.01266832 -0.155254 0.10193959 -0.06285407
000130 fa b0 f6 bc d6 55 1c bf 2c 24 5b be 8f a8 6c be
       -0.030113686 -0.61068475 -0.21400517 -0.23111175
000140 c1 d6 c9 be f0 3e 5d 3c 81 44 c3 bd b3 b2 62 b9
       -0.39421657 0.013503775 -0.095345505 -0.0002161961
000150 df 00 87 be 26 78 b6 bd 4c 11 8c 3e f3 97 59 be
       -0.26367852 -0.08909635 0.27356946 -0.2124937
000160 6a b4 10 bf c3 e4 95 be 9f 34 28 be 2c e5 1e 3e
       -0.5652529 -0.29276094 -0.16426323 0.1551711
000170 58 bc d0 be 14 d1 80 be 11 0b 68 bd eb e6 c3 bd
       -0.40768695 -0.25159514 -0.05665118 -0.095655285
000180 cc 96 5c 3e 08 4c 96 3e a2 32 1f 3e d0 f7 08 3e
       0.215419 0.29354882 0.15546659 0.13375783
000190 1d 5b e9 3c 47 49 d1 bb 96 b0 c0 bd 3f b1 17 be
       0.028485829 -0.006386909 -0.09408681 -0.14813708
0001a0 68 3c 88 3a 24 82 db bc 71 96 41 be 2b a5 2d bd
       0.0010393979 -0.026795454 -0.18905045 -0.042393845
0001b0 1e 93 94 be 04 6d 8a bc 52 41 33 be 78 35 95 be
       -0.29018492 -0.016897686 -0.17505386 -0.29142356
0001c0 26 4d 19 be 4d e4 0b 3d 00 8e 4c be 82 8c af bc
       -0.14970836 0.03415327 -0.19976044 -0.021429304
0001d0 b8 cd c1 bc 5c 33 4b ba cf 1a 0a be 6e b0 eb bd
       -0.023657665 -0.00077514886 -0.13486789 -0.11508261
0001e0 ec 46 02 be 17 ac 61 be 42 4f ac 3d fe f5 83 bd
       -0.12722367 -0.22038303 0.08413555 -0.06443404
0001f0 bb d2 e6 bd 78 cc 40 be 49 1e 1e be 92 91 00 bf
       -0.112706624 -0.18827999 -0.1544124 -0.5022212
000200 2c 02 00 be 53 f1 9f 3b 15 a0 4d be c0 f6 92 bd
       -0.12500829 0.004881063 -0.20080598 -0.0717597
000210 7d c4 19 be ef 61 47 be 8e 71 55 be fc da 2f 3d
       -0.1501636 -0.19470952 -0.20844099 0.04293345
000220 ae 5e 7e be df 84 d3 b9 92 08 93 be 18 f7 d2 bd
       -0.24840805 -0.00040344053 -0.28717476 -0.10301036
000230 75 67 26 be d2 27 7e 3d 77 67 91 be 3e f3 68 be
       -0.16250403 0.062049694 -0.2839925 -0.2274904
000240 1e 54 17 bb 4a 68 9e bc 16 45 15 be 59 e2 d9 bd
       -0.002309091 -0.019336838 -0.14577135 -0.106388755
000250 d2 ea 4a be c5 bf 44 be f5 18 1c be b5 9e e0 bc
       -0.1981614 -0.1921378 -0.15243895 -0.027419427
000260 85 5d 21 bd 89 7a 62 be 32 6f 2a be 6c 39 b3 bc
       -0.039395828 -0.22117056 -0.1664398 -0.021877967
000270 5d 38 54 be 9b 87 29 be 02 93 86 be 0b 54 24 be
       -0.20724626 -0.16555636 -0.26284033 -0.16047685
000280 6b 08 9e bd b8 ff 6e be c8 b8 79 bc 6e 19 c0 bd
       -0.07716449 -0.23339736 -0.015241809 -0.0937985
000290 c6 56 fd bd b9 bd 33 be 87 1b 99 bb 6c e7 97 bd
       -0.12370066 -0.17552842 -0.004672471 -0.07417187
0002a0 e7 71 78 bd c1 d3 27 be 1c d1 56 be 14 12 4b be
       -0.0606555 -0.16389371 -0.20978206 -0.19831115
0002b0 6a 3e 69 bd d2 d5 f0 bb 2d 5f 04 be d2 77 6d bd
       -0.05694429 -0.007349708 -0.12926932 -0.057975598
0002c0 ed 8f d3 bd c6 9b ba be 07 3f 27 bd 24 f1 8c bd
       -0.10330186 -0.3644697 -0.040831592 -0.068819314
0002d0 21 37 a5 bd 51 1f 12 be 62 f8 7c be ab 7a df bd
       -0.08067156 -0.14269759 -0.24704126 -0.10912069
0002e0 83 91 56 bb 5e 06 41 be a5 65 8f be fc 6d 4c be
       -0.003274054 -0.18850085 -0.28007236 -0.1996383
0002f0 35 08 ac be 13 51 92 be cf 0c 25 bd 37 9c 24 be
       -0.3360001 -0.2857748 -0.04029542 -0.16075216
000300 31 35 a5 be dd ec d6 bd b8 69 b8 bd 95 c7 e5 bd
       -0.32267144 -0.10494397 -0.09004539 -0.11219708
000310 8e ec 49 bd e8 ed bb bd 0f 2a 31 be 6e 71 3a be
       -0.04929786 -0.091762364 -0.173012 -0.18207332
000320 2e 68 aa bd fd 66 18 be 81 c1 c3 bd a5 03 41 be
       -0.08320652 -0.14883037 -0.09558392 -0.18849047
000330 80 1f 47 be 86 a0 38 bc 83 90 8b be 18 9f 5a be
       -0.1944561 -0.0112687405 -0.2725869 -0.21349752
000340 6b 7a fd bc 49 df d8 bd 14 0a 1a 3d e6 2b 14 bd
       -0.030942162 -0.10589463 0.037607267 -0.036174677
000350 73 a7 89 bd 98 64 ac bd e9 09 11 3c 48 ac 58 be
       -0.067213915 -0.08417624 0.00885246 -0.2115947
000360 19 5b df bd 50 d6 6a bd 94 d1 0c be 42 86 00 be
       -0.109060474 -0.05733329 -0.13751823 -0.12551215
000370 13 a9 dc 3c 18 8d 36 be 2f 51 aa bd aa 94 0f 3d
       0.02693609 -0.1782726 -0.08316266 0.035053886
000380 8f 8c 7d be b4 e0 35 be 5d 58 92 be 49 ac 9b 3c
       -0.2476065 -0.17761499 -0.2858304 0.01900305
000390 1c 3d 7e be cc 7a 1d be b8 fe 40 bb e0 56 a8 be
       -0.24827999 -0.15378875 -0.00294487 -0.3287878
0003a0 28 df ed 3c fc d0 78 be 46 6f 99 bd 09 18 e0 bc
       0.029037073 -0.24298471 -0.07491927 -0.02735521
0003b0 27 79 98 be bb 5c ed 3b 12 15 6b 3c 09 79 90 be
       -0.29779932 0.0072437203 0.014348285 -0.28217342
0003c0 5d 40 d0 bb 2e d8 f8 bd 3b 92 c5 bd 37 36 67 be
       -0.006355329 -0.12150608 -0.09647032 -0.22579275
0003d0 46 1a e1 bd 7a e4 e9 3c 56 f7 87 be a8 c3 ba be
       -0.109913394 0.028551329 -0.2655589 -0.364774
0003e0 f3 10 84 be d2 fe 1c be d5 20 65 be c2 41 81 be
       -0.2579418 -0.15331581 -0.22375806 -0.25245482
0003f0 ad 13 82 3d 9b 85 49 be a7 af a6 be 6a d4 3c bc
       0.06351409 -0.19679873 -0.32555887 -0.011525253

bias f4 [50]
000000 d3 37 9a bd ad 12 8a bd 83 68 40 be bc 99 f8 bd
       -0.07530179 -0.067418434 -0.18789868 -0.121386975
000010 40 be 70 be 23 92 80 be 73 38 05 be 79 e7 52 be
       -0.23510075 -0.25111493 -0.13009815 -0.20596112
000020 78 19 d9 bd f6 27 76 be 54 8c 62 be df bb a8 bd
       -0.10600561 -0.24038681 -0.22123843 -0.082389586
000030 f9 90 3f be a5 1e fb bd 01 8c 0f be b8 4f 94 be
       -0.18707646 -0.12261704 -0.14018251 -0.2896707
000040 37 05 dd bd 61 8e 61 be 08 ab 8f be 3d 9c 8b bd
       -0.1079201 -0.2202697 -0.28060174 -0.068169095
000050 14 32 ce be 89 15 8b be 4c 55 c8 bd 20 17 89 be
       -0.40272582 -0.27164868 -0.09781894 -0.26775455
000060 1e 52 98 be d4 b1 47 be e2 60 8a be a9 41 b4 bd
       -0.2975015 -0.1950143 -0.2702704 -0.08801586
000070 1b 6b 10 be f9 1c 80 bd ab 09 22 be 5f 73 11 be
       -0.14103357 -0.06255526 -0.15824 -0.14204167
000080 df 82 18 be 90 db 88 be 91 20 c2 be 8e 8d 9e be
       -0.14893673 -0.26730013 -0.3791547 -0.30967373
000090 35 5b e4 bc 55 92 81 be c8 15 67 be b9 e1 f7 bd
       -0.027875522 -0.25306955 -0.22566903 -0.121036
0000a0 18 56 71 be cf c5 14 bd 7e c7 82 be 85 19 28 be
       -0.23567998 -0.036321457 -0.25542825 -0.16415985
0000b0 57 05 a9 be 39 84 17 bd 89 be cf be f4 a7 90 be
       -0.33011886 -0.03699133 -0.40575054 -0.28253138
0000c0 79 9f ba bd c3 43 56 bd
       -0.09112448 -0.052310716
