mcspace/paper/human_runs/runs/seed_6/model.pt (torch, 308831 bytes, 66 tensors)

theta_params f4 [100, 58]
00000000: c0ed d5bf ea95 a3c0 adab b0c0 1b31 6cbf
00000010: 0564 b8c0 825a bec0 65e1 8bbf 83b6 823f
00000020: a974 813f cd8d df3f 79e5 8040 0383 1340
00000030: 16fd adc0 3c25 4f40 7e2f dbbc e361 77be
00000040: bfb3 12c0 a30a bb3f 38d4 8fc0 015d 0ebf
00000050: 95cd ab3e be35 a0bf 6c5a 24c0 160c 8740
00000060: 9767 94bf ab93 97c0 1e2f c1c0 6b55 51c0
00000070: ff34 3e40 6850 98c0 29de 8dc0 37da d4bf
00000080: c026 703f 04d0 0640 70ad 06bf f103 cdc0
00000090: c274 b3be cfdf 2ebf dd14 cd3e 22e8 0140
000000a0: 8e4d cac0 c250 66c0 b10f 6240 851e d53e
000000b0: 7a8a 66bf 80d7 623f 0cb7 1cc0 f7c7 6fbf
000000c0: b323 83bf ac0d 90c0 15b8 90bf 9b82 52bf
000000d0: e7f7 5540 88a3 2c3d 8c08 f63f a701 dbbf
000000e0: a709 87be 8f04 2240 bc3d 99c0 44bd e33f
000000f0: a2fc a0c0 90c8 9dbf f0ef cf3f 30a7 4ec0
00000100: 3cff 0ec0 a3e4 1a40 9daf c9c0 1684 9d3e
00000110: 3d88 743f bd3b d7c0 0630 25c0 7268 a6bf
00000120: b54f 04bf c2a6 563d 130a 6a3f d211 41c0
00000130: 9d44 84bf a7e1 803f 48ab bf3f 2d5c 83c0
00000140: ded1 273f cd92 e73d 8909 16c0 031e 003e
00000150: c3ca 7fbf ad62 34c0 241f 0fbe d26a ccc0
00000160: 380d 81bf 8e59 603f 8331 a73f 2ab8 b13f
00000170: cded 653d 3407 40be d375 e63f 3821 aa3f
00000180: c671 8b40 1b1b 8f3f 4730 99c0 f362 0cbf
00000190: 71a2 3f40 9ab8 7d3e 6de0 c4bf 609a a83f
000001a0: 24a3 d9be f835 9f3f 54c4 d5c0 d6e0 88be
000001b0: 99b5 1abf 4735 223e de2b b3c0 690d a13e
000001c0: e8b9 5740 62a1 693f afc0 0abf e98b 3dbd
000001d0: 06e5 98c0 9af0 4d40 2896 72c0 a60b 84c0
000001e0: 1f6c 81be 6321 7ec0 85ce 85c0 90cf aec0
000001f0: b393 ca3c 6276 72c0 db88 1c40 6527 8cc0
00000200: 4332 f33e c014 a740 4e29 bec0 22b3 75c0
00000210: e6ea 5c3f 4383 85c0 fe33 9fc0 060f 71c0
00000220: a464 a5c0 66af 04c0 7736 c3bf a658 da3e
00000230: aee1 a0c0 c6f8 43c0 3963 3ac0 4461 fcbe
00000240: 3428 2cc0 f230 c1c0 22da e1bf 3e85 3a3f
00000250: f02f 743f 2124 8a3f 8d0e 18bf 726c 9fc0
00000260: 13ea b6c0 4521 95c0 48e0 673f 0615 0a40
00000270: fdca 7bc0 ea2f 8ec0 49e0 113f eaae b3c0
00000280: 9d75 833d 60ee 94bf 54cd 9b3f b68b 9bbe
00000290: da39 c5c0 d86c e2be 1eec a4c0 283f 6dc0
000002a0: aebf 3140 c8c0 99c0 1272 1640 a4f6 11bf
000002b0: d091 9a3f 19f0 753d ea96 80bf a635 e53e
000002c0: e6dd dac0 f757 9cc0 6816 b4c0 6a89 13bf
000002d0: e305 92c0 01d6 f33f 0e5d 9ec0 193d dabe
000002e0: 2485 aebe d00e 8cc0 0da6 f5c0 512d a73c
000002f0: 8a1b 9e3e 81b0 a5c0 9537 3a3f c619 31c0
00000300: 83af be3f 45bf 3d40 b517 673e d4d5 89bf
00000310: c2df 9740 3b6d 883f 2c26 d13f 91a7 0a40
00000320: 9401 c73d 2a58 853f 9171 c1c0 9ecc 95c0
00000330: f4f0 a9c0 f0f9 e2bf 9d26 88c0 990c 47bf
00000340: 22e9 a1c0 6316 18bf d48c 6f3f 0330 a6c0
00000350: 5de3 6e40 9626 b63e f323 6bbf 450d 91c0
00000360: 310f a1c0 cb87 b0bf 8fb6 64bf 264e 423e
00000370: 2729 fe3d 31c3 a13f 019e 1dc0 92e1 e2c0
00000380: 0aee 2ec0 5693 2640 5cd8 c6bd 6f5b 0740
00000390: 599d 4640 8874 fbbf 6542 8e3f d8bf d03f
000003a0: e051 37c0 7e33 dcc0 9a57 81c0 052b 83c0
000003b0: 6a12 c53f c708 d63f 2bfb 5d3f 7f48 7140
000003c0: c12c bdbf b13a 9cbe 5cff 44bf 9bb3 56c0
000003d0: ef40 c5bf 3779 c4bf 0a63 3340 ebee ec3e
000003e0: 8166 e53e e69e a4c0 aef9 dc3e 29d8 ce3f
000003f0: c3de ff3f 9a11 b4c0 e7e9 f9bf 61f7 193f
-1.671318 -5.11205 -5.5209565 -0.9226243 -5.7622094 -5.9485483 -1.092816 1.0211948
1.0113727 1.7465149 4.028012 2.3048713 -5.4371443 3.2366476 -0.026756044 -0.24158435
-2.2922208 1.4612621 -4.4946556 -0.5561066 0.33555284 -1.2516401 -2.568019 4.2202253
-1.1594113 -4.736776 -6.0370016 -3.2708385 2.9719846 -4.759815 -4.433369 -1.6629094
0.9380913 2.1064463 -0.52608395 -6.406731 -0.35050017 -0.68310255 0.4005498 2.0297933
-6.321967 -3.598679 3.5322077 0.41624847 -0.9005505 0.88610077 -2.4486723 -0.936645
-1.024527 -4.501669 -1.1306177 -0.8223054 3.3432558 0.042148143 1.9221358 -1.7109879
-0.26374552 2.5315282 -4.788786 1.7792134 -5.030839 -1.2326832 1.6245098 -3.2289543
-2.2343283 2.4202049 -6.302687 0.30764836 0.95520383 -6.7260423 -2.581056 -1.3000624
-0.51684123 0.052405126 0.9142162 -3.0167127 -1.0333439 1.0068864 1.4974146 -4.105002
0.65554607 0.11307297 -2.344332 0.12511449 -0.99918765 -2.8185227 -0.13976723 -6.3880396
-1.0082159 0.8763665 1.3061985 1.3884327 0.056134988 -0.18752748 1.8004707 1.3291388
4.3576384 1.1180147 -4.787143 -0.54838485 2.9942896 0.24777451 -1.5380989 1.3172112
-0.4250728 1.2438345 -6.680216 -0.26734036 -0.60433346 0.15840636 -5.599105 0.31455544
3.3707218 0.91261876 -0.5420026 -0.046276007 -4.777957 3.2178102 -3.7904148 -4.126422
-0.25277802 -3.9707878 -4.18146 -5.462837 0.024728632 -3.7884755 2.445853 -4.379809
0.47499284 5.221283 -5.942542 -3.8390584 0.86295927 -4.172273 -4.9750967 -3.766542
-5.168535 -2.0732055 -1.5250996 0.42645758 -5.027549 -3.062059 -2.912306 -0.49292958
-2.6899538 -6.037225 -1.7644694 0.7285956 0.95385647 1.0792276 -0.593972 -4.981988
-5.7160735 -4.660311 0.905766 2.1575332 -3.9342644 -4.443349 0.56982857 -5.615102
0.06418917 -1.1635246 1.2172036 -0.30380028 -6.163312 -0.44223666 -5.153823 -3.7069798
2.7773242 -4.804783 2.3507123 -0.5701697 1.2075748 0.060043428 -1.0046055 0.44767493
-6.839587 -4.885738 -5.627735 -0.5763155 -4.5632186 1.9049684 -4.948859 -0.4262474
-0.34085953 -4.376808 -7.67652 0.02040735 0.30880386 -5.177796 0.7274106 -2.767198
1.4897312 2.9647992 0.22567637 -1.076838 4.746064 1.0658334 1.6339774 2.1664774
0.09717098 1.041753 -6.045113 -4.6812277 -5.310663 -1.7732525 -4.2547135 -0.777536
-5.0597086 -0.5940916 0.9357426 -5.193361 3.7326272 0.35576314 -0.9185173 -4.53287
-5.0331044 -1.3791441 -0.8934106 0.18975124 0.12410193 1.2637693 -2.4627688 -7.0900354
-2.7332788 2.6027427 -0.09709236 2.1149557 3.1033537 -1.9644938 1.1114012 1.6308546
-2.8643723 -6.8812857 -4.0419436 -4.0990014 1.5396245 1.6721429 0.86711377 3.7700498
-1.4779283 -0.30513528 -0.7695215 -3.3547122 -1.5410441 -1.5349492 2.8029199 0.4627603
0.44804767 -5.144397 0.4315924 1.6159717 1.9989856 -5.6271486 -1.9524506 0.60143095

q_mu f4 [5]
00000000: b6cc 1ac0 604c 9ec0 94eb 90bf 16e8 6fc0
00000010: 1b71 7ac0
-2.4187446 -4.946823 -1.1321893 -3.7485404 -3.9131534

q_var f4 [5]
00000000: 9e7b 6fc0 bb11 80bf c0d5 8bc0 f6d7 9fbf
00000010: e3be 5ac0
-3.74192 -1.0005411 -4.3698425 -1.2487781 -3.4179008

eps f4 [5]
00000000: e7c2 a13e 8e4c a0bf c66c 0abf 6b42 a8bf
00000010: b899 a5bf
0.3159401 -1.2523363 -0.54072225 -1.3145269 -1.2937536

q_gamma_params f4 [99]
00000000: 0144 6640 a8a5 fa3f 4468 1e3f cfdc 4a40
00000010: 07b5 8f40 3bc2 7a40 f3d7 5140 cd05 5240
00000020: 42a9 6e40 ea6f 7940 8c8d 72c0 2f82 5ebf
00000030: d4d3 35c0 1aec 4840 5817 61c0 e79c 1440
00000040: 879d 5640 be90 8040 3133 6940 8042 b63f
00000050: ceac 5340 18f6 8940 573e 2440 17b2 c93f
00000060: a8c0 0140 045e 6140 a1d5 8240 14a2 6a40
00000070: ee4e 0b40 2400 7f40 e767 7f40 9d0d 7040
00000080: 96b7 7a40 2aba 8140 ce0a 7f40 f703 6140
00000090: 9315 7c40 2993 7a40 01a6 0740 a6b7 7440
000000a0: 1c95 ec3c 5422 8040 daf1 5b40 ae8d 5040
000000b0: 5d26 e1bf 029b 6440 2355 4540 32a0 7040
000000c0: f51a 6440 7989 3540 4fda 8240 fde0 5e40
000000d0: b638 7940 aa03 6240 9aab 7840 f1c8 8340
000000e0: a4a2 6440 65e0 4040 4cf4 8d40 babe a33f
000000f0: 9671 5e40 0165 7740 0d8b 7c40 95b9 80bf
00000100: 91f5 4d40 2efa 6b40 894e 8040 0aa4 7440
00000110: bb5c 8d40 c4d4 7540 ba0f 6440 29bb a3bf
00000120: 694f 8240 9b12 4640 2f9e b5bf 4daa 8540
00000130: 5ba0 8240 faca 4e40 fc56 5f40 8b5b 0fc0
00000140: 6f57 883f 72e4 1ebf d35b 7140 920d 7a40
00000150: 54d1 8940 b270 2e40 12cf 2240 652e d23f
00000160: 9739 2c40 5845 b5bf e2a9 2f40 ea70 6740
00000170: 69e3 8140 c10e 7140 7866 943f fcd1 3a40
00000180: b2d9 3cc0 e6d9 8340 cb7d 7c40
3.5979006 1.9581804 0.61877847 3.169727 4.490848 3.918105 3.2788055 3.281604
3.7290807 3.8974557 -3.7898893 -0.86917394 -2.841054 3.1394105 -3.5170498 2.3220766
3.3533647 4.0176687 3.6437495 1.4239044 3.3074222 4.3112907 2.566305 1.5757474
2.0273838 3.5213633 4.0885777 3.6661425 2.1766925 3.9843836 3.9907167 3.750831
3.9174552 4.053975 3.9850345 3.515867 3.9388168 3.915232 2.119507 3.823709
0.028879695 4.0041904 3.4366364 3.2586474 -1.7589833 3.571961 3.0833213 3.7597775
3.5641453 2.8365157 4.089149 3.4824822 3.8940864 3.5314736 3.8854737 4.118279
3.5724268 3.013696 4.4360714 1.279258 3.4756827 3.8655398 3.945987 -1.0056635
3.2181132 3.6871448 4.009587 3.8225121 4.4175696 3.8411112 3.5634599 -1.2791492
4.0721936 3.0948856 -1.4188899 4.1770387 4.0820746 3.2311387 3.489684 -2.2399623
1.0651683 -0.6206733 3.7712295 3.9070783 4.3068027 2.7256284 2.5438886 1.6420408
2.691015 -1.4161787 2.7447438 3.6162667 4.05901 3.7665255 1.1593771 2.9190664
-2.950787 4.120349 3.9451778

q_probs f4 [99]
00000000: 852d 793f 7a59 603f 8a67 263f a4ad 753f
00000010: 6929 7d3f aa02 7b3f b6b4 763f 46bb 763f
00000020: 1eff 793f 84e8 7a3f 4429 b53c 0b4f 973e
00000030: 2209 623d 0760 753f fe4a ec3c 8f23 693f
00000040: 145a 773f 9079 7b3f c679 793f 065a 4e3f
00000050: bbf5 763f 669c 7c3f 00bf 6d3f 21ba 533f
00000060: cf37 623f a5a6 783f 8ec7 7b3f b49d 793f
00000070: 1cee 653f 1253 7b3f 7b5a 7b3f 611f 7a3f
00000080: d701 7b3f 24a2 7b3f d553 7b3f 769c 783f
00000090: 571c 7b3f 06ff 7a3f 678d 643f 0387 7a3f
000000a0: 98db 013f 196a 7b3f 9505 783f 1f86 763f
000000b0: 3b80 163e b600 793f 70b5 743f a12c 7a3f
000000c0: 16f3 783f 29d3 713f 2fc8 7b3f 525e 783f
000000d0: 3de4 7a3f 45b8 783f 26d9 7a3f ade6 7b3f
000000e0: 9b01 793f 7d04 743f e800 7d3f ac49 483f
000000f0: 5451 783f ffb2 7a3f 1725 7b3f 923f 893e
00000100: e324 763f ecbe 793f 4f70 7b3f 4285 7a3f
00000110: d6f2 7c3f 949e 7a3f def1 783f 5201 5f3e
00000120: 05b6 7b3f 4be9 743f b7a2 473e a021 7c3f
00000130: 9bc0 7b3f 3645 763f e26b 783f 7729 c43d
00000140: af65 3e3f 64e1 b23e 383d 7a3f c0f4 7a3f
00000150: 8c98 7c3f 8a43 703f 445b 6d3f a276 563f
00000160: a3bf 6f3f 9aff 473e bb8a 703f 794c 793f
00000170: a9a7 7b3f 5836 7a3f f4e7 423f 79e3 723f
00000180: 19b0 4b3d b8e8 7b3f 3024 7b3f
0.9733508 0.8763653 0.6500174 0.9596808 0.9889131 0.9805094 0.96369493 0.96379507
0.976549 0.9801104 0.022114404 0.29552492 0.05518449 0.9584965 0.028844353 0.91069883
0.96621823 0.98232365 0.97451437 0.80606115 0.96468705 0.98676145 0.9286957 0.82705885
0.8836641 0.9712928 0.9835137 0.9750626 0.8981645 0.9817363 0.9818494 0.9770413
0.9804968 0.9829428 0.9817479 0.9711374 0.9809012 0.98045385 0.8927826 0.9786226
0.507257 0.9820877 0.9688352 0.962984 0.14697354 0.9726671 0.9558935 0.9772435
0.9724592 0.9446283 0.9835233 0.9701892 0.98004514 0.97156173 0.9798759 0.9839886
0.97268075 0.9531935 0.9882951 0.78237414 0.96999097 0.97929376 0.9810347 0.26806313
0.96150035 0.9755695 0.98218244 0.97859585 0.9880804 0.9789822 0.9724406 0.21777847
0.98324615 0.95668477 0.19495665 0.9848881 0.9834077 0.9619936 0.97039616 0.09578221
0.74373907 0.34937584 0.9774966 0.9802971 0.9867027 0.93853056 0.92717385 0.8377477
0.9365179 0.19531098 0.93961686 0.97382313 0.98302704 0.9773917 0.7613518 0.94878346
0.049728487 0.98401976 0.9810209

gamma f4 [100]
00000000: 0000 803f 0000 803f 0000 803f 0000 0000
00000010: 0000 803f 0000 803f 0000 803f 0000 803f
00000020: 0000 803f 0000 803f 0000 803f 0000 0000
00000030: 0000 0000 0000 0000 0000 803f 0000 0000
00000040: 0000 803f 0000 0000 0000 803f 0000 803f
00000050: 0000 803f 0000 803f 0000 803f 0000 803f
00000060: 0000 803f 0000 803f 0000 803f 0000 803f
00000070: 0000 803f 0000 803f 0000 803f 0000 803f
00000080: 0000 803f 0000 803f 0000 803f 0000 803f
00000090: 0000 803f 0000 803f 0000 803f 0000 0000
000000a0: 0000 803f 0000 0000 0000 803f 0000 803f
000000b0: 0000 803f 0000 0000 0000 803f 0000 803f
000000c0: 0000 803f 0000 803f 0000 803f 0000 803f
000000d0: 0000 803f 0000 803f 0000 803f 0000 803f
000000e0: 0000 803f 0000 803f 0000 803f 0000 803f
000000f0: 0000 803f 0000 803f 0000 803f 0000 803f
00000100: 0000 0000 0000 803f 0000 803f 0000 803f
00000110: 0000 803f 0000 803f 0000 803f 0000 803f
00000120: 0000 803f 0000 803f 0000 803f 0000 0000
00000130: 0000 803f 0000 803f 0000 803f 0000 803f
00000140: 0000 0000 0000 803f 0000 803f 0000 803f
00000150: 0000 803f 0000 803f 0000 803f 0000 803f
00000160: 0000 803f 0000 803f 0000 0000 0000 803f
00000170: 0000 803f 0000 803f 0000 803f 0000 803f
00000180: 0000 803f 0000 0000 0000 803f 0000 803f
1.0 1.0 1.0 0.0 1.0 1.0 1.0 1.0
1.0 1.0 1.0 0.0 0.0 0.0 1.0 0.0
1.0 0.0 1.0 1.0 1.0 1.0 1.0 1.0
1.0 1.0 1.0 1.0 1.0 1.0 1.0 1.0
1.0 1.0 1.0 1.0 1.0 1.0 1.0 0.0
1.0 0.0 1.0 1.0 1.0 0.0 1.0 1.0
1.0 1.0 1.0 1.0 1.0 1.0 1.0 1.0
1.0 1.0 1.0 1.0 1.0 1.0 1.0 1.0
0.0 1.0 1.0 1.0 1.0 1.0 1.0 1.0
1.0 1.0 1.0 0.0 1.0 1.0 1.0 1.0
0.0 1.0 1.0 1.0 1.0 1.0 1.0 1.0
1.0 1.0 0.0 1.0 1.0 1.0 1.0 1.0
1.0 0.0 1.0 1.0

KL_gamma_k f4 [99]
00000000: 5d04 7947 2834 6047 7e4b 2647 0485 7547
00000010: a9ff 7c47 3bd9 7a47 ee8b 7647 7d92 7647
00000020: d6d5 7947 1abf 7a47 0908 b544 ea34 9746
00000030: 7ee0 6145 7237 7547 e61f ec44 defc 6847
00000040: 3331 7747 1050 7b47 9250 7947 8e37 4e47
00000050: e9cc 7647 bb72 7c47 9897 6d47 cd96 5347
00000060: 3212 6247 927d 7847 039e 7b47 7b74 7947
00000070: ebc7 6547 9729 7b47 ff30 7b47 15f6 7947
00000080: 69d8 7a47 9e78 7b47 5a2a 7b47 6573 7847
00000090: e5f2 7a47 98d5 7a47 6d67 6447 a75d 7a47
000000a0: 84c5 0147 9b40 7b47 9adc 7747 5e5d 7647
000000b0: c765 1646 95d7 7847 f68c 7447 5303 7a47
000000c0: f7c9 7847 1fab 7147 a49e 7b47 4935 7847
000000d0: d3ba 7a47 2f8f 7847 beaf 7a47 1dbd 7b47
000000e0: 7ad8 7847 1edc 7347 2ed7 7c47 2a28 4847
000000f0: 4d28 7847 9d89 7a47 a4fb 7a47 ce27 8946
00000100: 31fc 7547 af95 7947 d046 7b47 e65b 7a47
00000110: 1ec9 7c47 3575 7a47 c0c8 7847 80da 5e46
00000120: 7c8c 7b47 c9c0 7447 dd7f 4746 07f8 7b47
00000130: 1197 7b47 7f1c 7647 d742 7847 a406 c445
00000140: c345 3e47 a4c2 b246 e713 7a47 54cb 7a47
00000150: e26e 7c47 be1b 7047 eb33 6d47 df52 5647
00000160: eb97 6f47 b1dc 4746 e562 7047 4d23 7947
00000170: 227e 7b47 080d 7a47 4ec7 4247 46bb 7247
00000180: 648b 4b45 28bf 7b47 bdfa 7a47
63748.363 57396.156 42571.492 62853.016 64767.66 64217.23 63115.93 63122.49
63957.836 64191.1 1448.2511 19354.457 3614.0308 62775.445 1888.9968 59644.867
63281.2 64336.062 63824.57 52791.555 63180.91 64626.73 60823.594 54166.8
57874.195 63613.57 64414.01 63860.48 58823.918 64297.59 64304.996 63990.082
64216.41 64376.617 64298.35 63603.395 64242.895 64213.594 58471.426 64093.652
33221.516 64320.605 63452.6 63069.367 9625.444 63703.582 62604.96 64003.324
63689.965 61867.12 64414.64 63541.285 64186.824 63631.184 64175.742 64445.113
63704.477 62428.117 64727.18 51240.164 63528.3 64137.613 64251.64 17555.902
62972.19 63893.684 64326.812 64091.9 64713.117 64117.207 63688.75 14262.625
64396.484 62656.785 12767.966 64504.027 64407.066 63004.496 63554.84 6272.83
48709.76 22881.32 64019.902 64203.33 64622.883 61467.742 60723.918 54866.87
61335.918 12791.173 61538.895 63779.3 64382.133 64013.03 49863.305 62139.273
3256.712 64447.156 64250.74

weight f4 [10, 58]
00000000: 5d8b 45bd 7fc2 d5bd efb2 213c 24be 033e
00000010: a1d8 adbc 32af 383c de89 2fbd 01fe 3c3d
00000020: b01a 1ebd 33e8 973c 4b22 23bd cfdf adbd
00000030: 4442 133e 80f6 95bd 59dc 093e a862 d53d
00000040: 2f27 a7bb 35ff 13bd eaba bb3c c70d dfbd
00000050: 0ef7 ae3d ebf9 273d bac1 2a3e f053 403d
00000060: 8094 ac3a f5d4 a03c 3824 3c3d 128b 023e
00000070: 366f 583d 5424 97bc 4cef 173d 7b68 033d
00000080: dd45 463e 4093 853c 9092 4dbd d46e e5bc
00000090: 9a45 04bd c0b7 293e 95cf c9bc 551f b3bd
000000a0: a257 983d 1691 073e 8321 24bd bdee e83d
000000b0: 36f1 bd3c dac5 6abc 7e4d 0b3e f1ee cabc
000000c0: eb0c 56bb b3a9 b0b9 a68c b13d f7d6 05be
000000d0: 3c21 4d3e effa c53d a306 24be a396 30bb
000000e0: 4ea0 433e bef8 203c 678d 50be 4bae 2b3e
000000f0: e95a 3cbe 7cf7 e4bd daf4 3c3d d258 1abe
00000100: 1566 303d 29e6 193e 0216 0ebe b513 a6bd
00000110: 01ef 063d c73b e9bd 161d e3bc 5b72 a9bd
00000120: ae32 efbc 1beb d1bd ea48 3bbe 34fd 953d
00000130: e1e3 713e 60e7 94ba 9960 b93c 2ab5 22be
00000140: e083 debb c6b6 163e 81c9 0bbd db36 f4bd
00000150: 3e8f 98bd c577 533c 4387 34bd 9196 373d
00000160: 7002 bfbc 7afe 33be 4e81 41be 47b3 233e
00000170: e7ca d2bd f97b f6bd e007 4c3e f424 e9bd
00000180: 1518 f7bc cc9e 9d3c 6b26 bfbd 3b8b f3bd
00000190: c0a7 ee3d 2663 f0bd 73da 683d cd27 043e
000001a0: fc18 19be cda7 f73c 0d56 0abe 17c4 3d3b
000001b0: 873d 07be 50f8 b53d 47f9 043d 8305 22be
000001c0: 01c9 903d 86f7 16be f728 063d 156f 133c
000001d0: 927d 253e eec5 82be 48a1 913e 27b9 803e
000001e0: 9c44 b5bd 7992 7c3e 00a7 893e e43c 08be
000001f0: 0a78 6d3d fd54 fb3d 1cac 71be a111 9d3e
00000200: d49e 833e 72d4 8e3d fb28 643e 4b26 f33d
00000210: 1c82 833e c67c f13d 3572 2abd 43b9 a1bd
00000220: b664 9fbd 7bea 153e 6d75 9b3e 374d 07be
00000230: 2626 233e 0382 373d 846e 573e 0192 333e
00000240: 5bb9 223e a465 113e 4065 993e 2a32 173e
00000250: bfc6 193e 2df5 4ebe 4c92 0d3e 6b0d 783d
00000260: 07f6 f8bb ece3 fd3d bc12 8fbe 7168 6ebe
00000270: 9dbb 4d3e 3a3d 663e c646 63be dc3f 2b3d
00000280: 0d11 8e3e 17e3 2dbe 67fc 913e 6d3d 34bd
00000290: 3f26 033e 3f88 683e 0a69 123e 6888 33be
000002a0: dc6f b83d 699f 833d 8bd3 efbd 28e2 3f3e
000002b0: 9cc6 423e 4bcc ae3d dbd6 0c3e dad2 afbc
000002c0: 3f49 033e 900e 163d 652c e4bd 3bde 3fbd
000002d0: 7a06 ecbd edcf 143d b7cb 983d 71d1 033e
000002e0: a233 d2bd 5efd d4bb 540f d7bd 0ea7 8e3d
000002f0: f1bb 47bc 9e35 78bd 590f e0bb ca09 1c3d
00000300: 5fc7 5d3d 8221 07bd 9e2a 2cbb 22b5 9ebd
00000310: 2895 3f3d c118 dfba f2a0 7b3d 9c06 be3d
00000320: e691 803d 574c 983c 5cd3 d8bd 0f3f 3ebb
00000330: 1e69 77bd f209 aa3c 9c9a 78bd 0e4a 90bc
00000340: dc4e b4bd e5b7 ed3d ada7 513c 34ff 61bd
00000350: 2d14 e33d 25c7 9d3c 2105 b2bd 8b1e 96bd
00000360: d3b4 8cbc f86b e6bd 717e b53d 1953 8d3d
00000370: 4edd b9bd 297d 663d 0962 f03d 4953 61bd
00000380: aecf cbbd 8429 83bd 48b7 bfbd cc1a 07bd
00000390: 4bc3 88bd c938 c1bd 8af9 9bbd f36c 263d
000003a0: 9d72 50be d85c 153e 6300 37be 7ed4 3ebe
000003b0: 8e84 0e3e 489d d7bd 0ff0 3abb afd4 223e
000003c0: 283d 1bbd 610a 55be e598 8b3d 4954 a3bd
000003d0: 13dc 5cbe ce7b 9fbd ebad 39be 8fdd c0bc
000003e0: e024 e8bd 8743 c2bd a44d 36bd 816c 423e
000003f0: 39df 683e b7f6 e3bc 8a90 6dbe bdef 123d
-0.04822861 -0.10437488 0.009869321 0.12865502 -0.02122146 0.011272239 -0.04285609 0.046140675
-0.03859967 0.018543338 -0.039827626 -0.08489954 0.14380747 -0.07322407 0.13462962 0.10419208
-0.0051011066 -0.036132056 0.022916276 -0.108913 0.08543216 0.041009825 0.16675463 0.04695505
0.0013166815 0.019632796 0.04593298 0.12748364 0.052840434 -0.01844994 0.037093446 0.032082062
0.19362588 0.016305566 -0.0501886 -0.028006949 -0.03229294 0.16574001 -0.024635116 -0.087462105
0.0743859 0.1323894 -0.04007102 0.11373661 0.023186307 -0.014329398 0.1360378 -0.02477214
-0.0032661508 -0.00033695772 0.08669405 -0.13070284 0.20032209 0.096670024 -0.16018157 -0.0026945255
0.1910412 0.00982493 -0.2036644 0.16765706 -0.18394054 -0.111800164 0.046131946 -0.15072945
0.043066103 0.15029205 -0.13875583 -0.081092276 0.032942776 -0.11388355 -0.02772383 -0.08273765
-0.02919897 -0.10249921 -0.18289533 0.07323685 0.23622085 -0.0011360459 0.02262907 -0.15889421
-0.006790623 0.1471816 -0.034127716 -0.11924525 -0.07449196 0.012906973 -0.044074308 0.044821326
-0.023316592 -0.17577544 -0.18896982 0.15986358 -0.10292607 -0.12035365 0.19924879 -0.113840014
-0.03016285 0.01924076 -0.093334995 -0.118917905 0.116530895 -0.11737661 0.056848954 0.12905808
-0.14950937 0.03023138 -0.13509388 0.002895599 -0.13207065 0.088852525 0.032464292 -0.15822415
0.070695885 -0.1474286 0.03275391 0.008998652 0.16161183 -0.25541633 0.2844336 0.2514126
-0.08850977 0.2466525 0.26885223 -0.13304478 0.057975806 0.122720696 -0.23600811 0.30677512
0.25707114 0.069741145 0.22281258 0.11872538 0.25685203 0.11791377 -0.041612823 -0.07896664
-0.07782881 0.14640228 0.30363026 -0.13213049 0.15932521 0.044801723 0.21038252 0.17536165
0.1589102 0.14198929 0.2996006 0.1476523 0.15017222 -0.20210715 0.13825339 0.06055967
-0.007597688 0.12396988 -0.2794398 -0.23282029 0.200911 0.22484294 -0.22194967 0.041808948
0.27747384 -0.16981159 0.2851288 -0.044003893 0.12807558 0.22708224 0.14297882 -0.17532504
0.090057105 0.064268894 -0.117102705 0.18738616 0.19021076 0.085350595 0.13753836 -0.021462847
0.1282091 0.03663498 -0.1114128 -0.046842795 -0.11524673 0.036331106 0.074607305 0.12872864
-0.102637544 -0.0064999303 -0.105009705 0.06965457 -0.012190805 -0.06059801 -0.006837767 0.038095273
0.054145213 -0.03299094 -0.002627052 -0.07749392 0.046773106 -0.0017020927 0.061432786 0.092786044
0.06277828 0.01859109 -0.105871886 -0.0029029285 -0.060402982 0.020756695 -0.060694322 -0.017613437
-0.08804104 0.11607341 0.012796325 -0.05517502 0.110878326 0.019259999 -0.086923845 -0.07330044
-0.017176067 -0.11251062 0.088620074 0.06900615 -0.09075414 0.056271706 0.11737449 -0.055011068
-0.09951721 -0.06404403 -0.0936113 -0.03298454 -0.06677874 -0.09434659 -0.07615955 0.040631246
-0.20356221 0.14586198 -0.17871241 -0.18635747 0.13917753 -0.10528046 -0.0028524434 0.15901445
-0.03790012 -0.2080474 0.06816272 -0.079750605 -0.21568327 -0.07787286 -0.1813275 -0.023543147
-0.11335158 -0.09485536 -0.044507638 0.18986703 0.22741403 -0.027827604 -0.23199669 0.035873163

bias f4 [10]
00000000: d048 873c 016b 9bbc 8686 42be d64c 91bd
00000010: 12d6 583e 743a d6bd cd2e ccbd 7517 1c3e
00000020: 8f19 16be f444 74be
0.016514212 -0.018971922 -0.18996629 -0.070947334 0.21175411 -0.10460368 -0.09969864 0.15243323
-0.14658187 -0.23854429

weight f4 [10, 10]
00000000: 63ac 37bd 1aca a7be fe98 1cbe 30b5 603d
00000010: 82ab a1be 2e27 90bd b700 eabd fc0e a8be
00000020: 1803 163e e37d a23d 1412 413d e542 983e
00000030: 5671 a53e 8fff 5fbe 0071 a4bc 6e5e 37be
00000040: 0f9b 96be bc79 5fbe 684f 05be acf2 7abe
00000050: d651 49be b321 80bd a12f c0bd e11e 08be
00000060: 5708 eabd 37f5 b4bd f787 57be 23e9 0abe
00000070: eabd 96bb 28a3 793e 3e57 bebe 5808 bebe
00000080: 5cb6 513d 2b93 b5be b399 573e 099c 3fbe
00000090: 64c0 b1bd 023e 02bf 9bda 2abe 1e1c b2be
000000a0: 644d bcbe 928e 1fbe b87b a1bd d104 b7be
000000b0: 01f3 9bbd 2b46 a0be e3a4 eebe 698a c6be
000000c0: b7da bdbe 35be 0bbe 8979 0f3e 268e ec3d
000000d0: 4dec 3fbd 6559 85be b522 ac3c f345 823d
000000e0: d361 c4be 2fb5 b5be 021a 8fbe 43eb 963e
000000f0: f533 1abd 5175 813d 1b8f 94bb a3f1 6abe
00000100: 5329 7cbd 63a8 7bbd d65a eebe 2926 bbbe
00000110: d41e 213d 90ca 31be d7db 663e c902 c43e
00000120: a367 64bd 441b 693e b188 843e 534d 7e3e
00000130: 22ff c33e 60c2 bb3e 565b 1d3d 6f3e 233d
00000140: 4e9f aebd 2847 b43e 5940 ba3d ecc9 4ebd
00000150: b24c 8a3e b82f febd 3e7b 97be 961e 95be
00000160: c2c8 4a3e 95b4 843e 6921 ebbd 7fb4 0abf
00000170: 6dcb e1bd bbac 36be 2154 18bf 3c25 3f3c
00000180: 0bbe ae3d a3ec 3bbd 5f9d c0be 985b 033e
-0.044842135 -0.3277138 -0.15292737 0.054860294 -0.31576163 -0.07038723 -0.114259176 -0.32823932
0.14649618 0.07934167 0.04713638 0.29738536 0.3231303 -0.21874832 -0.020073414 -0.17907116
-0.29415175 -0.21823782 -0.13018572 -0.24506634 -0.19660124 -0.062564276 -0.093840845 -0.1329303
-0.11427372 -0.088358335 -0.2104796 -0.13565497 -0.0046002762 0.24378645 -0.37175936 -0.3711574
0.051199302 -0.35463843 0.21054725 -0.18711866 -0.08679274 -0.50875866 -0.16684954 -0.34787077
-0.36777794 -0.1558173 -0.078849256 -0.35745862 -0.07614709 -0.31303534 -0.46610174 -0.38777474
-0.3708093 -0.13646777 0.14011206 0.1155055 -0.046856213 -0.26044765 0.021012643 0.06360998
-0.38355884 -0.35489795 -0.2794953 0.29476365 -0.037647206 0.063212045 -0.004533661 -0.2294374
-0.061562847 -0.061439883 -0.46553677 -0.3655255 0.03933604 -0.17362428 0.225448 0.38283375
-0.0557629 0.22764307 0.25885537 0.24834184 0.38280588 0.36671734 0.038417183 0.039854463
-0.08526479 0.35210538 0.090943046 -0.050485536 0.2701164 -0.124114454 -0.29586214 -0.29124898
0.19803146 0.25919023 -0.11480982 -0.54181665 -0.110251285 -0.17839329 -0.5950337 0.011666592
0.085323416 -0.04587997 -0.37620065 0.12827909

bias f4 [10]
00000000: ebac cbbe 4c94 1abd 47a4 883e 3f50 c0be
00000010: 6300 79bd bac6 bbbd de60 9bbe a89c 9c3e
00000020: 3c73 d33d 5bbf 2e3c
-0.39780363 -0.037739083 0.26687834 -0.37561223 -0.060791384 -0.091687635 -0.3034734 0.3058827
0.103247136 0.01066574

weight f4 [1, 10]
00000000: 078f 1c3e 9d43 0b3d 94df a73b 3edd 93bb
00000010: 19be a6bc b9a4 b63c 957c 84bc ab53 983b
00000020: 93e6 b8bc 9c2a b5bd
0.15288936 0.034000028 0.005123088 -0.004512458 -0.020354318 0.022295343 -0.016172687 0.004648646
-0.022570884 -0.08846018

weight f4 [1, 10]
00000000: c20d 5d3d 2dda 24bf b9a0 29bf 7542 93be
00000010: 519e 1abc 4644 e0be b2a4 b6be 0fab 71bf
00000020: 091f 2abf b19f 6e3d
0.0539682 -0.6439541 -0.6626087 -0.2876164 -0.00943716 -0.43802088 -0.35672528 -0.9440164
-0.66453606 0.058257762

prior_mean f8 []
00000000: 16af c4eb 9166 12c0
-4.600166019324908

weight f4 [50, 58]
00000000: fe50 11bb 695e 9fbe dc21 4abe b9f5 043e
00000010: 159d a33d 2f1e ac3c 0620 a43d 0e24 643b
00000020: 1ead 2b3d 4ea1 2a3d 9eb5 22bd 616e 023e
00000030: 2ee5 a43d 4bd1 15be 00ed d8be 8205 62be
00000040: f58d 023e 821c eabc b2c1 71be f0eb 533e
00000050: b292 f53d e4f7 ba3d 8536 353f d1e8 0c3d
00000060: a299 2fbd 5a9f 473e ce6c 833e 6048 753f
00000070: 79cb 8f3e ffd0 9a3e 6fb2 a1bd 6ac5 2d3e
00000080: e7b0 1a3e 780d 8dbe 97d6 a2bd 696c 0e3f
00000090: a66f d5bc 6f53 2e3e ad55 adbd 60f8 843c
000000a0: aa24 533d a21f c9bd ab15 3abd ece6 b83e
000000b0: a962 b33c e9ed 603a 0563 743d 8a6f 6f3e
000000c0: d0bc 6f3e 1bf2 9b3e c4ce 073f e3dd 59be
000000d0: f7a7 a63e 6fa5 d1bd 75cc 6cbb 50a6 a23d
000000e0: 1863 1bbe a07b 82bd d919 243e 8c40 c5be
000000f0: c8f5 a5bd cc5e 083e d56f adbe c771 8f3e
00000100: a88c 9a3e 02e5 51be be0a c53e 5f4d 093e
00000110: ca7e 9ebd 1ff6 bb3e 0c37 2f3e a837 393e
00000120: 6e3d cebd 17d0 203c 7882 803e 3f09 7f3d
00000130: 3c60 36be 7bc4 adbc a1e2 38be 204f 853e
00000140: 714f 5c3e bb9e 69be f838 293e 5b8f 8d3e
00000150: e74b 883e bf93 693e debe b13e bc92 973e
00000160: f22f 243e e736 c73e 0dd3 603e 31f6 c6be
00000170: c501 c33e 8217 7a3d dd33 463e 80bf 823d
00000180: bcfd c0bd 3940 9dbd 41c7 9c3e 850e 9b3e
00000190: f929 7abd ab88 1b3e 1cf5 2b3e f3b8 83bd
000001a0: e331 873e 8de5 8c3d 3b44 873e 60f8 fc3e
000001b0: 2dbc 813c b69c 92be b7a9 a63c c578 983e
000001c0: 5016 8cbd 5810 a03e 9eca 6abc 7e98 2abe
000001d0: 3c75 833e 6809 51be 551a 433f c60d f23c
000001e0: c953 96be 07cf 443e 8d3b 4f3c b886 b0be
000001f0: 929b bc3e da70 993e 59c1 b6bd 48f4 113d
00000200: 3855 e53d d6ef d73e 216b 193f 3f71 1d3f
00000210: e56c 343d da3a 98bd 4637 2b3e cade a43d
00000220: 29d1 15bf 19c9 943e a362 88bd cabc 98be
00000230: f6f4 4a3e 24b3 843e 67f2 c8bc 0124 f4be
00000240: 0f3c 683e 8631 293e 2458 b43e 75af 473e
00000250: af55 2cbe 3046 833e 2f0c b43d 3a8e c6be
00000260: 2fed fbbd e26d 96be 8179 dc3d e54a e43d
00000270: 2e55 d7bd bd02 b83e 9b3e 41bd f0b9 6dbe
00000280: 882e ecbc cb39 eebd a4b0 1bbe a6da ab3d
00000290: c373 d6bd 0f20 403c 393f cabe 8f41 473e
000002a0: c21a bdbe b26c 323d 3a54 9abe 3aa5 623d
000002b0: 8e87 bfbe c821 dc3e dd85 5e3e 371f 33be
000002c0: bfd9 d6be 520d 14bc 5397 23bf 0330 8e3e
000002d0: 67b4 8fbd 00ce 8a3d 4401 893e 9337 9dbe
000002e0: 2a8a 15be 537e 3b3e 647b 8b3e a8c6 923d
000002f0: 39bd 303f 369a 203e ac7d 5cbe 9a39 b73b
00000300: c4ab e6bd 01ce e5be 6936 6e3d afde 5b3e
00000310: 4b1b 91be 1f14 edbc 24cc 48bd 339a 82bd
00000320: 411f e43c 3103 f3be 9885 2cbd 7953 333c
00000330: f54c 343e 3ca3 613d 9e46 253e a903 033e
00000340: 047c 0e3e 2d5f 213e b20e 31be b3fd 05be
00000350: 07a4 f23e 975c 123c d0d6 903e e9ff 403e
00000360: c557 123e f854 05be 7697 163e 8357 0e3e
00000370: 8683 703c a75d b93e b256 1b3e 28c8 1cbe
00000380: 39a8 f2be 4984 c43e 50c0 cabe ab5f e9be
00000390: cc85 03bf 4b3f 7dbd 39f7 123e 0546 1fbf
000003a0: d628 873d 0e4a 74be bc98 fd3e aaf2 19bd
000003b0: db42 2bbf 3a71 833e 95d5 a73e 0048 3ebf
000003c0: 0bd4 0f3e 7b04 5a3f 3870 c63d 0133 1a3c
000003d0: fc9b 283d 9164 cc3d f97d 37be a186 773d
000003e0: 35d9 ac3d c4e9 6bbe ebac aabe 1418 a03c
000003f0: 8ea5 05bf a34b fd3d dd78 b03d 5c95 91be
-0.002217352 -0.31126717 -0.19739479 0.12984361 0.079889454 0.021010486 0.080139205 0.003481153
0.041913144 0.04165774 -0.039723985 0.12737419 0.08051525 -0.1463062 -0.42368317 -0.22072414
0.12749465 -0.028578047 -0.23609045 0.20695472 0.119908705 0.09129313 0.70786315 0.03440172
-0.042871125 0.19494382 0.2566895 0.9581356 0.28084925 0.30237576 -0.07895362 0.16969839
0.15106545 -0.27549338 -0.07951086 0.5563417 -0.026054215 0.17024015 -0.08463607 0.016231716
0.051548637 -0.098204866 -0.04543082 0.3611368 0.02189763 0.0008580373 0.059664745 0.23382393
0.2341187 0.3045815 0.53049874 -0.2127605 0.32550022 -0.10236632 -0.0036132608 0.07941878
-0.1517452 -0.06371236 0.16025485 -0.38525808 -0.0810352 0.13317412 -0.33874384 0.28016493
0.30185437 -0.20497516 0.38484758 0.13408421 -0.07739027 0.36711213 0.17110842 0.18087637
-0.100703105 0.0098152375 0.2509954 0.062264677 -0.17810148 -0.021211853 -0.18055202 0.2603693
0.2151468 -0.22814457 0.16525638 0.27648434 0.2662041 0.22810267 0.34715933 0.29604137
0.16033915 0.38909075 0.2195551 -0.38859704 0.38087288 0.061057575 0.19355722 0.06384182
-0.09423396 -0.07678265 0.3062077 0.30284515 -0.061075184 0.15188853 0.1679272 -0.06431761
0.26405248 0.06879721 0.26419243 0.49408245 0.0158368 -0.28635186 0.020344598 0.2977964
-0.06840193 0.3126247 -0.014330534 -0.16659734 0.2567538 -0.20413744 0.76212054 0.029547583
-0.29360798 0.192196 0.012648475 -0.34477782 0.3683744 0.2996891 -0.08923597 0.035633355
0.11197895 0.42175168 0.5992909 0.61500925 0.044049162 -0.074331 0.16720304 0.08050306
-0.5852228 0.29059675 -0.066594385 -0.29831535 0.19820008 0.25917923 -0.024529649 -0.4768372
0.2267916 0.16522798 0.35223496 0.19500525 -0.1682956 0.25639486 0.08791386 -0.38780385
-0.123010986 -0.2938071 0.107653625 0.111470975 -0.105142936 0.3593959 -0.047178846 -0.23215461
-0.028830782 -0.11632117 -0.15204102 0.08391313 -0.104712985 0.011726393 -0.3950136 0.19458602
-0.36934477 0.04356069 -0.30142385 0.055333354 -0.37408108 0.42994523 0.21730752 -0.17492376
-0.41963002 -0.009036379 -0.6390278 0.27771005 -0.07016831 0.06777573 0.26758778 -0.30706462
-0.14603487 0.18309908 0.27242577 0.07166797 0.6903873 0.15683827 -0.21532315 0.0055915834
-0.112632304 -0.4488373 0.05815736 0.21471666 -0.28341135 -0.028940259 -0.04902281 -0.063770674
0.027846934 -0.47463372 -0.042119592 0.010945194 0.17607482 0.055087313 0.1614022 0.12794365
0.13914496 0.15758963 -0.17290762 -0.1308506 0.47390768 0.008933208 0.2828889 0.18847622
0.14291294 -0.13020694 0.14706215 0.1390057 0.014679795 0.36204264 0.1516979 -0.15310729
-0.4739397 0.38382176 -0.39599848 -0.455808 -0.5137603 -0.06182794 0.1435212 -0.62216216
0.06599586 -0.23856375 0.4953059 -0.037584938 -0.6689889 0.25672323 0.32780138 -0.74328613
0.14045732 0.85163087 0.09689373 0.009411574 0.041164383 0.09980119 -0.17919149 0.060431127
0.084398665 -0.23038393 -0.3333505 0.019542731 -0.5220574 0.12367942 0.08616803 -0.28434265

bias f4 [50]
00000000: 59ca b9be ab6b 4cbe 1915 88bb 9401 a73d
00000010: 54a8 26bd 66da d6bd 1e05 eebd 8079 88be
00000020: 7688 a5bd 517e 17be f458 80be ff27 13be
00000030: 0739 22be e472 e1bd 236a 92be 3d34 b3be
00000040: 5f07 edbd fe13 77be ff88 c13d 4f41 8cbe
00000050: c7bf b83d a59a 043c 9742 dbbd b8ce 3dbd
00000060: 53db 9a3c a923 0abe 1646 dabc 7a7a f6bd
00000070: 627a 20bd 73ff b1be 7b90 233d 7062 31be
00000080: c6e1 ffbd f587 bdbe af86 c3bd f8e5 fc3d
00000090: e55f debc d7c8 b7be 1ad4 0ebe 1e63 22bd
000000a0: 8f0e f1bb ae6d 26be ee4b f7bd 83be 18be
000000b0: 690a 55be 69fd 88be 9804 b6be 5a79 55be
000000c0: d9ec b8be aada 65be
-0.36287192 -0.19962947 -0.0041529057 0.08154598 -0.040687874 -0.10490875 -0.1162207 -0.26655197
-0.080826685 -0.1479428 -0.25067866 -0.14370726 -0.15842067 -0.11008242 -0.285966 -0.35000792
-0.115736715 -0.2412872 0.09449958 -0.27393577 0.090209536 0.008093511 -0.107060604 -0.04633972
0.01890341 -0.13490166 -0.026644748 -0.12035079 -0.039179213 -0.34765205 0.03993271 -0.17322707
-0.12494235 -0.3701779 -0.09547173 0.123485506 -0.027145335 -0.35895416 -0.13948098 -0.039645307
-0.007356472 -0.16252777 -0.12075029 -0.14916424 -0.20804752 -0.26755837 -0.3555038 -0.20847073
-0.361182 -0.22446695

weight f4 [50, 50]
00000000: f311 623d dba1 06bd 6d3f 6ebe fdbc 8ebe
00000010: 2b1a f2bc 3d65 1ebb df09 c3be 691c 553c
00000020: 4037 623e bc02 8abe c57b 833e 8d2a e7be
00000030: 4357 8a3c 033a 94be 106b 07be ee89 833d
00000040: e3dd a2be 82f1 5e3d ea96 42bf 723d b2be
00000050: f453 3f3e 435e ccbe 7939 f4bd 7431 9dbe
00000060: 8360 953e abe2 cbbe 01fa b1be 3abe 9dbe
00000070: baf2 b8be df70 02be 20c7 3e3e 9ed1 1cbe
00000080: a27e 3bbe e09e 733c 467d 6abe a0ae f2be
00000090: 829e 1bbe 77cb 793d 033d 3dbe 09c8 703e
000000a0: 6d46 9dbe 8464 0ebf 9bb5 babe 41d1 a2be
000000b0: 1ce9 34bd 47b8 00be 920b 063e 443c b6be
000000c0: 60f9 083d 2b68 cf3d 1e6b 56be e4b1 1bbe
000000d0: 7a32 7bbe b8d6 f7bd 5520 f3bd 2812 08be
000000e0: 961f 82bd a815 043c 3261 e5be 706a 9cbd
000000f0: 1703 5fbe 430f 9ebe e897 51be f18b 19bc
00000100: e0ee bc3c d657 b3bd 3018 82be bc53 d2be
00000110: 5177 75be 1a72 68be 3fef 87be 97e5 afbc
00000120: 508a b4bd 42c7 1bbe b0f6 8cbe 6946 d6be
00000130: ed6d d3be 253b 8cbe 1cba a3be b05b 29be
00000140: e4da 52be 7112 76be b06b 0a3b 5fd8 16bd
00000150: 066d afbd e0f6 c5be 4c0b 70be b8bb 2ebe
00000160: 6372 e6bd bcbd c2be 7388 3abc 517a a3be
00000170: b754 87be f0d2 2ebe 1f54 99be d932 16be
00000180: 6a75 fabd e4e5 ddbd e4aa 9ebd 28d6 35be
00000190: e2f9 40be fd0d 0abe 3ba4 c3bc 9a75 bfbe
000001a0: 1b88 60be d2ab 8bbd e06b d8bd eef6 67be
000001b0: 9549 c0be d0d0 6ebe 456a 4abd 4be9 69be
000001c0: 53ca 8dbd c197 bcbc ea9d 05be f135 923c
000001d0: 7fbe 17be 819a 77be fb9a c5bd 6caf 92be
000001e0: 9d09 20be e6c8 88bd 234a fbbd 9e17 8fbe
000001f0: aa2b 40bd b05b b9be 5159 36be 6273 9cbe
00000200: 4288 3ebe caf2 00bd b383 7fbd c27c 6bbe
00000210: 568a 41bd 1701 07bd 5cd5 77bd 5975 aebe
00000220: 98df 75bd 4559 793d 70e6 a9bd bb83 1bbe
00000230: 5f64 68bc 4129 8ebe 3a27 17be b3a7 ccbd
00000240: 3bc1 d0bd 6525 fbbd 7c7a 0f3d aa71 00be
00000250: 6241 54bd 70ba 8bbd 9152 6dbe 5b0e 7abe
00000260: 78ab 52bd 6377 aabe 8edd a6bd 6c79 85be
00000270: 8855 a23d 7745 86be 2021 debe 9b03 c3bd
00000280: f7e3 eebe bd3c dcbd 75f4 8dbe b810 79be
00000290: 3bf3 4fbe 14e9 77be 1c48 94bd efb9 adbe
000002a0: 943f 5d3e 269c 30be 7eab 82be bbed 893d
000002b0: 2e71 013d 3bd2 50be c675 d7be 96d4 62be
000002c0: 13c4 b5bd 6542 90be d1ff eebd 4f44 e9bd
000002d0: 5bc7 3dbe 5018 d039 f813 fdbd 90b2 0dbe
000002e0: f359 30be 8afc 21be a8b5 d23d b291 4ebe
000002f0: ea63 27be 6164 c0be 9f4e 863d bc44 893d
00000300: d242 e0bd 3e8d 1cbd 419b 35be b805 0ebe
00000310: 3500 81bd 2f0e 86bd 9eb6 27be de42 7abd
00000320: 3a35 d8bd 9e5a d3bc be3c 17be 288b 87be
00000330: 172e 7abe 5a59 a33d de1e a4be 711b c3bd
00000340: e08e 7dbe d888 44bd 17d1 a9be 446d edbe
00000350: a00f 3dbe 307b 5fbe aa0f 0dbd 22f6 bcbd
00000360: 129b 2e3e fe9a d93d 05f9 9fbe ba30 b13d
00000370: a49d 5cbe a30b 04bd 3382 bbbd ab09 23be
00000380: 1439 61be 66ee 32be 5450 773d 5607 bcbe
00000390: 1bd3 c1bd 361f 16bc 5d9a 82be 0e2c 903d
000003a0: 828c 89be 9eba 3dbe 5ead 05be c80e 5c3d
000003b0: 9c9c e3bd ffeb 5dbc 93ce 6dbe 98cf 13bf
000003c0: 349d 93be db0d 043e 40a7 80be d0bf d2bd
000003d0: 44dd 0d3e fc77 acbe 27cc 73bd fc1c cfbd
000003e0: c841 88be 8390 6cbc 1f1a 7abe 3452 c7bd
000003f0: 29a5 6abe e77a bcbd 95c7 c7bd 2f9d 76bc
0.0551929 -0.0328692 -0.23266383 -0.27878562 -0.029553493 -0.002416923 -0.3809347 0.013007262
0.22091389 -0.2695521 0.25680366 -0.4514965 0.016887313 -0.2895051 -0.13224435 0.064227924
-0.3180991 0.05442954 -0.76011527 -0.34812504 0.1868437 -0.39915666 -0.119250245 -0.30701792
0.29175195 -0.3982137 -0.3476105 -0.30809194 -0.36122686 -0.1273837 0.18630648 -0.15314338
-0.18310025 0.014869422 -0.2289935 -0.47398853 -0.15197185 0.060985055 -0.18480305 0.23513807
-0.30717793 -0.55622125 -0.3646668 -0.31800273 -0.044167623 -0.12570296 0.13090351 -0.35592854
0.033440948 0.1012729 -0.209393 -0.15204579 -0.24530974 -0.12101501 -0.11871401 -0.13288176
-0.06353681 0.008061804 -0.44800717 -0.07637489 -0.21778522 -0.3087102 -0.20468104 -0.009371744
0.023063123 -0.08756988 -0.2540908 -0.4107951 -0.23971297 -0.22699776 -0.26549718 -0.021471782
-0.088154435 -0.1521273 -0.27531958 -0.41850594 -0.41294804 -0.27388874 -0.31977928 -0.16538882
-0.20591313 -0.24030472 0.0021121316 -0.03682744 -0.085657164 -0.38664913 -0.2344181 -0.17063797
-0.11252286 -0.3803538 -0.011385071 -0.31929258 -0.2643182 -0.17072654 -0.29946992 -0.14667834
-0.12229426 -0.10834864 -0.077474385 -0.17757475 -0.18845323 -0.13481899 -0.023882022 -0.3739441
-0.2192692 -0.068198815 -0.105674505 -0.2265279 -0.3755614 -0.23321843 -0.049417753 -0.228429
-0.06923356 -0.02302158 -0.1304852 0.017847987 -0.14818762 -0.24180032 -0.09648701 -0.2864946
-0.15628667 -0.06678943 -0.1227 -0.27947706 -0.04691664 -0.36202765 -0.17807509 -0.3055678
-0.18606666 -0.03148154 -0.062381458 -0.2299681 -0.047251068 -0.032960024 -0.06050621 -0.34073904
-0.06002769 0.06087615 -0.082959056 -0.1518697 -0.014184087 -0.2776585 -0.14761057 -0.099929236
-0.10193106 -0.12262992 0.03502892 -0.1254336 -0.051820166 -0.068226695 -0.23176028 -0.24419539
-0.051433057 -0.3329421 -0.08147727 -0.260692 0.0792647 -0.26224872 -0.43384647 -0.09522172
-0.46658298 -0.107537724 -0.27725568 -0.24322784 -0.20307629 -0.24210006 -0.07240316 -0.3393092
0.21606284 -0.17247066 -0.25521463 0.067347966 0.031602077 -0.20392697 -0.42082042 -0.22151408
-0.08875289 -0.28175655 -0.11669887 -0.11389982 -0.1853308 0.00039690966 -0.12357324 -0.13837647
-0.17221813 -0.15818992 0.102885544 -0.20172766 -0.16346708 -0.37576583 0.065579645 0.06702563
-0.10950245 -0.038220637 -0.17735006 -0.13869369 -0.062988676 -0.06545674 -0.16378257 -0.061098926
-0.10557027 -0.025800046 -0.14769265 -0.26473355 -0.24431644 0.07976027 -0.320548 -0.095267184
-0.24761534 -0.047982067 -0.33167335 -0.46372426 -0.18462992 -0.21824336 -0.034438767 -0.092266336
0.17051342 0.106252655 -0.31244674 0.08651872 -0.2154451 -0.03223766 -0.09155693 -0.15921657
-0.2199443 -0.17473754 0.06037934 -0.36724347 -0.09464093 -0.009162715 -0.25508395 0.07039653
-0.2686501 -0.1852822 -0.13054416 0.053725034 -0.11113855 -0.013545035 -0.23223333 -0.5773864
-0.28830874 0.1289591 -0.25127602 -0.102904916 0.13853937 -0.3368529 -0.059520867 -0.1011295
-0.26612687 -0.014438751 -0.24424027 -0.09732476 -0.22914566 -0.09203129 -0.09754864 -0.015052124

bias f4 [50]
00000000: d387 84bd 5690 48be fcce dfbd 334f fbbd
00000010: bf68 36be dd2e 79be f213 9abd 03b6 b8be
00000020: 9626 48be e421 083b b91d 47be 5e9d 7abe
00000030: dd60 b7be b83a 38be bec0 6cbe ef3b cebb
00000040: e7d3 9dbe b65c 9ebe e982 53be e7a4 7cbe
00000050: 4139 92be 73f3 cdbd a6d0 95be 3091 91be
00000060: 72c0 14bd da1c 56be e949 2abe 4285 60be
00000070: 329e 78be 81d8 5bbe eab2 a0bd e36e 85be
00000080: feb3 45be 1ef0 b9be 8da9 56be 21d9 acbe
00000090: 143f 82be 4353 88be 74ed 143d 07f2 4bbe
000000a0: 61b1 a7be 1578 7fbe 822a 18be 5bd0 7dbe
000000b0: a401 45be 3b32 99bd 46a8 83be fecc 0dbd
000000c0: af07 0fbe be04 d7bd
-0.06471219 -0.1958631 -0.10928151 -0.122709654 -0.17813395 -0.24334283 -0.075233355 -0.36076364
-0.1954597 0.0020772154 -0.19444932 -0.24474093 -0.35816088 -0.1799115 -0.231204 -0.0062937657
-0.3082573 -0.30930108 -0.20655407 -0.2467228 -0.28559306 -0.100562 -0.2926075 -0.28431082
-0.036316343 -0.20909443 -0.16629757 -0.21925834 -0.24279097 -0.21469308 -0.07846625 -0.26061162
-0.19306943 -0.36316007 -0.20963116 -0.33759406 -0.2543875 -0.26626024 0.036359265 -0.19916545
-0.32752517 -0.24948151 -0.14859965 -0.24786513 -0.19238907 -0.07480284 -0.2571432 -0.034619324
-0.13967775 -0.104989514

weight f4 [100, 50]
00000000: 0ab6 7cbe 660e 59bd 0023 1bb9 3685 5c3c
00000010: f2b7 b63d f4ee 23bc 64e4 89bd 8f87 4dbe
00000020: 9a75 d6bd 165e ac3d 7362 3dbe 723c 1abd
00000030: 6be7 14be 0fbb 0dbe fd02 74bd 5d13 a53d
00000040: 5896 9cbe 473d 20be 99d8 26be 50ff 09be
00000050: 5d9d 8bbd 78f8 21be e876 19be bfcd 3dbc
00000060: 1769 35be 9f97 82bd 1aaa 1abe 2cc9 14be
00000070: 074c fd39 72ef bfbd c455 99bd aca4 983e
00000080: 93f6 96bd 2a48 8cbd ee2c 3c3d 42fe c13c
00000090: 9bd3 39be f3dd 5cbd fe98 5b3e 0df0 0dbe
000000a0: 1e67 2dbd 0ef8 eb3d 42d2 d6bd 7d51 2b3d
000000b0: 04a7 54bd a63e 86be 271e 213d e0a9 1c3d
000000c0: 96fa 7cbc 568e d53c 3d08 023e 9231 b43c
000000d0: 338e 02bc 1ba6 ce3d fe02 d9be f2ea 2b3d
000000e0: 9187 5d3d 14dd 753d db34 613d 08d6 63be
000000f0: 1c71 6aba 7d29 9cbc bb65 00be 6211 893e
00000100: 53ce ed3d f15d 263e 7f10 163e ce67 643e
00000110: 9a56 1e3d d2ab a5bc bcc0 46bd 584c e13d
00000120: 5766 8a3e c0eb 46bc fde5 403e 382c ef3a
00000130: a138 713e 1c35 033f 3b34 12bd 4b39 cb3c
00000140: 5baa a83d b292 c0be 6279 51bd d000 0cbc
00000150: 4349 e33d cc6d b53d 7af3 c33d 332f cbbb
00000160: 57f9 08be 0ab7 8b3d 52a6 b33c 02e7 c0bd
00000170: 8526 313d 6487 80bb 761b 49bd 25ef a43d
00000180: e3d2 023d 65e5 2b3e a3c3 53bd 5bab c23c
00000190: 66fa 65bd 3fd3 30bc 9ea4 c43b 103b 09be
000001a0: de2b 073e 9e92 613d 4b12 ccbe 9981 fabc
000001b0: 0e7b 9abc c336 71bd a968 f3bb d6f0 ddbc
000001c0: ef40 b2bd 5141 963c 4c3e 65be ade9 97be
000001d0: 995a 17bd d29d 273e 2a7c 56be 3139 05be
000001e0: 3fac 11be 0eab 83bb d69d bb3c d643 aa3d
000001f0: e702 233c f4e3 9fbd 59a8 04be 1411 c23d
00000200: 9919 d6bc 03e3 3c3d 413c ecbd 2bef 433d
00000210: 1cb1 9d3d ef44 53be 5da3 0bbd e485 ba3c
00000220: 1d31 a5bd d180 e9bd ce7d 4ebc ff07 5ebd
00000230: 3c2e 05be fd0e 13bd e973 07bd 4c6e 5bbd
00000240: 3098 513d 3b25 ddbd a86a 06be 9084 f5bc
00000250: 2482 25be 695d 0abe f430 56ba 45f2 1e3c
00000260: ec62 c9bd d041 a5bd 1483 b6bd 394a a93d
00000270: b238 0a3c cdcf 13be 72ea 1dbe dfe9 3fbd
00000280: e881 a0bd 5dd6 f0bd 2c44 ddbd 0726 9abd
00000290: 30e5 88bd 8e1d 8dbd ba35 c4bd 8550 4abd
000002a0: 36b6 22be 4c25 b0bd 9d25 0cbe 4789 033e
000002b0: 4431 3dbe 6372 c1bc 7a29 0fbe 25dd 80bd
000002c0: 3446 5d3d 07a2 0dbe 724e debd b93e 603d
000002d0: 06c4 a2bd 74e4 583d 206a 583c 20b4 18be
000002e0: 2d1e abbc ab20 2a3d 7b50 3bbd 20f9 4e3d
000002f0: 3ffb ec3b 9e5b 39be 6b29 21be fa2d f13d
00000300: 8b81 a9bc 441c 1fbd c774 b3bd 28fb b8bc
00000310: ac82 13be c854 a1bc 651b dbbc 58fa ecbd
00000320: 3e83 02bf b6ab 083e 5623 65bd 2172 b23d
00000330: bfe4 0c3e 15a6 80be 2af4 d3be a35d 5fbd
00000340: 37d6 083e c62a a9bd 3d08 ba3c 5c93 1cbe
00000350: a21b b93c 3ffb 983d 4c8b 2dbe efd9 89be
00000360: f080 813e a382 b2be 4dc2 17be bc05 0a3e
00000370: 9b3f 7cbb f8be d6be 72a3 603e 1f10 b3bd
00000380: d97f da3e f0c6 9ebd bb38 72be b491 af3e
00000390: 35ad 05be afa3 6abd a7e8 a1bc 1be9 9abe
000003a0: aad8 ccbd 8756 78bd df7b 92be 293b 203d
000003b0: b869 16be a605 39be 0411 8bbe 1c8d 163e
000003c0: 9bca 0bbd 063c e9be ba67 e53b 15a7 603d
000003d0: 3bbf 6fbd 2627 843e b7a7 f9bd 2869 18bf
000003e0: aa9e 733d 0389 3dbe 1113 b1be cd6d 273e
000003f0: f122 96bc 9186 ec3c 60a9 813e 2d83 b2bd
-0.24678817 -0.052992247 -0.0001479499 0.013459494 0.089218035 -0.010005701 -0.06733015 -0.20071243
-0.104716495 0.08416383 -0.18494587 -0.0376553 -0.14541404 -0.13840888 -0.059573162 0.08060334
-0.30583453 -0.15648375 -0.16293563 -0.134763 -0.06817124 -0.1581744 -0.14986765 -0.011584698
-0.1771587 -0.06376576 -0.15103951 -0.14529866 0.00048312565 -0.093718424 -0.074870616 0.29813135
-0.07371249 -0.06849702 0.045941286 0.02368081 -0.18147127 -0.053922605 0.2144508 -0.13861103
-0.04233467 0.11521922 -0.10489322 0.04182576 -0.05191709 -0.26219672 0.039335396 0.038247943
-0.015440604 0.026068848 0.12698455 0.021996293 -0.007968473 0.10090276 -0.42385095 0.04197211
0.054084364 0.06002529 0.054982048 -0.22249615 -0.0008943246 -0.019062752 -0.12538807 0.26771075
0.11611619 0.16246773 0.1465473 0.22305223 0.03865681 -0.020223532 -0.04852365 0.110008895
0.27031204 -0.012141168 0.18837734 0.0018247431 0.23556758 0.51252913 -0.035694342 0.024807593
0.08235618 -0.3761192 -0.05114115 -0.008545116 0.11097958 0.08858833 0.09567924 -0.006200695
-0.13376366 0.06822021 0.021929894 -0.09419061 0.043249626 -0.00392239 -0.049098454 0.08053426
0.0319394 0.16786726 -0.051700246 0.02376335 -0.056147 -0.0107925525 0.006001069 -0.13401437
0.13200328 0.055071466 -0.39857706 -0.030579375 -0.018857505 -0.058890115 -0.007428248 -0.027092379
-0.08703791 0.018341692 -0.22387046 -0.29670468 -0.036951635 0.16368797 -0.20945802 -0.13010098
-0.14225863 -0.004018194 0.02290241 0.0831372 0.009949422 -0.078071505 -0.12954845 0.09475914
-0.026135253 0.046114933 -0.1153493 0.04783551 0.076997966 -0.20631765 -0.034091342 0.022768922
-0.08066008 -0.11401523 -0.012603236 -0.054206844 -0.13005918 -0.035902966 -0.033069525 -0.053571984
0.051170528 -0.10798117 -0.13126624 -0.029970437 -0.16162926 -0.13512196 -0.0008170747 0.009701316
-0.09833321 -0.08069193 -0.0891172 0.0826611 0.008436369 -0.14434738 -0.15421465 -0.046853896
-0.07837278 -0.117596366 -0.108040184 -0.075267844 -0.06684339 -0.06890403 -0.0958056 -0.049393196
-0.1588982 -0.08600864 -0.13686223 0.12845336 -0.18475825 -0.023614114 -0.13980666 -0.0629218
0.05402203 -0.1383134 -0.10854806 0.054747317 -0.07947545 0.052952245 0.013208896 -0.14912462
-0.020888412 0.04153506 -0.04573105 0.050530553 0.0072320993 -0.18101355 -0.15738456 0.117763475
-0.020691654 -0.038845316 -0.08762508 -0.022580698 -0.14405316 -0.019693747 -0.026746461 -0.11571187
-0.5098151 0.13346753 -0.055941902 0.087131746 0.13759135 -0.2512671 -0.4139722 -0.05453266
0.13362966 -0.082601115 0.022709006 -0.15290588 0.022596184 0.074697964 -0.16947669 -0.26924083
0.25293684 -0.34865293 -0.14820214 0.1347875 -0.003849006 -0.41942573 0.2193735 -0.08743309
0.42675665 -0.07752788 -0.23654453 0.3429085 -0.13054354 -0.057285007 -0.019764258 -0.3025597
-0.10002263 -0.060629394 -0.2861013 0.03911892 -0.14688766 -0.18068561 -0.2716142 0.14702266
-0.034128767 -0.45553607 0.0070008906 0.05484684 -0.05853198 0.25811118 -0.12190192 -0.59535456
0.059477486 -0.18509297 -0.3458486 0.1635048 -0.018327208 0.02887276 0.25324535 -0.08716426

bias f4 [100]
00000000: 2e8d 1abc 3d50 1c3d 57c9 c8bd ce1c 56be
00000010: c538 2c3d 56f1 c63d 0604 943d 93ab b33e
00000020: 61ff 03bd 7ab7 a03d 3fa9 943c 3657 0abd
00000030: eb21 7ebe 5e7c 6bbd ec75 b1bd 59d8 5abd
00000040: 45d7 7b3c 2e19 9b3d 1d40 28bc 9e11 0a3e
00000050: eead 9cbd 966d aabc e6c8 0a3e 297f 64bd
00000060: 8740 f5bd d7c6 143d cb61 c6bd 5e95 ed3c
00000070: d228 853d 79e6 20be b0fc 13be 12e8 cf3d
00000080: 1485 aa3e a7e0 b93d 69ee 5c3e 75f6 843d
00000090: f551 e93a b41d bf3d 238e b03e df12 003d
000000a0: 399e d73d 84f5 4fbe 6e93 933e cdce a23d
000000b0: c84e 04be 6d8c aebd ec10 f83e 11a4 edbd
000000c0: 5343 9f3d b2f1 e03b 13b0 eebd d51d b13d
000000d0: ad40 023e 4a57 c33d 0fd5 b23d e3ef 663c
000000e0: 2979 2f3e 709a 23be e2ed 68bd b3fd 2ebd
000000f0: e998 37be 83dd ac3d ff9c 2fbd 1943 103e
00000100: ed92 18be 59a7 00be 4307 17b7 d2da 34bd
00000110: b175 7d3d ee57 823e 3877 80bd 818b 0c3e
00000120: 652b ccbd d033 fb3d 523a 073c 1104 57be
00000130: 6240 1e3d 4827 a33d c31e d9bd 08a4 d6bd
00000140: 9cba 47be 96e1 48be 49b5 6cbd efcc be3d
00000150: 73cd b33d aedb 7b3e b595 8fbe b8c2 25be
00000160: 2123 59be b413 c7bd 5d21 36be adfc 6fbe
00000170: bd09 873d efa2 2e3e e05d 4abd f800 0cbe
00000180: fd80 8cbc 9a0f b9bd 5dc0 093e c573 02bb
-0.009433074 0.03816246 -0.098040275 -0.20909426 0.042046327 0.09714 0.0722733 0.35091838
-0.03222597 0.078474954 0.01814711 -0.033774577 -0.24817626 -0.057491653 -0.0866507 -0.05342898
0.0153711485 0.07573162 -0.010269192 0.13483283 -0.07650362 -0.020804208 0.13553199 -0.055785332
-0.11975198 0.03632244 -0.09686621 0.029001888 0.065019265 -0.15712918 -0.14451861 0.10151686
0.33304656 0.09076052 0.21575321 0.064923204 0.0017800914 0.09331837 0.34483442 0.031267997
0.105282255 -0.203085 0.28823417 0.079496 -0.12920678 -0.08522878 0.4845041 -0.11603559
0.07776513 0.00686475 -0.11654677 0.08648268 0.12719984 0.095381334 0.08732044 0.014095279
0.17136063 -0.15976882 -0.056867488 -0.042722415 -0.17929424 0.084406875 -0.042874333 0.14088096
-0.14899798 -0.12563838 -9.001992e-06 -0.044153996 0.061879817 0.2545771 -0.06272739 0.13725092
-0.09969214 0.12265742 0.008253651 -0.20997645 0.03863562 0.07966477 -0.106015705 -0.10480505
-0.1950478 -0.19617304 -0.057790074 0.09316432 0.08779421 0.2459552 -0.28043905 -0.1618756
-0.21204807 -0.09720555 -0.17786165 -0.23436232 0.06593654 0.17054342 -0.049405932 -0.13672245
-0.01715135 -0.09036179 0.13452287 -0.001990543
