mcspace/paper/mouse_runs/runs/seed_9/model.pt (torch, 464942 bytes, 99 tensors)

theta_params f4 [100, 74]
00000000: ec51 bcbe b28e a2c0 5640 26be 271d 89c0
00000010: bb8a 27be a867 bf3f f47f 78c0 44aa cac0
00000020: 7b69 2fc0 01be 89c0 2474 a5c0 0d5b 77c0
00000030: 02a9 3fc0 a01d 86c0 bcbf 8e3f 3ca2 91c0
00000040: 9d91 8cbf 8a3d 92c0 1948 83c0 ab11 87c0
00000050: 458d abbf 330d abc0 d0aa 15c0 18c2 ebbe
00000060: 47e3 89c0 a4c3 0d40 65c7 09c0 7c61 bb3a
00000070: 750d 96c0 52bd b2c0 84c8 41c0 803c abc0
00000080: 2572 8dbe 00e6 b740 4564 b23f fa15 98c0
00000090: f722 8fc0 e189 e93f a9b8 acc0 3d03 c1c0
000000a0: 8849 92c0 5820 a6c0 f747 e83e f76d 933f
000000b0: 2bf2 68c0 9987 84c0 3605 023f 59f2 98c0
000000c0: 88e3 99bf 59fd 44c0 ea2e 30c0 75b9 5fc0
000000d0: a8b1 c5c0 6bd4 7dc0 a64c 4cc0 575c 0240
000000e0: f098 8dc0 d59d 87c0 8f63 acc0 24af 14c0
000000f0: 3bff babe e237 18c0 66b5 87c0 a0c0 63c0
00000100: b383 3a3f 6af2 0740 50dd 1e3f 0972 a1c0
00000110: 146b 6bc0 d2d3 8dc0 a888 67c0 24e1 8dc0
00000120: 12e0 e1bf d58c 8cc0 7ea6 60c0 132d a6c0
00000130: 54fb a3c0 7f70 d640 c108 91c0 9231 0cbf
00000140: 24fe c63f 2277 93c0 b919 8ac0 cba0 81c0
00000150: f80c a63f 0351 a3c0 1298 87bf 247e 80c0
00000160: 1998 df3f 69e9 a1c0 3425 563f 032d 5dc0
00000170: 6bb2 92c0 8c6d fb3e a824 6bc0 acee 203f
00000180: b644 053f 9e3a aac0 7e6d 5dbf 0143 c53f
00000190: 5d51 98c0 c181 55c0 b970 fd3f 95c0 24c0
000001a0: 4451 a0c0 288a 9ec0 55cc dcbf ee63 883e
000001b0: 790d a03e 8eec bbc0 7c60 d1c0 31c8 9dc0
000001c0: 4fe9 a1c0 4b75 dbc0 7661 a8c0 8dd4 cac0
000001d0: a029 be3e 2848 0fbf 13fc b9c0 a952 1dbf
000001e0: 218b 87c0 367a 1ac0 98fd 95c0 6555 acc0
000001f0: e373 bcc0 8866 57c0 3a39 0bbf 09ff bec0
00000200: eb7e 0bc0 ae37 d7be 8677 bcc0 27f5 86c0
00000210: b65b b2c0 f0db d93f d9a8 343f 1ca2 bdc0
00000220: 563a b1c0 d272 86c0 f430 9ac0 a775 f23f
00000230: c1e0 ccc0 2853 b5c0 fd03 a9c0 0a8e 9fc0
00000240: cb82 c1c0 66fe 72c0 71de a5c0 d856 6bc0
00000250: 4555 443f 25d4 3c3f c11a 87c0 c99f c93f
00000260: 7dca 3dc0 1fa2 aac0 511f bec0 b634 98be
00000270: e2c8 dec0 b9f3 dfc0 f261 d6bf c549 aa3f
00000280: a25b 80c0 dfbe 3a3f 6558 b2c0 27ab 093f
00000290: c959 d23f e3c4 01c1 102a b2c0 644f 733f
000002a0: cb58 cec0 9c43 9dc0 a1b5 e5bc 4dea b5c0
000002b0: 21a7 903f a173 c5c0 790c b9c0 615e 7040
000002c0: dda5 1740 4d79 fbc0 42f5 21bf be8e 3ac0
000002d0: 8b3a a2be 66cf 76c0 4011 fe3f 5800 b2c0
000002e0: 36b0 cec0 2475 5140 dc81 dec0 6289 c8c0
000002f0: 0652 e1c0 5aa8 fabf 5289 4fbd 90ea dd3f
00000300: 9c0f c6c0 cc04 cfbf 2a1b 9e3f 561a 62c0
00000310: 8e5b 94bd e32d 84be 3b01 4f40 ae54 98c0
00000320: 9b0d 8840 5e89 05c0 3c17 c83f ff31 2040
00000330: 7dbd afc0 47bf c4c0 0ed6 adc0 f3f9 cabf
00000340: 8e4e adbf f2fe d4c0 7d21 a5c0 8327 b6c0
00000350: fa4a c33f c808 a540 ffee a6c0 a77d c7c0
00000360: 3b00 ddc0 a118 47c0 a5ee 58c0 ee02 e63f
00000370: f665 0bc0 4ac0 c4c0 7528 983f 3df4 8bc0
00000380: d277 1240 c1ec 69bf 69fe 66c0 d4d6 e33f
00000390: c74e a3c0 fd03 c6c0 1f84 2d3f 0e9b 39c0
000003a0: 7e64 673f 75b0 29c0 f589 063f c5fd 7e3f
000003b0: 2486 2ec0 bb3c b33f f6a5 2540 2c43 20c0
000003c0: 5f31 1bbf bab3 86c0 0e87 8ec0 b69d c240
000003d0: e451 83bf 8539 60c0 0b57 93c0 e2ac 113f
000003e0: 6721 a3c0 de07 8f3f 2810 bc3f 1ad2 ca3f
000003f0: 2475 a4c0 8f44 c5c0 2cb9 8dc0 9118 70c0
-0.3678125 -5.079919 -0.1623548 -4.2848086 -0.16361515 1.4953508 -3.8828096 -6.3332844
-2.740813 -4.304444 -5.1704273 -3.8649323 -2.9946904 -4.1911163 1.1152263 -4.551054
-1.0981938 -4.570012 -4.102551 -4.2209067 -1.3402487 -5.345361 -2.3385506 -0.4604652
-4.308994 2.215066 -2.152795 0.001429602 -4.6891427 -5.5856104 -3.0278635 -5.3511353
-0.27626148 5.746826 1.393685 -4.7526827 -4.473018 1.8245202 -5.3975415 -6.0316453
-4.571476 -5.191448 0.45367405 1.1517934 -3.6397808 -4.1415524 0.507892 -4.7795835
-1.2022562 -3.077963 -2.7528634 -3.4956944 -6.1779366 -3.96609 -3.1921782 2.036886
-4.424919 -4.2380166 -5.387153 -2.3231897 -0.3652285 -2.3784108 -4.2408934 -3.558632
0.7285721 2.1241708 0.62056446 -5.0451703 -3.6784105 -4.432107 -3.6177158 -4.433733
-1.7646506 -4.3921914 -3.5101619 -5.193002 -5.1244297 6.7012324 -4.5323186 -0.5476314
1.5546308 -4.6082926 -4.31564 -4.050878 1.2972708 -5.103639 -1.0593283 -4.015398
1.7468292 -5.0597425 0.8365052 -3.4558723 -4.5842795 0.49107015 -3.6741123 0.62864184
0.5205797 -5.3196554 -0.86495197 1.5411073 -4.759932 -3.3360445 1.9800025 -2.5742543
-5.00992 -4.954365 -1.7249857 0.2663874 0.3126028 -5.8726263 -6.543028 -4.9306874
-5.05973 -6.858068 -5.261897 -6.338446 0.37141132 -0.55969477 -5.812021 -0.61454254
-4.2357335 -2.4137092 -4.6872063 -5.385424 -5.8891463 -3.365633 -0.54384196 -5.968632
-2.1796215 -0.42034668 -5.8895903 -4.217426 -5.573695 1.7020245 0.7057014 -5.9260387
-5.538371 -4.201516 -4.8184757 1.8942155 -6.402436 -5.666401 -5.281737 -4.9860888
-6.047216 -3.7967772 -5.1834035 -3.6771755 0.7669261 0.73761207 -4.222016 1.5751888
-2.965484 -5.33229 -5.941323 -0.29727715 -6.962022 -6.9985013 -1.674864 1.3303763
-4.0111856 0.72947496 -5.5732903 0.5377678 1.643365 -8.110568 -5.5676346 0.95043015
-6.448339 -4.914503 -0.028040709 -5.684851 1.1301004 -6.170365 -5.7827725 3.7557604
2.3694985 -7.858557 -0.6326486 -2.9149623 -0.3168529 -3.8564086 1.9849014 -5.562542
-6.45901 3.2727747 -6.953352 -6.2667704 -7.0412626 -1.9582627 -0.05066807 1.7337208
-6.1894054 -1.6173339 1.235204 -3.5328574 -0.07244025 -0.2581626 3.23445 -4.760337
4.251661 -2.0865092 1.563209 2.5030515 -5.491881 -6.1483493 -5.4323797 -1.5857528
-1.3539598 -6.6561213 -5.160338 -5.692323 1.5257256 5.157322 -5.2166743 -6.2340884
-6.906278 -3.1108782 -3.3895657 1.7969644 -2.1780982 -6.148473 1.1887347 -4.3735642
2.2885633 -0.9137688 -3.609278 1.7799935 -5.1033664 -6.187987 0.67779726 -2.9000888
0.90387714 -2.651395 0.52554256 0.9960597 -2.7269373 1.4002908 2.5882545 -2.5040998
-0.6062221 -4.2094393 -4.453986 6.081752 -1.0259366 -3.5035107 -4.6043754 0.56904423
-5.0978274 1.1174276 1.469243 1.5845368 -5.1392994 -6.164619 -4.428854 -3.7514994

q_mu f4 [7]
00000000: 5d45 5bc0 63c3 f1bf 62f9 20c0 b702 02c0
00000010: e382 1ac0 2df6 02c0 6b45 64c0
-3.4261086 -1.8887752 -2.515221 -2.0314157 -2.4142387 -2.0462754 -3.566737

q_var f4 [7]
00000000: 6c0f 3ac0 76da 5ac0 11f2 45c0 9c65 91c0
00000010: 71ec 72c0 8aa7 94c0 19ce 41c0
-2.9071913 -3.4195838 -3.0928996 -4.5436535 -3.7956812 -4.6454515 -3.0282042

eps f4 [7]
00000000: 067c 77bf 5814 243f 8195 c33f df9d fbbe
00000010: f3b2 0fc0 731f 423f 878c b43f
-0.9667362 0.6409354 1.528 -0.49143884 -2.2452972 0.7582924 1.4105386

q_gamma_params f4 [99]
00000000: 7766 8740 0695 7840 772b 6240 f920 7d40
00000010: 11c0 3e40 810b 7440 3f00 8040 69dd 8b40
00000020: e020 6e40 9da3 8240 8fcf 45bf 82d2 5e40
00000030: 691a 8640 aaa1 5b40 4913 2f40 135a 8040
00000040: 4f2c 8240 4083 8740 8594 1440 7e49 8040
00000050: cf8c 7f40 a7cf 7a40 f8cf 5740 157e 7140
00000060: 8763 d93f 1708 6a40 92b0 4740 3ba0 8b40
00000070: 96bb 7d40 0b3b 86bf 319c fdbf eaa0 2040
00000080: 3fe7 6a40 563c 8540 378a 7a40 5eba 8540
00000090: d8cd 3e40 2dfc 6740 9370 8740 4adf 7240
000000a0: 4851 6740 0ae2 7040 f217 6a40 4e48 6940
000000b0: 3618 c03e 85f2 8140 06e7 4d40 44b7 8040
000000c0: 7d62 5c40 670d 7540 8f33 6f40 a55a 8ebf
000000d0: 0bfc 7b40 f9b2 7c40 15ad 02c0 349d 7940
000000e0: 7d9e 6e40 a61a 4940 2788 4c40 5da9 7e40
000000f0: 11f5 7440 1318 5f40 d957 5c40 0107 6b40
00000100: b9e5 5e40 27a1 7940 8c49 7b40 ddaa 1240
00000110: 6028 4b40 cee6 6640 7a44 4240 b772 0a40
00000120: 8ec4 38bf 2b61 8940 74f7 8140 83b0 7f40
00000130: b337 38c0 c6b4 8e40 8d56 2cc0 bf65 6e40
00000140: 8d4a 8140 2c49 6140 54ff 7d40 e077 8140
00000150: 83e4 7a40 cc35 91be a148 2740 75c0 2740
00000160: 6b92 6bbf 95e0 48c0 f176 5e40 1282 7a40
00000170: decd 7e40 3d77 6ec0 e6dc 3140 ea3f 7740
00000180: 8b58 6f40 30f4 7740 1328 dabe
4.231258 3.8840957 3.533903 3.9551375 2.9804728 3.8132021 4.00003 4.3707776
3.7207565 4.0824723 -0.77269834 3.4815984 4.190724 3.4317422 2.735552 4.0109954
4.067909 4.2347717 2.321565 4.008971 3.9929693 3.918924 3.3720684 3.7733204
1.6983498 3.6567438 3.120152 4.3633094 3.9645743 -1.0486768 -1.9813291 2.5098214
3.6703641 4.163615 3.914686 4.179 2.9813137 3.6247666 4.232492 3.7948785
3.614336 3.7637963 3.6577115 3.6450381 0.3751847 4.0608544 3.2172256 4.0223713
3.4435112 3.828943 3.737522 -1.1121413 3.9372585 3.9484236 -2.041814 3.90022
3.7284234 3.1422515 3.19581 3.979087 3.8274577 3.4858444 3.4428618 3.6723025
3.4827712 3.900461 3.926364 2.2916787 3.1743393 3.6078372 3.0354295 2.1632516
-0.7217492 4.2931113 4.0614567 3.9951484 -2.8783996 4.459567 -2.6927826 3.72496
4.0403504 3.520091 3.968709 4.045883 3.9201972 -0.28361356 2.613808 2.6211216
-0.9202029 -3.1387074 3.4760096 3.9141889 3.9813151 -3.7260277 2.7791076 3.863276
3.7397792 3.874279 -0.426087

q_probs f4 [99]
00000000: 2755 7c3f 55d7 7a3f 69bd 783f 3330 7b3f
00000010: 55a2 733f 6a78 7a3f 4c65 7b3f e4cd 7c3f
00000020: 87f2 793f 07c1 7b3f 7bdc a13e a85c 783f
00000030: bb2e 7c3f 8bfb 773f b468 703f ea71 7b3f
00000040: 57b1 7b3f 6358 7c3f c423 693f 9b6f 7b3f
00000050: 1e5d 7b3f a603 7b3f 9b81 773f 1740 7a3f
00000060: 7269 583f b68e 793f 122d 753f d1c7 7c3f
00000070: 913b 7b3f 7ddf 843e 655e f83d 1ac2 6c3f
00000080: 73a4 793f 7314 7c3f 60fe 7a3f 8b23 7c3f
00000090: 76a4 733f a85a 793f 2656 7c3f df5e 7a3f
000000a0: 3c49 793f 5432 7a3f 3d90 793f e57b 793f
000000b0: 25c7 173f ada9 7b3f 8423 763f df7e 7b3f
000000c0: e912 783f 0d8e 7a3f ba0b 7a3f a680 7d3e
000000d0: 6a1a 7b3f 1128 7b3f ac4b eb3d 07ec 7a3f
000000e0: 1bfe 793f 3667 753f 52ef 753f d54c 7b3f
000000f0: 048c 7a3f 3962 783f a011 783f 86a7 793f
00000100: d75e 783f 5bec 7a3f f10c 7b3f 3341 683f
00000110: 52b9 753f 393e 793f 0a44 743f 3f9c 653f
00000120: 0e7e a73e b38c 7c3f 59aa 7b3f ac5f 7b3f
00000130: 4517 5a3d 9712 7d3f a7db 813d e6f8 793f
00000140: 1093 7b3f 9fa2 783f 7c40 7b3f 3899 7b3f
00000150: 4505 7b3f 0a08 dc3e 6d88 6e3f 65a5 6e3f
00000160: 32fe 913e d441 2a3d cc51 783f c5fd 7a3f
00000170: 714f 7b3f 65df bf3c cb08 713f d1bb 7a3f
00000180: 0d0f 7a3f 96ca 7a3f 535e ca3e
0.9856743 0.9798482 0.97164017 0.9812042 0.95169574 0.9783999 0.9820144 0.98751664
0.9763569 0.9834141 0.31613526 0.9701638 0.98508805 0.968682 0.93909764 0.98220694
0.98317474 0.9857237 0.910702 0.9821717 0.9818896 0.9805244 0.9668214 0.97754043
0.84535897 0.97483385 0.95771897 0.98742396 0.98137766 0.25951758 0.12127379 0.92483675
0.97516555 0.98468703 0.98044395 0.98491734 0.9517282 0.97403955 0.9856895 0.9780101
0.9737737 0.97733045 0.97485715 0.97454673 0.59288245 0.9830578 0.9614794 0.98240465
0.96903855 0.97873 0.97674143 0.24756107 0.9808718 0.9810801 0.11489043 0.980164
0.9765336 0.9586061 0.960683 0.9816411 0.97869897 0.97024876 0.96901894 0.97521245
0.97019714 0.980169 0.9806662 0.90724486 0.959859 0.9736057 0.9541632 0.8969154
0.3271336 0.9865219 0.98306805 0.9819286 0.053244848 0.9885649 0.063407235 0.97645414
0.98271275 0.9712314 0.9814527 0.9828067 0.98054916 0.42974883 0.9317692 0.9322112
0.28514248 0.041566685 0.9699981 0.9804347 0.9816809 0.023421953 0.9415404 0.97942835
0.97679216 0.9796537 0.3952509

gamma f4 [100]
00000000: 0000 803f 0000 803f 0000 803f 0000 0000
00000010: 0000 803f 0000 803f 0000 803f 0000 803f
00000020: 0000 803f 0000 803f 0000 803f 0000 0000
00000030: 0000 803f 0000 803f 0000 0000 0000 803f
00000040: 0000 803f 0000 0000 0000 803f 0000 803f
00000050: 0000 803f 0000 803f 0000 803f 0000 803f
00000060: 0000 803f 0000 803f 0000 803f 0000 803f
00000070: 0000 803f 0000 803f 0000 0000 0000 803f
00000080: 0000 803f 0000 803f 0000 803f 0000 803f
00000090: 0000 803f 0000 803f 0000 803f 0000 803f
000000a0: 0000 803f 0000 803f 0000 803f 0000 803f
000000b0: 0000 803f 0000 0000 0000 803f 0000 803f
000000c0: 0000 803f 0000 803f 0000 803f 0000 803f
000000d0: 0000 803f 0000 803f 0000 803f 0000 0000
000000e0: 0000 803f 0000 803f 0000 803f 0000 803f
000000f0: 0000 803f 0000 803f 0000 803f 0000 803f
00000100: 0000 803f 0000 803f 0000 803f 0000 803f
00000110: 0000 803f 0000 803f 0000 803f 0000 803f
00000120: 0000 803f 0000 0000 0000 803f 0000 803f
00000130: 0000 803f 0000 0000 0000 803f 0000 0000
00000140: 0000 803f 0000 803f 0000 803f 0000 803f
00000150: 0000 803f 0000 803f 0000 0000 0000 803f
00000160: 0000 803f 0000 0000 0000 0000 0000 803f
00000170: 0000 803f 0000 803f 0000 0000 0000 803f
00000180: 0000 803f 0000 803f 0000 803f 0000 0000
1.0 1.0 1.0 0.0 1.0 1.0 1.0 1.0
1.0 1.0 1.0 0.0 1.0 1.0 0.0 1.0
1.0 0.0 1.0 1.0 1.0 1.0 1.0 1.0
1.0 1.0 1.0 1.0 1.0 1.0 0.0 1.0
1.0 1.0 1.0 1.0 1.0 1.0 1.0 1.0
1.0 1.0 1.0 1.0 1.0 0.0 1.0 1.0
1.0 1.0 1.0 1.0 1.0 1.0 1.0 0.0
1.0 1.0 1.0 1.0 1.0 1.0 1.0 1.0
1.0 1.0 1.0 1.0 1.0 1.0 1.0 1.0
1.0 0.0 1.0 1.0 1.0 0.0 1.0 0.0
1.0 1.0 1.0 1.0 1.0 1.0 0.0 1.0
1.0 0.0 0.0 1.0 1.0 1.0 0.0 1.0
1.0 1.0 1.0 0.0

KL_gamma_k f4 [99]
00000000: 5dde dc48 2590 db48 4db9 d948 f0dd db48
00000010: 3141 d548 103d db48 6a0c dc48 0c48 dd48
00000020: dfc7 da48 b55c dc48 81ad 0d48 9c64 d948
00000030: bcbc dc48 9b0f d948 836e d248 7517 dc48
00000040: f94e dc48 32e1 dc48 9c11 cc48 7015 dc48
00000050: 4105 dc48 f1b6 db48 dea4 d848 c30b db48
00000060: 406d bd48 8070 da48 b89a d648 bb42 dd48
00000070: e3e7 db48 be9b e847 c765 5947 713c cf48
00000080: 8883 da48 bba5 dc48 53b2 db48 f1b2 dc48
00000090: 0e43 d548 f042 da48 3cdf dc48 b526 db48
000000a0: b033 da48 b8ff da48 d771 da48 0860 da48
000000b0: 1dda 8448 4448 dc48 6f72 d748 cc22 dc48
000000c0: 0f24 d948 0150 db48 eedd da48 3ee4 dd47
000000d0: deca db48 d1d6 db48 61f4 4d47 44a2 db48
000000e0: 02d2 da48 9ccd d648 bf44 d748 00f7 db48
000000f0: 394e db48 7b69 d948 ef22 d948 3886 da48
00000100: 8566 d948 8da2 db48 13bf db48 4b4b cb48
00000110: 7b15 d748 0d2a da48 bcce d548 c1fa c848
00000120: 539b 1248 fc0e dd48 db48 dc48 7d07 dc48
00000130: 1ce5 be46 2e84 dd48 5e54 e346 73cd da48
00000140: 7934 dc48 daa1 d948 31ec db48 dc39 dc48
00000150: 5cb8 db48 3098 4048 1fca d048 7ae3 d048
00000160: 8793 ff47 a806 9546 1b5b d948 cbb1 db48
00000170: 48f9 db48 21f2 2746 a4fa d248 1078 db48
00000180: d7e0 da48 fd84 db48 4c22 3148
452338.9 449665.16 445898.4 450287.5 436745.53 449000.5 450659.3 453184.38
448062.97 451301.66 145078.02 445220.88 452069.88 444540.84 430964.1 450747.66
451191.78 452361.56 417932.88 450731.5 450602.03 449975.53 443686.94 448606.1
387946.0 447364.0 439509.75 453141.84 450367.1 119095.484 55653.777 424419.53
447516.25 451885.84 449938.6 451991.53 436760.44 446999.5 452345.88 448821.66
446877.5 448509.75 447374.72 447232.25 272080.9 451138.12 441235.47 450838.38
444704.47 449152.03 448239.44 113608.484 450134.94 450230.53 52724.38 449810.12
448144.06 439916.88 440869.97 450488.0 449137.78 445259.84 444695.47 447537.75
445236.16 449812.4 450040.6 416346.34 440491.84 446800.4 437877.88 411606.03
150125.3 452727.88 451142.84 450619.9 24434.555 453665.44 29098.184 448107.6
450979.78 445710.8 450401.53 451022.88 449986.88 197216.75 427600.97 427803.8
130855.055 19075.328 445144.84 449934.34 450506.25 10748.532 432085.12 449472.5
448262.72 449575.9 181385.19

q_gamma_params f4 [100, 3]
00000000: 1274 7ec0 0850 7bc0 1e20 73c0 9cfe 53c0
00000010: b147 af3f ca3d 7cc0 153b 4bc0 1f3c 88c0
00000020: 86d9 ffbf bf71 85c0 d60c 8dc0 4818 79c0
00000030: bcd3 7ac0 93d9 57c0 435a 73c0 adf5 40c0
00000040: e736 87c0 8dfd 60c0 1557 7fc0 a6aa 5ec0
00000050: 3db7 53c0 afb9 49c0 1352 13c0 90b7 89c0
00000060: 6024 8cc0 2821 85c0 f117 84c0 06f8 81c0
00000070: 06e9 87c0 1701 89c0 b873 2a40 7785 7ac0
00000080: 6c4a 32c0 8bbb 7bc0 05d9 84c0 d9f0 7bc0
00000090: a8a0 89c0 1626 96c0 ec73 88c0 3eac 78c0
000000a0: 00f9 5ec0 1bac e33f e5da 74c0 3754 debf
000000b0: 64fb 50c0 6d8e 1ec0 e458 87c0 f4ff 83c0
000000c0: 801d 81c0 71f6 7ac0 9822 5cc0 2730 7fc0
000000d0: e912 84c0 f94d 5ec0 3c64 5fc0 d2b0 7cc0
000000e0: bd4e 36c0 2d21 76c0 8a4c 8dc0 2e64 6bc0
000000f0: 0550 60c0 cda5 81c0 3c90 86c0 5f07 71c0
00000100: 1f1e 6dc0 110a 87c0 faff 5dc0 6b6e 78c0
00000110: e9eb 19c0 ac5a f5bf c26b 83c0 629d 87c0
00000120: 0bd1 3ac0 2d68 76c0 ce41 6ec0 5b3f 4cc0
00000130: f869 7ec0 2d52 8ac0 4481 96be 7a78 83c0
00000140: 292e e93f 6dd0 61c0 0765 80c0 276e 86c0
00000150: 6409 79c0 054a 7cc0 aa21 c9bf b788 81c0
00000160: 186f 8bc0 50e7 73c0 08b4 79c0 ad98 83c0
00000170: 8509 6fc0 412b 85c0 e3df 87c0 00ab 7ec0
00000180: b8f3 6cc0 67f0 88c0 d7b6 81c0 99e8 84c0
00000190: 7f9a 74c0 1343 82c0 5ff7 7cc0 17a4 69c0
000001a0: c61b 82c0 b82d 39c0 232f 78c0 f398 87c0
000001b0: bbc5 76c0 299e 6ec0 6f55 69c0 3da8 6dc0
000001c0: 83ae 88c0 5def 85c0 a081 39c0 b227 87c0
000001d0: 2cd3 79c0 b73b 82c0 3b07 2cc0 1348 6fc0
000001e0: 352e 7ac0 a845 86c0 d86b 44c0 6d61 85c0
000001f0: 2917 85c0 80db 69c0 6230 7fc0 5939 88c0
00000200: 9124 7fc0 566e a4bf e1ff 88c0 b039 6bc0
00000210: ff3c 83c0 3ef7 83c0 372b e83e 25cf 80c0
00000220: 7cd9 7fc0 148c 58c0 54c4 4dc0 e3b2 73c0
00000230: 8afc 83c0 037d 23c0 881a 85c0 83f5 86c0
00000240: f032 913e c98a 81c0 1e84 46c0 6c88 6ec0
00000250: 9f82 89c0 18ac 80c0 4bd7 79c0 8f09 80c0
00000260: 5e18 67c0 91bf a9bf b81c 82c0 92e9 77c0
00000270: 5fb2 86c0 a960 86c0 ced0 89c0 95ed 8fc0
00000280: 9a68 81c0 bca6 7cc0 dad9 0dc0 3416 81c0
00000290: 6c1b 87c0 7432 7ac0 4d84 58c0 0898 33c0
000002a0: 064d 47c0 10ae 8ec0 d3a8 6ec0 0ef3 78c0
000002b0: e01f 84c0 b011 85c0 0fb4 76c0 0567 85c0
000002c0: 1891 85c0 3e2a 8ac0 f492 83c0 070a 7ec0
000002d0: 0245 c5bf 0a19 89c0 200f 6ec0 3b46 29c0
000002e0: 5bf2 86c0 2e53 81c0 cce4 57c0 5d17 8dc0
000002f0: 0a7f 6fc0 f540 70c0 e5ef 88c0 2d5a 88c0
00000300: 65cd 47c0 902f 84c0 579b 85c0 7bd5 99bf
00000310: f4b4 7ac0 41fa 81c0 9695 6bc0 e56c 7ec0
00000320: fc24 7bc0 dc15 66c0 20aa 83c0 56d0 58c0
00000330: 19cf 87c0 3476 87c0 4b6d 8cc0 ad42 87c0
00000340: 3a6f 7dc0 0305 41c0 c416 1dc0 f744 1540
00000350: b1d5 86c0 0343 72c0 065f 8ec0 2e2e 87c0
00000360: 84b3 8dc0 3143 87c0 d611 89c0 9586 84c0
00000370: 1d6e 85c0 cd35 7fc0 d5f2 34c0 d5ff 7fc0
00000380: a240 1240 0f1f 89c0 10ea 69c0 b43f 13c0
00000390: 242c 65c0 6a2e 86c0 22a8 74c0 853e 81c0
000003a0: 6eb7 82c0 9577 8ec0 8cad febf 0307 87c0
000003b0: ef4d 7bc0 6248 8bc0 2380 7ac0 aaa8 83c0
000003c0: 620d 36c0 8fe4 70c0 0ae1 9bbe 63d1 84c0
000003d0: 429d a43f c76b e33f b0ca b8bf 0183 85c0
000003e0: 3bb0 82c0 b050 80c0 d4cc 84c0 2338 84c0
000003f0: 461c 37c0 bda8 75c0 cbf7 5cc0 5a85 8dc0
-3.9758344 -3.9267597 -3.7988353 -3.3124151 1.3693753 -3.9412713 -3.175481 -4.257339
-1.9988258 -4.170135 -4.407817 -3.892107 -3.9191732 -3.3726547 -3.8023841 -3.0149949
-4.225452 -3.5154755 -3.98969 -3.4791656 -3.308059 -3.1519582 -2.3018844 -4.3036575
-4.3794403 -4.1602974 -4.1279225 -4.0615263 -4.2471952 -4.281383 2.663313 -3.914396
-2.7857924 -3.9333217 -4.1514916 -3.9365752 -4.3008614 -4.692149 -4.2641506 -3.8855128
-3.4839478 1.7786897 -3.8258603 -1.736945 -3.2653437 -2.477443 -4.229601 -4.1249943
-4.034851 -3.9212916 -3.4396114 -3.987314 -4.1273084 -3.473509 -3.4904928 -3.9482923
-2.8485558 -3.845775 -4.415593 -3.6779895 -3.504884 -4.0514894 -4.2051067 -3.766075
-3.7049634 -4.219979 -3.4687486 -3.8817394 -2.4050238 -1.9168296 -4.106904 -4.237962
-2.919009 -3.8501084 -3.7227664 -3.191367 -3.9752178 -4.322531 -0.29395497 -4.1084566
1.8217212 -3.5283463 -4.0123324 -4.2009463 -3.8911982 -3.9420178 -1.5713398 -4.047939
-4.3573112 -3.8109932 -3.9016132 -4.112387 -3.734956 -4.16153 -4.24608 -3.979187
-3.7023754 -4.279346 -4.0535693 -4.1533933 -3.8219297 -4.070688 -3.9525983 -3.6506402
-4.0658903 -2.8934155 -3.877877 -4.2374206 -3.8558185 -3.7284033 -3.6458395 -3.7133934
-4.2713027 -4.185469 -2.8985367 -4.2235956 -3.903514 -4.0697894 -2.6879413 -3.738774
-3.9090703 -4.196003 -3.0690823 -4.168143 -4.159077 -3.6540222 -3.987328 -4.2570004
-3.9866068 -1.2846172 -4.281235 -3.675396 -4.101196 -4.123931 0.4534547 -4.025286
-3.9976492 -3.3835497 -3.215108 -3.8077934 -4.1245775 -2.554505 -4.1594887 -4.2174697
0.28359175 -4.0481915 -3.1018138 -3.7270765 -4.297195 -4.0210075 -3.9037654 -4.001167
-3.6108623 -1.3261586 -4.0660057 -3.873631 -4.209274 -4.1992993 -4.306739 -4.4977517
-4.0440187 -3.9476767 -2.2164216 -4.0339603 -4.2220974 -3.9093294 -3.383075 -2.8061543
-3.1140761 -4.458748 -3.7290542 -3.889835 -4.128891 -4.158409 -3.85474 -4.1688256
-4.1739616 -4.3176565 -4.1116886 -3.969362 -1.5411685 -4.2843065 -3.7196732 -2.6449115
-4.2170844 -4.041404 -3.3733397 -4.409102 -3.7421288 -3.7539647 -4.279284 -4.261008
-3.1219113 -4.130806 -4.1752124 -1.2018274 -3.9172945 -4.0617986 -3.681005 -3.9753964
-3.9241323 -3.5950842 -4.114517 -3.3877158 -4.2440305 -4.233179 -4.3883414 -4.226889
-3.9599137 -3.015931 -2.4545145 2.3323343 -4.2135854 -3.78534 -4.4490995 -4.224387
-4.4281635 -4.226952 -4.2834272 -4.1414285 -4.1696916 -3.9876587 -2.8273213 -3.9999897
2.2851949 -4.2850413 -3.654911 -2.3007631 -3.5808191 -4.193166 -3.822762 -4.038882
-4.0848913 -4.4520974 -1.9896712 -4.219606 -3.9266317 -4.352586 -3.9140708 -4.114339
-2.8445668 -3.76395 -0.3044513 -4.15056 1.2860491 1.7767266 -1.4436855 -4.1722417
-4.0840125 -4.0098495 -4.1500034 -4.1318526 -2.8611007 -3.838424 -3.452624 -4.4225283

gamma f4 [100, 3]
00000000: 0000 0000 0000 0000 0000 0000 0000 0000
00000010: 0000 803f 0000 0000 0000 0000 0000 0000
00000020: 0000 0000 0000 0000 0000 0000 0000 0000
00000030: 0000 0000 0000 0000 0000 0000 0000 0000
00000040: 0000 0000 0000 0000 0000 0000 0000 0000
00000050: 0000 0000 0000 0000 0000 0000 0000 0000
00000060: 0000 0000 0000 0000 0000 0000 0000 0000
00000070: 0000 0000 0000 0000 0000 0000 0000 0000
00000080: 0000 0000 0000 0000 0000 0000 0000 0000
00000090: 0000 0000 0000 0000 0000 0000 0000 0000
000000a0: 0000 0000 0000 803f 0000 0000 0000 0000
000000b0: 0000 0000 0000 0000 0000 0000 0000 0000
000000c0: 0000 0000 0000 0000 0000 0000 0000 0000
000000d0: 0000 0000 0000 0000 0000 0000 0000 803f
000000e0: 0000 0000 0000 0000 0000 0000 0000 0000
000000f0: 0000 0000 0000 0000 0000 0000 0000 0000
00000100: 0000 0000 0000 0000 0000 0000 0000 0000
00000110: 0000 0000 0000 0000 0000 0000 0000 0000
00000120: 0000 0000 0000 0000 0000 0000 0000 0000
00000130: 0000 0000 0000 0000 0000 803f 0000 0000
00000140: 0000 0000 0000 0000 0000 0000 0000 0000
00000150: 0000 0000 0000 0000 0000 0000 0000 0000
00000160: 0000 0000 0000 0000 0000 0000 0000 0000
00000170: 0000 0000 0000 0000 0000 0000 0000 0000
00000180: 0000 0000 0000 0000 0000 0000 0000 0000
00000190: 0000 0000 0000 0000 0000 0000 0000 0000
000001a0: 0000 0000 0000 0000 0000 0000 0000 0000
000001b0: 0000 0000 0000 0000 0000 0000 0000 0000
000001c0: 0000 0000 0000 0000 0000 0000 0000 0000
000001d0: 0000 0000 0000 0000 0000 0000 0000 0000
000001e0: 0000 0000 0000 0000 0000 0000 0000 0000
000001f0: 0000 0000 0000 0000 0000 803f 0000 0000
00000200: 0000 0000 0000 0000 0000 0000 0000 0000
00000210: 0000 0000 0000 0000 0000 803f 0000 0000
00000220: 0000 0000 0000 0000 0000 0000 0000 0000
00000230: 0000 0000 0000 0000 0000 0000 0000 0000
00000240: 0000 803f 0000 0000 0000 0000 0000 0000
00000250: 0000 0000 0000 0000 0000 0000 0000 0000
00000260: 0000 0000 0000 0000 0000 0000 0000 0000
00000270: 0000 0000 0000 0000 0000 0000 0000 0000
00000280: 0000 0000 0000 0000 0000 0000 0000 0000
00000290: 0000 0000 0000 803f 0000 0000 0000 0000
000002a0: 0000 0000 0000 0000 0000 0000 0000 0000
000002b0: 0000 0000 0000 0000 0000 0000 0000 0000
000002c0: 0000 0000 0000 0000 0000 0000 0000 0000
000002d0: 0000 0000 0000 0000 0000 0000 0000 0000
000002e0: 0000 0000 0000 0000 0000 0000 0000 0000
000002f0: 0000 0000 0000 0000 0000 0000 0000 0000
00000300: 0000 0000 0000 0000 0000 0000 0000 0000
00000310: 0000 0000 0000 0000 0000 0000 0000 0000
00000320: 0000 0000 0000 0000 0000 0000 0000 0000
00000330: 0000 0000 0000 0000 0000 0000 0000 0000
00000340: 0000 0000 0000 803f 0000 0000 0000 803f
00000350: 0000 0000 0000 0000 0000 0000 0000 0000
00000360: 0000 0000 0000 0000 0000 0000 0000 0000
00000370: 0000 0000 0000 0000 0000 0000 0000 0000
00000380: 0000 803f 0000 0000 0000 0000 0000 0000
00000390: 0000 0000 0000 0000 0000 0000 0000 0000
000003a0: 0000 0000 0000 0000 0000 0000 0000 0000
000003b0: 0000 0000 0000 0000 0000 0000 0000 0000
000003c0: 0000 0000 0000 803f 0000 0000 0000 0000
000003d0: 0000 803f 0000 803f 0000 0000 0000 0000
000003e0: 0000 0000 0000 0000 0000 0000 0000 0000
000003f0: 0000 0000 0000 0000 0000 0000 0000 0000
0.0 0.0 0.0 0.0 1.0 0.0 0.0 0.0
0.0 0.0 0.0 0.0 0.0 0.0 0.0 0.0
0.0 0.0 0.0 0.0 0.0 0.0 0.0 0.0
0.0 0.0 0.0 0.0 0.0 0.0 0.0 0.0
0.0 0.0 0.0 0.0 0.0 0.0 0.0 0.0
0.0 1.0 0.0 0.0 0.0 0.0 0.0 0.0
0.0 0.0 0.0 0.0 0.0 0.0 0.0 1.0
0.0 0.0 0.0 0.0 0.0 0.0 0.0 0.0
0.0 0.0 0.0 0.0 0.0 0.0 0.0 0.0
0.0 0.0 0.0 0.0 0.0 0.0 1.0 0.0
0.0 0.0 0.0 0.0 0.0 0.0 0.0 0.0
0.0 0.0 0.0 0.0 0.0 0.0 0.0 0.0
0.0 0.0 0.0 0.0 0.0 0.0 0.0 0.0
0.0 0.0 0.0 0.0 0.0 0.0 0.0 0.0
0.0 0.0 0.0 0.0 0.0 0.0 0.0 0.0
0.0 0.0 0.0 0.0 0.0 0.0 1.0 0.0
0.0 0.0 0.0 0.0 0.0 0.0 1.0 0.0
0.0 0.0 0.0 0.0 0.0 0.0 0.0 0.0
1.0 0.0 0.0 0.0 0.0 0.0 0.0 0.0
0.0 0.0 0.0 0.0 0.0 0.0 0.0 0.0
0.0 0.0 0.0 0.0 0.0 1.0 0.0 0.0
0.0 0.0 0.0 0.0 0.0 0.0 0.0 0.0
0.0 0.0 0.0 0.0 0.0 0.0 0.0 0.0
0.0 0.0 0.0 0.0 0.0 0.0 0.0 0.0
0.0 0.0 0.0 0.0 0.0 0.0 0.0 0.0
0.0 0.0 0.0 0.0 0.0 0.0 0.0 0.0
0.0 1.0 0.0 1.0 0.0 0.0 0.0 0.0
0.0 0.0 0.0 0.0 0.0 0.0 0.0 0.0
1.0 0.0 0.0 0.0 0.0 0.0 0.0 0.0
0.0 0.0 0.0 0.0 0.0 0.0 0.0 0.0
0.0 1.0 0.0 0.0 1.0 1.0 0.0 0.0
0.0 0.0 0.0 0.0 0.0 0.0 0.0 0.0

q_probs f4 [100, 3]
00000000: 5be3 963c b054 9e3c de76 b33c e6f6 0f3d
00000010: 294b 4c3f 9b17 9c3c e540 243d e4c3 643c
00000020: 6779 f43d 3d4b 793c d22f 453c 4bcc a33c
00000030: f482 9f3c 35e5 073d 3edb b23c 3786 3f3d
00000040: 2f12 6c3c 9294 ec3c b2d7 943c 790d f53c
00000050: 1b97 103d e902 283d ea54 ba3d 128b 5a3c
00000060: 9aca 4a3c 13b6 7b3c 69ee 813c f7b3 8a3c
00000070: 0d12 673c 0366 5f3c 484d 6f3f 3e42 a03c
00000080: e303 6e3d be51 9d3c 5ae9 7d3c adce 9c3c
00000090: 9425 5b3c f3d3 143c fc39 633c a6dc a43c
000000a0: 23e8 f33c 7107 5b3f 7cc8 ae3c d151 193e
000000b0: 90a6 163d 1da1 9e3d a919 6b3c 174f 823c
000000c0: 5963 8e3c 892e 9f3c ba9e fe3c 0232 953c
000000d0: c203 823c 9f68 f63c 645f f23c f603 9b3c
000000e0: e64a 603d 7467 ab3c 9d31 443c 6ff5 c93c
000000f0: 1000 ef3c bb14 8c3c 9ed8 703c e24e b93c
00000100: 8eb4 c43c 8a58 6d3c e086 f73c 8f77 a53c
00000110: a497 a93d 7631 033e a1a6 843c c42d 693c
00000120: ecd9 513d beae aa3c 6a50 c13c 17c5 213d
00000130: e0f9 963c 4682 563c 7fb2 da3e cf71 843c
00000140: 285d 5c3f df9f e93c e493 913c 9dd5 713c
00000150: f00a a43c 7ffb 9b3c b837 303e a292 8c3c
00000160: 6a45 4f3c c656 b13c b046 a23c 8af3 833c
00000170: 6e07 bf3c a368 7b3c 5350 673c d962 963c
00000180: ee32 c53c e0d8 5f3c 8bcb 8b3c 1c71 7d3c
00000190: fb73 af3c 5575 893c a25d 9a3c fd67 cf3c
000001a0: 961b 8a3c 74f7 563d b019 a63c ae4b 693c
000001b0: dcb9 a93c ef3e c03c 9560 d03c 0b18 c33c
000001c0: 1ea1 613c 9a8c 753c 119c 563d 027f 6c3c
000001d0: 13fb a13c 9894 893c e670 823d 2029 be3c
000001e0: e615 a13c d504 733c d008 363d a6c8 793c
000001f0: f903 7c3c 31b9 ce3c e030 953c a6d6 643c
00000200: 884d 953c 9109 5e3e 996d 5f3c ca75 ca3c
00000210: 2f65 853c c071 823c fc90 1c3f ecbc 8f3c
00000220: 77b1 933c 1968 063d 7d1e 1e3d a6e4 b13c
00000230: 7f5c 823c 4cf1 933d d5e9 7b3c 0eee 6d3c
00000240: f3fa 113f 0c88 8c3c 1e4a 303d a87f c03c
00000250: 20f2 5b3c 3a57 903c c8ef a13c a62e 933c
00000260: a99c d73c dcde 563e 7217 8a3c 9acc a63c
00000270: 92db 6f3c ac3a 723c 86e1 593c d569 343c
00000280: f91b 8d3c 8020 9b3c af53 c93d 0b83 8e3c
00000290: 5bd8 6c3c 920e a13c 7d7b 063d 2b75 693d
000002a0: 1e39 2e3d 9f81 3b3c 0921 c03c 892c a43c
000002b0: 89d0 813c e02e 7c3c eae6 a93c 7d9d 793c
000002c0: 2f74 783c e08b 573c 6b06 843c ebd9 973c
000002d0: ffa3 343e 92c1 5e3c a7e5 c13c 86ca 873d
000002e0: 9504 6e3c 8978 8d3c 29b8 073d 5fef 443c
000002f0: e6b1 bd3c a481 bb3c 20de 5f3c 69f7 633c
00000300: 35eb 2c3d 4391 813c 280b 783c 44c3 6c3e
00000310: fccd 9f3c 10aa 8a3c 5487 c93c e5f3 963c
00000320: 6ebe 9e3c 13ef da3c 1fa9 833c 65e2 053d
00000330: 2cc8 673c 714a 6a3c 0d04 493c bdbb 6b3c
00000340: 4e42 993c 2b5d 3f3d 1708 a23d 9e5b 693f
00000350: 0dd7 6e3c 75da b53c 1b4e 3d3c 7a50 6c3c
00000360: 8a42 413c eeb8 6b3c 4ffa 5e3c 6539 803c
00000370: c564 793c 4a24 953c ccd3 643d 515a 933c
00000380: da5b 683f 6299 5e3c 568d ce3c 4480 ba3d
00000390: ecff dd3c efb1 733c 874f af3c f3d2 8d3c
000003a0: 588d 873c acc3 3c3c 986d f63d ba6e 6d3c
000003b0: 0059 9e3c 383d 503c 3e50 a03c 6fae 833c
000003c0: bd2b 613d 68b3 b93c f565 d93e bf23 7e3c
000003d0: 1e97 483f d0fc 5a3f c19a 433e e8c4 783c
000003e0: e4ad 873c 4fee 913c 0f47 7e3c f86e 813c
000003f0: e8b2 5d3d f64a ac3c 2a6c fb3c 3c57 423c
0.018418958 0.019327492 0.021907266 0.03514757 0.79802185 0.019054225 0.04010095 0.01396272
0.11937218 0.015215692 0.012035327 0.019994875 0.019471623 0.033177573 0.021833058 0.046758857
0.014408632 0.028879438 0.018169258 0.02991365 0.035300355 0.0410184 0.09098227 0.013338821
0.012377406 0.015363234 0.015860753 0.016931517 0.014103425 0.013635161 0.93477297 0.019562837
0.058109175 0.019204017 0.01549753 0.01914152 0.013375659 0.009083736 0.013868805 0.020124745
0.029773777 0.8555823 0.021335833 0.14972617 0.03677994 0.07745574 0.01434938 0.015906854
0.017381357 0.01943137 0.031081546 0.018212322 0.015870932 0.030079184 0.029586501 0.018922787
0.05475893 0.020923354 0.011974719 0.024653165 0.029174834 0.017099729 0.014700083 0.022620622
0.024011876 0.014486441 0.03021568 0.020198612 0.08280876 0.12811837 0.016192736 0.014232103
0.051233217 0.020835277 0.023597915 0.0394946 0.018429697 0.013092583 0.42714307 0.01616755
0.86079645 0.028518615 0.017770715 0.014760402 0.020024747 0.019040821 0.17208755 0.017159764
0.012650827 0.021647822 0.019809097 0.01610734 0.023318972 0.015344772 0.014118272 0.018357681
0.024072137 0.013662547 0.01706483 0.015468862 0.021417608 0.016779581 0.018843476 0.02531814
0.016858857 0.052482083 0.02027592 0.014239235 0.020718507 0.02346751 0.025436679 0.023815176
0.0137713235 0.014987135 0.05239493 0.014434578 0.019773042 0.016794488 0.0636919 0.02321297
0.019663762 0.014832695 0.044441998 0.015245592 0.0153818065 0.02523479 0.018211782 0.013967192
0.018225446 0.21683337 0.01363697 0.02471437 0.0162836 0.01592338 0.6115873 0.01754614
0.018028958 0.03281412 0.038603295 0.021715473 0.015913246 0.07223758 0.015375574 0.014522089
0.57023543 0.017154716 0.043039434 0.023498371 0.013424426 0.017619718 0.019767657 0.01796658
0.026319819 0.20983452 0.016856883 0.020361234 0.014639752 0.014784496 0.013298398 0.01101156
0.017225252 0.018936396 0.098304145 0.01739647 0.01445588 0.019660268 0.03283261 0.056996506
0.04253494 0.011444478 0.023453252 0.020040767 0.015846508 0.015392035 0.020739991 0.015235302
0.015164419 0.013155907 0.016116342 0.018536529 0.17640685 0.013595955 0.023669077 0.06630425
0.01452746 0.01726939 0.033134613 0.012019961 0.023156118 0.022888966 0.013663799 0.013913968
0.0422165 0.015816336 0.015139379 0.23121363 0.0195074 0.016926795 0.024600662 0.018426845
0.019377913 0.026725328 0.016071854 0.03268661 0.014146846 0.014299975 0.012269032 0.014388022
0.018708374 0.04671971 0.07911699 0.9115542 0.014577639 0.022198895 0.011554266 0.014423484
0.011795649 0.014387352 0.013609483 0.015652368 0.015221779 0.01820578 0.055866048 0.017987402
0.90765154 0.013586374 0.025213879 0.09106496 0.027099572 0.014873966 0.021400226 0.017312502
0.01654689 0.011521261 0.12032622 0.014491731 0.019329548 0.012709908 0.019569512 0.016074387
0.054973353 0.022668555 0.424606 0.015511452 0.78355587 0.8554201 0.19102003 0.015183665
0.01656241 0.01781383 0.015519871 0.015799984 0.054125696 0.021031838 0.030691225 0.011861619

weight f4 [10, 74]
00000000: 0262 c1bd 9ba0 fa3d c850 cabd be78 dd3b
00000010: 9062 3a3c 6f1a 0ebe 5484 f23d 5bae 8e3e
00000020: aafc aa3d c863 d13e 68cc 90bd ab55 2a3e
00000030: abee e33d a49b 2f3e fdbb 433d 7a04 c8ba
00000040: b0fe 05bd 4ce4 b33e f264 a03e cbad 433e
00000050: dcae 48be 6a69 503d 1c38 593d 06f8 1e3e
00000060: b110 a73e e5f2 a9be ee1b 173e 7e5b 9ebe
00000070: 9cfc 123d f5e8 053e de3b d13e 4dae e13e
00000080: 40a9 fb3d 5249 9f3c 7e24 c2bd 89b9 6c3e
00000090: 1918 c93e c838 043d 8fea 2d3e 383b 243e
000000a0: a789 1c3e c0f0 be3e bb27 bb3c ea44 003e
000000b0: e670 093d 9ce8 8f3d dce8 6f3e aa41 b13e
000000c0: b7de 483e 680e d53e cbe7 ae3c 09b9 cb3d
000000d0: c686 c1bc 5a68 093e a2a4 c13d dea5 9dbe
000000e0: b7f5 133e 256a 183e 3911 bd3e cc43 c23e
000000f0: 05d9 c43d 20b1 4e3e 7078 a03e c742 d13c
00000100: 26b8 7d3d 3b59 8bbe d3d7 a6be 86ee 053e
00000110: 8c1e 243e e4c7 e43d af82 a63d e9ed 883e
00000120: ea45 b73d 5a2d 053f 52fa 273b b057 a93c
00000130: 7924 af3a 4d81 96bc 9763 da3a a20e a8bd
00000140: 3aed a53d 2131 523d 44c6 ad3c b1cb 133d
00000150: dacf 2f3c 5f7a fd3c 30d8 f43c 56a8 b83d
00000160: 2e63 9cb9 aadb 063d 31e5 413c a309 cf3d
00000170: 6c5d 1dbd 371f bb3d 795f 963c 12f7 163d
00000180: 4b30 11bd 67bf c33d 9c12 cf3c e94b 9abd
00000190: 3c82 983d 7128 13be 755c 033a a2f6 4bbb
000001a0: 30ba edbc 04b5 2f3c 4ab0 9dbc f453 40bb
000001b0: 0d9d 583d 2817 0fbc 2eb8 df3d c1ee a43d
000001c0: b74c 763d 8f2b ae3d f7b1 d4bc 9ce2 013e
000001d0: 145d 693c 41b0 0f3d c91e 713b e53f debc
000001e0: 16da 3f3d fae5 41bb 039c 833d 698b d23d
000001f0: 9641 953d 1b91 b43d 6084 333c db12 c3bc
00000200: 1fb1 333d 63b0 1abe 012f b0bc 654e 693c
00000210: 5864 a1bb 65a6 3dbc a322 23bb 13b4 6a3d
00000220: e498 743d 1651 d03b 38a4 1e3d ac7f 7c3d
00000230: 3dd3 05bc 75fb 3d3d 1249 453d f146 463d
00000240: 0941 813c a2e8 3f3d 7778 0f3d cf36 8d3d
00000250: 5a5a b5bd 7e7b 013e 52c0 b5bd 62b9 6b3c
00000260: 1f45 9f3c b96b 03be 25b4 d93d aa4c 953e
00000270: fb70 013e 30f9 c63e 6596 83bd dfde 3d3e
00000280: 192c d83d 7975 2b3e 5d3f 453d 461b 583c
00000290: 7bd7 05bd e7f5 ac3e 088e b33e 3436 473e
000002a0: 8a6b 3dbe 3992 5a3d b095 6f3d 2f02 2a3e
000002b0: 9e64 a43e a3e7 acbe 3596 1b3e 8c92 a0be
000002c0: 8988 183d 13aa 083e 01eb f73e ef95 bd3e
000002d0: afd8 ec3d bcb8 553c a584 a6bd 2d27 833e
000002e0: 5e0e d63e 83f4 193d ec60 503e 4bb8 2a3e
000002f0: 57f2 293e 4919 bb3e b2de c33c 45e3 0a3e
00000300: fa0e 1d3d b5ab 963d 7846 893e 4365 b23e
00000310: 01ed 533e e66e cd3e 5944 123d cbf6 c63d
00000320: af54 65bc dc84 ff3d f29f b03d 01d3 81be
00000330: 9a0e 073e 7f05 153e 2e6e cf3e 430e f13e
00000340: 4671 b83d 9c86 673e 9d87 9e3e e9ea da3c
00000350: 1fbe 7b3d 9be1 8bbe e202 b1be 0ee8 f23d
00000360: 096b 383e ce8a 063e 5cf0 ad3d 69d0 9d3e
00000370: aadf 993d ff33 f33e 0cd2 09be 8e5b bf3d
00000380: bdf0 f9bd baeb 9ebc 5754 34bc 41b7 24be
00000390: 9d3e 893d 702f b73e e1e6 f73d 9ee0 2b3f
000003a0: 6dbd afbd 2546 193e b730 863d 8a8b 093e
000003b0: c628 6e3c d832 acbc bd5b 63bd f63f 9f3e
000003c0: 0328 db3e 2830 1f3e bca0 52be 702f c23b
000003d0: 3328 d93c 1b01 093e f330 b03e 16c9 f5be
000003e0: cd25 e53d 313e adbe 4d75 fa3a 974e bb3d
000003f0: 55b2 073f d734 f23e 8bb1 8d3d b1cd 6fbc
-0.09442522 0.12237664 -0.09878689 0.0067587784 0.011376038 -0.13877271 0.11841646 0.27867398
0.08348973 0.4089644 -0.070702374 0.16634242 0.11129507 0.17149216 0.0477867 -0.0015260123
-0.032713592 0.35135114 0.31327015 0.19109266 -0.19597954 0.05088178 0.053032026 0.15524301
0.32629922 -0.33193126 0.14756748 -0.30929178 0.03588544 0.13077147 0.40865988 0.44078293
0.12288141 0.019444142 -0.094796166 0.23117651 0.39276198 0.032280713 0.16984008 0.16038215
0.15286885 0.37293053 0.022846093 0.12526289 0.033554934 0.070267886 0.23428673 0.3462041
0.19616209 0.41612554 0.021350762 0.09947402 -0.023623835 0.13418713 0.09455229 -0.3079061
0.14449202 0.14884241 0.36927202 0.3794235 0.09611706 0.20184755 0.31341887 0.025544537
0.061943196 -0.27216515 -0.32586536 0.1307927 0.16027278 0.111709386 0.08130395 0.2674401
0.08948882 0.52022326 0.002563138 0.020671695 0.001336231 -0.018372202 0.001666176 -0.08205916
0.08101888 0.051316384 0.021212704 0.036082927 0.010730708 0.03094214 0.029888242 0.090164825
-0.00029828533 0.03292433 0.011834429 0.1010926 -0.038419172 0.09136813 0.018356072 0.03685672
-0.035446446 0.095579915 0.025277428 -0.0753401 0.07446715 -0.14370896 0.00050110306 -0.0031122346
-0.029019445 0.01072431 -0.0192491 -0.0029346915 0.05288415 -0.008733548 0.10923801 0.08053351
0.060131755 0.08504402 -0.025963767 0.12684101 0.014243383 0.0350802 0.003679203 -0.027130077
0.046838842 -0.002958654 0.06426241 0.102804966 0.072879 0.08816739 0.010956854 -0.023812702
0.043870088 -0.15106349 -0.021506788 0.014239882 -0.004925292 -0.011575316 -0.0024892471 0.05730064
0.05971612 0.0063573224 0.03873083 0.061645195 -0.008168039 0.046382386 0.04816539 0.0484075
0.015778081 0.046852715 0.035026994 0.068952195 -0.08855124 0.12644765 -0.08874573 0.01438746
0.01944214 -0.12834062 0.10630063 0.29160053 0.12640755 0.3886199 -0.0642517 0.1854205
0.10555286 0.16744031 0.04815613 0.013190096 -0.0326762 0.3378136 0.350693 0.1945427
-0.18498054 0.053362105 0.058492362 0.16602395 0.32108015 -0.33770475 0.15194018 -0.31361806
0.037239585 0.13346128 0.4842148 0.37028453 0.115647666 0.013044532 -0.08130769 0.25615826
0.41807836 0.0375867 0.20349473 0.16671865 0.16596352 0.3654273 0.0239099 0.13563259
0.03834436 0.07356969 0.26811576 0.34842882 0.20695879 0.4012367 0.035709713 0.09715041
-0.013997241 0.12476513 0.08624257 -0.25356296 0.13189164 0.14552878 0.40513748 0.47081193
0.0900598 0.22609943 0.3096284 0.026723342 0.06146061 -0.2732056 -0.34572512 0.11860667
0.1800958 0.13138887 0.084931105 0.30823067 0.07513364 0.47500607 -0.13459033 0.093436345
-0.1220412 -0.019399513 -0.011006436 -0.16085531 0.06701396 0.3577838 0.121045835 0.67139614
-0.08581052 0.14968164 0.0655226 0.13432136 0.014536088 -0.021020338 -0.05550741 0.31103486
0.42803964 0.15545714 -0.20569128 0.005926065 0.026508426 0.13379328 0.34412345 -0.4800498
0.111888506 -0.3383651 0.0019108445 0.09145849 0.5300649 0.4730594 0.06918629 -0.014636443

bias f4 [10]
00000000: 488d 1dbf 62ed a1bc 2ccd b6be fd95 a1be
00000010: 3ac8 f3be 3f75 ecbd c2ce 9dbf e5f5 88bf
00000020: 6eeb a8be 179e 3bbf
-0.61543703 -0.019766513 -0.3570341 -0.31559744 -0.47613698 -0.115458004 -1.2328722 -1.0700041
-0.3299212 -0.732881

weight f4 [10, 10]
00000000: 9cb9 99be 1a32 663c 2025 99be 6acd 9fbe
00000010: 53f8 6d3c a184 84be d291 b3bc 645c dfbc
00000020: bd6a b5be 6f16 85be 68e1 10bf 1948 52bf
00000030: 391c d2be 31dd 91be 96cc e5be 3d18 2bbf
00000040: 2cc2 13be d53f a1bc f87b 0fbf f8ba 0abe
00000050: bdbc 2cbe 410b d83d a8d8 61bd 6f1c e6bd
00000060: 682e 81be 6872 863e bb43 d9bd c6f6 abbd
00000070: 836e 483d 489d 033e bf32 a8be dbc7 7fbd
00000080: 01f6 6a3d 840b d5bd bec8 e53b b278 33be
00000090: baf2 d0bc d1dc c9be 0c50 67be 23f2 bd3d
000000a0: 8526 abbd ee9a 10bf 65f2 b5be 4181 f2bd
000000b0: 3f43 23be 7a6b 9dbe bdea dbbd 5e9b d6be
000000c0: 13c3 5dbe c10e 0ebf 4598 943e 6ad9 273d
000000d0: ab64 663e fa23 c03e 9d4d 713e 428f 043e
000000e0: 6f79 0dbd 2091 cb3c b701 aa3e 0294 68bd
000000f0: f92c 1bbf acf1 45bf a668 d2be 01a0 24bf
00000100: b5db 06bf d072 32bf 304b 85be ec90 20be
00000110: 24b3 22bf 5197 5bbe e006 3a3e b50b 883e
00000120: 1a6b c13c f667 3dbe 779e e73c 0736 1d3e
00000130: 1d74 fcbd a097 09be b8c7 0a3e e12e 1c3e
00000140: efb9 24bd 5383 5dbd e85f 9fbe fe38 96be
00000150: 683c a1be 021b 04be e615 c9be aff3 5c3b
00000160: e047 11be ce9f aebd 37e3 453e e182 a53e
00000170: 0a87 833e 7adf e43e c0bb c53e e706 a73e
00000180: c908 093e 0e6c 133e f6cb c03e a346 443e
-0.3002442 0.014050031 -0.29911137 -0.31211406 0.014524537 -0.25882438 -0.021920118 -0.027265735
-0.35432997 -0.25993678 -0.5659394 -0.8214126 -0.41037157 -0.28489068 -0.4488265 -0.6683386
-0.1442954 -0.019683758 -0.56048536 -0.13547885 -0.16868873 0.105490215 -0.05513826 -0.11235892
-0.25230718 0.2625916 -0.10608622 -0.08396678 0.048933517 0.12852967 -0.32851216 -0.062446456
0.057363514 -0.10402587 0.0070124557 -0.1752651 -0.025506366 -0.39426282 -0.22589129 0.092746995
-0.083569564 -0.56486404 -0.35536495 -0.118410595 -0.15943621 -0.3074606 -0.10738132 -0.4191541
-0.21656446 -0.5549126 0.29022422 0.040978827 0.2249934 0.37527448 0.23564763 0.12945274
-0.034539636 0.024849474 0.33204433 -0.056781776 -0.606155 -0.77321887 -0.41095465 -0.64306647
-0.52678996 -0.6970644 -0.26033926 -0.15680283 -0.63554597 -0.21444441 0.18166685 0.26571432
0.02361064 -0.18496689 0.028273804 0.15352641 -0.12326834 -0.13436747 0.13552749 0.15252258
-0.040216383 -0.05408032 -0.31127858 -0.29340357 -0.314914 -0.12900928 -0.3927452 0.0033714583
-0.14187574 -0.08526574 0.19324957 0.32326415 0.25688964 0.4470175 0.38619804 0.32622454
0.13382258 0.14396688 0.3765561 0.19167571

bias f4 [10]
00000000: fd98 243e 15cd 33bf a7ab 12be 3415 b43d
00000010: 1275 57bd 58d8 583e 55fa b2be eb2b aebd
00000020: 7194 c2be 82e6 463e
0.16073985 -0.70234805 -0.14323293 0.08793107 -0.05260188 0.21176279 -0.34956613 -0.085044704
-0.38003877 0.19423869

weight f4 [300, 10]
00000000: 44f7 263d a469 7a3e b9e4 d1bd e1b4 e53e
00000010: 87c2 b83d 96ff 7ebd 33fa 6fbe ea3d 853e
00000020: 1b68 ac3e 9c82 7b3e c12c e1bd e06f 4abd
00000030: caed b23e b6d1 a73e 583b ca3e 4b6a ca3e
00000040: 0431 f13d b2eb ab3e 33ef 4c3e 3077 8c3d
00000050: 3c31 a93d 51cf 13be 0594 af3d 91e6 5f3e
00000060: fb49 863d 677b 253e e1a8 6c3e a00b a03e
00000070: 2406 b43e bb94 d1bd cc35 8e3e 83e5 be3e
00000080: 18db d53d 64bf 843e 2925 34bd 12e1 013f
00000090: 5ed5 0ebe fdb7 ce3e 7ec1 ee3c 8c4b 6a3e
000000a0: 3685 803f b1f8 ec3e 1fe9 ef3e 4938 3f3f
000000b0: b289 133f f1d4 843f 261a e33e 998f ff3e
000000c0: 560b 733f 6afb 523f e8d8 b33e 5f5e 5fbe
000000d0: 305e cbbb ff4c 6bbd 93c6 4a3e e7c1 85be
000000e0: 5529 3bbe abdb 853e 4e01 a63e 0878 733e
000000f0: 1de3 a43e 1c23 f63e 0710 073f fd4d c63e
00000100: 9f48 063f 4097 2d3e 1b50 903e f581 aa3e
00000110: 1ca7 c93d ac18 1f3f b802 853d 905d 64bd
00000120: a7e0 803e 5963 0dbe 36d1 0ebd 02c1 4f3e
00000130: b99e a63e 59d3 24be a013 b53d 64e9 053e
00000140: 6fd0 103f e4cc 2f3d 52c1 d83e 6ade 003e
00000150: aa44 433e 51b1 843e 51fe 50bd 0b8c 293e
00000160: c27e 8d3e a7bd 533e 5e08 aebd 0a7b 55bb
00000170: bdf2 a5be 7def a2be bb90 2b3e 7e67 97be
00000180: cf10 29be 95cc c5bc 3e17 313d 8920 24be
00000190: f4b5 4ebe f606 cf3b 55fe 37be 5a00 53be
000001a0: e016 fbbd 1912 b63c a905 b8be eb55 fbbd
000001b0: 3d18 463e 0d25 223e 2d0e 2c3e 58f6 123e
000001c0: 3204 1c3e a8b7 2bbd 3ba7 babb f6c2 0a3e
000001d0: c28d 6fbd 83a2 6cbe 5d60 dabe 8ed1 d1be
000001e0: 41bc d83d b235 873e 3d63 b73e 0bad 153f
000001f0: 1400 cf3e f2ca b93d bc40 fc3e 525a ad3d
00000200: 65df 453e 059f 1d3f 1e40 293d e2fb 0f3f
00000210: 7f13 193d cbd3 4d3e 5754 183e 81b2 a23e
00000220: d305 b53d 6e7d 8c3e eefe 073f dbb4 563e
00000230: 4328 293e f992 18bd 3790 823e fd40 4bbd
00000240: 4137 e53d 3370 8e3e 0340 f43d 28d1 cd3e
00000250: 9ace 52bd f563 a7bd 2c37 93be fa3e c5be
00000260: 526e babe ce73 6ebe d6fc 10bf 5cd5 08be
00000270: e89a a33d 2bf7 f0be 2a09 f8be 920d 91be
00000280: 07e5 73be 0743 1d3d c813 58bd 469f 503d
00000290: 38e4 01be b7ff ef3d 7679 b7bd 4931 b23d
000002a0: ffdb 273e 0c2a db3d 1ab8 84be d21d c5be
000002b0: ca6e f2be 3443 6abd 359c 4fbe 218f 75bd
000002c0: 4efc c1bb fab0 adbe 4113 ebbd 2eff 05bf
000002d0: cf2d 45bd 76c7 99bd 5c90 73be 1f02 13be
000002e0: fe7d 06bd a419 a0be 60b6 fe3d 2a2b a0be
000002f0: f113 b8be 7f7c 1b3d d9c4 99bd aed3 febd
00000300: db93 8cbd a5ac 99be 4515 09be 39bb 203e
00000310: 8330 9e3e ae54 8ebe b4be 613e 84c9 d8bd
00000320: a593 e8be 7c72 c6be 73fe 63be 6dbc babc
00000330: ca35 7cbe 76e3 e1bd cb58 d93d 6f29 03bf
00000340: 60a2 8dbc b932 60be c21d c3be 10f8 59be
00000350: f162 f1be 2acb f4be c57b f93c 13de 87be
00000360: c494 a3be 79eb 04bf 5dee 36bd 4f20 10be
00000370: adec bb3e b577 f337 6a89 a3bd b34f 683d
00000380: dc0d 273d d49a 1e3f 2d42 033f 950b bc3e
00000390: 6b58 aa3e 1e25 c03e a23c 3d3e fc1d 7bbe
000003a0: f11a 253e d414 a0be 3e0f a63d 41ce 80bd
000003b0: c4ce bbbe f15a 923d bc82 1a3e 528b 42be
000003c0: 0acd 2bbe 1903 2ebc 5a13 fdbd 0bd0 a03d
000003d0: b865 853e 3b34 813e 127a 7dbd 2204 043e
000003e0: 6152 0f3e f440 d13b 0847 b9bd 7a97 64be
000003f0: 6797 dcbe b188 49be ed86 78be fb1e 11be
0.040763155 0.24454361 -0.102487035 0.44864562 0.09021478 -0.062255464 -0.23435287 0.260238
0.33673176 0.24561542 -0.10994864 -0.0494231 0.34947044 0.32777184 0.394984 0.3953422
0.11776927 0.3357826 0.20013122 0.06858671 0.08261344 -0.14434554 0.08573154 0.21865298
0.065570794 0.16160356 0.23111297 0.3125887 0.35160935 -0.10233446 0.2777542 0.3728448
0.104421794 0.2592727 -0.04398075 0.50734055 -0.1394858 0.40374747 0.029144999 0.22880381
1.0040653 0.46283486 0.46857545 0.7469526 0.5763198 1.0377485 0.44355887 0.49914244
0.9493917 0.8241488 0.35126424 -0.21813343 -0.0062062964 -0.057446476 0.19802313 -0.26124498
-0.18277486 0.26144156 0.3242287 0.23776257 0.32204524 0.4807366 0.5275883 0.38731375
0.5245456 0.16952229 0.28186116 0.33302274 0.09846327 0.6214702 0.06494659 -0.05575329
0.25171396 -0.1380743 -0.034867488 0.2028847 0.3254297 -0.16096248 0.08841634 0.13077313
0.56568044 0.04292001 0.42334992 0.12584844 0.19069162 0.25916532 -0.051023785 0.16557328
0.2763577 0.20677815 -0.0849769 -0.0032574558 -0.32411757 -0.3182334 0.16754429 -0.29571146
-0.16510318 -0.024145404 0.043235056 -0.16028036 -0.20186597 0.0063179685 -0.17968114 -0.20605603
-0.122602224 0.022225427 -0.35941818 -0.12272247 0.19345184 0.15834446 0.16802283 0.14351785
0.15235975 -0.041923195 -0.005696205 0.13550934 -0.0584848 -0.23108868 -0.42651644 -0.4098019
0.105827816 0.26408154 0.358179 0.5846717 0.40429747 0.09071912 0.49268138 0.08464493
0.193235 0.6157077 0.041320913 0.5624372 0.03737211 0.20100324 0.14875923 0.31776813
0.088390015 0.27439445 0.53123367 0.20967428 0.16519265 -0.03724954 0.25500652 -0.049622525
0.111921795 0.27819976 0.11926272 0.40198636 -0.05146656 -0.08173362 -0.2875303 -0.3852461
-0.36412293 -0.23286363 -0.566358 -0.1336264 0.079885304 -0.47063574 -0.48444492 -0.28330666
-0.23817836 0.038394 -0.05275324 0.050933145 -0.12684715 0.117186956 -0.08958714 0.08700807
0.16392516 0.10701379 -0.25921708 -0.38499314 -0.4735015 -0.057192996 -0.20274432 -0.05995095
-0.0059199696 -0.33924085 -0.11478282 -0.523425 -0.04813939 -0.07508747 -0.23785537 -0.14356278
-0.032835 -0.31269562 0.12437129 -0.31282932 -0.35952714 0.037960526 -0.07508249 -0.124427184
-0.06864139 -0.3001453 -0.1338702 0.1569642 0.30896387 -0.2779898 0.22045404 -0.10585311
-0.45425144 -0.3875922 -0.22265033 -0.022794927 -0.24629894 -0.11029713 0.10612639 -0.512351
-0.01728934 -0.21894349 -0.3810864 -0.21286035 -0.471458 -0.47811252 0.030454526 -0.26536617
-0.31949437 -0.519218 -0.044660915 -0.14074825 0.36704007 2.90236e-05 -0.07985194 0.056716632
0.0407847 0.61955 0.5127285 0.36727586 0.33270583 0.37528318 0.18480161 -0.24523157
0.16123559 -0.3126589 0.08108376 -0.0628934 -0.36681187 0.07146252 0.15088934 -0.18998459
-0.16777435 -0.010620856 -0.12357207 0.07852181 0.26054168 0.2523516 -0.061883993 0.12892202
0.13996269 0.006385917 -0.09046751 -0.22323409 -0.4308426 -0.1968105 -0.2427022 -0.14171974
