mcspace/paper/human_runs/runs/seed_5/model.pt (torch, 308831 bytes, 66 tensors)

theta_params f4 [100, 58]
-1.9607004 1.8852364 -5.342479 -2.2549453 0.27681315 -3.910108 -5.5600295 2.7472131
-0.7409931 -2.5429447 0.7828724 -7.649203 -1.7137512 -1.7086657 0.05594116 -1.3549585
-0.58157796 0.044875193 1.2426213 0.49453527 1.1252542 -2.807041 -0.98686224 2.0800033
-0.16065282 0.25538823 -6.205202 -2.394863 -0.6419808 -6.7416778 1.5039321 0.34638035
2.260184 1.46995 -1.8535017 0.05545542 -0.107640095 -0.15943772 2.4838414 3.0845144
-5.6227546 -0.11754706 3.2196286 -1.2903564 -0.9482496 1.2595317 0.7750837 -0.14451595
0.07222985 -5.658734 -3.431685 2.7273972 0.182436 -2.593174 1.7179697 0.29437393
-1.2680987 -1.8832672 -4.711237 1.8206623 -4.6004024 -1.7471027 2.1847003 -1.7672666
-0.470757 3.738889 -3.0666006 -1.1349124 2.0410423 -4.15265 1.8160456 -0.79882556
-2.9335337 -5.7076454 0.5802592 1.6244146 2.0718071 1.116653 1.5562567 -1.7752699
-0.25146058 2.3549056 -1.3827319 -4.4891024 -2.2343163 -0.38236442 -6.5148416 -4.362193
-5.7929053 2.0014155 1.7869818 1.123234 -2.3774338 -7.3446326 1.8026667 -0.82578784
-0.68487656 2.0021086 -1.0442137 -0.21948615 3.1902351 1.5465912 0.5977546 3.3059843
-0.322469 0.32650653 0.39938945 3.1234672 0.718241 3.2255697 -1.1395133 3.8502564
4.025826 -0.9273748 -3.488394 -1.634178 -3.8062317 -3.0973365 -3.8654552 -5.0641656
1.1972367 -4.5917444 -4.9041686 2.6725116 -4.249727 -1.6043386 0.6809027 -0.3825489
-0.50657463 2.021837 5.3908486 -0.12535232 -0.3696727 -1.0744069 2.1982012 0.2667205
1.875149 -2.8877835 -4.2635417 0.3276283 -4.637706 -3.8213139 0.76549137 0.5209973
-2.0003822 -4.836133 -3.3322697 -1.3221886 -1.7570474 2.4406009 -4.517869 -3.5243108
0.109943286 -3.5034 2.3741343 1.3923731 -1.4494351 1.4653406 2.398056 2.8855639
-0.48783186 1.080697 -0.9898879 1.8407679 -6.07025 0.029425642 -6.306784 0.7836206
-1.1030654 1.6832757 3.0852518 -6.6292987 -4.9513755 -0.8454415 -4.712505 2.0849252
-7.6665044 -5.083187 -0.054775465 -4.895119 -0.56332356 3.2160866 -3.0026476 -0.74177366
2.3763318 -5.9725785 -4.8988447 -3.0989215 -0.0136514455 0.31497785 2.473849 0.61748755
0.8109132 3.3600996 3.108689 -0.5557734 -5.2158957 1.5439651 -0.43178895 -2.989768
0.13631794 -5.1983943 -3.8671896 -4.32132 -6.7744813 -0.7518043 -5.1797676 -1.837336
-4.4288464 -4.352828 2.306438 -1.3568116 3.509515 -1.3214053 -4.7966313 -4.6903477
3.5203292 -0.89846444 -5.3566427 1.7471937 5.3612323 1.0517933 -0.28824273 -2.4706383
1.35358 1.7538226 -0.16522945 1.6155771 3.4666843 2.6903841 -5.3208256 0.06878783
-1.8655112 -4.6284084 -5.5253005 -1.9293115 -4.8563585 -3.644535 -1.2412543 5.2451124
-3.7744336 -0.32938373 -3.8973837 -3.3642867 -1.1315886 -2.7280931 -3.7274835 -4.646007
-3.750699 -2.4849954 -6.05648 -0.98938423 -1.9073857 -2.597803 -4.638102 0.35780248
00000000: 3bf8 fabf 6d4f f13f 97f5 aac0 0651 10c0
00000010: 74ba 8d3e 363f 7ac0 c3eb b1c0 57d2 2f40
00000020: b9b1 3dbf 9bbf 22c0 536a 483f 45c6 f4c0
00000030: 335c dbbf 8fb5 dabf 8f22 653d 486f adbf
00000040: 4be2 14bf 0dcf 373d 370e 9f3f ba33 fd3e
00000050: 5408 903f 8fa6 33c0 01a3 7cbf c61e 0540
00000060: 2c82 24be 3fc2 823e 0491 c6c0 6f45 19c0
00000070: db58 24bf d3bb d7c0 d980 c03f c458 b13e
00000080: dba6 1040 5227 bc3f 8b3f edbf 3925 633d
00000090: 6972 dcbd a443 23be 42f7 1e40 af68 4540
000000a0: 9bed b3c0 83bc f0bd 650e 4e40 662a a5bf
000000b0: 7cc0 72bf 5638 a13f e36b 463f fdfb 13be
000000c0: 3eed 933d 5914 b5c0 baa0 5bc0 ad8d 2e40
000000d0: 81d0 3a3e 90f6 25c0 6ee6 db3f 2eb8 963e
000000e0: 0f51 a2bf e60e f1bf 74c2 96c0 760b e93f
000000f0: 7f36 93c0 10a1 dfbf 21d2 0b40 cb35 e2bf
00000100: 1007 f1be f549 6f40 2f43 44c0 cf44 91bf
00000110: 70a0 0240 82e2 84c0 2f74 e83f d57f 4cbf
00000120: 04bf 3bc0 08a5 b6c0 de8b 143f d1ec cf3f
00000130: 7d98 0440 7cee 8e3f 6b33 c73f 0b3c e3bf
00000140: 71bf 80be c6b6 1640 5cfd b0bf baa6 8fc0
00000150: 0aff 0ec0 45c5 c3be 9579 d0c0 1697 8bc0
00000160: 7b5f b9c0 3117 0040 d2bb e43f 22c6 8f3f
00000170: e027 18c0 3b07 ebc0 c8bd e63f d566 53bf
00000180: 1254 2fbf 8c22 0040 cba8 85bf fac0 60be
00000190: d02c 4c40 b3f6 c53f 7206 193f 3f95 5340
000001a0: a81a a5be dd2b a73e c67c cc3e e3e6 4740
000001b0: a4de 373f bc6f 4e40 92db 91bf 9a6a 7640
000001c0: 91d3 8040 6f68 6dbf d941 5fc0 bf2c d1bf
000001d0: 4d99 73c0 c33a 46c0 9e63 77c0 a50d a2c0
000001e0: 0d3f 993f 92ef 92c0 f3ee 9cc0 6e0a 2b40
000001f0: c3fd 87c0 f85a cdbf a44f 2e3f 73dd c3be
00000200: e0ae 01bf c765 0140 d581 ac40 5c5c 00be
00000210: bd45 bdbe 2a86 89bf 54af 0c40 978f 883e
00000220: e204 f03f 72d1 38c0 ef6e 88c0 e6be a73e
00000230: 1668 94c0 6890 74c0 3ef7 433f 1460 053f
00000240: 4306 00c0 9ac1 9ac0 e843 55c0 7a3d a9bf
00000250: eee6 e0bf ce32 1c40 6292 90c0 4f8e 61c0
00000260: f229 e13d b537 60c0 d1f1 1740 4839 b23f
00000270: 1787 b9bf 4890 bb3f c079 1940 14ad 3840
00000280: 19c5 f9be 4754 8a3f 4b69 7dbf 489e eb3f
00000290: 7d3f c2c0 0b0e f13c 2dd1 c9c0 5c9b 483f
000002a0: 3f31 8dbf 9475 d73f c474 4540 3723 d4c0
000002b0: ab71 9ec0 db6e 58bf d7cc 96c0 6a6f 0540
000002c0: 0154 f5c0 78a9 a2c0 3d5c 60bd d1a4 9cc0
000002d0: f935 10bf 5dd4 4d40 612b 40c0 e1e4 3dbf
000002e0: d215 1840 5d1f bfc0 56c3 9cc0 bb54 46c0
000002f0: 50aa 5fbc c744 a13e 8b53 1e40 aa13 1e3f
00000300: 0298 4f3f df0b 5740 c3f4 4640 2a47 0ebf
00000310: 9ee8 a6c0 a6a0 c53f 7113 ddbe 5c58 3fc0
00000320: ee96 0b3e 3f59 a6c0 0980 77c0 4148 8ac0
00000330: 8dc8 d8c0 3f76 40bf a8c0 a5c0 d32d ebbf
00000340: 1cb9 8dc0 5e4a 8bc0 ae9c 1340 01ac adbf
00000350: e59b 6040 cf23 a9bf 017e 99c0 5417 96c0
00000360: 134d 6140 c401 66bf 9e69 abc0 0ba4 df3f
00000370: 378f ab40 2aa1 863f 8d94 93be f01e 1ec0
00000380: 1c42 ad3f 427d e03f e931 29be 3bcb ce3f
00000390: 28de 5d40 412f 2c40 3444 aac0 a2e0 8c3d
000003a0: 12c9 eebf ec1b 94c0 43cf b0c0 aef3 f6bf
000003b0: 4a67 9bc0 1040 69c0 6ce1 9ebf f6d7 a740
000003c0: 5290 71c0 fca4 a8be bc6e 79c0 7950 57c0
000003d0: e5d7 90bf 1499 2ec0 178f 6ec0 17ac 94c0
000003e0: 740b 70c0 2a0a 1fc0 afce c1c0 4948 7dbf
000003f0: 3725 f4bf 6842 26c0 556b 94c0 e331 b73e

q_mu f4 [5]
-2.5658941 -4.3503327 -1.0975271 -3.0952826 -4.4331884
00000000: 9c37 24c0 ed35 8bc0 c57b 8cbf 1c19 46c0
00000010: aedc 8dc0

q_var f4 [5]
-2.0582972 -3.3224692 -5.5455856 -2.5961702 -3.1580687
00000000: 24bb 03c0 56a3 54c0 7075 b1c0 a727 26c0
00000010: cc1d 4ac0

eps f4 [5]
-0.3763748 -0.77596974 0.058434043 -1.1352525 0.6964122
00000000: 33b4 c0be f4a5 46bf 8958 6f3d f44f 91bf
00000010: 1248 323f

q_gamma_params f4 [99]
3.341141 3.69975 -2.2846985 3.3463461 3.6304784 3.0855057 2.5812752 3.54472
2.925287 3.7239456 3.7466695 3.4415543 0.82036895 4.30143 -1.2268758 2.9456375
4.138776 3.635711 4.0317383 3.3970172 3.9791298 2.749341 -4.2857633 3.6498597
3.1337903 1.136149 3.9612737 1.8813008 3.7633786 2.6415532 -0.1806083 3.7114308
3.0223393 3.916289 3.4756677 3.8761926 -1.0055596 3.9848905 4.0581017 1.5150379
3.4907649 4.2710834 2.0275137 4.150057 4.018752 0.123595655 3.639428 3.8137543
3.8868353 3.8844652 1.2139169 4.0619936 3.413241 2.4001231 4.314153 4.05527
3.8997955 3.9994512 1.2552496 3.5828528 3.6300793 1.2651023 2.7235427 3.6396909
4.115252 2.452612 -0.06926197 0.55027807 4.1186953 2.2714863 -0.6489397 4.2203445
3.7867882 3.846248 3.5769439 -1.2962345 3.6718676 2.5824893 2.9138474 3.4908237
2.4073126 4.31528 3.809999 3.169455 3.6859038 2.205827 0.773134 3.9915192
3.847778 4.0262985 3.1766136 3.5074058 -2.887101 -0.54181534 3.487149 4.0936646
-0.79255295 1.3493615 3.2476134
00000000: 41d5 5540 b4c8 6c40 8038 12c0 892a 5640
00000010: c259 6840 ed78 4540 9d33 2540 b1dc 6240
00000020: e737 3b40 2055 6e40 6fc9 6f40 6d42 5c40
00000030: b303 523f 51a5 8940 440a 9dbf 5385 3c40
00000040: da70 8440 7daf 6840 0004 8140 bb68 5940
00000050: 10aa 7e40 34f5 2f40 f924 89c0 4d97 6940
00000060: 0590 4840 556d 913f 8285 7d40 77ce f03f
00000070: 32db 7040 350f 2940 62f1 38be 1588 6d40
00000080: 026e 4140 7ba4 7a40 5771 5e40 8a13 7840
00000090: 2db6 80bf 7208 7f40 f8db 8140 c3ec c13f
000000a0: b168 5f40 b7ac 8840 c9c2 0140 44cd 8440
000000b0: 9e99 8040 b81f fd3d 63ec 6840 8d14 7440
000000c0: e9c1 7840 149b 7840 a161 9b3f dafb 8140
000000d0: 8a72 5a40 9e9b 1940 8b0d 8a40 c6c4 8140
000000e0: 4096 7940 02f7 7f40 05ac a03f 764d 6540
000000f0: 3853 6840 dfee a13f 864e 2e40 b2f0 6840
00000100: 25b0 8340 98f7 1c40 38d9 8dbd 06df 0c3f
00000110: 5acc 8340 0860 1140 ea20 26bf 100d 8740
00000120: bd5a 7240 ed28 7640 a6ec 6440 03eb a5bf
00000130: e1ff 6a40 8147 2540 7a7c 3a40 a869 5f40
00000140: 6911 1a40 c616 8a40 06d7 7340 5ad8 4a40
00000150: d9e5 6b40 452c 0d40 1cec 453f 0d75 7f40
00000160: ff41 7640 70d7 8040 a34d 4b40 5679 6040
00000170: 43c6 38c0 69b4 0abf 732d 5f40 4dff 8240
00000180: c0e4 4abf e1b7 ac3f e6d8 4f40

q_probs f4 [99]
0.96581775 0.9758681 0.09244649 0.96598536 0.9741833 0.9562916 0.92959875 0.9719355
0.9490865 0.9764321 0.9769494 0.9689437 0.69440395 0.98663193 0.22684868 0.95006484
0.98430794 0.97431326 0.982566 0.9676173 0.9816419 0.939883 0.01358364 0.974666
0.9582681 0.7570445 0.98131734 0.86730224 0.9772679 0.93351626 0.45500234 0.97613925
0.95357966 0.9804745 0.9699877 0.9796918 0.26798064 0.98174596 0.98301214 0.8196183
0.97042817 0.9862213 0.8837039 0.9844811 0.98234266 0.5309386 0.9744074 0.97841233
0.9799024 0.9798564 0.7710562 0.98307693 0.96811676 0.91684616 0.9867988 0.98296493
0.98015594 0.98200434 0.77835155 0.97295797 0.97417134 0.78001726 0.93841183 0.9744134
0.9839405 0.9207723 0.48284206 0.6341971 0.9839951 0.9064577 0.34337687 0.9855192
0.97783446 0.97908723 0.9728013 0.21489583 0.9752039 0.92973566 0.9485356 0.97042984
0.9169411 0.98681355 0.97833234 0.95967025 0.9755401 0.90078074 0.6842206 0.9818635
0.97911876 0.9824516 0.95994645 0.97089875 0.052827623 0.36789986 0.9703226 0.9835962
0.31175107 0.7941109 0.96258855
00000000: d53f 773f 7ed2 793f 9654 bd3d d14a 773f
00000010: 1464 793f 87cf 743f 2ffa 6d3f c4d0 783f
00000020: 55f7 723f 74f7 793f 5b19 7a3f b20c 783f
00000030: 75c4 313f e993 7c3f 054b 683e 7337 733f
00000040: 9bfb 7b3f 986c 793f 7289 7b3f c4b5 773f
00000050: e24c 7b3f 2c9c 703f ea8d 5e3c b683 793f
00000060: 0f51 753f abcd 413f 9d37 7b3f 8507 5e3f
00000070: 3b2e 7a3f ecfa 6e3f 11f6 e83e 43e4 793f
00000080: cc1d 743f 6000 7b3f 1d51 783f 15cd 7a3f
00000090: c234 893e b453 7b3f afa6 7b3f 81d2 513f
000000a0: fb6d 783f 0079 7c3f 6b3a 623f f406 7c3f
000000b0: cf7a 7b3f 98eb 073f c372 793f 3b79 7a3f
000000c0: e2da 7a3f ded7 7a3f f063 453f eeaa 7b3f
000000d0: 80d6 773f 6eb6 6a3f d99e 7c3f 97a3 7b3f
000000e0: 80eb 7a3f a364 7b3f 0c42 473f c613 793f
000000f0: 4b63 793f 36af 473f c23b 703f 2873 793f
00000100: 86e3 7b3f bcb7 6b3f 1337 f73e be5a 223f
00000110: 1ae7 7b3f 9d0d 683f 18cf af3e fc4a 7c3f
00000120: 5c53 7a3f 76a5 7a3f 8209 793f a70d 5c3e
00000130: f6a6 793f 2803 6e3f 3bd3 723f 176e 783f
00000140: a7bc 6a3f d09f 7c3f fd73 7a3f f3ac 753f
00000150: ffbc 793f 9199 663f 1529 2f3f 685b 7b3f
00000160: 87a7 7a3f f381 7b3f 0dbf 753f d28c 783f
00000170: c761 583d 5f5d bc3e 1067 783f f6cc 7b3f
00000180: d69d 9f3e da4a 4b3f 346c 763f

gamma f4 [100]
1.0 1.0 0.0 0.0 1.0 1.0 1.0 1.0
1.0 1.0 1.0 1.0 0.0 0.0 1.0 1.0
1.0 1.0 1.0 1.0 1.0 1.0 0.0 0.0
1.0 1.0 1.0 1.0 1.0 1.0 1.0 1.0
1.0 1.0 1.0 1.0 1.0 0.0 1.0 1.0
1.0 1.0 1.0 1.0 1.0 1.0 0.0 1.0
1.0 1.0 1.0 0.0 1.0 1.0 1.0 1.0
1.0 1.0 1.0 1.0 1.0 1.0 1.0 1.0
1.0 1.0 1.0 1.0 0.0 1.0 1.0 0.0
1.0 1.0 1.0 1.0 0.0 1.0 1.0 1.0
1.0 1.0 1.0 1.0 1.0 1.0 1.0 1.0
1.0 1.0 1.0 1.0 1.0 0.0 0.0 1.0
1.0 0.0 1.0 1.0
00000000: 0000 803f 0000 803f 0000 0000 0000 0000
00000010: 0000 803f 0000 803f 0000 803f 0000 803f
00000020: 0000 803f 0000 803f 0000 803f 0000 803f
00000030: 0000 0000 0000 0000 0000 803f 0000 803f
00000040: 0000 803f 0000 803f 0000 803f 0000 803f
00000050: 0000 803f 0000 803f 0000 0000 0000 0000
00000060: 0000 803f 0000 803f 0000 803f 0000 803f
00000070: 0000 803f 0000 803f 0000 803f 0000 803f
00000080: 0000 803f 0000 803f 0000 803f 0000 803f
00000090: 0000 803f 0000 0000 0000 803f 0000 803f
000000a0: 0000 803f 0000 803f 0000 803f 0000 803f
000000b0: 0000 803f 0000 803f 0000 0000 0000 803f
000000c0: 0000 803f 0000 803f 0000 803f 0000 0000
000000d0: 0000 803f 0000 803f 0000 803f 0000 803f
000000e0: 0000 803f 0000 803f 0000 803f 0000 803f
000000f0: 0000 803f 0000 803f 0000 803f 0000 803f
00000100: 0000 803f 0000 803f 0000 803f 0000 803f
00000110: 0000 0000 0000 803f 0000 803f 0000 0000
00000120: 0000 803f 0000 803f 0000 803f 0000 803f
00000130: 0000 0000 0000 803f 0000 803f 0000 803f
00000140: 0000 803f 0000 803f 0000 803f 0000 803f
00000150: 0000 803f 0000 803f 0000 803f 0000 803f
00000160: 0000 803f 0000 803f 0000 803f 0000 803f
00000170: 0000 803f 0000 0000 0000 0000 0000 803f
00000180: 0000 803f 0000 0000 0000 803f 0000 803f

KL_gamma_k f4 [99]
63254.965 63913.242 6054.3677 63265.945 63802.89 62631.035 60882.74 63655.664
62159.12 63950.176 63984.062 63459.707 45478.566 64618.246 14856.656 62223.203
64466.027 63811.4 64351.934 63372.836 64291.406 61556.324 889.5729 63834.504
62760.49 49581.2 64270.152 56802.566 64004.92 61139.324 29799.162 63931.0
62453.414 64214.945 63528.086 64163.684 17550.5 64298.223 64381.156 53679.48
63556.934 64591.35 57876.805 64477.37 64337.31 34772.52 63817.562 64079.88
64177.477 64174.46 50498.895 64385.402 63405.547 60047.492 64629.18 64378.066
64194.082 64315.145 50976.707 63722.633 63802.105 51085.8 61459.97 63817.957
64441.96 60304.645 31622.49 41535.35 64445.54 59367.09 22488.428 64545.36
64042.027 64124.086 63712.375 14073.833 63869.74 60891.707 62123.04 63557.043
60053.71 64630.14 64074.64 62852.324 63891.758 58995.266 44811.617 64305.92
64126.15 64344.44 62870.418 63587.758 3459.6772 24094.52 63550.023 64419.414
20417.154 52008.867 63043.465
00000000: f716 7747 3ea9 7947 f132 bd45 f221 7747
00000010: e43a 7947 09a7 7447 bdd2 6d47 aaa7 7847
00000020: 1fcf 7247 2dce 7947 10f0 7947 b5e3 7747
00000030: 91a6 3147 3f6a 7c47 a022 6846 340f 7347
00000040: 07d2 7b47 6643 7947 ef5f 7b47 d68c 7747
00000050: 6823 7b47 5374 7047 aa64 5e44 815a 7947
00000060: 7d28 7547 33ad 4147 270e 7b47 91e2 5d47
00000070: ec04 7a47 53d3 6e47 53ce e846 00bb 7947
00000080: 6af5 7347 f2d6 7a47 1628 7847 afa3 7a47
00000090: 001d 8946 392a 7b47 287d 7b47 7baf 5147
000000a0: ef44 7847 5a4f 7c47 ce14 6247 5fdd 7b47
000000b0: 4f51 7b47 85d4 0747 9049 7947 e14f 7a47
000000c0: 7ab1 7a47 76ae 7a47 e542 4547 6781 7b47
000000d0: 8cad 7747 7e8f 6a47 2e75 7c47 117a 7b47
000000e0: 15c2 7a47 253b 7b47 b520 4747 a2ea 7847
000000f0: 1b3a 7947 cd8d 4747 f813 7047 f549 7947
00000100: f6b9 7b47 a590 6b47 fb0c f746 5a3f 2247
00000110: 8abd 7b47 17e7 6747 dbb0 af46 5c21 7c47
00000120: 072a 7a47 167c 7a47 60e0 7847 55e7 5b46
00000130: bd7d 7947 b5db 6d47 0aab 7247 0b45 7847
00000140: b695 6a47 2476 7c47 a44a 7a47 5384 7547
00000150: c293 7947 4473 6647 9e0b 2f47 ec31 7b47
00000160: 267e 7a47 7158 7b47 6b96 7547 c263 7847
00000170: d63a 5845 0a3d bc46 063e 7847 6aa3 7b47
00000180: 4f82 9f46 de28 4b47 7743 7647

weight f4 [10, 58]
0.22893308 -0.25770578 0.07529783 0.26423866 -0.02397237 0.09160026 0.19798413 -0.1481779
0.1351912 0.15762159 -0.27458104 0.13741918 0.08557451 0.16574916 0.21049163 0.25511193
0.25504595 0.092690885 -0.00062165345 -0.0645498 -0.16861156 0.1616618 0.082471594 -0.11469939
0.2790753 0.28611955 0.29902294 0.20739326 0.27751964 0.16685297 0.29542896 0.18261904
0.13386698 -0.23411134 0.2656951 0.13633004 -0.025869846 0.064917244 -0.2512159 -0.06168627
0.12465173 0.112905115 -0.20558836 0.13843688 0.1159333 -0.072670884 0.20623638 -0.0028017715
0.27824065 0.10880317 0.19443703 -0.16508222 0.11026306 0.030282823 -0.081069395 0.27905342
0.19280562 0.09799251 0.19440173 -0.28614995 0.1989759 0.27118093 -0.04638432 0.34637433
0.3211074 -0.33750072 0.22718993 0.17877705 -0.24451506 0.24535564 0.22656992 0.079706915
0.1023874 0.24482273 0.100733116 0.12741649 -0.043786056 -0.1149486 -0.19316004 0.3557
0.25209448 -0.26739034 0.17705607 0.17160243 0.24485514 0.15722415 0.19665217 0.29395664
0.24372794 0.17112984 0.08276935 -0.14972186 0.17080565 -0.050503608 -0.04263151 0.02294649
-0.3329277 -0.24091119 0.3809556 0.20963761 -0.19053441 0.15608859 0.31872588 -0.1904113
0.22544111 -0.00381861 0.26585513 0.2524407 0.09788393 -0.17503574 0.009856189 -0.0004979254
-0.2967417 0.2156865 0.057302214 0.06329799 0.20655379 -0.23538564 0.19089167 0.03474031
-0.090031974 0.23547812 0.060037382 -0.1542873 0.12815914 0.17974296 -0.103977434 0.07838612
0.12610082 0.03064416 0.0171899 0.1506144 0.115916 0.16526417 -0.15183975 -0.17304368
-0.1437303 -0.013220446 0.103152506 -0.042321853 0.123260215 0.18506359 0.13786829 0.1582783
0.22610424 0.13233036 0.13270025 0.063035294 0.15782678 -0.0034168228 0.023200035 0.09039375
-0.043727122 0.05286861 -0.22913663 -0.23116791 0.009602451 0.0018640885 -0.19127356 0.07576639
0.004585808 -0.19653694 0.09867219 -0.013633219 0.09986618 0.13332467 0.1278424 -0.027922185
0.058424965 0.008972012 -0.15397763 0.11153377 0.13475864 0.01168109 0.01670955 -0.11765582
0.11019992 0.1400566 -0.06638047 -0.023471095 0.013028789 -0.08728381 0.0012851012 0.12922433
-0.009883158 0.09055191 0.16433181 0.14705817 0.15941285 -0.029037938 0.20210746 0.12085619
-0.08090485 -0.055218715 -0.18867005 0.21301253 0.1961832 -0.16878651 -0.0058255396 0.10413215
0.057745326 0.14198671 -0.03165861 0.18776801 0.101899564 0.09648512 0.010271003 -0.08414672
0.18284597 0.12788118 0.00047887725 0.02575047 -0.06242245 -0.015044054 -0.018342935 0.039456263
-0.18662415 0.18898842 0.04878031 -0.009484324 0.16212942 -0.010705576 0.11510796 0.17215341
0.07537999 -0.021945536 0.054481007 -0.031098165 -0.040933404 -0.028210599 0.015921893 -0.025612067
-0.04466853 -0.012498767 0.045442555 -0.10662204 -0.119697295 0.08993951 -0.017493725 -0.062270243
-0.03404096 -0.0027574042 -0.09661052 -0.12840343 -0.087784626 0.078510046 0.023819372 -0.12902117
-0.08184077 0.09543435 0.09227038 0.05602401 0.078511916 0.020566296 0.074773535 -0.09425982
00000000: 6f6d 6a3e 03f2 83be c035 9a3d 4a4a 873e
00000010: b461 c4bc eb98 bb3d 5abc 4a3e f3bb 17be
00000020: 906f 0a3e 8e67 213e e395 8cbe 9db7 0c3e
00000030: b041 af3d 26ba 293e 1e8b 573e 089e 823e
00000040: 6295 823e b8d4 bd3d 75f6 22ba af32 84bd
00000050: 82a8 2cbe ac8a 253e dee6 a83d 84e7 eabd
00000060: f5e2 8e3e 437e 923e 8919 993e e65e 543e
00000070: 0e17 8e3e 81db 2a3e 7742 973e 7c00 3b3e
00000080: 6d14 093e e2ba 6fbe 3009 883e 1a9a 0b3e
00000090: 00ed d3bc 55f3 843d 5f9f 80be beaa 7cbd
000000a0: 6849 ff3d cc3a e73d c185 52be 66c2 0d3e
000000b0: 706e ed3d 79d4 94bd a12f 533e ed9d 37bb
000000c0: 8f75 8e3e 32d4 de3d 801a 473e 500b 29be
000000d0: 99d1 e13d af13 f83c b607 a6bd 17e0 8e3e
000000e0: d66e 453e 4cb0 c83d 3f11 473e 3f82 92be
000000f0: 57c0 4b3e 3ad8 8a3e 7cfd 3dbd fa57 b13e
00000100: 3068 a43e e5cc acbe 7aa4 683e 5511 373e
00000110: 2862 7abe 823e 7b3e f201 683e 613d a33d
00000120: 7cb0 d13d cfb2 7a3e 2a4d ce3d 7879 023e
00000130: 0259 33bd 2c6a ebbd bfcb 45be 4f1e b63e
00000140: 8712 813e 63e7 88be 304e 353e 8cb8 2f3e
00000150: 4ebb 7a3e 5eff 203e 305f 493e 7c81 963e
00000160: d193 793e a93c 2f3e fa82 a93d b050 19be
00000170: ade7 2e3e dfdc 4ebd 619e 2ebd 47fa bb3c
00000180: 8075 aabe 6cb1 76be 9d0c c33e 3eab 563e
00000190: 741b 43be b0d5 1f3e 0a30 a33e 2efb 42be
000001a0: 09da 663e a541 7abb 2a1e 883e e83f 813e
000001b0: 5f77 c83d 923c 33be da7b 213c 3587 02ba
000001c0: 87ee 97be ecdc 5c3e bab5 6a3d 60a2 813d
000001d0: d682 533e ef08 71be 1b79 433e db4b 0e3d
000001e0: af62 b8bd 2d21 713e c2e9 753d 7dfd 1dbe
000001f0: 263c 033e 8a0e 383e 1ff2 d4bd e788 a03d
00000200: 9320 013e 7609 fb3c d5d1 8c3c a93a 1a3e
00000210: 5e65 ed3d 033b 293e e17b 1bbe 5d32 31be
00000220: 092e 13be 929a 58bc 9f41 d33d ae59 2dbd
00000230: da6f fc3d 4f81 3d3e 582d 0d3e b513 223e
00000240: df87 673e 9c81 073e 93e2 073e a618 813d
00000250: 589d 213e c6ec 5fbb 000e be3c 5c20 b93d
00000260: 361b 33bd c18c 583d cba2 6abe 48b7 6cbe
00000270: 9953 1d3c 6e54 f43a 37dd 43be 692b 9b3d
00000280: 8c44 963b fb40 49be a514 ca3d dd5d 5fbc
00000290: a486 cc3d 4386 083e 1ee9 023e 11bd e4bc
000002a0: 044f 6f3d 59ff 123c 50ac 1dbe d16b e43d
000002b0: 2bfe 093e 0b62 3f3c 77e2 883c 89f5 f0bd
000002c0: 7fb0 e13d ff6a 0f3e 7cf2 87bd 7446 c0bc
000002d0: b476 553c dbc1 b2bd d770 a83a 6253 043e
000002e0: f8ec 21bc 4873 b93d 9946 283e 6b96 163e
000002f0: 1f3d 233e f8e0 edbc 42f5 4e3e 7383 f73d
00000300: 71b1 a5bd 052d 62bd b932 41be f51f 5a3e
00000310: 40e4 483e 5fd6 2cbe 2be4 bebb 3d43 d53d
00000320: 5d86 6c3d f764 113e 75ac 01bd 4246 403e
00000330: b8b0 d03d fe99 c53d b547 283c 1e55 acbd
00000340: f93b 3b3e 49f3 023e d111 fb39 a6f2 d23c
00000350: afae 7fbd 567b 76bc ec43 96bc e49c 213d
00000360: 671a 3fbe 2e86 413e ddcd 473d 2364 1bbc
00000370: 4105 263e 7166 2fbc b9bd eb3d fc48 303e
00000380: d360 9a3d 20c7 b3bc 7a27 5f3d 94c1 febc
00000390: c9a9 27bd ea19 e7bc a16e 823c 66d0 d1bc
000003a0: 59f6 36bd a1c7 4cbc f921 3a3d a85c dabd
000003b0: db23 f5bd 3532 b83d 004f 8fbc 150f 7fbd
000003c0: 896e 0bbd 91b5 34bb bcdb c5bd 307c 03be
000003d0: 6dc8 b3bd e0c9 a03d d820 c33c 201e 04be
000003e0: 229c a7bd 1673 c33d 41f8 bc3d 6f79 653d
000003f0: dbca a03d a67a a83c de22 993d 4b0b c1bd

bias f4 [10]
-0.08875571 -0.3935238 -0.21707591 -0.16595718 0.04880541 -0.12288217 0.048056494 -0.029098451
-0.29702365 -0.21767254
00000000: 8ec5 b5bd f47b c9be 2649 5ebe aef0 29be
00000010: 2ee8 473d a6a9 fbbd e3d6 443d e05f eebc
00000020: 7c13 98be 8de5 5ebe

weight f4 [10, 10]
-0.23614304 -0.3072415 -0.31373414 -0.36995143 -0.59265953 -0.1956513 -0.56161344 -0.32737786
-0.04453667 -0.29355475 -0.16292611 -0.06557185 0.087584145 0.004522282 0.23986289 0.2242881
0.3523643 0.299198 -0.01457984 0.12424729 0.20709522 -0.32966977 -0.086400375 -0.45851636
-0.1681155 -0.20523313 0.036946997 -0.44193822 0.08588591 -0.41193977 -0.2513102 -0.19693121
-0.27138036 -0.3753426 -0.49834457 -0.12566423 -0.60482013 -0.06507512 -0.34941134 -0.45408535
-0.030768575 0.023435147 -0.19147462 -0.16432156 -0.2882511 0.08498908 0.1794035 0.19018303
0.20497465 0.06986184 -0.24022937 0.105437234 0.0006236881 -0.03372353 -0.31882498 0.12123709
-0.19166031 -0.1339342 0.15396528 -0.2978238 -0.1132904 0.007105526 -0.10609853 -0.04906892
0.44336817 0.2911154 0.4184394 0.32086042 0.22238141 0.030712267 0.0047821505 -0.110459924
0.20038457 0.28803697 0.050002124 0.084050156 -0.023749324 -0.067557715 0.23919427 -0.10817235
-0.13048947 -0.20470986 0.20156124 -0.13426292 -0.031985376 -0.16165185 0.1448868 -0.171817
-0.35685226 -0.3562919 -0.3234442 -0.13862273 -0.16454223 -0.049790274 -0.21905479 0.12009275
-0.33429748 -0.17217638 0.15292235 -0.036448423
00000000: 7bcf 71be c24e 9dbe c3a1 a0be 466a bdbe
00000010: 89b8 17bf d058 48be e6c5 0fbf 129e a7be
00000020: 156c 36bd cf4c 96be 1ad6 26be 894a 86bd
00000030: 515f b33d a72f 943b 9e9e 753e c8ab 653e
00000040: 1869 b43e 7b30 993e 48e0 6ebc 5d75 fe3d
00000050: c510 543e 7aca a8be aef2 b0bd a8c2 eabe
00000060: 7826 2cbe a228 52be bc55 173d ba45 e2be
00000070: f4e4 af3d c5e9 d2be bbab 80be 56a8 49be
00000080: 5ef2 8abe e82c c0be 0527 ffbe 20ae 00be
00000090: 7ed5 1abf 1b46 85bd 0be6 b2be e07d e8be
000000a0: 610e fcbc 11fb bf3c ec11 44be e943 28be
000000b0: a695 93be c10e ae3d 8db5 373e 57bf 423e
000000c0: e0e4 513e b913 8f3d b0fe 75be 7aef d73d
000000d0: 007f 233a af21 0abd 073d a3be 274b f83d
000000e0: 9a42 44be 0c26 09be 13a9 1d3e 5c7c 98be
000000f0: cc04 e8bd 79d5 e83b 304a d9bd 7efc 48bd
00000100: 2701 e33e 140d 953e b03d d63e d147 a43e
00000110: f4b7 633e 4b98 fb3c 96b3 9c3b d038 e2bd
00000120: 9d31 4d3e 9579 933e 07cf 4c3d 7d22 ac3d
00000130: f18d c2bc b35b 8abd 58ef 743e 7789 ddbd
00000140: 089f 05be 769f 51be 1266 4e3e 387c 09be
00000150: 1903 03bd 1088 25be 355d 143e ccf0 2fbe
00000160: 57b5 b6be e46b b6be 7a9a a5be 1ef3 0dbe
00000170: c27d 28be e3f0 4bbd e64f 60be 30f3 f53d
00000180: 0a29 abbe 014f 30be ad97 1c3e f14a 15bd

bias f4 [10]
-0.16567868 0.053553335 -0.122689635 -0.6229844 -0.04428963 -0.3037539 -0.13863263 -0.14711949
-0.31311604 -0.13591076
00000000: aca7 29be be5a 5b3d b444 fbbd e87b 1fbf
00000010: 0b69 35bd a285 9bbe b6f5 0dbe 7ea6 16be
00000020: bf50 a0be 312c 0bbe

weight f4 [1, 10]
0.037770893 -0.21792977 -0.10075641 -0.09119249 0.08740393 -0.12041023 0.122052446 -0.03434878
0.13143466 0.13508615
00000000: a7b5 1a3d fb28 5fbe 6059 cebd 21c3 babd
00000010: d500 b33d a399 f6bd a2f6 f93d 4eb1 0cbd
00000020: cf96 063e 0654 0a3e

weight f4 [1, 10]
-0.331862 -0.8936427 -0.420777 -0.15608343 -0.6183936 -0.48343444 -0.8953531 -0.80711746
-0.97506154 -0.6768634
00000000: d1e9 a9be c5c5 64bf 1570 d7be 56d4 1fbe
00000010: 0b4f 1ebf b884 f7be dc35 65bf 409f 4ebf
00000020: a29d 79bf eb46 2dbf

prior_mean f8 []
-4.600166019324908
00000000: 16af c4eb 9166 12c0

weight f4 [50, 58]
0.04815623 -0.35395297 0.22625214 0.2793737 -0.25665402 0.16181266 0.17933097 -0.22101021
0.10895572 0.35911313 -0.028165923 0.24477732 -0.016122522 -0.06664609 -0.2827915 -0.031985074
0.1451098 0.010381691 -0.09469556 -0.0017082327 -0.055116054 0.11800144 0.44619206 0.028326465
0.27455324 0.29918516 0.16420595 0.09146269 0.32001814 0.19964664 0.1163768 0.2541387
0.034769356 -0.3947607 0.050680876 -0.20650233 0.045472134 0.26447606 -0.07301758 -0.21450604
0.3093544 0.067585826 -0.2594461 -0.032122236 0.07029663 -0.33488768 -0.06444425 -0.27569088
0.28190616 0.27661625 0.8018723 -0.3741119 0.023404393 0.105177455 0.031228483 0.20947032
-0.31455368 0.087286055 -0.06443597 -0.15608269 -0.026776457 0.37355408 -0.39526814 0.1805523
0.16878472 -0.2048263 0.046948764 0.17666045 0.01016135 0.23752922 0.09919341 -0.11840924
-0.26526344 -0.067380644 0.23814051 -0.056358937 -0.23018916 0.042000823 -0.053784754 0.13386147
0.42641425 -0.1544807 0.2399488 0.1112034 0.19032446 0.7109207 0.34781805 0.08852172
0.09445529 0.07030346 0.083855614 -0.4501585 0.06608834 0.45095515 0.049128138 0.26543868
-0.025525654 -0.18493402 0.27976587 0.14004923 -0.04568904 0.096942104 -0.009201101 -0.13630329
0.16692021 -0.0896203 0.22754401 0.33796713 0.21352668 -0.33681816 0.2599262 0.15270874
0.04218468 0.30672348 -0.064762935 -0.08669012 0.277767 -0.20009352 -0.099565856 0.012224609
-0.3994072 0.34676003 0.21770819 -0.07353264 0.14857087 -0.072593816 -0.32851812 0.15222237
0.46910208 0.37096432 0.23762128 0.20968641 -0.14317445 0.3320677 -0.022632178 -0.0829767
0.056627203 0.21598504 0.035078634 -0.09953462 0.17414044 0.039793704 0.11530114 -0.20616505
0.21637955 0.15426573 0.20553209 0.048991155 0.2014469 -0.06590154 0.4774806 -0.024132865
0.012860157 -0.10208297 0.04701643 0.06241595 0.3218531 0.4638624 -0.119983144 -0.07713192
0.09092502 -0.19060323 0.2055043 0.11202594 0.18650714 0.01590381 -0.26535758 0.26643825
-0.07990213 0.024521107 -0.37593055 0.2768174 -0.16037926 -0.36517963 0.17648242 -0.02353586
0.39110386 -0.020011896 0.34272295 0.052794427 0.14229661 -0.23640491 0.08247027 0.39182863
-0.22988455 0.06734113 -0.11066179 0.32655954 -0.23035046 0.22294246 0.2075287 0.1948836
0.43527958 -0.049704153 -0.32493937 0.05381683 0.19070272 -0.25056222 0.08317738 0.3321983
0.23189762 -0.3233466 0.008506475 0.029400676 -0.0117109995 0.055150982 -0.116436616 0.056704238
0.011255526 -0.40492105 0.15232106 0.14285964 -0.12373967 -0.30263457 0.07775363 -0.022972176
-0.12198564 -0.32476288 0.32362235 -0.06229106 -0.05798296 0.12207353 0.06494855 0.0654132
-0.2687074 -0.25115684 -0.23741716 0.14233615 -0.30362988 -0.04337086 -0.20600821 0.9384932
0.09646196 -0.3499396 0.1416497 -0.029286066 -0.7572156 0.08527498 0.19523749 -0.80738723
0.19250853 0.4153293 0.19181947 0.26966634 0.21539468 0.12047681 -0.2638039 -0.004905052
0.059560087 -0.15008818 -0.33566976 0.23236702 -0.2984313 0.16172285 0.14681415 -0.18758295
00000000: 783f 453d 5339 b5be a4ae 673e 120a 8f3e
00000010: 2868 83be 38b2 253e 8aa2 373e 8050 62be
00000020: 2d24 df3d addd b73e 39bc e6bc e8a6 7a3e
00000030: 6113 84bc bf7d 88bd 0cca 90be c802 03bd
00000040: aa97 143e f817 2a3c bfef c1bd c7e6 dfba
00000050: 5fc1 61bd bdaa f13d 4973 e43e e70c e83c
00000060: 3e92 8c3e cc2e 993e 9b25 283e ca50 bb3d
00000070: 6bd9 a33e 2b70 4c3e f656 ee3d 781e 823e
00000080: 506a 0e3d 131e cabe c096 4f3d 5975 53be
00000090: fd40 3a3d 6869 873e 3e8a 95bd 79a7 5bbe
000000a0: b363 9e3e 706a 8a3d 1fd6 84be 9b92 03bd
000000b0: aef7 8f3d 6676 abbe 59fb 83bd 5b27 8dbe
000000c0: 0156 903e a5a0 8d3e 8147 4d3f 988b bfbe
000000d0: 92ba bf3c 4767 d73d e0d2 ff3c 637f 563e
000000e0: 2e0d a1be 08c3 b23d 01f7 83bd 24d4 1fbe
000000f0: 4d5a dbbc 7b42 bf3e 9660 cabe b4e2 383e
00000100: e7d5 2c3e fcbd 51be 594d 403d 7ae6 343e
00000110: ca7b 263c dc3a 733e ea25 cb3d 8b80 f2bd
00000120: 9cd0 87be ddfe 89bd 1bdb 733e a1d8 66bd
00000130: b5b6 6bbe 0e09 2c3d 674d 5cbd fb12 093e
00000140: f852 da3e 3030 1ebe 23b5 753e 9cbe e33d
00000150: 6ae4 423e e6fe 353f 3515 b23e e04a b53d
00000160: c671 c13d 43fb 8f3d 7ebc ab3d 2d7b e6be
00000170: 5359 873d 98e3 e63e 963a 493d 94e7 873e
00000180: 2d1b d1bc 585f 3dbe 793d 8f3e 1169 0f3e
00000190: 6e24 3bbd 9589 c63d 37c0 16bc 1793 0bbe
000001a0: 22ed 2a3e d98a b7bd 4c01 693e 070a ad3e
000001b0: bda6 5a3e 6e73 acbe 0c15 853e ae5f 1c3e
000001c0: d8c9 2c3d dc0a 9d3e 6ea2 84bd 978a b1bd
000001d0: 7a37 8e3e 51e5 4cbe 2fe9 cbbd ba49 483c
000001e0: 1a7f ccbe 888a b13e e5ee 5e3e 4898 96bd
000001f0: f622 183e 11ac 94bd 8733 a8be 2ee0 1b3e
00000200: 262e f03e 09ef bd3e fe52 733e 09b8 563e
00000210: 539c 12be c704 aa3e 1e67 b9bc b0ef a9bd
00000220: edf1 673d 2f2b 5d3e 9dae 0f3d cfd8 cbbd
00000230: df51 323e b9fe 223d 0123 ec3d ee1c 53be
00000240: 9a92 5d3e d6f7 1d3e 0177 523e f3aa 483d
00000250: 1948 4e3e 63f7 86bd 5678 f43e 49b2 c5bc
00000260: 68b3 523c e010 d1bd 4d94 403d dea7 7f3d
00000270: eec9 a43e 5f7f ed3e b9b9 f5bd 57f7 9dbd
00000280: e636 ba3d 7e2d 43be b86f 523e db6d e53d
00000290: bafb 3e3e b548 823c f3dc 87be 986a 883e
000002a0: baa3 a3bd 7de0 c83c f879 c0be 03bb 8d3e
000002b0: 763a 24be d3f8 babe cfb7 343e 47ce c0bc
000002c0: c43e c83e fdef a3bc 6279 af3e f83e 583d
000002d0: 34b6 113e 2114 72be 2ce6 a83d c39d c83e
000002e0: db66 6bbe 25ea 893d a6a2 e2bd d032 a73e
000002f0: fee0 6bbe 074b 643e 6782 543e 918f 473e
00000300: f7dc de3e 9596 4bbd 745e a6be 096f 5c3d
00000310: 9347 433e b149 80be e758 aa3d e515 aa3e
00000320: 9276 6d3e b08d a5be be5e 0b3c b0d9 f03c
00000330: 7edf 3fbc ffe5 613d 5276 eebd b442 683d
00000340: 1969 383c d051 cfbe 0dfa 1b3e cc49 123e
00000350: 396b fdbd ebf2 9abe 4c3d 9f3d 2530 bcbc
00000360: 9bd3 f9bd 5247 a6be d4b1 a53e e924 7fbd
00000370: 8a7f 6dbd b001 fa3d bf03 853d 5bf7 853d
00000380: 0494 89be a197 80be 7c1d 73be 91c0 113e
00000390: 6075 9bbe a5a5 31bd d1f3 52be 1741 703f
000003a0: d98d c53d 492b b3be 9e0c 113e 55e9 efbc
000003b0: e2d8 41bf a6a4 ae3d 56ec 473e eeb0 4ebf
000003c0: f520 453e 0ba6 d43e 536c 443e b511 8a3e
000003d0: 6c90 5c3e 8cbc f63d 4e11 87be 8fba a0bb
000003e0: 47f5 733d b7b0 19be e8dc abbe 9ff1 6d3e
000003f0: fdcb 98be ad9a 253e 7356 163e bf15 40be

bias f4 [50]
-0.28912792 -0.22646835 -0.008940996 -0.02731177 0.12784122 -0.19543855 -0.027978066 -0.33949748
-0.17027251 -0.20152098 -0.22344604 -0.2926237 -0.22889376 -0.13954313 -0.4006466 -0.14944112
-0.13654284 -0.12489513 -0.111233905 -0.42180878 0.04798174 -0.26090756 -0.2670599 -0.23304564
-0.2873235 -0.3480006 -0.114678614 -0.36306396 -0.06822607 0.1597792 -0.056325916 0.13640061
0.025830165 -0.21290459 -0.24105869 0.20330459 -0.056793205 0.020141266 -0.26347205 0.12242719
-0.30889237 -0.25021237 -0.0068684355 -0.15439726 -0.35237694 -0.12801772 -0.22050412 -0.050236207
-0.255002 -0.12709126
00000000: 9308 94be 52e7 67be 417d 12bc efbc dfbc
00000010: cfe8 023e 0b21 48be 4232 e5bc 9dd2 adbe
00000020: eb5b 2ebe 845b 4ebe 0acf 64be c6d2 95be
00000030: 2063 6abe 65e4 0ebe 8d21 cdbe 1807 19be
00000040: e3d1 0bbe 05c9 ffbd 9ace e3bd 52f7 d7be
00000050: 8088 443d ad95 85be 13bc 88be 84a3 6ebe
00000060: 111c 93be 222d b2be 9fdc eabd 85e3 b9be
00000070: 1cba 8bbd 299d 233e 01b6 66bd 9aac 0b3e
00000080: c899 d33c a903 5abe 17d8 76be 142f 503e
00000090: fe9f 68bd 4cff a43c cfe5 86be 1bbb fa3d
000000a0: 2427 9ebe d61b 80be 9d10 e1bb 511a 1ebe
000000b0: c06a b4be 1417 03be d5cb 61be 7bc4 4dbd
000000c0: 9f8f 82be 3624 02be

weight f4 [50, 50]
-0.20454836 -0.029955592 0.021913614 -0.0063646194 -0.3091997 -0.13407938 -0.15013057 -0.28583375
-0.14729534 -0.099965155 -0.03448794 -0.082625866 -0.08251871 -0.1503885 0.05486995 0.012685257
-0.36418465 -0.16918561 -0.023959806 -0.02478751 -0.27677646 -0.17627028 -0.15734658 -0.15655868
-0.07554252 -0.10792521 -0.16662252 -0.10117606 -0.22444499 -0.1544342 -0.342357 -0.30614835
-0.29261893 -0.33276775 -0.27401638 0.061629184 -0.20921353 -0.40959698 -0.2494481 -0.2630334
-0.07321998 -0.12666632 -0.17376667 -0.013595144 -0.08969489 -0.34512195 0.03637703 -0.14730044
0.013314239 -0.23621796 -0.061128747 -0.1446345 0.010147417 -0.098706454 -0.3085192 0.036353502
-0.022132557 -0.15264717 0.02626041 0.06437029 -0.19923101 -0.18426037 0.040970955 -0.11533925
-0.110244334 -0.18901041 -0.16310097 -0.12380533 -0.122854315 0.023840751 -0.35963517 0.012778422
0.029215869 -0.31201106 -0.11674844 0.043771703 -0.1280102 -0.055135615 -0.26260778 -0.17884791
-0.3365991 -0.3799837 -0.2781638 -0.33094263 -0.08546878 -0.07696223 0.015018126 -0.37592006
-0.19928859 -0.26735392 0.05549294 -0.28384483 -0.43253097 -0.27406368 -0.029805472 -0.2596582
0.061695416 0.05614135 0.0016521349 -0.20638987 -0.111345015 0.061437335 -0.15990558 -0.17750059
-0.2577317 -0.088459134 -0.16978604 -0.21068536 -0.11655695 -0.14567244 -0.047304265 -0.020987714
-0.27971244 -0.27188203 -0.10367641 -0.2242572 -0.21855561 -0.061054304 -0.0760551 -0.19640921
-0.20066437 -0.24199995 -0.2205278 -0.21116239 -0.15262641 0.052834745 -0.18513918 -0.01214416
-0.15104184 -0.33711618 -0.33400753 -0.39664686 -0.16607879 -0.25196338 -0.099149644 -0.1733816
-0.15233731 -0.35592884 -0.16431528 -0.15866476 -0.002347278 -0.24487725 -0.13894697 -0.25949216
-0.012705887 -0.41134787 -0.07144796 -0.20631027 -0.13858409 -0.16302757 0.020549556 -0.12881447
0.023497667 -0.22153524 -0.05043734 -0.1277897 -0.039486293 -0.072175354 -0.05932222 -0.06808804
0.056213528 0.021400979 -0.18760277 -0.059476014 -0.08850561 -0.10752045 -0.2315011 0.02611234
-0.080944754 -0.08985163 -0.13819705 -0.31682375 -0.044958938 0.041730773 -0.093061656 -0.1350917
-0.15551299 -0.07415374 0.12401193 -0.21211773 -0.0675122 0.10039281 -0.039445467 -0.16657883
-0.21957311 0.056282643 -0.24033771 -0.10321191 -0.11994347 0.10967586 -0.05613069 -0.08709542
0.08984008 -0.18653376 0.05815419 -0.19595931 -0.12536928 -0.104948334 -0.20432791 0.031805236
-0.20120981 -0.21915886 -0.12980029 -0.06294656 -0.23076639 -0.0560824 -0.21391821 0.0031509893
-0.31307226 -0.050798852 -0.020764029 -0.14770588 -0.12201117 -0.28019893 -0.10711392 -0.26177874
0.021404104 -0.16406144 -0.040953442 -0.10701765 -0.22601028 -0.41666386 -0.18214901 -0.1771973
-0.051164713 0.04648805 0.0047467873 -0.22877812 -0.29690987 -0.018593593 -0.2075344 -0.19452836
0.03797643 -0.12588619 -0.28352284 -0.40771338 -0.2077777 -0.41074604 0.008201806 -0.14309788
-0.071367346 -0.23587242 -0.4083065 -0.03342617 0.04134338 0.16364816 -0.25221395 -0.101911865
-0.31292054 -0.019966386 -0.038035702 -0.048012655 -0.1439296 -0.030903945 -0.22739492 -0.048433077
00000000: 2075 51be 6e65 f5bc 2e84 b33c 4c8e d0bb
00000010: 6c4f 9ebe 1b4c 09be d4bb 19be cd58 92be
00000020: 97d4 16be 88ba ccbd 3a43 0dbd c037 a9bd
00000030: 92ff a8bd 71ff 19be 50bf 603d d3d5 4f3c
00000040: 6976 babe fe3e 2dbe 5b47 c4bc 2d0f cbbc
00000050: a5b5 8dbe 3280 34be 761f 21be eb50 20be
00000060: 09b6 9abd e407 ddbd 189f 2abe 6535 cfbd
00000070: e8d4 65be 0024 1ebe 6b49 afbe 7abf 9cbe
00000080: 26d2 95be 8960 aabe e04b 8cbe e26e 7c3d
00000090: 123c 56be b2b6 d1be 536f 7fbe 50ac 86be
000000a0: 5bf4 95bd d1b4 01be e4ef 31be 2bbe 5ebc
000000b0: f4b1 b7bd d3b3 b0be 1500 153d edd5 16be
000000c0: f723 5a3c 1fe3 71be 2362 7abd 111b 14be
000000d0: 5a41 263c 9c26 cabd 3bf6 9dbe 69e7 143d
000000e0: 564f b5bc 8a4f 1cbe 1220 d73c 92d4 833d
000000f0: 3703 4cbe c0ae 3cbe 29d1 273d fc36 ecbd
00000100: c8c7 e1bd f28b 41be f103 27be a68d fdbd
00000110: 0b9b fbbd ae4d c33c 1a22 b8be 965c 513c
00000120: 1e56 ef3c eabf 9fbe ce19 efbd f549 333d
00000130: 1b15 03be e2d5 61bd 8774 86be e823 37be
00000140: b856 acbe 398d c2be 7c6b 8ebe 5071 a9be
00000150: 410a afbd 609e 9dbd 960e 763c 9878 c0be
00000160: 4f12 4cbe 9de2 88be 914c 633d 1c54 91be
00000170: b374 ddbe 1352 8cbe 9b2a f4bc ebf1 84be
00000180: 55b4 7c3d 79f4 653d 738c d83a de57 53be
00000190: db08 e4bd b7a5 7b3d 4abe 23be b7c2 35be
000001a0: 69f5 83be 102a b5bd 64dc 2dbe e7bd 57be
000001b0: 69b5 eebd 282b 15be 1ec2 41bd 6dee abbc
000001c0: 7836 8fbe 1f34 8bbe 4c54 d4bd aea3 65be
000001d0: 0bcd 5fbe 1414 7abd c7c2 9bbd 7f1f 49be
000001e0: f67a 4dbe d6ce 77be 0ad2 61be f43a 58be
000001f0: 194a 1cbe 3f69 583d 2095 3dbe 4df8 46bc
00000200: b6aa 1abe 7e9a acbe 0903 abbe 4c15 cbbe
00000210: 8f10 2abe 5801 81be f80e cbbd f28a 31be
00000220: 50fe 1bbe 4e3c b6be 4442 28be 0479 22be
00000230: cad4 19bb 1ac1 7abe 1d48 0ebe 28dc 84be
00000240: 5a2c 50bc 309c d2be 4f53 92bd 0043 53be
00000250: fde8 0dbe b3f0 26be 8b57 a83c f1e7 03be
00000260: 2e7e c03c 22da 62be 6297 4ebd 4edb 02be
00000270: 61bc 21bd acd0 93bd dbfb 72bd be71 8bbd
00000280: 2840 663d 1b51 af3c f11a 40be 1f9d 73bd
00000290: 6e42 b5bd af33 dcbd a00e 6dbe 8ce9 d53c
000002a0: 5dc6 a5bd 2204 b8bd 8783 0dbe b936 a2be
000002b0: dd26 38bd e3ed 2a3d 1c97 bebd 7b55 0abe
000002c0: cc3e 1fbe ebdd 97bd f7f9 fd3d 6435 59be
000002d0: d643 8abd bf9a cd3d 9291 21bd a493 2abe
000002e0: c6d7 60be a188 663d 171b 76be c460 d3bd
000002f0: eca4 f5bd bd9d e03d 4be9 65bd 155f b2bd
00000300: 13fe b73d b502 3fbe 1733 6e3d 8fa9 48be
00000310: ce60 00be 27ef d6bd 563b 51be 3546 023d
00000320: f209 4ebe 2e6b 60be 5eea 04be 20ea 80bd
00000330: 064e 6cbe a9b6 65bd 600d 5bbe d480 4e3b
00000340: 024b a0be 7512 50bd 5319 aabc 3640 17be
00000350: fee0 f9bd 3c76 8fbe 8b5e dbbd dd07 86be
00000360: a957 af3c b9ff 27be ccbe 27bd 122c dbbd
00000370: 3d6f 67be f754 d5be 4585 3abe 3673 35be
00000380: 1792 51bd 416a 3e3d f08a 9b3b d044 6abe
00000390: 9204 98be 9751 98bc e683 54be 7132 47be
000003a0: 2c8d 1b3d 4fe8 00be e829 91be cfbf d0be
000003b0: adc3 54be 4e4d d2be de60 063c 4088 12be
000003c0: 0b29 92bd 8a88 71be 8d0d d1be e1e9 08bd
000003d0: ad57 293d 6293 273e 3022 81be 2bb7 d0bd
000003e0: 1f37 a0be 8c90 a3bc 53cb 1bbd eba8 44bd
000003f0: 4862 13be 452a fdbc 37da 68be c361 46bd

bias f4 [50]
-0.21362107 -0.2530337 -0.34234482 -0.17201063 -0.07926397 -0.2607114 -0.11831019 -0.16885543
-0.1818693 -0.23225373 -0.27492213 -0.24836951 -0.03489539 -0.04686406 0.108758 -0.10026379
-0.29627314 -0.28922647 -0.07641767 -0.26346508 -0.3188761 -0.16525216 -0.018244695 -0.2281077
-0.08335179 0.021911588 -0.195795 -0.25819117 -0.22267053 0.030672874 -0.09793166 -0.2608492
-0.21083945 -0.30918357 -0.15865737 -0.29251778 -0.1482137 -0.19897464 -0.18229266 -0.02033103
-0.044025525 -0.1315003 -0.30972204 -0.24519315 -0.1290099 -0.1514239 -0.23256631 -0.24247044
-0.31203288 -0.2433587
00000000: 7bbf 5abe a28d 81be d247 afbe 8e23 30be
00000010: 2655 a2bd f77b 85be 9d4c f2bd 70e8 2cbe
00000020: f23b 3abe ecd3 6dbe 98c2 8cbe 9454 7ebe
00000030: 78ee 0ebd 87f4 3fbd 84bc de3d 1a57 cdbd
00000040: 1db1 97be 7e15 94be de80 9cbd e5e4 86be
00000050: ba43 a3be dd37 29be e675 95bc 1195 69be
00000060: 58b4 aabd ee7f b33c 7c7e 48be a231 84be
00000070: be03 64be ae45 fb3c 6590 c8bd 078e 85be
00000080: 4ce6 57be 4f4d 9ebe 1477 22be e4c4 95be
00000090: 55c5 17be 02c0 4bbe edaa 3abe 438d a6bc
000000a0: 1c54 34bd 04a8 06be e393 9ebe ea13 7bbe
000000b0: 2c1b 04be de0e 1bbe dd25 6ebe 2c4a 78be
000000c0: c6c2 9fbe 0633 79be

weight f4 [100, 50]
-0.16021138 -0.021152304 -0.036446903 0.15507635 0.14505614 -0.2211994 -0.05171791 0.018949924
-0.032498207 0.03481901 -0.0107756145 0.045131158 0.27696058 -0.18363632 -0.27434602 -0.16787015
-0.026641078 0.19562371 0.2519936 0.09454473 -0.066028476 0.0050033126 -0.18369795 0.07476671
0.15519904 0.32012612 -0.08716165 -0.14279124 0.14723022 -0.14241083 0.029147616 0.2040996
-0.07577347 -0.25036472 -0.17416759 -0.0073982235 -0.08111565 0.15623465 -0.0150648225 0.19723007
0.14091863 0.098428905 -0.020811945 0.095199816 0.092377834 -0.18702897 -0.27660197 0.02341603
0.08940707 -0.009452341 -0.095500894 -0.0394754 -0.093263365 0.0012329873 0.009798959 0.04007393
-0.020125879 0.08130589 -0.016933063 -0.025658807 -0.112803616 0.040154494 -0.052121606 -0.083557785
0.06166466 -0.10450944 -0.11367188 -0.06805837 0.071322024 0.05038259 -0.11137591 0.047213513
-0.07077476 -0.069682136 0.08530284 -0.020583497 0.061334517 0.008459032 -0.08530842 -0.14730184
0.106242634 -0.010281939 0.047238693 -0.0843631 -0.0023377435 0.057752986 -0.22683582 0.11656847
0.18322916 0.07168459 0.035612043 -0.030527363 0.08342601 -0.0721022 -0.042460278 -0.046852015
-0.12572183 -0.0443795 -0.1044636 0.022269761 0.0683554 -0.02369846 0.026973912 0.092546575
0.06981758 -0.11695006 0.007112306 -0.0023198363 -0.13579899 0.15686765 -0.13553515 -0.13643578
0.33519012 -0.1623844 -0.46618044 -0.24761443 -0.030251946 0.17682381 0.27182943 0.104946256
0.12941697 0.04394839 -0.17356645 0.022197414 0.3448207 0.43323824 0.016018348 -0.34031495
0.33392328 -0.10733823 0.12410686 0.3340945 0.14889938 -0.16240223 -0.33996555 0.2007691
0.1137553 -0.13626945 -0.3284329 0.54551345 -0.1033342 0.00848201 -0.17056215 0.30413187
0.14127989 -0.22781333 -0.121581644 0.045981932 -0.044758298 0.03995669 -0.08564999 0.024933219
-0.06562346 -0.110036194 -0.06589873 0.05317522 -0.039054852 -0.08260665 0.03135403 -0.13273995
-0.040170282 0.039441716 -0.06378102 -0.13910347 -0.17187588 -0.07023749 -0.0072971457 -0.05568493
-0.07445359 -0.027519582 -0.10685818 -0.079764605 -0.078982756 -0.0962428 0.02274207 0.047716793
-0.03383412 -0.022894835 -0.081674494 -0.11303219 0.06724921 -0.15337844 0.071835645 0.016995082
0.031937122 -0.07441397 -0.06496082 -0.16086002 -0.19091974 6.0508635e-05 -0.23090959 -0.17562538
-0.06452153 -0.011800341 -0.056116167 -0.06568375 -0.110149495 0.005137193 -0.13851683 -0.058881316
0.07080093 0.25695783 0.08065765 -0.03925823 0.20314495 0.1892698 -0.0071190186 0.0511187
0.15180229 -0.03497363 0.122891925 0.055736937 0.2712684 0.092237614 0.38596007 0.036755424
-0.02097917 0.15371776 0.24894555 0.24363457 -0.03661152 0.23281033 0.027622674 0.16092591
0.18733488 0.110426076 0.17658082 0.04466938 0.26000276 0.22712848 0.2286067 0.15710214
0.21042271 0.33722267 0.2369193 0.060921557 -0.10320043 -0.066265486 0.16098374 0.41795623
0.009970794 0.17353101 0.17975225 0.11383109 0.24676758 0.03788843 0.27830094 0.1281583
0.073496364 0.08832098 -0.024470028 0.021601325 -0.08700446 -0.020713095 -0.09374457 0.005354453
00000000: 740e 24be 9947 adbc 5949 15bd 56cc 1e3e
00000010: 9989 143e 1882 62be 29d6 53bd df3c 9b3c
00000020: d71c 05bd 619e 0e3d 348c 30bc 73db 383d
00000030: c7cd 8d3e 290b 3cbe 1577 8cbe 27e6 2bbe
00000040: 643e dabc 9551 483e 4e05 813e aba0 c13d
00000050: f039 87bd d4f2 a33b 511b 3cbe 4a1f 993d
00000060: 7fec 1e3e 92e7 a33e cf81 b2bd de37 12be
00000070: 85c3 163e 25d4 11be fbc6 ee3c 7cff 503e
00000080: 1f2f 9bbd ce2f 80be fd58 32be cc6c f2bb
00000090: f61f a6bd fafb 1f3e 72d2 76bc aef6 493e
000000a0: f94c 103e 1895 c93d d07d aabc 1ff8 c23d
000000b0: 9730 bd3d 8684 3fbe c69e 8dbe f9d2 bf3c
000000c0: 0e1b b73d fedd 1abc f995 c3bd f5b0 21bd
000000d0: dd00 bfbd 309c a13a d08b 203c 9024 243d
000000e0: 07df a4bc b483 a63d 35b7 8abc 6b32 d2bc
000000f0: 9505 e7bd 0a79 243d 777d 55bd 5820 abbd
00000100: 1594 7c3d 0c09 d6bd cdcc e8bd 3062 8bbd
00000110: 4811 923d fa5d 4e3d 0e19 e4bd f562 413d
00000120: 5bf2 90bd 82b5 8ebd 41b3 ae3d b99e a8bc
00000130: e739 7b3d c097 0a3c 2eb6 aebd 4bd6 16be
00000140: bd95 d93d 9475 28bc 5c7d 413d 90c6 acbd
00000150: d434 19bb 658e 6c3d a647 68be 73bb ee3d
00000160: 6da0 3b3e 5fcf 923d efdd 113d 8514 fabc
00000170: 42db aa3d 51aa 93bd d4ea 2dbd e6e7 3fbd
00000180: 39bd 00be 47c7 35bd 03f1 d5bd 136f b63c
00000190: eafd 8b3d 4623 c2bc 65f8 dc3c 0f89 bd3d
000001a0: 85fc 8e3d 8383 efbd 590e e93b 6508 18bb
000001b0: e40e 0bbe eaa1 203e bac9 0abe d2b5 0bbe
000001c0: 0a9e ab3e 1948 26be 34af eebe a38e 7dbe
000001d0: eed2 f7bc 4d11 353e 3a2d 8b3e 10ee d63d
000001e0: e285 043e 3a03 343d 67bb 31be 5ad7 b53c
000001f0: 578c b03e 67d1 dd3e e938 833c c33d aebe
00000200: fef7 aa3e 25d4 dbbd bd2b fe3d 6f0e ab3e
00000210: 1479 183e c54c 26be f70f aebe 6a96 4d3e
00000220: 8af8 e83d 388a 0bbe 5b28 a8be c5a6 0b3f
00000230: e2a0 d3bd 21f8 0a3c d8a7 2ebe 2cb7 9b3e
00000240: adab 103e e647 69be ccff f8bd 8d57 3c3d
00000250: 7a54 37bd a0a9 233d 4369 afbd c040 cc3c
00000260: 9865 86bd a85a e1bd eaf5 86bd 42ce 593d
00000270: fbf7 1fbd ad2d a9bd 156d 003d fbec 07be
00000280: 9889 24bd a38d 213d a09f 82bd 2471 0ebe
00000290: 3b00 30be acd8 8fbd e51c efbb e215 64bd
000002a0: 207b 98bd bf70 e1bc 76d8 dabd a05b a3bd
000002b0: b6c1 a1bd f21a c5bd 944d ba3c af72 433d
000002c0: a595 0abd f38d bbbc f544 a7bd 6c7d e7bd
000002d0: f4b9 893d 3d0f 1dbe 911e 933d 4539 8b3c
000002e0: 80d0 023d 5a66 98bd 2e0a 85bd 7db8 24be
000002f0: 7780 43be a7ca 7d38 9073 6cbe 24d7 33be
00000300: dd23 84bd 3856 41bc 11da 65bd 3485 86bd
00000310: 0f96 e1bd e655 a83b 5bd7 0dbe 892d 71bd
00000320: 1400 913d fa8f 833e d72f a53d 3dcd 20bd
00000330: 3b05 503e f1cf 413e a846 e9bb d861 513d
00000340: 0f72 1b3e 8240 0fbd c3ae fb3d 6a4c 643d
00000350: b1e3 8a3e 13e7 bc3d 8f9c c53e db8c 163d
00000360: 82dc abbc 3068 1d3e 95eb 7e3e 577b 793e
00000370: f6f5 15bd d565 6e3e f248 e23c c3c9 243e
00000380: b7d4 3f3e 1127 e23d 9ad1 343e 3df7 363d
00000390: 151f 853e 5e94 683e e017 6a3e 62df 203e
000003a0: 0d79 573e 73a8 ac3e f99a 723e e288 793d
000003b0: bf5a d3bd 33b6 87bd ecd8 243e 5cfe d53e
000003c0: 8b5c 233c 1db2 313e f910 383e 4620 e93d
000003d0: a4b0 7c3e e630 1b3d 767d 8e3e ee3b 033e
000003e0: 4385 963d a1e1 b43d 5e75 c8bc 43f5 b03c
000003f0: 652f b2bd 82ae a9bc 27fd bfbd 6874 af3b

bias f4 [100]
0.17255704 -0.081433386 -0.023322828 -0.10229116 0.18136536 -0.04350184 -0.04877775 0.027634121
-0.07874431 -0.09271162 0.14610054 -0.062852874 -0.078865476 -0.028145326 0.21801706 -0.04078654
-0.03096231 0.092083275 0.04897531 0.13786997 0.042907678 0.017541638 0.15382034 0.0131569635
-0.0062758946 0.027346332 -0.1397061 0.17709757 -0.12413846 0.22651917 -0.068755314 -0.018188378
-0.014350273 0.063036166 0.039672468 0.18670118 0.14828749 -0.05884136 0.02236253 0.16498893
-0.1769566 0.031098396 0.09734823 -0.018277852 0.16303553 0.057632152 -0.12650895 -0.04294383
0.05098388 0.08445646 0.14724626 -0.072262116 -0.08192317 0.06962979 -0.11042437 0.16589499
0.11144128 0.025657702 0.18388967 -0.18494175 -0.017969334 0.11559159 -0.24251646 -0.08452709
-0.01701338 0.31087002 -0.17367013 -0.03284181 -0.16202895 0.09591074 -0.1253914 -0.20978333
0.29852545 -0.062430955 0.21912862 0.1895003 -0.13262087 0.061401978 -0.1666097 -0.01828563
-0.08251906 0.08103247 -0.01842247 0.09879787 -0.041651517 -0.056851976 -0.057478476 -0.09986815
0.18186173 0.1492345 0.09445931 -0.10128472 -0.09135658 -0.13788313 -0.27562794 0.07370298
0.17448723 -0.24008998 0.0064864303 0.25826612
00000000: cbb2 303e 8cc6 a6bd 840f bfbc 077e d1bd
00000010: d7b7 393e fc2e 32bd 2ecb 47bd f460 e23c
00000020: b244 a1bd 97df bdbd 619b 153e 02b9 80bd
00000030: 3984 a1bd 0791 e6bc dd3f 5f3e c90f 27bd
00000040: aca4 fdbc 2896 bc3d 569a 483d c92d 0d3e
00000050: f6bf 2f3d 7bb3 8f3c 1483 1d3e 4e90 573c
00000060: 05a6 cdbb 6a05 e03c 1e0f 0fbe 1159 353e
00000070: 4e3c febd a4f4 673e 96cf 8cbd cbff 94bc
00000080: 681d 6bbc 1b19 813d 997f 223d 982e 3f3e
00000090: add8 173e a303 71bd a031 b73c dcf2 283e
000000a0: 1c34 35be 10c2 fe3c 825e c73d 6fbb 95bc
000000b0: c9f2 263e b10f 6c3d 908b 01be dfe5 2fbd
000000c0: 79d4 503d 82f7 ac3d b9c7 163e 29fe 93bd
000000d0: 56c7 a7bd 109a 8e3d 2c26 e2bd 60e0 293e
000000e0: 533b e43d 1a30 d23c 934d 3c3e 5f61 3dbe
000000f0: 6d34 93bc 49bb ec3d 3c56 78be 8a1c adbd
00000100: a55f 8bbc 5b2a 9f3e 95d6 31be 2285 06bd
00000110: ebea 25be da6c c43d 9a66 00be 71d1 56be
00000120: 54d8 983e 9ab7 7fbd 4163 603e 5e0c 423e
00000130: c4cd 07be a480 7b3d bc9b 2abe bfcb 95bc
00000140: c1ff a8bd 5af4 a53d b8ea 96bc 8a56 ca3d
00000150: c89a 2abd 9edd 68bd 8d6e 6bbd ac87 ccbd
00000160: f639 3a3e eed0 183e e273 c13d 5d6e cfbd
00000170: 2919 bbbd 3c31 0dbe 1b1f 8dbe 97f1 963d
00000180: c8ac 323e 26da 75be 1f8c d43b 753b 843e
