mcspace/paper/mouse_runs/runs/seed_4/model.pt (torch, 464942 bytes, 99 tensors)

theta_params f4 [100, 74]
00000000: 7bcb c63f 8f98 bac0 95b1 a83f e5bf fe3f
00000010: 9ccf 85c0 76fb 91c0 e09c e9c0 cd8e adbf
00000020: 3cf0 9ac0 4f22 99c0 1f59 b0c0 8c2e 543f
00000030: 15e5 99c0 acb6 b83f bc18 34be 8828 7bc0
00000040: 001b 1b40 57a6 bfc0 bb09 a5c0 ec5e 68c0
00000050: eb84 a7bf aa52 b3c0 8ce2 6a3f c5df dabf
00000060: aaeb af3e 78e6 bdc0 87de d8c0 c13d 9740
00000070: 3517 3340 20da 053e d9ad cb3e 694c ffc0
00000080: 8258 8bc0 8b11 87be 3d74 e53f 2e89 e5c0
00000090: 7641 d2c0 2237 4c40 d0f4 e7c0 ff37 213f
000000a0: ce98 a3c0 22fa 20c0 3f04 9a3f 7aa0 a73f
000000b0: a977 b0c0 678f 12c0 3b7f bac0 14e0 293f
000000c0: 31df 603f dbbf a7c0 d8e0 9040 83b4 8dbf
000000d0: 0f67 9340 8e52 8fc0 0532 d1bf ed86 5f40
000000e0: 8921 eec0 7702 28c0 dd41 e5c0 d56f 99c0
000000f0: 59d8 8d3f 2626 c3c0 c571 65c0 4790 59c0
00000100: deff 1640 c994 1940 277c dac0 4176 bac0
00000110: ee9a 04c1 85de efc0 a889 06c0 16f7 94be
00000120: e204 64c0 45b8 5dc0 a818 fe3e 2130 023f
00000130: 0174 fcbf 4eb5 aa3f 2020 edbf ac8b a2c0
00000140: f481 cdc0 41e5 bbc0 f714 b5c0 cb7b ccc0
00000150: 8ef1 f2bf f586 8f3f cd03 4fc0 f245 4d3f
00000160: 73ba 52bf 0e74 d03e a6d3 aa3f 2efa 2dbf
00000170: b869 a2c0 b134 033f e997 b1c0 0831 94c0
00000180: efb0 80be ecd0 bec0 6fa1 2bbe bddd a7c0
00000190: 6dc6 b1c0 0c4f 6540 426c 0240 9aee dcc0
000001a0: 6b0c dabf c0c2 52c0 82ec 73be d079 273f
000001b0: 8e30 8d3f 5194 a0c0 b3bc d6c0 566c 8140
000001c0: 1f5c f7c0 724b 67c0 74c6 97c0 4fed 15bf
000001d0: f308 3f3f 294c 353f 2081 b2c0 d225 2ac0
000001e0: df6b 8f3f d4bd 723f 0b59 2b40 6ef1 03bf
000001f0: 2a72 6540 2d9d a6c0 f809 9140 46f8 68c0
00000200: c75d 813f 4814 6c40 43a8 95c0 9753 b3c0
00000210: cef9 c1c0 f1ee 6dc0 0d67 8b3e d747 9dc0
00000220: bc74 d0c0 b808 e0c0 b9b1 c83f fd4e 9a40
00000230: 8c2e 96c0 e48a 8ac0 d79c b1c0 37c8 8dc0
00000240: 6962 21c0 dc67 c33f f01d debf e09e a3c0
00000250: 2314 c43f 34b5 e73f c6a7 2240 263b 05bf
00000260: e5e5 a8c0 8153 c13f 39e4 b7c0 e61b 2ac0
00000270: bb0b e9bf fcb0 bfbf 6cdc adc0 091b 46be
00000280: 94b2 49bf e2d2 433f d4c9 1bbe dac5 70c0
00000290: acbe 3ebf a95e 2940 ed65 c8bf 4545 763e
000002a0: 53c5 9340 6a01 8abf 7721 763e 85fb a1c0
000002b0: 18b9 5dc0 e77c 12bf 4cef 9dbf 4a64 4c3f
000002c0: 55e0 703e f9ce 8e3e 3b15 47c0 d7d3 02c0
000002d0: 641e a4c0 3e9f 093e d432 ab3f d99c a0c0
000002e0: 8645 51c0 b0b7 04c1 44d3 acc0 0855 483f
000002f0: 4167 e9c0 b97e 1ac0 7a3f 5ac0 21a3 c4bf
00000300: 92e6 1cbe 8629 c3bf 0888 30c0 d08d abc0
00000310: 0c05 c7c0 5ded acc0 7e16 34c0 4af8 803f
00000320: cf05 583f 96a5 afc0 bfb0 ce3f 8f2e b2c0
00000330: 85ba bf3f ca86 b3c0 a736 edc0 b0d3 adc0
00000340: f65a e73e ff23 d5c0 ae2a a13f 2e5f b2c0
00000350: 3aea 0a3f c2a1 5f40 dba8 c4c0 9c14 9dc0
00000360: 69f3 ae3f e2ac 99be 2e44 47bc b445 a0bf
00000370: 33ae d8c0 ed20 0dc1 049d 9b3f b615 0840
00000380: c246 ec3f 950d 25c0 d1f6 09c0 137f 42c0
00000390: 3e5f 4fc0 ceae bec0 2c5a f63f ea53 80c0
000003a0: ae41 4ac0 1b1c 61c0 3fa6 94c0 6874 4bc0
000003b0: 06b0 85c0 0f4a febf 9ce2 c13f bb6e a9c0
000003c0: 7aac 2fc0 7939 5cc0 8371 8ec0 6161 6ec0
000003d0: 3f9d af3f d305 5d3f b372 de40 53d3 60bf
000003e0: fb84 8bc0 2917 a840 9833 1c3f fb41 2f40
000003f0: dad3 4dbf c04e 92c0 f03f 22c0 66b8 7fc0
1.5530847 -5.831123 1.3179194 1.9902312 -4.181593 -4.561946 -7.3004 -1.3559204
-4.8418255 -4.785438 -5.510879 0.82883525 -4.809214 1.4430747 -0.1758756 -3.9243488
2.423523 -5.989055 -5.157438 -3.6307936 -1.3087438 -5.603841 0.91751933 -1.7099539
0.34359485 -5.9343834 -6.777164 4.7262883 2.7982914 0.1307149 0.39781073 -7.9780774
-4.354554 -0.26380572 1.7926098 -7.1729956 -6.570491 3.190865 -7.2486343 0.6297607
-5.112403 -2.515267 1.2032546 1.3095849 -5.514607 -2.2900026 -5.828031 0.6635754
0.87840563 -5.24217 4.5274467 -1.1070713 4.6063304 -4.4788275 -1.634339 3.4926102
-7.4415936 -2.6251504 -7.16429 -4.7949014 1.1081649 -6.098407 -3.585069 -3.399431
2.359367 2.3997061 -6.8276553 -5.8269353 -8.287825 -7.495913 -2.1021519 -0.29094762
-3.562798 -3.464372 0.49628186 0.5085469 -1.9722902 1.333658 -1.8525429 -5.07955
-6.4221134 -5.871735 -5.658809 -6.3901114 -1.8979967 1.1213061 -3.234607 0.80184853
-0.8231575 0.40713543 1.334584 -0.6795987 -5.075405 0.51252276 -5.5497937 -4.6309853
-0.2513499 -5.963003 -0.16760801 -5.2458177 -5.555472 3.5829496 2.0378575 -6.904126
-1.703504 -3.2931366 -0.2382069 0.65420246 1.1030443 -5.018105 -6.7105346 4.0444746
-7.7299953 -3.6139798 -4.742975 -0.5856523 0.7462303 0.70819336 -5.5782623 -2.6585584
1.1204795 0.94820905 2.6773098 -0.5154027 3.585093 -5.2066865 4.532467 -3.6401534
1.0106744 3.6887379 -4.6767898 -5.603954 -6.0617437 -3.7177088 0.2722706 -4.9150195
-6.51425 -7.0010643 1.5679237 4.822142 -4.693182 -4.3294544 -5.5503955 -4.4306903
-2.5216315 1.526607 -1.7352886 -5.113144 1.5318645 1.8102174 2.54149 -0.5204338
-5.2780633 1.5103608 -5.746609 -2.6579528 -1.8206705 -1.4975886 -5.433157 -0.1934625
-0.78788114 0.76493657 -0.1521371 -3.762076 -0.7450969 2.6464026 -1.5656105 0.24049862
4.6178374 -1.0781682 0.24036203 -5.061953 -3.4644222 -0.57221836 -1.2338653 0.7984053
0.23523076 0.27892283 -3.1106708 -2.0441797 -5.12871 0.13439652 1.3374887 -5.0191464
-3.2698684 -8.294846 -5.4007893 0.7825475 -7.293854 -2.4139845 -3.4101243 -1.5362283
-0.1532233 -1.5247047 -2.7583027 -5.361061 -6.219366 -5.403975 -2.8138728 1.0075772
0.84383863 -5.488963 1.6147689 -5.5681834 1.4978796 -5.6102037 -7.4129214 -5.4320908
0.45186585 -6.660644 1.259115 -5.5741186 0.5426365 3.494248 -6.1456122 -4.908766
1.3668033 -0.30014712 -0.012162251 -1.2521272 -6.7712646 -8.8205385 1.2157292 2.1263251
1.8459094 -2.578954 -2.1556895 -3.039006 -3.2401881 -5.9588385 1.9246268 -4.0102434
-3.1602588 -3.5173404 -4.6452937 -3.1789799 -4.177737 -1.9866351 1.5147281 -5.294767
-2.7449021 -3.4410079 -4.4513564 -3.7246935 1.3719863 0.8633701 6.9515014 -0.87822455
-4.359983 5.252827 0.61016226 2.7384021 -0.80401385 -4.572113 -2.5351524 -3.9956298

q_mu f4 [7]
00000000: 0c30 64c0 fa0d 07c0 7066 1dc0 d27f 09c0
00000010: a1d8 16c0 ab4a fbbf 755e 70c0
-3.5654325 -2.110228 -2.4593773 -2.1484265 -2.356972 -1.9632162 -3.7557652

q_var f4 [7]
00000000: 1bbc 0ec0 bef8 57c0 a0f2 36c0 4306 5dc0
00000010: 63ad 31c0 4651 89c0 fbed 23c0
-2.230231 -3.374557 -2.8585587 -3.4535072 -2.7762077 -4.291171 -2.5614002

eps f4 [7]
00000000: 4d31 8f3f a0e7 56bf b4a2 2b3f bed0 cfbf
00000010: 7218 afbf ab27 0b3f a8c1 30bc
1.118692 -0.8394718 0.6704514 -1.6235578 -1.3679335 0.54357404 -0.010788359

q_gamma_params f4 [99]
00000000: 6f72 8f40 dfcf 7740 795f 3040 4e32 5c40
00000010: 52b5 6640 0614 7f40 e21e 6240 088d 5340
00000020: 916f 3140 dc90 7d40 4681 6f40 15ad 7f40
00000030: 2e8c 7540 adc5 8040 d195 8040 155f 5e40
00000040: e1d0 8740 e120 8540 3941 15c0 436d 6840
00000050: 43a9 eb3f b8ed 8040 ecec 5140 6b65 7340
00000060: 3344 41bf 2bae 8340 87bb 6c40 c944 7f40
00000070: 6f3c 6a40 8d9b 5540 3b0f 7f40 5f67 7440
00000080: 0d6c 8140 915c d53f 6ae2 7f40 c494 6640
00000090: a5ee 8ebf 714c 8340 1f7e 8fc0 b712 8040
000000a0: ecce 7540 415e 8340 2275 1440 f695 e63f
000000b0: 2c34 8ebf 2792 7a40 887e 7540 a4b7 4d40
000000c0: 8ffb 4a40 5a49 5240 34dd 303e 1531 7740
000000d0: 3ba1 93c0 6a08 8140 8364 5b40 e3f2 4740
000000e0: cf2b 4b40 cd8f 8440 fa0c 6e40 d9a3 7ebf
000000f0: cf98 0c40 c5e2 8040 d602 7540 d4be 4a40
00000100: 49b9 8840 9a00 0540 780a 8a40 982c 1b40
00000110: a505 8240 fc07 b2bc 91d4 8440 cf41 8640
00000120: 6147 6540 e3e5 8040 2b6d 8140 1773 4c40
00000130: d1f7 7f40 3c3d 31c0 5162 7d40 0921 8c40
00000140: 9155 8440 f9a4 6c40 4a9e 7240 ea65 7d40
00000150: ac0e 2640 8dc5 7840 9053 3dc0 8ea2 8fc0
00000160: a9e8 6240 26c7 7f40 bb27 8540 5d47 8940
00000170: 865f 6a40 b28d 7e40 d6e9 6740 5ab4 2740
00000180: c0d1 8140 fe1e 3d40 0236 11be
4.482719 3.8720624 2.7558272 3.4405704 3.604817 3.9855971 3.533135 3.3054829
2.7724345 3.9619665 3.7422652 3.994939 3.836681 4.0241303 4.018288 3.4745533
4.244248 4.1602635 -2.3321059 3.6316688 1.841103 4.0290184 3.2800856 3.803065
-0.7549469 4.1150107 3.6989458 3.9885733 3.6599386 3.337619 3.9853046 3.8188093
4.04444 1.6668874 3.9981942 3.60283 -1.1166579 4.103081 -4.4841456 4.0022845
3.8407545 4.1052556 2.3196492 1.8014514 -1.1109672 3.9151704 3.8358479 3.2143335
3.171604 3.285727 0.17271882 3.8623707 -4.6134315 4.032277 3.4280097 3.1241996
3.1745489 4.142554 3.719542 -0.9946876 2.1968267 4.027682 3.828298 3.1678972
4.272618 2.0781617 4.313778 2.4245968 4.063189 -0.021732323 4.150948 4.1955333
3.5824816 4.0280623 4.044576 3.1945245 3.9995005 -2.7693624 3.9591258 4.3790326
4.135445 3.6975691 3.7909112 3.9593453 2.5946455 3.8870575 -2.9582253 -4.488593
3.5454504 3.99653 4.1611 4.2899613 3.6620803 3.9773984 3.6236472 2.6203828
4.0568542 2.9550166 -0.14180759

q_probs f4 [99]
00000000: 8d23 7d3f b3c7 7a3f 61b4 703f 430d 783f
00000010: 2139 793f 7954 7b3f dfbb 783f 87f1 763f
00000020: 18f1 703f 6c38 7b3f bc12 7a3f 5f5f 7b3f
00000030: 9398 7a3f e680 7b3f 407a 7b3f 0b4f 783f
00000040: 1661 7c3f 2411 7c3f 934a b53d 0666 793f
00000050: 68f3 5c3f 6486 7b3f 18b8 763f 4b6a 7a3f
00000060: 08ce a33e 46e3 7b3f 38d1 793f fb57 7b3f
00000070: ea93 793f 1f38 773f 2254 7b3f 2c80 7a3f
00000080: a397 7b3f a75a 573f 3463 7b3f 6b24 793f
00000090: e8ab 7c3e dbd6 7b3f 70ee 363c ee67 7b3f
000000a0: 129e 7a3f 20d9 7b3f f516 693f 88bc 5b3f
000000b0: a6bd 7d3e f6fe 7a3f 8197 7a3f b31c 763f
000000c0: d4b2 753f 07c5 763f 310f 0b3f f6ba 7a3f
000000d0: 0900 213c 108a 7b3f 6df4 773f c637 753f
000000e0: 5dba 753f 6cff 7b3f b6f0 793f cf33 8a3e
000000f0: 8466 663f eb84 7b3f 2f8d 7a3f fca8 753f
00000100: aa7a 7c3f 8589 633f 859e 7c3f b92f 6b3f
00000110: 2bac 7b3f b54d fd3e db07 7c3f 8233 7c3f
00000120: 3b13 793f 4e85 7b3f c597 7b3f 28ec 753f
00000130: ae64 7b3f e5bc 713d 0535 7b3f 85d4 7c3f
00000140: 3ff8 7b3f 1dcf 793f 3759 7a3f 5a35 7b3f
00000150: 9a37 6e3f 27db 7a3f 4b43 4a3d 802a 363c
00000160: 14d2 783f 3d61 7b3f f911 7c3f f389 7c3f
00000170: 4897 793f d24a 7b3f b758 793f 94a2 6e3f
00000180: 4ea5 7b3f 8d53 733f 41e5 ed3e
0.9888237 0.97960967 0.94025236 0.96895236 0.97352797 0.9817577 0.9716167 0.9646229
0.9411788 0.9813297 0.97684836 0.981924 0.9788906 0.9824356 0.98233414 0.9699561
0.9858564 0.98463655 0.088521145 0.974213 0.8630891 0.9825194 0.96374655 0.9781844
0.31993127 0.98393667 0.9758487 0.9818112 0.97491324 0.9657001 0.9817525 0.97851825
0.98278254 0.841227 0.98198247 0.97321194 0.24674952 0.9837472 0.011165246 0.9820546
0.97897446 0.9837818 0.91050655 0.8583455 0.24779376 0.9804529 0.97887427 0.9613754
0.95975995 0.9639439 0.54320055 0.9794153 0.009826669 0.9825754 0.9685734 0.9578823
0.9598749 0.9843662 0.9763292 0.26992652 0.90000176 0.9824969 0.9787168 0.95960975
0.9862467 0.88881713 0.9867938 0.91869694 0.9830958 0.49473348 0.98449486 0.98516095
0.9729497 0.9825028 0.98278457 0.9606347 0.982005 0.059018034 0.98127776 0.9876178
0.9842567 0.97581655 0.9779238 0.98128283 0.9305359 0.9799065 0.04938058 0.011118531
0.97195554 0.9819525 0.98464924 0.98647994 0.9749646 0.9816104 0.97400993 0.93216825
0.9829911 0.95049363 0.4646397

gamma f4 [100]
00000000: 0000 803f 0000 803f 0000 803f 0000 0000
00000010: 0000 803f 0000 803f 0000 803f 0000 803f
00000020: 0000 803f 0000 803f 0000 803f 0000 803f
00000030: 0000 803f 0000 803f 0000 803f 0000 803f
00000040: 0000 803f 0000 803f 0000 803f 0000 0000
00000050: 0000 803f 0000 803f 0000 803f 0000 803f
00000060: 0000 803f 0000 0000 0000 803f 0000 803f
00000070: 0000 803f 0000 803f 0000 803f 0000 803f
00000080: 0000 803f 0000 803f 0000 803f 0000 803f
00000090: 0000 803f 0000 803f 0000 803f 0000 0000
000000a0: 0000 803f 0000 803f 0000 803f 0000 803f
000000b0: 0000 803f 0000 803f 0000 803f 0000 803f
000000c0: 0000 803f 0000 803f 0000 803f 0000 0000
000000d0: 0000 803f 0000 0000 0000 803f 0000 803f
000000e0: 0000 803f 0000 803f 0000 803f 0000 803f
000000f0: 0000 0000 0000 803f 0000 803f 0000 803f
00000100: 0000 803f 0000 803f 0000 803f 0000 803f
00000110: 0000 803f 0000 803f 0000 0000 0000 803f
00000120: 0000 803f 0000 803f 0000 803f 0000 803f
00000130: 0000 803f 0000 803f 0000 0000 0000 803f
00000140: 0000 803f 0000 803f 0000 803f 0000 803f
00000150: 0000 803f 0000 803f 0000 803f 0000 0000
00000160: 0000 0000 0000 803f 0000 803f 0000 803f
00000170: 0000 803f 0000 803f 0000 803f 0000 803f
00000180: 0000 803f 0000 803f 0000 803f 0000 0000
1.0 1.0 1.0 0.0 1.0 1.0 1.0 1.0
1.0 1.0 1.0 1.0 1.0 1.0 1.0 1.0
1.0 1.0 1.0 0.0 1.0 1.0 1.0 1.0
1.0 0.0 1.0 1.0 1.0 1.0 1.0 1.0
1.0 1.0 1.0 1.0 1.0 1.0 1.0 0.0
1.0 1.0 1.0 1.0 1.0 1.0 1.0 1.0
1.0 1.0 1.0 0.0 1.0 0.0 1.0 1.0
1.0 1.0 1.0 1.0 0.0 1.0 1.0 1.0
1.0 1.0 1.0 1.0 1.0 1.0 0.0 1.0
1.0 1.0 1.0 1.0 1.0 1.0 0.0 1.0
1.0 1.0 1.0 1.0 1.0 1.0 1.0 0.0
0.0 1.0 1.0 1.0 1.0 1.0 1.0 1.0
1.0 1.0 1.0 0.0

KL_gamma_k f4 [99]
00000000: 0793 dd48 7682 db48 c1b0 d248 1d1f d948
00000010: 9725 da48 b0fd db48 f4b7 d948 c226 d848
00000020: e6e5 d248 22e5 db48 10e4 da48 3a07 dc48
00000030: 3759 db48 9324 dc48 c11e dc48 b258 d948
00000040: cfe8 dc48 d5a2 dc48 39af 1e47 e34c da48
00000050: 5266 c148 6129 dc48 7cf4 d748 b430 db48
00000060: 0461 0f48 ae7a dc48 b7aa da48 c200 dc48
00000070: 0e75 da48 8c64 d848 64fd db48 db43 db48
00000080: 7a38 dc48 3880 bc48 950a dc48 7613 da48
00000090: 082a dd47 d06f dc48 8b1e a045 b80e dc48
000000a0: 065e db48 cc71 dc48 6606 cc48 3656 c048
000000b0: a319 de47 d6b2 db48 4758 db48 776c d748
000000c0: cc0f d748 ceff d748 4e70 7348 5077 db48
000000d0: 43ec 8c45 982c dc48 6009 d948 16a4 d648
000000e0: 6416 d748 5293 dc48 48c6 da48 22f0 f147
000000f0: cdab c948 1728 dc48 3e4f db48 2e07 d748
00000100: 33ff dc48 322a c748 951e dd48 3cdc cd48
00000110: 724a dc48 c2b7 5d48 b49a dc48 eac0 dc48
00000120: 6b04 da48 6e28 dc48 9838 dc48 fa41 d748
00000130: df0b dc48 dd97 d346 28e2 db48 d94d dd48
00000140: 0a8d dc48 e0a8 da48 c121 db48 72e2 db48
00000150: 6083 d048 7d93 db48 690a b146 0a73 9f45
00000160: 64cb d948 dc08 dc48 90a3 dc48 940c dd48
00000170: 0178 da48 3df5 db48 3d41 da48 03e1 d048
00000180: 7144 dc48 3cfc d448 273b 5048
453784.22 449555.7 431494.03 444664.9 446764.72 450541.5 445887.62 442678.06
431919.2 450345.06 448288.5 450617.8 449225.72 450852.6 450806.03 445125.56
452422.47 451862.66 40623.223 447079.1 396082.56 450891.03 442275.88 448901.62
146820.06 451541.44 447829.72 450566.06 447400.44 443172.38 450539.12 449054.84
451011.8 386049.75 450644.66 446619.7 113236.06 451454.5 5123.818 450677.75
449264.2 451470.38 417843.2 393905.7 113715.27 449942.7 449218.22 441187.72
440446.38 442366.44 249281.22 449466.5 4509.5327 450916.75 444491.0 439584.7
440499.12 451738.56 448050.25 123872.266 413022.4 450880.72 449145.94 440377.44
452601.6 407889.56 452852.66 421601.88 451155.56 227039.03 451797.62 452103.3
446499.34 450883.44 451012.75 440847.8 450654.97 27083.932 450321.25 453230.78
451688.3 447815.0 448782.03 450323.56 427035.0 449691.9 22661.205 5102.38
446043.12 450630.88 451868.5 452708.62 447424.03 450473.9 446985.9 427784.1
451107.53 436193.88 213228.61

q_gamma_params f4 [100, 3]
00000000: e388 86c0 4552 8ac0 f0aa 923f c347 7bc0
00000010: 099d 7ac0 7998 1840 c43b 87c0 c558 85c0
00000020: 317b 83c0 0352 83c0 cbb1 84c0 25aa 67c0
00000030: 2e0f 89c0 621b 96c0 3cf3 8cc0 28da 5fc0
00000040: 8555 87c0 ec10 80c0 0d35 8bc0 1272 67bf
00000050: 6c0e 21c0 7cff 53c0 2163 81c0 6f5a 64c0
00000060: 952e f6bf 7a18 7ac0 9441 7dc0 84f4 4fc0
00000070: 7a84 83c0 af4e 83c0 95b9 53c0 3235 84c0
00000080: e780 2ac0 9f20 63c0 74ed 84c0 1bb8 72c0
00000090: 04e4 25c0 6ede 70c0 31c3 77c0 5827 7fc0
000000a0: e435 83c0 4388 46c0 5915 44c0 8f5b 81c0
000000b0: 98b1 84c0 a76a 78c0 a8f7 6cc0 ae3d 84c0
000000c0: 6550 1cc0 70d4 85c0 4c82 5cc0 17cd 82c0
000000d0: 06e3 87c0 a6a5 74c0 c5da 10c0 aa38 85c0
000000e0: 0cae 74c0 2559 80c0 a10b 7bc0 7edb 8bc0
000000f0: 7b9f 20c0 d072 85c0 7d7d 85c0 02ea 49c0
00000100: 1aff 87c0 aa12 87c0 1f9a 92c0 431e 80c0
00000110: 76e9 933f faa7 70c0 9f50 7cc0 ff7a 69c0
00000120: c9ec 6ac0 eec5 85c0 ec40 80c0 9789 76c0
00000130: 5824 85c0 0712 77c0 e60a 7fc0 b038 79c0
00000140: 6ecb 69c0 dec5 eebe 6d74 80c0 3033 0840
00000150: 815d 64c0 efbc b43f 564b 8cc0 7e95 c7be
00000160: bca3 7ec0 3eee 8ac0 70a8 c5bf 7cf1 4ac0
00000170: 60b6 28bf dd1b 20c0 5c83 80c0 da0e 87c0
00000180: 1ac5 51c0 a4f7 82c0 d829 84c0 84ed 81c0
00000190: eb15 45c0 4f65 633f 7ffc 82c0 0ea5 87c0
000001a0: 4fe2 82c0 a69e 7bc0 7ee2 83c0 d452 7dc0
000001b0: 07d2 babf 5086 3040 2a08 89c0 d935 79c0
000001c0: 9695 8cc0 56d1 8bc0 60db cfbf c704 78c0
000001d0: c49d 86c0 9f44 87c0 b42b 84c0 6b36 87c0
000001e0: d8b5 72c0 9a04 84c0 5490 59c0 f635 6fc0
000001f0: 7692 84c0 75b8 79c0 dfe4 7ac0 62a5 7dc0
00000200: dac1 82c0 7f97 8cc0 a4aa 81c0 4f4e 85c0
00000210: 1392 7fc0 9455 8bc0 9ba1 a4bd 4a44 8bc0
00000220: 571a 85c0 32ad 84c0 3f59 7fc0 ae06 65c0
00000230: 7deb 7ec0 bc22 84c0 9368 8ac0 ee60 83c0
00000240: ce68 67c0 bd3f 87c0 f624 80c0 19db a63f
00000250: 130f 7fc0 a992 49c0 6791 80c0 6d06 1cc0
00000260: 63f7 86c0 f12f 44c0 fc35 84c0 7f1b 81c0
00000270: 5f4e 80c0 8acf 84c0 28dc 65c0 8220 87c0
00000280: 4e7c 87c0 8f8c 80c0 ac71 18c0 62b2 80c0
00000290: 9c37 7cc0 3d85 09c0 c9d3 78c0 e34b 7bc0
000002a0: d9e6 70c0 3a5d 77c0 df6f 83c0 7901 7ac0
000002b0: c1f0 90c0 f195 76c0 a2c1 86bf 04c9 71c0
000002c0: c087 3fc0 e92c 8dc0 005e 89c0 0e6d 77c0
000002d0: 700f 7cc0 757e 7ac0 7e31 3cc0 2b76 70c0
000002e0: 6ef7 88c0 0163 80c0 d95c 80c0 ce56 86c0
000002f0: 18f1 7fc0 504c 75c0 c84e 5dc0 b0d4 78c0
00000300: 5351 17c0 fe63 88c0 cc7e 76c0 de67 463f
00000310: 5db8 84c0 6be4 97bf 214d 85c0 7025 82c0
00000320: 6e07 81c0 2465 77c0 7d59 a63f 0c4a 2a40
00000330: dd41 85c0 6458 89c0 1797 66c0 064a bcbf
00000340: f650 79c0 ecf8 8a3f 26c9 75c0 4163 8bc0
00000350: 420f 7fc0 56fa 1ec0 1961 60c0 7728 5cc0
00000360: d005 16c0 a7ee 68c0 ab94 6ec0 3bf7 80c0
00000370: 6a77 6ac0 6739 69c0 1ac6 e23d 9975 93c0
00000380: 8cb2 37c0 2ce0 d4bf 5bfa 87c0 1906 86c0
00000390: 5662 54c0 5f1e 7dc0 c39c 5dc0 c9f3 fabf
000003a0: d41c 82c0 9409 84c0 c306 83c0 78bf 85c0
000003b0: 69fd 80c0 0c74 80c0 06ae 7ac0 15a6 4ec0
000003c0: 8c64 77c0 9302 86c0 d065 7fc0 0d64 8dc0
000003d0: 5dad 8ac0 86f8 80c0 7393 72c0 cecd 7ec0
000003e0: d5c1 7fc0 c3b2 7fc0 78b3 2ec0 7acb 60c0
000003f0: ed91 7fc0 0019 71c0 15b7 81c0 182e 2bc0
-4.20421 -4.3225427 1.1458416 -3.926255 -3.9158347 2.3843062 -4.2260456 -4.167086
-4.108788 -4.103761 -4.1467032 -3.6197598 -4.283103 -4.6908426 -4.4046917 -3.4976902
-4.2291894 -4.0020657 -4.350226 -0.9040843 -2.5165052 -3.3124685 -4.0433507 -3.5680196
-1.9232966 -3.907744 -3.9571276 -3.249299 -4.1099215 -4.103355 -3.308202 -4.1314936
-2.6641176 -3.548866 -4.153986 -3.792487 -2.592042 -3.763576 -3.8712885 -3.9867764
-4.1003284 -3.1020668 -3.063803 -4.0424266 -4.146679 -3.8815095 -3.7026157 -4.1325293
-2.442407 -4.1821823 -3.4454527 -4.0875354 -4.246463 -3.8226104 -2.2633526 -4.163167
-3.823123 -4.010882 -3.9225848 -4.3705435 -2.509734 -4.170265 -4.1715684 -3.1549077
-4.2498903 -4.2210283 -4.5813136 -4.003694 1.1555622 -3.7602525 -3.9424207 -3.648132
-3.6707022 -4.1804113 -4.007925 -3.8521478 -4.1606865 -3.8604753 -3.9850402 -3.894085
-3.6530414 -0.46635336 -4.014212 2.1281242 -3.568207 1.4120158 -4.3841963 -0.3898124
-3.9787436 -4.3415823 -1.5442028 -3.170989 -0.6590328 -2.5017006 -4.016035 -4.220563
-3.2776551 -4.0927296 -4.130108 -4.0602436 -3.0794628 0.8882646 -4.0933223 -4.2388983
-4.0901256 -3.9315581 -4.121398 -3.9581804 -1.4595345 2.7581978 -4.2822466 -3.8939116
-4.39326 -4.3693037 -1.6238823 -3.8752916 -4.2067585 -4.2271266 -4.130335 -4.225393
-3.7923489 -4.1255617 -3.399434 -3.7376685 -4.1428785 -3.9018834 -3.9202192 -3.9632192
-4.0861635 -4.393493 -4.05208 -4.165809 -3.9932907 -4.3541965 -0.08038636 -4.352086
-4.1594653 -4.146142 -3.9898221 -3.5785327 -3.983123 -4.12924 -4.3252654 -4.105582
-3.6157718 -4.2265306 -4.004512 1.3035613 -3.985295 -3.1495764 -4.0177493 -2.4378922
-4.2176986 -3.065426 -4.13159 -4.0346065 -4.009567 -4.1503344 -3.5915623 -4.2227182
-4.233924 -4.017158 -2.381938 -4.0217752 -3.9408941 -2.1487572 -3.8879263 -3.9265068
-3.7640898 -3.865065 -4.107406 -3.90634 -4.529389 -3.8529017 -1.0527842 -3.777894
-2.9926605 -4.411732 -4.2927246 -3.8660312 -3.9384422 -3.9139683 -2.9405208 -3.7572124
-4.280204 -4.0120854 -4.011334 -4.1980963 -3.9990902 -3.8327827 -3.4579334 -3.8879814
-2.3643386 -4.262206 -3.851489 0.7750224 -4.1475053 -1.1866583 -4.165665 -4.06707
-4.032157 -3.8655481 1.299606 2.6607695 -4.16429 -4.29204 -3.6029718 -1.471009
-3.8955665 1.0857215 -3.8404021 -4.355866 -3.9853063 -2.4840293 -3.5059264 -3.4399698
-2.3441048 -3.6395662 -3.727824 -4.0301795 -3.6635385 -3.6441286 0.11072941 -4.608105
-2.8702726 -1.6630912 -4.249311 -4.1882443 -3.318502 -3.9549787 -3.462693 -1.9605647
-4.066019 -4.126169 -4.0945754 -4.1796227 -4.030934 -4.014166 -3.9168715 -3.2288868
-3.865512 -4.187814 -3.9905891 -4.418463 -4.3336625 -4.0303373 -3.7902496 -3.9813113
-3.9962056 -3.9952857 -2.729704 -3.5124192 -3.9932816 -3.7671509 -4.053599 -2.6746883

gamma f4 [100, 3]
00000000: 0000 0000 0000 0000 0000 803f 0000 0000
00000010: 0000 0000 0000 803f 0000 0000 0000 0000
00000020: 0000 0000 0000 0000 0000 0000 0000 0000
00000030: 0000 0000 0000 0000 0000 0000 0000 0000
00000040: 0000 0000 0000 0000 0000 0000 0000 0000
00000050: 0000 0000 0000 0000 0000 0000 0000 0000
00000060: 0000 0000 0000 0000 0000 0000 0000 0000
00000070: 0000 0000 0000 0000 0000 0000 0000 0000
00000080: 0000 0000 0000 0000 0000 0000 0000 0000
00000090: 0000 0000 0000 0000 0000 0000 0000 0000
000000a0: 0000 0000 0000 0000 0000 0000 0000 0000
000000b0: 0000 0000 0000 0000 0000 0000 0000 0000
000000c0: 0000 803f 0000 0000 0000 0000 0000 0000
000000d0: 0000 0000 0000 0000 0000 0000 0000 0000
000000e0: 0000 0000 0000 0000 0000 0000 0000 0000
000000f0: 0000 0000 0000 0000 0000 0000 0000 0000
00000100: 0000 0000 0000 0000 0000 0000 0000 0000
00000110: 0000 0000 0000 0000 0000 0000 0000 0000
00000120: 0000 0000 0000 0000 0000 0000 0000 0000
00000130: 0000 0000 0000 0000 0000 0000 0000 0000
00000140: 0000 0000 0000 803f 0000 0000 0000 803f
00000150: 0000 0000 0000 803f 0000 0000 0000 803f
00000160: 0000 0000 0000 0000 0000 0000 0000 0000
00000170: 0000 0000 0000 0000 0000 0000 0000 0000
00000180: 0000 0000 0000 0000 0000 0000 0000 0000
00000190: 0000 0000 0000 803f 0000 0000 0000 0000
000001a0: 0000 0000 0000 0000 0000 0000 0000 0000
000001b0: 0000 0000 0000 803f 0000 0000 0000 0000
000001c0: 0000 0000 0000 0000 0000 0000 0000 0000
000001d0: 0000 0000 0000 0000 0000 0000 0000 803f
000001e0: 0000 0000 0000 0000 0000 0000 0000 0000
000001f0: 0000 0000 0000 0000 0000 803f 0000 0000
00000200: 0000 0000 0000 0000 0000 0000 0000 0000
00000210: 0000 0000 0000 0000 0000 0000 0000 0000
00000220: 0000 0000 0000 0000 0000 0000 0000 0000
00000230: 0000 0000 0000 0000 0000 0000 0000 0000
00000240: 0000 0000 0000 0000 0000 0000 0000 803f
00000250: 0000 0000 0000 0000 0000 0000 0000 0000
00000260: 0000 0000 0000 0000 0000 0000 0000 0000
00000270: 0000 0000 0000 0000 0000 0000 0000 0000
00000280: 0000 0000 0000 0000 0000 0000 0000 0000
00000290: 0000 0000 0000 0000 0000 0000 0000 0000
000002a0: 0000 0000 0000 0000 0000 0000 0000 0000
000002b0: 0000 0000 0000 0000 0000 0000 0000 0000
000002c0: 0000 0000 0000 0000 0000 0000 0000 0000
000002d0: 0000 0000 0000 0000 0000 0000 0000 0000
000002e0: 0000 0000 0000 0000 0000 0000 0000 0000
000002f0: 0000 0000 0000 0000 0000 0000 0000 0000
00000300: 0000 0000 0000 0000 0000 0000 0000 803f
00000310: 0000 0000 0000 0000 0000 0000 0000 0000
00000320: 0000 0000 0000 0000 0000 803f 0000 803f
00000330: 0000 0000 0000 0000 0000 0000 0000 0000
00000340: 0000 0000 0000 803f 0000 0000 0000 0000
00000350: 0000 0000 0000 0000 0000 0000 0000 0000
00000360: 0000 0000 0000 0000 0000 0000 0000 0000
00000370: 0000 0000 0000 0000 0000 803f 0000 0000
00000380: 0000 0000 0000 0000 0000 0000 0000 0000
00000390: 0000 0000 0000 0000 0000 0000 0000 0000
000003a0: 0000 0000 0000 0000 0000 0000 0000 0000
000003b0: 0000 0000 0000 0000 0000 0000 0000 0000
000003c0: 0000 0000 0000 0000 0000 0000 0000 0000
000003d0: 0000 0000 0000 0000 0000 0000 0000 0000
000003e0: 0000 0000 0000 0000 0000 0000 0000 0000
000003f0: 0000 0000 0000 0000 0000 0000 0000 0000
0.0 0.0 1.0 0.0 0.0 1.0 0.0 0.0
0.0 0.0 0.0 0.0 0.0 0.0 0.0 0.0
0.0 0.0 0.0 0.0 0.0 0.0 0.0 0.0
0.0 0.0 0.0 0.0 0.0 0.0 0.0 0.0
0.0 0.0 0.0 0.0 0.0 0.0 0.0 0.0
0.0 0.0 0.0 0.0 0.0 0.0 0.0 0.0
1.0 0.0 0.0 0.0 0.0 0.0 0.0 0.0
0.0 0.0 0.0 0.0 0.0 0.0 0.0 0.0
0.0 0.0 0.0 0.0 0.0 0.0 0.0 0.0
0.0 0.0 0.0 0.0 0.0 0.0 0.0 0.0
0.0 1.0 0.0 1.0 0.0 1.0 0.0 1.0
0.0 0.0 0.0 0.0 0.0 0.0 0.0 0.0
0.0 0.0 0.0 0.0 0.0 1.0 0.0 0.0
0.0 0.0 0.0 0.0 0.0 1.0 0.0 0.0
0.0 0.0 0.0 0.0 0.0 0.0 0.0 1.0
0.0 0.0 0.0 0.0 0.0 0.0 1.0 0.0
0.0 0.0 0.0 0.0 0.0 0.0 0.0 0.0
0.0 0.0 0.0 0.0 0.0 0.0 0.0 0.0
0.0 0.0 0.0 1.0 0.0 0.0 0.0 0.0
0.0 0.0 0.0 0.0 0.0 0.0 0.0 0.0
0.0 0.0 0.0 0.0 0.0 0.0 0.0 0.0
0.0 0.0 0.0 0.0 0.0 0.0 0.0 0.0
0.0 0.0 0.0 0.0 0.0 0.0 0.0 0.0
0.0 0.0 0.0 0.0 0.0 0.0 0.0 0.0
0.0 0.0 0.0 1.0 0.0 0.0 0.0 0.0
0.0 0.0 1.0 1.0 0.0 0.0 0.0 0.0
0.0 1.0 0.0 0.0 0.0 0.0 0.0 0.0
0.0 0.0 0.0 0.0 0.0 0.0 1.0 0.0
0.0 0.0 0.0 0.0 0.0 0.0 0.0 0.0
0.0 0.0 0.0 0.0 0.0 0.0 0.0 0.0
0.0 0.0 0.0 0.0 0.0 0.0 0.0 0.0
0.0 0.0 0.0 0.0 0.0 0.0 0.0 0.0

q_probs f4 [100, 3]
00000000: 0a0f 713c 1383 563c 4439 423f c467 9e3c
00000010: 9108 a03c f166 6a3f 73ed 6b3c 5807 7a3c
00000020: c667 843c d011 853c 401d 7f3c 63bb d53c
00000030: 4305 5f3c 3405 153c 84cb 453c 8aad f03c
00000040: d533 6b3c c80e 933c b2b9 503c 1ac3 933e
00000050: cd04 993d 71f8 0f3d d034 8d3c 85c7 e03c
00000060: fe9a 023e 064f a13c 7fad 993c d78c 173d
00000070: 5942 843c ad1d 853c ba90 103d a27a 813c
00000080: c763 853d c804 e53c 6a4b 7d3c 1f98 b43c
00000090: 05aa 8e3d b1c0 b93c f62c a73c db46 953c
000000a0: 0082 853c 4339 303d bbca 363d 6c56 8d3c
000000b0: d21c 7f3c 9a81 a53c bf27 c53c d958 813c
000000c0: 42da a33d ab5a 763c f030 fd3c 3e33 873c
000000d0: 243c 673c bb57 af3c a6e2 c03d 6f01 7b3c
000000e0: 1d41 af3c 12c7 913c f0fb 9e3c c295 4c3c
000000f0: 3f00 9a3d 0942 793c 23f0 783c 5288 273d
00000100: de72 663c 281a 6d3c 3e18 263c e1d0 923c
00000110: 6ab4 423f 435b ba3c 57ea 9b3c 08e9 cf3c
00000120: a063 cb3c b5c8 763c c434 923c b859 aa3c
00000130: 669e 7b3c e2f4 a83c 438a 953c f17b a33c
00000140: c6ea ce3c 184a c53e c14d 913c c0c4 643f
00000150: 16c0 e03c d3dd 4d3f 33d7 493c 829f ce3e
00000160: ad74 963c 5283 523c 1d21 343e 82fc 243d
00000170: 57a0 ae3e 2728 9b3d 2305 913c 1436 6d3c
00000180: 6ae2 143d 9a82 863c eaa8 813c 49e1 8a3c
00000190: 9417 343d a669 353f f86e 863c 4af6 683c
000001a0: 7bdd 863c 0396 9d3c 94c5 823c 8485 993c
000001b0: 9112 413e 98b6 703f 9035 5f3c 5281 a33c
000001c0: cb0a 483c aed4 4c3c 0bac 283e ca85 a63c
000001d0: 42a1 703c 94ae 6b3c 55a0 813c 0915 6c3c
000001e0: a59a b43c e83b 823c e75c 043d b384 be3c
000001f0: 2809 803c a43c a23c 540d 9f3c 1bc3 983c
00000200: 0562 873c 18ff 473c a1ff 8b3c 615a 7a3c
00000210: 2452 943c 29e9 4f3c 4829 f53e 6e58 503c
00000220: 77ec 7b3c 6c40 7f3c 6cd5 943c ba80 de3c
00000230: 93ce 953c a3c3 813c cef2 553c 46d2 843c
00000240: 8193 d63c acd0 6b3c cbb1 923c a753 493f
00000250: a07e 953c e29d 283d 2fcd 903c 8ff9 a33d
00000260: 75e0 6d3c 9c74 363d 1c79 813c 996b 8e3c
00000270: 72f8 913c e934 7e3c bdb0 db3c b1b5 6c3c
00000280: 9d19 6a3c a1e4 903c f731 ad3d bb3a 903c
00000290: b126 9c3c c01f d63d d779 a43c 015d 9e3c
000002a0: c8a9 b93c cc31 a83c b395 843c a588 a13c
000002b0: 6bdb 2e3c 6d36 aa3c d183 843e 722d b73c
000002c0: 3fa2 433d e26c 443c 44eb 5c3c 6d08 a83c
000002d0: a385 9c3c 7353 a03c 5993 4d3d 4bea ba3c
000002e0: 2aa8 5f3c 0b9c 913c 4ab7 913c f583 723c
000002f0: 1bd2 933c 1099 ad3c cb26 fa3c ca76 a43c
00000300: 1912 b23d d4ab 633c d071 aa3c b23b 2f3f
00000310: 9ee9 7e3c 5a82 6f3e 2463 7a3c 62f3 893c
00000320: 5fc3 8e3c cb1d a83c ed2c 493f fd46 6f3f
00000330: d1b9 7a3c 3510 5d3c 7442 d93c 5e51 3f3e
00000340: f440 a33c 2e64 3f3f 444e ac3c 5591 4f3c
00000350: 617c 953c bab2 9d3d cade ee3c 318a fe3c
00000360: d547 b33d b2a5 d13c 8659 c03c 5f0c 8f3c
00000370: 9bd0 cc3c a0b8 d03c b319 073f 7fbf 213c
00000380: 01bd 5b3d 9137 233e e193 663c 00e2 743c
00000390: 7d20 0f3d 7564 9a3c 51ff f83c 68cb fc3d
000003a0: de18 8a3c bc29 823c ac44 863c d1f7 763c
000003b0: dfee 8e3c cb4f 913c 22de 9f3c 0809 1c3d
000003c0: 6121 a83c 0afc 743c 70b7 943c 0a20 433c
000003d0: c82a 543c 1005 8f3c 04fc b43c af12 963c
000003e0: 94e5 933c ac08 943c e3db 7a3d 8342 ed3c
000003f0: 5a54 943c ba1d b93c edc8 8b3c 9c18 843d
0.014713058 0.013092774 0.7586863 0.019336589 0.019535335 0.91563326 0.014399874 0.01526054
0.016162764 0.016243845 0.015570939 0.02609033 0.013612094 0.009095479 0.012072448 0.029379625
0.014355619 0.017951384 0.012739586 0.28859788 0.07471619 0.03514904 0.017237097 0.027438888
0.12754437 0.019691002 0.018759487 0.03699955 0.016144918 0.016249502 0.035294272 0.015805546
0.06513172 0.027956381 0.015459875 0.022045193 0.069660224 0.02267489 0.020407181 0.018222263
0.01629734 0.04302336 0.044626933 0.017253123 0.015570836 0.0202034 0.024066804 0.015789436
0.08000614 0.015036265 0.030907124 0.016503926 0.01411346 0.021404138 0.0941823 0.015320166
0.021393353 0.01779512 0.019407243 0.012486877 0.07519578 0.015213498 0.015193972 0.04090149
0.014065472 0.014471568 0.010137616 0.017921867 0.7605654 0.022748595 0.01903264 0.025379673
0.024827778 0.015062501 0.017847426 0.020794734 0.015357589 0.020624582 0.018254405 0.01995656
0.025258433 0.38533092 0.017737271 0.89362717 0.027435344 0.804166 0.012319374 0.4035607
0.018366182 0.012848692 0.17590757 0.040279873 0.34106705 0.07576018 0.017702645 0.014478225
0.036348738 0.016419698 0.015827615 0.016953127 0.0439678 0.7086433 0.016410336 0.014218876
0.016463032 0.01923657 0.015963353 0.018740423 0.18854739 0.94028616 0.01362361 0.019959126
0.0122096045 0.012501879 0.16471879 0.020327467 0.014686884 0.014384884 0.015823523 0.014409312
0.022046397 0.015897706 0.03231516 0.023256635 0.015629366 0.019804306 0.019415535 0.018647721
0.016526232 0.012206815 0.017089667 0.015280337 0.018105574 0.012689867 0.47883058 0.012716396
0.015376202 0.015579324 0.018168174 0.027160991 0.018286979 0.015840357 0.013058377 0.016213547
0.026193382 0.014393013 0.017907044 0.7864327 0.018248856 0.041166194 0.017675964 0.08006584
0.014518847 0.0445448 0.01580482 0.017385291 0.017818663 0.015515544 0.026817674 0.0144476155
0.014288333 0.017687144 0.08456796 0.01760613 0.019061418 0.104552746 0.020077629 0.019331457
0.022663966 0.020531558 0.016184663 0.019718478 0.0106724305 0.020777905 0.25881818 0.022360537
0.04776215 0.01198885 0.013483826 0.02051183 0.019106692 0.019571042 0.05018935 0.022816798
0.013650933 0.017774602 0.017787594 0.014801969 0.018044522 0.02119115 0.030536076 0.020076174
0.08694858 0.0138959475 0.020806223 0.6845046 0.015558628 0.23389569 0.015282426 0.016839687
0.017427145 0.020522019 0.78584176 0.93467695 0.015303091 0.013492634 0.026520945 0.18683383
0.019928433 0.7476224 0.021033414 0.012668927 0.018247785 0.07700105 0.029158968 0.031071754
0.08753935 0.025591705 0.023480188 0.017461954 0.025001815 0.025478661 0.5277359 0.009872316
0.053647045 0.15939166 0.014073343 0.014946461 0.034943093 0.01884673 0.030395182 0.12343484
0.01685756 0.015889041 0.016390167 0.0150737325 0.017447887 0.017738244 0.0195151 0.03809455
0.020523729 0.014952669 0.018153876 0.011909494 0.012949653 0.017458469 0.022092827 0.018319456
0.018053807 0.018070541 0.061244857 0.02896238 0.018106628 0.022597183 0.017063582 0.06450006

weight f4 [10, 74]
00000000: 4b6c 40bd 588f 1a3e 8eaa d6bc 1cb2 473d
00000010: 0cd7 813d 8a5f 94bd d2d1 303e 36a1 8b3e
00000020: f082 953d ed8f da3e 5f6e bcbb 6c07 4b3e
00000030: 1990 013e cb2b 4f3e 213e 863d c4c7 633d
00000040: d260 883c fe60 a03e 0a41 b03e 7d3d 593e
00000050: 75d3 05be 4b22 b43d e7aa b03d a2e0 4e3e
00000060: 0cdf 923e 1c5d c4be b551 413e 28f9 8cbe
00000070: 0570 943d 86bf 343e 2847 ee3e 9f59 d53e
00000080: 377d 223e ec9f 813d 4dcb f0bc 26db 793e
00000090: 0194 d73e 63ea de3d bca5 523e 44ae 413e
000000a0: 7e46 3c3e 652b 9f3e 1cbd 9f3d 6d65 2f3e
000000b0: c6dd 9f3d 4d53 cb3d a797 6f3e 53e9 a73e
000000c0: a425 643e c954 063f 1c50 833d 9fae 203e
000000d0: b7aa 603d d607 093e 9406 003e d0da 8cbe
000000e0: 3ccb 253e 23d3 313e ea30 ae3e 5703 d53e
000000f0: fc69 063e 0865 7d3e 801c 963e 3c4a 923d
00000100: 5f50 c93d 80dc 5cbe 4f50 92be c720 283e
00000110: 2e56 483e af32 273e fc45 063e 6b7e 7e3e
00000120: 1cf4 103e 6e15 f93e 1abd 0abd b703 0c3e
00000130: 2e06 2abc 4f5a 633d dd50 863d dddc 28bd
00000140: bd36 ec3d 92b5 843e fd87 9c3c b383 f13e
00000150: e74a 8b3c 2aed 2a3e ae2a e23d 05bf 213e
00000160: c3be 983d 922c 493d cd11 2a3d c181 8a3e
00000170: 8476 b73e 8900 313e a796 b9bd 00da 873d
00000180: cde5 b33d eca5 253e ddbe 903e 3818 b1be
00000190: 3a6d 153e 5552 85be 304b 923d 3866 003e
000001a0: b626 f03e af3a db3e d18b d73d aa22 943d
000001b0: d2ff 333b 8128 4e3e 105b ff3e 5561 c13d
000001c0: c286 283e 310f 133e d843 123e 875f aa3e
000001d0: adac a23d 8dba 023e 488f 8a3d e5f8 b33d
000001e0: 9591 453e 9ab3 a63e e314 3d3e 8f02 0c3f
000001f0: d073 773d c669 d03d 119b a23d 9aae d93d
00000200: 27eb ad3d bb78 7cbe dca6 c83d d984 fe3d
00000210: dadd dd3e a30b d23e e8ef bd3d f31d 4c3e
00000220: 7835 803e 0e8a 793d c166 b83d 88c3 3ebe
00000230: ccb9 96be 99d2 df3d d9de 1f3e 89b7 d63d
00000240: 9d0a cb3d 2022 683e 0cdc cb3d 846d 013f
00000250: fe65 71bd 5d33 433d 20bd 0fbd a286 e33c
00000260: 29b6 f53c 1e1e bfbd 6c67 1f3d bf61 5d3e
00000270: 4d47 323d 4f75 b73e 313b a3bc 66a8 bc3d
00000280: d7c1 7c3d c619 a83d 013e d83b d8d2 d73c
00000290: db6c 62bb 880c 6e3e dce4 9e3e 1827 b63d
000002a0: 37da 0cbe 7a81 fbbb 7d03 f83c d5f6 b53d
000002b0: 20eb 933e 3696 bebe c9ef 873d 84ff 5cbe
000002c0: 75db 0c3d 5e8e 323d a0b4 973e 7dde ac3e
000002d0: 3552 f93c 7c38 9a3c e64c 06bd e5bf 333e
000002e0: d587 9d3e c4c0 a33d a2f1 e03d cdb3 833d
000002f0: 3745 7f3d d271 863e f67a 1a3d cd67 433d
00000300: e9a7 21bc 6dee 493d d80c 1c3e 43b6 863e
00000310: 5a20 e63d 06aa af3e b816 6b3c 3618 d23c
00000320: 0bf1 263d 2c98 a03c 9d25 023d 1370 8dbe
00000330: 42c7 993b 392e 233d 6531 c63e a6b0 c03e
00000340: 8d3f 173c 5707 133e 1b9a 4d3e 497c 533c
00000350: 158a 5b3d d922 42be 13df 98be 8fc5 0e3d
00000360: 592c ae3d 3c3a 033d 47f5 c83c b4c2 473e
00000370: e509 5e3c 52a0 d23e a32b a4bc e3f5 c53d
00000380: 7b25 d0bc 9d5a 063d c894 853d 39fa 79bd
00000390: 8a20 d23d c726 773e 46ba 073e aab7 763e
000003a0: 3b2d 143d df9f 223e 4531 b53d 8d8b 083e
000003b0: 3d97 333d cd93 693d 0424 853d c306 883e
000003c0: 5be4 3e3e 76c0 2d3e 6e37 09be 6b2c 683d
000003d0: 92aa 743d ecc4 313e 0370 743e 9823 86be
000003e0: 50e4 133e 09fd 3dbe 4c42 233e 33c0 0e3e
000003f0: 646f 8b3e 032e ae3e d553 d73d 6753 443d
-0.046978276 0.15093744 -0.026204374 0.048753843 0.06339845 -0.07244785 0.1726754 0.27271432
0.07300365 0.42687932 -0.005750462 0.1982705 0.12652625 0.2023155 0.06554819 0.055610433
0.01664773 0.31324 0.3442462 0.21214862 -0.13068946 0.08795603 0.08626347 0.20202878
0.28685796 -0.38352287 0.18878825 -0.2753384 0.072479285 0.17651185 0.46538663 0.41669938
0.15868078 0.06329331 -0.029393816 0.24400005 0.42105106 0.108845495 0.20571035 0.18914133
0.18386266 0.31087795 0.077997416 0.17128535 0.07805972 0.09927998 0.23397695 0.327952
0.22279984 0.5247312 0.06411764 0.15691613 0.054850306 0.13381895 0.1250251 -0.2751069
0.16190809 0.17365699 0.34021693 0.4160411 0.13126367 0.24745572 0.2931862 0.07143065
0.09829783 -0.21568489 -0.28576896 0.16418754 0.19564125 0.16327928 0.13112634 0.24852912
0.1415562 0.48649162 -0.033871748 0.13673292 -0.01037745 0.055506047 0.06558392 -0.041226257
0.11533878 0.25919777 0.019107813 0.4717079 0.01700349 0.16692033 0.11043297 0.15795524
0.0745826 0.04911477 0.041520882 0.2705212 0.35832608 0.1728536 -0.09061938 0.06633377
0.087840654 0.16176575 0.28270617 -0.3458879 0.14592448 -0.26039377 0.07143247 0.12538993
0.46904534 0.4281821 0.10524715 0.07233174 0.0027465713 0.20132639 0.49874163 0.09442393
0.16457656 0.14361264 0.14283693 0.33276007 0.079430915 0.12766476 0.0676561 0.08787707
0.19293816 0.325589 0.18464999 0.54691404 0.06041318 0.10176425 0.07939733 0.10629006
0.084921174 -0.2465543 0.09797451 0.124276824 0.43333322 0.41024503 0.09274274 0.199333
0.25040793 0.060922675 0.09003974 -0.18629277 -0.29438627 0.1092884 0.15612353 0.10484225
0.09914134 0.22669268 0.0995408 0.5055773 -0.058935158 0.047656406 -0.035092473 0.027774159
0.029994087 -0.09331916 0.03891699 0.21619318 0.04352503 0.35831687 -0.019925686 0.09211807
0.061708298 0.08208041 0.0065991883 0.026345655 -0.0034549746 0.23246968 0.3103398 0.08894175
-0.13755117 -0.007675347 0.0302751 0.0888497 0.28890324 -0.37223977 0.06637532 -0.21581846
0.034388978 0.043592803 0.29629993 0.33763495 0.030434707 0.018825762 -0.03278818 0.1755367
0.30767694 0.079957515 0.10983588 0.06430779 0.062321868 0.26258713 0.03771492 0.047706414
-0.009866693 0.049299646 0.15239275 0.2631093 0.11236639 0.34309405 0.014348678 0.02564631
0.04075722 0.019603811 0.031774152 -0.27624568 0.004692943 0.039839003 0.3870956 0.37634772
0.00923146 0.14358269 0.20078318 0.01290805 0.053598482 -0.18958606 -0.29857692 0.034856375
0.085045524 0.03203796 0.02453102 0.19507867 0.013552164 0.4113794 -0.020040339 0.0966604
-0.025408497 0.03280126 0.065225184 -0.061029647 0.102601126 0.24135886 0.13254651 0.240935
0.036175948 0.15881298 0.08847288 0.13334484 0.043845404 0.05702572 0.0650101 0.2656766
0.18641798 0.1696795 -0.13400051 0.056682985 0.05973298 0.17360276 0.23870854 -0.2619903
0.14442563 -0.18553557 0.15943259 0.13940506 0.27233422 0.3401948 0.105140366 0.0479311

bias f4 [10]
00000000: acbd 9cbf b180 26bf a86c a7be d8f2 c6be
00000010: 7808 10bf c396 22bc 6e5b c3be 6583 21bf
00000020: e663 3ebf 3e64 1cbf
-1.2245383 -0.6504012 -0.32700086 -0.3885715 -0.5626292 -0.00992364 -0.38155693 -0.6309112
-0.7437118 -0.6109046

weight f4 [10, 10]
00000000: 6cfe b8be 9642 7bbe 6f31 0bbf b167 23bf
00000010: 4e2c da3a fd1c 19bf 6f24 1cbf 5ba5 30be
00000020: fdfb bfbe a51c 98be b595 d5be f0d7 b1be
00000030: 94ad 1abf 9b95 9fbe 795d 15bf 82b7 72bf
00000040: 4367 26bf 0c2a d1be e3bc 8cbe bd0b bcbe
00000050: 9bb0 323e b889 9c3e 8815 b63d 6d69 043f
00000060: 1247 063e 3667 933e fc14 863e 582b ae3e
00000070: 3be5 393e 8880 293e cc94 6abe 5c11 61be
00000080: a245 04bf 95ca fabe 1858 1cbe 3e9f 43be
00000090: 17b6 79be 8abb d5bd 752d 09be 3f32 66be
000000a0: 6256 d53c 924f 79bc 16f7 9cbd a974 d1bb
000000b0: 1564 c93d d9a1 623e 121c ba3b a908 6cbe
000000c0: ee4a 8bbe 44aa 86bd 2c1a bebe 856d d2bd
000000d0: 76a4 813d 7c6f 8e3b 769e 50be 9ffa 4cbe
000000e0: 27cb b9be f6fa efbe 84cf 60be ebf2 f0be
000000f0: 1992 53bc 3084 ffbd 0a41 e43b 8b4e 0cbe
00000100: cd92 7abe 1212 15be 7cfa 85be 5c3c 1bbf
00000110: 561c 7abe f00b 82be 8da0 01bd 89bb 023e
00000120: c7ff bb3e 95d5 73bd 44ff f13d 7794 953e
00000130: bee8 753e 57e0 1c3e 01dd ad3e aacf b63e
00000140: f2cc 3abd 9a03 b6be a99b 93be a1fe a5bc
00000150: 0b6a c2be 0488 26be 0e8e 05be 01b5 a9bd
00000160: 0000 f2bd 66d9 95be 31ab 8ebe 77ed ddbd
00000170: dee3 2abd f716 c8be 2f85 8fbe 245f fabe
00000180: e513 b9bd 0395 a8be c13d cdbe 7641 0dbf
-0.36131608 -0.2453712 -0.54372305 -0.63830096 0.0016645284 -0.5980986 -0.60993093 -0.17250578
-0.3749694 -0.29709354 -0.4171578 -0.3473506 -0.6042111 -0.31168827 -0.5834575 -0.9481126
-0.65001315 -0.40852392 -0.2748786 -0.36727706 0.17450182 0.3057382 0.088908255 0.51723367
0.13113049 0.2878968 0.26187885 0.34017444 0.1815385 0.16552937 -0.22908324 -0.21979278
-0.5166875 -0.48982683 -0.1526798 -0.19103715 -0.24385868 -0.10436161 -0.13396247 -0.22480105
0.026042167 -0.015216725 -0.076643154 -0.006392081 0.09833542 0.22132052 0.005679616 -0.23050179
-0.27205604 -0.06575444 -0.37129343 -0.102747954 0.063301966 0.004346786 -0.20372948 -0.2001748
-0.36287805 -0.46871156 -0.21954161 -0.47060332 -0.01291325 -0.12476385 0.006965761 -0.13701837
-0.24470063 -0.14557675 -0.26167667 -0.60638976 -0.24424872 -0.25399733 -0.031647254 0.12766851
0.3671858 -0.05952986 0.11816266 0.29214832 0.24014565 0.15319954 0.33957675 0.3570531
-0.045605607 -0.35549623 -0.28829697 -0.020263018 -0.3797153 -0.16262823 -0.13042471 -0.08286477
-0.11816406 -0.29267424 -0.27864984 -0.108363084 -0.041721217 -0.3908002 -0.280313 -0.48900712
-0.09036998 -0.32926187 -0.40086177 -0.5517801

bias f4 [10]
00000000: 1221 34bf 7836 3abf 26f6 323e b862 98bc
00000010: 8103 f13e 9372 77be fcee 0dbf e1ce 0d3f
00000020: 40cc cbbd 88e4 82be
-0.7036296 -0.7273936 0.1747671 -0.01860176 0.47072986 -0.241648 -0.55442786 0.553938
-0.09951067 -0.2556498

weight f4 [300, 10]
00000000: 8fe5 1abd 7f5a 7dbe 3aa1 82be 6390 d23d
00000010: 45b3 52bd 5756 293e 3952 a93d c8d1 f23b
00000020: 94a0 b53d 550a c4be a82e 4f3e f07a 2dbd
00000030: 7cec 3f3e 2e26 a9bc 66cf c5be 527f 6d3e
00000040: 0bd9 52be 2b36 68bc fe7b 063d a910 4abe
00000050: 2500 053f 5137 d43e 875e 4c3f fea7 7f3f
00000060: 304b 5a3f ebbf 003f 31fc 7a3f c8cc 3a3f
00000070: e74e 1c3f 37a4 2e3f ee3c e03e 0f2a 593e
00000080: 7340 203b 4052 57bd 9ad3 0dbe 2982 9a3e
00000090: 489b cdbd 6ad5 d53d 6061 c63e eb17 d93e
000000a0: fe4c 89bd c1c3 263e 3684 7c3d 7ea0 49bd
000000b0: b64b 553e 3701 543e 7dc7 35be 8e22 12be
000000c0: 6c65 76be 2ca5 97be 9959 4d3f f07f b03e
000000d0: 7cfc 8d3f 4123 8c3f 26cc 5e3f c47f 803f
000000e0: 0508 263f 8319 533f f4ef 4b3f 577e 153f
000000f0: 3366 593e 03f7 69bd e26f 07bd 979c 7cbd
00000100: 6f71 c0bd e7f0 d23d 68bd 1e3e f7c0 2c3e
00000110: 38b4 0ebe ac9b 363d 7804 84bd d809 9d3e
00000120: c1f0 2c3e 59ae bb3d bb45 d1bb ce5f 3c3c
00000130: 5391 3d3d 46f6 5c3e 22eb 75be 468d 763e
00000140: cb84 5b3e d586 363c f35a abbe a7f9 aebd
00000150: b20a 56be 6381 49be 8210 823e eb9f 8cbe
00000160: 7f73 6f3e 38d4 30be 9d2c 98bc 08ed 3d3d
00000170: a31d 89be 28ad 3a3e 998e 933d 89db 89bd
00000180: 1e86 1c3e 9201 50bd 4317 84be 9d45 3c3d
00000190: 1e21 933d 8d21 ebbd 16cc c53d 3102 0e3e
000001a0: aa7b 3dbe 7e72 1c3e 414f fa3d 7b8e 17be
000001b0: 8977 c03d 7c96 073d c118 d23e 514b d8bd
000001c0: 5643 923d d32f 843e bb6d c13e 1d30 003f
000001d0: daa0 823e 7b9c dd3d 6f22 4f3e 0d8a c53e
000001e0: 3a76 fdbd 1d4d 9f3b 4e0c 54bd 936d 9a3d
000001f0: 473c 773e f956 923d 76b3 893e 7415 4f3e
00000200: a212 363e 003b febd 8b1a 1a3d dfe4 153c
00000210: 708f 5ebd 6ed2 8cbe d135 bb3d 4179 51be
00000220: 4e54 993e 181d d23d 49c1 7abd ccd7 64be
00000230: 4f9a 01be 6e54 383e ebfe 443e ef27 c13e
00000240: 7a8b 2c3e 350b 163b 7241 33be 13e0 6f3e
00000250: dfd0 33bc 867b 91bd 8b93 a63d b5ca e23e
00000260: fd1b 903e dd56 0b3f 8909 283f f405 953e
00000270: 5846 263f 510d 963e e288 133f 6166 1e3f
00000280: 9bf1 0d3e 96aa 10be e069 32be b8fd dabd
00000290: 0182 853e bfd9 9cbd 152a e1bd b66a 843e
000002a0: eeb3 213e 48e4 0f3e 11ab cebe 6999 bdbd
000002b0: 6057 adbe 21c0 b2bd 7b65 8d3c f86d 85be
000002c0: 2292 133c 54d9 6a3d 34d2 aabe 9597 bc3d
000002d0: ab31 4ebe 931e 833e 1ceb 5dbd 8f96 3f3e
000002e0: c087 81be 33d5 0c3d 64d4 f8bd 556a 2c3e
000002f0: cbfd 5dbe 87e2 9cbe c6e9 473e a919 ec3e
00000300: 070b b23e 1e23 3f3f 1a97 be3e dee8 e03e
00000310: f26c e23d 2c67 a13e 2cc7 253f f62f 9b3e
00000320: a81f 633c a910 873c 02db ff3e fd3f 1f3e
00000330: 5788 df3e c37a a93e 2b18 633d c7dc b73e
00000340: 3f1c ea3e 4a0f cf3d 50af c03c 7383 9fbc
00000350: 5bc0 953d a99c 323e faa1 1dbe 8ed9 793d
00000360: 6522 b1bd 6f25 90be d38a d8bd 7e23 43be
00000370: 903c 95be 192f d6be 3250 aabd a6da a0be
00000380: 3d23 ba3d 1ee2 0dbd 3165 1ebe 8976 9abe
00000390: c267 d3be 82dc 1dbe b287 033e 8237 1d3e
000003a0: baa6 8cbe b5a2 183e 2d1f 66be 4301 a7be
000003b0: afe1 6bbe def7 583e ab00 933d 7806 55be
000003c0: 2260 69be a784 23be ae1a f5be 3ffa 0cbf
000003d0: db10 67be 166f 31bf b45d c9be e237 34be
000003e0: 0332 00bf d365 b9be eb31 e13d 31b9 9bbc
000003f0: 4ba2 1a3d cd17 9dbe 207c 8bbc 790b b6be
-0.03781658 -0.24741553 -0.2551363 0.10281446 -0.051440496 0.16536842 0.08267636 0.007410262
0.088685185 -0.38289133 0.20232642 -0.04235357 0.18742555 -0.020648088 -0.38634795 0.231931
-0.20590608 -0.014173071 0.032833092 -0.19732918 0.51953346 0.41448453 0.7983174 0.9986571
0.8527098 0.50292844 0.98041064 0.7296872 0.61057895 0.6821932 0.43796486 0.2120745
0.0024452477 -0.052568674 -0.13850251 0.3017743 -0.10039383 0.10441096 0.38746166 0.4240106
-0.06704138 0.16285612 0.061649524 -0.049225323 0.20829663 0.20703588 -0.1775188 -0.14270994
-0.24062127 -0.29618204 0.8021484 0.3447261 1.1092677 1.0948259 0.87030256 1.0038991
0.64855987 0.824608 0.79663014 0.58395904 0.21230392 -0.057120334 -0.033065684 -0.061672773
-0.09396636 0.10299855 0.1550194 0.16870485 -0.13935935 0.044582054 -0.06446165 0.30671573
0.16888715 0.091641136 -0.0063864863 0.011497451 0.04628117 0.21578321 -0.24015477 0.24077329
0.21437375 0.011140545 -0.33467826 -0.08543711 -0.20902517 -0.19678263 0.2540322 -0.27465758
0.23383902 -0.17268455 -0.01857596 0.04636863 -0.26780424 0.18230116 0.07204933 -0.06731326
0.15285537 -0.050782748 -0.25798997 0.045964826 0.07184051 -0.11481009 0.09658067 0.13868023
-0.18504205 0.1527805 0.12222148 -0.14800446 0.093977995 0.033102497 0.4103451 -0.105612405
0.071417496 0.25817737 0.3777903 0.50073415 0.25513345 0.10820862 0.20227979 0.38581887
-0.123760656 0.0048614875 -0.051769547 0.07540431 0.24144088 0.07145495 0.2689473 0.20223027
0.17780545 -0.12413597 0.03762297 0.009148805 -0.05433601 -0.27504295 0.09141124 -0.20456411
0.29947132 0.102594554 -0.061219487 -0.22347945 -0.1265652 0.18000957 0.19237868 0.3772578
0.16850081 0.0022894864 -0.17505434 0.23425321 -0.010975092 -0.07103638 0.0813361 0.44295278
0.28146353 0.5442942 0.6563955 0.29106104 0.64951086 0.29307035 0.5763074 0.6187497
0.13861696 -0.14127573 -0.174232 -0.10692924 0.26075748 -0.07658719 -0.10994355 0.25862664
0.15791294 0.14051926 -0.40364888 -0.09257776 -0.33855724 -0.08728052 0.017260304 -0.26060462
0.009007009 0.057336167 -0.33363497 0.092085995 -0.20136134 0.25609264 -0.054179296 0.18709777
-0.25298882 0.03438301 -0.12149885 0.16837437 -0.21678846 -0.30641577 0.19522771 0.46113327
0.34774038 0.7466296 0.37224656 0.43927664 0.11055936 0.31524026 0.6475704 0.3031003
0.013862528 0.016487436 0.49971777 0.15551753 0.43658707 0.33101472 0.05544297 0.35910627
0.45724675 0.10110338 0.023521096 -0.01947186 0.073120795 0.17442574 -0.1539382 0.060998492
-0.08649138 -0.2815356 -0.105733536 -0.19056508 -0.29147768 -0.41832808 -0.08316077 -0.31416816
0.090887524 -0.03463947 -0.15468289 -0.3016856 -0.41290098 -0.15416148 0.12844732 0.15353206
-0.27470952 0.14905818 -0.2247283 -0.3261815 -0.2303531 0.21188304 0.07177862 -0.20803249
-0.22790578 -0.15968572 -0.47871917 -0.55069345 -0.22565024 -0.6931013 -0.39329302 -0.17599443
-0.5007631 -0.36210498 0.10995849 -0.019009205 0.03775243 -0.3068222 -0.01702696 -0.35555628
