mcspace/MCSPACE_paper/scripts/sensitivity_analysis/helpers/synthetic/best_run/seed_5/model.pt (torch, 466710 bytes, 99 tensors)

theta_params f4 [100, 74]
00000000: c222 1b3f d25c 5fc1 3505 ee3f 9ee2 5cc1
00000010: 1b49 8040 2675 57c1 decb 6bc0 2e2e be3d
00000020: 978a 58c1 1a87 bf3f c170 e03d c546 5fc1
00000030: 855a 5fc1 8dea d63d 973e 5fc1 284d 54c1
00000040: 08ea d13e a89d 7240 05d3 1940 59ea 46c1
00000050: c4b1 4fc1 72fb 58c1 9e67 5fc1 cf6b 5fc1
00000060: 436a 5fc1 6eb3 2140 5d3c 5bc1 e807 41c1
00000070: af2c 5fc1 7a29 5fc1 a990 0e40 1cbb dc40
00000080: b132 5fc1 306d 4040 9e67 5fc1 ff47 40c1
00000090: 64db 61c1 9e67 5fc1 9b3d 5fc1 cf25 5ec1
000000a0: 3e7f e43f 85a6 99c0 4d41 5fc1 2db8 61bf
000000b0: 235a fa3f 317e 3740 8bc7 3fc1 068e 0bbe
000000c0: 06bc 4c40 759d 95be 7e5e bb3f 9e67 5fc1
000000d0: 4a5e 2640 a567 5fc1 2b7c 5fc1 fec8 5fc1
000000e0: 91b0 5ac1 0af0 48c1 c1f0 5cc1 936b 5fc1
000000f0: d963 5fc1 36d9 43c1 9067 54c1 1a7c 59c1
00000100: 4825 c3c0 5116 60c1 9b1b 61c1 517e 5ec1
00000110: a23f b540 17f1 51c1 3063 ecbf ce8f c3be
00000120: 6fbc 4cc1 022d 5bc1 11b6 31c1 4a10 24c1
00000130: cb31 2ac1 0286 cb3f 4711 31c1 3ac6 31c1
00000140: 1162 23c1 eea5 2b40 51c0 2ec1 04ef f43f
00000150: cbeb 25c1 ab29 22c1 5c39 2bc1 294e b4bf
00000160: d10c 2bc1 4092 2ac1 6bf9 25c1 9f98 28c1
00000170: 76c2 2fc1 053d 2ac1 6afa 28c1 9f68 23c1
00000180: 43dc 28c1 21b1 2bc1 b476 3e40 25e3 2dc1
00000190: 5784 27c1 3095 29c1 ff36 2cc1 b567 0d40
000001a0: b71a 0040 35c3 18c1 97ab 2ec1 f6ae 09c1
000001b0: 2bd5 26c1 52c0 2bc1 fe8e 25c1 1584 0740
000001c0: 46c2 2ac1 eb71 2ac1 5cc1 bb3f 8331 3841
000001d0: 7603 2ec1 a362 2fc1 ca5a 29c1 795c 26c1
000001e0: e965 21c1 3e25 e23e 86cb 04c1 7f3b 2cc1
000001f0: 0080 27c1 b457 2cc1 ba1e 29c1 5eec 22c1
00000200: d708 2bc1 2c73 2dc1 f7ae 27c1 02a6 29c1
00000210: f7b3 29c1 4757 21c1 3bb3 2bc1 573e 24c1
00000220: 8ded 28c1 77a9 93bf 70ce 27c1 4caa 2dc1
00000230: 8644 3b40 baac 1cc1 6be0 2bc1 1aa2 1fc1
00000240: eb8e 29c1 1e56 2bc1 a0cf 2dc1 2864 32c1
00000250: 8cdb 2540 04a9 42c1 acab 3fc1 ff63 76c0
00000260: c9aa 36c1 92d1 3ec1 d5fc 01c1 27e4 42c1
00000270: 2ab2 1c40 74b9 3ac1 3c4d 41c1 aff6 40c1
00000280: 39d1 3bc1 8ed8 3bc1 cb8a 3ec1 af4a 42c1
00000290: f605 43bf 9f12 af3f 52d1 41c1 0325 2fc1
000002a0: aebc 41c1 3b75 b33f d106 3cc1 f779 39c1
000002b0: 3f63 41c1 8dbd 36c1 237a 41c1 2d7e 3ec1
000002c0: de6e 31c1 b075 19c1 93b3 28c1 25e4 20c1
000002d0: 6c2f 3fc1 8b85 40c1 6f46 3dc1 ec9a 41c1
000002e0: b2bc 2541 845b 34c1 946a 41c1 f264 3dc1
000002f0: 8529 3fc1 0b3f 3dc1 bfbd 43c1 d453 30c1
00000300: 4f1b 41c1 dd29 41c1 0e58 31c1 05e3 4240
00000310: 8b58 3e40 510c 41c1 4dcd 3bc1 4949 43c1
00000320: cb30 0240 64b4 f63f b7f8 d93f bb19 3140
00000330: 007e 2fc1 c26d 3bc1 c46c 37c1 33b1 41c1
00000340: b250 3ac1 af2b 41c1 9ae9 3dc1 2ef8 94bf
00000350: 0614 1540 7bb4 40c1 c493 41c1 288d 3bc1
00000360: 4dfe 0740 d61a 3ec1 7a0c 40c1 2b27 0e40
00000370: 4a7d 3bc1 3277 41c1 fd47 b3c0 1353 81c1
00000380: 815b 3040 e9bc 3abf baa7 edbf f7a5 bebe
00000390: 063a 8bc0 8b42 81c1 2b96 80c1 2561 ef3d
000003a0: 50c1 95bf 5370 80c1 0d6f 2bc0 1e66 65c1
000003b0: 708d 7dc1 59a8 3140 b7a6 b1bf 4c97 543f
000003c0: 41ce 7fc1 cad0 9b3f d18d 81c1 de35 a2bf
000003d0: 9fdc 7fc1 c6a4 81c1 8a42 81c1 016a 0dbf
000003e0: 561e 4040 321a 6840 6e1f 7ec1 8a42 81c1
000003f0: fe73 a83f d554 9540 d74a 81c1 1eac 8c3f
0.6059991 -13.960161 1.8595339 -13.805326 4.008924 -13.466101 -3.684318 0.09286152
-13.533835 1.4963105 0.10959006 -13.954778 -13.9595995 0.10493956 -13.952781 -13.268837
0.40998864 3.7908726 2.4035046 -12.432214 -12.9809 -13.561388 -13.962797 -13.96382
-13.963443 2.5265765 -13.702237 -12.06443 -13.948409 -13.947626 2.2275794 6.8978405
-13.949876 3.0066643 -13.962797 -12.017577 -14.116062 -13.962797 -13.95254 -13.884231
1.7851331 -4.801577 -13.953443 -0.88171655 1.9558758 2.867077 -11.986217 -0.13628396
3.198976 -0.29221693 1.4638212 -13.962797 2.599505 -13.962804 -13.967814 -13.98657
-13.668107 -12.558603 -13.808778 -13.963763 -13.961877 -12.24053 -13.275284 -13.592798
-6.098301 -14.005448 -14.06924 -13.905839 5.6640177 -13.12136 -1.846777 -0.38195652
-12.796004 -13.698488 -11.10695 -10.253977 -10.6371565 1.5900271 -11.066718 -11.110895
-10.211442 2.6820025 -10.921952 1.9135442 -10.370067 -10.135173 -10.701504 -1.4086353
-10.690629 -10.660706 -10.373393 -10.537261 -10.984976 -10.639897 -10.561136 -10.213042
-10.553775 -10.730744 2.975995 -10.867955 -10.46981 -10.598923 -10.763427 2.2094548
2.0016305 -9.547658 -10.916892 -8.605215 -10.427043 -10.734453 -10.34741 2.1174366
-10.67243 -10.652812 1.4668384 11.512088 -10.875845 -10.961581 -10.584665 -10.397576
-10.08738 0.4416904 -8.299688 -10.764525 -10.46875 -10.771412 -10.570002 -10.182707
-10.689658 -10.840618 -10.480216 -10.603029 -10.606437 -10.083808 -10.731257 -10.26522
-10.557996 -1.1536092 -10.4879 -10.854076 2.9260573 -9.79217 -10.74229 -9.977076
-10.597392 -10.708525 -10.86319 -11.149452 2.591525 -12.166264 -11.979412 -3.8498533
-11.416696 -11.926165 -8.124227 -12.180701 2.4483743 -11.670277 -12.081356 -12.0602255
-11.73858 -11.74037 -11.908885 -12.143233 -0.7618097 1.3677558 -12.113604 -10.946536
-12.108564 1.4020151 -11.751664 -11.592277 -12.08673 -11.421277 -12.092319 -11.905805
-11.089567 -9.591232 -10.543841 -10.055699 -11.949078 -12.032603 -11.829696 -12.100323
10.358568 -11.272343 -12.08852 -11.837145 -11.947637 -11.827891 -12.233825 -11.020466
-12.069167 -12.072721 -11.083998 3.0451062 2.9741542 -12.065507 -11.737622 -12.205392
2.034228 1.9273801 1.7029027 2.7671955 -10.968262 -11.714296 -11.464054 -12.105762
-11.644701 -12.073165 -11.869532 -1.1638238 2.3293471 -12.044063 -12.098576 -11.721962
2.1248963 -11.881552 -12.003046 2.2211406 -11.718088 -12.0916 -5.6025376 -16.165564
2.755585 -0.72944504 -1.8566811 -0.37235996 -4.350833 -16.157492 -16.073324 0.11688451
-1.1699619 -16.054846 -2.678653 -14.337431 -15.847031 2.7759001 -1.3879002 0.8304336
-15.987855 1.2173092 -16.194246 -1.2672689 -15.991363 -16.205456 -16.15749 -0.55239874
3.0018516 3.6265988 -15.882673 -16.15749 1.3160398 4.6666055 -16.161543 1.0990026

q_mu f4 [7]
00000000: e7b1 7fc0 45f6 08c0 0c02 25c0 76da 39c0
00000010: 0508 15c0 6aa9 08c0 2b90 5ac0
-3.9952333 -2.140031 -2.57825 -2.9039588 -2.3286145 -2.1353402 -3.4150493

q_var f4 [7]
00000000: 5744 1cc1 47fa 2bc1 9fe0 36c1 cae2 27c1
00000010: 9bec 27c1 4f75 29c1 f990 2ac1
-9.766685 -10.748603 -11.429839 -10.492868 -10.495265 -10.59114 -10.660394

eps f4 [7]
00000000: 93ee 8abf 9215 c53f 7b8c 2f3f 48da 1dc0
00000010: df07 12bf b2a7 04bf 8708 c0bf
-1.0854057 1.5397208 0.6857373 -2.4664478 -0.5704326 -0.5181838 -1.5002602

q_gamma_params f4 [99]
00000000: 2e58 c940 85fd b940 b1fb 3fc0 c824 c1c0
00000010: c9c2 bc40 7fe1 a640 a9f8 69c0 7abb c140
00000020: 5b18 b540 3fe1 ba40 fd09 b340 b397 b640
00000030: 0a75 c840 98cf 9540 5682 b840 2530 b440
00000040: 6391 b740 a5c6 cc40 0665 d040 f33e bb40
00000050: b8bd a040 6f00 b640 6247 cb40 08ec 9840
00000060: 0e3a c540 0133 ddbf 326f d340 7170 c240
00000070: db6e 8240 a400 ca40 b24c 7740 364c ad40
00000080: af96 c340 3a88 bd40 6565 8e40 5b8d ca40
00000090: 6e43 b0c0 a5dd 1fc0 8bf4 d8bf 27e1 9540
000000a0: 562f 8140 10ff d040 4f00 ea3f f0a4 bf40
000000b0: 81ad ce40 9319 eebf 6392 a140 b288 27c1
000000c0: bea1 ae40 0041 4740 148b c140 d718 c140
000000d0: 0fa1 d4c0 c734 b4c0 f534 b3c0 19c7 b740
000000e0: 75ec 97bd 0ca0 8040 0a58 9fc0 63e8 c940
000000f0: 4922 78c0 bedb 4ac0 aa50 4440 af9d 3cc0
00000100: 9d7c ce40 1911 4ac0 e681 08bf a2b6 cb40
00000110: c86c 5b40 c169 8440 fe64 ad40 53a9 f9c0
00000120: bf20 85c0 eaf3 8abe 27df 2240 1722 b540
00000130: ba2c 54c0 db1f 9240 31b0 7ec0 4d5e cb40
00000140: 308c e0bf f8b5 3340 72e1 dec0 ea9c c040
00000150: 8be0 9840 55d3 9640 761f 1ac1 f710 31c0
00000160: 6fb3 29bf 3807 c840 97bc e8c0 d070 a340
00000170: 78b3 37c0 b780 ac40 c0d1 cc40 74b1 6cc0
00000180: a5b3 0dc0 797d b640 377c 32c1
6.292014 5.812197 -2.999737 -6.03574 5.8987775 5.2150264 -3.655802 6.0541353
5.659223 5.839996 5.5949693 5.706018 6.264287 4.681591 5.76591 5.630877
5.7364974 6.3992486 6.512332 5.851434 5.023159 5.687553 6.3524637 4.7788124
6.1633368 -1.728119 6.6073236 6.0762258 4.076032 6.312578 3.864056 5.415553
6.112144 5.922879 4.4498773 6.3297553 -5.508231 -2.497903 -1.6949629 4.6837344
4.0370283 6.5311356 1.8281344 5.988884 6.4586797 -1.8601555 5.0491195 -10.470873
5.457244 3.1133423 6.0482273 6.034282 -6.6446605 -5.6314425 -5.6002145 5.743054
-0.074181475 4.019537 -4.979497 6.3096175 -3.8770926 -3.169662 3.0674233 -2.9471242
6.4527116 -3.1572936 -0.5332321 6.366044 3.4285145 4.1379094 5.418578 -7.8019195
-4.1602473 -0.27139217 2.5448701 5.6604114 -3.31523 4.5663886 -3.9795039 6.3552613
-1.7542782 2.8079815 -6.96502 6.0191545 4.77741 4.7132974 -9.632681 -2.7666605
-0.6628942 6.250881 -7.273021 5.107521 -2.870329 5.3907123 6.4006042 -3.6983309
-2.2140896 5.7028165 -11.155326

q_probs f4 [99]
00000000: e986 7f3f 943c 7f3f 6e77 423d 0a6e 1c3b
00000010: c24c 7f3f cd9d 7e3f d07e ce3c 7e66 7f3f
00000020: 7d1c 7f3f ec41 7f3f 7f0d 7f3f cd26 7f3f
00000030: 8583 7f3f 80a7 7d3f 5c33 7f3f ef15 7f3f
00000040: 4c2d 7f3f 3693 7f3f d39e 7f3f 1a44 7f3f
00000050: a953 7e3f bc22 7f3f 038e 7f3f 6ede 7d3f
00000060: 5676 7f3f 33f3 1a3e 9fa7 7f3f d469 7f3f
00000070: c8bc 7b3f 6189 7f3f 80be 7a3f 06de 7e3f
00000080: 1e6f 7f3f 0451 7f3f a90c 7d3f 658b 7f3f
00000090: d459 843b 99f5 9b3d 8d60 1f3e 3aa8 7d3f
000000a0: 5c91 7b3f a2a0 7f3f b4b7 5c3f 2b5c 7f3f
000000b0: 7b99 7f3f 5e7e 0a3e 565e 7e3f 72ef ed37
000000c0: aee9 7e3f 6423 753f 9365 7f3f 6c63 7f3f
000000d0: 1463 aa3a 8222 6a3b 2f87 713b a62e 7f3f
000000e0: fe02 f83e 3d7e 7b3f 97f1 df3b 0789 7f3f
000000f0: be70 a63c ec84 253d f8b1 743f 93bf 4c3d
00000100: de98 7f3f a93d 273d 2d10 be3e 8b8f 7f3f
00000110: 6af6 773f 55fb 7b3f c0de 7e3f c56d d639
00000120: ff01 7c3c d046 de3e ab6e 6d3f b51c 7f3f
00000130: 3cab 0f3d 8e5e 7d3f cf86 963c 578e 7f3f
00000140: 57d7 173e 3b76 713f e372 773a 0761 7f3f
00000150: 07dd 7d3f bcb9 7d3f 7d88 8938 5cee 723d
00000160: 917e ae3e da81 7f3f c6e6 353a ec75 7e3f
00000170: 120c 5c3d d1d6 7e3f 5e93 7f3f d72e c63c
00000180: 1893 ca3d 1e26 7f3f f403 7037
0.9981523 0.9970181 0.04747718 0.00238693 0.997265 0.99459535 0.025206953 0.99765766
0.99652845 0.99709964 0.9962997 0.9966858 0.9981006 0.9908371 0.99687743 0.99642843
0.9967849 0.99834 0.9985172 0.9971329 0.99346405 0.99662375 0.9982607 0.99167526
0.9978994 0.15131836 0.99865144 0.99770856 0.9833493 0.99819 0.9794693 0.9955753
0.99778926 0.99732995 0.9884744 0.99822074 0.0040390287 0.076152034 0.15564175 0.9908482
0.98268676 0.9985448 0.8621781 0.9975001 0.9984357 0.13524768 0.99362695 2.8364102e-05
0.99575317 0.95757127 0.99764365 0.9976108 0.0012999498 0.0035726135 0.0036854257 0.99680555
0.48439783 0.982395 0.0068342197 0.9981846 0.020317432 0.040409967 0.9558406 0.049987387
0.9984263 0.040830288 0.37121716 0.99828404 0.96860373 0.9843038 0.9955864 0.00040899045
0.015381335 0.434134 0.9274699 0.9965318 0.03507541 0.98972404 0.018374829 0.9982657
0.1482824 0.9432103 0.00094394217 0.99757427 0.99165386 0.99111533 6.558092e-05 0.05930935
0.34080938 0.9980751 0.000693899 0.99398685 0.05372245 0.99546534 0.9983424 0.024192257
0.09891337 0.9966754 1.4306035e-05

gamma f4 [100]
00000000: 0000 803f 0000 803f 0000 803f 0000 0000
00000010: 0000 0000 0000 803f 0000 803f 0000 0000
00000020: 0000 803f 0000 803f 0000 803f 0000 803f
00000030: 0000 803f 0000 803f 0000 803f 0000 803f
00000040: 0000 803f 0000 803f 0000 803f 0000 803f
00000050: 0000 803f 0000 803f 0000 803f 0000 803f
00000060: 0000 803f 0000 803f 0000 803f 0000 803f
00000070: 0000 803f 0000 803f 0000 803f 0000 803f
00000080: 0000 803f 0000 803f 0000 803f 0000 803f
00000090: 0000 803f 0000 0000 0000 0000 0000 0000
000000a0: 0000 803f 0000 803f 0000 803f 0000 803f
000000b0: 0000 803f 0000 803f 0000 0000 0000 803f
000000c0: 0000 0000 0000 803f 0000 803f 0000 803f
000000d0: 0000 803f 0000 0000 0000 0000 0000 0000
000000e0: 0000 803f 0000 0000 0000 803f 0000 0000
000000f0: 0000 803f 0000 0000 0000 0000 0000 803f
00000100: 0000 0000 0000 803f 0000 0000 0000 803f
00000110: 0000 803f 0000 803f 0000 803f 0000 803f
00000120: 0000 0000 0000 0000 0000 0000 0000 803f
00000130: 0000 803f 0000 0000 0000 803f 0000 0000
00000140: 0000 803f 0000 0000 0000 0000 0000 0000
00000150: 0000 803f 0000 803f 0000 803f 0000 0000
00000160: 0000 0000 0000 803f 0000 803f 0000 0000
00000170: 0000 803f 0000 0000 0000 803f 0000 803f
00000180: 0000 0000 0000 0000 0000 803f 0000 0000
1.0 1.0 1.0 0.0 0.0 1.0 1.0 0.0
1.0 1.0 1.0 1.0 1.0 1.0 1.0 1.0
1.0 1.0 1.0 1.0 1.0 1.0 1.0 1.0
1.0 1.0 1.0 1.0 1.0 1.0 1.0 1.0
1.0 1.0 1.0 1.0 1.0 0.0 0.0 0.0
1.0 1.0 1.0 1.0 1.0 1.0 0.0 1.0
0.0 1.0 1.0 1.0 1.0 0.0 0.0 0.0
1.0 0.0 1.0 0.0 1.0 0.0 0.0 1.0
0.0 1.0 0.0 1.0 1.0 1.0 1.0 1.0
0.0 0.0 0.0 1.0 1.0 0.0 1.0 0.0
1.0 0.0 0.0 0.0 1.0 1.0 1.0 0.0
0.0 1.0 1.0 0.0 1.0 0.0 1.0 1.0
0.0 0.0 1.0 0.0

KL_gamma_k f4 [99]
00000000: 5aca 0b4a b0a1 0b4a acc5 d447 9e27 ab45
00000010: 8aaa 0b4a d44a 0b4a e8ee 6147 9eb8 0b4a
00000020: 2290 0b4a 9da4 0b4a ef87 0b4a c695 0b4a
00000030: 80c8 0b4a 15c4 0a4a a59c 0b4a 8c8c 0b4a
00000040: 5499 0b4a 15d1 0b4a 70d7 0b4a cea5 0b4a
00000050: 4422 0b4a 8d93 0b4a 3dce 0b4a 22e2 0a4a
00000060: 49c1 0b4a 3289 a948 40dc 0b4a 72ba 0b4a
00000070: a1b7 094a b4cb 0b4a 852c 094a f66d 0b4a
00000080: 56bd 0b4a dfac 0b4a 606f 0a4a cecc 0b4a
00000090: 2ccf 1046 e8a3 2a48 3c61 ae48 7bc4 0a4a
000000a0: df9f 094a 6dd8 0b4a a27e f149 f8b2 0b4a
000000b0: 83d4 0b4a cc87 9748 1b28 0b4a 7d2a 8242
000000c0: 5674 0b4a 6a1b 064a 1eb8 0b4a f0b6 0b4a
000000d0: fa6c 3a45 4c16 0046 b821 0446 119a 0b4a
000000e0: d1ad 8749 6a95 094a 1d06 7546 83cb 0b4a
000000f0: 981b 3647 9719 b547 5ddd 054a 9605 e047
00000100: 2dd4 0b4a d1fb b647 5bf4 4f49 13cf 0b4a
00000110: f6a6 074a d9d9 094a 5c6e 0b4a ef9c 6a44
00000120: 69dd 0947 4a33 7349 34e4 014a 4190 0b4a
00000130: 5b31 9d47 2e9c 0a4a 2bb2 2447 6bce 0b4a
00000140: 6b22 a648 8918 044a e25e 0745 a1b5 0b4a
00000150: 5ee1 0a4a 0fce 0a4a a47a 1643 40e6 0448
00000160: 92eb 3e49 96c7 0b4a 2006 c744 0335 0b4a
00000170: c0c2 f047 056a 0b4a 2bd1 0b4a 9fd6 5847
00000180: bea4 5d48 6795 0b4a cb4d 0342
2.2903265e+06 2.287724e+06 108939.34 5476.952 2.2882905e+06 2.282165e+06 57838.906 2.2891915e+06
2.2866005e+06 2.2879112e+06 2.2860758e+06 2.2869615e+06 2.290208e+06 2.2735412e+06 2.2874012e+06 2.286371e+06
2.287189e+06 2.2907572e+06 2.291164e+06 2.2879875e+06 2.279569e+06 2.2868192e+06 2.2905752e+06 2.2754645e+06
2.2897462e+06 347209.56 2.291472e+06 2.2893085e+06 2.2563602e+06 2.290413e+06 2.2474572e+06 2.2844135e+06
2.2894935e+06 2.2884398e+06 2.26812e+06 2.2904835e+06 9267.793 174735.62 357129.88 2.2735668e+06
2.2548398e+06 2.2912272e+06 1.9783242e+06 2.28883e+06 2.2909768e+06 310334.38 2.2799428e+06 65.082985
2.2848215e+06 2.1972105e+06 2.2891595e+06 2.289084e+06 2982.811 8197.574 8456.43 2.2872362e+06
1.1114821e+06 2.2541705e+06 15681.528 2.2904008e+06 46619.594 92723.18 2.1932392e+06 114699.17
2.2909552e+06 93687.63 851781.7 2.2906288e+06 2.2225255e+06 2.2585502e+06 2.284439e+06 938.4521
35293.41 996148.6 2.128141e+06 2.2866082e+06 80482.71 2.2709875e+06 42162.168 2.2905868e+06
340243.34 2.1642582e+06 2165.9302 2.2890002e+06 2.2754155e+06 2.2741798e+06 150.47906 136089.0
782009.1 2.2901495e+06 1592.1914 2.2807688e+06 123269.5 2.2841612e+06 2.2907628e+06 55510.62
226962.97 2.2869378e+06 32.82597

q_gamma_params f4 [100, 3]
00000000: d24d a6c0 4a56 b5c0 d4f4 b2c0 3bfb b6c0
00000010: b608 c7c0 55fa a6c0 f04e c7c0 4b5e a13f
00000020: 1b21 3b40 d128 bac0 ffbd bfc0 6009 c0c0
00000030: ec3c bcc0 98cb c1c0 50d3 c8c0 d10b 4ec0
00000040: b5f2 bdc0 3ef5 b8c0 8a02 4bc0 2c79 b3c0
00000050: ed15 bcc0 43c0 bac0 af10 adc0 5faa bec0
00000060: 09ee 97c0 5728 b9c0 12da cac0 b89e c7c0
00000070: cc66 c1c0 95dc b9c0 d67f 5cc0 4662 bbc0
00000080: 0b33 b9c0 9e64 bfc0 311e c3c0 7095 bbc0
00000090: 3445 bbc0 9ca8 c2c0 0c5c bcc0 28b4 16c0
000000a0: 5f53 bfc0 4d80 acc0 f878 9cc0 80f0 cbc0
000000b0: 1229 c1c0 ddcb bdc0 e0c1 bac0 3abb bdc0
000000c0: 1b9e a6c0 ab22 c1c0 22de bcc0 02dc abc0
000000d0: 6616 bac0 e505 c3c0 ac55 c1c0 e225 c8c0
000000e0: bc0c bbc0 beef 94c0 d2f2 c5c0 3f47 bcc0
000000f0: e498 2ac0 d5c8 c2c0 31ec 2240 77ee bdc0
00000100: 9a67 bac0 b14d 9cc0 239d c7c0 3767 55c0
00000110: 80c6 bac0 c16d 8fc0 aacf c7c0 1be0 1440
00000120: 532f b8c0 a71d a7c0 b758 bec0 760b bec0
00000130: 6214 c4c0 d593 5940 9aee d1c0 deb7 bec0
00000140: 4c55 b9c0 a263 bac0 bcc6 c5c0 2e18 85c0
00000150: 6783 9040 5c95 c2c0 0112 a8c0 2ab0 c3c0
00000160: cd4d b8c0 0599 c9c0 468f b1c0 b511 bbc0
00000170: f603 c2c0 c84e b4c0 865b ccc0 6501 bec0
00000180: 8a51 bfc0 dd7a bcc0 66d3 bfc0 7fb6 adc0
00000190: a7fe bbc0 c753 4a40 6295 a0c0 3bc1 8840
000001a0: 4f32 c0c0 427c b4c0 b59b bdc0 ae6e bfc0
000001b0: afe7 9bc0 95b4 acc0 164f c2c0 1758 b8c0
000001c0: cb92 b7c0 92c5 b5c0 02ca b2c0 a1af bdc0
000001d0: 7764 bcc0 8d30 9bc0 a71a c4c0 10ef bcc0
000001e0: 383e bbc0 ae90 bcc0 523d 5d3f dd1b abc0
000001f0: 04de b9c0 3592 a4c0 1e02 a9c0 16b9 bbc0
00000200: 89ed b1c0 1c65 c9c0 4541 b1c0 179c aec0
00000210: ba59 cdc0 ee8c bec0 0499 ffbf 67f6 a7c0
00000220: 0e10 b8c0 a36b a8c0 90f3 77c0 c72a c8c0
00000230: 555b b7c0 5093 cbc0 7681 c1c0 6202 bec0
00000240: 8678 b3c0 4970 bfc0 8802 b0c0 0f63 aac0
00000250: 0a19 bcc0 4fbc c1c0 1df6 b6c0 02a1 b9c0
00000260: 3381 b6c0 b8fd b6c0 fb2f bdc0 4938 a5c0
00000270: 1c4f bcc0 90fe c53f fd56 c0c0 6c34 c0c0
00000280: cbb2 bdc0 f416 bdc0 f1fd acc0 628c bbc0
00000290: 59e5 b8c0 2595 b4c0 05f0 b8c0 de6c b6c0
000002a0: 2e8c c4c0 6894 b7c0 ea20 c7c0 76fe c2c0
000002b0: c676 bfc0 f029 c3c0 f77b 333f 943d bac0
000002c0: d17f 9cc0 aa87 c9c0 ddb8 bac0 de92 bcc0
000002d0: abcd bcc0 5a5a c3c0 a2bc b9c0 7abd b6c0
000002e0: a8d5 c5c0 d632 b8c0 be37 b6c0 c48a c7c0
000002f0: 2f9a a8c0 ecfa b8c0 a9ca c7c0 11b4 c6c0
00000300: 904d b0c0 272d b8c0 4a83 c0c0 2161 b7c0
00000310: 9d02 bec0 733c 81c0 f85f 82c0 075f b3c0
00000320: 61ae bbc0 efd6 c0c0 0371 c0c0 cff9 a9c0
00000330: 2909 9cbd 86a3 bcc0 0258 bbc0 e0e1 bfc0
00000340: a08f b0c0 50c4 b1c0 8e52 bdc0 0c75 bcc0
00000350: 7d7a 9dc0 db35 9ac0 674b c1c0 a649 d1c0
00000360: 35f8 b1c0 4e65 cac0 cb6a b0c0 9137 7dbf
00000370: 76cf b3c0 209a b4c0 30f9 acc0 d821 c3c0
00000380: ff3d b2c0 bb46 85c0 d0d9 bac0 b44f c4c0
00000390: bb96 c4c0 a6a3 bfc0 9698 b3c0 af05 c1c0
000003a0: c871 bac0 a0b7 c2c0 6d1b 82c0 b46a 9fc0
000003b0: 8f98 813f e563 c8c0 3e84 0040 36b6 8ac0
000003c0: 5273 c1c0 05be bbc0 1878 b3c0 aa4a b6c0
000003d0: 35fd c3c0 f7c2 bdc0 9fc7 a5c0 1518 bec0
000003e0: 464c c2c0 fd15 b0c0 d781 c3c0 f70c bcc0
000003f0: 1281 bdc0 5b60 c3c0 c370 c1c0 e7c8 b5c0
-5.1969995 -5.6667833 -5.5923862 -5.718168 -6.2198133 -5.218058 -6.228386 1.2606901
2.9238956 -5.8174825 -5.991943 -6.0011444 -5.8824368 -6.0561028 -6.275795 -3.2194712
-5.9358773 -5.779937 -3.17203 -5.6085415 -5.8776765 -5.8359694 -5.4082866 -5.9582973
-4.747807 -5.7861743 -6.33912 -6.238125 -6.0437984 -5.8081765 -3.4453025 -5.8557463
-5.787481 -5.9810324 -6.0974355 -5.861992 -5.8521976 -6.083082 -5.886236 -2.3547459
-5.978927 -5.3906617 -4.8897667 -6.373108 -6.0362635 -5.9311357 -5.8361664 -5.929105
-5.2068 -6.035482 -5.902116 -5.3706064 -5.815234 -6.0944695 -6.041708 -6.2546244
-5.8453045 -4.6542654 -6.185891 -5.883697 -2.6655817 -6.0870156 2.545666 -5.9353595
-5.8251467 -4.884484 -6.2379317 -3.3344247 -5.836731 -4.4821477 -6.2440996 2.3261783
-5.755777 -5.2223697 -5.9483294 -5.938899 -6.127488 3.399648 -6.560376 -5.9599447
-5.791662 -5.824662 -6.1805096 -4.1592016 4.5160403 -6.0807323 -5.2521977 -6.1152544
-5.759497 -6.299929 -5.5487394 -5.8459115 -6.0629835 -5.634617 -6.3861723 -5.93767
-5.9787035 -5.889998 -5.9945555 -5.4285274 -5.8748355 3.1613634 -5.018235 4.2735877
-6.006141 -5.640168 -5.925257 -5.9822607 -4.8720317 -5.3970437 -6.072154 -5.760753
-5.736669 -5.6803675 -5.587159 -5.927689 -5.887264 -4.8496766 -6.1282535 -5.9041824
-5.851345 -5.892661 0.8642169 -5.3471513 -5.8083515 -5.1428475 -5.2815084 -5.8663435
-5.560246 -6.2935925 -5.5392175 -5.456554 -6.417203 -5.9547033 -1.9968572 -5.2488284
-5.75196 -5.2631392 -3.8742409 -6.255222 -5.729899 -6.3617325 -6.0470533 -5.937791
-5.6084623 -5.9824567 -5.500309 -5.324592 -5.8780565 -6.054237 -5.717543 -5.8009043
-5.7032714 -5.7184715 -5.912107 -5.1631207 -5.884657 1.5468311 -6.0106187 -6.006399
-5.9280753 -5.909052 -5.4059987 -5.8608866 -5.7779965 -5.643206 -5.7792993 -5.7007895
-6.142112 -5.736866 -6.222768 -6.093562 -5.9832487 -6.0988693 0.7011103 -5.820017
-4.8906026 -6.2978106 -5.8350663 -5.892928 -5.900106 -6.1047792 -5.8042765 -5.7106295
-6.182331 -5.7562056 -5.6943045 -6.235689 -5.2688212 -5.78063 -6.243489 -6.209481
-5.509468 -5.7555118 -6.0160265 -5.7306066 -5.937819 -4.038629 -4.074215 -5.60535
-5.8650365 -6.026237 -6.0137954 -5.311744 -0.07618935 -5.8949614 -5.854493 -5.9963226
-5.5175323 -5.555214 -5.9163275 -5.889288 -4.921202 -4.819074 -6.0404544 -6.5402403
-5.5615487 -6.3248663 -5.5130363 -0.9891291 -5.619075 -5.643814 -5.4054184 -6.0978813
-5.570068 -4.164884 -5.8390884 -6.1347294 -6.1433997 -5.9887266 -5.612376 -6.031944
-5.8263893 -6.084915 -4.065848 -4.9817753 1.0124682 -6.262194 2.0080714 -4.3347425
-6.045327 -5.8669457 -5.60841 -5.6966143 -6.124659 -5.9300494 -5.180618 -5.9404397
-6.0718107 -5.502684 -6.1095996 -5.8765826 -5.9220057 -6.105512 -6.045015 -5.680774

gamma f4 [100, 3]
00000000: 0000 0000 0000 0000 0000 0000 0000 0000
00000010: 0000 0000 0000 0000 0000 0000 0000 803f
00000020: 0000 803f 0000 0000 0000 0000 0000 0000
00000030: 0000 0000 0000 0000 0000 0000 0000 0000
00000040: 0000 0000 0000 0000 0000 0000 0000 0000
00000050: 0000 0000 0000 0000 0000 0000 0000 0000
00000060: 0000 0000 0000 0000 0000 0000 0000 0000
00000070: 0000 0000 0000 0000 0000 0000 0000 0000
00000080: 0000 0000 0000 0000 0000 0000 0000 0000
00000090: 0000 0000 0000 0000 0000 0000 0000 0000
000000a0: 0000 0000 0000 0000 0000 0000 0000 0000
000000b0: 0000 0000 0000 0000 0000 0000 0000 0000
000000c0: 0000 0000 0000 0000 0000 0000 0000 0000
000000d0: 0000 0000 0000 0000 0000 0000 0000 0000
000000e0: 0000 0000 0000 0000 0000 0000 0000 0000
000000f0: 0000 0000 0000 0000 0000 803f 0000 0000
00000100: 0000 0000 0000 0000 0000 0000 0000 0000
00000110: 0000 0000 0000 0000 0000 0000 0000 803f
00000120: 0000 0000 0000 0000 0000 0000 0000 0000
00000130: 0000 0000 0000 803f 0000 0000 0000 0000
00000140: 0000 0000 0000 0000 0000 0000 0000 0000
00000150: 0000 803f 0000 0000 0000 0000 0000 0000
00000160: 0000 0000 0000 0000 0000 0000 0000 0000
00000170: 0000 0000 0000 0000 0000 0000 0000 0000
00000180: 0000 0000 0000 0000 0000 0000 0000 0000
00000190: 0000 0000 0000 803f 0000 0000 0000 803f
000001a0: 0000 0000 0000 0000 0000 0000 0000 0000
000001b0: 0000 0000 0000 0000 0000 0000 0000 0000
000001c0: 0000 0000 0000 0000 0000 0000 0000 0000
000001d0: 0000 0000 0000 0000 0000 0000 0000 0000
000001e0: 0000 0000 0000 0000 0000 0000 0000 0000
000001f0: 0000 0000 0000 0000 0000 0000 0000 0000
00000200: 0000 0000 0000 0000 0000 0000 0000 0000
00000210: 0000 0000 0000 0000 0000 0000 0000 0000
00000220: 0000 0000 0000 0000 0000 0000 0000 0000
00000230: 0000 0000 0000 0000 0000 0000 0000 0000
00000240: 0000 0000 0000 0000 0000 0000 0000 0000
00000250: 0000 0000 0000 0000 0000 0000 0000 0000
00000260: 0000 0000 0000 0000 0000 0000 0000 0000
00000270: 0000 0000 0000 0000 0000 0000 0000 0000
00000280: 0000 0000 0000 0000 0000 0000 0000 0000
00000290: 0000 0000 0000 0000 0000 0000 0000 0000
000002a0: 0000 0000 0000 0000 0000 0000 0000 0000
000002b0: 0000 0000 0000 0000 0000 0000 0000 0000
000002c0: 0000 0000 0000 0000 0000 0000 0000 0000
000002d0: 0000 0000 0000 0000 0000 0000 0000 0000
000002e0: 0000 0000 0000 0000 0000 0000 0000 0000
000002f0: 0000 0000 0000 0000 0000 0000 0000 0000
00000300: 0000 0000 0000 0000 0000 0000 0000 0000
00000310: 0000 0000 0000 0000 0000 0000 0000 0000
00000320: 0000 0000 0000 0000 0000 0000 0000 0000
00000330: 0000 0000 0000 0000 0000 0000 0000 0000
00000340: 0000 0000 0000 0000 0000 0000 0000 0000
00000350: 0000 0000 0000 0000 0000 0000 0000 0000
00000360: 0000 0000 0000 0000 0000 0000 0000 0000
00000370: 0000 0000 0000 0000 0000 0000 0000 0000
00000380: 0000 0000 0000 0000 0000 0000 0000 0000
00000390: 0000 0000 0000 0000 0000 0000 0000 0000
000003a0: 0000 0000 0000 0000 0000 0000 0000 0000
000003b0: 0000 803f 0000 0000 0000 803f 0000 0000
000003c0: 0000 0000 0000 0000 0000 0000 0000 0000
000003d0: 0000 0000 0000 0000 0000 0000 0000 0000
000003e0: 0000 0000 0000 0000 0000 0000 0000 0000
000003f0: 0000 0000 0000 0000 0000 0000 0000 0000
0.0 0.0 0.0 0.0 0.0 0.0 0.0 1.0
1.0 0.0 0.0 0.0 0.0 0.0 0.0 0.0
0.0 0.0 0.0 0.0 0.0 0.0 0.0 0.0
0.0 0.0 0.0 0.0 0.0 0.0 0.0 0.0
0.0 0.0 0.0 0.0 0.0 0.0 0.0 0.0
0.0 0.0 0.0 0.0 0.0 0.0 0.0 0.0
0.0 0.0 0.0 0.0 0.0 0.0 0.0 0.0
0.0 0.0 0.0 0.0 0.0 0.0 1.0 0.0
0.0 0.0 0.0 0.0 0.0 0.0 0.0 1.0
0.0 0.0 0.0 0.0 0.0 1.0 0.0 0.0
0.0 0.0 0.0 0.0 1.0 0.0 0.0 0.0
0.0 0.0 0.0 0.0 0.0 0.0 0.0 0.0
0.0 0.0 0.0 0.0 0.0 1.0 0.0 1.0
0.0 0.0 0.0 0.0 0.0 0.0 0.0 0.0
0.0 0.0 0.0 0.0 0.0 0.0 0.0 0.0
0.0 0.0 0.0 0.0 0.0 0.0 0.0 0.0
0.0 0.0 0.0 0.0 0.0 0.0 0.0 0.0
0.0 0.0 0.0 0.0 0.0 0.0 0.0 0.0
0.0 0.0 0.0 0.0 0.0 0.0 0.0 0.0
0.0 0.0 0.0 0.0 0.0 0.0 0.0 0.0
0.0 0.0 0.0 0.0 0.0 0.0 0.0 0.0
0.0 0.0 0.0 0.0 0.0 0.0 0.0 0.0
0.0 0.0 0.0 0.0 0.0 0.0 0.0 0.0
0.0 0.0 0.0 0.0 0.0 0.0 0.0 0.0
0.0 0.0 0.0 0.0 0.0 0.0 0.0 0.0
0.0 0.0 0.0 0.0 0.0 0.0 0.0 0.0
0.0 0.0 0.0 0.0 0.0 0.0 0.0 0.0
0.0 0.0 0.0 0.0 0.0 0.0 0.0 0.0
0.0 0.0 0.0 0.0 0.0 0.0 0.0 0.0
0.0 0.0 0.0 0.0 1.0 0.0 1.0 0.0
0.0 0.0 0.0 0.0 0.0 0.0 0.0 0.0
0.0 0.0 0.0 0.0 0.0 0.0 0.0 0.0

q_probs f4 [100, 3]
00000000: f84f b43b e3e7 613b 6149 733b 16a0 563b
00000010: 7421 023b 3b93 b03b 0c06 013b a079 473f
00000020: 6df4 723f 8065 423b ea58 233b 58dc 213b
00000030: 1133 363b 6e38 193b 111f f63a 0675 1d3d
00000040: 27bf 2c3b 6acf 493b e1cf 243d e864 6f3b
00000050: 7c12 373b fdd7 3e3b 8921 923b 73ec 283b
00000060: fcd6 0c3c 208e 483b 870b e73a 448d ff3a
00000070: 6b1d 1b3b e733 443b 2b37 fd3c 231e 3b3b
00000080: aa4b 483b a123 253b 0f09 133b 6cf3 393b
00000090: bbc7 3b3b 3527 153b ac83 353b ec8d b13d
000000a0: 6f7c 253b 24ba 943b 25ae f43b 4256 df3a
000000b0: 6d49 1c3b 9d90 2d3b 5ace 3e3b 73ea 2d3b
000000c0: 4990 b23b 6768 1c3b c2a9 323b 45b7 973b
000000d0: 47d5 423b 9478 133b 2371 1b3b b860 fb3a
000000e0: ce13 3d3b 1085 1a3c 059d 063b f7f9 353b
000000f0: 9733 853d 4e92 143b ee62 6d3f 07d5 2c3b
00000100: bcea 403b 85f7 f53b 6799 ff3a dff0 0c3d
00000110: 8fb3 3e3b 6237 373c 5508 fe3a b139 693f
00000120: 0abb 4e3b d7d1 af3b f29c 2a3b 743a 2c3b
00000130: fbb0 0e3b a8bb 773f 2340 b93a 74a6 283b
00000140: 4e77 473b 7c00 413b 8f56 073b c4fb 7b3c
00000150: 5d3b 7d3f de80 153b 0fae aa3b a66f 103b
00000160: 67f5 4d3b 4743 f03a 8f19 7e3b 21f6 3c3b
00000170: 662c 183b 5d43 693b 6471 dc3a a070 2c3b
00000180: 8185 253b 20d6 343b 78ed 223b 4735 8f3b
00000190: 0b97 373b 7899 753f fd5f d73b b47b 7c3f
000001a0: 1f0e 213b 54f7 673b 3995 2e3b 2ef0 243b
000001b0: fd06 f93b 9fc4 933b 8fca 163b b0b4 4d3b
000001c0: 5eb3 523b c4dd 5e3b 1f8e 743b a229 2e3b
000001d0: 7f54 353b ca9b fe3b 1294 0e3b 0c4b 323b
000001e0: 3cf1 3b3b 5c5b 343b b51e 343f b54a 9b3b
000001f0: 9f2c 443b ca49 be3b 3ac6 a53b 2426 393b
00000200: 4a2f 7b3b 33c9 f13a c242 803b 5444 8b3b
00000210: 03b8 d53a f387 293b bcd5 f43d ac40 ab3b
00000220: da84 4f3b f4d4 a83b 47b0 a63c 0239 fb3a
00000230: ea21 543b 96e3 e13a 449d 1a3b 566b 2c3b
00000240: 2f6c 6f3b 8ce7 243b fe53 853b 51d1 9e3b
00000250: b3ff 363b d382 193b c0c2 563b eba0 453b
00000260: cad5 593b 1b90 563b 07e4 303b b07d ba3b
00000270: 3fcd 353b 8011 533f 6b56 203b 9202 213b
00000280: de17 2e3b 566e 313b be74 923b 1f29 3a3b
00000290: 8a33 4a3b 7f45 673b 09ef 493b b360 5a3b
000002a0: 5f9f 0c3b 10aa 523b c4bf 013b c899 133b
000002b0: e8c5 243b 0dd3 123b 1424 2b3f d1e7 413b
000002c0: 047a f43b 5fc4 f03a ae03 3f3b de4e 343b
000002d0: 9105 333b daf4 113b a0f9 443b 9940 583b
000002e0: af17 073b 25a2 4e3b 25c6 5b3b 3716 003b
000002f0: 4de1 a73b 02ab 493b df2f fe3a 107b 033b
00000300: c81d 843b b4c8 4e3b c279 1f3b acfb 533b
00000310: fe69 2c3b 82db 8d3c 29fc 883c 6d2a 703b
00000320: a863 393b 2edb 1d3b a5d4 1f3b 77dc a03b
00000330: 564a f63e 75f1 333b 3a58 3b3b 8ba2 223b
00000340: 9a0f 833b 6177 7c3b 5726 303b e0f5 343b
00000350: 8129 ed3b e63a 033c 8ea2 1b3b 3003 bd3a
00000360: 24e0 7a3b 675b ea3a 21a5 833b 15ad 8a3e
00000370: 53e7 6c3b ce21 673b 6d8a 923b 1ff8 123b
00000380: 09c1 783b a693 7a3c fc40 3e3b efa8 0d3b
00000390: aa71 0c3b c8e0 233b 9c7d 6e3b 7ff6 1c3b
000003a0: 95ad 403b 30e2 143b 6361 8a3c 8651 df3b
000003b0: aeca 3b3f 707b f93a afb4 613f 94f0 533c
000003c0: 65e1 1a3b c009 393b 6a6f 6f3b 6b49 5b3b
000003d0: a217 0f3b 6fc1 2d3b 1d46 b73b bbf6 2b3b
000003e0: c8d7 163b 9303 853b be42 113b 5d45 373b
000003f0: f726 2f3b d1da 113b d8ed 1a3b 14c7 5e3b
0.005502697 0.003447049 0.0037122595 0.0032749227 0.0019856365 0.005388645 0.0019687442 0.7791996
0.94904214 0.002966255 0.0024924823 0.0024697986 0.0027801434 0.0023379582 0.0018777569 0.03844168
0.0026359053 0.0030793794 0.04023731 0.003652865 0.0027934602 0.0029120438 0.004459564 0.00257757
0.008596178 0.0030602291 0.0017627337 0.0019497056 0.0023668658 0.0029938163 0.030910095 0.0028551898
0.0030562677 0.0025198238 0.002243582 0.002837385 0.0028652984 0.0022758965 0.002769689 0.086696476
0.002525117 0.0045387913 0.0074670487 0.0017039257 0.0023847476 0.0026483901 0.0029114694 0.0026537448
0.005449329 0.002386594 0.0027261828 0.0046300017 0.0029729174 0.002250229 0.0023718558 0.0019178605
0.0028850916 0.009431139 0.0020540368 0.00277674 0.065039806 0.0022670212 0.9272908 0.0026372091
0.0029436788 0.0075063133 0.0019500674 0.0344094 0.0029098724 0.011182638 0.0019381145 0.91103655
0.003154459 0.005365591 0.0026033488 0.0026279958 0.002177297 0.96770716 0.0014133494 0.002573398
0.0030436101 0.0029449752 0.0020650958 0.01537985 0.98918706 0.0022812407 0.0052087377 0.0022039204
0.0031426789 0.0018330597 0.0038772558 0.0028833228 0.0023219823 0.003559313 0.0016818461 0.0026312247
0.0025256576 0.0027593449 0.002486078 0.004370365 0.0028013613 0.959373 0.006572722 0.98626256
0.0024575067 0.0035395222 0.0026639237 0.0025167572 0.00759971 0.004509523 0.0023008918 0.0031388216
0.0032150368 0.0034006694 0.0037316156 0.0026575108 0.0027668772 0.0077700363 0.0021755737 0.0027205376
0.0028677722 0.0027520275 0.70359355 0.0047391304 0.0029933823 0.005807136 0.005059031 0.0028251493
0.0038327747 0.0018446803 0.003914208 0.0042500887 0.001630545 0.0025868386 0.11954829 0.0052262153
0.003166488 0.005152339 0.020347727 0.001916677 0.0032368847 0.0017233964 0.0023592273 0.0026309094
0.0036532988 0.0025162427 0.0040688505 0.00484673 0.0027923405 0.0023423925 0.0032769889 0.003015573
0.0033239 0.0032739702 0.0026991384 0.0056912526 0.0027740744 0.8244858 0.0024465572 0.0024568182
0.002656452 0.0027073822 0.004469483 0.0028405858 0.0030853474 0.0035289226 0.0030812642 0.0033321797
0.0021457297 0.0032144822 0.001979814 0.002252208 0.0025142375 0.0022403628 0.66851926 0.0029587636
0.0074608345 0.001836907 0.002914648 0.0027512829 0.002731655 0.0022271187 0.0030056015 0.0032997488
0.0020613482 0.003152975 0.0033534851 0.001954449 0.0051232935 0.0030772095 0.0019392929 0.0020062365
0.0040318705 0.0031552734 0.0024334048 0.0032346053 0.0026308293 0.017316584 0.016721802 0.0036646381
0.002828816 0.002408694 0.002438822 0.004909094 0.4810359 0.0027457152 0.0028586523 0.0024816121
0.0039996626 0.0038523304 0.002687832 0.0027612373 0.0072376137 0.008009648 0.0023748013 0.0014420506
0.003828057 0.0017880023 0.0040174876 0.27085176 0.0036148622 0.0035267952 0.004472068 0.0022425724
0.0037956855 0.015293991 0.0029030433 0.0021615585 0.0021430054 0.0025005806 0.0036390787 0.0023950634
0.0029400338 0.0022717826 0.01689214 0.0068151383 0.7335614 0.001903398 0.88166326 0.012935776
0.002363288 0.0028234571 0.0036534914 0.0033460509 0.0021834155 0.0026513 0.005593075 0.0026239592
0.00230168 0.004059264 0.0022165026 0.0027964928 0.0026726106 0.002225567 0.00236403 0.0033993172

weight f4 [10, 74]
00000000: fbb4 a93e 4df4 933e 84f0 133e 1e1a 573d
00000010: acda 9e3d 05f5 d03c 3e9f cc3e 0ace cb3e
00000020: cda6 053e a187 813d 0501 c73e eef8 ad3e
00000030: 808e 123e a516 c83e e580 403e df96 b13d
00000040: e8d9 c93e 5c34 ca3d 42b4 c13e f6a8 ba3e
00000050: e7e4 bd3e e722 063e ab88 cf3e 8c20 9b3e
00000060: ac15 b13e 0469 e23d 8b9e 7e3d fd4f d33d
00000070: 762c b63e 00cc 4e3d 5657 1fbe ab0b 63be
00000080: f377 c63e cfc4 033e 8dc0 b83d 2538 923e
00000090: 4a85 8bbe fe73 8d3e 7b6f b03e b4e5 b13d
000000a0: 8ddd c83d a9aa cbbe 3b21 9c3e bbaa c73e
000000b0: e69a c53e 1bb0 d83e 24dd a4bd 66ee 2c3e
000000c0: df40 1c3e 318e a73e 0c48 00bd 33b4 c33e
000000d0: 334c 8b3d 04d3 d53e 6419 c03e b207 9c3e
000000e0: 5c76 9f3e 2512 1a3c 4979 d63e 8c2b c13e
000000f0: a265 773d 4008 8e3c 12db ee3d a66b 053e
00000100: 2532 b93e 6977 bc3e 3297 ae3e 9770 963e
00000110: 7bec 0a3d 8b77 f83d b6b5 a93e 6f12 013e
00000120: 0959 51be 7837 a73e d262 5a3e c04c 2d3e
00000130: 6b9b cf3d faed 3fbd e7fb bdbb 74d1 b4bd
00000140: 23b0 f63e a98c f53e 3c05 8e3d 7a09 7c3c
00000150: 76e7 133f 7839 5c3e a1d0 c73d 541d a63e
00000160: fb46 453d c02e df3c 7e3f a43e 59a4 b93c
00000170: 1bc0 1d3f 80d5 793e df1c f03e 4ea5 873d
00000180: 26af 0c3f 7cec 563e 5a4f dc3e ce2b bb3b
00000190: 7922 d03a 8730 893c fcfa 7c3e d1ed 96bc
000001a0: b4e1 6dbe 4327 a1be 2f7a cc3e 37fe bb3d
000001b0: 670b 7ebc b9f0 1e3e a8b1 a4be ad56 1f3e
000001c0: 2da8 df3e 5df7 db3c 0550 813c 8014 e6be
000001d0: 942b 453e 7196 e73e 9118 9b3e 3393 9f3e
000001e0: 5914 33be 4e24 ad3d 407d e73d 49cd 3e3e
000001f0: 60b2 0abe e77d 843e e2b2 84bc 11fc 8f3e
00000200: 8a4b f83e f20a 3d3e c6d4 393e fbc1 bcbd
00000210: 6044 c63e d9df 843e 926e 193b e20a 7abd
00000220: a42d 983d 359e bf3d 7032 783e 980e ab3e
00000230: d7ff d63e 8604 2c3e d326 96bd fd42 c43c
00000240: 2c03 ca3e 16c4 ae3d 22f7 95be 89b2 673e
00000250: 5f86 d93e f861 b13e 4b1d 2a3e 0044 223d
00000260: cc52 953d 1227 253c 47f8 e63e 1bbe e33e
00000270: 8bde 103e 4dcc 893d bd6c d03e 1ca9 d73e
00000280: 4f79 1e3e 5480 f43e b629 6f3e 08f1 bc3d
00000290: ea95 f93e 4df7 e63d 10ad ba3e 7919 f43e
000002a0: f104 af3e c112 153e de87 d03e 2223 b43e
000002b0: f9d3 c93e 3ca7 0a3e 906d 933d 1fa6 da3d
000002c0: 64ad e73e b30d 8f3d dd72 3ebe 3252 7fbe
000002d0: dab0 da3e 565b 093e 3430 bc3d 9870 b63e
000002e0: 0039 9bbe f6a4 ac3e a5e0 9d3e 6002 ca3d
000002f0: 808d d73d 94d5 d5be 84e6 c63e b26d d83e
00000300: 3a87 f33e addb 103f 2da7 e0bd a437 4f3e
00000310: cff6 303e 0f36 cd3e b4d3 85bd 37e7 013f
00000320: d002 6f3d b46c 113f 974a b43e b0b5 bc3e
00000330: 3e04 c43e 4312 0bbc 5046 033f 81ac 013f
00000340: c969 6d3d 385f 4ebb ebc0 023e f963 163e
00000350: 0152 f33e 4835 d33e ca9a b63e 752a b73e
00000360: 3f6e f13c 3d79 013e 2337 a33e 2755 1a3e
00000370: 60d9 74be 8ab5 ca3e 2a62 9f3e c169 883e
00000380: 2850 5c3e 516d 493d 22a4 9f3d a69a aebd
00000390: b2c4 1b3f cdd9 403f f2cb 2f3e 059f 0b3e
000003a0: f08f 313f 5a1b a33e 5157 433e 207d e93e
000003b0: ebbb f73d d551 0d3e e10d db3e 3fe2 033e
000003c0: 6253 883f a8e3 b33e adea 813f 6129 153e
000003d0: 0542 923f b3e4 a63e 136d 193f 1fa5 b63d
000003e0: a8ca e23d 4361 e03d c639 b83e 62db ba3d
000003f0: ce50 5cbe b08f 72be a2bf fd3e f70c 4f3e
0.3314589 0.28897324 0.14447218 0.05251514 0.07756552 0.02550746 0.39965242 0.39805633
0.1305191 0.06324697 0.38867965 0.3397898 0.14312172 0.39079776 0.1879917 0.086713545
0.39424062 0.09873268 0.37832838 0.36457032 0.370887 0.13099252 0.40533957 0.3029827
0.34586847 0.110551864 0.062162917 0.10317991 0.35580796 0.05048752 -0.1556066 -0.2217242
0.3876339 0.12868045 0.09021101 0.2855846 -0.2725013 0.27627558 0.34460053 0.086863905
0.098078825 -0.3977864 0.30494103 0.38997445 0.3859474 0.42321858 -0.08049992 0.16887817
0.15259121 0.3272567 -0.03131871 0.3822342 0.06801643 0.41762555 0.37519372 0.3047462
0.3114499 0.00940374 0.41889408 0.37728536 0.06039966 0.017337918 0.11662878 0.13029346
0.3617107 0.36809853 0.34099728 0.29382774 0.03391693 0.12132176 0.33146447 0.12604688
-0.2044412 0.32659507 0.2132676 0.16923809 0.101370655 -0.04685781 -0.0057978514 -0.088290125
0.48181257 0.47958878 0.06934592 0.015383119 0.57775056 0.21506298 0.0975659 0.3244425
0.048163395 0.027243972 0.3207969 0.022661375 0.61621255 0.2439785 0.46897027 0.06623326
0.54954755 0.20988649 0.4302929 0.005712009 0.0015879414 0.016746772 0.24705118 -0.018423947
-0.2323063 -0.31475267 0.3993697 0.09179347 -0.015505648 0.15521516 -0.3216679 0.15560408
0.43682995 0.02685135 0.015785227 -0.44937515 0.19254905 0.45231965 0.3029218 0.31166992
-0.17488231 0.0845419 0.113031864 0.18632998 -0.13544607 0.25877306 -0.01619858 0.28122
0.48495132 0.18461207 0.18147573 -0.09216686 0.3872404 0.25952032 0.0023411852 -0.061045535
0.0743058 0.093563475 0.2423799 0.33409572 0.41992065 0.167986 -0.07331624 0.023957724
0.39455545 0.08533494 -0.2929011 0.226267 0.4248533 0.34645057 0.16612737 0.03961563
0.07291183 0.010080116 0.45111296 0.44480976 0.14147393 0.067284204 0.4070796 0.42121208
0.15475963 0.47754157 0.23355755 0.092256606 0.48747188 0.11277638 0.3646016 0.47675684
0.34183457 0.14557935 0.40728658 0.35183054 0.39419535 0.13540357 0.07198632 0.10676216
0.45249474 0.06985035 -0.18598504 -0.24933699 0.42713052 0.13413748 0.091888815 0.35632777
-0.30316925 0.33719605 0.30835453 0.09863734 0.10525036 -0.4176451 0.38847744 0.4227119
0.47564107 0.565852 -0.10969386 0.20236069 0.1728165 0.40080306 -0.0653452 0.5074343
0.05835229 0.5680649 0.35213158 0.36857367 0.38284487 -0.008488241 0.51279163 0.50653845
0.057962213 -0.003148986 0.12768905 0.14686574 0.47523502 0.41251588 0.3566497 0.3577458
0.029471515 0.12643905 0.31878003 0.15071546 -0.23911047 0.39591628 0.3112958 0.26643184
0.21514952 0.049176518 0.07794978 -0.085255906 0.6084701 0.7533234 0.17167643 0.1363488
0.69360256 0.31856805 0.19076277 0.45603275 0.120963894 0.13800748 0.42784026 0.12879275
1.0650446 0.35134625 1.0149742 0.14566566 1.1426398 0.3259636 0.5993206 0.08918213
0.1107381 0.10956051 0.35981578 0.09123875 -0.215152 -0.23687625 0.49560267 0.2021979

bias f4 [10]
00000000: d0ba 22c0 9625 12c0 39a1 e7bf cb2d 06c0
00000010: 3535 13c0 8e33 0cc0 8c36 1cc0 b4e0 e7be
00000020: 0c85 febf 0564 f6bf
-2.5426521 -2.283544 -1.8096076 -2.096545 -2.3001225 -2.1906466 -2.4408293 -0.45288622
-1.9884353 -1.9249274

weight f4 [10, 10]
00000000: b7a0 b3be fca3 bbbe 18bb bbbd 2eaf 32bf
00000010: 6a46 96be 6be2 a7be ab4c 05bf 2f3f fcbe
00000020: e5b3 b3be 9317 ecbe b821 30bf f9b5 20bf
00000030: eb2f 1fbf dbd6 0cbf 6273 e1be 73b9 47bf
00000040: d466 a2be a4d9 7abf 97c7 51bf 9eae 32bf
00000050: 6c0e 5abf fea4 7abf 912b a9bf b27c 87bf
00000060: 320e 7dbf bb73 2cbf e60f 8ebf ffb2 98bf
00000070: 9615 98bf 4e4a 6cbf 6b84 b8bf d972 9ebf
00000080: 1b06 86bf 1b49 8cbf 42fa b1bf 7efe a4bf
00000090: 78a4 99bf 21a5 d6bf 2800 60bf e420 a8bf
000000a0: 1538 6dbe 455d a7be 952c cfbe 5cf4 17bf
000000b0: cc05 10be f7ed e1be f72a 293d 6878 15be
000000c0: d35b 19bf 9a0a b0bd b213 213e b517 dfbc
000000d0: c7cc bc3e db06 03be 0abe 093d 7673 11be
000000e0: 80db a03d f4e6 eb3e 0529 08be a95c b83e
000000f0: e726 7bbf add3 a4bf 7bc1 93bf 3693 66bf
00000100: 743b 82bf a782 b0bf 6c96 a3bf b535 d4bf
00000110: 1f9f 77bf aaf4 a2bf ddff c33c 5ad2 edbd
00000120: f52b 87be 97b0 c2be 6e8c 263e a09f a4be
00000130: b7e3 e23d 9198 b23e 64c0 b6be 385b 933d
00000140: 332a 8fbe ffee 16bd b7e8 2abf 5a25 36bf
00000150: 5317 cfbe 4d0c a1be 84f4 c9be 8740 4dbe
00000160: 4b88 26bf bf9b 0dbf ac7d babf 1d53 a8bf
00000170: 9e67 85bf c442 75bf cea9 c3bf 77b6 82bf
00000180: 7235 aabf 734e d7bf 24d5 94bf 12be b6bf
-0.35083553 -0.36648548 -0.09166545 -0.69798553 -0.29350597 -0.3278993 -0.5207011 -0.49266955
-0.35098186 -0.46111736 -0.6880145 -0.6277767 -0.6218249 -0.55015343 -0.44033343 -0.7801735
-0.31719077 -0.97988343 -0.81945175 -0.69797695 -0.85178256 -0.9790801 -1.321642 -1.0584929
-0.98849785 -0.6736409 -1.1098602 -1.1929625 -1.1881588 -0.9230088 -1.4415411 -1.2378799
-1.0470613 -1.095981 -1.3904498 -1.2890165 -1.2003317 -1.6769143 -0.8750024 -1.3135037
-0.23165925 -0.32688347 -0.404637 -0.5935724 -0.14064711 -0.44126865 0.04130074 -0.14596713
-0.5990574 -0.08595772 0.1573017 -0.027232984 0.36874983 -0.12795584 0.0336285 -0.14204201
0.07854366 0.4607464 -0.13296898 0.36008194 -0.98106235 -1.2877098 -1.154342 -0.90068376
-1.0174394 -1.3789872 -1.278028 -1.657889 -0.96727175 -1.2730916 0.023925716 -0.11612387
-0.26400724 -0.38025352 0.16264507 -0.32153034 0.110785894 0.34882024 -0.35693657 0.07195133
-0.27961883 -0.03684902 -0.66761345 -0.71150744 -0.40447482 -0.31454697 -0.39444363 -0.20044146
-0.65051717 -0.55315775 -1.4569602 -1.3150364 -1.0422246 -0.95805 -1.5286195 -1.0211934
-1.329756 -1.6820816 -1.1627545 -1.4276755

bias f4 [10]
00000000: 7c21 60be 62fb 91bf 64bb cdbf da71 05c0
00000010: f9d4 b1be f8eb 853e fbf1 10c0 c23b 1cbe
00000020: 5d5d bcbe 86ce 15c0
-0.21887773 -1.1404841 -1.6072812 -2.085074 -0.34732798 0.26156592 -2.2647693 -0.15257171
-0.3678998 -2.3407302

weight f4 [300, 10]
00000000: 5a49 3ebe eef7 8abe 59a2 ac3d 91ec df3d
00000010: f999 5d3e 9e1e 933c ef65 993e b9ba 17be
00000020: 7279 2ebe 50ce 81bd aa9d b8bd 0c33 31bd
00000030: 82f4 a5be 0d6f 00bf e9c7 a6be 988b 5cbe
00000040: 543a 693d 5662 1e3e 09c2 94be d110 a8be
00000050: 7372 833d 25c6 223e 4620 06be 7050 01be
00000060: f4e1 babd e24b 803e 0e94 a6be 1a21 d6bd
00000070: 3e67 84be d39a 6dbe c0c7 c2be fc5e b6be
00000080: 6db9 babe 9dde a2bd 2473 92be d47d 7abe
00000090: f13f 26be 3f2e 2abd d105 dcbe 6eb9 bcbe
000000a0: 9b68 e3bd 5ec0 4d3e b9d4 dd3d 0480 823c
000000b0: a5f2 2cbe c113 113c 186b 923d 6f6f 20be
000000c0: 0604 88bb 8ac3 4bbe f7fb cf3d c94e 993c
000000d0: b2ad 39be e97d a9bd b494 963e 7115 86be
000000e0: 675b 74bc 8bdc bdbd b033 0dbe 8d47 93be
000000f0: 550a 10be 8d2c 0b3d 983a f5bd 3814 083e
00000100: e0b7 2bbd 7f97 643e 21aa 053e 4d4e 323d
00000110: 7d39 9e3e 4256 22bc 85e5 703f c54a 873f
00000120: 1f69 703f 6ba2 163f a31b 313f d959 a23f
00000130: 5e20 5f3f f225 9c3f 30c4 7f3f ea99 663f
00000140: 7c0d 923f e1c0 6d3f 2f7d 443f 2009 653f
00000150: 70fa 973f b5a3 d03f 8750 533f 83fb 923f
00000160: 57ee c43f e376 4e3f 6dee 92be 9490 cabe
00000170: 03a9 b5be c00d d6be bfd1 8fbe 3e70 363e
00000180: c697 88bc 59fb 87bd c09a ab3d 5d77 cebe
00000190: fa5b 9bbe 7dc1 6ebe d462 acbd a8f4 3c3e
000001a0: 2b4e 77bd 7c48 c73d 1f6c 18be 98c3 e2be
000001b0: 22d6 243e aabb 49bd 5311 7dbe ec10 3cbe
000001c0: 17d8 51be 3f67 bebe 77ec ccbe b7c8 91be
000001d0: fc62 cdbe bad8 e7be 5ed4 3bbe 7ea0 12bf
000001e0: 4949 cf3d b01f 11bd 1bb9 dd3d 9ced 693c
000001f0: e80a 0f3e 74bc e63d 2a93 d93e 1a49 f9bd
00000200: 0dac 3abd 38f5 fa3d 0b18 253d 0a46 7f3e
00000210: eab1 bd3d 2600 0f3e a311 1b3e 8345 00bd
00000220: dfe3 9d3e 77db 7f3c 542f 933d f11b db3d
00000230: 5404 00be 73ce c2bd 45ff 2dbd 4740 b5be
00000240: 817c 9fbe c9ff 1c3d 788c edbd 6df8 90be
00000250: 6880 5abe 3b9d b9be fe4e 27bf 0fc8 10bf
00000260: ed0a edbe a202 12bf f733 11bf 1b06 31bf
00000270: fa32 2cbf 670a 22bf c708 26bf b566 46bf
00000280: ea67 56be 5fae 643e 69ff 783e 5c5c 18be
00000290: 4d69 31bd da73 20bd 1e74 4c3e 27b2 d4bd
000002a0: 3c19 8fbc 5c38 ccbd 7ad2 3abd 611b cbbe
000002b0: 2dda 8bbe 3380 abbe b87a 5dbe 9b13 23be
000002c0: 6171 d7be 26c8 b4be 9bc1 a8be 8361 ecbe
000002d0: d514 533f 0bbf c43e 6fb3 9f3e 92ed d53e
000002e0: ee0d d33e 0821 373f 1aba 063f f077 2b3f
000002f0: 1ae4 163f 0e7b 113f efc0 f5bd ed52 6abe
00000300: bb32 cf3d 463a c3bd a276 013e e1eb dcbd
00000310: 9b94 62bd 9962 1d3e 48e7 7f3d d5e9 673e
00000320: 1ae3 f5bb 564c f9bc fa75 a8bd 715e 743a
00000330: 88ca 683d d505 8abe 69ae 5bbe a0fe db3d
00000340: 0dc2 6c3c 582f fbbd 3e29 cc3e 8d0e d63e
00000350: 862f 2f3e 03f5 ba3b 3dc0 673d 60a0 73bd
00000360: a512 dd3e 3dd3 b83e f0a1 513c fa1f ca3d
00000370: e46e f2bc 830c 7439 172c 95be 4b2a bfbe
00000380: efdf eebd a543 803c 4a4b 20be 24a6 fdbd
00000390: 0508 3e3e 9855 3bbe 8027 d53d 167b 1c3e
000003a0: bc9b cd3e e991 973e c231 ee3c 822d 0c3f
000003b0: c996 68bd 3049 7bbd 1295 603e 020e 983d
000003c0: 81bd a53e aea7 1a3e 7c5c 90bd 39f1 283e
000003d0: 9b33 6a3e 29a5 353e 7194 503e 6f7a e53e
000003e0: ba06 993e 3e3f 073f 3b81 56be cf8a 24bd
000003f0: c543 81be 4728 76be 31a4 323e 5b80 983e
-0.18582669 -0.2714228 0.08429403 0.10933793 0.21640767 0.017958935 0.29960582 -0.14817323
-0.17038515 -0.06338179 -0.09014447 -0.043261573 -0.32413107 -0.5016945 -0.32574394 -0.21537626
0.05694039 0.154672 -0.29054287 -0.3282533 0.06418314 0.15895899 -0.13098249 -0.1262834
-0.091251284 0.25057894 -0.32534832 -0.10455532 -0.25860018 -0.23203592 -0.38043022 -0.35619342
-0.36469594 -0.07952616 -0.2860347 -0.24462062 -0.16235329 -0.04154801 -0.42973188 -0.36860222
-0.11103936 0.20092914 0.10831589 0.015930183 -0.16889437 0.008854807 0.07149333 -0.15667509
-0.0041508703 -0.19898811 0.1015548 0.018714326 -0.18132666 -0.082759686 0.29410326 -0.26188233
-0.01491437 -0.09270581 -0.13789248 -0.28765526 -0.14066441 0.033978034 -0.119740665 0.13288963
-0.041923404 0.22323416 0.1305318 0.043531705 0.30903235 -0.009908261 0.9410022 1.0569693
0.939104 0.5884158 0.69182795 1.2683669 0.87158763 1.219908 0.99908733 0.90078604
1.1410365 0.92872435 0.76753515 0.8946705 1.1873302 1.629996 0.8254475 1.1483005
1.5385236 0.80650157 -0.2869753 -0.3956343 -0.35480508 -0.41807365 -0.2808971 0.17816254
-0.016673934 -0.06639738 0.083791256 -0.40325442 -0.3034361 -0.23315997 -0.084172875 0.18452704
-0.06037728 0.09730622 -0.14884995 -0.4428985 0.1609731 -0.049251236 -0.2471364 -0.1836583
-0.20492588 -0.37188146 -0.40024158 -0.28473446 -0.40114582 -0.45282537 -0.1834273 -0.5727614
0.101214 -0.03543061 0.10826322 0.014277842 0.13969004 0.11266413 0.4249509 -0.12172146
-0.045574237 0.12253803 0.040306132 0.24929062 0.0926245 0.139649 0.15143447 -0.03131629
0.30837914 0.015616289 0.071867615 0.10698689 -0.12501651 -0.09512033 -0.042479772 -0.35400602
-0.31149676 0.038329873 -0.11599058 -0.28314534 -0.21338046 -0.3625277 -0.6535491 -0.56555265
-0.46297398 -0.5703527 -0.5671992 -0.6914994 -0.67265284 -0.6329712 -0.64857143 -0.7750047
-0.20938078 0.22332142 0.24316181 -0.14878982 -0.043313313 -0.039172985 0.1996617 -0.10385542
-0.017468087 -0.09971687 -0.045610882 -0.39669326 -0.27314892 -0.33496246 -0.21628845 -0.15925448
-0.4207869 -0.3530895 -0.3296021 -0.46168146 0.8245366 0.38427004 0.31191584 0.41782814
0.41221565 0.71534777 0.5262772 0.66979885 0.58941805 0.5682839 -0.1199969 -0.22883196
0.10117098 -0.09532599 0.12642911 -0.10787178 -0.055317502 0.15369643 0.062476426 0.22647794
-0.0075038793 -0.030431908 -0.08225627 0.0009321934 0.056833774 -0.26957574 -0.21453251 0.10741925
0.014450562 -0.122648895 0.39875215 0.41807976 0.17107973 0.005705477 0.056579817 -0.059479117
0.43178287 0.36098662 0.012794957 0.0986938 -0.029593892 0.00023274314 -0.291352 -0.37336954
-0.11663806 0.015657255 -0.1565372 -0.123852044 0.18557747 -0.1829437 0.10407925 0.15281329
0.40157878 0.29603508 0.02907646 0.5475694 -0.056784425 -0.061349094 0.21931866 0.07424547
0.32371143 0.15103027 -0.0704889 0.16498269 0.22871248 0.17738785 0.20369126 0.44819972
0.29887944 0.52830875 -0.20947735 -0.04017144 -0.25247017 -0.24038802 0.17445447 0.29785427
