mcspace/MCSPACE_paper/scripts/synthetic_benchmark/helpers/synthetic/base_run/Human/model.pt (torch, 283992 bytes, 36 tensors)

theta_params f4 [100, 58]
00000000: f672 31bf cda5 fec0 cda5 fec0 cda5 fec0
00000010: ded2 c63f cda5 fec0 6238 3340 cda5 fec0
00000020: 4443 683f cda5 fec0 cda5 fec0 cda5 fec0
00000030: b6c8 19c0 cda5 fec0 3011 0540 cda5 fec0
00000040: af38 473e 007a f2c0 6768 733e 7e86 e2c0
00000050: 89b2 bdbf cda5 fec0 cda5 fec0 ecba 6f40
00000060: 4b99 dabf 5aea 6940 aec0 69c0 cda5 fec0
00000070: cda5 fec0 cda5 fec0 cda5 fec0 cda5 fec0
00000080: cda5 fec0 cda5 fec0 cda5 fec0 cda5 fec0
00000090: cda5 fec0 cda5 fec0 cda5 fec0 cda5 fec0
000000a0: cda5 fec0 4d69 03bf cda5 fec0 cda5 fec0
000000b0: cd92 bbbf cda5 fec0 a3a2 b93f ae18 02c1
000000c0: 7b25 8bbf cda5 fec0 a415 eabf f637 7740
000000d0: b480 7ebf cda5 fec0 06e0 0240 cda5 fec0
000000e0: 90b6 e83e b557 9c3f fbd6 1740 8ea0 dec0
000000f0: 6006 91be c045 a4bf 8755 e1c0 4909 e13e
00000100: 5f1a e3c0 ce9b e7c0 1ad3 3540 7b0c 963f
00000110: 6a7b ddc0 e458 e7c0 fba6 e6c0 01e1 02c0
00000120: 813c a140 b7b9 9ec0 5cad a03f 7752 e5c0
00000130: 09ab eac0 3033 ddc0 9851 ab3e e458 e7c0
00000140: c00b e2c0 4b39 dcc0 d3e8 e0c0 4006 1a3f
00000150: e458 e7c0 e458 e7c0 e658 e7c0 3e7e e1c0
00000160: 41a0 c43f e79b d9c0 e07f 2f3e 2932 dec0
00000170: 5384 e1c0 ae2a 92bf 0883 fc3f e458 e7c0
00000180: e458 e7c0 c9e5 e4c0 743e 5bbe 61ea 88bf
00000190: d029 e1c0 e458 e7c0 3df6 babe 0f2c dac0
000001a0: 2ddc e5c0 e667 ac3f cc1d 0e40 e458 e7c0
000001b0: 3d91 3a3e d0ba 6fc0 2e1e b93f e458 e7c0
000001c0: 01fc a640 cb74 e6bf 1999 2640 774b 4e3f
000001d0: b66e fe3f 5f7a 8540 67bf 8140 9adf 8440
000001e0: 99a1 2840 334c 9140 09d8 2ec0 2c6a 9940
000001f0: dd5c 3d40 afa1 2e40 09fe 953f 9d9e 22c0
00000200: 101c e23f 0ed8 f9bf f142 7240 c9af 46c0
00000210: cfb4 7640 5e95 f83f 451e 0040 3361 7440
00000220: ceb5 b540 18f5 45c0 7f10 8640 24c1 4ac0
00000230: d8b2 45c0 c931 013f 916b 45c0 be80 2340
00000240: 83af 9640 b03d 4bc0 222b 7540 3c14 3dc0
00000250: b3e5 0440 2fec 7f40 ca91 48c0 1ae7 653e
00000260: 8a9b 5ac0 ae41 ff3f 44d6 45c0 c0aa 3d40
00000270: 097f c73f 1317 9540 b5db 32c0 44d6 45c0
00000280: 42a0 8cbf f0da 4140 eed5 8940 765a 8940
00000290: 5e3b 6a40 44d6 45c0 b0e6 8540 24c8 39c0
000002a0: abf7 4a40 7794 5ec0 da94 9b40 93b7 6e40
000002b0: 2a6c 4c40 fd62 7540 0812 e6c0 0812 e6c0
000002c0: 1bed 2f40 2c75 683f 0812 e6c0 0812 e6c0
000002d0: 0812 e6c0 65d2 b83f 1207 9e3f 0812 e6c0
000002e0: cb67 ea3d 0812 e6c0 29a1 b7c0 0812 e6c0
000002f0: 4546 6d40 b303 51bf 11ab 3040 1682 49c0
00000300: c003 133f 3ae5 77be 6b2b 0440 0812 e6c0
00000310: 440a 18c0 ca1f c0c0 0812 e6c0 5c6a 9e40
00000320: 8806 2cc0 0812 e6c0 cdf8 61be 0812 e6c0
00000330: 0812 e6c0 0812 e6c0 8f08 1a40 0812 e6c0
00000340: 0812 e6c0 0812 e6c0 9b46 5940 0812 e6c0
00000350: 0812 e6c0 03d0 7540 0812 e6c0 e76c efc0
00000360: 0812 e6c0 0812 e6c0 149b 3840 822e 5a3e
00000370: 2cfb 19c0 cbda 1a40 0812 e6c0 0812 e6c0
00000380: a5b9 1b40 0812 e6c0 d912 3240 0812 e6c0
00000390: 2024 e83f 0812 e6c0 77a1 7340 5768 d6c0
000003a0: dc3d 8f3f 10ae 873f 7e7e ed3e 7e18 d13f
000003b0: 4b30 00c0 ddf2 fec0 ddf2 fec0 ddf2 fec0
000003c0: a90a 943f e305 d13f 434b f1c0 ddf2 fec0
000003d0: badf 5ac0 ddf2 fec0 1de8 7540 9455 ba3f
000003e0: 3edd 9b40 2425 c53f ddf2 fec0 ddf2 fec0
000003f0: c4ad 2840 dcbe dcc0 397f fec0 d775 e8c0
-0.6931604 -7.9577394 -7.9577394 -7.9577394 1.5533102 -7.9577394 2.8003163 -7.9577394
0.9072764 -7.9577394 -7.9577394 -7.9577394 -2.4028754 -7.9577394 2.079174 -7.9577394
0.19455217 -7.5773926 0.23770295 -7.0789175 -1.482011 -7.9577394 -7.9577394 3.7457838
-1.7078031 3.6549287 -3.6523852 -7.9577394 -7.9577394 -7.9577394 -7.9577394 -7.9577394
-7.9577394 -7.9577394 -7.9577394 -7.9577394 -7.9577394 -7.9577394 -7.9577394 -7.9577394
-7.9577394 -0.5133255 -7.9577394 -7.9577394 -1.4654175 -7.9577394 1.4502758 -8.131025
-1.0870813 -7.9577394 -1.8287854 3.8627906 -0.99415135 -7.9577394 2.0449233 -7.9577394
0.45451784 1.2214266 2.3724964 -6.957099 -0.28325176 -1.2833786 -7.0416903 0.43952397
-7.096969 -7.237769 2.8410096 1.1722559 -6.921315 -7.229601 -7.2078834 -2.0449831
5.0386357 -4.9601703 1.2552905 -7.1663165 -7.3333783 -6.9124985 0.3346069 -7.229601
-7.0639343 -6.881994 -7.028421 0.60165787 -7.229601 -7.229601 -7.229602 -7.0466604
1.5361406 -6.800281 0.17138624 -6.943623 -7.047403 -1.1419275 1.9727488 -7.229601
-7.229601 -7.15305 -0.21410543 -1.0696527 -7.036354 -7.229601 -0.3651599 -6.8178782
-7.183127 1.3469207 2.2205687 -7.229601 0.18219467 -3.7457771 1.4462335 -7.229601
5.218262 -1.8004392 2.6030943 0.805839 1.9877536 4.171188 4.0546145 4.152295
2.6348631 4.5405517 -2.7319357 4.7942104 2.958793 2.7286184 1.171815 -2.540931
1.7664814 -1.951906 3.7853358 -3.104479 3.8547857 1.9420583 2.0018475 3.8184326
5.678443 -3.0930843 4.1895137 -3.1680384 -3.0890408 0.5046659 -3.0846903 2.5547328
4.708925 -3.17564 3.8307576 -2.95436 2.0765197 3.9987905 -3.1338983 0.2245144
-3.4157434 1.9941919 -3.0912027 2.9635468 1.5585643 4.6590667 -2.7946599 -3.0912027
-1.0986407 3.028988 4.3073645 4.2922926 3.6598735 -3.0912027 4.18441 -2.9028406
3.1713665 -3.4778116 4.8619204 3.7299545 3.1941018 3.8341668 -7.189701 -7.189701
2.7488468 0.9080379 -7.189701 -7.189701 -7.189701 1.4439207 1.2345908 -7.189701
0.11445578 -7.189701 -5.738423 -7.189701 3.707414 -0.8164627 2.760441 -3.1485648
0.574276 -0.24208537 2.06515 -7.189701 -2.3756266 -6.0038805 -7.189701 4.9504833
-2.6878986 -7.189701 -0.22067566 -7.189701 -7.189701 -7.189701 2.4067724 -7.189701
-7.189701 -7.189701 3.3949344 -7.189701 -7.189701 3.840821 -7.189701 -7.4820437
-7.189701 -7.189701 2.8844652 0.21306804 -2.4059553 2.419604 -7.189701 -7.189701
2.4332058 -7.189701 2.7824004 -7.189701 1.8136024 -7.189701 3.80673 -6.700237
1.1190753 1.0599995 0.46385568 1.63356 -2.0029476 -7.9671464 -7.9671464 -7.9671464
1.1565753 1.6329921 -7.540437 -7.9671464 -3.4199052 -7.9671464 3.842292 1.4557366
4.870757 1.540196 -7.9671464 -7.9671464 2.6356058 -6.8982983 -7.95303 -7.2643847

q_gamma_params f4 [99]
00000000: 594a 6840 6349 55bf 7f14 34c0 c7c6 5640
00000010: 57dc c2bf 3728 2140 bdfe 38c0 ff0b 28c0
00000020: 1376 fe3f 3efd 4040 4bd7 863f 44a7 0d40
00000030: db81 c43f 7e8f 8d3e 3694 8140 1c87 2040
00000040: dfe8 6b40 c7de 863f ca71 1440 f939 073f
00000050: bb55 0a40 e80a 6e40 07de 6140 f9d2 00c0
00000060: 2d3b 06c0 089f 0640 8bcf 5e40 6fa7 6440
00000070: 894a c93f 955b 7abf 88f1 5a40 9ec6 4240
00000080: acab 0c40 e743 1c40 3566 99bf 8f41 4640
00000090: 9950 ae3e f25b ff3f a404 1c40 a294 6a40
000000a0: f347 38c0 4459 8440 0eee 3140 317e 7440
000000b0: fe21 a63f 3a42 16c0 5493 6440 414d 5340
000000c0: 8cf9 7440 01e0 6d40 2c1d aabf 06d0 7140
000000d0: c170 1740 fc62 96be 7c14 0c40 70e5 b9bf
000000e0: 5071 1540 cf3c 5a40 47a0 7c40 975e c03f
000000f0: dd38 d93f 15cc 86bf 3c7d eabf 1d68 3d40
00000100: cbf7 bbbf 6f42 62bd 3e9d 2f40 102a 3e40
00000110: ca28 d4bf b527 1040 9f5f 2ec0 60d6 4fc0
00000120: 4384 44bf 592d 6940 76b7 0fc0 3246 05c0
00000130: 4239 87bf e4e3 47c0 c472 6640 ed5f dbbf
00000140: 0434 4040 2b6a 5a40 43eb 1d40 b8d2 7340
00000150: c3f9 5c40 868e 39bf ee94 2940 f840 4040
00000160: be0e 42bf edf7 2640 4b08 5f3d dce1 1e40
00000170: aa58 6340 4876 5cbf 1324 fd3f fe7e fc3f
00000180: 7977 6140 1c6e 31c0 c30d 77c0
3.6295378 -0.83315104 -2.813751 3.3558824 -1.5223492 2.5180795 -2.890548 -2.6257322
1.9879783 3.0154567 1.0534452 2.213334 1.5352129 0.27648538 4.049342 2.5082464
3.6860883 1.0536736 2.3194451 0.52822834 2.1614826 3.7194157 3.5291765 -2.0128767
-2.0973618 2.1034565 3.4814174 3.5727193 1.5725871 -0.97795993 3.420992 3.0433726
2.197978 2.4416444 -1.1984316 3.0977514 0.34045866 1.9949934 2.4377832 3.6653218
-2.8793914 4.1358967 2.7801547 3.820202 1.2979124 -2.3477921 3.5714922 3.3015902
3.8277311 3.716797 -1.3290153 3.7783217 2.366257 -0.29372394 2.1887503 -1.4523144
2.335041 3.4099615 3.9472826 1.5028867 1.6970478 -1.0531031 -1.8319468 2.9594796
-1.4684995 -0.055239137 2.7439723 2.9713173 -1.6574948 2.2524235 -2.7245862 -3.2474594
-0.76764315 3.6433928 -2.2455726 -2.0824094 -1.0564349 -3.1232843 3.6007547 -1.7138649
3.0031748 3.41273 2.4674842 3.8097363 3.4527442 -0.724831 2.649715 3.0039654
-0.75803745 2.6088822 0.05445127 2.4825354 3.5522866 -0.8611798 1.9776634 1.9726255
3.522917 -2.7723455 -3.860215

q_probs f4 [99]
00000000: f662 793f 4d5e 9b3e e301 683d 975f 773f
00000010: 3590 373e ebec 6c3f 67a5 573d d966 8a3d
00000020: 142f 613f 4a0b 743f 23ea 3d3f 05cc 663f
00000030: f5ba 523f 57c1 113f 1b9d 7b3f c1be 6c3f
00000040: 75bd 793f 2bff 3d3f 8a1f 693f 8b36 213f
00000050: cb94 653f c7f0 793f 93b5 783f b4a1 f13d
00000060: a434 e03d d02e 643f 855c 783f 3a02 793f
00000070: ef10 543f 362d 8c3e 43e6 773f e55a 743f
00000080: 0776 663f 3686 6b3f c6a6 6d3e 3bf1 743f
00000090: e7b8 153f 716a 613f c072 6b3f a69c 793f
000000a0: 2f0b 5a3d c1f8 7b3f f50d 713f 7c82 7a3f
000000b0: 3a30 493f 6fe0 b23d 0e00 793f 5ee9 763f
000000c0: 6f8c 7a3f d3ec 793f 98e9 563e b147 7a3f
000000d0: 0210 6a3f 7956 db3e 3f37 663f 328d 423e
000000e0: 0872 693f 7ed0 773f fc26 7b3f 9775 513f
000000f0: 3d6a 583f 86a6 843e d382 0d3e 5364 733f
00000100: e2e8 3f3e 4994 f93e 818a 703f 3c86 733f
00000110: b43b 243e 59af 673f f84e 7c3d 8d6b 193d
00000120: 64ae a23e 5879 793f a944 c43d db43 e33d
00000130: 9750 843e 08d0 2c3d 4d32 793f 577d 1c3e
00000140: 37e6 733f 16d6 773f 1bff 6b3f ec73 7a3f
00000150: 4925 783f fb4e a73e bf1d 6f3f bce9 733f
00000160: f48d a33e 3b77 6e3f 0194 033f de45 6c3f
00000170: b1de 783f 2770 983e 03ed 603f 68c5 603f
00000180: 5da9 783f 8a37 713d a71e a93c
0.9741663 0.30345383 0.056642424 0.96630234 0.17926104 0.9254901 0.052647974 0.06757898
0.8796246 0.95329726 0.7418539 0.9015506 0.82316524 0.5693564 0.982866 0.9247857
0.97554713 0.7421748 0.9106375 0.6297385 0.89680165 0.9763302 0.9715206 0.117984205
0.109475404 0.8913393 0.97016174 0.9726902 0.8283834 0.27378243 0.96835726 0.95451194
0.90023845 0.92001665 0.2320815 0.9568059 0.58485264 0.8805304 0.9197197 0.9750465
0.05323332 0.98426443 0.9416192 0.97855353 0.7858921 0.087342136 0.9726571 0.9644984
0.97870535 0.9762699 0.20987546 0.9776564 0.91430676 0.4283941 0.8992805 0.18999174
0.9118962 0.9680251 0.9810636 0.8182005 0.84537107 0.25908297 0.13819437 0.9507496
0.18741181 0.48745945 0.9396134 0.951267 0.160384 0.90501934 0.061598748 0.037456084
0.31773674 0.9745078 0.095834084 0.11096927 0.25842735 0.04219058 0.9734238 0.15282188
0.95273155 0.96811044 0.92186135 0.9783313 0.9693189 0.32677445 0.93404764 0.95278525
0.3194424 0.9315068 0.5139771 0.9229411 0.972148 0.29773065 0.8786165 0.8780122
0.9713343 0.058890857 0.020644499

gamma f4 [100]
00000000: 0000 803f 0000 803f 0000 0000 0000 0000
00000010: 0000 803f 0000 0000 0000 0000 0000 0000
00000020: 0000 803f 0000 803f 0000 803f 0000 803f
00000030: 0000 803f 0000 803f 0000 803f 0000 803f
00000040: 0000 803f 0000 803f 0000 803f 0000 803f
00000050: 0000 803f 0000 803f 0000 803f 0000 803f
00000060: 0000 0000 0000 0000 0000 803f 0000 803f
00000070: 0000 803f 0000 803f 0000 0000 0000 803f
00000080: 0000 803f 0000 803f 0000 803f 0000 0000
00000090: 0000 803f 0000 0000 0000 803f 0000 803f
000000a0: 0000 803f 0000 0000 0000 803f 0000 803f
000000b0: 0000 803f 0000 803f 0000 0000 0000 803f
000000c0: 0000 803f 0000 803f 0000 803f 0000 0000
000000d0: 0000 803f 0000 803f 0000 0000 0000 803f
000000e0: 0000 0000 0000 803f 0000 803f 0000 803f
000000f0: 0000 0000 0000 803f 0000 0000 0000 0000
00000100: 0000 803f 0000 0000 0000 803f 0000 803f
00000110: 0000 803f 0000 0000 0000 803f 0000 0000
00000120: 0000 0000 0000 803f 0000 0000 0000 0000
00000130: 0000 0000 0000 0000 0000 0000 0000 803f
00000140: 0000 803f 0000 803f 0000 803f 0000 803f
00000150: 0000 803f 0000 803f 0000 0000 0000 803f
00000160: 0000 803f 0000 0000 0000 803f 0000 803f
00000170: 0000 803f 0000 803f 0000 0000 0000 803f
00000180: 0000 803f 0000 803f 0000 0000 0000 0000
1.0 1.0 0.0 0.0 1.0 0.0 0.0 0.0
1.0 1.0 1.0 1.0 1.0 1.0 1.0 1.0
1.0 1.0 1.0 1.0 1.0 1.0 1.0 1.0
0.0 0.0 1.0 1.0 1.0 1.0 0.0 1.0
1.0 1.0 1.0 0.0 1.0 0.0 1.0 1.0
1.0 0.0 1.0 1.0 1.0 1.0 0.0 1.0
1.0 1.0 1.0 0.0 1.0 1.0 0.0 1.0
0.0 1.0 1.0 1.0 0.0 1.0 0.0 0.0
1.0 0.0 1.0 1.0 1.0 0.0 1.0 0.0
0.0 1.0 0.0 0.0 0.0 0.0 0.0 1.0
1.0 1.0 1.0 1.0 1.0 1.0 0.0 1.0
1.0 0.0 1.0 1.0 1.0 1.0 0.0 1.0
1.0 1.0 0.0 0.0

KL_gamma_k f4 [99]
00000000: ca7f 7b47 15ae 9c46 a8f5 6945 0678 7947
00000010: 7e1c 3946 91ee 6e47 dc75 5945 1391 8b45
00000020: 2917 6347 751c 7647 8385 3f47 53c0 6847
00000030: 9683 5447 d0fc 1247 cbbe 7d47 02c0 6e47
00000040: 0edb 7b47 b99a 3f47 e818 6b47 9393 2247
00000050: 7286 6747 cf0e 7c47 ebd0 7a47 ebaa f345
00000060: 3418 e245 6b1d 6647 1b77 7a47 391e 7b47
00000070: 78dc 5547 185c 8d46 d7ff 7947 bd6c 7647
00000080: 9969 6847 ce84 6d47 18a8 6f46 5a04 7747
00000090: fcfc 1647 0753 6347 2e71 6d47 f7b9 7b47
000000a0: d1e0 5b45 391b 7e47 9b18 7347 c2a1 7c47
000000b0: 1be4 4a47 1062 b445 081c 7b47 ca00 7947
000000c0: cbab 7c47 d30a 7c47 b4b9 5846 7766 7c47
000000d0: 6c0b 6c47 de30 dd46 472a 6847 4031 4446
000000e0: 196c 6b47 e3e9 7947 ab47 7d47 743b 5347
000000f0: 3b3f 5a47 1cc5 8546 2cb4 0e46 1274 7547
00000100: 3a87 4146 43b0 fb46 0994 7247 4596 7547
00000110: 2f9e 2546 95a5 6947 8c6e 7e45 c7b5 1a45
00000120: 020e a446 5c96 7b47 dceb c545 082e e545
00000130: 736e 8546 1544 2e45 b64e 7b47 13cf 1d46
00000140: 11f7 7547 87ef 7947 bcfe 6d47 1393 7c47
00000150: 673f 7a47 a1b8 a846 2b24 7147 9efa 7547
00000160: 77ef a446 3d7c 7047 b8b0 0447 1846 6e47
00000170: 62fa 7a47 97b9 9946 86d4 6247 95ac 6247
00000180: 9ac4 7a47 2d3f 7345 468a aa44
64383.79 20055.041 3743.3535 63864.023 11847.123 61166.566 3479.3662 4466.1343
58135.16 63004.457 49029.51 59584.324 54403.586 37628.812 64958.793 61120.008
64475.055 49050.723 60184.906 41619.574 59270.445 64526.81 64208.918 7797.3647
7235.0254 58909.418 64119.105 64286.223 54748.47 18094.047 63999.84 63084.74
59497.598 60804.805 15338.023 63236.35 38652.984 58195.027 60785.18 64441.965
3518.051 65051.223 62232.605 64673.758 51940.105 5772.258 64284.03 63744.79
64683.793 64522.824 13870.426 64614.465 60427.42 28312.434 59434.277 12556.3125
60268.098 63977.887 64839.668 54075.453 55871.23 17122.555 9133.043 62836.07
12385.807 32216.13 62100.035 62870.27 10599.546 59813.582 4070.9092 2475.361
20999.004 64406.36 6333.4824 7333.754 17079.225 2788.2551 64334.71 10099.769
62967.066 63983.527 60926.734 64659.074 64063.402 21596.314 61732.168 62970.617
21111.732 61564.24 33968.72 60998.094 64250.383 19676.795 58068.523 58028.582
64196.6 3891.9485 1364.321

weight f4 [50, 58]
00000000: d79f 4fbd e0f6 3c3e 7b30 72be ca1f b23d
00000010: 1723 f5bd cdff 843d 268c cb3e bead 5b3e
00000020: 7c39 70bd 0bdf a0bd 2e82 603e 61ed 0a3e
00000030: 7ed3 38bd 3fbf 4f3e e8de 7cbe f2e2 7e3e
00000040: 7835 69be 1534 173e a1f7 e03d 49bf e43e
00000050: 7331 91be 8e95 b43d 4889 143e 7e56 d3be
00000060: 538b 293e 12d3 0abe 5c18 8f3e 84ba 313d
00000070: 773f 8a3e 84e1 363e 6f90 d93d de28 9f3e
00000080: 454b 42be ec8e 883e e8b9 573e 557e f33d
00000090: 0301 8c3e eb9b 013e 9a03 533e 780f 9cbc
000000a0: 5a24 793e ae9c 68be 4c1e 803e 1876 3f3e
000000b0: ed48 563e 8fe5 6b3d 367b 0a3d b36d 83be
000000c0: 19c5 a5be 2772 833e 2cca 02be deee 663e
000000d0: 0123 fabd 0c2e 243e 7602 dfbc d0ed 823d
000000e0: b791 13be fa4b 8dbe f092 dcbc a0d4 023e
000000f0: 47e2 04be 8061 863d 7f80 03be c7a9 c43d
00000100: c590 883e 9551 d33d 7fac 64bd 060c 88bd
00000110: 857f 983e c367 8b3d b0c1 8fbd 64c1 a43d
00000120: 6f01 88be baff 7d3e 9fd8 07be 5b3f 783e
00000130: 94e2 d83d d199 cb3d cdc5 d6bd 0ba7 043e
00000140: 61cd 8c3e 189c 7cbe a1ca 853e c4d6 b9bd
00000150: 7048 ee3d d04d 593e e25a 493e c370 183e
00000160: 59fb 853e ea06 853e ff41 95be 16ee e33d
00000170: f4b9 913e 4bee 023e d064 133e 800a 353d
00000180: 2685 db3d da12 12bd a2e8 203e 0790 4cbe
00000190: 34d7 423e 974b 323d 08ed c43d b0f7 5c3d
000001a0: 65c7 6b3d 0ad0 88be e851 87bd e9e9 533e
000001b0: 3cd1 0ebe 1cc5 6b3d 54fd 82be c6f5 0c3e
000001c0: 57aa 1bbe 70b8 8b3d cee0 10be b2ba 7abe
000001d0: 4c09 3dbd 8f69 083e f1cb 50be 0339 c73d
000001e0: b33b 94bd 47f0 d63d 941a c43e a8d7 c73d
000001f0: 2959 b1bd 1b03 d0bd f79b 963e f5e7 533e
00000200: 1024 aebd f125 ac3e 4f90 73be e930 753e
00000210: 93b3 9cbe c4a7 963d d8d7 903e 7332 bd3e
00000220: d0b3 f1bd 4714 453d 3676 d13e 4729 b3be
00000230: f4d3 0a3e 9251 1cbe 4e8a 6c3e 5b76 933e
00000240: 16d6 ad3e bd00 6e3d d095 463e 903a 3c3e
00000250: e8de 92be 166f 8b3d 1e2e f93e f250 a33d
00000260: ea5b b23e 80db 853e 12de 4b3e 55fc 93bc
00000270: b9ac a33e f0b1 63be dcac 4e3e 297b 0d3e
00000280: 2b78 8a3e c40e 6d3d 1e73 2e3e c919 d1bd
00000290: 1f3a 69be 8c73 a83d a851 87be 7e57 2f3e
000002a0: e521 f3bd 0f94 113e 4d54 7fbe 7cdf 133e
000002b0: f52b 12be 597f 06be 98db 1ebc 087a b93c
000002c0: a4c9 c7bd d709 e13c 63cf 25bd b37a c53d
000002d0: 88b3 5c3e eb1b 413e 8d9d a4bd e6b3 a5bb
000002e0: a7cd e43d 32e3 263e e2fa 5ebc 2796 bb3d
000002f0: 3f04 1fbd 82c5 723e 14b6 28be 856b a13d
00000300: 6403 0b3e 1e24 013e 730c e5bd 5782 463e
00000310: 39b6 643c b421 4ebe 1749 8a3e 3e88 77bd
00000320: 8fc3 163e 4d70 833d 8b94 753d f2e6 113d
00000330: 692f ec3d 5c39 253e 0bbb 0dbd 13bc 503e
00000340: 00b3 de3b 0bb4 7d3d 4751 ba3d 09a2 813e
00000350: c0a2 343e a1dd 533c 07eb 4e3e 8eab 31be
00000360: 8fed 833d 24dc 1b3e 1659 a13d baf3 743d
00000370: ed20 d2bb 8d31 b8bc 5727 c7bc f9c2 523e
00000380: 61f4 83be 4cf9 4a3c feee 70be d941 753e
00000390: e44a aebd ad2b 753e 51fc bcbd 70f2 d4bd
000003a0: 2fcd 3abd a66e 36bc b9e4 5cbe c115 73bc
000003b0: 58c2 4d3b 86c1 d23c c18e cd3d 702f b4bb
000003c0: 349d c9bd 839d 1cbc de9f 003c b18f 0e3e
000003d0: d850 193c 4e9d 193e 7c08 0bbe 6696 0bbd
000003e0: 1d65 edbd 3b60 03bb df41 fb3c 4bca 70bd
000003f0: 457c 01bc 37f1 513c 0068 0d3e c41d 9f3d
-0.050689545 0.1845355 -0.23651306 0.086974695 -0.119695835 0.064941026 0.39755362 0.21452996
-0.05864857 -0.07855042 0.2192466 0.13567115 -0.04512357 0.20287798 -0.24694407 0.2489126
-0.22774303 0.14765961 0.109847315 0.4467719 -0.2835804 0.08817588 0.14505494 -0.41276926
0.16557054 -0.1355708 0.27948272 0.043390766 0.27001545 0.17859465 0.10623252 0.31085867
-0.18974026 0.2667154 0.21067011 0.1188933 0.27344522 0.12657134 0.20606843 -0.019050345
0.24330273 -0.22716019 0.25023115 0.18697393 0.20926256 0.05759197 0.03380891 -0.2566963
-0.32376936 0.2567303 -0.12772435 0.22552058 -0.12213708 0.1603319 -0.027222853 0.063930154
-0.14411055 -0.27597028 -0.026925534 0.12776423 -0.12976943 0.065615654 -0.12841986 0.09602695
0.2667295 0.10318295 -0.055828568 -0.06642918 0.2978479 0.068069 -0.07019365 0.08044699
-0.26563594 0.24804583 -0.13266228 0.24242918 0.10590091 0.099414475 -0.10486946 0.12954347
0.27500442 -0.2466892 0.26131156 -0.090741664 0.1163491 0.2122109 0.19663575 0.14886765
0.26168326 0.25981838 -0.29151914 0.11129396 0.28462183 0.12786214 0.14393926 0.044199467
0.107187554 -0.03566251 0.15713742 -0.19976817 0.19027406 0.04352912 0.096155226 0.05394715
0.057563204 -0.2672122 -0.06607419 0.20694698 -0.13947004 0.057561025 -0.255839 0.1376563
-0.15201698 0.06822288 -0.14148256 -0.24485281 -0.046151444 0.13321517 -0.20390297 0.09727671
-0.07237949 0.10495048 0.38301528 0.0975793 -0.08659584 -0.10156842 0.29415867 0.20693953
-0.08502972 0.33622697 -0.23785518 0.23944439 -0.30605754 0.073562175 0.28289676 0.36952552
-0.11801875 0.04811504 0.409105 -0.3499243 0.13557416 -0.15265492 0.23099634 0.28801236
0.33952397 0.058106173 0.19393086 0.18381715 -0.2868569 0.06808297 0.48667997 0.079744235
0.3483575 0.26144028 0.19908932 -0.018064657 0.31967714 -0.22235847 0.20183128 0.13816513
0.27044806 0.05787541 0.17036101 -0.10209996 -0.22776078 0.08225164 -0.26429486 0.1712322
-0.11871699 0.14216636 -0.24934502 0.14440721 -0.14274581 -0.13134517 -0.00969591 0.022641197
-0.09755257 0.027470512 -0.040480983 0.09642544 0.2155286 0.18858306 -0.08037863 -0.005056846
0.111720376 0.16297606 -0.01360962 0.09159499 -0.03882241 0.23708156 -0.16475707 0.07881836
0.13575512 0.12611434 -0.11184015 0.19385658 0.013959461 -0.20130044 0.27008888 -0.060432665
0.14723037 0.06417904 0.059956115 0.035620637 0.1153248 0.16135162 -0.034602206 0.20384245
0.006796241 0.06193928 0.09097534 0.25318936 0.17640209 0.012931258 0.20206843 -0.17350599
0.06441795 0.15220696 0.0787832 0.05980275 -0.0064126165 -0.022484565 -0.02431075 0.20582189
-0.25772384 0.012388539 -0.23528668 0.239509 -0.08510378 0.23942442 -0.09227813 -0.10397804
-0.045605835 -0.011134779 -0.21571626 -0.0148367295 0.0031396355 0.025727045 0.10036994 -0.005498819
-0.09844437 -0.009559038 0.007850615 0.13922001 0.009357654 0.15001413 -0.13577455 -0.034078978
-0.115915515 -0.0020046372 0.030671058 -0.05878667 -0.007903163 0.012813858 0.13809204 0.07769349

bias f4 [50]
00000000: b4c4 18be 9456 69be 2233 7abe 6f3a e5bd
00000010: 2531 25bd 00e5 0f3d 5cec 3abe d745 f3bd
00000020: 981f e7bd 124e 6dbe 5359 5fbe 4ab1 dabd
00000030: aa34 53be 1980 9c3e 2a86 c5bd c791 b4bd
00000040: 8128 34bd 44ec 8ebd e96b 3ebd 81b5 febc
00000050: 060c 04be 35d1 47be 7956 6dbe b9fa a8bd
00000060: 2126 f6bc 7e6d 3b3c 7c1a 45be 4c6a febd
00000070: 7b75 99be 8646 03bd dc9f 53be e127 21be
00000080: 4c66 2bbd bfee c1bd c46c 4cbe 4305 ebbd
00000090: d057 2fbe ec92 1dbd ea49 98be 6062 aabd
000000a0: 09f2 72bd e4d7 1fbe d5e7 22be 26ae 15bd
000000b0: eab1 71bd 6fa5 a1bc 179c b0bd 735f 6bbe
000000c0: b0c4 d0bd 1834 cebd
-0.14918786 -0.22786933 -0.24433568 -0.11192786 -0.04033007 0.0351305 -0.18254226 -0.11878555
-0.11285323 -0.23174313 -0.21811418 -0.106783465 -0.20625558 0.3056648 -0.096447304 -0.08816867
-0.04398394 -0.06978658 -0.04648963 -0.031092407 -0.12895212 -0.195134 -0.23177518 -0.082509466
-0.030047478 0.011439679 -0.19248384 -0.12422618 -0.29972443 -0.03204968 -0.2066645 -0.15737869
-0.041845605 -0.09469365 -0.19963366 -0.11475613 -0.17123342 -0.038470194 -0.29743892 -0.08319545
-0.059312854 -0.156097 -0.1590875 -0.036543034 -0.059007563 -0.019732205 -0.08623522 -0.2298563
-0.10193765 -0.1006853

weight f4 [50, 50]
00000000: 9e4f 73be f32c 72bd 6310 40be e72c 79be
00000010: fdb3 31be 0db3 5cbe a93a 2cbe 1980 45be
00000020: 47f5 aabd 2333 33bc d184 0fbe 8d9e 73be
00000030: 14b4 25be 9bae 18bf 30d6 88be 8dfa 30be
00000040: 1cdd 54bd 8602 84be 7d6e 31be 9bcf 85be
00000050: 59fc b1be 4849 37be 3b26 c4bd bb6e 18be
00000060: 3d50 86bd c20b 30be 92f8 b1bc 2539 c8bd
00000070: 63ff 02be 23fd 5bbd 5772 4abe 95ea f4bd
00000080: 023c 3dbd f61f 3cbe 2fd5 e9bd bab3 c8be
00000090: 02f5 97be 9500 11be 7fa5 a2bd 7817 18be
000000a0: 0416 a3bd 0675 61be 36e3 87be 3d7d aabc
000000b0: 6489 9fbe 15bc c7bd 1032 583c 6c11 cbbc
000000c0: 2be6 9bbd 70ac 79be 63b4 12be 4ae4 4ebe
000000d0: 60b2 2ebe 8152 afbd 6602 85be b361 a9be
000000e0: 538c 82be 25d2 21bd 12ba 46be b4e7 4bbd
000000f0: b27b c5bd 97dc 96be 79dd 11be 1ef0 f9be
00000100: 67c5 b0bd ee25 f0bd fc25 8ebe f57a 80be
00000110: c18e c1bd ad68 9dbe 206e 7abe 03b2 35be
00000120: e0fc 48bd 530b 06be 3255 97be d765 b0be
00000130: 2560 7ebc 1895 17be 274d b7bd be54 6abe
00000140: 2fbf d6bc 8890 89be c43a 3fbe 81d2 e5bd
00000150: 1366 46be b0ff e5be 2775 6ebe 68f8 31be
00000160: 4767 48be d3d4 afbd 20f1 8fbe e36c 35bd
00000170: 7efc c2bd f559 fbbd 9bdc 7cbe c812 87be
00000180: 4ac5 48bd c1e3 fcbc 9655 cbbc 63ac 03be
00000190: 14ab c9bd 2acc 12bc a449 d8bd 6b13 7dbe
000001a0: e51b 9cbe 2808 0abe aed6 9ebd 4d01 d33b
000001b0: 9003 6fbe 63d9 eabd b502 2dbe acee 3abe
000001c0: 77c9 a0bd f42f 15bf 3f42 58bd 43b6 a4bd
000001d0: 4928 72be f28a 9cbd cb39 4abe 26ca 2bbe
000001e0: 7f89 82be 88f5 92be 1200 f3bd d9c1 71bd
000001f0: 1f41 35be 001b 9bbe e851 febd 9be9 01be
00000200: ab1e 47be 2dd1 7ebe 8991 4dbe e724 5fbe
00000210: 818e a0bd 42b0 12bc 95e4 07be d70d 80be
00000220: 3a8d c7bd 8c7e 58be 1499 27be f88e 2cbd
00000230: fb19 12bd 349d bcbd 6397 9dbe 20fa 7abd
00000240: ac1c 97be 36f7 6bbd b3fc c5bd 3405 c6bd
00000250: f1ab 89be 2a51 37be bdc5 00bd e176 e53b
00000260: 5b8b f9bd 7f5a 373d 1fca 04bd a06a cabd
00000270: dbd6 2fbe ed0d a0bd ac36 5abd f073 8bbb
00000280: a64e 46be 9555 b8bd 06ff 28be 3eb2 643c
00000290: 2e8d adbd 0c94 19be c96d 91bd 571a a7bd
000002a0: 132a 39bc e9b7 e4bc 0ad1 8e3d 0bc3 cbbd
000002b0: 908a 33be 5d90 dabd af39 4fbd f113 bb3d
000002c0: f910 e9bd 1999 d43c b152 f03a c999 edbd
000002d0: 0084 e2bd 7db6 79bd b6e0 7cbd 9bf0 2cbe
000002e0: cb64 22bd dfba da3c 30f4 dfbd 485a 11be
000002f0: b8d3 70be 4149 1abe beda 47bd e987 c6bd
00000300: 5352 3c3d a012 4ebe f242 b2bc f99a 47be
00000310: 6944 00be 1a0c 23bd 5f92 30be 2717 6b3c
00000320: 05df b2bd 4666 363d 8f0a b9bd 9dfb 0f3d
00000330: 5735 cb3d 3be4 29bd d4e1 f4bd 8066 10bb
00000340: f50d cfbd 93e6 d63c c7a4 3cbe 2e5a 813d
00000350: 2216 dabd 24b4 ecbd 4577 183d eda2 c8bd
00000360: 2958 813d 46c1 d83c 22b8 a73d c5fa e5bd
00000370: 9ce0 3d3c f993 b7bd c9f5 a7bd 4dfb 0bbe
00000380: 208b 3a3c c7c9 8d3b 7d33 14be d3fc 22be
00000390: 01ed 1cba 974e a9bd b966 603c 96f0 a33c
000003a0: d841 46bd e787 eabd 8f3a 8fbd de3e 34bc
000003b0: 603a eebd 077c c93c 2bf2 2abe 8365 f53b
000003c0: 8316 d3bd fd23 cabb e411 8a3d a940 1bbe
000003d0: 81a6 ad3d 73ab 64bd e0d1 4ebe 53ed b0bb
000003e0: 6751 c73c 6460 443d be35 92be 33c4 b7bc
000003f0: 750c ccbc 0d18 28bd d8ba 15be a10f 9abe
-0.2376084 -0.0591249 -0.18756251 -0.24333535 -0.17353816 -0.21552677 -0.16819252 -0.19287147
-0.08347564 -0.010937485 -0.14015509 -0.23790951 -0.16181976 -0.59641427 -0.26725912 -0.17283078
-0.05196868 -0.25783175 -0.17327304 -0.26134953 -0.34762838 -0.17899048 -0.095776044 -0.1488599
-0.06558273 -0.17191985 -0.021724973 -0.097765245 -0.12792735 -0.053708207 -0.1977018 -0.119588055
-0.046199806 -0.18371567 -0.11417615 -0.3919962 -0.29679114 -0.14160378 -0.07941722 -0.14852703
-0.079631835 -0.22017297 -0.26540536 -0.020811671 -0.31159508 -0.09752671 0.01319553 -0.02478858
-0.076122604 -0.24382186 -0.14326625 -0.20204273 -0.17060232 -0.08560658 -0.25978392 -0.3308235
-0.25497684 -0.03950705 -0.19406918 -0.049781516 -0.09642734 -0.29465172 -0.14244641 -0.48816007
-0.086314015 -0.117259845 -0.27763355 -0.2509381 -0.09451056 -0.30743924 -0.24456072 -0.17743687
-0.049069285 -0.13090257 -0.29557186 -0.34452698 -0.015525852 -0.14802969 -0.089502625 -0.22883889
-0.02621421 -0.2686808 -0.18674761 -0.11221791 -0.19374876 -0.44921637 -0.23286878 -0.17379916
-0.19570647 -0.08585515 -0.2811365 -0.044293296 -0.09520815 -0.12273017 -0.2469353 -0.26381516
-0.049016275 -0.03087032 -0.024821084 -0.12858729 -0.09847084 -0.008959809 -0.10560921 -0.24714439
-0.30490032 -0.13479674 -0.07755791 0.006439364 -0.23341203 -0.114672445 -0.16895564 -0.18255109
-0.07850926 -0.58276296 -0.052797552 -0.08042576 -0.2364818 -0.07643689 -0.19748609 -0.16776332
-0.25495526 -0.2870295 -0.11865248 -0.05902276 -0.17700623 -0.30294037 -0.12417966 -0.1268677
-0.19445293 -0.24884482 -0.20075049 -0.21791421 -0.078396805 -0.008953156 -0.13270791 -0.2501056
-0.09743734 -0.21142024 -0.16366988 -0.042128533 -0.03566931 -0.092096716 -0.3077956 -0.061273694
-0.29514062 -0.057608806 -0.09667339 -0.09668961 -0.26888993 -0.17902055 -0.031438578 0.007002697
-0.12184783 0.04476404 -0.03241932 -0.09883618 -0.17171805 -0.07815156 -0.053274795 -0.004255764
-0.1936594 -0.090006985 -0.16503534 0.013958512 -0.084741935 -0.14997882 -0.07101018 -0.08159321
-0.011301535 -0.027919726 0.06973465 -0.09949311 -0.17533326 -0.10672066 -0.05059212 0.09134663
-0.113801904 0.025951909 0.0018335191 -0.11601598 -0.11060333 -0.06096505 -0.06173774 -0.16888659
-0.039646905 0.026700435 -0.10935247 -0.14194596 -0.23518264 -0.15067007 -0.048792593 -0.096938916
0.045976948 -0.20124292 -0.021760438 -0.19492711 -0.12526096 -0.039806463 -0.17243336 0.014348782
-0.08733944 0.04453113 -0.09035217 0.035152066 0.09922283 -0.041477423 -0.11957136 -0.002203375
-0.10110084 0.026232993 -0.18422233 0.063160285 -0.10648753 -0.115577966 0.03722312 -0.097967006
0.06315643 0.026459347 0.081894174 -0.11229471 0.011589196 -0.089637704 -0.08201177 -0.13670082
0.011385709 0.0043270322 -0.14472766 -0.15916757 -0.0005986244 -0.08266943 0.013696366 0.020012181
-0.048402637 -0.114517026 -0.06993591 -0.011001317 -0.11632228 0.024595274 -0.16693942 0.007488908
-0.10307028 -0.006168841 0.067416936 -0.15161385 0.08479024 -0.05582757 -0.20197248 -0.005399385
0.024330808 0.047943488 -0.28556627 -0.022432422 -0.024908284 -0.04103856 -0.14622056 -0.3009005

bias f4 [50]
00000000: 1955 ccbe 56e0 8fbe 19cb f7be 5fcd a0be
00000010: be1d febd e511 06bf 4952 d9be 8a5e b1be
00000020: ff12 cfbe b0cd 80be f15c 8abe 8c5e 0cbf
00000030: 9b1d d5be 4bf5 c5be 099e d7be 15ce d5be
00000040: c2dc b5be 399d 9abe 8a8e 9fbe a1b1 80be
00000050: 99d4 aebe d76b ecbe f9a7 cfbe 123d c5be
00000060: c2c2 f2be 6e5c 4dbe 0313 b3be 83f3 d9be
00000070: 1296 c3be 8723 54be 80e9 cabe 1f2f a9be
00000080: fae8 f7be 2878 b8be 63ca fabe 21fe b5be
00000090: 6c5c fabe 38cd a5be d29b c8be e0e3 99be
000000a0: 3a4c cebe 39f0 a5be e6ad c8be f51f 6ebe
000000b0: c14d 93be a82f 0bbf ecc8 d2be ca7d 81be
000000c0: f124 c2be 38bf cfbe
-0.39908674 -0.28100842 -0.4839714 -0.31406686 -0.124080166 -0.52371055 -0.4244559 -0.3464244
-0.4044418 -0.25156927 -0.27024034 -0.5483177 -0.4162415 -0.38663706 -0.4211276 -0.4175879
-0.35519987 -0.30198076 -0.31163436 -0.2513552 -0.34146574 -0.46176025 -0.4055784 -0.38523155
-0.47414213 -0.2005479 -0.34975442 -0.42568597 -0.38200432 -0.20716678 -0.3963127 -0.33043763
-0.48419935 -0.36029172 -0.48982534 -0.35545447 -0.48898637 -0.32383132 -0.3918138 -0.30056667
-0.4029253 -0.32409838 -0.39195174 -0.23254378 -0.2877026 -0.5436959 -0.41168916 -0.25291282
-0.3791881 -0.40575576

weight f4 [100, 50]
00000000: 86fb afbb a3fc aebd 231d 80bd 3780 44bd
00000010: 3102 973c abff acbd aa47 b1bd ceed c2bc
00000020: 5456 b5bd 7389 993d c45c 2f3d 3f1f 1ebd
00000030: d8fc b1bd e94c aabb 3ad7 993d 3b13 bd3c
00000040: 3670 80bc 372d f1bd 479c 21be 17f6 8cbd
00000050: 8811 47bd 2214 763d 7a0f 10ba 1d62 56bd
00000060: 023d 9cbd 8567 5bbd 92f1 ddbd 10c1 a6bd
00000070: 95ad 4abc b8ff 4e3d 375c 823d 7596 3f3c
00000080: fa96 04be 723d b03d 7306 b23d c5f7 afbd
00000090: ebc3 54bd 2363 8e3d 8244 a3bd a3d1 9b3c
000000a0: e17c 58bc c15d 3f3d 342f ee3a bd25 5e3d
000000b0: c74e 893d ebdb f4bd bb0d 233d 0f17 9abd
000000c0: e994 d0bd 1289 7cbc fc52 cf3b ea9a 83bd
000000d0: 2b53 b8bd 4548 f33b 7f88 8a3d 8837 a33d
000000e0: 1471 c43d 5d0e b93d ff56 f13d 2427 8abd
000000f0: 368a 0fbd 4cee 633d 2c94 07bc 7d49 0a3e
00000100: 689d 1b3d 72e3 ea37 d799 fe3d 98e5 963d
00000110: a9f2 003e b28a f23d 1da8 3c3d 5f19 013e
00000120: 3d39 1b3d b02c fa3c 7fa3 4c3d dc34 87bd
00000130: aeef 35bd 1c52 073e 6318 96bd 10f7 d23d
00000140: 811e f83d d1c2 95bd 668d 263c 9eeb 283d
00000150: c3d7 d13d 399f e6bc de01 f33d b095 aebd
00000160: a715 db3d 879d 993d a9fd 1cbd 1a4a 793c
00000170: 9e64 97bd 7967 883d 9372 523d 9990 babc
00000180: 499b f53d b952 3ebc 987b 863b 2105 d53d
00000190: 8c5d 983c 5300 923d 08ce 963d be65 8fbd
000001a0: 420a cfbc 03fe e93d 8b5a 9dbd a04d 74bc
000001b0: 5d3e b33d e68a 003c 4248 d6bc 28ee 713d
000001c0: dc13 00be 49e2 b23d 8334 c53d ad9d 20bd
000001d0: a8f0 58bd caf9 5ebc 5124 023e 67c1 58bd
000001e0: 83a2 893c c567 e6bd cfab 263d 7d30 8a3d
000001f0: 1ca0 083d 3d20 42bc b7fb 2b3c 0a63 da3d
00000200: 757d 843d 04ac 12bd 0771 ffbd cf49 c63d
00000210: 54cb 44bd 19a0 a03d 2e49 34bc eb06 2b3c
00000220: fb9c aabd 34e4 32bd 2e27 b0ba b6ff e4bd
00000230: b778 78bc b8c8 423d d8ae c93d 66a1 943d
00000240: 94df 03bd 8d7c 9b3c 7ec1 acbd 4fd1 8c3d
00000250: 8546 b23c 3825 003e 27a6 06bd f183 ef3d
00000260: 9623 453d 1209 873d f835 abbd cde7 e9bd
00000270: 0568 bebd 427e 04be 5478 bebc 47d7 06be
00000280: 85dc a9bd 779f 6a3d 350f a93d 01c0 83bd
00000290: 3e5d 663d 4081 14bd 71c0 e0bd f80b 14bd
000002a0: 9fc3 7fbd 8595 3ebc 0174 d5bc 2be0 a9bd
000002b0: 01ad 423d a417 bfbd 3a37 d0bd 7d10 903c
000002c0: f57d 27bd 5286 8bbd 4190 ffbd 9ae3 b3bd
000002d0: 0398 26be ea84 463d aaa5 1bbd e820 3d3d
000002e0: fb83 5d3d b52b 66bb 6040 fdbc d0ce b1bd
000002f0: 9aea aa3a 7530 03be 2ea1 99bd a3c1 fa3c
00000300: 20a3 26bd 7fdb 5e3d ba76 7a3d d117 23bd
00000310: 6df5 e3bd 164a ae3d 88c3 67bb b938 f03d
00000320: 402c e4bd 52f4 ae3c 47d1 d5bd 662d 4fbd
00000330: 934d d7bd c516 efbd 19b4 9ebc ef86 8a3d
00000340: 40a1 3c3c f2a3 b5bb 24a8 b93d b04d 0f3d
00000350: fd26 80bd 84de 9e3d ee3a a83d 8f1e 963d
00000360: 4083 993d 9b22 ef3d 6a87 5bbd 9b50 e2bb
00000370: f7fe 20bd 82ce a5bc 3dbc b33d cd14 a6bd
00000380: ec2c 8a3d 64ac 9bbd 2f8e 23bc 5890 81bc
00000390: eb5b 69bd 3909 1dba 1f64 72bd 2208 d43d
000003a0: 6e4a 63bd 5716 543d 8450 d0bc 1b7f c4bd
000003b0: 0ab5 8b3d 8467 c1bc 9210 0ebd acae 9b3c
000003c0: 8abc a93b 33a6 5dbc 5d53 84bc 402f 4ebd
000003d0: 5b4d 803d 1c4e 6a3d 5346 b43d ac03 a93c
000003e0: a222 1dbd c2ab 15bd 3300 8dbc 0ac0 f7bc
000003f0: 3edb 36bd 84a4 8dbd e24b 02bd 7358 cc3c
-0.00537056 -0.085442804 -0.062555574 -0.047973838 0.018433662 -0.08447202 -0.08656247 -0.023795035
-0.088543564 0.074969195 0.042813078 -0.038604017 -0.08690804 -0.0051971567 0.07511754 0.023080459
-0.015678506 -0.11776202 -0.15782271 -0.068828754 -0.048600703 0.060077794 -0.000549547 -0.052339662
-0.07628824 -0.05356552 -0.108370915 -0.081422925 -0.012370487 0.05053684 0.06365245 0.011693587
-0.12948218 0.0860547 0.08692636 -0.0859218 -0.051944654 0.069525026 -0.07972051 0.019020861
-0.013213367 0.04672027 0.0018172027 0.05423521 0.06704479 -0.119560085 0.039808016 -0.07523929
-0.10184652 -0.0154135395 0.006327031 -0.06426032 -0.09000238 0.0074243867 0.06764316 0.07969576
0.095918804 0.09035943 0.11784171 -0.06745747 -0.035043918 0.05564718 -0.008275073 0.13504596
0.03799191 2.8000886e-05 0.12431686 0.0736801 0.12592568 0.1184286 0.046058763 0.12607335
0.037896384 0.030538887 0.04996061 -0.06601879 -0.04441803 0.13214916 -0.0732887 0.1030103
0.12115193 -0.07312549 0.010165548 0.041240327 0.102462314 -0.028152095 0.118655905 -0.085246444
0.10697489 0.07500749 -0.038327847 0.015215421 -0.07392238 0.06660361 0.051378798 -0.022774028
0.11992509 -0.011616402 0.004104089 0.10401369 0.018599294 0.07128968 0.07363516 -0.07001828
-0.025273446 0.11425402 -0.07683285 -0.014911085 0.08752129 0.007845616 -0.026157502 0.059065014
-0.12507576 0.08734567 0.096291564 -0.03921287 -0.052963883 -0.013609359 0.12709166 -0.052918818
0.016801124 -0.11250261 0.040691193 0.0674753 0.033355817 -0.0118485065 0.010497025 0.106634215
0.064692415 -0.035808578 -0.1247273 0.096820466 -0.04804547 0.07843036 -0.0110037755 0.010438661
-0.08330723 -0.043674663 -0.0013439411 -0.111815855 -0.015165499 0.0475547 0.09847802 0.07257347
-0.032195643 0.018980289 -0.08435343 0.0687586 0.021762142 0.12514198 -0.0328733 0.11695088
0.04812964 0.06593527 -0.08359903 -0.114211656 -0.09297184 -0.12938789 -0.023250736 -0.1316806
-0.08294014 0.057280984 0.08254854 -0.06433106 0.056241266 -0.036256075 -0.10974205 -0.036144227
-0.06244242 -0.011632328 -0.026056292 -0.0829471 0.04752827 -0.09330681 -0.10166784 0.017585987
-0.040891606 -0.06812729 -0.12478686 -0.08783646 -0.16268925 0.0484666 -0.037999786 0.04617396
0.054080945 -0.0035121266 -0.030914485 -0.086820245 0.0013039887 -0.12811454 -0.07501446 0.030609911
-0.040682912 0.054408547 0.061148383 -0.039817635 -0.11130796 0.085102245 -0.0035364348 0.11729569
-0.111412525 0.021356735 -0.10440307 -0.050580405 -0.10512843 -0.11674265 -0.019372987 0.06764018
0.011513054 -0.0055432254 0.090652734 0.034986198 -0.062574364 0.07757285 0.08214365 0.07330047
0.07495737 0.11676522 -0.053595938 -0.0069065816 -0.039305653 -0.020240072 0.08776138 -0.08109436
0.067468494 -0.0760124 -0.00998263 -0.015815899 -0.056972425 -0.0005990449 -0.059177514 0.10353114
-0.055490904 0.051779117 -0.025429018 -0.09594556 0.0682164 -0.02360893 -0.03468377 0.019004188
0.0051799463 -0.0135283945 -0.016153032 -0.05033803 0.062647544 0.057203397 0.08802476 0.020631634
-0.038363107 -0.036540754 -0.017212009 -0.030242939 -0.04464268 -0.069161445 -0.03181065 0.02494452

bias f4 [100]
00000000: b9fd 8ebd 179a 403d 30d7 f6bd d326 3bbe
00000010: 9a86 633d 9fe5 1ebe 3d72 2cbe 8079 02be
00000020: 9f62 b6bd e4af 84bd 6270 043d f43b 9abc
00000030: f117 243d 58df 29be 4e20 8ebd 65a7 983e
00000040: 18cf 8bbd 3006 683e e54d 03bd 6145 2abc
00000050: 11eb c3bc e33a 023c a428 503e 29dc 253d
00000060: e62f 88bd 1fb9 86bd 10b2 2abe 23b8 e73d
00000070: 28f0 183e e73f abbd b36a 25be a730 363e
00000080: 4aae 803d aa1c 4a3d 4a54 1cbe 9e66 e8bd
00000090: 6e13 583e ff8b e33b 7a5c 27bd 2540 63bd
000000a0: ac2d afbc 7b8c febd 2e6a 373e 31d2 77bd
000000b0: 3c6c 243e cbc0 f7bc 7bb6 0ebe b8db 3c3e
000000c0: b12f 6d3d d85a b83e 145d c0bc cce6 d2bd
000000d0: 6829 223e d6b9 10be 0d50 0c3b 7a63 1f3d
000000e0: 154a 9ebc 39f8 9e3d 2010 ac3c 64f4 ce3d
000000f0: fe64 f2bc 6552 d4bd e36a 57be 1c28 12be
00000100: e0b4 693d 32a2 5dbe 50ff 89bd 1a9f 24bd
00000110: 2f21 263e a7ce 7cbd 0bf6 e73b ae71 a8bd
00000120: 1115 bfbc 8304 01bd 8634 713e 8c24 53be
00000130: 940f 39be fe81 19bd 6517 0fbe cba5 b53e
00000140: ea92 84be ee84 693d 08d4 e63d 8f66 f4bd
00000150: 4e21 2b3e 9bce 083e 0e3c 0fbe 174e 62bd
00000160: cc0d 493d 29ad 41be c250 debd e3af 82bd
00000170: 2c7e 7fbc 221e b8bd 8129 9d3c 037d 43bd
00000180: 9967 69bd ebb7 943e 21d0 73bd d9d9 d3bb
-0.069819875 0.04702195 -0.120527625 -0.18276529 0.055548288 -0.15517281 -0.16840453 -0.12741661
-0.08905529 -0.06478861 0.03233374 -0.018827416 0.040061895 -0.16589105 -0.069397554 0.29815212
-0.068266094 0.2265861 -0.032056708 -0.010392518 -0.0239158 0.00794861 0.20328003 0.040493164
-0.06649761 -0.06578278 -0.16669488 0.11314418 0.14935362 -0.08361798 -0.16153984 0.17791997
0.06283243 0.049343742 -0.15266529 -0.11347698 0.21101162 0.006944179 -0.040859677 -0.055481095
-0.021384083 -0.12429138 0.17911598 -0.06050319 0.16056913 -0.030243298 -0.13936798 0.18443191
0.05790681 0.36006808 -0.023481883 -0.10297927 0.15836108 -0.14133391 0.0021410019 0.038913228
-0.019322434 0.077621885 0.021003783 0.101052076 -0.029589172 -0.10367278 -0.21036868 -0.14273113
0.05705726 -0.21643904 -0.0673815 -0.040190794 0.16223596 -0.061720517 0.007078891 -0.08224808
-0.023325475 -0.031498443 0.23555192 -0.2061941 -0.18072349 -0.037477486 -0.13973768 0.35478052
-0.25893337 0.057011537 0.112709105 -0.11933624 0.16711923 0.13360064 -0.13987753 -0.055250254
0.049085423 -0.18913712 -0.10855247 -0.06381204 -0.015594047 -0.089901224 0.01918483 -0.047726642
-0.056983564 0.29046568 -0.05952466 -0.0064651784

weight f4 [100, 50]
00000000: 4dd4 bebe 1c93 9cbe 942e 29be c4a6 1abf
00000010: 6422 c9be 061b 1abe 6ed3 fcbe bc21 fdbe
00000020: 77ab a6be 5769 afbe 87bd 99be 13cd 07be
00000030: b5ca 1cbf 0238 94be 565d 45be 7ade edbe
00000040: 4a94 d9be dade 05be d6ab 94be d9cb f8be
00000050: 436f 0dbf 6520 49be 25a1 90be b99f bbbe
00000060: fe4d 83be dce7 0cbe 8bda aebd a9b7 e4be
00000070: 5f8e 5ebe a41b bcbe 2b17 1bbf 1379 a3be
00000080: 1f30 7dbe 76c3 0cbe 470a 66be 1f7d 89be
00000090: ab5f f6be f846 12be c3ab d0be 3e30 fcbd
000000a0: 46cf e6bd 4a38 dfbe b05b e1bd 1864 d1be
000000b0: 49d2 86be 4133 a4be 3545 bebe e6af 59be
000000c0: 25fd 95be e85e 31be 9e80 73be 65fb 81bd
000000d0: 7037 53be 5496 40bf 81f3 0dbf 2c14 81be
000000e0: 7acf 07bf b682 49bf 17b8 bebe 97e7 93be
000000f0: 9f09 ebbe 5cfc a3bd 9590 24bf 0805 81be
00000100: cff8 a3be 3c7e cfbe 037b 18bf 7d0f 35be
00000110: 85ef 70be 7b52 00bf 126c 32bf fff7 03be
00000120: 4ee6 14be a0b3 d7be 4a8e 29be 1df4 d2be
00000130: 2458 5fbe b267 00bf 2f9e b8bd 3d5d 45bf
00000140: 3ad4 49bf cb1d 11be dabb abbe 071f bdbe
00000150: 9e83 7abd 186e 4cbe 9791 f4be f467 f0bd
00000160: c6dd e1be c826 9abe f4dc 1cbd 0c4d f9be
00000170: 6f4d 75be 109d 08bf 6c74 2bbe ca02 1abe
00000180: b281 5dbe c812 2abe 66d6 bbbd 7843 61bd
00000190: 38b6 1fbe 2c75 eabd 89ae febd c1ba 8bbe
000001a0: a781 90be 29d3 a6bd 8a3d 1ebe 9072 59be
000001b0: de57 69be 83ac 83be b8b8 99be b174 87be
000001c0: 736b 9dbe c47a 3dbe 16c6 31be b83c 85be
000001d0: a336 b6be 2c9a 9fbe e30c 96be 54e0 68be
000001e0: b9a1 b1be 0a38 4abe a042 81bd 4bef 3bbe
000001f0: e39b bfbd 4a39 8dbe bd35 37be d718 b5be
00000200: a9c2 32be 55c6 c7be d725 26be 0b67 a5be
00000210: e0f0 24be c3f3 8abe 38d2 1abe 18a4 1fbe
00000220: 6d73 93be a1f7 82be 9a6a 26be 3301 69be
00000230: 3e46 19be f407 a6be 46fc 8fbe 9e6a 9ebe
00000240: ca38 3fbd d6f0 74bd 1e01 91be d4c4 38be
00000250: 1669 34be afdd 41bd 8db3 0fbd a7dc 6fbd
00000260: 86c6 ddbd e3c9 4e3d 603f 5fbe b3db 3dbe
00000270: dacd 8ebd abde 1bbe 5dad 3cbe 3aa2 a7bd
00000280: c47f aaba e59b b63c 9a28 9ebd f796 c0bd
00000290: 7695 593d e041 bebc c69c dbbb 0a7a f8bd
000002a0: a7a6 49be 6419 19be 67b1 4abd 67ae d2bd
000002b0: 9d18 12be 4e7b 843d 4a8a 3ebe 0721 88bd
000002c0: 749a 71bc 8b1e cbbd e3b2 cdbb 2bc2 86bd
000002d0: d13c 00be 6f02 20be 1394 14be ef60 52be
000002e0: d263 b23c cb4a 833d 9191 17be 576d 62bd
000002f0: 3ebf 8cbc 0830 5fbc 32b9 0cbe 23e9 1fbe
00000300: 0903 b13d acef 473b e745 8f3d 9747 173c
00000310: d273 c5bd 555f ca3c d108 9bbd fc0b 91bd
00000320: fbb9 b6be 12a3 33be 7d5d b3be 35ac 05bf
00000330: 86ef 19bf 9cd3 68be df63 d9be 2815 febe
00000340: cf24 93be 5dc6 6cbe 51bf bdbe 63c7 90be
00000350: 7efc 19bf effd fbbe 3e1b 60be eb4a cabe
00000360: cdc2 2ebf 6c59 c9be 65cb ebbe 286e c1be
00000370: 14ca ddbe 2c4d 77be 37ed bcbe f572 c1be
00000380: 605f 8ebe d06c bcbe 47e1 4abe 522b a6be
00000390: 24f9 a0be da86 05bf c914 eabe d0b6 bebe
000003a0: f623 82be 6c60 64be 5a63 e6be d955 d1be
000003b0: f4da f6be bb7d 80be 1a81 f8be 1c11 9bbe
000003c0: 5318 8abe f64b f2be 9c08 b1be fbb7 dabe
000003d0: d27d 66be 0ac9 85be 25fb 9dbe 504f e1be
000003e0: 3d47 78be 704e a3be 3509 e4bc 45b5 5fbd
000003f0: cdd3 0bbe 4c5a 0fbe f358 81be 07b9 dabd
-0.37271348 -0.30580986 -0.16521674 -0.60410714 -0.3928405 -0.15049371 -0.49380058 -0.494398
-0.32552692 -0.34260055 -0.3002741 -0.13261823 -0.61246806 -0.2894898 -0.19273886 -0.464588
-0.42495948 -0.13073292 -0.2903735 -0.48593023 -0.55247897 -0.19641264 -0.28247944 -0.36645296
-0.2564544 -0.13760322 -0.085377775 -0.44671372 -0.21733998 -0.36739838 -0.60582227 -0.3192831
-0.24725388 -0.13746437 -0.22464858 -0.26853272 -0.48119864 -0.14284885 -0.40756044 -0.12313889
-0.11270003 -0.43597633 -0.11003816 -0.40896678 -0.2633231 -0.32070354 -0.37162176 -0.21258506
-0.29294696 -0.1732136 -0.23779532 -0.06346778 -0.20626616 -0.7522938 -0.5544968 -0.25210702
-0.5305096 -0.78715074 -0.37249824 -0.28887627 -0.45905778 -0.08007118 -0.64283115 -0.2519915
-0.32025763 -0.40525997 -0.595627 -0.1768169 -0.2352887 -0.50125855 -0.6969615 -0.12887572
-0.1454098 -0.4212923 -0.16558185 -0.4120187 -0.21810967 -0.50158226 -0.09014546 -0.77095395
-0.7883946 -0.14171521 -0.33541757 -0.36937734 -0.061160676 -0.19963872 -0.47767326 -0.117385775
-0.44114512 -0.30107713 -0.038296655 -0.48691595 -0.2395532 -0.5336466 -0.1674363 -0.15040126
-0.21631506 -0.16608727 -0.09171753 -0.054995984 -0.15596855 -0.1144813 -0.12435634 -0.2729092
-0.28223917 -0.08145744 -0.15453163 -0.21235108 -0.22787425 -0.25717553 -0.30023742 -0.26456216
-0.3074604 -0.18503863 -0.1736072 -0.26022887 -0.3558856 -0.3117231 -0.29306707 -0.22741824
-0.34693697 -0.1974794 -0.06311536 -0.18353002 -0.09355905 -0.2758277 -0.17891593 -0.35370514
-0.1745707 -0.39018503 -0.16225372 -0.32305178 -0.16107512 -0.271391 -0.15119255 -0.1558994
-0.28799 -0.2557955 -0.16251603 -0.22754364 -0.14968202 -0.32427943 -0.28122157 -0.30940717
-0.046685018 -0.05979999 -0.28321165 -0.18043834 -0.17618212 -0.047330555 -0.035083342 -0.05856004
-0.10828881 0.050485503 -0.2180152 -0.1854084 -0.06972857 -0.1522166 -0.18425508 -0.08185239
-0.0013008048 0.022291133 -0.07722588 -0.09403794 0.053121053 -0.023224771 -0.0067020385 -0.12132652
-0.19692479 -0.14951092 -0.04948559 -0.10287171 -0.14267202 0.06468831 -0.1860744 -0.066469245
-0.014746297 -0.09917935 -0.0062774285 -0.06580003 -0.125232 -0.15625928 -0.14509611 -0.2054479
0.021776114 0.0641075 -0.14801623 -0.055280056 -0.017181035 -0.013622291 -0.13742521 -0.15616278
0.08643157 0.0030507846 0.06995755 0.009233377 -0.096412316 0.024703661 -0.07570041 -0.07082364
-0.35688767 -0.17542675 -0.35032263 -0.5221589 -0.6013111 -0.22736973 -0.42459008 -0.49625516
-0.2873902 -0.23122545 -0.37060025 -0.2827712 -0.601509 -0.49217173 -0.21885392 -0.39510283
-0.6826599 -0.39326036 -0.46053615 -0.37779355 -0.43318236 -0.24150532 -0.3689973 -0.37783018
-0.2780714 -0.36801767 -0.19812499 -0.32454926 -0.3144008 -0.5215889 -0.45718983 -0.3724885
-0.2541806 -0.22302407 -0.44997674 -0.4088581 -0.48213923 -0.25095925 -0.48535997 -0.3028649
-0.26971683 -0.4732358 -0.3457688 -0.4271849 -0.22508934 -0.26129943 -0.3085567 -0.44005823
-0.24245925 -0.3189578 -0.027836422 -0.05461623 -0.13655014 -0.1399929 -0.25263175 -0.106798224

bias f4 [100]
00000000: 1491 20bf 9cae 41bf 93c6 a3be 8b35 45bd
00000010: a714 31bf b33f 42be 9fe3 2dbf 2a9f 7abd
00000020: 1f6f 6fbe 0917 24bf 5de1 1cbf c0c4 edbe
00000030: 2f87 0dbf ccb6 28bf 7603 07bf dc6c 7fbf
00000040: 4c3b 44bf be67 87bf 5c6f 15bf 47ae 30bf
00000050: 45ad 0dbf 91ac 41bf ab38 3dbf 8bc9 34bf
00000060: 1cfe 86bd 5e63 17be 816b 2cbf 7c50 48bf
00000070: e181 3ebf 9290 f1be 0c95 8abe 88d0 4cbf
00000080: 0d6f 23bf b7c3 4abf 5acb 3dbf a267 c9be
00000090: 289c 4ebf bcfd 17bf 5a6f 2abf 7753 35bf
000000a0: bd08 3fbf 1403 3abe ad8b 58bf 1670 2dbf
000000b0: 4ecd 2fbf 921e f1be b2c7 4fbe 3469 60bf
000000c0: 7bc3 27bf f9c8 90bf c517 40bf 8080 a0be
000000d0: 9f01 52bf 0b8e 25bf 60b0 0abf 18df 1ebf
000000e0: 57e0 75be 1a58 3dbf 25b9 1abf f73e 4ebf
000000f0: 97a2 debe 32b1 20bf ae54 d8be bf02 62be
00000100: ca5d 2bbf b945 83be 4e9d e8be 8c9d 5dbf
00000110: 34da 67bf 3552 c5bd 960c 3dbf 8492 33bd
00000120: 7a11 87be 65b8 b4be e04d 50bf b8cd 59be
00000130: ccb6 4cbe eb5c 81be ec8d 58bd 7f6a 7abf
00000140: 49a3 9bbe e58f 44bf 8a02 1bbf b6fb 54bf
00000150: 7e64 65bf 1cc5 1dbf b7a5 ccbe a5da 1bbf
00000160: 0b8b 45bf 7003 acbe acdc 28bf 06f0 04bf
00000170: 1c50 36bf 8d71 28bf 746f cfbe e1c8 2dbf
00000180: 0a27 15bf 6cf7 64bf 5721 19be 40ec 16be
-0.6272137 -0.7565706 -0.31987438 -0.048146766 -0.6917214 -0.18969612 -0.6792545 -0.061186947
-0.23382233 -0.6409765 -0.6128138 -0.4643917 -0.552844 -0.65903926 -0.52739656 -0.9977548
-0.7665298 -1.0578535 -0.58373046 -0.69015926 -0.55342513 -0.7565394 -0.73914593 -0.7062003
-0.06591436 -0.14784 -0.6735154 -0.7824781 -0.7441693 -0.4718061 -0.2706684 -0.80005693
-0.63841325 -0.7920489 -0.74138415 -0.39336878 -0.80707026 -0.5937154 -0.6657616 -0.7083048
-0.7462271 -0.18165237 -0.8458813 -0.67749155 -0.68672645 -0.47093636 -0.20291021 -0.8766053
-0.65532655 -1.1311332 -0.7503627 -0.31348038 -0.82033724 -0.64669865 -0.54175377 -0.62059164
-0.2401136 -0.7396256 -0.6043876 -0.80564827 -0.4348342 -0.6277038 -0.42252105 -0.2207136
-0.66939986 -0.25639132 -0.45432514 -0.8656852 -0.90567327 -0.0963482 -0.7384733 -0.0438409
-0.2638052 -0.35296932 -0.8136883 -0.21269882 -0.19991606 -0.25266203 -0.052869722 -0.9781875
-0.30398014 -0.76782066 -0.6055075 -0.8319658 -0.89606464 -0.6162889 -0.3997018 -0.608805
-0.7716529 -0.33596373 -0.6596172 -0.51928747 -0.7121599 -0.65798265 -0.4051472 -0.6788464
-0.58262694 -0.89440036 -0.14954124 -0.1473856

eps f4 [100, 1, 1]
00000000: c241 4abf 7861 05c0 c83b 923f 7af7 fa3f
00000010: 3a27 aabe a517 1dbe 32da ff3f a5b7 09bf
00000020: 1a89 38bf 0b14 8fbf c288 8d3e 64a5 633f
00000030: 8c07 13bf 7a33 723f e2d4 c73f 2e79 8a3f
00000040: 318e 823f 6cc2 c43e b77f d1be 7dde dbbf
00000050: 051e 8e3f fed5 0bbf a76f 503f 0963 b23f
00000060: e858 1b40 e55c 01bf 5eb9 1c3f 03e1 b23f
00000070: 51e7 24bf 47de 063f 23d0 f83d 56ce 45bf
00000080: 9ced 6e3f addc e33f 7ec5 753f 6e27 8d3f
00000090: d2da 94bf c818 18bf 568a 03c0 2e13 dd3f
000000a0: bbb4 213f e8ad ae3f 3855 ba3e 1603 8b3f
000000b0: d80b b63e 526a 3c3e 82e2 013f 0a1a 2fbc
000000c0: cd64 b43f af06 8cbe dd91 493f 9101 19be
000000d0: 6d0d 64bd c03a f3be 41cc 49bf 272b 833e
000000e0: e6bc 8b3f e84d 87bf 3165 663d e647 473f
000000f0: b176 db3e 8f53 60bf e2dd 503f fb41 cd3c
00000100: 533f 463f 8148 eebe 763f 15be 960e ab3f
00000110: d8e6 803f 16ba 903f c60d 1dc0 a2f2 3cbf
00000120: 327d b3be 3b07 ad3f 7fe3 663f 78e5 be3e
00000130: 11d5 25c0 f351 8e3f b7fd 7a3f 7c09 11bc
00000140: bbdb 8abf cc2c 04bf 5832 8b3f 4b36 013f
00000150: 1811 193d 9061 573d 24e9 06c0 e3a9 ed3f
00000160: 7a47 84be 43d6 36bf 9800 94bf 96d7 193f
00000170: fca7 4d3f 7562 ebbf 161c 88bc 1235 983f
00000180: 9510 dbbe 8697 c9bf d545 cf3e e7e0 9e3e
-0.7900659 -2.084074 1.1424494 1.9606774 -0.33233052 -0.15341051 1.9988463 -0.53795844
-0.720842 -1.1177992 0.276434 0.8892424 -0.5743339 0.94609797 1.5611842 1.0818231
1.0199643 0.38429582 -0.4091775 -1.7177273 1.1102911 -0.546234 0.8142037 1.3936473
2.4273014 -0.5053237 0.6122035 1.3974918 -0.6441546 0.5268292 0.12149074 -0.7726797
0.93331313 1.780172 0.96004474 1.1027658 -1.1629279 -0.59412813 -2.0553184 1.7271478
0.631664 1.3646822 0.36393142 1.0860317 0.3555591 0.18399933 0.5073625 -0.010687361
1.4093262 -0.2734885 0.78738195 -0.14942004 -0.055676866 -0.4750576 -0.7882729 0.2561886
1.0917022 -1.057065 0.056248847 0.77844083 0.42863992 -0.876275 0.81588566 0.025055876
0.77440375 -0.4653969 -0.1457499 1.3363826 1.0070448 1.1306789 -2.4539657 -0.7380773
-0.35056454 1.3517832 0.9019088 0.37284446 -2.5911295 1.1118759 0.9804339 -0.008852359
-1.0848306 -0.51630855 1.0874739 0.5047347 0.037369817 0.052583277 -2.1079798 1.856747
-0.25835782 -0.7142069 -1.1562681 0.60094583 0.8033445 -1.8389422 -0.016614955 1.1891196
-0.4278609 -1.5749366 0.40482965 0.31030962
