mcspace/paper/human_runs/runs/seed_9/model.pt (torch, 308831 bytes, 66 tensors)

theta_params f4 [100, 58]
0	0xc0b34fe1	-5.603501
1	0xc0d1fb76	-6.561946
2	0xc0cfc425	-6.4926934
3	0xc0bc17bf	-5.8778987
4	0x40072e50	2.1122017
5	0x3f73f82e	0.9530057
6	0xc0b2b856	-5.585002
7	0x404ce85e	3.2016826
8	0x3f4c80f2	0.79884255
9	0xc0a032e6	-5.006213
10	0x3f895c88	1.0731363
11	0x3f8916eb	1.0710119
12	0x3f529f81	0.82274634
13	0xbe35655f	-0.17714451
14	0x3fe6dc6c	1.8036017
15	0xbfdcc260	-1.7246819
16	0xc0583595	-3.3782704
17	0x3f812fbe	1.0092695
18	0x3fd91a28	1.6961107
19	0xc088563c	-4.2605267
20	0x3f24d284	0.6438372
21	0xc0e0a9ef	-7.020744
22	0xbe86fc4c	-0.26364362
23	0x40067e28	2.10145
24	0xbfe2fecd	-1.7734009
25	0xc0d8d059	-6.775433
26	0xc084b583	-4.147157
27	0xc00fa0ad	-2.2441819
28	0xc00221d7	-2.0333154
29	0xc1042f98	-8.26162
30	0xc08655aa	-4.197957
31	0xbc56fd21	-0.013121874
32	0xc0b5f38d	-5.6859803
33	0x4092232e	4.5667944
34	0xc0242dc6	-2.5652938
35	0x3f826d68	1.0189638
36	0xc0c88192	-6.2658167
37	0xc0c49d4d	-6.1442018
38	0x3fe47efc	1.7851253
39	0x4034ad89	2.8230917
40	0xc088097c	-4.2511578
41	0x3f231b72	0.63713753
42	0x407a78e8	3.9136295
43	0xbfd910e9	-1.6958286
44	0x3f85546a	1.0416386
45	0xbe5018fa	-0.20322028
46	0xbf822b9c	-1.0169559
47	0xc04a465e	-3.1605449
48	0xbebee28e	-0.37282223
49	0xc08029ab	-4.0050864
50	0xc0da8f82	-6.830018
51	0x404ae4ef	3.170223
52	0xbfd58fa4	-1.6684461
53	0x3eccc138	0.39991164
54	0x3f54f900	0.83192444
55	0x3fbaf6fa	1.4606621
56	0xbe7407d7	-0.23831116
57	0xbfd6e04e	-1.6787202
58	0xc02af12d	-2.6709702
59	0x3fcfaebe	1.6225202
60	0xc08c9a79	-4.3938565
61	0xbfd1998f	-1.6374987
62	0x401ce124	2.4512415
63	0xc0832fce	-4.0995855
64	0x3f258081	0.64649206
65	0x400ff2fe	2.249206
66	0xbf8e6769	-1.1125308
67	0xbfc83aaa	-1.5642903
68	0x40437295	3.0538685
69	0xbf9ee22f	-1.2412776
70	0xc0a0ce71	-5.0252004
71	0xbf986550	-1.1905918
72	0xbfc51f49	-1.5400172
73	0x3f438a69	0.7638307
74	0xc06ddc4b	-3.7165706
75	0xc0261127	-2.594797
76	0x3f32a3d6	0.69781244
77	0x40a24c48	5.0718117
78	0x406b55a8	3.677103
79	0xc0bef96c	-5.967947
80	0xc0aa393c	-5.3194866
81	0x4013170e	2.2982821
82	0xc09a73b7	-4.8266253
83	0xc04a39f3	-3.159787
84	0xc0498b31	-3.1491206
85	0xc089db36	-4.308009
86	0xc0a7580d	-5.2294984
87	0xc0752faa	-3.8310342
88	0xc09652bd	-4.6976
89	0xc089156e	-4.283866
90	0x3f841a29	1.0320483
91	0x3f403b34	0.75090337
92	0xc030239d	-2.7521737
93	0xc061ee9c	-3.5301886
94	0x400915d1	2.1419566
95	0x400e24e5	2.2210019
96	0xc008bca5	-2.136514
97	0x4064bbe5	3.5739682
98	0xc074e552	-3.8264966
99	0xc020b09a	-2.510779
100	0x4030bde2	2.7615895
101	0x3fcf37e9	1.6188937
102	0xc080755b	-4.0143256
103	0x40810187	4.0314364
104	0xc0918594	-4.547556
105	0xbf084f68	-0.53246164
106	0x3fe1cbb9	1.7640296
107	0xc084be7f	-4.148254
108	0x3f1f6120	0.62257576
109	0x3dfe3ae8	0.12413579
110	0xc0818c46	-4.048373
111	0xbff44c63	-1.9085811
112	0x40655cf4	3.5837984
113	0xc0c5fa7b	-6.186826
114	0xbd0e6b25	-0.03477015
115	0xc03dfa1e	-2.968391
116	0xc01bd723	-2.435006
117	0x3f29ed42	0.6637765
118	0xc0951691	-4.6590047
119	0x40363d94	2.8475084
120	0xc04dc114	-3.2149096
121	0x3f9bcd5d	1.2172047
122	0xc067a8ca	-3.619677
123	0xbf5fd49a	-0.8743378
124	0x3f507fe0	0.8144512
125	0x4092e8dc	4.590925
126	0x40863adb	4.1946845
127	0xc0a10c5c	-5.0327587
128	0xc0656316	-3.5841727
129	0x40022d7a	2.0340257
130	0xc083f7ac	-4.1239834
131	0xc0867ea5	-4.2029595
132	0xc08ed066	-4.4629393
133	0x3fb3837b	1.40245
134	0xc03be1ac	-2.935649
135	0xc099a8c1	-4.80185
136	0x3faeb37f	1.3648528
137	0xc049d7cf	-3.153797
138	0xc04cb5bf	-3.198593
139	0x4022eb45	2.5456097
140	0xc0a4c206	-5.1486845
141	0xc091fbdd	-4.561995
142	0x4010ad8a	2.260592
143	0x3f5ebc23	0.87005824
144	0x3f0b7875	0.5448068
145	0xc01f48f2	-2.4888272
146	0xbfa32295	-1.2744929
147	0xc02b95f2	-2.681027
148	0x3f6c09ea	0.9220263
149	0xbf375adb	-0.7162301
150	0x4037f8b4	2.8745546
151	0xc08d7dd0	-4.421608
152	0x409f28eb	4.973745
153	0x3e93f877	0.289005
154	0x3e69b2bf	0.22822092
155	0xc0c322c1	-6.0979924
156	0xc092144d	-4.564978
157	0xbfb67189	-1.4253398
158	0xbec5b9e0	-0.38618374
159	0x4012e003	2.2949226
160	0xbedf3947	-0.43598387
161	0xbc0815ef	-0.008306011
162	0xc0562005	-3.3457043
163	0xbf5a41d3	-0.8525669
164	0xc0c33a07	-6.1008334
165	0x3ffdce3b	1.9828562
166	0x3f735598	0.9505248
167	0x3ffc1bee	1.9696023
168	0x40075fe4	2.1152277
169	0xc073f271	-3.8116724
170	0x4045bc56	3.08962
171	0xc05979c5	-3.3980572
172	0xc030f242	-2.7647862
173	0x3f52fa2d	0.8241299
174	0xc02b7d2e	-2.6795154
175	0x3f06a867	0.5260071
176	0xc0be2238	-5.941677
177	0xc04871fe	-3.1319575
178	0xc015f68f	-2.3431737
179	0xc0b5945e	-5.674361
180	0x3ee76c78	0.45199943
181	0x3fc14a40	1.5100784
182	0x3ec4cfbf	0.38439748
183	0xbea66bb3	-0.32504043
184	0x403d67d5	2.9594624
185	0xbf2119e9	-0.6293016
186	0xc085684b	-4.168981
187	0x3f7f0406	0.99615514
188	0xbf7c15f8	-0.9847102
189	0xc0afb2b8	-5.4905663
190	0xbfcc1c11	-1.5946065
191	0x3f817c89	1.011613
192	0x3ed3ef9d	0.41393748
193	0x3fbed141	1.4907609
194	0x3f753aae	0.95792663
195	0xbf41db44	-0.757252
196	0xbfab2748	-1.3371363
197	0x40025026	2.0361419
198	0xbfec9cf0	-1.8485394
199	0xc08e17c3	-4.4404006
200	0x40104128	2.2539768
201	0x3f890328	1.0704088
202	0x3f824e7c	1.0180202
203	0xc0f1968c	-7.5496273
204	0xc0aab653	-5.3347564
205	0xbfdb3328	-1.7124987
206	0x3fe858ed	1.8152138
207	0x3f886ad9	1.0657607
208	0xc0c3dbaf	-6.120567
209	0x3f8a10a2	1.0786326
210	0x3f1572fc	0.5837858
211	0x4008bfe4	2.136712
212	0x3fb626aa	1.4230549
213	0x4043d948	3.0601368
214	0xc0824784	-4.07123
215	0xc089e7d8	-4.3095512
216	0x3fe735b7	1.8063267
217	0xbf8a2587	-1.0792702
218	0x3de5adcc	0.1121479
219	0xbfa6117d	-1.2974087
220	0x3ec0155a	0.3751629
221	0xbe4df42b	-0.20112674
222	0xbe68b984	-0.22727019
223	0xc0beff52	-5.968667
224	0x3f8bbaba	1.091636
225	0xbf878fe5	-1.0590788
226	0x40255b54	2.5836992
227	0x3fc905fd	1.5704952
228	0x40304cd4	2.7546892
229	0xbf95b763	-1.169659
230	0xbf1a8e02	-0.60372937
231	0x40198f73	2.3993804
232	0x3f7c7cc3	0.9862787
233	0x3fb7c5f0	1.4357281
234	0xc02d4ec5	-2.7079327
235	0xc0a9ad4a	-5.3024035
236	0x40188dab	2.3836467
237	0xc0925bc6	-4.573703
238	0xc09ac884	-4.836977
239	0x3fe26c51	1.7689306
240	0xbea3e58f	-0.32011077
241	0xc099890a	-4.7979784
242	0x40448d80	3.0711365
243	0x40a34de1	5.1032567
244	0xc0b8696c	-5.762869
245	0x3fd93e36	1.697211
246	0xbf946f88	-1.1596537
247	0xc09158cc	-4.5420895
248	0xc0a8bf76	-5.2733717
249	0x3fc79255	1.5591532
250	0x3fdba5c5	1.7159964
251	0x401b21cc	2.4239378
252	0x3fe993c0	1.8248215
253	0xbc7b006f	-0.015319928
254	0xc0942bba	-4.6303377
255	0x403d26dc	2.9554968

q_mu f4 [5]
0	0xc013be33	-2.3084838
1	0xc066dc9c	-3.607215
2	0xbf9898be	-1.1921613
3	0xc04af5a6	-3.1712432
4	0xc070faf2	-3.7653165

q_var f4 [5]
0	0xc05da892	-3.4634137
1	0xc010dca6	-2.2634673
2	0xc091e4e5	-4.559191
3	0xc0220bd6	-2.5319724
4	0xc0085589	-2.1302207

eps f4 [5]
0	0xbffa3093	-1.9546074
1	0x3f1dd193	0.6164791
2	0x3eda2f20	0.4261408
3	0xbce9db3d	-0.028546924
4	0xbddc9395	-0.107703365

q_gamma_params f4 [99]
0	0x404fa63e	3.2445216
1	0xc0908c33	-4.517114
2	0x406482ce	3.5704837
3	0x40066798	2.1000729
4	0x4055fc69	3.343531
5	0x4080b3fe	4.0219717
6	0x405e20e6	3.470758
7	0x406963b9	3.6467116
8	0x4006c991	2.1060526
9	0xc02f5148	-2.739336
10	0x406bc958	3.684164
11	0x4086ba02	4.210206
12	0x4065373c	3.5814962
13	0xc09d2b6c	-4.9115505
14	0x4072bfa2	3.7929463
15	0x4062be2a	3.5428567
16	0x4025e300	2.59198
17	0xbfa2d27b	-1.2720484
18	0x40861f2a	4.191304
19	0x408193a6	4.0492735
20	0x4054152d	3.3137925
21	0x40220136	2.531324
22	0x40884af0	4.2591476
23	0xbffa5543	-1.955727
24	0x3f1a03e7	0.60162205
25	0x4076e86b	3.8579357
26	0x406e32f7	3.7218606
27	0x4066d2d8	3.606619
28	0x40817b80	4.0463257
29	0x40850ac6	4.157565
30	0x40057a1e	2.0855784
31	0x404984ff	3.1487424
32	0x4066f6ef	3.6088216
33	0x405a8f45	3.4149945
34	0x4054924b	3.321429
35	0x4049e815	3.1547902
36	0x40606c08	3.5065937
37	0x3f410a64	0.7540648
38	0x407bb282	3.9327703
39	0x402f50b6	2.7393012
40	0x403656ef	2.849056
41	0x402b087c	2.6723928
42	0x40722115	3.7832692
43	0x406e7e0e	3.7264438
44	0x40694aa4	3.6451807
45	0x402b3d18	2.6756039
46	0x40607102	3.5068974
47	0x406cdf78	3.7011395
48	0x4083cb31	4.1185536
49	0xc05f97e1	-3.493645
50	0x40846c0e	4.1381903
51	0x406e4c27	3.723398
52	0x406cb322	3.6984334
53	0x40713ef3	3.769467
54	0x40695952	3.6460767
55	0x40701053	3.7509964
56	0x404240ec	3.0352125
57	0x401b846f	2.429958
58	0x40815d46	4.042636
59	0x405e5e41	3.4745028
60	0x40467416	3.1008353
61	0x40676a42	3.6158605
62	0x40764953	3.8482254
63	0x403d1095	2.954137
64	0x406faa2c	3.7447615
65	0xc0727454	-3.78835
66	0x3fab3d61	1.3378106
67	0x4064b8e8	3.5737858
68	0x404a4e6b	3.1610363
69	0x4007f407	2.1242692
70	0x405afb41	3.4215853
71	0x4067f08f	3.6240575
72	0x40133b8b	2.3005092
73	0x407d1887	3.954622
74	0x4059c880	3.4028625
75	0x406b7ba2	3.679421
76	0xbea0b3d0	-0.31387186
77	0xbfe07d2f	-1.7538203
78	0x403552e7	2.833185
79	0x402c55a5	2.6927273
80	0x3f92bdff	1.1464232
81	0x407228a7	3.7837312
82	0x40715e86	3.7713943
83	0x404d4b90	3.207737
84	0x3e9bc35f	0.30422494
85	0x40782e5c	3.8778296
86	0x40510827	3.2661226
87	0x402cb57a	2.6985765
88	0x3fdf5fb9	1.7451087
89	0x404fc898	3.2466183
90	0x40573680	3.3627014
91	0x400c4e1e	2.192268
92	0x40704dd3	3.75475
93	0x40617bd5	3.523183
94	0x40634bc0	3.5514984
95	0x406c5c7b	3.6931446
96	0xc00f41f8	-2.2384014
97	0x405f6041	3.4902499
98	0x401aca19	2.418585

q_probs f4 [99]
0	0x3f766517	0.96248
1	0x3c311ca0	0.010810047
2	0x3f78fb7e	0.97258747
3	0x3f64140b	0.89093083
4	0x3f774500	0.9658966
5	0x3f7b7e77	0.98239845
6	0x3f784800	0.96984863
7	0x3f797e75	0.97458583
8	0x3f643ca6	0.8915504
9	0x3d78af69	0.06071416
10	0x3f79ba36	0.9754976
11	0x3f7c4176	0.98537385
12	0x3f791155	0.9729207
13	0x3bef9907	0.0073119435
14	0x3f7a5c1d	0.97796804
15	0x3f78cd5f	0.9718837
16	0x3f6e2ba8	0.93035364
17	0x3e603ece	0.21898958
18	0x3f7c2f75	0.98509914
19	0x3f7b9cf8	0.9828639
20	0x3f7703b9	0.96490055
21	0x3f6d2418	0.926332
22	0x3f7c6e9f	0.98606294
23	0x3dfde32c	0.12396845
24	0x3f256875	0.64612514
25	0x3f7ab518	0.9793258
26	0x3f79f43c	0.976383
27	0x3f793c1d	0.9735735
28	0x3f7b99b6	0.9828142
29	0x3f7c0e73	0.9845955
30	0x3f63b7b4	0.88952184
31	0x3f757813	0.95886344
32	0x3f793fe0	0.9736309
33	0x3f77da3b	0.9681737
34	0x3f7714e5	0.9651626
35	0x3f7587ae	0.95910156
36	0x3f788b97	0.97088
37	0x3f2e1f28	0.6801629
38	0x3f7b14de	0.98078716
39	0x3f7077af	0.9393262
40	0x3f71fda8	0.94527674
41	0x3f6f7688	0.9354024
42	0x3f7a4e68	0.9777589
43	0x3f79fb20	0.9764881
44	0x3f797c17	0.9745497
45	0x3f6f83b1	0.9356032
46	0x3f788bf2	0.9708854
47	0x3f79d4aa	0.97590125
48	0x3f7be6ef	0.9839925
49	0x3cf1ce84	0.02951742
50	0x3f7bfb02	0.9842988
51	0x3f79f685	0.97641784
52	0x3f79d085	0.975838
53	0x3f7a3a8a	0.97745574
54	0x3f797d7a	0.9745709
55	0x3f7a1faf	0.97704595
56	0x3f7442c1	0.9541436
57	0x3f6b49f0	0.91909695
58	0x3f7b94fb	0.982742
59	0x3f784f1f	0.9699573
60	0x3f74f9d6	0.9569372
61	0x3f79384e	0.9735154
62	0x3f7aa823	0.97912806
63	0x3f735186	0.9504627
64	0x3f7a1670	0.97690487
65	0x3cb5599d	0.022137458
66	0x3f4ad387	0.79229015
67	0x3f790402	0.9727174
68	0x3f759784	0.9593432
69	0x3f64abfa	0.89324915
70	0x3f77e77b	0.96837586
71	0x3f795955	0.97401935
72	0x3f68afe7	0.90893406
73	0x3f7b2f91	0.98119456
74	0x3f77c188	0.9677968
75	0x3f79b2d8	0.9753852
76	0x3ed839d3	0.42231616
77	0x3e172555	0.14760335
78	0x3f71c7bc	0.94445395
79	0x3f6fc524	0.9366019
80	0x3f424794	0.7589047
81	0x3f7a4f03	0.9777681
82	0x3f7a3d52	0.9774982
83	0x3f760c5f	0.96112627
84	0x3f135cb9	0.5756336
85	0x3f7acf34	0.97972417
86	0x3f769806	0.9632572
87	0x3f6fdbf6	0.9369501
88	0x3f59f5dd	0.8514078
89	0x3f766a42	0.96255887
90	0x3f776dff	0.96652216
91	0x3f664b81	0.8995896
92	0x3f7a2544	0.9771311
93	0x3f78a9ee	0.9713429
94	0x3f78dcc8	0.97211885
95	0x3f79c83e	0.9757117
96	0x3dc57464	0.096413404
97	0x3f786ced	0.9704121
98	0x3f6b1370	0.91826534

gamma f4 [100]
0	0x3f800000	1.0
1	0x3f800000	1.0
2	0x00000000	0.0
3	0x3f800000	1.0
4	0x3f800000	1.0
5	0x3f800000	1.0
6	0x3f800000	1.0
7	0x3f800000	1.0
8	0x3f800000	1.0
9	0x3f800000	1.0
10	0x3f800000	1.0
11	0x3f800000	1.0
12	0x3f800000	1.0
13	0x3f800000	1.0
14	0x00000000	0.0
15	0x3f800000	1.0
16	0x3f800000	1.0
17	0x3f800000	1.0
18	0x00000000	0.0
19	0x3f800000	1.0
20	0x3f800000	1.0
21	0x3f800000	1.0
22	0x3f800000	1.0
23	0x3f800000	1.0
24	0x00000000	0.0
25	0x3f800000	1.0
26	0x3f800000	1.0
27	0x3f800000	1.0
28	0x3f800000	1.0
29	0x3f800000	1.0
30	0x3f800000	1.0
31	0x3f800000	1.0
32	0x3f800000	1.0
33	0x3f800000	1.0
34	0x3f800000	1.0
35	0x3f800000	1.0
36	0x3f800000	1.0
37	0x3f800000	1.0
38	0x00000000	0.0
39	0x3f800000	1.0
40	0x3f800000	1.0
41	0x3f800000	1.0
42	0x3f800000	1.0
43	0x3f800000	1.0
44	0x3f800000	1.0
45	0x3f800000	1.0
46	0x00000000	0.0
47	0x3f800000	1.0
48	0x3f800000	1.0
49	0x3f800000	1.0
50	0x00000000	0.0
51	0x3f800000	1.0
52	0x3f800000	1.0
53	0x3f800000	1.0
54	0x3f800000	1.0
55	0x3f800000	1.0
56	0x3f800000	1.0
57	0x3f800000	1.0
58	0x3f800000	1.0
59	0x3f800000	1.0
60	0x3f800000	1.0
61	0x3f800000	1.0
62	0x3f800000	1.0
63	0x3f800000	1.0
64	0x3f800000	1.0
65	0x3f800000	1.0
66	0x00000000	0.0
67	0x3f800000	1.0
68	0x3f800000	1.0
69	0x3f800000	1.0
70	0x00000000	0.0
71	0x3f800000	1.0
72	0x3f800000	1.0
73	0x3f800000	1.0
74	0x3f800000	1.0
75	0x3f800000	1.0
76	0x3f800000	1.0
77	0x00000000	0.0
78	0x00000000	0.0
79	0x00000000	0.0
80	0x3f800000	1.0
81	0x3f800000	1.0
82	0x3f800000	1.0
83	0x3f800000	1.0
84	0x3f800000	1.0
85	0x00000000	0.0
86	0x3f800000	1.0
87	0x3f800000	1.0
88	0x3f800000	1.0
89	0x3f800000	1.0
90	0x3f800000	1.0
91	0x3f800000	1.0
92	0x3f800000	1.0
93	0x3f800000	1.0
94	0x3f800000	1.0
95	0x3f800000	1.0
96	0x00000000	0.0
97	0x00000000	0.0
98	0x3f800000	1.0
99	0x3f800000	1.0

KL_gamma_k f4 [99]
0	0x47763c5a	63036.35
1	0x4430fba4	707.9319
2	0x4778d25e	63698.367
3	0x4763ee23	58350.137
4	0x47771c22	63260.133
5	0x477b54f6	64340.96
6	0x47781efb	63518.98
7	0x47795540	63829.25
8	0x476416b9	58390.723
9	0x457882cc	3976.1748
10	0x477990fa	63888.977
11	0x477c17d8	64535.844
12	0x4778e831	63720.19
13	0x43ef6c09	478.84402
14	0x477a32c7	64050.777
15	0x4778a446	63652.273
16	0x476e042f	60932.184
17	0x466017c6	14341.943
18	0x477c05da	64517.85
19	0x477b7373	64371.45
20	0x4776dae5	63194.895
21	0x476cfcc7	60668.777
22	0x477c44fa	64580.977
23	0x45fdb65e	8118.796
24	0x47254c92	42316.57
25	0x477a8bb5	64139.707
26	0x4779caf6	63946.96
27	0x477912f2	63762.945
28	0x477b7032	64368.195
29	0x477be4dd	64484.863
30	0x476391dc	58257.86
31	0x47754f7a	62799.477
32	0x477916b5	63766.707
33	0x4777b147	63409.277
34	0x4776ec0e	63212.055
35	0x47755f14	62815.08
36	0x47786287	63586.527
37	0x472e01db	44545.855
38	0x477aeb6d	64235.426
39	0x47704fdb	61519.855
40	0x4771d598	61909.594
41	0x476f4edc	61262.86
42	0x477a2514	64037.08
43	0x4779d1d9	63953.848
44	0x477952e3	63826.887
45	0x476f5c03	61276.01
46	0x477862e2	63586.883
47	0x4779ab69	63915.41
48	0x477bbd5f	64445.37
49	0x44f1a270	1933.0762
50	0x477bd16f	64465.434
51	0x4779cd3f	63949.246
52	0x4779a745	63911.27
53	0x477a1139	64017.223
54	0x47795446	63828.273
55	0x4779f663	63990.387
56	0x47741a58	62490.344
57	0x476b22e9	60194.91
58	0x477b6b77	64363.465
59	0x47782618	63526.094
60	0x4774d151	62673.316
61	0x47790f24	63759.14
62	0x477a7ec2	64126.758
63	0x47732942	62249.258
64	0x4779ed25	63981.145
65	0x44b5385a	1449.761
66	0x474ab19d	51889.613
67	0x4778dae1	63706.88
68	0x47756ee7	62830.902
69	0x476485fb	58501.98
70	0x4777be85	63422.52
71	0x47793027	63792.152
72	0x47688948	59529.28
73	0x477b061c	64262.11
74	0x47779898	63384.594
75	0x4779899d	63881.613
76	0x46d814db	27658.428
77	0x46170ac5	9666.692
78	0x47719fb4	61855.703
79	0x476f9d6b	61341.418
80	0x47422708	49703.03
81	0x477a25af	64037.684
82	0x477a1401	64020.004
83	0x4775e3b1	62947.69
84	0x471343c7	37699.777
85	0x477aa5ce	64165.805
86	0x47766f42	63087.258
87	0x476fb43a	61364.227
88	0x4759d18d	55761.55
89	0x47764185	63041.52
90	0x4777451b	63301.105
91	0x47662541	58917.254
92	0x4779fbf7	63995.965
93	0x477880da	63616.85
94	0x4778b3ac	63667.67
95	0x47799eff	63902.996
96	0x45c55156	6314.167
97	0x477843e2	63555.883
98	0x476aec72	60140.445

weight f4 [10, 58]
0	0x3df2465a	0.11829825
1	0x3ba999ad	0.0051757903
2	0x3e345608	0.17610943
3	0x3e045ab2	0.12925223
4	0xbd25b35a	-0.040454246
5	0xbd22a9ca	-0.039712705
6	0x3e30b090	0.17254853
7	0x3bfb8809	0.0076761288
8	0x3e3df6e9	0.1855122
9	0x3daea9ac	0.08528456
10	0xbd20edbd	-0.039289225
11	0x3deb2d64	0.11483267
12	0x3e2d953e	0.16951463
13	0x3dd303af	0.10303437
14	0x3de2a6d3	0.110669754
15	0x3d4c8850	0.049934685
16	0xbbac74f7	-0.0052629667
17	0x3d91fef1	0.07128704
18	0x3d281c1b	0.04104243
19	0xbd23a71c	-0.03995429
20	0x3d2bb02a	0.04191605
21	0xbc7f559b	-0.015584375
22	0x3e0f15c8	0.13973153
23	0xbd029ac9	-0.031885896
24	0xbc8b3620	-0.016993582
25	0x3df80e91	0.12112153
26	0xbb33d087	-0.0027437524
27	0x3e0a02eb	0.13477676
28	0x3e0d429e	0.13794944
29	0xbd338277	-0.043825593
30	0x3e05af37	0.1305512
31	0x3dad9049	0.08474786
32	0x3dbddce7	0.092706494
33	0xbbcd7b87	-0.006270829
34	0x3d53a3f6	0.051670037
35	0xbca9b5c1	-0.02071655
36	0xbb291f33	-0.002580595
37	0x3c11b3e0	0.008892983
38	0xbe33f764	-0.17574841
39	0xbc03b24c	-0.008038115
40	0x3c390039	0.011291557
41	0x3db71d0f	0.08941089
42	0xbdbdccb9	-0.092675634
43	0x3e0cfab6	0.13767514
44	0x3da2169d	0.079144694
45	0xbe202f48	-0.15643036
46	0x3d9291c2	0.07156707
47	0x3d054282	0.03253413
48	0x3a95263e	0.0011379195
49	0x3e2feac4	0.171794
50	0x3da34f43	0.07974102
51	0xbd93e197	-0.07220762
52	0xbd9a5332	-0.075353995
53	0x3d40b5fc	0.047048554
54	0xbe2a5edc	-0.16637748
55	0x3d9ccf59	0.07656736
56	0x3dc598d5	0.09648291
57	0xbc94a34e	-0.018144276
58	0x3e36ac6a	0.17839208
59	0xbce09611	-0.027415307
60	0x3daff029	0.08590729
61	0x3dc72ce1	0.09725357
62	0xbe065741	-0.13119222
63	0x3c7e477c	0.015519973
64	0x3dd2bf0e	0.10290347
65	0xbd318026	-0.043335102
66	0x3e0f6053	0.14001589
67	0x3d23a531	0.03995246
68	0xbd8571fa	-0.0651588
69	0x3e20d637	0.15706716
70	0x3e83884d	0.25689927
71	0x3bcd934b	0.006273662
72	0x3c74cce4	0.014941428
73	0x3e1d845c	0.15382522
74	0x3d039c6d	0.0321316
75	0x3d05b0d9	0.03263936
76	0x3cc96301	0.024583342
77	0xbe28f2a2	-0.16498807
78	0xbe5e9df9	-0.2173995
79	0x3e388e7c	0.18023103
80	0x3e37e55e	0.1795859
81	0xbbe636da	-0.007025582
82	0x3dc8dc10	0.098075986
83	0x3e17614e	0.14783213
84	0x3d7d9959	0.06191382
85	0x3e188fe5	0.14898641
86	0x3e211d3a	0.15733805
87	0x3dae822d	0.08520923
88	0x3e6c37bd	0.23068137
89	0x3df496c0	0.11942816
90	0x3daedc8c	0.0853816
91	0xbe283a6a	-0.16428533
92	0x3de8238b	0.11334904
93	0x3d24c92e	0.040230922
94	0xbc7962bc	-0.015221294
95	0x3dc4f73a	0.09617467
96	0xbe0ff9fc	-0.14060205
97	0xbc868fd7	-0.01642601
98	0x3dc8c0dd	0.09802411
99	0x3e32c006	0.17456064
100	0xbe7a6092	-0.24450901
101	0x3e247107	0.16058742
102	0x3e2c256d	0.16811152
103	0xbd8d90a4	-0.06912354
104	0x3d2a363f	0.04155564
105	0x3c3e85f4	0.011628617
106	0x3db04e2d	0.08608661
107	0x3e046e1c	0.12932628
108	0x3e3b739f	0.18305825
109	0xbe47747d	-0.1947803
110	0x3de1be44	0.110226184
111	0x3d3c23a0	0.045932412
112	0xbe83ef03	-0.2576829
113	0x3d8d924b	0.06912669
114	0x3bcafe84	0.0061948914
115	0x3e052fae	0.1300647
116	0x3e9d595c	0.30732238
117	0xbe8cb21c	-0.27479637
118	0x3e9547b1	0.2915626
119	0x3e9b0000	0.30273438
120	0xbd30eae0	-0.043192744
121	0x3eafe9b3	0.34357986
122	0x3e2b21ea	0.16712156
123	0xbe28c026	-0.16479549
124	0x3eb79882	0.35858542
125	0x3e5184b7	0.20460783
126	0xbe82243c	-0.2541827
127	0x3e82a03a	0.25512868
128	0x3e844319	0.2583244
129	0x3e01c9fd	0.12674709
130	0x3e06c3ac	0.1316058
131	0x3e884144	0.26612294
132	0x3e2cb161	0.1686454
133	0x3e4e7527	0.20161878
134	0x3d0a7be8	0.033809572
135	0xbdbb60e9	-0.091493435
136	0xbe30d5c2	-0.17269042
137	0x3e3d6aeb	0.18497817
138	0x3e399cbd	0.18126197
139	0xbe628ae0	-0.22123289
140	0x3e3060ae	0.1722438
141	0x3e1df39b	0.1542496
142	0x3e7086a2	0.23488858
143	0x3e4eefee	0.20208713
144	0x3e86ff97	0.26366875
145	0x3e9155d0	0.28385782
146	0x3e7ef8ba	0.24899569
147	0x3e46f3d5	0.19428952
148	0x3e012273	0.12610798
149	0xbe550152	-0.20801285
150	0x3e81b0e1	0.2533026
151	0x3c16cc54	0.009203989
152	0x3bd44691	0.0064781387
153	0x3d6fd61b	0.058553796
154	0xbe23fbe0	-0.16014051
155	0xbe47f5d5	-0.19527371
156	0x3eaacad0	0.3335786
157	0x3e65938d	0.22419567
158	0xbe136f47	-0.14397918
159	0x3e4fc019	0.20288123
160	0x3e3f792a	0.18698564
161	0xbe3b274b	-0.18276708
162	0x3e4393bc	0.19099325
163	0x3d037683	0.032095443
164	0x3e5deef5	0.21673186
165	0x3e527889	0.20553793
166	0x3e2c6622	0.16835836
167	0xbe2aae44	-0.1666804
168	0x3da0def7	0.07855027
169	0x3d675b18	0.05648336
170	0xbe65d818	-0.22445714
171	0x3e6d3ffd	0.23168941
172	0x3db64b48	0.089010775
173	0x3db404dc	0.08789989
174	0x3d91783c	0.07103011
175	0xbd2c7cb5	-0.042111117
176	0x3df6969c	0.12040445
177	0x3e0d33bd	0.13789268
178	0xbe0d12fc	-0.13776773
179	0x3e4aaf6f	0.19793485
180	0x3bdeb4e1	0.006796465
181	0xbd2d82b1	-0.042360965
182	0x3e3c31cb	0.1837837
183	0x3dc72247	0.09723335
184	0xbcdeddca	-0.027205367
185	0x3e212435	0.15736468
186	0x3dbdbdef	0.092647426
187	0xbcdc8a6d	-0.026921475
188	0x3cad270a	0.02113678
189	0x3dc32578	0.09528631
190	0x3e2b012f	0.1669967
191	0x3e0e89d1	0.1391976
192	0x3d19f796	0.037589632
193	0xbe12f349	-0.14350618
194	0xbcb97d05	-0.022642622
195	0x3deedc39	0.11663098
196	0x3e3dfdeb	0.18553893
197	0xbd67c1f2	-0.056581445
198	0x3da003fc	0.0781326
199	0x3e53eada	0.20695058
200	0x3d743c13	0.059627604
201	0xbd02c276	-0.031923734
202	0x3e0ef5f5	0.13961013
203	0x3c90871a	0.017642546
204	0x3ce42db7	0.02785383
205	0xbccf4866	-0.025303077
206	0xbc567f9e	-0.01309195
207	0xbdef8a19	-0.11696262
208	0x3cb5fff4	0.022216775
209	0x3dc7b6e4	0.097516805
210	0xbc330f84	-0.010928992
211	0x3dd7231e	0.10504745
212	0x3c80c12b	0.01571711
213	0xbdecd2e6	-0.11563663
214	0x3dcce0b4	0.10003796
215	0x3e0bba62	0.13645318
216	0xbdd682a7	-0.10474139
217	0xbca9e4ab	-0.02073892
218	0x3c15d9cc	0.009146165
219	0xbe0d3fa7	-0.13793813
220	0x3e289212	0.16461971
221	0xbcbe2d1d	-0.023214871
222	0xbc3b1bf1	-0.011420236
223	0xbc2fd082	-0.0107308645
224	0x3e406212	0.18787411
225	0xbb98e3ea	-0.0046658413
226	0xbd1bf2dd	-0.03807341
227	0x3d38ed95	0.04514845
228	0xbe146335	-0.1449097
229	0x3de268d3	0.1105515
230	0x3d821cbe	0.063531384
231	0x3cabb931	0.02096233
232	0x3e3ba82b	0.1832587
233	0xbd5057a5	-0.050864834
234	0x3d11b5f8	0.03557393
235	0x3d632c61	0.055462245
236	0xbdaefc06	-0.085441634
237	0x3e3e65a8	0.18593466
238	0x3e283959	0.16428126
239	0x3c3d429f	0.011551528
240	0x3e6143c3	0.21998505
241	0x3e2c14a2	0.16804746
242	0xbd227667	-0.0396637
243	0x3d252352	0.040316887
244	0xbac74098	-0.0015201746
245	0x3cfcd849	0.030864852
246	0x3defd51d	0.1171057
247	0xbb4dccfe	-0.0031402702
248	0x3e17fb06	0.14841852
249	0x3e3f04ff	0.1865425
250	0x3d06e61d	0.032934297
251	0xbe124497	-0.14283977
252	0xbde393a7	-0.11112147
253	0x3dd3a445	0.10334066
254	0x3e0bdd61	0.13658668
255	0xbe5004fb	-0.203144

bias f4 [10]
0	0xbc38ae1a	-0.011271978
1	0xbd543c2f	-0.051815208
2	0xbee7fe43	-0.45311174
3	0xbc086642	-0.008325161
4	0xbe3006b1	-0.17190053
5	0xbaaf86fc	-0.0013391669
6	0xbea6cd64	-0.32578576
7	0xbe77931a	-0.24177209
8	0xbe8f3d87	-0.2797663
9	0xbe46b593	-0.19405203

weight f4 [10, 10]
0	0x3e5562c8	0.20838463
1	0x3e9259ba	0.2858408
2	0xbd5a9132	-0.053361125
3	0x3d86f942	0.06590511
4	0x3e82167c	0.2540778
5	0x3eebee30	0.4608016
6	0x3d3de17c	0.046357617
7	0x3ee6c534	0.4507233
8	0x3bfb1683	0.0076625957
9	0xbd2f1497	-0.042744245
10	0x3e4f94aa	0.20271555
11	0xbdb436cf	-0.087995164
12	0xbdc6b47e	-0.09702395
13	0x3d73c249	0.059511457
14	0x3e1c3cd6	0.15257582
15	0x3e5289bb	0.20560353
16	0x3e1c934b	0.15290563
17	0x3c960973	0.018315053
18	0xbe3cc9da	-0.18436375
19	0x3e5b4093	0.21411352
20	0xbea3471e	-0.31890196
21	0x3e2f592e	0.17123863
22	0x3e0c26e1	0.13686706
23	0xbeb84724	-0.35991776
24	0x3d9942f0	0.074834704
25	0xbe9cc179	-0.30616358
26	0x3e6b4a1d	0.2297749
27	0xbeaf9b26	-0.34298056
28	0xbd60492e	-0.05475729
29	0xbe817e9c	-0.25291908
30	0xbed0ccb2	-0.4078117
31	0xbf42c0f6	-0.76075685
32	0xbe459fcc	-0.19299239
33	0xbf4a8f02	-0.7912446
34	0xbf154dd8	-0.58321905
35	0xbf20cf60	-0.6281643
36	0xbea414c4	-0.32047093
37	0xbf09f967	-0.5389618
38	0xbee0ded7	-0.43920013
39	0xbef0ae4c	-0.47007978
40	0xbd7ed460	-0.062214255
41	0x3ced4abb	0.028966298
42	0xbe0dd2d6	-0.13849959
43	0xbed517bb	-0.41619667
44	0xbe6d9a6a	-0.23203436
45	0x3dbaef16	0.09127633
46	0xbd6fa356	-0.05850538
47	0xbe1fda8f	-0.15610717
48	0xbeb6ad07	-0.35678884
49	0x3ccaa19f	0.02473527
50	0xbf22e901	-0.63636786
51	0xbe75e95f	-0.24014805
52	0x3dff4f44	0.124662906
53	0xbdfe9172	-0.12430085
54	0xbe6f26c0	-0.23354626
55	0xbdd7c824	-0.10536221
56	0xbea4be45	-0.32176414
57	0xbe7da6ae	-0.24770615
58	0xbdedcdf7	-0.1161155
59	0x3d825a9f	0.06364941
60	0xbda90d4c	-0.08254489
61	0xbdc955cf	-0.0983082
62	0x3e38ab8e	0.18034193
63	0x3e741f9b	0.23840182
64	0x3e6bab4b	0.23014562
65	0x3e3c1eda	0.18371144
66	0xbe41dbdb	-0.18931524
67	0x3e833d3c	0.25632656
68	0x3cdf0dee	0.027228322
69	0x3da68530	0.08130872
70	0x3df62373	0.1201848
71	0x3d340774	0.04395242
72	0x3d50fea6	0.0510241
73	0xbc7f86e1	-0.0155961225
74	0xbe5ba7de	-0.21450755
75	0x3e832b02	0.2561875
76	0x3d56655e	0.052342765
77	0x3b9f2d61	0.0048577045
78	0x3e172597	0.14760433
79	0xbd26a1d9	-0.040681694
80	0xbe7dc4ec	-0.24782151
81	0xbd69c65a	-0.05707393
82	0xbe07112b	-0.13190143
83	0xbe56680d	-0.2093813
84	0xbe12bdac	-0.14330167
85	0xbdc43981	-0.095812805
86	0x3e433e18	0.19066656
87	0x3e53db9f	0.20689248
88	0xbea010ab	-0.31262717
89	0xbdbc8e45	-0.09206823
90	0xbe29b43c	-0.1657266
91	0xbdb001bd	-0.085940816
92	0xbea4f3da	-0.32217294
93	0x3b3a90da	0.0028467686
94	0xbe903d9c	-0.28172004
95	0xbe62fc2d	-0.2216651
96	0xbd86c7b4	-0.06581059
97	0x3dd38f21	0.10330034
98	0xbd822f6f	-0.063567035
99	0x3dd33e1f	0.10314583

bias f4 [10]
0	0x3ed72a10	0.4202428
1	0x3de97560	0.11399341
2	0xbe328350	-0.17432904
3	0xbf8a62db	-1.0811418
4	0xbea0deb0	-0.31419897
5	0xbe816305	-0.25270858
6	0x3ea974d6	0.3309695
7	0x3e90bc43	0.28268632
8	0x3e28632e	0.16444084
9	0xbe8c0b8b	-0.27352557

weight f4 [1, 10]
0	0x3bca7a9d	0.0061791674
1	0x3e11ecfa	0.14250556
2	0x3e0a4175	0.13501532
3	0x3ceef2fa	0.029168595
4	0x3c9286da	0.017886568
5	0x3a8d90b1	0.0010800568
6	0x3e12c33f	0.14332293
7	0xbd42f5cb	-0.047597688
8	0xbe16f610	-0.14742303
9	0x3e622b51	0.22086836

weight f4 [1, 10]
0	0xbf564c90	-0.83710575
1	0xbebc5a26	-0.36787528
2	0xbeb59a9b	-0.35469517
3	0xbe4dc241	-0.20093633
4	0xbef6312e	-0.48084396
5	0xbdacb825	-0.0843356
6	0xbf2741d2	-0.6533481
7	0xbf364185	-0.71193725
8	0xbf39a6df	-0.7252025
9	0xbe9f0d73	-0.31064948

prior_mean f8 []
0	0xc0126691ebc4af16	-4.600166019324908

weight f4 [50, 58]
0	0xbe496dfb	-0.1967086
1	0xbf889d27	-1.0672959
2	0xbd3553b2	-0.04426927
3	0x3d9663bd	0.07343242
4	0x3e7d6691	0.24746157
5	0x3db6f599	0.08933563
6	0xbd92efd9	-0.071746536
7	0xbeb1be62	-0.34715563
8	0x3d53b087	0.05168202
9	0x3f88996a	1.0671818
10	0xbe00d455	-0.12580998
11	0x3e8c13ca	0.27358848
12	0x3cceb4f3	0.025232768
13	0xbd813948	-0.06309754
14	0xbf045580	-0.5169296
15	0xbe096a73	-0.13419513
16	0x3ec3ef5b	0.3826855
17	0x3c8187b4	0.015811779
18	0x3e07976a	0.13241354
19	0xbec95165	-0.39319912
20	0xbe0fd2fb	-0.14045326
21	0x3e01401b	0.1262211
22	0x3ee2f248	0.4432547
23	0x3ebb833f	0.3662357
24	0x3db4c4fd	0.08826635
25	0x3dfbe095	0.12298695
26	0x3d086c6d	0.033306528
27	0xbd724468	-0.05914727
28	0x3ecd293a	0.40070516
29	0x3e26163e	0.16219422
30	0xbd2284ad	-0.03967731
31	0xbe0a4c79	-0.13505735
32	0xbd362988	-0.0444732
33	0xbcb040c7	-0.021515263
34	0xbe5ebe96	-0.2175239
35	0xbe86ee57	-0.26353714
36	0xbe35fe92	-0.17772892
37	0x3f2596dc	0.6468332
38	0xbe565e52	-0.20934418
39	0xbc6f5223	-0.014606985
40	0x3eb3ce58	0.35118365
41	0xbda6c1ea	-0.08142455
42	0xbdc4ffc0	-0.09619093
43	0x3f06705d	0.525152
44	0xbc50c79d	-0.012742904
45	0xbbd32b19	-0.0064443466
46	0xbec243e5	-0.37942424
47	0xbf1dc166	-0.6162323
48	0x3e1dd91b	0.1541485
49	0x3e07ff5e	0.13281009
50	0x3f45c8c3	0.77259463
51	0xbf3451b8	-0.7043719
52	0xbeabfb59	-0.335902
53	0x3ee76596	0.4519469
54	0x3e8cfd7d	0.27537146
55	0x3f18a70b	0.5962989
56	0xbefb480b	-0.49078402
57	0x3dcf48e2	0.10121323
58	0x3e91ab6d	0.284511
59	0xbe9f2442	-0.3108235
60	0x3e89f270	0.26942778
61	0x3e9939ed	0.29927006
62	0x3db9a8e5	0.09065417
63	0x3e153f7e	0.14575002
64	0x3f3dc900	0.74134827
65	0xbe794c12	-0.24345425
66	0x3deed60d	0.11661921
67	0x3f109653	0.56479377
68	0xbd283557	-0.041066494
69	0x3ececb6e	0.4038958
70	0x3eb20c4a	0.34775
71	0x3e18a2c5	0.14905842
72	0xbd38c169	-0.045106325
73	0x3dd4de4a	0.10393961
74	0x3e50927d	0.20368381
75	0x3eb36d3c	0.35044277
76	0x3e40d3ad	0.18830748
77	0xbe57dd3e	-0.21080491
78	0xbe574ee3	-0.21026187
79	0x3ed68d41	0.41904643
80	0x3e8a2202	0.2697907
81	0xbe968238	-0.29396224
82	0x3edfe591	0.43729833
83	0x3e040d13	0.12895612
84	0x3ed52443	0.41629228
85	0xbe7a8047	-0.24462996
86	0x3e700bca	0.23441997
87	0x3df92b5c	0.12166473
88	0x3e3cee1b	0.18450205
89	0x3e1cab20	0.15299654
90	0x3e972b46	0.29525203
91	0xbcd7048a	-0.026247282
92	0x3e07d2c9	0.13264002
93	0xbe76b74c	-0.2409336
94	0x3f01a579	0.50643116
95	0x3eb9fa85	0.36323944
96	0xbea753c2	-0.3268109
97	0xbed26252	-0.41090637
98	0x3e2f1c47	0.1710063
99	0x3e81b714	0.2533499
100	0xbdde5988	-0.108569205
101	0xbe286232	-0.16443709
102	0x3e879ea6	0.26488227
103	0x3e4d4fd8	0.20049989
104	0x3be01680	0.0068386197
105	0x3cc30f16	0.023810904
106	0x3ea501dd	0.32227984
107	0x3e78767a	0.24263945
108	0xbe727803	-0.23678593
109	0xbec87a30	-0.39155722
110	0xbee9ff65	-0.45702663
111	0x3e6ed941	0.23325063
112	0xbec4b693	-0.38420543
113	0xbc4fac8d	-0.012675417
114	0xbdf0377d	-0.117293335
115	0x3ef34697	0.47514793
116	0xbd5bcd3d	-0.053662527
117	0x3f1e7e1b	0.6191117
118	0xbe81dd86	-0.2536432
119	0x3eb628d7	0.35578033
120	0xbe80c307	-0.25148794
121	0xbd83420d	-0.064090826
122	0x3c9f3aff	0.019437311
123	0x3eb0e8f1	0.3455272
124	0xbdf99ebf	-0.121884815
125	0xbee52958	-0.44758105
126	0x3daef085	0.08541969
127	0xbdb01b54	-0.085989624
128	0xbe180c7b	-0.14848511
129	0xbc305df8	-0.010764591
130	0xbecbb3ee	-0.39785713
131	0xbe90f7d8	-0.2831409
132	0xbe245a91	-0.16050173
133	0xbe465135	-0.19366916
134	0xbe822421	-0.2541819
135	0x3eadfed9	0.33983496
136	0x3e76b6f9	0.24093236
137	0xbb082f0d	-0.0020779998
138	0x3d774ea4	0.060377732
139	0xbe7c8174	-0.24658757
140	0xbc8148b7	-0.015781743
141	0x3b9574fb	0.0045610643
142	0x3e32680b	0.17422502
143	0x3f3c9153	0.7365925
144	0xbe164218	-0.1467365
145	0xbbea3601	-0.007147551
146	0xbe74108d	-0.23834439
147	0x3f040098	0.51563406
148	0x3e4e8a45	0.20169933
149	0xbef25d55	-0.47336832
150	0x3d5f7524	0.054555073
151	0x3ec7b3d3	0.39004382
152	0x3edfc673	0.43706092
153	0xbe990770	-0.29888487
154	0xbe79ca2d	-0.2439353
155	0xbebfacd0	-0.37436533
156	0xbe58ec4c	-0.2118389
157	0xbec049c1	-0.3755627
158	0x3e1a8786	0.1509076
159	0xbca5ee94	-0.020255364
160	0x3c40d7f2	0.011770235
161	0x3ba3e6e5	0.00500189
162	0x3f243b61	0.64153105
163	0x3f037888	0.5135579
164	0xbd1b993a	-0.037987925
165	0x3ea0acba	0.3138178
166	0xbe9696a7	-0.29411814
167	0xbf097e34	-0.53708196
168	0x3f4b2747	0.7935681
169	0xbe9941d0	-0.29933023
170	0xbdc0463b	-0.093883954
171	0xbe381447	-0.17976485
172	0x3f44b926	0.76845014
173	0xbe48725e	-0.19574878
174	0x3e9b0275	0.30275312
175	0xbde54aae	-0.11195885
176	0xbe3d97bc	-0.18514913
177	0x3e9df814	0.3085333
178	0xbec70c15	-0.38876405
179	0x3e48e1a5	0.19617327
180	0x3e84a7e9	0.25909355
181	0xbdd00d9d	-0.101588465
182	0x3e2e57f9	0.17025746
183	0x3d909e41	0.070614345
184	0xbe27d17e	-0.16388509
185	0x3e6b3f12	0.22973278
186	0x3e2257d2	0.15853813
187	0x3d8f3728	0.06992942
188	0xbe28143a	-0.16413966
189	0x3dff11c3	0.1245456
190	0x3e0bbb1d	0.13645597
191	0x3e7a5582	0.24446681
192	0xbe25d561	-0.16194679
193	0xbd5eef51	-0.05442745
194	0x3d2a5c05	0.041591663
195	0x3ea593a9	0.32339218
196	0x3e4f6b03	0.20255665
197	0xbedbb365	-0.42910305
198	0x3e798166	0.24365768
199	0x3e42cd5a	0.19023648
200	0x3eaf1519	0.34195784
201	0xbe26bfed	-0.16284151
202	0x3df9e077	0.122010164
203	0x3e96852f	0.29398486
204	0x3e845438	0.25845504
205	0x3e928a22	0.28621012
206	0x3e0e3297	0.13886486
207	0xbe1d058d	-0.15334149
208	0x3ee20e6f	0.44151637
209	0xbdf65c6f	-0.12029349
210	0x3eb60c69	0.35556343
211	0x3e156be2	0.14591935
212	0xbd2f8c2f	-0.0428583
213	0xbe2de20a	-0.16980758
214	0x3e26be65	0.16283567
215	0x3e88c313	0.2671133
216	0xbcb480c0	-0.022034049
217	0xbcded8db	-0.027203014
218	0x3e8c3bbb	0.2738932
219	0xbe3d5c1d	-0.1849217
220	0x3e59945e	0.21248004
221	0x3dc746e3	0.097303174
222	0x3ea7d341	0.3277836
223	0x3da7e9d9	0.081989
224	0xbe078a6f	-0.13236402
225	0xbea8fb58	-0.3300426
226	0x3d64e87b	0.055885773
227	0x3e02c39a	0.12769929
228	0xbe4c6964	-0.19962078
229	0x3d97705f	0.0739448
230	0x3d85f751	0.065413125
231	0xbdd3fe7b	-0.10351273
232	0xbcce4dd3	-0.025183594
233	0xbd913499	-0.0709011
234	0xbe40a538	-0.18813026
235	0x3e889316	0.26674718
236	0xbe5ad143	-0.2136889
237	0x3e0fd6a9	0.1404673
238	0x3dc92610	0.09821713
239	0xbe07300a	-0.13201919
240	0x3e71da9e	0.23618552
241	0xbd220058	-0.03955111
242	0xbe068fb6	-0.13140759
243	0x3e02ab2f	0.12760614
244	0x3e24786d	0.16061564
245	0x3e0d6373	0.13807468
246	0xbe7b2f7f	-0.24529837
247	0xbbd2c059	-0.006431621
248	0x3dbcba71	0.092152484
249	0xbcb00e28	-0.021491125
250	0xbd7bffa7	-0.061523106
251	0xbd90bc64	-0.07067183
252	0xbe653103	-0.22381978
253	0x3dd6c560	0.10486865
254	0x3ef3d55c	0.47623718
255	0xbdeefc5d	-0.11669228

bias f4 [50]
0	0xbd51c50d	-0.051213313
1	0xbdedbd4e	-0.11608373
2	0xbe0c3e75	-0.136957
3	0xbe94143f	-0.28921697
4	0xbe33ab6b	-0.1754586
5	0xbe207469	-0.15669407
6	0xbe703172	-0.23456362
7	0x3e207dd4	0.15673
8	0x3cbfc1b8	0.023407802
9	0xbe3e4188	-0.18579686
10	0xbea0b804	-0.31390393
11	0xbdae509f	-0.08511471
12	0x3d3029e3	0.043008696
13	0xbe83e094	-0.25757277
14	0xbdfd4d9e	-0.1236832
15	0xbe9210e0	-0.285285
16	0x3c5b2769	0.013376095
17	0xbd6ed33e	-0.058306925
18	0xbe8adfe4	-0.2712394
19	0xbe78e7e0	-0.24307203
20	0xbe50ffb7	-0.20410047
21	0x3d85f222	0.06540324
22	0xbe8dac4e	-0.2767052
23	0xbd94d063	-0.07266309
24	0x3d2304d9	0.039799545
25	0xbeaa3b5e	-0.3324842
26	0xbdb6a92a	-0.08918984
27	0xbd00f08d	-0.031479407
28	0xbe5040cb	-0.20337217
29	0x3dd8053a	0.10547872
30	0xbd7b9b1f	-0.061427232
31	0xbe0f7ff5	-0.14013655
32	0x3e8f2382	0.27956778
33	0xbe0df353	-0.13862352
34	0x3d379f60	0.044829726
35	0xbe827cac	-0.25485742
36	0x3cd9b5a4	0.02657587
37	0xbea512ab	-0.32240805
38	0xbe4ba938	-0.1988877
39	0xbdd78417	-0.10523241
40	0xbe122b50	-0.14274335
41	0xbe777bb9	-0.2416829
42	0xbe8acd71	-0.27109864
43	0xbe3e70e5	-0.18597753
44	0xbdb12689	-0.08649928
45	0x3e3c4111	0.18384196
46	0x3c545a14	0.012960929
47	0xbe67b1f4	-0.22626477
48	0xbe2b76ee	-0.16744587
49	0xbe02b364	-0.12763745

weight f4 [50, 50]
0	0x3dd82789	0.10554416
1	0xbcaf1bd0	-0.021375567
2	0xbe40c4f6	-0.18825135
3	0xbe23e9b9	-0.16007127
4	0xbe80a8be	-0.2512874
5	0xbd7f1818	-0.062278837
6	0x3d253744	0.04033591
7	0xbf541d80	-0.82857513
8	0xbe38b683	-0.18038373
9	0xbdbc510c	-0.09195146
10	0xbf05d2f1	-0.52274996
11	0xbf013178	-0.5046611
12	0xbf08137c	-0.5315473
13	0xbe873336	-0.26406258
14	0xbc1ffde6	-0.009765124
15	0xbdaa4adf	-0.08315062
16	0xbf155ad9	-0.5834175
17	0x3d8a6c3e	0.06758927
18	0x3de75544	0.1129556
19	0xbeff4add	-0.49861804
20	0xbe722ab1	-0.23649098
21	0x3d68e70d	0.056860972
22	0x3dbbe847	0.09175163
23	0xbe8ad1f7	-0.27113315
24	0x3e124cac	0.1428706
25	0x3d11e74b	0.03562097
26	0xbd4f6d7f	-0.050641533
27	0x3e2e9424	0.17048699
28	0xbec32f82	-0.38122183
29	0x3de7ef26	0.11324911
30	0xbedd1ae2	-0.43184572
31	0xbea98777	-0.33111164
32	0xbe6f773b	-0.23385327
33	0xbe27f39e	-0.16401526
34	0xbe7e605e	-0.24841449
35	0xbd7c602d	-0.061615158
36	0xbebe1637	-0.37126324
37	0x3dfd6f9b	0.12374803
38	0xbe9929fa	-0.29914838
39	0x3d76023d	0.06006073
40	0x3dd6f929	0.10496742
41	0xbe33a8bf	-0.1754484
42	0xbecaaca6	-0.39584845
43	0x3dc43eda	0.095823005
44	0x3e1732e1	0.14765503
45	0xbe7f4f67	-0.24932633
46	0xbeae73fa	-0.34072858
47	0xbe7ad52c	-0.24495381
48	0xbe11045c	-0.14161819
49	0xbdd55143	-0.1041589
50	0xbeea598d	-0.45771447
51	0xbe12497c	-0.14285845
52	0xbf067793	-0.52526206
53	0xbde74e71	-0.112942584
54	0xbea3cb9a	-0.31991273
55	0xbe869b31	-0.26290277
56	0xbe7f7377	-0.2494639
57	0xbe088418	-0.1333164
58	0x3e372588	0.17885411
59	0x3d97b408	0.07407385
60	0xbd3926b3	-0.045202922
61	0xbea95bff	-0.33078
62	0xbe76fd85	-0.24120148
63	0x3db7d497	0.08976095
64	0xbebee2e6	-0.37282485
65	0xbe787267	-0.24262391
66	0xbe59d8fa	-0.21274176
67	0xbf0aea43	-0.54263705
68	0xbd84062e	-0.06446491
69	0xbdceef25	-0.10104207
70	0xbf04711f	-0.5173511
71	0x3e84c7c8	0.2593367
72	0xbed9e2ee	-0.42555946
73	0xbe5c469b	-0.21511309
74	0x3ecfa867	0.40558168
75	0xbed13038	-0.408571
76	0xbd9d919f	-0.07693791
77	0xbf156a2a	-0.5836512
78	0xbd3963b9	-0.04526112
79	0x3eb944cf	0.3618531
80	0x3cab07ff	0.020877836
81	0xbe051a78	-0.12998378
82	0x3ea1d89c	0.31610572
83	0xbe4ac2a3	-0.1980081
84	0x3e7b4ef3	0.24541835
85	0xbe46cc1c	-0.19413799
86	0xbe1e0a4c	-0.15433615
87	0xbebb3376	-0.365627
88	0xbdd8cca9	-0.10585911
89	0xbb7ba24f	-0.0038396304
90	0xbe2f8c39	-0.17143334
91	0x3e19d5bf	0.15022944
92	0xbf0a0ed6	-0.5392889
93	0xbe4e818c	-0.20166606
94	0xbda7a348	-0.0818544
95	0x3de81eed	0.113340236
96	0x3d9d604e	0.07684384
97	0x3d8bcee2	0.06826569
98	0xbe2b7255	-0.16742833
99	0xbea238b7	-0.31683895
100	0xbeaa9b5f	-0.33321664
101	0xbe4435af	-0.19161104
102	0xbd882e4b	-0.06649455
103	0xbd897eee	-0.06713663
104	0xbdbde98b	-0.092730604
105	0xbd09681b	-0.03354655
106	0xbd9d2129	-0.076723404
107	0xbf0e8aaa	-0.55680335
108	0xbd7513b0	-0.05983323
109	0x3d2c73a1	0.04210246
110	0xbe824550	-0.25443506
111	0xbd802ed0	-0.06258929
112	0xbeedcff1	-0.4644771
113	0xbea75a11	-0.32685903
114	0xbe8772de	-0.26454824
115	0xbdb585e0	-0.08863425
116	0xbec10dac	-0.37705743
117	0xbdefa67f	-0.117016785
118	0x3dd194c3	0.10233452
119	0xbea41de0	-0.32054043
120	0xbe9abce0	-0.30222225
121	0xbcb983b5	-0.02264581
122	0xbe481acc	-0.19541472
123	0xbe836855	-0.25665537
124	0x3d6a104e	0.057144456
125	0xbe86af4d	-0.2630562
126	0xbdcd7c31	-0.10033453
127	0xbe304a56	-0.17215857
128	0xbcec41db	-0.028839996
129	0x3d4f126a	0.05055467
130	0xbe551277	-0.20807825
131	0xbe99b913	-0.30024013
132	0xbe4feaf4	-0.20304471
133	0xbe5d317c	-0.21600908
134	0xbe876243	-0.26442155
135	0xbdd017a2	-0.101607576
136	0xbe9a07d9	-0.30084112
137	0xbe193352	-0.14960983
138	0xbcc73015	-0.02431492
139	0x3e0380cf	0.12842105
140	0xbddbd3c5	-0.10733751
141	0xbe4770ff	-0.19476698
142	0xbe9917d7	-0.29901
143	0xbc0abb9b	-0.00846758
144	0xbd860860	-0.06544566
145	0xbf007633	-0.5018036
146	0xbe8b7509	-0.27237728
147	0x3bbdb71c	0.0057896506
148	0xbe0600e0	-0.13086271
149	0xbe5d60ed	-0.21619006
150	0xbe92e8e7	-0.28693315
151	0xbc94b252	-0.018151436
152	0xbecc72a1	-0.39931205
153	0xbd7fc6cb	-0.062445443
154	0xbd34f864	-0.044182196
155	0xbed0f5ba	-0.40812474
156	0xbe24cd47	-0.16093932
157	0xbe87501d	-0.2642831
158	0xbe6d628e	-0.23182127
159	0xbe8dbec5	-0.27684608
160	0xbdce031e	-0.10059188
161	0xbe85293b	-0.2600802
162	0xbe8a1fc3	-0.26977357
163	0xbb750b35	-0.0037390713
164	0xbe759af9	-0.23984899
165	0xbe9157f3	-0.28387412
166	0xbe80f22e	-0.25184768
167	0xbe546f04	-0.20745474
168	0xbe246bc4	-0.16056734
169	0xbe0fe3b7	-0.1405171
170	0xbe928f0f	-0.2862477
171	0xbe994031	-0.29931787
172	0xbeb4daa9	-0.35323074
173	0xbe7de048	-0.24792588
174	0xbefe664b	-0.49687418
175	0xbe846bf3	-0.2586361
176	0xbc37a2a6	-0.011208212
177	0xbe971136	-0.29505318
178	0xbe4fdb90	-0.202986
179	0xbeed790f	-0.46381423
180	0xbe3ab0f5	-0.18231566
181	0xbe0f192b	-0.13974445
182	0x3d01ded1	0.031706635
183	0xbe2a5599	-0.16634215
184	0xbe512cd7	-0.20427261
185	0xbe4c4fee	-0.19952366
186	0x3b287d20	0.0025709346
187	0xbe3b0cbc	-0.18266577
188	0xbe2dd4ab	-0.16975658
189	0xbe723496	-0.23652872
190	0xbe81aeb9	-0.25328615
191	0xbdf410a2	-0.11917235
192	0xbeaf65a9	-0.34257248
193	0xbe44bf75	-0.1921366
194	0xbeb3077f	-0.34966657
195	0xbd6a8669	-0.05725709
196	0xbe1dcdd5	-0.1541055
197	0xbd526dca	-0.051374234
198	0x3c95a23c	0.018265836
199	0xbe699541	-0.22810842
200	0xbe99d410	-0.30044603
201	0xbe1097d5	-0.1412042
202	0x3cde0ece	0.027106669
203	0xbd2b4d1e	-0.04182159
204	0x3d1203f9	0.03564832
205	0xbd4c0c7b	-0.04981659
206	0xbdb13a13	-0.08653655
207	0xbe5f0ee4	-0.21783024
208	0xbe4538cb	-0.19259946
209	0x3d12bf55	0.035827
210	0xbe19b988	-0.15012181
211	0xbddfa7fe	-0.10920714
212	0xbe730073	-0.2373064
213	0xbc95e188	-0.018296018
214	0xbbe4521e	-0.006967797
215	0x3d571939	0.05251429
216	0xbdefd185	-0.117098846
217	0xbdb59020	-0.0886538
218	0x3d2636bd	0.040579546
219	0xbb8ce35c	-0.0042995643
220	0xbca11806	-0.019664776
221	0xbe862a62	-0.2620421
222	0xbcb890e4	-0.022530027
223	0xbe54239c	-0.20716709
224	0x3c1ecea1	0.009692819
225	0xbd62781d	-0.05529033
226	0x3c0944fe	0.008378265
227	0xbde30895	-0.11085621
228	0xbd663018	-0.05619821
229	0xbdcafa82	-0.09911062
230	0xbe43a248	-0.19104874
231	0xbe659ee1	-0.22423889
232	0xbecc2d45	-0.39878288
233	0x3d940e0b	0.07229241
234	0xbe6584f8	-0.22414005
235	0x3b02f90a	0.0019984865
236	0xbbb00fa6	-0.005372959
237	0xbe54f907	-0.20798121
238	0x3bac0b37	0.0052503604
239	0xbdd19617	-0.102337055
240	0xbe05fb4b	-0.13084142
241	0xbd9197db	-0.07109042
242	0x3d32e844	0.043678537
243	0x3d01b5a0	0.03166735
244	0xbce41d35	-0.027845958
245	0xbecb54bd	-0.39713088
246	0x3c7faf02	0.01560569
247	0xbe02ee8f	-0.12786315
248	0x3cd4b827	0.025966717
249	0xbc3fd588	-0.011708625
250	0xbeafa2f5	-0.34304014
251	0xbe388543	-0.18019585
252	0x3d4273c9	0.047473703
253	0xbdce2722	-0.10066058
254	0xbc6b7c75	-0.014372935
255	0x3d96da2f	0.07365834

bias f4 [50]
0	0x3dbcc6ec	0.09217629
1	0xbe208640	-0.15676212
2	0xbe9ae909	-0.30255917
3	0xbe51b7c7	-0.20480262
4	0xbe6ebd81	-0.23314478
5	0xbe55cbb6	-0.20878491
6	0xbe52dd82	-0.20592311
7	0xbcdaac47	-0.026693476
8	0xbd605954	-0.05477269
9	0xbea4577f	-0.32098004
10	0xbe140398	-0.14454496
11	0xbe92a015	-0.28637758
12	0xbd9ce3a9	-0.0766061
13	0xbe6df226	-0.23236904
14	0xbe6ead3d	-0.23308273
15	0xbe134edf	-0.14385556
16	0xbea15ff2	-0.31518513
17	0xbdfe1a16	-0.12407319
18	0xbe84d9e3	-0.25947484
19	0xbebb6e78	-0.36607718
20	0xbe930cce	-0.28720707
21	0xbe7b952d	-0.24568625
22	0xbd353131	-0.044236366
23	0xbe7ac1ad	-0.24487944
24	0xbe8289fc	-0.254959
25	0xbeb094cb	-0.3448852
26	0xbe09bdce	-0.13451311
27	0xbe4512ac	-0.19245404
28	0xbe567d4e	-0.20946237
29	0xbea7afb0	-0.32751226
30	0xbee46d8c	-0.44614828
31	0xbe734b3c	-0.23759168
32	0xbe7ebac5	-0.24875934
33	0xbe89f483	-0.2694436
34	0xbed8fb89	-0.42379406
35	0xbe4f6368	-0.20252764
36	0xbe48e632	-0.19619063
37	0xbe2076c8	-0.15670311
38	0xbe0bc017	-0.13647495
39	0xbea1443c	-0.3149737
40	0xbe857d74	-0.26072276
41	0xbe948228	-0.2900555
42	0xbe3f2b72	-0.18668917
43	0xbdb870c7	-0.090058856
44	0xbe6582be	-0.22413155
45	0xbb5d6abc	-0.0033785542
46	0xbe59f8e6	-0.21286353
47	0xbe59658f	-0.21230148
48	0xbeb5a383	-0.35476312
49	0xbe85256b	-0.2600511

weight f4 [100, 50]
0	0x3f04be53	0.5185291
1	0x3f0c93a7	0.549128
2	0x3ea8b79e	0.3295259
3	0xbe01e8e2	-0.12686494
4	0x3e5fbe6f	0.21849988
5	0xbdb96e40	-0.09054232
6	0xbda4d5c2	-0.080485836
7	0xbf007fb5	-0.50194865
8	0xbf21a333	-0.6313965
9	0xbd461d8a	-0.048368014
10	0x3e6a7078	0.22894466
11	0x3d43c937	0.047799315
12	0xbe00b1d2	-0.12567833
13	0xbe021b30	-0.12705684
14	0x3e23f7cb	0.16012494
15	0x3db57050	0.088593125
16	0xbe88c559	-0.26713064
17	0xbe06bd65	-0.13158186
18	0x3e2d49f7	0.16922747
19	0x3e1c45e1	0.15261032
20	0xbebed2d9	-0.3727024
21	0xbc1fdb0b	-0.009756814
22	0xbf05af48	-0.5222058
23	0xbe165048	-0.14679062
24	0x3d1ff45e	0.039051406
25	0x3db0de8c	0.086361974
26	0x3d70571a	0.058676817
27	0x3dbb058f	0.091319196
28	0xbe878f0c	-0.26476324
29	0x3e548321	0.20753147
30	0xbdfa121c	-0.12210485
31	0xbe549465	-0.20759733
32	0x3ebb85a3	0.36625394
33	0x3d57d30a	0.052691497
34	0xbd965459	-0.07340307
35	0xbdbbf584	-0.09177688
36	0xbe12bb24	-0.14329201
37	0xbeb1291d	-0.3460168
38	0xbe54c418	-0.20777929
39	0x3e746189	0.23865332
40	0x3bdbb66c	0.006705096
41	0x3eb646c3	0.35600862
42	0xbe789c96	-0.24278483
43	0xbcaa7041	-0.02080548
44	0xbdcf0848	-0.101090014
45	0x3d25e0db	0.040497642
46	0x3dbd8ce4	0.092553884
47	0xbc2d71bb	-0.0105861975
48	0xbca21cba	-0.019789089
49	0x3d0aafd3	0.033859085
50	0xbdb2a4ba	-0.08722825
51	0xbe47bdf6	-0.19506058
52	0x3e0e3f65	0.1389137
53	0xbd3219f7	-0.043481793
54	0x3caaec4b	0.020864626
55	0x3d4f8af1	0.050669614
56	0xbc8ecca3	-0.017431563
57	0x3d82ee06	0.063930556
58	0x3dd7ffe6	0.10546856
59	0xbe28ec34	-0.16496354
60	0xbd811748	-0.06303269
61	0xbd1aa0f9	-0.03775117
62	0xbe22e589	-0.15907873
63	0x3c8612f8	0.016366467
64	0xbe0ad798	-0.13558805
65	0x3c356390	0.011071101
66	0xbba3ebe9	-0.005002488
67	0x3e049116	0.12945971
68	0x3d7dd3b2	0.061969467
69	0xbdde520f	-0.10855495
70	0x3dee2fe9	0.11630232
71	0x3c6bf06d	0.014400584
72	0x3de69fd2	0.11260952
73	0x3e598bce	0.21244738
74	0x3d1358fa	0.035973527
75	0xbd90fbcb	-0.07079276
76	0xbedc4998	-0.43024898
77	0xbea435ef	-0.32072398
78	0xbe458c90	-0.19291902
79	0xbd70b479	-0.058765862
80	0xbda956ac	-0.082684845
81	0x3e128253	0.14307527
82	0x3dcb3cab	0.09923681
83	0xbde4eb53	-0.11177697
84	0xbd9fd3f9	-0.078041025
85	0x3bfad68a	0.0076549696
86	0xbddb752c	-0.10715708
87	0x3e0f2fa3	0.13983016
88	0xbd06338c	-0.032764003
89	0xbdd1a2ed	-0.10236154
90	0xbe8612b1	-0.26186135
91	0x3da9fdb1	0.08300341
92	0x3e0b7930	0.13620448
93	0x3c83668c	0.01604011
94	0xbd42ce35	-0.047559936
95	0xbe65f2e4	-0.22455937
96	0xbe0b2094	-0.13586646
97	0xbe05ab6c	-0.13053674
98	0xbe0ef5fa	-0.1396102
99	0xbe3f137e	-0.1865978
100	0x3cfe97ef	0.031078307
101	0x3c8464da	0.016161371
102	0x3e07ed35	0.13274081
103	0xbe280da4	-0.16411453
104	0xbe0983fc	-0.13429254
105	0xbe0ac435	-0.1355141
106	0xbd2771f2	-0.04088015
107	0xbe22aa92	-0.1588538
108	0xbe362377	-0.17786966
109	0xbb47de05	-0.0030497324
110	0xbe17937c	-0.14802355
111	0x3d2fd5ed	0.042928625
112	0x3ca6c373	0.02035687
113	0x3d730931	0.059334937
114	0xbd880632	-0.06641807
115	0xbd650c83	-0.055920135
116	0xbdbfd59c	-0.09366915
117	0xbd5db890	-0.05413109
118	0xbb01205d	-0.0019703128
119	0xbc5a0972	-0.013307916
120	0x3da261e9	0.07928831
121	0xbd85a11a	-0.06524868
122	0xbcc44909	-0.023960607
123	0x3a82a166	0.0009966313
124	0xbdbec979	-0.093157716
125	0x3d8b39d8	0.06798142
126	0x3da1ef90	0.07907021
127	0xbe12d956	-0.1434072
128	0xbdcc3d2f	-0.09972607
129	0xbcdc5816	-0.026897471
130	0xba269de3	-0.00063559244
131	0xbd166cb4	-0.03672476
132	0xbd37885f	-0.044807788
133	0x3be5cef5	0.0070131966
134	0x3d8e6aa1	0.069539316
135	0xbd063df0	-0.032773912
136	0xbe07e70f	-0.13271736
137	0xbe3bef99	-0.18353118
138	0xbe33fd1a	-0.1757702
139	0x3c885b3d	0.016645068
140	0xbd22c38d	-0.039737273
141	0x3cb5e7d1	0.022205265
142	0xbdd83af1	-0.10558117
143	0xbd5e63e8	-0.054294497
144	0xbd50b1ee	-0.050950937
145	0xbdec1545	-0.11527494
146	0xbe09c68a	-0.13454643
147	0xbd4f3b8d	-0.0505939
148	0xbd100dcb	-0.035169404
149	0x3b0951e4	0.0020953352
150	0xbe4f9282	-0.20270732
151	0xbeb024c2	-0.34403044
152	0xbcd6ae33	-0.026206112
153	0xbdebcaa5	-0.11513261
154	0x3dd82514	0.10553947
155	0x3dd379cf	0.103259675
156	0xbde8c07d	-0.11364839
157	0xbd4e8464	-0.050419226
158	0xbd1f697c	-0.038918957
159	0xbe325222	-0.17414144
160	0xbdcba4dc	-0.09943554
161	0xbe2d0d7b	-0.16899674
162	0x3b4de8ce	0.003141928
163	0x3dd11131	0.10208357
164	0x3c4fab24	0.01267508
165	0xbde7f6a9	-0.113263436
166	0xbd2738ea	-0.04082576
167	0x3e2e6030	0.1702888
168	0xbd4d4d20	-0.05012238
169	0xbdb992b9	-0.09061188
170	0xbc23a506	-0.009988075
171	0x3d2684e8	0.040654093
172	0xbd234999	-0.03986511
173	0x3d888082	0.06665136
174	0xbdb3f877	-0.08787625
175	0x3dda8a77	0.10670941
176	0xbdce7dd7	-0.10082596
177	0xbe9682f4	-0.29396784
178	0xbdd1d5d3	-0.10245862
179	0xbd08c615	-0.03339203
180	0xbe2c2b2a	-0.16813341
181	0x3e0eb8d5	0.13937695
182	0xbc4a3ff9	-0.012344354
183	0x3db6e4c5	0.08930353
184	0xbd8763d2	-0.06610836
185	0x3d8f7dd2	0.0700642
186	0xbc10982e	-0.008825345
187	0x3db33d09	0.08751876
188	0xbd91d667	-0.07120972
189	0x3c857427	0.016290737
190	0x3d485ead	0.048918415
191	0xbdfbfd4c	-0.12304172
192	0x3e9332fb	0.28749833
193	0x3db3e486	0.08783822
194	0x3d9cd8ef	0.07658564
195	0xbd7f7074	-0.062363103
196	0xbdbfb0c3	-0.093598865
197	0x3d3cc122	0.046082623
198	0xbd966696	-0.073437855
199	0x3cf21f39	0.029555904
200	0x3e3cc7b7	0.1843556
201	0x3c91f1ed	0.017815555
202	0x3b9c1e0b	0.0047643236
203	0x3db91dae	0.09038864
204	0xbe06b6f6	-0.13155732
205	0xbe1d7d3d	-0.15379806
206	0xbd93f786	-0.07224946
207	0xbd264b50	-0.040599167
208	0xbe4c4f07	-0.19952022
209	0xbdc485e7	-0.09595852
210	0xbb4210e2	-0.0029612114
211	0x3d381bff	0.044948574
212	0x3daacf50	0.08340323
213	0xbdb713e1	-0.089393385
214	0x3e2d5a60	0.16929007
215	0xbd66ab13	-0.056315493
216	0xbdc0d549	-0.09415681
217	0xbe4be6b2	-0.19912222
218	0x3d7335d8	0.05937752
219	0xbd82544c	-0.063637346
220	0xbdf4573b	-0.119307004
221	0xbd04e021	-0.03244031
222	0xbe36db5e	-0.1785712
223	0xbe40ae90	-0.1881659
224	0x3dc04980	0.09389019
225	0x3c958fee	0.018257108
226	0x3e0fc892	0.14041355
227	0x3da9df77	0.08294576
228	0x3e318d23	0.17338996
229	0x3e0d65cd	0.13808365
230	0xbb9ee2fd	-0.0048488365
231	0xbd6a4383	-0.05719329
232	0xbc7eca63	-0.015551182
233	0xbbbee9cf	-0.005826212
234	0xbc6414d3	-0.0139209805
235	0x3e10a5c3	0.14125733
236	0xbcb52c92	-0.02211598
237	0xbcb2b4b8	-0.021814689
238	0xbd9233e9	-0.07138807
239	0x3dee604b	0.1163946
240	0x3d8dfac0	0.069325924
241	0x3c602de5	0.013682817
242	0xbe490e21	-0.19634296
243	0x3d1dd61f	0.03853428
244	0x3d48e32e	0.04904478
245	0x3e70421f	0.23462723
246	0x3d3a4b2b	0.045481842
247	0x3de23a92	0.11046328
248	0x3e56c361	0.20972969
249	0x3e41996a	0.18906179
250	0xbd8b4267	-0.067997746
251	0xbee961c1	-0.45582393
252	0xbea33a7c	-0.31880558
253	0x3d5cc7ac	0.05390136
254	0xbe064a5c	-0.13114303
255	0xbdaa7145	-0.08322386
