mcspace/paper/mouse_runs/runs/seed_7/model.pt (torch, 464942 bytes, 99 tensors)

theta_params f4 [100, 74]
000000 da 20 94 c0 9a 6e 59 c0 26 8d 64 3f 3f 67 23 3f
       -4.62901 -3.3973756 0.89277875 0.63829416
000010 e6 2e c8 bf a5 b3 8d c0 4d f5 a6 c0 47 78 b4 c0
       -1.5639312 -4.4281793 -5.217444 -5.6396823
000020 e8 da 7d c0 fc e2 9b c0 e3 58 82 c0 15 00 60 c0
       -3.966486 -4.871458 -4.0733504 -3.500005
000030 1c f7 21 c0 91 0e 32 c0 c1 00 4e 3e 9b b6 85 c0
       -2.5307074 -2.782139 0.20117475 -4.1785407
000040 f0 cd be 3f 47 c3 75 c0 7b 39 ce c0 af ce 7d c0
       1.4906597 -3.8400438 -6.4445167 -3.96574
000050 ca 84 0b c0 38 c4 f0 3e 07 d2 83 3d a2 d7 c4 bf
       -2.1799798 0.47024703 0.06436544 -1.5378306
000060 c8 7d 75 c0 2a 69 85 c0 d8 05 d0 c0 fe c3 0f 40
       -3.835802 -4.1690874 -6.5007133 2.2463374
000070 07 0d 4a c0 14 75 43 c0 24 2e 93 bf 62 84 9e c0
       -3.1570451 -3.054021 -1.1498456 -4.95366
000080 69 d9 68 c0 2a 94 a1 be 1c 01 f7 bf e7 8f 85 c0
       -3.6382697 -0.31558353 -1.9297214 -4.173816
000090 2c b0 ab c0 09 07 32 3e d3 31 42 c0 96 f4 76 c0
       -5.3652554 0.17385496 -3.034291 -3.8586783
0000a0 66 bf ac c0 46 2c ae 3e 4a 8b 99 bf cb 35 7b bf
       -5.398364 0.34018153 -1.1995633 -0.98128957
0000b0 ea e2 2d c0 d7 14 81 bf f6 2a 97 c0 f0 73 bd c0
       -2.7169747 -1.0084485 -4.7239943 -5.9204025
0000c0 d5 85 a2 c0 11 d7 3d c0 cf 5b 0c 3f 18 05 8b c0
       -5.078837 -2.9662516 0.5482759 -4.344372
0000d0 d2 ac 88 c0 f2 14 5e c0 bd 74 ab c0 de 4c 05 40
       -4.271096 -3.4700284 -5.3580003 2.0828166
0000e0 bc 77 b9 c0 17 0c b1 bf 09 19 bc c0 85 95 81 c0
       -5.795866 -1.3831815 -5.878056 -4.049502
0000f0 08 53 83 c0 7a 07 71 c0 7c 6f 4e 3f 1f 3d 6d c0
       -4.1038857 -3.7660813 0.8063886 -3.7068555
000100 9d 26 be 40 3a ea 03 40 8b e2 77 c0 5f d8 8b c0
       5.9422135 2.061171 -3.873202 -4.3701625
000110 59 5e 6e c0 33 36 71 c0 43 f8 be c0 4c 9e 6f c0
       -3.7245085 -3.768933 -5.9678054 -3.7440367
000120 96 49 86 c0 3d 0b cf c0 90 34 90 c0 70 8c ce bf
       -4.1964827 -6.470122 -4.5064163 -1.6136608
000130 62 ed b1 c0 c5 2e d9 c0 d7 3a 55 c0 86 85 25 c0
       -5.5602274 -6.786959 -3.3317163 -2.5862746
000140 a0 7f 12 c0 ca a4 13 c0 bb 0a 74 c0 1f f3 9a c0
       -2.2890396 -2.306933 -3.813155 -4.842178
000150 e1 e5 e5 bf 52 0c 7a c0 c0 b4 ce c0 cf 24 99 c0
       -1.7960778 -3.907002 -6.459564 -4.785743
000160 96 65 cb c0 3d d7 91 c0 d7 fd 2a c0 5b b6 67 c0
       -6.3561506 -4.557524 -2.6717432 -3.620505
000170 f0 1d 8c c0 81 06 9f bf a0 83 77 c0 4b 39 b5 c0
       -4.3786545 -1.242386 -3.8674088 -5.663244
000180 57 04 9d c0 6e ed 00 c0 e4 bc 82 c0 c9 dd 5d c0
       -4.90678 -2.0144916 -4.085558 -3.4666617
000190 ee 94 95 c0 a0 c2 b0 c0 ee b1 9e c0 72 24 97 bf
       -4.67443 -5.523758 -4.95922 -1.1807997
0001a0 e4 5f 80 c0 39 fe 71 c0 99 44 98 c0 f7 41 ad c0
       -4.0117054 -3.7811415 -4.7583737 -5.4143023
0001b0 5e 1f 44 c0 1c 7b 95 c0 00 00 ba c0 3a 63 85 c0
       -3.0644145 -4.671278 -5.8125 -4.1683626
0001c0 a1 ec 58 c0 f7 1b 83 c0 68 e5 b7 bf 24 40 ae c0
       -3.3894427 -4.0971637 -1.4366884 -5.4453297
0001d0 5d 43 4f c0 f9 f3 b1 c0 c4 de 9c c0 d2 d3 c3 c0
       -3.2384865 -5.561032 -4.902193 -6.119607
0001e0 31 64 81 c0 6b b7 90 c0 ed e3 1a c0 f4 08 bd c0
       -4.0434804 -4.52239 -2.4201615 -5.907343
0001f0 ca 3c a6 c0 79 b6 49 bf b0 4a 62 c0 8e 1f 18 c0
       -5.1949205 -0.78794056 -3.5358086 -2.376926
000200 2c 6d a4 c0 3d 04 ce 40 a4 22 9e c0 ea cd b2 c0
       -5.1383266 6.4380174 -4.9417286 -5.587636
000210 e9 8d 84 c0 c9 fe f4 bf f0 ed 8a c0 ca e6 9e c0
       -4.142323 -1.9140254 -4.341545 -4.9656725
000220 9e d7 c5 c0 87 8a bc c0 f1 ad 06 c0 9a 32 27 c0
       -6.1825705 -5.89191 -2.1043665 -2.6124635
000230 cd c8 ef c0 36 6b ab c0 1a bc a1 c0 f0 f3 be c0
       -7.493262 -5.3568373 -5.0542116 -5.9672775
000240 d0 57 af c0 84 fc 80 c0 89 b8 94 c0 cc 25 bd c0
       -5.4794693 -4.0308247 -4.6475263 -5.910864
000250 ba 99 5a bf e5 c1 aa c0 7a f6 86 be c4 74 47 3e
       -0.8539082 -5.336169 -0.26359922 0.19478136
000260 ab 87 43 c0 49 ba c4 c0 cf 1d ba 40 b5 bb a3 c0
       -3.0551555 -6.14774 5.8161387 -5.1166635
000270 dc 9a 97 c0 20 57 a7 c0 83 09 00 c0 c0 d8 b0 bf
       -4.7376537 -5.2293854 -2.0005805 -1.3816147
000280 24 e1 b4 c0 08 1a 84 c0 49 97 9e c0 dc be b4 c0
       -5.652483 -4.1281776 -4.9559674 -5.6482983
000290 47 d9 25 c0 b7 cd 53 bf 7b 08 ad bf d4 51 c7 c0
       -2.5913866 -0.8273577 -1.3518213 -6.228739
0002a0 b1 33 9b bf 1a d1 8c c0 7f f2 9b bf fc d9 e2 bd
       -1.212515 -4.400525 -1.2183379 -0.110767335
0002b0 5b 5e 8e bf b4 a4 98 3f 76 a8 a2 c0 61 2d b5 c0
       -1.1122545 1.1925263 -5.083064 -5.6617894
0002c0 7c 11 53 c0 e6 19 63 c0 7f 36 7a c0 eb 4a c7 bf
       -3.2979422 -3.5484557 -3.9095762 -1.5569738
0002d0 1a 12 41 c0 a4 ff b3 bf 92 3c 90 c0 8b 34 a1 c0
       -3.0167298 -1.406239 -4.507394 -5.037664
0002e0 e2 27 96 c0 ca a8 ad c0 17 8b 9f c0 bf a8 7e c0
       -4.6923685 -5.426854 -4.9857287 -3.9790494
0002f0 7d bb ab c0 8b 41 72 c0 23 c1 68 c0 33 22 36 c0
       -5.3666368 -3.7852504 -3.6367881 -2.8458374
000300 25 47 cc bd 2a 4e 7a 3f 64 5a 8e c0 fe ed 92 bf
       -0.09974507 0.9777552 -4.448534 -1.147888
000310 ec 63 d6 be 7c 5e b1 c0 a3 bb 7f bf a8 58 c3 be
       -0.4187311 -5.5427837 -0.99895686 -0.38153577
000320 d7 84 9c 3e 63 4f 83 3f 35 1c ee bf 20 d7 cd 3e
       0.305701 1.0258602 -1.8602358 0.4020319
000330 5a 6d 83 c0 87 92 82 bf 4a e4 9b c0 73 8e 97 c0
       -4.1070986 -1.0200967 -4.8716173 -4.736139
000340 a1 6c 85 c0 8c af 91 c0 1d 82 68 c0 f7 27 ae c0
       -4.1695104 -4.552679 -3.6329415 -5.4423785
000350 8d 1a 02 bf 72 b3 71 c0 f6 b1 d9 3e af 38 bc c0
       -0.50821763 -3.7765775 0.42518586 -5.8819194
000360 10 32 d9 bf 5d 2c 73 c0 cc 96 6d c0 39 64 d1 c0
       -1.6968403 -3.7995827 -3.712329 -6.543484
000370 8c 21 98 c0 99 70 8d c0 22 94 10 c0 a3 fb 86 c0
       -4.754095 -4.419995 -2.2590413 -4.2182174
000380 55 b9 85 bf e4 26 f3 bf 9c 58 91 c0 76 61 b0 40
       -1.0447184 -1.8996243 -4.5420666 5.511897
000390 ac 3b 4c c0 e5 6e 88 c0 0c db 42 c0 b5 1b ab bf
       -3.191142 -4.263537 -3.0446196 -1.336783
0003a0 22 51 8a c0 62 c2 a4 bf fb 71 88 bf a9 8b d5 bf
       -4.322404 -1.2871821 -1.0659784 -1.6683246
0003b0 d5 29 c3 bf cc 59 95 bf 4a 64 60 c0 7a 4f af bf
       -1.5247141 -1.1668029 -3.5061212 -1.3696129
0003c0 15 58 94 c0 6e df 96 c0 0e e6 37 be eb 3b 49 c0
       -4.635752 -4.714774 -0.17958853 -3.144282
0003d0 09 90 67 c0 77 e7 7b c0 1e e8 71 c0 f8 0c 10 40
       -3.6181662 -3.9360025 -3.7797923 2.2507915
0003e0 46 3c 5e bf eb 84 be bf bc 96 94 c0 eb fe f1 bf
       -0.8681072 -1.4884313 -4.6434 -1.890592
0003f0 e6 88 61 c0 6b 14 cd c0 2a bc 4d bf 54 a0 65 bf
       -3.5239806 -6.4087424 -0.8036524 -0.89697766

q_mu f4 [7]
000000 ef 41 70 c0 0f 9d fc bf a3 04 11 c0 2d d7 42 c0
       -3.7540243 -1.973543 -2.265908 -3.0443833
000010 7b 15 16 c0 be 87 0e c0 4d 57 58 c0
       -2.345061 -2.227035 -3.3803284

q_var f4 [7]
000000 0b 3c 0b c0 ed 28 7c c0 0b b2 a1 c0 8b c5 51 c0
       -2.1755397 -3.939998 -5.0529838 -3.277682
000010 8d 1b 5d c0 c7 23 88 c0 0b 65 2c c0
       -3.4548066 -4.2543674 -2.6936672

eps f4 [7]
000000 2c 15 f1 3e 55 91 68 bf 94 71 13 3f 4a 98 95 be
       0.47086465 -0.9084676 0.5759518 -0.2921775
000010 db 3e ed bf 22 5b b6 3f a0 ef 94 3f
       -1.8534807 1.4246562 1.1635628

q_gamma_params f4 [99]
000000 fd 8d 76 40 0a 64 69 40 2e fc 81 40 70 37 86 40
       3.8524163 3.646731 4.0620337 4.1942673
000010 9f 35 67 40 4a 7b 83 40 ee 15 78 40 c5 88 68 40
       3.6126478 4.1088 3.8763385 3.6333477
000020 ae b5 77 40 6d 90 70 40 05 53 1d 40 41 e0 7c 40
       3.8704638 3.758815 2.458192 3.9511874
000030 b8 d4 2f 40 4b 90 74 40 97 5b 7c 40 dd 95 7b 40
       2.7473583 3.821307 3.9430902 3.931022
000040 46 3f 82 40 73 0d 78 40 2e b4 4b 40 f8 71 3d 40
       4.070224 3.8758209 3.1828723 2.960081
000050 3e 62 6c 40 fc 6e 77 40 0b aa 69 40 37 24 87 40
       3.6934962 3.866149 3.6510036 4.2231708
000060 b2 a9 82 40 98 a5 6e 40 82 1d 7c 40 78 53 1b c0
       4.0832148 3.728857 3.939301 -2.4269695
000070 98 a7 65 40 02 a3 83 40 c8 2d 77 40 a6 20 6c 40
       3.588354 4.1136484 3.8621693 3.6894927
000080 da ef ca 3e 22 ae 5a 40 0f 68 23 40 f3 49 56 40
       0.39636117 3.4168782 2.5532262 3.3482635
000090 a6 70 74 40 b7 b0 29 40 54 87 83 40 69 11 74 40
       3.8193755 2.6514108 4.1102695 3.8135626
0000a0 60 c6 77 40 52 6e 65 40 3d 0b 94 40 c6 81 7d 40
       3.8714828 3.5848584 4.626372 3.9610457
0000b0 75 e3 6a 40 75 01 2c 40 3e 92 6b 40 a3 f0 70 40
       3.6701329 2.687589 3.680801 3.7646873
0000c0 26 19 78 40 63 34 1f 40 72 a8 8b 40 86 f8 86 40
       3.876535 2.4875724 4.364312 4.2178373
0000d0 f4 1e 6d 40 27 a6 7c 40 76 88 bb 3e 4c 2a 87 40
       3.7050142 3.9476411 0.3662755 4.223913
0000e0 21 5b 74 c0 10 7f 49 40 3f 1c 77 40 ff 04 5f 40
       -3.818062 3.1483803 3.861099 3.48468
0000f0 08 1b 87 40 e6 36 1f 40 29 a3 49 40 92 b6 38 40
       4.2220497 2.4877257 3.1505835 2.8861432
000100 a9 15 88 40 ff b5 69 40 d0 a6 6a 40 1c 1a d4 3f
       4.252644 3.6517332 3.6664314 1.6570468
000110 9d cb 82 40 4a 2b f8 3f d4 33 86 40 48 1f 78 40
       4.087355 1.9388211 4.1938267 3.8769093
000120 72 b6 6f c0 09 df 7d 40 ad 9a 7b 40 92 c1 85 40
       -3.7455106 3.966738 3.9313157 4.179879
000130 5c 9d 82 40 33 9f 7a 40 26 e9 2a 40 cc c7 06 40
       4.081709 3.9159667 2.6704803 2.1059446
000140 4a 0a 71 40 94 19 80 40 3e 45 80 40 7f 71 4f 40
       3.766253 4.0031223 4.0084524 3.2413023
000150 64 96 74 40 37 3c 6a 40 a5 c8 8d 3f 13 46 89 40
       3.821679 3.6599252 1.1076857 4.289804
000160 37 c5 73 40 73 d5 ff 3f e2 5c 6a 40 1f 1d 44 40
       3.808912 1.9987015 3.661919 3.0642774
000170 54 91 81 40 c0 9a 80 40 46 9c 3f 40 a6 b1 89 40
       4.0489902 4.0188904 2.9939132 4.3029356
000180 b2 87 49 40 a9 2d 7b 40 58 9e 1c c0
       3.1489072 3.9246619 -2.4471645

q_probs f4 [99]
000000 b1 ad 7a 3f 86 7e 79 3f f7 aa 7b 3f 49 32 7c 3f
       0.9792128 0.97458684 0.98307747 0.9851423
000010 53 46 79 3f d0 dc 7b 3f 4a cd 7a 3f b7 68 79 3f
       0.9737293 0.9838381 0.97969496 0.9742541
000020 9d c5 7a 3f 17 2b 7a 3f 39 d2 6b 3f 6e 2b 7b 3f
       0.97957784 0.97722 0.9211765 0.98113143
000030 45 94 70 3f a5 83 7a 3f 8d 21 7b 3f b4 12 7b 3f
       0.9397624 0.97857124 0.9809807 0.98075414
000040 d5 b3 7b 3f 66 cc 7a 3f 07 cf 75 3f d1 63 73 3f
       0.98321277 0.9796814 0.96019024 0.9507418
000050 24 c7 79 3f f0 bf 7a 3f 9a 85 79 3f a4 4d 7c 3f
       0.9756949 0.97949123 0.97469485 0.9855597
000060 d4 c1 7b 3f c1 fe 79 3f eb 1c 7b 3f ee 36 a6 3d
       0.98342633 0.9765435 0.98091 0.08115946
000070 29 1d 79 3f dc e1 7b 3f af ba 7a 3f 9c c2 79 3f
       0.9731012 0.9839151 0.97941107 0.97562575
000080 35 13 19 3f 0b d0 77 3f 74 84 6d 3f 3a 4f 77 3f
       0.5979493 0.96801823 0.9278023 0.96605265
000090 ec 80 7a 3f 16 22 6f 3f 59 de 7b 3f f4 78 7a 3f
       0.9785297 0.93411386 0.9838615 0.9784081
0000a0 f1 c6 7a 3f 2b 17 79 3f 9c 84 7d 3f 50 37 7b 3f
       0.9795981 0.97300977 0.9903047 0.98131275
0000b0 14 a4 79 3f 1b b2 6f 3f 11 b5 79 3f 9e 33 7a 3f
       0.9751599 0.9363114 0.9754191 0.9773501
0000c0 8e cd 7a 3f d5 5b 6c 3f a4 c8 7c 3f a4 48 7c 3f
       0.979699 0.92327625 0.98743653 0.9854834
0000d0 8f da 79 3f 19 27 7b 3f 1a 36 17 3f 56 4e 7c 3f
       0.9759912 0.98106533 0.5906693 0.9855703
0000e0 d4 3b b0 3c 01 76 75 3f 43 b9 7a 3f 4a 62 78 3f
       0.021512903 0.95883185 0.97938937 0.9702498
0000f0 94 4c 7c 3f 01 5c 6c 3f 2b 7d 75 3f c1 79 72 3f
       0.9855435 0.92327887 0.95894116 0.9471703
000100 ba 68 7c 3f b0 86 79 3f 3b 9e 79 3f 27 03 57 3f
       0.985973 0.9747114 0.97507066 0.83989185
000110 3e c6 7b 3f db cc 5f 3f df 31 7c 3f 09 ce 7a 3f
       0.9834937 0.8742196 0.985136 0.97970635
000120 aa 26 bd 3c 29 3e 7b 3f 14 13 7b 3f 62 24 7c 3f
       0.023089726 0.98141724 0.98075986 0.98493016
000130 34 c0 7b 3f 07 00 7b 3f 2c 6e 6f 3f ee 38 64 3f
       0.98340154 0.98046917 0.93527484 0.8914937
000140 e7 35 7a 3f df 68 7b 3f 03 6f 7b 3f 8d 5d 76 3f
       0.977385 0.98206896 0.98216265 0.962365
000150 18 84 7a 3f d5 93 79 3f a3 74 40 3f d0 89 7c 3f
       0.9785781 0.974912 0.75177974 0.98647785
000160 88 72 7a 3f 3b 76 61 3f 03 97 79 3f 11 95 74 3f
       0.9783101 0.8807103 0.9749605 0.9553996
000170 a9 9c 7b 3f f2 7a 7b 3f b1 ca 73 3f 3c 95 7c 3f
       0.9828592 0.98234475 0.9523116 0.98665214
000180 b8 78 75 3f dc 0a 7b 3f af 3c a3 3d
       0.9588733 0.98063445 0.07970559

gamma f4 [100]
000000 00 00 80 3f 00 00 80 3f 00 00 80 3f 00 00 80 3f
       1.0 1.0 1.0 1.0
000010 00 00 80 3f 00 00 80 3f 00 00 80 3f 00 00 80 3f
       1.0 1.0 1.0 1.0
000020 00 00 80 3f 00 00 80 3f 00 00 80 3f 00 00 80 3f
       1.0 1.0 1.0 1.0
000030 00 00 80 3f 00 00 80 3f 00 00 80 3f 00 00 80 3f
       1.0 1.0 1.0 1.0
000040 00 00 80 3f 00 00 80 3f 00 00 80 3f 00 00 80 3f
       1.0 1.0 1.0 1.0
000050 00 00 80 3f 00 00 80 3f 00 00 80 3f 00 00 80 3f
       1.0 1.0 1.0 1.0
000060 00 00 80 3f 00 00 80 3f 00 00 80 3f 00 00 80 3f
       1.0 1.0 1.0 1.0
000070 00 00 00 00 00 00 80 3f 00 00 80 3f 00 00 80 3f
       0.0 1.0 1.0 1.0
000080 00 00 80 3f 00 00 80 3f 00 00 80 3f 00 00 00 00
       1.0 1.0 1.0 0.0
000090 00 00 80 3f 00 00 80 3f 00 00 80 3f 00 00 80 3f
       1.0 1.0 1.0 1.0
0000a0 00 00 80 3f 00 00 80 3f 00 00 80 3f 00 00 80 3f
       1.0 1.0 1.0 1.0
0000b0 00 00 80 3f 00 00 00 00 00 00 80 3f 00 00 80 3f
       1.0 0.0 1.0 1.0
0000c0 00 00 80 3f 00 00 80 3f 00 00 80 3f 00 00 80 3f
       1.0 1.0 1.0 1.0
0000d0 00 00 80 3f 00 00 80 3f 00 00 80 3f 00 00 00 00
       1.0 1.0 1.0 0.0
0000e0 00 00 80 3f 00 00 00 00 00 00 80 3f 00 00 80 3f
       1.0 0.0 1.0 1.0
0000f0 00 00 80 3f 00 00 80 3f 00 00 80 3f 00 00 80 3f
       1.0 1.0 1.0 1.0
000100 00 00 80 3f 00 00 80 3f 00 00 80 3f 00 00 80 3f
       1.0 1.0 1.0 1.0
000110 00 00 80 3f 00 00 80 3f 00 00 80 3f 00 00 80 3f
       1.0 1.0 1.0 1.0
000120 00 00 80 3f 00 00 00 00 00 00 80 3f 00 00 80 3f
       1.0 0.0 1.0 1.0
000130 00 00 80 3f 00 00 80 3f 00 00 80 3f 00 00 80 3f
       1.0 1.0 1.0 1.0
000140 00 00 80 3f 00 00 80 3f 00 00 80 3f 00 00 80 3f
       1.0 1.0 1.0 1.0
000150 00 00 80 3f 00 00 80 3f 00 00 80 3f 00 00 80 3f
       1.0 1.0 1.0 1.0
000160 00 00 80 3f 00 00 80 3f 00 00 00 00 00 00 80 3f
       1.0 1.0 0.0 1.0
000170 00 00 80 3f 00 00 80 3f 00 00 80 3f 00 00 80 3f
       1.0 1.0 1.0 1.0
000180 00 00 80 3f 00 00 80 3f 00 00 80 3f 00 00 00 00
       1.0 1.0 1.0 0.0

KL_gamma_k f4 [99]
000000 b3 6b db 48 55 62 da 48 65 49 dc 48 d8 bf dc 48
       449373.6 447250.66 451147.16 452094.75
000010 24 31 da 48 07 75 dc 48 5b 87 db 48 3e 4f da 48
       446857.12 451496.22 449594.84 447097.94
000020 a3 80 db 48 62 f9 da 48 79 6a ce 48 c3 d9 db 48
       449541.1 448459.06 422739.78 450254.1
000030 a6 94 d2 48 e5 46 db 48 1d d1 db 48 1e c4 db 48
       431269.2 449079.16 450184.9 450080.94
000040 28 51 dc 48 93 86 db 48 7b 28 d7 48 79 0a d5 48
       451209.25 449588.6 440643.84 436307.78
000050 e5 a1 da 48 ab 7b db 48 87 68 da 48 ca d7 dc 48
       447759.16 449501.34 447300.22 452286.3
000060 68 5d dc 48 93 d2 da 48 0f cd db 48 de 7c 11 47
       451307.25 448148.6 450152.47 37244.867
000070 1c 0d da 48 72 79 dc 48 12 77 db 48 ee 9d da 48
       446568.88 451531.56 449464.56 447727.44
000080 c6 fc 85 48 87 e9 d8 48 90 e6 cf 48 c6 78 d8 48
       274406.2 444236.22 425780.5 443334.2
000090 83 44 db 48 9e 50 d1 48 5f 76 dc 48 89 3d db 48
       449060.1 428676.94 451506.97 449004.28
0000a0 cd 81 db 48 dd 07 da 48 fc e7 dd 48 2a e4 db 48
       449550.4 446526.9 454463.88 450337.3
0000b0 34 83 da 48 ae ce d1 48 13 92 da 48 d8 00 db 48
       447513.62 429685.44 447632.6 448518.75
0000c0 97 87 db 48 ed e2 ce 48 74 43 dd 48 6a d3 dc 48
       449596.72 423703.4 453147.62 452251.3
0000d0 e4 b2 da 48 f8 d5 db 48 28 5b 84 48 66 d8 dc 48
       447895.12 450223.75 271065.25 452291.2
0000e0 ce 41 1a 46 8f da d6 48 d3 75 db 48 8a 69 d9 48
       9872.451 440020.47 449454.6 445260.3
0000f0 dc d6 dc 48 13 e3 ce 48 d4 e0 d6 48 98 3d d4 48
       452278.88 423704.6 440070.62 434668.75
000100 7f ef dc 48 7b 69 da 48 16 7e da 48 a1 33 bc 48
       452475.97 447307.84 447472.7 385437.03
000110 45 61 dc 48 d2 e4 c3 48 7b bf dc 48 02 88 db 48
       451338.16 401190.56 452091.84 449600.06
000120 48 90 25 46 28 ea db 48 72 c4 db 48 ad b3 dc 48
       10596.07 450385.25 450083.56 451997.4
000130 fc 5b dc 48 c5 b3 db 48 38 93 d1 48 bc c3 c7 48
       451295.88 449950.16 429209.75 409117.88
000140 d8 02 db 48 8b 0f dc 48 eb 14 dc 48 3b a5 d7 48
       448534.75 450684.34 450727.34 441641.84
000150 4a 47 db 48 fc 74 da 48 23 75 a8 48 75 0c dd 48
       449082.3 447399.88 345001.1 452707.66
000160 ea 37 db 48 28 59 c5 48 c4 77 da 48 ab 15 d6 48
       448959.3 404169.25 447422.12 438445.34
000170 df 3c dc 48 5d 1f dc 48 85 64 d5 48 75 16 dd 48
       451046.97 450810.9 437028.16 452787.66
000180 ef dc d6 48 41 bd db 48 ab e1 0e 47
       440039.47 450026.03 36577.668

q_gamma_params f4 [100, 3]
000000 f6 e7 45 c0 25 2f 82 c0 bc 1a 8b c0 7d 5f 81 c0
       -3.0922828 -4.068255 -4.3470135 -4.0429063
000010 9e 8a 70 3f 37 f1 0c 40 9a c9 0b c0 90 a6 28 40
       0.93961513 2.2022226 -2.1841798 2.6351662
000020 d9 9c 81 c0 19 d5 7e c0 f4 4c 66 c0 ee cf 2e c0
       -4.0503964 -3.9817564 -3.5984468 -2.731441
000030 45 ec fb bf 21 95 63 c0 ef 2d 26 c0 1e 75 85 c0
       -1.9681479 -3.555977 -2.5965536 -4.1705465
000040 c2 1f 46 c0 50 a6 8a c0 26 1f 05 40 13 1e 6c c0
       -3.0956883 -4.332802 2.0800261 -3.6893356
000050 c7 0e 2e c0 b9 7b b9 bf 00 c0 8d c0 ea 51 3f c0
       -2.719652 -1.4490882 -4.4296875 -2.9893746
000060 a1 c4 51 c0 a0 92 5e c0 74 5c 5d c0 81 7c 52 c0
       -3.2776263 -3.4776993 -3.458768 -3.288849
000070 98 df 85 3f 4a e3 83 c0 00 d8 cf bf cb 2a 85 c0
       1.045886 -4.1214952 -1.6237793 -4.1614738
000080 27 d7 74 c0 79 de 80 c0 20 e9 80 c0 a6 03 83 c0
       -3.8256319 -4.0271573 -4.0284576 -4.0941954
000090 2c 82 7b c0 85 f5 e2 bf 12 38 d1 3f 1e 43 69 c0
       -3.92982 -1.7731177 1.6345236 -3.6447215
0000a0 9c 9d 84 c0 46 db 84 c0 67 70 4f c0 9c 7c 68 c0
       -4.1442394 -4.151767 -3.2412355 -3.6326056
0000b0 20 04 34 c0 53 15 0d c0 c9 f1 85 c0 7d a5 7b c0
       -2.8127518 -2.2044265 -4.185765 -3.9319756
0000c0 15 d1 9c be be 3f 85 c0 96 79 76 3f fa d1 78 c0
       -0.30628267 -4.164031 0.96279275 -3.887816
0000d0 3a b0 80 c0 60 f1 5c c0 13 b7 69 c0 b1 c2 83 c0
       -4.021512 -3.4522324 -3.651799 -4.117516
0000e0 ce e6 4c c0 22 43 5e c0 92 de 78 c0 f2 12 e8 3f
       -3.2015872 -3.4728475 -3.8885846 1.8130782
0000f0 b8 e4 85 c0 5c c6 87 c0 8a 42 7f c0 af 61 88 c0
       -4.18417 -4.242964 -3.9884362 -4.2619243
000100 dc a8 83 c0 ad b7 78 c0 dc ed 83 c0 8a 88 86 c0
       -4.1143627 -3.8862107 -4.1227856 -4.2041674
000110 73 d3 79 c0 96 78 8f c0 e5 d2 82 c0 29 33 82 c0
       -3.9035308 -4.48347 -4.088244 -4.068745
000120 3c 00 67 c0 e7 ba 87 c0 98 2a 24 40 30 f0 84 c0
       -3.6093893 -4.241565 2.5650997 -4.15432
000130 67 4e 69 c0 7f fa 64 c0 40 35 28 c0 7d a9 84 c0
       -3.6454103 -3.577789 -2.6282501 -4.1456895
000140 df 13 94 c0 43 d5 37 c0 c7 f4 82 c0 8c 5b 72 c0
       -4.6274257 -2.8723915 -4.09238 -3.7868376
000150 03 7e 80 c0 03 51 8a c0 5d 3e 87 c0 5e e9 76 c0
       -4.0153823 -4.322389 -4.2263627 -3.8579936
000160 b9 cb 78 c0 16 19 6c c0 f6 16 89 c0 61 a1 80 c0
       -3.8874342 -3.6890311 -4.284053 -4.0196996
000170 cc 1f 29 c0 07 87 27 3f f2 3d 6b c0 1b 7a 11 c0
       -2.6425657 0.6544041 -3.6756558 -2.2730777
000180 fc 6e 61 c0 a8 83 7a c0 68 9b 8a c0 6c 94 71 c0
       -3.522399 -3.9142857 -4.3314705 -3.774684
000190 b1 a3 7e c0 4c 8d 76 c0 32 bf 30 c0 31 d5 7e c0
       -3.978741 -3.852374 -2.7616696 -3.9817622
0001a0 8e ce 85 c0 c2 15 62 c0 f6 c6 87 c0 18 ea 7c c0
       -4.181464 -3.532578 -4.243037 -3.951788
0001b0 17 61 7b c0 3a f4 8a c0 ee 8e 83 c0 c0 a3 6b c0
       -3.927801 -4.342313 -4.1111975 -3.6818695
0001c0 b6 4d 79 c0 bf 3a 7b c0 5e 62 86 c0 ff 08 83 c0
       -3.895368 -3.9254606 -4.1995077 -4.094848
0001d0 7a 0a 80 c0 f0 63 8b c0 80 32 89 c0 2a 0f 19 3e
       -4.001279 -4.3559494 -4.2874146 0.14947191
0001e0 37 1b 88 c0 28 d0 89 c0 a4 a3 83 c0 6a e8 6f c0
       -4.253322 -4.3066597 -4.1137257 -3.7485604
0001f0 23 c5 6a c0 8c a6 8b c0 e2 a2 5b c0 59 5c 83 c0
       -3.6682823 -4.3640804 -3.4318166 -4.105023
000200 f7 f7 74 c0 f3 da 85 c0 dd 08 84 c0 a2 a8 6a c0
       -3.8276346 -4.182977 -4.126082 -3.6665425
000210 3c 64 3e c0 55 91 83 c0 ab da 82 c0 2d f7 1a c0
       -2.9748678 -4.1114907 -4.089193 -2.4213364
000220 46 d4 63 c0 df 0b 7b c0 df 91 87 c0 fb f7 83 c0
       -3.5598311 -3.9225996 -4.2365565 -4.124021
000230 7e 89 6f c0 dd d8 83 c0 b6 b5 73 c0 83 9f 81 c0
       -3.7427669 -4.1202226 -3.8079658 -4.0507216
000240 b6 ec d5 be a2 01 8a c0 00 f1 59 c0 bd 26 85 c0
       -0.4178216 -4.3126993 -3.4053345 -4.160979
000250 7d ff 88 c0 13 39 82 c0 36 93 49 c0 d2 68 81 c0
       -4.2811875 -4.069467 -3.14961 -4.0440454
000260 47 75 7f c0 50 b3 58 c0 d6 39 64 c0 6b 76 43 c0
       -3.991533 -3.3859444 -3.56603 -3.0541027
000270 05 4d 5c c0 a9 1d 71 c0 da 94 71 3f 16 32 34 c0
       -3.442201 -3.7674353 0.94367754 -2.815557
000280 6f 4f 7c c0 ca c2 7e c0 f8 e6 5c c0 66 cd 8b c0
       -3.9423482 -3.980639 -3.4515972 -4.368823
000290 73 5b 7c c0 f5 64 77 c0 37 f7 83 c0 c2 8a 81 c0
       -3.9430816 -3.865537 -4.1239276 -4.048188
0002a0 e3 33 8b c0 62 c5 84 c0 89 ed c6 3f 1e 73 78 c0
       -4.350084 -4.1490946 1.554124 -3.8820262
0002b0 09 cc 84 c0 93 9c 82 c0 cc 07 6b c0 bc 1a 8a c0
       -4.1499066 -4.081613 -3.672351 -4.3157635
0002c0 8c b7 7e c0 fe d3 22 c0 14 16 82 c0 2d fc 63 c0
       -3.9799528 -2.544189 -4.065195 -3.5622666
0002d0 d6 60 85 c0 29 3e 74 c0 09 41 5b c0 a8 a5 86 c0
       -4.168071 -3.816294 -3.4258444 -4.2077217
0002e0 3f 10 76 c0 34 1e 81 bf 11 d1 86 c0 6e e5 53 c0
       -3.8447416 -1.0087342 -4.213021 -3.3108783
0002f0 a1 d6 5c c0 dc 80 86 c0 85 32 69 c0 22 ce 28 c0
       -3.4506 -4.20323 -3.6437085 -2.6375813
000300 49 a3 76 c0 e0 13 7d c0 94 13 62 c0 dd 98 84 c0
       -3.8537161 -3.954338 -3.532445 -4.14366
000310 88 4e 84 c0 d3 9e 84 c0 60 e4 7e c0 2c 97 75 c0
       -4.1345863 -4.1443877 -3.982689 -3.8373518
000320 22 1c 71 c0 79 8c 88 c0 db 6d 81 c0 ed b3 92 c0
       -3.767342 -4.2671475 -4.04466 -4.5844636
000330 c2 5f 83 c0 2a 04 87 c0 ff 25 64 c0 84 0e 51 c0
       -4.105439 -4.2192583 -3.564819 -3.266511
000340 ff 18 8f c0 1c dd 85 c0 6f 59 80 c0 3f 85 80 c0
       -4.4718013 -4.183241 -4.010917 -4.0162654
000350 a5 b2 64 c0 e5 b8 0f c0 d7 5f 89 c0 ee 2c 66 c0
       -3.5734036 -2.24566 -4.292949 -3.5964923
000360 dd 67 aa bf cd d2 5a c0 af a7 f8 bd c8 99 79 c0
       -1.3312947 -3.4191163 -0.12141358 -3.900011
000370 6f 24 8a c0 57 59 78 c0 0d 54 83 c0 00 b6 89 c0
       -4.3169475 -3.8804529 -4.10401 -4.303467
000380 2a 9e 51 c0 34 d3 81 c0 04 db 77 c0 db 99 79 c0
       -3.2752786 -4.0570316 -3.8727427 -3.9000156
000390 e7 60 75 c0 1f 13 81 c0 f2 2e 38 c0 de ad e6 bf
       -3.8340394 -4.033584 -2.8778653 -1.802181
0003a0 8e db 7b c0 66 9e 86 c0 7b 55 80 c0 b6 a7 80 c0
       -3.9352756 -4.2068357 -4.0104346 -4.0204725
0003b0 91 85 8c c0 5c f4 6d c0 75 8e 80 c0 cb 9a 89 c0
       -4.3913045 -3.7180395 -4.01739 -4.3001456
0003c0 fd 27 77 c0 8d 45 82 c0 2a 85 7c c0 50 1f 7b c0
       -3.8618157 -4.07099 -3.9456277 -3.9237862
0003d0 fc 03 7f c0 e7 f5 58 c0 8e 86 92 c0 0d 2a f8 bf
       -3.9846182 -3.3900087 -4.578925 -1.9387833
0003e0 74 9f 5a c0 a8 a5 81 c0 d7 07 89 c0 ac 03 81 c0
       -3.4159822 -4.0514717 -4.282207 -4.031698
0003f0 47 a2 31 c0 9f f3 6e c0 3d f5 5e c0 e6 0d 4a c0
       -2.7755296 -3.7336195 -3.4837182 -3.1570983

gamma f4 [100, 3]
000000 00 00 00 00 00 00 00 00 00 00 00 00 00 00 00 00
       0.0 0.0 0.0 0.0
000010 00 00 80 3f 00 00 80 3f 00 00 00 00 00 00 80 3f
       1.0 1.0 0.0 1.0
000020 00 00 00 00 00 00 00 00 00 00 00 00 00 00 00 00
       0.0 0.0 0.0 0.0
000030 00 00 00 00 00 00 00 00 00 00 00 00 00 00 00 00
       0.0 0.0 0.0 0.0
000040 00 00 00 00 00 00 00 00 00 00 00 00 00 00 00 00
       0.0 0.0 0.0 0.0
000050 00 00 00 00 00 00 00 00 00 00 00 00 00 00 00 00
       0.0 0.0 0.0 0.0
000060 00 00 00 00 00 00 00 00 00 00 80 3f 00 00 00 00
       0.0 0.0 1.0 0.0
000070 00 00 80 3f 00 00 00 00 00 00 00 00 00 00 00 00
       1.0 0.0 0.0 0.0
000080 00 00 00 00 00 00 00 00 00 00 00 00 00 00 00 00
       0.0 0.0 0.0 0.0
000090 00 00 00 00 00 00 00 00 00 00 80 3f 00 00 00 00
       0.0 0.0 1.0 0.0
0000a0 00 00 00 00 00 00 00 00 00 00 00 00 00 00 00 00
       0.0 0.0 0.0 0.0
0000b0 00 00 00 00 00 00 00 00 00 00 00 00 00 00 00 00
       0.0 0.0 0.0 0.0
0000c0 00 00 80 3f 00 00 00 00 00 00 80 3f 00 00 00 00
       1.0 0.0 1.0 0.0
0000d0 00 00 00 00 00 00 00 00 00 00 00 00 00 00 00 00
       0.0 0.0 0.0 0.0
0000e0 00 00 00 00 00 00 00 00 00 00 00 00 00 00 00 00
       0.0 0.0 0.0 0.0
0000f0 00 00 00 00 00 00 00 00 00 00 00 00 00 00 00 00
       0.0 0.0 0.0 0.0
000100 00 00 00 00 00 00 00 00 00 00 00 00 00 00 00 00
       0.0 0.0 0.0 0.0
000110 00 00 00 00 00 00 00 00 00 00 00 00 00 00 00 00
       0.0 0.0 0.0 0.0
000120 00 00 00 00 00 00 00 00 00 00 80 3f 00 00 00 00
       0.0 0.0 1.0 0.0
000130 00 00 00 00 00 00 00 00 00 00 00 00 00 00 00 00
       0.0 0.0 0.0 0.0
000140 00 00 00 00 00 00 00 00 00 00 00 00 00 00 00 00
       0.0 0.0 0.0 0.0
000150 00 00 00 00 00 00 00 00 00 00 00 00 00 00 00 00
       0.0 0.0 0.0 0.0
000160 00 00 00 00 00 00 00 00 00 00 00 00 00 00 00 00
       0.0 0.0 0.0 0.0
000170 00 00 00 00 00 00 00 00 00 00 00 00 00 00 00 00
       0.0 0.0 0.0 0.0
000180 00 00 00 00 00 00 00 00 00 00 00 00 00 00 00 00
       0.0 0.0 0.0 0.0
000190 00 00 00 00 00 00 00 00 00 00 00 00 00 00 80 3f
       0.0 0.0 0.0 1.0
0001a0 00 00 00 00 00 00 00 00 00 00 00 00 00 00 00 00
       0.0 0.0 0.0 0.0
0001b0 00 00 00 00 00 00 00 00 00 00 00 00 00 00 00 00
       0.0 0.0 0.0 0.0
0001c0 00 00 00 00 00 00 00 00 00 00 00 00 00 00 00 00
       0.0 0.0 0.0 0.0
0001d0 00 00 00 00 00 00 00 00 00 00 00 00 00 00 00 00
       0.0 0.0 0.0 0.0
0001e0 00 00 00 00 00 00 00 00 00 00 00 00 00 00 00 00
       0.0 0.0 0.0 0.0
0001f0 00 00 00 00 00 00 00 00 00 00 00 00 00 00 00 00
       0.0 0.0 0.0 0.0
000200 00 00 00 00 00 00 00 00 00 00 00 00 00 00 00 00
       0.0 0.0 0.0 0.0
000210 00 00 00 00 00 00 00 00 00 00 00 00 00 00 80 3f
       0.0 0.0 0.0 1.0
000220 00 00 00 00 00 00 00 00 00 00 00 00 00 00 00 00
       0.0 0.0 0.0 0.0
000230 00 00 00 00 00 00 00 00 00 00 00 00 00 00 00 00
       0.0 0.0 0.0 0.0
000240 00 00 00 00 00 00 00 00 00 00 00 00 00 00 00 00
       0.0 0.0 0.0 0.0
000250 00 00 00 00 00 00 00 00 00 00 00 00 00 00 00 00
       0.0 0.0 0.0 0.0
000260 00 00 00 00 00 00 00 00 00 00 00 00 00 00 00 00
       0.0 0.0 0.0 0.0
000270 00 00 00 00 00 00 00 00 00 00 80 3f 00 00 00 00
       0.0 0.0 1.0 0.0
000280 00 00 00 00 00 00 00 00 00 00 00 00 00 00 00 00
       0.0 0.0 0.0 0.0
000290 00 00 00 00 00 00 00 00 00 00 00 00 00 00 00 00
       0.0 0.0 0.0 0.0
0002a0 00 00 00 00 00 00 00 00 00 00 80 3f 00 00 00 00
       0.0 0.0 1.0 0.0
0002b0 00 00 00 00 00 00 00 00 00 00 00 00 00 00 00 00
       0.0 0.0 0.0 0.0
0002c0 00 00 00 00 00 00 00 00 00 00 00 00 00 00 00 00
       0.0 0.0 0.0 0.0
0002d0 00 00 00 00 00 00 00 00 00 00 00 00 00 00 00 00
       0.0 0.0 0.0 0.0
0002e0 00 00 00 00 00 00 00 00 00 00 00 00 00 00 00 00
       0.0 0.0 0.0 0.0
0002f0 00 00 00 00 00 00 00 00 00 00 00 00 00 00 00 00
       0.0 0.0 0.0 0.0
000300 00 00 00 00 00 00 00 00 00 00 00 00 00 00 00 00
       0.0 0.0 0.0 0.0
000310 00 00 00 00 00 00 00 00 00 00 00 00 00 00 00 00
       0.0 0.0 0.0 0.0
000320 00 00 00 00 00 00 00 00 00 00 00 00 00 00 00 00
       0.0 0.0 0.0 0.0
000330 00 00 00 00 00 00 00 00 00 00 00 00 00 00 00 00
       0.0 0.0 0.0 0.0
000340 00 00 00 00 00 00 00 00 00 00 00 00 00 00 00 00
       0.0 0.0 0.0 0.0
000350 00 00 00 00 00 00 00 00 00 00 00 00 00 00 00 00
       0.0 0.0 0.0 0.0
000360 00 00 00 00 00 00 00 00 00 00 80 3f 00 00 00 00
       0.0 0.0 1.0 0.0
000370 00 00 00 00 00 00 00 00 00 00 00 00 00 00 00 00
       0.0 0.0 0.0 0.0
000380 00 00 00 00 00 00 00 00 00 00 00 00 00 00 00 00
       0.0 0.0 0.0 0.0
000390 00 00 00 00 00 00 00 00 00 00 00 00 00 00 00 00
       0.0 0.0 0.0 0.0
0003a0 00 00 00 00 00 00 00 00 00 00 00 00 00 00 00 00
       0.0 0.0 0.0 0.0
0003b0 00 00 00 00 00 00 00 00 00 00 00 00 00 00 00 00
       0.0 0.0 0.0 0.0
0003c0 00 00 00 00 00 00 00 00 00 00 00 00 00 00 00 00
       0.0 0.0 0.0 0.0
0003d0 00 00 00 00 00 00 00 00 00 00 00 00 00 00 00 00
       0.0 0.0 0.0 0.0
0003e0 00 00 00 00 00 00 00 00 00 00 00 00 00 00 00 00
       0.0 0.0 0.0 0.0
0003f0 00 00 00 00 00 00 00 00 00 00 00 00 00 00 00 00
       0.0 0.0 0.0 0.0

q_probs f4 [100, 3]
000000 9b e8 31 3d f8 c9 89 3c 8e 63 51 3c 74 45 8d 3c
       0.04343472 0.016819939 0.012780083 0.017245032
000010 d0 13 38 3f c8 84 66 3f ad 3c cf 3d 8c dc 6e 3f
       0.7190523 0.9004636 0.10118995 0.9330528
000020 f5 3a 8c 3c 45 02 96 3c 14 38 da 3c 13 66 7a 3d
       0.017117957 0.01831163 0.026638068 0.0611325
000030 a8 1a fb 3d 7e 6d e3 3c 6b 16 8e 3d 83 30 79 3c
       0.12260944 0.02776217 0.0693787 0.01520932
000040 5f 53 31 3d d1 59 54 3c 30 93 63 3f b2 b8 c7 3c
       0.0432924 0.012960867 0.88896465 0.024380062
000050 fc 4d 7d 3d 86 c0 42 3e fe f7 40 3c 4f 42 44 3d
       0.06184195 0.19018754 0.011777876 0.0479148
000060 73 e6 14 3d 34 6c f5 3c 33 ef f9 3c 92 49 13 3d
       0.036352586 0.029958822 0.030509567 0.035958834
000070 c7 76 3d 3f f3 c1 82 3c 68 a9 28 3e 63 6b 7b 3c
       0.74009365 0.015961623 0.16470873 0.015345427
000080 fe d1 ae 3c 7b 78 8f 3c 8e 48 8f 3c 2f 51 86 3c
       0.021340366 0.017513504 0.017490651 0.016396133
000090 c1 da 9d 3c 81 b2 14 3e c2 39 56 3f 8a a8 d0 3c
       0.019269349 0.14521219 0.8368188 0.02547099
0000a0 46 bc 7f 3c 3b d8 7d 3c b1 30 1a 3d a5 16 d3 3c
       0.015608853 0.015493448 0.037644092 0.025767634
0000b0 c4 02 68 3d 9f 41 cb 3d 6d 7b 75 3c c0 85 9d 3c
       0.056643263 0.099246256 0.01498304 0.019228816
0000c0 64 28 d9 3e 47 ca 7a 3c 45 3e 39 3f 3b 7d a4 3c
       0.42413628 0.015307016 0.7236064 0.020079246
0000d0 59 44 90 3c 3f 86 fb 3c 8a 2c cf 3c ef 46 83 3c
       0.017610716 0.030703662 0.025289793 0.016025035
0000e0 92 33 20 3d d0 8e f6 3c a4 5f a4 3c 11 09 5c 3f
       0.03911168 0.030097395 0.020065136 0.85951334
0000f0 70 04 76 3c 68 06 68 3c 6f 07 95 3c 0a bb 63 3c
       0.015015706 0.014161684 0.018192021 0.013899574
000100 e1 ad 83 3c 1b c0 a4 3c 71 97 82 3c 61 12 71 3c
       0.016074123 0.020111134 0.015941354 0.0147138545
000110 70 f8 a1 3c 63 fa 36 3c 74 1b 87 3c c6 b8 89 3c
       0.019771785 0.011168095 0.016492583 0.01681174
000120 b5 ea d7 3c 83 5a 68 3c a3 b2 6d 3f 8b 33 7d 3c
       0.026357034 0.014181736 0.92850703 0.015454183
000130 8b 74 d0 3c 24 a7 de 3c 68 dd 89 3d 61 5c 7f 3c
       0.025446197 0.027179308 0.06731683 0.01558599
000140 ae ae 1e 3c c0 50 5b 3d 86 8e 86 3c 69 8d b5 3c
       0.009685202 0.053543806 0.016425382 0.022162156
000150 cc 22 91 3c bb 8a 56 3c f3 da 6b 3c c7 ba a8 3c
       0.017716788 0.013094599 0.014395463 0.020596875
000160 12 bf a4 3c 8f cf c7 3c 3b cf 5e 3c 7d 85 90 3c
       0.02011064 0.024390964 0.013599212 0.017641777
000170 0e 18 88 3d 38 6d 28 3f d8 68 ca 3c 52 3e bf 3d
       0.06645213 0.65791655 0.024708197 0.093380585
000180 37 f8 ea 3c 3b 47 a0 3c 04 a1 54 3c 73 bf b7 3c
       0.028682811 0.019565215 0.012977842 0.022430157
000190 9f 76 96 3c 6b 4e aa 3c ab 82 73 3d da 03 96 3c
       0.01836711 0.020789346 0.059450787 0.018312383
0001a0 92 85 76 3c 98 aa e8 3c ff 01 68 3c ce 7e 9a 3c
       0.015046494 0.028401658 0.014160632 0.018859293
0001b0 5f 2b 9e 3c 9e 5f 52 3c 60 16 84 3c 6a 31 c9 3c
       0.01930779 0.01284018 0.01612395 0.024559695
0001c0 aa 47 a3 3c b1 87 9e 3c 24 2f 72 3c 74 3b 86 3c
       0.019931633 0.019351812 0.014781747 0.016385771
0001d0 1c 29 93 3c bb 8c 4f 3c 39 13 5e 3c b7 91 09 3f
       0.017963938 0.01266783 0.013554388 0.5373797
0001e0 8f ab 65 3c cc e6 59 3c 6d c4 83 3c 08 84 bc 3c
       0.014017954 0.013299655 0.016084874 0.023012176
0001f0 32 df cb 3c d6 e3 4d 3c 2e 46 00 3d 21 e5 84 3c
       0.024886701 0.012566527 0.03131693 0.016222538
000200 4d 7a ae 3c 28 29 76 3c cc 2a 82 3c 97 34 cc 3c
       0.021298552 0.015024461 0.015889548 0.02492742
000210 e9 fc 46 3d b7 0e 84 3c 4c fa 86 3c cf 0f a7 3d
       0.048581038 0.016120298 0.016476773 0.08157312
000220 58 86 e2 3c 77 f9 9e 3c 98 80 69 3c 5f 6f 82 3c
       0.02765195 0.019406063 0.014251851 0.015922247
000230 9e 93 bd 3c b5 eb 82 3c 5f df b1 3c b1 2e 8c 3c
       0.023141678 0.015981534 0.021712957 0.017112108
000240 63 b7 cb 3e 16 9b 58 3c 78 9a 03 3d 08 8e 7b 3c
       0.3978835 0.013220569 0.032129735 0.015353687
000250 96 70 5f 3c 13 a1 89 3c ea 64 28 3d fd 1a 8d 3c
       0.013637682 0.016800439 0.041111864 0.017224783
000260 aa 93 94 3c 78 18 06 3d 7b 3d e1 3c 14 7e 38 3d
       0.018136818 0.03273818 0.027495136 0.045042112
000270 e2 00 fe 3c 55 10 b9 3c 61 4d 38 3f c5 6b 67 3d
       0.03100628 0.022590796 0.7199307 0.05649926
000280 a5 ef 9b 3c 1d 2d 96 3c 33 b2 fb 3c 41 ed 4c 3c
       0.01903517 0.018332059 0.03072462 0.012507738
000290 cf cf 9b 3c 82 1f a8 3c a1 71 82 3c 29 89 8c 3c
       0.01901999 0.020522837 0.015923323 0.017155247
0002a0 5a c2 50 3c 47 82 7e 3c 89 56 53 3f 9d 6d a5 3c
       0.0127416495 0.01553399 0.8255392 0.02019387
0002b0 8b 4e 7e 3c df fd 87 3c 61 16 cb 3c 66 f2 57 3c
       0.015521656 0.016600547 0.024790945 0.013180351
0002c0 63 46 96 3c 44 2d 95 3d d4 33 8a 3c 92 0c e2 3c
       0.01834411 0.07284024 0.016870417 0.027593885
0002d0 a8 cb 79 3c c4 6e b0 3c 32 05 01 3d 5e 3a 70 3c
       0.015246309 0.021537192 0.031499095 0.014662353
0002e0 b2 92 ab 3c b2 e7 88 3e 01 fb 6e 3c e5 31 10 3d
       0.020943973 0.2673927 0.014586211 0.035203833
0002f0 a5 f1 fb 3c 38 4a 71 3c aa d0 d0 3c 2d bb 88 3d
       0.030754874 0.014727168 0.025490124 0.06676326
000300 cf 13 aa 3c d6 1b 9a 3c a6 b2 e8 3c 3f e5 7f 3c
       0.020761399 0.018812101 0.028405499 0.015618621
000310 79 15 81 3c 3d b0 7f 3c f7 e0 95 3c 69 a3 ac 3c
       0.01575731 0.015605983 0.018295748 0.021074014
000320 ae 11 b9 3c 7c 8e 62 3c d2 05 8d 3c 10 94 25 3c
       0.022591438 0.013827916 0.01721469 0.010106102
000330 ff d6 84 3c 53 82 6d 3c f2 7b e1 3c ba 7e 16 3d
       0.0162158 0.014496404 0.027524922 0.03674195
000340 b7 19 39 3c 32 17 76 3c c9 c7 91 3c e5 02 91 3c
       0.011297635 0.015020179 0.01779546 0.017701576
000350 d2 9e df 3c 60 13 c4 3d fb dc 5c 3c 7b a2 da 3c
       0.027297411 0.09574008 0.01348042 0.026688805
000360 fb e3 54 3e 64 dd 01 3d 5d 97 f0 3e 41 88 a2 3c
       0.20790093 0.031705275 0.4699048 0.019840362
000370 a0 b2 57 3c 9f af a5 3c aa 06 85 3c 49 95 5a 3c
       0.013165146 0.020225344 0.01623853 0.013341256
000380 b8 3b 15 3d 45 52 8b 3c 29 14 a7 3c 9e 8c a2 3c
       0.036433905 0.017007003 0.020395355 0.019842442
000390 75 61 ad 3c f6 90 8e 3c c3 28 5a 3d e8 07 11 3e
       0.021164635 0.017403107 0.05326153 0.14163172
0003a0 9b 03 9d 3c 71 6f 70 3c fe d7 91 3c af 69 90 3c
       0.019166758 0.014675007 0.017803188 0.017628519
0003b0 47 6d 48 3c 7d 42 c2 3c ab db 90 3c ed 4d 5b 3c
       0.012233085 0.023713345 0.01768287 0.013385278
0003c0 8c dc a8 3c 1f 6b 89 3c 82 6c 9b 3c 6e cc 9e 3c
       0.020612977 0.016774712 0.018972639 0.019384589
0003d0 3f 96 95 3c 30 94 05 3d 31 7d 26 3c c5 20 01 3e
       0.01826012 0.032612026 0.010161684 0.12610157
0003e0 2f 42 02 3d 20 14 8c 3c a1 37 5f 3c ff d4 8e 3c
       0.0318014 0.01709944 0.013624103 0.017435549
0003f0 7e 4a 70 3d 95 44 bf 3c f4 06 f4 3c 47 2b 27 3d
       0.05866479 0.023348132 0.029788472 0.040812757

weight f4 [10, 74]
000000 b4 1a 01 be b5 66 e0 3d cc 52 e5 bd e0 ad 2f bd
       -0.12607843 0.1095709 -0.11197433 -0.04289043
000010 3c 3d bb bc d6 d1 32 be e5 99 02 3e d7 0d ac 3e
       -0.022856347 -0.17462859 0.12754019 0.3360431
000020 81 56 23 3e 8a de b5 3e 90 29 de bd 5f 13 20 3e
       0.15950967 0.35521346 -0.10847771 0.1563239
000030 a7 9a 9a 3d 25 1c 3e 3e ba ec c3 3a 96 22 1d bd
       0.07549029 0.18565424 0.0014947869 -0.03836306
000040 e8 d9 96 bd 28 3d c7 3e ca c1 b4 3e d2 6c 29 3e
       -0.07365781 0.38913846 0.353041 0.16545418
000050 43 93 57 be e8 5f 0b 3d 39 4f 87 3c e5 b8 43 3e
       -0.2105227 0.03402701 0.016517268 0.191135
000060 4a 5b d6 3e b1 e6 a5 be 36 16 34 3e 0b b1 98 be
       0.41866523 -0.32402566 0.17586598 -0.29822573
000070 3a bb 96 bb 3b 43 c7 3d 8b 84 f1 3e 35 db d9 3e
       -0.004599956 0.0972962 0.47171435 0.42550054
000080 9f 72 0b 3e 6b 1d ad bc 81 10 d5 bd 51 50 6e 3e
       0.13617943 -0.021132192 -0.104035385 0.23272826
000090 e9 3a bb 3e 6d b5 94 bb 3d 0e 0e 3e d9 96 49 3e
       0.36568382 -0.004538229 0.13872619 0.1968645
0000a0 3e a3 3c 3e 23 38 d4 3e f6 e2 1b bc 22 a8 23 3e
       0.18421647 0.4144908 -0.009514561 0.15982106
0000b0 85 1c d6 b9 d2 3b be 3c c1 bb 91 3e 39 1f c9 3e
       -0.0004083851 0.023221884 0.28463557 0.39281633
0000c0 01 cc 6c 3e 0c a5 e1 3e e2 50 ae bc 3c 12 e1 3d
       0.23124696 0.44071233 -0.021278802 0.10989806
0000d0 3f f4 3b bd d3 98 a2 3d e9 74 ad 3d ad 36 95 be
       -0.045887228 0.07939305 0.084695645 -0.29143277
0000e0 d3 d2 dc 3d 75 81 29 3e a8 87 d7 3e ab 54 f1 3e
       0.10782399 0.1655329 0.42095685 0.4713491
0000f0 a4 5a aa 3d 28 f9 85 3e 21 72 af 3e bc a5 87 bb
       0.083180696 0.26166654 0.3426676 -0.00413963
000100 bf 4a 1c 3d 0f 55 85 be 5b 78 a8 be 9c 80 fa 3d
       0.03815722 -0.26041457 -0.32904324 0.122315615
000110 54 b1 13 3e 47 61 24 3e dd 28 be 3d 43 89 a9 3e
       0.14423114 0.16052733 0.09285138 0.33112535
000120 cd 2a c2 3d 0c da af 3e 73 7d 4d bb fa 00 0b 3e
       0.0948082 0.34346044 -0.003135529 0.13574591
000130 33 bb 5f 3c a0 3a c2 3d 2b b8 dc 3d db e3 7d bd
       0.013655472 0.09483838 0.10777315 -0.061984878
000140 ab 1a eb 3d d1 17 88 3e a4 e9 b1 3d 9a f9 cf 3e
       0.11479696 0.2658067 0.086871415 0.40620118
000150 17 e7 b6 3c ab 67 18 3e a2 c9 09 3e f9 f5 21 3e
       0.02232699 0.14883296 0.13455823 0.15816487
000160 e2 2d e0 3d 6e b3 bb 3d b9 f8 66 3d dd 54 a7 3e
       0.109462515 0.09165083 0.056389544 0.32681933
000170 0f 9b ac 3e d0 12 16 3e 59 1b ae bd 36 ff c7 3d
       0.3371205 0.14655614 -0.0850131 0.097654745
000180 6f 77 ef 3d c3 51 26 3e 3f 7e 84 3e 26 aa a8 be
       0.11692702 0.16242127 0.25877568 -0.32942313
000190 e4 ba 17 3e 7b ba 63 be db 85 e2 3d 0d cd b2 3d
       0.14817387 -0.22239105 0.11060687 0.087305166
0001a0 11 93 a2 3e 06 17 bf 3e 6e 9e f5 3d 1d e1 07 3e
       0.31752828 0.37322253 0.11993109 0.13269468
0001b0 f3 a9 7d 3c 1e e6 62 3e 19 7f d3 3e a9 76 da 3d
       0.015482414 0.22158095 0.41307905 0.10667164
0001c0 41 ea 02 3e 1b 4b 16 3e 14 e0 15 3e 19 b6 96 3e
       0.12784673 0.14677088 0.1463626 0.29435804
0001d0 97 83 cc 3d 2f 0a 03 3e 70 dd c4 3d aa 70 02 3e
       0.09986036 0.12796853 0.09612548 0.1273829
0001e0 82 82 45 3e 6a d7 99 3e 27 c9 43 3e 28 d3 9f 3e
       0.19288066 0.3004716 0.19119702 0.31215787
0001f0 b4 03 80 3d d9 f1 ce 3d 61 99 93 3d 71 ae 11 3e
       0.06250706 0.101047225 0.07206989 0.142267
000200 8a 89 e9 3d 96 35 5f be 63 1d 05 3e f0 85 03 3e
       0.114031866 -0.21797785 0.12999491 0.12844062
000210 c7 43 99 3e f8 a1 ba 3e 02 a6 e6 3d c9 00 66 3e
       0.29934523 0.36451697 0.11262132 0.22461237
000220 78 60 92 3e 02 6a cb 3d 88 15 fe 3d d9 b9 67 be
       0.28589225 0.09932329 0.124064505 -0.22629489
000230 00 3f 60 be 18 3d d3 3d 5f 0a 10 3e be 34 dd 3d
       -0.21899033 0.10314387 0.14066456 0.108010754
000240 eb c0 03 3e 12 9a 80 3e 39 76 01 3e 3a e0 bf 3e
       0.12866561 0.25117546 0.12642755 0.3747576
000250 aa 83 8d bc 66 db e7 3d d1 69 9f 3c 88 b4 61 3d
       -0.017274696 0.11321144 0.019459637 0.05510381
000260 f7 15 98 3d 08 dd 86 bd 11 1b c7 3d 22 42 82 3e
       0.074260645 -0.06585127 0.097219594 0.2544108
000270 f7 81 09 3e 2f a0 8d 3e 84 c8 c4 3c 38 2a 19 3e
       0.13428484 0.27661273 0.024021395 0.14957511
000280 ee 9a d5 3d 7e 27 11 3e 00 40 ab 3d 21 61 69 3d
       0.10429941 0.14175221 0.083618164 0.056977395
000290 d7 e1 8c 3d 93 21 51 3e 4a fc 92 3e 32 1a 0f 3e
       0.06879013 0.20422964 0.28708106 0.13974836
0002a0 df 76 6c bd 93 3d 96 3d b7 8a c0 3d fa eb 1a 3e
       -0.05773055 0.07335963 0.09401458 0.1512908
0002b0 a2 4d 9b 3e 4b bc 3e be 86 20 0b 3e 0a 31 76 be
       0.30332667 -0.18626516 0.13586625 -0.24042144
0002c0 6e 1a ae 3d c2 36 a7 3d 61 09 a0 3e c4 af 99 3e
       0.08501135 0.08164741 0.31257156 0.3001691
0002d0 ef 59 cc 3d f4 ca 7f 3d e5 cb 0e 3d 24 2e 4f 3e
       0.09978091 0.06244941 0.034862418 0.20232445
0002e0 92 26 72 3e b3 3c c1 3d 19 56 24 3e fc 0d 10 3e
       0.23647526 0.094354056 0.16048469 0.14067835
0002f0 b2 28 12 3e 89 3b 9d 3e 2d 05 a2 3d 1a 9c ec 3d
       0.14273337 0.30709484 0.079111435 0.115532115
000300 4a 73 90 3d 1c 4c c6 3d 9c a5 5a 3e 81 11 93 3e
       0.0705324 0.096824855 0.21352237 0.28724292
000310 a9 71 36 3e 0d 13 81 3e d2 7b dd 3d dd 49 ad 3d
       0.17816795 0.25209847 0.108146325 0.08461354
000320 cf 29 0b 3d b9 c5 e5 3d 8b 2a c9 3d 09 65 3f be
       0.03397542 0.11219353 0.098225676 -0.18690886
000330 59 1d d5 3d e7 09 ef 3d cf 5f be 3e db 31 b2 3e
       0.10405988 0.116718106 0.3718247 0.34803662
000340 8b 55 ad 3d c5 84 46 3e 34 0b 86 3e 81 f6 a2 3d
       0.08463582 0.19386585 0.26180422 0.07957173
000350 d7 19 c9 3d 2f 0a 4d be 22 61 94 be d6 77 bb 3d
       0.09819382 -0.20023416 -0.28980356 0.09153716
000360 32 81 13 3e e2 55 f5 3d 0b 6c cf 3d 3f ff 49 3e
       0.14404753 0.119792715 0.101280294 0.19726275
000370 0d dd d9 3d f1 b8 cd 3e 64 43 26 bc a5 62 a7 3d
       0.10637865 0.40180162 -0.010147903 0.08173112
000380 5f 41 09 be ec 4c 2e 3c 6f c0 11 3d a0 91 52 bd
       -0.13403843 0.010638457 0.03558391 -0.05140841
000390 64 18 ec 3d 95 be 5d 3e f5 3d f7 3d 2e 5f 68 3e
       0.1152809 0.21654733 0.12072364 0.22692558
0003a0 b3 d9 fb bb e9 a6 8c 3e 99 cb 96 3d 1c 39 e7 3d
       -0.007685864 0.27471092 0.07363052 0.112901896
0003b0 1e d4 29 3d d2 66 dd 3c 39 09 8d bc cb c4 4b 3e
       0.041462056 0.027026568 -0.017216312 0.1989929
0003c0 0e 3b 23 3e e1 2b a3 3e d7 bb 4a bd 31 70 03 3d
       0.15940496 0.31869414 -0.049495544 0.032089416
0003d0 cd 74 41 3d 5c e1 09 3e 41 86 35 3e 8d e1 a5 be
       0.04723053 0.13464874 0.17726995 -0.32398644
0003e0 4c f2 d6 3d f6 c3 80 be 20 a6 50 3d 42 e7 a1 3e
       0.10495433 -0.25149506 0.05093968 0.31621748
0003f0 81 a2 af 3e fd c3 af 3e 3c 0a 84 3d e2 fb db 3c
       0.34303668 0.34329215 0.064472646 0.026853506

bias f4 [10]
000000 27 89 1e bf 82 f4 f2 be 23 33 ab be 34 1f ec bd
       -0.6192803 -0.4745217 -0.33437452 -0.11529389
000010 5d d7 55 bf 09 2c b2 bd 96 d7 ca be ab 72 56 be
       -0.83531743 -0.08699805 -0.39617604 -0.2094218
000020 b9 9f d4 be 68 1a 32 bf
       -0.4152811 -0.6957154

weight f4 [10, 10]
000000 40 a7 45 be 5e 41 cb bd 86 a3 62 be 57 4a b1 3c
       -0.19302082 -0.09924577 -0.22132692 0.021641893
000010 6d 02 c4 be 27 2f a1 3d 5e 03 b3 bd c9 77 66 be
       -0.382831 0.07870322 -0.087408766 -0.22506632
000020 36 03 33 be 0a 47 27 bd 24 ed bc be 75 8c db be
       -0.17481694 -0.040839233 -0.36899674 -0.42880598
000030 15 ad d3 be 85 bc f8 be 5b 97 4c be 54 76 b8 be
       -0.4134299 -0.4858133 -0.19979613 -0.36027777
000040 33 33 1e be f6 b4 c1 be cb ce ed bd 31 fa 08 be
       -0.15449218 -0.37833375 -0.11611708 -0.1337669
000050 44 c0 13 be c3 9c 88 3e 43 dc 13 3e 25 31 56 3e
       -0.14428812 0.266821 0.14439492 0.20917185
000060 87 f3 77 be 7e 2d 3e 3d 06 2d 5c be 69 be 53 bb
       -0.24213992 0.046430103 -0.2150155 -0.0032309538
000070 76 d3 0a bd 11 4f b5 bd 6b 1c d0 be a8 7d 60 bd
       -0.03389307 -0.08852971 -0.4064668 -0.054807335
000080 49 9a 55 be 3d b7 c1 be 2a 6d 72 be 53 c3 a6 be
       -0.20859636 -0.37835112 -0.23674455 -0.32570896
000090 ce a7 8f be b0 3d 10 bf 39 99 b2 be d2 a0 c5 3b
       -0.28057712 -0.5634413 -0.34882525 0.006031134
0000a0 be d8 01 3e 61 8c 41 3e 75 67 93 3e 69 c1 88 3e
       0.12680337 0.18901207 0.2878987 0.2671006
0000b0 2c f4 b1 3d c1 8a 9e 3e 2f d0 14 3d 95 e2 03 3e
       0.0868915 0.30965236 0.03633135 0.12879403
0000c0 b8 ef c9 3e fb 60 a5 b9 ce 6a 3d 3d 3c 25 df be
       0.39440703 -0.00031543509 0.046244435 -0.43583095
0000d0 d8 2e 09 bf b5 e0 88 be 2e a4 c4 bd af 09 26 bf
       -0.535871 -0.26733938 -0.09601627 -0.64858526
0000e0 72 a8 59 be 87 69 95 be 57 11 17 bf 38 98 a4 be
       -0.21255663 -0.29182073 -0.59010834 -0.32147384
0000f0 49 32 2d be 58 73 f6 be aa 86 84 be c3 a8 87 be
       -0.16913714 -0.48134875 -0.2588399 -0.26495942
000100 27 4e 8c bc 6e 0e 63 bd b2 3f bc be 93 ca 3b bd
       -0.01712711 -0.055433683 -0.36767346 -0.045847487
000110 b4 1f 3d be 19 a2 3c be 30 50 ca be e1 c6 e0 bd
       -0.18469125 -0.1842121 -0.39514303 -0.10975433
000120 a3 c3 95 bc b7 a7 24 bf e0 a8 7e be eb 65 49 be
       -0.018281763 -0.6431841 -0.24869108 -0.19667785
000130 cb b8 76 be 9e 99 93 bc 8e 41 92 be ba be 96 be
       -0.2409393 -0.018017586 -0.2856564 -0.29442388
000140 67 5e 03 3e ca 5d 15 3e 47 05 6f 3e 82 3c ec 3e
       0.1282898 0.14586559 0.23341857 0.46139914
000150 33 a3 bc 3e 8f 8c 8e 3e fc 78 13 3f 4b df d3 3e
       0.3684326 0.27841613 0.5760648 0.41381297
000160 fc 7c 66 3e b0 5f 84 3e 73 7a 16 bd 8e f5 cc be
       0.22508615 0.25854254 -0.03673787 -0.40031093
000170 70 c2 90 be 1b ad bb be 99 0a 82 be 4c d6 2c bf
       -0.28273344 -0.36655506 -0.2539871 -0.6751449
000180 14 e8 f5 be 6a 83 05 bf ec b8 71 be 96 21 f9 be
       -0.48028624 -0.52153647 -0.23605698 -0.48658437

bias f4 [10]
000000 b2 86 ae bd 3b 67 01 be 5e 8b 68 3e 22 0d 72 be
       -0.08521785 -0.12637036 0.22709414 -0.23637822
000010 e3 1c e4 3d 1b be 03 bf 7a 33 a7 be 3e d9 15 be
       0.11138322 -0.5146195 -0.3265646 -0.14633653
000020 57 7c 88 3e 27 f9 0b bf
       0.26657364 -0.5467705
