mcspace/paper/scripts/synthetic_benchmark/helpers/synthetic/_old_base_run/Mouse/model.pt (torch, 158415 bytes, 30 tensors)

theta_params f4 [30, 74]
000000 3c b3 93 c0 cd 00 b5 c0 5a a4 51 c0 90 d0 cf c0
       -4.615629 -5.6563478 -3.2756562 -6.4942093
000010 58 c2 83 c0 1e b4 8e c0 bb 6e 52 40 88 e7 bc c0
       -4.1174736 -4.459487 3.2880085 -5.903263
000020 ad a6 90 c0 d4 ed 7e c0 3f 67 8f c0 fc 14 f8 3f
       -4.520346 -3.9832659 -4.4813533 1.9381404
000030 b8 a4 ae c0 a9 ab 88 c0 30 ba 91 3f 42 ae 8e c0
       -5.4576073 -4.2709546 1.1384945 -4.4587717
000040 3d 18 82 c0 47 7c a1 c0 90 0f d2 c0 19 88 8b c0
       -4.065459 -5.0464206 -6.5643997 -4.3603635
000050 74 0c 8a c0 6d 28 70 40 b9 6a 30 c0 3c 76 3f c0
       -4.31402 3.7524674 -2.7565138 -2.9915915
000060 8a b1 96 c0 76 9d 59 c0 ad 58 ca c0 b4 87 a2 bf
       -4.7091722 -3.4002357 -6.3233247 -1.2697663
000070 eb ac bc c0 ec 4f 7e c0 8c 3b 36 c0 e4 1b b5 c0
       -5.896108 -3.973628 -2.8473845 -5.6596546
000080 10 26 85 c0 d0 ef 86 c0 24 61 3b c0 07 5d 80 c0
       -4.1608963 -4.216774 -2.927804 -4.011356
000090 eb 1f 94 c0 b5 57 b9 40 39 5f 92 c0 61 a4 ad c0
       -4.628896 5.7919564 -4.574124 -5.426316
0000a0 ab 60 b4 c0 3e 0c 9f 40 dc 45 93 c0 8f cd 90 3e
       -5.6368003 4.9702444 -4.6022778 0.2828183
0000b0 b8 d5 a9 c0 ff bd a6 c0 4b b2 ae c0 12 2d 05 40
       -5.3073387 -5.210693 -5.4592643 2.0808759
0000c0 7b d1 78 c0 0e 64 9e c0 b0 9a 84 c0 07 c8 23 c0
       -3.8877857 -4.9497137 -4.1438828 -2.5590837
0000d0 18 c9 62 c0 6a 91 b8 c0 b4 8c 9f c0 8b 91 7b 40
       -3.5435238 -5.7677507 -4.9859257 3.9307582
0000e0 c2 a8 3a c0 00 81 64 c0 fe 7e c0 c0 e8 2f 58 c0
       -2.9165502 -3.5703735 -6.015502 -3.377924
0000f0 41 50 a2 c0 5d 51 8a c0 12 82 c3 c0 88 4e 8e c0
       -5.0722966 -4.322432 -6.1096277 -4.4470863
000100 17 ab c2 3f 5e 1b 92 c0 5b cc b8 c0 3f ff 9c 40
       1.5208462 -4.5658407 -5.7749457 4.906158
000110 54 ac 8d c0 b5 c6 9f c0 41 d3 94 c0 0a f4 0d 3e
       -4.427286 -4.993006 -4.650788 0.13862625
000120 4c c2 90 c0 6d 59 54 c0 2b f2 83 c0 b6 60 c4 c0
       -4.523718 -3.317958 -4.1233115 -6.1368055
000130 6b 4b c2 c0 09 91 9e 40 15 cc 8b 3f 1b 09 c9 c0
       -6.0717063 4.9552045 1.0921656 -6.2823615
000140 aa f2 b2 c0 03 a8 d0 c0 b4 b1 a8 c0 b3 9a f6 c0
       -5.592122 -6.5205092 -5.2716923 -7.706384
000150 67 50 9b c0 71 54 ce c0 19 91 47 bf cd c4 e2 c0
       -4.8535647 -6.447808 -0.77955776 -7.0865235
000160 32 0b 6c 3d f0 a1 84 40 4c 26 c3 c0 02 b1 98 3d
       0.057627864 4.1447678 -6.098425 0.074556366
000170 67 ae a2 3e cf 85 99 c0 bf 77 3f be 84 7a 4a 40
       0.31773683 -4.797584 -0.18698023 3.1637278
000180 51 0b 58 c0 3e 35 ab bf a1 11 b6 c0 78 e5 89 c0
       -3.3756907 -1.3375623 -5.689652 -4.3092613
000190 c8 39 cc c0 4f 5c c9 c0 ef 77 92 c0 22 0a bc c0
       -6.3820534 -6.292518 -4.5771403 -5.876237
0001a0 b5 08 a4 c0 b8 30 ab c0 b0 85 0a c1 31 0b 99 c0
       -5.126063 -5.349697 -8.657639 -4.782616
0001b0 37 34 e5 3e 99 c1 e1 c0 6b 48 c4 c0 68 0e c4 c0
       0.447664 -7.0548825 -6.13384 -6.1267586
0001c0 55 4b 6f bf b0 1f bc c0 25 00 eb c0 73 70 6f 3f
       -0.9347432 -5.878868 -7.3437676 0.9353096
0001d0 55 97 88 c0 6f c4 ca bf 6e 5b ac c0 54 33 c9 c0
       -4.268473 -1.5841197 -5.386161 -6.2875156
0001e0 bc 01 8d c0 9d e1 cb c0 9e 0e 76 be 2d 24 aa c0
       -4.4064617 -6.3712907 -0.24029014 -5.316916
0001f0 d0 bf e7 c0 94 97 b1 c0 50 4e b5 c0 e9 48 db c0
       -7.2421646 -5.549753 -5.6658096 -6.85265
000200 85 d3 36 bf 22 7d f5 c0 5b ed 00 bf 15 f9 96 c0
       -0.71416503 -7.671525 -0.50362176 -4.7179055
000210 5b 51 ce c0 6d b7 a3 c0 40 37 b8 c0 1a 59 9d c0
       -6.447431 -5.116141 -5.7567444 -4.9171267
000220 7b e6 d4 c0 a6 76 af c0 75 df dc c0 8c ad ca c0
       -6.653135 -5.4832335 -6.9022775 -6.333685
000230 d5 fd 95 3e 73 a8 a3 c0 26 d1 8e c0 30 6b d3 c0
       0.2929522 -5.1143126 -4.463031 -6.6068344
000240 c3 b2 ac c0 e0 98 cd 3f 30 fb 25 bf e5 8d d0 c0
       -5.3968215 1.6062279 -0.64836407 -6.517321
000250 e9 0d 85 c0 e7 47 87 c0 d7 6c 9b c0 21 0f 77 c0
       -4.157948 -4.227527 -4.857036 -3.8602984
000260 7c a9 43 c0 10 c6 89 c0 f6 3f d4 c0 a4 ff 85 c0
       -3.0572195 -4.3054276 -6.6328077 -4.187456
000270 a9 58 ac c0 44 22 97 c0 03 8a 9b c0 d9 2f 78 c0
       -5.385823 -4.722933 -4.860597 -3.8779204
000280 81 0d 79 c0 60 d2 a2 c0 ef 75 97 c0 db ce 90 c0
       -3.8914492 -5.0881805 -4.733146 -4.525251
000290 75 ca 96 c0 91 48 a9 c0 04 b7 a7 c0 e7 25 a7 c0
       -4.712214 -5.290108 -5.241091 -5.2233768
0002a0 e7 9b 90 c0 3f 91 8a 40 26 5b 75 c0 91 99 dc 3f
       -4.519031 4.33023 -3.8336883 1.7234365
0002b0 46 60 6b c0 1b ff 9d 40 f4 ac b0 c0 80 65 9b c0
       -3.677751 4.937391 -5.5211124 -4.85614
0002c0 d5 16 8d c0 14 d4 a6 c0 85 52 89 c0 37 9e a3 c0
       -4.409037 -5.2133884 -4.291323 -5.1130633
0002d0 6b e3 ba c0 b4 68 97 c0 7b 26 87 c0 31 df 55 c0
       -5.840261 -4.731531 -4.2234473 -3.3417475
0002e0 b5 9b 66 c0 e6 7b b7 c0 6d cf f2 3f 73 eb d9 3f
       -3.6032536 -5.7338743 1.8969551 1.7024978
0002f0 dd 73 84 c0 22 f9 21 40 d2 7b a4 c0 58 4f 9f c0
       -4.1391435 2.5308309 -5.140115 -4.9784355
000300 0c 5e a2 c0 18 4f 93 c0 0e bd 58 c0 81 47 99 c0
       -5.0739803 -4.603405 -3.386539 -4.7899785
000310 49 56 92 c0 6b 4c 83 c0 de 0a 82 c0 f8 73 85 c0
       -4.573033 -4.1030784 -4.0638266 -4.1704063
000320 7f 8b 5d c0 04 4a 38 c0 b5 bb ba 40 c4 38 28 c0
       -3.4616392 -2.8795176 5.8354135 -2.6284647
000330 90 b9 32 40 25 9b 55 c0 42 0e 70 c0 57 83 9c c0
       2.7925758 -3.3375943 -3.7508702 -4.8910327
000340 56 6f 93 c0 84 75 4a c0 ec 59 8f c0 71 e0 b5 c0
       -4.607341 -3.1634226 -4.479727 -5.6836476
000350 37 7a 68 c0 50 19 4c c0 25 f7 75 c0 8d f1 9a c0
       -3.6324594 -3.189045 -3.8432095 -4.841986
000360 7c 6b 9e c0 85 d1 70 c0 a4 52 85 c0 15 15 87 c0
       -4.9506207 -3.762788 -4.166338 -4.2213235
000370 d5 de 9b c0 5b d3 6d c0 67 5c 22 c0 46 3a 7c c0
       -4.870951 -3.716025 -2.5368898 -3.9410567
000380 72 70 9e c0 46 cf c1 c0 02 fa 02 40 30 76 46 c0
       -4.951226 -6.056552 2.0465093 -3.1009636
000390 fd 11 63 c0 4c 8e 41 c0 1e a1 92 c0 28 4a 1e 40
       -3.547973 -3.02431 -4.5821676 2.4732761
0003a0 1d 54 27 c0 64 2f a2 c0 e9 1d 80 c0 f1 2c 4e c0
       -2.6145089 -5.068285 -4.003651 -3.221493
0003b0 ba 8e 87 40 aa 07 99 c0 01 0f 39 3f 4a cf c0 40
       4.2361727 -4.7821856 0.7228852 6.025304
0003c0 3e 94 a1 c0 93 c0 a2 c0 4c cc 7e c0 5d 2e 9d 40
       -5.049346 -5.0860076 -3.9812193 4.9119096
0003d0 73 d4 44 c0 61 a6 b1 c0 9a 7b 69 c0 15 07 36 c0
       -3.0754669 -5.55156 -3.648169 -2.8441823
0003e0 c5 35 60 c0 ad df 91 c0 89 c8 a9 bf a8 16 88 c0
       -3.5032818 -4.558554 -1.3264323 -4.2527657
0003f0 dc 28 bf 40 da 69 59 c0 d3 d7 2d c0 b9 06 bc c0
       5.9737377 -3.3970857 -2.7162979 -5.8758206

weight f4 [50, 74]
000000 33 ec cb 3e 0f 7f 54 be 23 b1 36 bf 95 a1 af 3e
       0.39828643 -0.20751594 -0.7136404 0.34302965
000010 95 bf 6d 3f 09 02 58 bc e2 fd e2 3e 33 aa a2 3d
       0.92870456 -0.013184079 0.44334322 0.07942619
000020 87 7d 90 be 34 ab 0a bf 6a f3 9f be 0c 75 34 be
       -0.2822077 -0.54167485 -0.31240398 -0.17622775
000030 91 1d 70 3f 53 da 74 be d1 e2 c1 3d ff cf ba be
       0.93795115 -0.23911409 0.0946709 -0.36486813
000040 56 dc b5 be 4b 93 c3 3e 2b 2b 8a 3e ee b2 da bd
       -0.35519665 0.38198313 0.2698606 -0.106786594
000050 1b c4 de 3e 18 44 c0 be 7e 7b 9b be 90 f1 82 3f
       0.43508992 -0.3755195 -0.30367655 1.0229969
000060 c0 16 75 3d e7 a9 63 be 64 3d 8e be 88 91 89 be
       0.05983615 -0.22232781 -0.27781212 -0.26868844
000070 65 6a c7 bd 0a 45 09 be 1e 19 49 3e ab 8e 86 be
       -0.0973709 -0.13405243 0.19638488 -0.26280722
000080 de ba 84 be 6b 0c 20 3e ea f2 d3 be c9 17 54 be
       -0.25923818 0.15629737 -0.41396266 -0.20712198
000090 8d b4 9e 3e 69 fd c3 3e 23 cf 88 3e 83 e3 65 3f
       0.30997124 0.38279274 0.26720533 0.8980028
0000a0 95 62 38 bd dc 44 38 bd 43 27 b1 be db 4f 68 3f
       -0.04501589 -0.044987544 -0.34600267 0.9074685
0000b0 7c fb 5f be 0b 52 40 bd 6f 15 bf 3d 88 55 a8 3f
       -0.21873277 -0.046953242 0.0933026 1.3151102
0000c0 e5 5b fb 3d 0e 60 14 bd 7f c3 04 bf 9b 16 1c 3e
       0.12273387 -0.036224417 -0.51860803 0.15242998
0000d0 95 4a 0b be 64 f8 be 3f 83 1a a5 3e 07 74 7e be
       -0.1360267 1.4919553 0.3224679 -0.24848948
0000e0 87 b5 76 3f 80 bd 94 be f3 dd 11 be d7 b5 9d be
       0.9637074 -0.29050827 -0.14244823 -0.30802795
0000f0 23 6c 98 3f a9 bc 1c be 97 59 d1 be cc 23 bf be
       1.1908001 -0.15306343 -0.40888664 -0.37331998
000100 04 77 28 3e c5 28 1e be 6d c8 eb 3e d5 64 d1 be
       0.16451651 -0.1544524 0.4605135 -0.4089724
000110 70 a5 57 be da ed e2 3e df 5c ad be 71 05 37 be
       -0.21059203 0.4432209 -0.33859918 -0.1787317
000120 b5 d7 72 be 2e 66 ff bd 07 a4 f3 3d 2b 26 05 3e
       -0.23715098 -0.12470661 0.1189652 0.13002841
000130 1f 1b 91 be cb 1e 3f be da 69 86 be 8f 26 90 3d
       -0.28341004 -0.1866409 -0.26252633 0.070386045
000140 48 6a da 3c 51 54 cb 3d 51 23 1a 3e 44 8c c9 bb
       0.026662007 0.099281915 0.15052535 -0.006150754
000150 5c ae 4f 3e e7 90 a8 3d 3e df a2 bd ae 01 09 3e
       0.20281357 0.08230763 -0.07952736 0.13379547
000160 83 5b 57 be 00 40 43 bd 7f 39 65 3e 31 a4 2a 3e
       -0.21031003 -0.047668457 0.22385214 0.16664197
000170 95 20 ab bb 0c 93 31 3d a8 1a 76 3c 9c 4b 62 3d
       -0.00522239 0.043353125 0.015021004 0.055247888
000180 c1 ac 26 3d 99 a5 ef bd 5d 5f 11 3e ea c7 fd 3d
       0.040692095 -0.11701507 0.14196534 0.12391646
000190 29 43 44 3e 07 85 67 3d 99 12 2e 3b 91 7d cc 3c
       0.19166245 0.05652335 0.0026561378 0.024962218
0001a0 53 ba cb 3d 31 44 c0 3d a6 95 2a 3d 43 08 e4 3d
       0.09947648 0.093880065 0.041646622 0.11134388
0001b0 ed d9 8b be 20 fc 32 3e f2 a9 4d 3d 58 15 06 3e
       -0.27314702 0.1747899 0.0502109 0.1309408
0001c0 c2 81 ad bc 59 31 29 be 90 44 58 3e 16 fd 55 be
       -0.021180037 -0.16522731 0.21119905 -0.20897326
0001d0 ea 8b 2e 3e f1 d9 51 be 25 c8 02 3e b0 15 23 3d
       0.1704556 -0.20493294 0.12771662 0.039815605
0001e0 29 34 b8 3d fd 25 fe bd 3f 40 20 3e 9d b6 13 3e
       0.08994324 -0.124095894 0.15649508 0.1442513
0001f0 8a 54 52 3e 80 15 10 3e 46 e9 3e 3e 04 1d 58 be
       0.20540062 0.14070702 0.18643674 -0.21104819
000200 d7 fe c4 3d 82 98 80 3d 0c 41 90 bd 45 c8 dc 3d
       0.09618919 0.062790886 -0.07043657 0.10780386
000210 d2 2a 66 3e fe e2 fa 3d bb 3c 81 bd b7 17 86 3e
       0.22477272 0.122503266 -0.063104115 0.26189968
000220 13 df 34 3e fb 36 94 3d 3b a3 d6 3d 15 13 b6 bb
       0.17663221 0.07237049 0.104803525 -0.005556474
000230 15 bf 9f bd 41 7b 0c 3f 71 a8 4c 3d 34 12 40 3d
       -0.07800118 0.5487557 0.049965326 0.04689236
000240 05 e9 94 3e d5 1c fe bd 76 cf 9f 3d 51 55 49 3e
       0.2908403 -0.12407843 0.07803242 0.19661452
000250 41 b3 17 3e c6 95 e7 3d 0b ca 92 be 19 af f2 bd
       0.14814474 0.11307864 -0.28669772 -0.118498035
000260 93 a6 d8 bc d0 00 92 3d 1e 47 32 3d a8 59 fa 3d
       -0.026446616 0.07129061 0.043524854 0.12224132
000270 98 5e 5a 3e 65 91 75 3e b7 52 3a 3d b5 bc 45 3d
       0.21325147 0.23981245 0.04548904 0.04827567
000280 66 20 da bc f5 c4 94 3e 8f 11 78 be 6e ea ba bd
       -0.026626777 0.29056516 -0.24225448 -0.09126745
000290 c9 ce 49 3e ec 10 a6 3d 0d d3 0f be b0 9b f7 3d
       0.19707789 0.08108696 -0.14045353 0.12090242
0002a0 ae 05 25 3d 1a c1 e0 bd fd 07 60 3e c5 bf 26 bd
       0.04028862 -0.10974331 0.21878047 -0.04071023
0002b0 fd 8d 02 3e 98 6f 55 3e 02 7c 87 3d 18 5f 34 3e
       0.12749477 0.20843351 0.066154495 0.176144
0002c0 5e 4b c8 3d f3 ae c7 3d ea 50 fb 3d cd 35 84 3e
       0.0978 0.09750166 0.122712925 0.25822297
0002d0 4b 1b cb 3d ce 07 d4 3d b5 49 1b be f0 13 ea 3d
       0.09917315 0.10353051 -0.15164836 0.11429584
0002e0 ce 8d 0d 3e 78 91 77 3d 22 4b 0c 3d de 1e 66 bb
       0.13823625 0.060441464 0.03425134 -0.0035113613
0002f0 ad 8d 60 3e 3d 44 4a be f5 53 0d 3e 16 b0 9a bd
       0.21929045 -0.19752593 0.13801558 -0.07553117
000300 89 aa 4d 3e a0 49 4b 3e 72 f0 10 3e b8 91 6f bd
       0.20084585 0.19852304 0.14154223 -0.058488578
000310 ef ed 15 3e 6d 71 76 3e 97 f4 60 3d 7e 4b 2a 3e
       0.14641546 0.24066706 0.05492076 0.1663036
000320 02 a4 3f 3e 6c 4e b8 bd b4 a5 56 bb 49 0d 09 3e
       0.18714908 -0.08999333 -0.0032752575 0.13383974
000330 e5 c6 80 bd 04 a9 9c 3d ee df 81 3e 1b a3 92 3d
       -0.06287936 0.07649425 0.25366157 0.07160016
000340 69 da a4 3d c7 51 b4 3d be 5d a9 3e 45 4e 88 3d
       0.08049471 0.0880466 0.33079332 0.06655554
000350 68 4b 30 3e 3b 4c 8c 3d fe 9c 0e be db ec 75 3d
       0.17216265 0.06850477 -0.13927075 0.060040336
000360 c1 15 84 3d 95 e0 2f 3e 24 fc 65 3e 54 9a 13 be
       0.06449462 0.17175515 0.22459465 -0.1441434
000370 95 ef 38 3e 2a 79 eb 3d bb 90 c2 3e 34 75 e1 3d
       0.18060143 0.114977196 0.38001046 0.11008683
000380 1a 65 4c be 7b 7e f3 bd 70 ea 12 3e a5 97 b6 3e
       -0.19960442 -0.118893586 0.14347243 0.3566257
000390 0b 92 19 3e 10 04 30 3e e8 92 5c 3d 8b 8b 78 3c
       0.14997117 0.1718905 0.05385104 0.015169988
0003a0 55 97 8e 3e 54 27 68 3e b3 c5 30 3c b1 44 d8 3e
       0.27849832 0.22671252 0.010789323 0.42239907
0003b0 60 62 a6 bd 95 c7 00 3e 5b f2 50 3e 2b d1 68 3e
       -0.08124232 0.12576135 0.20404951 0.22736041
0003c0 0f cf 23 bb 65 e0 fb 3e cb bf f1 3d 17 9b 34 be
       -0.0024995243 0.49194637 0.1180416 -0.17637287
0003d0 cf a3 d4 3e d6 15 8f 3e 57 d5 03 3e 18 a7 70 3e
       0.41531226 0.27946347 0.12874351 0.23501241
0003e0 98 23 94 3d 55 07 58 3e bb c6 64 3e f5 4c 95 3d
       0.072333515 0.21096547 0.22341435 0.07290069
0003f0 ff 59 23 3e bc a1 4c 3e 63 66 82 3e 74 ed bb 3e
       0.159523 0.19983572 0.2546874 0.367046

bias f4 [50]
000000 cd bc 89 3e b4 07 9d bd 53 01 5f be e4 19 85 be
       0.26901856 -0.07667485 -0.21777849 -0.25996315
000010 c1 ba 54 be a3 4f fe bd 86 99 13 be f1 bf 57 be
       -0.20774366 -0.12417533 -0.14414033 -0.21069314
000020 3f 85 21 be 8d 4a 36 be 21 49 94 bd 51 d7 81 be
       -0.15773486 -0.17801876 -0.07240511 -0.25359586
000030 f4 b5 c1 bd 57 7e 35 be 86 10 93 3d 96 e3 9e be
       -0.09458533 -0.17723976 0.07180886 -0.3103301
000040 76 0f 86 be a8 8b 4e be bb c3 d5 3b d5 61 a5 3c
       -0.2618367 -0.20170462 0.006523577 0.020188252
000050 2b 9d bb 3d c2 a4 df bd 0b e5 17 be 12 57 8c bd
       0.09160837 -0.10920097 -0.14833467 -0.06852545
000060 94 3b 83 be e8 da 1f be dc 8f d5 bd df 01 5d bc
       -0.25631392 -0.1561085 -0.104278296 -0.013489216
000070 57 7e 44 be c9 88 8f be 69 ee 95 bd 72 56 ab 3b
       -0.1918882 -0.28034046 -0.07320864 0.005228811
000080 24 23 96 bd 33 f5 6c 3c fc 82 95 be 3f 3c 1f be
       -0.07330921 0.014462757 -0.29201496 -0.15550326
000090 09 2f c9 3d c3 3a 36 be 32 6b 26 be 7a bd 1b 3d
       0.09823424 -0.17795853 -0.1625183 0.038022496
0000a0 8c 89 8e bc 3c 46 93 be be be 9d bd 40 3b 49 bd
       -0.017399572 -0.28764522 -0.07702397 -0.04912877
0000b0 be fd 68 bd 99 40 5a be 5f df a4 bd 13 c1 18 bd
       -0.056882612 -0.21313705 -0.08050417 -0.037293505
0000c0 d8 45 ac be 80 00 42 be
       -0.33647037 -0.18945503

weight f4 [50, 50]
000000 cd 0f b3 be 0e ea 31 3c 4b 39 ac 3c 16 2a 47 3d
       -0.34972993 0.010859026 0.021023413 0.04862412
000010 3b 5f 70 3b be e4 67 be 32 a9 41 be 89 cc 81 bd
       0.0036677856 -0.22645852 -0.18912199 -0.0633784
000020 35 0f 65 be a2 b7 b9 bd 0c 74 00 be aa 7b 0a be
       -0.22369082 -0.09068228 -0.12544268 -0.13523737
000030 b7 79 96 bd 1b ff fe bd 87 58 80 be 52 41 a2 bd
       -0.07347434 -0.12451001 -0.2506754 -0.07922615
000040 5a a3 9a bd 3d fe 62 be d7 e3 cc ba 3d 0c ce bc
       -0.07550688 -0.22167297 -0.0015631866 -0.02515232
000050 7f 83 ba be b8 0d 16 be 38 ae e9 bd 12 11 4b be
       -0.3642845 -0.14653671 -0.11410183 -0.1983073
000060 77 56 0a be e7 a1 b7 bd a9 74 9f bd 6e e7 9f bd
       -0.13509546 -0.08966427 -0.07785923 -0.078078136
000070 66 05 36 bc 7b ba 4b bd e4 e5 a9 bd 5d 56 2b be
       -0.0111096855 -0.04973839 -0.08295801 -0.16732164
000080 72 ad ea bd 37 a1 94 bd fb 75 11 3c 3a d0 d3 bd
       -0.11458863 -0.07257312 0.008878226 -0.103424504
000090 4b 39 9e be 75 d2 99 bd 90 f6 82 be 94 55 ad bd
       -0.30903086 -0.075108446 -0.25578737 -0.08463588
0000a0 70 6a aa 3b 45 ad 39 be 9d ff 06 be 1d 34 b8 bc
       0.0052006766 -0.18132503 -0.13183446 -0.022485787
0000b0 85 68 47 bd d5 10 2c 3d dd 50 36 be 10 f0 39 be
       -0.048683662 0.04200824 -0.17804284 -0.18157983
0000c0 1d de 30 be 25 d2 59 be d9 34 8e be 2e 36 c4 3d
       -0.1727223 -0.2127157 -0.27774695 0.095806465
0000d0 e6 7b 93 3d f4 66 e4 bd 9b 0e c1 3d 0f 64 0f be
       0.07201366 -0.11152449 0.09426614 -0.14003013
0000e0 4c b3 63 be 11 66 89 bd 1a 24 ba 3d 42 9a b6 3d
       -0.22236365 -0.06708921 0.09088917 0.08916141
0000f0 e7 ca 68 be 35 d5 cb bd 0c e6 c3 3d 3f 58 78 3d
       -0.22733651 -0.099527754 0.09565362 0.060631033
000100 66 67 a0 bd 47 63 aa bd fb 8b 9f 3d 00 eb eb 3d
       -0.07832222 -0.08319717 0.07790371 0.11519432
000110 45 82 ba 3d 8a 89 5a 3d 40 a1 97 be 3c dc 8b be
       0.09106878 0.053353824 -0.2961521 -0.27316463
000120 41 9c c2 3d ae 14 56 be e7 71 3f 3c 59 87 86 3c
       0.09502459 -0.20906326 0.011684871 0.01642196
000130 5f 7c 3f be ce 96 09 be 8d 31 2e 3c 5a 6d 9b bd
       -0.18699788 -0.13436434 0.010631931 -0.075892165
000140 bc 2b ab be 70 52 35 bd f8 c5 51 bd 42 9b e4 bd
       -0.33431804 -0.04426807 -0.05121419 -0.111624256
000150 5b 7b 19 be 41 f1 52 bd 61 10 0c be 2c be 36 3d
       -0.14988463 -0.05149961 -0.13678123 0.044614956
000160 58 39 03 be a9 0a d7 bd 40 68 06 be d6 20 54 bd
       -0.12814844 -0.1050008 -0.13125706 -0.051789127
000170 fc 6b 2e be 57 c9 aa bb bd 78 db bd f4 30 b5 3c
       -0.1703338 -0.00521199 -0.107163884 0.02211807
000180 7f b1 15 be 5a 84 d9 3d 8d bc f2 3d 33 8d 9d 3c
       -0.1461849 0.10620947 0.118523695 0.019232368
000190 19 e4 71 be 67 d6 01 be 23 37 e8 bd cc ef 10 be
       -0.23622169 -0.12679444 -0.113386415 -0.14153975
0001a0 d3 2f 91 bc a7 1c ca 3d 6b 81 f7 bd e5 fd dc bd
       -0.017723 0.09868746 -0.120852314 -0.10790614
0001b0 25 c5 fe ba 65 67 22 be 71 14 01 be c8 b0 19 be
       -0.0019437416 -0.15859754 -0.12605454 -0.15008843
0001c0 a2 0c 0f be 21 36 a3 bd 9a ba 8a 3d 24 a9 0b 3d
       -0.13969663 -0.07969309 0.06773873 0.034096852
0001d0 18 81 d5 3b 3b 17 bc 3d db 31 f4 3c 75 89 3b bd
       0.0065156333 0.09184118 0.02980893 -0.045785386
0001e0 3a 68 e8 bd da f2 d7 bd da 85 da 3c b0 ee f3 bd
       -0.11348005 -0.10544367 0.026675154 -0.119107604
0001f0 b5 f6 1b 3d 21 ca 2f be 53 1f be bd aa 9c dc 3c
       0.038077075 -0.1716695 -0.09283318 0.026930172
000200 67 94 13 3c 9a 83 da ba 99 9c 48 be 2c bd 07 3d
       0.00900755 -0.00166713 -0.19590987 0.033139393
000210 2a c4 63 bd 00 cd 00 be 46 60 10 be d8 95 f5 bc
       -0.055607 -0.12578201 -0.14099225 -0.029978678
000220 97 97 4a be 4a 9a 3d 3d 36 27 88 bc 2b 8e ad bd
       -0.1978439 0.04628972 -0.01662026 -0.08474382
000230 fd 50 99 3d 35 56 b5 bc a7 06 0e bd dc cf 5e 3d
       0.074861504 -0.022135833 -0.034674313 0.05439745
000240 a1 6d 4e bc 24 22 26 bd ac b0 ad 3d 97 92 35 be
       -0.01259938 -0.040559903 0.08480963 -0.17731701
000250 63 39 5e 3d 9a b5 93 bc 7f 97 79 be 5f b7 6f bd
       0.054253947 -0.01803093 -0.24374197 -0.058524486
000260 97 82 b1 bd 8f fe 2d be ae 7f 39 be 90 11 33 be
       -0.08667486 -0.16991638 -0.18115112 -0.17487168
000270 80 bd 1d 3d e8 3a d8 3c 70 63 e3 bd aa 7e d1 bb
       0.0385108 0.026395276 -0.111029506 -0.0063932734
000280 a9 4a 01 be 33 77 26 3c e5 c9 41 bd 1e 99 c6 bc
       -0.12626137 0.010160255 -0.047311682 -0.024242934
000290 bf cb 97 be 4e 11 83 bd e9 35 43 be 7f aa 65 be
       -0.29647633 -0.06399785 -0.19063534 -0.2242832
0002a0 d2 c0 0b be 95 66 89 be 9d 39 77 be ba 74 0b bd
       -0.13647774 -0.26836076 -0.24143071 -0.034046866
0002b0 9e ee a0 bd a2 3b a9 be 54 ce a9 bc ed d4 dd 3b
       -0.078580126 -0.3305331 -0.020728268 0.0067697675
0002c0 6e ac c1 bd 42 e4 71 be 27 3a 0e be 9f 79 49 3d
       -0.094567165 -0.2362223 -0.13889371 0.049188253
0002d0 d1 a3 44 be 14 14 70 be cf 05 ca 3c 85 4d 9c bb
       -0.19203116 -0.23445159 0.024660973 -0.0047699832
0002e0 b0 89 c2 bd bb 34 cd ba 6c b8 a1 be 1b d9 59 bc
       -0.09498918 -0.0015655974 -0.31586015 -0.013296391
0002f0 a7 61 8a be bf d1 1c be e1 7d 24 bc 54 41 24 be
       -0.27027628 -0.15314387 -0.0100397775 -0.16040546
000300 d8 62 4c be 31 44 ea bd b4 8d 44 3d 29 32 19 be
       -0.19959581 -0.11438788 0.0479867 -0.14960541
000310 aa f2 6a be cd 96 6c bd a0 c7 f4 3c eb 51 56 be
       -0.22944131 -0.057761002 0.029880345 -0.20929687
000320 18 a0 a8 be d9 07 39 bd ee f5 98 bd 67 d2 4b be
       -0.32934642 -0.0451735 -0.07468782 -0.19904481
000330 9e 31 fe bd bd b9 8d bd 88 18 b1 bd c4 60 2a 3c
       -0.124118075 -0.069201924 -0.08647257 0.010399047
000340 d8 16 81 bc dc b0 92 bd 69 41 7a bd a6 c0 69 be
       -0.015757963 -0.071626395 -0.061097536 -0.22827396
000350 7c b0 97 bd 42 07 04 be 7b ec 92 be e3 6f e8 bd
       -0.074067086 -0.12893394 -0.28696045 -0.11349466
000360 8a 5b 14 be ab 14 6c be 48 25 03 be ce d3 80 bc
       -0.14488044 -0.23054759 -0.1280719 -0.015725996
000370 73 82 b1 be c2 10 0d be b0 77 0e be 86 70 95 be
       -0.34669837 -0.13775924 -0.13912845 -0.2918741
000380 37 f2 98 bc 6c f2 69 be ed 74 4f 3c 28 24 6f be
       -0.018670185 -0.22846383 0.012662155 -0.23353636
000390 0d 1d d4 bd 41 a4 38 be 3c b3 69 be 3b 01 08 bd
       -0.103571035 -0.18031408 -0.22822279 -0.0332043
0003a0 d6 91 e7 bd c5 f3 93 bd af dd 18 be 38 9f c0 bd
       -0.11307113 -0.0722423 -0.14928316 -0.094053686
0003b0 41 e3 90 be 22 bb 03 3c 55 70 8e be 69 d7 0b be
       -0.2829838 0.008040221 -0.27820078 -0.13656391
0003c0 c4 ee 79 bb b9 03 3e be 1a b0 0c be 04 be 08 be
       -0.00381367 -0.18556108 -0.13739052 -0.13353735
0003d0 bf 5d 09 3d ca 46 b7 bd fc 32 60 be 6e 1e 87 be
       0.03353667 -0.08949049 -0.21894449 -0.26390404
0003e0 57 96 52 bd af 0d 84 bc 52 df a9 be 98 2d e3 3b
       -0.051412906 -0.016119806 -0.33178192 0.0069329254
0003f0 44 b8 af bd 72 dc f9 bd dc 7c bb 3d fe ca 49 3d
       -0.08580068 -0.1220025 0.091546744 0.049265854

bias f4 [50]
000000 67 9a d8 bc f3 8d 60 3d c4 68 c4 bd b0 49 94 be
       -0.026440812 0.054822873 -0.09590295 -0.2896247
000010 59 e1 90 bd a7 de ad 3d 0b 6e b0 bd 32 ef fc bd
       -0.07074232 0.08489733 -0.08614739 -0.123503104
000020 cc 22 a4 3c 86 19 0c be 17 fb 01 bc 3a 04 1b be
       0.020036124 -0.13681611 -0.0079334 -0.15138331
000030 54 9d e1 bd b1 21 9e be c2 e0 51 be 1d a8 17 be
       -0.11016336 -0.3088508 -0.20495895 -0.14810224
000040 b5 9a 7f bd 8d 56 a0 bc 71 31 7e 3d 3b 2c f4 bc
       -0.0624034 -0.01957252 0.06205887 -0.029806247
000050 33 34 08 be 15 a7 eb bd 0a 1b fe bd c2 42 56 bd
       -0.13301162 -0.11506478 -0.12407501 -0.05230976
000060 b1 05 45 bd bf 5c 65 bd c9 fd f6 bd d6 40 23 be
       -0.04810113 -0.055996653 -0.120601244 -0.15942702
000070 3f 75 87 be 42 de 88 bd fc f4 3d be 40 ff 8c bd
       -0.2645664 -0.06683017 -0.18550485 -0.068846226
000080 0b 50 84 bc a4 e4 94 be 4c 62 b1 bc 57 49 48 be
       -0.016151449 -0.2908069 -0.021653317 -0.19559227
000090 10 4d 02 be 76 e1 29 be 82 bb 6c bc 1a 1c 7c be
       -0.1272471 -0.16589913 -0.014449002 -0.24620095
0000a0 f4 46 80 be 71 de 72 be c3 62 9a 3d 06 30 5e be
       -0.25054133 -0.23717667 0.075383686 -0.21698007
0000b0 67 48 09 be ae 5d 47 3d d1 b7 27 be 49 40 47 3d
       -0.13406526 0.048673324 -0.16378714 0.04864529
0000c0 6d 55 e0 bb 80 ee 5c be
       -0.006846121 -0.21575356

weight f4 [30, 50]
000000 1c c3 00 be c9 e5 52 bd 0f dc 63 bd d9 8a b2 bd
       -0.12574428 -0.05148867 -0.055629786 -0.08717889
000010 3f c5 ae bd 66 40 8c bd 95 f5 85 3c ba d1 01 bd
       -0.085337155 -0.068482205 0.016352454 -0.03169415
000020 e2 be b4 3c 3f c9 5e 3c 06 d7 9e bd 62 fe c3 3c
       0.022063676 0.0135977855 -0.07755856 0.02392501
000030 66 8b 9f bd aa 9a 7a ba f0 e2 88 3d b3 56 02 bd
       -0.0779026 -0.000955979 0.0668391 -0.031820964
000040 aa cd 80 3d cc 4c 8a bc 9e 48 f6 bc 13 4b d7 3d
       0.06289227 -0.016882323 -0.030063923 0.10512366
000050 eb bd 7b 3d ba 23 11 3c cb b3 78 3b 21 35 e2 3d
       0.061460417 0.0088586155 0.0037948962 0.1104529
000060 a4 12 ba bd c0 40 04 3c f6 ec 04 be 00 45 10 be
       -0.09085587 0.008072078 -0.12981018 -0.14088821
000070 59 38 71 3c d1 1c 85 bd 00 d6 21 3d a6 c9 f5 3d
       0.014722907 -0.06499637 0.039510727 0.12001352
000080 28 7a ae 3d e2 02 49 bc c4 de c6 3d 16 48 99 bd
       0.08519393 -0.012268754 0.09710458 -0.074844524
000090 9f 87 de 3d 27 0e a6 3d f8 ad eb bd cc 88 4e bb
       0.108657114 0.08108168 -0.11507791 -0.0031514643
0000a0 61 db 46 3d 80 6f 15 3d 7a 85 26 3e 45 9b 79 3d
       0.04854906 0.036483288 0.16261855 0.060939092
0000b0 72 74 b0 bd 9d 5d 9f 3d ef 26 cc bd 2a 15 dd bd
       -0.0861596 0.07781527 -0.099683635 -0.10795052
0000c0 ca f8 bc bd 78 ef e3 bc 67 b3 8d bd 41 e1 b3 3c
       -0.0922714 -0.027824149 -0.06918984 0.021957995
0000d0 b3 bd 63 bd 98 24 d1 bd a4 ce ef bd 8d 46 37 be
       -0.055600833 -0.10212058 -0.117093354 -0.17898007
0000e0 d4 3d 30 3d 7c 6f 55 3d 4e c7 83 3d 14 3f d8 3d
       0.043027714 0.052108273 0.06434499 0.10558906
0000f0 90 38 1f bd 1b 79 e6 3d 97 6d d8 bd 56 37 7c bd
       -0.0388723 0.11253568 -0.105677776 -0.06157621
000100 c2 e3 bb 3d c2 26 f4 bd 5d c5 12 be e9 de 2d 3d
       0.09174301 -0.11921455 -0.143331 0.04244891
000110 86 45 97 3e 07 60 94 bd 54 55 98 3e d1 4e 3b 3d
       0.2954523 -0.07244878 0.297526 0.045729462
000120 07 c3 a0 bc ff 55 87 bb cc 5f d2 3c 80 a9 86 bd
       -0.019624246 -0.0041301246 0.025680445 -0.06575298
000130 7f bc ee bd 14 40 c0 3d ff 33 07 bd e0 d3 df 3d
       -0.116570465 0.09387222 -0.03300857 0.10929084
000140 84 36 10 be 4a 91 a0 3c e6 07 7d bd 48 83 e8 3d
       -0.14083296 0.01960053 -0.06177511 0.11353165
000150 91 9d fb bb 60 8a f8 bd 02 85 88 3e f2 41 ab 3d
       -0.0076786955 -0.12135768 0.26663977 0.083621874
000160 73 57 83 3d ea 8d 16 bd 4b b2 c7 b9 d0 be 86 bd
       0.06413164 -0.036756434 -0.00038089076 -0.06579363
000170 6e 4f 49 bd da 97 ba 3d 41 5f 54 3c fa 74 42 be
       -0.049148016 0.09110995 0.012962163 -0.18989936
000180 ed 38 c8 3d 89 7e 85 bb 27 7d 7a bc 93 56 ed 3d
       0.09776483 -0.004073922 -0.015288628 0.11588778
000190 5f fc 06 3d d8 00 12 bd bc 92 c7 bd cd 32 04 be
       0.032955524 -0.035645336 -0.09744784 -0.12910004
0001a0 5d cc 03 3d 88 fd 03 3e 89 27 a7 bd 04 bf 2f 3d
       0.032177318 0.12889683 -0.081618376 0.042906776
0001b0 9f b5 84 3d 5b bc 7d 3d 96 25 47 bd ca 86 62 3b
       0.06479954 0.061947208 -0.04861983 0.0034565204
0001c0 a7 65 21 bd 36 ef 09 be 76 67 ce bd 9c 71 a2 bd
       -0.039403584 -0.13470158 -0.10078327 -0.079318255
0001d0 b0 50 2f 3d 0a 2b 30 be 9a ac 6a be 45 1a aa bd
       0.04280156 -0.17203918 -0.22917405 -0.08305792
0001e0 5b b1 26 be 6e 94 1c be 9c 2a e7 bd 1e 02 e1 bc
       -0.16278593 -0.15290996 -0.11287424 -0.02746683
0001f0 80 84 2f bd 29 ba 88 bd ec 94 1c be 8f 83 d3 bd
       -0.04285097 -0.06676132 -0.15291184 -0.10327827
000200 29 f3 5c bd d2 b5 90 bd 58 6d 98 3d 8c d2 a4 3d
       -0.053942833 -0.070659295 0.07442731 0.08047971
000210 40 b1 bb bd 07 e8 b6 3b 9a 83 73 3d 94 92 93 bd
       -0.09164667 0.005581859 0.059451677 -0.07205692
000220 2d 77 a2 be 09 aa 64 be c9 7d e5 bd 19 29 d3 bc
       -0.3173155 -0.22330488 -0.11205632 -0.025776433
000230 12 a7 1b be 0d 3c 3c bc 0a 04 06 be f8 b1 c2 bd
       -0.15200451 -0.011488927 -0.13087478 -0.09506601
000240 1e c9 c6 bd fa 31 5c bd 57 fb 8e 3d 60 0c bc 3d
       -0.09706329 -0.0537586 0.06981533 0.09182048
000250 e6 76 b8 3c 57 b2 fc 3d 2e 60 9f 3d 9a 20 e8 bc
       0.022517633 0.12338703 0.07782017 -0.028335858
000260 f2 a4 96 bd 70 b7 8f 3d a0 f0 e2 bc c1 df d2 3b
       -0.073556796 0.0701741 -0.02770263 0.006435365
000270 09 b7 42 bd 1c fa 5e 3d 9a 43 61 3d c2 59 26 3e
       -0.047537837 0.05443774 0.05499611 0.16245177
000280 17 fa 41 3d 81 a9 83 bd b6 cb c2 3c 8a 85 58 3d
       0.047357645 -0.06428815 0.023778778 0.052861728
000290 6a e5 2d 3d 7c 02 31 3d 48 03 35 be 1c b5 99 3d
       0.042455114 0.04321526 -0.17677033 0.07505247
0002a0 8f 33 82 be db e5 34 3b 50 6b c8 be de bc 68 3d
       -0.2542996 0.0027602825 -0.39144373 0.056820743
0002b0 7c 16 e2 3c 8e ea aa bd c9 29 1c 3e 20 5e 3e 3d
       0.027598612 -0.08345519 0.15250315 0.046476483
0002c0 c1 26 11 be 2f 2f 56 bd 66 d3 08 be 53 e8 95 bd
       -0.1417494 -0.05229109 -0.13361892 -0.07319703
0002d0 05 0b 4d 3d 12 bc 06 be f5 cd fd bd 5d b9 86 3d
       0.050059337 -0.1315768 -0.12392799 0.06578324
0002e0 bc 9a ef 3d ad ca 74 3d 34 93 b6 bd 6e 6a ba bd
       0.11699435 0.0597636 -0.089147955 -0.09102331
0002f0 04 a5 e6 bd 3c 63 ef 3c 89 15 86 bd 9b 66 33 3d
       -0.11261943 0.029222123 -0.06547076 0.043799024
000300 ea 17 99 3d fd bc d6 bd 92 92 0e bd 68 6b 87 bd
       0.07475264 -0.104852654 -0.03480775 -0.06612283
000310 f7 7d 9d bd 56 89 cc 3d 20 7b 5f 3e 85 c2 59 3e
       -0.076900415 0.09987132 0.21824312 0.2126561
000320 74 e3 b9 3d 86 e8 a4 3c 22 df 39 bd f1 b9 98 3d
       0.09076586 0.020130407 -0.04537881 0.074573405
000330 a0 da bf bd ef 61 6f be bc f7 aa bd eb be 98 bd
       -0.09367871 -0.23377202 -0.08348033 -0.0745829
000340 91 59 98 bd 87 ca fb 3c d6 8b e0 3c 2d 60 47 3c
       -0.074389584 0.030736221 0.027410429 0.012168926
000350 8c 90 96 3c 58 4e 85 bd 4b 9d 2b be ba 3f 48 bd
       0.018379472 -0.065090835 -0.16759221 -0.0488889
000360 f0 3d 31 bd 1e 08 b3 3d 8d 69 25 3d 1e 8b df bd
       -0.04327196 0.087417826 0.040383864 -0.109152064
000370 d4 42 b3 bd 5f a0 aa bc bb 9c 94 bd e6 da 0f be
       -0.08752981 -0.020828424 -0.072564565 -0.14048347
000380 d8 86 40 3e 1d 08 81 be b6 13 ab 3c d0 b7 11 bc
       0.18801439 -0.25201502 0.020883422 -0.008893922
000390 60 97 bb ba f3 40 77 3c e2 93 89 3a 04 ab f2 bb
       -0.0014312081 0.015091169 0.0010496343 -0.0074056406
0003a0 37 96 92 bd 45 8f 20 3e 2f 86 13 be 74 ed 45 bd
       -0.071575575 0.15679653 -0.14406656 -0.048322156
0003b0 de 02 e1 bd 1f 6b 00 3d 08 48 b2 bd 65 bc b3 bc
       -0.10986875 0.03135216 -0.08705145 -0.02194042
0003c0 de 5d f0 bd b0 be 88 3d d9 40 33 be 94 e3 9f 3c
       -0.11736654 0.06676996 -0.17505206 0.019517697
0003d0 f1 6f ce 3d 5a c6 8b bd d5 71 8e 3d 5b af e5 3d
       0.10079945 -0.06824942 0.069553055 0.11215087
0003e0 53 d3 dc 3d 92 f2 b8 3d 61 bb a3 bd db 31 96 bc
       0.107824944 0.090306416 -0.07994724 -0.01833432
0003f0 00 44 b8 3d f0 a8 11 3d 30 e9 9a 3a 4a 3c 0d 3e
       0.08997345 0.035561502 0.0011818763 0.1379253

bias f4 [30]
000000 fe 0c 18 be d1 72 36 3d 1c 39 c3 bd 68 0e b1 bd
       -0.14848706 0.04454309 -0.09532377 -0.08645326
000010 b0 a5 45 bd a9 d0 b6 bd 9a 48 a1 3d 06 ed 09 be
       -0.048253715 -0.089265175 0.07875176 -0.13469324
000020 3f 22 12 bd 8b fb 48 3e 67 5f 50 3d 04 9e 3a be
       -0.03567719 0.19627206 0.050872233 -0.1822434
000030 67 8c a8 bd 50 70 06 be 66 51 e2 3d 57 dd d7 3d
       -0.082299046 -0.13128781 0.11050682 0.10540264
000040 94 3f af bd 3c 10 a1 3e 68 ac 8f 3d e3 55 03 be
       -0.085570484 0.31457698 0.07015306 -0.12825732
000050 4d aa 36 3e fb 6f 0c 3e 24 a2 e5 bd c9 c7 fd bd
       0.17838402 0.13714592 -0.112125665 -0.123916216
000060 da b3 de bd aa 1b cd bc fd b2 71 3e a4 54 91 bd
       -0.10874148 -0.025037605 0.23603435 -0.07096222
000070 1a be 5a bd fc 98 27 3d
       -0.05340395 0.04091738

weight f4 [30, 50]
000000 e0 7c 13 be e0 9e f8 bb 41 a5 0d be b8 b8 c0 bd
       -0.14403105 -0.0075872988 -0.1383257 -0.09410232
000010 88 7e 41 be 1e ed 58 be 9f 80 8f 3c ef 80 3c bd
       -0.18895924 -0.21184203 0.017517386 -0.0460214
000020 26 ad 4e be 9a c4 38 be dd b8 98 be 14 e9 64 be
       -0.20183238 -0.18043748 -0.2982854 -0.22354537
000030 16 f9 2b bd 02 f4 41 be 58 5f ae 3c 4b 3a b9 bd
       -0.041985594 -0.18940738 0.021285698 -0.090443216
000040 23 2c d6 bc 00 92 97 be 21 09 52 be 69 f8 47 bd
       -0.026144093 -0.29603577 -0.20511295 -0.048820887
000050 c2 70 a6 be 97 c3 37 bd 8e 09 79 bd d9 c7 6d be
       -0.32507902 -0.044864263 -0.060800128 -0.23220767
000060 7f 5e cd be cc 9c 01 be 7f d6 23 be 7a bb 3e 3d
       -0.40111157 -0.1265747 -0.15999793 0.04656551
000070 8f 2f 29 be 23 04 19 be ee 50 93 bd fe 5a 57 be
       -0.16522048 -0.14942984 -0.071931705 -0.21030805
000080 9d bc 39 be 88 54 8f bd 72 57 40 be db 2a 36 be
       -0.18138357 -0.06998545 -0.18783358 -0.17789786
000090 06 e7 91 be 0d 32 08 be f6 00 0e bd 2b b7 ba bd
       -0.2849657 -0.13300343 -0.034668885 -0.09116968
0000a0 71 d0 b0 bd 9e 25 9e bd 74 ea 15 be fe 93 a9 bc
       -0.08633507 -0.07722019 -0.14640218 -0.020700451
0000b0 c1 db df 3c c2 9d 6d be a3 58 6c bc bc 6f 9d be
       0.027326467 -0.23204711 -0.0144254295 -0.3074931
0000c0 39 77 f1 be e5 e2 06 bf 92 a7 50 3d 90 67 ae bc
       -0.47161272 -0.52689964 0.050941058 -0.021289617
0000d0 6c 82 b0 bd 25 d1 13 be 2e ee 5b bd ea cd 8d 3c
       -0.08618626 -0.14435251 -0.053693943 0.017310102
0000e0 44 0d 44 bd a1 a9 82 be 71 55 78 bd 12 88 b8 bd
       -0.047864214 -0.25520042 -0.06062836 -0.09010328
0000f0 e8 91 8d be ae 6d 43 bd e7 38 96 3c 84 db 7a be
       -0.2765038 -0.04771202 0.01833768 -0.24497801
000100 f5 05 c1 bd 8e 9c b0 3c 89 ad be bd ac 46 fa be
       -0.09424964 0.021559026 -0.09310443 -0.48882043
000110 75 30 0c bf ed 05 97 bd 2e 63 fb be c4 14 38 be
       -0.5476144 -0.07374177 -0.49099106 -0.17976671
000120 47 9a 55 be 9a 1f e5 bd 1e 50 f0 be c5 10 6c bd
       -0.20859633 -0.11187668 -0.46936125 -0.05763318
000130 71 7f 2e be 30 07 29 be 32 f7 3c be 62 10 08 bf
       -0.17040803 -0.16506648 -0.18453673 -0.5315
000140 6e ed 10 be b0 70 95 bd d9 21 b0 bd 69 06 09 bd
       -0.14153072 -0.07296884 -0.08600206 -0.03345338
000150 ff fb 11 be fb 4d 4f bd 5d dd d1 be bf f1 92 be
       -0.14256285 -0.050611477 -0.409892 -0.28700063
000160 d4 fc 1d be 33 55 1a 3d 70 d7 b1 bd 0f 77 ea bd
       -0.15428478 0.03767891 -0.086836696 -0.1144849
000170 9c 42 4e be cc 01 2f be 94 1a 05 bd fc ad 2e 3d
       -0.20142597 -0.17090529 -0.03249605 0.042646393
000180 6e 35 a6 bd e8 95 cb be a1 c6 06 bf d3 e9 07 bf
       -0.0811566 -0.39762807 -0.52646834 -0.5309116
000190 8c d7 d1 3b bc 04 c2 bd 9a 84 7a bb 0f 69 8b 3c
       0.006403869 -0.09473559 -0.003822601 0.01701787
0001a0 e0 26 22 be 68 8b fa bd a1 10 1d bd a0 36 8d 3c
       -0.15835142 -0.12233621 -0.038345937 0.017237961
0001b0 01 ef 78 be 1a 2a ef bd bb 69 a9 be ee 64 46 bd
       -0.24309923 -0.11677952 -0.33088478 -0.048436098
0001c0 2d 6a 0d bd fb 94 75 be 77 5f 13 be 74 84 46 be
       -0.034525085 -0.23982613 -0.14391886 -0.19386464
0001d0 ad f9 5f 3d 21 8f 26 be 90 43 2e be e7 07 c3 bd
       0.05468147 -0.16265537 -0.1701796 -0.095229916
0001e0 37 ab 26 3d 2c fb 92 be 32 cb 97 bd a6 9c 9e bd
       0.040690627 -0.28707254 -0.07411803 -0.07744722
0001f0 48 c6 ca be 59 d2 25 be 9b a9 90 bb 4e d6 d2 3b
       -0.39604402 -0.16193523 -0.00441475 0.0064342385
000200 09 3b a5 bd 76 61 22 be c1 30 f4 bd ba 6f 18 be
       -0.08067901 -0.15857491 -0.119233616 -0.1488637
000210 ff 74 3c be 89 2f a1 bd 79 f1 c0 bd 5f f4 a2 3b
       -0.18404005 -0.07870395 -0.09421057 0.004972979
000220 79 c7 93 bd e9 36 c0 bd ca d8 da bc 6f 2a 1a be
       -0.07215781 -0.09385473 -0.026714701 -0.1505525
000230 a3 b5 8a bd 8f 1b 59 bd 39 c0 3b be 2a 35 19 3d
       -0.06772926 -0.053004798 -0.18335046 0.037404217
000240 e4 7b 8b bd 82 38 80 be 8f b6 b1 bc 32 14 df be
       -0.0681074 -0.25043112 -0.021693496 -0.43570095
000250 f3 4d 2d bf bf cc 0b bf ec 6e a7 3a 64 90 87 3d
       -0.67697066 -0.5460929 0.0012774146 0.06619337
000260 b6 80 77 bd 48 d4 5a 3d 1f 72 79 3d d3 4d 49 be
       -0.060425483 0.053425103 0.06089985 -0.19658594
000270 c8 2e a0 bd c7 a6 83 be 73 f5 33 be 37 52 35 be
       -0.07821423 -0.2571318 -0.175741 -0.17707144
000280 83 e0 ce be 88 05 99 bd 74 5a fe bd fd 8d 98 bd
       -0.40405664 -0.07471758 -0.12419596 -0.07448957
000290 c2 f5 68 3d f8 c7 1c be 2f ce 4f 3c 22 3d cf be
       0.056874998 -0.15310657 0.012683435 -0.40476328
0002a0 10 f4 99 3d b7 61 25 be 9d 20 87 3c 31 3d 77 bd
       0.07517254 -0.16150557 0.016495043 -0.06036109
0002b0 2e 0a 51 be 60 7c 23 bd 3e ff b0 be 54 12 39 be
       -0.2041404 -0.039913535 -0.34569734 -0.18073398
0002c0 9a 0a 38 be 83 7e 28 be dc 1a ad bd 92 7a 3f be
       -0.17972794 -0.1645451 -0.08452389 -0.186991
0002d0 f7 c3 73 be 81 43 02 be 23 54 11 be e1 a6 39 be
       -0.23805223 -0.12721063 -0.14192252 -0.18130066
0002e0 fd c7 bd 39 05 e8 9e bd 85 83 db bd c2 43 91 bd
       0.00036197892 -0.07759098 -0.10718445 -0.07093002
0002f0 51 71 48 be 87 d5 0c bc ba 4b 16 be 72 da 81 bd
       -0.19574477 -0.008595831 -0.14677325 -0.06340493
000300 38 61 d3 bd 0c cb ff 3c af b4 05 be 65 81 81 be
       -0.103212774 0.03122475 -0.13057207 -0.25294033
000310 b1 71 7b bd 45 7c bf be 1f 2c 6c bf 8b 4c 53 bf
       -0.06138772 -0.37399498 -0.92254823 -0.8253867
000320 03 bf 01 3d e1 51 12 3d 1d b4 27 bc 38 de fb 3c
       0.031676304 0.035722617 -0.010235813 0.03074561
000330 83 32 6d ba 55 fa a4 3c 4f 9f 1b bd ba 20 6a be
       -0.00090483594 0.020138899 -0.037993725 -0.22864047
000340 ae 75 55 be c6 43 49 be 94 2c c6 be 15 04 0f 3d
       -0.20845672 -0.1965476 -0.38705885 0.034916002
000350 82 c3 44 3d 7e d1 50 bd 10 1e 1b be c5 a6 eb bd
       0.048038013 -0.050981037 -0.15148187 -0.11506418
000360 4a 15 6e 3d 47 f6 b1 be a4 46 dd bc 08 4c 9e bd
       0.05812577 -0.34758207 -0.027011223 -0.077293456
000370 73 15 82 be 82 ac 2c be 7b 43 8b bd 4c 08 04 be
       -0.2540699 -0.16862682 -0.0679998 -0.1289379
000380 58 e4 8b be 54 e3 43 be 18 46 38 3d 2b 64 86 3c
       -0.2732265 -0.19129688 0.04498872 0.016405186
000390 39 c8 7f bd 05 f7 58 be 5f 94 1a be 50 5a 2c be
       -0.062446807 -0.2118798 -0.15095662 -0.16831326
0003a0 c1 94 62 be 4a 07 b1 bd b5 b1 09 be e8 82 79 bd
       -0.22127058 -0.086439684 -0.13446696 -0.060915858
0003b0 2e eb 2e be 40 94 18 bc 8b 5e cd bd ff e8 b8 bd
       -0.17081901 -0.009312689 -0.10027798 -0.090288155
0003c0 4f 2d 3d be 9e d7 00 bc ac 63 61 3d 8b 93 c6 bc
       -0.18474315 -0.007863907 0.055026695 -0.024240276
0003d0 42 36 a0 bd f3 07 20 bd 09 50 38 3d ae 1f d9 be
       -0.07822849 -0.03907008 0.044998202 -0.42406982
0003e0 20 be 56 bf 13 a7 43 bf b9 de 1c be ed 07 8a be
       -0.8388386 -0.7642681 -0.15319337 -0.26959172
0003f0 29 23 59 be 30 a5 06 be 79 74 45 be c9 43 81 be
       -0.21204819 -0.13148952 -0.19282712 -0.25247028

bias f4 [30]
000000 df 0e 86 be 19 b6 c2 be 39 70 21 be 38 8b 33 be
       -0.2618322 -0.38029554 -0.15765466 -0.17533576
000010 cd 17 33 be 18 fb a0 be 7d 22 7c be f6 c6 73 be
       -0.17489548 -0.3144157 -0.24622531 -0.23806366
000020 7d e0 be be c4 62 ae be 6c 69 2b be f8 a3 62 be
       -0.37280646 -0.34059727 -0.16739434 -0.22132862
000030 e7 82 68 be dd 0c a8 be 32 3f 90 be da e6 b2 be
       -0.22706185 -0.32822314 -0.28173214 -0.3494175
000040 86 7c 73 be 59 f0 38 be 69 9c ad be a3 02 5f be
       -0.2377797 -0.18060435 -0.33908394 -0.2177835
000050 bf 94 c9 be 00 ba bf be ad 31 d5 be 3b ab a1 be
       -0.39371297 -0.37446594 -0.41639462 -0.3157595
000060 86 fb 92 be 67 01 b7 be 6d 6b b9 be 02 4a 1b be
       -0.28707522 -0.35743257 -0.36214772 -0.1516495
000070 a3 38 e7 bd fa b1 b6 be
       -0.112900995 -0.3568266

eps f4 [30, 1, 3]
000000 e4 10 f2 bd d2 97 eb be 74 12 1c bd 1f 41 f2 bd
       -0.11819628 -0.46014267 -0.038103536 -0.11828827
000010 c4 e1 81 bf f7 10 9d 3f ad 1f 5d 3e 9a 94 06 40
       -1.0147023 1.2270802 0.21594115 2.10282
000020 72 74 f0 bf 97 d7 a8 3f 67 c6 27 3f 08 14 93 bd
       -1.8785536 1.3190793 0.6553711 -0.07181555
000030 e7 a1 9b 3e e3 b9 d2 3f 3d 7e 8e bf 67 45 b0 be
       0.3039696 1.6462978 -1.1132275 -0.3442795
000040 85 e9 ca bf dd 61 f8 bf 1c 86 28 be f4 5c f1 bf
       -1.5852515 -1.9404866 -0.16457409 -1.8856492
000050 60 d5 39 bf f9 22 f6 3f 08 a5 75 3d 01 4a 00 bf
       -0.7259121 1.9229423 0.05997184 -0.5011292
000060 03 16 19 bf 75 0e c0 3e de 5b 21 3e 18 10 38 3e
       -0.5979921 0.3751103 0.15757701 0.1797489
000070 92 97 01 c0 58 17 eb bf 50 3c 8f 3d 32 ad da be
       -2.024876 -1.8366499 0.069939256 -0.42710263
000080 88 9b 02 bf 38 a6 fe be 2a 05 7a 3f 03 17 f2 be
       -0.5101857 -0.4973619 0.9766413 -0.47283182
000090 2c 9c 15 bf 7e bc ec 3f eb 1c 17 3f 0b 03 29 40
       -0.58441424 1.8495023 0.590285 2.6408107
0000a0 ff f6 dd bf b6 c7 96 3e 5b 82 37 3e a4 02 aa 3f
       -1.7341002 0.29449242 0.1792082 1.3282056
0000b0 f0 b0 3f 3f c9 17 2d 3f 08 38 b6 3f a3 5b c1 be
       0.7487936 0.6761442 1.4235849 -0.37765226
0000c0 6a b6 1f c0 fd 74 28 40 35 93 ab 3f 52 21 98 3e
       -2.4955087 2.6321404 1.3404299 0.2971292
0000d0 e8 ef 8d be 5d ad 58 bf 58 dc 8d be 02 e1 8e bd
       -0.27722096 -0.8463953 -0.2770717 -0.069765106
0000e0 8b 5c 06 c0 89 0b c3 3e 81 92 9f 3f 3c 55 11 3f
       -2.0993984 0.38094738 1.2466584 0.5677068
0000f0 4f 17 81 3f 5e 9a 07 bf 3a 88 f4 bf 88 30 90 bf
       1.0085238 -0.5296992 -1.9104073 -1.126481
000100 3c 1c 4a 3f b7 4b 13 be 61 9c 1b 3e fa 8e 36 3d
       0.7894933 -0.14384352 0.15196373 0.044569947
000110 e4 51 cf bd 70 55 bf 3f c0 d9 9f 3f 5c ad e3 3e
       -0.10123041 1.4947948 1.2488327 0.444682
000120 a8 c1 fc be 25 ac 43 bf ca ca 4f bf 0f b1 a0 bf
       -0.49366498 -0.76434547 -0.81168807 -1.2554034
000130 b2 fd b2 be e9 70 bc 3d a2 26 24 bf 89 63 ea 3c
       -0.3495918 0.092012234 -0.6412145 0.028611915
000140 b8 bf b1 bf 09 17 be be e4 b8 dd bd 3e 93 ef 3d
       -1.3886633 -0.3712695 -0.10826281 0.11698006
000150 ec dd ef 3f 17 dd e6 3e 16 47 a2 be 36 06 a4 bf
       1.87396 0.45090553 -0.3169486 -1.2814395
000160 33 44 0f bc 49 5b 39 3f
       -0.008744287 0.72404915

gamma_ones f4 [30]
000000 00 00 80 3f 00 00 80 3f 00 00 80 3f 00 00 80 3f
       1.0 1.0 1.0 1.0
000010 00 00 80 3f 00 00 80 3f 00 00 80 3f 00 00 80 3f
       1.0 1.0 1.0 1.0
000020 00 00 80 3f 00 00 80 3f 00 00 80 3f 00 00 80 3f
       1.0 1.0 1.0 1.0
000030 00 00 80 3f 00 00 80 3f 00 00 80 3f 00 00 80 3f
       1.0 1.0 1.0 1.0
000040 00 00 80 3f 00 00 80 3f 00 00 80 3f 00 00 80 3f
       1.0 1.0 1.0 1.0
000050 00 00 80 3f 00 00 80 3f 00 00 80 3f 00 00 80 3f
       1.0 1.0 1.0 1.0
000060 00 00 80 3f 00 00 80 3f 00 00 80 3f 00 00 80 3f
       1.0 1.0 1.0 1.0
000070 00 00 80 3f 00 00 80 3f
       1.0 1.0

contamination_clusters f4 [74]
000000 ea 28 95 3a dd 2f 95 3a 1e 1e 21 3d 39 40 8a 3c
       0.0011379991 0.0011382062 0.039335363 0.016876327
000010 ab c0 b5 3c 76 54 b9 3a 29 56 bc 3b 47 3c ae 3a
       0.022186598 0.0014139551 0.005747576 0.001329311
000020 4b db 15 3b e9 91 77 3c 04 cc 26 35 21 d7 ca 3a
       0.0022866304 0.015110471 6.21367e-07 0.001547549
000030 4b a1 c8 3b 0e ff 79 3b 19 b6 5c 3d a2 06 ca 3b
       0.0061227432 0.003814641 0.0538846 0.0061653415
000040 da 8b c9 38 b2 79 2c 3b 6d a6 ce 3c ce 8f fd 3a
       9.610476e-05 0.0026317653 0.025225842 0.0019345225
000050 13 5d eb 3b db 2f d9 3e 24 f0 ee 3a 63 29 f6 3b
       0.007182726 0.42419323 0.0018229526 0.007512258
000060 99 de 22 3a fa d8 6e 3a 91 43 14 34 cc ed f0 35
       0.0006212979 0.00091113115 1.3808155e-07 1.7950601e-06
000070 37 97 01 3b 67 50 8d 36 30 af 1c 3b c6 92 cb 38
       0.001977397 4.2114875e-06 0.002390813 9.707133e-05
000080 cc c2 fb 3a e1 5b ee 39 1d 4c 1f 3d c6 59 85 38
       0.0019207834 0.00045463353 0.038890947 6.358656e-05
000090 4f 4f 08 3b 27 57 75 3b db 69 e8 3a a5 d8 02 3c
       0.0020799225 0.003743598 0.0017731743 0.007986222
0000a0 43 a7 8e 39 12 99 83 3d 5d b3 bf 38 64 4c c1 3c
       0.0002720897 0.0642568 9.140999e-05 0.023595996
0000b0 d5 1f 87 39 79 5f 0c 3a 8d 96 34 3a 8a aa f6 3b
       0.00025772923 0.00053548027 0.0006888889 0.007527654
0000c0 a5 d5 e3 3b bc 42 54 38 5f b6 8a 3b c7 ac 7c 3a
       0.0069529586 5.060689e-05 0.004233166 0.0009638783
0000d0 1f bb 01 35 91 51 4f 3c 20 25 2d 3b 71 2d f6 39
       4.832854e-07 0.012653724 0.0026419833 0.00046954633
0000e0 44 d2 19 3c b3 94 69 3a 91 43 94 34 19 6c 95 38
       0.00938851 0.00089104025 2.761631e-07 7.1250084e-05
0000f0 16 fa 3a 3b 7e 51 eb 39 d4 26 5c 3a f5 e7 9b 3b
       0.002853041 0.0004488341 0.000839812 0.004757876
000100 83 1d 60 3a 09 4a 39 3b b4 ef c2 3c 23 ce b5 3b
       0.00085493195 0.0028272888 0.02379594 0.005548255
000110 15 f1 a6 38 0c 80 5a 3b c2 72 2b 3a 6a 32 ce 3d
       7.960402e-05 0.0033340482 0.00065402326 0.100682095
000120 8e c0 c9 3b 6e 52 23 37
       0.0061569875 9.734749e-06
