mcspace/paper/mouse_runs/runs/seed_3/model.pt (torch, 464942 bytes, 99 tensors)

theta_params f4 [100, 74]
0	0xc09c2d5e	-4.880538
1	0xc0c7d415	-6.244639
2	0x3f428141	0.75978476
3	0xbe86f15a	-0.26356012
4	0xc0bb44ae	-5.8521338
5	0xbf84bdd9	-1.0370437
6	0xc0aed206	-5.4631376
7	0xc0e5b5a1	-7.1784215
8	0xc0ba83fc	-5.8286114
9	0xc0751947	-3.8296678
10	0x3ff65dfb	1.924743
11	0xc094c09e	-4.648513
12	0xbfdd524f	-1.7290744
13	0xbf15d39c	-0.58526015
14	0xc0b6cc9e	-5.7124777
15	0xc08b6ad9	-4.356793
16	0xc0c502cf	-6.156593
17	0xbfc4bd49	-1.5370265
18	0xc0a2a7e6	-5.0829954
19	0xc0af6e73	-5.4822326
20	0x40153d03	2.3318489
21	0xc0a7e5b9	-5.2467923
22	0xbf8782d6	-1.0586803
23	0xc06cf6ab	-3.7025554
24	0xbca01ed5	-0.019545952
25	0x3fd6e20d	1.6787735
26	0xc0beeb3c	-5.966215
27	0xc0a3bfba	-5.117154
28	0xc0bd06d3	-5.907083
29	0xc0af7f40	-5.4842834
30	0xc0a75f0f	-5.230354
31	0x3d77fc4c	0.060543343
32	0x40028c58	2.039816
33	0xc0c1dea0	-6.058426
34	0x3e994a61	0.2993956
35	0x40b0e306	5.527713
36	0xc0bbf23d	-5.87332
37	0xc0c10bc5	-6.0326867
38	0xc0cd08cc	-6.407324
39	0xc09c6007	-4.886722
40	0xc0c8ba98	-6.2727776
41	0xc088c7c7	-4.274387
42	0xc07c706b	-3.9443614
43	0xc09145a4	-4.539751
44	0xc0e348be	-7.1026297
45	0x3ec01bc6	0.3752119
46	0xbe8b994c	-0.27265394
47	0xc0a6433c	-5.1957073
48	0xc0aacf32	-5.3377924
49	0xc09d3356	-4.9125166
50	0xbf9b920d	-1.2153946
51	0xc018f29b	-2.3898075
52	0xc0b725ec	-5.723379
53	0xc0b8904c	-5.7676144
54	0xc09f4bc6	-4.9779997
55	0xbf98a5c3	-1.1925586
56	0x3f8d2abc	1.1028666
57	0xc0c94357	-6.28947
58	0xc0cda908	-6.4268837
59	0xc091d33d	-4.557036
60	0xc0bc19bf	-5.878143
61	0xc0abb7b0	-5.366173
62	0xc0c63939	-6.194485
63	0xbf924f28	-1.1430407
64	0xc0af95e2	-5.4870462
65	0xc0bc09b0	-5.8761826
66	0xbf32e725	-0.6988395
67	0xc068ea2c	-3.6392927
68	0xc08d5460	-4.4165497
69	0xbe9217a3	-0.28533658
70	0xc0e0f2d4	-7.029642
71	0x3fa429f7	1.2825307
72	0xc09e1f6f	-4.941337
73	0xc0d0c60c	-6.5241756
74	0x3f17ea27	0.59341663
75	0xc06bf7c6	-3.686998
76	0xbfb4c15f	-1.4121512
77	0xc074ace3	-3.8230522
78	0xc09c4b7d	-4.884215
79	0xc08c2e39	-4.3806424
80	0xc03cd441	-2.950455
81	0xc09f190b	-4.971807
82	0x3f013960	0.5047817
83	0xc016756e	-2.3509173
84	0xc001d44c	-2.0285826
85	0xbffcc774	-1.9748368
86	0xc046e58b	-3.1077602
87	0xc0a47196	-5.1388655
88	0xc0a328f9	-5.0987515
89	0xc02fb459	-2.7453825
90	0x4024e697	2.576574
91	0xc0968d8a	-4.7047777
92	0xc0611262	-3.516747
93	0xc0775dd2	-3.8651013
94	0xc00716fc	-2.1107779
95	0xc06353ea	-3.5519967
96	0xc0373cc6	-2.8630843
97	0xc0828981	-4.079285
98	0x3d3f2e19	0.04667482
99	0xc01a34e5	-2.4094784
100	0xc06147c6	-3.5200057
101	0x40798e8f	3.899326
102	0x404a297c	3.158782
103	0x3ec4a96c	0.3841051
104	0xc090044f	-4.500526
105	0xc06081b8	-3.5079174
106	0xc072d2af	-3.794109
107	0xc0141b69	-2.314173
108	0xc058aedf	-3.3856733
109	0xc07defff	-3.9677732
110	0x40dacffa	6.837888
111	0xc07331a7	-3.7999055
112	0xc0455c16	-3.0837455
113	0x402def29	2.7177222
114	0xc0650bd7	-3.5788476
115	0xbfe42d20	-1.7826271
116	0xbf955f3f	-1.1669692
117	0xc06e612f	-3.7246816
118	0xc0ba058b	-5.8131766
119	0x3f4f11a1	0.80886275
120	0xc09ebe07	-4.9606967
121	0xbf49b539	-0.7879215
122	0x3d6c2043	0.057647955
123	0xc088d666	-4.2761717
124	0xc06c3e88	-3.6913166
125	0x3e231e8c	0.15929621
126	0xc036abf0	-2.8542442
127	0xc024eb44	-2.5768595
128	0xc09066b3	-4.5125365
129	0xc081ba0d	-4.0539613
130	0xc07599cf	-3.8375127
131	0xc0586150	-3.3809395
132	0xc067cd24	-3.6218958
133	0xc0359b71	-2.8376124
134	0xc07a66a8	-3.9125156
135	0xc0878b4a	-4.235753
136	0xc079583b	-3.8960102
137	0xc081740c	-4.045416
138	0xc06ad2b6	-3.6691108
139	0xc0501425	-3.2512295
140	0x406077e3	3.5073173
141	0xc0605660	-3.505272
142	0xc09efe35	-4.968531
143	0xc05744f3	-3.3635833
144	0xc0859578	-4.1744957
145	0xc0a06d54	-5.0133457
146	0xc084184a	-4.127965
147	0xc0296d82	-2.6473088
148	0xc0439ce7	-3.0564516
149	0x3f72a37e	0.9478072
150	0xc083ef4c	-4.122961
151	0xbeca7767	-0.39544222
152	0xc02ab4b2	-2.6672788
153	0xc095c079	-4.679745
154	0xc08949db	-4.2902656
155	0xc0bd20e7	-5.9102664
156	0xc088be50	-4.2732315
157	0xc08258c0	-4.0733337
158	0xc0317851	-2.7729685
159	0xc0a3cebe	-5.118987
160	0xc05e65fc	-3.4749746
161	0xc012609d	-2.2871468
162	0xc0a7c6cf	-5.2430186
163	0xc01b88ae	-2.4302173
164	0xc09e1281	-4.939759
165	0xc0446272	-3.0685086
166	0xc0818e57	-4.0486255
167	0xc0813ccc	-4.0386715
168	0xc06a8a86	-3.6647048
169	0xbe3dd7a2	-0.18539289
170	0xc082217b	-4.066587
171	0xc058418e	-3.3790011
172	0xbfc3bbd6	-1.5291698
173	0x408db36c	4.428152
174	0xbfdd7368	-1.7300844
175	0xc066b719	-3.6049254
176	0x3e91b8ff	0.28461453
177	0xc0b1f4ba	-5.561124
178	0xc097e444	-4.7466145
179	0xc068e4a4	-3.638955
180	0xc096a2a6	-4.7073545
181	0xc0275410	-2.6145058
182	0xbff8bf2f	-1.9433345
183	0xc020e911	-2.5142252
184	0xc033abf8	-2.8073711
185	0xc03c173f	-2.9389188
186	0x3fa12816	1.2590358
187	0xc0205a37	-2.5055063
188	0x3e6f6a2a	0.23380342
189	0x4016659b	2.3499515
190	0xc086e5f5	-4.215571
191	0xc0295130	-2.6455803
192	0xc068d976	-3.6382728
193	0x4009e246	2.1544356
194	0xc04b734d	-3.1789124
195	0xc08397be	-4.112273
196	0xc046f86f	-3.1089132
197	0xc0402014	-3.001958
198	0xc0613d12	-3.5193524
199	0xbfe30a68	-1.7737551
200	0xc05993e6	-3.399652
201	0xc0261c0b	-2.5954616
202	0x3fb021e7	1.3760346
203	0xc06f76cc	-3.7416258
204	0xc0160624	-2.3441248
205	0xc07d8042	-3.9609532
206	0x3eb30a4d	0.34968796
207	0xc06eafc6	-3.7294784
208	0xc0475746	-3.1147017
209	0x40e50132	7.156396
210	0xc06d92c3	-3.7120826
211	0xc0828a7a	-4.079404
212	0xc0470c19	-3.1101134
213	0xc0219de0	-2.525261
214	0x407760c0	3.8652802
215	0x4007a1a8	2.1192417
216	0xc05543d1	-3.3322642
217	0xc05eef5e	-3.4833598
218	0xc0728037	-3.7890756
219	0xc0b18095	-5.546946
220	0xc088fe58	-4.281048
221	0xc0414e8a	-3.0204186
222	0xc0943bab	-4.6322837
223	0xbff72898	-1.9309263
224	0xc0568af5	-3.3522313
225	0xc0a8745c	-5.264204
226	0xc085710a	-4.1700487
227	0xc09888d6	-4.7667036
228	0xc09a0ed0	-4.814308
229	0xc0acb6d3	-5.3973174
230	0xc09fd48c	-4.9946957
231	0xc07a4457	-3.9104211
232	0xbfb5137d	-1.4146572
233	0xc065e1fd	-3.5919182
234	0xc08d14ce	-4.4087896
235	0xc0992d1c	-4.7867565
236	0x3fa50528	1.2892199
237	0xc0027b0d	-2.0387604
238	0xc0ab4094	-5.351633
239	0xc0bc2316	-5.879283
240	0xc084cc5f	-4.1499476
241	0xc0ab24b8	-5.3482323
242	0xc07858e8	-3.8804264
243	0xc08c9855	-4.393595
244	0xc0a44a48	-5.1340675
245	0xc020f9a5	-2.515237
246	0xc05d9957	-3.4624841
247	0xc0b60a1f	-5.6887355
248	0xc0832352	-4.0980616
249	0xc0b6f99b	-5.7179694
250	0xc089c8ea	-4.3057756
251	0xbfb14fea	-1.3852513
252	0xc0a16e24	-5.044695
253	0xc07496d7	-3.8217065
254	0xc054a9f7	-3.3228738
255	0xc0a9eac8	-5.30991

q_mu f4 [7]
0	0xc0724264	-3.7853022
1	0xbffe9fa9	-1.9892474
2	0xc025ee54	-2.5926714
3	0xc0321763	-2.7826774
4	0xc017cabb	-2.3717487
5	0xc0077654	-2.1165972
6	0xc052f35c	-3.2961035

q_var f4 [7]
0	0xc012a177	-2.291105
1	0xc09d4b1c	-4.9154186
2	0xc045e53f	-3.092117
3	0xc04e6fbd	-3.22557
4	0xc0442acb	-3.0651119
5	0xc09f31c8	-4.974827
6	0xc02bb2c2	-2.6827855

eps f4 [7]
0	0xbec26252	-0.37965637
1	0x3f1742e5	0.5908645
2	0xbf826278	-1.01863
3	0xbf49b203	-0.7878725
4	0xbf21ee6a	-0.63254416
5	0xbebc96ac	-0.36833704
6	0xbff48e67	-1.9105958

q_gamma_params f4 [99]
0	0xbf7d0e7a	-0.98850214
1	0x4072d463	3.794213
2	0x4074532a	3.817576
3	0x405167e2	3.2719655
4	0x40927ffe	4.578124
5	0x406e163f	3.7201078
6	0x40484f6b	3.1298473
7	0x40664ca7	3.5984285
8	0x406aec04	3.6706553
9	0x406a7116	3.6631522
10	0x40465165	3.098718
11	0x4070596f	3.7554586
12	0x4066ccb5	3.6062443
13	0x404776b6	3.1166205
14	0x40257a9d	2.5856087
15	0x40636e4f	3.5536077
16	0x406c8f97	3.696264
17	0x40709852	3.759297
18	0x40835e25	4.1052423
19	0x40102cfe	2.252746
20	0x40801cd3	4.0035186
21	0x407b4285	3.925935
22	0x405826d8	3.3773708
23	0x4052d1a9	3.2940466
24	0x4066d97e	3.6070247
25	0x4069afdb	3.6513584
26	0x4085cecb	4.1814933
27	0x40792faa	3.8935342
28	0x407093a5	3.7590115
29	0x40711f72	3.7675443
30	0x405de325	3.4669888
31	0x4035029f	2.828285
32	0x40737331	3.8039057
33	0x406c5a9d	3.6930306
34	0x4078864e	3.8831973
35	0x4057fa74	3.3746614
36	0x4077d7dc	3.87255
37	0x4084a053	4.144571
38	0x406de089	3.7168295
39	0x406e3722	3.722115
40	0x405ba746	3.4320846
41	0xbfb8276d	-1.4387032
42	0x4083e00d	4.1211
43	0x408253bd	4.072722
44	0x3feb5634	1.8385682
45	0x406e6df5	3.7254612
46	0x4084008e	4.1250677
47	0xbf54b86b	-0.830939
48	0xc09b9fe2	-4.863267
49	0x40497eac	3.1483564
50	0x406eaa1e	3.7291331
51	0x40873d11	4.2262044
52	0x406a2952	3.658772
53	0x403a5694	2.9115343
54	0x40885ed6	4.2615767
55	0x406f5147	3.7393358
56	0x406f540b	3.7395046
57	0x402ea620	2.7288895
58	0x405e44f9	3.4729598
59	0x4088b83e	4.2724905
60	0x40764a72	3.8482938
61	0x40454dc8	3.0828724
62	0x405c49c2	3.4420018
63	0xbfcb9dc2	-1.5907519
64	0x4003e6b4	2.060956
65	0x406a6436	3.6623664
66	0x406f2f15	3.7372487
67	0x4069f953	3.6558425
68	0x40833798	4.1005363
69	0x407c759a	3.9446778
70	0xc033ff8f	-2.812473
71	0x407f9b51	3.9938548
72	0x406d30c5	3.7061017
73	0xc049a6b8	-3.1508007
74	0x406225b0	3.5335503
75	0x402c8397	2.6955316
76	0x406d8518	3.7112484
77	0x408b71e8	4.3576546
78	0x3fd97bcc	1.6990905
79	0x408440c2	4.132905
80	0x40579ec6	3.3690658
81	0x401dd41e	2.4660716
82	0x4044b43f	3.0735013
83	0x400d0d92	2.2039533
84	0x4079cd10	3.903141
85	0x408c1438	4.377468
86	0x40895811	4.2920003
87	0x4017037e	2.3595881
88	0x402333d9	2.5500395
89	0x40860169	4.187672
90	0x406d67eb	3.7094676
91	0x4053c169	3.3086798
92	0x4058366a	3.3783212
93	0x40867e95	4.202952
94	0x407a5394	3.9113512
95	0x40873b20	4.2259674
96	0x40588064	3.3828363
97	0x405bf185	3.4366162
98	0x406c5305	3.692567

q_probs f4 [99]
0	0x3e8aeb73	0.27132758
1	0x3f7a5e03	0.977997
2	0x3f7a7e70	0.9784918
3	0x3f76a534	0.9634583
4	0x3f7d6587	0.98983043
5	0x3f79f18e	0.9763421
6	0x3f754736	0.95811784
7	0x3f792de2	0.97335637
8	0x3f79a4ee	0.9751729
9	0x3f7998fd	0.97499067
10	0x3f74f3c7	0.95684475
11	0x3f7a262e	0.9771451
12	0x3f793b9a	0.9735657
13	0x3f75241c	0.95758224
14	0x3f6e103c	0.9299352
15	0x3f78e08c	0.9721763
16	0x3f79cd2a	0.9757868
17	0x3f7a2beb	0.97723264
18	0x3f7bd91a	0.98378146
19	0x3f67a84e	0.9049119
20	0x3f7b6952	0.9820758
21	0x3f7b0c66	0.98065794
22	0x3f778cab	0.9669902
23	0x3f76d7e4	0.9642317
24	0x3f793ce4	0.97358537
25	0x3f798608	0.9747014
26	0x3f7c25f4	0.9849541
27	0x3f7ae380	0.9800339
28	0x3f7a2b62	0.97722447
29	0x3f7a37d8	0.9774146
30	0x3f7840a6	0.96973646
31	0x3f71b776	0.94420564
32	0x3f7a6b7b	0.9782025
33	0x3f79c816	0.9757093
34	0x3f7ad631	0.9798308
35	0x3f77870b	0.96690434
36	0x3f7ac85f	0.9796199
37	0x3f7c0173	0.9843971
38	0x3f79eca9	0.9762674
39	0x3f79f498	0.97638845
40	0x3f77fc49	0.9686933
41	0x3e4470fd	0.19183727
42	0x3f7be991	0.9840327
43	0x3f7bb68d	0.98325425
44	0x3f5ce2c7	0.86283535
45	0x3f79f9b4	0.9764664
46	0x3f7beda3	0.9840948
47	0x3e9b6a05	0.30354324
48	0x3bfb59e3	0.0076706274
49	0x3f757734	0.95885015
50	0x3f79ff31	0.97655016
51	0x3f7c5074	0.9856026
52	0x3f7991f8	0.97488356
53	0x3f72cbb9	0.94842106
54	0x3f7c70cf	0.9860963
55	0x3f7a0e80	0.97678375
56	0x3f7a0ea6	0.976786
57	0x3f7050c7	0.93873256
58	0x3f784c27	0.969912
59	0x3f7c7a8b	0.98624486
60	0x3f7aa830	0.97912884
61	0x3f74c8e4	0.95619035
62	0x3f781012	0.9689952
63	0x3e2d6fd8	0.16937196
64	0x3f631733	0.88707274
65	0x3f7997b8	0.9749713
66	0x3f7a0b4d	0.97673494
67	0x3f798d3e	0.97481143
68	0x3f7bd42c	0.98370624
69	0x3f7b2381	0.9810105
70	0x3d682b12	0.0566817
71	0x3f7b5e32	0.98190606
72	0x3f79dc56	0.9760183
73	0x3d284880	0.041084766
74	0x3f78bc9a	0.97162783
75	0x3f6fcf83	0.9367601
76	0x3f79e41b	0.97613686
77	0x3f7cc334	0.98735356
78	0x3f586f56	0.84544885
79	0x3f7bf5a4	0.9842169
80	0x3f777b68	0.9667268
81	0x3f6bf923	0.9217703
82	0x3f74aed8	0.9557929
83	0x3f669159	0.9006553
84	0x3f7aefc4	0.98022103
85	0x3f7cd345	0.9875987
86	0x3f7c8bba	0.98650706
87	0x3f69e766	0.9136871
88	0x3f6d76c2	0.92759335
89	0x3f7c2bf1	0.9850455
90	0x3f79e177	0.9760966
91	0x3f76f868	0.9647279
92	0x3f778ef5	0.9670251
93	0x3f7c3a95	0.9852689
94	0x3f7afa2e	0.98037994
95	0x3f7c503e	0.9855994
96	0x3f779824	0.96716523
97	0x3f780557	0.9688315
98	0x3f79c75f	0.9756984

gamma f4 [100]
0	0x3f800000	1.0
1	0x3f800000	1.0
2	0x3f800000	1.0
3	0x3f800000	1.0
4	0x3f800000	1.0
5	0x3f800000	1.0
6	0x3f800000	1.0
7	0x3f800000	1.0
8	0x3f800000	1.0
9	0x3f800000	1.0
10	0x3f800000	1.0
11	0x3f800000	1.0
12	0x3f800000	1.0
13	0x3f800000	1.0
14	0x3f800000	1.0
15	0x3f800000	1.0
16	0x3f800000	1.0
17	0x3f800000	1.0
18	0x3f800000	1.0
19	0x3f800000	1.0
20	0x3f800000	1.0
21	0x3f800000	1.0
22	0x3f800000	1.0
23	0x3f800000	1.0
24	0x3f800000	1.0
25	0x3f800000	1.0
26	0x3f800000	1.0
27	0x3f800000	1.0
28	0x3f800000	1.0
29	0x3f800000	1.0
30	0x3f800000	1.0
31	0x3f800000	1.0
32	0x3f800000	1.0
33	0x3f800000	1.0
34	0x3f800000	1.0
35	0x00000000	0.0
36	0x3f800000	1.0
37	0x3f800000	1.0
38	0x3f800000	1.0
39	0x3f800000	1.0
40	0x3f800000	1.0
41	0x3f800000	1.0
42	0x00000000	0.0
43	0x3f800000	1.0
44	0x3f800000	1.0
45	0x3f800000	1.0
46	0x3f800000	1.0
47	0x3f800000	1.0
48	0x3f800000	1.0
49	0x00000000	0.0
50	0x3f800000	1.0
51	0x3f800000	1.0
52	0x3f800000	1.0
53	0x3f800000	1.0
54	0x3f800000	1.0
55	0x3f800000	1.0
56	0x3f800000	1.0
57	0x3f800000	1.0
58	0x3f800000	1.0
59	0x3f800000	1.0
60	0x00000000	0.0
61	0x3f800000	1.0
62	0x3f800000	1.0
63	0x00000000	0.0
64	0x00000000	0.0
65	0x3f800000	1.0
66	0x3f800000	1.0
67	0x3f800000	1.0
68	0x3f800000	1.0
69	0x3f800000	1.0
70	0x3f800000	1.0
71	0x00000000	0.0
72	0x3f800000	1.0
73	0x3f800000	1.0
74	0x00000000	0.0
75	0x3f800000	1.0
76	0x3f800000	1.0
77	0x3f800000	1.0
78	0x3f800000	1.0
79	0x3f800000	1.0
80	0x3f800000	1.0
81	0x3f800000	1.0
82	0x3f800000	1.0
83	0x3f800000	1.0
84	0x3f800000	1.0
85	0x3f800000	1.0
86	0x3f800000	1.0
87	0x3f800000	1.0
88	0x3f800000	1.0
89	0x3f800000	1.0
90	0x3f800000	1.0
91	0x3f800000	1.0
92	0x3f800000	1.0
93	0x3f800000	1.0
94	0x3f800000	1.0
95	0x3f800000	1.0
96	0x3f800000	1.0
97	0x3f800000	1.0
98	0x3f800000	1.0
99	0x3f800000	1.0

KL_gamma_k f4 [99]
0	0x47f3319d	124515.23
1	0x48db25f4	448815.62
2	0x48db4256	449042.7
3	0x48d7e3f3	442143.6
4	0x48ddccc8	454246.25
5	0x48dac705	448056.16
6	0x48d6b199	439692.78
7	0x48da1bbf	446685.97
8	0x48da83f3	447519.6
9	0x48da797f	447435.97
10	0x48d66892	439108.56
11	0x48daf515	448424.66
12	0x48da27c1	446782.03
13	0x48d692e0	439447.0
14	0x48d060ea	426759.3
15	0x48d9d80e	446144.44
16	0x48daa72b	447801.34
17	0x48dafa1b	448464.84
18	0x48dc71c7	451470.22
19	0x48cac577	415275.72
20	0x48dc0fef	450687.47
21	0x48dbbe99	450036.78
22	0x48d8ae8d	443764.4
23	0x48d81051	442498.53
24	0x48da28e2	446791.06
25	0x48da68e8	447303.25
26	0x48dcb50d	452008.4
27	0x48db9acc	449750.38
28	0x48daf9a3	448461.1
29	0x48db048c	448548.38
30	0x48d94c18	445024.75
31	0x48d39388	433308.25
32	0x48db31be	448909.94
33	0x48daa2b9	447765.78
34	0x48db8f26	449657.2
35	0x48d8a9a1	443725.03
36	0x48db830d	449560.4
37	0x48dc9518	451752.75
38	0x48dac2bc	448021.88
39	0x48dac9ae	448077.44
40	0x48d91041	444546.03
41	0x47abf215	88036.164
42	0x48dc8031	451585.53
43	0x48dc5389	451228.28
44	0x48c157c4	395966.12
45	0x48dace27	448113.22
46	0x48dc83c1	451614.03
47	0x480808d9	139299.39
48	0x455c01b8	3520.1074
49	0x48d6db9b	440028.84
50	0x48dad2f5	448151.66
51	0x48dcda40	452306.0
52	0x48da735a	447386.8
53	0x48d48558	435242.75
54	0x48dcf692	452532.56
55	0x48dae05b	448258.84
56	0x48dae07d	448259.9
57	0x48d25992	430796.56
58	0x48d9562a	445105.3
59	0x48dcff18	452600.75
60	0x48db66e1	449335.03
61	0x48d64308	438808.25
62	0x48d92193	444684.6
63	0x4797cf4a	77726.58
64	0x48c6c621	407089.03
65	0x48da7863	447427.1
66	0x48dadd8e	448236.44
67	0x48da6f37	447353.72
68	0x48dc6d76	451435.7
69	0x48dbd2d3	450198.6
70	0x46cb3787	26011.764
71	0x48dc0632	450609.56
72	0x48dab473	447907.6
73	0x46934c57	18854.17
74	0x48d9b897	445892.72
75	0x48d1e86b	429891.34
76	0x48dabb40	447962.0
77	0x48dd3eb1	453109.53
78	0x48bd7268	387987.25
79	0x48dc8ac2	451670.06
80	0x48d89f71	443643.53
81	0x48ce8c89	423012.28
82	0x48d62c3b	438625.84
83	0x48c9d14b	413322.34
84	0x48dba589	449836.28
85	0x48dd4cc1	453222.03
86	0x48dd0e22	452721.06
87	0x48ccbcd9	419302.78
88	0x48cfda93	425684.6
89	0x48dcba4b	452050.34
90	0x48dab8f0	447943.5
91	0x48d82cc7	442726.22
92	0x48d8b08e	443780.44
93	0x48dcc71b	452152.84
94	0x48dbaea7	449909.22
95	0x48dcda11	452304.53
96	0x48d8b898	443844.75
97	0x48d9182e	444609.44
98	0x48daa219	447760.78

q_gamma_params f4 [100, 3]
0	0xbfe53ae8	-1.7908602
1	0xc06de0d0	-3.7168465
2	0xc080595c	-4.010908
3	0xc07ae7ed	-3.9204056
4	0xc083f691	-4.1238484
5	0xc081e3a3	-4.0590377
6	0xc0790e36	-3.8914924
7	0xc074b90a	-3.823794
8	0xc0881072	-4.2520075
9	0xc082f696	-4.092601
10	0x3e73a4dc	0.23793358
11	0x401bd4bf	2.43486
12	0xc0869360	-4.20549
13	0xc031657e	-2.7718196
14	0x3fe1e0a3	1.7646679
15	0xc0825899	-4.073315
16	0xbf622f7c	-0.88353705
17	0xbd747d51	-0.059689824
18	0xc085630a	-4.1683397
19	0xc028157c	-2.6263113
20	0xc0341556	-2.8138022
21	0xc085d402	-4.18213
22	0xc08bd983	-4.3703017
23	0xc077f1a8	-3.8741245
24	0xc087ba2c	-4.241476
25	0xc08f9821	-4.4873204
26	0xc081fa45	-4.0618005
27	0xc0694387	-3.6447465
28	0xc08bfba3	-4.3744674
29	0xc061e0f8	-3.529356
30	0xc056e90e	-3.3579745
31	0xc0782409	-3.8771994
32	0xc06ea32b	-3.728709
33	0xc01f40d2	-2.4883313
34	0xc087700c	-4.2324276
35	0xc0859811	-4.174813
36	0xc01bf4b8	-2.4368114
37	0xc0855f18	-4.167858
38	0xc03d580b	-2.9584987
39	0x3d5c2035	0.053741653
40	0xc080b7ad	-4.0224214
41	0xbfa87009	-1.315919
42	0xc03483cd	-2.8205445
43	0xc083d549	-4.119786
44	0xc089c8b6	-4.305751
45	0xc08124ca	-4.035741
46	0xc0890c6e	-4.2827673
47	0xc087213f	-4.2228084
48	0xc0873198	-4.224804
49	0xc080d862	-4.026414
50	0xc0867767	-4.2020755
51	0xc07db577	-3.9642007
52	0xc08966a3	-4.293779
53	0xc06c72ee	-3.6945148
54	0xc025e036	-2.5918097
55	0xc07d7f34	-3.9608889
56	0xc04ae2bf	-3.1700895
57	0xc088a54f	-4.2701793
58	0xc0817b4e	-4.046302
59	0xc06b61e6	-3.6778502
60	0xc047fddc	-3.1248693
61	0xc0871e73	-4.222467
62	0xc07edd1e	-3.982246
63	0xc06b9d5a	-3.681479
64	0xc080ae55	-4.021281
65	0xc081e6fc	-4.0594463
66	0xc08a7a80	-4.3274536
67	0xc079a5f9	-3.9007552
68	0xc03b27e6	-2.9243102
69	0xc080e593	-4.028024
70	0xc087c2e4	-4.2425404
71	0xc0747720	-3.8197708
72	0xc0318a59	-2.774069
73	0xc0838baa	-4.110799
74	0xc08510d3	-4.1583037
75	0xc082d4bf	-4.08847
76	0xc083abac	-4.114706
77	0xc0810835	-4.032252
78	0xc04a8a3e	-3.1646876
79	0xc07a9519	-3.9153502
80	0xc0773bb1	-3.8630183
81	0xc074e1b4	-3.8262758
82	0xc08a5d47	-4.3238864
83	0xc05998e6	-3.3999572
84	0xc07d7692	-3.960362
85	0xc080ce40	-4.025177
86	0xc06481ae	-3.570415
87	0xc05bf11a	-3.4365907
88	0xc08f5acc	-4.4798336
89	0xc087b66a	-4.2410173
90	0xc07b6062	-3.9277577
91	0xc06fabe7	-3.744867
92	0xc086b501	-4.209595
93	0xc03a5dd7	-2.9119775
94	0xc0827c3c	-4.0776653
95	0xc055ba36	-3.3394904
96	0xc05b9f1e	-3.4315867
97	0xc084c3b8	-4.1488914
98	0xc066dd24	-3.6072474
99	0xc06fe307	-3.7482316
100	0xc088c6be	-4.2742605
101	0xc07b9218	-3.9307919
102	0xc05e6639	-3.4749892
103	0x3f23565e	0.6380366
104	0xc08a02f0	-4.3128586
105	0xc0375bfa	-2.8649888
106	0xc082763d	-4.0769334
107	0xc06672bc	-3.6007528
108	0xc085423c	-4.1643353
109	0xc07eb640	-3.9798737
110	0xc087dddb	-4.245832
111	0xc03c20db	-2.9395053
112	0xc07ca75d	-3.947715
113	0xc05a0e24	-3.407113
114	0xc05e7677	-3.4759805
115	0xc07e6092	-3.9746442
116	0xc0905c49	-4.5112653
117	0xc0891ac6	-4.2845182
118	0xc067158e	-3.6106906
119	0xc052db3c	-3.294631
120	0xbff0a97a	-1.880172
121	0xc08597bf	-4.1747737
122	0xc08a5c5d	-4.323775
123	0xc02b4c06	-2.676515
124	0xc0892379	-4.28558
125	0xc07d44b2	-3.9573178
126	0xc0847762	-4.139573
127	0xc08d46fe	-4.414916
128	0xc0074ea5	-2.114175
129	0xc088b94e	-4.27262
130	0xc08caae5	-4.395861
131	0xbfb9d881	-1.4519197
132	0xbfb0133f	-1.3755873
133	0xc08acd19	-4.3375363
134	0xc03a1c11	-2.907963
135	0xc082d439	-4.088406
136	0xc07cd6fc	-3.9506216
137	0xc0845ee1	-4.136582
138	0xc0609df9	-3.509642
139	0xc0866cd8	-4.2007866
140	0xc078c9d0	-3.8873177
141	0xc00bbe64	-2.1834955
142	0xc0723302	-3.7843633
143	0xc0490bad	-3.1413376
144	0xc07c124b	-3.9386165
145	0xc07d9744	-3.9623575
146	0xc07a171a	-3.90766
147	0xc088104a	-4.2519884
148	0xc0822f29	-4.068257
149	0xc0825c70	-4.073784
150	0xc082bf69	-4.0858655
151	0xc083c4f2	-4.117791
152	0xc086c905	-4.2120385
153	0xc0746fc8	-3.8193226
154	0xc084bf73	-4.1483703
155	0xc063ea11	-3.5611613
156	0xc0897dfb	-4.2966285
157	0xc0837d0d	-4.109015
158	0xc04f0c91	-3.235142
159	0xbfc2788b	-1.5193037
160	0x402d829d	2.711097
161	0xc0855808	-4.166996
162	0xc082fb0c	-4.0931454
163	0xc0661a59	-3.5953581
164	0xc0609edd	-3.5096962
165	0xc0797c48	-3.8982105
166	0xc077d270	-3.872219
167	0x3fc857da	1.565181
168	0xc073860c	-3.8050566
169	0xc07c216a	-3.9395394
170	0xc0556fbe	-3.3349452
171	0xc076db28	-3.8571262
172	0xc083a689	-4.114079
173	0xc08a72a6	-4.326495
174	0xc08a89fe	-4.3293447
175	0xc07ad7f7	-3.9194314
176	0xc085c9b7	-4.1808734
177	0xc0866801	-4.200196
178	0xc0735c17	-3.8024957
179	0xc050eadc	-3.2643347
180	0xc0319462	-2.7746816
181	0xc071a4ec	-3.775691
182	0xc080cc6b	-4.0249534
183	0xbff8ca03	-1.9436649
184	0xc0856e16	-4.169688
185	0xc07e58c3	-3.9741676
186	0xc084f1bb	-4.154508
187	0xc0860d17	-4.189098
188	0xc091992f	-4.549949
189	0xc05e88bc	-3.4770956
190	0xc07f4ec5	-3.9891827
191	0xc04309ab	-3.047465
192	0xc077e6c0	-3.8734589
193	0xc0867d16	-4.2027693
194	0xc085e8b7	-4.1846576
195	0xc08aa4bd	-4.3326097
196	0xc08bee03	-4.372804
197	0xc0877fc7	-4.234348
198	0xc083e62f	-4.1218486
199	0xc087f6a0	-4.2488556
200	0xbf543d75	-0.82906276
201	0xc02029d0	-2.502552
202	0xc085d0cf	-4.1817393
203	0xc0720c84	-3.782014
204	0xbf062eb1	-0.52414995
205	0xc08aabe8	-4.3334846
206	0x3fa7a884	1.3098302
207	0xc046bc59	-3.1052458
208	0xc084cfd0	-4.1503677
209	0xc07bad42	-3.9324498
210	0xc00626e1	-2.096123
211	0xc05f217e	-3.4864192
212	0xc08d737d	-4.4203477
213	0xc0823808	-4.0693398
214	0xc078841f	-3.883064
215	0xc08134cc	-4.037695
216	0xc076a673	-3.8539093
217	0xc08413d9	-4.127423
218	0xc081570f	-4.0418773
219	0xc06f3a94	-3.7379503
220	0xc08484c2	-4.141206
221	0xc06ae14a	-3.6700006
222	0xc08279f4	-4.077387
223	0xc080c466	-4.0239744
224	0xc04406d4	-3.0629168
225	0xbfc4ef1e	-1.5385473
226	0xc070cef7	-3.7626321
227	0xbf0b805f	-0.54492754
228	0xc087c9fd	-4.243407
229	0xc081732d	-4.0453095
230	0xc0786339	-3.881056
231	0xc04c92ac	-3.1964521
232	0xc08307ef	-4.0947185
233	0xc08a922e	-4.330344
234	0xc081574a	-4.0419054
235	0xc0815c97	-4.0425525
236	0x3fa934ec	1.3219275
237	0xc079f0df	-3.9053266
238	0xc08262a2	-4.07454
239	0xc08400ef	-4.125114
240	0xc07f8f86	-3.993135
241	0xc07841f6	-3.879026
242	0xc06d22d6	-3.7052512
243	0xc07248bd	-3.7856896
244	0xc070d5e2	-3.7630544
245	0x4020a478	2.5100384
246	0xc0690e19	-3.6414855
247	0xc08bdf00	-4.3709717
248	0xc074a1de	-3.8223796
249	0xc08d4a0b	-4.4152884
250	0xc082e3c4	-4.0903034
251	0xc0832ea0	-4.0994415
252	0xc04eeffc	-3.2333975
253	0xc08ba98a	-4.3644457
254	0xc0852854	-4.161173
255	0xc008b103	-2.135804

gamma f4 [100, 3]
0	0x00000000	0.0
1	0x00000000	0.0
2	0x00000000	0.0
3	0x00000000	0.0
4	0x00000000	0.0
5	0x00000000	0.0
6	0x00000000	0.0
7	0x00000000	0.0
8	0x00000000	0.0
9	0x00000000	0.0
10	0x00000000	0.0
11	0x3f800000	1.0
12	0x00000000	0.0
13	0x00000000	0.0
14	0x3f800000	1.0
15	0x00000000	0.0
16	0x3f800000	1.0
17	0x3f800000	1.0
18	0x00000000	0.0
19	0x00000000	0.0
20	0x00000000	0.0
21	0x00000000	0.0
22	0x00000000	0.0
23	0x00000000	0.0
24	0x00000000	0.0
25	0x00000000	0.0
26	0x00000000	0.0
27	0x00000000	0.0
28	0x00000000	0.0
29	0x00000000	0.0
30	0x00000000	0.0
31	0x00000000	0.0
32	0x00000000	0.0
33	0x00000000	0.0
34	0x00000000	0.0
35	0x00000000	0.0
36	0x00000000	0.0
37	0x00000000	0.0
38	0x00000000	0.0
39	0x00000000	0.0
40	0x00000000	0.0
41	0x00000000	0.0
42	0x00000000	0.0
43	0x00000000	0.0
44	0x00000000	0.0
45	0x00000000	0.0
46	0x00000000	0.0
47	0x00000000	0.0
48	0x00000000	0.0
49	0x00000000	0.0
50	0x00000000	0.0
51	0x00000000	0.0
52	0x00000000	0.0
53	0x00000000	0.0
54	0x3f800000	1.0
55	0x00000000	0.0
56	0x00000000	0.0
57	0x00000000	0.0
58	0x00000000	0.0
59	0x00000000	0.0
60	0x00000000	0.0
61	0x00000000	0.0
62	0x00000000	0.0
63	0x00000000	0.0
64	0x00000000	0.0
65	0x00000000	0.0
66	0x00000000	0.0
67	0x00000000	0.0
68	0x00000000	0.0
69	0x00000000	0.0
70	0x00000000	0.0
71	0x00000000	0.0
72	0x00000000	0.0
73	0x00000000	0.0
74	0x00000000	0.0
75	0x00000000	0.0
76	0x00000000	0.0
77	0x00000000	0.0
78	0x00000000	0.0
79	0x00000000	0.0
80	0x00000000	0.0
81	0x00000000	0.0
82	0x00000000	0.0
83	0x00000000	0.0
84	0x00000000	0.0
85	0x00000000	0.0
86	0x00000000	0.0
87	0x00000000	0.0
88	0x00000000	0.0
89	0x00000000	0.0
90	0x00000000	0.0
91	0x00000000	0.0
92	0x00000000	0.0
93	0x00000000	0.0
94	0x00000000	0.0
95	0x00000000	0.0
96	0x00000000	0.0
97	0x00000000	0.0
98	0x00000000	0.0
99	0x00000000	0.0
100	0x00000000	0.0
101	0x00000000	0.0
102	0x00000000	0.0
103	0x00000000	0.0
104	0x00000000	0.0
105	0x00000000	0.0
106	0x00000000	0.0
107	0x00000000	0.0
108	0x00000000	0.0
109	0x00000000	0.0
110	0x00000000	0.0
111	0x00000000	0.0
112	0x00000000	0.0
113	0x00000000	0.0
114	0x00000000	0.0
115	0x00000000	0.0
116	0x00000000	0.0
117	0x00000000	0.0
118	0x00000000	0.0
119	0x00000000	0.0
120	0x00000000	0.0
121	0x00000000	0.0
122	0x00000000	0.0
123	0x00000000	0.0
124	0x00000000	0.0
125	0x00000000	0.0
126	0x00000000	0.0
127	0x00000000	0.0
128	0x00000000	0.0
129	0x00000000	0.0
130	0x00000000	0.0
131	0x00000000	0.0
132	0x3f800000	1.0
133	0x00000000	0.0
134	0x00000000	0.0
135	0x00000000	0.0
136	0x00000000	0.0
137	0x00000000	0.0
138	0x00000000	0.0
139	0x00000000	0.0
140	0x00000000	0.0
141	0x00000000	0.0
142	0x00000000	0.0
143	0x00000000	0.0
144	0x00000000	0.0
145	0x00000000	0.0
146	0x00000000	0.0
147	0x00000000	0.0
148	0x00000000	0.0
149	0x00000000	0.0
150	0x00000000	0.0
151	0x00000000	0.0
152	0x00000000	0.0
153	0x00000000	0.0
154	0x00000000	0.0
155	0x3f800000	1.0
156	0x00000000	0.0
157	0x00000000	0.0
158	0x00000000	0.0
159	0x00000000	0.0
160	0x3f800000	1.0
161	0x00000000	0.0
162	0x00000000	0.0
163	0x00000000	0.0
164	0x00000000	0.0
165	0x00000000	0.0
166	0x00000000	0.0
167	0x3f800000	1.0
168	0x00000000	0.0
169	0x00000000	0.0
170	0x00000000	0.0
171	0x00000000	0.0
172	0x00000000	0.0
173	0x00000000	0.0
174	0x00000000	0.0
175	0x00000000	0.0
176	0x00000000	0.0
177	0x00000000	0.0
178	0x00000000	0.0
179	0x00000000	0.0
180	0x00000000	0.0
181	0x00000000	0.0
182	0x00000000	0.0
183	0x00000000	0.0
184	0x00000000	0.0
185	0x00000000	0.0
186	0x00000000	0.0
187	0x00000000	0.0
188	0x00000000	0.0
189	0x00000000	0.0
190	0x00000000	0.0
191	0x00000000	0.0
192	0x00000000	0.0
193	0x00000000	0.0
194	0x00000000	0.0
195	0x00000000	0.0
196	0x00000000	0.0
197	0x00000000	0.0
198	0x00000000	0.0
199	0x00000000	0.0
200	0x00000000	0.0
201	0x00000000	0.0
202	0x00000000	0.0
203	0x00000000	0.0
204	0x3f800000	1.0
205	0x00000000	0.0
206	0x3f800000	1.0
207	0x00000000	0.0
208	0x00000000	0.0
209	0x00000000	0.0
210	0x00000000	0.0
211	0x00000000	0.0
212	0x00000000	0.0
213	0x00000000	0.0
214	0x00000000	0.0
215	0x00000000	0.0
216	0x00000000	0.0
217	0x00000000	0.0
218	0x00000000	0.0
219	0x00000000	0.0
220	0x00000000	0.0
221	0x3f800000	1.0
222	0x00000000	0.0
223	0x00000000	0.0
224	0x00000000	0.0
225	0x00000000	0.0
226	0x00000000	0.0
227	0x3f800000	1.0
228	0x00000000	0.0
229	0x00000000	0.0
230	0x00000000	0.0
231	0x00000000	0.0
232	0x00000000	0.0
233	0x00000000	0.0
234	0x00000000	0.0
235	0x00000000	0.0
236	0x3f800000	1.0
237	0x00000000	0.0
238	0x00000000	0.0
239	0x00000000	0.0
240	0x00000000	0.0
241	0x00000000	0.0
242	0x00000000	0.0
243	0x00000000	0.0
244	0x00000000	0.0
245	0x3f800000	1.0
246	0x00000000	0.0
247	0x00000000	0.0
248	0x00000000	0.0
249	0x00000000	0.0
250	0x00000000	0.0
251	0x00000000	0.0
252	0x00000000	0.0
253	0x00000000	0.0
254	0x00000000	0.0
255	0x00000000	0.0

q_probs f4 [100, 3]
0	0x3e126db2	0.14299658
1	0x3cc26ef2	0.023734543
2	0x3c91c6e5	0.017795036
3	0x3c9f539c	0.019449048
4	0x3c82757f	0.015925167
5	0x3c8b0a2c	0.016972624
6	0x3ca3e5f3	0.02000711
7	0x3caf20cc	0.021377943
8	0x3c65f6be	0.014035879
9	0x3c868759	0.01642196
10	0x3f0f13bb	0.5588948
11	0x3f6b6198	0.9194579
12	0x3c70c2b1	0.014694856
13	0x3d711dce	0.058866315
14	0x3f5a9338	0.8538089
15	0x3c891ace	0.016736414
16	0x3e95ae71	0.2923465
17	0x3ef8729d	0.48524943
18	0x3c79bbeb	0.015242557
19	0x3d8a2ddc	0.06747028
20	0x3d67cd6b	0.056592386
21	0x3c765da1	0.015036971
22	0x3c4ca0af	0.012489482
23	0x3ca6bdfc	0.020354263
24	0x3c685d25	0.014182364
25	0x3c364849	0.011125633
26	0x3c8aaa54	0.016926922
27	0x3cd0988a	0.025463361
28	0x3c4bc9e6	0.012438273
29	0x3ce964a5	0.028490374
30	0x3d09c5ae	0.033635788
31	0x3ca6357a	0.020289171
32	0x3cc030ba	0.023460735
33	0x3d9db33c	0.07700202
34	0x3c6a736c	0.014309745
35	0x3c7825d9	0.015145742
36	0x3da4bb2f	0.08043515
37	0x3c79d8cf	0.015249445
38	0x3d4a19cd	0.04934101
39	0x3f0377d6	0.5135473
40	0x3c902452	0.017595444
41	0x3e58a56a	0.2115685
42	0x3d664faf	0.056228336
43	0x3c82fb90	0.015989095
44	0x3c5a17f4	0.013311375
45	0x3c8e43dd	0.017366344
46	0x3c5f17af	0.013616486
47	0x3c6cb10c	0.014446508
48	0x3c6c373d	0.014417467
49	0x3c8f92b6	0.017526012
50	0x3c719128	0.014744081
51	0x3c989e1f	0.018630086
52	0x3c5d5d29	0.013510981
53	0x3cc6b75d	0.024257356
54	0x3d8f6e8f	0.07003509
55	0x3c991de5	0.018691013
56	0x3d251c73	0.040310334
57	0x3c61fa63	0.013792607
58	0x3c8ccb35	0.01718674
59	0x3cc9dbdb	0.024640968
60	0x3d2c6f4f	0.04209834
61	0x3c6cc21c	0.014450576
62	0x3c95f020	0.018302977
63	0x3cc94353	0.024568236
64	0x3c904bc0	0.017614245
65	0x3c8afcb2	0.016966198
66	0x3c5578c9	0.013029286
67	0x3ca269a6	0.019825768
68	0x3d50c215	0.05096634
69	0x3c8f5978	0.017498717
70	0x3c681ef5	0.014167537
71	0x3cafd309	0.021462934
72	0x3d70a3c2	0.05874992
73	0x3c842542	0.016131047
74	0x3c7c3554	0.015393574
75	0x3c8711f0	0.016488045
76	0x3c83a2cf	0.016068844
77	0x3c8ec0cd	0.017425919
78	0x3d2611b6	0.040544234
79	0x3ca0139a	0.019540597
80	0x3ca888f8	0.020573124
81	0x3caeb5bb	0.02132689
82	0x3c563c43	0.013075891
83	0x3d044b45	0.032298345
84	0x3c99313c	0.018700235
85	0x3c8fbf13	0.017547166
86	0x3ce04372	0.02737591
87	0x3cff5ede	0.031173166
88	0x3c37a942	0.011209788
89	0x3c6878b1	0.014188931
90	0x3c9e2e63	0.019309228
91	0x3cbd3004	0.023094185
92	0x3c6fc7d9	0.01463505
93	0x3d533aa6	0.051569603
94	0x3c888662	0.016665641
95	0x3d0c44e0	0.03424537
96	0x3d004f77	0.031325784
97	0x3c7e901c	0.015537288
98	0x3cd85d33	0.026411628
99	0x3cbc9230	0.023018926
100	0x3c60fa4d	0.013731551
101	0x3c9db36d	0.019250596
102	0x3cf60caa	0.030035336
103	0x3f278032	0.65429986
104	0x3c589296	0.013218543
105	0x3d5cdb8a	0.053920306
106	0x3c884577	0.016634686
107	0x3cd9bbc5	0.026578793
108	0x3c7be27a	0.01537382
109	0x3c9650b0	0.018349022
110	0x3c675edb	0.014121736
111	0x3d4dc51e	0.050236814
112	0x3c9b1d85	0.018934974
113	0x3d03632b	0.032076996
114	0x3cf5d0a4	0.030006714
115	0x3c97100a	0.018440265
116	0x3c320465	0.010865306
117	0x3c5eb78c	0.013593566
118	0x3cd7a150	0.026322037
119	0x3d127921	0.03576005
120	0x3e079814	0.13241607
121	0x3c782748	0.015146084
122	0x3c563f63	0.013076636
123	0x3d83d9ab	0.06438001
124	0x3c5e7a53	0.013578969
125	0x3c99a79b	0.018756678
126	0x3c807503	0.015680796
127	0x3c43ce43	0.011951032
128	0x3ddca939	0.10774464
129	0x3c615826	0.013753926
130	0x3c47875b	0.012178267
131	0x3e4249c9	0.1897346
132	0x3e4eaf33	0.2018402
133	0x3c535c41	0.012900413
134	0x3d54058c	0.051763102
135	0x3c8715a2	0.016489808
136	0x3c9aaa8c	0.018880151
137	0x3c80d4c0	0.015726447
138	0x3cedec52	0.02904335
139	0x3c71e09c	0.014763024
140	0x3ca4938a	0.020089883
141	0x3dcf8501	0.1013279
142	0x3cb60602	0.022219662
143	0x3d29bb4a	0.04143838
144	0x3c9c8025	0.019104073
145	0x3c98e57e	0.018664118
146	0x3ca15144	0.01969207
147	0x3c65f82e	0.014036221
148	0x3c89ed8a	0.0168369
149	0x3c890d3c	0.016729943
150	0x3c876c8a	0.016531248
151	0x3c833bb1	0.016019674
152	0x3c6f35df	0.014600246
153	0x3cafe7ea	0.02147289
154	0x3c7eaf61	0.015544743
155	0x3ce24895	0.0276225
156	0x3c5c1084	0.013431672
157	0x3c845f2c	0.016158663
158	0x3d1b191c	0.037865743
159	0x3e37eef8	0.17962253
160	0x3f700c25	0.9376853
161	0x3c7a10cf	0.015262797
162	0x3c8674ec	0.016413175
163	0x3cdae1ad	0.026718939
164	0x3cede1ba	0.029038299
165	0x3ca2d485	0.019876728
166	0x3ca707d5	0.020389477
167	0x3f53c0e8	0.82716227
168	0x3cb25f45	0.021773944
169	0x3c9c5a30	0.019085974
170	0x3d0ce10a	0.0343943
171	0x3ca984e9	0.02069326
172	0x3c83b743	0.016078597
173	0x3c55ac41	0.013041557
174	0x3c551308	0.013005026
175	0x3c9f7aa3	0.019467657
176	0x3c76ac9e	0.015055804
177	0x3c7206b3	0.014772105
178	0x3cb2d414	0.021829642
179	0x3d16cd34	0.03681679
180	0x3d7086fe	0.05872249
181	0x3cb7922b	0.022408566
182	0x3c8fc7d1	0.017551335
183	0x3e00448a	0.12526146
184	0x3c796539	0.015221887
185	0x3c9721ef	0.018448798
186	0x3c7d27d4	0.01545139
187	0x3c74acd8	0.014933787
188	0x3c2b5662	0.010457607
189	0x3cf5866f	0.02997133
190	0x3c94ebd7	0.018178863
191	0x3d39af75	0.045333344
192	0x3ca6d117	0.020363374
193	0x3c716712	0.0147340465
194	0x3c75bf25	0.014999186
195	0x3c546320	0.012963086
196	0x3c4c1f77	0.012458674
197	0x3c6a00e3	0.014282438
198	0x3c82b675	0.015956143
199	0x3c66ae0e	0.014079584
200	0x3e9b78fe	0.30365747
201	0x3d9b0472	0.07569207
202	0x3c76741e	0.015042333
203	0x3cb67066	0.022270393
204	0x3ebe2d54	0.37143958
205	0x3c543797	0.012952707
206	0x3f4992b7	0.78739494
207	0x3d2fc221	0.042909745
208	0x3c7e3007	0.01551438
209	0x3c9d7197	0.019219203
210	0x3ddfe824	0.10932949
211	0x3cf35005	0.029701242
212	0x3c42c220	0.011887103
213	0x3c89a3b9	0.016801702
214	0x3ca54320	0.02017361
215	0x3c8dfeb8	0.017333373
216	0x3caa0b84	0.020757444
217	0x3c820012	0.015869174
218	0x3c8d6825	0.017261574
219	0x3cbe7b17	0.023252053
220	0x3c803fde	0.015655454
221	0x3ccb866d	0.024844373
222	0x3c888e38	0.016669378
223	0x3c8fea44	0.017567761
224	0x3d36f69f	0.04466879
225	0x3e3508c5	0.17679127
226	0x3cb9d719	0.022685574
227	0x3ebbe4f9	0.3669813
228	0x3c67ef4a	0.014156172
229	0x3c8cef4a	0.017203946
230	0x3ca595a5	0.020212958
231	0x3d20fd42	0.039304025
232	0x3c863fe2	0.016387884
233	0x3c54dd13	0.012992161
234	0x3c8d67d3	0.017261421
235	0x3c8d50ff	0.017250536
236	0x3f4a2243	0.7895853
237	0x3ca1afc5	0.019737134
238	0x3c88f158	0.016716644
239	0x3c824ad9	0.01590483
240	0x3c9458af	0.018108694
241	0x3ca5ea99	0.020253466
242	0x3cc4a7d4	0.024005808
243	0x3cb5c877	0.022190316
244	0x3cb9d9f0	0.022686929
245	0x3f6cc36f	0.9248571
246	0x3cd14314	0.02554468
247	0x3c4c7eb4	0.01248138
248	0x3caf60e1	0.0214085
249	0x3c43bc0f	0.011946692
250	0x3c86d5d3	0.016459381
251	0x3c85a29b	0.016312888
252	0x3d1b5c1f	0.03792965
253	0x3c4dd0ca	0.012561986
254	0x3c7b7fbb	0.015350278
255	0x3dd87559	0.10569257

weight f4 [10, 74]
0	0xbddcf384	-0.107886344
1	0x3df11370	0.117712855
2	0xbdf604fb	-0.12012669
3	0xbcd8ad9c	-0.02644997
4	0xbbd65f02	-0.0065420875
5	0xbe3f650c	-0.1869089
6	0x3e1b82b2	0.15186575
7	0x3eb57ac4	0.35445225
8	0x3e4edd7d	0.20201679
9	0x3ed195fd	0.40934744
10	0xbde1bcd5	-0.11022345
11	0x3e847ceb	0.25876555
12	0x3dd7d238	0.10538143
13	0x3e678d9c	0.22612613
14	0x3c0f259d	0.008736995
15	0xbd1b62b2	-0.03793592
16	0xbd943edd	-0.07238553
17	0x3ed5eae6	0.41780776
18	0x3ecac49a	0.3960312
19	0x3e87c601	0.26518252
20	0xbe5b8b45	-0.21439846
21	0x3d268deb	0.040662687
22	0x3cf87f6c	0.030334197
23	0x3e7edfdc	0.24890083
24	0x3ed7da04	0.4215852
25	0xbea0c779	-0.31402186
26	0x3e666829	0.22500671
27	0xbe9e3f73	-0.30907783
28	0xb84db090	-4.9040245e-05
29	0x3e518a9f	0.20463036
30	0x3f0aa9f4	0.5416558
31	0x3eead2d7	0.45863983
32	0x3e1ef84c	0.15524405
33	0xbc6a6db6	-0.014308384
34	0xbdc15730	-0.09440458
35	0x3eac1789	0.33611706
36	0x3ed93139	0.42420366
37	0x3a95f036	0.0011439386
38	0x3e849562	0.2589522
39	0x3e832b6f	0.25619075
40	0x3e70fb86	0.23533449
41	0x3ee93ee6	0.455558
42	0x3c2f858b	0.0107129915
43	0x3e4edfea	0.20202604
44	0x3c3ef6cf	0.011655523
45	0x3cf9bd5f	0.030485807
46	0x3eb6b8fe	0.35688013
47	0x3edefac9	0.4355071
48	0x3e921d1b	0.2853783
49	0x3f1b211a	0.60597384
50	0xb88e6f88	-6.791862e-05
51	0x3e0d20a4	0.13781983
52	0xbd39c279	-0.04535148
53	0x3dc15b48	0.09441239
54	0x3dd7c0da	0.105348304
55	0xbe975e54	-0.29564154
56	0x3de917bb	0.11381479
57	0x3e56f508	0.2099191
58	0x3ef237b6	0.4730813
59	0x3ede6e11	0.4344335
60	0x3de0b96c	0.109728664
61	0x3e94d9ca	0.2907241
62	0x3ec85539	0.3912752
63	0xba3474de	-0.00068838696
64	0x3d68801b	0.056762796
65	0xbe731e19	-0.2374195
66	0xbea515cd	-0.32243195
67	0x3e1d9015	0.15386994
68	0x3e83af53	0.257197
69	0x3e48c9d8	0.19608247
70	0x3dd6c641	0.10487033
71	0x3ead62a4	0.3386432
72	0x3ded42ad	0.11584983
73	0x3f07368a	0.52817595
74	0xbe2b12ca	-0.16706386
75	0x3d8b195b	0.067919455
76	0xbe335c03	-0.17515568
77	0xbdb5c5a6	-0.08875589
78	0xbd858fb6	-0.06521551
79	0xbe648f7f	-0.22320364
80	0x3df76f79	0.120818086
81	0x3ea83046	0.3284933
82	0x3e6937c3	0.22775178
83	0x3ef13903	0.4711381
84	0xbe2e3278	-0.1701144
85	0x3e740840	0.23831272
86	0x3d6d9d54	0.058011368
87	0x3e5a3068	0.21307528
88	0xbd4f722f	-0.050646003
89	0xbdb95366	-0.0904911
90	0xbe101756	-0.14071402
91	0x3eddc487	0.43314
92	0x3ecd0f87	0.4005091
93	0x3e82d169	0.25550392
94	0xbe8df6d8	-0.2772739
95	0xba844d44	-0.0010093828
96	0xbcec056e	-0.028811183
97	0x3e741728	0.23836958
98	0x3ed3518e	0.4127316
99	0xbeb9ef9b	-0.36315617
100	0x3e684b56	0.22684988
101	0xbea8357d	-0.32853308
102	0xbd7d3c66	-0.06182518
103	0x3e4d7bc3	0.20066743
104	0x3efc8f95	0.49328294
105	0x3ed8dbdc	0.4235524
106	0x3e189980	0.14902306
107	0xbd9e05b3	-0.07715931
108	0xbe130b33	-0.14359741
109	0x3eaca3db	0.33718762
110	0x3eac714b	0.33680186
111	0xbd681217	-0.056657877
112	0x3e826fdf	0.25475976
113	0x3e801529	0.25016144
114	0x3e7027f3	0.2345274
115	0x3edf8c11	0.4366155
116	0xbd4f2428	-0.05057159
117	0x3e448bc7	0.19193946
118	0xbd28281a	-0.04105387
119	0xbd01e625	-0.031713624
120	0x3eb05da8	0.34446454
121	0x3ee36d6f	0.4441943
122	0x3e898fcf	0.2686753
123	0x3f0f9ffa	0.5610348
124	0xbd75bc89	-0.059994254
125	0x3ded2cb7	0.11580794
126	0xbdb7fdbe	-0.08983944
127	0x3d3836de	0.0449742
128	0x3d769756	0.06020292
129	0xbea2ad80	-0.31772995
130	0x3d943a24	0.07237652
131	0x3e51c3fe	0.20484921
132	0x3eb5fadf	0.35542962
133	0x3ee57120	0.4481287
134	0x3d8d707b	0.069062196
135	0x3e9da4ca	0.30789787
136	0x3ec323b7	0.38113186
137	0xbd6d53e8	-0.057941347
138	0xbb7b6e25	-0.0038365212
139	0xbe951879	-0.29120234
140	0xbea9e1f8	-0.33180213
141	0x3e0bb73c	0.13644117
142	0x3e82a40c	0.25515783
143	0x3e461383	0.1934338
144	0x3d917247	0.07101875
145	0x3eb1c5ac	0.34721124
146	0x3d8b2232	0.067936316
147	0x3ef361e5	0.47535625
148	0x3da8fee3	0.08251741
149	0x3e02024f	0.12696193
150	0x3dad4f30	0.084623694
151	0x3d1aa6ce	0.037756734
152	0x3dcffce2	0.101556554
153	0x3d109b7c	0.03530453
154	0x3def9315	0.116979755
155	0x3e2881db	0.16455786
156	0x3d82436b	0.06360515
157	0x3d9de702	0.07710077
158	0x3deb4315	0.11487404
159	0x3ddc3d3a	0.107538655
160	0xbd0314e4	-0.032002345
161	0x3d871413	0.06595626
162	0x3d8c273e	0.06843422
163	0x3df7fa04	0.121082336
164	0x3dee0498	0.1162197
165	0x3d93ced9	0.072171874
166	0x3dbcfd9f	0.09228062
167	0x3dd00e5b	0.10158988
168	0x3d160cb8	0.036633223
169	0x3dacef49	0.084440775
170	0x3d021a5b	0.031763416
171	0x3e092f46	0.1339694
172	0xbc19eeba	-0.009395296
173	0xbd0d153a	-0.03444407
174	0x3dcf1738	0.101118505
175	0x3da09fb1	0.07842959
176	0x3de6622f	0.11249196
177	0x3cadc871	0.021213742
178	0x3e14b98c	0.14523906
179	0xbcad9596	-0.021189492
180	0x3de2904e	0.1106268
181	0xbd7a546c	-0.061115667
182	0x3c197bdf	0.009367912
183	0xbceb76e7	-0.02874322
184	0x3e2c1059	0.16803111
185	0x3e0f2c15	0.1398166
186	0xbc98bffa	-0.018646229
187	0xbccb22d3	-0.024796879
188	0x3d7a00ef	0.061036047
189	0x3d160d59	0.036633823
190	0xbdab7846	-0.0837255
191	0x3dd08edf	0.101835005
192	0xbbcbae64	-0.0062158573
193	0xbdaffa1f	-0.08592629
194	0x3d86f919	0.0659048
195	0x3e10f878	0.14157283
196	0x3d0abd24	0.033871785
197	0x3d879eaf	0.06622063
198	0x3e0507f6	0.12991318
199	0x3da526d1	0.08064044
200	0x3e0dea49	0.13858904
201	0xbca5f49e	-0.020258244
202	0x3d028cd4	0.031872585
203	0x3d97efdc	0.074187964
204	0x3db72fca	0.08944662
205	0x3e02ff87	0.12792788
206	0x3dbaae97	0.091153316
207	0x3e31b725	0.1735502
208	0xbd2a12f1	-0.04152197
209	0x3d6d2bff	0.057903286
210	0x3d9f6935	0.077837385
211	0x3e09bc93	0.13450842
212	0xbca12556	-0.019671123
213	0x3d637548	0.05553177
214	0xbe752b39	-0.2394227
215	0x3d1d6f91	0.038436476
216	0x3dabafb4	0.08383122
217	0x3de16b1d	0.11006758
218	0x3dbea63a	0.09309049
219	0x3e02920d	0.12751026
220	0x3d0842e0	0.033266902
221	0x3d41f946	0.047356866
222	0xbd6b8a75	-0.05750509
223	0x3dbbd990	0.09172356
224	0xbdc344e5	-0.09534625
225	0xbc3df19b	-0.011593248
226	0x3d3d25b9	0.046178553
227	0xbe047807	-0.12936412
228	0x3ded0c1d	0.11574576
229	0x3e865a4e	0.26240772
230	0x3e361077	0.17779718
231	0x3e1da26d	0.15393992
232	0xbd8f7663	-0.07005002
233	0x3de69388	0.11258608
234	0x3e13162d	0.14363928
235	0x3e137b74	0.14402562
236	0x3de18513	0.1101171
237	0xbc668e42	-0.014072003
238	0xbbb71eb8	-0.0055883788
239	0x3e5c5749	0.21517672
240	0x3e4ad96c	0.19809502
241	0x3e2c7758	0.16842401
242	0xbe155537	-0.14583288
243	0x3d918c89	0.07106883
244	0x3d578ff2	0.05262751
245	0x3e131993	0.14365225
246	0x3e36ab2a	0.17838731
247	0xbea1e10f	-0.3161702
248	0x3ded5b87	0.11589723
249	0xbe85cf72	-0.2613483
250	0x3b0d58df	0.0021567864
251	0x3e06b16c	0.13153619
252	0x3e2f0e54	0.1709531
253	0x3e68de3e	0.22741029
254	0x3de9e028	0.114197075
255	0x3d62f352	0.05540783

bias f4 [10]
0	0xbf405763	-0.7513334
1	0xbf06ba8c	-0.526284
2	0xbcc95b82	-0.024579767
3	0xbe7c5a1d	-0.2464375
4	0xbf3b4dfc	-0.7316587
5	0xbf1fd738	-0.6243777
6	0xbf39de84	-0.72605157
7	0xbf2b0c9a	-0.66816103
8	0xbf11ded7	-0.5698065
9	0xbf5312d5	-0.8245061

weight f4 [10, 10]
0	0x3e8da4c7	0.27664778
1	0x3e10fbee	0.14158604
2	0x3ec8ce5e	0.39219946
3	0x3ede7218	0.43446422
4	0x3d5c5722	0.053794034
5	0xbb8a6bfc	-0.0042242985
6	0xbcc79c0a	-0.024366397
7	0x3de69324	0.112585336
8	0x3e817db5	0.2529122
9	0xbce6d540	-0.028177857
10	0xbc9624e7	-0.018328143
11	0x3e14eadd	0.14542718
12	0x3e329580	0.17439842
13	0xbb8f4f17	-0.004373442
14	0x3e873c63	0.2641326
15	0x3e075445	0.1321574
16	0x3ecd0230	0.4004073
17	0x3e86dd6b	0.26340804
18	0x3e844028	0.25830197
19	0x3db14dda	0.08657427
20	0xbd982c41	-0.07430316
21	0xbe8feeb8	-0.28111815
22	0xbeaa9346	-0.33315486
23	0xbdaa7e50	-0.083248734
24	0xbe648c20	-0.22319078
25	0xb9833995	-0.0002502917
26	0x3cb98051	0.022644194
27	0xbe220335	-0.15821536
28	0x3d3af0e3	0.045639884
29	0xbdeae6f6	-0.114698336
30	0xbe5e6363	-0.217176
31	0xbe517d6d	-0.20458002
32	0xbeb8775f	-0.36028573
33	0xbf1e254c	-0.6177566
34	0xbe82b9eb	-0.2553247
35	0xbf1ac13a	-0.6045109
36	0xbdd09e7d	-0.10186479
37	0xbe749f53	-0.23888902
38	0xbe039a93	-0.12851934
39	0xbe439339	-0.1909913
40	0xbceb09e5	-0.028691242
41	0xbe8dc11c	-0.27686393
42	0xbc8ebf0e	-0.017425086
43	0x3dd9a744	0.106276065
44	0xbd538f68	-0.051650435
45	0xbe119cd8	-0.14219987
46	0xbeb9396b	-0.3617662
47	0xbe907c8c	-0.28220022
48	0xbe8bef68	-0.2733109
49	0x3e360607	0.17775737
50	0xbe928fa1	-0.28625205
51	0xbe882741	-0.26592448
52	0xbac3d115	-0.0014939631
53	0xbd156913	-0.03647716
54	0xbe63c97d	-0.2224483
55	0x3d48b731	0.04900283
56	0xbe0a0f72	-0.13482454
57	0xbec5fa5b	-0.3866757
58	0x3ce66dc6	0.028128516
59	0x3dcaad87	0.09896379
60	0xbe33faf2	-0.17576197
61	0xbf037e79	-0.51364857
62	0xbf160837	-0.58606285
63	0xbe4f6772	-0.20254305
64	0xbe3938e4	-0.18088108
65	0xbecc2f27	-0.39879724
66	0xbe6e5bbe	-0.23277184
67	0x3c6a550f	0.014302506
68	0xbef42f35	-0.47692266
69	0xbe81eb8c	-0.2537502
70	0xbdaeedaf	-0.08541428
71	0xbdbe166a	-0.09281619
72	0x3e24dc06	0.16099557
73	0x3cbd0503	0.023073679
74	0x3de0417c	0.1094999
75	0x3de34478	0.11097044
76	0x3d044ed8	0.032301754
77	0xbe0b6766	-0.13613662
78	0x3d75c4a0	0.06000197
79	0xbe833593	-0.2562681
80	0xbe6ad19d	-0.22931524
81	0x3cbffe62	0.023436729
82	0xbf1afa1a	-0.60537875
83	0xbeaabf6d	-0.3334917
84	0xbd0f565e	-0.034994476
85	0xbe661006	-0.2246705
86	0xbeb9c00a	-0.36279327
87	0xbe4f47b0	-0.2024219
88	0xbebb019b	-0.36524662
89	0xbe201557	-0.1563314
90	0xbe873ce7	-0.26413652
91	0xbccf95ed	-0.025340045
92	0x3d8fd129	0.07022316
93	0xbeaf6320	-0.34255314
94	0xbc42ef62	-0.011897894
95	0x3e2ff317	0.17182575
96	0xbdde5b54	-0.10857263
97	0xbea36f58	-0.31920886
98	0xbe84bc86	-0.25925082
99	0x3db23ac8	0.08702618

bias f4 [10]
0	0x3e5a2a27	0.21305142
1	0x3e2fe73c	0.17178053
2	0x3da2e2a9	0.07953388
3	0xbf1ea8b6	-0.6197618
4	0xbe5eaf5f	-0.21746586
5	0x3dc2cc51	0.095116265
6	0xbe660681	-0.22463419
7	0x3e8657b1	0.26238778
8	0xbf074272	-0.5283576
9	0xbdaf9ec2	-0.085752025
