mcspace/paper/semi_synthetic/base_run/Human/model.pt (torch, 120483 bytes, 34 tensors)

theta_params f4 [30, 36]
0	0xc0a85373	-5.2601867
1	0x3f94712e	1.159704
2	0xc0df7ca1	-6.9839635
3	0xc0861744	-4.19034
4	0xc08e9abe	-4.4563894
5	0xbf175f34	-0.59129643
6	0xbfaeac71	-1.3646375
7	0xc0953ec2	-4.663911
8	0x3eeb4e65	0.45958248
9	0xc0965b7d	-4.698668
10	0x3e44b397	0.19209133
11	0x408c4982	4.383973
12	0x40052a94	2.0807238
13	0x40246df4	2.569211
14	0xc04320da	-3.04888
15	0xbf92878c	-1.1447616
16	0x401d0ead	2.4540207
17	0x4013c968	2.3091679
18	0x40722917	3.783758
19	0xbf05e175	-0.52297145
20	0xc09a8c8a	-4.8296556
21	0x3ee25c4a	0.44211036
22	0xbfc0caef	-1.506193
23	0xc0b43fe1	-5.6327977
24	0x3e6f09d2	0.2334359
25	0x4009a5aa	2.1507363
26	0x40821841	4.0654607
27	0x3e8c2b94	0.27376997
28	0x3fe792bb	1.8091654
29	0xbe1b9186	-0.15192232
30	0x405b8e66	3.4305663
31	0x3f66dbab	0.90178937
32	0xbe3cd5a9	-0.1844088
33	0x3f679153	0.9045612
34	0xc0a7cfe4	-5.2441273
35	0xc096014f	-4.6876597
36	0xc003f814	-2.0620165
37	0x3fca0f1a	1.5785859
38	0xbf192ad5	-0.5983098
39	0x3f74dfcc	0.95653987
40	0xc0201e73	-2.5018585
41	0xbe81da89	-0.25362042
42	0xbfd0bedd	-1.6308247
43	0xbef25574	-0.4733082
44	0x3f1c3f62	0.61034214
45	0xbf675d49	-0.90376717
46	0xbfd0f128	-1.6323595
47	0xbf8162f6	-1.0108325
48	0x3f99cba3	1.201527
49	0x3fe4cfee	1.7875955
50	0xc09f1c9c	-4.9722424
51	0xc0279043	-2.61818
52	0x405ff2d8	3.499197
53	0xbf76bc64	-0.9638121
54	0x3f22dcd3	0.636182
55	0xbe187032	-0.14886549
56	0xc0ba8af0	-5.82946
57	0x3f21b4e7	0.6316666
58	0x3cfcb573	0.03084824
59	0x3f35f829	0.7108179
60	0xbf81c9f8	-1.0139761
61	0x3ffb3ebd	1.9628521
62	0x3fbb1cf2	1.4618208
63	0xbcb8eefe	-0.022574898
64	0x3fa411bc	1.2817912
65	0xc0004840	-2.0044098
66	0xbebdfe51	-0.3710809
67	0xc0430322	-3.0470662
68	0x3f80e231	1.0069028
69	0x3edafdaf	0.4277167
70	0xbfd5dd4c	-1.670816
71	0xbeb259f4	-0.34834254
72	0xbef4057b	-0.4766043
73	0xbca6fe8a	-0.020385046
74	0xbf833a9a	-1.0252259
75	0xbf9f71e3	-1.245663
76	0xc083c809	-4.1181684
77	0xc08ffb71	-4.4994435
78	0xbf0084b8	-0.5020251
79	0xc09a374b	-4.8192496
80	0x3ce8beff	0.028411387
81	0xc019b370	-2.401577
82	0xbeec021d	-0.46095362
83	0x3f958875	1.1682268
84	0x3f5a3e50	0.8525133
85	0x3e5dfaa7	0.21677648
86	0xc0900bfc	-4.501463
87	0xc086ea82	-4.2161264
88	0x3fac12f2	1.3443282
89	0xc09a4e52	-4.8220606
90	0xc071f4f1	-3.780575
91	0x401dda00	2.4664307
92	0xc08ba7c1	-4.364228
93	0x3f86b6c7	1.0524529
94	0x408f5ca3	4.480058
95	0x3f4eb832	0.8074981
96	0xbfce5537	-1.6119756
97	0x3f6fc3a5	0.93657905
98	0xc0b76570	-5.7311325
99	0xbd942d96	-0.07235257
100	0x3f0e2a06	0.5553287
101	0xc0912fb8	-4.537075
102	0xbeda2a25	-0.4261028
103	0xc06821e2	-3.627068
104	0xc0c9381b	-6.288099
105	0xc070f66a	-3.76504
106	0x3fbfe367	1.4991273
107	0xc0ab7a6e	-5.358695
108	0xbe037c3c	-0.1284036
109	0x3e75f365	0.24018629
110	0xc0d55a27	-6.667255
111	0xbcc3a27b	-0.023881188
112	0xc0370490	-2.8596535
113	0x3fe0e01f	1.7568396
114	0xc06a02a6	-3.6564116
115	0xc0c4b815	-6.147471
116	0xbcc6034a	-0.02417149
117	0xc0c66258	-6.199505
118	0x3ffe5ff2	1.987303
119	0xc09f7c27	-4.9839053
120	0x40940c47	4.6264987
121	0x3efb200d	0.4904789
122	0xc04433d3	-3.065663
123	0xc09679de	-4.7023764
124	0x404ca4d0	3.1975594
125	0xc09f0528	-4.9693794
126	0xbd8de7bc	-0.069289654
127	0x3fe673dc	1.8004107
128	0xc0bcdaca	-5.9017076
129	0xbf775039	-0.96606785
130	0xbe9c973e	-0.3058414
131	0x404ad0c2	3.1689916
132	0xbf6bd4d0	-0.921216
133	0x3f574aae	0.8409833
134	0xc067d900	-3.6226196
135	0x40255358	2.583212
136	0xbde4e349	-0.11176164
137	0xc0a0e3e8	-5.0278206
138	0xc08ed318	-4.4632683
139	0xbff27fe8	-1.8945284
140	0x3faa1984	1.3289037
141	0xc08b8b8c	-4.3607845
142	0xc08cf7be	-4.405242
143	0xbf33b416	-0.70196664
144	0x3f5f0f9d	0.871332
145	0x403f08e5	2.9849179
146	0xbf8dbbcb	-1.1072935
147	0xc010bf86	-2.2616897
148	0xc0aa2df2	-5.3181086
149	0xbfb4a553	-1.4112953
150	0xbc0cc77d	-0.008592484
151	0xc094991a	-4.643689
152	0xbea96fc1	-0.33093074
153	0x3f12987d	0.5726393
154	0x3f7d10c0	0.98853683
155	0xc0a45a9e	-5.1360617
156	0x3f1aba82	0.6044084
157	0x3fbaea4b	1.460275
158	0x3edebc57	0.43503067
159	0x4001ae0c	2.026248
160	0x406ddba4	3.7165308
161	0x3fa9f0e0	1.3276634
162	0x3d6dc449	0.05804852
163	0x3f8bad88	1.0912333
164	0xc08db6c6	-4.428561
165	0xbe80bd00	-0.25144196
166	0xc08df0f3	-4.4356627
167	0x3f015a41	0.5052834
168	0xbd95dfc3	-0.0731807
169	0x3fe897b5	1.8171297
170	0x3f982594	1.1886468
171	0x402a84a5	2.664346
172	0xbfaad3cd	-1.3345886
173	0xc0873f8e	-4.226508
174	0xc0669460	-3.602806
175	0x40631c97	3.54862
176	0xbcc842f0	-0.02444598
177	0xbf91430c	-1.1348586
178	0xc0875c5c	-4.2300243
179	0xbf8a38a8	-1.079854
180	0xc01c81a8	-2.4454136
181	0x4082ab46	4.0834074
182	0xbf4a105c	-0.7893121
183	0xbfe5a7e4	-1.7941861
184	0xc0a7194c	-5.221838
185	0xbeb41b7c	-0.3517722
186	0xbeebef9e	-0.4608125
187	0xbf8accb7	-1.0843724
188	0x3f02eaa4	0.51139283
189	0xbe2b605f	-0.16735981
190	0xbe2db959	-0.16965236
191	0xbfd3a06c	-1.6533332
192	0x3f92e2c6	1.1475456
193	0xbf9752ff	-1.1822203
194	0xbf30cf1b	-0.6906602
195	0xbec8052c	-0.39066446
196	0x3fe22b42	1.7669451
197	0xbf05e4bd	-0.5230215
198	0x3f652d59	0.8952232
199	0xbed50f57	-0.41613266
200	0xc09e5d06	-4.9488554
201	0xbfdb25da	-1.7120926
202	0xbf3f95ac	-0.74837756
203	0x3d525778	0.051352948
204	0xbf5d18df	-0.86366075
205	0x3e6c836f	0.23097013
206	0xbd38ea12	-0.0451451
207	0x3fa39f61	1.2783014
208	0x3f5ace29	0.85470825
209	0xc0450720	-3.0785599
210	0xbf78127a	-0.96903193
211	0xbfa4be9a	-1.2870667
212	0xbef7ff48	-0.48436952
213	0x3cb116f7	0.021617396
214	0xbfd3c7e4	-1.6545377
215	0xbf3ee5ac	-0.745692
216	0xc0c8e3da	-6.277814
217	0x40329019	2.790045
218	0xbea3d5a0	-0.3199892
219	0xc0a455a6	-5.135455
220	0xbf318cf9	-0.6935573
221	0xbe7b35d0	-0.24532247
222	0x3edd3467	0.43204042
223	0xc080200a	-4.003911
224	0x4010d64c	2.2630796
225	0x3fba3d37	1.4549931
226	0xc02a3296	-2.6593375
227	0x400e5f8e	2.2245822
228	0x40567097	3.350622
229	0x4013c58c	2.3089323
230	0xc08811b9	-4.2521634
231	0x405d09c5	3.4537213
232	0x40320103	2.7813118
233	0xc075ec73	-3.8425567
234	0xbf009503	-0.50227374
235	0x3ed6c68f	0.41948363
236	0xc070415e	-3.7539897
237	0x3f3db14c	0.7409866
238	0xbf590905	-0.8477939
239	0xbf4422de	-0.76615703
240	0xc018d9ef	-2.3883016
241	0x3f9f9da2	1.2469981
242	0x3f7b2f4c	0.98119044
243	0x3ed5205b	0.41626248
244	0x3fce28ba	1.6106179
245	0xbf8350c3	-1.0259022
246	0x3fae65c7	1.362481
247	0xbf43f67d	-0.76547986
248	0x40480d31	3.1258051
249	0x3fe571e8	1.7925386
250	0x3f54c5e3	0.8311445
251	0xbdd5a5a5	-0.10431985
252	0x3dbb59b7	0.09147971
253	0x3ceac1fd	0.028656954
254	0x40abf80e	5.37403
255	0xc0ac7d8f	-5.390327

q_gamma_params f4 [29]
0	0x40746f7e	3.819305
1	0xc08e5cd1	-4.44883
2	0xc0921ab7	-4.565761
3	0xc09077aa	-4.5146074
4	0x404ac080	3.1679993
5	0xbf24cfeb	-0.6437976
6	0xc08de77e	-4.4345083
7	0xc0afa9bb	-5.489469
8	0xc06224ae	-3.5334888
9	0x3d9bc6b4	0.07606259
10	0xbfd33011	-1.6499044
11	0x4059fdf6	3.4061255
12	0xc0a40600	-5.1257324
13	0xc00ee1e9	-2.2325385
14	0xc03e7abe	-2.9762416
15	0xc09de099	-4.9336667
16	0x4040099e	3.000587
17	0xbfae6f47	-1.3627709
18	0xc0686dda	-3.6317048
19	0xbe05515a	-0.13019314
20	0x40120c45	2.2819989
21	0xbf960044	-1.1718831
22	0x4004d746	2.0756392
23	0xc04db165	-3.2139523
24	0x402bd97c	2.6851492
25	0xbfeb40aa	-1.8379109
26	0xc08f8d49	-4.4859967
27	0xc052e629	-3.2952979
28	0xc0afec08	-5.4975624

q_probs f4 [29]
0	0x3f7a80ef	0.9785299
1	0x3c3d71f4	0.011562813
2	0x3c28c40a	0.010300646
3	0x3c318720	0.010835439
4	0x3f75a935	0.95961314
5	0x3eb06508	0.3445208
6	0x3c4004a7	0.011719859
7	0x3b86dc3f	0.004115611
8	0x3ce88255	0.02838246
9	0x3f04cdc9	0.51876503
10	0x3e251f5b	0.16125242
11	0x3f77c768	0.96788645
12	0x3bc195c6	0.005907747
13	0x3dc682e8	0.09692937
14	0x3d46bd5c	0.04852043
15	0x3bea636b	0.007152965
16	0x3f73ddff	0.95260614
17	0x3e50cdc5	0.20390995
18	0x3cd36484	0.025804766
19	0x3eef6a27	0.46760675
20	0x3f684b0a	0.907395
21	0x3e725743	0.236661
22	0x3f6376b0	0.8885298
23	0x3d1e6420	0.038669705
24	0x3f6fa807	0.93615764
25	0x3e0ca234	0.1373375
26	0x3c369284	0.0111433305
27	0x3d12619c	0.03573762
28	0x3b85c292	0.0040820325

gamma f4 [30]
0	0x3f800000	1.0
1	0x3f800000	1.0
2	0x00000000	0.0
3	0x00000000	0.0
4	0x00000000	0.0
5	0x3f800000	1.0
6	0x3f800000	1.0
7	0x00000000	0.0
8	0x00000000	0.0
9	0x00000000	0.0
10	0x3f800000	1.0
11	0x00000000	0.0
12	0x00000000	0.0
13	0x00000000	0.0
14	0x00000000	0.0
15	0x00000000	0.0
16	0x00000000	0.0
17	0x3f800000	1.0
18	0x3f800000	1.0
19	0x00000000	0.0
20	0x00000000	0.0
21	0x3f800000	1.0
22	0x00000000	0.0
23	0x3f800000	1.0
24	0x00000000	0.0
25	0x3f800000	1.0
26	0x3f800000	1.0
27	0x00000000	0.0
28	0x00000000	0.0
29	0x00000000	0.0

KL_gamma_k f4 [29]
0	0x4940a901	789136.06
1	0x4611b31b	9324.776
2	0x4601cba0	8306.906
3	0x460888c1	8738.188
4	0x493cef89	773880.56
5	0x4887a9cd	277838.4
6	0x4613adb4	9451.426
7	0x454f702c	3319.0107
8	0x46b2d1db	22888.928
9	0x48cc46b8	418357.75
10	0x47fdfcd9	130041.695
11	0x493e9089	780552.56
12	0x4594e22b	4764.271
13	0x4798ac39	78168.445
14	0x4718d925	39129.145
15	0x45b443c5	5768.471
16	0x493b8e5c	768229.75
17	0x482096b5	164442.83
18	0x46a2944e	20810.152
19	0x48b821a4	377101.12
20	0x4932a790	731769.0
21	0x483a61ba	190854.9
22	0x492ef0b2	716555.1
23	0x46f3a21a	31185.05
24	0x4938514d	754964.8
25	0x47d851c4	110755.53
26	0x460c69f2	8986.486
27	0x46e128f4	28820.477
28	0x454dbee8	3291.9316

weight f4 [50, 36]
0	0x3e523858	0.20529306
1	0xbe0ec116	-0.13940844
2	0x3d10aba9	0.035319958
3	0x3dba898e	0.09108268
4	0x3e026cc3	0.12736802
5	0x3b855dda	0.004070026
6	0x3e72d467	0.23713838
7	0x3ebe09ae	0.3711676
8	0xbe3d2aab	-0.18473308
9	0x3e31a717	0.17348896
10	0x3b5e3fb4	0.0033912482
11	0x3e0a11b9	0.13483323
12	0xbe94c6c5	-0.290579
13	0xbe8d402f	-0.2758803
14	0x3e194a98	0.14969862
15	0x3d78496e	0.060616903
16	0xbe244c4e	-0.16044733
17	0x3ea841d4	0.32862723
18	0xbe42b7df	-0.19015454
19	0x3cc97129	0.024590092
20	0x3e970d60	0.29502392
21	0xbbe5f70f	-0.007017977
22	0x3d6ed6ae	0.058310203
23	0xbdcb971b	-0.099409305
24	0x3e10257d	0.140768
25	0xbe41e304	-0.18934256
26	0xbb990d1c	-0.004670752
27	0xbea0d072	-0.3140903
28	0xbe8e8921	-0.27838996
29	0x3e43b711	0.19112803
30	0x3e1252c9	0.14289393
31	0x3e95a15b	0.29224667
32	0xbe4a436e	-0.19752285
33	0xbe54e2b6	-0.20789608
34	0x3dd86334	0.105657965
35	0xbdf084eb	-0.11744102
36	0x3da80789	0.08204562
37	0xbca24697	-0.01980905
38	0x3e333922	0.17502263
39	0x3e81106e	0.25207847
40	0x3e24921a	0.16071358
41	0x3dbee712	0.09321417
42	0x3e6dd9ca	0.23227611
43	0x3d4ecf85	0.050490875
44	0xbe828032	-0.2548843
45	0x3d101e62	0.035185225
46	0x3d35f1ef	0.04442018
47	0x3e50cab9	0.20389833
48	0xbe51a240	-0.2047205
49	0xbe2e8555	-0.1704305
50	0x3e92943a	0.28628713
51	0x3e152c1e	0.1456761
52	0xbdef30a8	-0.11679202
53	0x3e65d849	0.22445787
54	0xbd506250	-0.050875008
55	0x3d68ef33	0.056868743
56	0x3e6d999e	0.23203132
57	0xbcda90cc	-0.026680373
58	0x3d76f61d	0.060293306
59	0xbe7e8b9a	-0.24857941
60	0x3e5e9ba5	0.21739061
61	0xbde3b3ee	-0.11118303
62	0x3d2e4e28	0.042555004
63	0xbdb852ec	-0.09000191
64	0xbdb15b41	-0.086599834
65	0x3e345d13	0.1761363
66	0x3e2ac33a	0.16676036
67	0x3e3f7478	0.18696773
68	0xbd51e8bc	-0.051247343
69	0xbd611ef9	-0.05496118
70	0x3d83d5c8	0.0643726
71	0xbd566bff	-0.052349087
72	0x3dd735e3	0.10508325
73	0x3e097abc	0.13425726
74	0x3dfd7c25	0.12377194
75	0x3e49bdef	0.1970136
76	0x3d5013a5	0.050799984
77	0xbd749307	-0.05971053
78	0x3dc3bcf0	0.09557521
79	0xbcb5eb46	-0.022206914
80	0xbe4ef02b	-0.20208804
81	0x3e155199	0.14581908
82	0x3e15922e	0.14606544
83	0xbe2a3aa2	-0.16623929
84	0xbad2bde9	-0.0016078326
85	0xbd8b51e3	-0.06802728
86	0x3d0e2bcf	0.034709748
87	0xbd4685c5	-0.048467416
88	0x3bd5b64b	0.006521975
89	0xbceee477	-0.029161675
90	0xbbb31910	-0.005465634
91	0x3e1ac190	0.151129
92	0x3e48d4ae	0.19612381
93	0xbd520f0f	-0.051283892
94	0xbe04a8b2	-0.12954977
95	0xbe814317	-0.25246498
96	0x3ddd0985	0.10792831
97	0xbcfcd47c	-0.03086304
98	0xbddda7e1	-0.10823036
99	0xbe097435	-0.13423236
100	0x3dd0c95e	0.10194658
101	0x3e3ca815	0.18423493
102	0xbd24b9b1	-0.04021615
103	0xbc180f4a	-0.009280989
104	0xbe968eee	-0.29405922
105	0x3c91fe53	0.017821467
106	0xbd72acb5	-0.059246738
107	0x3c730420	0.014832526
108	0x3d9568d2	0.072953835
109	0xbcda3a63	-0.02663917
110	0xbd1b25cf	-0.037877854
111	0x3e2c64a6	0.1683527
112	0xbcefdd1a	-0.029280234
113	0x3d96b464	0.073586255
114	0x3e79cf1e	0.24395415
115	0xbc5e1369	-0.013554432
116	0xbdda2638	-0.10651821
117	0x3cda4f91	0.026649268
118	0x3d3bc76a	0.045844473
119	0x3d9fbec7	0.0780006
120	0x3c2baef6	0.010478726
121	0xbd8d07b1	-0.06886233
122	0x3cc1eeaa	0.023673374
123	0x3d5350a8	0.05159059
124	0xbe830a6d	-0.25593892
125	0x3c7662af	0.015038176
126	0xbe04019c	-0.12891239
127	0x3c9460df	0.018112598
128	0x3d7dbfe9	0.061950598
129	0xbe1f478b	-0.15554635
130	0xbcef1659	-0.02918546
131	0xbdce2fc0	-0.10067701
132	0xbc8db361	-0.017297449
133	0xbe036c44	-0.12834269
134	0xbd102dfc	-0.035200104
135	0xbd5c51e6	-0.053789042
136	0xbdc8f5e2	-0.098125234
137	0x3dd491e1	0.10379387
138	0x3dbe2ad2	0.09285511
139	0x3e23c35b	0.15992491
140	0x3dfc6410	0.12323773
141	0x3bca1bb6	0.006167854
142	0x3e86318e	0.26209682
143	0x3d3ec2a2	0.046572335
144	0x3ceee58b	0.029162189
145	0xbe76a10f	-0.24084876
146	0x3e2e39cd	0.17014237
147	0x3e203ea4	0.15648896
148	0x3d9fb88e	0.07798873
149	0x3c869a88	0.016431108
150	0x3d4c6e10	0.04990965
151	0x3d81a0fa	0.06329532
152	0xbe34b827	-0.17648374
153	0x3e2c818f	0.16846298
154	0x3d7e8699	0.06214008
155	0x3c1bc120	0.009506494
156	0xbd657cd3	-0.056027245
157	0xbe88610f	-0.2663655
158	0x3e1c55a4	0.15267044
159	0x3c2f6c5f	0.01070699
160	0xbe5a3f24	-0.21313149
161	0x3e2c2462	0.16810754
162	0xbe1de5eb	-0.15419738
163	0xbd229a33	-0.039697837
164	0x3e318b9b	0.17338412
165	0xbdb92e5e	-0.09042047
166	0xbca4a2d2	-0.02009717
167	0xbddfcaa2	-0.10927321
168	0x3c4b1f06	0.012397533
169	0xbe31aa3c	-0.17350096
170	0xbd656e9b	-0.056013685
171	0xbe5e946b	-0.21736304
172	0xbd128528	-0.03577152
173	0x3e847cef	0.25876567
174	0x3cefe881	0.029285671
175	0x3e6b37af	0.2297046
176	0xbe15f13c	-0.14642805
177	0xbe5a4a2c	-0.21317357
178	0x3e9dd780	0.30828476
179	0xbd4ffef0	-0.050780237
180	0x3e45623e	0.19275758
181	0xbe59825b	-0.21241133
182	0x3e353015	0.17694123
183	0x3e68b422	0.22724965
184	0x3e5d0a6e	0.2158601
185	0x3c9b1986	0.018933069
186	0x3e387464	0.1801315
187	0x3e3c9c4c	0.18418998
188	0xbe899b84	-0.26876462
189	0x3e1bc398	0.15211332
190	0xbb27f0a2	-0.0025625606
191	0x3e4ec223	0.20191245
192	0xbe6f1c77	-0.23350702
193	0xbe14301e	-0.1447148
194	0x3db206c6	0.08692698
195	0x3bd8cdf4	0.0066163484
196	0xbe92f811	-0.28704885
197	0x3e8b4c8e	0.27206844
198	0xbdfa3728	-0.122175515
199	0x3b2bad9d	0.002619601
200	0x3e62d077	0.22149836
201	0xbc89de5d	-0.016829664
202	0xbc842867	-0.016132547
203	0xbe716d8c	-0.23576945
204	0x3d862afa	0.06551166
205	0xbd831b69	-0.064017124
206	0xbd2832ce	-0.041064076
207	0xbd684f02	-0.056715973
208	0xbdfa8cdf	-0.122339
209	0x3e6cdf76	0.23132119
210	0x3e39d2b5	0.18146785
211	0x3dd901ec	0.1059607
212	0xbdf93746	-0.12168746
213	0xbe2d03a1	-0.16895916
214	0x3e48f1e8	0.1962353
215	0xbd015d2f	-0.031583007
216	0xbcc91340	-0.024545312
217	0xbe34df73	-0.17663364
218	0x3e1c5b5f	0.1526923
219	0xbcce0c6c	-0.025152408
220	0x3d914fc1	0.0709529
221	0x3d9c3567	0.07627373
222	0x3e437f48	0.19091523
223	0x3e09489b	0.13406603
224	0xbe5cb61f	-0.21553849
225	0x3dfa7462	0.122292295
226	0xbd521a36	-0.051294528
227	0x3d06f33a	0.032946803
228	0xbdf5c3de	-0.12000249
229	0xbde88b1c	-0.11354658
230	0x3ded4395	0.11585156
231	0x3ddb6490	0.1071254
232	0xbdb471f9	-0.08810801
233	0x3e8b0811	0.27154592
234	0x3c9b511f	0.01895958
235	0xbbd3b205	-0.0064604306
236	0x3e4b00cf	0.19824527
237	0xbe064206	-0.13111123
238	0xbcfc9ec6	-0.030837428
239	0xbd81b43f	-0.06333207
240	0x3dddf10c	0.10836992
241	0x3cae54eb	0.021280726
242	0xbda92e26	-0.08260755
243	0xbdafaf8d	-0.085784055
244	0xbcb9674a	-0.02263226
245	0xbd15116f	-0.03639358
246	0x3e4b48a3	0.19851927
247	0xbd517786	-0.051139377
248	0xbd753971	-0.059869234
249	0xbdf63ed1	-0.120237
250	0x3cc1a5d5	0.023638645
251	0x3d087c88	0.033321887
252	0x3e4e1cc1	0.20128156
253	0xbdb88ee8	-0.09011632
254	0xbd632573	-0.055455636
255	0x3bbc8da1	0.005754188

bias f4 [50]
0	0xbe7e36ed	-0.2482564
1	0xbe70c9c1	-0.23514463
2	0xbe74600e	-0.23864767
3	0xbe123fa4	-0.1428209
4	0xbeb76142	-0.3581639
5	0xbe394c0f	-0.1809542
6	0xbe88c210	-0.26710558
7	0xbe59c834	-0.21267778
8	0xbe97078c	-0.29497945
9	0xbe27b6c5	-0.16378315
10	0xbea7eac3	-0.32796296
11	0x3da0d97d	0.078539826
12	0x3d0da06d	0.034576822
13	0xbdd20f52	-0.10256828
14	0xbe806e39	-0.25084093
15	0xbe2f67a2	-0.17129377
16	0xbdcc8893	-0.09986987
17	0xbe1c4a7a	-0.15262786
18	0x3cd80f6e	0.026374545
19	0xbea5769e	-0.3231706
20	0xbe48a820	-0.19595385
21	0xbe5cdffc	-0.21569818
22	0xbe2f5403	-0.17121892
23	0xbea417ff	-0.32049558
24	0xbeb2e8f9	-0.3494337
25	0xbe2a7d54	-0.16649371
26	0xbe5c64be	-0.21522805
27	0xbd4f52fb	-0.050616246
28	0xbebfbb4e	-0.3744759
29	0xbe1b7221	-0.15180255
30	0xbe405162	-0.18781045
31	0xbec66659	-0.3874996
32	0xbe89391d	-0.26801386
33	0xbe6c0521	-0.23048832
34	0xbdc9db80	-0.098563194
35	0xbec5c7e5	-0.3862907
36	0xbdeb1698	-0.11478919
37	0xbdc57c31	-0.09642828
38	0xbe4c447e	-0.19948003
39	0x3c59dbc0	0.013297021
40	0xbe42d360	-0.19025946
41	0xbe6a92b9	-0.22907533
42	0xbceac7d5	-0.02865974
43	0xbdf3d191	-0.11905206
44	0xbe9dd293	-0.30824718
45	0xbebd5715	-0.369805
46	0xbe4dd3a6	-0.20100269
47	0xbe838c51	-0.2569299
48	0x3c1d2a3a	0.009592587
49	0xbe0d1af2	-0.1377981

weight f4 [50, 50]
0	0x3d162cc9	0.036663804
1	0x3ccfec86	0.025381338
2	0x3dc28a06	0.09498982
3	0x3d668d71	0.056287233
4	0x3d770e62	0.06031645
5	0x3d43426d	0.04767077
6	0x3db0c4b7	0.086312704
7	0x3db14288	0.08655268
8	0x3d611976	0.054955922
9	0x3d9630de	0.073335394
10	0x3b510dbf	0.0031899062
11	0x3df9abc2	0.12190963
12	0x3ddb517c	0.10708901
13	0x3dd8d3be	0.105872616
14	0xbc49bd20	-0.012313157
15	0xbd25a930	-0.040444553
16	0x3d6a2098	0.05715999
17	0x3d801a6e	0.06255041
18	0x3da2c5fd	0.079479195
19	0x3d8aebd6	0.067832634
20	0x3dbf76e1	0.09348846
21	0x3c58ce4b	0.013232778
22	0x3d11b004	0.035568252
23	0x3d70f300	0.058825493
24	0x3d8fd472	0.070229426
25	0x3d42f399	0.047595594
26	0x3c17271d	0.009225634
27	0xbc4a199a	-0.012335205
28	0x3b99b9e2	0.0046913484
29	0x3c855892	0.016277585
30	0x3df22dd8	0.1182515
31	0xbd9a083b	-0.07521101
32	0x3ca4fb4d	0.02013936
33	0xbd86e1ff	-0.06586074
34	0x3dc83706	0.0977612
35	0xbd4109ff	-0.047128674
36	0x3d5d2be1	0.053996924
37	0xbd28c60c	-0.041204497
38	0x3c6a0697	0.014283798
39	0x3d2d20af	0.042267498
40	0x3d711356	0.05885633
41	0x3de19439	0.11014599
42	0x3df025d6	0.11725967
43	0x3d52893d	0.051400412
44	0xbd0607ce	-0.032722287
45	0x3bf169dc	0.0073673557
46	0xbb7b15c8	-0.0038312543
47	0xbc7ac694	-0.015306134
48	0x3dc86edc	0.0978677
49	0x3da4d51e	0.080484614
50	0xbdb21258	-0.08694905
51	0xbe042a62	-0.12906793
52	0xbeacc0da	-0.33740884
53	0xbe76ea07	-0.24112712
54	0xbe10ec2a	-0.1415259
55	0xbe724771	-0.23660065
56	0xbe6596b3	-0.22420768
57	0xbe83b127	-0.25721094
58	0xbe9c8d80	-0.30576706
59	0xbd0fbcdd	-0.035092223
60	0xbe298c74	-0.16557485
61	0xbf035e7b	-0.5131604
62	0xbe9169b1	-0.2840095
63	0xbe872619	-0.26396254
64	0xbdc262ff	-0.09491538
65	0x3c2ba7e7	0.010477043
66	0xbe0e6e27	-0.13909207
67	0xbe438338	-0.19093025
68	0xbebd1ede	-0.36937612
69	0xbdafd5aa	-0.08585675
70	0xbe8f3932	-0.27973324
71	0xbe7d2be4	-0.24723774
72	0xbe321faf	-0.17394899
73	0xbc834c5e	-0.016027626
74	0xbe5e8a03	-0.21732335
75	0xbddaf82b	-0.106918655
76	0xbdf46de1	-0.1193502
77	0xbe01f006	-0.12689218
78	0xbe0d4205	-0.13794716
79	0xbe26b09e	-0.16278312
80	0xbefb251e	-0.49051756
81	0xbe8dfbea	-0.27731258
82	0xbe391255	-0.180734
83	0xbdbfb155	-0.09359995
84	0xbe04e0b0	-0.12976336
85	0xbdf689ea	-0.12038024
86	0xbdd5a23b	-0.10431334
87	0xbd743dfd	-0.05962943
88	0xbe9d6b5c	-0.3074597
89	0xbec62351	-0.3869882
90	0xbedc92cd	-0.4308075
91	0xbe4e2f55	-0.20135243
92	0xbef98106	-0.4873125
93	0xbe8e29ce	-0.2776627
94	0xbe3d0bc0	-0.18461514
95	0xbda14f66	-0.07876472
96	0xbe0a5581	-0.1350918
97	0x3c4d888e	0.012544764
98	0xbd6b8e94	-0.05750902
99	0xbee76db5	-0.45200887
100	0xbe1868de	-0.14883754
101	0xbe180d48	-0.14848816
102	0xbe231cd8	-0.15928972
103	0xbe90c8a1	-0.28278068
104	0xbe671459	-0.22566356
105	0xbe84d28b	-0.25941882
106	0xbdeabe52	-0.11462082
107	0xbe946a0a	-0.2898715
108	0xbe6ee2ac	-0.23328656
109	0xbd0ba983	-0.034097206
110	0xbc80fed7	-0.015746517
111	0xbed04c0c	-0.4068302
112	0xbefac673	-0.4897953
113	0xbd9797d1	-0.074020036
114	0xbe44bd7a	-0.19212905
115	0xbe447b40	-0.19187641
116	0xbe7c9e28	-0.24669707
117	0xbe9846e1	-0.29741576
118	0xbf08b613	-0.53402823
119	0xbe8ca37f	-0.27468488
120	0xbec35d5e	-0.3815717
121	0xbe473111	-0.19452311
122	0xbdda7fd5	-0.10668913
123	0xbe6c7bf8	-0.23094165
124	0xbe712d49	-0.23552431
125	0xbe879ecc	-0.2648834
126	0xbd3e1c3e	-0.046413653
127	0xbd3f3528	-0.046681553
128	0xbe2502c2	-0.16114333
129	0xbe6d4fd9	-0.2317499
130	0xbefac635	-0.48979345
131	0xbe7b1721	-0.24520542
132	0xbe1c2f35	-0.15252383
133	0xbe056650	-0.1302731
134	0xbe0a1033	-0.13482742
135	0xbe127d5b	-0.14305632
136	0xbdbb8607	-0.09156423
137	0xbe6e7352	-0.23286179
138	0xbe1f49de	-0.15555522
139	0xbe10340b	-0.14082353
140	0xbef092d7	-0.4698703
141	0xbe922cd2	-0.2854982
142	0xbe9ed1e9	-0.31019524
143	0xbe832245	-0.25612083
144	0xbe6be6dc	-0.23037285
145	0xbd356f7f	-0.044295784
146	0xbe268bc4	-0.16264254
147	0xbdd95e2c	-0.10613665
148	0xbe68e301	-0.22742845
149	0xbe75c901	-0.24002458
150	0xbd7425df	-0.05960643
151	0xbe07ba4b	-0.13254659
152	0xbe7230e2	-0.2365146
153	0xbe12df1a	-0.14342919
154	0xbd9f0434	-0.077644736
155	0xbe5b2216	-0.21399722
156	0xbe5d9359	-0.2163824
157	0xbe2ceae5	-0.1688648
158	0xbe7a2af7	-0.24430452
159	0x3b84a347	0.0040477845
160	0xbe728f26	-0.2368742
161	0xbe9a1530	-0.3009429
162	0xbee3c656	-0.44487256
163	0xbe185bee	-0.14878818
164	0xbd1cd611	-0.038290087
165	0xbde5c512	-0.11219229
166	0xbe218ce3	-0.157764
167	0xbe02e95e	-0.12784335
168	0xbefec9d9	-0.49763373
169	0xbe8c0164	-0.2734481
170	0xbeaf555a	-0.34244806
171	0xbe74f701	-0.2392235
172	0xbe1777f5	-0.14791854
173	0xbe3d9ab8	-0.18516052
174	0xbe50aee4	-0.20379215
175	0xbe54169b	-0.20711748
176	0xbabb22a1	-0.0014277288
177	0xbe5f546e	-0.21809551
178	0xbe363102	-0.17792132
179	0xbd648180	-0.055787563
180	0xbec285b7	-0.3799264
181	0xbc94eb28	-0.018178537
182	0xbe8183f5	-0.25295988
183	0xbe201c37	-0.15635763
184	0xbe744325	-0.23853739
185	0xbd6ce437	-0.05783483
186	0xbdcc24b7	-0.0996794
187	0xbe3fa0f3	-0.18713741
188	0xbdc82c5f	-0.09774088
189	0xbe851175	-0.2598988
190	0xbea91d1d	-0.33030024
191	0xbe4b1992	-0.19833973
192	0xbe8b72b3	-0.27235946
193	0xbdaed5ce	-0.08536874
194	0xbda044ad	-0.07825599
195	0xbdca7b4a	-0.09886797
196	0xbd99efb1	-0.07516421
197	0xbe33d36c	-0.1756112
198	0xbe79a983	-0.2438107
199	0xbeb99a98	-0.36250758
200	0xbe7b090d	-0.24515171
201	0xbdb7c93d	-0.0897393
202	0xbe55d5bf	-0.20882319
203	0xbe6778a6	-0.22604617
204	0xbe40c875	-0.18826468
205	0xbe1f136d	-0.15534754
206	0xbdbc44a7	-0.09192782
207	0xbdbabe78	-0.0911836
208	0xbe8dfa9d	-0.27730265
209	0xbdcf02e6	-0.10107975
210	0xbdd27709	-0.102766104
211	0xbe977711	-0.29583028
212	0xbeaaad15	-0.33335176
213	0xbe19e3c0	-0.15028286
214	0xbde3b819	-0.11119098
215	0xbc22cacb	-0.009936045
216	0xbe9919a7	-0.29902384
217	0xbe6a5312	-0.22883251
218	0xbede8832	-0.43463284
219	0xbe6345b0	-0.22194552
220	0xbe26a665	-0.16274412
221	0xbd8ef7ea	-0.069808796
222	0xbe85d081	-0.26135638
223	0xbd2330a3	-0.039841305
224	0xbd906428	-0.07050353
225	0xbe8447a4	-0.25835907
226	0xbde571b8	-0.11203331
227	0xbe5de933	-0.2167099
228	0xbdfb680f	-0.12275707
229	0xbe524448	-0.2053386
230	0xbeafb94d	-0.3432106
231	0xbe82d88b	-0.25555834
232	0xbe955a29	-0.2917035
233	0xbd53ebe3	-0.05173863
234	0xbe3f78c8	-0.18698418
235	0xbe0da3a9	-0.13831963
236	0xbe67ec65	-0.22648771
237	0xbcbe9145	-0.02326263
238	0xbe89335f	-0.26797006
239	0xbe98d78c	-0.2985195
240	0xbec2ce5f	-0.38048074
241	0xbe9300ab	-0.28711447
242	0xbe738d19	-0.23784293
243	0xbea7a385	-0.32741943
244	0xbe1babd9	-0.15202273
245	0xbe35746a	-0.1772019
246	0xbdea43b5	-0.11438695
247	0xbddf6751	-0.10908378
248	0xbe850a61	-0.2598448
249	0xbe29e994	-0.16593009
250	0xbe959e43	-0.29222307
251	0xbe1a8e9b	-0.15093462
252	0xbe8be6ed	-0.2732462
253	0xbe87adeb	-0.26499876
254	0xbd8b1f3a	-0.06793065
255	0xbd29b844	-0.041435495

bias f4 [50]
0	0xbd696e91	-0.05699021
1	0xbea73f82	-0.3266564
2	0xbeeb4c3f	-0.4595661
3	0xbeabfb03	-0.33589944
4	0xbe8312b5	-0.2560021
5	0xbeae3090	-0.34021425
6	0xbeef7b38	-0.46773696
7	0xbeb388b7	-0.35065243
8	0xbef82942	-0.48468977
9	0xbed8233d	-0.42214385
10	0xbec16e59	-0.377795
11	0xbed157d1	-0.4088731
12	0xbe8b54c3	-0.27213106
13	0xbeafd92a	-0.3434537
14	0xbe73026c	-0.23731393
15	0xbedc93fb	-0.4308165
16	0xbec913c1	-0.39272884
17	0xbe9e01ea	-0.30860835
18	0xbeae7baf	-0.34078738
19	0xbedad6a3	-0.4274188
20	0xbf01aa36	-0.50650346
21	0xbe68245f	-0.22670124
22	0xbe079e48	-0.13243973
23	0xbeff0667	-0.49809572
24	0xbec1eff3	-0.3787838
25	0xbf02d884	-0.51111627
26	0xbed9ce06	-0.42539996
27	0xbe842d8d	-0.25816002
28	0xbe7260ee	-0.23669788
29	0xbeb07279	-0.34462336
30	0xbe97811e	-0.29590696
31	0xbe9378d0	-0.2880311
32	0xbeadcb05	-0.33943954
33	0xbedc46a7	-0.43022653
34	0xbeafe1ea	-0.34352046
35	0xbec4100e	-0.382935
36	0xbee15174	-0.44007456
37	0xbeb2ac08	-0.34896874
38	0xbe8ae2ff	-0.2712631
39	0xbee05026	-0.43811148
40	0xbeb0ebd9	-0.34554937
41	0xbebacb13	-0.36483058
42	0xbec0ede3	-0.37681493
43	0xbea46956	-0.32111615
44	0xbe29c2e8	-0.16578257
45	0xbeb65584	-0.35612118
46	0xbeb3da67	-0.35127565
47	0xbefc4cf1	-0.49277452
48	0xbeef0296	-0.4668166
49	0xbedb150f	-0.42789504

weight f4 [30, 50]
0	0xbddf2a1d	-0.10896704
1	0xbdc1f7b5	-0.094710745
2	0x3d0c34ce	0.034230046
3	0xbc4be784	-0.012445334
4	0x3d461804	0.048362747
5	0x3db10d7c	0.0864515
6	0xbd980c39	-0.07424206
7	0xbdbb5f39	-0.09149022
8	0xbce864b4	-0.028368331
9	0xbe00f202	-0.12592319
10	0x3c8c4473	0.017122483
11	0xbd3b8d3c	-0.04578899
12	0xbe085527	-0.13313733
13	0xbdffe0ec	-0.12494072
14	0xbe0032d7	-0.12519394
15	0x3c08d034	0.008350421
16	0x3cda1227	0.026619984
17	0x3d678f57	0.056533184
18	0xbd8188bc	-0.06324908
19	0xbdb9da17	-0.090748005
20	0xbdc2c89d	-0.0951092
21	0xbe0918f7	-0.1338843
22	0xbd84ef94	-0.064910084
23	0xbe1b5fc4	-0.1517325
24	0x3c942ea3	0.018088644
25	0xbe0f30c3	-0.13983445
26	0xbdc97031	-0.09835852
27	0x3c86e607	0.016467107
28	0xbe0b1e4e	-0.13585779
29	0x3c789821	0.015172989
30	0x3d3302e4	0.04370393
31	0x3d8a9ed6	0.06768577
32	0x3cceb47d	0.025232548
33	0xbdaa9750	-0.08329642
34	0x3d5d11be	0.053972
35	0xbd40425f	-0.046938296
36	0xbd6e7901	-0.058220867
37	0xbd6cc598	-0.057805628
38	0xbd558c32	-0.052135654
39	0x3cedab4f	0.02901235
40	0xba0a13ef	-0.00052672526
41	0x3d12f7a0	0.035880685
42	0xbca4971b	-0.020091584
43	0xbd14a46a	-0.03628961
44	0xbc4b7d6f	-0.012420042
45	0xbc6fde73	-0.014640438
46	0xbe1f1c1f	-0.15538071
47	0xbd2f5d96	-0.04281386
48	0xbdb4082f	-0.087906234
49	0xbdaf970a	-0.0857373
50	0x3e5ec1de	0.21753642
51	0xbc18769b	-0.0093056215
52	0x3acb6791	0.0015518536
53	0xbc8b3f86	-0.016998064
54	0x3d1d30a2	0.038376458
55	0x3da6e854	0.08149782
56	0xbc04ff40	-0.008117497
57	0x3cae9c4c	0.021314763
58	0xbd423f96	-0.04742392
59	0x3df23a46	0.11827521
60	0x3dc85a45	0.097828425
61	0x3dcdf856	0.10057132
62	0x3ce341c2	0.027741317
63	0xbd3d205c	-0.04617344
64	0x3d0da688	0.034582645
65	0x3d88f1fc	0.0668678
66	0x3d90ef11	0.07076848
67	0xbcad85dc	-0.021181993
68	0x3ddc1a98	0.1074726
69	0x3db320d6	0.08746497
70	0x3d09b851	0.033623043
71	0xbca94a4a	-0.020665307
72	0x3dcefaa4	0.101064
73	0x3c9e4217	0.019318623
74	0x3e11ce5a	0.14238873
75	0xbdd00913	-0.10157981
76	0x3da033b1	0.07822359
77	0x3d6566c4	0.056006208
78	0x3d9e2fbc	0.07723948
79	0x3de7c152	0.1131617
80	0xba1eb0e8	-0.0006053583
81	0xbdaeb55f	-0.085306875
82	0xbdbf0cae	-0.0932859
83	0x3c989bb5	0.018628934
84	0xbca89347	-0.02057804
85	0x3db5f42f	0.08884465
86	0x3d1a1bcd	0.03762417
87	0x3d6ef627	0.058340218
88	0x3e15b985	0.14621551
89	0xbd69a42f	-0.057041343
90	0x3d9f366b	0.07774051
91	0x3b90b7ba	0.004416433
92	0x3e04dec9	0.12975611
93	0x3d90ece1	0.07076431
94	0x3de84aa3	0.11342361
95	0x3d2d61f5	0.042329747
96	0x3d124c00	0.03571701
97	0x3d92ff7f	0.07177638
98	0x3d8c96bc	0.06864688
99	0x3bcdd0e4	0.006281005
100	0xbb69936b	-0.0035640846
101	0xbd37008c	-0.044678256
102	0x3d9c2337	0.07623904
103	0x3cab7e5e	0.02093428
104	0x3c49156f	0.012273177
105	0xbe282c93	-0.16423254
106	0x3db63432	0.08896674
107	0x3972e81a	0.00023165383
108	0x3bf58e96	0.007493804
109	0xbb824300	-0.003975272
110	0x3d249eae	0.04019039
111	0x3d84fb38	0.06493229
112	0xbd502078	-0.050812215
113	0xbe094aeb	-0.13407485
114	0x3d939466	0.07206039
115	0xbda281ef	-0.07934939
116	0xbddfe8a7	-0.10933047
117	0x3d04b752	0.03240139
118	0x3c683f50	0.014175251
119	0xbc838216	-0.01605324
120	0xbd0467c3	-0.032325517
121	0xbdb71177	-0.08938878
122	0x3c050617	0.008119128
123	0x3cbed282	0.023293737
124	0x3cbb195d	0.022839243
125	0x3d25c03b	0.04046653
126	0xbdb90547	-0.0903421
127	0xbcdf50eb	-0.027260264
128	0xbe19f709	-0.15035643
129	0xbb96caab	-0.0046017966
130	0xbe280fb5	-0.16412242
131	0xbe200fb0	-0.15630984
132	0xbe31789c	-0.17331165
133	0xbbbf78b5	-0.005843247
134	0xbc96e649	-0.018420355
135	0xbd106396	-0.035251223
136	0xbc59bd5d	-0.013289777
137	0xbdd336da	-0.103131965
138	0xbdbd3ae1	-0.09239746
139	0xbdfee768	-0.12446481
140	0xbdb12a4e	-0.08650647
141	0xbdf2d019	-0.11856098
142	0xbcf94243	-0.030427104
143	0x3d7f6ddd	0.062360633
144	0xbdf855e9	-0.12125761
145	0x3c50a5ac	0.012734812
146	0xbdeafb21	-0.1147368
147	0xbdad8c16	-0.08473985
148	0xbcc2e3e1	-0.023790302
149	0xbd6ddf76	-0.058074437
150	0x3cddffde	0.027099546
151	0xbb237729	-0.002494285
152	0xbd317ce5	-0.043332
153	0xbd32eb97	-0.043681707
154	0x3c7406a1	0.014894159
155	0xbdb52671	-0.08845223
156	0xbdd79a73	-0.10527506
157	0xbd69848f	-0.057011183
158	0xbcc9c5e6	-0.024630498
159	0xbda7441a	-0.08167286
160	0xbd972d94	-0.0738174
161	0x3d835dc0	0.06414366
162	0x3ddb6436	0.10712473
163	0xbcdc50dc	-0.026894026
164	0xbdd94496	-0.10608785
165	0xbd3e8a32	-0.046518512
166	0x3cb7a1ac	0.022415958
167	0x3d1ec884	0.038765445
168	0xbcd4cc21	-0.025976242
169	0xbdd93206	-0.10605244
170	0xbcf95b4e	-0.030439045
171	0xbd827a1d	-0.063709475
172	0x3d59ca6c	0.05317156
173	0xbd9ccc40	-0.07656145
174	0x3d46dda8	0.04855123
175	0x3cff077b	0.031131497
176	0xbcd637c9	-0.026149647
177	0xbe0d2060	-0.13781881
178	0x3dfe37ef	0.12413012
179	0xbcc9a20f	-0.024613408
180	0x3d793301	0.060839657
181	0xbd913856	-0.07090823
182	0xbe108ac9	-0.14115442
183	0xbdfee2d8	-0.12445611
184	0xbd05ac9a	-0.03263531
185	0xbd91ad8e	-0.07113181
186	0x3c4e2471	0.0125819305
187	0x3dc9afee	0.09848009
188	0xbdeef898	-0.11668509
189	0x3d71971e	0.058982007
190	0x3dbaa450	0.09113371
191	0x3becda20	0.007228151
192	0xbd7c00e6	-0.061524294
193	0x3c2d482e	0.010576291
194	0x3c372c80	0.011180043
195	0x3d3343ef	0.04376596
196	0xbcc4652a	-0.02397402
197	0xbd4b0a87	-0.049570587
198	0xbd884bac	-0.06655058
199	0xbdf42ba8	-0.11922389
200	0xbcf6c81f	-0.030124722
201	0xbdd3083d	-0.10304306
202	0xbdb0648a	-0.08612926
203	0xbb9bdf34	-0.0047568325
204	0x3d9aea3c	0.07564208
205	0x3df12e28	0.11776382
206	0xbdc1d25e	-0.094639525
207	0x3df33a36	0.11876337
208	0x3d8f0500	0.069833755
209	0x3dadbfe1	0.084838636
210	0xbb90efd6	-0.004423122
211	0x3da8ee7f	0.082486145
212	0x3d2a6983	0.04160453
213	0xbdb48e82	-0.08816244
214	0xbda67382	-0.081275
215	0xbd00935c	-0.031390533
216	0xbdf21312	-0.118200436
217	0xbd8d7b9d	-0.06908343
218	0x3dacc9b3	0.084369086
219	0x3d8d5d8c	0.06902608
220	0x3decf674	0.11570445
221	0xbd5aa9bb	-0.053384524
222	0xbdf7be3c	-0.12096831
223	0x3dc35cc9	0.09539182
224	0xbd18680f	-0.037208613
225	0x3b1aca7d	0.0023619228
226	0xbd8dbaaf	-0.06920373
227	0x3d15650c	0.03647332
228	0xbda86718	-0.082227886
229	0xbc3f9a40	-0.011694491
230	0x3dadd24e	0.08487378
231	0x3cec92d9	0.028878616
232	0x3dc8e9d8	0.09810227
233	0x3c98a49d	0.018633181
234	0xbd8a1b2b	-0.06743463
235	0xbe2caf24	-0.16863686
236	0xbcb03acd	-0.021512413
237	0x3d44ca8b	0.048044723
238	0xbe041a42	-0.12900642
239	0x3c9bca45	0.019017348
240	0x3d83ab8b	0.064292036
241	0x3d3494d0	0.04408723
242	0x3da4d11b	0.08047696
243	0x3cdb17e9	0.0267448
244	0xbba9d5e0	-0.0051829666
245	0xbd37a26f	-0.044832643
246	0xbd089e4a	-0.03335408
247	0xbdb1fa27	-0.08690291
248	0x3dac3bd5	0.084098496
249	0x3d734ca4	0.059399262
250	0x3e18d476	0.14924797
251	0x3d62fa26	0.05541434
252	0x3c811450	0.015756756
253	0xbd5e741c	-0.05430995
254	0x3ce2678a	0.027637262
255	0xbcb3fd16	-0.021971267

bias f4 [30]
0	0xbe6e51f3	-0.23273449
1	0x3ea4a36b	0.32155928
2	0x3d00ecfc	0.031476006
3	0xbe3aafc8	-0.18231118
4	0xbe0d4269	-0.13794865
5	0x3e9931e0	0.29920864
6	0xbdd41c53	-0.10356965
7	0xbd5ee934	-0.05442162
8	0xbc728319	-0.014801764
9	0xbe27ac5e	-0.16374347
10	0xbe0ceb84	-0.13761717
11	0xbda77743	-0.08177044
12	0x3e763460	0.24043417
13	0xbccc2185	-0.024918327
14	0xbe119036	-0.14215168
15	0xbe65c970	-0.22440124
16	0xbe0547d6	-0.13015684
17	0x3e63b652	0.22237518
18	0xbac859b0	-0.0015285518
19	0x3cff4c78	0.031164393
20	0x3c29f380	0.010372996
21	0x3d2535d4	0.040334538
22	0xbd94e5ea	-0.07270415
23	0xbb1f01f6	-0.0024262643
24	0xbdc70420	-0.09717584
25	0x3da8c5c2	0.08240844
26	0xbd8f44dc	-0.06995556
27	0x3da59bad	0.080863334
28	0xbda48482	-0.08033086
29	0xbd172681	-0.036901955

weight f4 [30, 50]
0	0xbf34687b	-0.70471925
1	0xbdc20dad	-0.09475265
2	0xbe7d4cbc	-0.24736303
3	0xbdd2be61	-0.10290218
4	0xbe526169	-0.20544972
5	0xbe51daef	-0.20493673
6	0xbe220e8a	-0.15825859
7	0xbdac32fe	-0.084081635
8	0xbe6686bb	-0.22512333
9	0xbe18c384	-0.14918333
10	0xbe2a05d1	-0.16603781
11	0xbeb0ef47	-0.34557554
12	0xbd800c8d	-0.06252394
13	0xbe98efff	-0.29870602
14	0xbe90907a	-0.28235227
15	0xbe423078	-0.18963802
16	0xbe9ef559	-0.3104656
17	0xbeade6b1	-0.33965066
18	0xbdaabcc8	-0.083367884
19	0xbe8df7bd	-0.27728072
20	0xbe0283e4	-0.12745625
21	0xbeb04237	-0.34425518
22	0xbedf8f15	-0.4366385
23	0xbeaa30fe	-0.33240503
24	0xbea2cd86	-0.31797427
25	0xbe058a21	-0.13040973
26	0xbde08dbe	-0.10964535
27	0xbe8a87d4	-0.27056754
28	0xbe83710f	-0.25672194
29	0xbf025eb7	-0.50925773
30	0xbe313323	-0.17304663
31	0xbe5ed5f4	-0.21761304
32	0xbe82b001	-0.25524905
33	0xbea58fbe	-0.3233623
34	0xbe716c34	-0.23576432
35	0xbf27ee94	-0.65598416
36	0xbeacf4bf	-0.33780476
37	0xbe83ab4b	-0.25716624
38	0xbf05ac8a	-0.522164
39	0xbdb21655	-0.08695666
40	0xbdf9e4c7	-0.12201839
41	0xbe914801	-0.28375247
42	0xbe429791	-0.1900313
43	0xbe47d93c	-0.19516462
44	0xbed94fb6	-0.42443627
45	0xbea8f7e6	-0.33001631
46	0xbebb01cc	-0.36524808
47	0xbe603672	-0.21895769
48	0xbe7344a2	-0.2375665
49	0xbeac8e45	-0.33702293
50	0xbf90627c	-1.1280055
51	0xbe16bf92	-0.14721516
52	0xbe6593f1	-0.22419716
53	0xbe936b8d	-0.28792992
54	0xbeae754b	-0.34073862
55	0xbe5ba0c6	-0.21448049
56	0xbea9a88e	-0.3313641
57	0xbea8cf18	-0.329705
58	0xbe572c8a	-0.21013084
59	0xbea94889	-0.33063152
60	0xbf01c14b	-0.50685567
61	0xbf07bec9	-0.5302549
62	0xbe533a79	-0.20627774
63	0xbe6e6d9b	-0.23283999
64	0xbe76d5cd	-0.24104996
65	0xbe9cecaa	-0.3064931
66	0xbef49c1e	-0.47775358
67	0xbedd5b21	-0.43233588
68	0xbe9bab89	-0.30404308
69	0xbeaca3cf	-0.33718726
70	0xbe48418d	-0.19556256
71	0xbecd1973	-0.4005848
72	0xbf32cc72	-0.6984321
73	0xbea8b85d	-0.32953158
74	0xbed07cf6	-0.40720338
75	0xbe873361	-0.26406386
76	0xbe2fc05a	-0.1716322
77	0xbe81b43d	-0.25332823
78	0xbf0ec6fc	-0.55772376
79	0xbf0ce3d2	-0.55035126
80	0xbe94c91e	-0.2905969
81	0xbe1a1e2d	-0.15050574
82	0xbed12162	-0.40845782
83	0xbec93b9b	-0.39303288
84	0xbed7bd92	-0.42136818
85	0xbf4dfe5c	-0.80466247
86	0xbef786f7	-0.48345158
87	0xbf0a7d7b	-0.5409772
88	0xbf4c1990	-0.79726505
89	0xbe42785d	-0.18991227
90	0xbeb39449	-0.3507407
91	0xbec1097b	-0.37702546
92	0xbecfa7fc	-0.4055785
93	0xbef36dd6	-0.47544736
94	0xbedfb8eb	-0.4369577
95	0xbeb687e9	-0.35650566
96	0xbe92c098	-0.28662562
97	0xbe8d84d6	-0.27640408
98	0xbe9adcaa	-0.30246478
99	0xbeb58186	-0.3545038
100	0x3d8491fa	0.06473155
101	0xbe259f31	-0.16174008
102	0xbe0c411d	-0.13696714
103	0x3d226f96	0.039657198
104	0xbd978800	-0.07398987
105	0x3d89bccd	0.06725464
106	0xbc987960	-0.018612564
107	0xbcb8455c	-0.02249401
108	0x3a9eaa4d	0.0012105197
109	0x3bf82131	0.007572316
110	0xbc0e8209	-0.008697995
111	0xbe78652e	-0.24257347
112	0xbc95a954	-0.018269219
113	0xbe0b6928	-0.13614333
114	0xbd93cad8	-0.07216424
115	0x3aa1b3b4	0.0012336881
116	0xbdd8ede3	-0.10592248
117	0x3c3d1752	0.0115412045
118	0x3cda8382	0.026674036
119	0xbcae2e28	-0.021262243
120	0xbe2da0bb	-0.16955845
121	0xbdbccf46	-0.09219222
122	0x3c862a64	0.016377635
123	0xbd5c8386	-0.053836368
124	0x3c09ba88	0.008406289
125	0xbd9e9600	-0.07743454
126	0xbe0ca95d	-0.13736482
127	0xbc0de0ef	-0.008659585
128	0xbd3b817c	-0.045777783
129	0xbc70d53b	-0.014699276
130	0xbe17c2d2	-0.14820412
131	0xbe14f849	-0.14547838
132	0x3d7fdb80	0.06246519
133	0xbd6a7ddf	-0.057248946
134	0x3d6e6a22	0.058206685
135	0xbe2e581d	-0.170258
136	0xbe1084b2	-0.14113119
137	0xbe081229	-0.13288178
138	0xbe0daa8d	-0.13834591
139	0x3c87d32b	0.016580185
140	0x3cd52f9b	0.026023677
141	0x3d3a36b3	0.04546232
142	0xbd489b0b	-0.048975985
143	0xbe446837	-0.1918038
144	0xbdb994ca	-0.090615824
145	0xbd017a8e	-0.031611018
146	0xbda76b82	-0.08174802
147	0x3c26862e	0.010163827
148	0xbe01fc65	-0.12693937
149	0xbc0937f0	-0.008375153
150	0x3d02016f	0.03173965
151	0x3dc14d70	0.09438598
152	0x3a8c7312	0.0010715446
153	0xbe0df62d	-0.1386344
154	0xbd7f1f9a	-0.062285997
155	0xbdeaac6c	-0.11458668
156	0x3ca6b110	0.020348102
157	0xbd627244	-0.055284753
158	0xbcedf1b3	-0.029045915
159	0xbc58c316	-0.013230106
160	0xbdd446aa	-0.103650406
161	0xbd9f4b60	-0.077780485
162	0xbdb7404a	-0.08947809
163	0xbbd30f42	-0.006441028
164	0xbe12c4b3	-0.14332847
165	0xbd11d061	-0.035599116
166	0x3d058c38	0.032604426
167	0xbc44248b	-0.011971603
168	0xbe05c352	-0.1306279
169	0x3da590b0	0.080842376
170	0xbde62ec2	-0.11239387
171	0x3d5b5c72	0.05355496
172	0xbd913bc3	-0.07091477
173	0x3d8aa215	0.06769196
174	0xbbeb9b77	-0.0071901637
175	0xbd697235	-0.056993682
176	0x3d1030d7	0.035202827
177	0x3d06a7f6	0.032875024
178	0xbe40570a	-0.18783203
179	0xbcc7d596	-0.024393838
180	0x3cc6f431	0.024286361
181	0xbd804f5b	-0.06265136
182	0x3cd96758	0.026538536
183	0x3cc8ff06	0.024535667
184	0xbdfac759	-0.12245054
185	0x3d30e442	0.043186434
186	0xbe23043a	-0.15919581
187	0x3d173a28	0.036920696
188	0xbdcb790d	-0.09935198
189	0xbde44466	-0.111458585
190	0xbd3dd894	-0.046349123
191	0xbe363638	-0.1779412
192	0xbce6fbdf	-0.028196273
193	0xbdc9aabe	-0.098470196
194	0xbc66897a	-0.014070863
195	0xbd968956	-0.073504135
196	0xbe2ee702	-0.1708031
197	0xbdb3d5f9	-0.087810464
198	0xbd4c29d6	-0.049844585
199	0x3d280e40	0.041029215
200	0xbdf1b583	-0.11802199
201	0xbe0a0494	-0.13478309
202	0xbc816da1	-0.015799345
203	0xbe016ca0	-0.12639093
204	0xbdc91106	-0.098177
205	0xbe495f70	-0.19665313
206	0xbdbbb245	-0.091648616
207	0xbe24821a	-0.16065255
208	0xbd95167b	-0.072796784
209	0x3d2089fa	0.039194085
210	0x3ba75ecb	0.0051077357
211	0xbe2fe1a1	-0.17175914
212	0x3d6193f1	0.05507273
213	0xbe1457f5	-0.14486678
214	0xbdf15b95	-0.11785046
215	0xbb52f693	-0.0032190427
216	0x3cc8aaa8	0.024495438
217	0x3cbbcbe3	0.02292437
218	0xbddb081f	-0.10694908
219	0xbe1c7305	-0.15278251
220	0xbe24c145	-0.16089351
221	0xbd9700e2	-0.07373215
222	0xbe5c2842	-0.21499732
223	0xbde2984c	-0.110642046
224	0xba3fb43d	-0.00073129294
225	0xbdbbc8b4	-0.091691405
226	0xbc322713	-0.010873574
227	0xbe1e1110	-0.15436196
228	0x3bfaa5da	0.0076491656
229	0x3d0821f6	0.033235513
230	0xbd28a969	-0.041177187
231	0xbd215df1	-0.03939623
232	0xbdf87a1a	-0.12132664
233	0xbe17dd6e	-0.14830562
234	0x3cd84ccc	0.026403807
235	0xbe0a5227	-0.13507901
236	0xbd613c8f	-0.054989394
237	0xbe3ebef2	-0.18627527
238	0xbd498c8f	-0.049206313
239	0xbe412e30	-0.18865275
240	0xbd070bde	-0.0329703
241	0xbd828d6b	-0.063746296
242	0xbe19977d	-0.14999194
243	0xbdaaf7bc	-0.08348033
244	0xbd882507	-0.066476874
245	0xbe00cc03	-0.12577824
246	0xbd7cb924	-0.0617
247	0xbca5fd12	-0.020262275
248	0xbde2bb50	-0.11070883
249	0xbc9686ee	-0.018374886
250	0xbf93c322	-1.1543925
251	0x3d1c82f0	0.03821081
252	0xbe65a244	-0.2242518
253	0xbdca3842	-0.098740116
254	0xbec22f65	-0.37926784
255	0xbe81daf5	-0.25362363

bias f4 [30]
0	0xbf6719fe	-0.90274036
1	0xbf87309d	-1.0561711
2	0xbd9f62e4	-0.07782534
3	0xbe42683c	-0.18985075
4	0xbe103361	-0.140821
5	0xbf816882	-1.0110018
6	0xbf2e225d	-0.68021184
7	0xbde6d302	-0.11270715
8	0x3e30559d	0.17220159
9	0xbe412928	-0.18863356
10	0xbf5042f9	-0.8135219
11	0xbe82993a	-0.25507528
12	0xbf9baac3	-1.2161487
13	0x3e146962	0.14493325
14	0xbe904f1b	-0.28185353
15	0xbe833c4d	-0.25631943
16	0xbdee07d2	-0.11622585
17	0xbf78d85c	-0.9720514
18	0xbecae52a	-0.39627963
19	0xbe1c6001	-0.15270998
20	0xbf33e273	-0.7026741
21	0xbf6dd978	-0.92909956
22	0xbf1acf0f	-0.60472196
23	0xbf88e10d	-1.069368
24	0xbcd590a0	-0.02606994
25	0xbf895c52	-1.0731299
26	0xbee0a8dc	-0.4387883
27	0x3cf2780e	0.029598262
28	0xbd871fb7	-0.06597846
29	0x3c86b5eb	0.016444167

eps f4 [30, 1, 1]
0	0x3c1b06e7	0.009462095
1	0xbd43db8e	-0.047816806
2	0x3e16c786	0.1472455
3	0xbda55115	-0.08072106
4	0x3f03536f	0.51299185
5	0x3e4ee841	0.20205785
6	0xbf6f68fe	-0.9351958
7	0x3d3002c4	0.042971388
8	0x3fd97e06	1.6991584
9	0xbf9a28ee	-1.2043741
10	0xbfb61917	-1.4226407
11	0x3ec33748	0.38128114
12	0x3f0b05ca	0.5430571
13	0xbf09a83a	-0.5377232
14	0x3f4064fd	0.75154096
15	0x3fa088f2	1.2541792
16	0x3fbd2b76	1.4778888
17	0xbe360bcd	-0.17777939
18	0x3f2ba74d	0.67052156
19	0xbee6e151	-0.45093778
20	0x3e29d21b	0.16584055
21	0xbe4c64e4	-0.19960362
22	0xbf0433fa	-0.5164181
23	0xbec6ea23	-0.38850507
24	0xbf5a42fe	-0.8525847
25	0x3e97db03	0.2965928
26	0x3fb63e20	1.4237709
27	0xc000ac30	-2.0105095
28	0x3f82112f	1.0161494
29	0xc01e1a41	-2.4703524

exp_avg f4 [30, 36]
0	0x3f4573db	0.77129906
1	0xbcd73732	-0.026271436
2	0x3e0ce52b	0.13759296
3	0x400fe3e5	2.2482846
4	0x3fdc8e27	1.7230881
5	0xbe517812	-0.2045596
6	0xbe6d116e	-0.2315118
7	0x3fb338eb	1.4001745
8	0xbe03ff01	-0.12890245
9	0x3fad19a0	1.3523445
10	0xbc0cc768	-0.008592464
11	0xc0016c5c	-2.0222387
12	0xbd48f50e	-0.049061827
13	0xbf801529	-1.0006458
14	0x40e148d5	7.0401406
15	0xbffb4074	-1.9629045
16	0xbf44c9ce	-0.7687043
17	0xbeee629f	-0.46559617
18	0xc083e41a	-4.1215944
19	0xbfb71754	-1.4303994
20	0x3f97d92d	1.1863152
21	0xbe3779f0	-0.17917609
22	0xbe581d9f	-0.2110505
23	0x3f080819	0.53137356
24	0xbeea2f8a	-0.45739394
25	0xbe86ef91	-0.2635465
26	0xbfe469ff	-1.7844847
27	0xbf4873d0	-0.78301716
28	0xbeb6f8fd	-0.35736838
29	0xbdc7d22c	-0.09756884
30	0xbf326a2d	-0.6969326
31	0xbdb34497	-0.08753317
32	0xbe1c8f27	-0.15288983
33	0xbd9ea05c	-0.0774543
34	0x3f48a62d	0.78378564
35	0x3eca00ac	0.39453638
36	0xbe2287c4	-0.15872103
37	0xbe50c424	-0.20387322
38	0xbef45c87	-0.47726843
39	0xbe8e6bde	-0.2781667
40	0xbedd2947	-0.43195555
41	0xbe8a243a	-0.26980764
42	0xc01ad25e	-2.4190898
43	0xbefeb2a6	-0.49745673
44	0xbe336fae	-0.17523071
45	0xbf87278b	-1.0558943
46	0xbba50d08	-0.005036954
47	0xbd88f44d	-0.06687222
48	0xbeb5ae67	-0.3548462
49	0xbf2ae347	-0.6675305
50	0x415e4446	13.891668
51	0xbebfdffb	-0.3747557
52	0xc0c7ddad	-6.24581
53	0xbe01bd3f	-0.12669848
54	0xbd7fb187	-0.062425163
55	0xbeb85a5b	-0.36006436
56	0x409d7299	4.920239
57	0xbd1a70a5	-0.037705082
58	0xbd0efcd4	-0.034909084
59	0xbdbb7f4f	-0.091551416
60	0xbeb12745	-0.34600273
61	0xbf8d5dc4	-1.104424
62	0xbf3ea459	-0.74469525
63	0xbd01ca9e	-0.03168737
64	0xbe0ebd41	-0.13939382
65	0xbdedafad	-0.11605773
66	0xbf47a2ce	-0.77982795
67	0xbdd4157f	-0.103556626
68	0xbe2f1108	-0.1709634
69	0xbd3eac64	-0.046551123
70	0xbf3721d3	-0.71535987
71	0xbe03bfd2	-0.12866142
72	0xbea5682f	-0.32306048
73	0xbe375f1e	-0.17907378
74	0xbff2d023	-1.8969768
75	0xbd3c4da4	-0.04597248
76	0x40aae69e	5.3406515
77	0x402a0737	2.6566904
78	0xbfb5405e	-1.4160268
79	0x3fd4ccb1	1.6624967
80	0xbe40899a	-0.18802491
81	0xc0192f36	-2.3935065
82	0xbe009090	-0.12555146
83	0xbe8d45af	-0.27592227
84	0xbeeb8863	-0.46002492
85	0xc026d06c	-2.606471
86	0x4068f9e8	3.640253
87	0x40764efb	3.8485706
88	0xc04acbe2	-3.168694
89	0x4029133a	2.6417985
90	0x40ef89f9	7.4855924
91	0xc012794c	-2.2886534
92	0x40859f8b	4.1757255
93	0xbf849fe3	-1.0361294
94	0xc1dde7ff	-27.73828
95	0xbe1c198a	-0.15244117
96	0xbf5acbf9	-0.8546749
97	0xbea60e38	-0.32432723
98	0x3f884140	1.0644913
99	0xbebf75f6	-0.37394685
100	0xbe86ef19	-0.26354292
101	0x4060d34d	3.5128968
102	0xbfeb0965	-1.8362242
103	0x410ba2dc	8.727261
104	0x3f1c1e0e	0.6098336
105	0x40276006	2.6152358
106	0xbfc9def5	-1.5771166
107	0x3fc5ba1c	1.5447421
108	0xbf7cf083	-0.9880449
109	0xbe70b164	-0.23505169
110	0x3e6fbc09	0.23411573
111	0xbe7c9a2d	-0.24668188
112	0x4128b8bf	10.545104
113	0xbedac40e	-0.42727703
114	0x40981d89	4.7536054
115	0x3ec99394	0.39370406
116	0xbe99019a	-0.29884034
117	0x3ebf5b1c	0.37374198
118	0xbfc7c4bd	-1.5606915
119	0x3fa1584d	1.2605072
120	0xc15b3119	-13.699487
121	0xbd399a87	-0.045313384
122	0x41094f59	8.581872
123	0x3f305225	0.6887534
124	0xc0f277e4	-7.577135
125	0x3fa3b04a	1.2788174
126	0xbe386caf	-0.1801021
127	0xbe496d75	-0.19670661
128	0x3f00de16	0.50338876
129	0xbe9c5f93	-0.30541667
130	0xbe20541a	-0.15657082
131	0xbf31649b	-0.69294137
132	0xbddede9d	-0.10882304
133	0xbfc96202	-1.5733035
134	0xbd97c6b2	-0.07410945
135	0xbfd047fe	-1.627197
136	0xbe90970b	-0.28240237
137	0x3e6e010b	0.23242585
138	0x3e17a691	0.14809634
139	0xbee0b75a	-0.43889886
140	0xbf26eb0c	-0.65202403
141	0x3ebfa036	0.3742692
142	0x400fe06c	2.2480726
143	0xbe7fbb44	-0.2497378
144	0xbd8cb83e	-0.06871079
145	0xbf3473c3	-0.7048914
146	0xbebdbb41	-0.37056926
147	0xbea5d8b1	-0.32391885
148	0x3fcb7b16	1.5896938
149	0xbe9e6646	-0.30937403
150	0xbe36a8b9	-0.178378
151	0x4047b45c	3.1203833
152	0xbe952f91	-0.29137853
153	0xbdf8699f	-0.121295206
154	0xbe588f86	-0.211485
155	0x3ff41c02	1.9071047
156	0xbf2a9a67	-0.6664185
157	0xbf43af88	-0.76439714
158	0xbf239238	-0.6389499
159	0xbfafb1fe	-1.3726194
160	0xc07edbfb	-3.9821765
161	0xbe959ca8	-0.29221082
162	0xbe1197cd	-0.14218064
163	0xbef0a721	-0.4700251
164	0x4077a342	3.8693395
165	0xbdfe68c8	-0.12422329
166	0xbe029102	-0.12750629
167	0xbebd7a69	-0.37007454
168	0xbe374948	-0.17899048
169	0xc0032c04	-2.0495615
170	0xbe4a19fa	-0.19736472
171	0xbf5c1dd8	-0.8598304
172	0xbd1ae663	-0.03781737
173	0x406f98c0	3.7436981
174	0xbe259047	-0.16168319
175	0xc003deb2	-2.0604672
176	0xbe5512b9	-0.20807923
177	0xbe89086d	-0.2676424
178	0x406e88c9	3.7270987
179	0xbecfc4b9	-0.40579775
180	0xbe92fb4a	-0.28707343
181	0xc1ac3318	-21.524948
182	0xbe89c0f5	-0.26905027
183	0xc011f590	-2.280613
184	0x4100c857	8.048911
185	0xc02368d7	-2.553274
186	0xbea3e61e	-0.32011503
187	0xbfb1c75b	-1.3888963
188	0xbf011ef6	-0.5043787
189	0xbfa11de6	-1.2587249
190	0xbdffd1d5	-0.12491194
191	0xbf78fb6f	-0.9725866
192	0xbf9980de	-1.1992452
193	0xbe00c695	-0.12575753
194	0xbedc5496	-0.43033284
195	0xbeac8f91	-0.33703282
196	0xc0dead95	-6.958689
197	0xbfe0b36e	-1.7554758
198	0xbf9d6e54	-1.2299294
199	0xbf12d801	-0.57360846
200	0x41293458	10.575279
201	0xbe2c6664	-0.16835934
202	0xbdfc5b4e	-0.123221025
203	0xbf08dc73	-0.5346138
204	0xbf090296	-0.5351957
205	0xbea82780	-0.32842636
206	0xbe20cb8f	-0.15702651
207	0xbef1e448	-0.47244477
208	0xbec34af1	-0.38143113
209	0x421a6c0c	38.605515
210	0xbf89f793	-1.0778679
211	0xbfb2d136	-1.3970096
212	0xbdcd1474	-0.10013667
213	0xc089b52d	-4.303366
214	0xc0552ed8	-3.330984
215	0xbe723b8b	-0.23655526
216	0x3f476bad	0.77898675
217	0xbf312b34	-0.6920655
218	0xbe979490	-0.29605532
219	0x401c40f5	2.4414647
220	0xbf334d4a	-0.7003981
221	0xbd877ecf	-0.06615984
222	0xc0cb63be	-6.3559256
223	0x40f23a44	7.5696125
224	0xbfc3674a	-1.5265896
225	0xbd6a4ac1	-0.057200197
226	0xbd2f12ae	-0.042742424
227	0xbea1834d	-0.31545487
228	0xc0975108	-4.7286415
229	0xbed55812	-0.41668755
230	0x40bcfa1c	5.905531
231	0xbf297aef	-0.66203207
232	0xc047e541	-3.1233675
233	0xbd9f272e	-0.07771145
234	0xbe660bb1	-0.22465397
235	0xbe81299a	-0.25227052
236	0x411b803b	9.718806
237	0xbe74daae	-0.23911545
238	0xbe321451	-0.17390563
239	0xbe0e4dbe	-0.13896844
240	0xbd5280e4	-0.05139245
241	0xbf86394c	-1.0486236
242	0xbe4a8781	-0.19778253
243	0xbe8ab166	-0.2708847
244	0xbebe6129	-0.37183502
245	0xbc1ec42b	-0.009690325
246	0xbe8a8b8e	-0.27059597
247	0xbc0a7c92	-0.008452551
248	0xc0063922	-2.097237
249	0xbe81fb31	-0.25386956
250	0xbfc91b15	-1.571139
251	0xbe354ae0	-0.17704344
252	0xbb5dccdd	-0.0033844032
253	0xbf1b7467	-0.6072449
254	0xc084dc09	-4.1518598
255	0x3ec50eb1	0.3848777
