mcspace/paper/semi_synthetic/base_run/Human/model.pt (torch, 109451 bytes, 29 tensors)

theta_params f4 [25, 36]
00000000: 099d 12c0 3911 05bf 168d 57be 09d0 94c0
00000010: 89ec c2bf b688 b33e 02bc b0be 8e4e d13e
00000020: eb00 e0bf 18ec a2c0 1c71 fe3d 55b0 17c0
00000030: 0563 153f 18a6 623f a2d6 08bf 831a 04be
00000040: ce0e 983f e5f9 93bb ac0c 0740 147a 7c3e
00000050: 31af 0b3f 2957 273f d6e7 b0c0 615c 21c0
00000060: ae3d 0240 61ec 79bf 2e85 9040 d97e 433e
00000070: 6604 203f 55af 6dbd b3b1 2dbf e9e0 4fbe
00000080: 109e ab3e 25ff 4b3e bab3 16c0 6108 49c0
00000090: 1ec7 d3bf 2c94 c5c0 7544 233f 4c2e 92c0
000000a0: 3817 583f bbb2 4c40 8292 1e3f ba57 2b40
000000b0: 5a3b bbbf c80b a1c0 1368 70bf 8923 dcc0
000000c0: 7ffd 1840 2cb8 1640 5f5f 80bf de24 cd3e
000000d0: 7169 8c3f 062c 8c3f 5855 3040 7984 6ec0
000000e0: 11c4 3e3f c25c 3540 9d0f 6bbf 429c 21bd
000000f0: 3753 7b40 6ed3 f0bf 4726 0240 ae1c 7cbf
00000100: d785 a63f 375d 80c0 6186 1fc0 b79a ab3f
00000110: 2c3a 653f 0dd4 6fbf c010 5ac0 dc71 d2bc
00000120: 4eac 94be 3bf2 a1c0 5885 ab3e 424e c2c0
00000130: 7faf 96c0 6377 5f3f 7cec 8b3f 7976 013d
00000140: 6402 97c0 a162 70c0 e191 1fbf 6d3a 86c0
00000150: 8eb5 3440 dda2 3440 b11a 7a3e f485 1740
00000160: 2f55 69bf ea5e ea3f 1681 5f40 1ac1 4940
00000170: bfcc 973f d56e 0740 77b6 7e3f cd13 83be
00000180: f22b 2e40 dfaf c1c0 7085 e03f f4a2 b8bd
00000190: 7396 2540 6f6c e7bf 4a19 81c0 8818 2d40
000001a0: 2c9f 2b3e 3659 a03f e898 dabf d7b6 abc0
000001b0: 0c7e b7bf 5ab0 adc0 aa12 bbc0 4fdf 16bf
000001c0: 3d11 6c40 e4aa 0f40 7b33 45c0 b5d4 ea3e
000001d0: 2ab7 aac0 627d d0c0 24e3 66be 05ed a1c0
000001e0: 59ed 9440 a9c0 bb3f e691 ea3f 610b b53f
000001f0: d68c abbf 7e71 e23f 192f 2340 8c7d 083f
00000200: 1dd5 e73e ff31 d13f e125 b7c0 62ba 55be
00000210: 478c 2540 8cb1 72c0 6d1a c33f ca11 cac0
00000220: 8823 9a3f f710 bbc0 cddb 16bf 65f7 4e3f
00000230: 1736 493f 3fb9 4ebe 86f0 59c0 8fb2 c1c0
00000240: 6a21 90c0 d7a4 78c0 a3ce 49bf 86f7 36c0
00000250: bf7c 9cc0 869d 0e3f aae8 93c0 e002 96c0
00000260: a553 8cc0 bb05 bbc0 f0ad ae3e 54fe 95c0
00000270: d654 0040 2e1f cf3f da12 0ec0 749a 8cbf
00000280: c2ea 08c0 c0c8 9b3f 4471 7c3e 48df d33f
00000290: ab39 e63f 7789 8e3f 5ba2 c0c0 6786 60c0
000002a0: 43e5 0c40 8da4 82c0 a9cb d0bc 41b4 cb3f
000002b0: 9a25 aebf a51b 7ac0 acb1 b5c0 709e 9b40
000002c0: 095d 8c3c ba6c 6abf 6d37 29bf 912a 8ac0
000002d0: aab6 23bf 4f43 10c0 b7ca 8e3f e810 97c0
000002e0: 191e 3abf 9916 0640 df11 cabe b722 af3f
000002f0: cb92 14c0 ec09 99c0 e2d4 a3bf 622e b4be
00000300: 5683 d93f e830 913e cfdc bbc0 0907 c4bf
00000310: 132d 3f3f 5050 993f 8770 0040 d3eb afc0
00000320: 6327 b23f 28f8 0540 2bee 96bf 8b3a 793f
00000330: 2e84 3140 0555 d4bf f4d3 c73e f519 47bf
00000340: 7275 023f 00a0 93bf 925f a0c0 6ace 3dbf
00000350: a630 13bf b3c0 8440 9839 883d 013e cac0
00000360: 9403 99bf 849d 68c0 43f7 99c0 2ff8 a4c0
00000370: 3532 89c0 89a6 2440 aba9 9f40 7d83 ec3e
00000380: 7b32 15be b967 89c0 87f5 e33e d754 32c0
00000390: 0e98 533f 0708 73c0 8559 3cbf c494 a03f
000003a0: c68f 90c0 0f20 e13f 7a7b 703e 6aa1 83c0
000003b0: c1e0 78bd aa32 b73f b9aa a8c0 7465 87c0
000003c0: fe81 c4be 813b 0ec0 01fc 8ebf c82f 95c0
000003d0: 8bc8 19bd 793d e1c0 1863 90c0 d8cd 02be
000003e0: 35bf 4d3e 7ca6 15bf 64d8 50c0 3574 c9c0
000003f0: 465f 80c0 8ff7 00c0 abd8 b740 1946 a3c0
-2.2908347 -0.51979405 -0.21049914 -4.650395 -1.5228435 0.3506524 -0.3451844 0.40880245
-1.750028 -5.09132 0.12423918 -2.3701375 0.58354217 0.8853469 -0.53452504 -0.12900738
1.1879518 -0.0045158737 2.1101484 0.24655944 0.54564196 0.6536737 -5.5283003 -2.5212634
2.0350146 -0.9762631 4.5162573 0.19091357 0.6250671 -0.058028538 -0.6784927 -0.2030064
0.3351903 0.19921549 -2.3547196 -3.1411364 -1.6545141 -6.1743374 0.6377633 -4.5681515
0.8441043 3.1984088 0.61942303 2.6772294 -1.4627488 -5.032688 -0.93908805 -6.879338
2.3904722 2.354991 -1.0029105 0.4006719 1.0969678 1.0950935 2.755209 -3.7268355
0.74517924 2.8337865 -0.918207 -0.03945566 3.926954 -1.8814523 2.0335863 -0.9848126
1.3009595 -4.011379 -2.4925768 1.340659 0.8954189 -0.9368294 -3.4072723 -0.025689058
-0.29037708 -5.060819 0.3350017 -6.072053 -4.708923 0.87291545 1.0931544 0.031607125
-4.719042 -3.7560198 -0.6233197 -4.194632 2.8235812 2.8224404 0.24424244 2.3675508
-0.91145605 1.8310215 3.4922538 3.152411 1.1859359 2.1161397 0.9949717 -0.25601044
2.7214322 -6.0527186 1.7540722 -0.09015456 2.5873077 -1.8079966 -4.034337 2.7046223
0.16759938 1.2527225 -1.7077913 -5.3660693 -1.4335341 -5.4277773 -5.8460283 -0.5893449
3.6885521 2.2448053 -3.081267 0.45865408 -5.334859 -6.5153055 -0.22547585 -5.060183
4.653973 1.466817 1.8325775 1.4144098 -1.3402355 1.7690885 2.5497496 0.5331657
0.4527978 1.6343383 -5.723374 -0.2087188 2.5866868 -3.7920866 1.524244 -6.3146715
1.2042093 -5.845821 -0.5892914 0.80846244 0.7859816 -0.20187853 -3.4053054 -6.0530467
-4.504079 -3.885061 -0.7883093 -2.8588576 -4.890228 0.5570911 -4.6221514 -4.687851
-4.3852105 -5.8444495 0.3411708 -4.687296 2.005178 1.618139 -2.2199006 -1.0984635
-2.1393285 1.2170639 0.24652582 1.6552515 1.7986349 1.1135701 -6.019819 -3.5082033
2.201493 -4.082587 -0.025487738 1.5914384 -1.3605225 -3.9079373 -5.6779385 4.8630905
0.017134206 -0.91572154 -0.661002 -4.317696 -0.639506 -2.2541082 1.1155614 -4.7208138
-0.72702175 2.0951293 -0.3946676 1.3682469 -2.3214595 -4.782461 -1.2799342 -0.35191637
1.6993206 0.28357625 -5.870704 -1.5314647 0.7467815 1.1977634 2.0068681 -5.497537
1.391827 2.0932713 -1.1791433 0.97354954 2.7736926 -1.6588446 0.39028895 -0.7777398
0.5096046 -1.1533203 -5.0116663 -0.7414309 -0.57496107 4.148523 0.0665161 -6.320069
-1.1954217 -3.634614 -4.8114333 -5.155296 -4.287379 2.5726645 4.9894614 0.46194068
-0.14570038 -4.2939115 0.4452326 -2.7864282 0.8265389 -3.797365 -0.73574096 1.25454
-4.5175505 1.7587909 0.23484603 -4.113454 -0.060761217 1.4312336 -5.27084 -4.2311344
-0.38380426 -2.2223818 -1.1170655 -4.6620827 -0.03754477 -7.038754 -4.5120964 -0.12773836
0.20092471 -0.5845716 -3.2632074 -6.2954354 -4.01163 -2.0151098 5.7451987 -5.102307

weight f4 [50, 36]
00000000: 648c 123e 0e5a a13e 27ad dabd 9292 023e
00000010: 6932 203e 010c 30be 10d8 243e 5f28 ee3c
00000020: be32 553e a147 973e 2e05 65be e471 563e
00000030: 61bc a1be 7872 86be 73ba 1f3e 77d5 b4bc
00000040: e79f dbbd 5163 9c3a 723e 97be c9ba 073d
00000050: 83f9 17be 701d 78bd c446 363e 2349 633e
00000060: 2ad8 85be fc99 533e 1354 e1bd f38e 66bd
00000070: a7de 40be b3a7 5a3e e137 293e d57a 9cbd
00000080: a277 ee3c 9c83 123c 3389 bf3d 9e80 c43d
00000090: a40d d43c f78b a83e df17 ccbd b7f8 8e3e
000000a0: 2423 213e 6882 74be 82fa 0d3e fd3d 7ebc
000000b0: 21bd 933d 089a f73d d608 ecbd 2b3c 953e
000000c0: 2b94 5fbe 1313 1fbe 11d3 863e 1570 6a3d
000000d0: 9f2f babc 3700 f5bc 32e8 7fbd f2ed 87bc
000000e0: e5d9 e0bd 6c4f 82be 009f 803d ad02 413d
000000f0: 1a0d ebbd bb07 543e b989 8dbe 8879 5e3c
00000100: d680 4cbd f8e2 403e 230f 3f3e 857b e3bd
00000110: d410 113d 7ecf 353d a044 3c3d 0177 113e
00000120: 9af7 433d 0efd 2f3e e354 cc3d ad41 403e
00000130: 2d70 613c 0e31 2cbe e0a4 6b3c 1acc 28be
00000140: be58 06be 6be5 453e 7d32 cb3d 72ef 09be
00000150: d95c 5a3c e7fd 34bd 0ee1 bfbc a9b5 cdbc
00000160: 8d8c b03d 6a23 61be 5922 793c a70d 2a3d
00000170: 21d8 083e a978 843d afc2 0fbe a81e 1cbe
00000180: 6a8f 5c3d 586e 353d 16ec 25be 175d b4bd
00000190: bf62 1e3e 11d2 243e 428d 50bd 917a 06bd
000001a0: 2236 08be ed1c 833d df3b d3bd e2a8 c7bd
000001b0: ec27 523d 2f3f 293e 8207 f0bc 6339 823e
000001c0: 0dcc da3c 6ce0 5d3c 184b 213e 40c1 243b
000001d0: fc08 dc3d 6239 303e d7b0 09be 2f7e 3d3e
000001e0: 0aea 2fbd cd2e babd 66d6 083d 2f3a 35b9
000001f0: 2883 f5bd 64a4 79bd 8c8e 2fbe 46c3 03bd
00000200: 8f76 22be aceb 5dbe cb25 a83d bea7 c03d
00000210: 1f76 71be 88dd c43d be1b b6bc 9d1a 2c3c
00000220: 5755 b5bd 7741 1e3e 259e 263e b194 dcbc
00000230: 3e65 e73b 8ae9 873d 8011 713e f515 143e
00000240: 774b 18bd 22ac 8e3d 9be3 95bd a485 1f3e
00000250: d98f 4d3d 191b 80be d602 ddbc fca8 d23b
00000260: 1ee0 e73d e056 803e c8e8 8bbd 3f0e 2dbc
00000270: 298e 00bd 9816 71be 6d7a bd3d bdf0 71bc
00000280: f447 01be 8794 9fbd 59b0 8ebe 74dd 84bd
00000290: 8266 12be f6c3 debd ba41 643d 9eae e93d
000002a0: a4b8 94be 2a8b ec3d 5b15 1cbc bdce 23bd
000002b0: 5059 933c 86c5 633e 2ec0 99bb bd78 26bd
000002c0: 4def c63c cb93 4d3c 4ffa 623e a16e a93c
000002d0: af7f eb3d dd13 173e e475 d2bd da8a 733e
000002e0: 0994 573e ab6c f3bd 5ba0 9e3d c48c 9abc
000002f0: 871a 2a3d 03fd 913e 25bb 85bd 7d3c 993e
00000300: 29ef 77be d935 01be 1e1d 5f3d 5774 80bc
00000310: 227f efbd c06f 04bd 8c2b 7cbe 4d65 023d
00000320: f3e8 0abe 5478 1abd 937a 273d 89f2 fa3c
00000330: 9898 8bbe 2e5a 7f3e f90c 72be 0281 15bd
00000340: a5c3 92bd 0ae9 603e d387 2e3e 4471 3ebe
00000350: b381 ee3c 5bbb bbbc 10cc 1d3e 582c 5b3e
00000360: e057 043d c002 063e 9640 a4bd 6dc1 bd3d
00000370: 33bf 323e 22ad 43bd e32e 463e 60eb 9cbc
00000380: b79b 8a3d 5aa0 9e3e 10a4 68be 2c05 303e
00000390: cbe3 62be 3e23 47be cea4 4c3e 7e8c 533d
000003a0: fe2f 8fbd 5aaf 403c c56e cbbd 4154 003d
000003b0: 6d7a f4bd 7ba1 88be e6a4 073e bffe 293e
000003c0: dbaa 25be 1865 933e 1917 84be 1c4a cb3c
000003d0: 7dc6 a1bd 2a33 933d 3ae4 a23e af3f 87be
000003e0: de70 313d 26fd e73c 161d d43d 6f88 7b3e
000003f0: c4db 863e 3628 2c3e 2dc8 dfbd 6873 273e
0.14311367 0.3151402 -0.106775574 0.12751225 0.1564423 -0.17192079 0.16098046 0.029071985
0.20820138 0.29546836 -0.22365257 0.20941883 -0.31589034 -0.26259208 0.15598468 -0.022074444
-0.10723858 0.0011931454 -0.2953983 0.033137117 -0.14841275 -0.06057495 0.17800432 0.22195868
-0.26141483 0.20664209 -0.11002364 -0.05628867 -0.18834935 0.21353035 0.16525222 -0.07640616
0.02910978 0.008942511 0.093523405 0.09594844 0.02588541 0.32919285 -0.099654905 0.2792413
0.15736061 -0.23877871 0.13865092 -0.015517709 0.07213808 0.12089926 -0.11525123 0.29147467
-0.21833865 -0.1553462 0.26332906 0.057235796 -0.022727786 -0.029907329 -0.062477298 -0.016592953
-0.1097906 -0.2545122 0.06280327 0.047121692 -0.11477108 0.20706074 -0.27644137 0.01357878
-0.049927555 0.18836582 0.18658118 -0.11107544 0.03541644 0.044387333 0.045963883 0.14205553
0.047843553 0.17186376 0.09977128 0.18775053 0.013759655 -0.16815588 0.014382571 -0.16484109
-0.1311979 0.19325797 0.09921739 -0.13470247 0.013327801 -0.044187453 -0.023422744 -0.025111036
0.08620558 -0.21986166 0.015205943 0.041516926 0.13363697 0.064683266 -0.1403911 -0.1524607
0.053847708 0.044294685 -0.16203341 -0.08806818 0.15467356 0.16095759 -0.050915964 -0.032831732
-0.133019 0.064020015 -0.10314154 -0.09749009 0.051307604 0.16528009 -0.029300455 0.25434408
0.026708627 0.013542276 0.15751302 0.00251396 0.10743901 0.1720939 -0.13446365 0.18505166
-0.042947806 -0.09090958 0.03340759 -0.0001728318 -0.11987907 -0.06094779 -0.17144221 -0.03216865
-0.15865539 -0.21671933 0.082103334 0.09406994 -0.23580216 0.09612566 -0.022230025 0.010504392
-0.08854168 0.1545466 0.16271265 -0.02692637 0.0070616296 0.06636341 0.23541832 0.14461501
-0.037181344 0.069664255 -0.07318803 0.15578324 0.050186012 -0.25020674 -0.026978891 0.006428836
0.11322044 0.2506628 -0.06831509 -0.010562479 -0.031385574 -0.23543775 0.092518665 -0.014766869
-0.12625104 -0.07792001 -0.27868918 -0.06487551 -0.14296916 -0.1087722 0.055726744 0.11410259
-0.2904712 0.11549981 -0.009526576 -0.039992083 0.017986923 0.22243318 -0.004692099 -0.04064249
0.02428403 0.012547444 0.22165798 0.020682635 0.11498963 0.14753671 -0.10276392 0.23783436
0.21052565 -0.11885961 0.07745429 -0.01886595 0.041529205 0.28513345 -0.065298356 0.2992896
-0.24212326 -0.12618198 0.054471128 -0.015680475 -0.116941705 -0.032333136 -0.24625987 0.03183489
-0.13565426 -0.03771241 0.04088838 0.030633228 -0.27264857 0.24936745 -0.23637761 -0.036499985
-0.071662225 0.21963897 0.17044 -0.18597895 0.02911458 -0.022916486 0.15409875 0.21403635
0.032310367 0.13086987 -0.08020131 0.09265409 0.17455749 -0.047772534 0.19353823 -0.019155204
0.067679815 0.30981714 -0.22718835 0.17189473 -0.22157209 -0.19447038 0.19984743 0.051647656
-0.06991576 0.011760557 -0.09933237 0.03133035 -0.11937413 -0.266857 0.13246498 0.16601084
-0.16178457 0.28788066 -0.25798872 0.024815612 -0.07899187 0.07187493 0.31814748 -0.26415774
0.04332053 0.028318953 0.1035711 0.24563764 0.26339543 0.16812214 -0.109268524 0.16352618

bias f4 [50]
00000000: d740 84be 3b68 76be 1f54 46be 88fc 29be
00000010: cc94 9bbe e653 13be 0a9d b9be 63c6 a3be
00000020: 67f6 1dbe 8f43 aabd 154e 78be 6dfd 0abe
00000030: b07d 15be f0f7 a0bd ee6f 57be ea20 cebd
00000040: 8ccd f63d 8a57 a7bd dc82 30bd c0bc cbbe
00000050: e7d8 86be bb2f 04be 1e7d 0ebe 1b9f a5be
00000060: f1c1 bdbe 6f26 0a3c 3042 61be d133 95bc
00000070: 7a52 e1be e69a 47be cda7 85be b048 e2be
00000080: b005 7bbe 7efc 9dbe 35cf 27bd 707f b2be
00000090: df62 f1bd 1a3c 0e3d 858b b6bd 6d25 25bb
000000a0: d48e b6be c224 9bbe 469b 8cbe b700 16be
000000b0: 795a b3bd e137 bfbe 7316 0bbe f981 89be
000000c0: e8a8 d73c e149 9fbe
-0.2583072 -0.24063198 -0.19368027 -0.1660024 -0.3038696 -0.14387473 -0.36252624 -0.31987295
-0.15426026 -0.08313667 -0.24248536 -0.13573237 -0.14598727 -0.0785979 -0.21038792 -0.100648716
0.12050924 -0.081709936 -0.043093547 -0.39792442 -0.26337358 -0.12908833 -0.13914916 -0.3234795
-0.37062028 0.008432015 -0.21997905 -0.018213185 -0.44008237 -0.19492683 -0.26104584 -0.4419608
-0.24513888 -0.308567 -0.040969092 -0.34862852 -0.11786436 0.034725286 -0.0891333 -0.002519931
-0.35655844 -0.3030148 -0.27462214 -0.1464871 -0.08757491 -0.3734732 -0.13582782 -0.26856974
0.026325658 -0.31111053

weight f4 [50, 50]
00000000: af41 80bd d9f8 3dbe bebb 28be 9e14 2abe
00000010: 9bf2 45bd 0bda 61bd 6603 143b c6d7 33bd
00000020: 526e 7abe a357 8fbc 4cfd 8bbe dfdb d1bb
00000030: 2c17 8f3b 5a89 44bc 8dc2 52be 4562 5ebe
00000040: 3ca9 9cbe 8348 3bbe fe90 15be 9381 82bd
00000050: f3fd 8cbc 8e54 64be 08a8 68be 5f0d 8dbd
00000060: 144b cfbd 89d1 e2be 8e70 d0bd ea5a 97be
00000070: 29dc 25be 2d2d 3bbe e88d cfbd 0952 80be
00000080: 62c2 8abe af9e 71be 5d9f 4ebe 5da2 7bbe
00000090: ebdf aabd b0de a4be 3da2 9cbe 5037 80be
000000a0: eccd bdbd 971f bdbc 875b 53bb f4e5 4abe
000000b0: e680 fbbe d082 2fbe 47de 43be 2fef 0dbe
000000c0: 1c8d 2bbe b755 2fbd abc2 84bd 5cf1 e6bd
000000d0: a657 adbe 1c55 2ebe c9f1 28be 2e5c 61be
000000e0: fa48 17be a5c8 17be d46c c6be 8f53 7bbd
000000f0: 2f68 7abe 13fc 8dbe ad9b 24bd 9bbe 73be
00000100: ca94 ebbd 8eca e6bc 1db9 a9be 0da5 63be
00000110: ab6e 39be 62f0 98bc 086c 4dbe 9a9d 96be
00000120: 58d9 62be 51cc 88bc 1bfd 12be a2a8 91be
00000130: 7348 ffbd 4088 2abe 2baf 03be e907 04be
00000140: 4f5c c6be a6a0 84be 66d7 49be a39e 0dbd
00000150: 92d6 34be a1a7 18be a398 b1bd 16b5 3abe
00000160: 49b8 c5be cab2 acbe 3254 6dbe cefc 1ebe
00000170: e69b 80be 49c1 81be 4f4a cfbe 5f93 9bbd
00000180: 3787 08be 984a 593c af06 e5bd b53b 59be
00000190: b05e cebd a139 a1bd cccf a9bd 5022 21be
000001a0: 072a 4cbe 7d13 4fbe 9f76 ad3b 7510 04be
000001b0: 0500 74be acba 09bd 280a dabc f478 fcbd
000001c0: c16d 59be 9914 9bbb 6714 22be 706b 48be
000001d0: abe8 a8be bfb7 70be 8230 8cbe c863 2cbe
000001e0: dc00 70be a98c 3fbe fc6f c6bd e6cd 49be
000001f0: accf e5bd c71a 9ebe fe4d debc b8c9 5bbc
00000200: f35b ebbd 6ae5 2ebe 3952 96be f06f 37be
00000210: b9f0 d1bd e80c 1abd 67ee ebbd 7e88 febd
00000220: 39cf 0ebd 962d 91be cab2 11be cf93 57bc
00000230: ab17 60be 6aeb 3ebe c656 aabc b60b 2bbe
00000240: 0d0f aabe 4809 afbb 0d9c eabd 555d a1bd
00000250: 9a3e 3fbe 0740 9c3c c47c 1ebd e1df 82bd
00000260: ce4f 03be 3532 28bd c734 88bd 35c5 2bbe
00000270: 68a9 fdbd 53a8 e4bc 534d 57be 33cd 78bc
00000280: 9284 60be ba5d 81bd dd57 53be 93c7 8bbd
00000290: 8b12 97bb 7c1b f5bd 1361 40be a988 51bd
000002a0: a29f 76be 1dcb 45be 6314 66be 7c9f 72be
000002b0: 2d51 15be 3584 21be 2818 8cbd b39f 31be
000002c0: 954d a6bb 0400 21be 472c 13be 77cf 5ebc
000002d0: 8fd5 3cbe 128b e33c 82ff 36be a57c a6bd
000002e0: e7bd 2abe 8d2b 2ebd 73f7 88bd f101 52be
000002f0: 1666 82bd 642a 06be ed0b e7bd aade e4bd
00000300: d9ec 9bbc 3c2a bebc 0d53 eebd eeb6 88bd
00000310: 6c33 d7bc 8987 22be 646e 31be b86c 05be
00000320: 5487 4cbe 3a35 46bd 4529 4ebe 401f 42be
00000330: 7fd3 26be 88da f4bd f970 b23b 536a 8e3c
00000340: c5cf a2be 5844 adbd cf81 ffbd 3429 bdbd
00000350: e0bc 0bbe 3a9b bfbd df9c b4bd 676b 94bb
00000360: e264 cdbe 930b 7cbe 2dc8 8bbe 1d35 34be
00000370: 3042 cebd 6da4 bebd c12f 91be 4c75 54bc
00000380: 39cd d23b 3d9d c0be c90e b4bd ddf6 61be
00000390: 843e a4bd db77 37be 08ee 89be fd64 52be
000003a0: add1 91be 4fe8 c83c c9b0 63be 6868 09be
000003b0: cf2f 43be 2abe b3bd e319 95be c789 66be
000003c0: 48bc 56be a3a5 7cbe c343 66bb f637 8dbe
000003d0: 281f a0be 8e60 18be b2f1 95bd f4b7 70bd
000003e0: a4fb 93be 96f8 c33c 3888 87be 51f6 c5bd
000003f0: c767 5ebe 466b 3bbe 18ba 81bd 8d5f a8bc
-0.06262528 -0.18551959 -0.16477868 -0.16609427 -0.04832707 -0.055139583 0.0022585033 -0.04390695
-0.24456146 -0.017497843 -0.27341688 -0.0064043845 0.004366776 -0.011995638 -0.20582028 -0.21717174
-0.30597866 -0.1828938 -0.14606091 -0.063723706 -0.017210936 -0.2229788 -0.22720349 -0.06887316
-0.10121742 -0.44300488 -0.10177718 -0.2956155 -0.16197266 -0.18278952 -0.10134488 -0.25062588
-0.27101427 -0.23595689 -0.2017798 -0.24573655 -0.0834349 -0.32201147 -0.30592528 -0.250422
-0.09267792 -0.023086352 -0.00322506 -0.19814283 -0.4912178 -0.17139745 -0.19127761 -0.13860773
-0.16753048 -0.042806353 -0.064824425 -0.112765044 -0.33855933 -0.17024654 -0.16498484 -0.2200782
-0.14773932 -0.14822634 -0.38754904 -0.061358985 -0.24453805 -0.2773138 -0.040187526 -0.23803179
-0.11502989 -0.028172757 -0.33149043 -0.2223093 -0.18108623 -0.018669311 -0.20060742 -0.29417115
-0.22153223 -0.016698988 -0.14354365 -0.2844897 -0.124649905 -0.16653538 -0.1285979 -0.12893642
-0.387423 -0.25903815 -0.19711074 -0.034575116 -0.17659977 -0.14907695 -0.08671691 -0.18233141
-0.3861716 -0.33730155 -0.23176649 -0.15526125 -0.2511894 -0.25342777 -0.4048638 -0.07596468
-0.1333283 0.013262413 -0.111829154 -0.21214183 -0.10076654 -0.0787232 -0.08291587 -0.15735745
-0.19937907 -0.20222278 0.0052936818 -0.12896903 -0.23828132 -0.03362529 -0.026616171 -0.123277575
-0.21233274 -0.00473268 -0.15828095 -0.19572234 -0.32990012 -0.23507594 -0.2738076 -0.16834939
-0.23437828 -0.18706001 -0.09689328 -0.1970745 -0.11221251 -0.30879804 -0.027136799 -0.013414793
-0.11492147 -0.17079702 -0.29359606 -0.17913795 -0.10250992 -0.037609965 -0.11520081 -0.124283776
-0.03486559 -0.28355092 -0.14228359 -0.013157799 -0.21884029 -0.18644491 -0.02079333 -0.16703686
-0.33214608 -0.0053416826 -0.114555456 -0.0787913 -0.18676224 0.0190735 -0.038693205 -0.06390358
-0.12823412 -0.041063506 -0.066506915 -0.16774447 -0.12385827 -0.027912294 -0.2102559 -0.015185642
-0.21925572 -0.06316705 -0.20638986 -0.06825175 -0.004610365 -0.11968133 -0.18787031 -0.05115572
-0.24084333 -0.19315763 -0.22468714 -0.23693651 -0.14581747 -0.15773089 -0.06840545 -0.17346077
-0.0050751665 -0.15722662 -0.14372359 -0.013599268 -0.18440841 0.027776275 -0.17870906 -0.08129243
-0.16674004 -0.042522002 -0.06687822 -0.20508553 -0.063671276 -0.13102108 -0.112815715 -0.11175282
-0.019033836 -0.023213498 -0.116369344 -0.06675516 -0.026269637 -0.15872015 -0.17327267 -0.13029754
-0.19973499 -0.048390605 -0.2013293 -0.18957233 -0.16291617 -0.11955744 0.0054455963 0.017384684
-0.3179914 -0.08460301 -0.12475931 -0.092363745 -0.13646269 -0.09355779 -0.08818983 -0.004529405
-0.4011603 -0.2461379 -0.2730116 -0.17598386 -0.10071218 -0.093087055 -0.28356746 -0.012967419
0.006433156 -0.37619963 -0.087918825 -0.22066827 -0.080197364 -0.17916815 -0.26939416 -0.20546336
-0.28480282 0.024524836 -0.22235407 -0.13418734 -0.19061206 -0.08776505 -0.29121312 -0.22513495
-0.20970261 -0.2467256 -0.0035135604 -0.27581757 -0.3127377 -0.14880583 -0.0732149 -0.05876918
-0.28902924 0.023922246 -0.26471114 -0.09666122 -0.21719275 -0.1830264 -0.06334323 -0.020553375

bias f4 [50]
00000000: e011 59be fae0 91be d759 a4be feb7 5ebe
00000010: 66ae 10be 4b69 82be ae01 b8be da61 90be
00000020: 8738 c8be 3d14 97be 5a55 a8be a6f6 b6be
00000030: 0a2c 0fbe 69f3 97be 95aa 12be cf0b a6be
00000040: 90ae 80be f1d9 49be 2580 8fbe 158d 9fbe
00000050: 505e e0be c88e 48be 9b4b 05be d6ed d6be
00000060: 15e2 a2be 15d1 9cbe 749c 8ebe e30e 16be
00000070: c8bf 53be 7df3 91be 0c14 8cbe 060f 80be
00000080: d9c8 33bd 8c66 d6be 8a40 44be 5122 cfbe
00000090: 093f cbbe 9085 36be af90 8fbe a5e9 cabe
000000a0: 4f3f a0bc 7061 4abe 53fb a7be b375 123e
000000b0: 8c9c 26be 50c4 9cbe 259e c4be bde0 9cbe
000000c0: 6e18 c5be 21e9 aabe
-0.21198225 -0.28491956 -0.32099792 -0.21749875 -0.14129028 -0.25470957 -0.35938781 -0.28199655
-0.39105627 -0.29507628 -0.32877618 -0.35735053 -0.13981643 -0.29677895 -0.14322884 -0.32430884
-0.2513318 -0.19712044 -0.28027454 -0.31162325 -0.43821955 -0.19585717 -0.13017122 -0.4197833
-0.31813112 -0.30628267 -0.2785374 -0.14654116 -0.20678627 -0.2850608 -0.27359045 -0.25011462
-0.043892715 -0.41875112 -0.19165245 -0.4045587 -0.3969653 -0.17824388 -0.28040072 -0.39631382
-0.019561438 -0.19763732 -0.32808933 0.14302711 -0.16270655 -0.30618525 -0.38401905 -0.30640212
-0.384952 -0.33380988

weight f4 [25, 50]
00000000: 3fc0 72bc 5abd 3c3c ba87 f53d 412b b53d
00000010: 5f7b 1c3e 5ef3 0b3e 2a5f 323d b93a 553b
00000020: 773b 983d e1a3 f63c d78f d43d 3269 133d
00000030: bf7b c9bc ffd6 11bd 7593 bbbb 29ca 923d
00000040: 22d1 bb3d c8a5 fe3d 5086 0b3d 8085 f6ba
00000050: c33e 7ebb dd67 abbc a929 4c3d 4a34 ddbc
00000060: d504 d43d b7f4 22bc 6e82 063d 3702 d73d
00000070: 8d5d 27bd 4e02 983d 6f11 ec3d 8ddd 143e
00000080: 34e8 cb3d 55bd e33b 0293 c63d 544f 963d
00000090: 892e d63b 04e9 ad3d cd5b 923d 68bd e93d
000000a0: 8af3 f13d 38df 813d f358 8c3d 6023 ef3d
000000b0: 9f7d c33d 8b94 903d 8127 72bd d6bf a23d
000000c0: 3ef7 9dbc 721b 223c e1c6 f63d 5897 a63d
000000d0: 6c7a e73d 99e7 c23d 0159 013e 46d4 163e
000000e0: 2184 fa3d edea e63d 6977 673d 007a 043e
000000f0: 62d8 0d3e b01b 1b3e b773 0d3e a1b4 6c3d
00000100: 054a c13d 7ce5 2a3e a09e f73d c562 cf3d
00000110: 9e23 193e c8b9 393e 407d b13d a1c9 b4bb
00000120: 567d ee3d 3bd9 b03d 1050 113e d9e5 293d
00000130: 7ea2 063e ce08 d43d b825 bd3d 6419 0e3e
00000140: a01b d13d 70b5 c13c cffd f73d fa08 283d
00000150: 17ec e43d d84e 0f3e bcb2 803d 1e5e db3d
00000160: d7e8 ef3d 8ae7 c33c ec9f 1f3e f67c b53d
00000170: 98cb 1d3e 4579 5f3e 5e29 f53d 3427 d83d
00000180: 2e2a da3c 2d23 0f3e b570 eb3d 2347 8f3d
00000190: 5010 a33d cc48 923c 19bd da3d 4648 a23d
000001a0: 06c3 e53d 0a43 0cbd 0024 f13d 283a 903d
000001b0: 5491 943d 4795 973d 46e8 f93d bb64 1b3e
000001c0: a17e 3b3d 66d7 30bd 288d f03d 640c bb3c
000001d0: 14c9 8ebc 2ab6 c23d 7678 9c3d d899 893d
000001e0: 3155 1e3d c77c f13a cc51 ff3d 0c34 b63d
000001f0: 700d e73d 80cb 873d a201 b43c f944 663d
00000200: f993 15bd 4c38 ed3d de73 dabc 57a4 97bd
00000210: 87a9 033b d67e c03d ca56 603d d3e4 653d
00000220: 086f 403d e2d5 803c aee6 d53a e324 c2bc
00000230: 3670 963c 0007 d9ba 4d45 8a3d c510 cd3d
00000240: 8bfd e9bc 42e5 9d3d a171 0ebd 8d90 313c
00000250: 0c99 6c3d 2f32 203d 8147 eb3d 99ec 173d
00000260: 053f bd3c 9d05 e43c 1453 473d 1504 7dbb
00000270: 328e 47bc 86d5 a3bb 410d 573d e07f ca3b
00000280: 8626 b3bb 740c 063e 0395 123e 7475 7d3b
00000290: 05d0 27bd b50c 353c 9f8e 803d 6e52 b93d
000002a0: 829e 0e3c a981 fcbc 255b 3c3b 1921 0dba
000002b0: a469 c03d 10c3 03bc f6cf c73d fbfa 0b3d
000002c0: e645 223d 847b 08bc 5152 0d3e 4ba4 b13c
000002d0: 451d 0a3e d65a 2b3c 1c93 3c3d 1bfe 0bbd
000002e0: 5029 e53c 2d81 9c3c 89c1 e73c caad da3d
000002f0: e5de 58bd 1826 bc3d 5666 d23d 1d32 463d
00000300: a132 de3c 257b 753d 3d62 c33d ccf0 9f3d
00000310: 2814 dd3a 3235 883c 21a4 26bc 2d81 4bbd
00000320: 78ea 293c e2fe dbbd f70c 6bbd 1029 9bbc
00000330: 186e 923d 30ae 913d 6573 bbbd 7bf2 9b3d
00000340: f75b f93c 101b 233d 7b6e dbbb e139 933d
00000350: 3864 013d 5644 c5bd e7a0 bcbd faf9 b5bc
00000360: 0ef2 cbbd 9a38 4fbd a075 0b3d f7a2 ee3c
00000370: b619 933d ac49 b9bc 181b a1bd aac1 243d
00000380: 27c0 c7bc a667 29bd 6f9e 4cbd 2172 7bbc
00000390: 6511 c7bd 134f 9b3d 5c34 8e3d 5dd8 153c
000003a0: 4bc3 b33b 0cf6 263d ee22 49bd 86c9 dfbd
000003b0: 7538 f8bb 914c be3c ba8f d7bc 5aca 55bc
000003c0: e014 35bb ab6e c93b fad0 9b3d dfb2 6dbd
000003d0: 8518 6d3c d8bf 96bd 4905 4dbd a8d6 b7bd
000003e0: 36f7 253d 7433 323d c30f 913d 0143 d63c
000003f0: 2660 8bbb 8000 94bd 4718 0f3c dfce 26bd
-0.014816343 0.011519754 0.119887784 0.08846141 0.15281437 0.13667056 0.043547787 0.0032536222
0.07433217 0.03010744 0.10378998 0.035988994 -0.02459514 -0.035605427 -0.0057243654 0.07167465
0.09170748 0.12433964 0.034063637 -0.0018808097 -0.0038794733 -0.02092355 0.049844418 -0.027002472
0.10352484 -0.00994604 0.03283923 0.10498469 -0.0408607 0.074223146 0.11526763 0.1453764
0.099563986 0.0069500604 0.09696008 0.073393494 0.006536309 0.0849171 0.07146416 0.114130795
0.118140295 0.06341404 0.06852903 0.11676669 0.09545445 0.07059582 -0.059119705 0.07946746
-0.019282933 0.009894239 0.12049652 0.08134335 0.11302647 0.0951683 0.12631609 0.14729413
0.12232233 0.11275277 0.056510363 0.12937164 0.13852075 0.1514728 0.13813673 0.05778945
0.09437946 0.16689104 0.12090802 0.10126261 0.14954993 0.18137276 0.08666468 -0.0055172
0.11645 0.086351834 0.14190698 0.041478965 0.13147923 0.10353242 0.0923571 0.13876873
0.10210347 0.023646086 0.12108957 0.041024186 0.11177843 0.1399492 0.06284091 0.10711311
0.117143326 0.023914117 0.15588349 0.08861725 0.15409696 0.21823604 0.11970781 0.105543524
0.026631441 0.13978262 0.114961065 0.0699599 0.07962096 0.017856978 0.10680599 0.07923941
0.112188384 -0.03424362 0.117744446 0.070423424 0.07254282 0.07401519 0.12202506 0.15175144
0.04577506 -0.04317417 0.117456734 0.022833057 -0.017429866 0.09507401 0.076401636 0.067187965
0.038655464 0.0018424027 0.124667734 0.08896646 0.1128186 0.066306114 0.021973435 0.05621812
-0.03651807 0.115830034 -0.026666578 -0.07404392 0.002009006 0.09399192 0.05477027 0.056126427
0.046980888 0.015726987 0.0016319358 -0.02369923 0.018364053 -0.0016557872 0.06751499 0.10012964
-0.028563282 0.07709743 -0.034776334 0.010837686 0.057763144 0.03911036 0.11488248 0.03709087
0.02310134 0.027834708 0.048663214 -0.003860717 -0.012179898 -0.004999819 0.052502874 0.0061797947
-0.005467239 0.13090688 0.14314656 0.0038674744 -0.040969867 0.011050393 0.06277203 0.09048925
0.008704783 -0.030823546 0.002874085 -0.0005383655 0.09395149 -0.008042112 0.09756462 0.0341749
0.03961744 -0.00833023 0.13800932 0.021684786 0.13487728 0.010458669 0.046038732 -0.03417788
0.0279738 0.019104565 0.028290527 0.10677679 -0.052946944 0.09186953 0.10273425 0.048387635
0.027123751 0.059931893 0.09540222 0.078096 0.0016866969 0.016626928 -0.010170967 -0.04968374
0.010370843 -0.107419744 -0.05738541 -0.018940479 0.07149905 0.07113302 -0.09152869 0.07614609
0.03043936 0.03982073 -0.00669652 0.07188774 0.031589717 -0.09632175 -0.09210377 -0.022213925
-0.09958278 -0.05059109 0.034047723 0.029130442 0.07182638 -0.022618137 -0.07866496 0.040223755
-0.024383618 -0.041358612 -0.04995578 -0.015347035 -0.097201146 0.075834416 0.069435805 0.009145823
0.005485927 0.040761992 -0.049105577 -0.109271094 -0.0075750896 0.02322987 -0.026313651 -0.013048733
-0.002763085 0.006147226 0.076082185 -0.058031913 0.014471178 -0.0736081 -0.05005387 -0.08976489
0.04051896 0.0435061 0.070830844 0.026154997 -0.004253405 -0.07226658 0.0087338155 -0.04072463

bias f4 [25]
00000000: e7e4 673e 686b 543e bc8b 6a3d 82aa d63d
00000010: e7a9 cfbd d814 72bd 01f2 49be 6afa 4c3d
00000020: cfec 2b3d 221b f6bd be5c 98be b414 37bd
00000030: adef b6bc 752f a4be d6b9 d4bd acd2 d53d
00000040: 2f26 b53e 5ee8 9bbe d3e8 81be 6424 8fbc
00000050: e553 ff3d c132 85bc d5cd 42bd 5e9d 403e
00000060: 2aa9 9a3d
0.22645913 0.20744097 0.057262167 0.104817405 -0.10139828 -0.05910191 -0.19721223 0.0500435
0.041973885 -0.12016894 -0.29758257 -0.04469748 -0.022331083 -0.32067457 -0.10387008 0.10440573
0.35380694 -0.3045072 -0.25372943 -0.017473407 0.124671735 -0.016259553 -0.047559578 0.18810031
0.07551797

weight f4 [25, 50]
00000000: 5e10 61be 5967 2abe d8d8 8ebe b849 b8be
00000010: 437d 68bc 571e 7abe d445 04be cc02 53bd
00000020: 0dea 2cbe 99f0 a7be 6ad6 8dbd 1d76 13bd
00000030: 8dd3 5fbe 7d3e e1bd 6181 54bd 37df e13c
00000040: 43bf 5bbe c19a e4be 7e89 30be 6bbb 7cbe
00000050: 7b22 443d 7d92 77bc 0e09 e5bd 0d17 10be
00000060: 701f 1e3d 4709 adbe b5e4 ddbe 662f a9be
00000070: c6be 0e3c de09 14be e522 5dbe a7b4 92bd
00000080: d72d 35bf 0d32 c5bd 008a b2be 3a88 19be
00000090: c217 dabd 9879 e0be 2cb4 8cbd 84be 8abe
000000a0: 5307 1abf e793 dabe a45e 45bd db6a 4dbf
000000b0: d02f 5abd 2b45 acbd cdc9 7ebe 4562 e2be
000000c0: 1f15 f9bd 1146 97be 5ca7 5bbd 409c 2ebd
000000d0: 69a3 2bbe 127f b7be 3685 c0bd 6258 12be
000000e0: 9786 95be f1e2 54be 8785 a4be 0176 f5be
000000f0: 8967 bcbd 751c 3cbe 0d63 72bd 77fb d4bd
00000100: 4146 8bbe f864 22be b65f 8bbe f103 c2be
00000110: ff70 9cbe cf77 5cbe 844e cbbd 16c0 5dba
00000120: ee41 55be 4031 3abe d73d 0abd 3ccc f9be
00000130: b997 91be 5fd3 b2be da84 94bd 9e4a 75bc
00000140: b2be a0be 7beb 8dbe e767 1fbf 4b35 eabd
00000150: ac01 91be 6aef a2be 5302 9cbd 8580 1dbf
00000160: c7a2 b2bd 3d19 9bbd a17d 20bf 00e3 c7be
00000170: 079e 8bbe ccf1 44bf 434e 45be ecd7 c8bd
00000180: b0c3 94bd 6dd4 ebbe b4d6 95bd a030 95be
00000190: 7ea0 c2be 69ac 98be dd98 c9be 3c32 8bbe
000001a0: 269e 71be ed1e 87be b030 cdbe 60b4 38be
000001b0: 6904 8bbe 0adb c6be 6c8d 80be 76f1 55be
000001c0: 7a52 b5be 96f6 89be f331 b5be ec28 1bbe
000001d0: c393 90be 04b4 d6be 8445 63be f62b 99be
000001e0: dc84 6dbe 39f8 5ebe edf4 98be 0346 0dbe
000001f0: 1d86 1cbe d25d 92be abb5 bbbe 900b 93be
00000200: b6dd b3be 39ae 8fbe 3689 2fbe 8b2c c5be
00000210: dd00 cfbe 4db1 9bbe 4ed3 4ebe 9d40 babe
00000220: 4448 57be df37 dbbe 7bfd 11be 450a 8abe
00000230: 7f81 18bf b082 bfbe 7455 30be 43d0 0bbf
00000240: 25f2 69be 2571 27be 3278 40be 3cb8 c1be
00000250: 17db a1be 9c34 ddbe 2875 7cbd e628 9fbc
00000260: 9def 57be 6581 c6be e30a dcbd 6e4e 3bbe
00000270: 8f46 fdbd 201e 14be 4c89 5dbe bacf 0ebf
00000280: 4b6b 06be 7a74 1abe 02e1 05be 00be 78bd
00000290: e7a0 f7bd ea23 3abe 5d74 91be 8488 b5be
000002a0: a0c3 f4bd 88e0 6bbd 6559 10be 9a25 b13c
000002b0: a247 36bd 232d 1bbe ce48 2abd 3cda 88be
000002c0: 815b b8be 94a3 8ebe 6628 4dbd fc51 15be
000002d0: 7659 f4bd 9ec9 48be a5d9 10bf 5a8f 81bd
000002e0: 5d8a 14be 6982 d1bd 9c18 9bbd 69a5 08bf
000002f0: ae62 8fbc 394c 8dbd 4759 ccbe 217b 04bf
00000300: 763c 9bbe e06b 4abf 3daa 28be fbb5 14bd
00000310: 2bb0 71be f21a 98be bf82 22be da72 a7be
00000320: 3659 04be 4ed7 0dbe 1952 97be d222 b7be
00000330: 29a4 afbd 6ba1 6cbe 7e32 8dbe 88aa 22be
00000340: f78b 86be e5c1 bcbe 5194 58be c5e6 47bd
00000350: 60a8 0dbe 98f3 7cbe 56be 79be f403 27be
00000360: 6d20 8bbe f825 9ebe d730 06be f7e5 80be
00000370: cd87 e0bd c7a0 3dbc 9838 a2be 4ccd 98be
00000380: e66e 4fbd f546 8bbe ca3e 92be e5eb 3cbe
00000390: ca4b 74be 1c13 50be bd53 32bd 0c5a 6abe
000003a0: 6303 f2be a9bf 48bd 7400 b0be 7efe acbe
000003b0: 241c 40be e34b fcbe dde6 9dbe 142e 82be
000003c0: b66e 1bbf 72be c7be 3a5d 2cbe 7b21 edbe
000003d0: 02a5 1b3c 0ad9 07bd 855d fabd b85a 89be
000003e0: a083 1ebe 5a79 b4be 86c9 4abe fcf4 4ebe
000003f0: 7f07 74be e212 9abe 87e8 97be 76ef 35be
-0.219789 -0.16640987 -0.27899814 -0.35993743 -0.014190021 -0.24425636 -0.12917262 -0.05151634
-0.16886158 -0.3280075 -0.06925662 -0.036001313 -0.21858044 -0.10998247 -0.051881198 0.027572257
-0.2145968 -0.44649318 -0.17239949 -0.2468087 0.047884446 -0.015110609 -0.11183368 -0.14071293
0.0386042 -0.3379614 -0.43338552 -0.33043975 0.008712476 -0.14456889 -0.21595342 -0.07163363
-0.7077307 -0.09628687 -0.3487091 -0.14993373 -0.10649063 -0.4384277 -0.068703026 -0.27098477
-0.60167426 -0.42690966 -0.04818596 -0.80241174 -0.053268254 -0.0841163 -0.24881668 -0.442156
-0.12162232 -0.29545644 -0.053626403 -0.04262948 -0.16761555 -0.35839134 -0.09400408 -0.14291528
-0.29204246 -0.20789696 -0.32133123 -0.47941592 -0.09199435 -0.1837023 -0.059176493 -0.103995256
-0.27202037 -0.15858829 -0.2722146 -0.37893632 -0.3055496 -0.21530078 -0.09927085 -0.0008459104
-0.20825931 -0.1818285 -0.03375038 -0.4878863 -0.28436068 -0.34926888 -0.07251902 -0.014971403
-0.3139549 -0.2771872 -0.6226792 -0.11435946 -0.28321588 -0.31823283 -0.07617631 -0.6152423
-0.087224536 -0.07573173 -0.62691694 -0.39040375 -0.27269003 -0.7693145 -0.19268136 -0.09806809
-0.07263887 -0.46060506 -0.07316342 -0.2913866 -0.3801307 -0.2981904 -0.39374438 -0.27186763
-0.23595485 -0.26390782 -0.40076208 -0.18037558 -0.27151802 -0.3883899 -0.25107896 -0.20892891
-0.35414487 -0.26945943 -0.3538967 -0.15152329 -0.28237733 -0.41934216 -0.22194487 -0.29916352
-0.23195213 -0.21774377 -0.29874364 -0.13796239 -0.15285535 -0.28587204 -0.3666204 -0.2871976
-0.3513009 -0.2806261 -0.17142186 -0.38510546 -0.40430346 -0.30408707 -0.20197794 -0.3637742
-0.21023661 -0.42816064 -0.14256851 -0.2696096 -0.59572595 -0.37404394 -0.17220098 -0.5461466
-0.22846277 -0.16351755 -0.18795851 -0.37835872 -0.31612465 -0.432042 -0.061635166 -0.019428682
-0.21087499 -0.38770595 -0.10744264 -0.18291637 -0.123669736 -0.14464617 -0.21634406 -0.55785716
-0.13126867 -0.15083495 -0.13074115 -0.060728073 -0.120912366 -0.18177763 -0.2840909 -0.35455716
-0.11951375 -0.057587177 -0.14096601 0.021624375 -0.044501908 -0.15153937 -0.04157334 -0.26729
-0.36007312 -0.27859175 -0.050087355 -0.14582056 -0.11931126 -0.19608161 -0.565821 -0.0632617
-0.14505906 -0.10229952 -0.07573053 -0.53377396 -0.017503109 -0.06899304 -0.39911863 -0.5175038
-0.30319566 -0.79070854 -0.16471191 -0.036306363 -0.23602359 -0.29708058 -0.15870188 -0.32704812
-0.12924656 -0.13851663 -0.29554823 -0.35768753 -0.08576233 -0.23108451 -0.27577585 -0.15885365
-0.2627866 -0.3686668 -0.21150328 -0.048804063 -0.13833761 -0.24702299 -0.24389014 -0.16310102
-0.27173176 -0.30888343 -0.13104568 -0.2517545 -0.10963402 -0.011573977 -0.31683803 -0.2984413
-0.05064287 -0.27202573 -0.2856353 -0.18449362 -0.23857036 -0.2031979 -0.04353689 -0.22885913
-0.4726821 -0.049010906 -0.34375346 -0.33787912 -0.18760735 -0.49276647 -0.30840197 -0.2542578
-0.60715806 -0.39012486 -0.16832438 -0.46314606 0.00949979 -0.03316597 -0.12224869 -0.26827025
-0.15479898 -0.35248834 -0.19803438 -0.20210642 -0.23830985 -0.3009253 -0.29669592 -0.17767128

bias f4 [25]
00000000: e0e5 19bf 2181 23bf 1331 26bf 79d7 c5be
00000010: 7725 10bf 8ade 39bf 9152 e5be 198b f3be
00000020: 71ab 07bf 98b1 20bf 15b7 f9be 6669 15bf
00000030: cc54 f1be 875e c6be 3850 b4be ce14 1ebf
00000040: b610 1fbf 3ca1 9ebe a95d d5be fb80 9fbe
00000050: 698a b4be 7021 23bf ca76 f1be 298e 10bf
00000060: 5aee 23bf
-0.60116386 -0.6386891 -0.6491863 -0.38640955 -0.56307167 -0.7260519 -0.44789556 -0.4756706
-0.52995974 -0.62770987 -0.48772493 -0.5836395 -0.47135007 -0.38743994 -0.35217452 -0.61750495
-0.62134874 -0.30982387 -0.4167302 -0.31153092 -0.3526185 -0.63722897 -0.4716094 -0.5646692
-0.6403557

eps f4 [25, 1, 1]
00000000: 0e64 e1be dde3 5bbd 2826 a4bf 64a5 0dbe
00000010: ce54 743f f025 6dbd 2644 24bf 70ea c83e
00000020: 2b32 f03e f444 c03e f8db 94bf 1be5 bf3d
00000030: 5831 0bc0 acb3 7ebf a44f 823f 70dd ef3e
00000040: f632 dc3f de5e 9b3f 3a0f 19bf 3f60 0ebf
00000050: fed0 02c0 3e57 943f 3c3c 34be 4fdf 9bbf
00000060: bb9e 073c
-0.44021648 -0.053684104 -1.2824144 -0.13832623 0.954419 -0.05789751 -0.64166486 0.39241362
0.46913275 0.37552607 -1.1629629 0.0936987 -2.1748867 -0.9949291 1.0180554 0.4684863
1.7203052 1.2138326 -0.5978886 -0.5561561 -2.0440059 1.1589124 -0.17601103 -1.2177523
0.00827759

gamma_ones f4 [25]
00000000: 0000 803f 0000 803f 0000 803f 0000 803f
00000010: 0000 803f 0000 803f 0000 803f 0000 803f
00000020: 0000 803f 0000 803f 0000 803f 0000 803f
00000030: 0000 803f 0000 803f 0000 803f 0000 803f
00000040: 0000 803f 0000 803f 0000 803f 0000 803f
00000050: 0000 803f 0000 803f 0000 803f 0000 803f
00000060: 0000 803f
1.0 1.0 1.0 1.0 1.0 1.0 1.0 1.0
1.0 1.0 1.0 1.0 1.0 1.0 1.0 1.0
1.0 1.0 1.0 1.0 1.0 1.0 1.0 1.0
1.0

exp_avg f4 [25, 36]
00000000: cf91 fbbe 63e6 e5be 96d0 0dbe 0b79 1241
00000010: bf42 91bf 98b3 87be 018e c5be 6a07 8fbe
00000020: de68 b2be 951b 9d40 6e9e a3be b2f0 7142
00000030: b3f0 0ebf 5ee0 93bd 7d51 98c0 45da 68c0
00000040: d062 42be 910e 69c0 4f0a 3bc0 3f00 40c0
00000050: fff3 4ebd a5ac 05bf ff86 7340 c7f2 a6be
00000060: e361 d6bf 40be 84bf 8328 2ac2 6ec0 fbbf
00000070: 7b6f 28be 02b9 e3bc fd52 b3c0 e845 acbe
00000080: 597f 8fbc 72c0 b0be 705e e9be 4196 30bf
00000090: 4dd3 04be 658e 1140 e4da babe 7396 2541
000000a0: 10a1 a0be a49f 22bf b150 ddbf 1b5d d6bf
000000b0: 248f 6cbe 92b7 c440 494e cabd 50d7 8f3f
000000c0: 58db eabe a822 01bf c4ef b7be 265e 68be
000000d0: 42d2 d8be a456 7abe fb79 9abf 9f19 28bf
000000e0: 5d70 90be 1c16 93bf f5be 0cbe 9c1d 16bf
000000f0: a3f0 96c0 69bc 96be 2bac 9fbe 9e3f a5bd
00000100: e7dd 4abe 96f8 06be 8b58 7abf 4a10 dbbe
00000110: a019 92be 4c0d 0ebe 9172 50bf 502b debd
00000120: 1541 97be fa15 2b40 ef4e e3bf 8df1 783f
00000130: 1a49 7340 b4ab 30be f3bd 60bf 100d 23be
00000140: c1f3 3140 40b2 1d41 7a7e e1bd d96b cb40
00000150: c45b 4cc0 985b 69be d135 20bf 15ca fdbe
00000160: 03be b2bf 7099 c9be 11d3 0dc1 520d 08bf
00000170: 94c1 7abe 7b7d 4ac0 4146 f0bf 10ed a8be
00000180: dba2 2ec0 01db 7d3f b5ee 97bf 0756 46bf
00000190: 34ae 4cbf 1cb0 95bf 8cc9 ee40 f384 fdbf
000001a0: c712 f0bd 71ad e0be 67b0 3bc0 df28 fc3f
000001b0: a972 0dbf 0115 b53f 8113 a2b9 e195 88be
000001c0: e349 c1bf 1b7e 58bf 8e7f 4a3f 4371 7dbe
000001d0: e3b6 c63f 3e22 f43e 5672 a6bf b2c3 0240
000001e0: d9cc a0c0 c3d2 acbe 405a 90bf 2fa7 70be
000001f0: 473c a5bd 788c 86be 4a95 77bf fa16 4ebd
00000200: 25c7 52be 3eca c7bd adbd 863f 6622 febf
00000210: ff95 27bf a75f e840 c80c 85be 9d32 153f
00000220: 5294 22bd c26c 6e3f 50ab 83be 5c67 4cbd
00000230: bb13 f9bc 736a 41be 937a 94be e2cc 413f
00000240: 28ad 923f bb5d b940 d4a2 bfbf 5750 8141
00000250: a7ae 0740 604d 0abf 9965 3140 5f1e 2640
00000260: a7d3 6040 c002 513f 40a7 15bf 7335 2640
00000270: e90a 06bf 1b6a edbf 3afc 5fc0 b213 f6be
00000280: abab f9bf af05 87bd a83e 48be c74d b1bf
00000290: 077a f7bd a359 26be 0864 2f3f a91a 0741
000002a0: dd47 eabf e0cf 7040 8232 23bf f3ed d4bd
000002b0: 711c d9bc 7f2c b540 ebe0 763f da9e 26c2
000002c0: b5ab 3cbf b6a2 3dbf 1e95 0cc0 d087 7040
000002d0: a285 bdbc e74d f23f ff69 8abe 117a 4340
000002e0: 350a cfbd 88bd 96be 4292 debd 6bea c1bd
000002f0: 93b6 f9be 44ca 3740 1f0b f3bd 7e8a 8dbd
00000300: 66e7 80be f2d1 81bd 939b 773f 80c4 56be
00000310: c73d 76be a373 dcbd 8f79 e1be bfcd b33f
00000320: a41e 00be 309e e1be c79b 7bbd b2e7 33bd
00000330: 89ce f3bf a985 e7bc f726 7bbd 8477 82be
00000340: 4ba3 53be b405 aabf bd24 1240 0ab5 ecbe
00000350: 6605 dabc 5494 9ac0 0dff ddbe 64fb 1d3f
00000360: 1f99 a0bc 2b6b 3340 863a 5d3f 5edb 1c3f
00000370: eccf ba3f 3858 97bf f0f1 1bc1 80e9 aabe
00000380: a960 2dbf 8698 b93f 91e5 e1bd 8e46 efbe
00000390: 51b4 14bf 5da5 b13f e3a8 bdbe 7076 20bf
000003a0: 3d67 943f f597 44bf cc12 c9be 17bd 3e3f
000003b0: f70c 15bf c14d 3ebd a7bd 0b3f 79b5 0d3f
000003c0: 65f7 9ebc b4b7 09bf 0772 d5be 9a6e 803f
000003d0: 9253 7bbe 46d1 be3d f536 953f 8f76 97bc
000003e0: e1e0 59bf cef2 dfbd de0e 8240 a1a2 483e
000003f0: b74d 5cbe 570f a13e 5216 8bc1 97b2 9f3f
-0.4913468 -0.44902334 -0.138491 9.1545515 -1.1348494 -0.26504207 -0.38584903 -0.27935344
-0.34845632 4.909617 -0.3195681 60.485054 -0.5583603 -0.07220529 -4.7599473 -3.638322
-0.18983006 -3.641514 -2.9225042 -3.000015 -0.05052566 -0.5221656 3.8051145 -0.326071
-1.6748623 -1.037056 -42.539562 -1.96681 -0.16448776 -0.02779818 -5.6038804 -0.33647084
-0.017516779 -0.34521824 -0.45579863 -0.6897927 -0.1297123 2.274316 -0.36495125 10.349231
-0.3137288 -0.6352484 -1.729025 -1.6747164 -0.23101479 6.1474085 -0.09878213 1.1237583
-0.4587047 -0.50443506 -0.35925114 -0.22692165 -0.42347914 -0.24447113 -1.2068475 -0.65664095
-0.28210726 -1.1491122 -0.1374472 -0.5863893 -4.7168746 -0.2944062 -0.3118604 -0.08068775
-0.19811212 -0.13180766 -0.97791356 -0.42785865 -0.28535175 -0.1387226 -0.81424814 -0.10848105
-0.2954184 2.6732163 -1.7758464 0.9724358 3.8013368 -0.17253 -0.8778984 -0.15922952
2.7805026 9.856018 -0.110104516 6.356915 -3.193101 -0.22788846 -0.6258212 -0.4956824
-1.3964237 -0.39374876 -8.86403 -0.53145325 -0.24487907 -3.1639087 -1.877144 -0.32993364
-2.72869 0.991623 -1.1869723 -0.7747502 -0.7995331 -1.1694369 7.462103 -1.9806198
-0.117223315 -0.43882325 -2.9326417 1.9699973 -0.5525308 1.4147035 -0.0003091358 -0.2667685
-1.5100673 -0.8456742 0.79100883 -0.24750237 1.5524563 0.47682375 -1.3003643 2.0431943
-5.025006 -0.33754548 -1.1277542 -0.23501275 -0.080681376 -0.26279044 -0.9671217 -0.05031488
-0.2058378 -0.097553715 1.0526634 -1.9854248 -0.6546325 7.2616763 -0.25986314 0.58280355
-0.03969223 0.931347 -0.2571664 -0.04990326 -0.030404916 -0.18888263 -0.28999767 0.7570325
1.1459093 5.7926917 -1.4971566 16.164228 2.120035 -0.54024315 2.771826 2.5956037
3.5129182 0.8164482 -0.5845833 2.5970123 -0.523604 -1.8548006 -3.4997697 -0.480619
-1.9505514 -0.06592881 -0.19555151 -1.3851861 -0.12083822 -0.16245131 0.6851201 8.444009
-1.8303181 3.7626877 -0.63748944 -0.10396948 -0.02650282 5.6616817 0.9643695 -41.65513
-0.73699504 -0.740764 -2.1966014 3.7582893 -0.02313501 1.8930024 -0.27033994 3.0543253
-0.10109369 -0.29441476 -0.1086774 -0.0946854 -0.48772106 2.8717203 -0.118673556 -0.06911181
-0.25176543 -0.06338872 0.9672176 -0.20973396 -0.24047004 -0.107642435 -0.44038054 1.4047164
-0.12511688 -0.44066 -0.061427858 -0.043922134 -1.9047405 -0.028261976 -0.061316457 -0.25481808
-0.2066776 -1.328299 2.2834923 -0.46231872 -0.026613902 -4.8306065 -0.4335865 0.61711717
-0.019604264 2.803416 0.86417425 0.6127223 1.4594703 -1.1823797 -9.746567 -0.3338127
-0.67725617 1.4499671 -0.110301144 -0.46733516 -0.5808764 1.387859 -0.37042913 -0.6268072
1.1594006 -0.7679437 -0.39272153 0.7450728 -0.5822291 -0.04646087 0.5458626 0.5535503
-0.019405076 -0.53795934 -0.41688558 1.0033753 -0.24543598 0.093172595 1.1657397 -0.01848915
-0.8510876 -0.10934983 4.064315 0.19593288 -0.21514021 0.31457016 -17.385899 1.2476376

exp_avg_sq f4 [25, 36]
00000000: 2cd7 3144 992a 1e44 3a1a 7442 2a06 1946
00000010: 77ef 6b45 a385 5f43 2d61 ea43 3d2e 7843
00000020: f5f3 ba43 cecd 5645 b7fd a143 591c 2249
00000030: f2da 7644 cf7f 8441 f8d4 7747 0015 1a47
00000040: 2058 e442 e882 1b47 77ff d246 e960 d746
00000050: 8514 0241 c051 5844 8971 d344 2399 9e43
00000060: bc4b 0b46 bd9b 4c45 51e0 ad4a a52c 3b46
00000070: 630d ac42 1c13 1d40 f0e5 a347 babd b243
00000080: ff4b 783f dc10 bd43 8b2c 1944 5f7c 9244
00000090: b6dd 9442 e8ec 0c44 d46a 1544 1e04 4946
000000a0: 79c0 db43 7661 e844 40bd 4d46 17b3 4246
000000b0: 5cc4 6a43 76b7 9645 1399 2e42 b89f 0943
000000c0: c485 7e44 65a6 8144 a0fc 0d44 94da 6643
000000d0: 8797 4844 7912 8343 6232 c445 67a4 a844
000000e0: 6ebc b143 74f0 bc45 3171 a842 e36b be44
000000f0: e547 bf47 bfee bb43 a243 eb43 7b7c e941
00000100: e0ed 3543 1c2b 8b42 f045 5f45 5a49 4744
00000110: ab49 b443 1998 ab42 8cf9 0245 bdea 4f42
00000120: 18ac 0a43 9bab 7444 a3b2 9945 f581 0143
00000130: 0982 e444 5c96 3e42 066a 9944 d6fe 2142
00000140: 4204 b844 5edf 4f46 06c1 9a41 c630 a745
00000150: 6e27 7e46 b9d5 a642 333e 1b44 e395 c443
00000160: f637 3545 8d0e 7843 8c39 f447 fdbc e143
00000170: acdf bf42 57a0 7846 9bd9 ad45 f2d9 2c43
00000180: bdb2 3946 8475 f542 ee6f 0c45 a726 6c44
00000190: 5dbc 7f44 e9d4 e944 7773 e645 41b2 c345
000001a0: 0bb8 af41 cfc2 9943 3de5 1546 29e0 0444
000001b0: 9b70 9644 d10a 6043 a242 1441 ead6 9b43
000001c0: 70c3 1f46 398e 4845 dcb4 7645 eab1 8843
000001d0: 0ae6 8643 ea9c cb41 a8d1 d845 7ba9 e943
000001e0: 2a3a dc47 8db4 ff43 cd25 b145 314b 7843
000001f0: f54d e641 1621 9b43 2240 8345 1cc9 3541
00000200: bb6f 3d43 92d4 2b42 0a17 f842 e1fd 7046
00000210: fc38 f144 5f78 b845 a0d7 9743 b2bf 1342
00000220: 4489 e240 9633 c242 a3fd 9043 7959 3341
00000230: 143c 8540 9f83 1e43 735a 4744 404f 8042
00000240: 31d7 5744 14b7 b945 6261 ca44 e6c2 3447
00000250: d5c0 4644 3a07 6243 d616 aa44 2032 9444
00000260: a899 0845 181d ec42 9d03 8443 a64f 9544
00000270: e323 5543 7648 2645 1fef cf45 cb4b 2e43
00000280: dae4 f344 7fc5 5840 6254 ed41 d6d9 b944
00000290: dfd9 3541 8c4a a441 8743 a642 510b 4546
000002a0: c753 2245 c345 5045 5d23 9c43 13bf 0641
000002b0: 65aa 0b3f d068 b145 e2b5 2443 3403 a449
000002c0: 6c5a d043 740f cd43 bbd2 5445 163e 1c45
000002d0: d5d5 1c40 e981 cd46 91ed a643 8bed 8b44
000002e0: aa30 3942 fe8f c643 7cab 5642 50dd 2342
000002f0: 3c7c 4444 ae64 7744 6e93 7b42 6960 ae41
00000300: f241 9143 bf2e 9341 6883 e042 2fbe 3d43
00000310: 9cc8 8343 816f 5442 32eb 5d44 fdc6 6c43
00000320: 993e 8f42 d56f 5e44 1cdc 8841 4d2e 0d41
00000330: 6238 8146 4b89 6840 0bf0 8941 70d2 8f43
00000340: ab97 4243 e8ff bf45 726c 1c44 687a 6644
00000350: d7b7 4f40 b0c9 cf47 8a36 5244 eeca 3642
00000360: bd78 103f 487f 8944 970b d142 a32e 5242
00000370: 1f10 9543 0519 0045 8e63 0848 a9c1 2143
00000380: 9329 1e44 bf20 9343 b5e2 8e41 ad6e ae43
00000390: 71f8 f343 1f22 0044 8e70 3d43 02f9 0e44
000003a0: c213 3c43 1d76 5744 1eed 5d43 3af0 5a43
000003b0: 4148 ed43 335e 4b40 b1d0 2642 5abe 1943
000003c0: d3ce 0d3f 5922 8a43 bd22 6543 65e8 0c43
000003d0: 3534 ae42 0986 9b3f 6333 3e43 67e7 003f
000003e0: c2bf 7b44 1e06 8b41 b37f 1045 55f0 ab40
000003f0: 5223 e742 2395 7946 e312 1849 2c0d 5443
711.36206 632.6656 61.02561 9793.541 3774.9666 223.52202 468.7592 248.18062
373.9059 3436.8628 323.98215 664005.56 987.421 16.562407 63444.97 39445.0
114.17212 39810.906 27007.732 27568.455 8.13001 865.27734 1691.548 317.19638
8914.934 3273.7336 5.6975765e+06 11979.161 86.026146 2.4542913 83915.875 357.48224
0.9699096 378.1317 612.696 1171.8866 74.43303 563.70166 597.6692 12865.029
439.5037 1859.0457 13167.3125 12460.772 234.76703 4822.9326 43.649487 137.6239
1018.0901 1037.1998 567.94727 230.85382 802.3676 262.14432 6278.298 1349.1376
355.4721 6046.0566 84.22108 1523.3715 97935.79 375.8652 470.52838 29.185781
181.9292 69.5842 3572.371 797.1461 360.57553 85.797066 2095.5967 51.979237
138.67224 978.68134 4918.3296 129.50764 1828.0636 47.646835 1227.3132 40.498863
1472.133 13303.842 19.34425 5350.0967 16265.857 83.41743 620.97186 393.171
2899.4976 248.05684 125043.09 451.47647 95.93686 15912.085 5563.2007 172.85135
11884.685 122.72952 2246.9956 944.60394 1022.9432 1870.6534 7374.433 6262.2817
21.964865 307.52194 9593.31 531.5025 1203.5189 224.04225 9.266268 311.67902
10224.859 3208.889 3947.3037 273.38995 269.79718 25.451618 6938.207 467.32407
112756.33 511.41055 5668.725 248.29372 28.788065 310.25848 4200.0166 11.361599
189.43645 42.95759 124.045 15423.47 1929.7808 5903.0464 303.68457 36.937202
7.079256 97.10075 289.98154 11.209344 4.1635838 158.51414 797.41327 64.154785
863.36237 5942.885 1619.0432 46274.9 795.013 226.02823 1360.7136 1185.5664
2185.6035 118.05682 264.02823 1194.489 213.14018 2660.5288 6653.89 174.29607
1951.1516 3.3870542 29.666203 1486.8074 11.365691 20.5364 83.13189 12610.829
2597.236 3332.36 312.27628 8.421649 0.54556876 5677.1016 164.71048 1.3435905e+06
416.70642 410.12073 3405.1707 2499.8804 2.4505513 26304.955 333.856 1119.4232
46.297523 397.12494 53.667465 40.966125 785.94116 989.5731 62.893974 21.797075
290.5152 18.397825 112.25665 189.7429 263.56726 53.10889 887.6749 236.7773
71.62226 889.7474 17.107475 8.823804 16540.191 3.6333797 17.242208 287.64404
194.59245 6143.9883 625.69446 921.9126 3.2455957 106387.375 840.8522 45.698174
0.5643423 1099.9775 104.52264 52.545544 298.12595 2049.5637 139662.22 161.75648
632.6496 294.25583 17.860697 348.86465 487.94095 512.53314 189.43967 571.89075
188.07718 861.8455 221.92624 218.93839 474.56448 3.1776245 41.7038 153.74356
0.55393714 276.26834 229.1357 140.90779 87.10197 1.2150279 190.20073 0.5035309
1006.9962 17.377987 2311.9812 5.3730874 115.568985 15973.284 622894.2 212.05145
