mcspace/paper/mouse_runs/runs/seed_2/model.pt (torch, 464942 bytes, 99 tensors)

theta_params f4 [100, 74]
000000 9e c7 df bf 5f ed ae bf e2 ec 95 3f d7 e1 b2 bf
       -1.7482793 -1.366619 1.1712916 -1.3975171
000010 75 7e 9c c0 40 8b dc 3e de fb 76 3f 7a a4 27 bf
       -4.8904366 0.4307499 0.9647807 -0.65485346
000020 9a 0e 11 c0 9c 95 73 c0 6b 7b 42 bd 42 a7 a0 c0
       -2.2665162 -3.8060064 -0.04748098 -5.020417
000030 d8 89 2a c0 c0 c8 8f bf 5f fe 90 be e0 e3 70 c0
       -2.6646633 -1.1233139 -0.2831907 -3.7639084
000040 e8 e9 a7 c0 ba 7c 9e c0 cf 2f d9 c0 02 c0 59 c0
       -5.247303 -4.9527254 -6.787086 -3.4023442
000050 7c e6 08 3f b9 d7 bc c0 9a 13 57 be 46 81 a0 40
       0.5347669 -5.9013333 -0.21003571 5.0157804
000060 84 fa 3a c0 4a bc 7d be 77 29 b7 3e a1 53 2e c0
       -2.9215403 -0.24778858 0.35773823 -2.7238543
000070 74 18 35 c0 27 c6 ac c0 99 7e da c0 86 8d 6e c0
       -2.8296175 -5.3991885 -6.827954 -3.727388
000080 55 95 85 c0 42 33 6c be b4 5d df be b4 c0 13 bf
       -4.174479 -0.23066428 -0.43626177 -0.57715917
000090 24 97 d3 c0 a7 ed ef bf 55 bb 8f c0 ba ec 1c be
       -6.6122 -1.8744401 -4.4916177 -0.15324679
0000a0 66 f2 30 c0 57 f4 bf bf a3 70 82 bf be 81 7f bb
       -2.7647948 -1.4996442 -1.0190624 -0.0038987244
0000b0 97 79 0a 3d 45 f9 19 3e f7 8f a1 c0 88 56 88 c0
       0.033807363 0.15036495 -5.048824 -4.260563
0000c0 91 b3 96 c0 d4 20 98 c0 56 72 6a bf 80 79 14 bf
       -4.7094197 -4.7540073 -0.9158071 -0.57997894
0000d0 76 56 41 be 02 59 c5 c0 9a e6 43 c0 28 f7 58 3f
       -0.18880638 -6.167115 -3.0609498 0.8475213
0000e0 d6 13 c2 3d de 7f b9 bf bd 74 8c c0 a7 82 bd c0
       0.0947644 -1.4492147 -4.3892503 -5.922199
0000f0 38 af 87 3d df af 69 c0 d4 f7 e3 3e 59 dc bf c0
       0.06625217 -3.6513593 0.44525015 -5.995648
000100 33 0f 7c c0 80 2d 7f c0 18 da 16 3f 62 07 2a c0
       -3.9384277 -3.987152 0.58926535 -2.6567006
000110 d9 9e f1 be ef 86 46 bf 43 3b a4 c0 be 16 18 c0
       -0.47191504 -0.7754964 -5.132234 -2.376388
000120 fa a1 56 c0 ed dd c2 c0 ea 1f 76 be b3 c7 5d 3f
       -3.3536363 -6.0895905 -0.24035612 0.8663284
000130 96 df 33 be 8d 95 85 bf 04 e6 f2 c0 8a fa 97 3f
       -0.1756576 -1.0436264 -7.590578 1.1873333
000140 8e 93 14 c0 4d 11 49 bf 00 3a 74 3e 66 63 97 bf
       -2.321506 -0.78542024 0.2385025 -1.1827209
000150 a7 d4 c1 3f 25 9a a5 bf 38 42 01 3f a8 13 c0 3f
       1.5143021 -1.2937666 0.50491667 1.5005999
000160 53 26 d2 c0 22 73 58 3f 21 98 e7 3f ff 60 be c0
       -6.5671782 0.8455068 1.8093301 -5.9493403
000170 6e 0a 28 3f 56 98 f4 3f 1d 34 06 40 f1 eb 0a 40
       0.65640914 1.9108989 2.0969307 2.1706507
000180 bd 09 e4 3e 2f c3 7b 3e c8 c5 2b bf c9 87 ba 3f
       0.4453868 0.24586175 -0.67098665 1.4572688
000190 3c ab b3 c0 69 3b 09 c0 2d 32 a5 3f 4c 07 29 3e
       -5.6146526 -2.144251 1.2905937 0.1650669
0001a0 29 95 bf c0 63 ba 27 3f 1e 51 df c0 6e 12 bc bd
       -5.986958 0.6551878 -6.978652 -0.09183203
0001b0 5f 87 7a 3f a8 89 73 3d f6 a1 43 c0 1d 00 ab c0
       0.9786281 0.05945745 -3.0567603 -5.343764
0001c0 1c 4f 70 c0 ac 9b 04 40 e4 c2 b5 c0 22 76 e5 c0
       -3.7548285 2.0720015 -5.6800404 -7.1706705
0001d0 e0 39 91 bf b4 c6 66 c0 93 09 ba 40 54 41 38 3f
       -1.1345787 -3.6058779 5.8136687 0.7197468
0001e0 72 a8 e6 c0 52 c6 8b c0 b5 26 07 c0 0f 24 ea c0
       -7.208062 -4.367959 -2.1117375 -7.3169017
0001f0 29 41 a8 c0 bd 5c ac c0 ab db 16 3f d7 39 aa c0
       -5.257954 -5.3863206 0.58928937 -5.3195605
000200 3b a3 28 c0 8f 1f 56 c0 84 08 99 3e 61 43 b1 bd
       -2.6349628 -3.3456762 0.2988931 -0.0865543
000210 14 5b b0 c0 aa 00 01 c1 ae f4 2b 3f 31 49 d2 c0
       -5.511118 -8.062662 0.67170227 -6.5714345
000220 19 d3 5f bf ca 3a 09 c1 7a 28 37 be 37 04 a4 c0
       -0.87431484 -8.576853 -0.17886534 -5.1255145
000230 c5 e0 35 c0 e4 fd 13 c1 ee 5f f5 3f e7 d9 ff be
       -2.8418438 -9.249485 1.91699 -0.49970934
000240 52 5c b4 bf b2 42 a7 c0 40 9e fa c0 5b 27 42 c0
       -1.4090674 -5.2268915 -7.8318176 -3.033652
000250 85 18 05 be 13 a4 db bf 51 99 76 be b0 41 a3 c0
       -0.12997635 -1.7159446 -0.24081923 -5.1017685
000260 af 34 cc bd 44 df 77 3f d3 2a 2f c0 58 1c 49 c0
       -0.09970986 0.9682505 -2.7369888 -3.142355
000270 1e 71 4a c0 3f 46 bf c0 bd 62 84 c0 36 4a 93 c0
       -3.1631541 -5.977325 -4.137053 -4.602809
000280 6c 7c a1 c0 9d 97 5f c0 fb f2 9c 3f a2 b7 90 c0
       -5.046438 -3.4936287 1.2261652 -4.522416
000290 08 53 81 bf 67 c6 7f c0 9f 84 5b c0 47 11 a2 c0
       -1.0103464 -3.9964845 -3.4299695 -5.064609
0002a0 3e c5 6a c0 7a 7f 6e bf 69 56 84 c0 03 c7 6d 3e
       -3.6682887 -0.93163264 -4.135548 0.23220448
0002b0 7a 9c 58 c0 a1 eb 1c 40 4e f6 3d c0 7b 28 27 3f
       -3.3845506 2.4518816 -2.9681582 0.65296143
0002c0 42 b5 0c c0 4b 3a 66 c0 44 28 70 c0 b3 11 8a c0
       -2.198563 -3.597308 -3.7524576 -4.3146605
0002d0 91 b4 6e be 0b be b9 40 89 8e d2 3f e1 19 74 c0
       -0.23311068 5.8044486 1.6449748 -3.8140795
0002e0 aa 13 f1 c0 04 ef e5 3f 37 0d a7 c0 38 16 6b c0
       -7.5336504 1.7963567 -5.220363 -3.6732311
0002f0 a6 b0 b8 c0 87 f6 6e c0 36 0d 16 3f f6 55 e4 bf
       -5.7715635 -3.7337968 0.5861391 -1.7838733
000300 73 97 97 c0 66 6f 0f bf 85 b1 ed 3e 99 fa 7f c0
       -4.7372375 -0.56029356 0.464245 -3.9996703
000310 81 0d 84 bf 05 d1 77 c0 df 43 60 c0 7f da 4a c0
       -1.0316621 -3.8721325 -3.5041425 -3.169586
000320 bf 1a 88 c0 df 93 9e c0 12 8a d3 c0 dd c0 8a 3f
       -4.253265 -4.9555507 -6.6106043 1.0840107
000330 21 99 92 c0 75 af 91 c0 60 ce b0 c0 13 43 06 c0
       -4.5811925 -4.552668 -5.5251923 -2.097844
000340 2c bf c1 c0 75 26 0d c0 69 43 8e c0 b9 3e 79 c0
       -6.0545864 -2.2054722 -4.445729 -3.8944533
000350 e2 87 28 3f 2c a8 1b 40 20 de a1 3f 08 69 6b c0
       0.6583234 2.4321394 1.2645912 -3.6782856
000360 e5 ee b4 c0 88 d6 9e c0 26 d5 39 c0 f2 76 a5 c0
       -5.654162 -4.963688 -2.9036345 -5.1707697
000370 f7 59 b8 bf 99 75 9b c0 2c bc 56 3f 6a 4a 03 c0
       -1.4402455 -4.858105 0.8388088 -2.0514169
000380 71 c1 0d 3f 4a b4 ae 3c f4 13 ea c0 7d e3 bd c0
       0.55373293 0.021326203 -7.3149357 -5.9340196
000390 f3 4c cb c0 93 45 e8 bf 1c dc e6 c0 6a 71 b6 c0
       -6.353143 -1.8146232 -7.214369 -5.7013445
0003a0 bf 7c c2 c0 89 08 9a 3f 9b a7 8f c0 b8 15 06 be
       -6.077728 1.2033855 -4.4892097 -0.13094223
0003b0 32 9b b9 bf 06 27 98 c0 a5 d1 03 40 02 ce 1b bf
       -1.4500487 -4.7547636 2.0596707 -0.6086122
0003c0 95 f3 c9 c0 6c b7 f9 3e 6e d1 fe bf 13 f5 06 c1
       -6.310984 0.48772752 -1.9907663 -8.434833
0003d0 90 d9 86 3e 66 54 da c0 cd 48 a8 3e 3c ca 06 c1
       0.26337862 -6.8228025 0.32868043 -8.424374
0003e0 5a c5 cd c0 9e 5b 96 40 7d 86 08 40 74 85 9a bf
       -6.430341 4.6986837 2.1332085 -1.2071977
0003f0 4c 87 40 bf aa d9 da c0 d9 ef a1 be d5 9b f3 3e
       -0.75206447 -6.8390703 -0.31628302 0.47579828

q_mu f4 [7]
000000 40 80 65 c0 24 c6 04 c0 2b 42 14 c0 15 c2 49 c0
       -3.5859528 -2.0745935 -2.3165386 -3.1524708
000010 13 8f 05 c0 61 d3 fd bf 5c a5 36 c0
       -2.0868576 -1.9830133 -2.8538427

q_var f4 [7]
000000 4a 83 27 c0 bd f9 8c c0 e5 a7 9e c0 ec 2b 21 c0
       -2.6173882 -4.4054856 -4.957995 -2.5183058
000010 4c 45 65 c0 25 b3 a9 c0 5f 9d 81 c0
       -3.5823545 -5.303118 -4.0504603

eps f4 [7]
000000 92 06 83 be c8 50 cb 3f 46 a6 bc 3d a6 e8 03 be
       -0.2559095 1.5884027 0.09211402 -0.12881717
000010 6f 0d 49 be d6 6c a2 3f 19 38 0c c0
       -0.19634031 1.2689464 -2.190924

q_gamma_params f4 [99]
000000 70 d7 65 40 76 92 74 40 c8 2b 86 40 5e 1a 7e 40
       3.5912743 3.8214393 4.1928444 3.9703593
000010 3d 4e 89 40 ae aa 82 40 24 7c 68 40 54 e8 6d 40
       4.2908006 4.083335 3.632577 3.7173052
000020 a7 86 81 40 33 f1 67 40 a6 1a 94 3c f8 f1 67 40
       4.047687 3.6240966 0.018079113 3.6241436
000030 5e 8f 74 40 6f 5d 73 40 17 d3 62 40 03 48 65 40
       3.8212504 3.8025777 3.544134 3.5825202
000040 ae f6 4a 40 e7 32 7c 40 42 8a 7b 40 0e 57 4e 40
       3.1713061 3.9406068 3.9303136 3.2240634
000050 3c d9 56 40 8b ab 86 40 0f ea 84 40 36 40 66 40
       3.357009 4.2084403 4.1535716 3.5976691
000060 cb 87 f7 3f d2 98 3d 40 96 10 70 40 a1 2a 7c 40
       1.9338316 2.9624524 3.7510123 3.9401019
000070 9c 0e 84 40 6f 28 6a 40 21 d8 47 40 06 7a 7f 40
       4.1267834 3.6587179 3.1225665 3.9918227
000080 86 93 86 40 e6 6a 80 40 f9 83 13 40 7c 0b 8f 40
       4.205508 4.013049 2.30493 4.470152
000090 ac 2e 48 3e 68 ce 68 40 8c 46 82 40 09 80 72 40
       0.19549054 3.637598 4.0711117 3.7890646
0000a0 6a 9e 1f 40 f2 7b 7f 40 8e e6 87 40 56 ea 6d 40
       2.4940438 3.99194 4.246894 3.7174277
0000b0 50 b0 78 40 27 1c 79 40 6d 78 d7 3f 4e 7a 7e 40
       3.8857613 3.8923433 1.6833626 3.976215
0000c0 2e 68 ab c0 f1 24 93 c0 b5 ac 6e 40 fe 33 6e 40
       -5.3564672 -4.5982594 3.7292912 3.7219234
0000d0 f2 80 83 40 ca 29 57 40 cd 6e 4e 3e f4 ad 65 40
       4.1094904 3.3619256 0.20159455 3.5887423
0000e0 a5 a1 87 c0 e9 94 70 40 68 06 67 40 51 04 66 40
       -4.238482 3.7590888 3.609766 3.5940135
0000f0 2e 19 73 40 b1 33 78 40 1c f4 6d 40 9e c9 83 40
       3.7984118 3.878155 3.7180243 4.1183615
000100 43 bf c1 3f 93 bd 66 40 a9 8a 77 40 68 6f 8e 40
       1.5136493 3.6053207 3.8678381 4.4510994
000110 3e 7d a1 3f 67 4e 53 40 84 fd 7c 40 df 70 82 40
       1.2616346 3.3016603 3.9529734 4.076278
000120 54 59 2d 40 45 47 77 40 b5 5e 91 c0 f9 ca 7f 40
       2.7085772 3.863725 -4.542811 3.9967635
000130 42 76 64 40 6d 28 97 c0 74 9b 86 40 c1 b8 77 40
       3.569718 -4.723685 4.206476 3.8706515
000140 51 ed 78 40 3b ef 8a 40 76 e8 43 40 28 b3 f7 3f
       3.8894846 4.341703 3.0610633 1.9351549
000150 03 05 70 40 1d eb 76 40 9d 6a 8b 40 c1 1a 50 40
       3.750306 3.8581002 4.3567643 3.251633
000160 40 57 62 40 32 50 49 c0 e2 33 79 bf ed 1e 31 40
       3.5365753 -3.1455197 -0.9734479 2.7675126
000170 91 03 69 40 77 f4 4f 40 b6 cd 82 40 61 05 78 40
       3.6408427 3.249296 4.087611 3.8753283
000180 29 a9 86 be cd af 75 40 95 04 5a 40
       -0.26300934 3.838855 3.4065297

q_probs f4 [99]
000000 1a 22 79 3f c9 83 7a 3f ec 30 7c 3f 75 42 7b 3f
       0.9731766 0.9785734 0.9851215 0.9814828
000010 ae 8a 7c 3f f3 c1 7b 3f 69 67 79 3f 5b ed 79 3f
       0.9864911 0.9834282 0.97423416 0.976278
000020 36 9b 7b 3f 64 58 79 3f c5 31 01 3f 88 59 79 3f
       0.9828371 0.974005 0.5046657 0.9740224
000030 95 83 7a 3f a4 69 7a 3f d7 cf 78 3f 10 13 79 3f
       0.9785703 0.97817445 0.9719214 0.9729471
000040 05 a5 75 3f 87 1e 7b 3f db 11 7b 3f ce 2e 76 3f
       0.95954925 0.98093456 0.9807412 0.9616517
000050 fd 5d 77 3f cf 3f 7c 3f 83 0a 7c 3f 26 2d 79 3f
       0.9662779 0.98534864 0.9845354 0.97334516
000060 09 9f 5f 3f c5 6b 73 3f ca 1f 7a 3f f7 1d 7b 3f
       0.87352043 0.9508632 0.97704756 0.980926
000070 64 ef 7b 3f dc 91 79 3f 13 30 75 3f c5 5b 7b 3f
       0.98412156 0.9748819 0.9577648 0.98186904
000080 04 3d 7c 3f 46 74 7b 3f ae c7 68 3f 65 1a 7d 3f
       0.985306 0.98224294 0.9092969 0.988684
000090 a3 8a 0c 3f bd 6f 79 3f d6 b4 7b 3f 98 56 7a 3f
       0.5489904 0.97436124 0.9832281 0.9778838
0000a0 c3 78 6c 3f e6 5b 7b 3f 84 63 7c 3f 9d ed 79 3f
       0.9237177 0.981871 0.9858935 0.97628194
0000b0 84 d9 7a 3f fc e1 7a 3f 81 e9 57 3f 68 49 7b 3f
       0.9798815 0.98001075 0.84340674 0.98158884
0000c0 a3 e9 99 3b 2c 6f 23 3c 67 ff 79 3f 53 f4 79 3f
       0.004697041 0.009975236 0.9765534 0.97638434
0000d0 88 dd 7b 3f 3b 6c 77 3f 4e da 0c 3f cd 1d 79 3f
       0.98384905 0.9664952 0.55020607 0.973111
0000e0 d7 2f 69 3c 73 2b 7a 3f 96 41 79 3f c3 26 79 3f
       0.014232597 0.9772255 0.973657 0.9732477
0000f0 c6 63 7a 3f a0 cf 7a 3f 71 ee 79 3f c0 e6 7b 3f
       0.9780849 0.9797306 0.9762946 0.9839897
000100 9e b9 51 3f 15 3a 79 3f 2e c2 7a 3f 4d 0c 7d 3f
       0.81923854 0.9735425 0.97952545 0.98846895
000110 da 61 47 3f a4 e8 76 3f 9a 2d 7b 3f 63 ba 7b 3f
       0.77883685 0.9644873 0.9811646 0.9833128
000120 45 02 70 3f b5 bc 7a 3f d8 9c 2c 3c 90 61 7b 3f
       0.93753463 0.97944194 0.010535441 0.98195744
000130 f5 fc 78 3f 06 47 10 3c ed 3d 7c 3f cf c5 7a 3f
       0.9726098 0.008805996 0.9853199 0.9795808
000140 57 de 7a 3f b3 b3 7c 3f 5c 8c 74 3f 4c 75 5f 3f
       0.97995514 0.987117 0.9552667 0.87288356
000150 9e 1e 7a 3f 4a b5 7a 3f 7a c2 7c 3f bd 75 76 3f
       0.9770297 0.97932875 0.9873425 0.96273404
000160 d2 b4 78 3f 8c 18 29 3d 45 4b 8c 3e 8e df 70 3f
       0.9715091 0.041283175 0.27401176 0.9409112
000170 fd 74 79 3f 78 70 76 3f 82 c6 7b 3f ed cb 7a 3f
       0.97444135 0.96265364 0.98349774 0.97967416
000180 3a 9d de 3e 7d 9b 7a 3f 06 c9 77 3f
       0.4347933 0.97893506 0.9679111

gamma f4 [100]
000000 00 00 80 3f 00 00 80 3f 00 00 80 3f 00 00 80 3f
       1.0 1.0 1.0 1.0
000010 00 00 80 3f 00 00 80 3f 00 00 80 3f 00 00 80 3f
       1.0 1.0 1.0 1.0
000020 00 00 80 3f 00 00 80 3f 00 00 80 3f 00 00 00 00
       1.0 1.0 1.0 0.0
000030 00 00 80 3f 00 00 00 00 00 00 80 3f 00 00 80 3f
       1.0 0.0 1.0 1.0
000040 00 00 80 3f 00 00 80 3f 00 00 80 3f 00 00 80 3f
       1.0 1.0 1.0 1.0
000050 00 00 80 3f 00 00 80 3f 00 00 80 3f 00 00 80 3f
       1.0 1.0 1.0 1.0
000060 00 00 80 3f 00 00 00 00 00 00 80 3f 00 00 80 3f
       1.0 0.0 1.0 1.0
000070 00 00 80 3f 00 00 80 3f 00 00 80 3f 00 00 80 3f
       1.0 1.0 1.0 1.0
000080 00 00 80 3f 00 00 80 3f 00 00 80 3f 00 00 80 3f
       1.0 1.0 1.0 1.0
000090 00 00 80 3f 00 00 00 00 00 00 80 3f 00 00 80 3f
       1.0 0.0 1.0 1.0
0000a0 00 00 80 3f 00 00 80 3f 00 00 80 3f 00 00 80 3f
       1.0 1.0 1.0 1.0
0000b0 00 00 80 3f 00 00 80 3f 00 00 80 3f 00 00 80 3f
       1.0 1.0 1.0 1.0
0000c0 00 00 80 3f 00 00 00 00 00 00 00 00 00 00 80 3f
       1.0 0.0 0.0 1.0
0000d0 00 00 80 3f 00 00 80 3f 00 00 80 3f 00 00 80 3f
       1.0 1.0 1.0 1.0
0000e0 00 00 80 3f 00 00 00 00 00 00 80 3f 00 00 80 3f
       1.0 0.0 1.0 1.0
0000f0 00 00 80 3f 00 00 80 3f 00 00 80 3f 00 00 80 3f
       1.0 1.0 1.0 1.0
000100 00 00 80 3f 00 00 00 00 00 00 80 3f 00 00 80 3f
       1.0 0.0 1.0 1.0
000110 00 00 80 3f 00 00 80 3f 00 00 80 3f 00 00 80 3f
       1.0 1.0 1.0 1.0
000120 00 00 80 3f 00 00 80 3f 00 00 80 3f 00 00 00 00
       1.0 1.0 1.0 0.0
000130 00 00 80 3f 00 00 80 3f 00 00 00 00 00 00 80 3f
       1.0 1.0 0.0 1.0
000140 00 00 80 3f 00 00 80 3f 00 00 80 3f 00 00 80 3f
       1.0 1.0 1.0 1.0
000150 00 00 80 3f 00 00 80 3f 00 00 80 3f 00 00 80 3f
       1.0 1.0 1.0 1.0
000160 00 00 80 3f 00 00 80 3f 00 00 00 00 00 00 00 00
       1.0 1.0 0.0 0.0
000170 00 00 80 3f 00 00 80 3f 00 00 80 3f 00 00 80 3f
       1.0 1.0 1.0 1.0
000180 00 00 80 3f 00 00 00 00 00 00 80 3f 00 00 80 3f
       1.0 0.0 1.0 1.0

KL_gamma_k f4 [99]
000000 6f 11 da 48 04 47 db 48 a7 be dc 48 eb ed db 48
       446603.47 449080.12 452085.22 450415.34
000010 38 0d dd 48 83 5d dc 48 1a 4e da 48 58 c3 da 48
       452713.75 451308.1 447088.8 448026.75
000020 9b 3b dc 48 f4 40 da 48 44 2b 62 48 f4 41 da 48
       451036.84 446983.62 231597.06 446991.62
000030 d7 46 db 48 22 30 db 48 6e c9 d9 48 45 04 da 48
       449078.72 448897.06 446027.44 446498.16
000040 b6 03 d7 48 78 ce db 48 60 c3 db 48 50 7c d7 48
       440349.7 450163.75 450075.0 441314.5
000050 b1 85 d8 48 af cb dc 48 08 9d dc 48 1b 1b da 48
       443437.53 452189.47 451816.25 446680.84
000060 b7 bc c3 48 6f 11 d5 48 7d ef da 48 fa cd db 48
       400869.72 436363.47 448379.9 450159.8
000070 4a 85 dc 48 42 73 da 48 59 9d d6 48 13 04 dc 48
       451626.3 447386.06 439530.78 450592.6
000080 3d c9 dc 48 86 19 dc 48 02 c1 cb 48 03 8b dd 48
       452169.9 450764.2 417288.06 453720.1
000090 92 08 76 48 64 55 da 48 09 52 dc 48 76 1f db 48
       251938.28 447147.12 451216.28 448763.7
0000a0 3f fc ce 48 30 04 dc 48 f0 ea dc 48 92 c3 da 48
       423905.97 450593.5 452439.5 448028.56
0000b0 0f 92 db 48 78 99 db 48 43 fd bc 48 00 f4 db 48
       449680.47 449739.75 387050.1 450464.0
0000c0 12 b8 06 45 b2 0d 8f 45 24 d3 da 48 72 c9 da 48
       2155.5044 4577.712 448153.12 448075.56
0000d0 a8 75 dc 48 29 92 d8 48 0a 94 76 48 ac 0d da 48
       451501.25 443537.28 252496.16 446573.38
0000e0 9f 1b cc 45 b2 f9 da 48 fe 2c da 48 84 15 da 48
       6531.4526 448461.56 446823.94 446636.12
0000f0 ff 2a db 48 66 89 db 48 4c c4 da 48 b9 7d dc 48
       448855.97 449611.2 448034.38 451565.78
000100 de 92 b7 48 6d 26 da 48 a2 7d db 48 ad 7e dd 48
       375958.94 446771.4 449517.06 453621.4
000110 40 85 ae 48 fa 1e d8 48 aa db db 48 e5 56 dc 48
       357418.0 442615.8 450269.3 451255.16
000120 d9 14 d2 48 d7 78 db 48 5c 16 97 45 25 09 dc 48
       430246.78 449478.72 4834.795 450633.16
000130 ec f0 d9 48 33 92 7c 45 09 ca dc 48 cf 80 db 48
       446343.38 4041.1375 452176.28 449542.47
000140 48 96 db 48 1f 31 dd 48 0c 0e d6 48 2e 98 c3 48
       449714.25 453000.97 438384.38 400577.44
000150 77 ee da 48 59 72 db 48 0e 3e dd 48 67 ba d7 48
       448371.72 449426.78 453104.44 441811.22
000160 c8 b1 d9 48 72 02 94 46 84 99 f5 47 8c d6 d2 48
       445838.25 18945.223 125747.03 431796.38
000170 fd 59 da 48 ca b5 d7 48 81 61 dc 48 2a 86 db 48
       447183.9 441774.3 451340.03 449585.3
000180 ec da 42 48 c4 5b db 48 62 e3 d8 48
       199531.69 449246.12 444187.06

q_gamma_params f4 [100, 3]
000000 97 7b d6 3e 5d b3 7d c0 a4 06 83 c0 90 4e 86 c0
       0.41891167 -3.9640725 -4.0945606 -4.19709
000010 50 7c 77 c0 03 07 8a c0 34 82 80 c0 e8 bb 83 c0
       -3.8669624 -4.313356 -4.015894 -4.116688
000020 06 cf 5e c0 3c 93 7f c0 29 a3 5f c0 10 ec 37 40
       -3.4813857 -3.9933615 -3.4943335 2.873783
000030 e5 90 c0 bf ae a6 6a c0 5a 17 10 c0 eb 9c 25 c0
       -1.5044218 -3.6664233 -2.2514253 -2.5877025
000040 48 2a 6e c0 f7 32 35 c0 35 c8 87 c0 25 07 84 c0
       -3.7213306 -2.8312356 -4.2431893 -4.125872
000050 ef d6 83 c0 6c c5 71 c0 3f 70 82 c0 d4 0c 5c c0
       -4.119987 -3.7776747 -4.076202 -3.438283
000060 11 01 07 c0 19 2e 89 c0 ad a6 1c 40 39 e9 87 c0
       -2.10944 -4.286877 2.447673 -4.2472196
000070 8e 5c 89 c0 ac 80 80 c0 d5 af 87 c0 82 0a 53 c0
       -4.292548 -4.015707 -4.240214 -3.2975163
000080 42 30 89 c0 c7 0a 4e c0 40 e2 73 c0 d4 4e 80 c0
       -4.287141 -3.2194078 -3.8106842 -4.0096226
000090 5f ac 60 c0 c4 2b c9 3f 82 de 83 c0 58 37 88 c0
       -3.5105207 1.5716481 -4.1209116 -4.256756
0000a0 45 65 87 c0 b8 ae 88 c0 cf f9 77 c0 40 20 54 c0
       -4.231112 -4.271328 -3.874622 -3.3144684
0000b0 e4 ec 6c c0 8d 6b 4e c0 5f a3 86 c0 97 bf 85 c0
       -3.7019587 -3.2253144 -4.2074428 -4.1796374
0000c0 e0 91 84 c0 32 f4 19 c0 01 fa 2a c0 9c 18 7f c0
       -4.142807 -2.4055295 -2.671509 -3.985877
0000d0 9c 51 6f c0 cd 2c 57 c0 1b 83 87 c0 00 8d 84 c0
       -3.739356 -3.3621094 -4.234754 -4.142212
0000e0 e6 97 86 c0 4c 62 3f c0 78 e2 71 c0 49 53 87 c0
       -4.2060423 -2.9903746 -3.7794476 -4.2289166
0000f0 bb 35 83 c0 4e c0 85 c0 c5 59 87 c0 b3 71 89 c0
       -4.100309 -4.1797247 -4.229708 -4.2951293
000100 a8 34 87 c0 24 5f 86 c0 1e 51 48 c0 fa 0d 80 c0
       -4.225178 -4.199114 -3.129951 -4.001706
000110 0c 19 53 c0 90 2e 66 c0 09 fd 83 c0 8f c8 3c c0
       -3.2984037 -3.596592 -4.124638 -2.9497411
000120 c8 ce 84 c0 77 21 7e c0 a5 b3 72 c0 f5 ca 86 c0
       -4.150242 -3.9707925 -3.7922146 -4.212275
000130 e3 df 8a c0 6a 72 8a c0 78 96 4d c0 96 c6 88 c0
       -4.33983 -4.3264666 -3.212309 -4.2742414
000140 6f 97 38 c0 5a 0d 84 c0 da 22 83 c0 8b 36 8c c0
       -2.8842428 -4.12663 -4.0980043 -4.381658
000150 01 9a 54 c0 4b f9 72 c0 77 eb 5d c0 bf 15 72 c0
       -3.3218997 -3.7964656 -3.4674966 -3.7825773
000160 3e 9a 7d c0 12 d8 7c c0 56 4d 84 c0 8c d1 6d c0
       -3.9625392 -3.950688 -4.1344404 -3.7159147
000170 d3 49 7e c0 a9 03 64 c0 6b e5 83 c0 f3 97 81 c0
       -3.9732559 -3.5627234 -4.121755 -4.0497985
000180 0c 86 17 c0 5e b0 60 c0 d9 49 8f c0 0f fc f3 bf
       -2.3675566 -3.5107646 -4.4777646 -1.9061297
000190 f4 1f 64 c0 54 0b 84 3f 24 f5 4b 40 13 3d 7e c0
       -3.5644503 1.0315957 3.1868372 -3.9724777
0001a0 64 72 b3 bf 58 15 6a c0 77 5e 80 c0 24 9d 7c c0
       -1.4019284 -3.6575527 -4.0115314 -3.947091
0001b0 43 ef 84 c0 15 09 88 c0 26 3c 9d 3f b1 72 74 c0
       -4.1542068 -4.2511086 1.2283981 -3.8195002
0001c0 70 6c 83 c0 f0 3d 80 c0 01 4e 50 c0 52 88 7f c0
       -4.106987 -4.0075607 -3.254761 -3.9926953
0001d0 61 da 64 c0 01 83 90 c0 86 91 82 c0 8e cb 86 3f
       -3.5758288 -4.5159917 -4.080264 1.053087
0001e0 27 e9 88 bf 72 2c 61 c0 26 b8 74 c0 c8 bf 7f c0
       -1.0696152 -3.5183377 -3.8237395 -3.9960804
0001f0 b2 16 74 c0 78 9a 87 c0 44 af 34 c0 28 6e 91 c0
       -3.8138852 -4.237606 -2.8231974 -4.544697
000200 61 9b 8e c0 7a ff 09 c0 01 d7 81 c0 7a 28 81 c0
       -4.456467 -2.156218 -4.0574956 -4.036191
000210 e9 90 65 c0 5d 87 7f c0 a2 92 3f c0 07 a8 55 c0
       -3.5869696 -3.992637 -2.9933248 -3.3383806
000220 15 13 79 c0 75 c5 86 c0 fb fa 56 c0 8d b7 6e c0
       -3.8917897 -4.2116036 -3.3590686 -3.729953
000230 b3 1d 03 40 d8 b7 88 c0 4c 92 80 c0 1b f9 83 c0
       2.0486877 -4.272442 -4.0178585 -4.1241584
000240 a2 3b 7c c0 16 ae 0b 3f df 76 04 40 0d e6 84 c0
       -3.9411397 0.5456251 2.0697553 -4.1530824
000250 95 ec 84 c0 18 72 83 c0 e9 09 64 c0 09 17 79 c0
       -4.1538796 -4.1076775 -3.5631049 -3.892031
000260 61 80 8b c0 1c f8 8d bf 7a 8e 27 40 ed 44 89 c0
       -4.3594213 -1.1091342 2.618071 -4.289664
000270 70 d4 7e c0 b4 f8 60 c0 86 21 3f c0 71 68 62 c0
       -3.9817162 -3.5151796 -2.986421 -3.5376246
000280 50 af 84 c0 78 4d 7d c0 29 b3 89 c0 94 34 88 c0
       -4.1464005 -3.9578533 -4.30312 -4.256418
000290 ed a9 5b c0 af 6c 70 c0 2f e8 83 c0 eb 5d 88 c0
       -3.4322464 -3.7566335 -4.1220927 -4.2614646
0002a0 76 80 88 c0 77 c6 82 c0 88 64 4a c0 07 59 75 c0
       -4.2656813 -4.0867267 -3.162386 -3.8335588
0002b0 ca ea 86 c0 ce 23 91 c0 a5 1f a4 bf 3c 42 8d c0
       -4.216161 -4.5356207 -1.2822157 -4.4143353
0002c0 b2 52 4a c0 96 98 7e c0 30 5c 84 c0 1b d7 83 c0
       -3.1612973 -3.978063 -4.1362534 -4.120008
0002d0 9a 73 87 c0 42 a2 3a c0 1a 1d 6a c0 aa 67 85 c0
       -4.2328615 -2.9161534 -3.6580262 -4.1689043
0002e0 45 76 74 c0 e8 6a 40 c0 d7 c9 73 c0 87 fb 80 c0
       -3.8197186 -3.006525 -3.8091943 -4.030704
0002f0 ce 0c 87 c0 48 91 88 c0 99 87 81 c0 e5 29 85 c0
       -4.220313 -4.2677345 -4.0478024 -4.161364
000300 42 f5 4f be d3 08 86 c0 3a 16 64 c0 1e b5 89 c0
       -0.20308402 -4.188577 -3.5638566 -4.303359
000310 c3 9c 8a c0 aa 3e 87 c0 dc c0 8b c0 ec 74 81 c0
       -4.331636 -4.2263994 -4.3672924 -4.0455227
000320 2e 40 84 c0 a5 0f 64 c0 54 5c 84 c0 95 4f 7f c0
       -4.1328344 -3.5634549 -4.1362705 -3.9892323
000330 9b 94 84 c0 04 b7 87 c0 28 ce 74 c0 f5 45 71 c0
       -4.1431403 -4.241091 -3.8250828 -3.7698948
000340 77 c4 8b c0 d0 c0 82 c0 fc 44 85 c0 1e 76 81 c0
       -4.3677325 -4.0860367 -4.164671 -4.0456686
000350 ed 19 7b c0 f8 21 f7 bf 8d 43 7e c0 50 d6 85 c0
       -3.9234574 -1.9307241 -3.972873 -4.182411
000360 23 06 87 c0 2d ff 8d c0 af 2a 4e c0 33 32 38 c0
       -4.219499 -4.4373994 -3.2213552 -2.878064
000370 24 28 78 c0 27 ae 76 c0 a2 77 03 c0 1e 5c 82 c0
       -3.87745 -3.8543794 -2.0541768 -4.073745
000380 6d 0d 83 c0 e8 b7 8d c0 f0 fe 8b c0 76 57 87 c0
       -4.095389 -4.4286995 -4.3748703 -4.2294264
000390 1b 54 8c 3f 9f b0 80 c0 a6 6c f1 bf a6 51 86 c0
       1.0963167 -4.02156 -1.8861282 -4.197467
0003a0 c8 2c 93 c0 34 f0 92 c0 f6 d0 83 c0 f4 8f 81 c0
       -4.5992165 -4.5918217 -4.119258 -4.0488224
0003b0 40 37 83 c0 36 93 ef bf cd 4b 7f c0 80 07 d8 3e
       -4.1004944 -1.87168 -3.9890015 0.42193222
0003c0 21 7c ab bf e0 00 7d c0 6c ab 74 c0 d2 ac f7 bf
       -1.3397256 -3.9531784 -3.8229628 -1.9349616
0003d0 10 a2 89 c0 fe ad 41 c0 99 aa 71 c0 d4 01 83 c0
       -4.301033 -3.0262446 -3.7760375 -4.093973
0003e0 9f a3 76 c0 0f 58 18 c0 80 db 7d c0 4b 85 63 c0
       -3.8537366 -2.3803747 -3.9665222 -3.5550106
0003f0 c6 32 65 c0 5c 09 87 c0 80 59 82 c0 0c 9a 67 c0
       -3.581224 -4.2198925 -4.0734253 -3.6187773

gamma f4 [100, 3]
000000 00 00 80 3f 00 00 00 00 00 00 00 00 00 00 00 00
       1.0 0.0 0.0 0.0
000010 00 00 00 00 00 00 00 00 00 00 00 00 00 00 80 3f
       0.0 0.0 0.0 1.0
000020 00 00 00 00 00 00 00 00 00 00 00 00 00 00 80 3f
       0.0 0.0 0.0 1.0
000030 00 00 00 00 00 00 00 00 00 00 00 00 00 00 00 00
       0.0 0.0 0.0 0.0
000040 00 00 00 00 00 00 00 00 00 00 00 00 00 00 00 00
       0.0 0.0 0.0 0.0
000050 00 00 00 00 00 00 00 00 00 00 00 00 00 00 00 00
       0.0 0.0 0.0 0.0
000060 00 00 00 00 00 00 00 00 00 00 80 3f 00 00 00 00
       0.0 0.0 1.0 0.0
000070 00 00 00 00 00 00 00 00 00 00 00 00 00 00 00 00
       0.0 0.0 0.0 0.0
000080 00 00 00 00 00 00 00 00 00 00 00 00 00 00 00 00
       0.0 0.0 0.0 0.0
000090 00 00 00 00 00 00 00 00 00 00 00 00 00 00 00 00
       0.0 0.0 0.0 0.0
0000a0 00 00 00 00 00 00 00 00 00 00 00 00 00 00 00 00
       0.0 0.0 0.0 0.0
0000b0 00 00 00 00 00 00 00 00 00 00 00 00 00 00 00 00
       0.0 0.0 0.0 0.0
0000c0 00 00 00 00 00 00 00 00 00 00 00 00 00 00 00 00
       0.0 0.0 0.0 0.0
0000d0 00 00 00 00 00 00 00 00 00 00 00 00 00 00 00 00
       0.0 0.0 0.0 0.0
0000e0 00 00 00 00 00 00 00 00 00 00 00 00 00 00 00 00
       0.0 0.0 0.0 0.0
0000f0 00 00 00 00 00 00 00 00 00 00 00 00 00 00 00 00
       0.0 0.0 0.0 0.0
000100 00 00 00 00 00 00 00 00 00 00 00 00 00 00 00 00
       0.0 0.0 0.0 0.0
000110 00 00 00 00 00 00 00 00 00 00 00 00 00 00 00 00
       0.0 0.0 0.0 0.0
000120 00 00 00 00 00 00 00 00 00 00 00 00 00 00 00 00
       0.0 0.0 0.0 0.0
000130 00 00 00 00 00 00 00 00 00 00 00 00 00 00 00 00
       0.0 0.0 0.0 0.0
000140 00 00 00 00 00 00 00 00 00 00 00 00 00 00 00 00
       0.0 0.0 0.0 0.0
000150 00 00 80 3f 00 00 00 00 00 00 00 00 00 00 00 00
       1.0 0.0 0.0 0.0
000160 00 00 00 00 00 00 00 00 00 00 00 00 00 00 00 00
       0.0 0.0 0.0 0.0
000170 00 00 00 00 00 00 00 00 00 00 00 00 00 00 00 00
       0.0 0.0 0.0 0.0
000180 00 00 00 00 00 00 00 00 00 00 00 00 00 00 00 00
       0.0 0.0 0.0 0.0
000190 00 00 00 00 00 00 80 3f 00 00 80 3f 00 00 00 00
       0.0 1.0 1.0 0.0
0001a0 00 00 00 00 00 00 00 00 00 00 00 00 00 00 00 00
       0.0 0.0 0.0 0.0
0001b0 00 00 00 00 00 00 00 00 00 00 80 3f 00 00 00 00
       0.0 0.0 1.0 0.0
0001c0 00 00 00 00 00 00 00 00 00 00 00 00 00 00 00 00
       0.0 0.0 0.0 0.0
0001d0 00 00 00 00 00 00 00 00 00 00 00 00 00 00 80 3f
       0.0 0.0 0.0 1.0
0001e0 00 00 80 3f 00 00 00 00 00 00 00 00 00 00 00 00
       1.0 0.0 0.0 0.0
0001f0 00 00 00 00 00 00 00 00 00 00 00 00 00 00 00 00
       0.0 0.0 0.0 0.0
000200 00 00 00 00 00 00 00 00 00 00 00 00 00 00 00 00
       0.0 0.0 0.0 0.0
000210 00 00 00 00 00 00 00 00 00 00 00 00 00 00 00 00
       0.0 0.0 0.0 0.0
000220 00 00 00 00 00 00 00 00 00 00 00 00 00 00 00 00
       0.0 0.0 0.0 0.0
000230 00 00 80 3f 00 00 00 00 00 00 00 00 00 00 00 00
       1.0 0.0 0.0 0.0
000240 00 00 00 00 00 00 00 00 00 00 80 3f 00 00 00 00
       0.0 0.0 1.0 0.0
000250 00 00 00 00 00 00 00 00 00 00 00 00 00 00 00 00
       0.0 0.0 0.0 0.0
000260 00 00 00 00 00 00 00 00 00 00 80 3f 00 00 00 00
       0.0 0.0 1.0 0.0
000270 00 00 00 00 00 00 00 00 00 00 00 00 00 00 00 00
       0.0 0.0 0.0 0.0
000280 00 00 00 00 00 00 00 00 00 00 00 00 00 00 00 00
       0.0 0.0 0.0 0.0
000290 00 00 00 00 00 00 00 00 00 00 00 00 00 00 00 00
       0.0 0.0 0.0 0.0
0002a0 00 00 00 00 00 00 00 00 00 00 00 00 00 00 00 00
       0.0 0.0 0.0 0.0
0002b0 00 00 00 00 00 00 00 00 00 00 80 3f 00 00 00 00
       0.0 0.0 1.0 0.0
0002c0 00 00 00 00 00 00 00 00 00 00 00 00 00 00 00 00
       0.0 0.0 0.0 0.0
0002d0 00 00 00 00 00 00 00 00 00 00 00 00 00 00 00 00
       0.0 0.0 0.0 0.0
0002e0 00 00 00 00 00 00 00 00 00 00 00 00 00 00 00 00
       0.0 0.0 0.0 0.0
0002f0 00 00 00 00 00 00 00 00 00 00 00 00 00 00 00 00
       0.0 0.0 0.0 0.0
000300 00 00 80 3f 00 00 00 00 00 00 00 00 00 00 00 00
       1.0 0.0 0.0 0.0
000310 00 00 00 00 00 00 00 00 00 00 00 00 00 00 00 00
       0.0 0.0 0.0 0.0
000320 00 00 00 00 00 00 00 00 00 00 00 00 00 00 00 00
       0.0 0.0 0.0 0.0
000330 00 00 00 00 00 00 00 00 00 00 00 00 00 00 00 00
       0.0 0.0 0.0 0.0
000340 00 00 00 00 00 00 00 00 00 00 00 00 00 00 00 00
       0.0 0.0 0.0 0.0
000350 00 00 00 00 00 00 00 00 00 00 00 00 00 00 00 00
       0.0 0.0 0.0 0.0
000360 00 00 00 00 00 00 00 00 00 00 00 00 00 00 00 00
       0.0 0.0 0.0 0.0
000370 00 00 00 00 00 00 00 00 00 00 80 3f 00 00 00 00
       0.0 0.0 1.0 0.0
000380 00 00 00 00 00 00 00 00 00 00 00 00 00 00 00 00
       0.0 0.0 0.0 0.0
000390 00 00 80 3f 00 00 00 00 00 00 00 00 00 00 00 00
       1.0 0.0 0.0 0.0
0003a0 00 00 00 00 00 00 00 00 00 00 00 00 00 00 00 00
       0.0 0.0 0.0 0.0
0003b0 00 00 00 00 00 00 00 00 00 00 00 00 00 00 80 3f
       0.0 0.0 0.0 1.0
0003c0 00 00 00 00 00 00 00 00 00 00 00 00 00 00 00 00
       0.0 0.0 0.0 0.0
0003d0 00 00 00 00 00 00 00 00 00 00 00 00 00 00 00 00
       0.0 0.0 0.0 0.0
0003e0 00 00 00 00 00 00 00 00 00 00 00 00 00 00 00 00
       0.0 0.0 0.0 0.0
0003f0 00 00 00 00 00 00 00 00 00 00 00 00 00 00 00 00
       0.0 0.0 0.0 0.0

q_probs f4 [100, 3]
000000 7f 72 1a 3f 32 a4 98 3c 51 45 86 3c a4 c1 72 3c
       0.6033096 0.018632982 0.016390475 0.014816675
000010 56 e3 a7 3c e5 75 58 3c 71 10 91 3c d1 60 83 3c
       0.020494144 0.013211702 0.017708035 0.016037377
000020 c6 8c f4 3c 2d 5a 94 3c e2 73 f1 3c e6 50 72 3f
       0.029852282 0.018109405 0.029474203 0.9465469
000030 63 2d 3a 3e ba 41 cc 3c 8f 12 c3 3d f9 58 8f 3d
       0.18181376 0.024933685 0.09525024 0.06999392
000040 f7 ac c1 3c e9 05 64 3d 26 f9 67 3c 05 32 82 3c
       0.023642046 0.0556697 0.014158523 0.015892992
000050 ac f4 82 3c 7f 37 b7 3c 99 b8 88 3c 8e f7 fe 3c
       0.01598581 0.02236533 0.016689586 0.031123903
000060 f0 98 dd 3d e8 31 5e 3c d4 9f 6b 3f 63 0d 67 3c
       0.10820186 0.013561703 0.92040753 0.014102313
000070 0b f4 5c 3c 4b 17 91 3c 4b a8 68 3c 8b 0c 12 3d
       0.013485919 0.017711302 0.01420028 0.035656493
000080 23 23 5e 3c c8 79 1d 3d 77 67 b1 3c d1 f6 91 3c
       0.013558182 0.038446218 0.021655781 0.017817887
000090 67 b4 ed 3c e7 fb 53 3f fe d4 82 3c 08 e4 64 3c
       0.029016687 0.8280625 0.015970703 0.0139703825
0000a0 3b c0 6a 3c 7e a0 61 3c a1 a1 a6 3c 52 ae 0f 3d
       0.014328058 0.0137711745 0.020340743 0.035078354
0000b0 d8 46 c5 3c 99 91 1c 3d 0c 4c 70 3c 3b f8 76 3c
       0.024081632 0.03822479 0.0146665685 0.015073831
0000c0 9b 0b 80 3c 20 7f a9 3d 47 76 84 3d 4d 68 95 3c
       0.015630534 0.082762 0.06467872 0.018238211
0000d0 67 36 be 3c 95 3a 09 3d 0a eb 69 3c d7 1d 80 3c
       0.0232193 0.033503134 0.014277229 0.015639229
0000e0 50 9f 70 3c 47 0c 44 3d d0 e4 b6 3c 8f 44 6b 3c
       0.014686421 0.04786327 0.022325903 0.014359607
0000f0 40 83 85 3c 79 f2 76 3c d6 13 6b 3c 71 65 5c 3c
       0.016297936 0.015072458 0.014347991 0.01345192
000100 b4 20 6c 3c bf b4 72 3c d0 95 2b 3d dd 18 93 3c
       0.014412094 0.014813601 0.04189092 0.017956192
000110 89 ee 11 3d 32 9f da 3c ea 5a 82 3c 3e cb 4b 3d
       0.035627875 0.026687238 0.015912492 0.049754374
000120 86 39 7e 3c 4b a4 97 3c 34 a2 b4 3c d8 25 6f 3c
       0.015516644 0.018510958 0.02205 0.014596425
000130 bd e1 52 3c ed ad 55 3c d6 89 1e 3d 46 fa 60 3c
       0.012871203 0.013041955 0.03870567 0.013731545
000140 47 df 58 3d 2d 1a 82 3c 46 d0 85 3c cc 58 4a 3c
       0.05294731 0.015881622 0.016334664 0.012350272
000150 81 ab 0e 3d 87 e1 b3 3c a1 d4 f7 3c 01 56 b6 3c
       0.034831528 0.021958126 0.030252757 0.022257807
000160 d3 dd 98 3c 9e a9 9a 3c ee 1a 81 3c 1f 9d c2 3c
       0.018660462 0.018879708 0.015759911 0.023756562
000170 e9 43 97 3c 4a 66 e2 3c 84 b9 82 3c 25 50 8c 3c
       0.018465 0.027636666 0.015957601 0.01712806
000180 c0 7a af 3d b3 a2 ed 3c 7a 03 38 3c b4 8a 04 3e
       0.085683346 0.029008245 0.011231298 0.12943536
000190 af 8d e1 3c cb bf 3c 3f a5 d8 75 3f a8 61 97 3c
       0.02753338 0.7373015 0.960337 0.018479183
0001a0 86 5b 4a 3e 86 02 ce 3c 60 b0 91 3c 81 33 9b 3c
       0.19761476 0.025147688 0.017784297 0.018945457
0001b0 e2 3a 7d 3c fa 2e 66 3c bd 0a 46 3f af de af 3c
       0.015455933 0.014049286 0.77360135 0.021468488
0001c0 da a2 84 3c eb a1 92 3c 85 37 18 3d 0f 68 94 3c
       0.016190935 0.017899474 0.037162323 0.018116025
0001d0 16 13 df 3c 9b 30 31 3c 83 2b 88 3c b4 ce 3d 3f
       0.02723078 0.010814811 0.01662231 0.7414353
0001e0 5f d7 82 3e 75 eb eb 3c c1 24 af 3c f6 e9 93 3c
       0.2555494 0.028798798 0.02137983 0.018055897
0001f0 d6 d6 b0 3c 57 40 69 3c bd c3 65 3d 42 3a 2c 3c
       0.021586817 0.014236531 0.056094874 0.010511937
000200 b8 ed 3b 3c 87 83 d4 3d f6 42 8b 3c 84 32 8e 3c
       0.011470251 0.10376649 0.016999703 0.017358072
000210 21 ac dc 3c 1d 6c 94 3c 9a 84 43 3d 9f 68 0c 3d
       0.026937546 0.018117959 0.04773388 0.034279462
000220 a4 dc a3 3c a8 4e 6f 3c 25 a2 09 3d e5 f5 bf 3c
       0.02000267 0.014606155 0.0336019 0.023432681
000230 f5 bf 62 3f f0 60 61 3c 49 c8 90 3c f0 6b 82 3c
       0.88574153 0.013756022 0.017673628 0.01592061
000240 42 1c 9c 3c 5f 1a 22 3f 3a 52 63 3f 2c 83 7d 3c
       0.019056443 0.6332149 0.8879734 0.015473168
000250 2d 4f 7d 3c d0 8c 84 3c 27 dd e1 3c b4 d0 a3 3c
       0.0154607715 0.016180426 0.027571274 0.019996978
000260 46 d8 4e 3c 9f 1b 7e 3e 0a 99 6e 3f dd 95 5d 3c
       0.012624806 0.24815224 0.9320227 0.0135245
000270 9e 03 96 3c 84 9e ec 3c 6d d0 44 3d 0d 85 e7 3c
       0.018312272 0.02888418 0.048050333 0.028261686
000280 ae 2f 7f 3c 69 93 99 3c 01 a9 5a 3c 43 f8 64 3c
       0.015575333 0.018747048 0.013345958 0.013975206
000290 13 3b 00 3d 17 05 bb 3c 40 af 82 3c 9e d7 63 3c
       0.031306338 0.022829575 0.015952706 0.013906388
0002a0 1d e0 62 3c 60 4e 87 3c 0f 58 26 3d c5 78 ad 3c
       0.013847378 0.016516864 0.040611323 0.021175751
0002b0 0c 3d 6e 3c 50 c7 2d 3c 30 a9 5e 3e 26 eb 43 3c
       0.014540922 0.010606602 0.21744227 0.011957919
0002c0 94 7e 26 3d 5b 8d 96 3c 12 e0 80 3c 2e f3 82 3c
       0.040648058 0.01837795 0.015731845 0.015985098
0002d0 79 6d 6a 3c 7a 63 52 3d 02 eb cd 3c 97 99 79 3c
       0.014308327 0.0513644 0.025136475 0.015234373
0002e0 9b d6 af 3c a5 11 41 3d ee a8 b1 3c 34 97 90 3c
       0.021464637 0.047135968 0.021686997 0.017650224
0002f0 d7 42 6d 3c 11 6e 62 3c 0c 98 8c 3c 29 74 7b 3c
       0.014481268 0.013820187 0.017162345 0.015347519
000300 08 2a e6 3e 11 cd 74 3c e3 af e1 3c df 9b 5a 3c
       0.44953942 0.01494147 0.02754969 0.013342827
000310 90 97 54 3c 23 d8 6b 3c 93 1d 4d 3c f5 e6 8c 3c
       0.012975588 0.014394793 0.012519258 0.017199973
000320 f5 4d 81 3c 49 cb e1 3c 61 e0 80 3c 33 e8 94 3c
       0.015784243 0.027562754 0.015731992 0.018177127
000330 21 01 80 3c b8 74 68 3c 32 e9 ae 3c 48 9a b8 3c
       0.015625538 0.014187984 0.02135143 0.022534505
000340 2d 26 4d 3c c6 67 87 3c 0c a2 7a 3c 1a e3 8c 3c
       0.012521309 0.016528975 0.015297424 0.017198134
000350 15 d7 9e 3c 9f b8 01 3e 34 53 97 3c 4f 49 76 3c
       0.019389668 0.12668084 0.018472292 0.015032127
000360 5a 74 6d 3c e2 80 3f 3c d5 2a 1d 3d 89 22 5a 3d
       0.014493072 0.011688443 0.038370926 0.05325559
000370 26 2a a6 3c ce 12 aa 3c ca c4 e8 3d eb 0b 89 3c
       0.02028377 0.02076092 0.113656595 0.016729316
000380 6c 28 86 3c 22 69 41 3c 2b b5 4b 3c 55 24 6b 3c
       0.016376697 0.011804851 0.0124333305 0.014351924
000390 b0 e7 3f 3f 58 43 90 3c 02 e3 06 3e 7c b0 72 3c
       0.749629 0.017610237 0.13172534 0.014812585
0003a0 56 2d 23 3c 88 60 24 3c 2b 0c 83 3c 1d 7b 8c 3c
       0.009959539 0.0100327805 0.015997013 0.017148549
0003b0 83 7d 85 3c 37 94 08 3e f6 f1 94 3c 85 a5 1a 3f
       0.0162952 0.1333779 0.018181782 0.6040881
0003c0 f6 99 54 3e 1f 48 9a 3c bf 47 af 3c 57 43 01 3e
       0.20761856 0.018833218 0.021396516 0.12623344
0003d0 5f 1c 5b 3c df 75 3d 3d dd 83 b7 3c 92 59 86 3c
       0.013373463 0.04625499 0.022401744 0.016400132
0003e0 d5 44 aa 3c 65 73 ad 3d 74 44 98 3c ec 9c e3 3c
       0.020784775 0.084692754 0.018587328 0.027784787
0003f0 65 e0 dd 3c d1 5e 6d 3c b1 16 89 3c 4b f4 d5 3c
       0.027084539 0.014487938 0.016734453 0.026117465

weight f4 [10, 74]
000000 69 fe 36 be 28 59 06 3e 4f dd 46 be 85 b8 7d bd
       -0.17870487 0.13119948 -0.1942036 -0.06194355
000010 c7 2d 08 bd 3b 5e 8a be 45 ce 2d 3e 19 a0 da 3e
       -0.03324678 -0.27025017 0.16973217 0.4270027
000020 3f 9b 79 3e b3 c2 fe 3e cb b9 27 be 2f bd b6 3e
       0.24375628 0.4975792 -0.16379468 0.3569121
000030 22 1c d5 3d 6c 44 8e 3e 1d 77 51 bc 6f 76 6b bd
       0.104057565 0.27786577 -0.0127847465 -0.057485994
000040 24 bd fd bd 3a 3d 0b 3f c3 ff 00 3f 63 03 c3 3e
       -0.12389591 0.543903 0.5039026 0.3808852
000050 1f 2f 92 be 28 80 e8 3c f3 c1 6c bb 10 36 b8 3e
       -0.28551576 0.028381422 -0.0036126345 0.35978746
000060 3f 38 f9 3e 87 b4 c4 be 4d ed 94 3e b9 8b bb be
       0.48675725 -0.3841898 0.29087296 -0.36630037
000070 87 49 d5 bc ae 46 7c 3e d3 c7 14 3f 19 cc 12 3f
       -0.026036037 0.24636337 0.5811741 0.5734268
000080 1c 06 58 3e e3 bf 2d bd af 69 23 be 55 3e ce 3e
       0.2109608 -0.042419326 -0.15958284 0.4028193
000090 0f 27 10 3f 4d 2e ed bc e5 48 ab 3e 6c 29 b8 3e
       0.563096 -0.028952742 0.33454052 0.35969102
0000a0 72 48 ab 3e 78 77 07 3f 09 7c bc bc 4d ae 95 3e
       0.3345371 0.5291667 -0.023008363 0.29234543
0000b0 73 a4 d8 bc 8e ba e7 3b 59 73 d7 3e 47 03 08 3f
       -0.026445603 0.0070717996 0.4208019 0.5313
0000c0 b1 a2 d3 3e c6 c6 02 3f 06 3c e3 bc 48 92 29 3e
       0.4133506 0.51084554 -0.027738582 0.16559708
0000d0 00 92 af bd f7 c5 a9 3d 63 e8 d1 3d 35 07 b0 be
       -0.08572769 0.08289712 0.102494024 -0.343805
0000e0 b3 93 ca 3d 28 25 9d 3e 5c 82 e4 3e 90 1b 15 3f
       0.09891453 0.3069241 0.44630706 0.5824518
0000f0 6c 26 bc 3d ad 53 d1 3e 7e ab fb 3e fd 4b 49 bc
       0.09187016 0.40884152 0.49154276 -0.012286183
000100 37 63 41 3d 01 24 9e be f9 cf b4 be e0 5c 48 3e
       0.04721376 -0.30886844 -0.3531492 0.19566679
000110 0e fb b7 3e 92 51 8d 3e 7c a8 d0 3d 84 b7 c2 3e
       0.35933727 0.27601296 0.10188386 0.38030636
000120 a2 4a d4 3d f5 e9 08 3f f9 f3 26 be f1 00 0e 3e
       0.103657976 0.5348199 -0.16304006 0.13867547
000130 e6 5d 1c be ad 49 0c bd f9 2f a5 bc 1f 2e 4d be
       -0.15270194 -0.03424995 -0.020164477 -0.20037125
000140 cb 8e 80 3e 9f b4 b3 3e 5d 34 51 3e 29 b8 af 3e
       0.25108942 0.3509874 0.20430131 0.3432019
000150 63 3a 11 be 75 43 82 3e 38 46 e2 3d ef 96 94 3e
       -0.14182429 0.2544209 0.110485494 0.29021403
000160 17 3e ee ba 89 52 f1 bc 94 35 cb bd da 38 d2 3e
       -0.0018176463 -0.029458301 -0.099223286 0.41059
000170 da bb d2 3e 9d 78 90 3e 64 3b 8e be 61 76 26 3d
       0.41158944 0.2821702 -0.27779686 0.04064024
000180 f4 0e 32 bb 5b e6 83 3e 23 22 b7 3e ea 8d ac be
       -0.0027169557 0.25761685 0.35768232 -0.33702022
000190 97 69 85 3e 6e e2 bb be 4e 15 35 bc 9a e0 80 3e
       0.2605712 -0.3669619 -0.011052443 0.25171357
0001a0 ba 81 d1 3e 9b 0b b2 3e 2e ef 89 3e 07 be 39 3c
       0.40919286 0.3477448 0.26940292 0.01133681
0001b0 2a 17 15 be 27 7c 95 3e 79 df e6 3e 37 ad 5e bc
       -0.14559618 0.29196283 0.4509237 -0.013591102
0001c0 4a 95 6a 3e 9e e0 90 3e 0d e1 7f 3e c0 e8 d2 3e
       0.22908512 0.2829637 0.24988194 0.411932
0001d0 1c cc 0f bb 2c 67 86 3e c9 6c b5 3c 02 2b 50 3c
       -0.0021941727 0.2625059 0.0221466 0.012705566
0001e0 01 4b a5 3e ea df b8 3e b2 70 95 3e 17 54 cf 3e
       0.32283786 0.36108333 0.29187542 0.40493843
0001f0 72 94 08 bc e7 1c 59 3e 92 99 99 bd a2 f5 f4 3d
       -0.008336173 0.21202432 -0.07499994 0.11960913
000200 c2 48 f4 3d 16 b3 9d be 5e a7 fa 3d 26 b5 85 3e
       0.1192794 -0.30800694 0.12238954 0.26114768
000210 bd 54 a2 3e 03 f1 e9 3e ec c9 ec 3d bd 27 92 3e
       0.31705275 0.4569169 0.11561951 0.28545943
000220 e2 7e d8 3e ef e8 2c 3c f9 64 5d 3d 4c 2c 94 be
       0.42284304 0.010553583 0.054051373 -0.28940046
000230 a2 11 b5 be 59 37 86 3e ce 19 81 3e ed a7 5b 3e
       -0.35365015 0.26214102 0.25215 0.21450777
000240 f9 20 ef 3d 82 57 a6 3e c0 d7 10 3e 46 5a c2 3e
       0.11676211 0.32488638 0.14144802 0.37959498
000250 73 c0 30 be 68 08 c5 3d 95 9e 3f be 5f 94 97 bd
       -0.17260914 0.09620744 -0.18712838 -0.074013464
000260 e3 c2 3a bd fd 67 81 be 52 ef 16 3e 09 20 ba 3e
       -0.045596015 -0.2527465 0.14739731 0.36352566
000270 05 ff 48 3e c4 bd aa 3e cd 77 29 be 14 5c 9c 3e
       0.19628532 0.33347905 -0.16549607 0.30539
000280 6d 23 9a 3d 01 f7 63 3e f6 6d df bc 42 3e 28 bc
       0.07526288 0.22262193 -0.027274113 -0.01026875
000290 c5 3f 0d be fb 9d f0 3e ce 37 bd 3e 6e 5e 9e 3e
       -0.13793857 0.4699553 0.36956638 0.3093142
0002a0 64 a7 96 be 69 91 38 3c 0e 1a ca bc 22 ff 98 3e
       -0.29424584 0.011265137 -0.024670627 0.2988215
0002b0 98 6e c3 3e 70 f8 d9 be 29 a4 7f 3e 5b fd c5 be
       0.38170314 -0.42572355 0.24964966 -0.38669857
0002c0 36 dc 2b bd b3 c9 57 3e 0c 1b e9 3e e5 7c c5 3e
       -0.041958056 0.21073036 0.45528448 0.3857185
0002d0 26 5f 3c 3e db eb 7e bd e9 44 2c be 39 c5 b1 3e
       0.18395671 -0.062236648 -0.16823162 0.3472078
0002e0 16 5f c6 3e ab a4 21 bd 0e 93 84 3e e7 80 91 3e
       0.3874442 -0.03946368 0.25893444 0.28418657
0002f0 52 ae 93 3e 4f ac c2 3e fd c5 17 bd 7a db 6b 3e
       0.28843933 0.38022086 -0.03705405 0.23032942
000300 d0 e0 04 bd 41 f6 40 bc d8 4e bd 3e 68 9f e0 3e
       -0.03244096 -0.0117774615 0.36974216 0.43871617
000310 9a a3 aa 3e 59 67 ca 3e 3a e7 37 bd 4c 0e fd 3d
       0.33327943 0.39531973 -0.04489825 0.123562425
000320 cd 57 ab bd 90 52 7f 3d b1 a7 8f 3d 1c f5 b0 be
       -0.08366356 0.062334597 0.070144065 -0.34562004
000330 b4 1b 98 3d 69 5e 7f 3e a0 ab a7 3e 75 65 d5 3e
       0.07427159 0.24938358 0.32748127 0.41678968
000340 54 df 89 3d 99 85 ba 3e 77 e1 cb 3e 20 17 c4 bc
       0.067320496 0.36430052 0.39820454 -0.023936808
000350 ad 2b c8 3c fd 55 98 be 74 cd c9 be 34 b3 33 3e
       0.024434889 -0.29753104 -0.3941456 0.1754883
000360 53 5c 97 3e b0 a1 70 3e 42 e9 99 3d de 46 bd 3e
       0.29562625 0.23499179 0.075151935 0.3696813
000370 45 d2 b0 3d 93 14 ab 3e 4e 82 90 bd a1 a9 38 3e
       0.08633856 0.33414134 -0.07056104 0.18033458
000380 27 bf 0f bd 4d ad e9 3c 8a 17 1e 3e 3c a3 99 bd
       -0.035094406 0.028525019 0.15438667 -0.075018376
000390 43 0d 07 3e 74 19 7e 3e ba d0 33 3e 5a b4 8e 3e
       0.13188653 0.24814397 0.17560092 0.27871972
0003a0 0f 30 4e bd af 61 f8 3d db e7 5b 3e 28 87 20 3e
       -0.0503388 0.12128007 0.21475165 0.15676558
0003b0 25 c1 0d 3e 22 ff 3f 3d 6a b0 ed 3c 68 46 14 3e
       0.1384321 0.046874173 0.029014785 0.14479983
0003c0 cb cc 6a 3e 0c dd 27 3e eb 23 00 be 6a 13 27 3e
       0.22929685 0.16392916 -0.12513702 0.16316
0003d0 21 37 81 3e 62 f8 10 3e 9b 79 fa 3d 09 9e a1 be
       0.25237373 0.1415725 0.12230226 -0.31565884
0003e0 37 ee 0f 3e 51 0a 75 be bd 1d b1 3d f2 7e 0b 3e
       0.14055716 -0.23929717 0.0864825 0.13622645
0003f0 6b 42 8a 3e fc 0d 4c 3e c5 bc fb 3d 35 75 80 3d
       0.27003798 0.1992721 0.12291864 0.062723555

bias f4 [10]
000000 9e ff 44 bf 90 a0 05 bf 75 78 2c bf a8 81 63 be
       -0.7695254 -0.52198124 -0.673713 -0.22217429
000010 15 7e 22 bf db 15 4c bf 58 94 cc be 67 50 3a bf
       -0.63473636 -0.7972085 -0.39956927 -0.72778934
000020 96 81 96 bf b2 11 52 bf
       -1.1758296 -0.8205825

weight f4 [10, 10]
000000 46 22 7c be c1 00 e7 be 24 2c b7 3b 23 f8 12 be
       -0.2462245 -0.45117763 0.005589979 -0.14352469
000010 01 17 b9 3b 22 b1 5e be 7a a4 20 be 6d e9 04 be
       0.005648494 -0.21747258 -0.15687743 -0.1297967
000020 db 53 5f bc 1b 0b c2 3c ca 02 5e 3e 6e d2 41 3e
       -0.013630833 0.023686936 0.21680751 0.18927929
000030 f0 34 03 bc b6 ae b5 3e 10 7c bf 3d 36 48 3d 3e
       -0.008008227 0.35484856 0.09349835 0.18484578
000040 69 45 ae 3e d8 6a 50 3d 83 b9 fd 3d 1c c2 91 bc
       0.3403733 0.050883144 0.12388899 -0.017792754
000050 51 94 91 be 77 14 bb be 0b f7 5b be e8 4a 35 3d
       -0.2843347 -0.3653905 -0.21480958 0.04426089
000060 74 db ab be 4c cb a5 be 5a 2c d6 be ff 0d 87 be
       -0.33565867 -0.32381666 -0.41830713 -0.26377866
000070 82 5b 5e 3c bc fc 28 3d db cc f8 bc 75 02 5c be
       0.013571622 0.04125665 -0.03037112 -0.21485312
000080 49 1a 68 bd 11 3b 1a bf 56 2b d6 be 13 01 2f bf
       -0.056665692 -0.6024638 -0.41829938 -0.68361014
000090 c5 f4 42 bf 67 87 78 be 44 2b cd be 7c ce 0d bf
       -0.7615474 -0.24270402 -0.40072072 -0.55393195
0000a0 bb 47 51 be 20 e1 aa be 6f 4b 71 3d 7b f8 9d 3d
       -0.20437519 -0.33374882 0.05890983 0.077134095
0000b0 2a 2a b2 bd cc a3 0b be d8 28 a5 bd 97 b8 3d bd
       -0.086994484 -0.13636702 -0.08064431 -0.046318617
0000c0 b0 fd c6 bd 08 21 67 be 5b 86 09 be 9c 39 03 3e
       -0.09716356 -0.22571194 -0.13430159 0.12814945
0000d0 82 4a b5 bc 24 36 07 3e 1c 5c 08 bd 8b 62 81 3e
       -0.022130255 0.13204247 -0.033290967 0.25270495
0000e0 fb 70 4f 3e 80 08 2b be 86 9c 8f be 6e f1 0e 3e
       0.20257942 -0.16702461 -0.28049105 0.13959286
0000f0 93 a8 f7 be 1b d1 00 3e a4 24 e6 be 9d 4a 9f bd
       -0.483708 0.12579767 -0.4494983 -0.07777903
000100 36 03 0a be c4 03 14 be cd 38 e2 3c 61 d2 e7 3d
       -0.13477787 -0.14454561 0.027614975 0.113194235
000110 19 d5 8c be 4f b2 9b be de 20 20 be 4f 6e 62 be
       -0.2750633 -0.30409476 -0.15637538 -0.22112392
000120 e8 40 e0 be c3 c0 02 bf aa 4f af be a0 60 6d bb
       -0.4379952 -0.5107538 -0.34240466 -0.0036220923
000130 88 44 5a be a2 c1 0d be 18 b6 c6 be 2a 31 a5 be
       -0.21315205 -0.13843396 -0.38810802 -0.32264072
000140 5d 01 75 be 99 67 00 bd bf 89 e7 be 47 a0 03 bf
       -0.23926301 -0.0313488 -0.4522228 -0.5141644
000150 09 00 18 be 6c 59 92 be 02 48 c7 be 8c 08 09 bf
       -0.14843763 -0.28583848 -0.38922125 -0.53528666
000160 44 fa 2e bd 88 1b ac be 93 f1 8e bd 27 02 b9 be
       -0.04271914 -0.33614755 -0.069796704 -0.36134455
000170 cb 3b d0 be a2 ce 88 bd 37 7d 9f be 96 10 3f be
       -0.40670618 -0.06680037 -0.3115022 -0.18658671
000180 9c d6 2a be df 6a f6 bc dc 32 d9 be 6f 27 f3 3c
       -0.1668343 -0.030080257 -0.42421615 0.02968189

bias f4 [10]
000000 0a db b3 be b6 56 e1 3e 7a 5a 50 3d 85 23 41 bf
       -0.3512805 0.44011468 0.050867535 -0.75444824
000010 5e 3b 27 bd 9e 34 57 3e b6 10 bd be 15 2e 86 bd
       -0.0408281 0.21016166 -0.36926812 -0.06551758
000020 39 00 87 bd 4b 96 00 bf
       -0.06591839 -0.5022933
