mcspace/paper/mouse_runs/runs/seed_8/model.pt (torch, 464942 bytes, 99 tensors)

theta_params f4 [100, 74]
00000000: 1fd8 acc0 c52a 86c0 41d2 46c0 2342 7abf
00000010: 9078 3dc0 a900 ee3f 3f1c 743f 5cd3 8ac0
00000020: a5d7 b9c0 a2c9 a73e 7062 55c0 7152 6bc0
00000030: 083b 5d3e 0dbb 8ac0 4e2d 7e3f 9b65 153f
00000040: 4d71 7fc0 356a 94c0 8a14 a5c0 4cbf 66c0
00000050: ef14 1cc0 12b8 5fc0 ef12 adc0 e50d b3c0
00000060: 1d53 8cc0 23f8 1240 2c5a 7fc0 4adf 42c0
00000070: cf23 55c0 2ee4 d9bf 71d3 88c0 27bd 4fc0
00000080: 952f 1b3f 90a1 d1bf 9550 58c0 0273 6fc0
00000090: 8fb7 88c0 6750 56c0 42f2 673f e6ed 90c0
000000a0: 22ea 68c0 9976 89c0 c243 7dc0 f72a 98c0
000000b0: 50b8 7ac0 4640 fa3f f455 86c0 ea0d 6fc0
000000c0: 670c 73bf 96bd 5dc0 9765 adc0 0995 e9be
000000d0: a78f 97c0 7730 d940 8285 07c0 b56d ae3f
000000e0: b34a 6ac0 01db 63c0 ed0b 91c0 cfab 82c0
000000f0: 88e3 29c0 f1db 45c0 4f9f 91c0 070c 68c0
00000100: 143e 24bf 11ad 83bd 0fd2 5fbf 1e38 7abf
00000110: 854e 9ac0 14f7 d8c0 1729 55c0 42b2 a2c0
00000120: ceae 6dc0 4e6a 64bf fe08 773f 0d13 b13f
00000130: f579 c43f 6d14 f3be 0a71 62c0 adf5 ce3f
00000140: ae45 93bf 3aef b8be c0a0 93bc 91b8 00c0
00000150: 7b1c a4c0 e515 d63e 0d4e 9fb7 0d10 0bc0
00000160: b62c 60c0 04f1 b7bd 47f6 65bf 6ace c0c0
00000170: b31f 7dbe 64e8 b8c0 6ae1 2a3f d0a6 a73f
00000180: 4fa8 ba3e f451 ecbf bf2c 4cc0 e20c 3640
00000190: 1c11 483f 13ae 90bf 1157 8f3e 3fb4 863e
000001a0: ad33 b6c0 c07b 56c0 7761 d3c0 5bae f5be
000001b0: 548b 573f 71a1 ecbe e50a 3abf 7a1a a4c0
000001c0: e062 82c0 e745 a840 82f8 eebe 95f6 43c0
000001d0: 5137 a6bf 40b8 8ac0 bf01 c43e bbd1 fcbf
000001e0: c564 ccc0 4827 eabf bac7 72c0 b6ec c6c0
000001f0: 0601 afc0 6fc6 67bf ef59 adbd 689a 82c0
00000200: 9df6 c53e 7600 7cc0 d6da 403f 7363 acc0
00000210: 3cf7 e9c0 acc6 64c0 d719 eb3f d8c4 b7c0
00000220: b54e 23c0 ba7b 93c0 48ae 88c0 7567 06c0
00000230: e752 b8be 55ce 6bc0 352e e83e 35e5 913f
00000240: 2add 0bbe 01ca c93d 8130 2bbf 8a51 a7c0
00000250: 8596 dfbf 11e9 073e 7b32 88c0 96c8 aec0
00000260: beb4 fd3d 67b9 75c0 c9bd 72c0 d585 88c0
00000270: cda7 bdc0 b3c4 48c0 d72e b0c0 b4c6 ccbf
00000280: 875e aec0 84b2 bcc0 0b93 863e e50d a9bf
00000290: f2c9 843f c7e9 b2c0 7e1e 9ac0 cf75 86c0
000002a0: 6429 aac0 1da2 83c0 0653 19bd 1ea4 bfc0
000002b0: 4688 bfc0 3e2a 4fc0 3401 87c0 65a0 a53f
000002c0: 3b20 1240 9c26 8dc0 5c7c 70c0 afc8 69c0
000002d0: 848f 7cc0 77c6 c83f c6dd 99c0 0c8b 8fc0
000002e0: 3cf3 8ac0 9287 93c0 d60b 6fc0 64e1 5ac0
000002f0: d23a 6bc0 463e 8dbf 0047 9ac0 3ad0 8d3f
00000300: 09aa 89c0 92af 53bf acf1 95c0 379b 77c0
00000310: 1327 55c0 a305 8bc0 d099 463f 74aa a1c0
00000320: 0ea6 bac0 391a 8fc0 6f32 acbf 23df d6bd
00000330: a2ea b2c0 d7c5 b2c0 2d1c 99c0 6007 b740
00000340: cdd4 b23f 9e14 c6c0 82f0 acc0 acae 20c0
00000350: fd93 0c40 c453 d43f 9461 aec0 19a2 5fc0
00000360: a8a9 9cc0 2916 51c0 0305 72c0 214f abc0
00000370: 0a7f bdc0 5a34 d6c0 ace2 96c0 5979 60be
00000380: 1f61 84c0 4878 77c0 2f58 b4c0 450d 09c0
00000390: 036c 23c0 9379 34c0 f9aa 58c0 e90a efbf
000003a0: 3e00 1fbe bfbb 3fc0 4494 92c0 b0fd c1bf
000003b0: 34a9 273e dfca 63bf 3eb8 34c0 7f7f 84c0
000003c0: 2e91 6ec0 611f 2bc0 9c96 d1bf 7118 7fc0
000003d0: 1757 72c0 ea9a 5cc0 edda 0dc0 7c2d 8fc0
000003e0: 089c 12c0 98cf 3bc0 64c0 c5bf e64c a13e
000003f0: 697d 86c0 1f57 11c0 4228 20c0 4729 aac0
-5.401382 -4.192721 -3.1065829 -0.97757167 -2.9604836 1.8593951 0.953556 -4.3383007
-5.807574 0.3277102 -3.3341331 -3.6769068 0.2160455 -4.3353333 0.9928788 0.5835816
-3.9912903 -4.6379647 -5.158757 -3.6054258 -2.4387777 -3.4956098 -5.408561 -5.595446
-4.3851457 2.296395 -3.9898787 -3.0448785 -3.3303106 -1.702276 -4.2758107 -3.24592
0.6061948 -1.637743 -3.3799183 -3.7413945 -4.272407 -3.3486574 0.9060403 -4.5290403
-3.6392903 -4.2957273 -3.9572606 -4.7552447 -3.9174995 1.9550865 -4.1979923 -3.7352242
-0.949408 -3.4646964 -5.418651 -0.45621517 -4.7362857 6.787166 -2.1175237 1.362723
-3.6608093 -3.560242 -4.532706 -4.0834727 -2.6545124 -3.0915492 -4.550697 -3.625734
-0.64157224 -0.06429494 -0.874299 -0.9774188 -4.822085 -6.780161 -3.330633 -5.08426
-3.7137942 -0.8922471 0.96498096 1.3833939 1.5349718 -0.4747652 -3.5381494 1.6168724
-1.150564 -0.36120015 -0.018020988 -2.011265 -5.1284766 0.4181358 -1.8990622e-05 -2.1728547
-3.502729 -0.08981517 -0.89828914 -6.025197 -0.24719124 -5.778368 0.66750205 1.3097782
0.36456534 -1.846251 -3.190231 2.8445363 0.78151107 -1.1303123 0.27996114 0.26309392
-5.693808 -3.351303 -6.6056476 -0.47984585 0.8419697 -0.4621692 -0.72672874 -5.128232
-4.0745697 5.258533 -0.4667397 -3.0619252 -1.2985631 -4.3349915 0.38282582 -1.9751505
-6.387301 -1.8293238 -3.7934403 -6.2163954 -5.468875 -0.9053716 -0.08464419 -4.0813484
0.38664714 -3.9375281 0.7533392 -5.38714 -7.31143 -3.574626 1.8367261 -5.742779
-2.551679 -4.6088533 -4.2712746 -2.1000645 -0.3600075 -3.6844685 0.45347753 1.1398073
-0.13658586 0.09852982 -0.66870886 -5.2287035 -1.746781 0.13272502 -4.256162 -5.4619856
0.123879895 -3.839441 -3.7928336 -4.266337 -5.9267335 -3.1370056 -5.5057178 -1.5998139
-5.449039 -5.8967915 0.2628406 -1.3207365 1.0374129 -5.5910373 -4.816222 -4.201881
-5.3175526 -4.113539 -0.037432693 -5.988784 -5.985385 -3.2369533 -4.218897 1.2939574
2.2832172 -4.410963 -3.7575903 -3.6528738 -3.9462595 1.5685567 -4.808322 -4.4857235
-4.3421917 -4.610299 -3.7350974 -3.4200068 -3.675465 -1.1034629 -4.821167 1.1079171
-4.3020062 -0.82689774 -4.685751 -3.8688486 -3.33051 -4.344438 0.7757845 -5.0520573
-5.8327703 -4.471951 -1.3452891 -0.10491779 -5.5911417 -5.5866504 -4.7846894 5.7196503
1.3971192 -6.1900167 -5.404359 -2.5106611 2.1965325 1.6588063 -5.4494114 -3.4942687
-4.89571 -3.2669775 -3.781556 -5.3534093 -5.9217577 -6.6938906 -4.71517 -0.2192129
-4.1368556 -3.8667164 -5.6357646 -2.141435 -2.5534675 -2.8199203 -3.3854353 -1.8675205
-0.15527436 -2.995834 -4.580599 -1.5155544 0.1637314 -0.8898143 -2.8237453 -4.1405635
-3.727611 -2.6737902 -1.6374087 -3.9858668 -3.7865655 -3.4469552 -2.2164872 -4.4743023
-2.2907734 -2.9345455 -1.5449338 0.3150398 -4.202809 -2.2709424 -2.5024571 -5.3175387

q_mu f4 [7]
00000000: 6c94 6cc0 60e2 12c0 9b7a 12c0 d581 37c0
00000010: 2444 19c0 a4ee 02c0 62b8 84c0
-3.696559 -2.2950668 -2.2887332 -2.8672993 -2.394784 -2.0458155 -4.1475077

q_var f4 [7]
00000000: 90bd 3fc0 7f9d bac0 9660 5fc0 2ddc 8fc0
00000010: 117b 3dc0 1b92 a4c0 5395 97bf
-2.995945 -5.8317256 -3.4902701 -4.495627 -2.9606364 -5.142835 -1.1842445

eps f4 [7]
00000000: 9e35 bfbe 82b5 80bf d80e 85bf e519 ef3e
00000010: 34b3 a1be 206a b0be f447 10bf
-0.37345594 -1.0055392 -1.0395155 0.46699443 -0.31582034 -0.34455967 -0.5635979

q_gamma_params f4 [99]
00000000: 05ad 5a40 0dab f8bf 35fa 6b40 2ce3 2940
00000010: 779c 8140 8680 6d40 fd8d ff3f c40d 8040
00000020: 4b2e 7b40 c6b7 6140 1b74 373f ae4c 6440
00000030: 3c15 7540 0f53 6140 8a95 6240 e763 903f
00000040: b601 2f40 0e80 6740 d3dd 8040 7181 8740
00000050: b9b7 7140 c365 4a40 0799 1d40 b687 8040
00000060: 45b1 6a40 cfbb 8440 d000 6a40 5dfc 6340
00000070: 5fb0 7c40 470d 7040 2453 6940 0750 b53f
00000080: d737 8340 b1b8 6340 18d8 3e40 f93e 4640
00000090: 90b0 5740 28aa 3d40 b250 7040 abb3 fb3f
000000a0: 0ff3 5d40 c52b 8340 aefb 8340 2b66 7c40
000000b0: 8a5a f83e fc9d 8340 a285 8340 bbc1 8c40
000000c0: d8d7 8640 1779 7840 b1d6 ce3f 16fc 6e40
000000d0: 9ac4 6c40 af64 4640 1ba6 7540 3f7f 7940
000000e0: 3d7d 7e40 50ad 7740 3130 7440 7fcb 1340
000000f0: 6b21 6340 3842 4f40 8f65 6e40 7ffc 6440
00000100: 6fd0 6f40 0963 7540 c859 1340 5213 8540
00000110: f2c9 8340 e756 7d40 5f16 7a40 8c30 2840
00000120: eb89 7240 7f44 d53f 854f 9fbf bcb6 5e40
00000130: 13f7 4440 5da7 7940 bd29 6040 ed5c 7b40
00000140: 1554 8840 717a 7340 b4b9 6e40 86a9 6340
00000150: f53e 7f40 5230 7440 6f68 6e40 fbd7 7e40
00000160: 0f59 7f40 f62e 14c0 8ede 6940 1d95 6e40
00000170: 4441 7e40 95cd 5d40 c5b5 6c40 daab 97c0
00000180: b9a0 7e40 826f 5340 a4bb 8540
3.4168103 -1.94272 3.6871464 2.6544905 4.0503497 3.7109694 1.9965206 4.0016804
3.9247005 3.5268416 0.7166154 3.5671802 3.829421 3.5206945 3.5403771 1.1280488
2.7344794 3.6171908 4.027078 4.234551 3.7768385 3.162461 2.462465 4.0165663
3.6670697 4.147926 3.6562996 3.562278 3.9482648 3.7508104 3.6456995 1.4165047
4.1005664 3.5581477 2.9819393 3.0975935 3.3701515 2.9635105 3.7549253 1.9664205
3.4679601 4.099093 4.1244726 3.9437358 0.48506576 4.113035 4.1100626 4.3986487
4.213848 3.8823907 1.6159269 3.734136 3.6994996 3.0998952 3.8382633 3.8983915
3.976394 3.8699532 3.8154414 2.3092954 3.5489147 3.2384167 3.7249486 3.5779111
3.7470968 3.8341696 2.3023548 4.1586084 4.1184015 3.958429 3.9076154 2.627963
3.7896678 1.6661528 -1.2446142 3.4799032 3.0775802 3.90084 3.5025475 3.9275467
4.260264 3.8043482 3.7300844 3.557222 3.9882176 3.8154492 3.7251241 3.9819324
3.9898107 -2.3153663 3.6542087 3.7278512 3.9727335 3.4656727 3.6985943 -4.739728
3.9785597 3.303681 4.1791553

q_probs f4 [99]
00000000: efdd 773f 8c6d 003e dbbe 793f 602e 6f3f
00000010: 2a9e 7b3f b4e3 793f cb60 613f 3a67 7b3f
00000020: e00a 7b3f d5ab 783f a807 2c3f 6cf8 783f
00000030: bb8e 7a3f 4ca5 783f 0fc9 783f 986c 413f
00000040: b064 703f ef4d 793f 3484 7b3f 3058 7c3f
00000050: 3345 7a3f 299b 753f 53e8 6b3f 5678 7b3f
00000060: 409f 793f d604 7c3f 0d8e 793f dbef 783f
00000070: e527 7b3f e618 7a3f de7c 793f eb07 4e3f
00000080: 36d4 7b3f 9ee8 783f 3aa6 733f 96f0 743f
00000090: a27d 773f 806e 733f 5b25 7a3f db94 603f
000000a0: a142 783f a1d2 7b3f 08ed 7b3f 6222 7b3f
000000b0: 6e75 1e3f 37e1 7b3f 21de 7b3f 17e4 7c3f
000000c0: e444 7c3f 23d5 7a3f f292 553f b606 7a3f
000000d0: 2ad2 793f 62f7 743f b59a 7a3f b7e9 7a3f
000000e0: a149 7b3f ebc4 7a3f 7d7b 7a3f 42df 683f
000000f0: 30d8 783f 1157 763f def8 793f 150b 793f
00000100: e619 7a3f 3e95 7a3f 92bc 683f 7b0f 7c3f
00000110: c6e6 7b3f 2934 7b3f 6ff5 7a3f 14c2 6e3f
00000120: 7957 7a3f 8153 573f 6b0f 653e 4c59 783f
00000130: 33ba 743f e2ec 7a3f fa83 783f 790e 7b3f
00000140: 9c6f 7c3f 166c 7a3f 9400 7a3f ede6 783f
00000150: 8d57 7b3f 947b 7a3f 36f9 793f 2850 7b3f
00000160: 6f59 7b3f cc1b b83d 9d8a 793f 58fd 793f
00000170: 4a45 7b3f 083e 783f b1d0 793f 3011 0e3c
00000180: 354c 7b3f 5fed 763f b023 7c3f
0.9682302 0.12541789 0.9755685 0.9343014 0.98288214 0.9761307 0.8803832 0.98204386
0.9806347 0.97137195 0.6719918 0.9725406 0.9787404 0.97127223 0.9718179 0.75556326
0.93903637 0.9738454 0.982486 0.98572063 0.9776184 0.9593988 0.92151374 0.98230493
0.9750862 0.9844488 0.9748238 0.9724099 0.9810775 0.9769424 0.9745616 0.8048083
0.98370683 0.97229946 0.95175517 0.95679605 0.96676075 0.95090485 0.9771325 0.87727135
0.9697667 0.9836827 0.98408556 0.9809934 0.61897933 0.98390526 0.98385817 0.9878554
0.9854262 0.9798147 0.83427346 0.9766649 0.9758631 0.95689976 0.97892314 0.9801287
0.98159224 0.9795672 0.9784468 0.90965664 0.97204876 0.962266 0.97645366 0.97282535
0.9769577 0.97883976 0.90912735 0.9846112 0.9839901 0.98126465 0.9803075 0.9326489
0.9778972 0.8411179 0.22369163 0.97011256 0.9559662 0.98017704 0.9707638 0.9806896
0.986078 0.97821176 0.9765713 0.97227365 0.98180467 0.97844815 0.9764589 0.98169184
0.9818334 0.08989677 0.9747713 0.97652197 0.981526 0.9696965 0.9758406 0.00867109
0.9816316 0.9645595 0.98491955

gamma f4 [100]
00000000: 0000 803f 0000 803f 0000 0000 0000 803f
00000010: 0000 803f 0000 803f 0000 803f 0000 803f
00000020: 0000 803f 0000 803f 0000 0000 0000 803f
00000030: 0000 803f 0000 803f 0000 803f 0000 803f
00000040: 0000 0000 0000 803f 0000 803f 0000 803f
00000050: 0000 803f 0000 803f 0000 803f 0000 803f
00000060: 0000 803f 0000 803f 0000 803f 0000 803f
00000070: 0000 803f 0000 803f 0000 803f 0000 803f
00000080: 0000 0000 0000 803f 0000 803f 0000 803f
00000090: 0000 803f 0000 803f 0000 803f 0000 803f
000000a0: 0000 803f 0000 803f 0000 803f 0000 803f
000000b0: 0000 803f 0000 803f 0000 803f 0000 803f
000000c0: 0000 803f 0000 0000 0000 803f 0000 0000
000000d0: 0000 803f 0000 803f 0000 803f 0000 803f
000000e0: 0000 803f 0000 803f 0000 803f 0000 803f
000000f0: 0000 803f 0000 803f 0000 803f 0000 803f
00000100: 0000 803f 0000 803f 0000 803f 0000 803f
00000110: 0000 803f 0000 803f 0000 803f 0000 803f
00000120: 0000 803f 0000 803f 0000 803f 0000 0000
00000130: 0000 803f 0000 803f 0000 803f 0000 803f
00000140: 0000 803f 0000 803f 0000 803f 0000 803f
00000150: 0000 803f 0000 803f 0000 803f 0000 803f
00000160: 0000 803f 0000 803f 0000 0000 0000 803f
00000170: 0000 803f 0000 803f 0000 803f 0000 803f
00000180: 0000 0000 0000 803f 0000 803f 0000 803f
1.0 1.0 0.0 1.0 1.0 1.0 1.0 1.0
1.0 1.0 0.0 1.0 1.0 1.0 1.0 1.0
0.0 1.0 1.0 1.0 1.0 1.0 1.0 1.0
1.0 1.0 1.0 1.0 1.0 1.0 1.0 1.0
0.0 1.0 1.0 1.0 1.0 1.0 1.0 1.0
1.0 1.0 1.0 1.0 1.0 1.0 1.0 1.0
1.0 0.0 1.0 0.0 1.0 1.0 1.0 1.0
1.0 1.0 1.0 1.0 1.0 1.0 1.0 1.0
1.0 1.0 1.0 1.0 1.0 1.0 1.0 1.0
1.0 1.0 1.0 0.0 1.0 1.0 1.0 1.0
1.0 1.0 1.0 1.0 1.0 1.0 1.0 1.0
1.0 1.0 0.0 1.0 1.0 1.0 1.0 1.0
0.0 1.0 1.0 1.0

KL_gamma_k f4 [99]
00000000: aff5 d848 8dd3 6047 a59a da48 605b d148
00000010: 303e dc48 e5ba da48 6446 c548 1a0e dc48
00000020: 44bd db48 eaa9 d948 2994 9648 f4ec d948
00000030: 9950 db48 31a4 d948 7fc3 d948 2d4e a948
00000040: 006b d248 cd37 da48 7727 dc48 05e1 dc48
00000050: 3c10 db48 14fb d648 d27d ce48 141d dc48
00000060: fa7e da48 0f98 dc48 ed6f da48 74e5 d948
00000070: abd6 db48 75e9 da48 e260 da48 1657 b448
00000080: 7f6d dc48 1edf d948 9a44 d548 c665 d648
00000090: 64a1 d848 d313 d548 5df4 da48 e293 c448
000000a0: d44d d948 1d6c dc48 3983 dc48 d8d1 db48
000000b0: 24b3 8a48 e178 dc48 2e76 dc48 7a5b dd48
000000c0: 21d0 dc48 3a8e db48 55f1 ba48 8ad9 da48
000000d0: 8bab da48 b96b d648 155b db48 3ea0 db48
000000e0: 32f4 db48 0780 db48 c13f db48 a5d5 cb48
000000f0: bdd0 d948 8e9f d748 6ccd da48 49fd d948
00000100: 55ea da48 4c56 db48 48b7 cb48 61a1 dc48
00000110: bf7d dc48 67e1 db48 80aa db48 95fc d048
00000120: 3b20 db48 f679 bc48 427f c847 ab61 d948
00000130: 2b36 d648 04a3 db48 0787 d948 6ac0 db48
00000140: 86f5 dc48 4632 db48 2cd4 da48 a3dd d948
00000150: 6200 dc48 d53f db48 b9cd da48 e9f9 db48
00000160: 0702 dc48 8326 2147 ea6c da48 57d1 da48
00000170: 65f0 db48 ce49 d948 41aa da48 a6b3 7845
00000180: 74f6 db48 1e23 d848 11b3 dc48
444333.47 57555.55 447701.16 428763.0 451057.5 447959.16 404019.12 450672.8
450026.12 445775.3 308385.28 446311.62 449156.78 445729.53 445979.97 346737.4
430936.0 446910.4 450875.72 452360.16 448641.88 440280.62 422894.56 450792.62
447479.8 451776.47 447359.4 446251.62 450229.34 448331.66 447239.06 369336.7
451435.97 446200.94 436772.8 439086.2 443659.12 436382.6 448418.9 402591.06
445038.62 451424.9 451609.78 450190.75 284057.12 451527.03 451505.44 453339.8
452225.03 449649.8 382858.66 448204.3 447836.34 439133.78 449240.66 449793.94
450465.56 449536.22 449022.03 417453.16 446085.9 441596.44 448107.38 446442.28
448338.66 449202.38 417210.25 451851.03 451565.97 450315.22 449876.0 428004.66
448769.84 385999.7 102654.516 445197.34 438705.34 449816.12 445496.22 450051.3
452524.2 448914.2 448161.38 446189.1 450563.06 449022.66 448109.78 450511.28
450576.22 41254.51 447335.3 448138.72 450435.16 445006.44 447826.03 3979.228
450483.62 442648.94 451992.53

q_gamma_params f4 [100, 3]
00000000: eae0 36c0 099b 73c0 aeb6 81c0 0d42 8fc0
00000010: a8f0 77c0 a31d 65c0 e10a 7bc0 6c69 81c0
00000020: 41b0 4dc0 489e 88c0 3f8a 253f d5c6 1a40
00000030: 851c 79c0 c3b0 77c0 6ad2 89c0 ccec 6ec0
00000040: 3f7b 82c0 624b 81c0 d45f 70c0 5069 76c0
00000050: 4a4d 90c0 823b 86c0 0901 88c0 0628 7ac0
00000060: 0edd 20c0 a186 8dc0 a6ac 80c0 2efc 5ac0
00000070: 0039 7fc0 112f 8ec0 50fb 6abf 15d1 83c0
00000080: 11ba 55c0 714b 7ac0 09a7 7cc0 4f93 48c0
00000090: 23d7 babf 435b 86c0 b4d4 5cc0 2c33 3bc0
000000a0: 37f9 79c0 228c 80c0 382c 87c0 5b60 82c0
000000b0: 6f2a 80c0 3125 87c0 658a 78c0 efce 7cc0
000000c0: 53b7 8bc0 84e8 84c0 e4a9 78c0 3c03 64c0
000000d0: 176a 87c0 3ce0 60c0 ceda 61c0 0d3f 623f
000000e0: d1af 8cc0 ff4a 85c0 d04b 64c0 ba97 80c0
000000f0: c274 81bf 227b 76c0 7740 6fc0 b482 e8bf
00000100: 6816 83c0 4ffe 8cc0 d89f 6dc0 fee7 7ac0
00000110: e0f7 7dc0 94bb 75c0 3aef 82c0 077b 83c0
00000120: b223 61c0 90f8 84c0 99ed 81c0 9963 8dc0
00000130: e098 85c0 7f5f 82c0 5a24 86c0 2846 8bc0
00000140: 1be7 6bc0 2722 40c0 d0d4 80c0 fa58 88c0
00000150: d2aa 06c0 78d1 88c0 20b9 88c0 e524 8bc0
00000160: aaa5 85c0 cbe1 81c0 4972 86c0 4c74 51c0
00000170: 1f68 81c0 82bb 3bc0 9a4d 83c0 c818 64c0
00000180: 1518 62c0 5f7e 7bc0 bfad 83c0 3977 0ac0
00000190: 99f0 6dc0 1ec3 3fc0 9366 ccbf c95a 6dc0
000001a0: ac30 7ec0 374e 83c0 57ed 82c0 186d 8ec0
000001b0: 6a1c 89c0 e510 64c0 dbd0 62c0 a153 8fc0
000001c0: 0652 85c0 af22 66c0 edf5 82c0 3bd1 87c0
000001d0: f133 81c0 db09 8cc0 f1a1 83c0 3859 72c0
000001e0: 36c5 77c0 9086 84c0 5b89 79c0 99b8 a6bf
000001f0: 7aeb 78c0 1425 81c0 32ce 29c0 1e7c 6fc0
00000200: db13 83c0 17b8 5fc0 47ac 55c0 290e 48c0
00000210: 597b 62c0 75e7 7ac0 517d 50c0 7c3e 88c0
00000220: 8d6e 87c0 fcf5 73c0 4579 a3bf 7dc4 65c0
00000230: 31d4 d03e 91f1 61c0 7b79 85c0 e212 5fc0
00000240: 7e13 61c0 3147 4ec0 7687 83c0 956b e83f
00000250: 094d 80c0 dc5b 2bc0 2e2e 83c0 feda 82c0
00000260: 831c 73c0 8b4b 82c0 3f39 82c0 912c 79c0
00000270: 3579 bbbf 4b87 84c0 b308 96bf a449 85c0
00000280: fb9f 81c0 6bac 78c0 e700 3ec0 eba0 85c0
00000290: c630 8ac0 818f 75c0 b12a 8bc0 2477 0b40
000002a0: 786b 07c0 183d 7ac0 3007 76c0 6d8e 8ec0
000002b0: 72a5 71c0 3bf0 83c0 ce5d 81c0 5183 77c0
000002c0: f490 10c0 428a 75c0 a673 86c0 0faf 87c0
000002d0: f5d3 87c0 6b97 83c0 d9c3 70c0 5a75 03c0
000002e0: 0230 5ec0 00b3 8abe a466 15c0 cba6 88c0
000002f0: 649c 82c0 0559 cfbf b183 3540 cc0f 81c0
00000300: 617f 81c0 32c9 03c0 8054 38c0 9247 ab3e
00000310: a575 7cc0 c9a8 59c0 f95f 74c0 bab1 84c0
00000320: cd74 6ec0 9198 dfbf 40b0 7bc0 4120 61c0
00000330: 2582 dcbf 5e28 83c0 5c7f 76c0 b5b2 81c0
00000340: 55ef 88c0 bf78 6ec0 6d51 4ac0 21c7 72c0
00000350: 9372 b03f 6088 bfbe 1c66 80c0 26d3 23c0
00000360: 4423 86c0 170f 89c0 341b 7fc0 4385 86c0
00000370: f005 86c0 8ddc 55c0 6c00 44c0 2aa0 87c0
00000380: 4a48 80c0 d2fe 7bc0 b874 79c0 1535 79c0
00000390: 0fbc 87c0 52d4 8cc0 e4b9 80c0 d80f 6ec0
000003a0: e6e0 83c0 6a76 67c0 21d2 89c0 f67b 89c0
000003b0: 3c65 30bf 3d23 3bc0 0150 8ac0 67ad 65c0
000003c0: 04f9 8ac0 b83e 82c0 c049 6ec0 cfa2 80c0
000003d0: d24a 89c0 b9f0 7fc0 ca28 7bc0 6123 91c0
000003e0: f4f0 84c0 96a1 82c0 6b18 82c0 b921 36c0
000003f0: 225a 01bf 9b6b 83c0 456d 0a40 9c2d 72c0
-2.8574777 -3.8063376 -4.05355 -4.476813 -3.8740635 -3.579934 -3.922539 -4.044119
-3.2138827 -4.2693214 0.6466407 2.4183857 -3.8923657 -3.8701637 -4.3069353 -3.733203
-4.0775447 -4.040452 -3.755849 -3.8501778 -4.5094347 -4.194764 -4.2501264 -3.9086928
-2.513492 -4.422684 -4.0210752 -3.4216418 -3.987854 -4.4432454 -0.9178972 -4.1192727
-3.3394816 -3.9108546 -3.947695 -3.133991 -1.4596905 -4.1986403 -3.4504824 -2.9249983
-3.9058359 -4.017106 -4.224148 -4.074262 -4.00518 -4.22329 -3.883447 -3.9501302
-4.3661284 -4.1533833 -3.8853693 -3.5626974 -4.2317004 -3.5136862 -3.5289798 0.8837746
-4.396462 -4.165405 -3.5671272 -4.0185213 -1.0113757 -3.8512654 -3.7383096 -1.8164887
-4.096485 -4.4060435 -3.712881 -3.9204097 -3.968254 -3.8395739 -4.0917025 -4.108768
-3.5178037 -4.155342 -4.0602536 -4.418408 -4.1749115 -4.074157 -4.1919374 -4.352314
-3.6859806 -3.0020845 -4.025978 -4.2608614 -2.104176 -4.27557 -4.2725983 -4.3482537
-4.1764727 -4.0588126 -4.201451 -3.2727232 -4.04396 -2.9333196 -4.103223 -3.5640125
-3.5327199 -3.929588 -4.1149592 -2.1635268 -3.71781 -2.996284 -1.5968803 -3.708666
-3.9717207 -4.1032977 -4.091472 -4.450817 -4.2847185 -3.5635312 -3.5439975 -4.4789586
-4.1662626 -3.595867 -4.09252 -4.244291 -4.0375905 -4.376203 -4.113518 -3.7866955
-3.8714118 -4.141426 -3.8990085 -1.3025085 -3.8893723 -4.035776 -2.6532102 -3.7419505
-4.096174 -3.495611 -3.33864 -3.1258643 -3.5387785 -3.920377 -3.2576487 -4.2576275
-4.232245 -3.8118887 -1.2771384 -3.5901177 0.4078689 -3.530369 -4.171079 -3.4855275
-3.5168147 -3.2230952 -4.1102858 1.8157831 -4.0094037 -2.6774817 -4.099387 -4.0892324
-3.7986152 -4.0717216 -4.069488 -3.893345 -1.4646364 -4.1415153 -1.1721405 -4.1652393
-4.050779 -3.8855236 -2.968805 -4.1758933 -4.318454 -3.8368838 -4.3489614 2.1791468
-2.1159344 -3.9099789 -3.8441887 -4.454886 -3.775723 -4.123075 -4.042701 -3.86739
-2.2588472 -3.8365636 -4.2016172 -4.2401195 -4.2446237 -4.1122336 -3.7619536 -2.0540376
-3.4716802 -0.2708969 -2.3343897 -4.2703605 -4.0815907 -1.6199042 2.8361628 -4.0331783
-4.046799 -2.059155 -2.8801575 0.3345304 -3.9446805 -3.4009268 -3.8183577 -4.146695
-3.725879 -1.7468435 -3.9326324 -3.5175936 -1.7227217 -4.0986776 -3.8515234 -4.053065
-4.2792153 -3.7261198 -3.1612198 -3.7934039 1.3784965 -0.37408733 -4.0124645 -2.5597625
-4.191805 -4.283092 -3.9860353 -4.2037673 -4.188225 -3.3415864 -3.0625257 -4.2383013
-4.0088243 -3.937428 -3.897749 -3.8938649 -4.2417064 -4.400918 -4.0226917 -3.719717
-4.1212034 -3.6166024 -4.3069005 -4.296382 -0.6890447 -2.9240258 -4.322266 -3.5887086
-4.3428974 -4.070156 -3.7232513 -4.019874 -4.2903833 -3.9990675 -3.9243646 -4.5355687
-4.154413 -4.082225 -4.0654807 -2.8458083 -0.50528157 -4.1068854 2.1629193 -3.7840338

gamma f4 [100, 3]
00000000: 0000 0000 0000 0000 0000 0000 0000 0000
00000010: 0000 0000 0000 0000 0000 0000 0000 803f
00000020: 0000 0000 0000 0000 0000 803f 0000 803f
00000030: 0000 0000 0000 0000 0000 0000 0000 0000
00000040: 0000 0000 0000 0000 0000 0000 0000 0000
00000050: 0000 0000 0000 0000 0000 0000 0000 0000
00000060: 0000 0000 0000 0000 0000 0000 0000 0000
00000070: 0000 0000 0000 0000 0000 0000 0000 0000
00000080: 0000 803f 0000 0000 0000 0000 0000 0000
00000090: 0000 803f 0000 0000 0000 0000 0000 0000
000000a0: 0000 0000 0000 803f 0000 0000 0000 0000
000000b0: 0000 0000 0000 0000 0000 0000 0000 0000
000000c0: 0000 0000 0000 0000 0000 0000 0000 0000
000000d0: 0000 0000 0000 0000 0000 0000 0000 0000
000000e0: 0000 0000 0000 0000 0000 0000 0000 0000
000000f0: 0000 0000 0000 0000 0000 803f 0000 803f
00000100: 0000 0000 0000 0000 0000 0000 0000 0000
00000110: 0000 0000 0000 0000 0000 0000 0000 0000
00000120: 0000 0000 0000 0000 0000 0000 0000 0000
00000130: 0000 0000 0000 0000 0000 0000 0000 0000
00000140: 0000 0000 0000 0000 0000 0000 0000 0000
00000150: 0000 0000 0000 0000 0000 0000 0000 0000
00000160: 0000 0000 0000 0000 0000 0000 0000 0000
00000170: 0000 0000 0000 803f 0000 0000 0000 0000
00000180: 0000 0000 0000 0000 0000 0000 0000 0000
00000190: 0000 0000 0000 0000 0000 0000 0000 0000
000001a0: 0000 0000 0000 0000 0000 0000 0000 0000
000001b0: 0000 0000 0000 0000 0000 0000 0000 0000
000001c0: 0000 803f 0000 0000 0000 0000 0000 0000
000001d0: 0000 0000 0000 0000 0000 0000 0000 0000
000001e0: 0000 0000 0000 0000 0000 0000 0000 0000
000001f0: 0000 0000 0000 0000 0000 0000 0000 0000
00000200: 0000 0000 0000 0000 0000 803f 0000 0000
00000210: 0000 0000 0000 0000 0000 0000 0000 0000
00000220: 0000 0000 0000 0000 0000 0000 0000 0000
00000230: 0000 803f 0000 0000 0000 0000 0000 0000
00000240: 0000 0000 0000 0000 0000 0000 0000 0000
00000250: 0000 0000 0000 0000 0000 0000 0000 0000
00000260: 0000 0000 0000 0000 0000 0000 0000 0000
00000270: 0000 0000 0000 0000 0000 0000 0000 0000
00000280: 0000 0000 0000 0000 0000 0000 0000 0000
00000290: 0000 0000 0000 0000 0000 0000 0000 803f
000002a0: 0000 0000 0000 0000 0000 0000 0000 0000
000002b0: 0000 0000 0000 0000 0000 0000 0000 0000
000002c0: 0000 0000 0000 0000 0000 0000 0000 0000
000002d0: 0000 0000 0000 0000 0000 0000 0000 803f
000002e0: 0000 0000 0000 0000 0000 0000 0000 0000
000002f0: 0000 0000 0000 0000 0000 803f 0000 0000
00000300: 0000 0000 0000 0000 0000 0000 0000 803f
00000310: 0000 0000 0000 0000 0000 0000 0000 0000
00000320: 0000 0000 0000 803f 0000 0000 0000 0000
00000330: 0000 0000 0000 0000 0000 0000 0000 0000
00000340: 0000 0000 0000 0000 0000 0000 0000 0000
00000350: 0000 803f 0000 0000 0000 0000 0000 0000
00000360: 0000 0000 0000 0000 0000 0000 0000 0000
00000370: 0000 803f 0000 0000 0000 0000 0000 0000
00000380: 0000 0000 0000 0000 0000 0000 0000 0000
00000390: 0000 0000 0000 0000 0000 0000 0000 0000
000003a0: 0000 0000 0000 0000 0000 0000 0000 0000
000003b0: 0000 803f 0000 0000 0000 0000 0000 0000
000003c0: 0000 0000 0000 0000 0000 0000 0000 0000
000003d0: 0000 0000 0000 0000 0000 0000 0000 0000
000003e0: 0000 0000 0000 0000 0000 0000 0000 0000
000003f0: 0000 803f 0000 0000 0000 803f 0000 0000
0.0 0.0 0.0 0.0 0.0 0.0 0.0 1.0
0.0 0.0 1.0 1.0 0.0 0.0 0.0 0.0
0.0 0.0 0.0 0.0 0.0 0.0 0.0 0.0
0.0 0.0 0.0 0.0 0.0 0.0 0.0 0.0
1.0 0.0 0.0 0.0 1.0 0.0 0.0 0.0
0.0 1.0 0.0 0.0 0.0 0.0 0.0 0.0
0.0 0.0 0.0 0.0 0.0 0.0 0.0 0.0
0.0 0.0 0.0 0.0 0.0 0.0 1.0 1.0
0.0 0.0 0.0 0.0 0.0 0.0 0.0 0.0
0.0 0.0 0.0 0.0 0.0 0.0 0.0 0.0
0.0 0.0 0.0 0.0 0.0 0.0 0.0 0.0
0.0 0.0 0.0 0.0 0.0 1.0 0.0 0.0
0.0 0.0 0.0 0.0 0.0 0.0 0.0 0.0
0.0 0.0 0.0 0.0 0.0 0.0 0.0 0.0
1.0 0.0 0.0 0.0 0.0 0.0 0.0 0.0
0.0 0.0 0.0 0.0 0.0 0.0 0.0 0.0
0.0 0.0 1.0 0.0 0.0 0.0 0.0 0.0
0.0 0.0 0.0 0.0 1.0 0.0 0.0 0.0
0.0 0.0 0.0 0.0 0.0 0.0 0.0 0.0
0.0 0.0 0.0 0.0 0.0 0.0 0.0 0.0
0.0 0.0 0.0 0.0 0.0 0.0 0.0 1.0
0.0 0.0 0.0 0.0 0.0 0.0 0.0 0.0
0.0 0.0 0.0 0.0 0.0 0.0 0.0 1.0
0.0 0.0 0.0 0.0 0.0 0.0 1.0 0.0
0.0 0.0 0.0 1.0 0.0 0.0 0.0 0.0
0.0 1.0 0.0 0.0 0.0 0.0 0.0 0.0
0.0 0.0 0.0 0.0 1.0 0.0 0.0 0.0
0.0 0.0 0.0 0.0 1.0 0.0 0.0 0.0
0.0 0.0 0.0 0.0 0.0 0.0 0.0 0.0
0.0 0.0 0.0 0.0 1.0 0.0 0.0 0.0
0.0 0.0 0.0 0.0 0.0 0.0 0.0 0.0
0.0 0.0 0.0 0.0 1.0 0.0 1.0 0.0

q_probs f4 [100, 3]
00000000: 7f71 5e3d 0d27 b23c 91cc 8b3c 9c2f 383c
00000010: a6bb a63c 4c1f e03c 64fe 9e3c b419 8d3c
00000020: 3f4f 1e3d 6312 623c 81e9 273f 4f11 6b3f
00000030: 7fc2 a33c b75c a73c 07d7 593c 6c5a bf3c
00000040: 2aaa 893c eb9b 8d3c ca29 bb3c 21ad aa3c
00000050: af56 323c 6e4f 733c 2a65 663c 6628 a13c
00000060: 557b 993d fc4e 423c c453 903c c28d 013d
00000070: c91d 953c 8766 3e3c 4113 923e 820b 833c
00000080: 0445 0c3d e3d2 a03c 801f 9b3c 33ed 2a3d
00000090: 9a10 413e 1adc 723c bcf5 fb3c f4a1 503d
000000a0: 829f a13c a0e3 903c ed5e 6c3c da06 893c
000000b0: a49a 923c 3e92 6c3c 3e34 a53c ccbc 9a3c
000000c0: 9479 4d3c 5870 7d3c e4e2 a43c 64f2 e13c
000000d0: 5f9e 6a3c dff8 ec3c 407c e93c 202e 353f
000000e0: 0d69 473c d372 7a3c 0940 e13c 8bb2 903c
000000f0: 1a9b 883e 327b aa3c 0b67 be3c ae3c 0f3e
00000100: 7503 863c 8d88 453c 342e c33c 3d50 9f3c
00000110: f103 983c 1c74 ac3c fbaf 863c ae67 843c
00000120: f505 ec3c f0f2 7c3c a6e0 8a3c 9821 433c
00000130: 9a20 783c cefd 883c 96fe 733c f64c 503c
00000140: 2a60 c83c 26e8 413d 20a2 8f3c c8f8 633c
00000150: aaa2 de3d b2ae 603c 1858 613c bc21 513c
00000160: 4fbd 773c ee12 8b3c 61b6 713c 0697 153d
00000170: 1f1f 8d3c 46ff 4e3d 8822 853c 1ebf e13c
00000180: b3a2 e83c ec21 9e3c 359b 833c c40b d33d
00000190: 7f3f c23c 32f8 423d 827c 2c3e 4bfc c33c
000001a0: bb7e 973c fc1e 853c 69ad 863c b7fb 3c3c
000001b0: c3a9 5e3c ccc3 e13c 4f28 e63c 30cc 373c
000001c0: 043d 7a3c 48c7 da3c dea9 863c 49ba 673c
000001d0: 6901 8e3c e070 4b3c 4dc9 833c 509c b53c
000001e0: f226 a73c 7437 803c 8eb4 a23c 17e9 5a3e
000001f0: 3e3e a43c a442 8e3c 8abe 863d 2db8 bd3c
00000200: f20e 863c ab2a f13c b660 0c3d 2042 2c3d
00000210: 8143 e73c d451 9f3c e1c5 173d 69b2 643c
00000220: 0b7d 6a3c 9330 b13c e953 5d3e 8602 dc3c
00000230: 08c2 193f c92c e93c 4210 793c 9d89 f33c
00000240: 6542 ec3c ede9 1c3d cd34 843c 9c30 5c3f
00000250: 8efe 913c 4cbc 833d 7fa2 853c b3f9 863c
00000260: b97e b33c f651 893c 4f9f 893c 1899 a33c
00000270: c060 403e 5b33 803c e23a 723e e77e 7a3c
00000280: 952d 8c3c 73dc a43c ac25 483d ede1 773c
00000290: b95f 573c ade7 ac3c 4bfc 503c 9cfc 653f
000002a0: 1154 dc3d 4ef3 a03c 94aa ab3c f938 3c3c
000002b0: 228f b73c 308e 823c fe4a 8d3c 51cf a73c
000002c0: 76bd c13d 72f4 ac3c 73ae 713c a8ac 683c
000002d0: d3a7 673c c6f5 833c 5e0e ba3c 65ba e83d
000002e0: a2d5 f63c dcb2 dd3e 8be5 b43d 33d7 613c
000002f0: 94fd 873c 0309 293e 94d1 713f 889f 8e3c
00000300: 8eba 8c3c 79b5 e73d 25b2 593d b2db 153f
00000310: d290 9b3c 7d2b 043d b011 b03c f61a 7f3c
00000320: 86bb c03c 54f6 173e 6b6b 9d3c 7012 ec3c
00000330: 3219 1b3e 4dbd 853c 1271 aa3c a1dd 8b3c
00000340: 03e1 5f3c 16b0 c03c 7088 263d 876b b43c
00000350: 6882 4c3f 7fff cf3e e38d 913c ffff 923d
00000360: eb06 743c d806 5f3c a061 953c 7029 713c
00000370: 18e2 743c acf9 0b3d 2caa 363d 321b 693c
00000380: 4d13 923c a9ad 9c3c 20e6 a23c b584 a33c
00000390: 1151 683c b98a 463c 9f19 903c dce3 c13c
000003a0: a5cb 823c 0568 d63c 49d9 593c fc1d 5c3c
000003b0: 28b8 aa3e 49d3 503d d192 563c 244f dc3c
000003c0: 573e 523c 4f88 893c 1439 c13c 3282 903c
000003d0: ae6c 5d3c 7780 933c a4b2 9e3c 69c9 2d3c
000003e0: 1633 7d3c c5e8 873c 362a 8a3c 9de5 603d
000003f0: 0d14 c03e e6a6 843c ff99 653f b513 b63c
0.054307457 0.021747136 0.017065318 0.01124182 0.02035315 0.027358674 0.019408412 0.01722417
0.038649794 0.013798329 0.65590674 0.91823286 0.019990204 0.020429952 0.013295895 0.023358546
0.016804773 0.017286262 0.022847075 0.020834507 0.010884925 0.0148504805 0.014062205 0.019672584
0.07494227 0.011859652 0.017618068 0.03162933 0.01820268 0.011621124 0.28530315 0.015996698
0.034245506 0.019631809 0.018935919 0.041730117 0.18853989 0.014822984 0.030756824 0.0509357
0.01972938 0.017686665 0.014426929 0.0167269 0.017896004 0.014439164 0.020166513 0.018888853
0.0125411935 0.015468679 0.020127721 0.027581401 0.014319985 0.028927265 0.02850163 0.70773506
0.012171042 0.015286165 0.027496355 0.01766326 0.26680833 0.020810697 0.023242494 0.13987991
0.01635907 0.012056482 0.023825742 0.01944744 0.018556567 0.021051459 0.016441336 0.01616272
0.028811434 0.01543878 0.016952824 0.011909865 0.015144492 0.016722586 0.014892241 0.012713661
0.024459917 0.047340535 0.017533362 0.013914295 0.108708695 0.013713526 0.013753913 0.012764391
0.015120818 0.0169768 0.014752955 0.03652098 0.017226754 0.050536416 0.016251817 0.027556952
0.028397894 0.019303285 0.01606522 0.103049785 0.023711918 0.04759998 0.16844371 0.023924014
0.018493047 0.016250126 0.01644011 0.011534623 0.013590279 0.027559184 0.028095393 0.011218116
0.015273336 0.026706353 0.01643842 0.014143535 0.017334657 0.012417048 0.016087199 0.022169262
0.020404313 0.015651442 0.019861486 0.21377979 0.02004921 0.017365761 0.06579311 0.02315911
0.016364548 0.029439291 0.03427192 0.04205525 0.02823043 0.019448198 0.037053946 0.013958552
0.014312039 0.021629607 0.2161404 0.026856672 0.60061693 0.028463738 0.01520163 0.029728705
0.028840253 0.038309027 0.016138459 0.8601167 0.017821576 0.06432399 0.016312836 0.016476488
0.021911012 0.016762715 0.016799597 0.019970462 0.18786907 0.015649488 0.23655275 0.015289045
0.017111579 0.02012465 0.04886405 0.0151295485 0.013145381 0.021106565 0.012755464 0.89838576
0.10758222 0.019647267 0.020955361 0.011488193 0.022407118 0.01593694 0.017247673 0.020484598
0.09459965 0.021112654 0.014751065 0.014201321 0.0141391335 0.016108405 0.022711929 0.11363677
0.030131165 0.4330052 0.08832844 0.013784218 0.016600408 0.16507344 0.94460416 0.017410055
0.0171788 0.1131391 0.053148407 0.58538353 0.018989954 0.032268036 0.021492809 0.015570393
0.023526918 0.1484006 0.01921626 0.028817385 0.1514633 0.016325617 0.02080587 0.017073454
0.013664487 0.023521464 0.04065746 0.02202393 0.79886484 0.40624616 0.017767852 0.07177734
0.0148942275 0.0136124715 0.018235028 0.014719352 0.014946483 0.034173653 0.044595882 0.014227675
0.017831469 0.019125776 0.019885123 0.01996074 0.014179484 0.012118035 0.017590342 0.023668222
0.015966246 0.026172647 0.013296434 0.013434883 0.33343625 0.050982747 0.013096527 0.026893206
0.012832246 0.01678863 0.023586787 0.017640207 0.013514681 0.018005593 0.019372292 0.010607102
0.015454074 0.016590485 0.01686583 0.054906476 0.37515298 0.016192865 0.89688104 0.022226194

weight f4 [10, 74]
00000000: 2364 bc3c 44c9 70bd 19a6 67be 7e78 89ba
00000010: 159f eabd 5163 5b3d 8ce8 73bd 66c4 b83d
00000020: c465 b4bc 8e64 8e3d 36f9 3a3d 5733 d8bc
00000030: ea57 9fbb 54b9 883c cf53 dd3d a05e e83c
00000040: 60ce b93c 430b b33d d889 f4bb 01e6 2a3d
00000050: 5728 313d f9a8 a9bc afc5 bdbd 4920 823d
00000060: 04fa 723d 2eec f63d 92ff efbc 902a 913c
00000070: f220 4d3d ed32 eebc cd4d 9dbd 50ad 84bd
00000080: b00f 3abd d245 05bc 9fb7 f83c 3207 59bd
00000090: c0d2 8c3c d86c ff3c 4cd9 973c 6a3c 913d
000000a0: 291b 27bd 4431 5bbd efaa 5b3c 8e46 ccbc
000000b0: 80b7 23bd c9e0 debd 66d2 8bbd 1bba 2cbd
000000c0: c835 b3bd 3087 b4bc 3f18 3c3e 0265 a4ba
000000d0: 4f02 073e b839 e3bd 81ff 4dbd 53b1 8fbd
000000e0: 4c86 ccbc 2556 303d a3fc 43bd 55e9 01bc
000000f0: a353 e4bc 013b 363d b8c8 8cbd adac ec3b
00000100: d62f adbd 72cb 143e 48a8 0b3d 1d02 163d
00000110: 1c78 943d 0297 60bd c977 a5bd 5b1f 6d3d
00000120: 2ca1 b0bd 2e1d 923c 68cf f5bc e3e3 0d3e
00000130: 3fbe 93bc 0367 5d3d 3c92 8e3d 60ef b6bd
00000140: 0448 113e d356 893e 6018 093e 44df af3e
00000150: 1fc0 7abc 0b3e 3d3e 5dde 023e 688c 283e
00000160: e97d 843d 6c85 2f3d fdfe 933c e78b 9a3e
00000170: de69 b23e b64e 453e 90b5 e7bd 84be b33d
00000180: 1a18 d83d 7a9f 293e 00e5 9b3e b349 9abe
00000190: 109f 283e 48e8 7bbe 8e9b 713d 5f2e 143e
000001a0: 275c cc3e 6e55 c73e 3f74 013e 738f 1e3e
000001b0: 1167 82bc 1868 6f3e b747 c93e e247 c43d
000001c0: 9f2c 3e3e 2cdf 1c3e e519 2b3e 2b45 a93e
000001d0: d6e5 b43d 4eed 143e 1db5 a33d 905d e93d
000001e0: f2ce 4a3e 7bf8 a53e 9e0a 633e aa92 d83e
000001f0: a7a4 f33a aa0b f43d 4f2e 033d 9645 103e
00000200: e913 f63d 5d10 75be ecff 073e c45e 0f3e
00000210: b433 c13e 149f b33e f4c7 f93d 88c2 643e
00000220: 93aa 983e 4911 b23d ceef e93d 7dd7 56be
00000230: c198 88be e6ef f83d ee0e 2e3e 232c 093e
00000240: 9e2f 0b3e 996c 823e 2fe5 143e 08a6 dd3e
00000250: 7cd3 c43c fc97 203e 23dd 9abb 58f9 2c3c
00000260: e72c e23c eab1 87bd e68c 2b3e a796 9a3e
00000270: f005 023e 8d09 d63e f9ca 123c 7558 773e
00000280: a068 183e 581d 543e 5a7d c03d 8021 a23d
00000290: 7f5c cdbc ae81 a33e 993f b63e 45ee 6c3e
000002a0: de11 c0bd a6fc 0b3e 9789 893d 7f18 643e
000002b0: 4ba3 a83e 1401 a1be 40aa 603e 73c0 6bbe
000002c0: 1326 9d3d eee8 4b3e 9358 f63e a728 d53e
000002d0: d994 383e aae6 f9ba 0c2c ad3c b62a 883e
000002e0: de5c f03e 8d7e 0abc d5db 6d3e eed4 473e
000002f0: ef77 643e ca62 b13e 9998 b23c c23c 4c3e
00000300: 5b6e c83d fdad 583d 9404 983e 0f2a bd3e
00000310: 0f34 7a3e 5c89 0d3f 9d4c 8a3d 4189 1f3e
00000320: 38fd 53bd 1a70 0f3e fce2 cd3d cba8 74be
00000330: 7e95 2f3e a04c 483e ca27 bf3e 06b6 d23e
00000340: c059 f73d 3a1d 963e 16d6 a53e e5ac 6f3d
00000350: d644 6c3d e2a8 84be e9cd 8fbe ccc3 303e
00000360: e202 5e3e fe2b 463e 95dd 183e 82b5 9a3e
00000370: b7ce 9d3d b007 fa3e bec9 bdbd 0ce5 da3d
00000380: 2266 87bd 2ac2 8aba be3d 9e3c 4387 00be
00000390: d4c5 eb3d 53a3 953e af93 cc3d e164 d33e
000003a0: 8f1f 8abd 05bb 333e 30f3 b83d a195 1f3e
000003b0: a2f1 dd3c a669 3cbc 2c8e 13bd 0bb7 973e
000003c0: 1c7d aa3e e345 383e 2467 1bbe 6a69 193d
000003d0: ce1b 623d 7c90 243e b887 a13e 81fb bcbe
000003e0: bb9e 183e 198d 93be d5d3 773c 0dc7 023e
000003f0: 27a4 db3e da9a d33e 195f d73d 5fa0 213b
0.022996968 -0.05878569 -0.22621955 -0.001048818 -0.11456124 0.053561512 -0.059547946 0.09021835
-0.022021182 0.06952773 0.045647822 -0.026391668 -0.004862775 0.016689934 0.10807001 0.028365433
0.022681415 0.087423824 -0.0074627213 0.041723255 0.04325136 -0.020710455 -0.09266221 0.06353814
0.059320465 0.120567665 -0.02929667 0.01772049 0.050080247 -0.029077018 -0.07680855 -0.06478369
-0.045425117 -0.008134322 0.030360995 -0.052985378 0.017190337 0.03117983 0.018536232 0.07091601
-0.040797386 -0.05351378 0.013407453 -0.024935987 -0.03996992 -0.10882718 -0.0682724 -0.04216967
-0.08750492 -0.022037119 0.18368624 -0.001254231 0.13184474 -0.11094993 -0.050292496 -0.07016244
-0.024966381 0.043050904 -0.047848355 -0.007929166 -0.027871912 0.044489864 -0.068742216 0.007222733
-0.084563896 0.14530733 0.034096032 0.03662311 0.072494715 -0.054831512 -0.08079488 0.05789123
-0.08624491 0.01783618 -0.030006126 0.13856463 -0.018035052 0.054053318 0.06961486 -0.08932376
0.14187628 0.26824054 0.13388205 0.34350026 -0.015304594 0.18480699 0.12780137 0.1645981
0.06469328 0.04285185 0.018065924 0.30184862 0.34846395 0.19268307 -0.11313927 0.08776572
0.10551472 0.16564742 0.3044815 -0.30134353 0.16466928 -0.24600327 0.05898624 0.14470814
0.39914057 0.38932365 0.12642 0.15484409 -0.015918287 0.23379552 0.39312527 0.09584023
0.18571709 0.15319508 0.16709097 0.33060583 0.088329 0.1454365 0.07993529 0.11394799
0.19805506 0.32416138 0.22172019 0.42299396 0.0018588499 0.11916287 0.032026585 0.14089045
0.12015516 -0.23932023 0.1328122 0.14000994 0.3773476 0.35082304 0.12196341 0.22339833
0.29817638 0.08694703 0.11422692 -0.2098064 -0.26679042 0.12155132 0.16997883 0.13395743
0.13592383 0.25473478 0.14540552 0.43290734 0.024026625 0.15682977 -0.0047260686 0.010557495
0.027609302 -0.06625731 0.16752967 0.30193064 0.12697577 0.41804162 0.008959525 0.24154837
0.14883661 0.20714319 0.09398909 0.07916546 -0.02506852 0.31934875 0.35595396 0.23137768
-0.09378408 0.13670596 0.06715696 0.2227497 0.32937083 -0.31446135 0.21939945 -0.23022632
0.07673278 0.19913074 0.48114452 0.41632578 0.18025531 -0.0019065936 0.021139167 0.26595086
0.46945852 -0.008453024 0.2322839 0.1951482 0.22311376 0.34645683 0.02180128 0.19945052
0.09786674 0.052900303 0.29690993 0.3694615 0.24433921 0.5528772 0.06752894 0.15579702
-0.05175516 0.14007607 0.100530595 -0.23892514 0.1714687 0.1956048 0.37335044 0.41154498
0.12077665 0.29319173 0.32389897 0.058514494 0.057682835 -0.25910097 -0.28086784 0.1726219
0.21680787 0.19352719 0.14928277 0.30216604 0.07705443 0.4883399 -0.09266995 0.106882185
-0.06611277 -0.001058643 0.01931655 -0.12551598 0.11512342 0.2922617 0.09989106 0.41287902
-0.067443006 0.17551811 0.09030759 0.15584423 0.027092759 -0.011499798 -0.036024258 0.29631838
0.33298576 0.1799541 -0.15176064 0.037454046 0.055202298 0.16070741 0.31548858 -0.36910632
0.14904301 -0.28818586 0.015126188 0.12771244 0.42898676 0.4132908 0.10516185 0.002466224

bias f4 [10]
00000000: c271 6cbd 8953 0cbf 6a05 54bf 8372 2dbf
00000010: a09c 54bf 2575 78bf c753 12bf 701d 98be
00000020: d9a3 0ebf 5b4c 76bf
-0.057725675 -0.54814965 -0.8282076 -0.67752856 -0.8305149 -0.9705375 -0.57159084 -0.2970996
-0.5571876 -0.9621026

weight f4 [10, 10]
00000000: ac5f 6c3e 914e 1e3e 832f 55be b943 70bd
00000010: 7db3 dfbd 2cf9 3fbe a7b4 0cbe 5931 e93d
00000020: db27 733e 49db 8bbd 7080 94bd f0db a43e
00000030: b676 443d ee87 cd3d ebf8 8ebc a171 183e
00000040: 09ac 69bc d875 babd 0f4d b53c 5a86 233e
00000050: 526e cebe 3500 e3be 2a45 9abe f88a 8bbe
00000060: c6a0 48bd 84e4 1abe 9fb3 50bf 15fc c3be
00000070: 89e3 d3be 2cd7 aebe 4759 3bbf 3f92 1bbf
00000080: ea00 b2be 63c0 56be 504d 3abf c4bd a1be
00000090: 5525 f0be 6a13 30bf 75da b8be de0d 97be
000000a0: 575e 7fbc f9c3 72be 9333 043e c5f0 05be
000000b0: 87ef 0f3e ca6e 6f3c e3c8 4f3e 1896 3bbc
000000c0: af34 0abe 5b96 453d 7440 aabe 6b0f 2fbe
000000d0: 3645 8ebe afa5 743d 4169 bcbe 2a65 debd
000000e0: 4457 00bf 981f c8be 90a8 38be 17df dcbe
000000f0: 7b66 0d3e 2295 91bc b096 4a3d d30b 16be
00000100: bb87 683e 78aa 953e c842 ec3d 2209 663e
00000110: 68b4 a2bd c205 7f3e 697a 5dbe 1b2b 38be
00000120: ef55 983d aa83 20be fc95 f0bd 0133 9abe
00000130: b9fa 3cbc 9106 b4be 5634 d9bd c46d 9bbe
00000140: 3d68 a43e f8a9 c33d 0192 323e e252 c23e
00000150: d875 193d b39d 153c d478 903e 0a50 ad3e
00000160: 9f9d a43e a46a 9d3c 762f 28bf 0c5f 0ebe
00000170: 340c 31bf 5dad ddbe 97fe 02bf 5f89 8bbe
00000180: d973 90be 343a 08bf f7fe 51be d815 07bf
0.23083371 0.15459658 -0.20818906 -0.058658335 -0.109229065 -0.18747395 -0.13740788 0.113863654
0.23745672 -0.06828935 -0.0725106 0.3219905 0.047964774 0.10035692 -0.017452678 0.14887096
-0.014262208 -0.09104508 0.022131471 0.1596922 -0.40318543 -0.44336095 -0.30130893 -0.27254462
-0.04898145 -0.15126234 -0.8152408 -0.3827826 -0.41384533 -0.34148538 -0.731831 -0.6077003
-0.34766322 -0.20971827 -0.7277422 -0.31590092 -0.46903482 -0.68779624 -0.3610417 -0.29502767
-0.015586457 -0.2370757 0.12910299 -0.13080128 0.14056216 0.0146138165 0.20291476 -0.011449359
-0.1349666 0.048239093 -0.332523 -0.17095725 -0.2778718 0.05972832 -0.36799052 -0.10859139
-0.50133157 -0.39086604 -0.18033051 -0.43138954 0.13808624 -0.017771307 0.049460113 -0.14652948
0.22708027 0.2923162 0.11536175 0.22464421 -0.07944566 0.2490454 -0.21628727 -0.17985193
0.074382655 -0.15675226 -0.11747357 -0.30117038 -0.011534386 -0.3516126 -0.106056854 -0.30357182
0.32110777 0.09553903 0.17438509 0.3795386 0.0374659 0.009131837 0.28217185 0.33850127
0.32151505 0.01921589 -0.6569742 -0.13903445 -0.69159245 -0.43296328 -0.51169723 -0.27253243
-0.28213385 -0.5321381 -0.20507418 -0.52767706

bias f4 [10]
00000000: 02f8 4abd ccc5 af3e e97b 2ebf 3db1 13bf
00000010: 8284 9f3e 02b9 f3be 9c9b dd3e 7e81 843b
00000020: fb30 1d3e ef33 40bf
-0.049552925 0.34330595 -0.6815782 -0.5769232 0.31155783 -0.47602087 0.43282783 0.004043757
0.15350716 -0.75079244

weight f4 [300, 10]
00000000: 05ce b1be a35b 4dbe 7e72 0ebf 0037 d43d
00000010: 8659 c7be 4c3e 09bf cb75 8fbd 7f66 34be
00000020: cb6a b8be c43b 79be 0813 a7be 5122 993e
00000030: 7b94 3f3e 84aa ac3d 75a6 803e c4cc 2d3e
00000040: 9c65 3a3d 89ac cc3b 3b18 cf3d 842d 443e
00000050: dc78 3ebe c005 89ba d38f 343e 10b2 05be
00000060: 31e7 693e 6422 b0be 82da adbd 9512 4dbe
00000070: e5f1 bd3d 2e4b 13bd 699a a1be 8a97 9abe
00000080: f3ee f6bd f1cd 0abf bfce 45be 96cd a3be
00000090: 9954 763c 850e 27be 6d54 d3be 5f88 163d
000000a0: 400a bfbd 6060 0d3e 02c4 32be e1fc bbbd
000000b0: 8688 36bd 30a5 87be 5762 49bd ea08 46be
000000c0: a15d 99be cf25 fc3d 7c67 d4be 8f6f bfbe
000000d0: cf70 cfbe 4187 35be 8ead 23be a436 07bf
000000e0: f655 dcbd 09d3 c8bc c2a7 b7bc 26ab f4be
000000f0: f957 18be 87f1 57be 5d4d 7d3e 4776 8ebe
00000100: fe1d 923d 1d81 b4bd 7f5e b1bb a2ef 78be
00000110: 088c 28be 9a43 cf3d 3e38 c6be abe6 9a3d
00000120: 74c9 483d 3b26 8abe b434 efbe cac3 8f3d
00000130: af6a de3c 63ef 82bd 03ba c73d f543 debc
00000140: 13f2 d83e 808b b43e 5874 7e3e 2d2a d13e
00000150: 6432 d13d 0eba 94bd 346d 573c 43af f43e
00000160: d516 7c3e 166d 433e 1a69 3d3e 4d9f 2e3e
00000170: 7d1e 3fbe cd9e 583e e442 b83e 37c0 0bbd
00000180: 35a6 f73d 8bb9 113e 18bd 613e 2dd0 17be
00000190: 5140 623f 372e 0e3f e13f 143f 8389 2d3f
000001a0: 6319 123f e9c2 323f 322a 063f 9654 3b3f
000001b0: 8b30 fb3e 040c 6b3e 05b2 803f 78fd 273f
000001c0: 87d9 4a3f d676 5f3f 5908 353f 81b0 303f
000001d0: a09d 823f 985d 3b3f 3cb6 363f bf23 873f
000001e0: 445e b63e dd8b 893e 5286 2cbe 8ca1 d53d
000001f0: b5cf 033f f179 6c3e 0c3d 2cbd e740 bb3e
00000200: 2294 823e cece fb3e 1ac0 d23d a098 13bc
00000210: 2e38 82be 5df1 2f3e 7228 c8bd b22c a8be
00000220: b899 01be 21ab a7bd 78ac 48be 87ff 8abe
00000230: edd7 65be 9fef 90be fcbd 22be 1e00 dabe
00000240: e6a8 19bd 4b93 3cbd 3cfc 05be 43aa d63b
00000250: 6666 363d d065 efbe 9daf 353c 0fc5 53be
00000260: 700a 073e 4497 673e 3cd1 3bbe 60a5 90be
00000270: 77fc debd cf07 b0be 2a2f 5cbe 1963 19be
00000280: fa40 dd3e c5f4 863e 8ce9 3fbc 42dc 4bbd
00000290: ed1b 0dbc 7ffc 3cbe 7a02 683e c81a 6f3e
000002a0: 88e5 abbd 601d 8a3e 0e55 74be 68f4 563e
000002b0: 599c 883b 76ec 923e 9de1 8b3e 707c d53d
000002c0: 2f57 86be 1e24 ca3d a927 933e 5ad9 28bd
000002d0: 0b6b c93e f181 8d3e 3ad7 eb3d ac9c f3bd
000002e0: 6af0 67bd 0bcc 933d eae3 ad3c 5da1 e73e
000002f0: 87c2 613e d732 bebd 734e 4bbe f332 bc3e
00000300: 5ff6 13be cc0d 663e 5cfa 11bd ff56 ef3d
00000310: 0cc5 d63e 50ff da3e 1f6e 443d c763 733e
00000320: 7a0c 3a3e 5de5 b8bc 9dca 8cbe a163 243d
00000330: 6ddb ae3e 3e30 5ebe 46e0 14be d2d0 953e
00000340: 0687 ffbc bfea 093e 4b80 b13c a4d0 753e
00000350: e00d 8abd eb62 983d 8a68 08be 533f 27be
00000360: e408 a23d 762d 8bbe 7ced b73d 3b80 0d3e
00000370: 0f43 823e 2881 dbbd 3eed a33c 144a 82be
00000380: aed5 65be 415f da3d 2ab2 1d3d a4a0 a5be
00000390: 862a 8bbe 8696 82be bb56 67bd fa95 f7bd
000003a0: f821 15bd 2bb7 b0be 974d 2ebe 7aef cd3d
000003b0: a4b0 503b 2609 bc3d 9b0b bdbd b16b d4be
000003c0: 3687 963e c96f 4c3e 3dce 173e 43ae bb3e
000003d0: 481a c93e dddd ce3d 1356 f03e 28e9 8c3d
000003e0: 13cf 053f 7ad0 303e 2eae a63d cc70 563b
000003f0: 3451 4abb 5612 193e 6bb7 f5bd b6e3 0ebe
-0.34727493 -0.20054488 -0.5564345 0.10362053 -0.38935488 -0.5361068 -0.07004889 -0.17617224
-0.36018977 -0.24339205 -0.32631707 0.29908994 0.18708985 0.08430961 0.25126997 0.16972643
0.04550706 0.0062461537 0.101120435 0.19157988 -0.18600792 -0.0010453984 0.1763299 -0.13056207
0.22842099 -0.34401238 -0.08488943 -0.2002662 0.09274653 -0.03596037 -0.31563118 -0.3019374
-0.12057295 -0.5422049 -0.19317149 -0.31992787 0.015034818 -0.16314133 -0.4127535 0.036751147
-0.09328127 0.13806295 -0.17457584 -0.09179092 -0.044563793 -0.26493216 -0.04916605 -0.19339338
-0.29954246 0.12311899 -0.41485202 -0.373898 -0.40515754 -0.17727377 -0.15984175 -0.5281775
-0.10758583 -0.024514692 -0.02241886 -0.47786826 -0.14877309 -0.21088229 0.24736543 -0.27824613
0.07134627 -0.08813689 -0.005412876 -0.24310163 -0.16459668 0.10120316 -0.38714784 0.07563528
0.049020246 -0.26982293 -0.46719897 0.07019766 0.02715048 -0.06393316 0.09752276 -0.027132014
0.42372188 0.3526268 0.24849069 0.4085249 0.102146894 -0.072620496 0.013148595 0.47789964
0.24618085 0.19084582 0.18497124 0.17052956 -0.18663974 0.21154328 0.35988533 -0.034118857
0.12092248 0.14230935 0.2204479 -0.14825507 0.8837939 0.5553927 0.5790997 0.6778795
0.5706999 0.6982866 0.52408135 0.7317594 0.49060473 0.22953802 1.0054327 0.6562114
0.7923817 0.87290704 0.7071586 0.69019324 1.0204353 0.7318969 0.7137182 1.0557784
0.35618794 0.2686452 -0.16848114 0.10431203 0.5148881 0.23093392 -0.042050406 0.36572954
0.2550364 0.49181217 0.10290547 -0.009008557 -0.25433487 0.17181917 -0.09773339 -0.328466
-0.12656295 -0.08186937 -0.19597042 -0.27148077 -0.2244565 -0.28307816 -0.15892786 -0.42578214
-0.03751459 -0.046038907 -0.13084501 0.0065510585 0.04453125 -0.46757364 0.011089233 -0.2068064
0.13187575 0.22616297 -0.18341535 -0.2825117 -0.108879976 -0.34380957 -0.21502367 -0.14979209
0.43213636 0.2635862 -0.011713397 -0.0497706 -0.008612615 -0.18455695 0.22657195 0.2335006
-0.08393389 0.26975536 -0.23860571 0.20991671 0.0041690287 0.2869603 0.27320567 0.10424125
-0.2623839 0.0987017 0.28741196 -0.041222908 0.3933948 0.276382 0.115156606 -0.11895117
-0.05662576 0.072166525 0.021226842 0.45240298 0.22046863 -0.09287041 -0.19854145 0.3675762
-0.14449452 0.224662 -0.035639152 0.11686515 0.4194721 0.42772913 0.047956582 0.23768531
0.18168822 -0.022570306 -0.27498332 0.040134076 0.34151784 -0.2169809 -0.14538679 0.2926088
-0.031192314 0.13468455 0.02166762 0.24005371 -0.06740928 0.07440742 -0.13321128 -0.1633275
0.07911852 -0.2718312 0.089808434 0.13818447 0.25441787 -0.10717994 0.020010587 -0.25447142
-0.22444794 0.106626995 0.03849999 -0.32349122 -0.2718088 -0.25505465 -0.056479197 -0.12089153
-0.03640935 -0.34514746 -0.17021786 0.10055442 0.0031843567 0.091814324 -0.09230729 -0.41488412
0.29400033 0.19964518 0.14824767 0.3665639 0.39277864 0.10100911 0.4694067 0.068804085
0.52269095 0.17267027 0.08138691 0.003272104 -0.0030871155 0.14948401 -0.11997875 -0.13954052
