mcspace/paper/mouse_runs/runs/seed_1/model.pt (torch, 464942 bytes, 99 tensors)

theta_params f4 [100, 74]
-2.5937524 0.857829 1.6163468 -2.4247484 -2.5002625 0.64367896 -2.3247044 -0.4490262
1.29424 -5.8491197 -2.94055 -0.5999219 1.1624995 0.71896696 1.0544719 1.6296624
1.7370433 -2.8020122 -4.4846663 -1.5453033 -2.3213181 0.025161661 -3.8482888 -3.2569518
-2.6089153 4.554147 7.3813767 2.1697607 -2.4616284 -2.833309 -4.326869 -1.4654855
-2.2155626 1.95112 -2.0595224 -5.0220046 -2.4630742 -3.1545355 -2.1152306 1.1786345
-2.7299054 -1.4256803 -2.7649424 1.2463423 2.4437244 0.11731563 -1.1751606 -1.6187001
-3.8982368 -2.9189348 -2.4205358 -1.8402934 -2.9056318 -2.9539866 2.0701027 -3.3409224
-2.494198 -3.5469425 -3.698223 -2.7775671 -2.2469687 1.9651017 -2.3743558 -4.1576133
-4.344463 3.1178055 2.8120854 -1.392273 2.1198928 1.2873186 -3.3944504 -4.021063
-3.5012937 -3.907547 4.0864606 4.2856927 2.7888877 -5.4286146 -4.5297866 5.195932
-4.65717 -1.9998196 1.2941487 -1.3499712 -5.444096 -4.0432 4.9052577 2.082067
1.9173847 -2.7491357 -1.996268 -0.5946085 0.22828162 1.0374488 2.705964 2.9386728
2.4758527 -5.2141547 0.38391027 -2.0844002 3.5624042 -2.1256742 1.9203017 1.8070822
-4.718251 0.76490885 -4.360166 0.5996121 -3.1631012 2.1614795 -5.7705684 -3.6553059
-3.4189434 4.4834247 -3.2093282 -5.748882 0.9199565 1.9803306 1.6698762 2.0181816
-0.41278678 -3.5043705 0.013566237 -1.6841575 0.59387124 -3.7187648 -2.9424064 -5.014233
2.479235 -4.107992 0.8790298 -1.7972713 -4.3492746 -3.5773957 0.14040862 -4.338065
0.99325055 -3.3934603 2.9646153 2.0009096 -5.871254 -3.6103387 2.7697608 -3.3176184
0.78955907 -3.0319269 -4.9795933 -3.4080439 1.848985 0.57529837 -4.080856 0.8205013
-6.3770857 2.8168428 -2.3981957 -5.066018 -6.617194 -5.3498273 2.9796133 -7.7323
-5.9634733 -5.811806 0.9848641 3.3557248 -0.03373387 -2.2090619 -3.0173082 -2.0050511
-2.7636042 -6.0257735 -5.1892724 -3.3494358 -3.6070223 -0.8318813 -6.5634193 -1.8402416
-4.8198676 -5.7099104 -6.159715 -5.058065 0.10401884 -3.7645333 -0.46038648 -5.805171
-3.9298632 -7.580316 -5.8279676 0.34353507 0.63466084 -6.4706607 -1.755388 -5.837142
-5.9558687 1.1127874 0.58785355 -5.6925387 -6.7272077 -4.070477 -5.9357295 -2.6155553
-4.3780174 -5.8523874 -6.1770496 -6.686217 0.21557039 1.0052232 -3.8101873 -3.8209379
-5.6990023 1.4645313 0.998585 -2.3439643 -7.3566933 -0.0017504207 5.388067 -0.86271626
-0.47321394 -5.9939365 1.2561847 -7.0368104 0.36365244 -6.7942233 1.0435175 -3.8249617
-3.9171712 -4.0291576 -3.2209022 -4.6563096 -4.571154 -4.8319836 -4.7725334 -2.9666579
-5.0703125 -1.7249868 -4.765478 -1.5454919 1.2698294 -6.013547 -4.651369 -5.512801
-3.5721834 1.2414008 -3.020117 -6.139968 -5.4614053 -5.5741773 0.013623974 2.5621588
-3.329553 2.5733597 -4.3742127 -0.9031966 -1.4425505 -4.427018 -2.8220456 -2.343574
00000000: 0a00 26c0 ae9a 5b3f 74e4 ce3f 142f 1bc0
00000010: 4d04 20c0 25c8 243f f5c7 14c0 c3e6 e5be
00000020: a8a9 a53f fd2b bbc0 f931 3cc0 7b94 19bf
00000030: c9cc 943f 380e 383f eff8 863f c798 d03f
00000040: 6f57 de3f 2b54 33c0 6382 8fc0 80cc c5bf
00000050: 7a90 14c0 d41f ce3c 5d4a 76c0 e671 50c0
00000060: 78f8 26c0 92bb 9140 3d34 ec40 5cdd 0a40
00000070: 528b 1dc0 ef54 35c0 b675 8ac0 0795 bbbf
00000080: c7cb 0dc0 4dbe f93f 37cf 03c0 43b4 a0c0
00000090: 02a3 1dc0 e9e3 49c0 f05f 07c0 7fdd 963f
000000a0: c5b6 2ec0 b17c b6bf d1f4 30c0 2588 9f3f
000000b0: fb65 1c40 2d43 f03d aa6b 96bf 9131 cfbf
000000c0: b67c 79c0 d4cf 3ac0 0fea 1ac0 bc8e ebbf
000000d0: dff5 39c0 1e0e 3dc0 907c 0440 acd1 55c0
000000e0: f1a0 1fc0 1b01 63c0 b0af 6cc0 a9c3 31c0
000000f0: 56ce 0fc0 7488 fb3f 72f5 17c0 2b0b 85c0
00000100: d705 8bc0 208a 4740 35f9 3340 0036 b2bf
00000110: 53ac 0740 dbc6 a43f ad3e 59c0 8cac 80c0
00000120: 3215 60c0 4015 7ac0 49c4 8240 6524 8940
00000130: 237d 3240 36b7 adc0 03f4 90c0 1345 a640
00000140: 8907 95c0 17fa ffbf aaa6 a53f dbcb acbf
00000150: 0936 aec0 e561 81c0 dff7 9c40 9640 0540
00000160: dd6c f53f d7f1 2fc0 b685 ffbf 4338 18bf
00000170: a8c2 693e 1fcb 843f 842e 2d40 3713 3c40
00000180: 5f74 1e40 5bda a6c0 e38f c43e d066 05c0
00000190: 6efe 6340 0c0b 08c0 72cc f53f 784e e73f
000001a0: eafb 96c0 11d1 433f 7b86 8bc0 2e80 193f
000001b0: 4070 4ac0 ae55 0a40 7fa8 b8c0 88f0 69c0
000001c0: f8cf 5ac0 3778 8f40 a265 4dc0 d7f6 b7c0
000001d0: 4582 6b3f 797b fd3f 81be d53f e329 0140
000001e0: ca58 d3be 9b47 60c0 ec44 5e3c 7992 d7bf
000001f0: f207 183f 3e00 6ec0 6350 3cc0 9974 a0c0
00000200: c9ab 1e40 ac74 83c0 1908 613f fc0c e6bf
00000210: 422d 8bc0 0df4 64c0 47c7 0f3e 6ed1 8ac0
00000220: ab45 7e3f 742e 59c0 42bc 3d40 e70e 0040
00000230: 50e1 bbc0 ca0f 67c0 c343 3140 dc53 54c0
00000240: 8b20 4a3f 170b 42c0 d458 9fc0 641d 5ac0
00000250: 8aab ec3f c146 133f 5f96 82c0 600c 523f
00000260: 1611 ccc0 2747 3440 0a7c 19c0 d21c a2c0
00000270: 0ec0 d3c0 c931 abc0 fcb1 3e40 006f f7c0
00000280: c6d4 bec0 51fa b9c0 0e20 7c3f 32c4 5640
00000290: 872c 0abd 4561 0dc0 941b 41c0 c252 00c0
000002a0: e4de 30c0 23d3 c0c0 850e a6c0 285d 56c0
000002b0: 74d9 66c0 2cf6 54bf 8807 d2c0 098d ebbf
000002c0: 5b3c 9ac0 96b7 b6c0 631c c5c0 abdb a1c0
000002d0: d407 d53d 1dee 70c0 c7b7 ebbe f6c3 b9c0
000002e0: e182 7bc0 f391 f2c0 b67e bac0 d4e3 af3e
000002f0: 2279 223f a70f cfc0 8eb0 e0bf dec9 bac0
00000300: 7a96 bec0 d16f 8e3f 927d 163f 4729 b6c0
00000310: 4945 d7c0 5941 82c0 7ff1 bdc0 4265 27c0
00000320: b818 8cc0 c246 bbc0 64aa c5c0 7df5 d5c0
00000330: 7cbe 5c3e 27ab 803f 1cda 73c0 3f8a 74c0
00000340: 3a5e b6c0 c375 bb3f 44a3 7f3f 8303 16c0
00000350: 086a ebc0 5f6e e5ba 0b6b ac40 f9da 5cbf
00000360: 1949 f2be 54ce bfc0 a9ca a03f 8d2d e1c0
00000370: a730 ba3e 476a d9c0 fb91 853f 2ccc 74c0
00000380: efb2 7ac0 dcee 80c0 4323 4ec0 7d00 95c0
00000390: e546 92c0 9c9f 9ac0 98b8 98c0 b9dd 3dc0
000003a0: 0040 a2c0 5ecc dcbf cc7e 98c0 aed2 c5bf
000003b0: c589 a23f fa6e c0c0 04d8 94c0 de68 b0c0
000003c0: a79e 64c0 39e6 9e3f 9949 41c0 9e7a c4c0
000003d0: d5c3 aec0 a95f b2c0 1737 5f3c 69fa 2340
000003e0: 6517 55c0 edb1 2440 8df9 8bc0 e437 67bf
000003f0: 7fa5 b8bf 22aa 8dc0 659c 34c0 1efd 15c0

q_mu f4 [7]
-3.5365493 -1.9383733 -2.3825474 -2.2138212 -2.3711228 -1.9974397 -3.752582
00000000: d356 62c0 9e1c f8bf a87b 18c0 3faf 0dc0
00000010: 7ac0 17c0 1bac ffbf 4e2a 70c0

q_var f4 [7]
-2.8564997 -4.8507295 -4.228498 -4.5945816 -3.9803324 -4.328712 -3.8744547
00000000: e4d0 36c0 2d39 9bc0 db4f 87c0 d006 93c0
00000010: c4bd 7ec0 cf84 8ac0 11f7 77c0

eps f4 [7]
-0.4888856 0.76396465 0.3132127 1.4879147 -0.35383427 -0.14744966 0.44720343
00000000: 374f fabe 3093 433f 6a5d a03e fd73 be3f
00000010: c429 b5be 0bfd 16be d9f7 e43e

q_gamma_params f4 [99]
3.226325 3.794037 3.8469498 3.4760482 2.3883002 4.000573 4.0754757 3.8344493
2.5110059 2.077846 1.9586086 3.9471087 3.7980726 4.203289 3.9548495 3.4712746
3.1914184 3.7653518 4.1739836 4.130578 2.7482462 4.3207617 4.2288575 -0.6237617
3.5029674 3.9089994 3.9058616 -4.860605 3.5668068 2.9021277 4.292567 4.1705346
-3.5340216 4.3099318 3.3698623 2.5689433 -1.8421024 -0.12144804 -1.0605948 3.8036163
4.110586 4.027472 3.4515238 3.0959475 3.222492 3.9991362 4.3854656 4.14551
2.8104663 2.0881975 2.7031 3.593432 3.91464 1.3654864 3.7601302 3.6331832
3.6001465 1.9054979 -0.35276672 3.47402 3.9142008 3.8250775 4.281949 3.6302347
3.321099 4.376028 3.0000725 4.020109 2.626699 3.8299644 3.8716967 3.2338967
3.897916 3.966613 0.24602559 3.9683414 4.126537 3.8196568 4.034792 3.8977275
3.6940606 4.134105 3.6782575 3.816499 4.2644362 3.2546291 3.8890207 3.7619326
4.198679 -2.1161616 3.7046897 4.442909 3.9947171 3.8172593 2.69056 3.901297
3.838204 3.8526134 4.51792
00000000: 1c7c 4e40 81d1 7240 6d34 7640 9377 5e40
00000010: e9d9 1840 b204 8040 4c6a 8240 9e67 7540
00000020: 52b4 2040 6efb 0440 b0b3 fa3f 6e9d 7c40
00000030: 9f13 7340 5881 8640 411c 7d40 5d29 5e40
00000040: 3340 4c40 86fb 7040 4691 8540 b22d 8440
00000050: 44e3 2f40 ae43 8a40 cd52 8740 d9ae 1fbf
00000060: 9e30 6040 0c2d 7a40 a3f9 7940 138a 9bc0
00000070: 9046 6440 76bc 3940 b55c 8940 0575 8540
00000080: 692d 62c0 f6ea 8940 d3ab 5740 9169 2440
00000090: 03ca ebbf c0b9 f8bd 92c1 87bf 736e 7340
000000a0: ec89 8340 0de1 8040 c4e5 5c40 0124 4640
000000b0: 4f3d 4e40 d9f1 7f40 bc55 8c40 05a8 8440
000000c0: aede 3340 07a5 0540 97ff 2c40 cafa 6540
000000d0: 7689 7a40 42c8 ae3f f9a5 7040 1386 6840
000000e0: cd68 6640 5be7 f33f d79d b4be 5856 5e40
000000f0: 4482 7a40 12ce 7440 ba05 8940 c455 6840
00000100: e38c 5440 6c08 8c40 3001 4040 bca4 8040
00000110: d61b 2840 231e 7540 e1c9 7740 2af8 4e40
00000120: 7577 7940 fddc 7d40 22ee 7b3e 4ef9 7d40
00000130: 970c 8440 4275 7440 041d 8140 5e74 7940
00000140: 7d6b 6c40 974a 8440 9268 6b40 8541 7440
00000150: 4376 8840 d84b 5040 b7e5 7840 81c3 7040
00000160: 945b 8640 316f 07c0 a319 6d40 4f2c 8e40
00000170: 72a9 7f40 fa4d 7440 2332 2c40 daae 7940
00000180: 22a5 7540 3891 7640 cd92 9040

q_probs f4 [99]
0.961815 0.9779911 0.97910154 0.97000104 0.9159369 0.9820243 0.9832999 0.9788442
0.9249453 0.88876194 0.8764046 0.9810555 0.97807807 0.985274 0.981199 0.969863
0.9605192 0.9773651 0.98484266 0.9841808 0.93983644 0.9868846 0.9856403 0.34896326
0.9707752 0.9803345 0.98027384 0.007690892 0.97253066 0.9479735 0.9865146 0.9847912
0.028380124 0.9867437 0.9667506 0.9281457 0.1368756 0.46974856 0.25727314 0.9781965
0.9838666 0.98249304 0.9692811 0.9564822 0.96167356 0.98199856 0.9876961 0.98441154
0.94324976 0.88979024 0.9372146 0.9732141 0.9804433 0.7967328 0.97725016 0.97425133
0.9734071 0.8706133 0.41284755 0.969942 0.98043436 0.9786491 0.98637265 0.97417724
0.96514636 0.9875809 0.9525839 0.9823663 0.9325806 0.97875196 0.97960186 0.9620929
0.98011976 0.9814152 0.56119174 0.9814461 0.98411775 0.97853696 0.98261833 0.98011565
0.97573495 0.98423564 0.97535646 0.97847086 0.98613447 0.9628405 0.97994506 0.9772897
0.9852069 0.10763138 0.9759839 0.98837507 0.981921 0.9784857 0.93647075 0.980185
0.9789227 0.97921705 0.9892061
00000000: 8239 763f a05d 7a3f 66a6 7a3f fd51 783f
00000010: d77a 6a3f f265 7b3f 8bb9 7b3f 8995 7a3f
00000020: 37c9 6c3f e785 633f 0d5c 603f 7426 7b3f
00000030: 5363 7a3f eb3a 7c3f dc2f 7b3f f148 783f
00000040: 96e4 753f 9934 7a3f a61e 7c3f 46f3 7b3f
00000050: 1f99 703f 78a4 7c3f ec52 7c3f 50ab b23e
00000060: b984 783f 34f7 7a3f 3af3 7a3f e103 fc3b
00000070: c5f7 783f 64ae 723f 398c 7c3f 471b 7c3f
00000080: 6f7d e83c 3c9b 7c3f f87c 773f f59a 6d3f
00000090: 1e29 0c3e e282 f03e 4eb9 833e 166b 7a3f
000000a0: aede 7b3f aa84 7b3f ce22 783f 04dc 743f
000000b0: 3d30 763f 4264 7b3f a7d9 7c3f 6502 7c3f
000000c0: d178 713f 4bc9 633f 4ced 6f3f 8f24 793f
000000d0: 55fe 7a3f aef6 4b3f 112d 7a3f 8968 793f
000000e0: 3531 793f 83e0 5e3f c160 d33e 1e4e 783f
000000f0: bffd 7a3f bf88 7a3f eb82 7c3f ae63 793f
00000100: d513 773f 1ad2 7c3f 8adc 733f 5c7c 7b3f
00000110: 9abd 6e3f 7d8f 7a3f 30c7 7a3f b84b 763f
00000120: 21e9 7a3f 073e 7b3f 43aa 0f3f 0d40 7b3f
00000130: 24ef 7b3f 6681 7a3f e08c 7b3f dce8 7a3f
00000140: c4c9 793f def6 7b3f f6b0 793f 117d 7a3f
00000150: 4f73 7c3f b77c 763f aedd 7a3f a82f 7a3f
00000160: 8536 7c3f d76d dc3d 15da 793f 2606 7d3f
00000170: 2d5f 7b3f 0a7e 7a3f 8cbc 6f3f 67ed 7a3f
00000180: ae9a 7a3f f8ad 7a3f 9c3c 7d3f

gamma f4 [100]
1.0 1.0 1.0 1.0 1.0 1.0 1.0 1.0
1.0 1.0 1.0 1.0 1.0 1.0 1.0 1.0
1.0 1.0 1.0 1.0 1.0 1.0 1.0 1.0
0.0 1.0 1.0 1.0 0.0 1.0 1.0 1.0
1.0 0.0 1.0 1.0 0.0 0.0 1.0 1.0
1.0 1.0 1.0 1.0 0.0 1.0 1.0 1.0
1.0 1.0 1.0 1.0 1.0 1.0 1.0 1.0
1.0 1.0 1.0 1.0 1.0 1.0 1.0 1.0
1.0 1.0 0.0 1.0 1.0 1.0 1.0 1.0
1.0 1.0 1.0 0.0 1.0 1.0 1.0 1.0
1.0 1.0 1.0 1.0 1.0 1.0 1.0 1.0
1.0 1.0 1.0 1.0 1.0 1.0 1.0 1.0
1.0 1.0 1.0 1.0
00000000: 0000 803f 0000 803f 0000 803f 0000 803f
00000010: 0000 803f 0000 803f 0000 803f 0000 803f
00000020: 0000 803f 0000 803f 0000 803f 0000 803f
00000030: 0000 803f 0000 803f 0000 803f 0000 803f
00000040: 0000 803f 0000 803f 0000 803f 0000 803f
00000050: 0000 803f 0000 803f 0000 803f 0000 803f
00000060: 0000 0000 0000 803f 0000 803f 0000 803f
00000070: 0000 0000 0000 803f 0000 803f 0000 803f
00000080: 0000 803f 0000 0000 0000 803f 0000 803f
00000090: 0000 0000 0000 0000 0000 803f 0000 803f
000000a0: 0000 803f 0000 803f 0000 803f 0000 803f
000000b0: 0000 0000 0000 803f 0000 803f 0000 803f
000000c0: 0000 803f 0000 803f 0000 803f 0000 803f
000000d0: 0000 803f 0000 803f 0000 803f 0000 803f
000000e0: 0000 803f 0000 803f 0000 803f 0000 803f
000000f0: 0000 803f 0000 803f 0000 803f 0000 803f
00000100: 0000 803f 0000 803f 0000 0000 0000 803f
00000110: 0000 803f 0000 803f 0000 803f 0000 803f
00000120: 0000 803f 0000 803f 0000 803f 0000 0000
00000130: 0000 803f 0000 803f 0000 803f 0000 803f
00000140: 0000 803f 0000 803f 0000 803f 0000 803f
00000150: 0000 803f 0000 803f 0000 803f 0000 803f
00000160: 0000 803f 0000 803f 0000 803f 0000 803f
00000170: 0000 803f 0000 803f 0000 803f 0000 803f
00000180: 0000 803f 0000 803f 0000 803f 0000 803f

KL_gamma_k f4 [99]
441389.47 448812.9 449322.5 445146.2 420335.25 450663.84 451249.22 449204.44
424469.38 407864.25 402193.28 450219.25 448852.84 452155.22 450285.12 445082.8
440794.8 448525.62 451957.25 451653.5 431303.16 452894.3 452323.28 160143.2
445501.44 449888.38 449860.53 3529.407 446307.06 435037.34 452724.53 451933.66
13023.885 452829.66 443654.47 425938.1 62813.62 215573.12 118065.48 448907.2
451509.28 450878.94 444815.78 438942.16 441324.56 450652.03 453266.75 451759.38
432869.56 408336.12 430099.94 446620.7 449938.3 365630.72 448472.9 447096.7
446709.25 399535.6 189460.53 445119.06 449934.2 449114.88 452659.38 447062.7
442918.28 453213.88 437153.12 450820.8 427973.3 449162.1 449552.12 441516.97
449789.8 450384.3 257537.62 450398.5 451624.56 449063.44 450936.44 449787.94
447777.53 451678.66 447603.84 449033.1 452550.1 441860.06 449709.62 448491.03
452124.4 49393.12 447891.8 453578.3 450616.44 449039.9 429758.56 449819.75
449240.47 449375.53 453959.7
00000000: af85 d748 9d25 db48 5065 db48 465b d948
00000010: e83d cd48 fb0c dc48 2756 dc48 8e56 db48
00000020: ac42 cf48 0827 c748 2962 c448 68d5 db48
00000030: 9b2a db48 67c7 dc48 a4dd db48 5a53 d948
00000040: 5a3b d748 b401 db48 a8ae dc48 b088 dc48
00000050: e598 d248 ca23 dd48 69dc dc48 cd63 1c48
00000060: ae87 d948 0cac db48 91a8 db48 8396 5c45
00000070: 62ec d948 ab6b d448 910e dd48 b5ab dc48
00000080: 8a7f 4b46 b51b dd48 cfa0 d848 43fa cf48
00000090: 9f5d 7547 4885 5248 bd98 e647 6631 db48
000000a0: a976 dc48 de27 dc48 f931 d948 c553 d648
000000b0: 927d d748 810b dc48 5852 dd48 ec95 dc48
000000c0: b25c d348 0462 c748 7e02 d248 9613 da48
000000d0: 4ab2 db48 d787 b248 1dfb da48 164f da48
000000e0: a81e da48 f315 c348 2205 3948 e257 d948
000000f0: c6b1 db48 5c4b db48 6c06 dd48 d64a da48
00000100: c944 d848 bc4b dd48 2474 d548 9a20 dc48
00000110: aaf8 d048 4351 db48 0482 db48 9f95 d748
00000120: ba9f db48 0aea db48 6880 7b48 d0eb db48
00000130: 1285 dc48 ee44 db48 0e2f dc48 7e9f db48
00000140: 31a4 da48 d58b dc48 7b8e da48 2341 db48
00000150: c3f8 dc48 82c0 d748 b495 db48 61fd da48
00000160: 8dc3 dc48 1ff1 4047 7ab2 da48 4a79 dd48
00000170: 0e07 dc48 fd41 db48 d2d7 d148 78a3 db48
00000180: 0f5b db48 f16b db48 f6a8 dd48

q_gamma_params f4 [100, 3]
-4.4758763 -4.5773487 -3.964859 -4.044314 -4.3042617 -3.628883 -1.9630771 -3.6969285
-3.2517033 -0.9924846 -4.0223355 1.4391931 -2.7526479 -4.1156507 -3.7180493 -3.8516984
-4.0888925 -3.406823 -3.1995034 -4.275649 -4.13503 -3.650818 -4.407392 -4.1989274
-2.4718966 2.4748216 -3.77623 -4.1907883 -4.214083 -3.9460692 -4.312119 -4.151607
-4.136257 -4.2432537 -4.195956 -4.119756 -1.4126588 -4.4346886 -3.9401016 -3.9689696
-2.979013 -3.4667764 -3.4116983 -4.385039 -3.117834 -1.3470848 -4.50355 -4.048973
-4.1141615 -4.021347 -4.230431 -1.4591676 -3.7078917 -3.8517292 -0.8001207 -4.0340676
-3.7094672 -4.090968 -4.1835775 -3.8111331 -3.0906258 -4.2727237 1.5244253 -3.9515646
-3.9413912 -4.483259 -2.3477983 -4.275705 -3.35777 -4.276102 -3.9808888 -4.081142
-4.176542 -4.3026743 -4.625928 -3.0154257 -3.918464 -3.4629154 -1.6608809 -3.8142457
-4.3070235 -2.4814956 -4.0271673 -4.1015544 -4.069873 -4.464685 -3.9541876 -1.4603385
-4.40656 -2.0613487 -4.2112393 -4.131978 -3.8308775 2.3007581 -3.9597943 -3.0724401
-3.9225705 -4.350549 -3.5488281 -3.863746 -3.533473 -4.3288474 -1.4339213 -3.5643103
1.013702 -3.8456478 -3.8787537 -4.3325324 -3.7160506 -4.1007614 -3.9821365 -4.3497405
-4.1184063 -4.0222087 -3.9881258 -4.029798 -4.2688527 -3.8303633 -3.6806374 -3.032069
-4.174869 -4.264485 -4.067186 -2.789802 -4.3016844 -4.301543 -2.2051568 -3.3923347
0.15247828 -4.179017 -3.8941276 -3.1993632 -2.6376736 -3.943651 -4.21371 -4.233117
-4.158313 -3.9097447 -4.2838726 -3.449042 -3.8639612 -2.706822 -4.030428 -3.7906158
-3.7102191 -1.8633211 2.5772157 -3.8899763 -4.2358913 -3.9565997 -3.6295886 -3.9785907
-3.9602768 -4.2807693 -4.037245 -3.9324112 -4.0117106 -4.128862 -4.3239 -3.69679
-4.0557885 -2.5980184 -3.0716727 -3.8166173 -4.228975 -4.296141 -4.2060432 -4.262119
-4.1908107 -3.7076185 -4.2115626 -3.9038274 -4.128296 -3.3193753 -2.6978607 -4.0469804
-4.183566 -3.9259708 -4.1127663 -0.57961583 -4.035069 -4.1667566 -4.0796657 -4.0033693
-4.176508 -4.170798 -3.9057193 -4.3465886 -4.274519 -4.036566 -4.0098915 1.8078581
-4.021833 -3.9502814 -4.1532173 -2.3756666 -4.0593157 -4.2853007 -3.8458116 -4.091135
-4.252447 -3.532747 -4.420292 -3.6099453 -3.257376 -3.9482925 -3.2266273 -3.3665826
-4.342614 -4.1264763 -4.16265 -3.8422422 -3.5123374 0.99145377 -4.0181975 -2.5405166
-4.166324 -4.0980587 -4.3202043 -3.8457983 -3.884566 -3.425199 -3.7237751 -4.1939445
-4.0562363 -4.067749 -4.461142 -4.0115213 -4.4438105 -0.8387298 -2.951919 -2.2582805
-3.9243987 -4.320235 -4.424903 -3.9932022 -4.1718564 -0.6338379 -3.930212 -3.0762708
-3.8686132 -4.0915794 -4.254533 -1.1587287 -4.0503683 -4.2462564 -4.199796 -4.1559873
-3.9348822 -2.15466 -3.8026667 -3.5376787 -4.132217 -4.2397265 -4.153764 -2.5111084
00000000: 613a 8fc0 a479 92c0 40c0 7dc0 056b 81c0
00000010: 83bc 89c0 9e3f 68c0 1c46 fbbf 7a9a 6cc0
00000020: e81b 50c0 7913 7ebf f9b6 80c0 7b37 b83f
00000030: 622b 30c0 69b3 83c0 85f4 6dc0 3a82 76c0
00000040: 35d8 82c0 6309 5ac0 aac4 4cc0 1ed2 88c0
00000050: 2a52 84c0 01a7 69c0 5b09 8dc0 9d5d 86c0
00000060: 8e33 1ec0 7a63 1e40 c1ad 71c0 f01a 86c0
00000070: c5d9 86c0 668c 7cc0 e1fc 89c0 f7d9 84c0
00000080: 385c 84c0 bcc8 87c0 4645 86c0 0bd5 83c0
00000090: 01d2 b4bf f8e8 8dc0 a02a 7cc0 9903 7ec0
000000a0: 26a8 3ec0 aadf 5dc0 4459 5ac0 3d52 8cc0
000000b0: 988a 47c0 466d acbf 151d 90c0 3091 81c0
000000c0: 36a7 83c0 e0ae 80c0 b15f 87c0 01c6 babf
000000d0: 194e 6dc0 bb82 76c0 b6d4 4cbf 1517 81c0
000000e0: e967 6dc0 36e9 82c0 dedf 85c0 9be9 73c0
000000f0: d0cc 45c0 27ba 88c0 5e20 c33f 6fe6 7cc0
00000100: c13f 7cc0 dc76 8fc0 5442 16c0 93d2 88c0
00000110: b4e5 56c0 d4d5 88c0 e2c6 7ec0 b798 82c0
00000120: 3ba6 85c0 82af 89c0 9a07 94c0 bcfc 40c0
00000130: 1dc8 7ac0 68a0 5dc0 bf97 d4bf 9a1c 74c0
00000140: 23d3 89c0 d3d0 1ec0 8ede 80c0 ef3f 83c0
00000150: 663c 82c0 b3de 8ec0 6911 7dc0 5fec babf
00000160: 8a02 8dc0 23ed 03c0 79c2 86c0 2a39 84c0
00000170: 192d 75c0 9f3f 1340 456d 7dc0 dca2 44c0
00000180: 650b 7bc0 b337 8bc0 0020 63c0 9d47 77c0
00000190: 6c24 62c0 eb85 8ac0 bc8a b7bf a91d 64c0
000001a0: fdc0 813f 181f 76c0 803d 78c0 1ba4 8ac0
000001b0: c6d3 6dc0 7039 83c0 53db 7ec0 1331 8bc0
000001c0: fcc9 83c0 efb5 80c0 743d 7fc0 1bf4 80c0
000001d0: 719a 88c0 ac24 75c0 908f 6bc0 6b0d 42c0
000001e0: 8798 85c0 a976 88c0 6326 82c0 1e8c 32c0
000001f0: 66a7 89c0 3ea6 89c0 4a21 0dc0 031c 59c0
00000200: 4423 1c3e 82ba 85c0 6339 79c0 5ec2 4cc0
00000210: a5cf 28c0 c764 7cc0 b6d6 86c0 b275 87c0
00000220: e610 85c0 4239 7ac0 7c15 89c0 1bbd 5cc0
00000230: 244b 77c0 923c 2dc0 44f9 80c0 7399 72c0
00000240: 3b74 6dc0 4e81 eebf 1af1 2440 5ff5 78c0
00000250: 6c8c 87c0 ee38 7dc0 2e4b 68c0 3ba1 7ec0
00000260: 2d75 7dc0 10fc 88c0 1c31 81c0 a0ac 7bc0
00000270: ef5f 80c0 a31f 84c0 645d 8ac0 3598 6cc0
00000280: 05c9 81c0 ef45 26c0 4996 44c0 7543 74c0
00000290: c353 87c0 fd79 89c0 e897 86c0 4763 88c0
000002a0: 1f1b 86c0 9f49 6dc0 1fc5 86c0 4fd8 79c0
000002b0: 001b 84c0 a570 54c0 c0a9 2cc0 dd80 81c0
000002c0: c6df 85c0 1b43 7bc0 c89b 83c0 b461 14bf
000002d0: 491f 81c0 1256 85c0 9f8c 82c0 9a1b 80c0
000002e0: f4a5 85c0 2d77 85c0 4ef7 79c0 4117 8bc0
000002f0: dcc8 88c0 8c2b 81c0 0851 80c0 e567 e73f
00000300: dbb2 80c0 69d1 7cc0 28e7 84c0 ec0a 18c0
00000310: eae5 81c0 2f21 89c0 c721 76c0 94ea 82c0
00000320: 0c14 88c0 8718 62c0 0873 8dc0 5809 67c0
00000330: d978 50c0 d3b0 7cc0 1081 4ec0 1776 57c0
00000340: b2f6 8ac0 180c 84c0 6e34 85c0 4ce7 75c0
00000350: 23ca 60c0 eacf 7d3f 1395 80c0 d397 22c0
00000360: 8752 85c0 4c23 83c0 1d3f 8ac0 8f21 76c0
00000370: bb9c 78c0 7636 5bc0 5552 6ec0 cb34 86c0
00000380: b0cc 81c0 002b 82c0 adc1 8ec0 625e 80c0
00000390: b233 8ec0 ffb6 56bf 3eec 3cc0 ab87 10c0
000003a0: 5929 7bc0 5d3f 8ac0 ce98 8dc0 a090 7fc0
000003b0: d97f 85c0 3343 22bf 9888 7bc0 9fe1 44c0
000003c0: 5c97 77c0 38ee 82c0 2225 88c0 3951 94bf
000003d0: 9e9c 81c0 55e1 87c0 bb64 86c0 d9fd 84c0
000003e0: 1cd5 7bc0 f3e5 09c0 e45e 73c0 5469 62c0
000003f0: 1f3b 84c0 d7ab 87c0 a2eb 84c0 00b6 20c0

gamma f4 [100, 3]
0.0 0.0 0.0 0.0 0.0 0.0 0.0 0.0
0.0 0.0 0.0 1.0 0.0 0.0 0.0 0.0
0.0 0.0 0.0 0.0 0.0 0.0 0.0 0.0
0.0 1.0 0.0 0.0 0.0 0.0 0.0 0.0
0.0 0.0 0.0 0.0 1.0 0.0 0.0 0.0
0.0 0.0 0.0 0.0 0.0 0.0 0.0 0.0
0.0 0.0 0.0 1.0 0.0 0.0 0.0 0.0
1.0 0.0 0.0 0.0 0.0 0.0 1.0 0.0
0.0 0.0 0.0 0.0 0.0 0.0 0.0 0.0
0.0 0.0 0.0 0.0 0.0 0.0 0.0 0.0
0.0 0.0 0.0 0.0 0.0 0.0 0.0 0.0
0.0 0.0 0.0 0.0 0.0 1.0 0.0 0.0
0.0 0.0 0.0 0.0 0.0 0.0 0.0 0.0
0.0 0.0 0.0 0.0 0.0 0.0 0.0 0.0
0.0 0.0 0.0 0.0 0.0 0.0 0.0 0.0
0.0 0.0 0.0 0.0 0.0 0.0 0.0 0.0
0.0 0.0 0.0 0.0 0.0 0.0 0.0 0.0
0.0 0.0 0.0 0.0 0.0 0.0 0.0 0.0
0.0 0.0 1.0 0.0 0.0 0.0 0.0 0.0
0.0 1.0 0.0 0.0 0.0 0.0 0.0 0.0
0.0 0.0 0.0 0.0 0.0 0.0 0.0 0.0
0.0 0.0 0.0 0.0 0.0 0.0 0.0 0.0
0.0 0.0 0.0 0.0 0.0 0.0 0.0 1.0
0.0 0.0 0.0 0.0 0.0 0.0 0.0 1.0
0.0 0.0 0.0 0.0 0.0 0.0 0.0 0.0
0.0 0.0 1.0 0.0 0.0 0.0 0.0 0.0
0.0 0.0 0.0 0.0 1.0 0.0 0.0 0.0
0.0 0.0 0.0 0.0 0.0 0.0 0.0 0.0
0.0 0.0 0.0 0.0 0.0 1.0 0.0 1.0
0.0 0.0 0.0 0.0 0.0 0.0 0.0 0.0
0.0 0.0 0.0 0.0 0.0 0.0 0.0 0.0
0.0 0.0 0.0 0.0 0.0 0.0 0.0 0.0
00000000: 0000 0000 0000 0000 0000 0000 0000 0000
00000010: 0000 0000 0000 0000 0000 0000 0000 0000
00000020: 0000 0000 0000 0000 0000 0000 0000 803f
00000030: 0000 0000 0000 0000 0000 0000 0000 0000
00000040: 0000 0000 0000 0000 0000 0000 0000 0000
00000050: 0000 0000 0000 0000 0000 0000 0000 0000
00000060: 0000 0000 0000 803f 0000 0000 0000 0000
00000070: 0000 0000 0000 0000 0000 0000 0000 0000
00000080: 0000 0000 0000 0000 0000 0000 0000 0000
00000090: 0000 803f 0000 0000 0000 0000 0000 0000
000000a0: 0000 0000 0000 0000 0000 0000 0000 0000
000000b0: 0000 0000 0000 0000 0000 0000 0000 0000
000000c0: 0000 0000 0000 0000 0000 0000 0000 803f
000000d0: 0000 0000 0000 0000 0000 0000 0000 0000
000000e0: 0000 803f 0000 0000 0000 0000 0000 0000
000000f0: 0000 0000 0000 0000 0000 803f 0000 0000
00000100: 0000 0000 0000 0000 0000 0000 0000 0000
00000110: 0000 0000 0000 0000 0000 0000 0000 0000
00000120: 0000 0000 0000 0000 0000 0000 0000 0000
00000130: 0000 0000 0000 0000 0000 0000 0000 0000
00000140: 0000 0000 0000 0000 0000 0000 0000 0000
00000150: 0000 0000 0000 0000 0000 0000 0000 0000
00000160: 0000 0000 0000 0000 0000 0000 0000 0000
00000170: 0000 0000 0000 803f 0000 0000 0000 0000
00000180: 0000 0000 0000 0000 0000 0000 0000 0000
00000190: 0000 0000 0000 0000 0000 0000 0000 0000
000001a0: 0000 0000 0000 0000 0000 0000 0000 0000
000001b0: 0000 0000 0000 0000 0000 0000 0000 0000
000001c0: 0000 0000 0000 0000 0000 0000 0000 0000
000001d0: 0000 0000 0000 0000 0000 0000 0000 0000
000001e0: 0000 0000 0000 0000 0000 0000 0000 0000
000001f0: 0000 0000 0000 0000 0000 0000 0000 0000
00000200: 0000 0000 0000 0000 0000 0000 0000 0000
00000210: 0000 0000 0000 0000 0000 0000 0000 0000
00000220: 0000 0000 0000 0000 0000 0000 0000 0000
00000230: 0000 0000 0000 0000 0000 0000 0000 0000
00000240: 0000 0000 0000 0000 0000 803f 0000 0000
00000250: 0000 0000 0000 0000 0000 0000 0000 0000
00000260: 0000 0000 0000 803f 0000 0000 0000 0000
00000270: 0000 0000 0000 0000 0000 0000 0000 0000
00000280: 0000 0000 0000 0000 0000 0000 0000 0000
00000290: 0000 0000 0000 0000 0000 0000 0000 0000
000002a0: 0000 0000 0000 0000 0000 0000 0000 0000
000002b0: 0000 0000 0000 0000 0000 0000 0000 0000
000002c0: 0000 0000 0000 0000 0000 0000 0000 0000
000002d0: 0000 0000 0000 0000 0000 0000 0000 803f
000002e0: 0000 0000 0000 0000 0000 0000 0000 0000
000002f0: 0000 0000 0000 0000 0000 0000 0000 803f
00000300: 0000 0000 0000 0000 0000 0000 0000 0000
00000310: 0000 0000 0000 0000 0000 0000 0000 0000
00000320: 0000 0000 0000 0000 0000 803f 0000 0000
00000330: 0000 0000 0000 0000 0000 0000 0000 0000
00000340: 0000 0000 0000 0000 0000 0000 0000 0000
00000350: 0000 803f 0000 0000 0000 0000 0000 0000
00000360: 0000 0000 0000 0000 0000 0000 0000 0000
00000370: 0000 0000 0000 0000 0000 0000 0000 0000
00000380: 0000 0000 0000 0000 0000 0000 0000 0000
00000390: 0000 0000 0000 803f 0000 0000 0000 803f
000003a0: 0000 0000 0000 0000 0000 0000 0000 0000
000003b0: 0000 0000 0000 0000 0000 0000 0000 0000
000003c0: 0000 0000 0000 0000 0000 0000 0000 0000
000003d0: 0000 0000 0000 0000 0000 0000 0000 0000
000003e0: 0000 0000 0000 0000 0000 0000 0000 0000
000003f0: 0000 0000 0000 0000 0000 0000 0000 0000

q_probs f4 [100, 3]
0.01125224 0.010178282 0.018618345 0.017220724 0.013330803 0.025860282 0.123159975 0.02419976
0.03726897 0.27052256 0.01759611 0.808159 0.05994713 0.016053617 0.023705976 0.020803308
0.01648165 0.03208358 0.03922977 0.013712488 0.015750544 0.025314087 0.0120402435 0.014789916
0.07787459 0.9223882 0.02239773 0.014909178 0.014570969 0.018964361 0.013228353 0.015495566
0.015731608 0.014157863 0.014833139 0.015988803 0.19587557 0.011719859 0.019075403 0.018543899
0.048444793 0.030277176 0.031934474 0.012309056 0.042379573 0.20639564 0.01094847 0.017142016
0.016080964 0.01761376 0.014338082 0.18862881 0.023943124 0.020801444 0.3100365 0.017394328
0.02390667 0.016448345 0.015015976 0.021645278 0.043499444 0.013752199 0.8212341 0.018862367
0.01905179 0.011170355 0.08725857 0.013711745 0.033646706 0.01371081 0.018327799 0.01660824
0.015126615 0.013351798 0.009699588 0.046738807 0.019485088 0.0303883 0.15963651 0.02157917
0.013296784 0.07718028 0.017512904 0.01627785 0.0167914 0.011377403 0.0187654 0.18845318
0.012050208 0.11294174 0.014612182 0.015799835 0.021230685 0.90895516 0.018710323 0.044260006
0.019406546 0.012735724 0.027955312 0.020557933 0.028376115 0.013011283 0.19256261 0.027540592
0.7338581 0.020931851 0.020258287 0.012964075 0.023753503 0.016291033 0.018304922 0.012924688
0.016010897 0.017599689 0.018197792 0.017467715 0.013804853 0.021242527 0.024592645 0.046002444
0.015144484 0.0138643645 0.016838353 0.057882283 0.013365695 0.013366216 0.09915218 0.03253838
0.5381708 0.015083065 0.019955778 0.039190814 0.06675696 0.019010033 0.014576845 0.014299956
0.015393509 0.019652532 0.0136019755 0.030798364 0.020554693 0.062587984 0.017459778 0.02208492
0.023888357 0.13434078 0.9293384 0.020036226 0.014261106 0.018769091 0.025842246 0.018368335
0.018701853 0.013643425 0.017340254 0.019219805 0.017780898 0.01584641 0.013074924 0.02420363
0.017027557 0.06927973 0.044294998 0.021530543 0.014358326 0.013438163 0.014686932 0.013896935
0.014908723 0.023950139 0.0146067245 0.019766638 0.015854964 0.03491324 0.0631103 0.017175695
0.015015664 0.019341603 0.016100034 0.35898882 0.017378017 0.015266253 0.016632626 0.017928476
0.015120393 0.015205364 0.019729488 0.012785414 0.013727883 0.017352372 0.017813139 0.8591179
0.017605107 0.01888648 0.015471075 0.08505677 0.016968288 0.013582897 0.020924909 0.016445307
0.014029849 0.028396642 0.011887831 0.026341883 0.037125405 0.018923728 0.038182758 0.033358596
0.012835653 0.015884284 0.015328485 0.02099575 0.029042404 0.72929287 0.017668009 0.07307196
0.015272612 0.016333822 0.013122845 0.02092279 0.020142807 0.031517997 0.0235747 0.014862881
0.017019985 0.0168287 0.011417327 0.01778417 0.011614905 0.30187222 0.049654573 0.09520436
0.019371876 0.013123012 0.011833728 0.01810696 0.015189636 0.3464673 0.019262187 0.044093657
0.020460118 0.016438583 0.014001044 0.23986207 0.017117988 0.0141158495 0.014777977 0.01542857
0.019174142 0.10391401 0.021824423 0.028259553 0.015794069 0.014207124 0.01546272 0.07551716
00000000: 515b 383c cfc2 263c 8085 983c 7a12 8d3c
00000010: 7169 5a3c f1d8 d33c 4c3b fc3d 933e c63c
00000020: 59a7 183d ef81 8a3e b825 903c 82e3 4e3f
00000030: 1f8b 753d e082 833c 0933 c23c b36b aa3c
00000040: 8604 873c 126a 033d 65af 203d 58aa 603c
00000050: 4907 813c 7d5f cf3c 7144 453c 6751 723c
00000060: b77c 9f3d a221 6c3f 727b b73c a045 743c
00000070: 13bb 6e3c 265b 9b3c bcbb 583c 1de1 7d3c
00000080: 93df 803c 62f6 673c b206 733c f3fa 823c
00000090: 9b93 483e a704 403c 0544 9c3c 60e9 973c
000000a0: 0c6e 463d d707 f83c b9cd 023d ecab 493c
000000b0: 3496 2d3d 6159 533e 3661 333c 6a6d 8c3c
000000c0: 3abc 833c bb4a 903c 46ea 6a3c e927 413e
000000d0: 5f24 c43c ca67 aa3c 1bbd 9e3e 8d7e 8e3c
000000e0: ecd7 c33c aebe 863c 9105 763c 7051 b13c
000000f0: 792c 323d e750 613c 663c 523f 4085 9a3c
00000100: 8012 9c3c dd03 373c 9fb4 b23d 3aa7 603c
00000110: 21d1 093d 4ea3 603c 2e24 963c 010e 883c
00000120: 9fd5 773c 80c1 5a3c 05eb 1e3c 3171 3f3d
00000130: 319f 9f3c e2f0 f83c c177 233e cdc6 b03c
00000140: c1da 593c b210 9e3d 3977 8f3c 2059 853c
00000150: 1e8e 893c 4968 3a3c e5b9 993c dff9 403e
00000160: 3c6e 453c 004e e73d ef67 6f3c a86e 813c
00000170: f9eb ad3c 49b1 683f 6446 993c fb49 353d
00000180: 7afa 9e3c 80a9 503c 8a02 e53c 1c69 a83c
00000190: 0775 e83c 472d 553c 222f 453e cf9c e13c
000001a0: 20de 3b3f 4679 ab3c b5f4 a53c 4667 543c
000001b0: b596 c23c c674 853c 34f4 953c 12c2 533c
000001c0: 4929 833c 392d 903c 8913 953c 7418 8f3c
000001d0: c02d 623c cf04 ae3c 8476 c93c 0f6d 3c3d
000001e0: 9220 783c 5c27 633c 96f0 893c f915 6d3d
000001f0: cafb 5a3c f9fd 5a3c 4c10 cb3d f746 053d
00000200: 90c5 093f f61e 773c 4d7a a33c 8c86 203d
00000210: dfb7 883d eeba 9b3c b8d3 6e3c 5d4a 6a3c
00000220: 0e35 7c3c 59fe a03c d2da 5e3c da4c fc3c
00000230: 5162 a83c 212e 803d cf07 8f3c 6feb b43c
00000240: 84b1 c33c a190 093e 1fe9 6d3f 0323 a43c
00000250: 6aa7 693c a3c1 993c 1eb3 d33c 3179 963c
00000260: a134 993c ac88 5f3c 260d 8e3c da72 9d3c
00000270: 3fa9 913c 55d0 813c 3538 563c b146 c63c
00000280: 607d 8b3c 88e2 8d3d ac6e 353d d260 b03c
00000290: 2f3f 6b3c be2b 5c3c 75a1 703c f8af 633c
000002a0: b743 743c 1533 c43c 0b51 6f3c a5ed a13c
000002b0: 45e2 813c 2f01 0f3d f93f 813d 0bb4 8c3c
000002c0: 4204 763c 4872 9e3c 38e4 833c 62cd b73e
000002d0: 585c 8e3c 4e1f 7a3c 2541 883c bdde 923c
000002e0: 86bb 773c eb1f 793c bc9f a13c ea79 513c
000002f0: eaea 603c 9026 8e3c dcec 913c 27ef 5b3f
00000300: 9638 903c d2b7 9a3c 647a 7d3c 3e32 ae3d
00000310: 1401 8b3c cd8a 5e3c b76a ab3c 4fb8 863c
00000320: 74dd 653c 13a0 e83c 2dc5 423c efca d73c
00000330: cf10 183d ef05 9b3c 8665 1c3d 06a3 083d
00000340: a14c 523c c21f 823c 5324 7b3c 47ff ab3c
00000350: 56ea ed3c f0b2 3a3f 80bc 903c c0a6 953d
00000360: fa39 7a3c 82ce 853c 3401 573c 4566 ab3c
00000370: 8702 a53c 0419 013d bb1f c13c 7183 733c
00000380: 7f6d 8b3c 58dc 893c be0f 3b3c 1cb0 913c
00000390: 714c 3e3c ff8e 9a3e 9862 4b3d 81fa c23d
000003a0: c5b1 9e3c e701 573c 41e2 413c 0c55 943c
000003b0: f3dd 783c 2964 b13e bccb 9d3c 8d9b 343d
000003c0: fa9b a73c 35aa 863c a364 653c 679e 753e
000003d0: 063b 8c3c 2a46 673c 541f 723c 1dc8 7c3c
000003e0: 1713 9d3c ded0 d43d 22c9 b23c 9480 e73c
000003f0: 9062 813c ffc4 683c 5957 7d3c bea8 9a3d

weight f4 [10, 74]
-0.20007324 0.18430777 -0.18795379 -0.10869568 -0.08813999 -0.2605006 0.19011755 0.33287594
0.20768018 0.39447197 -0.18278168 0.28994825 0.12526567 0.2585339 0.024538007 -0.11506292
-0.14683776 0.48548 0.36069757 0.32420602 -0.30711386 0.066770874 -0.044122998 0.30555955
0.41533804 -0.39145002 0.27215123 -0.34202498 -0.061369613 0.2451724 0.48023078 0.4290224
0.20078817 -0.06774461 -0.19105409 0.31785342 0.33098656 -0.0719338 0.26365244 0.32559162
0.2982245 0.3374184 -0.039260752 0.2536261 -0.012872348 -0.017349321 0.32900444 0.39857894
0.33990517 0.4658682 -0.0692776 0.17097111 -0.115028106 0.12616713 0.13230225 -0.34844062
0.16313958 0.2599566 0.3083532 0.4475216 0.14643298 0.30917695 0.49188936 -0.04863867
0.004214217 -0.31175852 -0.36545503 0.19516984 0.28973123 0.23897877 0.16371237 0.30544055
0.16712561 0.38152385 0.042311817 0.2762015 -0.12332181 -0.050572067 -0.01105179 -0.15345615
0.23723353 0.28619775 0.20087261 0.37495852 -0.08445295 0.17750692 0.27912307 0.23818778
0.35552144 -0.04593164 -0.096946284 0.23128383 0.22192718 0.22652106 -0.16316961 0.23666945
0.08836527 0.19476196 0.1915005 -0.31401333 0.21581474 -0.18050753 0.011593329 0.19905123
0.40617123 0.3717209 0.2059704 0.017287044 -0.066196345 0.2560856 0.21140149 -0.028398603
0.18134703 0.22297753 0.18424787 0.32090998 0.06612405 0.18306035 0.1484013 0.11163364
0.29132554 0.35642532 0.20853797 0.4229937 -0.002118899 0.225313 -0.07416179 0.340891
0.21601397 -0.3134951 0.30904496 0.20265193 0.196403 0.3373397 0.2755396 0.2696076
0.31930652 0.04102969 0.089293815 -0.28920925 -0.33900136 0.22511779 0.19689468 0.19459657
0.31837896 0.27844894 0.3154172 0.39891556 -0.16969077 0.08098532 -0.15899606 -0.06400977
-0.028748298 -0.21496713 0.09170404 0.45463058 0.20725718 0.67903733 -0.15477584 0.23062432
0.060058128 0.1675831 -0.032637894 -0.06432354 -0.08920643 0.4156247 0.55173033 0.21478812
-0.23715423 -0.006826342 0.0069796946 0.19912341 0.49873495 -0.4443619 0.15588273 -0.35861796
-0.031414382 0.13156873 0.5921205 0.58964723 0.093029134 -0.050550103 -0.13012917 0.33396602
0.505502 -0.03477265 0.23415181 0.18171644 0.15701607 0.4880257 -0.026452295 0.130361
-0.039943855 0.014792873 0.31715754 0.46391007 0.2348385 0.5730244 -0.042406812 0.073396645
-0.08200239 0.052567646 0.06137495 -0.35149902 0.06856382 0.1303438 0.5407057 0.60870415
0.054964524 0.270568 0.31314093 -0.042435534 0.010754393 -0.28645527 -0.34324804 0.09414311
0.20971681 0.12971757 0.07109539 0.40083948 0.061058976 0.7031952 -0.18886963 0.13493934
-0.18430658 -0.10790283 -0.08743954 -0.23677243 0.084013626 0.30195445 0.09087629 0.46152887
-0.1740855 0.169318 0.09738737 0.1458326 0.014600492 -0.11237449 -0.141027 0.3258751
0.39356863 0.17539097 -0.28071058 0.04271447 -0.03468125 0.15547073 0.34488967 -0.45510918
0.14723445 -0.37668607 -0.064972684 0.11929489 0.47206298 0.4657849 0.1045792 -0.07364431
00000000: 00e0 4cbe 2dbb 3c3e f576 40be d79b debd
00000010: bd82 b4bd 5660 85be 2dae 423e b76e aa3e
00000020: 1daa 543e 3bf8 c93e 1f2b 3bbe 1974 943e
00000030: a545 003e 8e5e 843e ee03 c93c 1ca6 ebbd
00000040: a35c 16be d690 f83e 5aad b83e 55fe a53e
00000050: 073e 9dbe 2bbf 883d 51ba 34bd 4d72 9c3e
00000060: 30a7 d43e 236c c8be 6857 8b3e e61d afbe
00000070: b45e 7bbd 790e 7b3e cfe0 f53e d3a8 db3e
00000080: 6a9b 4d3e b0bd 8abd afa3 43be afbd a23e
00000090: 1277 a93e 0752 93bd 74fd 863e f2b3 a63e
000000a0: e2b0 983e 1bc2 ac3e e2cf 20bd 48db 813e
000000b0: 8ae6 52bc 2a20 8ebc 4573 a83e 8a12 cc3e
000000c0: 0d08 ae3e 4786 ee3e 6ae1 8dbd 0d13 2f3e
000000d0: db93 ebbd f531 013e 3e7a 073e cf66 b2be
000000e0: 100e 273e 0819 853e 78e0 9d3e 8d21 e53e
000000f0: 87f2 153e 714c 9e3e ecd8 fb3e 5839 47bd
00000100: 6a17 8a3b d09e 9fbe ec1c bbbe 9ada 473e
00000110: a757 943e dab6 743e 37a4 273e b462 9c3e
00000120: fa22 2b3e 1857 c33e 284f 2d3d 486a 8d3e
00000130: 2590 fcbd a824 4fbd 9112 35bc 9c23 1dbe
00000140: 59ed 723e 8388 923e 8db1 4d3e 90fa bf3e
00000150: abf5 acbd 60c4 353e 38e9 8e3e 7fe7 733e
00000160: e806 b63e d122 3cbd c68b c6bd abd5 6c3e
00000170: e140 633e 23f5 673e ef15 27be 7a59 723e
00000180: daf8 b43d ae6f 473e b518 443e 5bc6 a0be
00000190: 8afe 5c3e f7d6 38be f2f1 3d3c 16d4 4b3e
000001a0: adf5 cf3e 3452 be3e e8e9 523e 8f9d 8d3c
000001b0: f391 87bd a71d 833e a279 583e 30a4 e8bc
000001c0: 09b3 393e 3954 643e 79ab 3c3e 504e a43e
000001d0: 0c6c 873d 2c74 3b3e 83f6 173e 2ea0 e43d
000001e0: 9f28 953e 617d b63e fa8a 553e a192 d83e
000001f0: 3add 0abb 73b8 663e 23e2 97bd 4489 ae3e
00000200: c432 5d3e 6e82 a0be 243b 9e3e fd83 4f3e
00000210: de1d 493e cab7 ac3e 8713 8d3e 020a 8a3e
00000220: 257c a33e c00e 283d addf b63d 3c13 94be
00000230: 9691 adbe 4785 663e c29e 493e 5344 473e
00000240: 9102 a33e dc90 8e3e 5d7e a13e a93e cc3e
00000250: 6bc3 2dbe a2db a53d ddcf 22be 8e17 83bd
00000260: 8d81 ebbc 5820 5cbe 54cf bb3d 57c5 e83e
00000270: 3a3b 543e 64d5 2d3f 8f7d 1ebe c828 6c3e
00000280: 83ff 753d e79a 2b3e 50af 05bd 0fbc 83bd
00000290: dcb1 b6bd c3cc d43e 333e 0d3f 6bf1 5b3e
000002a0: 8fd8 72be 82af dfbb ecb5 e43b 02e7 4b3e
000002b0: 305a ff3e 6783 e3be b99f 1f3e c69c b7be
000002c0: 5eac 00bd f4b9 063e 3695 173f 1ff3 163f
000002d0: 0f86 be3d a00d 4fbd 9540 05be 98fd aa3e
000002e0: 9468 013f c46d 0ebd 7ec5 6f3e e013 3a3e
000002f0: d2c8 203e 81de f93e 7cb2 d8bc 5b7d 053e
00000300: 2b9c 23bd ce5d 723c 7962 a23e 9f85 ed3e
00000310: 8179 703e bab1 123f c4b2 2dbd fb50 963d
00000320: def0 a7bd 2c51 573d 4d64 7b3d aef7 b3be
00000330: 306b 8c3d d878 053e b06b 0a3f 09d4 1b3f
00000340: 7b22 613d e487 8a3e 0254 a03e e2d0 2dbd
00000350: 3233 303c 44aa 92be 35be afbe 1ace c03d
00000360: 01c0 563e afd4 043e 769a 913d d53a cd3e
00000370: fa18 7a3d 9a04 343f 0a67 41be 8a2d 0a3e
00000380: ddba 3cbe 29fc dcbd 8013 b3bd 7974 72be
00000390: 560f ac3d c699 9a3e 591d ba3d 834d ec3e
000003a0: 7843 32be b361 2d3e 0873 c73d 2455 153e
000003b0: e736 6f3c 9924 e6bd 6269 10be 1ad9 a63e
000003c0: d481 c93e b199 333e 4cb9 8fbe 5ef5 2e3d
000003d0: ed0d 0ebd b833 1f3e 6195 b03e 1204 e9be
000003e0: a1c4 163e ffdc c0be 6610 85bd e150 f43d
000003f0: 3db2 f13e 5c7b ee3e 9f2d d63d d4d2 96bd

bias f4 [10]
-0.65453607 -0.27709287 -0.8609699 -0.66503453 -1.0475125 -0.60217786 -0.64265627 -0.45705795
-0.8864015 -0.7610253
00000000: ad8f 27bf 1edf 8dbe 8668 5cbf b43f 2abf
00000010: e414 86bf 5428 1abf 1f85 24bf 8003 eabe
00000020: 35eb 62bf 8ed2 42bf

weight f4 [10, 10]
-0.27925766 -0.24972576 -0.17097557 -0.09098672 -0.09427985 -0.16270047 -0.32284802 -0.2433228
-0.3307382 -0.27887118 0.16210559 0.11492451 -0.27808616 -0.08847411 -0.044437923 0.12213748
0.23823175 0.08659748 0.15229444 -0.19110426 -0.27932858 -0.47631535 -0.1837506 -0.0029830995
-0.06511536 0.03563459 -0.39421293 -0.29825988 -0.17899153 -0.021584492 -0.43714666 -0.24679282
-0.027252486 -0.3391958 -0.018037168 -0.1994963 -0.20609798 0.05881849 0.09274083 0.16103096
-0.006895923 -0.09513181 0.16321172 0.12518789 -0.28573337 0.013222484 -0.08373212 -0.21104863
-0.19549923 -0.21608219 -0.35637417 -0.197062 0.008319725 0.037426844 -0.100774996 -0.48383358
0.023103394 -0.17739893 0.14101836 -0.4270355 -0.37926897 -0.1131308 -0.1050866 -0.53072256
-0.5334078 -0.3949926 -0.18914728 -0.5295855 -0.5242982 -0.2781526 0.18049441 0.45659557
0.020170182 0.21680813 0.040657625 0.19824317 0.11929947 0.3617733 0.019063093 0.046360053
-0.328913 -0.41745993 0.06311798 -0.2539296 -0.31321362 -0.005409919 -0.23331471 0.012270714
-0.23999622 -0.40206462 -0.05085122 0.09913062 -0.3676575 -0.088524505 -0.039024483 -0.08642272
-0.10749784 -0.15627769 -0.33148274 -0.06111922
00000000: dcfa 8ebe 1cb8 7fbe 3814 2fbe 3f57 babd
00000010: cb15 c1bd f49a 26be 564c a5be 9d29 79be
00000020: 8456 a9be 34c8 8ebe 02ff 253e 8b5d eb3d
00000030: 4f61 8ebe ea31 b5bd 8a04 36bd 3723 fa3d
00000040: 06f3 733e 055a b13d 13f3 1b3e d6b0 43be
00000050: 2804 8fbe 9bdf f3be 1e29 3cbe 1b80 43bb
00000060: 345b 85bd 93f5 113d 47d6 c9be 85b5 98be
00000070: 8e49 37be f6d1 b0bc b0d1 dfbe 42b7 7cbe
00000080: 9b40 dfbc 12ab adbe afc2 93bc c248 4cbe
00000090: 590b 53be a8eb 703d e7ee bd3d 4de5 243e
000000a0: 32f7 e1bb 77d4 c2bd f920 273e 4131 003e
000000b0: a54b 92be 1ea3 583c bf7b abbd 221d 58be
000000c0: f330 48be a644 5dbe ad76 b6be 9fca 49be
000000d0: 754f 083c e44c 193d 1f63 cebd 09b9 f7be
000000e0: 5443 bd3c 11a8 35be 1e67 103e 66a4 dabe
000000f0: 8b2f c2be 1fb1 e7bd a537 d7bd 6fdd 07bf
00000100: 6a8d 08bf 783c cabe d3af 41be ea92 07bf
00000110: 6838 06bf 056a 8ebe 87d3 383e e5c6 e93e
00000120: f03b a53c f302 5e3e 9c88 263d 4200 4b3e
00000130: 4853 f43d 5a3a b93e 342a 9c3c 0ae4 3d3d
00000140: 4967 a8be 4fbd d5be 0044 813d 0f03 82be
00000150: 895d a0be b145 b1bb 0dea 6ebe 1b0b 493c
00000160: 92c1 75be 6adb cdbe 5e49 50bd ff04 cb3d
00000170: 9b3d bcbe 564c b5bd 23d8 1fbd 65fe b0bd
00000180: d427 dcbd 4207 20be 1bb8 a9be 2658 7abd

bias f4 [10]
-0.28924665 -0.08659646 -0.35793766 -0.26669165 0.1749245 0.115143046 -0.20514174 0.23342004
0.007078019 0.2774794
00000000: 2318 94be 7c59 b1bd 9b43 b7be cf8b 88be
00000010: 681f 333e 1ed0 eb3d ad10 52be aa05 6f3e
00000020: baee e73b c811 8e3e

weight f4 [300, 10]
-0.18427978 -0.097515225 -0.054839503 0.04597734 -0.047397096 -0.07737865 -0.31356066 -0.38153714
-0.3353362 0.028305415 -0.23800728 -0.034166228 -0.34905523 -0.12339738 -0.14425555 -0.32094955
0.09427449 -0.36622328 -0.16949889 -0.10458508 -0.5933406 0.061836995 -0.24251509 -0.09782707
0.028402565 0.026731947 -0.20429736 -0.025404548 0.015138288 -0.108004674 -0.22270031 -0.1606634
-0.0114715425 -0.014184711 -0.39069816 0.114468165 -0.08467297 -0.45124838 -0.034384485 0.077976905
-0.03375382 0.17357926 -0.06583009 -0.38804623 -0.10373017 0.11348276 -0.27209556 0.00542229
-0.05301984 -0.14657514 -0.20749316 0.012952173 -0.3011824 0.037009988 0.098286785 0.02878054
0.14560634 -0.20779648 -0.40107432 -0.1357101 -0.5199574 -0.29495576 -0.102475256 -0.5843537
-0.3935948 -0.10501172 -0.6424688 -0.49572217 -0.11355942 -0.19422255 0.022505911 -0.1614227
-0.027047789 -0.32634923 -0.30193204 -0.3598592 0.24395598 0.20009863 0.058923632 -0.122496024
0.18960626 -0.13646877 0.2043194 -0.05047295 -0.17707495 -0.16165909 -0.1501477 -0.35543084
0.022483554 -0.14780979 0.6453858 0.5133925 0.22885479 0.55643344 0.3932369 0.619702
0.22077574 0.44164652 0.3341307 0.65462834 -0.039953288 -0.027045391 0.17650816 0.4723309
0.3849478 -0.080087066 0.002392888 0.52210605 0.2768674 -0.08295113 0.6461095 0.7712375
0.53170806 0.42549428 0.45584092 0.52928174 0.66004425 0.88016206 0.85215175 0.53593266
0.16989185 0.0036370172 0.4292618 0.5485071 0.5338568 0.3645057 0.15466918 0.24637997
0.33470327 -0.039201196 0.12579036 -0.21654278 -0.26138866 0.085913256 -0.06119682 -0.10127235
0.16626135 0.08804067 0.13656399 -0.13256449 -0.12631062 0.13471228 -0.011066018 0.046248045
0.37163994 0.21932779 0.32007226 0.099624604 -0.087808535 0.20770302 -0.37392518 -0.106835164
-0.37560457 0.082752235 -0.3604137 0.11319982 0.055577897 0.07679094 0.034046613 -0.08683521
-0.04859325 -0.06999855 -0.19225827 -0.34319595 0.24272977 -0.052824486 0.07828682 -0.036134318
0.034799263 -0.23387828 -0.41864666 0.03513014 -0.10024001 -0.032767214 -0.5358046 -0.18025127
-0.47749114 -0.22190484 -0.20350483 -0.41703838 -0.09205648 0.13846155 0.36658704 0.4522502
-0.07036481 0.13481896 -0.046114348 -0.049320895 0.108472966 0.45258614 -0.048030954 0.087145306
0.36062863 0.1113178 0.31066313 0.27435014 0.35457855 0.11709658 -0.20981719 -0.21795642
-0.090216845 0.23874526 0.15690091 0.13970098 -0.2480746 -0.16391505 0.32907623 0.0011251885
-0.23387451 -0.041140348 0.11628937 0.16032678 0.2570075 0.3260709 -0.091445476 0.18340528
0.038193215 0.42477256 0.36003745 0.34339482 0.23940732 0.14801662 -0.3283571 0.03754079
-0.23102106 0.0017766408 -0.049273618 0.27836275 -0.25826004 -0.33328426 0.14470741 0.21313657
0.37015516 0.46347177 0.39950493 0.3042779 0.12170687 0.1618067 0.030889384 0.2573932
-0.4793044 -0.13159822 0.012047542 0.024063438 -0.534715 0.0170735 -0.4185681 -0.31365684
0.025154542 -0.09925734 0.85138524 1.0750579 0.53838664 1.1330812 1.2262367 0.89309806
00000000: d7b3 3cbe 10b6 c7bd 639f 60bd bc52 3c3d
00000010: 7523 42bd b378 9ebd 068b a0be d658 c3be
00000020: 30b1 abbe c2e0 e73c 2eb8 73be e3f1 0bbd
00000030: 5eb7 b2be c4b7 fcbd bab7 13be 8053 a4be
00000040: fc12 c13d 9e81 bbbe 1e91 2dbe b430 d6bd
00000050: 2be5 17bf ca48 7d3d e055 78be 8f59 c8bd
00000060: 7fac e83c f5fc da3c 5433 51be 331d d0bc
00000070: 9506 783c 8e31 ddbd 8d0b 64be f284 24be
00000080: 23f3 3bbc fd66 68bc 9709 c8be 496e ea3d
00000090: 0669 adbd 070a e7be bfd6 0cbd 5bb2 9f3d
000000a0: 7241 0abd c3be 313e edd1 86bd ffad c6be
000000b0: 7c70 d4bd a669 e83d 1c50 8bbe 77ad b13b
000000c0: 552b 59bd cb17 16be 1679 54be 5a35 543c
000000d0: 9434 9abe c997 173d 954a c93d 2bc5 eb3c
000000e0: d419 153e 9ac8 54be 9d59 cdbe 97f7 0abe
000000f0: ee1b 05bf 7104 97be 8cde d1bd 3498 15bf
00000100: 4285 c9be 6210 d7bd d678 24bf 4ccf fdbe
00000110: d791 e8bd 47e2 46be 515e b83c fe4b 25be
00000120: 5393 ddbc 3f17 a7be d696 9abe 773f b8be
00000130: 99cf 793e a8e6 4c3e e859 713d 32df fabd
00000140: 2528 423e 78be 0bbe 1b39 513e b9bc 4ebd
00000150: 2353 35be f689 25be 52c0 19be 08fb b5be
00000160: 6e2f b83c 735b 17be 0138 253f b16d 033f
00000170: e958 6a3e 6c72 0e3f 5956 c93e caa4 1e3f
00000180: 0913 623e 7e1f e23e 2e13 ab3e b995 273f
00000190: 0fa6 23bd 4c8e ddbc 8ebe 343e 5bd5 f13e
000001a0: e117 c53e b004 a4bd 00d2 1c3b bea8 053f
000001b0: 90c1 8d3e 48e2 a9bd 6f67 253f d26f 453f
000001c0: 051e 083f 63da d93e fb63 e93e 027f 073f
000001d0: a9f8 283f 4d52 613f 9e26 5a3f e232 093f
000001e0: 21f8 2d3e 065b 6e3b 34c8 db3e f66a 0c3f
000001f0: d7aa 083f 7ea0 ba3e 9961 1e3e 084b 7c3e
00000200: 3a5e ab3e 6f91 20bd 30cf 003e 64bd 5dbe
00000210: bcd4 85be 4af3 af3d 84a9 7abd e167 cfbd
00000220: 6a40 2a3e ab4e b43d 6ed7 0b3e fcbe 07be
00000230: 9257 01be 04f2 093e 3e4e 35bc 976e 3d3d
00000240: 9747 be3e 7797 603e 83e0 a33e fc07 cc3d
00000250: f6d4 b3bd 1ab0 543e 1f73 bfbe 65cc dabd
00000260: 3e4f c0be 017a a93d 2588 b8be 4fd5 e73d
00000270: a6a5 633d 9144 9d3d 7674 0b3d a9d6 b1bd
00000280: b709 47bd 665b 8fbd 5adf 44be 61b7 afbe
00000290: 278e 783e 7d5e 58bd d754 a03d 9401 14bd
000002a0: ac89 0e3d ca7d 6fbe db58 d6be 9fe4 0f3d
000002b0: a24a cdbd ea36 06bd 7e2a 09bf ca93 38be
000002c0: b879 f4be 063b 63be 9263 50be 0e86 d5be
000002d0: 1c88 bcbd ddc8 0d3e 4cb1 bb3e 578d e73e
000002e0: 6d1b 90bd fb0d 0a3e 66e2 3cbd b504 4abd
000002f0: 1327 de3d 5fb9 e73e 1bbc 44bd 3d79 b23d
00000300: 51a4 b83e 96fa e33d 3d0f 9f3e 9f77 8c3e
00000310: 528b b53e 55d0 ef3d 51da 56be f82f 5fbe
00000320: 9cc3 b8bd a379 743e a2aa 203e c60d 0f3e
00000330: 4507 7ebe 59d9 27be ae7c a83e 107b 933a
00000340: cd7c 6fbe c882 28bd 1f29 ee3d b42c 243e
00000350: 7d96 833e c4f2 a63e c447 bbbd 98ce 3b3e
00000360: 7d70 1c3d ca7b d93e d456 b83e 72d1 af3e
00000370: 3127 753e ab91 173e 6c1e a8be 5fc4 193d
00000380: c990 6cbe 2cde e83a 22d3 49bd 9085 8e3e
00000390: a93a 84be 3ca4 aabe 2e2e 143e 7940 5a3e
000003a0: fa84 bd3e 2c4c ed3e e98b cc3e 50ca 9b3e
000003b0: 7441 f93d a8b0 253e bc0b fd3c 0bc9 833e
000003c0: 6367 f5be afc1 06be 0e63 453c b020 c53c
000003d0: 15e3 08bf badd 8b3c 8f4e d6be a197 a0be
000003e0: e610 ce3c 6f47 cbbd 62f4 593f 7f9b 893f
000003f0: b5d3 093f ce08 913f 53f5 9c3f 13a2 643f
