mcspace/paper/mouse_runs/runs/seed_5/model.pt (torch, 464942 bytes, 99 tensors)

theta_params f4 [100, 74]
-5.519425 -1.2337251 -5.091773 -2.1650093 0.43018883 -2.361646 1.6777704 -5.0525446
-2.001653 -5.1999416 1.1465833 -1.4534123 -5.987312 -4.800055 1.1463333 1.0997913
-3.1558452 -6.434777 -6.491444 -5.616655 0.0062039695 -5.9818335 -5.0017266 -2.4515984
-6.0781436 6.9185004 0.6540818 -2.810067 -4.9656286 -0.71859735 -4.0990086 -5.3703313
-4.4143357 1.493945 -5.714029 2.1662765 -6.766357 -5.1461554 -6.0928636 -3.6469517
-1.4588938 -4.7509236 -5.701999 -2.3884997 -6.8068137 1.721861 -3.517067 -4.0474315
2.3314679 0.56592023 -6.5699563 -4.6905103 -7.0648737 1.5051216 -8.021494 -5.660727
-1.8390062 -5.9906693 -3.1095276 -6.3677115 -5.0225067 1.9636432 -0.23205252 -1.249662
-4.812791 -0.43362182 6.6550293 -7.182097 -5.7219186 -4.9827576 -2.5995123 -6.8389964
-5.13428 -3.1294868 0.6604992 -0.89132166 1.714498 -3.4957707 -3.6235075 0.744565
-3.391577 -2.2201703 -3.0569673 -4.2496414 2.912335 -1.5567155 -0.7379415 -0.9117044
-2.5795457 2.5486019 -3.089484 -3.4070258 0.74358517 -7.752084 1.3672613 -3.4852726
0.52066714 1.2232386 -2.4986248 -0.33049083 -1.584664 -1.3697197 0.99711347 -2.1073823
-4.4564123 -2.240655 -3.720499 1.1470431 -4.820645 1.7162184 -4.0999665 -1.8121603
-3.8606708 -4.8506145 -4.6435776 -4.9121656 -0.16600612 0.2836241 2.5046992 -0.4638721
-5.936346 -2.7415183 -4.3884416 -0.55565166 -0.49823436 0.8217923 -5.28979 -3.6483843
-1.0483717 2.0799873 6.44949 -1.6783617 -5.089727 -3.0909119 0.26645723 -5.989339
0.04228066 -2.3455672 -0.1610152 1.7192017 1.5610036 -4.2016664 -1.1704485 0.054191552
1.3358154 -1.5537374 -3.0435696 -4.068223 -0.64621 -4.44423 -3.717263 0.90521306
1.0196221 -1.4802474 -3.495143 -5.604355 -4.259119 -2.6237469 -5.535848 0.6695064
-4.0069838 0.7319238 1.8336186 -3.3101907 -1.9347974 -4.913788 -5.77952 -4.198235
-1.1785154 -0.9559859 0.134968 -6.0937457 -1.2068071 2.2742655 -3.4358127 2.9317737
1.1436173 -1.6412855 -2.7782905 -4.815523 -4.7951694 0.14164494 2.1664305 -4.285381
-4.7824626 -1.006185 -4.815549 -0.20521303 -4.091345 -0.45080644 1.3605442 -5.9242826
-3.2579026 -2.8832736 -2.5522084 -4.3637996 -5.104375 -6.4478364 -6.8161254 -3.064271
-4.4496865 -4.3636103 -2.7731845 1.5900699 -6.6492677 -4.725166 -5.725581 -4.7099805
-0.843263 -3.6500568 -2.012775 0.169787 2.1129568 0.18148741 0.10529423 -4.6066318
-3.9302108 -3.9386241 -0.6799637 -4.645459 5.9294047 -4.921606 2.570589 5.6017685
2.9586926 -1.2830154 -5.4830117 0.59969336 -1.2884226 0.17560811 -1.04427 -3.3135014
-5.156912 -0.8309483 -1.2765615 1.7206546 0.30781764 -3.2177942 2.557326 1.9247563
-0.36227334 -1.8104264 0.3603596 1.101382 0.4404269 -3.0743716 -3.2866743 -3.0499105
-4.2006245 0.4744461 -5.503089 0.96792334 -4.5392995 -1.9022746 -4.7100816 -3.3451638
00000000: 219f b0c0 b4ea 9dbf ceef a2c0 838f 0ac0
00000010: b641 dc3e 3525 17c0 2ec1 d63f 72ae a1c0
00000020: 151b 00c0 ec65 a6c0 3ec3 923f 6a09 babf
00000030: 0f98 bfc0 0d9a 99c0 0dbb 923f f6c5 8c3f
00000040: 5ef9 49c0 b1e9 cdc0 e9b9 cfc0 a3bb b3c0
00000050: ab4a cb3b 2e6b bfc0 250e a0c0 fde6 1cc0
00000060: 2780 c2c0 5b64 dd40 e871 273f 23d8 33c0
00000070: 6ee6 9ec0 fff5 37bf 142b 83c0 c1d9 abc0
00000080: 3d42 8dc0 9739 bf3f 53d9 b6c0 46a4 0a40
00000090: ff85 d8c0 4ead a4c0 bdf8 c2c0 a867 69c0
000000a0: 08bd babf 9107 98c0 c776 b6c0 2edd 18c0
000000b0: 6bd1 d9c0 f165 dc3f a017 61c0 8f84 81c0
000000c0: c536 1540 26e0 103f 153d d2c0 a918 96c0
000000d0: 7213 e2c0 d3a7 c03f 0a58 00c1 ad24 b5c0
000000e0: 8e64 ebbf 90b3 bfc0 8002 47c0 4bc4 cbc0
000000f0: 60b8 a0c0 a958 fb3f 2d9f 6dbe edf4 9fbf
00000100: 6202 9ac0 ae03 debe 00f6 d440 bdd3 e5c0
00000110: f519 b7c0 c072 9fc0 695e 26c0 0fd9 dac0
00000120: 064c a4c0 8349 48c0 7a16 293f a82d 64bf
00000130: ac74 db3f b5ba 5fc0 8ce7 67c0 d09b 3e3f
00000140: 990f 59c0 4517 0ec0 5aa5 43c0 10fd 87c0
00000150: b263 3a40 7442 c7bf bce9 3cbf 7665 69bf
00000160: 4717 25c0 4b1c 2340 1bba 45c0 b60c 5ac0
00000170: 995b 3e3f 1211 f8c0 6b02 af3f b50e 5fc0
00000180: 714a 053f 1593 9c3f 78e9 1fc0 1836 a9be
00000190: 45d6 cabf fa52 afbf d442 7f3f 5adf 06c0
000001a0: ee9a 8ec0 e466 0fc0 a81c 6ec0 4fd2 923f
000001b0: b942 9ac0 0bad db3f ed32 83c0 def4 e7bf
000001c0: 3b15 77c0 3c38 9bc0 3098 94c0 7630 9dc0
000001d0: 82fd 29be 2e37 913e fe4c 2040 a580 edbe
000001e0: 8cf6 bdc0 0975 2fc0 1d6e 8cc0 303f 0ebf
000001f0: 9318 ffbe fb60 523f f645 a9c0 217f 69c0
00000200: 0b31 86bf 831e 0540 3962 ce40 8ed4 d6bf
00000210: 0bdf a2c0 80d1 45c0 156d 883e aaa8 bfc0
00000220: 7c2e 2d3d c61d 16c0 2be1 24be cd0e dc3f
00000230: f7ce c73f 0d74 86c0 42d1 95bf f6f7 5d3d
00000240: 00fc aa3f dee0 c6bf d8c9 42c0 e22e 82c0
00000250: 056e 25bf 2237 8ec0 a3e7 6dc0 0bbc 673f
00000260: fa82 823f bf78 bdbf 6cb0 5fc0 e056 b3c0
00000270: b44a 88c0 78eb 27c0 ab25 b1c0 c564 2b3f
00000280: 3639 80c0 5c5f 3b3f 04b4 ea3f 2ada 53c0
00000290: 71a7 f7bf c03d 9dc0 d4f1 b8c0 f157 86c0
000002a0: 98d9 96bf 7ebb 74bf 0d35 0a3e f7ff c2c0
000002b0: a878 9abf 918d 1140 5be4 5bc0 2ea2 3b40
000002c0: 0d62 923f a515 d2bf 83cf 31c0 c418 9ac0
000002d0: 0772 99c0 5f0b 113e cca6 0a40 d721 89c0
000002e0: ef09 99c0 acca 80bf fa18 9ac0 5d23 52be
000002f0: 4cec 82c0 1ad0 e6be 5026 ae3f b993 bdc0
00000300: 7a81 50c0 8e87 38c0 6257 23c0 3fa4 8bc0
00000310: 0a57 a3c0 ad54 cec0 b31d dac0 041d 44c0
00000320: d563 8ec0 b2a2 8bc0 db7b 31c0 6987 cb3f
00000330: cdc6 d4c0 8f34 97c0 f637 b7c0 29b8 96c0
00000340: 15e0 57bf 889a 69c0 4ed1 00c0 a5dc 2d3e
00000350: af3a 0740 d6d7 393e 80a4 d73d 8769 93c0
00000360: 9388 7bc0 6b12 7cc0 1a12 2ebf 9aa7 94c0
00000370: afbd bd40 cc7d 9dc0 8884 2440 b041 b340
00000380: 385b 3d40 d939 a4bf d574 afc0 8185 193f
00000390: 08eb a4bf 9dd2 333e a4aa 85bf 6810 54c0
000003a0: 6c05 a5c0 07b9 54bf 5e66 a3bf 693e dc3f
000003b0: 469a 9d3e 57f0 4dc0 3bab 2340 6a5e f63f
000003c0: e47b b9be 0dbc e7bf 0e81 b83e 16fa 8c3f
000003d0: a27f e13e 81c2 44c0 df58 52c0 bc31 43c0
000003e0: 846b 86c0 99ea f23e 4e19 b0c0 d3c9 773f
000003f0: f141 91c0 bc7d f3bf fdb8 96c0 2a17 56c0

q_mu f4 [7]
-3.675294 -2.329221 -2.320512 -2.0733833 -2.4348917 -1.7026016 -3.5166597
00000000: 0438 6bc0 f511 15c0 4583 14c0 50b2 04c0
00000010: 44d5 1bc0 d9ee d9bf f410 61c0

q_var f4 [7]
-3.3923635 -3.455973 -4.7373962 -4.3740664 -3.4732058 -4.213582 -3.7192175
00000000: 7c1c 59c0 a92e 5dc0 c098 97c0 5af8 8bc0
00000010: 0149 5ec0 aad5 86c0 a907 6ec0

eps f4 [7]
0.58740693 0.6827768 -0.28611434 1.9962867 0.68670744 -0.74574304 -1.3788638
00000000: 4d60 163f 76ca 2e3f 947d 92be 5386 ff3f
00000010: 0fcc 2f3f 04e9 3ebf 9c7e b0bf

q_gamma_params f4 [99]
3.7788823 4.0245104 3.9519727 3.9811633 -3.3283288 3.8472838 3.5171108 3.480755
3.9022973 2.1493077 4.4246736 3.8936849 3.6008735 4.2296963 3.809628 4.3392453
-2.8306808 4.010078 4.0833282 0.3365587 3.844618 3.576355 0.6685384 3.4213855
3.5976048 4.6609426 -3.9992971 3.9156978 2.3031564 -3.682894 3.6459289 3.1565716
3.9782565 3.545818 3.7810009 1.6720518 4.035414 3.6131792 3.98513 3.5040827
4.044251 -0.04869108 1.3685966 4.7028522 3.7770054 3.608667 3.967864 3.2571123
4.0091248 3.4041817 3.994974 3.7356498 3.8080485 3.346566 3.6913803 0.8903566
3.4668376 4.1723533 3.7506459 4.1618805 1.7865429 4.224293 4.1746655 4.044507
4.0342493 4.129193 -1.7744623 -3.099846 3.8726094 3.53001 0.26343793 4.0265512
3.8819256 3.9359155 3.9196532 4.0370145 3.4032564 2.6862805 3.3795774 1.1377373
3.1027167 -1.3847424 3.496459 3.9066927 2.8185945 3.8708515 1.4717754 3.7094293
-5.401416 4.050591 -1.2956485 3.9783413 3.7566144 2.9290926 3.2788417 3.832458
4.1385465 3.6141937 3.7785947
00000000: 35d9 7140 cac8 8040 1fed 7c40 61cb 7e40
00000010: 5703 55c0 e639 7640 5818 6140 b1c4 5e40
00000020: 3dbf 7940 428e 0940 ed96 8d40 2232 7940
00000030: b674 6640 ac59 8740 f2d0 7340 19db 8a40
00000040: e029 35c0 8f52 8040 a0aa 8240 6c51 ac3e
00000050: 390e 7640 00e3 6440 5525 2b3f fbf7 5a40
00000060: 283f 6640 7126 9540 7cf4 7fc0 cb9a 7a40
00000070: ea66 1340 89b4 6bc0 e656 6940 4505 4a40
00000080: c19b 7e40 afee 6240 ebfb 7140 cb05 d63f
00000090: 1d22 8140 543e 6740 5f0c 7f40 e442 6040
000000a0: 816a 8140 4c70 47bd 2c2e af3f c47d 9640
000000b0: 75ba 7140 66f4 6640 7cf1 7d40 8774 5040
000000c0: c04a 8040 1dde 5940 a7ad 7f40 e314 6f40
000000d0: 11b7 7340 232e 5640 933f 6c40 69ee 633f
000000e0: abe0 5d40 eb83 8540 950a 7040 202e 8540
000000f0: 70ad e43f 692d 8740 dc96 8540 9a6c 8140
00000100: 9218 8140 5922 8440 9521 e3bf e063 46c0
00000110: d5d8 7740 afeb 6140 56e1 863e 82d9 8040
00000120: 7871 7840 0ae6 7b40 99db 7a40 392f 8140
00000130: f4ce 5940 05ec 2b40 ff4a 5840 60a1 913f
00000140: e992 4640 3d3f b1bf fcc5 5f40 4107 7a40
00000150: da63 3440 08bc 7740 2363 bc3f 4a67 6d40
00000160: 66d8 acc0 719e 8140 cfd7 a5bf 259d 7e40
00000170: 5f6c 7040 4176 3b40 8bd8 5140 fe46 7540
00000180: f96e 8440 f34e 6740 7fd4 7140

q_probs f4 [99]
0.9776627 0.98244196 0.9811457 0.9816782 0.034638 0.9791083 0.9711719 0.9701367
0.9802054 0.8956267 0.98816377 0.98003805 0.9734281 0.9856521 0.978324 0.98712176
0.055710196 0.9821911 0.98342806 0.5834248 0.9790549 0.97278523 0.66110116 0.9683557
0.97334325 0.99063104 0.018008173 0.98046297 0.90879935 0.024550615 0.97456837 0.959178
0.98162615 0.97196555 0.97770953 0.84189415 0.98262894 0.9737463 0.98175025 0.9708063
0.9827791 0.4875022 0.79719234 0.9910122 0.9776228 0.9736274 0.9814373 0.96291983
0.9821744 0.96783966 0.9819248 0.976699 0.9782638 0.96599346 0.97567207 0.7089698
0.96973485 0.9848183 0.9770371 0.9846608 0.8565789 0.98557556 0.98485273 0.98278403
0.9826093 0.9841591 0.14509161 0.043138456 0.97962075 0.97153115 0.5655726 0.98247683
0.9798061 0.9808466 0.9805384 0.9826561 0.96780694 0.9362194 0.9670606 0.7573267
0.95700824 0.20040491 0.9704798 0.98028964 0.943677 0.9795855 0.81338227 0.9760946
0.0044916584 0.9828859 0.21495102 0.98162764 0.9771707 0.94927377 0.96370035 0.9788036
0.9843045 0.9737723 0.97765607
00000000: 1a48 7a3f 5181 7b3f 5d2c 7b3f 434f 7b3f
00000010: 93e0 0d3d d7a6 7a3f b99e 783f e15a 783f
00000020: beee 7a3f cb47 653f 4df8 7c3f c6e3 7a3f
00000030: 9532 793f b253 7c3f 7173 7a3f 03b4 7c3f
00000040: 6030 643d e070 7b3f f1c1 7b3f 545b 153f
00000050: 58a3 7a3f 7408 793f ed3d 293f 29e6 773f
00000060: 062d 793f ff99 7d3f e085 933c 9fff 7a3f
00000070: 13a7 683f 5f1e c93c 507d 793f b08c 753f
00000080: da4b 7b3f bcd2 783f 2c4b 7a3f 6086 573f
00000090: 928d 7b3f 7047 793f fc53 7b3f c386 783f
000000a0: 6997 7b3f e399 f93e cc14 4c3f fab2 7d3f
000000b0: 7d45 7a3f a53f 793f 7a3f 7b3f ea81 763f
000000c0: c86f 7b3f 57c4 773f 6c5f 7b3f f208 7a3f
000000d0: 7f6f 7a3f 594b 773f a5c5 793f 0b7f 353f
000000e0: 8b40 783f 0d1d 7c3f 1a1f 7a3f bb12 7c3f
000000f0: c148 5b3f ae4e 7c3f 4f1f 7c3f bc97 7b3f
00000100: 488c 7b3f daf1 7b3f e592 143e f3b1 303d
00000110: 6dc8 7a3f 44b6 783f 5ec9 103f 9a83 7b3f
00000120: 93d4 7a3f c318 7b3f 9104 7b3f 5a8f 7b3f
00000130: 32c2 773f 13ac 6f3f 4991 773f 2ae0 413f
00000140: 7efe 743f f236 4d3e 5d71 783f 43f4 7a3f
00000150: d194 713f 1ec6 7a3f d239 503f 56e1 793f
00000160: c32e 933b 699e 7b3f 1f1c 5c3e f34b 7b3f
00000170: dc27 7a3f 9b03 733f 11b5 763f df92 7a3f
00000180: 61fb 7b3f 2449 793f ab47 7a3f

gamma f4 [100]
1.0 1.0 1.0 0.0 1.0 0.0 1.0 0.0
1.0 1.0 1.0 1.0 1.0 1.0 1.0 1.0
1.0 0.0 1.0 1.0 0.0 1.0 1.0 1.0
1.0 1.0 1.0 0.0 1.0 1.0 0.0 1.0
1.0 1.0 1.0 1.0 1.0 1.0 1.0 1.0
1.0 1.0 0.0 1.0 1.0 1.0 1.0 1.0
1.0 1.0 1.0 1.0 1.0 1.0 1.0 1.0
0.0 1.0 1.0 1.0 1.0 1.0 1.0 1.0
1.0 1.0 1.0 0.0 0.0 1.0 1.0 0.0
1.0 1.0 1.0 1.0 1.0 1.0 1.0 1.0
1.0 1.0 0.0 1.0 1.0 1.0 1.0 1.0
1.0 0.0 1.0 0.0 1.0 1.0 1.0 1.0
1.0 1.0 1.0 1.0
00000000: 0000 803f 0000 803f 0000 803f 0000 0000
00000010: 0000 803f 0000 0000 0000 803f 0000 0000
00000020: 0000 803f 0000 803f 0000 803f 0000 803f
00000030: 0000 803f 0000 803f 0000 803f 0000 803f
00000040: 0000 803f 0000 0000 0000 803f 0000 803f
00000050: 0000 0000 0000 803f 0000 803f 0000 803f
00000060: 0000 803f 0000 803f 0000 803f 0000 0000
00000070: 0000 803f 0000 803f 0000 0000 0000 803f
00000080: 0000 803f 0000 803f 0000 803f 0000 803f
00000090: 0000 803f 0000 803f 0000 803f 0000 803f
000000a0: 0000 803f 0000 803f 0000 0000 0000 803f
000000b0: 0000 803f 0000 803f 0000 803f 0000 803f
000000c0: 0000 803f 0000 803f 0000 803f 0000 803f
000000d0: 0000 803f 0000 803f 0000 803f 0000 803f
000000e0: 0000 0000 0000 803f 0000 803f 0000 803f
000000f0: 0000 803f 0000 803f 0000 803f 0000 803f
00000100: 0000 803f 0000 803f 0000 803f 0000 0000
00000110: 0000 0000 0000 803f 0000 803f 0000 0000
00000120: 0000 803f 0000 803f 0000 803f 0000 803f
00000130: 0000 803f 0000 803f 0000 803f 0000 803f
00000140: 0000 803f 0000 803f 0000 0000 0000 803f
00000150: 0000 803f 0000 803f 0000 803f 0000 803f
00000160: 0000 803f 0000 0000 0000 803f 0000 0000
00000170: 0000 803f 0000 803f 0000 803f 0000 803f
00000180: 0000 803f 0000 803f 0000 803f 0000 803f

KL_gamma_k f4 [99]
448662.22 450855.5 450260.62 450505.0 15895.685 449325.6 445683.5 445208.44
449829.12 411014.6 453481.34 449752.28 446718.88 452328.72 448965.7 453003.16
25565.932 450740.38 451308.03 267740.66 449301.12 446423.88 303387.4 444391.12
446679.97 454613.66 8264.099 449947.3 417059.72 11266.486 447242.2 440179.28
450481.12 446047.72 448683.72 386355.9 450941.3 446864.94 450538.06 445515.72
451010.22 223720.5 365841.62 454788.56 448643.9 446810.34 450394.47 441896.47
450732.72 444154.25 450618.16 448219.97 448938.06 443307.0 447748.7 325355.0
445024.03 451946.06 448375.1 451873.78 393094.97 452293.6 451961.88 451012.5
450932.28 451643.53 66584.05 19796.629 449560.78 445848.38 259548.08 450871.5
449645.84 450123.38 449981.94 450953.78 444139.25 429643.22 443796.75 347546.7
439183.56 91967.96 445365.88 449867.78 433065.62 449544.62 373271.38 447942.6
2061.2527 451059.25 98643.35 450481.8 448436.44 435634.06 442254.7 449185.78
451710.25 446876.84 448659.16
00000000: c712 db48 f024 dc48 94da db48 20f9 db48
00000010: bd5e 7846 b365 db48 709e d948 0e63 d948
00000020: a4a4 db48 d3b0 c848 2b6d dd48 099b db48
00000030: dc1f da48 17dd dc48 b638 db48 6531 dd48
00000040: ddbb c746 8c16 dc48 815d dc48 95bb 8248
00000050: a462 db48 fcfa d948 6d23 9448 e4fc d848
00000060: ff1a da48 b5fa dd48 6520 0146 6ab3 db48
00000070: 77a4 cb48 f209 3046 4661 da48 69ee d648
00000080: 24f6 db48 f7cb d948 7715 db48 7da6 bc48
00000090: aa2f dc48 1e32 da48 42fd db48 7789 d948
000000a0: 4738 dc48 207a 5a48 34a2 b248 9210 de48
000000b0: 7d10 db48 4b2b da48 4feb db48 0fc5 d748
000000c0: 9715 dc48 48df d848 4507 dc48 7fdb da48
000000d0: 4235 db48 6075 d848 96a0 da48 60dd 9e48
000000e0: 014c d948 42ad dc48 e3ee da48 39a4 dc48
000000f0: dff0 bf48 b3d8 dc48 3caf dc48 9038 dc48
00000100: 892e dc48 7187 dc48 060c 8247 42a9 9a46
00000110: 1983 db48 0cb3 d948 0577 7d48 f026 dc48
00000120: bb8d db48 6cc9 db48 beb7 db48 3931 dc48
00000130: 68dd d848 67c9 d148 98b2 d848 56b3 a948
00000140: f271 d648 fb9f b347 bc76 d948 79a9 db48
00000150: 3475 d348 1481 db48 ec42 b648 d3b8 da48
00000160: 0bd4 0045 683e dc48 ada9 c047 3af6 db48
00000170: 8ef6 da48 42b6 d448 d6f1 d748 3954 db48
00000180: c88f dc48 9b33 da48 6512 db48

q_gamma_params f4 [100, 3]
2.440417 -4.070426 -0.86634076 -1.7763106 -3.4605963 -3.6325102 -2.3608088 -3.4603708
-4.1024885 -3.4365466 -4.051357 -4.149372 -3.6615164 1.4760705 -4.003406 -4.135649
-3.5481238 -4.1607146 -0.88790154 -4.3160377 -2.9655187 -1.7172493 -4.1204634 -4.1941023
-4.3679075 -3.1169338 -4.0962353 -3.7400792 -4.0911303 -3.659279 -1.9863968 -4.2194924
-4.1677203 -1.3314235 -4.242981 -2.245533 0.9813952 -4.2977085 -2.6669903 -3.3143165
-3.7288294 -3.2962956 -4.310676 0.9168475 2.2077894 -0.8719528 -3.5302541 1.0102502
-1.1666049 -3.8139079 1.6254103 -3.9392862 -4.626037 -4.1770473 -3.7254581 -4.132441
-3.7641044 -3.3444147 -3.57631 -4.209157 -3.6469018 -3.970128 -4.3246655 -1.2495582
-4.494296 -3.174102 -3.8355374 -4.1808224 -4.47309 -3.9866798 -4.4175606 -4.1189184
-4.2747035 -3.4745367 -2.50014 -3.3416348 -4.007322 -2.3330154 -1.9019985 -3.976521
0.9757755 -4.2871866 -4.1635566 -4.380004 -2.873223 -4.2747087 -4.320511 -4.017307
-4.004254 -4.2610993 -3.951551 -4.1260824 -3.984915 -4.2378254 -4.01921 -4.261344
-3.8355572 -4.526622 -3.7863302 -4.180749 -4.3189583 1.2002126 -4.178587 -3.9275239
-4.4252496 -3.896234 -3.911476 -3.5038023 -3.2206948 -4.0408173 -4.061396 -4.248305
-4.281781 -3.8461885 -3.5103621 -3.7659109 -3.6909242 -4.2187576 -4.2108784 -3.5511208
-3.5065024 -4.303723 -4.037099 -2.187306 -4.0579376 -4.167626 -3.7553594 -4.3831534
-4.15726 -3.9418159 -4.202086 -3.8866143 -3.9273343 -2.4918082 1.9871565 -4.277457
-3.9790673 -3.8156042 -4.207881 -4.021354 -3.643382 -3.7066324 -4.158072 -4.4454007
-2.8537116 -4.0525284 -4.036602 -4.342283 -4.091158 -4.513483 -2.727136 -3.9483123
-4.129073 -3.8020387 -4.050842 -2.8332791 -2.3335972 -3.9505713 -4.2958555 -4.2220626
-3.7813764 -4.166986 -1.993535 -4.3812175 -3.6911898 -3.0750232 -3.6197932 -3.1941135
-4.0706787 -4.037553 -4.0730405 -3.9242554 -4.3476553 -4.2070007 -4.191481 -3.9129987
-3.9968095 -1.9163162 -4.1672215 -3.967403 -4.3169737 -4.018981 -3.2632043 -3.5014563
-4.119342 -3.8925974 -4.058371 -3.851934 -3.4463859 -0.5866538 -3.888927 -3.7223175
-4.4907126 -3.9935656 -4.0562925 -4.254207 -4.069455 -4.1901712 -3.9927268 -2.926293
-3.353285 -3.7581265 -4.412076 -4.133439 -4.2838697 -4.2678394 -4.2619834 -4.1028557
-4.253533 -4.014167 -3.1945066 -3.800308 -4.088085 -4.3438563 -4.126507 -4.1519513
-3.6231925 -3.953556 -4.2002625 -3.9913976 -4.156246 -3.9832687 -0.47118703 -3.6816342
-3.9160628 -3.9814968 -3.8118865 -4.1957607 -1.0156771 -3.537425 -2.884751 -3.0843275
-3.8782144 -3.849257 -4.2400255 -3.9118626 -4.1293683 -3.6519446 -4.237282 -3.072041
-4.23464 -4.00252 -4.1665244 -3.2738419 -4.329351 -3.567304 -3.632068 -3.680811
-3.2788098 -2.2184958 -3.9533195 -2.707947 -2.4930756 -3.6941679 -3.9348433 -3.966487
00000000: cb2f 1c40 ee40 82c0 82c8 5dbf 255e e3bf
00000010: 697a 5dc0 0c7b 68c0 7e17 17c0 b776 5dc0
00000020: 9647 83c0 61f0 5bc0 b7a4 81c0 a8c7 84c0
00000030: 4956 6ac0 e1ef bc3f e71b 80c0 3d57 84c0
00000040: 7614 63c0 9324 85c0 844d 63bf fb1c 8ac0
00000050: 0fcb 3dc0 d3ce dbbf d6da 83c0 1636 86c0
00000060: e6c5 8bc0 d87b 47c0 5c14 83c0 755d 6fc0
00000070: 8aea 82c0 a131 6ac0 4042 febf 1506 87c0
00000080: f75d 85c0 166c aabf 80c6 87c0 d0b6 0fc0
00000090: b73c 7b3f d486 89c0 f8af 2ac0 c31d 54c0
000000a0: 24a5 6ec0 82f6 52c0 0ff1 89c0 85b6 6a3f
000000b0: 6c4c 0d40 4c38 5fbf afef 61c0 e14f 813f
000000c0: 4f53 95bf 1117 74c0 720d d03f 441d 7cc0
000000d0: 7f08 94c0 5faa 85c0 e86d 6ec0 f53c 84c0
000000e0: 16e7 70c0 e40a 56c0 43e2 64c0 6ab1 86c0
000000f0: d766 69c0 9416 7ec0 a963 8ac0 86f1 9fbf
00000100: 46d1 8fc0 7d24 4bc0 7279 75c0 4cc9 85c0
00000110: 8e23 8fc0 c325 7fc0 a85c 8dc0 2ece 83c0
00000120: 5fca 88c0 cf5e 5ec0 4b02 20c0 58dd 55c0
00000130: fb3b 80c0 2050 15c0 b074 f3bf 527f 7ec0
00000140: 6ccc 793f a230 89c0 db3b 85c0 fe28 8cc0
00000150: e3e2 37c0 6aca 88c0 a041 8ac0 c78d 80c0
00000160: d922 80c0 ed5a 88c0 36e6 7cc0 de08 84c0
00000170: d908 7fc0 449c 87c0 5e9d 80c0 ee5c 88c0
00000180: c579 75c0 16da 90c0 3c53 72c0 b2c8 85c0
00000190: e834 8ac0 91a0 993f fcb6 85c0 8d5c 7bc0
000001a0: a59b 8dc0 e65b 79c0 9f55 7ac0 4c3e 60c0
000001b0: dd1f 4ec0 604e 81c0 f5f6 81c0 1df2 87c0
000001c0: 5a04 89c0 f427 76c0 c6a9 60c0 af04 71c0
000001d0: 1a38 6cc0 1000 87c0 84bf 86c0 9045 63c0
000001e0: 896a 60c0 19b8 89c0 ea2f 81c0 d2fc 0bc0
000001f0: a0da 81c0 315d 85c0 cf57 70c0 cb42 8cc0
00000200: 4608 85c0 b646 7cc0 7d77 86c0 4abe 78c0
00000210: 7259 7bc0 c979 1fc0 255b fe3f eee0 88c0
00000220: 0aa9 7ec0 dc32 74c0 f6a6 86c0 efae 80c0
00000230: 2c2d 69c0 7739 6dc0 ed0e 85c0 b940 8ec0
00000240: 36a3 36c0 50ae 81c0 d82b 81c0 fbf3 8ac0
00000250: c4ea 82c0 746e 90c0 6589 2ec0 26b1 7cc0
00000260: 5e21 84c0 9a54 73c0 7fa0 81c0 7254 35c0
00000270: a859 15c0 29d6 7cc0 a677 89c0 231b 87c0
00000280: 1202 72c0 f357 85c0 282c ffbf ef32 8cc0
00000290: 743c 6cc0 2ecd 44c0 b1aa 67c0 5b6c 4cc0
000002a0: 0043 82c0 a233 81c0 5956 82c0 0027 7bc0
000002b0: fe1f 8bc0 c09f 86c0 9d20 86c0 926e 7ac0
000002c0: bacb 7fc0 d949 f5bf e159 85c0 eee9 7dc0
000002d0: a624 8ac0 7e9b 80c0 57d8 50c0 dc17 60c0
000002e0: a6d1 83c0 5120 79c0 2dde 81c0 1686 76c0
000002f0: 9691 5cc0 f22e 16bf 2ee4 78c0 733a 6ec0
00000300: ebb3 8fc0 9496 7fc0 26cd 81c0 7722 88c0
00000310: fa38 82c0 e215 86c0 d688 7fc0 6248 3bc0
00000320: 399c 56c0 2585 70c0 ba2f 8dc0 2245 84c0
00000330: 7615 89c0 2492 88c0 2b62 88c0 984a 83c0
00000340: f11c 88c0 0e74 80c0 cc72 4cc0 3f38 73c0
00000350: 98d1 82c0 df00 8bc0 580c 84c0 c9dc 84c0
00000360: 63e2 67c0 1007 7dc0 8d68 86c0 0f73 7fc0
00000370: f8ff 84c0 e0ed 7ec0 6d3f f1be e59f 6bc0
00000380: c6a0 7ac0 d8d0 7ec0 f3f5 73c0 ac43 86c0
00000390: b501 82bf 2c65 62c0 c39f 38c0 9f65 45c0
000003a0: aa34 78c0 3a5a 76c0 4aae 87c0 f55b 7ac0
000003b0: c923 84c0 76b9 69c0 d097 87c0 529c 44c0
000003c0: 2c82 87c0 a514 80c0 2b54 85c0 a086 51c0
000003d0: 0b8a 8ac0 b54e 64c0 cd73 68c0 6892 6bc0
000003e0: 05d8 51c0 d6fb 0dc0 3003 7dc0 014f 2dc0
000003f0: 8d8e 1fc0 3f6d 6cc0 79d4 7bc0 ecda 7dc0

gamma f4 [100, 3]
1.0 0.0 1.0 0.0 0.0 0.0 0.0 0.0
0.0 0.0 0.0 0.0 0.0 1.0 0.0 0.0
0.0 0.0 1.0 0.0 0.0 0.0 0.0 0.0
0.0 0.0 0.0 0.0 0.0 0.0 1.0 0.0
0.0 0.0 1.0 0.0 1.0 0.0 0.0 1.0
0.0 0.0 0.0 0.0 1.0 0.0 0.0 0.0
0.0 0.0 1.0 0.0 0.0 0.0 0.0 0.0
0.0 0.0 0.0 0.0 0.0 0.0 0.0 0.0
0.0 0.0 0.0 0.0 0.0 0.0 0.0 0.0
0.0 0.0 0.0 0.0 0.0 0.0 0.0 0.0
1.0 0.0 0.0 0.0 0.0 0.0 0.0 0.0
0.0 0.0 0.0 0.0 0.0 0.0 0.0 0.0
0.0 0.0 0.0 0.0 0.0 1.0 0.0 0.0
0.0 0.0 1.0 1.0 0.0 0.0 0.0 0.0
0.0 0.0 0.0 0.0 0.0 0.0 0.0 0.0
0.0 0.0 0.0 0.0 0.0 0.0 0.0 0.0
0.0 0.0 0.0 0.0 0.0 0.0 1.0 0.0
0.0 0.0 0.0 0.0 0.0 0.0 0.0 0.0
0.0 0.0 0.0 0.0 0.0 0.0 0.0 0.0
0.0 0.0 0.0 0.0 0.0 0.0 0.0 0.0
0.0 0.0 0.0 0.0 0.0 0.0 0.0 0.0
0.0 0.0 0.0 0.0 0.0 0.0 0.0 0.0
0.0 0.0 0.0 0.0 0.0 0.0 0.0 0.0
0.0 0.0 0.0 0.0 0.0 0.0 0.0 1.0
0.0 0.0 0.0 0.0 0.0 0.0 0.0 0.0
0.0 0.0 0.0 0.0 0.0 0.0 0.0 0.0
0.0 0.0 0.0 0.0 0.0 0.0 0.0 0.0
0.0 0.0 0.0 0.0 0.0 0.0 0.0 0.0
0.0 0.0 0.0 1.0 1.0 0.0 0.0 0.0
0.0 0.0 0.0 0.0 0.0 0.0 0.0 0.0
0.0 0.0 0.0 0.0 0.0 0.0 0.0 0.0
0.0 0.0 0.0 0.0 0.0 0.0 0.0 0.0
00000000: 0000 803f 0000 0000 0000 803f 0000 0000
00000010: 0000 0000 0000 0000 0000 0000 0000 0000
00000020: 0000 0000 0000 0000 0000 0000 0000 0000
00000030: 0000 0000 0000 803f 0000 0000 0000 0000
00000040: 0000 0000 0000 0000 0000 803f 0000 0000
00000050: 0000 0000 0000 0000 0000 0000 0000 0000
00000060: 0000 0000 0000 0000 0000 0000 0000 0000
00000070: 0000 0000 0000 0000 0000 803f 0000 0000
00000080: 0000 0000 0000 0000 0000 803f 0000 0000
00000090: 0000 803f 0000 0000 0000 0000 0000 803f
000000a0: 0000 0000 0000 0000 0000 0000 0000 0000
000000b0: 0000 803f 0000 0000 0000 0000 0000 0000
000000c0: 0000 0000 0000 0000 0000 803f 0000 0000
000000d0: 0000 0000 0000 0000 0000 0000 0000 0000
000000e0: 0000 0000 0000 0000 0000 0000 0000 0000
000000f0: 0000 0000 0000 0000 0000 0000 0000 0000
00000100: 0000 0000 0000 0000 0000 0000 0000 0000
00000110: 0000 0000 0000 0000 0000 0000 0000 0000
00000120: 0000 0000 0000 0000 0000 0000 0000 0000
00000130: 0000 0000 0000 0000 0000 0000 0000 0000
00000140: 0000 803f 0000 0000 0000 0000 0000 0000
00000150: 0000 0000 0000 0000 0000 0000 0000 0000
00000160: 0000 0000 0000 0000 0000 0000 0000 0000
00000170: 0000 0000 0000 0000 0000 0000 0000 0000
00000180: 0000 0000 0000 0000 0000 0000 0000 0000
00000190: 0000 0000 0000 803f 0000 0000 0000 0000
000001a0: 0000 0000 0000 0000 0000 803f 0000 803f
000001b0: 0000 0000 0000 0000 0000 0000 0000 0000
000001c0: 0000 0000 0000 0000 0000 0000 0000 0000
000001d0: 0000 0000 0000 0000 0000 0000 0000 0000
000001e0: 0000 0000 0000 0000 0000 0000 0000 0000
000001f0: 0000 0000 0000 0000 0000 0000 0000 0000
00000200: 0000 0000 0000 0000 0000 0000 0000 0000
00000210: 0000 0000 0000 0000 0000 803f 0000 0000
00000220: 0000 0000 0000 0000 0000 0000 0000 0000
00000230: 0000 0000 0000 0000 0000 0000 0000 0000
00000240: 0000 0000 0000 0000 0000 0000 0000 0000
00000250: 0000 0000 0000 0000 0000 0000 0000 0000
00000260: 0000 0000 0000 0000 0000 0000 0000 0000
00000270: 0000 0000 0000 0000 0000 0000 0000 0000
00000280: 0000 0000 0000 0000 0000 0000 0000 0000
00000290: 0000 0000 0000 0000 0000 0000 0000 0000
000002a0: 0000 0000 0000 0000 0000 0000 0000 0000
000002b0: 0000 0000 0000 0000 0000 0000 0000 0000
000002c0: 0000 0000 0000 0000 0000 0000 0000 0000
000002d0: 0000 0000 0000 0000 0000 0000 0000 0000
000002e0: 0000 0000 0000 0000 0000 0000 0000 0000
000002f0: 0000 0000 0000 0000 0000 0000 0000 803f
00000300: 0000 0000 0000 0000 0000 0000 0000 0000
00000310: 0000 0000 0000 0000 0000 0000 0000 0000
00000320: 0000 0000 0000 0000 0000 0000 0000 0000
00000330: 0000 0000 0000 0000 0000 0000 0000 0000
00000340: 0000 0000 0000 0000 0000 0000 0000 0000
00000350: 0000 0000 0000 0000 0000 0000 0000 0000
00000360: 0000 0000 0000 0000 0000 0000 0000 0000
00000370: 0000 0000 0000 0000 0000 0000 0000 0000
00000380: 0000 0000 0000 0000 0000 0000 0000 803f
00000390: 0000 803f 0000 0000 0000 0000 0000 0000
000003a0: 0000 0000 0000 0000 0000 0000 0000 0000
000003b0: 0000 0000 0000 0000 0000 0000 0000 0000
000003c0: 0000 0000 0000 0000 0000 0000 0000 0000
000003d0: 0000 0000 0000 0000 0000 0000 0000 0000
000003e0: 0000 0000 0000 0000 0000 0000 0000 0000
000003f0: 0000 0000 0000 0000 0000 0000 0000 0000

q_probs f4 [100, 3]
0.91987914 0.016783657 0.2961323 0.14467345 0.030455647 0.025769943 0.08623893 0.03046377
0.016263312 0.031173253 0.017102422 0.015529688 0.025051555 0.8138629 0.017926384 0.015740981
0.027974347 0.0153571265 0.29140496 0.013176866 0.04901088 0.15225974 0.01597795 0.014860152
0.012519411 0.042418044 0.016363803 0.023202917 0.016445607 0.025104532 0.120664895 0.014493919
0.01525251 0.20901838 0.01416183 0.095751725 0.72603625 0.013417331 0.064953886 0.03508804
0.02345866 0.035700493 0.013246772 0.7145145 0.90098256 0.29486322 0.028466078 0.7323587
0.23746161 0.021586033 0.8356353 0.019092005 0.009698524 0.015112109 0.023535598 0.015790993
0.022663549 0.03407916 0.027211174 0.0146512315 0.025412137 0.018521678 0.0130651705 0.22258285
0.011049226 0.04015232 0.021135088 0.015055987 0.011283811 0.018223004 0.011920057 0.016002659
0.0137252305 0.030047197 0.075859986 0.03417265 0.017857477 0.08885288 0.12998584 0.01840664
0.7263523 0.013557378 0.0153144775 0.01237039 0.053497165 0.013725288 0.013118759 0.017683426
0.01791128 0.01391092 0.018863747 0.015890017 0.018256709 0.014233741 0.017650167 0.013907375
0.021133732 0.010701408 0.022176202 0.015057168 0.013139072 0.76862097 0.015089252 0.01931312
0.011829624 0.019913938 0.019904012 0.029606082 0.038396113 0.017279936 0.016934248 0.014087205
0.013629711 0.020915376 0.029019186 0.0226237 0.024343142 0.014503675 0.014616906 0.027894488
0.029061465 0.013337861 0.017343527 0.10090758 0.016991163 0.0152530335 0.022858942 0.012331993
0.015409308 0.019044131 0.0147438515 0.020104663 0.0193162 0.076457374 0.87945974 0.013689676
0.018360259 0.021551004 0.014659775 0.017613372 0.025496887 0.02397185 0.01539708 0.011596936
0.05449491 0.017081844 0.017352233 0.012840402 0.0164585 0.010841462 0.061403584 0.018923098
0.01584319 0.021839729 0.017110689 0.055565212 0.08839542 0.018881163 0.013441938 0.01445658
0.022284644 0.015262446 0.119890556 0.0123560615 0.024336569 0.044151064 0.026092935 0.03939232
0.016780257 0.017336175 0.016740825 0.01937559 0.012771891 0.014672676 0.014898629 0.019589577
0.018042974 0.12830533 0.015262253 0.018570293 0.013164608 0.017654806 0.03684621 0.029273659
0.015995376 0.019986043 0.01698437 0.020797579 0.030877938 0.35750112 0.02005898 0.023608586
0.011088358 0.018101826 0.017018717 0.014005583 0.016800346 0.014918439 0.018115724 0.050873537
0.033793654 0.022765283 0.011984693 0.015775563 0.013601911 0.013818583 0.013898961 0.016256988
0.014015027 0.017737862 0.03937448 0.021876201 0.016495274 0.012819952 0.015883679 0.015490248
0.026004758 0.0188264 0.01477062 0.018138975 0.015424646 0.018285867 0.38441837 0.02453621
0.01953085 0.01831634 0.021629144 0.014839035 0.2659639 0.028267356 0.052915394 0.043728888
0.020268533 0.020852657 0.014202998 0.019612359 0.015838202 0.02528538 0.014241673 0.04428103
0.01427894 0.017942214 0.015269443 0.036481284 0.0130352415 0.027458794 0.025781084 0.024583861
0.036307596 0.09811507 0.018830065 0.06251568 0.07631696 0.024265742 0.019174607 0.01858786
00000000: 337d 6b3f e17d 893c a79e 973e 4725 143e
00000010: 1f7e f93c 7d1b d33c 099e b03d 288f f93c
00000020: a33a 853c 0d5f ff3c 611a 8c3c 3c70 7e3c
00000030: eb38 cd3c 5259 503f 5ada 923c 3bf3 803c
00000040: 752a e53c 759c 7b3c 0833 953e c8e3 573c
00000050: a2bf 483d fae9 1b3e 31e4 823c ff77 733c
00000060: 371e 4d3c 8bbe 2d3d 620d 863c 0b14 be3c
00000070: f0b8 863c 05a8 cd3c 281f f73d e777 6d3c
00000080: aae5 793c ea08 563e 0507 683c 7b19 c43d
00000090: 83dd 393f 5dd4 5b3c 8b06 853d 7ab8 0f3d
000000a0: 602c c03c ae3a 123d fd08 593c 6cea 363f
000000b0: cba6 663f 50f8 963e b131 e93c dc7b 3b3f
000000c0: 2329 733e 31d5 b03c 32ec 553f d666 9c3c
000000d0: 8fe6 1e3c c798 773c bacd c03c 1d5c 813c
000000e0: e8a8 b93c 9796 0b3d f8e9 de3c b80b 703c
000000f0: 1d2d d03c c6ba 973c 4c0f 563c c2ec 633e
00000100: d007 353c c276 243d 7e23 ad3c 63ad 763c
00000110: bcdf 383c 6948 953c 584c 433c 0218 833c
00000120: cadf 603c 8a25 f63c 7b5c 9b3d 9ff8 0b3d
00000130: d849 923c 80f8 b53d 021b 053e 86c9 963c
00000140: 39f2 393f c41f 5e3c 93e9 7a3c 2dad 4a3c
00000150: d81f 5b3d 08e0 603c 10f0 563c d5dc 903c
00000160: adba 923c a1ea 633c 2588 9a3c c82b 823c
00000170: 188f 953c a334 693c 1597 903c c2db 633c
00000180: a620 ad3c f554 2f3c deaa b53c 57b2 763c
00000190: 4345 573c 58c4 443f e938 773c 8c36 9e3c
000001a0: 0ad1 413c 8e22 a33c bd0d a33c 7488 f23c
000001b0: 3e45 1d3d a78e 8d3c b1b9 8a3c 05ce 663c
000001c0: 274f 5f3c b956 ab3c a5b9 ed3c 5655 b93c
000001d0: 456b c73c d2a0 6d3c bf7b 6f3c fb82 e43c
000001e0: 4f12 ee3c 0b87 5a3c 0314 8e3c a2a8 ce3d
000001f0: 0d31 8b3c dce7 793c ad42 bb3c 210c 4a3c
00000200: 5277 7c3c 7002 9c3c 3290 713c 89b2 a43c
00000210: 023d 9e3c af95 9c3d 4624 613f aa4a 603c
00000220: 4168 963c bb8b b03c 8e2f 703c eb49 903c
00000230: d9de d03c 9d60 c43c 0944 7c3c 1301 3e3c
00000240: 0e36 5f3d 39ef 8b3c 4526 8e3c 8d60 523c
00000250: fad3 863c 63a0 313c 5382 7b3d 9d04 9b3c
00000260: 94c9 813c 3be9 b23c b72b 8c3c 5998 633d
00000270: a808 b53d abac 9a3c 933b 5c3c 4bdb 6c3c
00000280: 498e b63c 570f 7a3c 2e89 f53d 1471 4a3c
00000290: 7c5d c73c bfd7 343d dac0 d53c d759 213d
000002a0: c076 893c 9804 8e3c 0e24 893c 8fb9 9e3c
000002b0: 3241 513c aa65 703c 6119 743c 527a a03c
000002c0: dcce 933c 7962 033e 870e 7a3c ba20 983c
000002d0: 5eb0 573c d0a0 903c 0dec 163d 50cf ef3c
000002e0: bc08 833c c5b9 a33c ce22 8b3c af5f aa3c
000002f0: bbf3 fc3c 630a b73e bb52 a43c cb66 c13c
00000300: f2ab 353c 484a 943c d66a 8b3c ac77 653c
00000310: e1a0 893c 786c 743c 6d67 943c c560 503d
00000320: 376b 0a3d 427e ba3c 725b 443c c13b 813c
00000330: 8dda 5e3c 5767 623c 78b8 633c 602d 853c
00000340: 499f 653c fe4e 913c 2247 213d b835 b33c
00000350: 1921 873c c70a 523c 7d1e 823c cfca 7d3c
00000360: ee07 d53c d339 9a3c 7800 723c 3098 943c
00000370: a8b7 7c3c 3ecc 953c 7cd2 c43e 2900 c93c
00000380: 29ff 9f3c 260c 963c 9a2f b13c 6d1f 733c
00000390: 6c2c 883e f190 e73c d0bd 583d 101d 333d
000003a0: 320a a63c 31d3 aa3c b1b3 683c 19aa a03c
000003b0: 1ebf 813c 4923 cf3c e855 693c 0660 353d
000003c0: 37f2 693c 8dfb 923c b02c 7a3c 666d 153d
000003d0: c491 553c 44f1 e03c da32 d33c 1864 c93c
000003e0: 46b7 143d 8ef0 c83d 8241 9a3c 3908 803d
000003f0: 114c 9c3d f3c8 c63c 1114 9d3c 9145 983c

weight f4 [10, 74]
-0.04816569 0.06997255 -0.08545039 0.051828206 -0.0994579 -0.04675758 0.06905965 0.23499198
0.0849148 0.26281726 -0.05081912 0.163027 -0.081167035 0.12343125 0.04811624 0.06470339
-0.01916537 0.25013918 0.28854445 0.15209168 -0.14910698 0.031897247 -0.03599415 0.12504981
0.24212714 -0.30933616 0.12192947 -0.2224551 -0.027075041 0.08000998 0.31497854 0.39601025
0.09376739 -0.043786388 -0.10083137 0.14957127 0.26601544 0.11879561 0.15377976 0.12191501
0.12669054 0.27461585 0.013530085 0.08911706 -0.04750746 0.027010253 0.19158772 0.27821252
0.16939509 0.4837648 -0.022092277 0.08157324 -0.07296901 0.06957173 0.08005179 -0.1411066
0.09912644 0.11665018 0.26873642 0.30163 0.011425474 0.17855458 0.17054823 0.013002833
-0.041628543 -0.09054405 -0.22634268 0.09756376 0.16034023 0.08266545 0.089588776 0.20072821
-0.053536694 0.26934862 -0.013113663 0.07145384 -0.086276 0.10208026 -0.10007128 -0.08028409
0.09380243 0.20619847 0.09549618 0.33230737 -0.05895352 0.18887968 -0.09696923 0.13646291
0.08623208 0.055911556 0.13252637 0.2395702 0.2248182 0.17504238 -0.13941292 0.059020925
-0.044372454 0.16479264 0.25101072 -0.20978688 0.14040275 -0.22682723 -0.017334783 0.09416317
0.23377508 0.25682253 0.12727454 0.13953368 -0.090335876 0.12564853 0.3001997 0.13994572
0.14137764 0.15153009 0.16343886 0.20480348 0.018060114 0.1483224 -0.049030717 0.022156263
0.16393279 0.16130687 0.17675276 0.29253292 -0.0016537488 0.13288318 -0.05330211 0.09295814
0.11217065 -0.23377931 0.107884765 0.15829746 0.25829837 0.3005756 0.016402323 0.19945735
0.20893683 0.047183994 -0.035947178 -0.16003475 -0.055516146 0.12698285 0.16581425 0.16190322
0.0909197 0.18896793 -0.065101914 0.14105684 -0.06824306 0.046657152 -0.101421885 -0.010171387
-0.13583595 -0.12740473 0.04703407 0.22098045 0.16409978 0.3488739 -0.10273738 0.1502951
-0.045755327 0.10909871 0.007163402 -0.022704337 -0.05970943 0.29136583 0.25524703 0.14462335
-0.17354967 0.008805871 -0.024063248 0.13300501 0.24658154 -0.27645513 0.109892175 -0.25141072
-0.03588669 0.06661198 0.41939542 0.4144045 0.06721756 -0.062606476 -0.12875713 0.22906402
0.17636311 0.01944506 0.16304336 0.110816896 0.1159691 0.2531199 -0.017370222 0.0694569
-0.056077663 -0.0094002765 0.20352122 0.35344717 0.16914178 0.31842902 -0.041289534 0.040059112
-0.07427523 0.039247666 0.056857165 -0.2047531 0.054265205 0.09325022 0.22557768 0.27977553
0.005386449 0.1847309 0.20529754 -0.015374469 -0.075740755 -0.11772141 -0.22444113 0.068240926
0.14997739 0.08427875 0.04154125 0.28987485 -0.048805054 0.20824304 -0.1297295 0.1296579
-0.11352292 -0.007698719 -0.066673376 -0.19959716 0.11512618 0.266366 -0.019569617 0.56318444
-0.09910689 0.16573088 -0.033270225 0.1797841 0.035442077 -0.014988674 -0.033851948 0.28058454
0.39207137 0.19539322 -0.18161711 0.03595535 0.023260763 0.15354098 0.29324222 -0.5044207
0.14718913 -0.35066214 0.010988858 0.09809909 0.5710666 0.53188556 0.117597096 -0.0032559342
00000000: 6349 45bd c54d 8f3d 9d00 afbd d049 543d
00000010: 95b0 cbbd e084 3fbd 256f 8d3d bda1 703e
00000020: d0e7 ad3d fc8f 863e b627 50bd 8df0 263e
00000030: e73a a6bd 86c9 fc3d 8915 453d 3683 843d
00000040: b200 9dbc 3e12 803e 19bc 933e ecbd 1b3e
00000050: 80af 18be b0a6 023d 9a6e 13bd 0f0d 003e
00000060: 2df0 773e 4f61 9ebe 28b6 f93d 45cb 63be
00000070: 7acc ddbc 46dc a33d de44 a13e dbc1 ca3e
00000080: 1e09 c03d 5b59 33bd ad80 cebd 3629 193e
00000090: 2d33 883e 1d4b f33d 7178 1d3e 94ae f93d
000000a0: 2abb 013e 739a 8c3e 4aad 5d3c 0183 b63d
000000b0: 2f97 42bd 9b44 dd3c 922f 443e df71 8e3e
000000c0: e875 2d3e 05b0 f73e ddfa b4bc df0f a73d
000000d0: c770 95bd a07b 8e3d 31f2 a33d 407e 10be
000000e0: ce02 cb3d 4ae6 ee3d d297 893e 3f6f 9a3e
000000f0: e931 3b3c 03d7 363e 32a4 2e3e d609 553c
00000100: b182 2abd 296f b9bd 60c6 67be 82cf c73d
00000110: 3b30 243e 814c a93d 527a b73d b28b 4d3e
00000120: 4b49 5bbd 10e8 893e b0da 56bc 6456 923d
00000130: 79b1 b0bd 750f d13d 2cf2 ccbd fc6b a4bd
00000140: 7d1b c03d b125 533e 8093 c33d 3124 aa3e
00000150: 3f79 71bd ad69 413e ce97 c6bd efbc 0b3e
00000160: 729a b03d 8403 653d feb4 073e e451 753e
00000170: be36 663e 4f3e 333e 43c2 0ebe edbf 713d
00000180: e4bf 35bd 67bf 283e 7a84 803e 5fd2 56be
00000190: bdc5 0f3e 6645 68be ad01 8ebc 9fd8 c03d
000001a0: bc62 6f3e 3e7e 833e 4254 023e ebe1 0e3e
000001b0: 0402 b9bd 02aa 003e c6b3 993e ee4d 0f3e
000001c0: 4dc5 103e b42a 1b3e 845c 273e 01b8 513e
000001d0: cef2 933c d4e1 173e 6fd4 48bd 0d81 b53c
000001e0: ffdd 273e a12d 253e adfe 343e e0c6 953e
000001f0: 9ac2 d8ba 8712 083e 5053 5abd d660 be3d
00000200: bab9 e53d d863 6fbe b0f2 dc3d bb18 223e
00000210: af3f 843e 0ce5 993e 2a5e 863c 8c3e 4c3e
00000220: 89f3 553e 0144 413d 593d 13bd 26e0 23be
00000230: e664 63bd cb07 023e 36cb 293e f5c9 253e
00000240: 1c34 ba3d cf80 413e 2754 85bd 3471 103e
00000250: 04c3 8bbd 921b 3f3d 47b6 cfbd e4a5 26bc
00000260: 9418 0bbe 6376 02be cca6 403d b348 623e
00000270: c609 283e 9a9f b23e fa67 d2bd f5e6 193e
00000280: f069 3bbd 256f df3d f9ba ea3b 72fe b9bc
00000290: e091 74bd e72d 953e bdaf 823e 2518 143e
000002a0: 01b7 31be 8046 103c 4a20 c5bc 7732 083e
000002b0: df7f 7c3e 878b 8dbe 260f e13d e8b8 80be
000002c0: ecfd 12bd dd6b 883d ffba d63e d42c d43e
000002d0: 5ca9 893d d337 80bd e9d8 03be c28f 6a3e
000002e0: 8898 343e 3f4b 9f3c d7f4 263e f8f3 e23d
000002f0: 3581 ed3d ee98 813e ff4b 8ebc 6b3f 8e3d
00000300: b1b1 65bd 9e03 1abc de67 503e 07f7 b43e
00000310: 8133 2d3e 2109 a33e 371f 29bd 0615 243d
00000320: 9d1d 98bd 29c2 203d 0fe3 683d ccaa 51be
00000330: 3145 5e3d f9f9 be3d d6fd 663e bd3e 8f3e
00000340: cf80 b03b 192a 3d3e 8539 523e 32e5 7bbc
00000350: f81d 9bbd ec17 f1bd e5d3 65be e6c1 8b3d
00000360: ac93 193e 569a ac3d 2827 2a3d 7a6a 943e
00000370: cfe7 47bd aa3d 553e cfd7 04be 0ac5 043e
00000380: b47e e8bd 8945 fcbb 0d8c 88bd 3363 4cbe
00000390: 46c7 eb3d 2061 883e 7650 a0bc db2c 103f
000003a0: 8ef8 cabd 5bb5 293e 5c46 08bd 5319 383e
000003b0: b62b 113d 0e93 75bc 57a8 0abd c7a8 8f3e
000003c0: 94bd c83e 2915 483e d6f9 39be eb45 133d
000003d0: 5b8d be3c d939 1d3e d823 963e b721 01bf
000003e0: bfb8 163e fd89 b3be 9c0a 343c 2de8 c83d
000003f0: 6c31 123f a729 083f bfd6 f03d 8361 55bb

bias f4 [10]
-0.40247306 -0.116544746 -0.24932909 -0.6864834 -0.4631898 -0.4682486 -0.61168164 -0.015348007
-0.69148403 -0.23068433
00000000: f310 cebe 03af eebd 2050 7fbe 60bd 2fbf
00000010: 3727 edbe 48be efbe 2b97 1cbf 3576 7bbc
00000020: 1905 31bf 8338 6cbe

weight f4 [10, 10]
-0.20813714 -0.14431907 0.10584171 -0.33443746 -0.1595697 -0.044152543 -0.39898425 -0.4618059
-0.017534794 -0.33228952 -0.5812561 -0.4958061 -0.45349067 -0.23734505 -0.29045522 -0.51582724
-0.09902623 -0.8979483 -0.517542 -0.520895 -0.43367323 -0.5739137 -0.8008874 -0.37788463
-0.4570112 -0.05810818 -0.5796999 -0.60536236 -0.55337423 -0.39143422 -0.9110549 -0.80350685
-0.33163628 -0.25388253 -0.706537 -0.5313306 -0.44108823 -1.0731282 -0.06821362 -0.57160896
-0.15164146 -0.18920137 -0.26555005 -0.26348558 -0.07709508 -0.21525705 0.12956284 -0.23043805
-0.30281675 0.0098581165 0.328976 0.23190738 0.5788305 0.3397326 0.24276142 0.2179295
0.27498263 0.4873987 0.28726017 0.47858125 -0.039940115 -0.2986742 -0.12045904 0.105068475
0.06462831 -0.3403907 -0.29652622 -0.13672635 -0.0072030453 -0.24102755 -0.09841108 -0.09341641
-0.34671018 -0.21706174 0.04333126 -0.21020508 0.047124363 0.072202176 -0.18691495 -0.04652023
0.10292063 0.35604668 -0.201721 -0.10723089 0.051112194 0.17797756 -0.010086444 0.15566634
-0.10925093 -0.17121914 -0.6374811 -0.54218704 -0.089623965 0.04500367 -0.5807096 -0.07121353
-0.41193035 -0.48939225 -0.20414193 -0.47732005
00000000: e721 55be 61c8 13be 8ac3 d83d 633b abbe
00000010: 3d66 23be 4cd9 34bd aa47 ccbe d371 ecbe
00000020: 21a5 8fbc da21 aabe 33cd 14bf 4cda fdbe
00000030: ee2f e8be 950a 73be 8cb6 94be 410d 04bf
00000040: 44ce cabd f1df 65bf a27d 04bf 6059 05bf
00000050: 6b0a debe 02ec 12bf f506 4dbf 187a c1be
00000060: 5ffd e9be d802 6ebd 3667 14bf 07f9 1abf
00000070: efa9 0dbf 116a c8be e53a 69bf a0b2 4dbf
00000080: 3bcc a9be e4fc 81be 9cdf 34bf 4805 08bf
00000090: 51d6 e1be 445c 89bf 95b3 8bbd f754 12bf
000000a0: e647 1bbe 01be 41be 2df6 87be 95e7 86be
000000b0: 06e4 9dbd 586c 5cbe 1fac 043e f4f7 6bbe
000000c0: cc0a 9bbe f083 213c 8b6f a83e 2179 6d3e
000000d0: 3c2e 143f 6ef1 ad3e 7396 783e e928 5f3e
000000e0: 86ca 8c3e 538c f93e c413 933e 9a08 f53e
000000f0: 3f98 23bd d3eb 98be 3bb3 f6bd 242e d73d
00000100: d95b 843d b147 aebe 49d2 97be fe01 0cbe
00000110: 8607 ecbb edcf 76be c08b c9bd 1a51 bfbd
00000120: ff83 b1be 6f45 5ebe 1f7c 313d 0040 57be
00000130: 7a05 413d bcde 933d a266 3fbe ff8b 3ebd
00000140: 0dc8 d23d c04b b63e f38f 4ebe de9b dbbd
00000150: 055b 513d c03f 363e 9d41 25bc ff66 1f3e
00000160: f4be dfbd 1254 2fbe f631 23bf c5cc 0abf
00000170: c58c b7bd c555 383d 62a9 14bf 66d8 91bd
00000180: 89e8 d2be 9f91 fabe 950a 51be 4b63 f4be

bias f4 [10]
0.27298865 -0.596806 -0.55525315 -1.071971 -0.062446352 0.5196765 -0.16746208 -0.1544336
0.42411464 -0.6145834
00000000: 2bc5 8b3e 47c8 18bf 1225 0ebf 5936 89bf
00000010: bfc7 7fbd 8509 053f 2e7b 2bbe d723 1ebe
00000020: 8e25 d93e 5655 1dbf

weight f4 [300, 10]
-1.1896862 -1.1156937 -0.69827914 -0.5064709 -0.8492264 -1.1494641 -0.76517653 -1.0807582
-1.1771277 -0.7702599 0.029731799 0.21542938 -0.124257945 -0.27168718 -0.2378777 -0.21787739
0.29062852 0.20046304 -0.23740727 -0.091183424 -0.20720455 -0.028327629 -0.33646002 -0.26297837
-0.44459927 -0.14732677 -0.5457774 -0.44766185 -0.60696286 -0.39552203 -0.5389343 -0.47413677
-0.4425587 -0.1606106 -0.43927237 -0.45866293 -0.22570604 -0.21164668 -0.63848895 -0.4836396
-0.22391635 0.114202134 0.005000162 -0.09740845 -0.3181311 -0.18817824 0.01614389 -0.36824948
-0.18132505 -0.3783034 0.08689525 0.05308271 -0.1992857 -0.12979326 0.321271 -0.21960382
0.0062886067 -0.109981336 -0.20260885 -0.36889148 0.18403856 0.30604154 0.13464233 0.35426766
0.27600214 0.5740641 0.4244816 0.34066924 0.62091595 0.27142817 0.26882505 0.40124235
0.3303782 -0.02675401 -0.010015294 0.5384272 0.33298695 0.51294017 0.3416754 0.34368783
-0.20501602 -0.31209412 -0.36427215 -0.09682264 -0.13638031 0.1301637 -0.2489493 -0.22125225
0.23045397 -0.18363847 -0.22491662 -0.31866103 -0.25071427 -0.28888255 -0.21198215 0.24928112
0.091494575 0.06307045 0.17709549 -0.21205683 -0.16928256 -0.11077075 0.07012566 0.3137088
0.112029195 0.31206852 -0.029634519 -0.24960323 0.33427048 0.09511274 0.1895788 0.27258906
0.22689739 0.018710542 0.080851264 0.21562909 0.0739559 -0.036128603 0.26367152 -0.12246748
0.31897372 0.03136014 0.16729239 0.05727931 0.34588343 0.37239075 0.6082209 0.12575953
0.21061477 0.24749537 0.71475345 0.75727403 0.59932965 0.5617651 0.78647184 0.6839135
0.9035795 0.67639244 0.76376706 0.6521607 0.019165136 -0.017267188 0.0625322 -0.21709183
-0.23130964 0.06854335 -0.032091826 -0.18659803 -0.10737051 -0.22308637 -0.23256722 -0.09617163
-0.01422705 -0.17648387 -0.14685157 -0.27320457 -0.35900894 -0.19968936 -0.29305512 -0.36476728
-0.050277818 0.32482085 0.43743172 -0.039497375 0.096132755 0.10498266 0.2989899 0.113554895
0.2261012 0.16448997 0.3815043 0.039534424 0.19757423 0.12738054 0.19811533 0.25964555
0.07405671 0.05195074 0.119702145 0.057415 0.7092121 0.29276752 0.21804187 0.31168237
0.2822141 0.5611224 0.4436305 0.49819583 0.49284503 0.47607094 -0.048362628 -0.09456417
0.19159721 0.026072064 0.18783195 -0.085908934 0.06668525 0.20205693 0.14701782 0.3765073
0.35980967 0.29865456 0.18770576 0.22270545 0.44900548 0.1828476 0.098979376 0.51831347
0.4427647 0.14730752 -0.247942 -0.117239945 -0.3572288 -0.44531843 -0.56135 -0.7273032
-0.15330951 -0.27584195 -0.57392836 -0.42838293 -0.056426078 -0.032972664 -0.31988224 -0.2983654
-0.2265734 -0.15857142 -0.12112916 -0.2728594 0.12765211 -0.08951202 -0.34726134 -0.19208439
0.036307633 -0.03060606 -0.41220227 0.05861959 -0.45120013 -0.5013946 -0.23441342 -0.28783765
0.09669509 0.037708517 -0.25434574 0.041716706 0.03126244 -0.082873225 0.09507229 0.14370029
0.06859811 0.31454614 -0.03517549 0.054620925 -0.12579487 -0.15824144 0.3416791 0.46531773
00000000: a347 98bf 0dcf 8ebf 6cc2 32bf 14a8 01bf
00000010: e766 59bf a421 93bf 9ce2 43bf 4956 8abf
00000020: 1fac 96bf c12f 45bf 1a90 f33c 8599 5c3e
00000030: f37a febd 951a 8bbe 3696 73be 401b 5fbe
00000040: 43cd 943e 2f46 4d3e e41a 73be 60be babd
00000050: 6e2d 54be 580f e8bc 7d44 acbe 1aa5 86be
00000060: 84a2 e3be d4dc 16be 11b8 0bbf ef33 e5be
00000070: eb61 1bbf dd81 cabe 99f7 09bf 0ec2 f2be
00000080: 0e97 e2be 1b77 24be 4fe8 e0be ded5 eabe
00000090: 7c1f 67be e8b9 58be 0374 23bf 9c9f f7be
000000a0: 544a 65be cfe2 e93d 66d8 a33b 157e c7bd
000000b0: 14e2 a2be ccb1 40be 3140 843c 328b bcbe
000000c0: 46ad 39be fcb0 c1be 23f6 b13d 416d 593d
000000d0: 8d11 4cbe 86e8 04be a27d a43e d3df 60be
000000e0: a810 ce3b e53d e1bd b278 4fbe 58df bcbe
000000f0: 9b74 3c3e 7ab1 9c3e aedf 093e 9262 b53e
00000100: 2750 8d3e ddf5 123f a755 d93e 336c ae3e
00000110: 59f4 1e3f a2f8 8a3e 70a3 893e a36f cd3e
00000120: 5527 a93e 3a2b dbbc 3017 24bc 5dd6 093f
00000130: 447d aa3e 0c50 033f 14f0 ae3e daf7 af3e
00000140: b8ef 51be cdca 9fbe e181 babe f34a c6bd
00000150: 48a7 0bbe a249 053e 91ec 7ebe f38f 62be
00000160: 20fc 6b3e b90b 3cbe 8b50 66be 8a27 a3be
00000170: 9f5d 80be 6ae8 93be d911 59be 8d43 7f3e
00000180: 8261 bb3d 152b 813d 8558 353e 6d25 59be
00000190: 6858 2dbe c6db e2bd 0b9e 8f3d 719e a03e
000001a0: 906f e53d 72c7 9f3e 17c4 f2bc fd97 7fbe
000001b0: 8025 ab3e 78ca c23d f220 423e cb90 8b3e
000001c0: ca57 683e da46 993c 5995 a53d dfcd 5c3e
000001d0: 3176 973d 96fb 13bd f4ff 863e 3bd0 fabd
000001e0: 8650 a33e 7d73 003d b24e 2b3e b69d 6a3d
000001f0: a217 b13e 00aa be3e 5db4 1b3f 1bc7 003e
00000200: 66ab 573e 6d6f 7d3e 15fa 363f b6dc 413f
00000210: ab6d 193f d6cf 0f3f 3856 493f f514 2f3f
00000220: fc50 673f 0e28 2d3f 3d86 433f 01f4 263f
00000230: 3400 9d3c eb73 8dbc e210 803d 524d 5ebe
00000240: 6fdc 6cbe 7560 8c3d b872 03bd 8e13 3fbe
00000250: 12e5 dbbd c170 64be 1a26 6ebe a2f5 c4bd
00000260: 9318 69bc 30b8 34be 4260 16be 78e1 8bbe
00000270: 05d0 b7be 5e7b 4cbe 520b 96be c7c2 babe
00000280: 1df0 4dbd eb4e a63e 0df7 df3e 00c8 21bd
00000290: 40e1 c43d 2601 d73d 3415 993e 788f e83d
000002a0: 1387 673e 0f70 283e 8854 c33e d9ee 213d
000002b0: e650 4a3e 0b70 023e bfde 4a3e 43f0 843e
000002c0: 0bab 973d 4dca 543d 6626 f53d fe2b 6b3d
000002d0: ed8e 353f a0e5 953e 5e46 5f3e d594 9f3e
000002e0: 5e7e 903e b8a5 0f3f 8923 e33e 8613 ff3e
000002f0: 2f56 fc3e 92bf f33e e417 46bd dcaa c1bd
00000300: 0f32 443e 1595 d53c 0557 403e 06f1 afbd
00000310: 4792 883d 03e8 4e3e d78b 163e 91c5 c03e
00000320: f938 b83e 40e9 983e f035 403e e60c 643e
00000330: 0ce4 e53e 673c 3b3e b3b5 ca3d 31b0 043f
00000340: 0eb2 e23e c8d7 163e 82e4 7dbe 7f1b f0bd
00000350: b1e6 b6be c700 e4be a2b4 0fbf 8b30 3abf
00000360: 2bfd 1cbe 283b 8dbe f8ec 12bf 0255 dbbe
00000370: 081f 67bd 580e 07bd 9bc7 a3be 5ac3 98be
00000380: db02 68be 8c60 22be 9112 f8bd 3ab4 8bbe
00000390: 3cb7 023e 1452 b7bd 3dcc b1be c5b1 44be
000003a0: 50b7 143d 8fb9 fabc 2d0c d3be 181b 703d
000003b0: b403 e7be 665b 00bf 120a 70be 755f 93be
000003c0: 1308 c63d 3f74 1a3d 9b39 82be 23df 2a3d
000003d0: 0b0d 003d 70b9 a9bd 43b5 c23d 2b26 133e
000003e0: 2a7d 8c3d 310c a13e 2d14 10bd 31ba 5f3d
000003f0: 5fd0 00be 0b0a 22be 90f0 ae3e 203e ee3e
