mcspace/paper/human_runs/runs/seed_4/model.pt (torch, 308831 bytes, 66 tensors)

theta_params f4 [100, 58]
000000 4e c8 f4 c0 00 c9 06 bf 5b 7d c3 c0 98 9a 83 bf
       -7.6494513 -0.5265045 -6.109052 -1.0281553
000010 c9 3e b7 3f 33 b8 98 c0 42 7c be c0 2f db 5b 40
       1.4316036 -4.7724853 -5.952668 3.435253
000020 62 05 41 3f 54 17 89 3f f5 75 84 3f 18 2d 56 3f
       0.7539884 1.0710244 1.0348498 0.8366256
000030 06 d1 c1 c0 48 5a 93 c0 4b eb 9c c0 a2 49 4d bf
       -6.0567656 -4.6047707 -4.9037223 -0.8019048
000040 8d 87 a7 bf 99 9d e6 bf ab 3d ab c0 eb 6f 28 40
       -1.3088242 -1.8016845 -5.351278 2.631831
000050 05 0b 38 40 54 57 6e c0 97 90 95 c0 5f 4f 56 40
       2.8756726 -3.72408 -4.6739 3.3485944
000060 b0 2e 9e c0 bb 89 c4 3f 23 4c e2 c0 19 6a 9c c0
       -4.943199 1.5354532 -7.071794 -4.8879514
000070 12 4e cb bf a4 4e a2 c0 ff 0a ca c0 da 06 f9 c0
       -1.58832 -5.0720997 -6.3138423 -7.7820864
000080 da 0c a3 3f a5 42 ad 3f 4e 94 b2 c0 4d b8 11 3f
       1.2738297 1.3535963 -5.5806036 0.56921846
000090 5a bc bf 3f 5f 0a c8 be dd 05 bc be 24 63 b2 3f
       1.4979355 -0.39070413 -0.36723223 1.3936505
0000a0 2c dc a9 c0 0f d0 50 3e a7 09 81 3e d2 75 9a 40
       -5.3081264 0.20391868 0.25202677 4.8268824
0000b0 27 ac c3 bf 69 e6 83 3f b0 8b ae c0 3e 9e 43 3f
       -1.5286912 1.0304691 -5.4545517 0.76413333
0000c0 e1 3e bd bf 6d eb bb c0 42 89 16 40 42 d3 95 3f
       -1.4784814 -5.8724885 2.3521276 1.1705096
0000d0 75 4b 38 c0 49 f0 4d 3e 6f 97 8c 40 ff 3b 08 c0
       -2.8796055 0.20111193 4.3934855 -2.1286619
0000e0 1a 8a eb c0 91 de 07 c1 47 3e f5 bf bf 7c 28 40
       -7.360608 -8.4918375 -1.915963 2.632614
0000f0 0a fe aa c0 4e 41 4b c0 c1 4a a9 40 5c da 5a c0
       -5.3435106 -3.175861 5.290375 -3.4195776
000100 fa 81 d4 c0 ce 58 f2 3f c5 78 a8 c0 51 a3 70 c0
       -6.6408663 1.8933351 -5.2647424 -3.759968
000110 4f 04 c0 c0 dd 1d 51 bc d9 51 d0 3e 30 11 c4 3d
       -6.000526 -0.012763468 0.40687445 0.09573591
000120 44 2c 66 3f fd c2 74 3f 7e f2 39 c0 49 61 58 c0
       0.89911294 0.9561003 -2.9054255 -3.3809378
000130 be 65 a8 3f 58 f7 c0 c0 b7 83 23 3f 44 bf 86 c0
       1.3156049 -6.0301933 0.63872856 -4.210848
000140 a1 b3 9a c0 f2 5c a0 3f 71 98 91 c0 24 67 a9 c0
       -4.8344274 1.2528365 -4.5498586 -5.2938404
000150 b9 bf aa c0 9f 47 93 c0 7c d9 42 bf 7a c1 98 c0
       -5.3359036 -4.602493 -0.76113105 -4.7736177
000160 09 12 5a c0 85 b9 a1 c0 3a 1a c4 be c6 10 10 bc
       -3.4073508 -5.0538964 -0.3830126 -0.008793062
000170 8e a2 8c c0 68 a3 6a c0 c6 c0 b0 bf 3d 93 e2 bf
       -4.394843 -3.6662235 -1.380883 -1.7701184
000180 99 38 7f c0 22 c9 98 3f 7b 21 0b c0 0e 23 77 c0
       -3.9878294 1.1936381 -2.1739185 -3.8615146
000190 c6 8d b6 3f 89 c0 82 3f 3f e8 1f c0 d4 62 f7 be
       1.4262016 1.0215007 -2.4985502 -0.48317587
0001a0 e8 13 5c c0 4b 3f b0 c0 bb f9 45 3e e3 46 cd 3e
       -3.438715 -5.507726 0.19333546 0.40093145
0001b0 91 31 a7 c0 f7 db 30 40 72 66 b2 c0 40 bf 21 3f
       -5.2248006 2.7634256 -5.5750055 0.6318245
0001c0 55 b3 e8 be f1 c6 d4 bf 01 b4 28 c0 57 11 f5 3e
       -0.4544932 -1.6623212 -2.6359866 0.47864792
0001d0 42 2a 97 c0 3b 87 6e 3f 42 2a a4 c0 07 c5 a8 bf
       -4.7239084 0.93175095 -5.1301584 -1.3185128
0001e0 a2 31 d1 c0 16 81 a0 c0 97 c0 9d 40 06 de b3 3f
       -6.5373087 -5.0157576 4.9297595 1.4052131
0001f0 74 8e d5 3e 7c e7 9c c0 4e 6c 0f 40 06 af ce 3e
       0.41710246 -4.9032574 2.2409854 0.40367907
000200 05 4f b0 c0 9b 12 ee bf 88 c7 2a bf dc 97 3f c0
       -5.509646 -1.8599428 -0.6671071 -2.9936438
000210 38 20 47 c0 04 bf be bf 03 07 20 bf 87 3a d3 3f
       -3.1113415 -1.4902043 -0.625107 1.6502236
000220 0c 21 ce 3e 8d 21 03 bf 80 85 ec bf cc ea 0c 3f
       0.40259588 -0.5122307 -1.8478241 0.5504577
000230 d0 de 8b c0 e0 8c c2 bf 59 43 a7 c0 86 0e a3 c0
       -4.370949 -1.5199242 -5.226971 -5.095523
000240 67 62 bc c0 3d c3 5d c0 5a aa 83 c0 b9 0b 95 c0
       -5.887012 -3.4650414 -4.114545 -4.657681
000250 90 7c f0 bf 5e 67 a0 bf 5f 85 e8 c0 e0 2d 60 c0
       -1.8788013 -1.2531545 -7.2662807 -3.5028
000260 2f 68 3e 3e 88 26 f4 3e ed 24 09 40 e5 36 d5 3e
       0.1859443 0.47685647 2.1428788 0.41643444
000270 ad 2e 74 c0 b8 41 56 c0 08 d9 04 40 47 99 da bf
       -3.8153489 -3.3477612 2.0757465 -1.7078027
000280 b4 d8 78 3d 0f a5 d5 3a c8 8d d2 c0 63 dd 07 3f
       0.06075354 0.0016299802 -6.5798073 0.53072184
000290 b2 c5 cd bf f2 37 9f be b2 3d 00 3f f8 e2 5b bf
       -1.6075957 -0.3109737 0.5009414 -0.858932
0002a0 1c 4a 4c 3d 4b bf 90 bf da ce 2d 40 79 4f ad c0
       0.049875364 -1.1308378 2.7157502 -5.4159513
0002b0 da f6 cf c0 5a 83 01 bf d8 9f 97 c0 ff 5c f5 3e
       -6.4988832 -0.5059105 -4.738262 0.47922513
0002c0 e4 06 d7 c0 ec 47 4f c0 5f cb cb c0 ad 87 69 bf
       -6.719591 -3.2387648 -6.3685756 -0.9122265
0002d0 21 be 88 c0 b6 7d de be cb 4a 81 c0 16 ed 88 c0
       -4.273209 -0.43455285 -4.04038 -4.278941
0002e0 91 13 32 40 c9 a3 f4 bf 63 15 49 bf d3 a1 5b 3e
       2.7824442 -1.9112483 -0.7854826 0.2144845
0002f0 f3 78 85 bf 1e 1e a5 c0 f9 fe 67 bf 40 47 e6 c0
       -1.0427536 -5.1599264 -0.9062343 -7.1961975
000300 a7 b0 b3 c0 60 5f 36 3f 8a 4c e6 3f 59 0b ef bf
       -5.615314 0.7123928 1.7992108 -1.8675338
000310 08 82 6f bd c0 bb 20 3f 17 d8 aa c0 32 4d 92 c0
       -0.058473617 0.62786484 -5.338878 -4.5719233
000320 e1 14 86 40 8b 3b 8e bf 54 bd bb 3f 50 4c 9f c0
       4.1900487 -1.1111921 1.4667153 -4.9780655
000330 68 eb 63 c0 04 ab 13 c0 43 25 b3 be 99 b7 c5 bf
       -3.561243 -2.307313 -0.34989366 -1.5446655
000340 52 de 01 c0 52 44 2e c0 9e c7 c9 3f 33 87 23 40
       -2.0291944 -2.72292 1.5764043 2.555127
000350 85 6d 91 3f fa e9 08 40 7f c9 5a bf f5 9f 50 c0
       1.1361548 2.1392808 -0.8546371 -3.259763
000360 c7 66 59 3f 6f 27 fa be 10 51 85 3e 83 54 07 c0
       0.8492245 -0.4885821 0.26038408 -2.1145332
000370 0c c6 c5 c0 10 d7 d8 3e e0 e7 23 3f 6c da f6 c0
       -6.1804256 0.4235158 0.6402569 -7.714163
000380 76 92 ad 3f 9c 0a a3 3e 60 24 7b 3f eb 1d d6 3f
       1.3560321 0.31844032 0.9810238 1.672788
000390 0a b3 17 40 31 ad 01 c1 0d 07 61 3f 17 e1 3b 3f
       2.3703027 -8.104783 0.87901384 0.73390335
0003a0 27 0a 76 c0 e0 d7 80 c0 03 5a b8 c0 12 1a 89 c0
       -3.8443696 -4.026352 -5.7609878 -4.2844324
0003b0 a9 33 c2 3f 29 c5 4b c0 51 81 89 c0 93 68 35 40
       1.5172015 -3.1839087 -4.2970357 2.8345077
0003c0 6c 94 88 c0 8d ed 8b bf f2 08 b9 c0 46 74 7b bd
       -4.268118 -1.093187 -5.782342 -0.061390184
0003d0 37 fc 95 bf 43 0e 87 c0 a5 7b b3 40 8a c3 3a bd
       -1.1717595 -4.220491 5.6088433 -0.045596637
0003e0 1e 3a 02 c0 33 6b 05 3f bb e0 1e 40 0a ee df 3e
       -2.0347972 0.521167 2.4824665 0.43736297
0003f0 47 b1 b8 3f fd 36 b4 c0 00 bb 87 bf 86 6b f3 3e
       1.4429101 -5.6317124 -1.0603943 0.4754297

q_mu f4 [5]
000000 1c d0 0d c0 59 d6 74 c0 ca 2f 84 bf 0e 06 48 c0
       -2.215827 -3.8255827 -1.0327084 -3.1253695
000010 2a b0 76 c0
       -3.8545022

q_var f4 [5]
000000 02 21 8e c0 cc d5 5c c0 52 9b 85 c0 b3 e0 23 c0
       -4.4415293 -3.4505491 -4.17521 -2.5605896
000010 8b a1 11 c0
       -2.2754848

eps f4 [5]
000000 3c 37 77 3e 1c 62 59 3f 72 f8 55 40 cd 25 a5 3c
       0.24142164 0.8491533 3.343289 0.020159626
000010 06 ca 5b bf
       -0.8585514

q_gamma_params f4 [99]
000000 b3 a3 7b 40 28 a4 21 40 13 59 cf 3f 06 f0 7c 40
       3.9318664 2.5256443 1.6199058 3.9521499
000010 d4 27 6a 40 17 b0 88 40 05 3f 2f 40 1e e3 c9 3f
       3.658681 4.2714953 2.7382214 1.5772436
000020 8b fc 69 40 bb fb 5c 40 ef 0f 82 c0 20 b3 55 40
       3.656039 3.4528644 -4.064445 3.339058
000030 0d 3e 57 40 69 a5 61 40 a8 26 75 40 b5 58 67 40
       3.3631623 3.5257208 3.8304844 3.6147892
000040 99 0e 05 40 3e 6d 7e 40 f1 ee 48 40 08 ba 5f 40
       2.079016 3.9754176 3.1395838 3.4957294
000050 ea a8 67 40 77 97 34 40 e5 11 43 40 1a 0b 81 40
       3.6196847 2.8217447 3.0479672 4.032605
000060 4f be 48 c0 f8 64 56 c0 f5 02 89 40 59 16 58 40
       -3.1366155 -3.3499126 4.281611 3.376364
000070 c5 67 29 40 57 37 9d c0 2f 5c 40 40 2e d1 7b 40
       2.6469586 -4.9130054 3.0056264 3.9346423
000080 07 ec de 3f db 61 5a 40 d2 37 5b 40 c7 79 0c c0
       1.741578 3.4122226 3.425282 -2.1949327
000090 82 50 73 40 ba aa 4a 40 76 10 e7 3f 80 08 71 40
       3.8017888 3.1666703 1.8051898 3.7661438
0000a0 45 9a 74 40 f4 14 e3 3f 7e fd 29 40 a6 98 11 c0
       3.8219159 1.7740769 2.656097 -2.274942
0000b0 35 e9 0e 40 78 e7 86 40 b5 ad 48 40 c1 55 72 40
       2.2329838 4.2157555 3.1356022 3.786484
0000c0 be 05 6c 40 ff 45 64 40 9e 81 85 40 38 b9 7c 40
       3.6878505 3.5667722 4.1720724 3.9488049
0000d0 75 80 7f 40 17 5c 58 40 49 f7 42 40 1a 89 4f 40
       3.9922154 3.3806207 3.046343 3.242743
0000e0 08 c7 14 40 53 d9 5a 40 ca 24 f7 3f 11 75 5d 40
       2.324648 3.4195144 1.9308102 3.4602702
0000f0 50 d7 52 40 f9 91 65 40 0b 66 e0 3f 38 8c 25 40
       3.2943916 3.5870345 1.7531141 2.5866833
000100 fd bb 5a c0 e7 6f 82 40 ad c3 15 40 8b 53 59 40
       -3.417724 4.07616 2.340068 3.395724
000110 ca 19 51 40 58 69 62 40 d9 fd 35 40 21 f8 79 40
       3.267199 3.5376797 2.8436186 3.9057696
000120 47 a7 3e 3f 1e a4 72 40 3f 01 37 40 16 e9 15 40
       0.74473995 3.791267 2.859451 2.3423514
000130 db 44 81 bf e6 c0 84 40 bc 4e 91 40 6d 08 3d 40
       -1.0099138 4.148547 4.540861 2.9536393
000140 01 41 44 40 c0 1b 79 40 da d3 5d 40 4c 4f 84 40
       3.0664675 3.8923187 3.4660554 4.13468
000150 02 64 15 40 82 6e 9b 3f 8e 09 40 40 4e b6 3f 40
       2.334229 1.2143099 3.0005832 2.995502
000160 62 f0 6c 40 36 74 81 40 a5 65 5d 40 67 4c 40 40
       3.7021718 4.045436 3.459329 3.0046632
000170 0f 07 5b c0 d6 5a 69 40 4a 52 60 40 e8 da 11 40
       -3.4223058 3.6461692 3.5050225 2.278986
000180 69 62 4b 40 99 e3 92 40 c8 54 3f 40
       3.1778815 4.590283 2.9895496

q_probs f4 [99]
000000 c2 13 7b 3f f7 0b 6d 3f 6f b7 55 3f 96 2c 7b 3f
       0.98077023 0.9259638 0.8348302 0.9811491
000010 ed 91 79 3f a9 79 7c 3f b9 72 70 3f a7 30 54 3f
       0.9748829 0.9862314 0.9392505 0.8288674
000020 91 8d 79 3f 2e 25 78 3f fc 60 8a 3c 56 3b 77 3f
       0.9748164 0.9693173 0.016891949 0.96574914
000030 f0 6e 77 3f 88 ae 78 3f 29 90 7a 3f de 49 79 3f
       0.9665365 0.97141314 0.9787622 0.9737834
000040 2f 8d 63 3f 77 48 7b 3f b9 60 75 3f 0d 77 78 3f
       0.88887304 0.9815745 0.9585071 0.9705666
000050 0e 52 79 3f 01 a0 71 3f c5 66 74 3f 6d 8a 7b 3f
       0.9739083 0.9438477 0.95469314 0.98258096
000060 24 87 2a 3d ae e1 0a 3d 9f 82 7c 3f 9a 8a 77 3f
       0.041632786 0.03390663 0.9863681 0.96695864
000070 ad 0f 6f 3f 13 34 ef 3b 75 e0 73 3f 29 17 7b 3f
       0.93383294 0.007299909 0.9526437 0.98082215
000080 bb cf 59 3f 9b d4 77 3f c7 ee 77 3f f3 58 cd 3d
       0.85082597 0.96808785 0.9684872 0.10026731
000090 7f 68 7a 3f 26 a6 75 3f 74 da 5b 3f bf 35 7a 3f
       0.978157 0.9595665 0.8588021 0.9773826
0000a0 4b 84 7a 3f 16 e4 5a 3f 77 34 6f 3f c5 ff be 3d
       0.97858113 0.8550428 0.9343943 0.09326128
0000b0 a4 31 67 3f ba 46 7c 3f 0d 56 75 3f ef 52 7a 3f
       0.9031012 0.9854542 0.9583443 0.97782797
0000c0 26 c0 79 3f da f7 78 3f c5 1c 7c 3f 8b 28 7b 3f
       0.9755882 0.9725319 0.984814 0.9810874
0000d0 3f 5c 7b 3f 75 93 77 3f db 62 74 3f c3 60 76 3f
       0.9818763 0.96709377 0.9546334 0.96241397
0000e0 32 31 69 3f 66 e3 77 3f 38 95 5f 3f a3 33 78 3f
       0.9109069 0.9683136 0.87337065 0.9695379
0000f0 47 d8 76 3f d2 1a 79 3f 54 36 5a 3f 60 15 6e 3f
       0.96423763 0.9730655 0.8523915 0.93001366
000100 1f 16 02 3d 4e ba 7b 3f 17 83 69 3f c1 b2 77 3f
       0.031759378 0.98331153 0.9121565 0.9675713
000110 0c 9a 76 3f 07 c4 78 3f 52 ec 71 3f 1f f3 7a 3f
       0.96328807 0.97174114 0.9450122 0.98027223
000120 6b 99 2d 3f 6b 59 7a 3f 8c 20 72 3f b1 8e 69 3f
       0.6781222 0.9779269 0.9458091 0.91233355
000130 98 bc 88 3e 7c 05 7c 3f 78 4c 7d 3f 98 50 73 3f
       0.26706386 0.9844587 0.9894481 0.9504485
000140 37 9b 74 3f f3 e1 7a 3f 15 3f 78 3f 71 f7 7b 3f
       0.9554934 0.9800102 0.96971256 0.9842444
000150 2a 64 69 3f a8 69 45 3f bc dd 73 3f 31 cf 73 3f
       0.91168463 0.77114344 0.95260215 0.95238024
000160 38 d6 79 3f bb 98 7b 3f bc 31 78 3f 6c ea 73 3f
       0.97592497 0.98279923 0.9695089 0.95279574
000170 40 82 01 3d 9c 7d 79 3f 81 88 78 3f 2a 3a 68 3f
       0.031618357 0.9745729 0.9708329 0.9071375
000180 90 c2 75 3f 7f 6d 7d 3f 5a bd 73 3f
       0.96000004 0.989952 0.952108

gamma f4 [100]
000000 00 00 80 3f 00 00 80 3f 00 00 80 3f 00 00 80 3f
       1.0 1.0 1.0 1.0
000010 00 00 80 3f 00 00 80 3f 00 00 80 3f 00 00 80 3f
       1.0 1.0 1.0 1.0
000020 00 00 00 00 00 00 80 3f 00 00 80 3f 00 00 00 00
       0.0 1.0 1.0 0.0
000030 00 00 80 3f 00 00 80 3f 00 00 80 3f 00 00 80 3f
       1.0 1.0 1.0 1.0
000040 00 00 80 3f 00 00 80 3f 00 00 80 3f 00 00 80 3f
       1.0 1.0 1.0 1.0
000050 00 00 80 3f 00 00 80 3f 00 00 80 3f 00 00 80 3f
       1.0 1.0 1.0 1.0
000060 00 00 80 3f 00 00 00 00 00 00 00 00 00 00 80 3f
       1.0 0.0 0.0 1.0
000070 00 00 80 3f 00 00 80 3f 00 00 00 00 00 00 80 3f
       1.0 1.0 0.0 1.0
000080 00 00 80 3f 00 00 80 3f 00 00 80 3f 00 00 80 3f
       1.0 1.0 1.0 1.0
000090 00 00 00 00 00 00 00 00 00 00 80 3f 00 00 80 3f
       0.0 0.0 1.0 1.0
0000a0 00 00 80 3f 00 00 80 3f 00 00 00 00 00 00 80 3f
       1.0 1.0 0.0 1.0
0000b0 00 00 00 00 00 00 80 3f 00 00 80 3f 00 00 80 3f
       0.0 1.0 1.0 1.0
0000c0 00 00 80 3f 00 00 80 3f 00 00 80 3f 00 00 80 3f
       1.0 1.0 1.0 1.0
0000d0 00 00 80 3f 00 00 80 3f 00 00 80 3f 00 00 80 3f
       1.0 1.0 1.0 1.0
0000e0 00 00 80 3f 00 00 80 3f 00 00 80 3f 00 00 80 3f
       1.0 1.0 1.0 1.0
0000f0 00 00 80 3f 00 00 80 3f 00 00 80 3f 00 00 80 3f
       1.0 1.0 1.0 1.0
000100 00 00 80 3f 00 00 00 00 00 00 80 3f 00 00 80 3f
       1.0 0.0 1.0 1.0
000110 00 00 80 3f 00 00 80 3f 00 00 80 3f 00 00 80 3f
       1.0 1.0 1.0 1.0
000120 00 00 80 3f 00 00 80 3f 00 00 80 3f 00 00 80 3f
       1.0 1.0 1.0 1.0
000130 00 00 80 3f 00 00 80 3f 00 00 80 3f 00 00 80 3f
       1.0 1.0 1.0 1.0
000140 00 00 80 3f 00 00 80 3f 00 00 80 3f 00 00 80 3f
       1.0 1.0 1.0 1.0
000150 00 00 80 3f 00 00 80 3f 00 00 80 3f 00 00 80 3f
       1.0 1.0 1.0 1.0
000160 00 00 80 3f 00 00 80 3f 00 00 80 3f 00 00 80 3f
       1.0 1.0 1.0 1.0
000170 00 00 80 3f 00 00 00 00 00 00 80 3f 00 00 80 3f
       1.0 0.0 1.0 1.0
000180 00 00 80 3f 00 00 80 3f 00 00 80 3f 00 00 80 3f
       1.0 1.0 1.0 1.0

KL_gamma_k f4 [99]
000000 52 ea 7a 47 aa e4 6c 47 cb 93 55 47 22 03 7b 47
       64234.32 60644.664 54675.793 64259.133
000010 b5 68 79 47 03 50 7c 47 e6 4a 70 47 41 0d 54 47
       63848.707 64592.01 61514.9 54285.254
000020 5a 64 79 47 2e fc 77 47 75 47 8a 44 79 12 77 47
       63844.35 63484.18 1106.233 63250.473
000030 0b 46 77 47 74 85 78 47 cc 66 7a 47 b2 20 79 47
       63302.043 63621.453 64102.797 63776.695
000040 5d 67 63 47 fe 1e 7b 47 24 38 75 47 00 4e 78 47
       58215.363 64286.992 62776.14 63566.0
000050 e1 28 79 47 00 78 71 47 56 3e 74 47 eb 60 7b 47
       63784.88 61816.0 62526.336 64352.918
000060 4a 68 2a 45 71 c8 0a 45 f7 58 7c 47 b1 61 77 47
       2726.518 2220.5276 64600.965 63329.69
000070 10 e8 6e 47 29 07 ef 43 1c b8 73 47 b8 ed 7a 47
       61160.062 478.05594 62392.11 64237.72
000080 71 ab 59 47 a8 ab 77 47 cf c5 77 47 87 34 cd 45
       55723.44 63403.656 63429.81 6566.566
000090 28 3f 7a 47 87 7d 75 47 d7 b5 5b 47 6f 0c 7a 47
       64063.156 62845.527 56245.84 64012.434
0000a0 ef 5a 7a 47 a0 bf 5a 47 d5 0c 6f 47 d6 dd be 45
       64090.934 55999.625 61196.832 6107.7295
0000b0 40 0b 67 47 1b 1d 7c 47 7a 2d 75 47 9a 29 7a 47
       59147.25 64541.105 62765.477 64041.6
0000c0 e9 96 79 47 bb ce 78 47 2d f3 7b 47 17 ff 7a 47
       63894.91 63694.73 64499.176 64255.09
0000d0 c3 32 7b 47 8a 6a 77 47 6d 3a 74 47 07 38 76 47
       64306.76 63338.54 62522.426 63032.027
0000e0 7f 0a 69 47 70 ba 77 47 05 70 5f 47 a1 0a 78 47
       59658.496 63418.438 57200.02 63498.63
0000f0 7a af 76 47 ad f1 78 47 fa 11 5a 47 ea ed 6d 47
       63151.477 63729.676 55825.977 60909.914
000100 72 fe 01 45 c5 90 7b 47 56 5c 69 47 d3 89 77 47
       2079.9028 64400.77 59740.336 63369.824
000110 48 71 76 47 ef 9a 78 47 45 c4 71 47 b3 c9 7a 47
       63089.28 63642.934 61892.27 64201.7
000120 35 7c 2d 47 15 30 7a 47 78 f8 71 47 ef 67 69 47
       44412.207 64048.082 61944.47 59751.934
000130 ea a4 88 46 e7 db 7b 47 b3 22 7d 47 54 28 73 47
       17490.457 64475.902 64802.7 62248.33
000140 c1 72 74 47 8a b8 7a 47 11 16 78 47 de cd 7b 47
       62578.754 64184.54 63510.066 64461.867
000150 6e 3d 69 47 9c 48 45 47 63 b5 73 47 da a6 73 47
       59709.43 50504.61 62389.387 62374.85
000160 f7 ac 79 47 37 6f 7b 47 ba 08 78 47 11 c2 73 47
       63916.965 64367.215 63496.727 62402.066
000170 ae 6a 01 45 68 54 79 47 72 5f 78 47 9d 13 68 47
       2070.6675 63828.406 63583.445 59411.613
000180 ed 99 75 47 b4 43 7d 47 05 95 73 47
       62873.926 64835.703 62357.02

weight f4 [10, 58]
000000 a9 4c a0 3d f3 21 eb bd bd f8 ca 3d 23 31 a2 3d
       0.07827122 -0.11481085 0.09910724 0.07919528
000010 c7 ff 31 3d b2 0b b3 3d ff 32 0b 3e 86 01 f7 bc
       0.04345682 0.08742465 0.13593672 -0.030152094
000020 1b f3 38 3e 0e 85 9e 3c 98 32 a2 3c 52 47 28 3e
       0.18061487 0.019350555 0.019799516 0.16433457
000030 22 36 be 3c 61 35 f0 3d 2f 10 21 3e 82 67 6c 3b
       0.023219172 0.11728931 0.1572883 0.0036072438
000040 ae c2 ee 3c c3 a2 13 3e 84 37 21 3d 85 0f b9 bc
       0.029145565 0.14417557 0.039359584 -0.022590408
000050 f4 90 e6 bc 60 ea 2d 3e fe 07 3a 3e ea f4 0b be
       -0.02814529 0.16983938 0.18167111 -0.13667646
000060 6c 77 b3 3c c2 03 32 3e 30 24 10 3e f7 16 df 3b
       0.02190753 0.17384246 0.14076304 0.0068081575
000070 12 ea f8 3c ba 88 4d 3e 2d c8 d0 bb 59 92 11 3e
       0.03038505 0.20071688 -0.006371519 0.14215983
000080 99 d4 eb 3d e7 d7 2f be 14 d3 59 bd 68 aa 95 3d
       0.11515159 -0.17172204 -0.053179815 0.07307893
000090 39 c1 b8 3a 07 47 bd 3d a0 3a 84 bd 77 1c 65 3c
       0.0014095671 0.09242063 -0.06456494 0.013983837
0000a0 b2 bb 92 bc cb e2 12 3e 26 4c 35 be c7 ac fc 3d
       -0.017911766 0.14344327 -0.1770483 0.12337642
0000b0 3c e6 b0 3d fc fd 44 3c 31 a1 02 3e de 78 83 3c
       0.08637664 0.012023445 0.12756802 0.016048845
0000c0 58 ef 99 3d 17 26 b3 3d b2 1f 9b 3d cf 22 19 be
       0.07516354 0.087474994 0.07574405 -0.14954685
0000d0 6d cb 12 bc bd 69 8d 3c 2a 8f 0e be 16 5e 32 3e
       -0.008959633 0.017262334 -0.139218 0.17418703
0000e0 8c 6c dd 3d a9 60 e1 3d 0e c7 3c 3e 42 b7 9c be
       0.10811719 0.110047646 0.18435308 -0.30608565
0000f0 d9 fc 7e 3e 08 42 a7 3e bf 55 79 bd c7 70 0e 3e
       0.24901141 0.32667565 -0.06087279 0.13910209
000100 f4 f2 5a 3e 27 6a 56 be 1a 96 9d 3e 48 17 64 3e
       0.21381742 -0.20938931 0.3077858 0.22274506
000110 3f 55 9d be c5 29 fa 3d 4d d4 89 3e 88 c1 0a 3e
       -0.307291 0.12214998 0.26919785 0.13550389
000120 ee 63 0d 3e 33 86 8d 3e 86 9b 4b 3e 70 b6 10 3e
       0.13807651 0.27641448 0.19883546 0.14132094
000130 a9 9f 06 3c 47 0b 93 bd 7d c0 c3 bd be fa 19 3e
       0.008216777 -0.07179885 -0.095581986 0.15037057
000140 08 cb 33 3e 89 13 c0 bd 6c ff 9e 3e a1 b6 44 3e
       0.17557919 -0.09378726 0.31054246 0.19210292
000150 b2 ed 1d 3e 03 18 54 3e c7 d0 f5 3d 3d 51 3f 3e
       0.15422705 0.20712285 0.12002712 0.18683334
000160 bf 57 4d 3e 19 6a 1b 3e 69 f6 c7 3d 2d c0 34 be
       0.20053004 0.15177192 0.09763796 -0.17651434
000170 87 29 0b 3e 31 22 70 bc 6e ba 12 bd 03 4a 20 3d
       0.1359006 -0.014656589 -0.035822324 0.039133083
000180 b6 24 66 be 35 29 5f be 5b d1 8c 3e c8 c3 6c 3e
       -0.22474942 -0.21793063 0.27503476 0.2312156
000190 17 7d 42 be 93 3b 0b 3e f1 72 86 3e c1 5b 0e be
       -0.1899303 0.13596945 0.26259568 -0.13902189
0001a0 5f bc 9f 3e f1 aa 4b 3d 3f d0 63 3e 18 2b 92 3e
       0.31198403 0.04972357 0.22247408 0.28548503
0001b0 28 8b fb 3d ad bf f2 bd 8b 2e 8c 3d a8 c1 2e 3d
       0.12282401 -0.118529655 0.06844815 0.042665154
0001c0 85 a8 6c be 13 18 35 3e 8d 6f cc 3d fc ce a0 3d
       -0.2311116 0.17684965 0.09982214 0.07851979
0001d0 bc 2d fc 3d 9c 25 32 bd 18 72 da 3d ec 87 64 bc
       0.12313411 -0.0434929 0.10666293 -0.013948422
0001e0 26 97 b2 3b 60 f6 83 3d e5 ab d0 bd 1c 56 e7 3b
       0.005450147 0.06443477 -0.10189036 0.0070598256
0001f0 0f b2 b6 3d 11 e2 89 3d 2d 3d c4 bc 3e fc 01 3c
       0.08920681 0.06732572 -0.023954952 0.007933674
000200 d9 58 80 3d 33 05 4a 3d cb aa 39 bd 5d 80 8c 3d
       0.06266946 0.049321365 -0.045328896 0.06860421
000210 9d 03 b1 bd 15 24 f0 3c 50 05 44 3b 2a 6a 82 bd
       -0.08643267 0.02931408 0.0029910393 -0.063679054
000220 ec 42 f2 bd 1c 1c fc 3d 67 d0 f7 3c 93 03 b5 bb
       -0.118291706 0.12310049 0.030250741 -0.0055241077
000230 3f 0f bf 3a b8 46 0e bd 03 ff a4 bd 6f ee 1e 3d
       0.0014576687 -0.03473541 -0.08056452 0.038801607
000240 1c ab a4 bd e0 b7 0e bd af 73 ac 3d 11 8a ed 3d
       -0.08040449 -0.034843326 0.084205024 0.115986
000250 ad 7f 13 bd b6 92 02 be 53 5b 16 3e 5d 29 44 3d
       -0.036010433 -0.12751278 0.14683275 0.04789101
000260 15 f3 15 3e 51 c0 08 bc b9 ac 4f bd ef d6 c2 bb
       0.1464351 -0.008346633 -0.05070183 -0.0059460322
000270 3f a9 4c 3d b8 35 b5 3c e4 33 aa bd 5e b2 e1 3d
       0.049966093 0.022120342 -0.083106786 0.11020349
000280 a8 f2 ab 3d bd fb e5 bc de ef b5 bd b9 2a 2b be
       0.083958924 -0.02807414 -0.08883642 -0.16715516
000290 ea 38 c9 bc f2 23 b2 bb 36 dc 14 3d 45 0b 05 bd
       -0.024563272 -0.005436414 0.036342822 -0.03248145
0002a0 c8 24 15 3d 7c dd 1e bd e8 03 46 bd 95 17 9a 3d
       0.03641203 -0.038785443 -0.04834357 0.07524029
0002b0 35 68 db 3d e0 13 99 bd cf 76 c1 3d 2b a8 bd bc
       0.10713235 -0.07474494 0.09446489 -0.023151478
0002c0 cd 81 8c 3d 23 b4 e3 3d 92 53 57 3c 4e a5 2a bd
       0.06860695 0.11118343 0.013142483 -0.041661553
0002d0 74 07 1e 3e b9 55 40 be 73 cf df 3d 8a 12 14 3e
       0.1543253 -0.187827 0.1092824 0.14460197
0002e0 22 61 0a be 59 f9 b3 3d b1 dc 19 bd d0 8f 8d 3d
       -0.13513616 0.08787794 -0.037563983 0.06912196
0002f0 c7 38 ef 3d 36 2b 0c 3e 55 a9 d7 3d 33 3a 93 3d
       0.11680751 0.13688359 0.105303444 0.07188835
000300 ac 8b 44 bb a9 f1 9e 3c 85 a7 25 bd bb 47 05 3e
       -0.0029990477 0.019402342 -0.040442962 0.13015644
000310 82 44 13 3e 48 f0 d6 bd 4d 57 95 3d 99 6b 46 3e
       0.14381602 -0.10495049 0.07292042 0.19376983
000320 a8 85 46 3e a2 e1 2e bd db b3 b6 bc 1e b4 45 3d
       0.19386923 -0.04269565 -0.022302559 0.048267476
000330 9e 39 e8 3d b4 18 4d 3c 16 54 e6 3d c0 5e 33 be
       0.113391146 0.012518097 0.11246507 -0.17516613
000340 01 75 8c 3d 70 94 d1 3d 25 23 2c bd 65 6a ac 3c
       0.06858254 0.1023339 -0.042025704 0.021046827
000350 50 23 80 bd e7 97 66 3c 05 23 e4 3d 9b 1b a5 3d
       -0.06256735 0.014074302 0.11139492 0.08061906
000360 91 bf a4 bd 4d 72 d5 bc 76 56 25 3d 49 3a 2f 3d
       -0.08044351 -0.02605548 0.04036566 0.042780194
000370 38 eb 54 3a 83 8c 92 3b 6f 8d 22 3d c9 51 fa 3d
       0.00081222085 0.0044723167 0.039685663 0.122226305
000380 a7 d4 ed 3d 7f 41 14 3c 3e fa 8c bb 23 7d 9d 3c
       0.11612826 0.009048819 -0.004302292 0.019224709
000390 8e bd 2c be 7b 06 d8 3d 70 9b ee 3b 9e f9 55 3d
       -0.16869184 0.10548111 0.007281713 0.052240007
0003a0 e7 ca 10 3e 14 15 7c be 15 93 0c 3e 60 f9 10 3e
       0.14139901 -0.24617416 0.13727982 0.14157629
0003b0 95 d2 66 bd 05 22 85 3e 02 3d 48 3e 51 54 8a be
       -0.05635317 0.26002517 0.19554523 -0.27017453
0003c0 11 3d ac 3e cc 38 5b 3e 0a 66 59 be 5d d0 b8 3e
       0.3364034 0.21408385 -0.21230331 0.3609647
0003d0 c9 1e b3 3e 88 36 ec 3d 2d d4 08 3e 73 10 62 3e
       0.34984425 0.115338385 0.13362189 0.22076587
0003e0 d2 26 fe 3d 7f e1 39 3e 09 9f 09 3c 44 8d d6 bd
       0.12409748 0.18152426 0.008399733 -0.10476163
0003f0 b4 d0 26 be 68 04 b3 3e ee 06 70 3e bf 39 45 be
       -0.16290551 0.349643 0.23440143 -0.1926031

bias f4 [10]
000000 f6 70 15 be 18 f1 54 be d2 c0 84 3c 57 4a 2c be
       -0.14593872 -0.20795095 0.016205225 -0.16825233
000010 8a cc db be 05 65 6a bd 37 27 08 be f0 5f 86 be
       -0.42929488 -0.057225246 -0.1329621 -0.2624507
000020 4b 9d 88 be a9 28 93 bd
       -0.26682505 -0.0718549

weight f4 [10, 10]
000000 84 70 49 3e b8 8f 6d 3d a1 5f 41 bd 84 be 3c 3e
       0.19671828 0.05799839 -0.04721034 0.18432051
000010 59 cd 39 be 45 c8 15 be f9 06 f9 3c a1 df 8f be
       -0.1814474 -0.14627178 0.030398833 -0.28100303
000020 fc 88 29 3e 2b de 81 3d 90 a3 f4 3e 03 43 9c 3d
       0.16556162 0.06341203 0.47781038 0.07629969
000030 b6 f6 80 3e 34 5f ca 3e a4 76 6b be c0 c2 75 3e
       0.25188226 0.3952576 -0.22994477 0.24000072
000040 45 7a 97 3e 88 a3 22 be 5e fa cd 3e 1f dd b4 3e
       0.29585472 -0.15882695 0.40230078 0.35324952
000050 59 a7 3a be 44 12 b9 bd 6f 7a 46 3e 92 0c 6a 3e
       -0.182279 -0.09036687 0.19382642 0.22856358
000060 8b 56 cb 3e 8a 10 8b 3e 9e 54 63 3c e9 6f 97 3d
       0.39714465 0.27161056 0.013875155 0.07394392
000070 21 35 42 be a6 66 f9 3d 41 78 d8 be 5a 65 c2 be
       -0.1896558 0.12177782 -0.42279246 -0.3796795
000080 7e b8 01 bf c0 6f 03 bf 1e 9b aa be 71 cd d0 be
       -0.5067214 -0.5134239 -0.3332147 -0.4078174
000090 66 f1 cc be 6a 0f 82 bd 61 53 16 bf a8 d5 26 be
       -0.40027922 -0.06350596 -0.58720976 -0.16292441
0000a0 ff e2 7c bc ba d6 f5 3d 98 d2 cd bd d0 aa 16 be
       -0.015434979 0.120038465 -0.10049933 -0.14713597
0000b0 89 db 46 3e 0c 93 ac 3e c2 50 85 3e 05 ef 14 3e
       0.19419684 0.33705938 0.26038176 0.14544304
0000c0 02 84 33 3e 47 c7 73 bb 05 16 14 3d 4b 0a 2b be
       0.17530826 -0.0037197636 0.036153812 -0.16703145
0000d0 d7 9e ca be 96 a0 8c 3e 16 92 a0 3d 9b 99 ec 3d
       -0.3957431 0.27466267 0.07840364 0.115527354
0000e0 8d 06 26 be 7a b2 1d be 8f 43 14 be f8 cc 5e be
       -0.16213436 -0.15400115 -0.14478897 -0.21757877
0000f0 3c 8d aa be a4 46 17 bd 70 36 da be 3a e0 fc 3c
       -0.33310878 -0.036932603 -0.42619658 0.030868638
000100 ab f4 44 3d bc 6d 2b bd cb 6e 7a be 45 8f 38 3d
       0.048084896 -0.041852698 -0.24456327 0.045058507
000110 1f 29 1a 3c 80 bb 03 bf 74 45 75 3e 47 fa 42 be
       0.009409218 -0.5145798 0.23952276 -0.19040786
000120 7a 14 41 3d 67 49 75 3e e7 48 8a be 8d ec 14 3e
       0.04713867 0.23953782 -0.27008745 0.14543362
000130 86 de 87 bc 46 8a dc 3d cc b2 9c 3a 4e 6f 83 3d
       -0.0165856 0.10768561 0.0011955141 0.06417714
000140 43 b4 c3 3e e7 50 f7 3d 34 52 c6 3e d0 36 4b 3b
       0.38223466 0.12075978 0.3873459 0.0031008013
000150 46 c4 a9 be a2 49 ab bd 7d bb 4b 3e aa 91 91 3e
       -0.33157557 -0.08363654 0.1989574 0.28431445
000160 15 9d 52 3e b4 70 fe bc ca 60 e6 be 81 c2 a5 be
       0.20567735 -0.0310596 -0.4499572 -0.32374957
000170 ad 0a 00 bf b8 1a b7 be e1 86 4f be 54 78 a1 3d
       -0.5001629 -0.35762572 -0.20266296 0.07884279
000180 df bc 85 3d 0d 03 e1 be 66 e4 02 bc 4f f0 01 be
       0.06530165 -0.4394764 -0.007989025 -0.12689327

bias f4 [10]
000000 85 f4 93 be fa 88 1b 3d 34 e1 af 3d 2c 42 2d bf
       -0.2889749 0.037972428 0.08587876 -0.67679095
000010 fb 0b c9 3d 20 cf 2e 3d 49 b8 0a bf 73 f6 2d bd
       0.09816738 0.042678 -0.54187447 -0.04247136
000020 cb 14 0d 3e 69 c2 1b bf
       0.13777463 -0.6084352

weight f4 [1, 10]
000000 f9 cd 84 be 59 e9 a7 3d 4f a1 20 bd f1 a1 a3 3b
       -0.25938395 0.081988044 -0.039216336 0.00499367
000010 24 ec 71 bc 53 cf 9b 3d d8 67 30 3a c3 0a 42 be
       -0.014765773 0.07607903 0.0006729341 -0.18949418
000020 4a a6 ed 3c c2 72 89 3c
       0.029009957 0.016778354

weight f4 [1, 10]
000000 1e 85 a2 be 2b 8f 6f bf d9 a4 2e bf f3 b7 01 bf
       -0.31742185 -0.9357783 -0.6822029 -0.5067131
000010 a2 f5 39 bf 44 d2 25 bf 68 52 da be 66 b7 f5 be
       -0.7264043 -0.64773965 -0.42640996 -0.47991484
000020 e9 19 50 bf 65 1b 00 bf
       -0.81289536 -0.500418

prior_mean f8 []
000000 16 af c4 eb 91 66 12 c0
       -4.600166019324908

weight f4 [50, 58]
000000 de 30 8a 3e 2f 96 02 3b 0e fe 43 3f b8 6c 03 bc
       0.26990408 0.0019925942 0.7655953 -0.008021526
000010 ba 68 0f 3f d2 41 a0 bd 38 4d b2 3d 7b ef 73 be
       0.56019175 -0.07825054 0.087061346 -0.23821823
000020 4a e1 91 3e 45 0f 27 3f 98 a0 87 3d cb 93 28 3e
       0.28492194 0.65257674 0.06622428 0.16462629
000030 31 b0 2d bd 57 62 18 3f 42 76 1b bd 81 1d 9e 3c
       -0.042404357 0.59525055 -0.037954576 0.019301178
000040 94 dd d8 3e ff 1a e6 3e 6b 4e 0d 3f c0 20 0f 3d
       0.4235655 0.4494247 0.5519778 0.034943342
000050 8a e9 ef be 41 7e 6e 3d 7d 98 06 3e d7 3a 28 be
       -0.46857864 0.058225874 0.13144107 -0.16428696
000060 73 62 13 3d cb 70 9d 3e 79 d9 2a 3d 4a 43 09 bf
       0.03598256 0.30750117 0.041711304 -0.536183
000070 91 1c ad 3c 49 28 94 bd 5f a2 f1 3d a9 c8 01 3e
       0.021131786 -0.07234246 0.11798548 0.12674202
000080 f9 bb 82 be e6 60 9e 3e 84 14 ab 3d 8b 10 dd be
       -0.25534037 0.30933303 0.083535224 -0.43176684
000090 c7 22 18 3f 3a e6 6f 3d 80 27 b4 bd 79 9f d0 be
       0.59428066 0.05856917 -0.087965965 -0.40746668
0000a0 45 ef 55 3c 87 09 2e 3e 0a 72 a0 be ee bd c4 be
       0.013057535 0.16995822 -0.31337005 -0.38426155
0000b0 53 0d ba 3e 7c 68 45 3e a5 a0 f5 bc 07 e2 34 3c
       0.3633829 0.19278139 -0.029983828 0.011040217
0000c0 81 ce 50 bd b1 cf 0a 3d ea 68 de be ea ee 16 be
       -0.050978187 0.033889476 -0.43439418 -0.14739576
0000d0 4b 85 eb be 5d ff be 3e 6f 5f 06 be ee 30 40 bd
       -0.46000132 0.37304202 -0.13122343 -0.046921663
0000e0 ba 97 80 be d1 d4 5f 3f 12 40 1f be 32 17 31 3e
       -0.25115758 0.8743411 -0.15551785 0.17294005
0000f0 71 20 44 be 3b 5e 00 3f 26 52 8c be 57 b3 11 3c
       -0.19153 0.50143784 -0.27406424 0.008892856
000100 b0 4f 5b 3d b6 92 a5 bc 8f cc 0a b6 a6 41 cd bd
       0.053542793 -0.020211559 -2.0682671e-06 -0.10022287
000110 58 2f ae bd 34 73 99 bd 82 44 f3 3c d8 ec f2 3d
       -0.08505124 -0.074926764 0.029695753 0.118615806
000120 d9 92 9f be b0 f5 25 be 2b db 1f 3d 53 32 87 bd
       -0.31166723 -0.16207004 0.039027374 -0.066013955
000130 21 1a 45 be 91 ca 0e 3e 92 c6 b3 bc 7d 61 1a 3a
       -0.19248249 0.1394446 -0.021945272 0.00058891607
000140 ae 47 be 3e 02 72 fc bc d4 b5 35 3c 3f fa 83 3d
       0.37164062 -0.030816082 0.0110907145 0.06444215
000150 a2 0b 1b 3d cd 1c 7f 3f 5f 75 d5 3d c1 b0 3d 3e
       0.03785289 0.9965332 0.104227774 0.18524458
000160 2d 65 e1 bc 55 cc e5 3e 3d 1d a6 3d bd ec e2 be
       -0.027514065 0.44882455 0.081110455 -0.44321242
000170 b0 8a 88 bd 20 6c 1a 3d 89 55 45 3d 77 6b 84 bd
       -0.066670775 0.037700772 0.048177276 -0.0646581
000180 c7 d8 24 be d8 61 86 be 9b 6f 99 3d 7c 4d 10 be
       -0.16098319 -0.26246524 0.0749199 -0.14092058
000190 6f 7d 8d bd 71 32 10 3e af 07 2b bd 51 99 2b be
       -0.0690869 0.14081742 -0.041755375 -0.16757704
0001a0 e5 0e b4 3e 4b 32 21 3e 67 ab 62 3c d9 0e 2c 3e
       0.35167614 0.15741841 0.013834811 0.16802539
0001b0 bd 3e 4d 3e 0d 63 e5 be a4 9b 22 3f a1 e6 68 bd
       0.20043464 -0.44802132 0.6351874 -0.05686057
0001c0 94 8f ad 3c cd 48 fc 3c 7f 00 b6 3e 02 83 4c be
       0.021186627 0.030796433 0.35547253 -0.1997185
0001d0 b2 8e d6 3e c1 b1 dd be fc 2d 34 be 47 15 08 3e
       0.41905743 -0.43299678 -0.17595667 0.13289367
0001e0 c4 d5 db be 6d a3 db 3e 33 34 92 3e 3b 4b 5a 3d
       -0.42936528 0.4289812 0.2855545 0.0532944
0001f0 79 f2 c8 3e 15 30 d4 3b 6b 4c 77 be ac ed bb 3e
       0.39247492 0.0064754584 -0.24150245 0.36704767
000200 7e f4 d4 3e 21 c4 13 bc 78 35 d9 3e 53 2f 78 3e
       0.41592783 -0.009018929 0.42423606 0.24236803
000210 d9 7d be bb d5 ad 81 3e 23 b1 08 be 99 0e 55 be
       -0.005813342 0.25327936 -0.13348822 -0.2080635
000220 f8 66 1e bd 2c 83 b1 3e 03 b7 e1 bd 25 48 73 3c
       -0.038672417 0.3467039 -0.11021235 0.014848744
000230 57 02 95 3e 47 22 ec 3d d7 da 83 3c f4 56 89 be
       0.29103348 0.115299754 0.016095562 -0.26824152
000240 29 4e 0a 3e 42 df 50 3e 14 f4 d5 3e 40 77 56 3d
       0.13506378 0.20397666 0.4178778 0.05235982
000250 0e 2b 15 bd 32 e7 24 3d f3 fd cd 3e 7f 03 b2 3e
       -0.036418013 0.040259548 0.4023281 0.34768292
000260 db 01 26 3e 89 f2 98 3d f2 8c 14 3e 1e d4 26 be
       0.16211645 0.07468135 0.14506891 -0.16291854
000270 c1 e8 8f 3e b4 12 c9 3e c5 a0 86 bc 36 1d 77 bd
       0.28107265 0.39272082 -0.016434083 -0.060330592
000280 9f 45 2a 3d 8a e8 80 3d 6d cb bc 3d 02 88 6c 3e
       0.041570302 0.06294353 0.09218488 0.23098758
000290 91 a4 b9 3e 94 f9 c5 bc 07 ab 66 be eb 5a 0d 3e
       0.36258367 -0.02416686 -0.22526179 0.13804214
0002a0 2b ca 70 be 95 17 c9 3d 06 aa c3 be 60 34 d7 3c
       -0.23514621 0.09818951 -0.38215655 0.026270092
0002b0 65 7f 58 3e 92 d0 be be ed 50 0c be b9 f0 bf 3e
       0.21142347 -0.37268502 -0.13702746 0.37488344
0002c0 7d 8c 3f be c2 a1 0f 3f 80 ab 88 be 4a b9 18 be
       -0.18705936 0.561062 -0.26693344 -0.14914432
0002d0 ad 6b 03 3d 97 3f 46 3e dc 2e 2b be 72 96 a9 be
       0.03208511 0.19360195 -0.16717094 -0.33122593
0002e0 48 d1 92 3d 53 65 a7 3c 64 11 fc bd e0 ac 3d 3d
       0.071688235 0.020434057 -0.123080045 0.046307445
0002f0 d6 a4 c4 be b1 f4 73 be 3d 2e 8f 3d 24 57 bc bc
       -0.3840701 -0.23823811 0.06991241 -0.02299077
000300 e7 71 4a be 1f 41 0a 3e d9 8a ee ba 12 32 df bc
       -0.19770013 0.13501404 -0.0018199339 -0.027245555
000310 ab d7 9e 3e be c2 d5 be d6 89 e1 3c 8f ee 84 3e
       0.31023917 -0.4175014 0.027531546 0.25963256
000320 f6 e7 d9 3d b7 af 49 3f 38 a2 80 3c 59 95 93 3d
       0.10639946 0.78783745 0.015702352 0.0720622
000330 9a 01 43 be 0e ef 74 3e 26 ae 10 3e 0b ad 19 bf
       -0.1904358 0.23919317 0.14128932 -0.6002967
000340 4b 4d 45 3c 25 5f f3 3b d1 d7 11 3e 61 95 ba bd
       0.012042354 0.0074271136 0.14242484 -0.09110523
000350 97 64 8e be 98 13 f2 be 0d f0 10 be dc 46 89 be
       -0.2781112 -0.47280574 -0.14154072 -0.26811874
000360 26 3e 87 bd 8a b8 26 3c ef a2 14 3d 66 41 bd bd
       -0.06603651 0.0101758335 0.036288198 -0.092409894
000370 37 e1 16 3f 36 9e b3 3e cf 50 24 3c 12 40 b1 3e
       0.589374 0.35081643 0.010029032 0.34619194
000380 04 1e dd bd fd 84 e8 be a4 50 54 3f 2a 58 62 be
       -0.10796741 -0.45413962 0.8293555 -0.22103944
000390 0d 8e 21 be c9 79 08 be f1 33 f3 3e 5f e9 45 be
       -0.15776844 -0.13327707 0.47500566 -0.19327305
0003a0 e7 fe 03 3f 4d 73 e0 be db 2d 4a bd 59 cd cb 3d
       0.51560825 -0.43837968 -0.049360137 0.09951276
0003b0 f9 a3 ef be 9c 6b a0 3e eb eb 68 3e f4 58 03 be
       -0.4680479 0.313321 0.22746246 -0.12826902
0003c0 d3 b3 09 3f b7 13 21 3e 43 ae 92 3e 75 d7 9b 3e
       0.53790015 0.15730177 0.28648576 0.30437818
0003d0 6d 87 96 3d 15 b4 57 3d ef f1 e5 3d 2d 53 6e 3e
       0.07350049 0.052661974 0.11227786 0.23273917
0003e0 f2 c0 f4 3e f3 40 be bb 24 5b 97 be 90 5f 8e 3e
       0.47803456 -0.0058060824 -0.29561722 0.27807283
0003f0 41 d9 f9 3d 8d 04 a8 3e 31 d5 f0 bc d8 65 fb be
       0.12199641 0.32815972 -0.029398533 -0.49101138

bias f4 [50]
000000 b1 45 2b 3d f9 fd b6 be 82 98 1c be a1 b6 e7 bd
       0.04181451 -0.3574064 -0.15292552 -0.113141306
000010 69 a8 b6 3d 87 e5 c6 bd 6c e4 50 be 81 de 79 be
       0.089188404 -0.097117476 -0.20399636 -0.24401285
000020 c8 44 1e bc cb ab 67 be 74 c6 03 3d ec 00 65 bd
       -0.009659953 -0.22624128 0.03217168 -0.055909082
000030 c4 fb 0b be ca 56 90 be c0 55 1e be 34 6f 3d 3c
       -0.1367026 -0.28191215 -0.15462399 0.011562157
000040 e5 02 a6 be 85 39 48 bd 8e 73 58 be a8 9a 80 be
       -0.32424083 -0.04888298 -0.2113783 -0.25117993
000050 ff 94 90 be c8 a3 a2 be 78 4a 39 be a2 69 77 be
       -0.28238675 -0.3176558 -0.18094814 -0.2416139
000060 13 d7 63 be d7 a7 3f be 79 5e 51 be cf a7 87 be
       -0.22250013 -0.1871637 -0.20446195 -0.26495215
000070 01 4e d1 bd 86 d9 9a bd 6c 98 b9 3e 4f 87 71 3e
       -0.10219956 -0.075610206 0.362491 0.23586772
000080 e2 c7 83 be 5f 79 ef be cc 0e 45 be 51 ec 5c be
       -0.25738436 -0.46772286 -0.19243926 -0.21574523
000090 c7 66 8c be f6 15 8f be 52 6b 3f be 54 ca ba be
       -0.27422163 -0.27946442 -0.18693283 -0.3648249
0000a0 27 7b ba be 19 7a 70 3e 00 af 90 be 0c c1 6f be
       -0.36422083 0.23484077 -0.28258514 -0.23413485
0000b0 9c 0f 38 be 07 56 a1 be 9c 4e 94 bd 6f d3 31 be
       -0.17974705 -0.31510946 -0.07241556 -0.17365812
0000c0 e9 ab 84 be eb db 1b be
       -0.25912407 -0.15220611

weight f4 [50, 50]
000000 47 0d 78 be d2 72 1f 3e b2 71 12 be e6 78 5e 3e
       -0.24223815 0.15571144 -0.14301184 0.21725807
000010 30 17 70 be 32 87 84 be f2 8c 0a be 71 1e db bd
       -0.23446345 -0.25884396 -0.13530329 -0.106991656
000020 be 19 85 be b8 a8 27 be 87 03 ad be 77 17 a9 3d
       -0.25996202 -0.16372955 -0.33791754 0.08256429
000030 87 9b a4 3d af 30 20 3e e3 e7 fe 3d d3 f6 35 3d
       0.08037477 0.15643571 0.12446573 0.044424843
000040 04 63 93 be 89 fa b3 be 4e 77 8e be 96 c3 18 3e
       -0.2878648 -0.3515208 -0.27825397 0.1491836
000050 0c 29 d5 bc b9 39 dd bd 68 bf 2e bc b5 d3 4c bd
       -0.02602055 -0.10802025 -0.010665752 -0.050006587
000060 4d 15 00 be 85 2e 29 3d 00 94 ca 3d 7d 52 f4 bd
       -0.12508126 0.04130413 0.0989151 -0.11929796
000070 69 26 d0 bd 8a 72 35 3e b9 be c9 be bd 2f 3f bf
       -0.10163576 0.17719474 -0.39403322 -0.7468222
000080 93 ac 99 bc 01 88 32 3d 33 29 aa be 22 c6 b7 bd
       -0.018759048 0.043586735 -0.33234558 -0.08973338
000090 78 bd 0c be f7 9c 01 3d af 72 06 bf ac 7e 45 bd
       -0.13744152 0.031643834 -0.52518743 -0.048216507
0000a0 0a eb 88 ba 43 e0 81 be e1 37 e1 3d 7d d8 1f 3e
       -0.0010446024 -0.2536641 0.10996986 0.15609927
0000b0 9c 25 4d be 84 8a 67 be 99 c2 0c 3e 34 8e 5f bd
       -0.20033878 -0.22611433 0.13746108 -0.054578975
0000c0 55 7b b8 bd 26 e6 89 be ba 53 a2 be 2c 27 eb 3d
       -0.09007899 -0.26933402 -0.31704503 0.11482081
0000d0 25 a2 39 be 21 5e 2c bd 9a 67 41 be d2 5d 74 be
       -0.1812826 -0.042081956 -0.18887177 -0.23863915
0000e0 00 9b 1d be 9e 02 89 bd ef 7e 30 be 60 19 c4 bd
       -0.15391159 -0.06689952 -0.17235921 -0.095751524
0000f0 94 6f 78 be 50 8f fc bd 87 75 c2 bc 29 d9 fc bc
       -0.24261314 -0.12332022 -0.023737682 -0.030865269
000100 d4 26 89 bd cb 67 a6 be b8 4d cf bd 7d 3c 89 be
       -0.06696859 -0.32501063 -0.101222456 -0.2680396
000110 a1 b3 28 bb 33 7f c2 3d e4 ee 0e 3e 03 11 03 3a
       -0.0025741833 0.094969176 0.13958317 0.00049997884
000120 e9 42 ed bc 71 1e d9 3d af 84 f8 bd cf 5f b5 3d
       -0.02896257 0.10601509 -0.121346824 0.08856165
000130 8e ca 9c 3c 4d 9e a5 bd 7e b1 04 be 90 51 ec 3d
       0.019139554 -0.08086834 -0.12958333 0.11538994
000140 cf 35 ea bd 46 a1 e7 be 6d 84 35 3d b4 88 ab bd
       -0.114360444 -0.4524023 0.044315744 -0.083756834
000150 4e d9 4a be 0b d8 4b bd e6 5e 92 3c a0 54 1d be
       -0.19809458 -0.04976658 0.017867517 -0.15364313
000160 e7 c8 33 be fe 80 c6 bc 17 6e 91 3d cf 12 e2 be
       -0.17557107 -0.02423143 0.07101076 -0.44154975
000170 ec 6c 16 bd 36 b0 b8 3d bd 9f c9 bd 6d b2 7b bd
       -0.03672497 0.090179846 -0.09844921 -0.061449457
000180 38 28 d8 3d 40 de 87 3d 04 15 83 bc da e6 75 bc
       0.10554546 0.06634188 -0.016001232 -0.015008653
000190 6d 01 38 be b1 5b ad bd 44 c7 5a be 2f d3 2b bd
       -0.17969294 -0.084647544 -0.21365076 -0.041949447
0001a0 ef 99 76 bd 4c 7a 98 bc 34 5c 12 be 46 86 bd bc
       -0.060205396 -0.018613003 -0.14292985 -0.023135316
0001b0 a5 09 f1 bd 0e cd 99 be f5 45 a9 be 28 88 bf bd
       -0.11769418 -0.30039257 -0.33061185 -0.093521416
0001c0 bb 53 e3 bd a9 57 7c 3d 29 09 70 bc 58 05 40 be
       -0.11099955 0.061607037 -0.014650621 -0.18752038
0001d0 fa 47 e7 bd e1 e4 f2 bd f2 67 13 be fa 4f d5 bc
       -0.11293025 -0.118600614 -0.1439512 -0.026039112
0001e0 1d d9 20 be fc 1a 48 be c1 b5 af 3c a1 d9 b5 bd
       -0.15707822 -0.19541544 0.021448972 -0.088794
0001f0 39 f9 61 bd f0 c0 20 be 43 a7 2e be 45 91 39 be
       -0.055169318 -0.156986 -0.17055993 -0.18121822
000200 65 e0 2a be e6 18 4b be 82 33 4d bd f7 f5 9d be
       -0.16687162 -0.19833717 -0.05009795 -0.3085172
000210 70 26 ce bb 59 32 64 bb f5 b6 4f be 48 ab 15 bd
       -0.006291203 -0.0034820049 -0.20284636 -0.0365403
000220 6a 2d 5f be c1 64 75 bd c4 44 7e be 81 fd 89 bc
       -0.21794668 -0.05991054 -0.2483092 -0.016844513
000230 ff 81 2b be 36 6f bf be 51 28 b7 bd 94 0a 39 be
       -0.16748808 -0.37389535 -0.089432366 -0.18070441
000240 90 b9 fe bb 89 1d dd bd 46 d5 24 be af e9 f8 3c
       -0.0077735856 -0.10796649 -0.16096982 0.030384867
000250 44 f4 a5 be 83 68 91 be a9 08 be be 33 ca 32 be
       -0.32412922 -0.2840005 -0.37115982 -0.17459945
000260 96 b2 e6 bd 53 95 aa be 3d bb 38 bd 51 38 95 bd
       -0.11264531 -0.3331705 -0.04510044 -0.07286132
000270 49 c4 c8 3c bc 84 66 3d da 16 33 be 2e c4 1e be
       0.024507659 0.05627893 -0.17489186 -0.15504524
000280 c7 0d 31 be a7 f2 6c be fb 18 18 be 03 be 8c bd
       -0.17290412 -0.2313944 -0.1485328 -0.06872179
000290 0f 2a cd 3c 87 5b 7f be a5 6e bf bb c7 5f 7b bd
       0.02504447 -0.24937259 -0.0058420473 -0.061370637
0002a0 62 e7 82 be 46 7f ee bd e1 e8 62 be fa 0c b3 bd
       -0.25567156 -0.11645369 -0.22159149 -0.087427095
0002b0 47 cd 3e bd 82 b6 19 be 23 5e 50 be 83 1a 2a be
       -0.046582486 -0.15011027 -0.2034841 -0.16611676
0002c0 60 fa 86 bd f1 98 20 be 86 fb a0 be 80 18 a0 be
       -0.06590724 -0.15683343 -0.31441897 -0.31268692
0002d0 65 eb f5 be ee 49 41 be 85 57 6c bc 45 74 01 3d
       -0.48031154 -0.18875858 -0.014425163 0.031605024
0002e0 30 df d3 bd aa 5d 3b be 78 c7 9c bc f7 d9 dd bd
       -0.10345304 -0.18297449 -0.019138083 -0.10832589
0002f0 f5 7c ad be af f5 58 be fe fd 2d be 31 66 4d be
       -0.33884397 -0.21187471 -0.16991422 -0.20058514
000300 45 6a 3e bd 1a 41 a7 be ce a3 2c be 19 b5 68 be
       -0.046488065 -0.32666856 -0.16859362 -0.22725333
000310 9f 6c e4 be e5 da 01 bd c1 ea 4c be 23 89 c1 be
       -0.4461412 -0.031702895 -0.20011427 -0.3779994
000320 27 79 c7 be 3e 67 20 be a5 36 65 be 4f 86 d1 bd
       -0.3895962 -0.15664384 -0.22384126 -0.102306955
000330 2e 01 43 be 99 a7 a6 3d dd 6d 5a 3d 0f 2b 32 3e
       -0.19043419 0.081374355 0.05332743 0.17399238
000340 db e3 1f 3d 40 00 57 3e 73 13 55 3c 06 28 ee be
       0.03903566 0.20996189 0.013005125 -0.4651491
000350 15 bf 71 3d 69 ff b5 be b6 bb 30 be 6d 62 24 be
       0.05902012 -0.35546425 -0.17259106 -0.16053171
000360 48 ef cd bd 44 ac ed be 64 f1 d0 3c 33 ff 5f be
       -0.10055405 -0.4642049 0.025505729 -0.21874695
000370 3a f5 88 3d 15 05 38 3e e1 eb dd 3d de 8e 72 3d
       0.06687398 0.17970689 0.10836006 0.05921828
000380 dd 47 9d 3d f9 c3 00 be 49 ba 81 be b3 7b 5a be
       0.076797225 -0.12574758 -0.25337437 -0.2133625
000390 be 9a ae be d3 9d a5 be 6e 0c 42 bf 3e 6a b5 3e
       -0.34102434 -0.32346973 -0.75800216 0.3543262
0003a0 6d 79 0d bd e2 28 6b bd 79 20 46 3d 7f 7a c1 be
       -0.03453963 -0.057412036 0.048370812 -0.3778877
0003b0 a3 36 2a 3e 74 b4 26 3e 07 f5 3f bd ea ef 70 3d
       0.16622405 0.16279775 -0.046864536 0.05882255
0003c0 fb 6b 28 be 58 80 30 bf ea 7d a6 bd db 1d 9b be
       -0.16447441 -0.6894584 -0.08129485 -0.30296215
0003d0 87 af 0b 3e e5 fb 02 3c 86 d7 e9 bd 07 35 9e bd
       0.13641177 0.007994627 -0.11418061 -0.07724958
0003e0 08 2a 59 3e 1d 53 0c bc 26 7e a6 be 7b 73 14 be
       0.2120744 -0.008564738 -0.3251812 -0.14497177
0003f0 7e f6 9d bd 97 e6 00 be c4 7d 3f be 76 ec 9d 3c
       -0.0771303 -0.12587963 -0.1870032 0.019277792

bias f4 [50]
000000 a1 7d d5 bd ab 68 70 be b9 fb 5b be 00 4b af be
       -0.104243524 -0.23477428 -0.21482743 -0.34236908
000010 0f 6d 5f be 00 45 87 bd 5e 79 e2 bd be ce 61 be
       -0.21818946 -0.066049576 -0.11058305 -0.22051522
000020 4a b8 1d bd 71 f3 94 be c8 f2 b1 be 25 08 dd bd
       -0.03850583 -0.2909198 -0.3475554 -0.10792569
000030 1e b8 2b 3d 8c df c6 be 41 52 a9 be b8 f9 3c be
       0.041923635 -0.38842428 -0.33070567 -0.18454635
000040 02 d1 32 be 13 19 4b be b0 41 ad bc 6d 2c e1 bd
       -0.17462543 -0.19833784 -0.021149486 -0.10994802
000050 3c 21 1a be 6d f8 89 be 90 ea ba bd f1 c8 65 be
       -0.1505174 -0.26947346 -0.091267705 -0.22439934
000060 c7 6a 48 be 0e 12 90 be 75 1f 6c be f4 bf ae be
       -0.19571982 -0.28138775 -0.23058875 -0.34130824
000070 8a 4f 6d be b1 e9 03 be 6e 2d 16 be b4 4c 9e bd
       -0.23174873 -0.12882115 -0.14665768 -0.07729474
000080 4e a9 cd 3c cb 17 34 be b8 c0 ed bd 4b 38 df bd
       0.025105145 -0.17587201 -0.11609024 -0.10899409
000090 ad 55 2c be 39 ff 95 be e9 52 03 be 5b b0 48 be
       -0.16829558 -0.29296282 -0.12824596 -0.19598524
0000a0 43 83 3b be be 0a 9d bd ba 0a 21 bd 59 b6 5c bc
       -0.18311791 -0.076680645 -0.03931687 -0.013471209
0000b0 6c 79 93 be b9 28 f5 bd 92 a1 1f bd 2e ed 3f be
       -0.28803575 -0.11970658 -0.038972445 -0.1874282
0000c0 05 b1 76 be 82 d4 89 be
       -0.24090965 -0.26919943
