mcspace/paper/mouse_runs/runs/seed_0/model.pt (torch, 464942 bytes, 99 tensors)

theta_params f4 [100, 74]
0	0xbf22f7e9	-0.6365953
1	0xc00a3f15	-2.1601002
2	0xbe9cc8b9	-0.3062189
3	0x3f999489	1.1998454
4	0x3eabb082	0.33533102
5	0xbfccb727	-1.5993394
6	0xc0bdd171	-5.9318166
7	0xc0aaee5c	-5.3415966
8	0xc0c15243	-6.0412917
9	0xc0ad57b6	-5.416957
10	0x3df89999	0.121386714
11	0x40a84dd4	5.2595005
12	0xc0878a94	-4.2356663
13	0x3efae73a	0.49004537
14	0x402e3e82	2.7225652
15	0xc07b8753	-3.9301345
16	0x4029a48e	2.6506686
17	0xbe927faf	-0.2861304
18	0xc06e59e0	-3.7242355
19	0x3d53345b	0.051563602
20	0x3f203d7b	0.6259381
21	0x3f6a3113	0.9148113
22	0xbf5bec5d	-0.85907537
23	0xc0c864d4	-6.262308
24	0xc09f7df0	-4.984123
25	0xc0432bd9	-3.0495512
26	0xbfda4931	-1.7053586
27	0x404c1c6e	3.1892352
28	0xc0a0af29	-5.021382
29	0xc0bbb6ce	-5.866065
30	0xc00bf6f6	-2.1869483
31	0xc0a9cad0	-5.3060074
32	0xc0b4cfa5	-5.650347
33	0xc08c67aa	-4.3876543
34	0x3fcab3f3	1.5836166
35	0xc080d902	-4.02649
36	0xbfcc2bc3	-1.5950855
37	0x3ff33cd9	1.9002944
38	0xc0900c7b	-4.5015235
39	0xbfa59ae0	-1.2937889
40	0xc0a14680	-5.039856
41	0xbfc00e00	-1.5004272
42	0x3faa76c2	1.3317492
43	0xc08d847a	-4.4224215
44	0xc0a7844d	-5.2349
45	0xbfece00d	-1.8505875
46	0xc0d082c9	-6.515965
47	0x3df3d70c	0.11906251
48	0x3f55501e	0.83325374
49	0xc0957c4c	-4.671423
50	0x3fb91d61	1.4462091
51	0x3e78659d	0.24257512
52	0x3f0d3825	0.55163795
53	0xbf6bb3c7	-0.92071193
54	0xbb2cbc2a	-0.0026357272
55	0x3f4057e7	0.7513413
56	0xc0bbad13	-5.864877
57	0xc0ac0f96	-5.3769026
58	0xc0b338f7	-5.6007037
59	0xc07a69ec	-3.912715
60	0x3ee6cdeb	0.45078978
61	0xc0a2b0a6	-5.0840635
62	0xc090bb35	-4.5228524
63	0xc0b637b8	-5.6943016
64	0x3f2af72d	0.6678341
65	0x40366d23	2.8504112
66	0xc083c0f4	-4.117304
67	0xc0c74f9a	-6.228467
68	0xc0c1f4af	-6.0611186
69	0xc09ee60c	-4.965582
70	0xc08750ab	-4.228597
71	0x3faebaa4	1.3650708
72	0x3e606716	0.21914324
73	0xc0b3043b	-5.5942664
74	0x3e270ed8	0.16314256
75	0xc0c8f123	-6.2794356
76	0xc0832897	-4.098705
77	0x3f747ae5	0.9550002
78	0xc089eb85	-4.31
79	0xc0254e84	-2.5829172
80	0xc09f71de	-4.98265
81	0xc078abda	-3.885489
82	0xc0f396cb	-7.6121573
83	0xc089582f	-4.2920146
84	0xc0943a77	-4.632137
85	0xc04e98b2	-3.2280698
86	0xc097e4f0	-4.7466965
87	0xbfbc9402	-1.4732668
88	0x3fcb61d7	1.5889233
89	0xc08f3592	-4.4752893
90	0xc053bc7b	-3.308379
91	0xc048708b	-3.131869
92	0xc08cf3b8	-4.404751
93	0x3f4c6abb	0.7985036
94	0xc02c5540	-2.6927032
95	0xc0b42a5c	-5.630171
96	0x3f27de03	0.6557314
97	0xc0a0721b	-5.013929
98	0xc0b1de62	-5.5583963
99	0x404ffa70	3.2496605
100	0x3f497049	0.7868696
101	0x40394eef	2.8954427
102	0x3fae41c4	1.361382
103	0xc0723919	-3.784735
104	0xc0c87888	-6.2647133
105	0x3f55362c	0.83285785
106	0xc07a9d9e	-3.9158702
107	0x4059fd8c	3.4061003
108	0x3f12d0be	0.57349765
109	0xc09f7d4d	-4.9840455
110	0xc0d1efdc	-6.5605297
111	0xbeb99ffb	-0.36254868
112	0xc030b9a8	-2.7613316
113	0xc084c12e	-4.1485815
114	0x3f8cea7c	1.1009059
115	0xbf95126b	-1.1646246
116	0x3e842d8f	0.25816008
117	0xc07e457a	-3.9729905
118	0xc0494c5d	-3.1452858
119	0xbd96277d	-0.073317505
120	0x40b8d689	5.7761884
121	0xc0b27454	-5.5767
122	0x3d3e5429	0.04646698
123	0xc09cf530	-4.90493
124	0xc0a8a9bc	-5.2707195
125	0xc075a7cf	-3.8383672
126	0x3f490d1b	0.7853562
127	0xc099f7be	-4.811492
128	0xc0b9a6bb	-5.801603
129	0xc08cbb29	-4.3978467
130	0xbf04256c	-0.516196
131	0xc030bc6e	-2.7615008
132	0xc0bdfcf6	-5.937129
133	0xbf97f00c	-1.1870131
134	0xbfcc0006	-1.5937507
135	0xc05f8091	-3.492222
136	0xc08951e5	-4.291247
137	0xc0810f88	-4.033146
138	0xc09bf3b6	-4.8735
139	0x403171d8	2.7725735
140	0xc0820d6b	-4.064138
141	0xc0994d73	-4.7907043
142	0xc08936aa	-4.287923
143	0xc0b2054d	-5.563147
144	0xc09df2ba	-4.9358797
145	0xc082d3ca	-4.088353
146	0x3fcf8fa9	1.6215717
147	0xc043fa44	-3.06215
148	0xbf25f45c	-0.6482599
149	0xc08d0333	-4.4066405
150	0xc09d9b6d	-4.925223
151	0x3f767134	0.96266484
152	0xc06a8cdc	-3.6648474
153	0xbffe7738	-1.9880133
154	0xc09be10c	-4.8712215
155	0xbfe65c2f	-1.7996882
156	0xc0716ab8	-3.7721386
157	0xc0647aa8	-3.5699863
158	0xc0475d43	-3.1150672
159	0x3fbd5f5a	1.4794724
160	0xc08ff655	-4.49882
161	0x4025bf3e	2.5897975
162	0x3fe78048	1.8086023
163	0x3f3f697e	0.74770343
164	0x3fadd93d	1.3581921
165	0xc0a91948	-5.284336
166	0xc0ca5fbc	-6.3241863
167	0xbf81de18	-1.0145903
168	0xc0ae014a	-5.4376574
169	0xc02e8432	-2.7268186
170	0xbf00cd71	-0.5031348
171	0xc0964d03	-4.696901
172	0x3f02cbad	0.51092035
173	0x4006ee03	2.108277
174	0xc012115c	-2.2823095
175	0x4095a4f0	4.676384
176	0x400810f2	2.1260343
177	0xbee733d9	-0.45156744
178	0x3e366ecf	0.17815708
179	0xc0966392	-4.6996546
180	0xbfca8d12	-1.5824301
181	0xbddfe1ac	-0.10931715
182	0x400f4eb6	2.2391791
183	0xc09278d8	-4.5772514
184	0xc0b154aa	-5.541585
185	0x409b0876	4.844783
186	0xc0b43079	-5.630917
187	0xc09d2a7e	-4.911437
188	0xc0955163	-4.666185
189	0xbf991c8c	-1.1961837
190	0x3fffe90e	1.9992998
191	0x4019848d	2.3987153
192	0xc09f69aa	-4.9816484
193	0xbf5c7f60	-0.8613186
194	0xc0be665c	-5.949995
195	0xbe9f27f5	-0.31085172
196	0xc068c91b	-3.6372745
197	0xbe148ede	-0.14507625
198	0x3e316b75	0.17326148
199	0x3f3674e5	0.71272117
200	0x3fc103a0	1.5079231
201	0xc0c55b47	-6.1673923
202	0x3f952765	1.1652647
203	0x3fb250df	1.393093
204	0xc0b0a927	-5.5206485
205	0xc0d96ce9	-6.7945447
206	0xc0a8ff1c	-5.2811413
207	0xbfb3ce24	-1.4047284
208	0x3f8b67f1	1.0891095
209	0xc047d5ce	-3.1224246
210	0xc02fc44c	-2.746356
211	0xc03af4ab	-2.9211833
212	0xc0c81ab7	-6.253261
213	0x4084d434	4.1509037
214	0xc08e309c	-4.443434
215	0xbf68eb36	-0.90983903
216	0xc0d348f9	-6.602658
217	0xc07f270f	-3.986759
218	0xc09f9550	-4.9869766
219	0x3ffce1f9	1.9756461
220	0xc03a7a86	-2.9137282
221	0xc0aa4e44	-5.322054
222	0x3ffe583a	1.9870675
223	0xc081ff82	-4.06244
224	0xc035a56d	-2.8382218
225	0x3f568ae6	0.8380569
226	0x3f45c6a8	0.7725625
227	0xc08044e5	-4.00841
228	0xc0631d69	-3.54867
229	0x3dd086fa	0.10181995
230	0xc08a5c68	-4.32378
231	0xc0566f05	-3.350526
232	0x3ebad695	0.36491838
233	0xc0d32358	-6.5980644
234	0xc080b665	-4.022265
235	0xc08eef71	-4.4667287
236	0xbef14abc	-0.4712733
237	0xc0882967	-4.255054
238	0xc0a962da	-5.293317
239	0xc0949689	-4.643376
240	0xc0de9c61	-6.956589
241	0xc08880b9	-4.265713
242	0x3fe07f35	1.753882
243	0xc092a01e	-4.5820456
244	0xc089f42a	-4.311055
245	0xc0e0048f	-7.0005565
246	0xc0918e04	-4.548586
247	0x40953246	4.662387
248	0xc05ebdea	-3.4803414
249	0xc0a4aec1	-5.1463323
250	0xc053f99e	-3.3121104
251	0xc0cadffa	-6.339841
252	0xc0b79f00	-5.738159
253	0xc0528815	-3.2895558
254	0x40c71eb1	6.2224965
255	0x3f970c61	1.1800653

q_mu f4 [7]
0	0xc062125e	-3.532371
1	0xc002dae7	-2.0446107
2	0xc01c6a39	-2.4439833
3	0xc036d2e3	-2.8566215
4	0xc01486b5	-2.3207219
5	0xbff088b0	-1.8791714
6	0xc0705807	-3.7553728

q_var f4 [7]
0	0xc01de792	-2.467259
1	0xc0965dad	-4.698935
2	0xc095cb40	-4.681061
3	0xc07696d2	-3.8529553
4	0xc0823500	-4.0689697
5	0xc0a40463	-5.1255355
6	0xc0023178	-2.0342693

eps f4 [7]
0	0xbf933f66	-1.1503723
1	0xbf8f6c35	-1.1204897
2	0xbf554de9	-0.83322006
3	0xbe968926	-0.2940151
4	0xbe3c3ec0	-0.18383312
5	0x3fbed63d	1.490913
6	0xbfbb8322	-1.4649394

q_gamma_params f4 [99]
0	0x40435c16	3.0524955
1	0x40822f56	4.0682783
2	0x40858d41	4.173493
3	0x4078465a	3.879294
4	0x40841588	4.1276283
5	0x406df059	3.7177947
6	0x408209dc	4.0637035
7	0x406f23e7	3.7365663
8	0x408222c3	4.0667434
9	0x407add95	3.9197743
10	0x40755a9b	3.833655
11	0x406209bc	3.5318441
12	0x406fefc9	3.7490103
13	0x407912c1	3.8917696
14	0x3ed51c13	0.4162298
15	0x40870ed8	4.220562
16	0x403db7b4	2.9643373
17	0x408087cd	4.0165772
18	0x4081dbe6	4.058093
19	0xbf33d5ab	-0.70247906
20	0x407115b7	3.7669504
21	0x405e8c06	3.4772964
22	0x3fd77744	1.6833272
23	0x40093fa7	2.14451
24	0x407b7c24	3.929452
25	0x406f8fcb	3.7431514
26	0x4083b714	4.1160984
27	0x4085ae6e	4.1775427
28	0x407b5c04	3.9274912
29	0x3fb07f39	1.3788825
30	0x4057b01e	3.3701243
31	0x4081591a	4.0421267
32	0x40667189	3.6006796
33	0x40811ab8	4.0345116
34	0x400a9e60	2.1659164
35	0x4080e3a3	4.0277877
36	0x4025ddd8	2.5916653
37	0x40796a82	3.8971257
38	0x40511735	3.2670414
39	0x40305067	2.7549074
40	0x408009f6	4.001216
41	0x407eba2b	3.9801128
42	0x4088360a	4.2565966
43	0x406fc29a	3.7462525
44	0x407123b3	3.767804
45	0x4076ed1a	3.8582215
46	0x400f3e68	2.238184
47	0x404f92cd	3.243335
48	0x4070871b	3.7582462
49	0x405509ea	3.32873
50	0x407d804a	3.9609551
51	0x4083d766	4.1200438
52	0x4069ddde	3.6541667
53	0x40658081	3.5859683
54	0x4077f0c6	3.8740706
55	0x403d702a	2.959971
56	0x40077da8	2.1170444
57	0x4080a1ad	4.019736
58	0x406ec37f	3.7306821
59	0x40855c00	4.1674805
60	0xc0a0e735	-5.0282235
61	0xbf6db1c0	-0.9284935
62	0x4063c791	3.5590556
63	0x407a88e2	3.9146047
64	0x3fe30268	1.7735109
65	0x407a1e85	3.9081128
66	0x408baaef	4.364616
67	0x4077a45c	3.8694067
68	0x40738208	3.8048115
69	0x407601e9	3.8438666
70	0xc0977897	-4.7334704
71	0x4076ddb9	3.8572829
72	0x40816aa9	4.04427
73	0xc008f891	-2.1401713
74	0x4080fa30	4.0305405
75	0x407339b9	3.800398
76	0x40160419	2.344
77	0x40688206	3.632936
78	0x4052a729	3.2914526
79	0x40720ab8	3.7819042
80	0x40567cd1	3.3513682
81	0x40845d37	4.136379
82	0x405811fa	3.3760972
83	0x3f6222e0	0.88334465
84	0x3f642c31	0.8912993
85	0x40717236	3.772596
86	0x407172b3	3.7726257
87	0x4012448a	2.2854333
88	0x4086b4f7	4.2095904
89	0x407bc20a	3.9337182
90	0x407a183f	3.9077299
91	0x406cb1a4	3.6983423
92	0x403d85ba	2.961287
93	0x407c7fce	3.9453006
94	0xc03efc70	-2.9841576
95	0x405da6ac	3.4632978
96	0x407a4cf2	3.9109464
97	0xbe98a973	-0.2981678
98	0xc06b548d	-3.6770356

q_probs f4 [99]
0	0x3f74743b	0.95489854
1	0x3f7bb1c1	0.98318106
2	0x3f7c1e2a	0.98483527
3	0x3f7ad11a	0.97975314
4	0x3f7bf041	0.98413473
5	0x3f79ee1f	0.9762897
6	0x3f7baccd	0.9831055
7	0x3f7a0a61	0.97672087
8	0x3f7bb01e	0.9831561
9	0x3f7b04bb	0.98054093
10	0x3f7a946e	0.97882736
11	0x3f78b9ac	0.9715831
12	0x3f7a1cb8	0.9770007
13	0x3f7ae13e	0.9799994
14	0x3f1a49fd	0.6026915
15	0x3f7c4b32	0.9855224
16	0x3f7371c8	0.9509549
17	0x3f7b784c	0.98230433
18	0x3f7ba6af	0.98301214
19	0x3ea9b489	0.3314555
20	0x3f7a36f6	0.97740114
21	0x3f785447	0.970036
22	0x3f57e754	0.84337354
23	0x3f651d6a	0.8949801
24	0x3f7b10ca	0.98072493
25	0x3f7a140f	0.97686857
26	0x3f7be468	0.98395395
27	0x3f7c221e	0.9848956
28	0x3f7b0e53	0.9806873
29	0x3f4c82f0	0.79887295
30	0x3f777d6a	0.9667574
31	0x3f7b9510	0.98274326
32	0x3f793238	0.9734225
33	0x3f7b8c8b	0.98261327
34	0x3f65ad01	0.8971711
35	0x3f7b8503	0.98249835
36	0x3f6e2993	0.9303219
37	0x3f7ae200	0.980011
38	0x3f7699bf	0.9632835
39	0x3f70b0cd	0.94019777
40	0x3f7b66ac	0.9820354
41	0x3f7b4e07	0.98165935
42	0x3f7c6c4e	0.9860276
43	0x3f7a18ab	0.9769389
44	0x3f7a382c	0.9774196
45	0x3f7ab574	0.97933125
46	0x3f67553c	0.9036443
47	0x3f76624e	0.9624375
48	0x3f7a2a43	0.97720736
49	0x3f7724d6	0.9654058
50	0x3f7b373d	0.9813116
51	0x3f7be87a	0.98401606
52	0x3f798a95	0.97477084
53	0x3f791906	0.9730381
54	0x3f7aca50	0.97964954
55	0x3f73646c	0.95075107
56	0x3f648030	0.892581
57	0x3f7b7beb	0.9823596
58	0x3f7a017d	0.9765852
59	0x3f7c1843	0.9847452
60	0x3bd563bf	0.006512135
61	0x3e910940	0.2832737
62	0x3f78ea42	0.9723245
63	0x3f7afe4d	0.9804428
64	0x3f5adcc1	0.85493094
65	0x3f7af610	0.9803171
66	0x3f7cc8e4	0.98744035
67	0x3f7ac432	0.9795562
68	0x3f7a6cce	0.9782227
69	0x3f7aa24b	0.9790389
70	0x3c0ede57	0.008720002
71	0x3f7ab438	0.9793124
72	0x3f7b976d	0.9827793
73	0x3dd7c856	0.10536258
74	0x3f7b881a	0.9825455
75	0x3f7a669d	0.97812825
76	0x3f6997bc	0.91247153
77	0x3f79680e	0.974244
78	0x3f76d1f0	0.9641409
79	0x3f7a4c68	0.97772837
80	0x3f775446	0.96612966
81	0x3f7bf92b	0.98427075
82	0x3f778a57	0.96695465
83	0x3f3502dd	0.70707494
84	0x3f358ca7	0.70917743
85	0x3f7a3f10	0.97752476
86	0x3f7a3f19	0.9775253
87	0x3f685e68	0.9076905
88	0x3f7c40e1	0.985365
89	0x3f7b1612	0.9808055
90	0x3f7af591	0.98030955
91	0x3f79d050	0.97583485
92	0x3f73682a	0.95080817
93	0x3f7b2443	0.98102206
94	0x3d4545f1	0.048162404
95	0x3f783989	0.9696279
96	0x3f7af9a3	0.98037165
97	0x3eda2c97	0.42612144
98	0x3cca3e0d	0.024687791

gamma f4 [100]
0	0x3f800000	1.0
1	0x3f800000	1.0
2	0x00000000	0.0
3	0x3f800000	1.0
4	0x3f800000	1.0
5	0x3f800000	1.0
6	0x3f800000	1.0
7	0x3f800000	1.0
8	0x3f800000	1.0
9	0x3f800000	1.0
10	0x3f800000	1.0
11	0x3f800000	1.0
12	0x3f800000	1.0
13	0x3f800000	1.0
14	0x3f800000	1.0
15	0x00000000	0.0
16	0x3f800000	1.0
17	0x3f800000	1.0
18	0x3f800000	1.0
19	0x3f800000	1.0
20	0x00000000	0.0
21	0x3f800000	1.0
22	0x3f800000	1.0
23	0x3f800000	1.0
24	0x3f800000	1.0
25	0x3f800000	1.0
26	0x3f800000	1.0
27	0x3f800000	1.0
28	0x3f800000	1.0
29	0x3f800000	1.0
30	0x3f800000	1.0
31	0x3f800000	1.0
32	0x3f800000	1.0
33	0x3f800000	1.0
34	0x3f800000	1.0
35	0x3f800000	1.0
36	0x3f800000	1.0
37	0x3f800000	1.0
38	0x3f800000	1.0
39	0x3f800000	1.0
40	0x3f800000	1.0
41	0x3f800000	1.0
42	0x3f800000	1.0
43	0x3f800000	1.0
44	0x3f800000	1.0
45	0x3f800000	1.0
46	0x3f800000	1.0
47	0x3f800000	1.0
48	0x3f800000	1.0
49	0x3f800000	1.0
50	0x3f800000	1.0
51	0x3f800000	1.0
52	0x3f800000	1.0
53	0x3f800000	1.0
54	0x3f800000	1.0
55	0x3f800000	1.0
56	0x3f800000	1.0
57	0x00000000	0.0
58	0x3f800000	1.0
59	0x3f800000	1.0
60	0x3f800000	1.0
61	0x00000000	0.0
62	0x00000000	0.0
63	0x3f800000	1.0
64	0x3f800000	1.0
65	0x3f800000	1.0
66	0x3f800000	1.0
67	0x3f800000	1.0
68	0x3f800000	1.0
69	0x3f800000	1.0
70	0x3f800000	1.0
71	0x00000000	0.0
72	0x3f800000	1.0
73	0x3f800000	1.0
74	0x00000000	0.0
75	0x3f800000	1.0
76	0x3f800000	1.0
77	0x3f800000	1.0
78	0x3f800000	1.0
79	0x3f800000	1.0
80	0x3f800000	1.0
81	0x3f800000	1.0
82	0x3f800000	1.0
83	0x3f800000	1.0
84	0x3f800000	1.0
85	0x3f800000	1.0
86	0x3f800000	1.0
87	0x3f800000	1.0
88	0x3f800000	1.0
89	0x3f800000	1.0
90	0x3f800000	1.0
91	0x00000000	0.0
92	0x3f800000	1.0
93	0x3f800000	1.0
94	0x3f800000	1.0
95	0x00000000	0.0
96	0x3f800000	1.0
97	0x3f800000	1.0
98	0x3f800000	1.0
99	0x00000000	0.0

KL_gamma_k f4 [99]
0	0x48d5f8ed	438215.4
1	0x48dc4f56	451194.7
2	0x48dcae3c	451953.88
3	0x48db8ab1	449621.53
4	0x48dc860b	451632.34
5	0x48dac404	448032.12
6	0x48dc4b00	451160.0
7	0x48dadcc0	448230.0
8	0x48dc4de7	451183.22
9	0x48dbb7e3	449983.1
10	0x48db5596	449196.7
11	0x48d9b607	445872.22
12	0x48daeccd	448358.4
13	0x48db98d2	449734.56
14	0x48870ccd	276582.4
15	0x48dcd5a6	452269.2
16	0x48d516b2	436405.56
17	0x48dc1d0b	450792.34
18	0x48dc45a6	451117.2
19	0x48148b2c	152108.69
20	0x48db03c6	448542.2
21	0x48d95d47	445162.22
22	0x48bcfb5b	387034.84
23	0x48c88bba	410717.8
24	0x48dbc271	450067.53
25	0x48dae539	448297.78
26	0x48dc7bac	451549.38
27	0x48dcb1b1	451981.53
28	0x48dbc049	450050.28
29	0x48b3029c	366612.88
30	0x48d8a133	443657.6
31	0x48dc3639	450993.78
32	0x48da1f8b	446716.34
33	0x48dc2ec4	450934.12
34	0x48c9096c	411723.38
35	0x48dc282c	450881.38
36	0x48d07718	426936.75
37	0x48db997c	449739.88
38	0x48d7d9ec	442063.38
39	0x48d2ad9f	431468.97
40	0x48dc0d9e	450668.94
41	0x48dbf80c	450496.38
42	0x48dcf2a1	452501.03
43	0x48dae942	448330.06
44	0x48db04d5	448550.66
45	0x48db727e	449427.94
46	0x48ca7cc1	414694.03
47	0x48d7a965	441675.16
48	0x48daf8a8	448453.25
49	0x48d853ab	443037.34
50	0x48dbe419	450336.78
51	0x48dc7f3c	451577.88
52	0x48da6ce3	447335.1
53	0x48da097d	446539.9
54	0x48db84c0	449574.0
55	0x48d50b01	436312.03
56	0x48c8021b	409616.84
57	0x48dc2037	450817.72
58	0x48dad4f8	448167.75
59	0x48dca911	451912.53
60	0x453ac772	2988.4653
61	0x47fde6b9	129997.445
62	0x48d9e08e	446212.44
63	0x48dbb242	449938.06
64	0x48bf9256	392338.7
65	0x48dbab0c	449880.38
66	0x48dd43ac	453149.38
67	0x48db7f65	449531.16
68	0x48db32e7	448919.22
69	0x48db61b9	449293.78
70	0x457a1ac9	4001.674
71	0x48db7169	449419.28
72	0x48dc384b	451010.34
73	0x473cdff2	48351.945
74	0x48dc2ae1	450903.03
75	0x48db2d7c	448875.88
76	0x48cc771e	418744.94
77	0x48da4eaa	447093.3
78	0x48d80b1b	442456.84
79	0x48db168b	448692.34
80	0x48d87d31	443369.53
81	0x48dc8dd8	451694.75
82	0x48d8ac84	443748.12
83	0x489e70ad	324485.4
84	0x489ee94a	325450.3
85	0x48db0add	448598.9
86	0x48db0ae5	448599.16
87	0x48cb64dc	416550.88
88	0x48dccc9e	452196.94
89	0x48dbc711	450104.53
90	0x48dbaa9d	449876.9
91	0x48daa9ec	447823.38
92	0x48d50e47	436338.22
93	0x48dbd37d	450203.9
94	0x46acac58	22102.172
95	0x48d945de	444974.94
96	0x48dbae2d	449905.4
97	0x483ef806	195552.1
98	0x463105c1	11329.438

q_gamma_params f4 [100, 3]
0	0xc024c759	-2.5746672
1	0xc07b91c5	-3.930772
2	0xc07c1409	-3.9387228
3	0xc06c7e09	-3.6951926
4	0xc08bd8c6	-4.3702116
5	0xc0614a98	-3.5201778
6	0x3e9c301d	0.30505458
7	0xc084f055	-4.1543374
8	0x400f1056	2.235372
9	0xc06dee92	-3.7176862
10	0xc07d53cc	-3.9582396
11	0xc0439b03	-3.0563362
12	0xc08c14bf	-4.3775325
13	0xc00885f1	-2.1331751
14	0xc04fe055	-3.2480671
15	0xc03361ea	-2.8028512
16	0xc069aafa	-3.6510606
17	0xc0813002	-4.0371103
18	0xbfb97c43	-1.4491047
19	0xc08d2310	-4.41053
20	0xc06b0298	-3.6720333
21	0xc076fc36	-3.8591437
22	0x3f9c4ae1	1.2210351
23	0xc08178cc	-4.0459957
24	0xc088f7f8	-4.2802696
25	0xc08167b7	-4.0439105
26	0xc0812e80	-4.0369263
27	0xc07f6506	-3.990541
28	0xc07abaf4	-3.9176607
29	0xc062d6ec	-3.5443678
30	0xc07dfef2	-3.9686856
31	0xc0788288	-3.882967
32	0xc078b4c4	-3.886033
33	0xbf067108	-0.5251622
34	0xc087b9cb	-4.24143
35	0xc046f891	-3.1089213
36	0xc0074c37	-2.1140268
37	0xc08ae5ad	-4.3405366
38	0xc08a9d4e	-4.331702
39	0xc0657755	-3.5854084
40	0xc0808bb2	-4.0170527
41	0x3fbc27fc	1.4699702
42	0xc04a625a	-3.162253
43	0xc0811171	-4.033379
44	0xc08cdbc3	-4.4018264
45	0xc08822ba	-4.254239
46	0xc082f87a	-4.0928316
47	0xc07ed8eb	-3.9819896
48	0xc0707b1b	-3.7575138
49	0xc081d15e	-4.0568075
50	0xc07f1475	-3.9856236
51	0xc07150fb	-3.7705677
52	0xc089299c	-4.2863293
53	0xc087ecb7	-4.247646
54	0xbfd99f59	-1.7001754
55	0xc074a872	-3.822781
56	0xc062fcc7	-3.5466783
57	0xc07ae4cf	-3.9202154
58	0xc08f91db	-4.4865546
59	0xc0852a32	-4.161401
60	0xc07fa90d	-3.994693
61	0xc06c5ce3	-3.6931694
62	0xc03e324c	-2.9718199
63	0xc068bdf8	-3.6365948
64	0xc08d4d75	-4.415705
65	0xc0865968	-4.198414
66	0xc08d72d0	-4.420265
67	0xc07e6124	-3.974679
68	0xc03ab4ff	-2.9172971
69	0xc083cf12	-4.119027
70	0xc04d7cbf	-3.210739
71	0xc0821137	-4.0646014
72	0xc0872c9e	-4.2241964
73	0xc084d478	-4.150936
74	0xc0842247	-4.1291842
75	0xc07a757a	-3.9134202
76	0xc081e1db	-4.0588202
77	0xc06b9cac	-3.6814375
78	0xc0861c4f	-4.1909556
79	0xbfa92e50	-1.3217258
80	0xbed701ab	-0.4199346
81	0xc07fa384	-3.9943552
82	0xc07c2c5e	-3.940208
83	0xc07dfaf5	-3.9684422
84	0xc0723b59	-3.7848723
85	0xc086a908	-4.2081337
86	0x3fcb81c9	1.5898982
87	0xc084bbcc	-4.1479244
88	0x3f18a791	0.59630686
89	0x3feda9d5	1.8567454
90	0xc0872a9b	-4.223951
91	0xc087d0d4	-4.2442417
92	0xc0884438	-4.2583275
93	0xc0827393	-4.076608
94	0xc08aa099	-4.332104
95	0xc07a852d	-3.9143784
96	0xc022cd91	-2.5437968
97	0xc07d4c48	-3.9577808
98	0xc081c43c	-4.0552044
99	0xc08f0aa8	-4.470051
100	0xc076de89	-3.8573325
101	0xc082735f	-4.0765834
102	0xc063819a	-3.5547853
103	0xc075601d	-3.8339913
104	0xc087d892	-4.245187
105	0xc077f84c	-3.8745298
106	0xc0818195	-4.047068
107	0xc0802498	-4.004467
108	0xc036190b	-2.8452785
109	0xc08df0df	-4.435653
110	0xc087220b	-4.2229056
111	0xc07a0ac5	-3.9069073
112	0xc08a0d34	-4.3141117
113	0xc0887403	-4.2641616
114	0xbff7afc3	-1.9350513
115	0xc05bea89	-3.43619
116	0xc07c4abc	-3.9420614
117	0xc049afaf	-3.1513479
118	0xc080db1c	-4.0267467
119	0xc084a1ee	-4.144767
120	0xc08434b2	-4.1314325
121	0xc08a9ff7	-4.332027
122	0xc076fad5	-3.8590596
123	0xbfde4682	-1.7365267
124	0xc08c33b2	-4.3813105
125	0xc0766428	-3.849863
126	0xc0677e8c	-3.6170988
127	0xc0695100	-3.6455688
128	0x3fe9a945	1.8254782
129	0xc011c8da	-2.277884
130	0xc07a5245	-3.9112713
131	0xc07e2146	-3.9707808
132	0xbf145ea8	-0.57956934
133	0xc0863e1c	-4.1950817
134	0xc077428e	-3.8634372
135	0x3f8e53eb	1.111936
136	0xc08017f5	-4.0029244
137	0xc00f430f	-2.238468
138	0xc07880d1	-3.8828623
139	0xc04abd50	-3.1678047
140	0xc04c941d	-3.19654
141	0xc06ae0bc	-3.6699667
142	0xc0858a58	-4.1731377
143	0xc07f57fb	-3.989745
144	0xc0372432	-2.8615842
145	0xc08368f0	-4.1065598
146	0xc0719a6a	-3.7750497
147	0xc03c84ad	-2.945598
148	0xc07a0abb	-3.906905
149	0xc069c649	-3.6527274
150	0xbfd7ff57	-1.6874799
151	0xc06d7b57	-3.710653
152	0xc07b8b1a	-3.930365
153	0xc08b4ad4	-4.3528843
154	0xc086e6b7	-4.2156634
155	0xc07ea371	-3.9787257
156	0xc08c85d2	-4.3913355
157	0xc07fda85	-3.9977124
158	0x3f793f71	0.9736243
159	0xc08c2122	-4.3790445
160	0xc084d1c8	-4.150608
161	0xc083c59e	-4.117873
162	0xc08094b8	-4.018154
163	0xc086354d	-4.1940064
164	0xc054baa0	-3.3238907
165	0xc062eaa2	-3.5455709
166	0xc08881a3	-4.265825
167	0xc07ee391	-3.9826396
168	0xc07ba6f0	-3.932064
169	0xc0752d0b	-3.8308742
170	0xc04205b4	-3.031598
171	0xc0726dae	-3.7879443
172	0xc082c4f5	-4.0865426
173	0xc07b2250	-3.9239693
174	0xc06f50d1	-3.7393076
175	0xc08dd03c	-4.431669
176	0xc037d7b0	-2.8725395
177	0xc02d4952	-2.7076
178	0xc0844de6	-4.134509
179	0xc0806465	-4.012255
180	0xc0764a36	-3.8482795
181	0xc06fa3d5	-3.7443745
182	0xc08b7923	-4.358537
183	0xc08288fe	-4.0792227
184	0xc07a4bff	-3.9108884
185	0xc087f193	-4.248239
186	0xc0802242	-4.004182
187	0xc08b258c	-4.3483334
188	0xc07f8ffc	-3.993163
189	0xc084b2b0	-4.1468124
190	0xc0480665	-3.1253903
191	0xc08803f6	-4.2504835
192	0xc0809527	-4.018207
193	0xc085f93a	-4.186673
194	0xc0856002	-4.1679697
195	0xc0356db1	-2.83482
196	0xc08698a9	-4.2061353
197	0xc089361b	-4.2878547
198	0xc03e42fd	-2.9728386
199	0xc0751f05	-3.8300183
200	0xc06fa619	-3.7445128
201	0xc080ff13	-4.031137
202	0xc08000bd	-4.00009
203	0x40176b40	2.365921
204	0xc081287e	-4.036193
205	0x3f8a0c84	1.078507
206	0xc0879c63	-4.23784
207	0xc0867d7b	-4.2028174
208	0xc0808059	-4.0156674
209	0xc0758114	-3.8360033
210	0xc048e8ae	-3.1392016
211	0xc06bd198	-3.6846676
212	0xc01d0087	-2.4531572
213	0xc07f3d0f	-3.9881017
214	0xc084a666	-4.1453123
215	0xc091c9b2	-4.555871
216	0xc07b115f	-3.9229352
217	0xc08c0445	-4.375521
218	0xc0803460	-4.0063934
219	0xc07c7efe	-3.945251
220	0xc086dad4	-4.2142124
221	0xc060a5a4	-3.51011
222	0xc0809e9a	-4.0193605
223	0xc086fb72	-4.218194
224	0xc07cf4eb	-3.9524486
225	0xc0739a93	-3.8063095
226	0xc068d4e9	-3.637995
227	0xc082687a	-4.0752535
228	0xc06b2e76	-3.6747108
229	0xc0861490	-4.19001
230	0xc059cd87	-3.4031694
231	0xc044ca71	-3.074856
232	0xc08688a5	-4.2041802
233	0xc08a40f0	-4.320427
234	0xc08e6662	-4.449998
235	0xc0755674	-3.8334017
236	0xc06645ce	-3.5980105
237	0xc05e38bd	-3.472213
238	0xc07e6f11	-3.975529
239	0xc07c9f7b	-3.947234
240	0x40224def	2.5360067
241	0xc06bf0f3	-3.6865814
242	0xc039bd5f	-2.9021833
243	0xc01af8f8	-2.4214458
244	0xc08513dd	-4.1586747
245	0xc06da9be	-3.7134852
246	0xbfac8406	-1.347779
247	0xc08b9ac4	-4.3626423
248	0x3f3c25a9	0.73494965
249	0xc06e150b	-3.7200344
250	0xc0812cbb	-4.0367103
251	0xc06b0ce1	-3.672661
252	0xc08848a5	-4.2588677
253	0xc086a916	-4.2081404
254	0xc083d371	-4.1195607
255	0xc06c546b	-3.6926525

gamma f4 [100, 3]
0	0x3f800000	1.0
1	0x00000000	0.0
2	0x00000000	0.0
3	0x00000000	0.0
4	0x00000000	0.0
5	0x00000000	0.0
6	0x3f800000	1.0
7	0x00000000	0.0
8	0x3f800000	1.0
9	0x00000000	0.0
10	0x00000000	0.0
11	0x00000000	0.0
12	0x00000000	0.0
13	0x00000000	0.0
14	0x00000000	0.0
15	0x00000000	0.0
16	0x00000000	0.0
17	0x00000000	0.0
18	0x00000000	0.0
19	0x00000000	0.0
20	0x3f800000	1.0
21	0x00000000	0.0
22	0x3f800000	1.0
23	0x00000000	0.0
24	0x00000000	0.0
25	0x00000000	0.0
26	0x00000000	0.0
27	0x00000000	0.0
28	0x00000000	0.0
29	0x00000000	0.0
30	0x00000000	0.0
31	0x00000000	0.0
32	0x00000000	0.0
33	0x3f800000	1.0
34	0x00000000	0.0
35	0x00000000	0.0
36	0x00000000	0.0
37	0x00000000	0.0
38	0x00000000	0.0
39	0x00000000	0.0
40	0x00000000	0.0
41	0x3f800000	1.0
42	0x00000000	0.0
43	0x00000000	0.0
44	0x00000000	0.0
45	0x00000000	0.0
46	0x00000000	0.0
47	0x00000000	0.0
48	0x00000000	0.0
49	0x00000000	0.0
50	0x00000000	0.0
51	0x00000000	0.0
52	0x00000000	0.0
53	0x00000000	0.0
54	0x00000000	0.0
55	0x00000000	0.0
56	0x00000000	0.0
57	0x00000000	0.0
58	0x00000000	0.0
59	0x00000000	0.0
60	0x00000000	0.0
61	0x00000000	0.0
62	0x00000000	0.0
63	0x00000000	0.0
64	0x00000000	0.0
65	0x00000000	0.0
66	0x00000000	0.0
67	0x00000000	0.0
68	0x3f800000	1.0
69	0x00000000	0.0
70	0x00000000	0.0
71	0x00000000	0.0
72	0x00000000	0.0
73	0x00000000	0.0
74	0x00000000	0.0
75	0x3f800000	1.0
76	0x00000000	0.0
77	0x00000000	0.0
78	0x00000000	0.0
79	0x00000000	0.0
80	0x3f800000	1.0
81	0x00000000	0.0
82	0x00000000	0.0
83	0x00000000	0.0
84	0x00000000	0.0
85	0x3f800000	1.0
86	0x3f800000	1.0
87	0x00000000	0.0
88	0x3f800000	1.0
89	0x3f800000	1.0
90	0x00000000	0.0
91	0x00000000	0.0
92	0x00000000	0.0
93	0x00000000	0.0
94	0x00000000	0.0
95	0x00000000	0.0
96	0x00000000	0.0
97	0x00000000	0.0
98	0x00000000	0.0
99	0x00000000	0.0
100	0x00000000	0.0
101	0x00000000	0.0
102	0x00000000	0.0
103	0x00000000	0.0
104	0x00000000	0.0
105	0x00000000	0.0
106	0x3f800000	1.0
107	0x00000000	0.0
108	0x00000000	0.0
109	0x00000000	0.0
110	0x00000000	0.0
111	0x00000000	0.0
112	0x00000000	0.0
113	0x00000000	0.0
114	0x00000000	0.0
115	0x00000000	0.0
116	0x00000000	0.0
117	0x3f800000	1.0
118	0x00000000	0.0
119	0x00000000	0.0
120	0x00000000	0.0
121	0x00000000	0.0
122	0x00000000	0.0
123	0x00000000	0.0
124	0x00000000	0.0
125	0x00000000	0.0
126	0x00000000	0.0
127	0x00000000	0.0
128	0x3f800000	1.0
129	0x00000000	0.0
130	0x00000000	0.0
131	0x00000000	0.0
132	0x00000000	0.0
133	0x00000000	0.0
134	0x00000000	0.0
135	0x3f800000	1.0
136	0x00000000	0.0
137	0x00000000	0.0
138	0x00000000	0.0
139	0x00000000	0.0
140	0x00000000	0.0
141	0x00000000	0.0
142	0x00000000	0.0
143	0x00000000	0.0
144	0x00000000	0.0
145	0x00000000	0.0
146	0x00000000	0.0
147	0x00000000	0.0
148	0x00000000	0.0
149	0x00000000	0.0
150	0x3f800000	1.0
151	0x00000000	0.0
152	0x00000000	0.0
153	0x00000000	0.0
154	0x00000000	0.0
155	0x00000000	0.0
156	0x00000000	0.0
157	0x00000000	0.0
158	0x3f800000	1.0
159	0x00000000	0.0
160	0x00000000	0.0
161	0x00000000	0.0
162	0x00000000	0.0
163	0x00000000	0.0
164	0x3f800000	1.0
165	0x00000000	0.0
166	0x00000000	0.0
167	0x00000000	0.0
168	0x00000000	0.0
169	0x00000000	0.0
170	0x00000000	0.0
171	0x00000000	0.0
172	0x00000000	0.0
173	0x00000000	0.0
174	0x00000000	0.0
175	0x00000000	0.0
176	0x00000000	0.0
177	0x00000000	0.0
178	0x00000000	0.0
179	0x00000000	0.0
180	0x00000000	0.0
181	0x00000000	0.0
182	0x00000000	0.0
183	0x00000000	0.0
184	0x00000000	0.0
185	0x00000000	0.0
186	0x00000000	0.0
187	0x00000000	0.0
188	0x00000000	0.0
189	0x00000000	0.0
190	0x00000000	0.0
191	0x00000000	0.0
192	0x00000000	0.0
193	0x00000000	0.0
194	0x00000000	0.0
195	0x00000000	0.0
196	0x00000000	0.0
197	0x00000000	0.0
198	0x00000000	0.0
199	0x00000000	0.0
200	0x00000000	0.0
201	0x00000000	0.0
202	0x00000000	0.0
203	0x00000000	0.0
204	0x00000000	0.0
205	0x3f800000	1.0
206	0x00000000	0.0
207	0x00000000	0.0
208	0x00000000	0.0
209	0x00000000	0.0
210	0x00000000	0.0
211	0x00000000	0.0
212	0x00000000	0.0
213	0x00000000	0.0
214	0x00000000	0.0
215	0x00000000	0.0
216	0x00000000	0.0
217	0x00000000	0.0
218	0x00000000	0.0
219	0x00000000	0.0
220	0x00000000	0.0
221	0x00000000	0.0
222	0x00000000	0.0
223	0x00000000	0.0
224	0x00000000	0.0
225	0x00000000	0.0
226	0x00000000	0.0
227	0x00000000	0.0
228	0x00000000	0.0
229	0x00000000	0.0
230	0x00000000	0.0
231	0x00000000	0.0
232	0x00000000	0.0
233	0x00000000	0.0
234	0x00000000	0.0
235	0x00000000	0.0
236	0x00000000	0.0
237	0x00000000	0.0
238	0x00000000	0.0
239	0x00000000	0.0
240	0x00000000	0.0
241	0x00000000	0.0
242	0x00000000	0.0
243	0x00000000	0.0
244	0x00000000	0.0
245	0x00000000	0.0
246	0x00000000	0.0
247	0x00000000	0.0
248	0x3f800000	1.0
249	0x00000000	0.0
250	0x00000000	0.0
251	0x00000000	0.0
252	0x00000000	0.0
253	0x00000000	0.0
254	0x00000000	0.0
255	0x00000000	0.0

q_probs f4 [100, 3]
0	0x3d90fcb8	0.07079452
1	0x3c9db526	0.019251417
2	0x3c9c7aaa	0.01910146
3	0x3cc6972b	0.024242004
4	0x3c4ca5bd	0.012490687
5	0x3ceb78da	0.02874415
6	0x3f136431	0.57574755
7	0x3c7d3289	0.015453943
8	0x3f6742e5	0.9033645
9	0x3cc246ef	0.023715464
10	0x3c998269	0.018738942
11	0x3d381983	0.044946205
12	0x3c4b2ce2	0.012400838
13	0x3dd8e052	0.10589661
14	0x3d19312c	0.03740041
15	0x3d6a32b8	0.057177275
16	0x3ccf150a	0.025278587
17	0x3c8e1247	0.0173427
18	0x3e42c30e	0.1901972
19	0x3c44a811	0.012002961
20	0x3ccb1ff6	0.024795514
21	0x3ca92c10	0.020650893
22	0x3f45b5e7	0.77230686
23	0x3c8cd628	0.017191961
24	0x3c5fa5be	0.013650356
25	0x3c8d2204	0.017228134
26	0x3c8e18a2	0.01734573
27	0x3c94b836	0.018154245
28	0x3c9fbeb5	0.019500116
29	0x3ce60275	0.028077343
30	0x3c97f300	0.018548489
31	0x3ca544ef	0.020174472
32	0x3ca4c673	0.02011416
33	0x3ebdae9c	0.3704728
34	0x3c686005	0.014183049
35	0x3d2f1641	0.042745832
36	0x3ddc7ce0	0.107660055
37	0x3c52bb7d	0.0128620835
38	0x3c549448	0.012974806
39	0x3cdd0118	0.02697806
40	0x3c90e5eb	0.017687758
41	0x3f5025c8	0.8130765
42	0x3d2658be	0.040611975
43	0x3c8e981c	0.017406516
44	0x3c465b2c	0.012106698
45	0x3c65763c	0.01400524
46	0x3c867fe7	0.01641841
47	0x3c95fa3a	0.018307794
48	0x3cba15f0	0.022715539
49	0x3c8b58fe	0.017010208
50	0x3c957171	0.01824257
51	0x3cb87deb	0.02252098
52	0x3c5e4fe8	0.013568856
53	0x3c66f6b2	0.014096903
54	0x3e1e32db	0.15449087
55	0x3caf4fa1	0.021400275
56	0x3ce5508e	0.027992513
57	0x3c9fc037	0.019500835
58	0x3c366b81	0.011134029
59	0x3c7b721a	0.015347028
60	0x3c941def	0.01808068
61	0x3cc6fad3	0.024289524
62	0x3d4790e2	0.048722155
63	0x3cd2442b	0.02566727
64	0x3c43a767	0.011941767
65	0x3c727152	0.0147975255
66	0x3c42c7a5	0.011888419
67	0x3c972b7d	0.018453354
68	0x3d522be4	0.05131139
69	0x3c831345	0.0160004
70	0x3d1ecc16	0.03876885
71	0x3c8a4891	0.016880305
72	0x3c6c5b0f	0.014426007
73	0x3c7e0baf	0.015505715
74	0x3c81c553	0.015841162
75	0x3ca06bdd	0.019582683
76	0x3c8b1438	0.016977414
77	0x3cc94532	0.024569128
78	0x3c743bac	0.014906805
79	0x3e57a32c	0.21058339
80	0x3ecb121c	0.39662254
81	0x3c942a07	0.018086446
82	0x3c9c4132	0.019074056
83	0x3c97fc15	0.01855282
84	0x3cb5f068	0.022209361
85	0x3c7020db	0.014656271
86	0x3f54a204	0.83059716
87	0x3c7ecde6	0.01555202
88	0x3f2515e6	0.6448654
89	0x3f5d47a3	0.86437434
90	0x3c6c9eae	0.014442129
91	0x3c67bbd2	0.014143901
92	0x3c648a88	0.013949044
93	0x3c88a9a3	0.016682452
94	0x3c54815c	0.012970295
95	0x3ca04546	0.019564282
96	0x3d9532fd	0.07285116
97	0x3c9994bc	0.01874768
98	0x3c8b9181	0.017037155
99	0x3c396bd8	0.011317216
100	0x3ca9791a	0.020687629
101	0x3c88aa4b	0.016682765
102	0x3ce3b2ba	0.027795184
103	0x3cad643f	0.021165965
104	0x3c6783d9	0.014130556
105	0x3ca6a664	0.020343013
106	0x3c8cb11b	0.017174294
107	0x3c92b35c	0.01790779
108	0x3d61020b	0.05493359
109	0x3c3fd629	0.011708775
110	0x3c6caab2	0.014444994
111	0x3ca17126	0.019707274
112	0x3c584d28	0.013201989
113	0x3c6339c4	0.013868753
114	0x3e0142b4	0.12623101
115	0x3cff798b	0.031185886
116	0x3c9bf775	0.019038895
117	0x3d28184b	0.041038793
118	0x3c8f8651	0.017520102
119	0x3c7f9a4c	0.015600752
120	0x3c817d2f	0.015806763
121	0x3c548269	0.012970545
122	0x3ca9329d	0.020654017
123	0x3e195e1a	0.14977303
124	0x3c4a6a83	0.012354496
125	0x3caab9b8	0.02084051
126	0x3cd64cbe	0.02615964
127	0x3cd06d4b	0.02544274
128	0x3f5c7e5c	0.8613031
129	0x3dbe72a1	0.092992075
130	0x3ca0e2d6	0.019639414
131	0x3c97a316	0.018510383
132	0x3eb7dc41	0.35910228
133	0x3c733c87	0.014845974
134	0x3ca87712	0.02056459
135	0x3f40a7b7	0.7525591
136	0x3c92ec3e	0.017934915
137	0x3dc56b47	0.09639602
138	0x3ca54a06	0.020176899
139	0x3d257689	0.040396247
140	0x3d20fa4e	0.03930121
141	0x3ccb8afe	0.02484655
142	0x3c788d1a	0.01517036
143	0x3c94d68d	0.018168712
144	0x3d5d8bab	0.054088276
145	0x3c84b205	0.016198168
146	0x3cb7b2a0	0.022424042
147	0x3d4c9522	0.04994691
148	0x3ca170b3	0.01970706
149	0x3ccef9af	0.025265543
150	0x3e1fda5d	0.15610643
151	0x3cc3a09d	0.023880297
152	0x3c9dc65a	0.01925962
153	0x3c502da4	0.012706194
154	0x3c6e5ac5	0.014548008
155	0x3c9675cb	0.018366715
156	0x3c486c69	0.012232878
157	0x3c93add8	0.018027231
158	0x3f39d48b	0.7258994
159	0x3c4ade82	0.012382152
160	0x3c7e204a	0.015510628
161	0x3c83395f	0.016018568
162	0x3c90be53	0.017668879
163	0x3c737faa	0.01486198
164	0x3d0e6494	0.034763888
165	0x3ce5be99	0.028044986
166	0x3c62da0e	0.013845934
167	0x3c95e40b	0.018297216
168	0x3c9d82a9	0.019227343
169	0x3cadebce	0.021230604
170	0x3d3c837f	0.046023842
171	0x3cb5616d	0.022141183
172	0x3c8755f2	0.016520474
173	0x3c9ec33b	0.019380203
174	0x3cbe3702	0.02321959
175	0x3c409f32	0.011756705
176	0x3d5b4a3a	0.053537585
177	0x3d80097c	0.06251809
178	0x3c811854	0.01575867
179	0x3c919618	0.017771766
180	0x3caafb0f	0.020871667
181	0x3cbd479c	0.023105435
182	0x3c4f0697	0.0126358485
183	0x3c884f16	0.016639274
184	0x3ca0ced9	0.019629883
185	0x3c66d1f0	0.014088139
186	0x3c92be36	0.017912965
187	0x3c511dce	0.012763454
188	0x3c945819	0.018108414
189	0x3c7f1624	0.015569244
190	0x3d2c5700	0.042075157
191	0x3c665076	0.014057269
192	0x3c90bbee	0.017667737
193	0x3c754365	0.014969681
194	0x3c79d29e	0.015247969
195	0x3d633b3f	0.055476423
196	0x3c709a99	0.014685296
197	0x3c5dfa41	0.013548435
198	0x3d475a50	0.048670113
199	0x3cae14d0	0.021250159
200	0x3cbd4060	0.023101985
201	0x3c8eeb90	0.01744631
202	0x3c9354de	0.017984804
203	0x3f6a0905	0.9142001
204	0x3c8e3416	0.01735882
205	0x3f3f04d8	0.74616766
206	0x3c693533	0.014233875
207	0x3c7164ec	0.014733534
208	0x3c9119fe	0.01771259
209	0x3cadcdcf	0.021216301
210	0x3d2a179e	0.04152643
211	0x3cc8a2b3	0.024491644
212	0x3da23d63	0.07921865
213	0x3c951693	0.01819924
214	0x3c7f7844	0.015592638
215	0x3c2a54c8	0.01039619
216	0x3c9eeb4f	0.019399313
217	0x3c4b93d4	0.012425382
218	0x3c926cf4	0.017874219
219	0x3c9b7b4f	0.018979697
220	0x3c6eb12b	0.014568607
221	0x3cedca9c	0.029027276
222	0x3c9092a5	0.01764805
223	0x3c6dc229	0.014511623
224	0x3c9a624e	0.018845703
225	0x3cb228a0	0.021747887
226	0x3cd1f908	0.025631443
227	0x3c88d9d0	0.016705424
228	0x3ccaac5f	0.024740396
229	0x3c74756f	0.0149205765
230	0x3d03de20	0.032194257
231	0x3d34e69c	0.04416524
232	0x3c711234	0.014713813
233	0x3c56f4db	0.0131199015
234	0x3c3d2279	0.011543863
235	0x3cad7ebd	0.021178598
236	0x3cda5128	0.026650026
237	0x3cf6b4a4	0.030115433
238	0x3c96ef3f	0.018424628
239	0x3c9b2e6c	0.018943034
240	0x3f6d37e9	0.9266344
241	0x3cc8476d	0.024448121
242	0x3d55cb51	0.05219585
243	0x3da70336	0.08154909
244	0x3c7c1d54	0.015387852
245	0x3cc31290	0.023812562
246	0x3e5342ff	0.20631026
247	0x3c4e2e8a	0.012584338
248	0x3f2d0d84	0.6759875
249	0x3cc1d4b8	0.023661003
250	0x3c8e201e	0.017349299
251	0x3ccb0140	0.02478087
252	0x3c646af0	0.0139415115
253	0x3c70217d	0.014656422
254	0x3c830265	0.015992353
255	0x3cc71278	0.024300799

weight f4 [10, 74]
0	0xbdde00a6	-0.108399674
1	0x3dc7438c	0.097296804
2	0xbdc7474e	-0.09730397
3	0xbcfac15b	-0.030609777
4	0xbba2fe43	-0.004974158
5	0xbe2a2de2	-0.16619065
6	0x3df70fdf	0.12063574
7	0x3e9a7730	0.30169058
8	0x3dc31a2f	0.095264785
9	0x3ef5de63	0.4802123
10	0xbdb1890d	-0.086687185
11	0x3e4d7cf7	0.20067202
12	0x3d87e09d	0.066346385
13	0x3e3b5f92	0.18298176
14	0x3c085810	0.008321777
15	0xbd225396	-0.039630495
16	0xbd444873	-0.047920655
17	0x3ea56c34	0.32309115
18	0x3eb8028d	0.35939446
19	0x3e56be47	0.20971023
20	0xbe55f778	-0.20895183
21	0x3cdb405a	0.026764084
22	0x3d09f341	0.03367925
23	0x3e4c4c76	0.19951043
24	0x3ea87847	0.32904264
25	0xbeca2f3e	-0.39489168
26	0x3e3801d7	0.17969452
27	0xbea7bae1	-0.32759765
28	0x3ad1f016	0.0016016986
29	0x3e1e044b	0.15431325
30	0x3ee157db	0.4401234
31	0x3eda565e	0.42644018
32	0x3e013f83	0.12621884
33	0x3c2368bc	0.009973701
34	0xbdb10b65	-0.086447515
35	0x3e7c5f78	0.24645793
36	0x3ef6a383	0.48171625
37	0xba866e14	-0.0010256195
38	0x3e486ad0	0.19571996
39	0x3e3a3834	0.18185502
40	0x3e336a1c	0.17520946
41	0x3eb393d9	0.35073736
42	0x3c5fe684	0.013665799
43	0x3e2169d2	0.15763023
44	0x3c18dc47	0.009329862
45	0x3cb99c1e	0.02265745
46	0x3e7ef2b8	0.24897277
47	0x3eb72a59	0.35774496
48	0x3e68ba63	0.22727351
49	0x3ef072d9	0.46962622
50	0xbb6364e5	-0.003469759
51	0x3dd9bb14	0.106313854
52	0xbd10c86b	-0.035347383
53	0x3dabf6f7	0.08396714
54	0x3d97be56	0.074093506
55	0xbea935d7	-0.3304889
56	0x3dd2ad24	0.1028693
57	0x3e254f1c	0.16143459
58	0x3ec911db	0.39271435
59	0x3ed4d374	0.41567576
60	0x3da60a6e	0.08107458
61	0x3e809cc5	0.25119606
62	0x3e9f36b5	0.31096426
63	0xbbd19441	-0.006395847
64	0x3d200727	0.03906932
65	0xbe85bee8	-0.26122212
66	0xbebc27be	-0.3674907
67	0x3e033b31	0.12815548
68	0x3e44ee29	0.19231476
69	0x3e1a43b5	0.1506489
70	0x3db6078a	0.08888157
71	0x3e8dbd5b	0.2768353
72	0x3dc0b9c1	0.0941043
73	0x3f033d7d	0.512657
74	0xbd488045	-0.048950452
75	0x3deae4bd	0.114694096
76	0x3d83ba18	0.06431979
77	0x3e766c52	0.24064758
78	0x3e1a53bf	0.15071009
79	0xbdbdda7f	-0.092701904
80	0x3df65b1d	0.12029097
81	0x3e282e6b	0.16423957
82	0x3da48419	0.08033008
83	0x3e524e49	0.20537676
84	0x3c8cadbb	0.017172685
85	0x3e3404e7	0.17579995
86	0x3e06212e	0.13098595
87	0x3dc45e28	0.095882714
88	0x3e10b5be	0.14131829
89	0x3e736204	0.23767859
90	0xbc385fe2	-0.011253329
91	0x3e30bbf8	0.17259204
92	0x3e457682	0.19283488
93	0x3e0a5ddb	0.13512366
94	0xbe34fc2e	-0.17674324
95	0x3e24b2d3	0.16083841
96	0x3d92c188	0.071658194
97	0x3dacf6f5	0.08445541
98	0x3e048397	0.12940823
99	0xbe82b2da	-0.25527078
100	0x3dd3f50b	0.103494726
101	0xbe8e73ab	-0.27822623
102	0x3e5a1efa	0.21300879
103	0x3e1898c0	0.1490202
104	0x3de05e24	0.10955456
105	0x3e1a1c24	0.15049797
106	0x3e0c4b67	0.13700639
107	0x3e32038a	0.17384163
108	0x3e0c137e	0.1367931
109	0x3e087209	0.13324751
110	0x3e384f36	0.17998967
111	0x3ea558d3	0.3229433
112	0x3e34e929	0.17667069
113	0x3e29dfb4	0.16589242
114	0x3e1f8777	0.1557902
115	0x3e11ed7a	0.14250746
116	0x3c704ead	0.014667195
117	0x3dbeac99	0.09310264
118	0x3e0cae0f	0.13738273
119	0x3e3d3213	0.18476133
120	0x3dbcae8b	0.09212979
121	0x3d8cf281	0.068821914
122	0x3d95b540	0.07309961
123	0x3daa4726	0.08314352
124	0x3e9753f4	0.2955624
125	0x3e1e3646	0.15450391
126	0x3e93ed11	0.28891805
127	0x3d452496	0.048130594
128	0x3e091a6f	0.1338899
129	0xbe919888	-0.28436685
130	0x3da99a71	0.082814105
131	0x3dcd7bf1	0.100334056
132	0x3dfb0cea	0.122583225
133	0x3e173451	0.14766051
134	0x3dc99223	0.098423265
135	0x3d7bbbe1	0.061458472
136	0x3e06c980	0.13162804
137	0x3e293d94	0.16527396
138	0x3da3420c	0.07971582
139	0xbdcd69c7	-0.10029941
140	0xbea22eed	-0.31676427
141	0x3de95a05	0.11394123
142	0x3e398ca0	0.1812005
143	0x3db98bea	0.090598896
144	0x3e1e1388	0.15437138
145	0x3e2c2697	0.16811596
146	0x3dab351a	0.08359738
147	0x3e5c275f	0.21499394
148	0xbd25880e	-0.040412955
149	0x3e1626d0	0.14663243
150	0xbd19080b	-0.037361186
151	0x3c44e447	0.012017316
152	0x3d562573	0.052281808
153	0xbdfa9ae9	-0.12236578
154	0x3e1d9e56	0.15392432
155	0x3ea89676	0.32927293
156	0x3e255999	0.1614746
157	0x3ee1ac42	0.44076735
158	0xbd272383	-0.04080535
159	0x3e4a78de	0.1977267
160	0x3dbe3f2b	0.09289392
161	0x3e5032ec	0.20331925
162	0x3d81a154	0.06329599
163	0x3bde6e2b	0.0067880354
164	0x3c40bafe	0.011763332
165	0x3eabd5f3	0.33561668
166	0x3ea3f571	0.32023194
167	0x3e5929ef	0.21207403
168	0xbe437bc2	-0.19090179
169	0x3d995a68	0.07487947
170	0x3dc71833	0.097214125
171	0x3e4f4693	0.20241766
172	0x3eb4d892	0.3532148
173	0xbea34621	-0.31889442
174	0x3e3f93e4	0.1870876
175	0xbea59330	-0.32338858
176	0x3d435243	0.047685873
177	0x3e2254b4	0.15852624
178	0x3ec95cc9	0.39328602
179	0x3eefc9f2	0.4683376
180	0x3e10744f	0.14106868
181	0x3d285512	0.041096754
182	0x3b8fd2e0	0.004389152
183	0x3e8818b1	0.26581338
184	0x3ece15a9	0.402509
185	0x3cc63074	0.024193026
186	0x3e52d857	0.2059034
187	0x3e310326	0.17286357
188	0x3e2ffbcc	0.17185897
189	0x3eabb56c	0.3353685
190	0x3da72af1	0.08162487
191	0x3e2337e0	0.15939283
192	0x3d880deb	0.0664328
193	0x3d98ac71	0.074547656
194	0x3e8a51ba	0.27015477
195	0x3ec0b5e2	0.37638766
196	0x3e6e8073	0.23291187
197	0x3efa218d	0.48853722
198	0x3e0715d1	0.13191916
199	0x3e02837b	0.12745468
200	0xbcf6613e	-0.030075666
201	0x3e1660ae	0.14685318
202	0x3e048b39	0.12943734
203	0xbe7e78e3	-0.24850802
204	0x3e239fbd	0.15978904
205	0x3e2d2785	0.16909607
206	0x3edefbb2	0.43551403
207	0x3ebb0e0f	0.36534163
208	0x3e074b50	0.13212323
209	0x3e7fe7a3	0.24990706
210	0x3ea8db28	0.32979703
211	0x3d294a7e	0.041330807
212	0x3db36bcc	0.08760795
213	0xbe50a37a	-0.20374861
214	0xbeb67d19	-0.35642317
215	0x3e2033f1	0.15644814
216	0x3e488d59	0.1958517
217	0x3e22c1eb	0.15894286
218	0x3e0bc666	0.13649902
219	0x3e8e35f6	0.27775544
220	0x3e1cb4a5	0.15303285
221	0x3ed00734	0.40630496
222	0xbceccb32	-0.028905485
223	0x3e223e8c	0.15844172
224	0xbb3ff8b6	-0.002929253
225	0x3e0af489	0.13569845
226	0x3d96c31e	0.073614344
227	0xbdd99668	-0.10624391
228	0x3dce6dd8	0.10079545
229	0x3e50c72c	0.20388478
230	0x3c3cf5e8	0.011533238
231	0x3e8e0512	0.27738243
232	0x3c3b9f93	0.01145162
233	0x3e033584	0.12813383
234	0x3db604d8	0.088876426
235	0x3e14edfa	0.14543906
236	0x3d93f9f1	0.07225407
237	0x3de689bb	0.11256739
238	0x3d4de69c	0.050268754
239	0x3e729919	0.23691215
240	0x3e8658de	0.26239675
241	0x3e1c1b18	0.1524471
242	0xbe2a0da2	-0.16606763
243	0x3d96ff1e	0.073728785
244	0x3e09b457	0.134477
245	0x3e085cb3	0.13316612
246	0x3e62cfd8	0.22149599
247	0xbee40bb3	-0.44540176
248	0x3e00fcdd	0.1259646
249	0xbeaa2ace	-0.33235782
250	0x3e08652a	0.13319841
251	0x3ddc8d1a	0.107691005
252	0x3ebbe530	0.36698294
253	0x3e9d414d	0.30713883
254	0x3daaad81	0.083338745
255	0x3d9d4539	0.07679219

bias f4 [10]
0	0xbf6159ff	-0.8802795
1	0xbe8d9698	-0.27653956
2	0xbeec2823	-0.46124372
3	0xbf323d20	-0.6962452
4	0xbf0f32fc	-0.5593717
5	0xbf3d34a5	-0.73908454
6	0xbf458255	-0.77151996
7	0xbf94ea84	-1.1634068
8	0xbf126e87	-0.571999
9	0xbf1d22ce	-0.6138123

weight f4 [10, 10]
0	0x3e2e3181	0.17011072
1	0xbec8b3fa	-0.3919981
2	0xbed10b92	-0.4082914
3	0x3cf96278	0.030442461
4	0xbe16cf3c	-0.14727491
5	0xbc8257ae	-0.01591095
6	0xbe8e9f75	-0.2785603
7	0xbe5e6a1c	-0.21720165
8	0xbe3763b0	-0.17909122
9	0xbe98dcb3	-0.2985588
10	0xbc5371f2	-0.012905585
11	0x3db3da99	0.087819286
12	0x3a6f4685	0.00091276347
13	0x3d9b0932	0.07570113
14	0x3e84df17	0.25951454
15	0x3db6bd02	0.08922769
16	0xbe182e00	-0.14861298
17	0xbe1af241	-0.15131475
18	0xbe240242	-0.16016486
19	0xbe1b3241	-0.15155889
20	0xbeca0dc3	-0.39463624
21	0xbedfa223	-0.43678388
22	0xbe726a07	-0.23673259
23	0xbf079cd8	-0.529737
24	0xbe1f4ef3	-0.1555746
25	0xbef1601b	-0.47143635
26	0xbe9ef4ba	-0.31046087
27	0x3b6bb0e7	0.0035963596
28	0xbcc0716c	-0.023491584
29	0xbee7413a	-0.4516695
30	0xbe370abd	-0.1787519
31	0xbe2da65a	-0.1695799
32	0xbebcb0e8	-0.3685372
33	0xbeae24fa	-0.34012586
34	0xbe27cdfb	-0.16387169
35	0xbeab1c16	-0.33419865
36	0xbe16d508	-0.14729702
37	0xbd52ed42	-0.051495798
38	0xbe9924bf	-0.29910848
39	0x3dcc86df	0.09986662
40	0x3e3f5774	0.18685704
41	0x3ea7825b	0.3271664
42	0x3edef91f	0.4354944
43	0x3e08f690	0.13375306
44	0x3eb46142	0.35230452
45	0x3e0554a6	0.13020572
46	0x3e2e29eb	0.17008178
47	0x3e28c0be	0.16479775
48	0x3e353374	0.17695409
49	0x3de22147	0.110415034
50	0xbdf4a715	-0.11945931
51	0xbe0a1a04	-0.13486487
52	0x3c3b1722	0.0114190895
53	0xbe84f0f9	-0.25965098
54	0xbe366fd4	-0.17816097
55	0xbe588552	-0.21144608
56	0xbedc209c	-0.4299363
57	0xbd09e8c1	-0.033669237
58	0xbda1590e	-0.07878314
59	0xbe3c3b5f	-0.18382023
60	0xbe13733d	-0.14399429
61	0x3df77ce7	0.1208437
62	0xbd727e96	-0.059202753
63	0x3e20c895	0.15701516
64	0xbd42dcbf	-0.0475738
65	0x3dfffb5a	0.124991134
66	0x3dc49ca4	0.09600189
67	0xbdca8fbf	-0.09890699
68	0x3e1c87c4	0.15286165
69	0x3e95c3a1	0.29250816
70	0x3db8a426	0.09015684
71	0x3e13a7ec	0.14419526
72	0x3d609cee	0.05483716
73	0x3e8ee651	0.27910092
74	0xbdc0a63d	-0.094067074
75	0xbd39026f	-0.045168336
76	0x3e3109f7	0.17288958
77	0xbe3186e4	-0.17336613
78	0x3d410083	0.04711963
79	0xbc6b92f6	-0.0143783
80	0xbe56989b	-0.20956652
81	0xbf3843b7	-0.71978325
82	0xbe839b82	-0.2570458
83	0xbe2f81a6	-0.171393
84	0xbed09bdb	-0.40743908
85	0xbea61f38	-0.32445693
86	0xbd721295	-0.059099752
87	0xbeea638a	-0.45779067
88	0xbed31468	-0.41226506
89	0xbeec0451	-0.46097043
90	0xbe879bfe	-0.264862
91	0xbe6f95a9	-0.23396935
92	0xbe8ef795	-0.27923265
93	0xbeef745e	-0.4676847
94	0xbf359e3e	-0.70944583
95	0xbdc38da6	-0.09548502
96	0xbe6bdcf3	-0.23033504
97	0xbd720dc2	-0.05909515
98	0xbd031bc3	-0.032008898
99	0x3de96427	0.11396056

bias f4 [10]
0	0xbe87d4e5	-0.26529613
1	0x3e160e2a	0.1465384
2	0xbf0e095e	-0.55483043
3	0xbed600f7	-0.4179761
4	0x3d8a8fcb	0.067657076
5	0x3e7223ca	0.23646465
6	0x3e937dc5	0.28806892
7	0x3eaceb13	0.33773097
8	0xbed0991a	-0.40741807
9	0xbf438eba	-0.7638966
