mcspace/MCSPACE_paper/results/analysis/human_inulin/model.pt (torch, 348191 bytes, 99 tensors)

theta_params f4 [100, 50]
0	0xc135490c	-11.330334
1	0xc1339fa7	-11.226478
2	0xc1283592	-10.513079
3	0x40483fec	3.1289015
4	0x40345917	2.8179376
5	0xc11d91a5	-9.848058
6	0xc1311ec0	-11.070007
7	0xc130cdf3	-11.050281
8	0xc131c25b	-11.10995
9	0xc12bb6f9	-10.732171
10	0xc126a445	-10.415105
11	0xc1310ae7	-11.065162
12	0x4041c1bc	3.0274496
13	0xc1310ae7	-11.065162
14	0x411ff65d	9.997647
15	0xc1324ccf	-11.143752
16	0xc131dfa4	-11.1171
17	0xc11e704c	-9.902416
18	0xc12f5794	-10.958881
19	0xc12652dc	-10.395229
20	0xc0fee43b	-7.96536
21	0xc12d8864	-10.8457985
22	0xc13c1df8	-11.757317
23	0xc136714e	-11.402662
24	0x409a7afa	4.827512
25	0xc12ed975	-10.92809
26	0xc13108ca	-11.064646
27	0x407bd611	3.9349406
28	0x3e397a78	0.18113124
29	0xc11c8f9c	-9.785061
30	0xc12d73a0	-10.840729
31	0xc1243c6e	-10.264753
32	0xc12805c7	-10.5014105
33	0xc13117a0	-11.068268
34	0xc1335bee	-11.209944
35	0xc1395329	-11.582803
36	0x400219fc	2.032836
37	0xc131313c	-11.07452
38	0xc12e8941	-10.908509
39	0xc12661ed	-10.398908
40	0xc12c4c3b	-10.768611
41	0xc133fb37	-11.248832
42	0xc0fedc15	-7.9643655
43	0xc12fc467	-10.98545
44	0xc13124ec	-11.071514
45	0xc1115ff3	-9.085925
46	0xc12ea179	-10.914422
47	0xc1104882	-9.017702
48	0xc1310c8d	-11.065564
49	0xc129b16f	-10.605819
50	0x3fdb939e	1.7154424
51	0xc15bf968	-13.74839
52	0xbeed7993	-0.46381816
53	0x3fdb4e9e	1.7133367
54	0xc1504c57	-13.018638
55	0x408f2b2e	4.474021
56	0xc15e64a3	-13.8995695
57	0xc15048ca	-13.017771
58	0xc15240f3	-13.140857
59	0x404b7438	3.1789684
60	0x4006ee8a	2.1083093
61	0xc15e64a3	-13.8995695
62	0x403414db	2.813773
63	0xc15e64a3	-13.8995695
64	0x3ff6c208	1.9277964
65	0xc140a596	-12.040426
66	0xc15b5fde	-13.710905
67	0xc0311357	-2.7668054
68	0x402042fc	2.5040884
69	0x3efe78dc	0.49701583
70	0xc15e64a3	-13.8995695
71	0x3f2cb6b2	0.6746627
72	0xbfd2d4ef	-1.6471232
73	0xc15b59ad	-13.7093935
74	0xc15e5ff5	-13.898427
75	0x40b3e331	5.6214833
76	0x4016fc2b	2.359141
77	0x3f64aeed	0.89329416
78	0xc1565166	-13.394873
79	0x3e774d92	0.24150684
80	0xc15efc3d	-13.936582
81	0x4085ea06	4.1848173
82	0x3fc264fd	1.5187069
83	0xc15e64a3	-13.8995695
84	0x3f9e146e	1.2349985
85	0x3f884450	1.0645847
86	0x40b1cf30	5.5565414
87	0x401fea3d	2.4986718
88	0xbfc549ea	-1.5413182
89	0x3fc0bd48	1.5057764
90	0x4003c015	2.0585988
91	0xc15d6e4d	-13.839429
92	0xc14cc2fb	-12.797603
93	0xbf059f77	-0.5219645
94	0xc15e64a3	-13.8995695
95	0x4056a0a3	3.3535545
96	0xc0222553	-2.533528
97	0xc1401f4d	-12.007642
98	0xc15e64a4	-13.89957
99	0x40136784	2.303193
100	0xc1194d78	-9.581413
101	0xc10b3dd2	-8.702593
102	0xc108f0d9	-8.558801
103	0xc1116d90	-9.089249
104	0x3fa98522	1.3243754
105	0xc10e28d4	-8.884968
106	0xc117f25e	-9.496672
107	0xc117870e	-9.470472
108	0xc118816e	-9.531599
109	0xc10d5565	-8.833348
110	0xc117ed4c	-9.495434
111	0xc117f25e	-9.496672
112	0xc117da6e	-9.490828
113	0xc117f25e	-9.496672
114	0xc111e8e4	-9.119358
115	0xc107bafd	-8.483151
116	0xc10955fa	-8.58349
117	0x4038b479	2.8860152
118	0xc117bfad	-9.484296
119	0xc1116968	-9.088234
120	0xc116017d	-9.375363
121	0xc11a6722	-9.650179
122	0x4076c576	3.855802
123	0xc1194b81	-9.580934
124	0xc11cf46b	-9.809672
125	0xc105b1cd	-8.355908
126	0xc1164272	-9.391222
127	0xc1144835	-9.267629
128	0xc1140f33	-9.253711
129	0xc110798c	-9.029675
130	0xc11d4cc6	-9.8312435
131	0xc10ad4ae	-8.676924
132	0xc1094f22	-8.58182
133	0xc117f25e	-9.496672
134	0xc118f699	-9.5602045
135	0xc11406b7	-9.251639
136	0x413ecdeb	11.925273
137	0xc110de4a	-9.05427
138	0xc1186658	-9.524986
139	0xc117e3d7	-9.493125
140	0xc112dcd0	-9.178909
141	0xc11cbb9a	-9.795801
142	0xc1211001	-10.066407
143	0xc11f397d	-9.951535
144	0xc10aa294	-8.664692
145	0xc1121176	-9.129263
146	0xc111249a	-9.071436
147	0xc1137fb3	-9.218677
148	0xc118570e	-9.521254
149	0xc1154fec	-9.332012
150	0xc156664f	-13.399978
151	0xc14effb7	-12.93743
152	0xc014d7b4	-2.3256655
153	0xc09b7a49	-4.8586774
154	0xc1546787	-13.275275
155	0x404551dc	3.0831213
156	0xc15438be	-13.263853
157	0xc14c3610	-12.763199
158	0xc1554055	-13.328206
159	0xc1299365	-10.598485
160	0xc13a5992	-11.646868
161	0xc15438be	-13.263853
162	0x3f16dc37	0.5892977
163	0xc15438be	-13.263853
164	0xc148c79a	-12.548731
165	0x3e52e7de	0.20596263
166	0xc14e9e19	-12.913598
167	0x3f70abc8	0.9401212
168	0xc153b4f7	-13.231681
169	0xbfa9c17c	-1.3262172
170	0xc154879c	-13.283108
171	0x400dae2c	2.2137556
172	0x3f55f28f	0.8357324
173	0x3fac7f1c	1.3476291
174	0xc156f999	-13.435937
175	0xc15a9ff0	-13.664047
176	0xbfc6a299	-1.5518371
177	0xc15ab73b	-13.669734
178	0x402b58ce	2.6772952
179	0x3f9a9ebe	1.2079694
180	0xc15490cc	-13.285351
181	0x3ffd19bb	1.9773477
182	0x40f353de	7.6039877
183	0xc15438be	-13.263853
184	0x3ffc8cb4	1.9730439
185	0xbefc4b3b	-0.49276146
186	0x3fc00ea8	1.5004473
187	0xc1470640	-12.439026
188	0xc154b292	-13.293596
189	0xc1553fa4	-13.328037
190	0x4044e857	3.076681
191	0xc1538370	-13.219589
192	0xc14e64d0	-12.899612
193	0xc1487b82	-12.530153
194	0xc1544a88	-13.268196
195	0xc14f2599	-12.946679
196	0x3faaa665	1.333203
197	0x40496fcc	3.1474485
198	0xc1552f77	-13.324088
199	0x3f38c0f3	0.7216942
200	0xc13c2b67	-11.760596
201	0xc139bd5f	-11.608733
202	0xc136b70a	-11.419687
203	0xc137284e	-11.44734
204	0xc137168d	-11.443006
205	0x411570f1	9.340074
206	0xc13aecd8	-11.682823
207	0xc12c2202	-10.758303
208	0xc1392256	-11.570883
209	0xc13ba63f	-11.728087
210	0xc139643e	-11.586973
211	0xc13aecd8	-11.682823
212	0xc135d229	-11.363809
213	0xc13aecd8	-11.682823
214	0xbf4d6df5	-0.80245906
215	0x3f3e6842	0.74377835
216	0x3fadf241	1.3589555
217	0x40385024	2.8798914
218	0xc1345bad	-11.272382
219	0xc136c1a7	-11.422278
220	0xc1373e1c	-11.452663
221	0xc144d79d	-12.30264
222	0xc1414f95	-12.081929
223	0xc13a24ff	-11.634032
224	0xc13bb25e	-11.731047
225	0xbe5ebfae	-0.21752807
226	0xc12cdc01	-10.803712
227	0xc13f384d	-11.951245
228	0xc13e5c4e	-11.897535
229	0xc1323627	-11.138221
230	0x406df22c	3.717906
231	0xc10f0c5c	-8.940517
232	0xc13de2db	-11.867885
233	0xc13aecd8	-11.682823
234	0x40507af3	3.2575042
235	0xc12f3edf	-10.952849
236	0xc12c64f0	-10.774643
237	0x3f7abf05	0.9794772
238	0x4043e46e	3.0608172
239	0xc13a525f	-11.64511
240	0xc12e0b1e	-10.877714
241	0xc12ce1b2	-10.805101
242	0xc14027c4	-12.009708
243	0xc1392a63	-11.572848
244	0x3f5fb9fa	0.8739315
245	0xc12f977b	-10.974483
246	0x40421783	3.032685
247	0x403ead9c	2.9793463
248	0xc139a830	-11.603561
249	0xc13974bb	-11.590999
250	0x40940188	4.625187
251	0xc13bd2c6	-11.738958
252	0xc129cc88	-10.612434
253	0xc1369257	-11.4107275
254	0xc130cddf	-11.0502615
255	0xc1256377	-10.336783

q_mu f4 [7]
0	0xc07dd88c	-3.966342
1	0xc152552f	-13.145797
2	0xbffa6d7f	-1.9564666
3	0xbfbdbb34	-1.4822755
4	0xbffc2c39	-1.9700996
5	0xbfbba6ce	-1.466028
6	0xc01bb67a	-2.4330125

q_var f4 [7]
0	0xc1102387	-9.008674
1	0xbfc812b2	-1.5630705
2	0xc136ca58	-11.4244
3	0xc13a195e	-11.631193
4	0xc12c8f70	-10.785019
5	0xc13293b4	-11.16106
6	0xc1334c66	-11.206152

eps f4 [7]
0	0xbf8aee93	-1.0854057
1	0x3fc51592	1.5397208
2	0x3f2f8c7b	0.6857373
3	0xc01dda48	-2.4664478
4	0xbf1207df	-0.5704326
5	0xbf04a7b2	-0.5181838
6	0xbfc00887	-1.5002602

q_gamma_params f4 [99]
0	0xc0696888	-3.647005
1	0x40b71e1c	5.7224255
2	0x40bd9764	5.9247303
3	0x40c93559	6.287762
4	0x40ba9987	5.831241
5	0x40c322d2	6.0980005
6	0x40caa214	6.332285
7	0xc0a3f22f	-5.1233134
8	0x4004f204	2.0772715
9	0xc0d0a0e9	-6.5196424
10	0x40abfcf8	5.37463
11	0x406f91c4	3.7432718
12	0xc09c7c2b	-4.890157
13	0xbfdaaa6d	-1.708326
14	0x40b6a5cf	5.7077403
15	0xc0986e7d	-4.7634873
16	0xc03c2363	-2.9396598
17	0x40ac59ee	5.3859777
18	0x40bbca3d	5.8684373
19	0xc04999ee	-3.1500201
20	0xc05adf77	-3.4198892
21	0x40ad7e3e	5.4216604
22	0x40b3c11c	5.617323
23	0x40ada973	5.4269347
24	0x40b4a66c	5.645315
25	0x409978b4	4.7959843
26	0x408297b0	4.0810165
27	0x409dcc66	4.931201
28	0xc026d4f5	-2.6067479
29	0xbf9bf0e7	-1.2182893
30	0x40ccae55	6.396281
31	0x40b30e17	5.59547
32	0xc03ca32b	-2.947459
33	0x4097ff26	4.749896
34	0x3f3e34b7	0.74299186
35	0xc006bbc8	-2.1052113
36	0xc0a5962e	-5.1745825
37	0xc09bea5b	-4.872358
38	0xc0550d1d	-3.3289254
39	0x3f26d7b6	0.651729
40	0x40b322f2	5.598016
41	0x40cfc228	6.4924507
42	0xc0634b04	-3.5514536
43	0x3f8d0cec	1.1019568
44	0xc0dd188b	-6.909246
45	0x40831d03	4.0972915
46	0x40803df6	4.0075636
47	0xc0896be7	-4.2944217
48	0xc096fa84	-4.7180805
49	0x3ed7e88b	0.42169604
50	0xc067505f	-3.6142805
51	0x40b51055	5.6582437
52	0x40cbc6d2	6.36802
53	0x40b0f0a9	5.5293775
54	0x407723c5	3.8615582
55	0xbf7ca674	-0.9869149
56	0x4099d526	4.807269
57	0x401d94bb	2.4622028
58	0x403df6d0	2.9681892
59	0xc032f87c	-2.7964163
60	0x3ffac7b6	1.9592197
61	0x4082e729	4.090718
62	0xc0700345	-3.7501996
63	0xc0366570	-2.8499413
64	0x40a93486	5.2876616
65	0x40988b9d	4.7670426
66	0xc0b6464c	-5.696081
67	0xbf0bd8c6	-0.54627645
68	0xc0174ab0	-2.3639336
69	0xc008e457	-2.1389368
70	0xc00294e3	-2.0403373
71	0x3f1edac0	0.62052536
72	0x40b35ead	5.605307
73	0x409ae594	4.8405247
74	0xc0555a50	-3.3336372
75	0x40beb6db	5.959821
76	0xc0b2d680	-5.588684
77	0xc0b42d77	-5.63055
78	0x402b5997	2.6773431
79	0xc079ae6f	-3.9012716
80	0xc082acfd	-4.0836167
81	0x406c6c36	3.6941047
82	0xc083ea79	-4.122372
83	0xbf8e698a	-1.1125958
84	0xc06d8fcd	-3.711902
85	0x40a106aa	5.0320635
86	0xc0aa1dea	-5.3161516
87	0xc0abd370	-5.3695602
88	0x4036fe87	2.859285
89	0xc032097f	-2.7818296
90	0xc0b3522c	-5.6037807
91	0xc08928cd	-4.2862306
92	0xc0b2bcd0	-5.5855484
93	0xc0371b65	-2.861047
94	0x40a4db17	5.1517444
95	0x3faeabef	1.364622
96	0xc08580ac	-4.171957
97	0xc02d9c79	-2.7126753
98	0x40983bd8	4.757305

q_probs f4 [99]
0	0x3cd062bd	0.025437707
1	0x3f7f2a4b	0.9967391
2	0x3f7f5155	0.9973348
3	0x3f7f8668	0.9981446
4	0x3f7f4048	0.9970746
5	0x3f7f6d0f	0.99775785
6	0x3f7f8baf	0.99822515
7	0x3bc21a64	0.005923556
8	0x3f639d7c	0.8891218
9	0x3ac10898	0.0014727293
10	0x3f7ed206	0.9953922
11	0x3f7a19ab	0.97695416
12	0x3bf4b812	0.007468232
13	0x3e1df291	0.15424563
14	0x3f7f272a	0.99669135
15	0x3c0ac860	0.008470625
16	0x3d4decac	0.050274536
17	0x3f7ed556	0.99544275
18	0x3f7f473e	0.9971808
19	0x3d28ab39	0.041178916
20	0x3d01d858	0.031700462
21	0x3f7edfb0	0.9956007
22	0x3f7f12b5	0.9963792
23	0x3f7ee12f	0.9956235
24	0x3f7f1953	0.99648017
25	0x3f7de70c	0.99180675
26	0x3f7bc1d6	0.98342645
27	0x3f7e2aa9	0.99283844
28	0x3d8cd2eb	0.06876167
29	0x3e6a9502	0.22908404
30	0x3f7f92e5	0.9983352
31	0x3f7f0d7f	0.9962997
32	0x3d4c6689	0.049902473
33	0x3f7dcdfc	0.9914243
34	0x3f2d9e73	0.678199
35	0x3ddeea76	0.108845636
36	0x3bb87b61	0.0056299423
37	0x3bf92291	0.0076029976
38	0x3d0dc59e	0.03461229
39	0x3f28aa35	0.65884715
40	0x3f7f0e13	0.9963085
41	0x3f7f9ce0	0.9984875
42	0x3ce4bcec	0.027922116
43	0x3f4051da	0.75124896
44	0x3a82ca83	0.0009978566
45	0x3f7bd105	0.98365813
46	0x3f7b6f12	0.98216355
47	0x3c5cc33d	0.013474283
48	0x3c111c23	0.008856806
49	0x3f1b0d56	0.60567224
50	0x3cd7312a	0.02626856
51	0x3f7f1c3f	0.99652475
52	0x3f7f8fc3	0.9982874
53	0x3f7efcfb	0.9960477
54	0x3f7abc48	0.97943544
55	0x3e8c03b8	0.27346587
56	0x3f7decfa	0.9918972
57	0x3f6bf169	0.9216524
58	0x3f737e8d	0.95114976
59	0x3d6bc212	0.057558127
60	0x3f606a71	0.87662417
61	0x3f7bca75	0.983558
62	0x3cbc7624	0.023005553
63	0x3d6034b3	0.054737758
64	0x3f7eb68e	0.99497306
65	0x3f7dd76d	0.9915684
66	0x3b5b7f77	0.0033492723
67	0x3ebc332b	0.36757788
68	0x3db06d07	0.08614545
69	0x3dd866a3	0.105664514
70	0x3dec8d44	0.11550382
71	0x3f278ca8	0.65449
72	0x3f7f0fe0	0.996336
73	0x3f7dfe45	0.9921611
74	0x3d0d37c3	0.034477007
75	0x3f7f5757	0.99742645
76	0x3b74509e	0.0037279497
77	0x3b6a4dfa	0.0035752044
78	0x3f6faa77	0.93619484
79	0x3ca2859e	0.019839104
80	0x3c87cc93	0.01657704
81	0x3f79d129	0.9758478
82	0x3c82b8ab	0.015957197
83	0x3e7e5a86	0.2483922
84	0x3cc37862	0.023861114
85	0x3f7e573b	0.99351853
86	0x3ba03755	0.0048894086
87	0x3b97f322	0.004637138
88	0x3f722b13	0.94596976
89	0x3d6f87cd	0.05847912
90	0x3b70a254	0.003671785
91	0x3c5e912e	0.013584418
92	0x3b750faa	0.003739337
93	0x3d5ddd2d	0.054166008
94	0x3f7e8730	0.9942503
95	0x3f4c5d0c	0.7982948
96	0x3c791e08	0.015204914
97	0x3d7f75db	0.062368255
98	0x3f7dd27f	0.99149317

gamma f4 [100]
0	0x3f800000	1.0
1	0x00000000	0.0
2	0x3f800000	1.0
3	0x3f800000	1.0
4	0x3f800000	1.0
5	0x3f800000	1.0
6	0x3f800000	1.0
7	0x3f800000	1.0
8	0x00000000	0.0
9	0x3f800000	1.0
10	0x00000000	0.0
11	0x3f800000	1.0
12	0x3f800000	1.0
13	0x00000000	0.0
14	0x00000000	0.0
15	0x3f800000	1.0
16	0x00000000	0.0
17	0x00000000	0.0
18	0x3f800000	1.0
19	0x3f800000	1.0
20	0x00000000	0.0
21	0x00000000	0.0
22	0x3f800000	1.0
23	0x3f800000	1.0
24	0x3f800000	1.0
25	0x3f800000	1.0
26	0x3f800000	1.0
27	0x3f800000	1.0
28	0x3f800000	1.0
29	0x3f800000	1.0
30	0x3f800000	1.0
31	0x3f800000	1.0
32	0x3f800000	1.0
33	0x00000000	0.0
34	0x3f800000	1.0
35	0x3f800000	1.0
36	0x00000000	0.0
37	0x00000000	0.0
38	0x00000000	0.0
39	0x00000000	0.0
40	0x3f800000	1.0
41	0x3f800000	1.0
42	0x3f800000	1.0
43	0x00000000	0.0
44	0x3f800000	1.0
45	0x00000000	0.0
46	0x3f800000	1.0
47	0x3f800000	1.0
48	0x00000000	0.0
49	0x00000000	0.0
50	0x00000000	0.0
51	0x00000000	0.0
52	0x3f800000	1.0
53	0x3f800000	1.0
54	0x3f800000	1.0
55	0x3f800000	1.0
56	0x00000000	0.0
57	0x3f800000	1.0
58	0x3f800000	1.0
59	0x3f800000	1.0
60	0x00000000	0.0
61	0x3f800000	1.0
62	0x3f800000	1.0
63	0x00000000	0.0
64	0x00000000	0.0
65	0x3f800000	1.0
66	0x3f800000	1.0
67	0x00000000	0.0
68	0x3f800000	1.0
69	0x3f800000	1.0
70	0x00000000	0.0
71	0x00000000	0.0
72	0x00000000	0.0
73	0x3f800000	1.0
74	0x3f800000	1.0
75	0x00000000	0.0
76	0x3f800000	1.0
77	0x00000000	0.0
78	0x00000000	0.0
79	0x3f800000	1.0
80	0x00000000	0.0
81	0x00000000	0.0
82	0x3f800000	1.0
83	0x00000000	0.0
84	0x00000000	0.0
85	0x00000000	0.0
86	0x3f800000	1.0
87	0x00000000	0.0
88	0x00000000	0.0
89	0x3f800000	1.0
90	0x00000000	0.0
91	0x00000000	0.0
92	0x00000000	0.0
93	0x00000000	0.0
94	0x00000000	0.0
95	0x3f800000	1.0
96	0x3f800000	1.0
97	0x00000000	0.0
98	0x00000000	0.0
99	0x3f800000	1.0

KL_gamma_k f4 [99]
0	0x4651b2d1	13420.704
1	0x49006333	525875.2
2	0x490076d7	526189.44
3	0x4900918c	526616.75
4	0x49006e43	526052.2
5	0x490084cb	526412.7
6	0x49009434	526659.25
7	0x4543534c	3125.206
8	0x48e50d0d	469096.4
9	0x44423fa5	776.99445
10	0x490036c9	525164.56
11	0x48fbad95	515436.66
12	0x4576429b	3940.1628
13	0x479ef172	81378.89
14	0x490061a0	525850.0
15	0x458ba821	4469.016
16	0x46cf38da	26524.426
17	0x49003874	525191.25
18	0x490071c4	526108.25
19	0x46a9bb49	21725.643
20	0x4682a9c5	16724.885
21	0x49003da9	525274.56
22	0x49005755	525685.3
23	0x49003e6a	525286.6
24	0x49005aa9	525738.56
25	0x48ff811c	523272.88
26	0x48fd586e	518851.44
27	0x48ffc526	523817.2
28	0x470db61b	36278.105
29	0x47ec0f99	120863.195
30	0x490097d4	526717.25
31	0x490054b6	525643.4
32	0x46cdb041	26328.127
33	0x48ff67e3	523071.1
34	0x48aeb6c6	357814.2
35	0x47605224	57426.14
36	0x4539a4c5	2970.298
37	0x457ab438	4011.2637
38	0x468eaa49	18261.143
39	0x48a9ba87	347604.22
40	0x49005500	525648.0
41	0x49009cda	526797.6
42	0x46662dd7	14731.46
43	0x48c18863	396355.1
44	0x44039d3e	526.4569
45	0x48fd67b5	518973.66
46	0x48fd0524	518185.12
47	0x45de2736	7108.9014
48	0x45920617	4672.761
49	0x489c07ab	319549.34
50	0x46588c39	13859.056
51	0x49005c22	525762.1
52	0x49009641	526692.06
53	0x49004c66	525510.4
54	0x48fc5138	516745.75
55	0x480ce5b3	144278.8
56	0x48ff8713	523320.6
57	0x48ed6e71	486259.53
58	0x48f507c8	501822.25
59	0x46ed3e63	30367.193
60	0x48e1d4d7	462502.72
61	0x48fd611b	518920.84
62	0x463da615	12137.5205
63	0x46e19e62	28879.191
64	0x490028f7	524943.44
65	0x48ff7164	523147.12
66	0x44dce140	1767.0391
67	0x483d62f4	193931.81
68	0x473189ac	45449.67
69	0x4759c3cc	55747.797
70	0x476e0af2	60938.945
71	0x48a89b2d	345305.4
72	0x490055e8	525662.5
73	0x48ff987a	523459.8
74	0x468e1b89	18189.768
75	0x490079dd	526237.8
76	0x44f5da6b	1966.8256
77	0x44ebc7a2	1886.2385
78	0x48f12d82	493932.06
79	0x46238bb5	10466.927
80	0x4608a78f	8745.89
81	0x48fb649e	514852.94
82	0x46038b77	8418.866
83	0x47fff50b	131050.086
84	0x4644b3a0	12588.906
85	0x48fff200	524176.0
86	0x45213998	2579.5996
87	0x4518e811	2446.5042
88	0x48f3b229	499089.28
89	0x46f10a36	30853.105
90	0x44f22630	1937.1934
91	0x45dff80f	7167.0073
92	0x44f69aaa	1972.8333
93	0x46df4313	28577.537
94	0x49001122	524562.1
95	0x48cda70a	421176.3
96	0x45faafbd	8021.9673
97	0x470088fd	32904.99
98	0x48ff6c6e	523107.44

q_gamma_params f4 [100, 1]
0	0xc0c52dc6	-6.1618376
1	0xc0b64f74	-5.697199
2	0xc0cad936	-6.339015
3	0xc0ca4f97	-6.3222156
4	0xc0bfc9ee	-5.9933996
5	0xc0b1642a	-5.543477
6	0xc0b9cc5d	-5.8061967
7	0xc0ccd902	-6.40149
8	0xc0bb5b3b	-5.8548865
9	0xc0be65fc	-5.9499493
10	0xc0c6946c	-6.205618
11	0xc0c7d8bd	-6.2452073
12	0xc0ba08f6	-5.813594
13	0xc0ca9037	-6.3301044
14	0xc0ba79af	-5.827354
15	0xc0c12a09	-6.0363812
16	0xc0b82f30	-5.75576
17	0xc0c792a2	-6.2366495
18	0xc0c7fa27	-6.249286
19	0xc0c5c3d1	-6.1801534
20	0xc0b3f31f	-5.623428
21	0xc0c582cc	-6.1722164
22	0xc0b654b1	-5.6978383
23	0xc0bbb898	-5.8662834
24	0xc0bbd75a	-5.870038
25	0xc0c3400b	-6.1015677
26	0xc0ba6145	-5.8243737
27	0xc0bb0246	-5.8440275
28	0xc0ac9854	-5.3935947
29	0xc0d0ed2e	-6.5289526
30	0xc0c730ea	-6.224721
31	0xc0c0c3ee	-6.023917
32	0xc0b49f94	-5.6444798
33	0xc0ba3771	-5.8192677
34	0xc0be462c	-5.946066
35	0xc0b54da9	-5.66573
36	0xc0bd2980	-5.911316
37	0xc0b97715	-5.7957864
38	0xc0c52d05	-6.1617455
39	0xc0c50611	-6.1569905
40	0xc0c9f9b5	-6.311732
41	0xc0c4df4e	-6.152259
42	0xc0c5432c	-6.1644497
43	0xc0c03783	-6.0067763
44	0xc0c40f11	-6.126839
45	0xc0cba85a	-6.3643007
46	0xc0c33da8	-6.1012764
47	0xc0bc42cf	-5.8831553
48	0xc0c25175	-6.0724435
49	0xc0c004b0	-6.000572
50	0xc0c4abbb	-6.145963
51	0xc0c20926	-6.0636168
52	0xc0ca5c99	-6.3238034
53	0xc08544ac	-4.164633
54	0xc0bc33c9	-5.8813214
55	0xc0c42372	-6.129327
56	0xc0b72b06	-5.724002
57	0xc0c042e7	-6.008167
58	0xc0b84751	-5.7587056
59	0xc0bb1be4	-5.8471546
60	0xc0b62cad	-5.6929536
61	0xc0bf1271	-5.971001
62	0xc0bbb32d	-5.865622
63	0xc0c336c5	-6.1004357
64	0xc0c34896	-6.1026106
65	0xc0b2f650	-5.5925674
66	0xc0c733bf	-6.2250667
67	0xc0bf4e46	-5.978305
68	0xc0c799ce	-6.237525
69	0xc0b9dff9	-5.8085904
70	0xc0af16c0	-5.471527
71	0xc0becddc	-5.9626293
72	0xc0b3df02	-5.6209726
73	0xc0a22dd8	-5.068096
74	0xc0c39622	-6.1120768
75	0xc0bc9b83	-5.8939834
76	0xc0c1d142	-6.056794
77	0xc0c13e43	-6.0388503
78	0xc0ba570f	-5.8231273
79	0xc0bcf67e	-5.9050894
80	0xc0980db1	-4.7516713
81	0xc0c7f2ac	-6.248373
82	0xc0c5a2fe	-6.1761465
83	0xc0bf619a	-5.9806643
84	0xc0a6e7a1	-5.215775
85	0xc0cb0fac	-6.345663
86	0xc0b97503	-5.7955337
87	0xc0bcf8ab	-5.905355
88	0xc0bbd936	-5.870265
89	0xc0c56db6	-6.1696424
90	0xc0b13059	-5.537152
91	0xc0bd25a0	-5.910843
92	0x3d356aaa	0.044291176
93	0xc0c165f2	-6.0436945
94	0xc0b92209	-5.7854047
95	0xc0bfc75e	-5.993087
96	0xc0b70c04	-5.7202168
97	0xc0c88d61	-6.267258
98	0xc0c63b4a	-6.1947374
99	0xc0c563c9	-6.168431

gamma f4 [100, 1]
0	0x00000000	0.0
1	0x00000000	0.0
2	0x00000000	0.0
3	0x00000000	0.0
4	0x00000000	0.0
5	0x00000000	0.0
6	0x00000000	0.0
7	0x00000000	0.0
8	0x00000000	0.0
9	0x00000000	0.0
10	0x00000000	0.0
11	0x00000000	0.0
12	0x00000000	0.0
13	0x00000000	0.0
14	0x00000000	0.0
15	0x00000000	0.0
16	0x00000000	0.0
17	0x00000000	0.0
18	0x00000000	0.0
19	0x00000000	0.0
20	0x00000000	0.0
21	0x00000000	0.0
22	0x00000000	0.0
23	0x00000000	0.0
24	0x00000000	0.0
25	0x00000000	0.0
26	0x00000000	0.0
27	0x00000000	0.0
28	0x00000000	0.0
29	0x00000000	0.0
30	0x00000000	0.0
31	0x00000000	0.0
32	0x00000000	0.0
33	0x00000000	0.0
34	0x00000000	0.0
35	0x00000000	0.0
36	0x00000000	0.0
37	0x00000000	0.0
38	0x00000000	0.0
39	0x00000000	0.0
40	0x00000000	0.0
41	0x00000000	0.0
42	0x00000000	0.0
43	0x00000000	0.0
44	0x00000000	0.0
45	0x00000000	0.0
46	0x00000000	0.0
47	0x00000000	0.0
48	0x00000000	0.0
49	0x00000000	0.0
50	0x00000000	0.0
51	0x00000000	0.0
52	0x00000000	0.0
53	0x00000000	0.0
54	0x00000000	0.0
55	0x00000000	0.0
56	0x00000000	0.0
57	0x00000000	0.0
58	0x00000000	0.0
59	0x00000000	0.0
60	0x00000000	0.0
61	0x00000000	0.0
62	0x00000000	0.0
63	0x00000000	0.0
64	0x00000000	0.0
65	0x00000000	0.0
66	0x00000000	0.0
67	0x00000000	0.0
68	0x00000000	0.0
69	0x00000000	0.0
70	0x00000000	0.0
71	0x00000000	0.0
72	0x00000000	0.0
73	0x00000000	0.0
74	0x00000000	0.0
75	0x00000000	0.0
76	0x00000000	0.0
77	0x00000000	0.0
78	0x00000000	0.0
79	0x00000000	0.0
80	0x00000000	0.0
81	0x00000000	0.0
82	0x00000000	0.0
83	0x00000000	0.0
84	0x00000000	0.0
85	0x00000000	0.0
86	0x00000000	0.0
87	0x00000000	0.0
88	0x00000000	0.0
89	0x00000000	0.0
90	0x00000000	0.0
91	0x00000000	0.0
92	0x00000000	0.0
93	0x00000000	0.0
94	0x00000000	0.0
95	0x00000000	0.0
96	0x00000000	0.0
97	0x00000000	0.0
98	0x00000000	0.0
99	0x00000000	0.0

q_probs f4 [100, 1]
0	0x3b09e1ba	0.0021039085
1	0x3b5b288e	0.003344092
2	0x3ae711dc	0.0017629224
3	0x3aeaf9f4	0.0017927275
4	0x3b231d26	0.00248892
5	0x3b7f6f92	0.0038976413
6	0x3b44987d	0.0029998117
7	0x3ad9195b	0.0016563343
8	0x3b3b47a6	0.0028576641
9	0x3b2a5753	0.002599199
10	0x3b03fcdc	0.002013973
11	0x3afdbfe4	0.0019359556
12	0x3b432671	0.0029777552
13	0x3ae92285	0.0017786777
14	0x3b407d47	0.0029371546
15	0x3b1c4529	0.0023844934
16	0x3b4ebb7e	0.003154486
17	0x3affebaa	0.001952519
18	0x3afcb852	0.0019281006
19	0x3b0762e0	0.00206583
20	0x3b6be115	0.0035992314
21	0x3b08768c	0.0020822613
22	0x3b5b0559	0.0033419935
23	0x3b39296d	0.0028253451
24	0x3b3877c5	0.002814756
25	0x3b126dc1	0.002234325
26	0x3b4110cf	0.0029459482
27	0x3b3d51b6	0.0028887815
28	0x3b9446b9	0.0045250324
29	0x3abf27ec	0.0014584041
30	0x3b017eec	0.001975949
31	0x3b1e388f	0.0024142598
32	0x3b66fb7f	0.0035245118
33	0x3b420ce7	0.0029609741
34	0x3b2b007f	0.0026092825
35	0x3b6222dc	0.003450564
36	0x3b3104f1	0.0027011002
37	0x3b46a40a	0.0030310177
38	0x3b09e546	0.0021041199
39	0x3b0a8d60	0.0021141395
40	0x3aed7288	0.0018115798
41	0x3b0b349a	0.002124107
42	0x3b09864b	0.0020984586
43	0x3b20f38e	0.0024559232
44	0x3b0ec8a0	0.0021787062
45	0x3ae14f7e	0.0017189828
46	0x3b1277e3	0.002234929
47	0x3b36131e	0.002778239
48	0x3b16bf06	0.0023002042
49	0x3b21f3b4	0.0024711909
50	0x3b0c15d9	0.0021375327
51	0x3b181472	0.0023205546
52	0x3aea9a16	0.0017898704
53	0x3c7aa634	0.015298415
54	0x3b366da9	0.0027836359
55	0x3b0e6dc8	0.0021732915
56	0x3b5560f2	0.0032559005
57	0x3b20baf4	0.0024525495
58	0x3b4e2041	0.003145233
59	0x3b3cba18	0.0028797444
60	0x3b5c1617	0.0033582503
61	0x3b26cce0	0.0025451705
62	0x3b394944	0.002827243
63	0x3b12988c	0.0022368757
64	0x3b12471c	0.0022320217
65	0x3b733e96	0.0037116162
66	0x3b0173be	0.0019752826
67	0x3b2596ec	0.0025266958
68	0x3affb38b	0.0019508464
69	0x3b441f4e	0.0029925886
70	0x3b8934ad	0.0041871876
71	0x3b28333a	0.00256653
72	0x3b6c74f6	0.0036080456
73	0x3bccf6ea	0.0062550204
74	0x3b10e64a	0.002210992
75	0x3b341e83	0.0027484007
76	0x3b191eb0	0.0023364238
77	0x3b1be2be	0.0023786272
78	0x3b41725a	0.0029517622
79	0x3b3221b8	0.0027180742
80	0x3c0c4d04	0.008563284
81	0x3afcf375	0.001929863
82	0x3b07edb0	0.0020741038
83	0x3b253399	0.0025207757
84	0x3bb0f9fd	0.0054008947
85	0x3ae58abc	0.001751266
86	0x3b46b280	0.0030318797
87	0x3b321446	0.0027172728
88	0x3b386e2a	0.0028141835
89	0x3b08d05c	0.0020876145
90	0x3b805aec	0.0039170887
91	0x3b311d21	0.0027025419
92	0x3f02ed9f	0.5114383
93	0x3b1b2146	0.0023670956
94	0x3b48b6d5	0.0030626555
95	0x3b2328de	0.0024896185
96	0x3b563063	0.003268265
97	0x3af83a5f	0.0018938294
98	0x3b056dce	0.0020359638
99	0x3b08fa92	0.0020901305

weight f4 [10, 50]
0	0x3e0086ec	0.12551469
1	0x3e6658d3	0.22494821
2	0x3d84547c	0.064614266
3	0x3d4143e3	0.047183882
4	0x3e9d56a2	0.30730158
5	0xbe79543c	-0.24348539
6	0x3f6e72f0	0.9314413
7	0x3e88b296	0.2669875
8	0x3f3092d4	0.6897404
9	0xbe8c3225	-0.27382007
10	0xbcee17ac	-0.029064022
11	0x3f797adb	0.9745309
12	0x3d804271	0.06262673
13	0x3f734969	0.9503389
14	0xbe5868d7	-0.21133743
15	0x3e1d676b	0.15371482
16	0x3e22e194	0.15906364
17	0xbd8e74da	-0.069558814
18	0x3daebf0c	0.08532533
19	0x3e07058c	0.1318571
20	0x3e5077c6	0.2035819
21	0x3d6ae5ef	0.057348188
22	0x3ea9cadd	0.33162585
23	0x3e83f4ee	0.25772804
24	0x3e356712	0.177151
25	0x3d9ecbb4	0.07753697
26	0x3d775a50	0.060388863
27	0x3e59d53c	0.21272749
28	0x3e7693e1	0.24079849
29	0x3d69bfe6	0.057067774
30	0x3e85eff8	0.26159644
31	0xbe0fca97	-0.14042126
32	0xbde50956	-0.11183421
33	0x3f44a7de	0.76818645
34	0x3bdc995d	0.0067321495
35	0x3eb2984f	0.34881827
36	0xbed979ac	-0.4247564
37	0xbdbcd39b	-0.09220048
38	0x3f3ed4b7	0.7454333
39	0x3e2a8ffd	0.1665649
40	0x3cf0b89a	0.0293849
41	0x3f21afcc	0.6315887
42	0x3e1c056d	0.15236445
43	0x3e10a8bc	0.14126867
44	0x3f58c2d5	0.8467229
45	0xbe62bcb6	-0.221423
46	0x3e6bb069	0.23016514
47	0x3d33d2b3	0.04390211
48	0x3e955848	0.29168916
49	0x3bd74893	0.006569931
50	0x3e61d557	0.22054039
51	0x3e9f3cdc	0.3110112
52	0x3e2061c9	0.15662302
53	0x3e34f13f	0.17670153
54	0x3eb6569b	0.3561295
55	0xbe276471	-0.16346909
56	0x3fad30b4	1.3530488
57	0x3ea74835	0.32672277
58	0x3ee1b2ad	0.4408163
59	0xbe40c367	-0.1882454
60	0x3c8e2ee3	0.017356342
61	0x3f97d5c1	1.1862108
62	0x3e094e62	0.13408807
63	0x3fa141f1	1.2598249
64	0xbde6a2a0	-0.11261487
65	0x3e86ba27	0.26313898
66	0x3e84e869	0.25958565
67	0x3c2cbc19	0.010542893
68	0x3e0b8a83	0.13627057
69	0x3e504472	0.2033861
70	0x3e97adf5	0.29624906
71	0x3e30c642	0.1726313
72	0x3eb72d2e	0.35776657
73	0x3eb17ddd	0.3466634
74	0x3e9040a0	0.28174305
75	0x3e11693d	0.14200301
76	0x3e1ef310	0.15522408
77	0x3e9f6d95	0.31138292
78	0x3ea8cac9	0.32967213
79	0x3dea3ba5	0.114371575
80	0x3eabc033	0.33545074
81	0xbd9ce304	-0.07660487
82	0xbb531e2d	-0.003221403
83	0x3fb0122c	1.3755546
84	0x3ef97fb1	0.48730233
85	0x3ee10562	0.4394942
86	0xbe902500	-0.2815323
87	0xbc3f5608	-0.011678226
88	0x3f31d2f6	0.69462526
89	0x3e87e186	0.26539248
90	0x3dcd154c	0.10013828
91	0x3f2745d5	0.6534093
92	0x3e8c09b3	0.2735115
93	0x3e7d9a57	0.24765907
94	0x3f8c6e73	1.0971206
95	0xbdc4b18b	-0.09604176
96	0x3ea69104	0.32532513
97	0x3d9a9b2b	0.07549127
98	0x3ec87985	0.39155212
99	0x3dbe2413	0.09284224
100	0x3e3fcca1	0.18730403
101	0x3e95dfe4	0.29272377
102	0x3e04c22c	0.12964696
103	0x3e1004d0	0.14064336
104	0x3eb91eb6	0.36156243
105	0xbe45452b	-0.19264667
106	0x3f418fd7	0.7561011
107	0x3ea7b4ce	0.3275513
108	0x3f470283	0.7773821
109	0xbe7f3bbf	-0.24925135
110	0x3c3005ee	0.010743601
111	0x3f47799f	0.77919954
112	0x3e036c6e	0.12834331
113	0x3f9c0d95	1.2191645
114	0xbe23f65e	-0.1601195
115	0x3e66f1dc	0.225532
116	0x3e61b50c	0.2204172
117	0x3c178af9	0.009249442
118	0x3e0b5e8c	0.13610286
119	0x3e579e02	0.21056369
120	0x3e8bc661	0.2729979
121	0x3e107781	0.14108087
122	0x3eb41f99	0.35180357
123	0x3ea5fbac	0.32418573
124	0x3e7c42be	0.24634835
125	0x3e0ad04d	0.13556023
126	0x3e0ba9b9	0.13638963
127	0x3e8fe10b	0.28101382
128	0x3e9b7b01	0.30367282
129	0x3deb5605	0.11491016
130	0x3ea275fb	0.31730637
131	0xbd90fe17	-0.07079714
132	0xbd2f2940	-0.04276395
133	0x3f74f148	0.95680666
134	0x3db0d367	0.08634072
135	0x3ece094e	0.40241474
136	0xbeb9cb10	-0.36287737
137	0xbd1d9a18	-0.038477033
138	0x3f547874	0.82996297
139	0x3e6b948a	0.23005882
140	0x3db08a12	0.08620085
141	0x3f8d80c4	1.1054921
142	0x3e660a10	0.22464776
143	0x3e50ec18	0.20402563
144	0x3f74d286	0.95633733
145	0xbe449ccc	-0.19200438
146	0x3e970e65	0.2950317
147	0x3de2fe1b	0.11083623
148	0x3eb337d6	0.35003537
149	0x3da131d0	0.07870829
150	0x3e25adc5	0.16179569
151	0x3e7f00a2	0.24902585
152	0x3dcdbae9	0.10045416
153	0x3db78c66	0.08962326
154	0x3e97b737	0.2963197
155	0xbe5b2f71	-0.21404816
156	0x3fb851b2	1.4399931
157	0x3e842762	0.25811297
158	0x3eda8810	0.42681932
159	0xbe638e65	-0.22222288
160	0xbd48aa98	-0.048990816
161	0x3fafb685	1.3727576
162	0x3d5f37ad	0.054496456
163	0x3f9790b6	1.1841037
164	0xbe3b2efb	-0.1827964
165	0x3e4d7c05	0.20066841
166	0x3e5407f5	0.2070616
167	0xbd8e9004	-0.069610626
168	0x3d217690	0.03941971
169	0x3de20ede	0.11037992
170	0x3e6b43d2	0.2297509
171	0x3dbe54bb	0.09293505
172	0x3e953eb6	0.29149407
173	0x3e9067d8	0.28204226
174	0x3e62a1ae	0.22131988
175	0x3d61b6ab	0.055105846
176	0x3d8151aa	0.06314404
177	0x3e7e5bb8	0.24839675
178	0x3e8b8ee7	0.27257463
179	0x3d6470db	0.05577169
180	0x3e8c6a6a	0.27424937
181	0xbe18acb8	-0.14909637
182	0xbd87decd	-0.06634293
183	0x3fbc7a9b	1.4724916
184	0x3e941344	0.28920949
185	0x3ec90a69	0.39265755
186	0xbeaee0bb	-0.3415583
187	0xbda400fa	-0.08007999
188	0x3f3bd08f	0.7336511
189	0x3e52c30c	0.20582217
190	0x3d680b64	0.056651488
191	0x3f0c022f	0.5469083
192	0x3e575a88	0.21030629
193	0x3e4c4889	0.19949545
194	0x3f52f987	0.82412
195	0xbe1cb9f7	-0.15305315
196	0x3e86d718	0.26335979
197	0x3c8c4c6e	0.017126288
198	0x3ea9e26f	0.33180568
199	0x3cc18fec	0.023628198
200	0x3e856f20	0.26061344
201	0x3ea94b0d	0.33065072
202	0x3e1685d6	0.14699492
203	0x3e51ecb2	0.20500448
204	0x3eac6377	0.33669636
205	0xbe22c716	-0.15896258
206	0x3ed060f9	0.40698984
207	0x3ea6a266	0.32545775
208	0x3e4f6fb3	0.20257454
209	0xbb5953fc	-0.003316163
210	0xbe32133e	-0.17390153
211	0x3f1afab5	0.605388
212	0x3daf874c	0.08570728
213	0x3ecdc072	0.40185887
214	0xbe498a39	-0.19681634
215	0x3e7f7d57	0.24950157
216	0x3e916441	0.283968
217	0xbbdf6e2a	-0.0068185525
218	0x3d3075ff	0.04308128
219	0x3e36d333	0.17854004
220	0x3e870a01	0.2637482
221	0x3dc4df85	0.096129455
222	0x3e770eea	0.24126783
223	0x3e6d213f	0.23157214
224	0x3e37ec2b	0.17961185
225	0x3ed05420	0.40689182
226	0x3dc7bf9a	0.09753342
227	0x3e3554fb	0.17708199
228	0x3e84b818	0.25921702
229	0x3db98676	0.090588495
230	0x3eb593d5	0.3546435
231	0xbe970859	-0.29498556
232	0xbe38ad44	-0.18034846
233	0x3f07d71c	0.53062606
234	0x3d3d86b2	0.046271034
235	0x3e7e2a75	0.24820884
236	0xbedfd73d	-0.437189
237	0xbd1a4353	-0.03766186
238	0x3ec68f4d	0.38781205
239	0x3e5a701a	0.21331826
240	0xbb7f2ec1	-0.003893778
241	0x3eca8bf4	0.395599
242	0x3ea7a496	0.32742757
243	0x3e8602f3	0.26174125
244	0x3ee073a7	0.43838236
245	0xbe7510be	-0.23932168
246	0x3e9738e6	0.29535598
247	0xbd77c670	-0.06049198
248	0x3e887034	0.26648104
249	0x3c759a48	0.014990397
250	0x3de62bba	0.11238809
251	0x3e5d62c1	0.21619703
252	0x3d82beea	0.0638407
253	0x3d6fb40e	0.058521323
254	0x3e8a0cd8	0.26962924
255	0xbe6e2251	-0.23255278

bias f4 [10]
0	0xbf54e4c3	-0.8316156
1	0xbf95f401	-1.1715089
2	0xbf66f711	-0.90220743
3	0xbfa2e05d	-1.272472
4	0xbf01bfdc	-0.5068338
5	0xbf8f1a09	-1.117982
6	0xbf777145	-0.9665721
7	0xbf6f2137	-0.93410057
8	0xbf8fc3e4	-1.1231656
9	0x3e4928e0	0.19644499

weight f4 [10, 10]
0	0xbfda5103	-1.7055973
1	0xbf39280b	-0.72326726
2	0xbfcffb17	-1.6248502
3	0xbf54b404	-0.8308718
4	0xbff9a81e	-1.950443
5	0xbf7640a0	-0.9619236
6	0xbf76a28d	-0.9634178
7	0xc00e977b	-2.2279956
8	0xbfdde2ce	-1.733484
9	0xc028a688	-2.6351643
10	0xbf798da3	-0.97481745
11	0xbf71bd68	-0.94429636
12	0xbf3d8f13	-0.7404644
13	0xbf4f1197	-0.80886215
14	0xbef02928	-0.469064
15	0xbf4a3368	-0.7898469
16	0xbf4c0925	-0.79701453
17	0xbf353ba4	-0.7079413
18	0xbf562aa4	-0.83658814
19	0xbf8e9a3e	-1.1140821
20	0xbf527660	-0.82211876
21	0xbf019953	-0.5062458
22	0xbf864e7e	-1.0492704
23	0xbf38aeb6	-0.7214159
24	0xbf65a266	-0.89700925
25	0xbf55f741	-0.83580405
26	0xbf0e49b1	-0.55581194
27	0xbf654a40	-0.8956642
28	0xbf1dad91	-0.61592966
29	0xbf755ab0	-0.95841503
30	0xbf6b32c7	-0.91874355
31	0xbf519c18	-0.81878805
32	0xbf83edc8	-1.030694
33	0xbf51ec52	-0.8200122
34	0xbf7190b0	-0.943614
35	0xbf49d300	-0.78837585
36	0xbfa3cd15	-1.2796961
37	0xbf835a00	-1.0261841
38	0xbf84fccf	-1.0389651
39	0xbfac87e3	-1.3478969
40	0xbfacd387	-1.3502053
41	0xbf1f85a7	-0.6231331
42	0xbf97377c	-1.1813807
43	0xbedf7536	-0.43644112
44	0xbf868ce3	-1.0511745
45	0xbf88b033	-1.0678772
46	0xbf8dd647	-1.1081017
47	0xbf8c6026	-1.0966842
48	0xbf9c2886	-1.2199867
49	0xbfbb7152	-1.4643958
50	0xbfae4747	-1.3615502
51	0xbf4dbb1f	-0.8036365
52	0xbfc2bc71	-1.5213758
53	0xbf2f6a55	-0.68521625
54	0xbfe0e668	-1.7570314
55	0xbf789638	-0.97104216
56	0xbf9c97da	-1.2233841
57	0xbfea009a	-1.8281434
58	0xbf9c8d06	-1.2230537
59	0xc011d79a	-2.2787843
60	0xbf2da435	-0.67828685
61	0xbf6d6b66	-0.92742
62	0xbf35c0c4	-0.7099726
63	0xbf22cc04	-0.63592553
64	0xbf7dc7b1	-0.9913283
65	0xbf4e9915	-0.80702335
66	0xbf3d6aed	-0.7399128
67	0xbf4a286b	-0.7896792
68	0xbf1cc252	-0.6123401
69	0xbf692635	-0.91073924
70	0x3e3a892d	0.18216391
71	0x3df03cb6	0.1173033
72	0x3e4ed434	0.20198137
73	0x3db272e2	0.087133184
74	0x3e0c10f4	0.13678342
75	0x3df9bad6	0.12193839
76	0x3e1974a1	0.14985897
77	0x3e0e8182	0.13916591
78	0x3e0a0030	0.13476634
79	0x3e2ecad9	0.17069568
80	0xbf9d16fe	-1.2272642
81	0xbf867d1d	-1.0506932
82	0xbfc2dce2	-1.5223658
83	0xbf7eb9d3	-0.99502295
84	0xbfa4c3df	-1.2872275
85	0xbf83d9e6	-1.0300872
86	0xbf742a7f	-0.95377344
87	0xbfa466e4	-1.28439
88	0xbf7080fd	-0.9394682
89	0xbfc26eb9	-1.519004
90	0xbfb0e663	-1.3820308
91	0xbf4de67e	-0.8042983
92	0xbf825dd5	-1.0184885
93	0xbf7f5c9b	-0.9975068
94	0xbf8a2eab	-1.0795492
95	0xbf96a32d	-1.1768547
96	0xbf8722af	-1.055746
97	0xbfbe3047	-1.4858483
98	0xbf758552	-0.95906556
99	0xbfe1b2f2	-1.7632735

bias f4 [10]
0	0xc00ca794	-2.1977282
1	0xbf777766	-0.9666656
2	0xbf25d3c5	-0.6477626
3	0xbfa6ac80	-1.3021393
4	0xbf8c942b	-1.0982717
5	0xc000e86f	-2.0141866
6	0xbf6b09d4	-0.9181187
7	0x3f81991f	1.0124854
8	0xbff17a21	-1.8865396
9	0xbf8facb4	-1.122458

weight f4 [100, 10]
0	0xbdebedb1	-0.115199454
1	0xbeae1f44	-0.3400823
2	0x3de3d87b	0.11125275
3	0x3e4d2de4	0.20037037
4	0xbe3ba0ba	-0.18323031
5	0xbb8d5c53	-0.0043139844
6	0xbe64f319	-0.2235836
7	0xbbc75fec	-0.006084433
8	0x3e867fd0	0.26269388
9	0x3e75fa57	0.24021278
10	0x3f102837	0.56311363
11	0x3ea08cc7	0.31357405
12	0x3d0ebd59	0.034848545
13	0x3eec2d7f	0.4612846
14	0x3ece1913	0.40253505
15	0x3ee02f15	0.4378592
16	0x3d0b2749	0.033973012
17	0x3efa53e2	0.48892123
18	0x3e5ccbdf	0.21562146
19	0x3eb253ca	0.3482955
20	0x3ed1a275	0.40944257
21	0xbe984753	-0.29741916
22	0xbe22979f	-0.15878151
23	0x3d92ee43	0.07174351
24	0xbe152f49	-0.14568819
25	0x3c635fa7	0.013877786
26	0x3e82deba	0.25560552
27	0x3dd082b6	0.10181181
28	0x3ed02f7a	0.40661222
29	0x3e8e8e54	0.27842963
30	0xbd9fae9e	-0.077969775
31	0xbe7b65ed	-0.245506
32	0xbe71c263	-0.23609309
33	0xbebd7c65	-0.37008968
34	0xbdf4e8c6	-0.119584605
35	0xbd4ec057	-0.0504764
36	0xbe5a75de	-0.21334025
37	0xbe28ce20	-0.1648488
38	0xbe93d36a	-0.28872234
39	0xbeae0708	-0.3398974
40	0x3e8c115a	0.27356988
41	0x3e4caec5	0.19988544
42	0x3ebba0a8	0.36646008
43	0x3daf6601	0.085643776
44	0x3ec9d2f2	0.3941875
45	0x3a232e4b	0.0006224855
46	0x3ebe2efb	0.37145218
47	0x3e3709f1	0.17874886
48	0x3edfe180	0.4372673
49	0x3d06aa6f	0.032877382
50	0x3d31dc95	0.043423254
51	0xbee11df6	-0.4396817
52	0xbe5cbcf5	-0.21556456
53	0xbcacf083	-0.021110779
54	0x3e1a890b	0.1509134
55	0x3ea3dfe1	0.32006744
56	0xbe705d38	-0.2347306
57	0x3b9a3d08	0.0047069825
58	0xbbac0640	-0.0052497685
59	0x3e4fe364	0.20301586
60	0x3f3d6ade	0.7399119
61	0x3daf0518	0.085458934
62	0x3e8fa6f1	0.28057054
63	0x3e545eab	0.20739238
64	0x3efc03f4	0.49221766
65	0x3e3088a8	0.1723963
66	0x3db78a2a	0.089618996
67	0xbdbca5f9	-0.09211344
68	0x3e2f5633	0.17122726
69	0x3e2f42f0	0.17115378
70	0xbeaac154	-0.33350623
71	0xbceb678f	-0.028735904
72	0x3da6e96a	0.08149989
73	0xbec9449f	-0.39310166
74	0xbe61b622	-0.22042134
75	0xbe545711	-0.20736338
76	0x3dbc15d8	0.09183854
77	0xbe06bda1	-0.13158275
78	0x3db8ebf8	0.090293825
79	0xbe146faa	-0.14495721
80	0x3e90f05b	0.28308377
81	0x3f22362b	0.63363904
82	0x3eb19e0a	0.34690887
83	0x3ea9e155	0.33179727
84	0xbe22d94a	-0.15903202
85	0x3e1dddd6	0.15416655
86	0x3f0dd092	0.5539638
87	0x3da3acaa	0.079919174
88	0x3e7063b3	0.23475532
89	0xbae733b9	-0.0017639316
90	0xbe910f96	-0.28332204
91	0xbf0fef33	-0.56224364
92	0xbf1c94fc	-0.6116483
93	0xbf00fbfe	-0.5038451
94	0xbe9ccc52	-0.30624634
95	0xbeaabb70	-0.33346128
96	0xbe523a17	-0.20529972
97	0xbda970d5	-0.08273474
98	0xbf0dee05	-0.55441314
99	0xbe05a569	-0.1305138
100	0xbdaae150	-0.08343756
101	0x3f01c6d0	0.5069399
102	0xbc6b2900	-0.014353037
103	0x3d940597	0.07227629
104	0x3e90a109	0.2824786
105	0x3e72e5ce	0.23720476
106	0xbe5cfaaa	-0.21579996
107	0xbde34fc1	-0.11099196
108	0xbd45b0db	-0.048264366
109	0x3df0a69c	0.11750528
110	0xbf17fbd6	-0.59368646
111	0xbe1507db	-0.14553778
112	0xbe8f3afe	-0.27974695
113	0xbf469b11	-0.7758036
114	0xbea1d8c9	-0.31610706
115	0xbf0c3b18	-0.5477767
116	0xbece30fb	-0.40271744
117	0xbe5efa1b	-0.21775095
118	0xbe9871bc	-0.29774272
119	0xbe9535c2	-0.29142576
120	0xbebec788	-0.37261605
121	0x3e847410	0.258698
122	0xbe602135	-0.21887667
123	0x3e1cdcc8	0.15318596
124	0xbc4df8bd	-0.012571511
125	0x3d63c0c3	0.055603754
126	0xbea6aaa4	-0.32552063
127	0xbe8adeb4	-0.27123034
128	0xbe5bf266	-0.21479186
129	0xbeb7899f	-0.35847184
130	0x3d448be6	0.04798498
131	0xbe3fab21	-0.18717624
132	0x3eb02cf1	0.34409288
133	0xbe17c6cb	-0.14821927
134	0x3e9d1547	0.30680296
135	0x3df62187	0.120181136
136	0xbe82a260	-0.25514507
137	0xbe3c1dd9	-0.18370761
138	0x3e556f3c	0.20843214
139	0xbd08bf8b	-0.033385795
140	0x3c20a79e	0.009805588
141	0xbe93632a	-0.28786594
142	0xbcb354ce	-0.021891024
143	0x3e2ee60d	0.17079945
144	0x3e9f3532	0.31095272
145	0xbe3ba0dc	-0.18323082
146	0x3ebc3ccd	0.36765137
147	0xbe593cf3	-0.21214657
148	0xbe2d42f7	-0.16920076
149	0x3a82191d	0.0009925697
150	0x3ea74081	0.326664
151	0xbda5b545	-0.08091215
152	0xbe4f1ce7	-0.20225869
153	0x3e9372c8	0.2879851
154	0x3ec225b6	0.37919396
155	0x3ef20d03	0.47275552
156	0xbe00cde4	-0.12578541
157	0x3d9aedbc	0.075648755
158	0xbd1f2707	-0.03885558
159	0x3ec02857	0.37530777
160	0xbe5748fb	-0.21023934
161	0xbde3790c	-0.11107072
162	0x3ed4adbe	0.41538805
163	0x3e80a28b	0.2512401
164	0x3d989926	0.07451086
165	0xbe4c2337	-0.19935308
166	0x3da94a5d	0.08266137
167	0x3ea1fe96	0.31639546
168	0x3e808d86	0.25107974
169	0xbd40335a	-0.046923973
170	0xbe31d435	-0.17366107
171	0xbeb8beab	-0.36082968
172	0xbec32444	-0.38113606
173	0xbee0ae82	-0.4388314
174	0xbe7ca024	-0.24670464
175	0xbeab50bb	-0.3346003
176	0xbd50fedd	-0.051024307
177	0xbead3b79	-0.33834437
178	0xbf09d002	-0.5383302
179	0xbe33fc7c	-0.17576784
180	0x3dfb1383	0.12259581
181	0xbeaa281c	-0.33233726
182	0x3db5d83b	0.08879133
183	0xbdbc5863	-0.09196546
184	0x3cf8b72e	0.030360784
185	0xbd286f7f	-0.041121956
186	0xbe8d3ba6	-0.2758457
187	0xbd345382	-0.04402495
188	0xbd54aa3a	-0.051920153
189	0x3e878591	0.2646909
190	0x3e32b190	0.17450547
191	0x3b72b460	0.0037033781
192	0x3e5c9d13	0.21544294
193	0x3ebe74d0	0.37198496
194	0x3eba3700	0.36370087
195	0xbe22bff4	-0.15893537
196	0xbccafc8d	-0.024778629
197	0x3c6db9a1	0.014509589
198	0x3e3694fb	0.17830269
199	0x3d6508e9	0.0559167
200	0xbda5f38c	-0.081030935
201	0xbeec6fef	-0.4617915
202	0xbf049d03	-0.5180208
203	0xbef4227d	-0.47682562
204	0xbe053fb1	-0.13012578
205	0xbede9fb8	-0.4348123
206	0xbe64dfb9	-0.22350968
207	0x3e1e38ca	0.15451351
208	0xbf0cbf4a	-0.54979384
209	0xbea2a021	-0.31762794
210	0xbe58ad70	-0.21159911
211	0xbcc07722	-0.023494307
212	0xbf245af9	-0.64201313
213	0xbf1e08c4	-0.61732125
214	0xbeae50a6	-0.34045905
215	0xbe95bd1e	-0.29245847
216	0xbeea7556	-0.45792645
217	0xbbb68012	-0.0055694664
218	0xbf1fbdc0	-0.6239891
219	0xbf35014e	-0.70705116
220	0xbeaaf1c3	-0.33387575
221	0xbe870ff6	-0.26379365
222	0x3e52b7a0	0.2057786
223	0x3e0ebdef	0.13939641
224	0xbe61bf7e	-0.22045705
225	0x3d343fc0	0.04400611
226	0xbe800e4f	-0.25010917
227	0xbe0c5a79	-0.13706388
228	0xbd0c755b	-0.034291606
229	0xbe5424ae	-0.20717117
230	0x3f0a5302	0.5403291
231	0x3e5b6a74	0.21427327
232	0x3f049042	0.5178262
233	0x3ee7148c	0.45132864
234	0x3e5eb7fe	0.21749875
235	0x3e4b41eb	0.19849364
236	0x3e78cb3d	0.24296279
237	0x3d9a4713	0.075330876
238	0x3f055350	0.5208025
239	0x3dc5bde3	0.09655359
240	0x3dcab285	0.09897331
241	0xbd969ddf	-0.0735433
242	0x3eb704e8	0.3574593
243	0x3ec4128b	0.38295397
244	0x3ee135ed	0.43986455
245	0x3eb8eabd	0.3611659
246	0x3eec341d	0.4613351
247	0x3dff8b2b	0.12477716
248	0x3e2c5931	0.16830899
249	0x3eb10ebc	0.34581554
250	0x3cffc8a7	0.031223608
251	0x3dc48222	0.09595133
252	0xbe900a8b	-0.28133044
253	0xbedd10f9	-0.43177012
254	0xbee7b4ab	-0.45255026
255	0xbe8eb53c	-0.27872646

bias f4 [100]
0	0x3e60c438	0.21949852
1	0xbc71de8f	-0.014762535
2	0x3e91a4d8	0.28446078
3	0xbdc46720	-0.09589982
4	0x3e9a9e3c	0.30198848
5	0x3d971425	0.07376889
6	0x3e736f13	0.2377284
7	0xbe006af5	-0.12540801
8	0x3eabe4a2	0.3357287
9	0xbeb8022e	-0.35939163
10	0x3d935cda	0.071954444
11	0xbed8f6bc	-0.42375743
12	0x3e5aa1fe	0.21350858
13	0xbd9e3106	-0.07724194
14	0x3e06e325	0.13172586
15	0x3e0eae2b	0.13933627
16	0x3e1bd604	0.15218359
17	0xbded702d	-0.115936615
18	0x3e76ae55	0.2408994
19	0xbd69384b	-0.05693845
20	0xbe2f1d00	-0.17100906
21	0xbd69dc51	-0.057094876
22	0x3d5a8c2b	0.05335633
23	0x3c226421	0.009911568
24	0x3d54811c	0.05188094
25	0xbdb5e0db	-0.088807784
26	0xbf02a8ca	-0.510388
27	0x3b9c9487	0.004778448
28	0x3dd5fd86	0.104487464
29	0x3e23de2e	0.16002724
30	0x3e2841be	0.16431329
31	0xbda378a8	-0.07981998
32	0xbe639ca1	-0.22227718
33	0x3edfe233	0.43727264
34	0xbe86af5a	-0.26305658
35	0x3d9bc809	0.07606513
36	0x3e84ce1f	0.25938508
37	0xbd696c13	-0.056987833
38	0xbdf04829	-0.117325135
39	0x3e826df2	0.25474507
40	0x3e2919f2	0.16513804
41	0x3e439832	0.19101027
42	0x3c36433e	0.01112443
43	0x3e4e3e84	0.20141035
44	0xbe62eee7	-0.22161447
45	0xbe80a90c	-0.25128973
46	0xbe290ca0	-0.16508722
47	0x3e2be40e	0.16786215
48	0xbe6f7146	-0.23383054
49	0x3e01e8b9	0.12686433
50	0xbe95d793	-0.29266033
51	0xbe1ae463	-0.15126185
52	0xbe8aabcf	-0.27084205
53	0x3edccc7e	0.43124765
54	0x3e4e7f5e	0.20165774
55	0x3dae2851	0.085037835
56	0xbe3ff985	-0.18747528
57	0xbe4f1b18	-0.20225179
58	0xbe25b31c	-0.16181606
59	0xbd8cb04d	-0.06869564
60	0x3ec28858	0.37994647
61	0xbdc28008	-0.09497076
62	0x3cd5a834	0.026081182
63	0x3df99ae6	0.12187748
64	0xbe56f3cf	-0.20991443
65	0xbd572c7e	-0.052532665
66	0x3d870b48	0.065939486
67	0x3d85abd7	0.065269165
68	0x3d864fce	0.0655819
69	0x3d99c6fc	0.075086564
70	0x3d5bde66	0.053678893
71	0xbecc6fb0	-0.3992896
72	0x3e69462f	0.22780679
73	0xbef55384	-0.4791528
74	0x3e91f5c8	0.2850783
75	0xbe99fb62	-0.30074602
76	0x3ee9a0f1	0.456306
77	0x3d0b42d3	0.033999275
78	0x3ebf6380	0.373806
79	0xbd401572	-0.04689545
80	0xbdd0fab8	-0.10204071
81	0x3d4d90a6	0.050186776
82	0x3dfb76fb	0.12278553
83	0x3e0b7c5c	0.13621658
84	0xbf2c0a9d	-0.67203695
85	0x3e39c9bb	0.1814336
86	0x3d90beed	0.07067666
87	0xbcf45150	-0.02982393
88	0x3ea4ffa0	0.32226276
89	0xbda2c48a	-0.07947643
90	0x3e294763	0.16531138
91	0x3ee064c6	0.43826884
92	0xbeb4ec5c	-0.35336578
93	0x3ef3029e	0.47462934
94	0xbd53b612	-0.051687308
95	0x3e978c25	0.2959911
96	0x3d85e41f	0.06537651
97	0xbe8cff63	-0.27538595
98	0x3e4704ea	0.19435468
99	0xbd00967b	-0.03139351

weight f4 [100, 10]
0	0x3eb47568	0.35245824
1	0x3f7d96ca	0.9905821
2	0x3fa4a891	1.2863942
3	0x3f2f7e04	0.6855166
4	0x3f58e619	0.847261
5	0x3f0969c1	0.5367699
6	0x3fa75e15	1.3075587
7	0x3fc44234	1.5332704
8	0x3f0b422b	0.5439784
9	0x3f044a5c	0.51675963
10	0x3f367594	0.7127316
11	0x3f77f222	0.9685384
12	0x3f7a77a3	0.978388
13	0x3f830148	1.0234766
14	0x3f8aaafd	1.0833431
15	0x3f2fb1a0	0.6863041
16	0x3fa77525	1.3082625
17	0x3fc08b31	1.5042478
18	0x3f221273	0.633094
19	0x3f0f41a4	0.55959535
20	0x3f0a4efb	0.54026765
21	0x3f9dbae0	1.2322655
22	0x3f8f4a1f	1.1194495
23	0x3f86aaff	1.0520934
24	0x3f88b905	1.0681463
25	0x3f2a34e8	0.6648698
26	0x3f6ae3c2	0.9175378
27	0x3fc68cee	1.5511758
28	0x3f808ebf	1.0043563
29	0x3f79f444	0.97638345
30	0x3df972e6	0.12180118
31	0x3fa88aa7	1.3167313
32	0x3f7278a9	0.9471536
33	0x3f6273f5	0.88458186
34	0x3f65935e	0.8967799
35	0x3e8ee5c1	0.27909663
36	0x3f99888b	1.1994795
37	0x3fdc14df	1.7193869
38	0x3f36df1c	0.7143419
39	0x3f7007da	0.9376198
40	0x3f7901b7	0.9726824
41	0x3fb7293d	1.430946
42	0x3f89effb	1.0776361
43	0x3f40ac17	0.7526259
44	0x3f903058	1.1264753
45	0x3f6ce0bd	0.92530423
46	0x3f8229e0	1.0169029
47	0x3fd4c124	1.6621442
48	0x3f4cc499	0.79987484
49	0x3fa38b00	1.2776794
50	0x3f5c7a21	0.86123854
51	0x3fdd7bca	1.7303402
52	0x3fc8777e	1.5661466
53	0x3fab758d	1.3395249
54	0x3fa08cfd	1.2543026
55	0x3f83de01	1.0302125
56	0x3fad7e16	1.3554103
57	0x3fc4b2d6	1.5367076
58	0x3fa54778	1.2912436
59	0x3faad551	1.3346349
60	0x3ee71651	0.45134214
61	0x3fb42085	1.4072424
62	0x3f5e1a55	0.8675893
63	0x3f9a75f7	1.206725
64	0x3fa3a439	1.2784492
65	0x3e8b625a	0.27223474
66	0x3f9802e8	1.1875887
67	0x3fe94b0b	1.8226026
68	0x3f3826f3	0.7193443
69	0x3f86bab6	1.052573
70	0x3ec378e0	0.38178158
71	0x3f513b87	0.81731457
72	0x3f991dd2	1.1962225
73	0x3f6ac0e2	0.91700566
74	0x3f3168dc	0.6930063
75	0x3ef7780d	0.4833378
76	0x3f6377ab	0.88854474
77	0x3fe674d8	1.8004408
78	0x3ee0e5f7	0.4392545
79	0x3f3f441b	0.74713296
80	0x3f269232	0.65066826
81	0x3fe513df	1.7896689
82	0x3fa4d45f	1.287731
83	0x3f2cc400	0.6748657
84	0x3f9db454	1.2320657
85	0x3f2db99a	0.6786133
86	0x3f84c2ba	1.0371926
87	0x3fc5393b	1.540809
88	0x3f9bbaad	1.2166344
89	0x3f83b0a4	1.0288281
90	0x3f29c308	0.6631322
91	0x3fbd0cd1	1.4769536
92	0x3f9559a6	1.1667984
93	0x3f383fc6	0.7197231
94	0x3f466afb	0.7750699
95	0x3f811638	1.0084906
96	0x3f8d6c7e	1.1048734
97	0x3fc0cdc0	1.506279
98	0x3f19448e	0.5987023
99	0x3f5cc12b	0.8623225
100	0x3f44c5b5	0.76864177
101	0x3f81826c	1.0117927
102	0x3f8c7a30	1.0974789
103	0x3f78d3e1	0.971983
104	0x3f865b0f	1.0496539
105	0x3f53979d	0.8265322
106	0x3f6680c5	0.90040237
107	0x3fcdfaf5	1.6092211
108	0x3f35695e	0.708639
109	0x3f255b3e	0.6459235
110	0x3ea11613	0.31462154
111	0x3f5cf113	0.8630535
112	0x3fa5e920	1.2961769
113	0x3f5bcbb7	0.8585772
114	0x3f8e11a5	1.1099135
115	0x3f2dc75d	0.6788233
116	0x3f5dcfd1	0.8664523
117	0x3fc73d1d	1.5565525
118	0x3f517117	0.81813186
119	0x3f68e479	0.9097362
120	0x3eee0019	0.4648445
121	0x3f8a0c65	1.0785033
122	0x3fa0986f	1.2546519
123	0x3f85c006	1.0449226
124	0x3fab4ecd	1.3383423
125	0x3f5636bf	0.83677286
126	0x3f9e21c9	1.235406
127	0x3fc32418	1.524539
128	0x3f658183	0.89650744
129	0x3fb45a1c	1.4089999
130	0x3f62cdc9	0.88595253
131	0x3fa1e0ef	1.2646769
132	0x3fdab299	1.7085754
133	0x3fb2481f	1.392826
134	0x3f97b418	1.1851835
135	0x3f3add03	0.7299349
136	0x3f8f9011	1.121584
137	0x3fe8b8df	1.8181418
138	0x3f6e5582	0.93099225
139	0x3f80e522	1.0069926
140	0x3e1c7bb9	0.15281571
141	0x3f995281	1.1978303
142	0x3f52bd06	0.82319677
143	0x3f8282f5	1.0196215
144	0x3f8bd66b	1.092481
145	0x3ef78f66	0.48351592
146	0x3f6c90b0	0.92408276
147	0x3fc7bb4e	1.5604036
148	0x3f3fa383	0.74858874
149	0x3f6c1372	0.9221717
150	0x3f5034c7	0.8133053
151	0x3f6e54b8	0.9309802
152	0x3f3a053b	0.7266423
153	0x3f3d9da5	0.7406867
154	0x3f443dcb	0.7665679
155	0x3f6c1e88	0.92234087
156	0x3f86a4d4	1.0519052
157	0x3fc11e8d	1.5087448
158	0x3f921dcd	1.1415344
159	0x3f851b22	1.0398905
160	0x3f08f16a	0.5349337
161	0x3f7eb7b1	0.9949904
162	0x3fc56939	1.5422736
163	0x3fa7a2ef	1.3096598
164	0x3f864cc6	1.0492179
165	0x3f9c09ec	1.2190528
166	0x3fc1b22b	1.5132498
167	0x3fbe9e07	1.4891976
168	0x3f7c0c8b	0.9845664
169	0x3fb66a48	1.4251184
170	0x3f1c4dde	0.61056316
171	0x3fa79822	1.3093302
172	0x3f8480b0	1.0351772
173	0x3f2a1ea8	0.6645303
174	0x3fb60288	1.4219522
175	0x3ef265d6	0.4734332
176	0x3f5b0669	0.85556656
177	0x3fc74346	1.5567405
178	0x3f5d54b4	0.8645737
179	0x3f904474	1.127089
180	0x3eb87748	0.36028504
181	0x3f890491	1.0704519
182	0x3facc4fa	1.3497612
183	0x3f827b27	1.0193833
184	0x3f821cb5	1.0165011
185	0x3ead0c15	0.3379828
186	0x3f4f0dfd	0.8088072
187	0x3fca8276	1.5821064
188	0x3f7ff5a3	0.99984187
189	0x3f8c6f05	1.097138
190	0x3ef80c49	0.48446873
191	0x3f78ddc8	0.9721341
192	0x3f64a0a6	0.8930763
193	0x3f817677	1.0114278
194	0x3f4505cf	0.7696199
195	0x3f3341a0	0.7002201
196	0x3f2d663c	0.6773412
197	0x3fdfcd26	1.7484481
198	0x3eed8fcb	0.46398768
199	0x3eedd77e	0.4645347
200	0x3f803d1a	1.0018647
201	0x3fda662f	1.7062434
202	0x3faba138	1.3408575
203	0x3fa8d213	1.318911
204	0x3fa4937f	1.2857512
205	0x3f8fecc6	1.1244133
206	0x3fd5f84b	1.6716398
207	0x3fbca637	1.4738225
208	0x3f9fe423	1.2491497
209	0x3fdea6b3	1.7394623
210	0x3f07413e	0.52833927
211	0x3f8c5295	1.0962702
212	0x3fa80ec8	1.3129511
213	0x3f830cda	1.0238297
214	0x3f709d3f	0.9398994
215	0x3ef93adc	0.4867772
216	0x3f804ac0	1.0022812
217	0x3fcd0b57	1.6019086
218	0x3f3b7561	0.7322598
219	0x3f2d30a9	0.67652375
220	0x3f18b296	0.596475
221	0x3f9638c9	1.173608
222	0x3fc9eaa6	1.5774734
223	0x3f940c55	1.1566263
224	0x3f6d067b	0.92588013
225	0x3f2f8aeb	0.68571347
226	0x3f66b067	0.9011292
227	0x3fc5e412	1.5460227
228	0x3f8b10c3	1.086449
229	0x3f8e304a	1.1108487
230	0x3f9a98cc	1.207788
231	0x3f9bb4a6	1.2164505
232	0x3fc422f5	1.5323168
233	0x3f92d3ea	1.1470921
234	0x3fabf756	1.3434856
235	0x3faa6bdd	1.3314167
236	0x3f988621	1.1915933
237	0x3fc0fa2e	1.5076349
238	0x3f8225a3	1.0167736
239	0x3f8f4949	1.119424
240	0x3f928206	1.144593
241	0x3fd53d9f	1.665943
242	0x3f81191d	1.0085789
243	0x3f8e357f	1.1110076
244	0x3f8dfe4f	1.1093234
245	0x3f6bea5a	0.9215447
246	0x3faa760a	1.3317273
247	0x3fd014e7	1.6256379
248	0x3f9409b2	1.1565459
249	0x3f91f31e	1.1402318
250	0x3f20b680	0.6277847
251	0x3f867349	1.0503932
252	0x3f865c06	1.0496833
253	0x3f4231ce	0.75857246
254	0x3f849bda	1.0360062
255	0x3f2a546d	0.66535074
